…
I1010 21:35:37.441468 17952 net.cpp:340] The NetState phase (0) differed from the phase (1) specified by a rule in layer accuracy
I1010 21:35:37.441596 17952 net.cpp:74] Initializing net from parameters: 
name: "CIFAR10_full"
state {
  phase: TRAIN
  level: 0
  stage: ""
}
layer {
  name: "cifar"
  type: "RemoteData"
  top: "data"
  top: "label"
  include {
    phase: TRAIN
  }
  remote_data_param {
    address: "tcp://127.0.0.1:4050"
    cache_size: 1
    shape {
      dim: 25
      dim: 3
      dim: 32
      dim: 32
    }
    shape {
      dim: 25
    }
  }
}
layer {
  name: "conv1"
  type: "Convolution"
  bottom: "data"
  top: "conv1"
  param {
    lr_mult: 1
  }
  param {
    lr_mult: 2
  }
  convolution_param {
    num_output: 32
    pad: 2
    kernel_size: 5
    stride: 1
    weight_filler {
      type: "gaussian"
      std: 0.0001
    }
    bias_filler {
      type: "constant"
    }
  }
}
layer {
  name: "pool1"
  type: "Pooling"
  bottom: "conv1"
  top: "pool1"
  pooling_param {
    pool: MAX
    kernel_size: 3
    stride: 2
  }
}
layer {
  name: "relu1"
  type: "ReLU"
  bottom: "pool1"
  top: "pool1"
}
layer {
  name: "norm1"
  type: "LRN"
  bottom: "pool1"
  top: "norm1"
  lrn_param {
    local_size: 3
    alpha: 5e-05
    beta: 0.75
    norm_region: WITHIN_CHANNEL
  }
}
layer {
  name: "conv2"
  type: "Convolution"
  bottom: "norm1"
  top: "conv2"
  param {
    lr_mult: 1
  }
  param {
    lr_mult: 2
  }
  convolution_param {
    num_output: 32
    pad: 2
    kernel_size: 5
    stride: 1
    weight_filler {
      type: "gaussian"
      std: 0.01
    }
    bias_filler {
      type: "constant"
    }
  }
}
layer {
  name: "relu2"
  type: "ReLU"
  bottom: "conv2"
  top: "conv2"
}
layer {
  name: "pool2"
  type: "Pooling"
  bottom: "conv2"
  top: "pool2"
  pooling_param {
    pool: AVE
    kernel_size: 3
    stride: 2
  }
}
layer {
  name: "norm2"
  type: "LRN"
  bottom: "pool2"
  top: "norm2"
  lrn_param {
    local_size: 3
    alpha: 5e-05
    beta: 0.75
    norm_region: WITHIN_CHANNEL
  }
}
layer {
  name: "conv3"
  type: "Convolution"
  bottom: "norm2"
  top: "conv3"
  convolution_param {
    num_output: 64
    pad: 2
    kernel_size: 5
    stride: 1
    weight_filler {
      type: "gaussian"
      std: 0.01
    }
    bias_filler {
      type: "constant"
    }
  }
}
layer {
  name: "relu3"
  type: "ReLU"
  bottom: "conv3"
  top: "conv3"
}
layer {
  name: "pool3"
  type: "Pooling"
  bottom: "conv3"
  top: "pool3"
  pooling_param {
    pool: AVE
    kernel_size: 3
    stride: 2
  }
}
layer {
  name: "ip1"
  type: "InnerProduct"
  bottom: "pool3"
  top: "ip1"
  param {
    lr_mult: 1
    decay_mult: 250
  }
  param {
    lr_mult: 2
    decay_mult: 0
  }
  inner_product_param {
    num_output: 10
    weight_filler {
      type: "gaussian"
      std: 0.01
    }
    bias_filler {
      type: "constant"
    }
  }
}
layer {
  name: "loss"
  type: "SoftmaxWithLoss"
  bottom: "ip1"
  bottom: "label"
  top: "loss"
}
I1010 21:35:37.441694 17952 layer_factory.hpp:77] Creating layer cifar
I1010 21:35:37.441859 17953 cpu_info.cpp:436] Number of OpenMP threads: 1
I1010 21:35:37.441946 17953 net.cpp:340] The NetState phase (0) differed from the phase (1) specified by a rule in layer cifar
I1010 21:35:37.441961 17953 net.cpp:340] The NetState phase (0) differed from the phase (1) specified by a rule in layer accuracy
I1010 21:35:37.442075 17953 net.cpp:74] Initializing net from parameters: 
name: "CIFAR10_full"
state {
  phase: TRAIN
  level: 0
  stage: ""
}
layer {
  name: "cifar"
  type: "RemoteData"
  top: "data"
  top: "label"
  include {
    phase: TRAIN
  }
  remote_data_param {
    address: "tcp://127.0.0.1:4050"
    cache_size: 1
    shape {
      dim: 25
      dim: 3
      dim: 32
      dim: 32
    }
    shape {
      dim: 25
    }
  }
}
layer {
  name: "conv1"
  type: "Convolution"
  bottom: "data"
  top: "conv1"
  param {
    lr_mult: 1
  }
  param {
    lr_mult: 2
  }
  convolution_param {
    num_output: 32
    pad: 2
    kernel_size: 5
    stride: 1
    weight_filler {
      type: "gaussian"
      std: 0.0001
    }
    bias_filler {
      type: "constant"
    }
  }
}
layer {
  name: "pool1"
  type: "Pooling"
  bottom: "conv1"
  top: "pool1"
  pooling_param {
    pool: MAX
    kernel_size: 3
    stride: 2
  }
}
layer {
  name: "relu1"
  type: "ReLU"
  bottom: "pool1"
  top: "pool1"
}
layer {
  name: "norm1"
  type: "LRN"
  bottom: "pool1"
  top: "norm1"
  lrn_param {
    local_size: 3
    alpha: 5e-05
    beta: 0.75
    norm_region: WITHIN_CHANNEL
  }
}
layer {
  name: "conv2"
  type: "Convolution"
  bottom: "norm1"
  top: "conv2"
  param {
    lr_mult: 1
  }
  param {
    lr_mult: 2
  }
  convolution_param {
    num_output: 32
    pad: 2
    kernel_size: 5
    stride: 1
    weight_filler {
      type: "gaussian"
      std: 0.01
    }
    bias_filler {
      type: "constant"
    }
  }
}
layer {
  name: "relu2"
  type: "ReLU"
  bottom: "conv2"
  top: "conv2"
}
layer {
  name: "pool2"
  type: "Pooling"
  bottom: "conv2"
  top: "pool2"
  pooling_param {
    pool: AVE
    kernel_size: 3
    stride: 2
  }
}
layer {
  name: "norm2"
  type: "LRN"
  bottom: "pool2"
  top: "norm2"
  lrn_param {
    local_size: 3
    alpha: 5e-05
    beta: 0.75
    norm_region: WITHIN_CHANNEL
  }
}
layer {
  name: "conv3"
  type: "Convolution"
  bottom: "norm2"
  top: "conv3"
  convolution_param {
    num_output: 64
    pad: 2
    kernel_size: 5
    stride: 1
    weight_filler {
      type: "gaussian"
      std: 0.01
    }
    bias_filler {
      type: "constant"
    }
  }
}
layer {
  name: "relu3"
  type: "ReLU"
  bottom: "conv3"
  top: "conv3"
}
layer {
  name: "pool3"
  type: "Pooling"
  bottom: "conv3"
  top: "pool3"
  pooling_param {
    pool: AVE
    kernel_size: 3
    stride: 2
  }
}
layer {
  name: "ip1"
  type: "InnerProduct"
  bottom: "pool3"
  top: "ip1"
  param {
    lr_mult: 1
    decay_mult: 250
  }
  param {
    lr_mult: 2
    decay_mult: 0
  }
  inner_product_param {
    num_output: 10
    weight_filler {
      type: "gaussian"
      std: 0.01
    }
    bias_filler {
      type: "constant"
    }
  }
}
layer {
  name: "loss"
  type: "SoftmaxWithLoss"
  bottom: "ip1"
  bottom: "label"
  top: "loss"
}
I1010 21:35:37.442157 17953 layer_factory.hpp:77] Creating layer cifar
I1010 21:35:37.442255 17952 net.cpp:116] Creating Layer cifar
I1010 21:35:37.442296 17952 net.cpp:426] cifar -> data
I1010 21:35:37.442306 17951 cpu_info.cpp:436] Number of OpenMP threads: 1
I1010 21:35:37.442322 17952 net.cpp:426] cifar -> label
I1010 21:35:37.442342 17944 tcp_configuration.cpp:268] accepted client from address: tcp://127.0.0.1:1396
I1010 21:35:37.442358 17952 net.cpp:166] Setting up cifar
I1010 21:35:37.442373 17952 net.cpp:173] Top shape: 25 3 32 32 (76800)
I1010 21:35:37.442383 17952 net.cpp:173] Top shape: 25 (25)
I1010 21:35:37.442389 17952 net.cpp:181] Memory required for data: 307300
I1010 21:35:37.442397 17952 layer_factory.hpp:77] Creating layer conv1
I1010 21:35:37.442420 17952 net.cpp:116] Creating Layer conv1
I1010 21:35:37.442404 17951 net.cpp:340] The NetState phase (0) differed from the phase (1) specified by a rule in layer cifar
I1010 21:35:37.442419 17951 net.cpp:340] The NetState phase (0) differed from the phase (1) specified by a rule in layer accuracy
I1010 21:35:37.442435 17952 net.cpp:452] conv1 <- data
I1010 21:35:37.442447 17952 net.cpp:426] conv1 -> conv1
I1010 21:35:37.442596 17953 net.cpp:116] Creating Layer cifar
I1010 21:35:37.442577 17951 net.cpp:74] Initializing net from parameters: 
name: "CIFAR10_full"
state {
  phase: TRAIN
  level: 0
  stage: ""
}
layer {
  name: "cifar"
  type: "RemoteData"
  top: "data"
  top: "label"
  include {
    phase: TRAIN
  }
  remote_data_param {
    address: "tcp://127.0.0.1:4050"
    cache_size: 1
    shape {
      dim: 25
      dim: 3
      dim: 32
      dim: 32
    }
    shape {
      dim: 25
    }
  }
}
layer {
  name: "conv1"
  type: "Convolution"
  bottom: "data"
  top: "conv1"
  param {
    lr_mult: 1
  }
  param {
    lr_mult: 2
  }
  convolution_param {
    num_output: 32
    pad: 2
    kernel_size: 5
    stride: 1
    weight_filler {
      type: "gaussian"
      std: 0.0001
    }
    bias_filler {
      type: "constant"
    }
  }
}
layer {
  name: "pool1"
  type: "Pooling"
  bottom: "conv1"
  top: "pool1"
  pooling_param {
    pool: MAX
    kernel_size: 3
    stride: 2
  }
}
layer {
  name: "relu1"
  type: "ReLU"
  bottom: "pool1"
  top: "pool1"
}
layer {
  name: "norm1"
  type: "LRN"
  bottom: "pool1"
  top: "norm1"
  lrn_param {
    local_size: 3
    alpha: 5e-05
    beta: 0.75
    norm_region: WITHIN_CHANNEL
  }
}
layer {
  name: "conv2"
  type: "Convolution"
  bottom: "norm1"
  top: "conv2"
  param {
    lr_mult: 1
  }
  param {
    lr_mult: 2
  }
  convolution_param {
    num_output: 32
    pad: 2
    kernel_size: 5
    stride: 1
    weight_filler {
      type: "gaussian"
      std: 0.01
    }
    bias_filler {
      type: "constant"
    }
  }
}
layer {
  name: "relu2"
  type: "ReLU"
  bottom: "conv2"
  top: "conv2"
}
layer {
  name: "pool2"
  type: "Pooling"
  bottom: "conv2"
  top: "pool2"
  pooling_param {
    pool: AVE
    kernel_size: 3
    stride: 2
  }
}
layer {
  name: "norm2"
  type: "LRN"
  bottom: "pool2"
  top: "norm2"
  lrn_param {
    local_size: 3
    alpha: 5e-05
    beta: 0.75
    norm_region: WITHIN_CHANNEL
  }
}
layer {
  name: "conv3"
  type: "Convolution"
  bottom: "norm2"
  top: "conv3"
  convolution_param {
    num_output: 64
    pad: 2
    kernel_size: 5
    stride: 1
    weight_filler {
      type: "gaussian"
      std: 0.01
    }
    bias_filler {
      type: "constant"
    }
  }
}
layer {
  name: "relu3"
  type: "ReLU"
  bottom: "conv3"
  top: "conv3"
}
layer {
  name: "pool3"
  type: "Pooling"
  bottom: "conv3"
  top: "pool3"
  pooling_param {
    pool: AVE
    kernel_size: 3
    stride: 2
  }
}
layer {
  name: "ip1"
  type: "InnerProduct"
  bottom: "pool3"
  top: "ip1"
  param {
    lr_mult: 1
    decay_mult: 250
  }
  param {
    lr_mult: 2
    decay_mult: 0
  }
  inner_product_param {
    num_output: 10
    weight_filler {
      type: "gaussian"
      std: 0.01
    }
    bias_filler {
      type: "constant"
    }
  }
}
layer {
  name: "loss"
  type: "SoftmaxWithLoss"
  bottom: "ip1"
  bottom: "label"
  top: "loss"
}
I1010 21:35:37.442627 17953 net.cpp:426] cifar -> data
I1010 21:35:37.442649 17953 net.cpp:426] cifar -> label
I1010 21:35:37.442669 17951 layer_factory.hpp:77] Creating layer cifar
I1010 21:35:37.442679 17953 net.cpp:166] Setting up cifar
I1010 21:35:37.442692 17953 net.cpp:173] Top shape: 25 3 32 32 (76800)
I1010 21:35:37.442701 17953 net.cpp:173] Top shape: 25 (25)
I1010 21:35:37.442708 17953 net.cpp:181] Memory required for data: 307300
I1010 21:35:37.442714 17953 layer_factory.hpp:77] Creating layer conv1
I1010 21:35:37.442734 17953 net.cpp:116] Creating Layer conv1
I1010 21:35:37.442741 17953 net.cpp:452] conv1 <- data
I1010 21:35:37.442751 17953 net.cpp:426] conv1 -> conv1
I1010 21:35:37.442831 17954 cpu_info.cpp:436] Number of OpenMP threads: 1
I1010 21:35:37.442917 17954 net.cpp:340] The NetState phase (0) differed from the phase (1) specified by a rule in layer cifar
I1010 21:35:37.442934 17954 net.cpp:340] The NetState phase (0) differed from the phase (1) specified by a rule in layer accuracy
I1010 21:35:37.443048 17952 net.cpp:166] Setting up conv1
I1010 21:35:37.443047 17954 net.cpp:74] Initializing net from parameters: 
name: "CIFAR10_full"
state {
  phase: TRAIN
  level: 0
  stage: ""
}
layer {
  name: "cifar"
  type: "RemoteData"
  top: "data"
  top: "label"
  include {
    phase: TRAIN
  }
  remote_data_param {
    address: "tcp://127.0.0.1:4050"
    cache_size: 1
    shape {
      dim: 25
      dim: 3
      dim: 32
      dim: 32
    }
    shape {
      dim: 25
    }
  }
}
layer {
  name: "conv1"
  type: "Convolution"
  bottom: "data"
  top: "conv1"
  param {
    lr_mult: 1
  }
  param {
    lr_mult: 2
  }
  convolution_param {
    num_output: 32
    pad: 2
    kernel_size: 5
    stride: 1
    weight_filler {
      type: "gaussian"
      std: 0.0001
    }
    bias_filler {
      type: "constant"
    }
  }
}
layer {
  name: "pool1"
  type: "Pooling"
  bottom: "conv1"
  top: "pool1"
  pooling_param {
    pool: MAX
    kernel_size: 3
    stride: 2
  }
}
layer {
  name: "relu1"
  type: "ReLU"
  bottom: "pool1"
  top: "pool1"
}
layer {
  name: "norm1"
  type: "LRN"
  bottom: "pool1"
  top: "norm1"
  lrn_param {
    local_size: 3
    alpha: 5e-05
    beta: 0.75
    norm_region: WITHIN_CHANNEL
  }
}
layer {
  name: "conv2"
  type: "Convolution"
  bottom: "norm1"
  top: "conv2"
  param {
    lr_mult: 1
  }
  param {
    lr_mult: 2
  }
  convolution_param {
    num_output: 32
    pad: 2
    kernel_size: 5
    stride: 1
    weight_filler {
      type: "gaussian"
      std: 0.01
    }
    bias_filler {
      type: "constant"
    }
  }
}
layer {
  name: "relu2"
  type: "ReLU"
  bottom: "conv2"
  top: "conv2"
}
layer {
  name: "pool2"
  type: "Pooling"
  bottom: "conv2"
  top: "pool2"
  pooling_param {
    pool: AVE
    kernel_size: 3
    stride: 2
  }
}
layer {
  name: "norm2"
  type: "LRN"
  bottom: "pool2"
  top: "norm2"
  lrn_param {
    local_size: 3
    alpha: 5e-05
    beta: 0.75
    norm_region: WITHIN_CHANNEL
  }
}
layer {
  name: "conv3"
  type: "Convolution"
  bottom: "norm2"
  top: "conv3"
  convolution_param {
    num_output: 64
    pad: 2
    kernel_size: 5
    stride: 1
    weight_filler {
      type: "gaussian"
      std: 0.01
    }
    bias_filler {
      type: "constant"
    }
  }
}
layer {
  name: "relu3"
  type: "ReLU"
  bottom: "conv3"
  top: "conv3"
}
layer {
  name: "pool3"
  type: "Pooling"
  bottom: "conv3"
  top: "pool3"
  pooling_param {
    pool: AVE
    kernel_size: 3
    stride: 2
  }
}
layer {
  name: "ip1"
  type: "InnerProduct"
  bottom: "pool3"
  top: "ip1"
  param {
    lr_mult: 1
    decay_mult: 250
  }
  param {
    lr_mult: 2
    decay_mult: 0
  }
  inner_product_param {
    num_output: 10
    weight_filler {
      type: "gaussian"
      std: 0.01
    }
    bias_filler {
      type: "constant"
    }
  }
}
layer {
  name: "loss"
  type: "SoftmaxWithLoss"
  bottom: "ip1"
  bottom: "label"
  top: "loss"
}
I1010 21:35:37.443069 17952 net.cpp:173] Top shape: 25 32 32 32 (819200)
I1010 21:35:37.443076 17952 net.cpp:181] Memory required for data: 3584100
I1010 21:35:37.443097 17952 layer_factory.hpp:77] Creating layer pool1
I1010 21:35:37.443130 17954 layer_factory.hpp:77] Creating layer cifar
I1010 21:35:37.443158 17952 net.cpp:116] Creating Layer pool1
I1010 21:35:37.443126 17951 net.cpp:116] Creating Layer cifar
I1010 21:35:37.443157 17951 net.cpp:426] cifar -> data
I1010 21:35:37.443168 17952 net.cpp:452] pool1 <- conv1
I1010 21:35:37.443179 17952 net.cpp:426] pool1 -> pool1
I1010 21:35:37.443179 17951 net.cpp:426] cifar -> label
I1010 21:35:37.443197 17952 net.cpp:166] Setting up pool1
I1010 21:35:37.443208 17952 net.cpp:173] Top shape: 25 32 16 16 (204800)
I1010 21:35:37.443214 17952 net.cpp:181] Memory required for data: 4403300
I1010 21:35:37.443207 17951 net.cpp:166] Setting up cifar
I1010 21:35:37.443220 17951 net.cpp:173] Top shape: 25 3 32 32 (76800)
I1010 21:35:37.443220 17952 layer_factory.hpp:77] Creating layer relu1
I1010 21:35:37.443231 17952 net.cpp:116] Creating Layer relu1
I1010 21:35:37.443238 17952 net.cpp:452] relu1 <- pool1
I1010 21:35:37.443229 17951 net.cpp:173] Top shape: 25 (25)
I1010 21:35:37.443236 17951 net.cpp:181] Memory required for data: 307300
I1010 21:35:37.443243 17951 layer_factory.hpp:77] Creating layer conv1
I1010 21:35:37.443248 17952 net.cpp:413] relu1 -> pool1 (in-place)
I1010 21:35:37.443259 17952 net.cpp:166] Setting up relu1
I1010 21:35:37.443266 17952 net.cpp:173] Top shape: 25 32 16 16 (204800)
I1010 21:35:37.443274 17952 net.cpp:181] Memory required for data: 5222500
I1010 21:35:37.443266 17951 net.cpp:116] Creating Layer conv1
I1010 21:35:37.443274 17951 net.cpp:452] conv1 <- data
I1010 21:35:37.443279 17952 layer_factory.hpp:77] Creating layer norm1
I1010 21:35:37.443292 17952 net.cpp:116] Creating Layer norm1
I1010 21:35:37.443298 17952 net.cpp:452] norm1 <- pool1
I1010 21:35:37.443277 17953 net.cpp:166] Setting up conv1
I1010 21:35:37.443295 17953 net.cpp:173] Top shape: 25 32 32 32 (819200)
I1010 21:35:37.443300 17953 net.cpp:181] Memory required for data: 3584100
I1010 21:35:37.443284 17951 net.cpp:426] conv1 -> conv1
I1010 21:35:37.443281 17950 cpu_info.cpp:436] Number of OpenMP threads: 1
I1010 21:35:37.443307 17952 net.cpp:426] norm1 -> norm1
I1010 21:35:37.443318 17953 layer_factory.hpp:77] Creating layer pool1
I1010 21:35:37.443380 17952 net.cpp:166] Setting up norm1
I1010 21:35:37.443367 17953 net.cpp:116] Creating Layer pool1
I1010 21:35:37.443374 17953 net.cpp:452] pool1 <- conv1
I1010 21:35:37.443384 17953 net.cpp:426] pool1 -> pool1
I1010 21:35:37.443392 17952 net.cpp:173] Top shape: 25 32 16 16 (204800)
I1010 21:35:37.443399 17952 net.cpp:181] Memory required for data: 6041700
I1010 21:35:37.443405 17952 layer_factory.hpp:77] Creating layer conv2
I1010 21:35:37.443423 17952 net.cpp:116] Creating Layer conv2
I1010 21:35:37.443397 17950 net.cpp:340] The NetState phase (0) differed from the phase (1) specified by a rule in layer cifar
I1010 21:35:37.443411 17950 net.cpp:340] The NetState phase (0) differed from the phase (1) specified by a rule in layer accuracy
I1010 21:35:37.443402 17953 net.cpp:166] Setting up pool1
I1010 21:35:37.443410 17953 net.cpp:173] Top shape: 25 32 16 16 (204800)
I1010 21:35:37.443416 17953 net.cpp:181] Memory required for data: 4403300
I1010 21:35:37.443423 17953 layer_factory.hpp:77] Creating layer relu1
I1010 21:35:37.443430 17952 net.cpp:452] conv2 <- norm1
I1010 21:35:37.443433 17953 net.cpp:116] Creating Layer relu1
I1010 21:35:37.443439 17953 net.cpp:452] relu1 <- pool1
I1010 21:35:37.443447 17953 net.cpp:413] relu1 -> pool1 (in-place)
I1010 21:35:37.443465 17953 net.cpp:166] Setting up relu1
I1010 21:35:37.443473 17953 net.cpp:173] Top shape: 25 32 16 16 (204800)
I1010 21:35:37.443480 17953 net.cpp:181] Memory required for data: 5222500
I1010 21:35:37.443485 17953 layer_factory.hpp:77] Creating layer norm1
I1010 21:35:37.443440 17952 net.cpp:426] conv2 -> conv2
I1010 21:35:37.443496 17953 net.cpp:116] Creating Layer norm1
I1010 21:35:37.443503 17953 net.cpp:452] norm1 <- pool1
I1010 21:35:37.443511 17953 net.cpp:426] norm1 -> norm1
I1010 21:35:37.443569 17953 net.cpp:166] Setting up norm1
I1010 21:35:37.443586 17953 net.cpp:173] Top shape: 25 32 16 16 (204800)
I1010 21:35:37.443544 17950 net.cpp:74] Initializing net from parameters: 
name: "CIFAR10_full"
state {
  phase: TRAIN
  level: 0
  stage: ""
}
layer {
  name: "cifar"
  type: "RemoteData"
  top: "data"
  top: "label"
  include {
    phase: TRAIN
  }
  remote_data_param {
    address: "tcp://127.0.0.1:4050"
    cache_size: 1
    shape {
      dim: 25
      dim: 3
      dim: 32
      dim: 32
    }
    shape {
      dim: 25
    }
  }
}
layer {
  name: "conv1"
  type: "Convolution"
  bottom: "data"
  top: "conv1"
  param {
    lr_mult: 1
  }
  param {
    lr_mult: 2
  }
  convolution_param {
    num_output: 32
    pad: 2
    kernel_size: 5
    stride: 1
    weight_filler {
      type: "gaussian"
      std: 0.0001
    }
    bias_filler {
      type: "constant"
    }
  }
}
layer {
  name: "pool1"
  type: "Pooling"
  bottom: "conv1"
  top: "pool1"
  pooling_param {
    pool: MAX
    kernel_size: 3
    stride: 2
  }
}
layer {
  name: "relu1"
  type: "ReLU"
  bottom: "pool1"
  top: "pool1"
}
layer {
  name: "norm1"
  type: "LRN"
  bottom: "pool1"
  top: "norm1"
  lrn_param {
    local_size: 3
    alpha: 5e-05
    beta: 0.75
    norm_region: WITHIN_CHANNEL
  }
}
layer {
  name: "conv2"
  type: "Convolution"
  bottom: "norm1"
  top: "conv2"
  param {
    lr_mult: 1
  }
  param {
    lr_mult: 2
  }
  convolution_param {
    num_output: 32
    pad: 2
    kernel_size: 5
    stride: 1
    weight_filler {
      type: "gaussian"
      std: 0.01
    }
    bias_filler {
      type: "constant"
    }
  }
}
layer {
  name: "relu2"
  type: "ReLU"
  bottom: "conv2"
  top: "conv2"
}
layer {
  name: "pool2"
  type: "Pooling"
  bottom: "conv2"
  top: "pool2"
  pooling_param {
    pool: AVE
    kernel_size: 3
    stride: 2
  }
}
layer {
  name: "norm2"
  type: "LRN"
  bottom: "pool2"
  top: "norm2"
  lrn_param {
    local_size: 3
    alpha: 5e-05
    beta: 0.75
    norm_region: WITHIN_CHANNEL
  }
}
layer {
  name: "conv3"
  type: "Convolution"
  bottom: "norm2"
  top: "conv3"
  convolution_param {
    num_output: 64
    pad: 2
    kernel_size: 5
    stride: 1
    weight_filler {
      type: "gaussian"
      std: 0.01
    }
    bias_filler {
      type: "constant"
    }
  }
}
layer {
  name: "relu3"
  type: "ReLU"
  bottom: "conv3"
  top: "conv3"
}
layer {
  name: "pool3"
  type: "Pooling"
  bottom: "conv3"
  top: "pool3"
  pooling_param {
    pool: AVE
    kernel_size: 3
    stride: 2
  }
}
layer {
  name: "ip1"
  type: "InnerProduct"
  bottom: "pool3"
  top: "ip1"
  param {
    lr_mult: 1
    decay_mult: 250
  }
  param {
    lr_mult: 2
    decay_mult: 0
  }
  inner_product_param {
    num_output: 10
    weight_filler {
      type: "gaussian"
      std: 0.01
    }
    bias_filler {
      type: "constant"
    }
  }
}
layer {
  name: "loss"
  type: "SoftmaxWithLoss"
  bottom: "ip1"
  bottom: "label"
  top: "loss"
}
I1010 21:35:37.443593 17953 net.cpp:181] Memory required for data: 6041700
I1010 21:35:37.443598 17953 layer_factory.hpp:77] Creating layer conv2
I1010 21:35:37.443616 17953 net.cpp:116] Creating Layer conv2
I1010 21:35:37.443622 17953 net.cpp:452] conv2 <- norm1
I1010 21:35:37.443631 17953 net.cpp:426] conv2 -> conv2
I1010 21:35:37.443617 17954 net.cpp:116] Creating Layer cifar
I1010 21:35:37.443639 17950 layer_factory.hpp:77] Creating layer cifar
I1010 21:35:37.443650 17954 net.cpp:426] cifar -> data
I1010 21:35:37.443675 17954 net.cpp:426] cifar -> label
I1010 21:35:37.443704 17954 net.cpp:166] Setting up cifar
I1010 21:35:37.443718 17954 net.cpp:173] Top shape: 25 3 32 32 (76800)
I1010 21:35:37.443728 17954 net.cpp:173] Top shape: 25 (25)
I1010 21:35:37.443735 17954 net.cpp:181] Memory required for data: 307300
I1010 21:35:37.443744 17954 layer_factory.hpp:77] Creating layer conv1
I1010 21:35:37.443766 17954 net.cpp:116] Creating Layer conv1
I1010 21:35:37.443774 17954 net.cpp:452] conv1 <- data
I1010 21:35:37.443786 17954 net.cpp:426] conv1 -> conv1
I1010 21:35:37.443845 17951 net.cpp:166] Setting up conv1
I1010 21:35:37.443866 17951 net.cpp:173] Top shape: 25 32 32 32 (819200)
I1010 21:35:37.443873 17951 net.cpp:181] Memory required for data: 3584100
I1010 21:35:37.443893 17951 layer_factory.hpp:77] Creating layer pool1
I1010 21:35:37.443945 17951 net.cpp:116] Creating Layer pool1
I1010 21:35:37.443958 17951 net.cpp:452] pool1 <- conv1
I1010 21:35:37.443969 17951 net.cpp:426] pool1 -> pool1
I1010 21:35:37.443986 17951 net.cpp:166] Setting up pool1
I1010 21:35:37.443996 17951 net.cpp:173] Top shape: 25 32 16 16 (204800)
I1010 21:35:37.444003 17951 net.cpp:181] Memory required for data: 4403300
I1010 21:35:37.444010 17951 layer_factory.hpp:77] Creating layer relu1
I1010 21:35:37.444020 17951 net.cpp:116] Creating Layer relu1
I1010 21:35:37.444027 17951 net.cpp:452] relu1 <- pool1
I1010 21:35:37.444036 17951 net.cpp:413] relu1 -> pool1 (in-place)
I1010 21:35:37.444051 17951 net.cpp:166] Setting up relu1
I1010 21:35:37.444061 17951 net.cpp:173] Top shape: 25 32 16 16 (204800)
I1010 21:35:37.444067 17951 net.cpp:181] Memory required for data: 5222500
I1010 21:35:37.444072 17951 layer_factory.hpp:77] Creating layer norm1
I1010 21:35:37.444085 17951 net.cpp:116] Creating Layer norm1
I1010 21:35:37.444092 17951 net.cpp:452] norm1 <- pool1
I1010 21:35:37.444102 17951 net.cpp:426] norm1 -> norm1
I1010 21:35:37.444139 17950 net.cpp:116] Creating Layer cifar
I1010 21:35:37.444167 17951 net.cpp:166] Setting up norm1
I1010 21:35:37.444177 17950 net.cpp:426] cifar -> data
I1010 21:35:37.444202 17950 net.cpp:426] cifar -> label
I1010 21:35:37.444180 17951 net.cpp:173] Top shape: 25 32 16 16 (204800)
I1010 21:35:37.444186 17951 net.cpp:181] Memory required for data: 6041700
I1010 21:35:37.444193 17951 layer_factory.hpp:77] Creating layer conv2
I1010 21:35:37.444211 17951 net.cpp:116] Creating Layer conv2
I1010 21:35:37.444218 17951 net.cpp:452] conv2 <- norm1
I1010 21:35:37.444228 17951 net.cpp:426] conv2 -> conv2
I1010 21:35:37.444233 17950 net.cpp:166] Setting up cifar
I1010 21:35:37.444247 17950 net.cpp:173] Top shape: 25 3 32 32 (76800)
I1010 21:35:37.444257 17950 net.cpp:173] Top shape: 25 (25)
I1010 21:35:37.444264 17950 net.cpp:181] Memory required for data: 307300
I1010 21:35:37.444273 17950 layer_factory.hpp:77] Creating layer conv1
I1010 21:35:37.444298 17950 net.cpp:116] Creating Layer conv1
I1010 21:35:37.444304 17950 net.cpp:452] conv1 <- data
I1010 21:35:37.444317 17950 net.cpp:426] conv1 -> conv1
I1010 21:35:37.444341 17954 net.cpp:166] Setting up conv1
I1010 21:35:37.444357 17954 net.cpp:173] Top shape: 25 32 32 32 (819200)
I1010 21:35:37.444365 17954 net.cpp:181] Memory required for data: 3584100
I1010 21:35:37.444385 17954 layer_factory.hpp:77] Creating layer pool1
I1010 21:35:37.444447 17954 net.cpp:116] Creating Layer pool1
I1010 21:35:37.444463 17954 net.cpp:452] pool1 <- conv1
I1010 21:35:37.444473 17954 net.cpp:426] pool1 -> pool1
I1010 21:35:37.444494 17954 net.cpp:166] Setting up pool1
I1010 21:35:37.444504 17954 net.cpp:173] Top shape: 25 32 16 16 (204800)
I1010 21:35:37.444510 17954 net.cpp:181] Memory required for data: 4403300
I1010 21:35:37.444517 17954 layer_factory.hpp:77] Creating layer relu1
I1010 21:35:37.444527 17954 net.cpp:116] Creating Layer relu1
I1010 21:35:37.444535 17954 net.cpp:452] relu1 <- pool1
I1010 21:35:37.444545 17954 net.cpp:413] relu1 -> pool1 (in-place)
I1010 21:35:37.444555 17954 net.cpp:166] Setting up relu1
I1010 21:35:37.444563 17954 net.cpp:173] Top shape: 25 32 16 16 (204800)
I1010 21:35:37.444571 17954 net.cpp:181] Memory required for data: 5222500
I1010 21:35:37.444576 17954 layer_factory.hpp:77] Creating layer norm1
I1010 21:35:37.444589 17954 net.cpp:116] Creating Layer norm1
I1010 21:35:37.444596 17954 net.cpp:452] norm1 <- pool1
I1010 21:35:37.444604 17954 net.cpp:426] norm1 -> norm1
I1010 21:35:37.444669 17954 net.cpp:166] Setting up norm1
I1010 21:35:37.444686 17954 net.cpp:173] Top shape: 25 32 16 16 (204800)
I1010 21:35:37.444694 17954 net.cpp:181] Memory required for data: 6041700
I1010 21:35:37.444700 17954 layer_factory.hpp:77] Creating layer conv2
I1010 21:35:37.444716 17954 net.cpp:116] Creating Layer conv2
I1010 21:35:37.444723 17954 net.cpp:452] conv2 <- norm1
I1010 21:35:37.444735 17954 net.cpp:426] conv2 -> conv2
I1010 21:35:37.444851 17944 tcp_configuration.cpp:268] accepted client from address: tcp://127.0.0.1:1397
I1010 21:35:37.444872 17950 net.cpp:166] Setting up conv1
I1010 21:35:37.444895 17950 net.cpp:173] Top shape: 25 32 32 32 (819200)
I1010 21:35:37.444902 17950 net.cpp:181] Memory required for data: 3584100
I1010 21:35:37.444922 17950 layer_factory.hpp:77] Creating layer pool1
I1010 21:35:37.444979 17950 net.cpp:116] Creating Layer pool1
I1010 21:35:37.444991 17950 net.cpp:452] pool1 <- conv1
I1010 21:35:37.445003 17950 net.cpp:426] pool1 -> pool1
I1010 21:35:37.445021 17950 net.cpp:166] Setting up pool1
I1010 21:35:37.445039 17944 tcp_configuration.cpp:268] accepted client from address: tcp://127.0.0.1:1398
I1010 21:35:37.445032 17950 net.cpp:173] Top shape: 25 32 16 16 (204800)
I1010 21:35:37.445039 17950 net.cpp:181] Memory required for data: 4403300
I1010 21:35:37.445046 17950 layer_factory.hpp:77] Creating layer relu1
I1010 21:35:37.445057 17950 net.cpp:116] Creating Layer relu1
I1010 21:35:37.445065 17950 net.cpp:452] relu1 <- pool1
I1010 21:35:37.445073 17950 net.cpp:413] relu1 -> pool1 (in-place)
I1010 21:35:37.445085 17950 net.cpp:166] Setting up relu1
I1010 21:35:37.445093 17950 net.cpp:173] Top shape: 25 32 16 16 (204800)
I1010 21:35:37.445099 17950 net.cpp:181] Memory required for data: 5222500
I1010 21:35:37.445106 17950 layer_factory.hpp:77] Creating layer norm1
I1010 21:35:37.445119 17950 net.cpp:116] Creating Layer norm1
I1010 21:35:37.445127 17950 net.cpp:452] norm1 <- pool1
I1010 21:35:37.445135 17950 net.cpp:426] norm1 -> norm1
I1010 21:35:37.445201 17950 net.cpp:166] Setting up norm1
I1010 21:35:37.445219 17950 net.cpp:173] Top shape: 25 32 16 16 (204800)
I1010 21:35:37.445225 17950 net.cpp:181] Memory required for data: 6041700
I1010 21:35:37.445231 17950 layer_factory.hpp:77] Creating layer conv2
I1010 21:35:37.445248 17950 net.cpp:116] Creating Layer conv2
I1010 21:35:37.445256 17950 net.cpp:452] conv2 <- norm1
I1010 21:35:37.445267 17950 net.cpp:426] conv2 -> conv2
I1010 21:35:37.445986 17952 net.cpp:166] Setting up conv2
I1010 21:35:37.446007 17952 net.cpp:173] Top shape: 25 32 16 16 (204800)
I1010 21:35:37.446013 17952 net.cpp:181] Memory required for data: 6860900
I1010 21:35:37.446002 17953 net.cpp:166] Setting up conv2
I1010 21:35:37.446017 17953 net.cpp:173] Top shape: 25 32 16 16 (204800)
I1010 21:35:37.446022 17953 net.cpp:181] Memory required for data: 6860900
I1010 21:35:37.446038 17953 layer_factory.hpp:77] Creating layer relu2
I1010 21:35:37.446048 17953 net.cpp:116] Creating Layer relu2
I1010 21:35:37.446055 17953 net.cpp:452] relu2 <- conv2
I1010 21:35:37.446029 17952 layer_factory.hpp:77] Creating layer relu2
I1010 21:35:37.446043 17952 net.cpp:116] Creating Layer relu2
I1010 21:35:37.446049 17952 net.cpp:452] relu2 <- conv2
I1010 21:35:37.446059 17952 net.cpp:413] relu2 -> conv2 (in-place)
I1010 21:35:37.446071 17952 net.cpp:166] Setting up relu2
I1010 21:35:37.446079 17952 net.cpp:173] Top shape: 25 32 16 16 (204800)
I1010 21:35:37.446085 17952 net.cpp:181] Memory required for data: 7680100
I1010 21:35:37.446064 17953 net.cpp:413] relu2 -> conv2 (in-place)
I1010 21:35:37.446075 17953 net.cpp:166] Setting up relu2
I1010 21:35:37.446084 17953 net.cpp:173] Top shape: 25 32 16 16 (204800)
I1010 21:35:37.446089 17953 net.cpp:181] Memory required for data: 7680100
I1010 21:35:37.446095 17953 layer_factory.hpp:77] Creating layer pool2
I1010 21:35:37.446092 17952 layer_factory.hpp:77] Creating layer pool2
I1010 21:35:37.446122 17952 net.cpp:116] Creating Layer pool2
I1010 21:35:37.446130 17952 net.cpp:452] pool2 <- conv2
I1010 21:35:37.446140 17952 net.cpp:426] pool2 -> pool2
I1010 21:35:37.446121 17953 net.cpp:116] Creating Layer pool2
I1010 21:35:37.446127 17953 net.cpp:452] pool2 <- conv2
I1010 21:35:37.446136 17953 net.cpp:426] pool2 -> pool2
I1010 21:35:37.446148 17953 net.cpp:166] Setting up pool2
I1010 21:35:37.446156 17953 net.cpp:173] Top shape: 25 32 8 8 (51200)
I1010 21:35:37.446162 17953 net.cpp:181] Memory required for data: 7884900
I1010 21:35:37.446168 17953 layer_factory.hpp:77] Creating layer norm2
I1010 21:35:37.446152 17952 net.cpp:166] Setting up pool2
I1010 21:35:37.446161 17952 net.cpp:173] Top shape: 25 32 8 8 (51200)
I1010 21:35:37.446167 17952 net.cpp:181] Memory required for data: 7884900
I1010 21:35:37.446173 17952 layer_factory.hpp:77] Creating layer norm2
I1010 21:35:37.446188 17952 net.cpp:116] Creating Layer norm2
I1010 21:35:37.446224 17952 net.cpp:452] norm2 <- pool2
I1010 21:35:37.446180 17953 net.cpp:116] Creating Layer norm2
I1010 21:35:37.446213 17953 net.cpp:452] norm2 <- pool2
I1010 21:35:37.446223 17953 net.cpp:426] norm2 -> norm2
I1010 21:35:37.446238 17952 net.cpp:426] norm2 -> norm2
I1010 21:35:37.446264 17953 net.cpp:166] Setting up norm2
I1010 21:35:37.446275 17953 net.cpp:173] Top shape: 25 32 8 8 (51200)
I1010 21:35:37.446281 17953 net.cpp:181] Memory required for data: 8089700
I1010 21:35:37.446287 17953 layer_factory.hpp:77] Creating layer conv3
I1010 21:35:37.446290 17952 net.cpp:166] Setting up norm2
I1010 21:35:37.446301 17952 net.cpp:173] Top shape: 25 32 8 8 (51200)
I1010 21:35:37.446307 17952 net.cpp:181] Memory required for data: 8089700
I1010 21:35:37.446303 17953 net.cpp:116] Creating Layer conv3
I1010 21:35:37.446310 17953 net.cpp:452] conv3 <- norm2
I1010 21:35:37.446318 17953 net.cpp:426] conv3 -> conv3
I1010 21:35:37.446315 17952 layer_factory.hpp:77] Creating layer conv3
I1010 21:35:37.446332 17952 net.cpp:116] Creating Layer conv3
I1010 21:35:37.446339 17952 net.cpp:452] conv3 <- norm2
I1010 21:35:37.446351 17952 net.cpp:426] conv3 -> conv3
I1010 21:35:37.446681 17944 tcp_configuration.cpp:268] accepted client from address: tcp://127.0.0.1:1399
I1010 21:35:37.446707 17951 net.cpp:166] Setting up conv2
I1010 21:35:37.446724 17951 net.cpp:173] Top shape: 25 32 16 16 (204800)
I1010 21:35:37.446730 17951 net.cpp:181] Memory required for data: 6860900
I1010 21:35:37.446745 17951 layer_factory.hpp:77] Creating layer relu2
I1010 21:35:37.446755 17951 net.cpp:116] Creating Layer relu2
I1010 21:35:37.446763 17951 net.cpp:452] relu2 <- conv2
I1010 21:35:37.446771 17951 net.cpp:413] relu2 -> conv2 (in-place)
I1010 21:35:37.446782 17951 net.cpp:166] Setting up relu2
I1010 21:35:37.446790 17951 net.cpp:173] Top shape: 25 32 16 16 (204800)
I1010 21:35:37.446795 17951 net.cpp:181] Memory required for data: 7680100
I1010 21:35:37.446801 17951 layer_factory.hpp:77] Creating layer pool2
I1010 21:35:37.446828 17951 net.cpp:116] Creating Layer pool2
I1010 21:35:37.446835 17951 net.cpp:452] pool2 <- conv2
I1010 21:35:37.446844 17951 net.cpp:426] pool2 -> pool2
I1010 21:35:37.446856 17951 net.cpp:166] Setting up pool2
I1010 21:35:37.446864 17951 net.cpp:173] Top shape: 25 32 8 8 (51200)
I1010 21:35:37.446871 17951 net.cpp:181] Memory required for data: 7884900
I1010 21:35:37.446877 17951 layer_factory.hpp:77] Creating layer norm2
I1010 21:35:37.446889 17951 net.cpp:116] Creating Layer norm2
I1010 21:35:37.446924 17951 net.cpp:452] norm2 <- pool2
I1010 21:35:37.446936 17951 net.cpp:426] norm2 -> norm2
I1010 21:35:37.446985 17951 net.cpp:166] Setting up norm2
I1010 21:35:37.446997 17951 net.cpp:173] Top shape: 25 32 8 8 (51200)
I1010 21:35:37.447003 17951 net.cpp:181] Memory required for data: 8089700
I1010 21:35:37.447010 17951 layer_factory.hpp:77] Creating layer conv3
I1010 21:35:37.447024 17951 net.cpp:116] Creating Layer conv3
I1010 21:35:37.447031 17951 net.cpp:452] conv3 <- norm2
I1010 21:35:37.447041 17951 net.cpp:426] conv3 -> conv3
I1010 21:35:37.447284 17954 net.cpp:166] Setting up conv2
I1010 21:35:37.447306 17954 net.cpp:173] Top shape: 25 32 16 16 (204800)
I1010 21:35:37.447314 17954 net.cpp:181] Memory required for data: 6860900
I1010 21:35:37.447329 17954 layer_factory.hpp:77] Creating layer relu2
I1010 21:35:37.447342 17954 net.cpp:116] Creating Layer relu2
I1010 21:35:37.447350 17954 net.cpp:452] relu2 <- conv2
I1010 21:35:37.447360 17954 net.cpp:413] relu2 -> conv2 (in-place)
I1010 21:35:37.447371 17954 net.cpp:166] Setting up relu2
I1010 21:35:37.447381 17954 net.cpp:173] Top shape: 25 32 16 16 (204800)
I1010 21:35:37.447386 17954 net.cpp:181] Memory required for data: 7680100
I1010 21:35:37.447392 17954 layer_factory.hpp:77] Creating layer pool2
I1010 21:35:37.447422 17954 net.cpp:116] Creating Layer pool2
I1010 21:35:37.447428 17954 net.cpp:452] pool2 <- conv2
I1010 21:35:37.447438 17954 net.cpp:426] pool2 -> pool2
I1010 21:35:37.447451 17954 net.cpp:166] Setting up pool2
I1010 21:35:37.447460 17954 net.cpp:173] Top shape: 25 32 8 8 (51200)
I1010 21:35:37.447466 17954 net.cpp:181] Memory required for data: 7884900
I1010 21:35:37.447473 17954 layer_factory.hpp:77] Creating layer norm2
I1010 21:35:37.447485 17954 net.cpp:116] Creating Layer norm2
I1010 21:35:37.447527 17954 net.cpp:452] norm2 <- pool2
I1010 21:35:37.447538 17954 net.cpp:426] norm2 -> norm2
I1010 21:35:37.447585 17954 net.cpp:166] Setting up norm2
I1010 21:35:37.447600 17954 net.cpp:173] Top shape: 25 32 8 8 (51200)
I1010 21:35:37.447607 17954 net.cpp:181] Memory required for data: 8089700
I1010 21:35:37.447613 17954 layer_factory.hpp:77] Creating layer conv3
I1010 21:35:37.447629 17954 net.cpp:116] Creating Layer conv3
I1010 21:35:37.447636 17954 net.cpp:452] conv3 <- norm2
I1010 21:35:37.447648 17954 net.cpp:426] conv3 -> conv3
I1010 21:35:37.447818 17950 net.cpp:166] Setting up conv2
I1010 21:35:37.447839 17950 net.cpp:173] Top shape: 25 32 16 16 (204800)
I1010 21:35:37.447847 17950 net.cpp:181] Memory required for data: 6860900
I1010 21:35:37.447863 17950 layer_factory.hpp:77] Creating layer relu2
I1010 21:35:37.447877 17950 net.cpp:116] Creating Layer relu2
I1010 21:35:37.447885 17950 net.cpp:452] relu2 <- conv2
I1010 21:35:37.447896 17950 net.cpp:413] relu2 -> conv2 (in-place)
I1010 21:35:37.447908 17950 net.cpp:166] Setting up relu2
I1010 21:35:37.447917 17950 net.cpp:173] Top shape: 25 32 16 16 (204800)
I1010 21:35:37.447923 17950 net.cpp:181] Memory required for data: 7680100
I1010 21:35:37.447931 17950 layer_factory.hpp:77] Creating layer pool2
I1010 21:35:37.447962 17950 net.cpp:116] Creating Layer pool2
I1010 21:35:37.447973 17950 net.cpp:452] pool2 <- conv2
I1010 21:35:37.447983 17950 net.cpp:426] pool2 -> pool2
I1010 21:35:37.447996 17950 net.cpp:166] Setting up pool2
I1010 21:35:37.448005 17950 net.cpp:173] Top shape: 25 32 8 8 (51200)
I1010 21:35:37.448011 17950 net.cpp:181] Memory required for data: 7884900
I1010 21:35:37.448019 17950 layer_factory.hpp:77] Creating layer norm2
I1010 21:35:37.448032 17950 net.cpp:116] Creating Layer norm2
I1010 21:35:37.448071 17950 net.cpp:452] norm2 <- pool2
I1010 21:35:37.448084 17950 net.cpp:426] norm2 -> norm2
I1010 21:35:37.448137 17950 net.cpp:166] Setting up norm2
I1010 21:35:37.448153 17950 net.cpp:173] Top shape: 25 32 8 8 (51200)
I1010 21:35:37.448159 17950 net.cpp:181] Memory required for data: 8089700
I1010 21:35:37.448165 17950 layer_factory.hpp:77] Creating layer conv3
I1010 21:35:37.448184 17950 net.cpp:116] Creating Layer conv3
I1010 21:35:37.448190 17950 net.cpp:452] conv3 <- norm2
I1010 21:35:37.448202 17950 net.cpp:426] conv3 -> conv3
I1010 21:35:37.448282 17944 tcp_configuration.cpp:268] accepted client from address: tcp://127.0.0.1:1400
I1010 21:35:37.450079 17953 net.cpp:166] Setting up conv3
I1010 21:35:37.450098 17953 net.cpp:173] Top shape: 25 64 8 8 (102400)
I1010 21:35:37.450104 17953 net.cpp:181] Memory required for data: 8499300
I1010 21:35:37.450120 17953 layer_factory.hpp:77] Creating layer relu3
I1010 21:35:37.450134 17953 net.cpp:116] Creating Layer relu3
I1010 21:35:37.450141 17953 net.cpp:452] relu3 <- conv3
I1010 21:35:37.450150 17953 net.cpp:413] relu3 -> conv3 (in-place)
I1010 21:35:37.450160 17953 net.cpp:166] Setting up relu3
I1010 21:35:37.450167 17953 net.cpp:173] Top shape: 25 64 8 8 (102400)
I1010 21:35:37.450172 17953 net.cpp:181] Memory required for data: 8908900
I1010 21:35:37.450177 17953 layer_factory.hpp:77] Creating layer pool3
I1010 21:35:37.450268 17953 net.cpp:116] Creating Layer pool3
I1010 21:35:37.450279 17953 net.cpp:452] pool3 <- conv3
I1010 21:35:37.450290 17953 net.cpp:426] pool3 -> pool3
I1010 21:35:37.450304 17953 net.cpp:166] Setting up pool3
I1010 21:35:37.450312 17953 net.cpp:173] Top shape: 25 64 4 4 (25600)
I1010 21:35:37.450319 17953 net.cpp:181] Memory required for data: 9011300
I1010 21:35:37.450325 17953 layer_factory.hpp:77] Creating layer ip1
I1010 21:35:37.450340 17953 net.cpp:116] Creating Layer ip1
I1010 21:35:37.450345 17953 net.cpp:452] ip1 <- pool3
I1010 21:35:37.450354 17953 net.cpp:426] ip1 -> ip1
I1010 21:35:37.450358 17952 net.cpp:166] Setting up conv3
I1010 21:35:37.450373 17952 net.cpp:173] Top shape: 25 64 8 8 (102400)
I1010 21:35:37.450381 17952 net.cpp:181] Memory required for data: 8499300
I1010 21:35:37.450397 17952 layer_factory.hpp:77] Creating layer relu3
I1010 21:35:37.450412 17952 net.cpp:116] Creating Layer relu3
I1010 21:35:37.450418 17952 net.cpp:452] relu3 <- conv3
I1010 21:35:37.450428 17952 net.cpp:413] relu3 -> conv3 (in-place)
I1010 21:35:37.450438 17952 net.cpp:166] Setting up relu3
I1010 21:35:37.450446 17952 net.cpp:173] Top shape: 25 64 8 8 (102400)
I1010 21:35:37.450453 17952 net.cpp:181] Memory required for data: 8908900
I1010 21:35:37.450459 17952 layer_factory.hpp:77] Creating layer pool3
I1010 21:35:37.450490 17952 net.cpp:116] Creating Layer pool3
I1010 21:35:37.450501 17952 net.cpp:452] pool3 <- conv3
I1010 21:35:37.450510 17952 net.cpp:426] pool3 -> pool3
I1010 21:35:37.450523 17952 net.cpp:166] Setting up pool3
I1010 21:35:37.450532 17952 net.cpp:173] Top shape: 25 64 4 4 (25600)
I1010 21:35:37.450538 17952 net.cpp:181] Memory required for data: 9011300
I1010 21:35:37.450544 17952 layer_factory.hpp:77] Creating layer ip1
I1010 21:35:37.450561 17952 net.cpp:116] Creating Layer ip1
I1010 21:35:37.450567 17952 net.cpp:452] ip1 <- pool3
I1010 21:35:37.450577 17952 net.cpp:426] ip1 -> ip1
I1010 21:35:37.450757 17951 net.cpp:166] Setting up conv3
I1010 21:35:37.450773 17951 net.cpp:173] Top shape: 25 64 8 8 (102400)
I1010 21:35:37.450779 17951 net.cpp:181] Memory required for data: 8499300
I1010 21:35:37.450795 17951 layer_factory.hpp:77] Creating layer relu3
I1010 21:35:37.450809 17951 net.cpp:116] Creating Layer relu3
I1010 21:35:37.450815 17951 net.cpp:452] relu3 <- conv3
I1010 21:35:37.450824 17951 net.cpp:413] relu3 -> conv3 (in-place)
I1010 21:35:37.450834 17951 net.cpp:166] Setting up relu3
I1010 21:35:37.450841 17951 net.cpp:173] Top shape: 25 64 8 8 (102400)
I1010 21:35:37.450846 17951 net.cpp:181] Memory required for data: 8908900
I1010 21:35:37.450851 17951 layer_factory.hpp:77] Creating layer pool3
I1010 21:35:37.450883 17951 net.cpp:116] Creating Layer pool3
I1010 21:35:37.450889 17951 net.cpp:452] pool3 <- conv3
I1010 21:35:37.450898 17951 net.cpp:426] pool3 -> pool3
I1010 21:35:37.450911 17951 net.cpp:166] Setting up pool3
I1010 21:35:37.450918 17951 net.cpp:173] Top shape: 25 64 4 4 (25600)
I1010 21:35:37.450924 17951 net.cpp:181] Memory required for data: 9011300
I1010 21:35:37.450929 17951 layer_factory.hpp:77] Creating layer ip1
I1010 21:35:37.450943 17951 net.cpp:116] Creating Layer ip1
I1010 21:35:37.450949 17951 net.cpp:452] ip1 <- pool3
I1010 21:35:37.450958 17951 net.cpp:426] ip1 -> ip1
I1010 21:35:37.451053 17953 net.cpp:166] Setting up ip1
I1010 21:35:37.451066 17953 net.cpp:173] Top shape: 25 10 (250)
I1010 21:35:37.451071 17953 net.cpp:181] Memory required for data: 9012300
I1010 21:35:37.451083 17953 layer_factory.hpp:77] Creating layer loss
I1010 21:35:37.451093 17953 net.cpp:116] Creating Layer loss
I1010 21:35:37.451100 17953 net.cpp:452] loss <- ip1
I1010 21:35:37.451107 17953 net.cpp:452] loss <- label
I1010 21:35:37.451119 17953 net.cpp:426] loss -> loss
I1010 21:35:37.451133 17953 layer_factory.hpp:77] Creating layer loss
…
I1010 21:35:37.451856 17951 net.cpp:243] pool1 needs backward computation.
I1010 21:35:37.451861 17951 net.cpp:243] conv1 needs backward computation.
I1010 21:35:37.451869 17951 net.cpp:245] cifar does not need backward computation.
I1010 21:35:37.451874 17951 net.cpp:287] This network produces output loss
I1010 21:35:37.451890 17951 net.cpp:301] Network initialization done.
I1010 21:35:37.451908 17954 net.cpp:116] Creating Layer pool3
I1010 21:35:37.451920 17954 net.cpp:452] pool3 <- conv3
I1010 21:35:37.451931 17954 net.cpp:426] pool3 -> pool3
I1010 21:35:37.451947 17954 net.cpp:166] Setting up pool3
I1010 21:35:37.451957 17954 net.cpp:173] Top shape: 25 64 4 4 (25600)
I1010 21:35:37.451964 17954 net.cpp:181] Memory required for data: 9011300
I1010 21:35:37.451969 17954 layer_factory.hpp:77] Creating layer ip1
I1010 21:35:37.451988 17954 net.cpp:116] Creating Layer ip1
I1010 21:35:37.451995 17954 net.cpp:452] ip1 <- pool3
I1010 21:35:37.452006 17951 solver.cpp:67] Solver scaffolding done.
I1010 21:35:37.452006 17954 net.cpp:426] ip1 -> ip1
I1010 21:35:37.452041 17951 caffe.cpp:286] Resuming from examples/cifar10/warm_start/warm_start_iter_5000.solverstate.h5
I1010 21:35:37.452275 17950 net.cpp:166] Setting up conv3
I1010 21:35:37.452296 17950 net.cpp:173] Top shape: 25 64 8 8 (102400)
I1010 21:35:37.452304 17950 net.cpp:181] Memory required for data: 8499300
I1010 21:35:37.452322 17950 layer_factory.hpp:77] Creating layer relu3
I1010 21:35:37.452337 17950 net.cpp:116] Creating Layer relu3
I1010 21:35:37.452345 17950 net.cpp:452] relu3 <- conv3
I1010 21:35:37.452355 17950 net.cpp:413] relu3 -> conv3 (in-place)
I1010 21:35:37.452366 17950 net.cpp:166] Setting up relu3
I1010 21:35:37.452375 17950 net.cpp:173] Top shape: 25 64 8 8 (102400)
I1010 21:35:37.452381 17950 net.cpp:181] Memory required for data: 8908900
I1010 21:35:37.452388 17950 layer_factory.hpp:77] Creating layer pool3
I1010 21:35:37.452455 17950 net.cpp:116] Creating Layer pool3
I1010 21:35:37.452467 17950 net.cpp:452] pool3 <- conv3
I1010 21:35:37.452478 17950 net.cpp:426] pool3 -> pool3
I1010 21:35:37.452492 17950 net.cpp:166] Setting up pool3
I1010 21:35:37.452502 17950 net.cpp:173] Top shape: 25 64 4 4 (25600)
I1010 21:35:37.452509 17950 net.cpp:181] Memory required for data: 9011300
I1010 21:35:37.452517 17950 layer_factory.hpp:77] Creating layer ip1
I1010 21:35:37.452533 17950 net.cpp:116] Creating Layer ip1
I1010 21:35:37.452540 17950 net.cpp:452] ip1 <- pool3
I1010 21:35:37.452551 17950 net.cpp:426] ip1 -> ip1
I1010 21:35:37.452765 17954 net.cpp:166] Setting up ip1
I1010 21:35:37.452781 17954 net.cpp:173] Top shape: 25 10 (250)
I1010 21:35:37.452788 17954 net.cpp:181] Memory required for data: 9012300
I1010 21:35:37.452800 17954 layer_factory.hpp:77] Creating layer loss
I1010 21:35:37.452813 17954 net.cpp:116] Creating Layer loss
I1010 21:35:37.452821 17954 net.cpp:452] loss <- ip1
I1010 21:35:37.452828 17954 net.cpp:452] loss <- label
I1010 21:35:37.452841 17954 net.cpp:426] loss -> loss
I1010 21:35:37.452855 17954 layer_factory.hpp:77] Creating layer loss
…
