…
I1010 21:13:13.382246 16468 net.cpp:340] The NetState phase (0) differed from the phase (1) specified by a rule in layer accuracy
I1010 21:13:13.382473 16468 net.cpp:74] Initializing net from parameters: 
name: "CIFAR10_full"
state {
  phase: TRAIN
  level: 0
  stage: ""
}
layer {
  name: "cifar"
  type: "RemoteData"
  top: "data"
  top: "label"
  include {
    phase: TRAIN
  }
  remote_data_param {
    address: "tcp://127.0.0.1:4050"
    cache_size: 1
    shape {
      dim: 100
      dim: 3
      dim: 32
      dim: 32
    }
    shape {
      dim: 100
    }
  }
}
layer {
  name: "conv1"
  type: "Convolution"
  bottom: "data"
  top: "conv1"
  param {
    lr_mult: 1
  }
  param {
    lr_mult: 2
  }
  convolution_param {
    num_output: 32
    pad: 2
    kernel_size: 5
    stride: 1
    weight_filler {
      type: "gaussian"
      std: 0.0001
    }
    bias_filler {
      type: "constant"
    }
  }
}
layer {
  name: "pool1"
  type: "Pooling"
  bottom: "conv1"
  top: "pool1"
  pooling_param {
    pool: MAX
    kernel_size: 3
    stride: 2
  }
}
layer {
  name: "relu1"
  type: "ReLU"
  bottom: "pool1"
  top: "pool1"
}
layer {
  name: "norm1"
  type: "LRN"
  bottom: "pool1"
  top: "norm1"
  lrn_param {
    local_size: 3
    alpha: 5e-05
    beta: 0.75
    norm_region: WITHIN_CHANNEL
  }
}
layer {
  name: "conv2"
  type: "Convolution"
  bottom: "norm1"
  top: "conv2"
  param {
    lr_mult: 1
  }
  param {
    lr_mult: 2
  }
  convolution_param {
    num_output: 32
    pad: 2
    kernel_size: 5
    stride: 1
    weight_filler {
      type: "gaussian"
      std: 0.01
    }
    bias_filler {
      type: "constant"
    }
  }
}
layer {
  name: "relu2"
  type: "ReLU"
  bottom: "conv2"
  top: "conv2"
}
layer {
  name: "pool2"
  type: "Pooling"
  bottom: "conv2"
  top: "pool2"
  pooling_param {
    pool: AVE
    kernel_size: 3
    stride: 2
  }
}
layer {
  name: "norm2"
  type: "LRN"
  bottom: "pool2"
  top: "norm2"
  lrn_param {
    local_size: 3
    alpha: 5e-05
    beta: 0.75
    norm_region: WITHIN_CHANNEL
  }
}
layer {
  name: "conv3"
  type: "Convolution"
  bottom: "norm2"
  top: "conv3"
  convolution_param {
    num_output: 64
    pad: 2
    kernel_size: 5
    stride: 1
    weight_filler {
      type: "gaussian"
      std: 0.01
    }
    bias_filler {
      type: "constant"
    }
  }
}
layer {
  name: "relu3"
  type: "ReLU"
  bottom: "conv3"
  top: "conv3"
}
layer {
  name: "pool3"
  type: "Pooling"
  bottom: "conv3"
  top: "pool3"
  pooling_param {
    pool: AVE
    kernel_size: 3
    stride: 2
  }
}
layer {
  name: "ip1"
  type: "InnerProduct"
  bottom: "pool3"
  top: "ip1"
  param {
    lr_mult: 1
    decay_mult: 250
  }
  param {
    lr_mult: 2
    decay_mult: 0
  }
  inner_product_param {
    num_output: 10
    weight_filler {
      type: "gaussian"
      std: 0.01
    }
    bias_filler {
      type: "constant"
    }
  }
}
layer {
  name: "loss"
  type: "SoftmaxWithLoss"
  bottom: "ip1"
  bottom: "label"
  top: "loss"
}
I1010 21:13:13.382645 16468 layer_factory.hpp:77] Creating layer cifar
I1010 21:13:13.382899 16472 cpu_info.cpp:436] Number of OpenMP threads: 1
I1010 21:13:13.383039 16472 net.cpp:340] The NetState phase (0) differed from the phase (1) specified by a rule in layer cifar
I1010 21:13:13.383070 16472 net.cpp:340] The NetState phase (0) differed from the phase (1) specified by a rule in layer accuracy
I1010 21:13:13.383193 16462 tcp_configuration.cpp:268] accepted client from address: tcp://127.0.0.1:65126
I1010 21:13:13.383260 16468 net.cpp:116] Creating Layer cifar
I1010 21:13:13.383297 16468 net.cpp:426] cifar -> data
I1010 21:13:13.383322 16468 net.cpp:426] cifar -> label
I1010 21:13:13.383289 16472 net.cpp:74] Initializing net from parameters: 
name: "CIFAR10_full"
state {
  phase: TRAIN
  level: 0
  stage: ""
}
layer {
  name: "cifar"
  type: "RemoteData"
  top: "data"
  top: "label"
  include {
    phase: TRAIN
  }
  remote_data_param {
    address: "tcp://127.0.0.1:4050"
    cache_size: 1
    shape {
      dim: 100
      dim: 3
      dim: 32
      dim: 32
    }
    shape {
      dim: 100
    }
  }
}
layer {
  name: "conv1"
  type: "Convolution"
  bottom: "data"
  top: "conv1"
  param {
    lr_mult: 1
  }
  param {
    lr_mult: 2
  }
  convolution_param {
    num_output: 32
    pad: 2
    kernel_size: 5
    stride: 1
    weight_filler {
      type: "gaussian"
      std: 0.0001
    }
    bias_filler {
      type: "constant"
    }
  }
}
layer {
  name: "pool1"
  type: "Pooling"
  bottom: "conv1"
  top: "pool1"
  pooling_param {
    pool: MAX
    kernel_size: 3
    stride: 2
  }
}
layer {
  name: "relu1"
  type: "ReLU"
  bottom: "pool1"
  top: "pool1"
}
layer {
  name: "norm1"
  type: "LRN"
  bottom: "pool1"
  top: "norm1"
  lrn_param {
    local_size: 3
    alpha: 5e-05
    beta: 0.75
    norm_region: WITHIN_CHANNEL
  }
}
layer {
  name: "conv2"
  type: "Convolution"
  bottom: "norm1"
  top: "conv2"
  param {
    lr_mult: 1
  }
  param {
    lr_mult: 2
  }
  convolution_param {
    num_output: 32
    pad: 2
    kernel_size: 5
    stride: 1
    weight_filler {
      type: "gaussian"
      std: 0.01
    }
    bias_filler {
      type: "constant"
    }
  }
}
layer {
  name: "relu2"
  type: "ReLU"
  bottom: "conv2"
  top: "conv2"
}
layer {
  name: "pool2"
  type: "Pooling"
  bottom: "conv2"
  top: "pool2"
  pooling_param {
    pool: AVE
    kernel_size: 3
    stride: 2
  }
}
layer {
  name: "norm2"
  type: "LRN"
  bottom: "pool2"
  top: "norm2"
  lrn_param {
    local_size: 3
    alpha: 5e-05
    beta: 0.75
    norm_region: WITHIN_CHANNEL
  }
}
layer {
  name: "conv3"
  type: "Convolution"
  bottom: "norm2"
  top: "conv3"
  convolution_param {
    num_output: 64
    pad: 2
    kernel_size: 5
    stride: 1
    weight_filler {
      type: "gaussian"
      std: 0.01
    }
    bias_filler {
      type: "constant"
    }
  }
}
layer {
  name: "relu3"
  type: "ReLU"
  bottom: "conv3"
  top: "conv3"
}
layer {
  name: "pool3"
  type: "Pooling"
  bottom: "conv3"
  top: "pool3"
  pooling_param {
    pool: AVE
    kernel_size: 3
    stride: 2
  }
}
layer {
  name: "ip1"
  type: "InnerProduct"
  bottom: "pool3"
  top: "ip1"
  param {
    lr_mult: 1
    decay_mult: 250
  }
  param {
    lr_mult: 2
    decay_mult: 0
  }
  inner_product_param {
    num_output: 10
    weight_filler {
      type: "gaussian"
      std: 0.01
    }
    bias_filler {
      type: "constant"
    }
  }
}
layer {
  name: "loss"
  type: "SoftmaxWithLoss"
  bottom: "ip1"
  bottom: "label"
  top: "loss"
}
I1010 21:13:13.383357 16468 net.cpp:166] Setting up cifar
I1010 21:13:13.383370 16468 net.cpp:173] Top shape: 100 3 32 32 (307200)
I1010 21:13:13.383379 16468 net.cpp:173] Top shape: 100 (100)
I1010 21:13:13.383385 16468 net.cpp:181] Memory required for data: 1229200
I1010 21:13:13.383393 16468 layer_factory.hpp:77] Creating layer conv1
I1010 21:13:13.383415 16468 net.cpp:116] Creating Layer conv1
I1010 21:13:13.383422 16468 net.cpp:452] conv1 <- data
I1010 21:13:13.383433 16468 net.cpp:426] conv1 -> conv1
I1010 21:13:13.383458 16472 layer_factory.hpp:77] Creating layer cifar
I1010 21:13:13.383678 16471 cpu_info.cpp:436] Number of OpenMP threads: 1
I1010 21:13:13.383792 16471 net.cpp:340] The NetState phase (0) differed from the phase (1) specified by a rule in layer cifar
I1010 21:13:13.383823 16471 net.cpp:340] The NetState phase (0) differed from the phase (1) specified by a rule in layer accuracy
I1010 21:13:13.383977 16468 net.cpp:166] Setting up conv1
I1010 21:13:13.383997 16468 net.cpp:173] Top shape: 100 32 32 32 (3276800)
I1010 21:13:13.384004 16468 net.cpp:181] Memory required for data: 14336400
I1010 21:13:13.384023 16468 layer_factory.hpp:77] Creating layer pool1
I1010 21:13:13.384014 16472 net.cpp:116] Creating Layer cifar
I1010 21:13:13.384035 16471 net.cpp:74] Initializing net from parameters: 
name: "CIFAR10_full"
state {
  phase: TRAIN
  level: 0
  stage: ""
}
layer {
  name: "cifar"
  type: "RemoteData"
  top: "data"
  top: "label"
  include {
    phase: TRAIN
  }
  remote_data_param {
    address: "tcp://127.0.0.1:4050"
    cache_size: 1
    shape {
      dim: 100
      dim: 3
      dim: 32
      dim: 32
    }
    shape {
      dim: 100
    }
  }
}
layer {
  name: "conv1"
  type: "Convolution"
  bottom: "data"
  top: "conv1"
  param {
    lr_mult: 1
  }
  param {
    lr_mult: 2
  }
  convolution_param {
    num_output: 32
    pad: 2
    kernel_size: 5
    stride: 1
    weight_filler {
      type: "gaussian"
      std: 0.0001
    }
    bias_filler {
      type: "constant"
    }
  }
}
layer {
  name: "pool1"
  type: "Pooling"
  bottom: "conv1"
  top: "pool1"
  pooling_param {
    pool: MAX
    kernel_size: 3
    stride: 2
  }
}
layer {
  name: "relu1"
  type: "ReLU"
  bottom: "pool1"
  top: "pool1"
}
layer {
  name: "norm1"
  type: "LRN"
  bottom: "pool1"
  top: "norm1"
  lrn_param {
    local_size: 3
    alpha: 5e-05
    beta: 0.75
    norm_region: WITHIN_CHANNEL
  }
}
layer {
  name: "conv2"
  type: "Convolution"
  bottom: "norm1"
  top: "conv2"
  param {
    lr_mult: 1
  }
  param {
    lr_mult: 2
  }
  convolution_param {
    num_output: 32
    pad: 2
    kernel_size: 5
    stride: 1
    weight_filler {
      type: "gaussian"
      std: 0.01
    }
    bias_filler {
      type: "constant"
    }
  }
}
layer {
  name: "relu2"
  type: "ReLU"
  bottom: "conv2"
  top: "conv2"
}
layer {
  name: "pool2"
  type: "Pooling"
  bottom: "conv2"
  top: "pool2"
  pooling_param {
    pool: AVE
    kernel_size: 3
    stride: 2
  }
}
layer {
  name: "norm2"
  type: "LRN"
  bottom: "pool2"
  top: "norm2"
  lrn_param {
    local_size: 3
    alpha: 5e-05
    beta: 0.75
    norm_region: WITHIN_CHANNEL
  }
}
layer {
  name: "conv3"
  type: "Convolution"
  bottom: "norm2"
  top: "conv3"
  convolution_param {
    num_output: 64
    pad: 2
    kernel_size: 5
    stride: 1
    weight_filler {
      type: "gaussian"
      std: 0.01
    }
    bias_filler {
      type: "constant"
    }
  }
}
layer {
  name: "relu3"
  type: "ReLU"
  bottom: "conv3"
  top: "conv3"
}
layer {
  name: "pool3"
  type: "Pooling"
  bottom: "conv3"
  top: "pool3"
  pooling_param {
    pool: AVE
    kernel_size: 3
    stride: 2
  }
}
layer {
  name: "ip1"
  type: "InnerProduct"
  bottom: "pool3"
  top: "ip1"
  param {
    lr_mult: 1
    decay_mult: 250
  }
  param {
    lr_mult: 2
    decay_mult: 0
  }
  inner_product_param {
    num_output: 10
    weight_filler {
      type: "gaussian"
      std: 0.01
    }
    bias_filler {
      type: "constant"
    }
  }
}
layer {
  name: "loss"
  type: "SoftmaxWithLoss"
  bottom: "ip1"
  bottom: "label"
  top: "loss"
}
I1010 21:13:13.384052 16472 net.cpp:426] cifar -> data
I1010 21:13:13.384073 16472 net.cpp:426] cifar -> label
I1010 21:13:13.384080 16468 net.cpp:116] Creating Layer pool1
I1010 21:13:13.384088 16468 net.cpp:452] pool1 <- conv1
I1010 21:13:13.384099 16468 net.cpp:426] pool1 -> pool1
I1010 21:13:13.384119 16468 net.cpp:166] Setting up pool1
I1010 21:13:13.384127 16468 net.cpp:173] Top shape: 100 32 16 16 (819200)
I1010 21:13:13.384133 16468 net.cpp:181] Memory required for data: 17613200
I1010 21:13:13.384099 16472 net.cpp:166] Setting up cifar
I1010 21:13:13.384112 16472 net.cpp:173] Top shape: 100 3 32 32 (307200)
I1010 21:13:13.384122 16472 net.cpp:173] Top shape: 100 (100)
I1010 21:13:13.384129 16472 net.cpp:181] Memory required for data: 1229200
I1010 21:13:13.384140 16468 layer_factory.hpp:77] Creating layer relu1
I1010 21:13:13.384136 16472 layer_factory.hpp:77] Creating layer conv1
I1010 21:13:13.384162 16472 net.cpp:116] Creating Layer conv1
I1010 21:13:13.384150 16468 net.cpp:116] Creating Layer relu1
I1010 21:13:13.384155 16468 net.cpp:452] relu1 <- pool1
I1010 21:13:13.384163 16468 net.cpp:413] relu1 -> pool1 (in-place)
I1010 21:13:13.384174 16468 net.cpp:166] Setting up relu1
I1010 21:13:13.384171 16472 net.cpp:452] conv1 <- data
I1010 21:13:13.384182 16472 net.cpp:426] conv1 -> conv1
I1010 21:13:13.384193 16471 layer_factory.hpp:77] Creating layer cifar
I1010 21:13:13.384182 16468 net.cpp:173] Top shape: 100 32 16 16 (819200)
I1010 21:13:13.384188 16468 net.cpp:181] Memory required for data: 20890000
I1010 21:13:13.384193 16468 layer_factory.hpp:77] Creating layer norm1
I1010 21:13:13.384207 16468 net.cpp:116] Creating Layer norm1
I1010 21:13:13.384212 16468 net.cpp:452] norm1 <- pool1
I1010 21:13:13.384220 16468 net.cpp:426] norm1 -> norm1
I1010 21:13:13.384289 16468 net.cpp:166] Setting up norm1
I1010 21:13:13.384305 16468 net.cpp:173] Top shape: 100 32 16 16 (819200)
I1010 21:13:13.384310 16468 net.cpp:181] Memory required for data: 24166800
I1010 21:13:13.384316 16468 layer_factory.hpp:77] Creating layer conv2
I1010 21:13:13.384333 16468 net.cpp:116] Creating Layer conv2
I1010 21:13:13.384340 16468 net.cpp:452] conv2 <- norm1
I1010 21:13:13.384349 16468 net.cpp:426] conv2 -> conv2
I1010 21:13:13.384402 16469 cpu_info.cpp:436] Number of OpenMP threads: 1
I1010 21:13:13.384517 16469 net.cpp:340] The NetState phase (0) differed from the phase (1) specified by a rule in layer cifar
I1010 21:13:13.384548 16469 net.cpp:340] The NetState phase (0) differed from the phase (1) specified by a rule in layer accuracy
I1010 21:13:13.384712 16471 net.cpp:116] Creating Layer cifar
I1010 21:13:13.384752 16471 net.cpp:426] cifar -> data
I1010 21:13:13.384755 16472 net.cpp:166] Setting up conv1
I1010 21:13:13.384773 16472 net.cpp:173] Top shape: 100 32 32 32 (3276800)
I1010 21:13:13.384780 16472 net.cpp:181] Memory required for data: 14336400
I1010 21:13:13.384799 16472 layer_factory.hpp:77] Creating layer pool1
I1010 21:13:13.384773 16471 net.cpp:426] cifar -> label
I1010 21:13:13.384802 16471 net.cpp:166] Setting up cifar
I1010 21:13:13.384815 16471 net.cpp:173] Top shape: 100 3 32 32 (307200)
I1010 21:13:13.384824 16471 net.cpp:173] Top shape: 100 (100)
I1010 21:13:13.384830 16471 net.cpp:181] Memory required for data: 1229200
I1010 21:13:13.384768 16469 net.cpp:74] Initializing net from parameters: 
name: "CIFAR10_full"
state {
  phase: TRAIN
  level: 0
  stage: ""
}
layer {
  name: "cifar"
  type: "RemoteData"
  top: "data"
  top: "label"
  include {
    phase: TRAIN
  }
  remote_data_param {
    address: "tcp://127.0.0.1:4050"
    cache_size: 1
    shape {
      dim: 100
      dim: 3
      dim: 32
      dim: 32
    }
    shape {
      dim: 100
    }
  }
}
layer {
  name: "conv1"
  type: "Convolution"
  bottom: "data"
  top: "conv1"
  param {
    lr_mult: 1
  }
  param {
    lr_mult: 2
  }
  convolution_param {
    num_output: 32
    pad: 2
    kernel_size: 5
    stride: 1
    weight_filler {
      type: "gaussian"
      std: 0.0001
    }
    bias_filler {
      type: "constant"
    }
  }
}
layer {
  name: "pool1"
  type: "Pooling"
  bottom: "conv1"
  top: "pool1"
  pooling_param {
    pool: MAX
    kernel_size: 3
    stride: 2
  }
}
layer {
  name: "relu1"
  type: "ReLU"
  bottom: "pool1"
  top: "pool1"
}
layer {
  name: "norm1"
  type: "LRN"
  bottom: "pool1"
  top: "norm1"
  lrn_param {
    local_size: 3
    alpha: 5e-05
    beta: 0.75
    norm_region: WITHIN_CHANNEL
  }
}
layer {
  name: "conv2"
  type: "Convolution"
  bottom: "norm1"
  top: "conv2"
  param {
    lr_mult: 1
  }
  param {
    lr_mult: 2
  }
  convolution_param {
    num_output: 32
    pad: 2
    kernel_size: 5
    stride: 1
    weight_filler {
      type: "gaussian"
      std: 0.01
    }
    bias_filler {
      type: "constant"
    }
  }
}
layer {
  name: "relu2"
  type: "ReLU"
  bottom: "conv2"
  top: "conv2"
}
layer {
  name: "pool2"
  type: "Pooling"
  bottom: "conv2"
  top: "pool2"
  pooling_param {
    pool: AVE
    kernel_size: 3
    stride: 2
  }
}
layer {
  name: "norm2"
  type: "LRN"
  bottom: "pool2"
  top: "norm2"
  lrn_param {
    local_size: 3
    alpha: 5e-05
    beta: 0.75
    norm_region: WITHIN_CHANNEL
  }
}
layer {
  name: "conv3"
  type: "Convolution"
  bottom: "norm2"
  top: "conv3"
  convolution_param {
    num_output: 64
    pad: 2
    kernel_size: 5
    stride: 1
    weight_filler {
      type: "gaussian"
      std: 0.01
    }
    bias_filler {
      type: "constant"
    }
  }
}
layer {
  name: "relu3"
  type: "ReLU"
  bottom: "conv3"
  top: "conv3"
}
layer {
  name: "pool3"
  type: "Pooling"
  bottom: "conv3"
  top: "pool3"
  pooling_param {
    pool: AVE
    kernel_size: 3
    stride: 2
  }
}
layer {
  name: "ip1"
  type: "InnerProduct"
  bottom: "pool3"
  top: "ip1"
  param {
    lr_mult: 1
    decay_mult: 250
  }
  param {
    lr_mult: 2
    decay_mult: 0
  }
  inner_product_param {
    num_output: 10
    weight_filler {
      type: "gaussian"
      std: 0.01
    }
    bias_filler {
      type: "constant"
    }
  }
}
layer {
  name: "loss"
  type: "SoftmaxWithLoss"
  bottom: "ip1"
  bottom: "label"
  top: "loss"
}
I1010 21:13:13.384837 16471 layer_factory.hpp:77] Creating layer conv1
I1010 21:13:13.384850 16472 net.cpp:116] Creating Layer pool1
I1010 21:13:13.384858 16472 net.cpp:452] pool1 <- conv1
I1010 21:13:13.384870 16472 net.cpp:426] pool1 -> pool1
I1010 21:13:13.384861 16471 net.cpp:116] Creating Layer conv1
I1010 21:13:13.384868 16471 net.cpp:452] conv1 <- data
I1010 21:13:13.384879 16471 net.cpp:426] conv1 -> conv1
I1010 21:13:13.384896 16472 net.cpp:166] Setting up pool1
I1010 21:13:13.384905 16472 net.cpp:173] Top shape: 100 32 16 16 (819200)
I1010 21:13:13.384912 16472 net.cpp:181] Memory required for data: 17613200
I1010 21:13:13.384919 16472 layer_factory.hpp:77] Creating layer relu1
I1010 21:13:13.384929 16472 net.cpp:116] Creating Layer relu1
I1010 21:13:13.384937 16472 net.cpp:452] relu1 <- pool1
I1010 21:13:13.384928 16469 layer_factory.hpp:77] Creating layer cifar
I1010 21:13:13.384946 16472 net.cpp:413] relu1 -> pool1 (in-place)
I1010 21:13:13.384958 16472 net.cpp:166] Setting up relu1
I1010 21:13:13.384965 16472 net.cpp:173] Top shape: 100 32 16 16 (819200)
I1010 21:13:13.384971 16472 net.cpp:181] Memory required for data: 20890000
I1010 21:13:13.384977 16472 layer_factory.hpp:77] Creating layer norm1
I1010 21:13:13.384991 16472 net.cpp:116] Creating Layer norm1
I1010 21:13:13.384997 16472 net.cpp:452] norm1 <- pool1
I1010 21:13:13.385006 16472 net.cpp:426] norm1 -> norm1
I1010 21:13:13.385076 16472 net.cpp:166] Setting up norm1
I1010 21:13:13.385095 16472 net.cpp:173] Top shape: 100 32 16 16 (819200)
I1010 21:13:13.385102 16472 net.cpp:181] Memory required for data: 24166800
I1010 21:13:13.385108 16472 layer_factory.hpp:77] Creating layer conv2
I1010 21:13:13.385128 16472 net.cpp:116] Creating Layer conv2
I1010 21:13:13.385135 16472 net.cpp:452] conv2 <- norm1
I1010 21:13:13.385145 16472 net.cpp:426] conv2 -> conv2
I1010 21:13:13.385164 16470 cpu_info.cpp:436] Number of OpenMP threads: 1
I1010 21:13:13.385315 16470 net.cpp:340] The NetState phase (0) differed from the phase (1) specified by a rule in layer cifar
I1010 21:13:13.385355 16470 net.cpp:340] The NetState phase (0) differed from the phase (1) specified by a rule in layer accuracy
I1010 21:13:13.385407 16471 net.cpp:166] Setting up conv1
I1010 21:13:13.385426 16471 net.cpp:173] Top shape: 100 32 32 32 (3276800)
I1010 21:13:13.385432 16471 net.cpp:181] Memory required for data: 14336400
I1010 21:13:13.385450 16471 layer_factory.hpp:77] Creating layer pool1
I1010 21:13:13.385478 16469 net.cpp:116] Creating Layer cifar
I1010 21:13:13.385494 16471 net.cpp:116] Creating Layer pool1
I1010 21:13:13.385504 16471 net.cpp:452] pool1 <- conv1
I1010 21:13:13.385514 16471 net.cpp:426] pool1 -> pool1
I1010 21:13:13.385537 16471 net.cpp:166] Setting up pool1
I1010 21:13:13.385514 16469 net.cpp:426] cifar -> data
I1010 21:13:13.385537 16469 net.cpp:426] cifar -> label
I1010 21:13:13.385546 16471 net.cpp:173] Top shape: 100 32 16 16 (819200)
I1010 21:13:13.385553 16471 net.cpp:181] Memory required for data: 17613200
I1010 21:13:13.385560 16471 layer_factory.hpp:77] Creating layer relu1
I1010 21:13:13.385570 16471 net.cpp:116] Creating Layer relu1
I1010 21:13:13.385568 16469 net.cpp:166] Setting up cifar
I1010 21:13:13.385581 16469 net.cpp:173] Top shape: 100 3 32 32 (307200)
I1010 21:13:13.385576 16471 net.cpp:452] relu1 <- pool1
I1010 21:13:13.385586 16471 net.cpp:413] relu1 -> pool1 (in-place)
I1010 21:13:13.385596 16471 net.cpp:166] Setting up relu1
I1010 21:13:13.385603 16471 net.cpp:173] Top shape: 100 32 16 16 (819200)
I1010 21:13:13.385589 16469 net.cpp:173] Top shape: 100 (100)
I1010 21:13:13.385596 16469 net.cpp:181] Memory required for data: 1229200
I1010 21:13:13.385603 16469 layer_factory.hpp:77] Creating layer conv1
I1010 21:13:13.385608 16471 net.cpp:181] Memory required for data: 20890000
I1010 21:13:13.385614 16471 layer_factory.hpp:77] Creating layer norm1
I1010 21:13:13.385627 16471 net.cpp:116] Creating Layer norm1
I1010 21:13:13.385632 16471 net.cpp:452] norm1 <- pool1
I1010 21:13:13.385581 16470 net.cpp:74] Initializing net from parameters: 
name: "CIFAR10_full"
state {
  phase: TRAIN
  level: 0
  stage: ""
}
layer {
  name: "cifar"
  type: "RemoteData"
  top: "data"
  top: "label"
  include {
    phase: TRAIN
  }
  remote_data_param {
    address: "tcp://127.0.0.1:4050"
    cache_size: 1
    shape {
      dim: 100
      dim: 3
      dim: 32
      dim: 32
    }
    shape {
      dim: 100
    }
  }
}
layer {
  name: "conv1"
  type: "Convolution"
  bottom: "data"
  top: "conv1"
  param {
    lr_mult: 1
  }
  param {
    lr_mult: 2
  }
  convolution_param {
    num_output: 32
    pad: 2
    kernel_size: 5
    stride: 1
    weight_filler {
      type: "gaussian"
      std: 0.0001
    }
    bias_filler {
      type: "constant"
    }
  }
}
layer {
  name: "pool1"
  type: "Pooling"
  bottom: "conv1"
  top: "pool1"
  pooling_param {
    pool: MAX
    kernel_size: 3
    stride: 2
  }
}
layer {
  name: "relu1"
  type: "ReLU"
  bottom: "pool1"
  top: "pool1"
}
layer {
  name: "norm1"
  type: "LRN"
  bottom: "pool1"
  top: "norm1"
  lrn_param {
    local_size: 3
    alpha: 5e-05
    beta: 0.75
    norm_region: WITHIN_CHANNEL
  }
}
layer {
  name: "conv2"
  type: "Convolution"
  bottom: "norm1"
  top: "conv2"
  param {
    lr_mult: 1
  }
  param {
    lr_mult: 2
  }
  convolution_param {
    num_output: 32
    pad: 2
    kernel_size: 5
    stride: 1
    weight_filler {
      type: "gaussian"
      std: 0.01
    }
    bias_filler {
      type: "constant"
    }
  }
}
layer {
  name: "relu2"
  type: "ReLU"
  bottom: "conv2"
  top: "conv2"
}
layer {
  name: "pool2"
  type: "Pooling"
  bottom: "conv2"
  top: "pool2"
  pooling_param {
    pool: AVE
    kernel_size: 3
    stride: 2
  }
}
layer {
  name: "norm2"
  type: "LRN"
  bottom: "pool2"
  top: "norm2"
  lrn_param {
    local_size: 3
    alpha: 5e-05
    beta: 0.75
    norm_region: WITHIN_CHANNEL
  }
}
layer {
  name: "conv3"
  type: "Convolution"
  bottom: "norm2"
  top: "conv3"
  convolution_param {
    num_output: 64
    pad: 2
    kernel_size: 5
    stride: 1
    weight_filler {
      type: "gaussian"
      std: 0.01
    }
    bias_filler {
      type: "constant"
    }
  }
}
layer {
  name: "relu3"
  type: "ReLU"
  bottom: "conv3"
  top: "conv3"
}
layer {
  name: "pool3"
  type: "Pooling"
  bottom: "conv3"
  top: "pool3"
  pooling_param {
    pool: AVE
    kernel_size: 3
    stride: 2
  }
}
layer {
  name: "ip1"
  type: "InnerProduct"
  bottom: "pool3"
  top: "ip1"
  param {
    lr_mult: 1
    decay_mult: 250
  }
  param {
    lr_mult: 2
    decay_mult: 0
  }
  inner_product_param {
    num_output: 10
    weight_filler {
      type: "gaussian"
      std: 0.01
    }
    bias_filler {
      type: "constant"
    }
  }
}
layer {
  name: "loss"
  type: "SoftmaxWithLoss"
  bottom: "ip1"
  bottom: "label"
  top: "loss"
}
I1010 21:13:13.385624 16469 net.cpp:116] Creating Layer conv1
I1010 21:13:13.385632 16469 net.cpp:452] conv1 <- data
I1010 21:13:13.385643 16469 net.cpp:426] conv1 -> conv1
I1010 21:13:13.385642 16471 net.cpp:426] norm1 -> norm1
I1010 21:13:13.385701 16471 net.cpp:166] Setting up norm1
I1010 21:13:13.385713 16471 net.cpp:173] Top shape: 100 32 16 16 (819200)
I1010 21:13:13.385720 16471 net.cpp:181] Memory required for data: 24166800
I1010 21:13:13.385726 16471 layer_factory.hpp:77] Creating layer conv2
I1010 21:13:13.385740 16470 layer_factory.hpp:77] Creating layer cifar
I1010 21:13:13.385743 16471 net.cpp:116] Creating Layer conv2
I1010 21:13:13.385751 16471 net.cpp:452] conv2 <- norm1
I1010 21:13:13.385759 16471 net.cpp:426] conv2 -> conv2
I1010 21:13:13.386149 16469 net.cpp:166] Setting up conv1
I1010 21:13:13.386170 16469 net.cpp:173] Top shape: 100 32 32 32 (3276800)
I1010 21:13:13.386178 16469 net.cpp:181] Memory required for data: 14336400
I1010 21:13:13.386193 16469 layer_factory.hpp:77] Creating layer pool1
I1010 21:13:13.386247 16470 net.cpp:116] Creating Layer cifar
I1010 21:13:13.386241 16469 net.cpp:116] Creating Layer pool1
I1010 21:13:13.386250 16469 net.cpp:452] pool1 <- conv1
I1010 21:13:13.386258 16469 net.cpp:426] pool1 -> pool1
I1010 21:13:13.386279 16470 net.cpp:426] cifar -> data
I1010 21:13:13.386301 16470 net.cpp:426] cifar -> label
I1010 21:13:13.386281 16469 net.cpp:166] Setting up pool1
I1010 21:13:13.386289 16469 net.cpp:173] Top shape: 100 32 16 16 (819200)
I1010 21:13:13.386294 16469 net.cpp:181] Memory required for data: 17613200
I1010 21:13:13.386301 16469 layer_factory.hpp:77] Creating layer relu1
I1010 21:13:13.386309 16469 net.cpp:116] Creating Layer relu1
I1010 21:13:13.386315 16469 net.cpp:452] relu1 <- pool1
I1010 21:13:13.386323 16469 net.cpp:413] relu1 -> pool1 (in-place)
I1010 21:13:13.386337 16469 net.cpp:166] Setting up relu1
I1010 21:13:13.386343 16469 net.cpp:173] Top shape: 100 32 16 16 (819200)
I1010 21:13:13.386348 16469 net.cpp:181] Memory required for data: 20890000
I1010 21:13:13.386353 16469 layer_factory.hpp:77] Creating layer norm1
I1010 21:13:13.386346 16470 net.cpp:166] Setting up cifar
I1010 21:13:13.386359 16470 net.cpp:173] Top shape: 100 3 32 32 (307200)
I1010 21:13:13.386365 16469 net.cpp:116] Creating Layer norm1
I1010 21:13:13.386370 16469 net.cpp:452] norm1 <- pool1
I1010 21:13:13.386379 16469 net.cpp:426] norm1 -> norm1
I1010 21:13:13.386368 16470 net.cpp:173] Top shape: 100 (100)
I1010 21:13:13.386374 16470 net.cpp:181] Memory required for data: 1229200
I1010 21:13:13.386381 16470 layer_factory.hpp:77] Creating layer conv1
I1010 21:13:13.386401 16470 net.cpp:116] Creating Layer conv1
I1010 21:13:13.386409 16470 net.cpp:452] conv1 <- data
I1010 21:13:13.386420 16470 net.cpp:426] conv1 -> conv1
I1010 21:13:13.386433 16469 net.cpp:166] Setting up norm1
I1010 21:13:13.386445 16469 net.cpp:173] Top shape: 100 32 16 16 (819200)
I1010 21:13:13.386450 16469 net.cpp:181] Memory required for data: 24166800
I1010 21:13:13.386456 16469 layer_factory.hpp:77] Creating layer conv2
I1010 21:13:13.386471 16469 net.cpp:116] Creating Layer conv2
I1010 21:13:13.386477 16469 net.cpp:452] conv2 <- norm1
I1010 21:13:13.386485 16469 net.cpp:426] conv2 -> conv2
I1010 21:13:13.386565 16462 tcp_configuration.cpp:268] accepted client from address: tcp://127.0.0.1:65127
I1010 21:13:13.386636 16462 tcp_configuration.cpp:268] accepted client from address: tcp://127.0.0.1:65128
I1010 21:13:13.386708 16468 net.cpp:166] Setting up conv2
I1010 21:13:13.386726 16468 net.cpp:173] Top shape: 100 32 16 16 (819200)
I1010 21:13:13.386734 16468 net.cpp:181] Memory required for data: 27443600
I1010 21:13:13.386747 16468 layer_factory.hpp:77] Creating layer relu2
I1010 21:13:13.386759 16468 net.cpp:116] Creating Layer relu2
I1010 21:13:13.386765 16468 net.cpp:452] relu2 <- conv2
I1010 21:13:13.386775 16468 net.cpp:413] relu2 -> conv2 (in-place)
I1010 21:13:13.386785 16468 net.cpp:166] Setting up relu2
I1010 21:13:13.386792 16468 net.cpp:173] Top shape: 100 32 16 16 (819200)
I1010 21:13:13.386797 16468 net.cpp:181] Memory required for data: 30720400
I1010 21:13:13.386802 16468 layer_factory.hpp:77] Creating layer pool2
I1010 21:13:13.386874 16468 net.cpp:116] Creating Layer pool2
I1010 21:13:13.386884 16468 net.cpp:452] pool2 <- conv2
I1010 21:13:13.386894 16468 net.cpp:426] pool2 -> pool2
I1010 21:13:13.386907 16468 net.cpp:166] Setting up pool2
I1010 21:13:13.386916 16468 net.cpp:173] Top shape: 100 32 8 8 (204800)
I1010 21:13:13.386921 16468 net.cpp:181] Memory required for data: 31539600
I1010 21:13:13.386924 16470 net.cpp:166] Setting up conv1
I1010 21:13:13.386927 16468 layer_factory.hpp:77] Creating layer norm2
I1010 21:13:13.386941 16470 net.cpp:173] Top shape: 100 32 32 32 (3276800)
I1010 21:13:13.386947 16470 net.cpp:181] Memory required for data: 14336400
I1010 21:13:13.386940 16468 net.cpp:116] Creating Layer norm2
I1010 21:13:13.386970 16468 net.cpp:452] norm2 <- pool2
I1010 21:13:13.386979 16468 net.cpp:426] norm2 -> norm2
I1010 21:13:13.386965 16470 layer_factory.hpp:77] Creating layer pool1
I1010 21:13:13.387012 16470 net.cpp:116] Creating Layer pool1
I1010 21:13:13.387025 16470 net.cpp:452] pool1 <- conv1
I1010 21:13:13.387037 16470 net.cpp:426] pool1 -> pool1
I1010 21:13:13.387053 16470 net.cpp:166] Setting up pool1
I1010 21:13:13.387061 16470 net.cpp:173] Top shape: 100 32 16 16 (819200)
I1010 21:13:13.387068 16470 net.cpp:181] Memory required for data: 17613200
I1010 21:13:13.387073 16470 layer_factory.hpp:77] Creating layer relu1
I1010 21:13:13.387082 16470 net.cpp:116] Creating Layer relu1
I1010 21:13:13.387089 16470 net.cpp:452] relu1 <- pool1
I1010 21:13:13.387074 16468 net.cpp:166] Setting up norm2
I1010 21:13:13.387087 16468 net.cpp:173] Top shape: 100 32 8 8 (204800)
I1010 21:13:13.387094 16468 net.cpp:181] Memory required for data: 32358800
I1010 21:13:13.387099 16468 layer_factory.hpp:77] Creating layer conv3
I1010 21:13:13.387115 16468 net.cpp:116] Creating Layer conv3
I1010 21:13:13.387097 16470 net.cpp:413] relu1 -> pool1 (in-place)
I1010 21:13:13.387106 16470 net.cpp:166] Setting up relu1
I1010 21:13:13.387115 16470 net.cpp:173] Top shape: 100 32 16 16 (819200)
I1010 21:13:13.387120 16470 net.cpp:181] Memory required for data: 20890000
I1010 21:13:13.387125 16470 layer_factory.hpp:77] Creating layer norm1
I1010 21:13:13.387136 16470 net.cpp:116] Creating Layer norm1
I1010 21:13:13.387142 16470 net.cpp:452] norm1 <- pool1
I1010 21:13:13.387120 16468 net.cpp:452] conv3 <- norm2
I1010 21:13:13.387130 16468 net.cpp:426] conv3 -> conv3
I1010 21:13:13.387151 16470 net.cpp:426] norm1 -> norm1
I1010 21:13:13.387208 16470 net.cpp:166] Setting up norm1
I1010 21:13:13.387224 16470 net.cpp:173] Top shape: 100 32 16 16 (819200)
I1010 21:13:13.387230 16470 net.cpp:181] Memory required for data: 24166800
I1010 21:13:13.387235 16470 layer_factory.hpp:77] Creating layer conv2
I1010 21:13:13.387253 16470 net.cpp:116] Creating Layer conv2
I1010 21:13:13.387259 16470 net.cpp:452] conv2 <- norm1
I1010 21:13:13.387269 16470 net.cpp:426] conv2 -> conv2
I1010 21:13:13.387578 16472 net.cpp:166] Setting up conv2
I1010 21:13:13.387598 16472 net.cpp:173] Top shape: 100 32 16 16 (819200)
I1010 21:13:13.387603 16472 net.cpp:181] Memory required for data: 27443600
I1010 21:13:13.387619 16472 layer_factory.hpp:77] Creating layer relu2
I1010 21:13:13.387630 16472 net.cpp:116] Creating Layer relu2
I1010 21:13:13.387639 16472 net.cpp:452] relu2 <- conv2
I1010 21:13:13.387650 16472 net.cpp:413] relu2 -> conv2 (in-place)
I1010 21:13:13.387660 16472 net.cpp:166] Setting up relu2
I1010 21:13:13.387667 16472 net.cpp:173] Top shape: 100 32 16 16 (819200)
I1010 21:13:13.387673 16472 net.cpp:181] Memory required for data: 30720400
I1010 21:13:13.387678 16472 layer_factory.hpp:77] Creating layer pool2
I1010 21:13:13.387707 16472 net.cpp:116] Creating Layer pool2
I1010 21:13:13.387714 16472 net.cpp:452] pool2 <- conv2
I1010 21:13:13.387724 16472 net.cpp:426] pool2 -> pool2
I1010 21:13:13.387737 16472 net.cpp:166] Setting up pool2
I1010 21:13:13.387744 16472 net.cpp:173] Top shape: 100 32 8 8 (204800)
I1010 21:13:13.387750 16472 net.cpp:181] Memory required for data: 31539600
I1010 21:13:13.387756 16472 layer_factory.hpp:77] Creating layer norm2
I1010 21:13:13.387769 16472 net.cpp:116] Creating Layer norm2
I1010 21:13:13.387809 16472 net.cpp:452] norm2 <- pool2
I1010 21:13:13.387820 16472 net.cpp:426] norm2 -> norm2
I1010 21:13:13.387868 16472 net.cpp:166] Setting up norm2
I1010 21:13:13.387883 16472 net.cpp:173] Top shape: 100 32 8 8 (204800)
I1010 21:13:13.387889 16472 net.cpp:181] Memory required for data: 32358800
I1010 21:13:13.387895 16472 layer_factory.hpp:77] Creating layer conv3
I1010 21:13:13.387913 16472 net.cpp:116] Creating Layer conv3
I1010 21:13:13.387920 16472 net.cpp:452] conv3 <- norm2
I1010 21:13:13.387931 16472 net.cpp:426] conv3 -> conv3
I1010 21:13:13.387955 16471 net.cpp:166] Setting up conv2
I1010 21:13:13.387967 16471 net.cpp:173] Top shape: 100 32 16 16 (819200)
I1010 21:13:13.387974 16471 net.cpp:181] Memory required for data: 27443600
I1010 21:13:13.387989 16471 layer_factory.hpp:77] Creating layer relu2
I1010 21:13:13.387998 16471 net.cpp:116] Creating Layer relu2
I1010 21:13:13.388005 16471 net.cpp:452] relu2 <- conv2
I1010 21:13:13.388013 16471 net.cpp:413] relu2 -> conv2 (in-place)
I1010 21:13:13.388023 16471 net.cpp:166] Setting up relu2
I1010 21:13:13.388031 16471 net.cpp:173] Top shape: 100 32 16 16 (819200)
I1010 21:13:13.388036 16471 net.cpp:181] Memory required for data: 30720400
I1010 21:13:13.388041 16471 layer_factory.hpp:77] Creating layer pool2
I1010 21:13:13.388065 16471 net.cpp:116] Creating Layer pool2
I1010 21:13:13.388077 16471 net.cpp:452] pool2 <- conv2
I1010 21:13:13.388085 16471 net.cpp:426] pool2 -> pool2
I1010 21:13:13.388098 16471 net.cpp:166] Setting up pool2
I1010 21:13:13.388104 16471 net.cpp:173] Top shape: 100 32 8 8 (204800)
I1010 21:13:13.388110 16471 net.cpp:181] Memory required for data: 31539600
I1010 21:13:13.388115 16471 layer_factory.hpp:77] Creating layer norm2
I1010 21:13:13.388126 16471 net.cpp:116] Creating Layer norm2
I1010 21:13:13.388159 16471 net.cpp:452] norm2 <- pool2
I1010 21:13:13.388169 16471 net.cpp:426] norm2 -> norm2
I1010 21:13:13.388211 16471 net.cpp:166] Setting up norm2
I1010 21:13:13.388223 16471 net.cpp:173] Top shape: 100 32 8 8 (204800)
I1010 21:13:13.388228 16471 net.cpp:181] Memory required for data: 32358800
I1010 21:13:13.388234 16471 layer_factory.hpp:77] Creating layer conv3
I1010 21:13:13.388250 16471 net.cpp:116] Creating Layer conv3
I1010 21:13:13.388257 16471 net.cpp:452] conv3 <- norm2
I1010 21:13:13.388265 16471 net.cpp:426] conv3 -> conv3
I1010 21:13:13.388624 16462 tcp_configuration.cpp:268] accepted client from address: tcp://127.0.0.1:65129
I1010 21:13:13.388672 16469 net.cpp:166] Setting up conv2
I1010 21:13:13.388689 16469 net.cpp:173] Top shape: 100 32 16 16 (819200)
I1010 21:13:13.388695 16469 net.cpp:181] Memory required for data: 27443600
I1010 21:13:13.388708 16469 layer_factory.hpp:77] Creating layer relu2
I1010 21:13:13.388720 16469 net.cpp:116] Creating Layer relu2
I1010 21:13:13.388725 16469 net.cpp:452] relu2 <- conv2
I1010 21:13:13.388734 16469 net.cpp:413] relu2 -> conv2 (in-place)
I1010 21:13:13.388743 16469 net.cpp:166] Setting up relu2
I1010 21:13:13.388751 16469 net.cpp:173] Top shape: 100 32 16 16 (819200)
I1010 21:13:13.388756 16469 net.cpp:181] Memory required for data: 30720400
I1010 21:13:13.388761 16469 layer_factory.hpp:77] Creating layer pool2
I1010 21:13:13.388784 16469 net.cpp:116] Creating Layer pool2
I1010 21:13:13.388790 16469 net.cpp:452] pool2 <- conv2
I1010 21:13:13.388798 16469 net.cpp:426] pool2 -> pool2
I1010 21:13:13.388809 16469 net.cpp:166] Setting up pool2
I1010 21:13:13.388816 16469 net.cpp:173] Top shape: 100 32 8 8 (204800)
I1010 21:13:13.388823 16469 net.cpp:181] Memory required for data: 31539600
I1010 21:13:13.388828 16469 layer_factory.hpp:77] Creating layer norm2
I1010 21:13:13.388839 16469 net.cpp:116] Creating Layer norm2
I1010 21:13:13.388875 16469 net.cpp:452] norm2 <- pool2
I1010 21:13:13.388883 16469 net.cpp:426] norm2 -> norm2
I1010 21:13:13.388926 16469 net.cpp:166] Setting up norm2
I1010 21:13:13.388937 16469 net.cpp:173] Top shape: 100 32 8 8 (204800)
I1010 21:13:13.388943 16469 net.cpp:181] Memory required for data: 32358800
I1010 21:13:13.388948 16469 layer_factory.hpp:77] Creating layer conv3
I1010 21:13:13.388963 16469 net.cpp:116] Creating Layer conv3
I1010 21:13:13.388969 16469 net.cpp:452] conv3 <- norm2
I1010 21:13:13.388978 16469 net.cpp:426] conv3 -> conv3
I1010 21:13:13.389610 16470 net.cpp:166] Setting up conv2
I1010 21:13:13.389628 16470 net.cpp:173] Top shape: 100 32 16 16 (819200)
I1010 21:13:13.389634 16470 net.cpp:181] Memory required for data: 27443600
I1010 21:13:13.389649 16470 layer_factory.hpp:77] Creating layer relu2
I1010 21:13:13.389660 16470 net.cpp:116] Creating Layer relu2
I1010 21:13:13.389667 16470 net.cpp:452] relu2 <- conv2
I1010 21:13:13.389678 16470 net.cpp:413] relu2 -> conv2 (in-place)
I1010 21:13:13.389688 16470 net.cpp:166] Setting up relu2
I1010 21:13:13.389696 16470 net.cpp:173] Top shape: 100 32 16 16 (819200)
I1010 21:13:13.389701 16470 net.cpp:181] Memory required for data: 30720400
I1010 21:13:13.389706 16470 layer_factory.hpp:77] Creating layer pool2
I1010 21:13:13.389734 16470 net.cpp:116] Creating Layer pool2
I1010 21:13:13.389739 16470 net.cpp:452] pool2 <- conv2
I1010 21:13:13.389749 16470 net.cpp:426] pool2 -> pool2
I1010 21:13:13.389760 16470 net.cpp:166] Setting up pool2
I1010 21:13:13.389768 16470 net.cpp:173] Top shape: 100 32 8 8 (204800)
I1010 21:13:13.389775 16470 net.cpp:181] Memory required for data: 31539600
I1010 21:13:13.389780 16470 layer_factory.hpp:77] Creating layer norm2
I1010 21:13:13.389791 16470 net.cpp:116] Creating Layer norm2
I1010 21:13:13.389832 16470 net.cpp:452] norm2 <- pool2
I1010 21:13:13.389842 16470 net.cpp:426] norm2 -> norm2
I1010 21:13:13.389884 16470 net.cpp:166] Setting up norm2
I1010 21:13:13.389899 16470 net.cpp:173] Top shape: 100 32 8 8 (204800)
I1010 21:13:13.389904 16470 net.cpp:181] Memory required for data: 32358800
I1010 21:13:13.389910 16470 layer_factory.hpp:77] Creating layer conv3
I1010 21:13:13.389925 16470 net.cpp:116] Creating Layer conv3
I1010 21:13:13.389932 16470 net.cpp:452] conv3 <- norm2
I1010 21:13:13.389941 16470 net.cpp:426] conv3 -> conv3
I1010 21:13:13.390676 16462 tcp_configuration.cpp:268] accepted client from address: tcp://127.0.0.1:65130
I1010 21:13:13.390617 16468 net.cpp:166] Setting up conv3
I1010 21:13:13.390635 16468 net.cpp:173] Top shape: 100 64 8 8 (409600)
I1010 21:13:13.390641 16468 net.cpp:181] Memory required for data: 33997200
I1010 21:13:13.390655 16468 layer_factory.hpp:77] Creating layer relu3
I1010 21:13:13.390668 16468 net.cpp:116] Creating Layer relu3
I1010 21:13:13.390674 16468 net.cpp:452] relu3 <- conv3
I1010 21:13:13.390682 16468 net.cpp:413] relu3 -> conv3 (in-place)
I1010 21:13:13.390692 16468 net.cpp:166] Setting up relu3
I1010 21:13:13.390699 16468 net.cpp:173] Top shape: 100 64 8 8 (409600)
I1010 21:13:13.390703 16468 net.cpp:181] Memory required for data: 35635600
I1010 21:13:13.390708 16468 layer_factory.hpp:77] Creating layer pool3
I1010 21:13:13.390738 16468 net.cpp:116] Creating Layer pool3
I1010 21:13:13.390744 16468 net.cpp:452] pool3 <- conv3
I1010 21:13:13.390751 16468 net.cpp:426] pool3 -> pool3
I1010 21:13:13.390763 16468 net.cpp:166] Setting up pool3
I1010 21:13:13.390771 16468 net.cpp:173] Top shape: 100 64 4 4 (102400)
I1010 21:13:13.390776 16468 net.cpp:181] Memory required for data: 36045200
I1010 21:13:13.390781 16468 layer_factory.hpp:77] Creating layer ip1
I1010 21:13:13.390797 16468 net.cpp:116] Creating Layer ip1
I1010 21:13:13.390802 16468 net.cpp:452] ip1 <- pool3
I1010 21:13:13.390811 16468 net.cpp:426] ip1 -> ip1
I1010 21:13:13.391469 16468 net.cpp:166] Setting up ip1
I1010 21:13:13.391481 16468 net.cpp:173] Top shape: 100 10 (1000)
I1010 21:13:13.391487 16468 net.cpp:181] Memory required for data: 36049200
I1010 21:13:13.391497 16468 layer_factory.hpp:77] Creating layer loss
I1010 21:13:13.391511 16468 net.cpp:116] Creating Layer loss
I1010 21:13:13.391517 16468 net.cpp:452] loss <- ip1
I1010 21:13:13.391525 16468 net.cpp:452] loss <- label
I1010 21:13:13.391532 16468 net.cpp:426] loss -> loss
I1010 21:13:13.391551 16468 layer_factory.hpp:77] Creating layer loss
…
I1010 21:13:13.391661 16468 net.cpp:243] conv2 needs backward computation.
I1010 21:13:13.391667 16468 net.cpp:243] norm1 needs backward computation.
I1010 21:13:13.391667 16472 net.cpp:166] Setting up conv3
I1010 21:13:13.391672 16468 net.cpp:243] relu1 needs backward computation.
I1010 21:13:13.391677 16468 net.cpp:243] pool1 needs backward computation.
I1010 21:13:13.391683 16468 net.cpp:243] conv1 needs backward computation.
I1010 21:13:13.391690 16468 net.cpp:245] cifar does not need backward computation.
I1010 21:13:13.391695 16468 net.cpp:287] This network produces output loss
I1010 21:13:13.391682 16472 net.cpp:173] Top shape: 100 64 8 8 (409600)
I1010 21:13:13.391690 16472 net.cpp:181] Memory required for data: 33997200
I1010 21:13:13.391705 16472 layer_factory.hpp:77] Creating layer relu3
I1010 21:13:13.391710 16468 net.cpp:301] Network initialization done.
I1010 21:13:13.391719 16472 net.cpp:116] Creating Layer relu3
I1010 21:13:13.391726 16472 net.cpp:452] relu3 <- conv3
I1010 21:13:13.391736 16472 net.cpp:413] relu3 -> conv3 (in-place)
I1010 21:13:13.391746 16472 net.cpp:166] Setting up relu3
I1010 21:13:13.391753 16472 net.cpp:173] Top shape: 100 64 8 8 (409600)
I1010 21:13:13.391759 16472 net.cpp:181] Memory required for data: 35635600
I1010 21:13:13.391764 16472 layer_factory.hpp:77] Creating layer pool3
I1010 21:13:13.391774 16471 net.cpp:166] Setting up conv3
I1010 21:13:13.391790 16471 net.cpp:173] Top shape: 100 64 8 8 (409600)
I1010 21:13:13.391796 16472 net.cpp:116] Creating Layer pool3
I1010 21:13:13.391803 16472 net.cpp:452] pool3 <- conv3
I1010 21:13:13.391813 16472 net.cpp:426] pool3 -> pool3
I1010 21:13:13.391795 16471 net.cpp:181] Memory required for data: 33997200
I1010 21:13:13.391810 16471 layer_factory.hpp:77] Creating layer relu3
I1010 21:13:13.391824 16471 net.cpp:116] Creating Layer relu3
I1010 21:13:13.391830 16471 net.cpp:452] relu3 <- conv3
I1010 21:13:13.391839 16471 net.cpp:413] relu3 -> conv3 (in-place)
I1010 21:13:13.391824 16468 solver.cpp:67] Solver scaffolding done.
I1010 21:13:13.391824 16472 net.cpp:166] Setting up pool3
I1010 21:13:13.391834 16472 net.cpp:173] Top shape: 100 64 4 4 (102400)
I1010 21:13:13.391839 16472 net.cpp:181] Memory required for data: 36045200
I1010 21:13:13.391845 16472 layer_factory.hpp:77] Creating layer ip1
I1010 21:13:13.391858 16468 caffe.cpp:286] Resuming from examples/cifar10/warm_start/warm_start_iter_5000.solverstate.h5
I1010 21:13:13.391861 16472 net.cpp:116] Creating Layer ip1
I1010 21:13:13.391867 16472 net.cpp:452] ip1 <- pool3
I1010 21:13:13.391877 16472 net.cpp:426] ip1 -> ip1
I1010 21:13:13.391847 16471 net.cpp:166] Setting up relu3
I1010 21:13:13.391855 16471 net.cpp:173] Top shape: 100 64 8 8 (409600)
I1010 21:13:13.391860 16471 net.cpp:181] Memory required for data: 35635600
I1010 21:13:13.391865 16471 layer_factory.hpp:77] Creating layer pool3
I1010 21:13:13.391899 16471 net.cpp:116] Creating Layer pool3
I1010 21:13:13.391906 16471 net.cpp:452] pool3 <- conv3
I1010 21:13:13.391913 16471 net.cpp:426] pool3 -> pool3
I1010 21:13:13.391924 16471 net.cpp:166] Setting up pool3
I1010 21:13:13.391932 16471 net.cpp:173] Top shape: 100 64 4 4 (102400)
I1010 21:13:13.391938 16471 net.cpp:181] Memory required for data: 36045200
I1010 21:13:13.391943 16471 layer_factory.hpp:77] Creating layer ip1
I1010 21:13:13.391958 16471 net.cpp:116] Creating Layer ip1
I1010 21:13:13.391963 16471 net.cpp:452] ip1 <- pool3
I1010 21:13:13.391973 16471 net.cpp:426] ip1 -> ip1
I1010 21:13:13.392491 16469 net.cpp:166] Setting up conv3
I1010 21:13:13.392509 16469 net.cpp:173] Top shape: 100 64 8 8 (409600)
I1010 21:13:13.392515 16469 net.cpp:181] Memory required for data: 33997200
I1010 21:13:13.392530 16469 layer_factory.hpp:77] Creating layer relu3
I1010 21:13:13.392544 16469 net.cpp:116] Creating Layer relu3
I1010 21:13:13.392550 16469 net.cpp:452] relu3 <- conv3
I1010 21:13:13.392559 16469 net.cpp:413] relu3 -> conv3 (in-place)
I1010 21:13:13.392568 16469 net.cpp:166] Setting up relu3
I1010 21:13:13.392575 16469 net.cpp:173] Top shape: 100 64 8 8 (409600)
I1010 21:13:13.392580 16469 net.cpp:181] Memory required for data: 35635600
I1010 21:13:13.392585 16469 layer_factory.hpp:77] Creating layer pool3
I1010 21:13:13.392588 16472 net.cpp:166] Setting up ip1
I1010 21:13:13.392599 16472 net.cpp:173] Top shape: 100 10 (1000)
I1010 21:13:13.392606 16472 net.cpp:181] Memory required for data: 36049200
I1010 21:13:13.392629 16471 net.cpp:166] Setting up ip1
I1010 21:13:13.392616 16472 layer_factory.hpp:77] Creating layer loss
I1010 21:13:13.392637 16472 net.cpp:116] Creating Layer loss
I1010 21:13:13.392639 16471 net.cpp:173] Top shape: 100 10 (1000)
I1010 21:13:13.392644 16471 net.cpp:181] Memory required for data: 36049200
I1010 21:13:13.392655 16471 layer_factory.hpp:77] Creating layer loss
I1010 21:13:13.392659 16469 net.cpp:116] Creating Layer pool3
I1010 21:13:13.392668 16469 net.cpp:452] pool3 <- conv3
I1010 21:13:13.392643 16472 net.cpp:452] loss <- ip1
I1010 21:13:13.392652 16472 net.cpp:452] loss <- label
I1010 21:13:13.392659 16472 net.cpp:426] loss -> loss
I1010 21:13:13.392668 16471 net.cpp:116] Creating Layer loss
I1010 21:13:13.392675 16471 net.cpp:452] loss <- ip1
I1010 21:13:13.392681 16471 net.cpp:452] loss <- label
I1010 21:13:13.392689 16471 net.cpp:426] loss -> loss
I1010 21:13:13.392678 16469 net.cpp:426] pool3 -> pool3
I1010 21:13:13.392689 16469 net.cpp:166] Setting up pool3
I1010 21:13:13.392698 16469 net.cpp:173] Top shape: 100 64 4 4 (102400)
I1010 21:13:13.392673 16472 layer_factory.hpp:77] Creating layer loss
I1010 21:13:13.392704 16469 net.cpp:181] Memory required for data: 36045200
I1010 21:13:13.392701 16471 layer_factory.hpp:77] Creating layer loss
I1010 21:13:13.392701 16472 net.cpp:166] Setting up loss
I1010 21:13:13.392710 16472 net.cpp:173] Top shape: (1)
I1010 21:13:13.392716 16472 net.cpp:176]     with loss weight 1
…
