…
I1226 07:40:46.663301 93793 net.cpp:500] The NetState phase (0) differed from the phase (1) specified by a rule in layer data
I1226 07:40:46.665449 93793 net.cpp:136] Initializing net from parameters: 
name: "AlexNet"
state {
  phase: TRAIN
  level: 0
  stage: ""
}
engine: "MKL2017"
layer {
  name: "data"
  type: "Data"
  top: "data"
  top: "label"
  include {
    phase: TRAIN
  }
  transform_param {
    mirror: true
    crop_size: 227
    mean_value: 104
    mean_value: 117
    mean_value: 123
  }
  data_param {
    source: "/export/data1/stanford/hazy/zjian/gorden_bell/ILSVRC2012_lmdb/db_8/ilsvrc12_train_lmdb_1"
    batch_size: 64
    backend: LMDB
  }
}
layer {
  name: "label_data_1_split"
  type: "Split"
  bottom: "label"
  top: "label_data_1_split_0"
  top: "label_data_1_split_1"
}
layer {
  name: "conv1"
  type: "Convolution"
  bottom: "data"
  top: "conv1"
  param {
    lr_mult: 1
    decay_mult: 1
  }
  param {
    lr_mult: 2
    decay_mult: 0
  }
  convolution_param {
    num_output: 96
    kernel_size: 11
    stride: 4
    weight_filler {
      type: "gaussian"
      std: 0.01
    }
    bias_filler {
      type: "constant"
      value: 0
    }
    engine: MKL2017
  }
}
layer {
  name: "relu1"
  type: "ReLU"
  bottom: "conv1"
  top: "conv1"
  relu_param {
    engine: MKL2017
  }
}
layer {
  name: "norm1"
  type: "LRN"
  bottom: "conv1"
  top: "norm1"
  lrn_param {
    local_size: 5
    alpha: 0.0001
    beta: 0.75
    engine: MKL2017
  }
}
layer {
  name: "pool1"
  type: "Pooling"
  bottom: "norm1"
  top: "pool1"
  pooling_param {
    pool: MAX
    kernel_size: 3
    stride: 2
    engine: MKL2017
  }
}
layer {
  name: "conv2"
  type: "Convolution"
  bottom: "pool1"
  top: "conv2"
  param {
    lr_mult: 1
    decay_mult: 1
  }
  param {
    lr_mult: 2
    decay_mult: 0
  }
  convolution_param {
    num_output: 256
    pad: 2
    kernel_size: 5
    group: 2
    weight_filler {
      type: "gaussian"
      std: 0.01
    }
    bias_filler {
      type: "constant"
      value: 0.1
    }
    engine: MKL2017
  }
}
layer {
  name: "relu2"
  type: "ReLU"
  bottom: "conv2"
  top: "conv2"
  relu_param {
    engine: MKL2017
  }
}
layer {
  name: "norm2"
  type: "LRN"
  bottom: "conv2"
  top: "norm2"
  lrn_param {
    local_size: 5
    alpha: 0.0001
    beta: 0.75
    engine: MKL2017
  }
}
layer {
  name: "pool2"
  type: "Pooling"
  bottom: "norm2"
  top: "pool2"
  pooling_param {
    pool: MAX
    kernel_size: 3
    stride: 2
    engine: MKL2017
  }
}
layer {
  name: "conv3"
  type: "Convolution"
  bottom: "pool2"
  top: "conv3"
  param {
    lr_mult: 1
    decay_mult: 1
  }
  param {
    lr_mult: 2
    decay_mult: 0
  }
  convolution_param {
    num_output: 384
    pad: 1
    kernel_size: 3
    weight_filler {
      type: "gaussian"
      std: 0.01
    }
    bias_filler {
      type: "constant"
      value: 0
    }
    engine: MKL2017
  }
}
layer {
  name: "relu3"
  type: "ReLU"
  bottom: "conv3"
  top: "conv3"
  relu_param {
    engine: MKL2017
  }
}
layer {
  name: "conv4"
  type: "Convolution"
  bottom: "conv3"
  top: "conv4"
  param {
    lr_mult: 1
    decay_mult: 1
  }
  param {
    lr_mult: 2
    decay_mult: 0
  }
  convolution_param {
    num_output: 384
    pad: 1
    kernel_size: 3
    group: 2
    weight_filler {
      type: "gaussian"
      std: 0.01
    }
    bias_filler {
      type: "constant"
      value: 0.1
    }
    engine: MKL2017
  }
}
layer {
  name: "relu4"
  type: "ReLU"
  bottom: "conv4"
  top: "conv4"
  relu_param {
    engine: MKL2017
  }
}
layer {
  name: "conv5"
  type: "Convolution"
  bottom: "conv4"
  top: "conv5"
  param {
    lr_mult: 1
    decay_mult: 1
  }
  param {
    lr_mult: 2
    decay_mult: 0
  }
  convolution_param {
    num_output: 256
    pad: 1
    kernel_size: 3
    group: 2
    weight_filler {
      type: "gaussian"
      std: 0.01
    }
    bias_filler {
      type: "constant"
      value: 0.1
    }
    engine: MKL2017
  }
}
layer {
  name: "relu5"
  type: "ReLU"
  bottom: "conv5"
  top: "conv5"
  relu_param {
    engine: MKL2017
  }
}
layer {
  name: "pool5"
  type: "Pooling"
  bottom: "conv5"
  top: "pool5"
  pooling_param {
    pool: MAX
    kernel_size: 3
    stride: 2
    engine: MKL2017
  }
}
layer {
  name: "fc6"
  type: "InnerProduct"
  bottom: "pool5"
  top: "fc6"
  param {
    lr_mult: 1
    decay_mult: 1
  }
  param {
    lr_mult: 2
    decay_mult: 0
  }
  inner_product_param {
    num_output: 4096
    weight_filler {
      type: "gaussian"
      std: 0.005
    }
    bias_filler {
      type: "constant"
      value: 0.1
    }
  }
}
layer {
  name: "relu6"
  type: "ReLU"
  bottom: "fc6"
  top: "fc6"
}
layer {
  name: "drop6"
  type: "Dropout"
  bottom: "fc6"
  top: "fc6"
  dropout_param {
    dropout_ratio: 0.5
  }
}
layer {
  name: "fc7"
  type: "InnerProduct"
  bottom: "fc6"
  top: "fc7"
  param {
    lr_mult: 1
    decay_mult: 1
  }
  param {
    lr_mult: 2
    decay_mult: 0
  }
  inner_product_param {
    num_output: 4096
    weight_filler {
      type: "gaussian"
      std: 0.005
    }
    bias_filler {
      type: "constant"
      value: 0.1
    }
  }
}
layer {
  name: "relu7"
  type: "ReLU"
  bottom: "fc7"
  top: "fc7"
}
layer {
  name: "drop7"
  type: "Dropout"
  bottom: "fc7"
  top: "fc7"
  dropout_param {
    dropout_ratio: 0.5
  }
}
layer {
  name: "fc8"
  type: "InnerProduct"
  bottom: "fc7"
  top: "fc8"
  param {
    lr_mult: 1
    decay_mult: 1
  }
  param {
    lr_mult: 2
    decay_mult: 0
  }
  inner_product_param {
    num_output: 1000
    weight_filler {
      type: "gaussian"
      std: 0.01
    }
    bias_filler {
      type: "constant"
      value: 0
    }
  }
}
layer {
  name: "fc8_fc8_0_split"
  type: "Split"
  bottom: "fc8"
  top: "fc8_fc8_0_split_0"
  top: "fc8_fc8_0_split_1"
}
layer {
  name: "accuracy"
  type: "Accuracy"
  bottom: "fc8_fc8_0_split_0"
  bottom: "label_data_1_split_0"
  top: "accuracy"
}
layer {
  name: "loss"
  type: "SoftmaxWithLoss"
  bottom: "fc8_fc8_0_split_1"
  bottom: "label_data_1_split_1"
  top: "loss"
}
I1226 07:40:46.657318 90196 cpu_info.cpp:473] Number of OpenMP threads: 66
I1226 07:40:46.657649 90196 net.cpp:500] The NetState phase (0) differed from the phase (1) specified by a rule in layer data
I1226 07:40:46.659235 90196 net.cpp:136] Initializing net from parameters: 
name: "AlexNet"
state {
  phase: TRAIN
  level: 0
  stage: ""
}
engine: "MKL2017"
layer {
  name: "data"
  type: "Data"
  top: "data"
  top: "label"
  include {
    phase: TRAIN
  }
  transform_param {
    mirror: true
    crop_size: 227
    mean_value: 104
    mean_value: 117
    mean_value: 123
  }
  data_param {
    source: "/export/data1/stanford/hazy/zjian/gorden_bell/ILSVRC2012_lmdb/db_8/ilsvrc12_train_lmdb_4"
    batch_size: 64
    backend: LMDB
  }
}
layer {
  name: "label_data_1_split"
  type: "Split"
  bottom: "label"
  top: "label_data_1_split_0"
  top: "label_data_1_split_1"
}
layer {
  name: "conv1"
  type: "Convolution"
  bottom: "data"
  top: "conv1"
  param {
    lr_mult: 1
    decay_mult: 1
  }
  param {
    lr_mult: 2
    decay_mult: 0
  }
  convolution_param {
    num_output: 96
    kernel_size: 11
    stride: 4
    weight_filler {
      type: "gaussian"
      std: 0.01
    }
    bias_filler {
      type: "constant"
      value: 0
    }
    engine: MKL2017
  }
}
layer {
  name: "relu1"
  type: "ReLU"
  bottom: "conv1"
  top: "conv1"
  relu_param {
    engine: MKL2017
  }
}
layer {
  name: "norm1"
  type: "LRN"
  bottom: "conv1"
  top: "norm1"
  lrn_param {
    local_size: 5
    alpha: 0.0001
    beta: 0.75
    engine: MKL2017
  }
}
layer {
  name: "pool1"
  type: "Pooling"
  bottom: "norm1"
  top: "pool1"
  pooling_param {
    pool: MAX
    kernel_size: 3
    stride: 2
    engine: MKL2017
  }
}
layer {
  name: "conv2"
  type: "Convolution"
  bottom: "pool1"
  top: "conv2"
  param {
    lr_mult: 1
    decay_mult: 1
  }
  param {
    lr_mult: 2
    decay_mult: 0
  }
  convolution_param {
    num_output: 256
    pad: 2
    kernel_size: 5
    group: 2
    weight_filler {
      type: "gaussian"
      std: 0.01
    }
    bias_filler {
      type: "constant"
      value: 0.1
    }
    engine: MKL2017
  }
}
layer {
  name: "relu2"
  type: "ReLU"
  bottom: "conv2"
  top: "conv2"
  relu_param {
    engine: MKL2017
  }
}
layer {
  name: "norm2"
  type: "LRN"
  bottom: "conv2"
  top: "norm2"
  lrn_param {
    local_size: 5
    alpha: 0.0001
    beta: 0.75
    engine: MKL2017
  }
}
layer {
  name: "pool2"
  type: "Pooling"
  bottom: "norm2"
  top: "pool2"
  pooling_param {
    pool: MAX
    kernel_size: 3
    stride: 2
    engine: MKL2017
  }
}
layer {
  name: "conv3"
  type: "Convolution"
  bottom: "pool2"
  top: "conv3"
  param {
    lr_mult: 1
    decay_mult: 1
  }
  param {
    lr_mult: 2
    decay_mult: 0
  }
  convolution_param {
    num_output: 384
    pad: 1
    kernel_size: 3
    weight_filler {
      type: "gaussian"
      std: 0.01
    }
    bias_filler {
      type: "constant"
      value: 0
    }
    engine: MKL2017
  }
}
layer {
  name: "relu3"
  type: "ReLU"
  bottom: "conv3"
  top: "conv3"
  relu_param {
    engine: MKL2017
  }
}
layer {
  name: "conv4"
  type: "Convolution"
  bottom: "conv3"
  top: "conv4"
  param {
    lr_mult: 1
    decay_mult: 1
  }
  param {
    lr_mult: 2
    decay_mult: 0
  }
  convolution_param {
    num_output: 384
    pad: 1
    kernel_size: 3
    group: 2
    weight_filler {
      type: "gaussian"
      std: 0.01
    }
    bias_filler {
      type: "constant"
      value: 0.1
    }
    engine: MKL2017
  }
}
layer {
  name: "relu4"
  type: "ReLU"
  bottom: "conv4"
  top: "conv4"
  relu_param {
    engine: MKL2017
  }
}
layer {
  name: "conv5"
  type: "Convolution"
  bottom: "conv4"
  top: "conv5"
  param {
    lr_mult: 1
    decay_mult: 1
  }
  param {
    lr_mult: 2
    decay_mult: 0
  }
  convolution_param {
    num_output: 256
    pad: 1
    kernel_size: 3
    group: 2
    weight_filler {
      type: "gaussian"
      std: 0.01
    }
    bias_filler {
      type: "constant"
      value: 0.1
    }
    engine: MKL2017
  }
}
layer {
  name: "relu5"
  type: "ReLU"
  bottom: "conv5"
  top: "conv5"
  relu_param {
    engine: MKL2017
  }
}
layer {
  name: "pool5"
  type: "Pooling"
  bottom: "conv5"
  top: "pool5"
  pooling_param {
    pool: MAX
    kernel_size: 3
    stride: 2
    engine: MKL2017
  }
}
layer {
  name: "fc6"
  type: "InnerProduct"
  bottom: "pool5"
  top: "fc6"
  param {
    lr_mult: 1
    decay_mult: 1
  }
  param {
    lr_mult: 2
    decay_mult: 0
  }
  inner_product_param {
    num_output: 4096
    weight_filler {
      type: "gaussian"
      std: 0.005
    }
    bias_filler {
      type: "constant"
      value: 0.1
    }
  }
}
layer {
  name: "relu6"
  type: "ReLU"
  bottom: "fc6"
  top: "fc6"
}
layer {
  name: "drop6"
  type: "Dropout"
  bottom: "fc6"
  top: "fc6"
  dropout_param {
    dropout_ratio: 0.5
  }
}
layer {
  name: "fc7"
  type: "InnerProduct"
  bottom: "fc6"
  top: "fc7"
  param {
    lr_mult: 1
    decay_mult: 1
  }
  param {
    lr_mult: 2
    decay_mult: 0
  }
  inner_product_param {
    num_output: 4096
    weight_filler {
      type: "gaussian"
      std: 0.005
    }
    bias_filler {
      type: "constant"
      value: 0.1
    }
  }
}
layer {
  name: "relu7"
  type: "ReLU"
  bottom: "fc7"
  top: "fc7"
}
layer {
  name: "drop7"
  type: "Dropout"
  bottom: "fc7"
  top: "fc7"
  dropout_param {
    dropout_ratio: 0.5
  }
}
layer {
  name: "fc8"
  type: "InnerProduct"
  bottom: "fc7"
  top: "fc8"
  param {
    lr_mult: 1
    decay_mult: 1
  }
  param {
    lr_mult: 2
    decay_mult: 0
  }
  inner_product_param {
    num_output: 1000
    weight_filler {
      type: "gaussian"
      std: 0.01
    }
    bias_filler {
      type: "constant"
      value: 0
    }
  }
}
layer {
  name: "fc8_fc8_0_split"
  type: "Split"
  bottom: "fc8"
  top: "fc8_fc8_0_split_0"
  top: "fc8_fc8_0_split_1"
}
layer {
  name: "accuracy"
  type: "Accuracy"
  bottom: "fc8_fc8_0_split_0"
  bottom: "label_data_1_split_0"
  top: "accuracy"
}
layer {
  name: "loss"
  type: "SoftmaxWithLoss"
  bottom: "fc8_fc8_0_split_1"
  bottom: "label_data_1_split_1"
  top: "loss"
}
I1226 07:40:46.671465 92408 cpu_info.cpp:473] Number of OpenMP threads: 66
I1226 07:40:43.420653 89666 cpu_info.cpp:473] Number of OpenMP threads: 66
I1226 07:40:46.671877 92408 net.cpp:500] The NetState phase (0) differed from the phase (1) specified by a rule in layer data
I1226 07:40:46.686177 88308 cpu_info.cpp:473] Number of OpenMP threads: 66
I1226 07:40:43.421047 89666 net.cpp:500] The NetState phase (0) differed from the phase (1) specified by a rule in layer data
I1226 07:40:46.674214 92408 net.cpp:136] Initializing net from parameters: 
name: "AlexNet"
state {
  phase: TRAIN
  level: 0
  stage: ""
}
engine: "MKL2017"
layer {
  name: "data"
  type: "DummyData"
  top: "data"
  top: "label"
  include {
    phase: TRAIN
  }
  transform_param {
    mirror: true
    crop_size: 227
    mean_value: 104
    mean_value: 117
    mean_value: 123
  }
  dummy_data_param {
    data_filler {
      type: "gaussian"
      std: 1
    }
    data_filler {
      type: "constant"
      value: 0
    }
    shape {
      dim: 64
      dim: 3
      dim: 227
      dim: 227
    }
    shape {
      dim: 64
      dim: 1
      dim: 1
      dim: 1
    }
  }
}
layer {
  name: "label_data_1_split"
  type: "Split"
  bottom: "label"
  top: "label_data_1_split_0"
  top: "label_data_1_split_1"
}
layer {
  name: "conv1"
  type: "Convolution"
  bottom: "data"
  top: "conv1"
  param {
    lr_mult: 1
    decay_mult: 1
  }
  param {
    lr_mult: 2
    decay_mult: 0
  }
  convolution_param {
    num_output: 96
    kernel_size: 11
    stride: 4
    weight_filler {
      type: "gaussian"
      std: 0.01
    }
    bias_filler {
      type: "constant"
      value: 0
    }
    engine: MKL2017
  }
}
layer {
  name: "relu1"
  type: "ReLU"
  bottom: "conv1"
  top: "conv1"
  relu_param {
    engine: MKL2017
  }
}
layer {
  name: "norm1"
  type: "LRN"
  bottom: "conv1"
  top: "norm1"
  lrn_param {
    local_size: 5
    alpha: 0.0001
    beta: 0.75
    engine: MKL2017
  }
}
layer {
  name: "pool1"
  type: "Pooling"
  bottom: "norm1"
  top: "pool1"
  pooling_param {
    pool: MAX
    kernel_size: 3
    stride: 2
    engine: MKL2017
  }
}
layer {
  name: "conv2"
  type: "Convolution"
  bottom: "pool1"
  top: "conv2"
  param {
    lr_mult: 1
    decay_mult: 1
  }
  param {
    lr_mult: 2
    decay_mult: 0
  }
  convolution_param {
    num_output: 256
    pad: 2
    kernel_size: 5
    group: 2
    weight_filler {
      type: "gaussian"
      std: 0.01
    }
    bias_filler {
      type: "constant"
      value: 0.1
    }
    engine: MKL2017
  }
}
layer {
  name: "relu2"
  type: "ReLU"
  bottom: "conv2"
  top: "conv2"
  relu_param {
    engine: MKL2017
  }
}
layer {
  name: "norm2"
  type: "LRN"
  bottom: "conv2"
  top: "norm2"
  lrn_param {
    local_size: 5
    alpha: 0.0001
    beta: 0.75
    engine: MKL2017
  }
}
layer {
  name: "pool2"
  type: "Pooling"
  bottom: "norm2"
  top: "pool2"
  pooling_param {
    pool: MAX
    kernel_size: 3
    stride: 2
    engine: MKL2017
  }
}
layer {
  name: "conv3"
  type: "Convolution"
  bottom: "pool2"
  top: "conv3"
  param {
    lr_mult: 1
    decay_mult: 1
  }
  param {
    lr_mult: 2
    decay_mult: 0
  }
  convolution_param {
    num_output: 384
    pad: 1
    kernel_size: 3
    weight_filler {
      type: "gaussian"
      std: 0.01
    }
    bias_filler {
      type: "constant"
      value: 0
    }
    engine: MKL2017
  }
}
layer {
  name: "relu3"
  type: "ReLU"
  bottom: "conv3"
  top: "conv3"
  relu_param {
    engine: MKL2017
  }
}
layer {
  name: "conv4"
  type: "Convolution"
  bottom: "conv3"
  top: "conv4"
  param {
    lr_mult: 1
    decay_mult: 1
  }
  param {
    lr_mult: 2
    decay_mult: 0
  }
  convolution_param {
    num_output: 384
    pad: 1
    kernel_size: 3
    group: 2
    weight_filler {
      type: "gaussian"
      std: 0.01
    }
    bias_filler {
      type: "constant"
      value: 0.1
    }
    engine: MKL2017
  }
}
layer {
  name: "relu4"
  type: "ReLU"
  bottom: "conv4"
  top: "conv4"
  relu_param {
    engine: MKL2017
  }
}
layer {
  name: "conv5"
  type: "Convolution"
  bottom: "conv4"
  top: "conv5"
  param {
    lr_mult: 1
    decay_mult: 1
  }
  param {
    lr_mult: 2
    decay_mult: 0
  }
  convolution_param {
    num_output: 256
    pad: 1
    kernel_size: 3
    group: 2
    weight_filler {
      type: "gaussian"
      std: 0.01
    }
    bias_filler {
      type: "constant"
      value: 0.1
    }
    engine: MKL2017
  }
}
layer {
  name: "relu5"
  type: "ReLU"
  bottom: "conv5"
  top: "conv5"
  relu_param {
    engine: MKL2017
  }
}
layer {
  name: "pool5"
  type: "Pooling"
  bottom: "conv5"
  top: "pool5"
  pooling_param {
    pool: MAX
    kernel_size: 3
    stride: 2
    engine: MKL2017
  }
}
layer {
  name: "fc6"
  type: "InnerProduct"
  bottom: "pool5"
  top: "fc6"
  param {
    lr_mult: 1
    decay_mult: 1
  }
  param {
    lr_mult: 2
    decay_mult: 0
  }
  inner_product_param {
    num_output: 4096
    weight_filler {
      type: "gaussian"
      std: 0.005
    }
    bias_filler {
      type: "constant"
      value: 0.1
    }
  }
}
layer {
  name: "relu6"
  type: "ReLU"
  bottom: "fc6"
  top: "fc6"
}
layer {
  name: "drop6"
  type: "Dropout"
  bottom: "fc6"
  top: "fc6"
  dropout_param {
    dropout_ratio: 0.5
  }
}
layer {
  name: "fc7"
  type: "InnerProduct"
  bottom: "fc6"
  top: "fc7"
  param {
    lr_mult: 1
    decay_mult: 1
  }
  param {
    lr_mult: 2
    decay_mult: 0
  }
  inner_product_param {
    num_output: 4096
    weight_filler {
      type: "gaussian"
      std: 0.005
    }
    bias_filler {
      type: "constant"
      value: 0.1
    }
  }
}
layer {
  name: "relu7"
  type: "ReLU"
  bottom: "fc7"
  top: "fc7"
}
layer {
  name: "drop7"
  type: "Dropout"
  bottom: "fc7"
  top: "fc7"
  dropout_param {
    dropout_ratio: 0.5
  }
}
layer {
  name: "fc8"
  type: "InnerProduct"
  bottom: "fc7"
  top: "fc8"
  param {
    lr_mult: 1
    decay_mult: 1
  }
  param {
    lr_mult: 2
    decay_mult: 0
  }
  inner_product_param {
    num_output: 1000
    weight_filler {
      type: "gaussian"
      std: 0.01
    }
    bias_filler {
      type: "constant"
      value: 0
    }
  }
}
layer {
  name: "fc8_fc8_0_split"
  type: "Split"
  bottom: "fc8"
  top: "fc8_fc8_0_split_0"
  top: "fc8_fc8_0_split_1"
}
layer {
  name: "accuracy"
  type: "Accuracy"
  bottom: "fc8_fc8_0_split_0"
  bottom: "label_data_1_split_0"
  top: "accuracy"
}
layer {
  name: "loss"
  type: "SoftmaxWithLoss"
  bottom: "fc8_fc8_0_split_1"
  bottom: "label_data_1_split_1"
  top: "loss"
}
I1226 07:40:46.686485 88308 net.cpp:500] The NetState phase (0) differed from the phase (1) specified by a rule in layer data
I1226 07:40:46.686450 89665 cpu_info.cpp:473] Number of OpenMP threads: 66
I1226 07:40:43.423499 89666 net.cpp:136] Initializing net from parameters: 
name: "AlexNet"
state {
  phase: TRAIN
  level: 0
  stage: ""
}
engine: "MKL2017"
layer {
  name: "data"
  type: "Data"
  top: "data"
  top: "label"
  include {
    phase: TRAIN
  }
  transform_param {
    mirror: true
    crop_size: 227
    mean_value: 104
    mean_value: 117
    mean_value: 123
  }
  data_param {
    source: "/export/data1/stanford/hazy/zjian/gorden_bell/ILSVRC2012_lmdb/db_8/ilsvrc12_train_lmdb_5"
    batch_size: 64
    backend: LMDB
  }
}
layer {
  name: "label_data_1_split"
  type: "Split"
  bottom: "label"
  top: "label_data_1_split_0"
  top: "label_data_1_split_1"
}
layer {
  name: "conv1"
  type: "Convolution"
  bottom: "data"
  top: "conv1"
  param {
    lr_mult: 1
    decay_mult: 1
  }
  param {
    lr_mult: 2
    decay_mult: 0
  }
  convolution_param {
    num_output: 96
    kernel_size: 11
    stride: 4
    weight_filler {
      type: "gaussian"
      std: 0.01
    }
    bias_filler {
      type: "constant"
      value: 0
    }
    engine: MKL2017
  }
}
layer {
  name: "relu1"
  type: "ReLU"
  bottom: "conv1"
  top: "conv1"
  relu_param {
    engine: MKL2017
  }
}
layer {
  name: "norm1"
  type: "LRN"
  bottom: "conv1"
  top: "norm1"
  lrn_param {
    local_size: 5
    alpha: 0.0001
    beta: 0.75
    engine: MKL2017
  }
}
layer {
  name: "pool1"
  type: "Pooling"
  bottom: "norm1"
  top: "pool1"
  pooling_param {
    pool: MAX
    kernel_size: 3
    stride: 2
    engine: MKL2017
  }
}
layer {
  name: "conv2"
  type: "Convolution"
  bottom: "pool1"
  top: "conv2"
  param {
    lr_mult: 1
    decay_mult: 1
  }
  param {
    lr_mult: 2
    decay_mult: 0
  }
  convolution_param {
    num_output: 256
    pad: 2
    kernel_size: 5
    group: 2
    weight_filler {
      type: "gaussian"
      std: 0.01
    }
    bias_filler {
      type: "constant"
      value: 0.1
    }
    engine: MKL2017
  }
}
layer {
  name: "relu2"
  type: "ReLU"
  bottom: "conv2"
  top: "conv2"
  relu_param {
    engine: MKL2017
  }
}
layer {
  name: "norm2"
  type: "LRN"
  bottom: "conv2"
  top: "norm2"
  lrn_param {
    local_size: 5
    alpha: 0.0001
    beta: 0.75
    engine: MKL2017
  }
}
layer {
  name: "pool2"
  type: "Pooling"
  bottom: "norm2"
  top: "pool2"
  pooling_param {
    pool: MAX
    kernel_size: 3
    stride: 2
    engine: MKL2017
  }
}
layer {
  name: "conv3"
  type: "Convolution"
  bottom: "pool2"
  top: "conv3"
  param {
    lr_mult: 1
    decay_mult: 1
  }
  param {
    lr_mult: 2
    decay_mult: 0
  }
  convolution_param {
    num_output: 384
    pad: 1
    kernel_size: 3
    weight_filler {
      type: "gaussian"
      std: 0.01
    }
    bias_filler {
      type: "constant"
      value: 0
    }
    engine: MKL2017
  }
}
layer {
  name: "relu3"
  type: "ReLU"
  bottom: "conv3"
  top: "conv3"
  relu_param {
    engine: MKL2017
  }
}
layer {
  name: "conv4"
  type: "Convolution"
  bottom: "conv3"
  top: "conv4"
  param {
    lr_mult: 1
    decay_mult: 1
  }
  param {
    lr_mult: 2
    decay_mult: 0
  }
  convolution_param {
    num_output: 384
    pad: 1
    kernel_size: 3
    group: 2
    weight_filler {
      type: "gaussian"
      std: 0.01
    }
    bias_filler {
      type: "constant"
      value: 0.1
    }
    engine: MKL2017
  }
}
layer {
  name: "relu4"
  type: "ReLU"
  bottom: "conv4"
  top: "conv4"
  relu_param {
    engine: MKL2017
  }
}
layer {
  name: "conv5"
  type: "Convolution"
  bottom: "conv4"
  top: "conv5"
  param {
    lr_mult: 1
    decay_mult: 1
  }
  param {
    lr_mult: 2
    decay_mult: 0
  }
  convolution_param {
    num_output: 256
    pad: 1
    kernel_size: 3
    group: 2
    weight_filler {
      type: "gaussian"
      std: 0.01
    }
    bias_filler {
      type: "constant"
      value: 0.1
    }
    engine: MKL2017
  }
}
layer {
  name: "relu5"
  type: "ReLU"
  bottom: "conv5"
  top: "conv5"
  relu_param {
    engine: MKL2017
  }
}
layer {
  name: "pool5"
  type: "Pooling"
  bottom: "conv5"
  top: "pool5"
  pooling_param {
    pool: MAX
    kernel_size: 3
    stride: 2
    engine: MKL2017
  }
}
layer {
  name: "fc6"
  type: "InnerProduct"
  bottom: "pool5"
  top: "fc6"
  param {
    lr_mult: 1
    decay_mult: 1
  }
  param {
    lr_mult: 2
    decay_mult: 0
  }
  inner_product_param {
    num_output: 4096
    weight_filler {
      type: "gaussian"
      std: 0.005
    }
    bias_filler {
      type: "constant"
      value: 0.1
    }
  }
}
layer {
  name: "relu6"
  type: "ReLU"
  bottom: "fc6"
  top: "fc6"
}
layer {
  name: "drop6"
  type: "Dropout"
  bottom: "fc6"
  top: "fc6"
  dropout_param {
    dropout_ratio: 0.5
  }
}
layer {
  name: "fc7"
  type: "InnerProduct"
  bottom: "fc6"
  top: "fc7"
  param {
    lr_mult: 1
    decay_mult: 1
  }
  param {
    lr_mult: 2
    decay_mult: 0
  }
  inner_product_param {
    num_output: 4096
    weight_filler {
      type: "gaussian"
      std: 0.005
    }
    bias_filler {
      type: "constant"
      value: 0.1
    }
  }
}
layer {
  name: "relu7"
  type: "ReLU"
  bottom: "fc7"
  top: "fc7"
}
layer {
  name: "drop7"
  type: "Dropout"
  bottom: "fc7"
  top: "fc7"
  dropout_param {
    dropout_ratio: 0.5
  }
}
layer {
  name: "fc8"
  type: "InnerProduct"
  bottom: "fc7"
  top: "fc8"
  param {
    lr_mult: 1
    decay_mult: 1
  }
  param {
    lr_mult: 2
    decay_mult: 0
  }
  inner_product_param {
    num_output: 1000
    weight_filler {
      type: "gaussian"
      std: 0.01
    }
    bias_filler {
      type: "constant"
      value: 0
    }
  }
}
layer {
  name: "fc8_fc8_0_split"
  type: "Split"
  bottom: "fc8"
  top: "fc8_fc8_0_split_0"
  top: "fc8_fc8_0_split_1"
}
layer {
  name: "accuracy"
  type: "Accuracy"
  bottom: "fc8_fc8_0_split_0"
  bottom: "label_data_1_split_0"
  top: "accuracy"
}
layer {
  name: "loss"
  type: "SoftmaxWithLoss"
  bottom: "fc8_fc8_0_split_1"
  bottom: "label_data_1_split_1"
  top: "loss"
}
I1226 07:40:46.688202 88308 net.cpp:136] Initializing net from parameters: 
name: "AlexNet"
state {
  phase: TRAIN
  level: 0
  stage: ""
}
engine: "MKL2017"
layer {
  name: "data"
  type: "Data"
  top: "data"
  top: "label"
  include {
    phase: TRAIN
  }
  transform_param {
    mirror: true
    crop_size: 227
    mean_value: 104
    mean_value: 117
    mean_value: 123
  }
  data_param {
    source: "/export/data1/stanford/hazy/zjian/gorden_bell/ILSVRC2012_lmdb/db_8/ilsvrc12_train_lmdb_2"
    batch_size: 64
    backend: LMDB
  }
}
layer {
  name: "label_data_1_split"
  type: "Split"
  bottom: "label"
  top: "label_data_1_split_0"
  top: "label_data_1_split_1"
}
layer {
  name: "conv1"
  type: "Convolution"
  bottom: "data"
  top: "conv1"
  param {
    lr_mult: 1
    decay_mult: 1
  }
  param {
    lr_mult: 2
    decay_mult: 0
  }
  convolution_param {
    num_output: 96
    kernel_size: 11
    stride: 4
    weight_filler {
      type: "gaussian"
      std: 0.01
    }
    bias_filler {
      type: "constant"
      value: 0
    }
    engine: MKL2017
  }
}
layer {
  name: "relu1"
  type: "ReLU"
  bottom: "conv1"
  top: "conv1"
  relu_param {
    engine: MKL2017
  }
}
layer {
  name: "norm1"
  type: "LRN"
  bottom: "conv1"
  top: "norm1"
  lrn_param {
    local_size: 5
    alpha: 0.0001
    beta: 0.75
    engine: MKL2017
  }
}
layer {
  name: "pool1"
  type: "Pooling"
  bottom: "norm1"
  top: "pool1"
  pooling_param {
    pool: MAX
    kernel_size: 3
    stride: 2
    engine: MKL2017
  }
}
layer {
  name: "conv2"
  type: "Convolution"
  bottom: "pool1"
  top: "conv2"
  param {
    lr_mult: 1
    decay_mult: 1
  }
  param {
    lr_mult: 2
    decay_mult: 0
  }
  convolution_param {
    num_output: 256
    pad: 2
    kernel_size: 5
    group: 2
    weight_filler {
      type: "gaussian"
      std: 0.01
    }
    bias_filler {
      type: "constant"
      value: 0.1
    }
    engine: MKL2017
  }
}
layer {
  name: "relu2"
  type: "ReLU"
  bottom: "conv2"
  top: "conv2"
  relu_param {
    engine: MKL2017
  }
}
layer {
  name: "norm2"
  type: "LRN"
  bottom: "conv2"
  top: "norm2"
  lrn_param {
    local_size: 5
    alpha: 0.0001
    beta: 0.75
    engine: MKL2017
  }
}
layer {
  name: "pool2"
  type: "Pooling"
  bottom: "norm2"
  top: "pool2"
  pooling_param {
    pool: MAX
    kernel_size: 3
    stride: 2
    engine: MKL2017
  }
}
layer {
  name: "conv3"
  type: "Convolution"
  bottom: "pool2"
  top: "conv3"
  param {
    lr_mult: 1
    decay_mult: 1
  }
  param {
    lr_mult: 2
    decay_mult: 0
  }
  convolution_param {
    num_output: 384
    pad: 1
    kernel_size: 3
    weight_filler {
      type: "gaussian"
      std: 0.01
    }
    bias_filler {
      type: "constant"
      value: 0
    }
    engine: MKL2017
  }
}
layer {
  name: "relu3"
  type: "ReLU"
  bottom: "conv3"
  top: "conv3"
  relu_param {
    engine: MKL2017
  }
}
layer {
  name: "conv4"
  type: "Convolution"
  bottom: "conv3"
  top: "conv4"
  param {
    lr_mult: 1
    decay_mult: 1
  }
  param {
    lr_mult: 2
    decay_mult: 0
  }
  convolution_param {
    num_output: 384
    pad: 1
    kernel_size: 3
    group: 2
    weight_filler {
      type: "gaussian"
      std: 0.01
    }
    bias_filler {
      type: "constant"
      value: 0.1
    }
    engine: MKL2017
  }
}
layer {
  name: "relu4"
  type: "ReLU"
  bottom: "conv4"
  top: "conv4"
  relu_param {
    engine: MKL2017
  }
}
layer {
  name: "conv5"
  type: "Convolution"
  bottom: "conv4"
  top: "conv5"
  param {
    lr_mult: 1
    decay_mult: 1
  }
  param {
    lr_mult: 2
    decay_mult: 0
  }
  convolution_param {
    num_output: 256
    pad: 1
    kernel_size: 3
    group: 2
    weight_filler {
      type: "gaussian"
      std: 0.01
    }
    bias_filler {
      type: "constant"
      value: 0.1
    }
    engine: MKL2017
  }
}
layer {
  name: "relu5"
  type: "ReLU"
  bottom: "conv5"
  top: "conv5"
  relu_param {
    engine: MKL2017
  }
}
layer {
  name: "pool5"
  type: "Pooling"
  bottom: "conv5"
  top: "pool5"
  pooling_param {
    pool: MAX
    kernel_size: 3
    stride: 2
    engine: MKL2017
  }
}
layer {
  name: "fc6"
  type: "InnerProduct"
  bottom: "pool5"
  top: "fc6"
  param {
    lr_mult: 1
    decay_mult: 1
  }
  param {
    lr_mult: 2
    decay_mult: 0
  }
  inner_product_param {
    num_output: 4096
    weight_filler {
      type: "gaussian"
      std: 0.005
    }
    bias_filler {
      type: "constant"
      value: 0.1
    }
  }
}
layer {
  name: "relu6"
  type: "ReLU"
  bottom: "fc6"
  top: "fc6"
}
layer {
  name: "drop6"
  type: "Dropout"
  bottom: "fc6"
  top: "fc6"
  dropout_param {
    dropout_ratio: 0.5
  }
}
layer {
  name: "fc7"
  type: "InnerProduct"
  bottom: "fc6"
  top: "fc7"
  param {
    lr_mult: 1
    decay_mult: 1
  }
  param {
    lr_mult: 2
    decay_mult: 0
  }
  inner_product_param {
    num_output: 4096
    weight_filler {
      type: "gaussian"
      std: 0.005
    }
    bias_filler {
      type: "constant"
      value: 0.1
    }
  }
}
layer {
  name: "relu7"
  type: "ReLU"
  bottom: "fc7"
  top: "fc7"
}
layer {
  name: "drop7"
  type: "Dropout"
  bottom: "fc7"
  top: "fc7"
  dropout_param {
    dropout_ratio: 0.5
  }
}
layer {
  name: "fc8"
  type: "InnerProduct"
  bottom: "fc7"
  top: "fc8"
  param {
    lr_mult: 1
    decay_mult: 1
  }
  param {
    lr_mult: 2
    decay_mult: 0
  }
  inner_product_param {
    num_output: 1000
    weight_filler {
      type: "gaussian"
      std: 0.01
    }
    bias_filler {
      type: "constant"
      value: 0
    }
  }
}
layer {
  name: "fc8_fc8_0_split"
  type: "Split"
  bottom: "fc8"
  top: "fc8_fc8_0_split_0"
  top: "fc8_fc8_0_split_1"
}
layer {
  name: "accuracy"
  type: "Accuracy"
  bottom: "fc8_fc8_0_split_0"
  bottom: "label_data_1_split_0"
  top: "accuracy"
}
layer {
  name: "loss"
  type: "SoftmaxWithLoss"
  bottom: "fc8_fc8_0_split_1"
  bottom: "label_data_1_split_1"
  top: "loss"
}
I1226 07:40:46.686862 89665 net.cpp:500] The NetState phase (0) differed from the phase (1) specified by a rule in layer data
I1226 07:40:46.688407 89665 net.cpp:136] Initializing net from parameters: 
name: "AlexNet"
state {
  phase: TRAIN
  level: 0
  stage: ""
}
engine: "MKL2017"
layer {
  name: "data"
  type: "Data"
  top: "data"
  top: "label"
  include {
    phase: TRAIN
  }
  transform_param {
    mirror: true
    crop_size: 227
    mean_value: 104
    mean_value: 117
    mean_value: 123
  }
  data_param {
    source: "/export/data1/stanford/hazy/zjian/gorden_bell/ILSVRC2012_lmdb/db_8/ilsvrc12_train_lmdb_3"
    batch_size: 64
    backend: LMDB
  }
}
layer {
  name: "label_data_1_split"
  type: "Split"
  bottom: "label"
  top: "label_data_1_split_0"
  top: "label_data_1_split_1"
}
layer {
  name: "conv1"
  type: "Convolution"
  bottom: "data"
  top: "conv1"
  param {
    lr_mult: 1
    decay_mult: 1
  }
  param {
    lr_mult: 2
    decay_mult: 0
  }
  convolution_param {
    num_output: 96
    kernel_size: 11
    stride: 4
    weight_filler {
      type: "gaussian"
      std: 0.01
    }
    bias_filler {
      type: "constant"
      value: 0
    }
    engine: MKL2017
  }
}
layer {
  name: "relu1"
  type: "ReLU"
  bottom: "conv1"
  top: "conv1"
  relu_param {
    engine: MKL2017
  }
}
layer {
  name: "norm1"
  type: "LRN"
  bottom: "conv1"
  top: "norm1"
  lrn_param {
    local_size: 5
    alpha: 0.0001
    beta: 0.75
    engine: MKL2017
  }
}
layer {
  name: "pool1"
  type: "Pooling"
  bottom: "norm1"
  top: "pool1"
  pooling_param {
    pool: MAX
    kernel_size: 3
    stride: 2
    engine: MKL2017
  }
}
layer {
  name: "conv2"
  type: "Convolution"
  bottom: "pool1"
  top: "conv2"
  param {
    lr_mult: 1
    decay_mult: 1
  }
  param {
    lr_mult: 2
    decay_mult: 0
  }
  convolution_param {
    num_output: 256
    pad: 2
    kernel_size: 5
    group: 2
    weight_filler {
      type: "gaussian"
      std: 0.01
    }
    bias_filler {
      type: "constant"
      value: 0.1
    }
    engine: MKL2017
  }
}
layer {
  name: "relu2"
  type: "ReLU"
  bottom: "conv2"
  top: "conv2"
  relu_param {
    engine: MKL2017
  }
}
layer {
  name: "norm2"
  type: "LRN"
  bottom: "conv2"
  top: "norm2"
  lrn_param {
    local_size: 5
    alpha: 0.0001
    beta: 0.75
    engine: MKL2017
  }
}
layer {
  name: "pool2"
  type: "Pooling"
  bottom: "norm2"
  top: "pool2"
  pooling_param {
    pool: MAX
    kernel_size: 3
    stride: 2
    engine: MKL2017
  }
}
layer {
  name: "conv3"
  type: "Convolution"
  bottom: "pool2"
  top: "conv3"
  param {
    lr_mult: 1
    decay_mult: 1
  }
  param {
    lr_mult: 2
    decay_mult: 0
  }
  convolution_param {
    num_output: 384
    pad: 1
    kernel_size: 3
    weight_filler {
      type: "gaussian"
      std: 0.01
    }
    bias_filler {
      type: "constant"
      value: 0
    }
    engine: MKL2017
  }
}
layer {
  name: "relu3"
  type: "ReLU"
  bottom: "conv3"
  top: "conv3"
  relu_param {
    engine: MKL2017
  }
}
layer {
  name: "conv4"
  type: "Convolution"
  bottom: "conv3"
  top: "conv4"
  param {
    lr_mult: 1
    decay_mult: 1
  }
  param {
    lr_mult: 2
    decay_mult: 0
  }
  convolution_param {
    num_output: 384
    pad: 1
    kernel_size: 3
    group: 2
    weight_filler {
      type: "gaussian"
      std: 0.01
    }
    bias_filler {
      type: "constant"
      value: 0.1
    }
    engine: MKL2017
  }
}
layer {
  name: "relu4"
  type: "ReLU"
  bottom: "conv4"
  top: "conv4"
  relu_param {
    engine: MKL2017
  }
}
layer {
  name: "conv5"
  type: "Convolution"
  bottom: "conv4"
  top: "conv5"
  param {
    lr_mult: 1
    decay_mult: 1
  }
  param {
    lr_mult: 2
    decay_mult: 0
  }
  convolution_param {
    num_output: 256
    pad: 1
    kernel_size: 3
    group: 2
    weight_filler {
      type: "gaussian"
      std: 0.01
    }
    bias_filler {
      type: "constant"
      value: 0.1
    }
    engine: MKL2017
  }
}
layer {
  name: "relu5"
  type: "ReLU"
  bottom: "conv5"
  top: "conv5"
  relu_param {
    engine: MKL2017
  }
}
layer {
  name: "pool5"
  type: "Pooling"
  bottom: "conv5"
  top: "pool5"
  pooling_param {
    pool: MAX
    kernel_size: 3
    stride: 2
    engine: MKL2017
  }
}
layer {
  name: "fc6"
  type: "InnerProduct"
  bottom: "pool5"
  top: "fc6"
  param {
    lr_mult: 1
    decay_mult: 1
  }
  param {
    lr_mult: 2
    decay_mult: 0
  }
  inner_product_param {
    num_output: 4096
    weight_filler {
      type: "gaussian"
      std: 0.005
    }
    bias_filler {
      type: "constant"
      value: 0.1
    }
  }
}
layer {
  name: "relu6"
  type: "ReLU"
  bottom: "fc6"
  top: "fc6"
}
layer {
  name: "drop6"
  type: "Dropout"
  bottom: "fc6"
  top: "fc6"
  dropout_param {
    dropout_ratio: 0.5
  }
}
layer {
  name: "fc7"
  type: "InnerProduct"
  bottom: "fc6"
  top: "fc7"
  param {
    lr_mult: 1
    decay_mult: 1
  }
  param {
    lr_mult: 2
    decay_mult: 0
  }
  inner_product_param {
    num_output: 4096
    weight_filler {
      type: "gaussian"
      std: 0.005
    }
    bias_filler {
      type: "constant"
      value: 0.1
    }
  }
}
layer {
  name: "relu7"
  type: "ReLU"
  bottom: "fc7"
  top: "fc7"
}
layer {
  name: "drop7"
  type: "Dropout"
  bottom: "fc7"
  top: "fc7"
  dropout_param {
    dropout_ratio: 0.5
  }
}
layer {
  name: "fc8"
  type: "InnerProduct"
  bottom: "fc7"
  top: "fc8"
  param {
    lr_mult: 1
    decay_mult: 1
  }
  param {
    lr_mult: 2
    decay_mult: 0
  }
  inner_product_param {
    num_output: 1000
    weight_filler {
      type: "gaussian"
      std: 0.01
    }
    bias_filler {
      type: "constant"
      value: 0
    }
  }
}
layer {
  name: "fc8_fc8_0_split"
  type: "Split"
  bottom: "fc8"
  top: "fc8_fc8_0_split_0"
  top: "fc8_fc8_0_split_1"
}
layer {
  name: "accuracy"
  type: "Accuracy"
  bottom: "fc8_fc8_0_split_0"
  bottom: "label_data_1_split_0"
  top: "accuracy"
}
layer {
  name: "loss"
  type: "SoftmaxWithLoss"
  bottom: "fc8_fc8_0_split_1"
  bottom: "label_data_1_split_1"
  top: "loss"
}
I1226 07:40:46.694203 86513 cpu_info.cpp:473] Number of OpenMP threads: 66
I1226 07:40:46.694528 86513 net.cpp:500] The NetState phase (0) differed from the phase (1) specified by a rule in layer data
I1226 07:40:46.696080 86513 net.cpp:136] Initializing net from parameters: 
name: "AlexNet"
state {
  phase: TRAIN
  level: 0
  stage: ""
}
engine: "MKL2017"
layer {
  name: "data"
  type: "Data"
  top: "data"
  top: "label"
  include {
    phase: TRAIN
  }
  transform_param {
    mirror: true
    crop_size: 227
    mean_value: 104
    mean_value: 117
    mean_value: 123
  }
  data_param {
    source: "/export/data1/stanford/hazy/zjian/gorden_bell/ILSVRC2012_lmdb/db_8/ilsvrc12_train_lmdb_7"
    batch_size: 64
    backend: LMDB
  }
}
layer {
  name: "label_data_1_split"
  type: "Split"
  bottom: "label"
  top: "label_data_1_split_0"
  top: "label_data_1_split_1"
}
layer {
  name: "conv1"
  type: "Convolution"
  bottom: "data"
  top: "conv1"
  param {
    lr_mult: 1
    decay_mult: 1
  }
  param {
    lr_mult: 2
    decay_mult: 0
  }
  convolution_param {
    num_output: 96
    kernel_size: 11
    stride: 4
    weight_filler {
      type: "gaussian"
      std: 0.01
    }
    bias_filler {
      type: "constant"
      value: 0
    }
    engine: MKL2017
  }
}
layer {
  name: "relu1"
  type: "ReLU"
  bottom: "conv1"
  top: "conv1"
  relu_param {
    engine: MKL2017
  }
}
layer {
  name: "norm1"
  type: "LRN"
  bottom: "conv1"
  top: "norm1"
  lrn_param {
    local_size: 5
    alpha: 0.0001
    beta: 0.75
    engine: MKL2017
  }
}
layer {
  name: "pool1"
  type: "Pooling"
  bottom: "norm1"
  top: "pool1"
  pooling_param {
    pool: MAX
    kernel_size: 3
    stride: 2
    engine: MKL2017
  }
}
layer {
  name: "conv2"
  type: "Convolution"
  bottom: "pool1"
  top: "conv2"
  param {
    lr_mult: 1
    decay_mult: 1
  }
  param {
    lr_mult: 2
    decay_mult: 0
  }
  convolution_param {
    num_output: 256
    pad: 2
    kernel_size: 5
    group: 2
    weight_filler {
      type: "gaussian"
      std: 0.01
    }
    bias_filler {
      type: "constant"
      value: 0.1
    }
    engine: MKL2017
  }
}
layer {
  name: "relu2"
  type: "ReLU"
  bottom: "conv2"
  top: "conv2"
  relu_param {
    engine: MKL2017
  }
}
layer {
  name: "norm2"
  type: "LRN"
  bottom: "conv2"
  top: "norm2"
  lrn_param {
    local_size: 5
    alpha: 0.0001
    beta: 0.75
    engine: MKL2017
  }
}
layer {
  name: "pool2"
  type: "Pooling"
  bottom: "norm2"
  top: "pool2"
  pooling_param {
    pool: MAX
    kernel_size: 3
    stride: 2
    engine: MKL2017
  }
}
layer {
  name: "conv3"
  type: "Convolution"
  bottom: "pool2"
  top: "conv3"
  param {
    lr_mult: 1
    decay_mult: 1
  }
  param {
    lr_mult: 2
    decay_mult: 0
  }
  convolution_param {
    num_output: 384
    pad: 1
    kernel_size: 3
    weight_filler {
      type: "gaussian"
      std: 0.01
    }
    bias_filler {
      type: "constant"
      value: 0
    }
    engine: MKL2017
  }
}
layer {
  name: "relu3"
  type: "ReLU"
  bottom: "conv3"
  top: "conv3"
  relu_param {
    engine: MKL2017
  }
}
layer {
  name: "conv4"
  type: "Convolution"
  bottom: "conv3"
  top: "conv4"
  param {
    lr_mult: 1
    decay_mult: 1
  }
  param {
    lr_mult: 2
    decay_mult: 0
  }
  convolution_param {
    num_output: 384
    pad: 1
    kernel_size: 3
    group: 2
    weight_filler {
      type: "gaussian"
      std: 0.01
    }
    bias_filler {
      type: "constant"
      value: 0.1
    }
    engine: MKL2017
  }
}
layer {
  name: "relu4"
  type: "ReLU"
  bottom: "conv4"
  top: "conv4"
  relu_param {
    engine: MKL2017
  }
}
layer {
  name: "conv5"
  type: "Convolution"
  bottom: "conv4"
  top: "conv5"
  param {
    lr_mult: 1
    decay_mult: 1
  }
  param {
    lr_mult: 2
    decay_mult: 0
  }
  convolution_param {
    num_output: 256
    pad: 1
    kernel_size: 3
    group: 2
    weight_filler {
      type: "gaussian"
      std: 0.01
    }
    bias_filler {
      type: "constant"
      value: 0.1
    }
    engine: MKL2017
  }
}
layer {
  name: "relu5"
  type: "ReLU"
  bottom: "conv5"
  top: "conv5"
  relu_param {
    engine: MKL2017
  }
}
layer {
  name: "pool5"
  type: "Pooling"
  bottom: "conv5"
  top: "pool5"
  pooling_param {
    pool: MAX
    kernel_size: 3
    stride: 2
    engine: MKL2017
  }
}
layer {
  name: "fc6"
  type: "InnerProduct"
  bottom: "pool5"
  top: "fc6"
  param {
    lr_mult: 1
    decay_mult: 1
  }
  param {
    lr_mult: 2
    decay_mult: 0
  }
  inner_product_param {
    num_output: 4096
    weight_filler {
      type: "gaussian"
      std: 0.005
    }
    bias_filler {
      type: "constant"
      value: 0.1
    }
  }
}
layer {
  name: "relu6"
  type: "ReLU"
  bottom: "fc6"
  top: "fc6"
}
layer {
  name: "drop6"
  type: "Dropout"
  bottom: "fc6"
  top: "fc6"
  dropout_param {
    dropout_ratio: 0.5
  }
}
layer {
  name: "fc7"
  type: "InnerProduct"
  bottom: "fc6"
  top: "fc7"
  param {
    lr_mult: 1
    decay_mult: 1
  }
  param {
    lr_mult: 2
    decay_mult: 0
  }
  inner_product_param {
    num_output: 4096
    weight_filler {
      type: "gaussian"
      std: 0.005
    }
    bias_filler {
      type: "constant"
      value: 0.1
    }
  }
}
layer {
  name: "relu7"
  type: "ReLU"
  bottom: "fc7"
  top: "fc7"
}
layer {
  name: "drop7"
  type: "Dropout"
  bottom: "fc7"
  top: "fc7"
  dropout_param {
    dropout_ratio: 0.5
  }
}
layer {
  name: "fc8"
  type: "InnerProduct"
  bottom: "fc7"
  top: "fc8"
  param {
    lr_mult: 1
    decay_mult: 1
  }
  param {
    lr_mult: 2
    decay_mult: 0
  }
  inner_product_param {
    num_output: 1000
    weight_filler {
      type: "gaussian"
      std: 0.01
    }
    bias_filler {
      type: "constant"
      value: 0
    }
  }
}
layer {
  name: "fc8_fc8_0_split"
  type: "Split"
  bottom: "fc8"
  top: "fc8_fc8_0_split_0"
  top: "fc8_fc8_0_split_1"
}
layer {
  name: "accuracy"
  type: "Accuracy"
  bottom: "fc8_fc8_0_split_0"
  bottom: "label_data_1_split_0"
  top: "accuracy"
}
layer {
  name: "loss"
  type: "SoftmaxWithLoss"
  bottom: "fc8_fc8_0_split_1"
  bottom: "label_data_1_split_1"
  top: "loss"
}
I1226 07:40:46.721388 89771 cpu_info.cpp:473] Number of OpenMP threads: 66
I1226 07:40:46.722189 89800 cpu_info.cpp:473] Number of OpenMP threads: 66
I1226 07:40:46.721838 89771 net.cpp:500] The NetState phase (0) differed from the phase (1) specified by a rule in layer data
I1226 07:40:46.722548 89800 net.cpp:500] The NetState phase (0) differed from the phase (1) specified by a rule in layer data
I1226 07:40:46.724232 89800 net.cpp:136] Initializing net from parameters: 
name: "AlexNet"
state {
  phase: TRAIN
  level: 0
  stage: ""
}
engine: "MKL2017"
layer {
  name: "data"
  type: "Data"
  top: "data"
  top: "label"
  include {
    phase: TRAIN
  }
  transform_param {
    mirror: true
    crop_size: 227
    mean_value: 104
    mean_value: 117
    mean_value: 123
  }
  data_param {
    source: "/export/data1/stanford/hazy/zjian/gorden_bell/ILSVRC2012_lmdb/db_8/ilsvrc12_train_lmdb_6"
    batch_size: 64
    backend: LMDB
  }
}
layer {
  name: "label_data_1_split"
  type: "Split"
  bottom: "label"
  top: "label_data_1_split_0"
  top: "label_data_1_split_1"
}
layer {
  name: "conv1"
  type: "Convolution"
  bottom: "data"
  top: "conv1"
  param {
    lr_mult: 1
    decay_mult: 1
  }
  param {
    lr_mult: 2
    decay_mult: 0
  }
  convolution_param {
    num_output: 96
    kernel_size: 11
    stride: 4
    weight_filler {
      type: "gaussian"
      std: 0.01
    }
    bias_filler {
      type: "constant"
      value: 0
    }
    engine: MKL2017
  }
}
layer {
  name: "relu1"
  type: "ReLU"
  bottom: "conv1"
  top: "conv1"
  relu_param {
    engine: MKL2017
  }
}
layer {
  name: "norm1"
  type: "LRN"
  bottom: "conv1"
  top: "norm1"
  lrn_param {
    local_size: 5
    alpha: 0.0001
    beta: 0.75
    engine: MKL2017
  }
}
layer {
  name: "pool1"
  type: "Pooling"
  bottom: "norm1"
  top: "pool1"
  pooling_param {
    pool: MAX
    kernel_size: 3
    stride: 2
    engine: MKL2017
  }
}
layer {
  name: "conv2"
  type: "Convolution"
  bottom: "pool1"
  top: "conv2"
  param {
    lr_mult: 1
    decay_mult: 1
  }
  param {
    lr_mult: 2
    decay_mult: 0
  }
  convolution_param {
    num_output: 256
    pad: 2
    kernel_size: 5
    group: 2
    weight_filler {
      type: "gaussian"
      std: 0.01
    }
    bias_filler {
      type: "constant"
      value: 0.1
    }
    engine: MKL2017
  }
}
layer {
  name: "relu2"
  type: "ReLU"
  bottom: "conv2"
  top: "conv2"
  relu_param {
    engine: MKL2017
  }
}
layer {
  name: "norm2"
  type: "LRN"
  bottom: "conv2"
  top: "norm2"
  lrn_param {
    local_size: 5
    alpha: 0.0001
    beta: 0.75
    engine: MKL2017
  }
}
layer {
  name: "pool2"
  type: "Pooling"
  bottom: "norm2"
  top: "pool2"
  pooling_param {
    pool: MAX
    kernel_size: 3
    stride: 2
    engine: MKL2017
  }
}
layer {
  name: "conv3"
  type: "Convolution"
  bottom: "pool2"
  top: "conv3"
  param {
    lr_mult: 1
    decay_mult: 1
  }
  param {
    lr_mult: 2
    decay_mult: 0
  }
  convolution_param {
    num_output: 384
    pad: 1
    kernel_size: 3
    weight_filler {
      type: "gaussian"
      std: 0.01
    }
    bias_filler {
      type: "constant"
      value: 0
    }
    engine: MKL2017
  }
}
layer {
  name: "relu3"
  type: "ReLU"
  bottom: "conv3"
  top: "conv3"
  relu_param {
    engine: MKL2017
  }
}
layer {
  name: "conv4"
  type: "Convolution"
  bottom: "conv3"
  top: "conv4"
  param {
    lr_mult: 1
    decay_mult: 1
  }
  param {
    lr_mult: 2
    decay_mult: 0
  }
  convolution_param {
    num_output: 384
    pad: 1
    kernel_size: 3
    group: 2
    weight_filler {
      type: "gaussian"
      std: 0.01
    }
    bias_filler {
      type: "constant"
      value: 0.1
    }
    engine: MKL2017
  }
}
layer {
  name: "relu4"
  type: "ReLU"
  bottom: "conv4"
  top: "conv4"
  relu_param {
    engine: MKL2017
  }
}
layer {
  name: "conv5"
  type: "Convolution"
  bottom: "conv4"
  top: "conv5"
  param {
    lr_mult: 1
    decay_mult: 1
  }
  param {
    lr_mult: 2
    decay_mult: 0
  }
  convolution_param {
    num_output: 256
    pad: 1
    kernel_size: 3
    group: 2
    weight_filler {
      type: "gaussian"
      std: 0.01
    }
    bias_filler {
      type: "constant"
      value: 0.1
    }
    engine: MKL2017
  }
}
layer {
  name: "relu5"
  type: "ReLU"
  bottom: "conv5"
  top: "conv5"
  relu_param {
    engine: MKL2017
  }
}
layer {
  name: "pool5"
  type: "Pooling"
  bottom: "conv5"
  top: "pool5"
  pooling_param {
    pool: MAX
    kernel_size: 3
    stride: 2
    engine: MKL2017
  }
}
layer {
  name: "fc6"
  type: "InnerProduct"
  bottom: "pool5"
  top: "fc6"
  param {
    lr_mult: 1
    decay_mult: 1
  }
  param {
    lr_mult: 2
    decay_mult: 0
  }
  inner_product_param {
    num_output: 4096
    weight_filler {
      type: "gaussian"
      std: 0.005
    }
    bias_filler {
      type: "constant"
      value: 0.1
    }
  }
}
layer {
  name: "relu6"
  type: "ReLU"
  bottom: "fc6"
  top: "fc6"
}
layer {
  name: "drop6"
  type: "Dropout"
  bottom: "fc6"
  top: "fc6"
  dropout_param {
    dropout_ratio: 0.5
  }
}
layer {
  name: "fc7"
  type: "InnerProduct"
  bottom: "fc6"
  top: "fc7"
  param {
    lr_mult: 1
    decay_mult: 1
  }
  param {
    lr_mult: 2
    decay_mult: 0
  }
  inner_product_param {
    num_output: 4096
    weight_filler {
      type: "gaussian"
      std: 0.005
    }
    bias_filler {
      type: "constant"
      value: 0.1
    }
  }
}
layer {
  name: "relu7"
  type: "ReLU"
  bottom: "fc7"
  top: "fc7"
}
layer {
  name: "drop7"
  type: "Dropout"
  bottom: "fc7"
  top: "fc7"
  dropout_param {
    dropout_ratio: 0.5
  }
}
layer {
  name: "fc8"
  type: "InnerProduct"
  bottom: "fc7"
  top: "fc8"
  param {
    lr_mult: 1
    decay_mult: 1
  }
  param {
    lr_mult: 2
    decay_mult: 0
  }
  inner_product_param {
    num_output: 1000
    weight_filler {
      type: "gaussian"
      std: 0.01
    }
    bias_filler {
      type: "constant"
      value: 0
    }
  }
}
layer {
  name: "fc8_fc8_0_split"
  type: "Split"
  bottom: "fc8"
  top: "fc8_fc8_0_split_0"
  top: "fc8_fc8_0_split_1"
}
layer {
  name: "accuracy"
  type: "Accuracy"
  bottom: "fc8_fc8_0_split_0"
  bottom: "label_data_1_split_0"
  top: "accuracy"
}
layer {
  name: "loss"
  type: "SoftmaxWithLoss"
  bottom: "fc8_fc8_0_split_1"
  bottom: "label_data_1_split_1"
  top: "loss"
}
I1226 07:40:46.723922 89771 net.cpp:136] Initializing net from parameters: 
name: "AlexNet"
state {
  phase: TRAIN
  level: 0
  stage: ""
}
engine: "MKL2017"
layer {
  name: "data"
  type: "Data"
  top: "data"
  top: "label"
  include {
    phase: TRAIN
  }
  transform_param {
    mirror: true
    crop_size: 227
    mean_value: 104
    mean_value: 117
    mean_value: 123
  }
  data_param {
    source: "/export/data1/stanford/hazy/zjian/gorden_bell/ILSVRC2012_lmdb/db_8/ilsvrc12_train_lmdb_0"
    batch_size: 64
    backend: LMDB
  }
}
layer {
  name: "label_data_1_split"
  type: "Split"
  bottom: "label"
  top: "label_data_1_split_0"
  top: "label_data_1_split_1"
}
layer {
  name: "conv1"
  type: "Convolution"
  bottom: "data"
  top: "conv1"
  param {
    lr_mult: 1
    decay_mult: 1
  }
  param {
    lr_mult: 2
    decay_mult: 0
  }
  convolution_param {
    num_output: 96
    kernel_size: 11
    stride: 4
    weight_filler {
      type: "gaussian"
      std: 0.01
    }
    bias_filler {
      type: "constant"
      value: 0
    }
    engine: MKL2017
  }
}
layer {
  name: "relu1"
  type: "ReLU"
  bottom: "conv1"
  top: "conv1"
  relu_param {
    engine: MKL2017
  }
}
layer {
  name: "norm1"
  type: "LRN"
  bottom: "conv1"
  top: "norm1"
  lrn_param {
    local_size: 5
    alpha: 0.0001
    beta: 0.75
    engine: MKL2017
  }
}
layer {
  name: "pool1"
  type: "Pooling"
  bottom: "norm1"
  top: "pool1"
  pooling_param {
    pool: MAX
    kernel_size: 3
    stride: 2
    engine: MKL2017
  }
}
layer {
  name: "conv2"
  type: "Convolution"
  bottom: "pool1"
  top: "conv2"
  param {
    lr_mult: 1
    decay_mult: 1
  }
  param {
    lr_mult: 2
    decay_mult: 0
  }
  convolution_param {
    num_output: 256
    pad: 2
    kernel_size: 5
    group: 2
    weight_filler {
      type: "gaussian"
      std: 0.01
    }
    bias_filler {
      type: "constant"
      value: 0.1
    }
    engine: MKL2017
  }
}
layer {
  name: "relu2"
  type: "ReLU"
  bottom: "conv2"
  top: "conv2"
  relu_param {
    engine: MKL2017
  }
}
layer {
  name: "norm2"
  type: "LRN"
  bottom: "conv2"
  top: "norm2"
  lrn_param {
    local_size: 5
    alpha: 0.0001
    beta: 0.75
    engine: MKL2017
  }
}
layer {
  name: "pool2"
  type: "Pooling"
  bottom: "norm2"
  top: "pool2"
  pooling_param {
    pool: MAX
    kernel_size: 3
    stride: 2
    engine: MKL2017
  }
}
layer {
  name: "conv3"
  type: "Convolution"
  bottom: "pool2"
  top: "conv3"
  param {
    lr_mult: 1
    decay_mult: 1
  }
  param {
    lr_mult: 2
    decay_mult: 0
  }
  convolution_param {
    num_output: 384
    pad: 1
    kernel_size: 3
    weight_filler {
      type: "gaussian"
      std: 0.01
    }
    bias_filler {
      type: "constant"
      value: 0
    }
    engine: MKL2017
  }
}
layer {
  name: "relu3"
  type: "ReLU"
  bottom: "conv3"
  top: "conv3"
  relu_param {
    engine: MKL2017
  }
}
layer {
  name: "conv4"
  type: "Convolution"
  bottom: "conv3"
  top: "conv4"
  param {
    lr_mult: 1
    decay_mult: 1
  }
  param {
    lr_mult: 2
    decay_mult: 0
  }
  convolution_param {
    num_output: 384
    pad: 1
    kernel_size: 3
    group: 2
    weight_filler {
      type: "gaussian"
      std: 0.01
    }
    bias_filler {
      type: "constant"
      value: 0.1
    }
    engine: MKL2017
  }
}
layer {
  name: "relu4"
  type: "ReLU"
  bottom: "conv4"
  top: "conv4"
  relu_param {
    engine: MKL2017
  }
}
layer {
  name: "conv5"
  type: "Convolution"
  bottom: "conv4"
  top: "conv5"
  param {
    lr_mult: 1
    decay_mult: 1
  }
  param {
    lr_mult: 2
    decay_mult: 0
  }
  convolution_param {
    num_output: 256
    pad: 1
    kernel_size: 3
    group: 2
    weight_filler {
      type: "gaussian"
      std: 0.01
    }
    bias_filler {
      type: "constant"
      value: 0.1
    }
    engine: MKL2017
  }
}
layer {
  name: "relu5"
  type: "ReLU"
  bottom: "conv5"
  top: "conv5"
  relu_param {
    engine: MKL2017
  }
}
layer {
  name: "pool5"
  type: "Pooling"
  bottom: "conv5"
  top: "pool5"
  pooling_param {
    pool: MAX
    kernel_size: 3
    stride: 2
    engine: MKL2017
  }
}
layer {
  name: "fc6"
  type: "InnerProduct"
  bottom: "pool5"
  top: "fc6"
  param {
    lr_mult: 1
    decay_mult: 1
  }
  param {
    lr_mult: 2
    decay_mult: 0
  }
  inner_product_param {
    num_output: 4096
    weight_filler {
      type: "gaussian"
      std: 0.005
    }
    bias_filler {
      type: "constant"
      value: 0.1
    }
  }
}
layer {
  name: "relu6"
  type: "ReLU"
  bottom: "fc6"
  top: "fc6"
}
layer {
  name: "drop6"
  type: "Dropout"
  bottom: "fc6"
  top: "fc6"
  dropout_param {
    dropout_ratio: 0.5
  }
}
layer {
  name: "fc7"
  type: "InnerProduct"
  bottom: "fc6"
  top: "fc7"
  param {
    lr_mult: 1
    decay_mult: 1
  }
  param {
    lr_mult: 2
    decay_mult: 0
  }
  inner_product_param {
    num_output: 4096
    weight_filler {
      type: "gaussian"
      std: 0.005
    }
    bias_filler {
      type: "constant"
      value: 0.1
    }
  }
}
layer {
  name: "relu7"
  type: "ReLU"
  bottom: "fc7"
  top: "fc7"
}
layer {
  name: "drop7"
  type: "Dropout"
  bottom: "fc7"
  top: "fc7"
  dropout_param {
    dropout_ratio: 0.5
  }
}
layer {
  name: "fc8"
  type: "InnerProduct"
  bottom: "fc7"
  top: "fc8"
  param {
    lr_mult: 1
    decay_mult: 1
  }
  param {
    lr_mult: 2
    decay_mult: 0
  }
  inner_product_param {
    num_output: 1000
    weight_filler {
      type: "gaussian"
      std: 0.01
    }
    bias_filler {
      type: "constant"
      value: 0
    }
  }
}
layer {
  name: "fc8_fc8_0_split"
  type: "Split"
  bottom: "fc8"
  top: "fc8_fc8_0_split_0"
  top: "fc8_fc8_0_split_1"
}
layer {
  name: "accuracy"
  type: "Accuracy"
  bottom: "fc8_fc8_0_split_0"
  bottom: "label_data_1_split_0"
  top: "accuracy"
}
layer {
  name: "loss"
  type: "SoftmaxWithLoss"
  bottom: "fc8_fc8_0_split_1"
  bottom: "label_data_1_split_1"
  top: "loss"
}
I1226 07:40:46.734083 93793 layer_factory.hpp:114] Creating layer data
I1226 07:40:46.748777 89800 layer_factory.hpp:114] Creating layer data
I1226 07:40:46.763919 89800 net.cpp:178] Creating Layer data
I1226 07:40:46.764025 89800 net.cpp:586] data -> data
I1226 07:40:46.764109 89800 net.cpp:586] data -> label
I1226 07:40:46.771777 93793 net.cpp:178] Creating Layer data
…
I1226 07:40:46.842434 88310 db_lmdb.cpp:72] Opened lmdb /export/data1/stanford/hazy/zjian/gorden_bell/ILSVRC2012_lmdb/db_8/ilsvrc12_train_lmdb_2
I1226 07:40:46.841799 86513 data_layer.cpp:80] output data size: 64,3,227,227
I1226 07:40:46.827365 90198 db_lmdb.cpp:72] Opened lmdb /export/data1/stanford/hazy/zjian/gorden_bell/ILSVRC2012_lmdb/db_8/ilsvrc12_train_lmdb_4
I1226 07:40:46.841800 89667 db_lmdb.cpp:72] Opened lmdb /export/data1/stanford/hazy/zjian/gorden_bell/ILSVRC2012_lmdb/db_8/ilsvrc12_train_lmdb_3
I1226 07:40:46.850533 88308 data_layer.cpp:80] output data size: 64,3,227,227
I1226 07:40:46.843374 92408 net.cpp:228] Setting up data
I1226 07:40:46.843513 92408 net.cpp:235] Top shape: 64 3 227 227 (9893568)
I1226 07:40:46.843559 92408 net.cpp:235] Top shape: 64 1 1 1 (64)
I1226 07:40:46.843585 92408 net.cpp:243] Memory required for data: 39574528
I1226 07:40:46.843639 92408 layer_factory.hpp:114] Creating layer label_data_1_split
I1226 07:40:46.843740 92408 net.cpp:178] Creating Layer label_data_1_split
I1226 07:40:46.843781 92408 net.cpp:612] label_data_1_split <- label
I1226 07:40:46.843974 92408 net.cpp:586] label_data_1_split -> label_data_1_split_0
I1226 07:40:46.844055 92408 net.cpp:586] label_data_1_split -> label_data_1_split_1
I1226 07:40:46.835191 90196 data_layer.cpp:80] output data size: 64,3,227,227
I1226 07:40:46.850406 89665 data_layer.cpp:80] output data size: 64,3,227,227
I1226 07:40:46.856312 89771 data_layer.cpp:80] output data size: 64,3,227,227
I1226 07:40:46.856266 92408 net.cpp:228] Setting up label_data_1_split
I1226 07:40:46.856379 92408 net.cpp:235] Top shape: 64 1 1 1 (64)
I1226 07:40:46.856416 92408 net.cpp:235] Top shape: 64 1 1 1 (64)
I1226 07:40:46.856441 92408 net.cpp:243] Memory required for data: 39575040
I1226 07:40:46.856478 92408 layer_factory.hpp:114] Creating layer conv1
I1226 07:40:46.856626 92408 net.cpp:178] Creating Layer conv1
I1226 07:40:46.856668 92408 net.cpp:612] conv1 <- data
I1226 07:40:46.856715 92408 net.cpp:586] conv1 -> conv1
I1226 07:40:46.896020 89800 net.cpp:228] Setting up data
I1226 07:40:46.896140 89800 net.cpp:235] Top shape: 64 3 227 227 (9893568)
I1226 07:40:46.896179 89800 net.cpp:235] Top shape: 64 (64)
I1226 07:40:46.896205 89800 net.cpp:243] Memory required for data: 39574528
I1226 07:40:46.896242 89800 layer_factory.hpp:114] Creating layer label_data_1_split
I1226 07:40:46.896338 89800 net.cpp:178] Creating Layer label_data_1_split
I1226 07:40:46.896492 89800 net.cpp:612] label_data_1_split <- label
I1226 07:40:46.896545 89800 net.cpp:586] label_data_1_split -> label_data_1_split_0
I1226 07:40:46.896607 89800 net.cpp:586] label_data_1_split -> label_data_1_split_1
I1226 07:40:46.910101 89800 net.cpp:228] Setting up label_data_1_split
I1226 07:40:46.910220 89800 net.cpp:235] Top shape: 64 (64)
I1226 07:40:46.910256 89800 net.cpp:235] Top shape: 64 (64)
I1226 07:40:46.910296 89800 net.cpp:243] Memory required for data: 39575040
I1226 07:40:46.910336 89800 layer_factory.hpp:114] Creating layer conv1
I1226 07:40:46.910563 89800 net.cpp:178] Creating Layer conv1
I1226 07:40:46.910924 89800 net.cpp:612] conv1 <- data
I1226 07:40:46.911011 89800 net.cpp:586] conv1 -> conv1
I1226 07:40:46.940091 86513 net.cpp:228] Setting up data
I1226 07:40:46.940209 86513 net.cpp:235] Top shape: 64 3 227 227 (9893568)
I1226 07:40:46.940245 86513 net.cpp:235] Top shape: 64 (64)
I1226 07:40:46.940297 86513 net.cpp:243] Memory required for data: 39574528
I1226 07:40:46.940366 86513 layer_factory.hpp:114] Creating layer label_data_1_split
I1226 07:40:46.940451 86513 net.cpp:178] Creating Layer label_data_1_split
I1226 07:40:46.940593 86513 net.cpp:612] label_data_1_split <- label
I1226 07:40:46.940644 86513 net.cpp:586] label_data_1_split -> label_data_1_split_0
I1226 07:40:46.940697 86513 net.cpp:586] label_data_1_split -> label_data_1_split_1
I1226 07:40:43.676005 89666 net.cpp:228] Setting up data
I1226 07:40:43.676180 89666 net.cpp:235] Top shape: 64 3 227 227 (9893568)
I1226 07:40:43.676229 89666 net.cpp:235] Top shape: 64 (64)
I1226 07:40:43.676342 89666 net.cpp:243] Memory required for data: 39574528
I1226 07:40:43.676383 89666 layer_factory.hpp:114] Creating layer label_data_1_split
I1226 07:40:43.676491 89666 net.cpp:178] Creating Layer label_data_1_split
I1226 07:40:43.676676 89666 net.cpp:612] label_data_1_split <- label
I1226 07:40:43.676728 89666 net.cpp:586] label_data_1_split -> label_data_1_split_0
I1226 07:40:43.677121 89666 net.cpp:586] label_data_1_split -> label_data_1_split_1
I1226 07:40:46.946120 88308 net.cpp:228] Setting up data
I1226 07:40:46.946252 88308 net.cpp:235] Top shape: 64 3 227 227 (9893568)
I1226 07:40:46.946290 88308 net.cpp:235] Top shape: 64 (64)
I1226 07:40:46.946336 88308 net.cpp:243] Memory required for data: 39574528
I1226 07:40:46.946501 88308 layer_factory.hpp:114] Creating layer label_data_1_split
I1226 07:40:46.946714 88308 net.cpp:178] Creating Layer label_data_1_split
I1226 07:40:46.946871 88308 net.cpp:612] label_data_1_split <- label
I1226 07:40:46.946938 88308 net.cpp:586] label_data_1_split -> label_data_1_split_0
I1226 07:40:46.947000 88308 net.cpp:586] label_data_1_split -> label_data_1_split_1
I1226 07:40:46.934795 90196 net.cpp:228] Setting up data
I1226 07:40:46.935292 90196 net.cpp:235] Top shape: 64 3 227 227 (9893568)
I1226 07:40:46.935376 90196 net.cpp:235] Top shape: 64 (64)
I1226 07:40:46.935408 90196 net.cpp:243] Memory required for data: 39574528
I1226 07:40:46.935475 90196 layer_factory.hpp:114] Creating layer label_data_1_split
I1226 07:40:46.935614 90196 net.cpp:178] Creating Layer label_data_1_split
I1226 07:40:46.935791 90196 net.cpp:612] label_data_1_split <- label
I1226 07:40:46.935845 90196 net.cpp:586] label_data_1_split -> label_data_1_split_0
I1226 07:40:46.935899 90196 net.cpp:586] label_data_1_split -> label_data_1_split_1
I1226 07:40:46.955291 89771 net.cpp:228] Setting up data
I1226 07:40:46.955433 89771 net.cpp:235] Top shape: 64 3 227 227 (9893568)
I1226 07:40:46.955538 89771 net.cpp:235] Top shape: 64 (64)
I1226 07:40:46.956073 89771 net.cpp:243] Memory required for data: 39574528
I1226 07:40:46.956181 89771 layer_factory.hpp:114] Creating layer label_data_1_split
I1226 07:40:46.956311 89771 net.cpp:178] Creating Layer label_data_1_split
I1226 07:40:46.956581 89771 net.cpp:612] label_data_1_split <- label
I1226 07:40:46.956656 89771 net.cpp:586] label_data_1_split -> label_data_1_split_0
I1226 07:40:46.953999 86513 net.cpp:228] Setting up label_data_1_split
I1226 07:40:46.956722 89771 net.cpp:586] label_data_1_split -> label_data_1_split_1
I1226 07:40:46.954133 86513 net.cpp:235] Top shape: 64 (64)
I1226 07:40:46.954170 86513 net.cpp:235] Top shape: 64 (64)
I1226 07:40:46.954195 86513 net.cpp:243] Memory required for data: 39575040
I1226 07:40:46.954277 86513 layer_factory.hpp:114] Creating layer conv1
I1226 07:40:46.954406 86513 net.cpp:178] Creating Layer conv1
I1226 07:40:46.954449 86513 net.cpp:612] conv1 <- data
I1226 07:40:46.954493 86513 net.cpp:586] conv1 -> conv1
I1226 07:40:46.952885 89665 net.cpp:228] Setting up data
I1226 07:40:46.953013 89665 net.cpp:235] Top shape: 64 3 227 227 (9893568)
I1226 07:40:46.953127 89665 net.cpp:235] Top shape: 64 (64)
I1226 07:40:46.953310 89665 net.cpp:243] Memory required for data: 39574528
I1226 07:40:46.953357 89665 layer_factory.hpp:114] Creating layer label_data_1_split
I1226 07:40:46.953660 89665 net.cpp:178] Creating Layer label_data_1_split
I1226 07:40:46.953851 89665 net.cpp:612] label_data_1_split <- label
I1226 07:40:46.953912 89665 net.cpp:586] label_data_1_split -> label_data_1_split_0
I1226 07:40:46.954365 89665 net.cpp:586] label_data_1_split -> label_data_1_split_1
I1226 07:40:46.966400 88308 net.cpp:228] Setting up label_data_1_split
I1226 07:40:46.966512 88308 net.cpp:235] Top shape: 64 (64)
I1226 07:40:46.966595 88308 net.cpp:235] Top shape: 64 (64)
I1226 07:40:46.966670 88308 net.cpp:243] Memory required for data: 39575040
I1226 07:40:46.966720 88308 layer_factory.hpp:114] Creating layer conv1
I1226 07:40:46.966858 88308 net.cpp:178] Creating Layer conv1
I1226 07:40:46.966989 88308 net.cpp:612] conv1 <- data
I1226 07:40:46.967034 88308 net.cpp:586] conv1 -> conv1
I1226 07:40:43.700731 89666 net.cpp:228] Setting up label_data_1_split
I1226 07:40:43.700896 89666 net.cpp:235] Top shape: 64 (64)
I1226 07:40:43.700942 89666 net.cpp:235] Top shape: 64 (64)
I1226 07:40:43.700968 89666 net.cpp:243] Memory required for data: 39575040
I1226 07:40:43.701004 89666 layer_factory.hpp:114] Creating layer conv1
I1226 07:40:43.701187 89666 net.cpp:178] Creating Layer conv1
I1226 07:40:43.701249 89666 net.cpp:612] conv1 <- data
I1226 07:40:43.701297 89666 net.cpp:586] conv1 -> conv1
I1226 07:40:46.954077 90196 net.cpp:228] Setting up label_data_1_split
I1226 07:40:46.954205 90196 net.cpp:235] Top shape: 64 (64)
I1226 07:40:46.954246 90196 net.cpp:235] Top shape: 64 (64)
I1226 07:40:46.954270 90196 net.cpp:243] Memory required for data: 39575040
I1226 07:40:46.954423 90196 layer_factory.hpp:114] Creating layer conv1
I1226 07:40:46.954553 90196 net.cpp:178] Creating Layer conv1
I1226 07:40:46.954596 90196 net.cpp:612] conv1 <- data
I1226 07:40:46.954640 90196 net.cpp:586] conv1 -> conv1
I1226 07:40:46.978366 89771 net.cpp:228] Setting up label_data_1_split
I1226 07:40:46.978516 89771 net.cpp:235] Top shape: 64 (64)
I1226 07:40:46.978559 89771 net.cpp:235] Top shape: 64 (64)
I1226 07:40:46.978605 89771 net.cpp:243] Memory required for data: 39575040
I1226 07:40:46.978663 89771 layer_factory.hpp:114] Creating layer conv1
I1226 07:40:46.978816 89771 net.cpp:178] Creating Layer conv1
I1226 07:40:46.978860 89771 net.cpp:612] conv1 <- data
I1226 07:40:46.978912 89771 net.cpp:586] conv1 -> conv1
I1226 07:40:46.990600 89665 net.cpp:228] Setting up label_data_1_split
I1226 07:40:46.990712 89665 net.cpp:235] Top shape: 64 (64)
I1226 07:40:46.990753 89665 net.cpp:235] Top shape: 64 (64)
I1226 07:40:46.990788 89665 net.cpp:243] Memory required for data: 39575040
I1226 07:40:46.990859 89665 layer_factory.hpp:114] Creating layer conv1
I1226 07:40:46.990980 89665 net.cpp:178] Creating Layer conv1
I1226 07:40:46.991186 89665 net.cpp:612] conv1 <- data
I1226 07:40:46.991243 89665 net.cpp:586] conv1 -> conv1
I1226 07:40:47.067893 93793 net.cpp:228] Setting up data
I1226 07:40:47.068094 93793 net.cpp:235] Top shape: 64 3 227 227 (9893568)
I1226 07:40:47.068303 93793 net.cpp:235] Top shape: 64 (64)
I1226 07:40:47.068367 93793 net.cpp:243] Memory required for data: 39574528
I1226 07:40:47.068414 93793 layer_factory.hpp:114] Creating layer label_data_1_split
I1226 07:40:47.068775 93793 net.cpp:178] Creating Layer label_data_1_split
I1226 07:40:47.068984 93793 net.cpp:612] label_data_1_split <- label
I1226 07:40:47.069600 93793 net.cpp:586] label_data_1_split -> label_data_1_split_0
I1226 07:40:47.069779 93793 net.cpp:586] label_data_1_split -> label_data_1_split_1
I1226 07:40:47.102864 93793 net.cpp:228] Setting up label_data_1_split
I1226 07:40:47.102978 93793 net.cpp:235] Top shape: 64 (64)
I1226 07:40:47.103020 93793 net.cpp:235] Top shape: 64 (64)
I1226 07:40:47.103055 93793 net.cpp:243] Memory required for data: 39575040
I1226 07:40:47.103415 93793 layer_factory.hpp:114] Creating layer conv1
I1226 07:40:47.103669 93793 net.cpp:178] Creating Layer conv1
I1226 07:40:47.103773 93793 net.cpp:612] conv1 <- data
I1226 07:40:47.103905 93793 net.cpp:586] conv1 -> conv1
I1226 07:40:47.135476 89800 net.cpp:228] Setting up conv1
I1226 07:40:47.135597 89800 net.cpp:235] Top shape: 64 96 55 55 (18585600)
I1226 07:40:47.135632 89800 net.cpp:243] Memory required for data: 113917440
I1226 07:40:47.135751 89800 layer_factory.hpp:114] Creating layer relu1
I1226 07:40:47.135854 89800 net.cpp:178] Creating Layer relu1
I1226 07:40:47.135902 89800 net.cpp:612] relu1 <- conv1
I1226 07:40:47.135947 89800 net.cpp:573] relu1 -> conv1 (in-place)
I1226 07:40:47.136075 89800 net.cpp:228] Setting up relu1
I1226 07:40:47.136128 89800 net.cpp:235] Top shape: 64 96 55 55 (18585600)
I1226 07:40:47.136154 89800 net.cpp:243] Memory required for data: 188259840
I1226 07:40:47.136185 89800 layer_factory.hpp:114] Creating layer norm1
I1226 07:40:47.136270 89800 net.cpp:178] Creating Layer norm1
I1226 07:40:47.136303 89800 net.cpp:612] norm1 <- conv1
I1226 07:40:47.136353 89800 net.cpp:586] norm1 -> norm1
I1226 07:40:47.136492 89800 net.cpp:228] Setting up norm1
I1226 07:40:47.136553 89800 net.cpp:235] Top shape: 64 96 55 55 (18585600)
I1226 07:40:47.136579 89800 net.cpp:243] Memory required for data: 262602240
I1226 07:40:47.136610 89800 layer_factory.hpp:114] Creating layer pool1
I1226 07:40:47.136684 89800 net.cpp:178] Creating Layer pool1
I1226 07:40:47.136720 89800 net.cpp:612] pool1 <- norm1
I1226 07:40:47.136770 89800 net.cpp:586] pool1 -> pool1
I1226 07:40:47.136873 89800 net.cpp:228] Setting up pool1
I1226 07:40:47.136917 89800 net.cpp:235] Top shape: 64 96 27 27 (4478976)
I1226 07:40:47.136941 89800 net.cpp:243] Memory required for data: 280518144
I1226 07:40:47.136970 89800 layer_factory.hpp:114] Creating layer conv2
I1226 07:40:47.137051 89800 net.cpp:178] Creating Layer conv2
I1226 07:40:47.137085 89800 net.cpp:612] conv2 <- pool1
I1226 07:40:47.137127 89800 net.cpp:586] conv2 -> conv2
I1226 07:40:47.160928 86513 net.cpp:228] Setting up conv1
I1226 07:40:47.161039 86513 net.cpp:235] Top shape: 64 96 55 55 (18585600)
I1226 07:40:47.161069 86513 net.cpp:243] Memory required for data: 113917440
I1226 07:40:47.161555 86513 layer_factory.hpp:114] Creating layer relu1
I1226 07:40:47.161727 86513 net.cpp:178] Creating Layer relu1
I1226 07:40:47.161808 86513 net.cpp:612] relu1 <- conv1
I1226 07:40:47.161856 86513 net.cpp:573] relu1 -> conv1 (in-place)
I1226 07:40:47.161972 86513 net.cpp:228] Setting up relu1
I1226 07:40:47.162029 86513 net.cpp:235] Top shape: 64 96 55 55 (18585600)
I1226 07:40:47.162061 86513 net.cpp:243] Memory required for data: 188259840
I1226 07:40:47.162091 86513 layer_factory.hpp:114] Creating layer norm1
I1226 07:40:47.164607 89771 net.cpp:228] Setting up conv1
I1226 07:40:47.162165 86513 net.cpp:178] Creating Layer norm1
I1226 07:40:47.164724 89771 net.cpp:235] Top shape: 64 96 55 55 (18585600)
I1226 07:40:47.164757 89771 net.cpp:243] Memory required for data: 113917440
I1226 07:40:47.162210 86513 net.cpp:612] norm1 <- conv1
I1226 07:40:47.164873 89771 layer_factory.hpp:114] Creating layer relu1
I1226 07:40:47.162250 86513 net.cpp:586] norm1 -> norm1
I1226 07:40:47.164968 89771 net.cpp:178] Creating Layer relu1
I1226 07:40:47.162415 86513 net.cpp:228] Setting up norm1
I1226 07:40:47.165004 89771 net.cpp:612] relu1 <- conv1
I1226 07:40:47.162497 86513 net.cpp:235] Top shape: 64 96 55 55 (18585600)
I1226 07:40:47.162526 86513 net.cpp:243] Memory required for data: 262602240
I1226 07:40:47.165045 89771 net.cpp:573] relu1 -> conv1 (in-place)
I1226 07:40:47.162556 86513 layer_factory.hpp:114] Creating layer pool1
I1226 07:40:47.165159 89771 net.cpp:228] Setting up relu1
I1226 07:40:47.165222 89771 net.cpp:235] Top shape: 64 96 55 55 (18585600)
I1226 07:40:47.165249 89771 net.cpp:243] Memory required for data: 188259840
I1226 07:40:47.165280 89771 layer_factory.hpp:114] Creating layer norm1
I1226 07:40:47.162842 86513 net.cpp:178] Creating Layer pool1
I1226 07:40:47.165357 89771 net.cpp:178] Creating Layer norm1
I1226 07:40:47.165392 89771 net.cpp:612] norm1 <- conv1
I1226 07:40:47.162883 86513 net.cpp:612] pool1 <- norm1
I1226 07:40:47.165441 89771 net.cpp:586] norm1 -> norm1
I1226 07:40:47.162948 86513 net.cpp:586] pool1 -> pool1
I1226 07:40:47.165611 89771 net.cpp:228] Setting up norm1
I1226 07:40:47.163069 86513 net.cpp:228] Setting up pool1
I1226 07:40:47.165698 89771 net.cpp:235] Top shape: 64 96 55 55 (18585600)
I1226 07:40:47.165729 89771 net.cpp:243] Memory required for data: 262602240
I1226 07:40:47.163137 86513 net.cpp:235] Top shape: 64 96 27 27 (4478976)
I1226 07:40:47.165763 89771 layer_factory.hpp:114] Creating layer pool1
I1226 07:40:47.163166 86513 net.cpp:243] Memory required for data: 280518144
I1226 07:40:47.163197 86513 layer_factory.hpp:114] Creating layer conv2
I1226 07:40:47.165843 89771 net.cpp:178] Creating Layer pool1
I1226 07:40:47.163274 86513 net.cpp:178] Creating Layer conv2
I1226 07:40:47.165875 89771 net.cpp:612] pool1 <- norm1
I1226 07:40:47.165927 89771 net.cpp:586] pool1 -> pool1
I1226 07:40:47.166038 89771 net.cpp:228] Setting up pool1
I1226 07:40:47.166098 89771 net.cpp:235] Top shape: 64 96 27 27 (4478976)
I1226 07:40:47.166122 89771 net.cpp:243] Memory required for data: 280518144
I1226 07:40:47.166153 89771 layer_factory.hpp:114] Creating layer conv2
I1226 07:40:47.166244 89771 net.cpp:178] Creating Layer conv2
I1226 07:40:47.166292 89771 net.cpp:612] conv2 <- pool1
I1226 07:40:47.166345 89771 net.cpp:586] conv2 -> conv2
I1226 07:40:47.163341 86513 net.cpp:612] conv2 <- pool1
I1226 07:40:47.163938 86513 net.cpp:586] conv2 -> conv2
I1226 07:40:47.198211 88308 net.cpp:228] Setting up conv1
I1226 07:40:47.198330 88308 net.cpp:235] Top shape: 64 96 55 55 (18585600)
I1226 07:40:47.198357 88308 net.cpp:243] Memory required for data: 113917440
I1226 07:40:47.198462 88308 layer_factory.hpp:114] Creating layer relu1
I1226 07:40:47.198551 88308 net.cpp:178] Creating Layer relu1
I1226 07:40:47.198617 88308 net.cpp:612] relu1 <- conv1
I1226 07:40:47.198657 88308 net.cpp:573] relu1 -> conv1 (in-place)
I1226 07:40:47.198760 88308 net.cpp:228] Setting up relu1
I1226 07:40:47.198806 88308 net.cpp:235] Top shape: 64 96 55 55 (18585600)
I1226 07:40:47.198829 88308 net.cpp:243] Memory required for data: 188259840
I1226 07:40:47.198858 88308 layer_factory.hpp:114] Creating layer norm1
I1226 07:40:47.198922 88308 net.cpp:178] Creating Layer norm1
I1226 07:40:47.198952 88308 net.cpp:612] norm1 <- conv1
I1226 07:40:47.198988 88308 net.cpp:586] norm1 -> norm1
I1226 07:40:47.199095 88308 net.cpp:228] Setting up norm1
I1226 07:40:47.199141 88308 net.cpp:235] Top shape: 64 96 55 55 (18585600)
I1226 07:40:47.199165 88308 net.cpp:243] Memory required for data: 262602240
I1226 07:40:47.199194 88308 layer_factory.hpp:114] Creating layer pool1
I1226 07:40:47.199265 88308 net.cpp:178] Creating Layer pool1
I1226 07:40:47.199297 88308 net.cpp:612] pool1 <- norm1
I1226 07:40:47.199338 88308 net.cpp:586] pool1 -> pool1
I1226 07:40:47.199434 88308 net.cpp:228] Setting up pool1
I1226 07:40:47.199476 88308 net.cpp:235] Top shape: 64 96 27 27 (4478976)
I1226 07:40:47.199498 88308 net.cpp:243] Memory required for data: 280518144
I1226 07:40:47.199524 88308 layer_factory.hpp:114] Creating layer conv2
I1226 07:40:47.199618 88308 net.cpp:178] Creating Layer conv2
I1226 07:40:47.199663 88308 net.cpp:612] conv2 <- pool1
I1226 07:40:47.199703 88308 net.cpp:586] conv2 -> conv2
I1226 07:40:43.934774 89666 net.cpp:228] Setting up conv1
I1226 07:40:43.934888 89666 net.cpp:235] Top shape: 64 96 55 55 (18585600)
I1226 07:40:43.934917 89666 net.cpp:243] Memory required for data: 113917440
I1226 07:40:43.935025 89666 layer_factory.hpp:114] Creating layer relu1
I1226 07:40:43.935119 89666 net.cpp:178] Creating Layer relu1
I1226 07:40:43.935159 89666 net.cpp:612] relu1 <- conv1
I1226 07:40:43.935200 89666 net.cpp:573] relu1 -> conv1 (in-place)
I1226 07:40:43.935312 89666 net.cpp:228] Setting up relu1
I1226 07:40:43.935360 89666 net.cpp:235] Top shape: 64 96 55 55 (18585600)
I1226 07:40:43.935389 89666 net.cpp:243] Memory required for data: 188259840
I1226 07:40:43.935417 89666 layer_factory.hpp:114] Creating layer norm1
I1226 07:40:43.935487 89666 net.cpp:178] Creating Layer norm1
I1226 07:40:43.935520 89666 net.cpp:612] norm1 <- conv1
I1226 07:40:43.935564 89666 net.cpp:586] norm1 -> norm1
I1226 07:40:43.935684 89666 net.cpp:228] Setting up norm1
I1226 07:40:43.935735 89666 net.cpp:235] Top shape: 64 96 55 55 (18585600)
I1226 07:40:43.935758 89666 net.cpp:243] Memory required for data: 262602240
I1226 07:40:43.935787 89666 layer_factory.hpp:114] Creating layer pool1
I1226 07:40:43.935847 89666 net.cpp:178] Creating Layer pool1
I1226 07:40:43.935883 89666 net.cpp:612] pool1 <- norm1
I1226 07:40:43.935925 89666 net.cpp:586] pool1 -> pool1
I1226 07:40:43.936019 89666 net.cpp:228] Setting up pool1
I1226 07:40:43.936064 89666 net.cpp:235] Top shape: 64 96 27 27 (4478976)
I1226 07:40:43.936092 89666 net.cpp:243] Memory required for data: 280518144
I1226 07:40:43.936125 89666 layer_factory.hpp:114] Creating layer conv2
I1226 07:40:43.936208 89666 net.cpp:178] Creating Layer conv2
I1226 07:40:43.936240 89666 net.cpp:612] conv2 <- pool1
I1226 07:40:43.936281 89666 net.cpp:586] conv2 -> conv2
I1226 07:40:47.188117 90196 net.cpp:228] Setting up conv1
I1226 07:40:47.188235 90196 net.cpp:235] Top shape: 64 96 55 55 (18585600)
I1226 07:40:47.188267 90196 net.cpp:243] Memory required for data: 113917440
I1226 07:40:47.196068 90196 layer_factory.hpp:114] Creating layer relu1
I1226 07:40:47.196238 90196 net.cpp:178] Creating Layer relu1
I1226 07:40:47.196298 90196 net.cpp:612] relu1 <- conv1
I1226 07:40:47.196346 90196 net.cpp:573] relu1 -> conv1 (in-place)
I1226 07:40:47.196496 90196 net.cpp:228] Setting up relu1
I1226 07:40:47.196588 90196 net.cpp:235] Top shape: 64 96 55 55 (18585600)
I1226 07:40:47.196616 90196 net.cpp:243] Memory required for data: 188259840
I1226 07:40:47.196650 90196 layer_factory.hpp:114] Creating layer norm1
I1226 07:40:47.196837 90196 net.cpp:178] Creating Layer norm1
I1226 07:40:47.196884 90196 net.cpp:612] norm1 <- conv1
I1226 07:40:47.196923 90196 net.cpp:586] norm1 -> norm1
I1226 07:40:47.197022 90196 net.cpp:228] Setting up norm1
I1226 07:40:47.197091 90196 net.cpp:235] Top shape: 64 96 55 55 (18585600)
I1226 07:40:47.197118 90196 net.cpp:243] Memory required for data: 262602240
I1226 07:40:47.197146 90196 layer_factory.hpp:114] Creating layer pool1
I1226 07:40:47.197204 90196 net.cpp:178] Creating Layer pool1
I1226 07:40:47.197232 90196 net.cpp:612] pool1 <- norm1
I1226 07:40:47.197279 90196 net.cpp:586] pool1 -> pool1
I1226 07:40:47.197387 90196 net.cpp:228] Setting up pool1
I1226 07:40:47.197434 90196 net.cpp:235] Top shape: 64 96 27 27 (4478976)
I1226 07:40:47.197486 90196 net.cpp:243] Memory required for data: 280518144
I1226 07:40:47.197545 90196 layer_factory.hpp:114] Creating layer conv2
I1226 07:40:47.197623 90196 net.cpp:178] Creating Layer conv2
I1226 07:40:47.197677 90196 net.cpp:612] conv2 <- pool1
I1226 07:40:47.197727 90196 net.cpp:586] conv2 -> conv2
I1226 07:40:47.227766 89665 net.cpp:228] Setting up conv1
I1226 07:40:47.227922 89665 net.cpp:235] Top shape: 64 96 55 55 (18585600)
I1226 07:40:47.227960 89665 net.cpp:243] Memory required for data: 113917440
I1226 07:40:47.228106 89665 layer_factory.hpp:114] Creating layer relu1
I1226 07:40:47.228327 89665 net.cpp:178] Creating Layer relu1
I1226 07:40:47.228514 89665 net.cpp:612] relu1 <- conv1
I1226 07:40:47.228569 89665 net.cpp:573] relu1 -> conv1 (in-place)
I1226 07:40:47.228695 89665 net.cpp:228] Setting up relu1
I1226 07:40:47.228783 89665 net.cpp:235] Top shape: 64 96 55 55 (18585600)
I1226 07:40:47.228840 89665 net.cpp:243] Memory required for data: 188259840
I1226 07:40:47.228883 89665 layer_factory.hpp:114] Creating layer norm1
I1226 07:40:47.228957 89665 net.cpp:178] Creating Layer norm1
I1226 07:40:47.228992 89665 net.cpp:612] norm1 <- conv1
I1226 07:40:47.229050 89665 net.cpp:586] norm1 -> norm1
I1226 07:40:47.229163 89665 net.cpp:228] Setting up norm1
I1226 07:40:47.229224 89665 net.cpp:235] Top shape: 64 96 55 55 (18585600)
I1226 07:40:47.229255 89665 net.cpp:243] Memory required for data: 262602240
I1226 07:40:47.229295 89665 layer_factory.hpp:114] Creating layer pool1
I1226 07:40:47.229370 89665 net.cpp:178] Creating Layer pool1
I1226 07:40:47.229410 89665 net.cpp:612] pool1 <- norm1
I1226 07:40:47.229454 89665 net.cpp:586] pool1 -> pool1
I1226 07:40:47.229571 89665 net.cpp:228] Setting up pool1
I1226 07:40:47.229624 89665 net.cpp:235] Top shape: 64 96 27 27 (4478976)
I1226 07:40:47.229655 89665 net.cpp:243] Memory required for data: 280518144
I1226 07:40:47.229691 89665 layer_factory.hpp:114] Creating layer conv2
I1226 07:40:47.229800 89665 net.cpp:178] Creating Layer conv2
I1226 07:40:47.229877 89665 net.cpp:612] conv2 <- pool1
I1226 07:40:47.229930 89665 net.cpp:586] conv2 -> conv2
I1226 07:40:47.227030 92408 net.cpp:228] Setting up conv1
I1226 07:40:47.227161 92408 net.cpp:235] Top shape: 64 96 55 55 (18585600)
I1226 07:40:47.227210 92408 net.cpp:243] Memory required for data: 113917440
I1226 07:40:47.227366 92408 layer_factory.hpp:114] Creating layer relu1
I1226 07:40:47.227481 92408 net.cpp:178] Creating Layer relu1
I1226 07:40:47.227533 92408 net.cpp:612] relu1 <- conv1
I1226 07:40:47.227586 92408 net.cpp:573] relu1 -> conv1 (in-place)
I1226 07:40:47.227735 92408 net.cpp:228] Setting up relu1
I1226 07:40:47.227807 92408 net.cpp:235] Top shape: 64 96 55 55 (18585600)
I1226 07:40:47.227872 92408 net.cpp:243] Memory required for data: 188259840
I1226 07:40:47.227915 92408 layer_factory.hpp:114] Creating layer norm1
I1226 07:40:47.227996 92408 net.cpp:178] Creating Layer norm1
I1226 07:40:47.228050 92408 net.cpp:612] norm1 <- conv1
I1226 07:40:47.228097 92408 net.cpp:586] norm1 -> norm1
I1226 07:40:47.228195 92408 net.cpp:228] Setting up norm1
I1226 07:40:47.228252 92408 net.cpp:235] Top shape: 64 96 55 55 (18585600)
I1226 07:40:47.228287 92408 net.cpp:243] Memory required for data: 262602240
I1226 07:40:47.228320 92408 layer_factory.hpp:114] Creating layer pool1
I1226 07:40:47.228405 92408 net.cpp:178] Creating Layer pool1
I1226 07:40:47.228451 92408 net.cpp:612] pool1 <- norm1
I1226 07:40:47.228504 92408 net.cpp:586] pool1 -> pool1
I1226 07:40:47.228624 92408 net.cpp:228] Setting up pool1
I1226 07:40:47.228677 92408 net.cpp:235] Top shape: 64 96 27 27 (4478976)
I1226 07:40:47.228701 92408 net.cpp:243] Memory required for data: 280518144
I1226 07:40:47.228731 92408 layer_factory.hpp:114] Creating layer conv2
I1226 07:40:47.228817 92408 net.cpp:178] Creating Layer conv2
I1226 07:40:47.228890 92408 net.cpp:612] conv2 <- pool1
I1226 07:40:47.228951 92408 net.cpp:586] conv2 -> conv2
I1226 07:40:47.516080 89771 net.cpp:228] Setting up conv2
I1226 07:40:47.516190 89771 net.cpp:235] Top shape: 64 256 27 27 (11943936)
I1226 07:40:47.516217 89771 net.cpp:243] Memory required for data: 328293888
I1226 07:40:47.516291 89771 layer_factory.hpp:114] Creating layer relu2
I1226 07:40:47.516376 89771 net.cpp:178] Creating Layer relu2
I1226 07:40:47.516410 89771 net.cpp:612] relu2 <- conv2
I1226 07:40:47.516453 89771 net.cpp:573] relu2 -> conv2 (in-place)
I1226 07:40:47.516590 89771 net.cpp:228] Setting up relu2
I1226 07:40:47.516660 89771 net.cpp:235] Top shape: 64 256 27 27 (11943936)
I1226 07:40:47.516690 89771 net.cpp:243] Memory required for data: 376069632
I1226 07:40:47.516724 89771 layer_factory.hpp:114] Creating layer norm2
I1226 07:40:47.516798 89771 net.cpp:178] Creating Layer norm2
I1226 07:40:47.516829 89771 net.cpp:612] norm2 <- conv2
I1226 07:40:47.516871 89771 net.cpp:586] norm2 -> norm2
I1226 07:40:47.516965 89771 net.cpp:228] Setting up norm2
I1226 07:40:47.517024 89771 net.cpp:235] Top shape: 64 256 27 27 (11943936)
I1226 07:40:47.517047 89771 net.cpp:243] Memory required for data: 423845376
I1226 07:40:47.517077 89771 layer_factory.hpp:114] Creating layer pool2
I1226 07:40:47.517135 89771 net.cpp:178] Creating Layer pool2
I1226 07:40:47.517163 89771 net.cpp:612] pool2 <- norm2
I1226 07:40:47.517201 89771 net.cpp:586] pool2 -> pool2
I1226 07:40:47.517300 89771 net.cpp:228] Setting up pool2
I1226 07:40:47.517343 89771 net.cpp:235] Top shape: 64 256 13 13 (2768896)
I1226 07:40:47.517460 89771 net.cpp:243] Memory required for data: 434920960
I1226 07:40:47.517524 89771 layer_factory.hpp:114] Creating layer conv3
I1226 07:40:47.517613 89771 net.cpp:178] Creating Layer conv3
I1226 07:40:47.517652 89771 net.cpp:612] conv3 <- pool2
I1226 07:40:47.517716 89771 net.cpp:586] conv3 -> conv3
I1226 07:40:47.517503 86513 net.cpp:228] Setting up conv2
I1226 07:40:47.517655 86513 net.cpp:235] Top shape: 64 256 27 27 (11943936)
I1226 07:40:47.517710 86513 net.cpp:243] Memory required for data: 328293888
I1226 07:40:47.518604 86513 layer_factory.hpp:114] Creating layer relu2
I1226 07:40:47.518750 86513 net.cpp:178] Creating Layer relu2
I1226 07:40:47.518846 86513 net.cpp:612] relu2 <- conv2
I1226 07:40:47.518901 86513 net.cpp:573] relu2 -> conv2 (in-place)
I1226 07:40:47.519052 86513 net.cpp:228] Setting up relu2
I1226 07:40:47.519299 86513 net.cpp:235] Top shape: 64 256 27 27 (11943936)
I1226 07:40:47.519399 86513 net.cpp:243] Memory required for data: 376069632
I1226 07:40:47.519443 86513 layer_factory.hpp:114] Creating layer norm2
I1226 07:40:47.519585 86513 net.cpp:178] Creating Layer norm2
I1226 07:40:47.519634 86513 net.cpp:612] norm2 <- conv2
I1226 07:40:47.519713 86513 net.cpp:586] norm2 -> norm2
I1226 07:40:47.519872 86513 net.cpp:228] Setting up norm2
I1226 07:40:47.519938 86513 net.cpp:235] Top shape: 64 256 27 27 (11943936)
I1226 07:40:47.519969 86513 net.cpp:243] Memory required for data: 423845376
I1226 07:40:47.520006 86513 layer_factory.hpp:114] Creating layer pool2
I1226 07:40:47.520500 86513 net.cpp:178] Creating Layer pool2
I1226 07:40:47.520608 86513 net.cpp:612] pool2 <- norm2
I1226 07:40:47.520668 86513 net.cpp:586] pool2 -> pool2
I1226 07:40:47.520843 86513 net.cpp:228] Setting up pool2
I1226 07:40:47.520910 86513 net.cpp:235] Top shape: 64 256 13 13 (2768896)
I1226 07:40:47.521076 86513 net.cpp:243] Memory required for data: 434920960
I1226 07:40:47.521136 86513 layer_factory.hpp:114] Creating layer conv3
I1226 07:40:47.521284 86513 net.cpp:178] Creating Layer conv3
I1226 07:40:47.521353 86513 net.cpp:612] conv3 <- pool2
I1226 07:40:47.521420 86513 net.cpp:586] conv3 -> conv3
I1226 07:40:47.528571 89800 net.cpp:228] Setting up conv2
I1226 07:40:47.528681 89800 net.cpp:235] Top shape: 64 256 27 27 (11943936)
I1226 07:40:47.528708 89800 net.cpp:243] Memory required for data: 328293888
I1226 07:40:47.528781 89800 layer_factory.hpp:114] Creating layer relu2
I1226 07:40:47.528867 89800 net.cpp:178] Creating Layer relu2
I1226 07:40:47.528908 89800 net.cpp:612] relu2 <- conv2
I1226 07:40:47.528952 89800 net.cpp:573] relu2 -> conv2 (in-place)
I1226 07:40:47.529044 89800 net.cpp:228] Setting up relu2
I1226 07:40:47.529090 89800 net.cpp:235] Top shape: 64 256 27 27 (11943936)
I1226 07:40:47.529119 89800 net.cpp:243] Memory required for data: 376069632
I1226 07:40:47.529147 89800 layer_factory.hpp:114] Creating layer norm2
I1226 07:40:47.529197 89800 net.cpp:178] Creating Layer norm2
I1226 07:40:47.529238 89800 net.cpp:612] norm2 <- conv2
I1226 07:40:47.529286 89800 net.cpp:586] norm2 -> norm2
I1226 07:40:47.529372 89800 net.cpp:228] Setting up norm2
I1226 07:40:47.529449 89800 net.cpp:235] Top shape: 64 256 27 27 (11943936)
I1226 07:40:47.529474 89800 net.cpp:243] Memory required for data: 423845376
I1226 07:40:47.529505 89800 layer_factory.hpp:114] Creating layer pool2
I1226 07:40:47.529559 89800 net.cpp:178] Creating Layer pool2
I1226 07:40:47.529599 89800 net.cpp:612] pool2 <- norm2
I1226 07:40:47.529638 89800 net.cpp:586] pool2 -> pool2
I1226 07:40:47.529717 89800 net.cpp:228] Setting up pool2
I1226 07:40:47.529759 89800 net.cpp:235] Top shape: 64 256 13 13 (2768896)
I1226 07:40:47.529881 89800 net.cpp:243] Memory required for data: 434920960
I1226 07:40:47.529917 89800 layer_factory.hpp:114] Creating layer conv3
I1226 07:40:47.530009 89800 net.cpp:178] Creating Layer conv3
I1226 07:40:47.530047 89800 net.cpp:612] conv3 <- pool2
I1226 07:40:47.530086 89800 net.cpp:586] conv3 -> conv3
I1226 07:40:47.573679 89665 net.cpp:228] Setting up conv2
I1226 07:40:47.573796 89665 net.cpp:235] Top shape: 64 256 27 27 (11943936)
I1226 07:40:47.573851 89665 net.cpp:243] Memory required for data: 328293888
I1226 07:40:47.573951 89665 layer_factory.hpp:114] Creating layer relu2
I1226 07:40:47.574029 89665 net.cpp:178] Creating Layer relu2
I1226 07:40:47.574067 89665 net.cpp:612] relu2 <- conv2
I1226 07:40:47.574146 89665 net.cpp:573] relu2 -> conv2 (in-place)
I1226 07:40:47.574251 89665 net.cpp:228] Setting up relu2
I1226 07:40:47.574311 89665 net.cpp:235] Top shape: 64 256 27 27 (11943936)
I1226 07:40:47.574350 89665 net.cpp:243] Memory required for data: 376069632
I1226 07:40:47.574385 89665 layer_factory.hpp:114] Creating layer norm2
I1226 07:40:47.574442 89665 net.cpp:178] Creating Layer norm2
I1226 07:40:47.574475 89665 net.cpp:612] norm2 <- conv2
I1226 07:40:47.574543 89665 net.cpp:586] norm2 -> norm2
I1226 07:40:47.574641 89665 net.cpp:228] Setting up norm2
I1226 07:40:47.574698 89665 net.cpp:235] Top shape: 64 256 27 27 (11943936)
I1226 07:40:47.574728 89665 net.cpp:243] Memory required for data: 423845376
I1226 07:40:47.574762 89665 layer_factory.hpp:114] Creating layer pool2
I1226 07:40:47.574865 89665 net.cpp:178] Creating Layer pool2
I1226 07:40:47.574901 89665 net.cpp:612] pool2 <- norm2
I1226 07:40:47.574942 89665 net.cpp:586] pool2 -> pool2
I1226 07:40:47.575049 89665 net.cpp:228] Setting up pool2
I1226 07:40:47.575100 89665 net.cpp:235] Top shape: 64 256 13 13 (2768896)
I1226 07:40:47.575237 89665 net.cpp:243] Memory required for data: 434920960
I1226 07:40:47.575281 89665 layer_factory.hpp:114] Creating layer conv3
I1226 07:40:47.575387 89665 net.cpp:178] Creating Layer conv3
I1226 07:40:47.575428 89665 net.cpp:612] conv3 <- pool2
I1226 07:40:47.575485 89665 net.cpp:586] conv3 -> conv3
I1226 07:40:47.575896 90196 net.cpp:228] Setting up conv2
I1226 07:40:47.576007 90196 net.cpp:235] Top shape: 64 256 27 27 (11943936)
I1226 07:40:47.576033 90196 net.cpp:243] Memory required for data: 328293888
I1226 07:40:47.576133 90196 layer_factory.hpp:114] Creating layer relu2
I1226 07:40:47.576198 90196 net.cpp:178] Creating Layer relu2
I1226 07:40:47.576234 90196 net.cpp:612] relu2 <- conv2
I1226 07:40:47.576289 90196 net.cpp:573] relu2 -> conv2 (in-place)
I1226 07:40:47.576385 90196 net.cpp:228] Setting up relu2
I1226 07:40:47.576426 90196 net.cpp:235] Top shape: 64 256 27 27 (11943936)
I1226 07:40:47.576474 90196 net.cpp:243] Memory required for data: 376069632
I1226 07:40:47.576508 90196 layer_factory.hpp:114] Creating layer norm2
I1226 07:40:47.576560 90196 net.cpp:178] Creating Layer norm2
I1226 07:40:47.576596 90196 net.cpp:612] norm2 <- conv2
I1226 07:40:47.576633 90196 net.cpp:586] norm2 -> norm2
I1226 07:40:47.576733 90196 net.cpp:228] Setting up norm2
I1226 07:40:47.576781 90196 net.cpp:235] Top shape: 64 256 27 27 (11943936)
I1226 07:40:47.576803 90196 net.cpp:243] Memory required for data: 423845376
I1226 07:40:47.576831 90196 layer_factory.hpp:114] Creating layer pool2
I1226 07:40:47.576884 90196 net.cpp:178] Creating Layer pool2
I1226 07:40:47.576925 90196 net.cpp:612] pool2 <- norm2
I1226 07:40:47.576966 90196 net.cpp:586] pool2 -> pool2
I1226 07:40:47.577040 90196 net.cpp:228] Setting up pool2
I1226 07:40:47.577080 90196 net.cpp:235] Top shape: 64 256 13 13 (2768896)
I1226 07:40:47.577206 90196 net.cpp:243] Memory required for data: 434920960
I1226 07:40:47.577241 90196 layer_factory.hpp:114] Creating layer conv3
I1226 07:40:47.577324 90196 net.cpp:178] Creating Layer conv3
I1226 07:40:47.577360 90196 net.cpp:612] conv3 <- pool2
I1226 07:40:47.577404 90196 net.cpp:586] conv3 -> conv3
I1226 07:40:47.596541 88308 net.cpp:228] Setting up conv2
I1226 07:40:47.596684 88308 net.cpp:235] Top shape: 64 256 27 27 (11943936)
I1226 07:40:47.596717 88308 net.cpp:243] Memory required for data: 328293888
I1226 07:40:47.596796 88308 layer_factory.hpp:114] Creating layer relu2
I1226 07:40:47.596894 88308 net.cpp:178] Creating Layer relu2
I1226 07:40:47.597106 88308 net.cpp:612] relu2 <- conv2
I1226 07:40:47.597165 88308 net.cpp:573] relu2 -> conv2 (in-place)
I1226 07:40:47.597328 88308 net.cpp:228] Setting up relu2
I1226 07:40:47.597383 88308 net.cpp:235] Top shape: 64 256 27 27 (11943936)
I1226 07:40:47.597406 88308 net.cpp:243] Memory required for data: 376069632
I1226 07:40:47.597831 88308 layer_factory.hpp:114] Creating layer norm2
I1226 07:40:47.597913 88308 net.cpp:178] Creating Layer norm2
I1226 07:40:47.598019 88308 net.cpp:612] norm2 <- conv2
I1226 07:40:47.598089 88308 net.cpp:586] norm2 -> norm2
I1226 07:40:47.598234 88308 net.cpp:228] Setting up norm2
I1226 07:40:47.598301 88308 net.cpp:235] Top shape: 64 256 27 27 (11943936)
I1226 07:40:47.598327 88308 net.cpp:243] Memory required for data: 423845376
I1226 07:40:47.598357 88308 layer_factory.hpp:114] Creating layer pool2
I1226 07:40:47.598417 88308 net.cpp:178] Creating Layer pool2
I1226 07:40:47.598446 88308 net.cpp:612] pool2 <- norm2
I1226 07:40:47.598482 88308 net.cpp:586] pool2 -> pool2
I1226 07:40:47.598637 88308 net.cpp:228] Setting up pool2
I1226 07:40:47.598692 88308 net.cpp:235] Top shape: 64 256 13 13 (2768896)
I1226 07:40:47.599057 88308 net.cpp:243] Memory required for data: 434920960
I1226 07:40:47.599098 88308 layer_factory.hpp:114] Creating layer conv3
I1226 07:40:47.599212 88308 net.cpp:178] Creating Layer conv3
I1226 07:40:47.599261 88308 net.cpp:612] conv3 <- pool2
I1226 07:40:47.599311 88308 net.cpp:586] conv3 -> conv3
I1226 07:40:44.346052 89666 net.cpp:228] Setting up conv2
I1226 07:40:44.346355 89666 net.cpp:235] Top shape: 64 256 27 27 (11943936)
I1226 07:40:44.346400 89666 net.cpp:243] Memory required for data: 328293888
I1226 07:40:44.347152 89666 layer_factory.hpp:114] Creating layer relu2
I1226 07:40:44.347302 89666 net.cpp:178] Creating Layer relu2
I1226 07:40:44.347353 89666 net.cpp:612] relu2 <- conv2
I1226 07:40:44.347425 89666 net.cpp:573] relu2 -> conv2 (in-place)
I1226 07:40:44.347558 89666 net.cpp:228] Setting up relu2
I1226 07:40:44.347647 89666 net.cpp:235] Top shape: 64 256 27 27 (11943936)
I1226 07:40:44.347676 89666 net.cpp:243] Memory required for data: 376069632
I1226 07:40:44.347721 89666 layer_factory.hpp:114] Creating layer norm2
I1226 07:40:44.347803 89666 net.cpp:178] Creating Layer norm2
I1226 07:40:44.347851 89666 net.cpp:612] norm2 <- conv2
I1226 07:40:44.348016 89666 net.cpp:586] norm2 -> norm2
I1226 07:40:44.348196 89666 net.cpp:228] Setting up norm2
I1226 07:40:44.348254 89666 net.cpp:235] Top shape: 64 256 27 27 (11943936)
I1226 07:40:44.348278 89666 net.cpp:243] Memory required for data: 423845376
I1226 07:40:44.348309 89666 layer_factory.hpp:114] Creating layer pool2
I1226 07:40:44.348716 89666 net.cpp:178] Creating Layer pool2
I1226 07:40:44.348790 89666 net.cpp:612] pool2 <- norm2
I1226 07:40:44.348853 89666 net.cpp:586] pool2 -> pool2
I1226 07:40:44.349027 89666 net.cpp:228] Setting up pool2
I1226 07:40:44.349123 89666 net.cpp:235] Top shape: 64 256 13 13 (2768896)
I1226 07:40:44.349261 89666 net.cpp:243] Memory required for data: 434920960
I1226 07:40:44.349299 89666 layer_factory.hpp:114] Creating layer conv3
I1226 07:40:44.349411 89666 net.cpp:178] Creating Layer conv3
I1226 07:40:44.349453 89666 net.cpp:612] conv3 <- pool2
I1226 07:40:44.349503 89666 net.cpp:586] conv3 -> conv3
I1226 07:40:47.763855 93793 net.cpp:228] Setting up conv1
I1226 07:40:47.763973 93793 net.cpp:235] Top shape: 64 96 55 55 (18585600)
I1226 07:40:47.764004 93793 net.cpp:243] Memory required for data: 113917440
I1226 07:40:47.764119 93793 layer_factory.hpp:114] Creating layer relu1
I1226 07:40:47.764300 93793 net.cpp:178] Creating Layer relu1
I1226 07:40:47.764348 93793 net.cpp:612] relu1 <- conv1
I1226 07:40:47.764392 93793 net.cpp:573] relu1 -> conv1 (in-place)
I1226 07:40:47.764511 93793 net.cpp:228] Setting up relu1
I1226 07:40:47.764560 93793 net.cpp:235] Top shape: 64 96 55 55 (18585600)
I1226 07:40:47.764585 93793 net.cpp:243] Memory required for data: 188259840
I1226 07:40:47.764616 93793 layer_factory.hpp:114] Creating layer norm1
I1226 07:40:47.764695 93793 net.cpp:178] Creating Layer norm1
I1226 07:40:47.764730 93793 net.cpp:612] norm1 <- conv1
I1226 07:40:47.764785 93793 net.cpp:586] norm1 -> norm1
I1226 07:40:47.769490 93793 net.cpp:228] Setting up norm1
I1226 07:40:47.769572 93793 net.cpp:235] Top shape: 64 96 55 55 (18585600)
I1226 07:40:47.769599 93793 net.cpp:243] Memory required for data: 262602240
I1226 07:40:47.769636 93793 layer_factory.hpp:114] Creating layer pool1
I1226 07:40:47.769721 93793 net.cpp:178] Creating Layer pool1
I1226 07:40:47.769829 93793 net.cpp:612] pool1 <- norm1
I1226 07:40:47.769888 93793 net.cpp:586] pool1 -> pool1
I1226 07:40:47.770036 93793 net.cpp:228] Setting up pool1
I1226 07:40:47.770115 93793 net.cpp:235] Top shape: 64 96 27 27 (4478976)
I1226 07:40:47.770143 93793 net.cpp:243] Memory required for data: 280518144
I1226 07:40:47.770175 93793 layer_factory.hpp:114] Creating layer conv2
I1226 07:40:47.770311 93793 net.cpp:178] Creating Layer conv2
I1226 07:40:47.770352 93793 net.cpp:612] conv2 <- pool1
I1226 07:40:47.770421 93793 net.cpp:586] conv2 -> conv2
I1226 07:40:47.889976 89771 net.cpp:228] Setting up conv3
I1226 07:40:47.890084 89771 net.cpp:235] Top shape: 64 384 13 13 (4153344)
I1226 07:40:47.890110 89771 net.cpp:243] Memory required for data: 451534336
I1226 07:40:47.890184 89771 layer_factory.hpp:114] Creating layer relu3
I1226 07:40:47.890269 89771 net.cpp:178] Creating Layer relu3
I1226 07:40:47.890306 89771 net.cpp:612] relu3 <- conv3
I1226 07:40:47.890348 89771 net.cpp:573] relu3 -> conv3 (in-place)
I1226 07:40:47.890465 89771 net.cpp:228] Setting up relu3
I1226 07:40:47.890559 89771 net.cpp:235] Top shape: 64 384 13 13 (4153344)
I1226 07:40:47.890589 89771 net.cpp:243] Memory required for data: 468147712
I1226 07:40:47.890624 89771 layer_factory.hpp:114] Creating layer conv4
I1226 07:40:47.890724 89771 net.cpp:178] Creating Layer conv4
I1226 07:40:47.890759 89771 net.cpp:612] conv4 <- conv3
I1226 07:40:47.890815 89771 net.cpp:586] conv4 -> conv4
I1226 07:40:47.900825 89800 net.cpp:228] Setting up conv3
I1226 07:40:47.900935 89800 net.cpp:235] Top shape: 64 384 13 13 (4153344)
I1226 07:40:47.900987 89800 net.cpp:243] Memory required for data: 451534336
I1226 07:40:47.901082 89800 layer_factory.hpp:114] Creating layer relu3
I1226 07:40:47.901223 89800 net.cpp:178] Creating Layer relu3
I1226 07:40:47.901319 89800 net.cpp:612] relu3 <- conv3
I1226 07:40:47.901428 89800 net.cpp:573] relu3 -> conv3 (in-place)
I1226 07:40:47.901875 89800 net.cpp:228] Setting up relu3
I1226 07:40:47.901967 89800 net.cpp:235] Top shape: 64 384 13 13 (4153344)
I1226 07:40:47.901996 89800 net.cpp:243] Memory required for data: 468147712
I1226 07:40:47.902125 89800 layer_factory.hpp:114] Creating layer conv4
I1226 07:40:47.902233 89800 net.cpp:178] Creating Layer conv4
I1226 07:40:47.902287 89800 net.cpp:612] conv4 <- conv3
I1226 07:40:47.902354 89800 net.cpp:586] conv4 -> conv4
I1226 07:40:47.929378 86513 net.cpp:228] Setting up conv3
I1226 07:40:47.929494 86513 net.cpp:235] Top shape: 64 384 13 13 (4153344)
I1226 07:40:47.929530 86513 net.cpp:243] Memory required for data: 451534336
I1226 07:40:47.929628 86513 layer_factory.hpp:114] Creating layer relu3
I1226 07:40:47.929719 86513 net.cpp:178] Creating Layer relu3
I1226 07:40:47.929764 86513 net.cpp:612] relu3 <- conv3
I1226 07:40:47.929814 86513 net.cpp:573] relu3 -> conv3 (in-place)
I1226 07:40:47.929930 86513 net.cpp:228] Setting up relu3
I1226 07:40:47.929981 86513 net.cpp:235] Top shape: 64 384 13 13 (4153344)
I1226 07:40:47.930011 86513 net.cpp:243] Memory required for data: 468147712
I1226 07:40:47.930047 86513 layer_factory.hpp:114] Creating layer conv4
I1226 07:40:47.930156 86513 net.cpp:178] Creating Layer conv4
I1226 07:40:47.930207 86513 net.cpp:612] conv4 <- conv3
I1226 07:40:47.930270 86513 net.cpp:586] conv4 -> conv4
I1226 07:40:47.948001 90196 net.cpp:228] Setting up conv3
I1226 07:40:47.948114 90196 net.cpp:235] Top shape: 64 384 13 13 (4153344)
I1226 07:40:47.948142 90196 net.cpp:243] Memory required for data: 451534336
I1226 07:40:47.948231 90196 layer_factory.hpp:114] Creating layer relu3
I1226 07:40:47.948298 90196 net.cpp:178] Creating Layer relu3
I1226 07:40:47.948329 90196 net.cpp:612] relu3 <- conv3
I1226 07:40:47.948390 90196 net.cpp:573] relu3 -> conv3 (in-place)
I1226 07:40:47.948506 90196 net.cpp:228] Setting up relu3
I1226 07:40:47.948557 90196 net.cpp:235] Top shape: 64 384 13 13 (4153344)
I1226 07:40:47.948581 90196 net.cpp:243] Memory required for data: 468147712
I1226 07:40:47.948609 90196 layer_factory.hpp:114] Creating layer conv4
I1226 07:40:47.948690 90196 net.cpp:178] Creating Layer conv4
I1226 07:40:47.948725 90196 net.cpp:612] conv4 <- conv3
I1226 07:40:47.948765 90196 net.cpp:586] conv4 -> conv4
I1226 07:40:47.992593 89665 net.cpp:228] Setting up conv3
I1226 07:40:47.992722 89665 net.cpp:235] Top shape: 64 384 13 13 (4153344)
I1226 07:40:47.993363 89665 net.cpp:243] Memory required for data: 451534336
I1226 07:40:47.993655 89665 layer_factory.hpp:114] Creating layer relu3
I1226 07:40:47.993787 89665 net.cpp:178] Creating Layer relu3
I1226 07:40:47.993852 89665 net.cpp:612] relu3 <- conv3
I1226 07:40:47.993908 89665 net.cpp:573] relu3 -> conv3 (in-place)
I1226 07:40:47.994000 89665 net.cpp:228] Setting up relu3
I1226 07:40:47.994050 89665 net.cpp:235] Top shape: 64 384 13 13 (4153344)
I1226 07:40:47.994073 89665 net.cpp:243] Memory required for data: 468147712
I1226 07:40:47.994103 89665 layer_factory.hpp:114] Creating layer conv4
I1226 07:40:47.994199 89665 net.cpp:178] Creating Layer conv4
I1226 07:40:47.994266 89665 net.cpp:612] conv4 <- conv3
I1226 07:40:47.994328 89665 net.cpp:586] conv4 -> conv4
I1226 07:40:48.001472 88308 net.cpp:228] Setting up conv3
I1226 07:40:48.001652 88308 net.cpp:235] Top shape: 64 384 13 13 (4153344)
I1226 07:40:48.001839 88308 net.cpp:243] Memory required for data: 451534336
I1226 07:40:48.001950 88308 layer_factory.hpp:114] Creating layer relu3
I1226 07:40:48.002046 88308 net.cpp:178] Creating Layer relu3
I1226 07:40:48.002089 88308 net.cpp:612] relu3 <- conv3
I1226 07:40:48.002148 88308 net.cpp:573] relu3 -> conv3 (in-place)
I1226 07:40:48.002380 88308 net.cpp:228] Setting up relu3
I1226 07:40:48.002486 88308 net.cpp:235] Top shape: 64 384 13 13 (4153344)
I1226 07:40:48.002671 88308 net.cpp:243] Memory required for data: 468147712
I1226 07:40:48.002713 88308 layer_factory.hpp:114] Creating layer conv4
I1226 07:40:48.003367 88308 net.cpp:178] Creating Layer conv4
I1226 07:40:48.003448 88308 net.cpp:612] conv4 <- conv3
I1226 07:40:48.003532 88308 net.cpp:586] conv4 -> conv4
I1226 07:40:48.029510 92408 net.cpp:228] Setting up conv2
I1226 07:40:48.029634 92408 net.cpp:235] Top shape: 64 256 27 27 (11943936)
I1226 07:40:48.029673 92408 net.cpp:243] Memory required for data: 328293888
I1226 07:40:48.029758 92408 layer_factory.hpp:114] Creating layer relu2
I1226 07:40:48.029898 92408 net.cpp:178] Creating Layer relu2
I1226 07:40:48.029973 92408 net.cpp:612] relu2 <- conv2
I1226 07:40:48.030045 92408 net.cpp:573] relu2 -> conv2 (in-place)
I1226 07:40:48.030153 92408 net.cpp:228] Setting up relu2
I1226 07:40:48.030217 92408 net.cpp:235] Top shape: 64 256 27 27 (11943936)
I1226 07:40:48.030246 92408 net.cpp:243] Memory required for data: 376069632
I1226 07:40:48.030280 92408 layer_factory.hpp:114] Creating layer norm2
I1226 07:40:48.030362 92408 net.cpp:178] Creating Layer norm2
I1226 07:40:48.030405 92408 net.cpp:612] norm2 <- conv2
I1226 07:40:48.030448 92408 net.cpp:586] norm2 -> norm2
I1226 07:40:48.030570 92408 net.cpp:228] Setting up norm2
I1226 07:40:48.030630 92408 net.cpp:235] Top shape: 64 256 27 27 (11943936)
I1226 07:40:48.030663 92408 net.cpp:243] Memory required for data: 423845376
I1226 07:40:48.030694 92408 layer_factory.hpp:114] Creating layer pool2
I1226 07:40:48.030760 92408 net.cpp:178] Creating Layer pool2
I1226 07:40:48.030802 92408 net.cpp:612] pool2 <- norm2
I1226 07:40:48.030866 92408 net.cpp:586] pool2 -> pool2
I1226 07:40:48.030972 92408 net.cpp:228] Setting up pool2
I1226 07:40:48.031029 92408 net.cpp:235] Top shape: 64 256 13 13 (2768896)
I1226 07:40:48.031158 92408 net.cpp:243] Memory required for data: 434920960
I1226 07:40:48.031199 92408 layer_factory.hpp:114] Creating layer conv3
I1226 07:40:48.031306 92408 net.cpp:178] Creating Layer conv3
I1226 07:40:48.031345 92408 net.cpp:612] conv3 <- pool2
I1226 07:40:48.031412 92408 net.cpp:586] conv3 -> conv3
I1226 07:40:44.833992 89666 net.cpp:228] Setting up conv3
I1226 07:40:44.834130 89666 net.cpp:235] Top shape: 64 384 13 13 (4153344)
I1226 07:40:44.834161 89666 net.cpp:243] Memory required for data: 451534336
I1226 07:40:44.834291 89666 layer_factory.hpp:114] Creating layer relu3
I1226 07:40:44.834372 89666 net.cpp:178] Creating Layer relu3
I1226 07:40:44.834409 89666 net.cpp:612] relu3 <- conv3
I1226 07:40:44.834489 89666 net.cpp:573] relu3 -> conv3 (in-place)
I1226 07:40:44.834745 89666 net.cpp:228] Setting up relu3
I1226 07:40:44.834801 89666 net.cpp:235] Top shape: 64 384 13 13 (4153344)
I1226 07:40:44.834827 89666 net.cpp:243] Memory required for data: 468147712
I1226 07:40:44.834856 89666 layer_factory.hpp:114] Creating layer conv4
I1226 07:40:44.834975 89666 net.cpp:178] Creating Layer conv4
I1226 07:40:44.835012 89666 net.cpp:612] conv4 <- conv3
I1226 07:40:44.835062 89666 net.cpp:586] conv4 -> conv4
I1226 07:40:48.220655 89771 net.cpp:228] Setting up conv4
I1226 07:40:48.220762 89771 net.cpp:235] Top shape: 64 384 13 13 (4153344)
I1226 07:40:48.220791 89771 net.cpp:243] Memory required for data: 484761088
I1226 07:40:48.220854 89771 layer_factory.hpp:114] Creating layer relu4
I1226 07:40:48.220921 89771 net.cpp:178] Creating Layer relu4
I1226 07:40:48.220955 89771 net.cpp:612] relu4 <- conv4
I1226 07:40:48.221628 89771 net.cpp:573] relu4 -> conv4 (in-place)
I1226 07:40:48.221771 89771 net.cpp:228] Setting up relu4
I1226 07:40:48.221842 89771 net.cpp:235] Top shape: 64 384 13 13 (4153344)
I1226 07:40:48.221871 89771 net.cpp:243] Memory required for data: 501374464
I1226 07:40:48.221907 89771 layer_factory.hpp:114] Creating layer conv5
I1226 07:40:48.222000 89771 net.cpp:178] Creating Layer conv5
I1226 07:40:48.222034 89771 net.cpp:612] conv5 <- conv4
I1226 07:40:48.222092 89771 net.cpp:586] conv5 -> conv5
I1226 07:40:48.257977 89800 net.cpp:228] Setting up conv4
I1226 07:40:48.258111 89800 net.cpp:235] Top shape: 64 384 13 13 (4153344)
I1226 07:40:48.258141 89800 net.cpp:243] Memory required for data: 484761088
I1226 07:40:48.258200 89800 layer_factory.hpp:114] Creating layer relu4
I1226 07:40:48.258268 89800 net.cpp:178] Creating Layer relu4
I1226 07:40:48.258301 89800 net.cpp:612] relu4 <- conv4
I1226 07:40:48.258352 89800 net.cpp:573] relu4 -> conv4 (in-place)
I1226 07:40:48.258479 89800 net.cpp:228] Setting up relu4
I1226 07:40:48.258528 89800 net.cpp:235] Top shape: 64 384 13 13 (4153344)
I1226 07:40:48.258554 89800 net.cpp:243] Memory required for data: 501374464
I1226 07:40:48.258584 89800 layer_factory.hpp:114] Creating layer conv5
I1226 07:40:48.258671 89800 net.cpp:178] Creating Layer conv5
I1226 07:40:48.258739 89800 net.cpp:612] conv5 <- conv4
I1226 07:40:48.258780 89800 net.cpp:586] conv5 -> conv5
I1226 07:40:48.257457 86513 net.cpp:228] Setting up conv4
I1226 07:40:48.257738 86513 net.cpp:235] Top shape: 64 384 13 13 (4153344)
I1226 07:40:48.257786 86513 net.cpp:243] Memory required for data: 484761088
I1226 07:40:48.257885 86513 layer_factory.hpp:114] Creating layer relu4
I1226 07:40:48.258473 86513 net.cpp:178] Creating Layer relu4
I1226 07:40:48.258589 86513 net.cpp:612] relu4 <- conv4
I1226 07:40:48.258683 86513 net.cpp:573] relu4 -> conv4 (in-place)
I1226 07:40:48.258996 86513 net.cpp:228] Setting up relu4
I1226 07:40:48.259091 86513 net.cpp:235] Top shape: 64 384 13 13 (4153344)
I1226 07:40:48.259151 86513 net.cpp:243] Memory required for data: 501374464
I1226 07:40:48.259383 86513 layer_factory.hpp:114] Creating layer conv5
I1226 07:40:48.259521 86513 net.cpp:178] Creating Layer conv5
I1226 07:40:48.259570 86513 net.cpp:612] conv5 <- conv4
I1226 07:40:48.259660 86513 net.cpp:586] conv5 -> conv5
I1226 07:40:48.277351 90196 net.cpp:228] Setting up conv4
I1226 07:40:48.277523 90196 net.cpp:235] Top shape: 64 384 13 13 (4153344)
I1226 07:40:48.277577 90196 net.cpp:243] Memory required for data: 484761088
I1226 07:40:48.277642 90196 layer_factory.hpp:114] Creating layer relu4
I1226 07:40:48.277745 90196 net.cpp:178] Creating Layer relu4
I1226 07:40:48.277781 90196 net.cpp:612] relu4 <- conv4
I1226 07:40:48.277827 90196 net.cpp:573] relu4 -> conv4 (in-place)
I1226 07:40:48.278255 90196 net.cpp:228] Setting up relu4
I1226 07:40:48.278376 90196 net.cpp:235] Top shape: 64 384 13 13 (4153344)
I1226 07:40:48.278479 90196 net.cpp:243] Memory required for data: 501374464
I1226 07:40:48.278532 90196 layer_factory.hpp:114] Creating layer conv5
I1226 07:40:48.278657 90196 net.cpp:178] Creating Layer conv5
I1226 07:40:48.278702 90196 net.cpp:612] conv5 <- conv4
I1226 07:40:48.278748 90196 net.cpp:586] conv5 -> conv5
I1226 07:40:48.346879 89665 net.cpp:228] Setting up conv4
I1226 07:40:48.347000 89665 net.cpp:235] Top shape: 64 384 13 13 (4153344)
I1226 07:40:48.347031 89665 net.cpp:243] Memory required for data: 484761088
I1226 07:40:48.347090 89665 layer_factory.hpp:114] Creating layer relu4
I1226 07:40:48.347153 89665 net.cpp:178] Creating Layer relu4
I1226 07:40:48.347183 89665 net.cpp:612] relu4 <- conv4
I1226 07:40:48.347231 89665 net.cpp:573] relu4 -> conv4 (in-place)
I1226 07:40:48.347324 89665 net.cpp:228] Setting up relu4
I1226 07:40:48.347368 89665 net.cpp:235] Top shape: 64 384 13 13 (4153344)
I1226 07:40:48.347391 89665 net.cpp:243] Memory required for data: 501374464
I1226 07:40:48.347419 89665 layer_factory.hpp:114] Creating layer conv5
I1226 07:40:48.347494 89665 net.cpp:178] Creating Layer conv5
I1226 07:40:48.347535 89665 net.cpp:612] conv5 <- conv4
I1226 07:40:48.347574 89665 net.cpp:586] conv5 -> conv5
I1226 07:40:48.359325 88308 net.cpp:228] Setting up conv4
I1226 07:40:48.359484 88308 net.cpp:235] Top shape: 64 384 13 13 (4153344)
I1226 07:40:48.359535 88308 net.cpp:243] Memory required for data: 484761088
I1226 07:40:48.359652 88308 layer_factory.hpp:114] Creating layer relu4
I1226 07:40:48.359794 88308 net.cpp:178] Creating Layer relu4
I1226 07:40:48.359828 88308 net.cpp:612] relu4 <- conv4
I1226 07:40:48.359879 88308 net.cpp:573] relu4 -> conv4 (in-place)
I1226 07:40:48.359977 88308 net.cpp:228] Setting up relu4
I1226 07:40:48.360045 88308 net.cpp:235] Top shape: 64 384 13 13 (4153344)
I1226 07:40:48.360071 88308 net.cpp:243] Memory required for data: 501374464
I1226 07:40:48.360100 88308 layer_factory.hpp:114] Creating layer conv5
I1226 07:40:48.360352 88308 net.cpp:178] Creating Layer conv5
I1226 07:40:48.360394 88308 net.cpp:612] conv5 <- conv4
I1226 07:40:48.360478 88308 net.cpp:586] conv5 -> conv5
I1226 07:40:48.444412 89771 net.cpp:228] Setting up conv5
I1226 07:40:48.444892 89771 net.cpp:235] Top shape: 64 256 13 13 (2768896)
I1226 07:40:48.445006 89771 net.cpp:243] Memory required for data: 512450048
I1226 07:40:48.445125 89771 layer_factory.hpp:114] Creating layer relu5
I1226 07:40:48.445227 89771 net.cpp:178] Creating Layer relu5
I1226 07:40:48.445288 89771 net.cpp:612] relu5 <- conv5
I1226 07:40:48.445365 89771 net.cpp:573] relu5 -> conv5 (in-place)
I1226 07:40:48.445510 89771 net.cpp:228] Setting up relu5
I1226 07:40:48.445585 89771 net.cpp:235] Top shape: 64 256 13 13 (2768896)
I1226 07:40:48.445618 89771 net.cpp:243] Memory required for data: 523525632
I1226 07:40:48.445669 89771 layer_factory.hpp:114] Creating layer pool5
I1226 07:40:48.445744 89771 net.cpp:178] Creating Layer pool5
I1226 07:40:48.445773 89771 net.cpp:612] pool5 <- conv5
I1226 07:40:48.445838 89771 net.cpp:586] pool5 -> pool5
I1226 07:40:48.446517 89771 net.cpp:228] Setting up pool5
I1226 07:40:48.446714 89771 net.cpp:235] Top shape: 64 256 6 6 (589824)
I1226 07:40:48.446760 89771 net.cpp:243] Memory required for data: 525884928
I1226 07:40:48.446799 89771 layer_factory.hpp:114] Creating layer fc6
I1226 07:40:48.446876 89771 net.cpp:178] Creating Layer fc6
I1226 07:40:48.446910 89771 net.cpp:612] fc6 <- pool5
I1226 07:40:48.447013 89771 net.cpp:586] fc6 -> fc6
I1226 07:40:48.512205 86513 net.cpp:228] Setting up conv5
I1226 07:40:48.512372 86513 net.cpp:235] Top shape: 64 256 13 13 (2768896)
I1226 07:40:48.512413 86513 net.cpp:243] Memory required for data: 512450048
I1226 07:40:48.512509 86513 layer_factory.hpp:114] Creating layer relu5
I1226 07:40:48.512604 86513 net.cpp:178] Creating Layer relu5
I1226 07:40:48.512681 86513 net.cpp:612] relu5 <- conv5
I1226 07:40:48.512764 86513 net.cpp:573] relu5 -> conv5 (in-place)
I1226 07:40:48.513010 86513 net.cpp:228] Setting up relu5
I1226 07:40:48.513178 86513 net.cpp:235] Top shape: 64 256 13 13 (2768896)
I1226 07:40:48.513211 86513 net.cpp:243] Memory required for data: 523525632
I1226 07:40:45.247546 89666 net.cpp:228] Setting up conv4
I1226 07:40:45.247700 89666 net.cpp:235] Top shape: 64 384 13 13 (4153344)
I1226 07:40:45.247730 89666 net.cpp:243] Memory required for data: 484761088
I1226 07:40:48.513958 86513 layer_factory.hpp:114] Creating layer pool5
I1226 07:40:45.247791 89666 layer_factory.hpp:114] Creating layer relu4
I1226 07:40:45.247879 89666 net.cpp:178] Creating Layer relu4
I1226 07:40:45.247920 89666 net.cpp:612] relu4 <- conv4
I1226 07:40:48.514147 86513 net.cpp:178] Creating Layer pool5
I1226 07:40:45.247969 89666 net.cpp:573] relu4 -> conv4 (in-place)
I1226 07:40:48.514323 86513 net.cpp:612] pool5 <- conv5
I1226 07:40:45.248065 89666 net.cpp:228] Setting up relu4
I1226 07:40:48.514410 86513 net.cpp:586] pool5 -> pool5
I1226 07:40:45.248108 89666 net.cpp:235] Top shape: 64 384 13 13 (4153344)
I1226 07:40:45.248132 89666 net.cpp:243] Memory required for data: 501374464
I1226 07:40:48.514624 86513 net.cpp:228] Setting up pool5
I1226 07:40:45.248162 89666 layer_factory.hpp:114] Creating layer conv5
I1226 07:40:48.514789 86513 net.cpp:235] Top shape: 64 256 6 6 (589824)
I1226 07:40:45.248229 89666 net.cpp:178] Creating Layer conv5
I1226 07:40:48.514824 86513 net.cpp:243] Memory required for data: 525884928
I1226 07:40:48.514909 86513 layer_factory.hpp:114] Creating layer fc6
I1226 07:40:45.248261 89666 net.cpp:612] conv5 <- conv4
I1226 07:40:45.249006 89666 net.cpp:586] conv5 -> conv5
I1226 07:40:48.515019 86513 net.cpp:178] Creating Layer fc6
I1226 07:40:48.515481 86513 net.cpp:612] fc6 <- pool5
I1226 07:40:48.515573 86513 net.cpp:586] fc6 -> fc6
I1226 07:40:48.533840 89800 net.cpp:228] Setting up conv5
I1226 07:40:48.533956 89800 net.cpp:235] Top shape: 64 256 13 13 (2768896)
I1226 07:40:48.533984 89800 net.cpp:243] Memory required for data: 512450048
I1226 07:40:48.534061 89800 layer_factory.hpp:114] Creating layer relu5
I1226 07:40:48.534152 89800 net.cpp:178] Creating Layer relu5
I1226 07:40:48.534240 89800 net.cpp:612] relu5 <- conv5
I1226 07:40:48.534368 89800 net.cpp:573] relu5 -> conv5 (in-place)
I1226 07:40:48.534497 89800 net.cpp:228] Setting up relu5
I1226 07:40:48.534606 89800 net.cpp:235] Top shape: 64 256 13 13 (2768896)
I1226 07:40:48.534632 89800 net.cpp:243] Memory required for data: 523525632
I1226 07:40:48.534663 89800 layer_factory.hpp:114] Creating layer pool5
I1226 07:40:48.534806 89800 net.cpp:178] Creating Layer pool5
I1226 07:40:48.534907 89800 net.cpp:612] pool5 <- conv5
I1226 07:40:48.534960 89800 net.cpp:586] pool5 -> pool5
I1226 07:40:48.535051 89800 net.cpp:228] Setting up pool5
I1226 07:40:48.535095 89800 net.cpp:235] Top shape: 64 256 6 6 (589824)
I1226 07:40:48.535130 89800 net.cpp:243] Memory required for data: 525884928
I1226 07:40:48.535166 89800 layer_factory.hpp:114] Creating layer fc6
I1226 07:40:48.535230 89800 net.cpp:178] Creating Layer fc6
I1226 07:40:48.535264 89800 net.cpp:612] fc6 <- pool5
I1226 07:40:48.535313 89800 net.cpp:586] fc6 -> fc6
I1226 07:40:48.534034 90196 net.cpp:228] Setting up conv5
I1226 07:40:48.534152 90196 net.cpp:235] Top shape: 64 256 13 13 (2768896)
I1226 07:40:48.534181 90196 net.cpp:243] Memory required for data: 512450048
I1226 07:40:48.534257 90196 layer_factory.hpp:114] Creating layer relu5
I1226 07:40:48.534378 90196 net.cpp:178] Creating Layer relu5
I1226 07:40:48.534438 90196 net.cpp:612] relu5 <- conv5
I1226 07:40:48.534520 90196 net.cpp:573] relu5 -> conv5 (in-place)
I1226 07:40:48.534656 90196 net.cpp:228] Setting up relu5
I1226 07:40:48.534754 90196 net.cpp:235] Top shape: 64 256 13 13 (2768896)
I1226 07:40:48.534780 90196 net.cpp:243] Memory required for data: 523525632
I1226 07:40:48.534809 90196 layer_factory.hpp:114] Creating layer pool5
I1226 07:40:48.534864 90196 net.cpp:178] Creating Layer pool5
I1226 07:40:48.534903 90196 net.cpp:612] pool5 <- conv5
I1226 07:40:48.534963 90196 net.cpp:586] pool5 -> pool5
I1226 07:40:48.535076 90196 net.cpp:228] Setting up pool5
I1226 07:40:48.535190 90196 net.cpp:235] Top shape: 64 256 6 6 (589824)
I1226 07:40:48.535223 90196 net.cpp:243] Memory required for data: 525884928
I1226 07:40:48.535251 90196 layer_factory.hpp:114] Creating layer fc6
I1226 07:40:48.535322 90196 net.cpp:178] Creating Layer fc6
I1226 07:40:48.535368 90196 net.cpp:612] fc6 <- pool5
I1226 07:40:48.535408 90196 net.cpp:586] fc6 -> fc6
I1226 07:40:48.611259 88308 net.cpp:228] Setting up conv5
I1226 07:40:48.611373 88308 net.cpp:235] Top shape: 64 256 13 13 (2768896)
I1226 07:40:48.611402 88308 net.cpp:243] Memory required for data: 512450048
I1226 07:40:48.611476 88308 layer_factory.hpp:114] Creating layer relu5
I1226 07:40:48.611601 88308 net.cpp:178] Creating Layer relu5
I1226 07:40:48.611794 88308 net.cpp:612] relu5 <- conv5
I1226 07:40:48.611850 88308 net.cpp:573] relu5 -> conv5 (in-place)
I1226 07:40:48.611969 88308 net.cpp:228] Setting up relu5
I1226 07:40:48.612032 88308 net.cpp:235] Top shape: 64 256 13 13 (2768896)
I1226 07:40:48.612057 88308 net.cpp:243] Memory required for data: 523525632
I1226 07:40:48.612092 88308 layer_factory.hpp:114] Creating layer pool5
I1226 07:40:48.612150 88308 net.cpp:178] Creating Layer pool5
I1226 07:40:48.612193 88308 net.cpp:612] pool5 <- conv5
I1226 07:40:48.612257 88308 net.cpp:586] pool5 -> pool5
I1226 07:40:48.612359 88308 net.cpp:228] Setting up pool5
I1226 07:40:48.612408 88308 net.cpp:235] Top shape: 64 256 6 6 (589824)
I1226 07:40:48.612437 88308 net.cpp:243] Memory required for data: 525884928
I1226 07:40:48.612468 88308 layer_factory.hpp:114] Creating layer fc6
I1226 07:40:48.612542 88308 net.cpp:178] Creating Layer fc6
I1226 07:40:48.612601 88308 net.cpp:612] fc6 <- pool5
I1226 07:40:48.612673 88308 net.cpp:586] fc6 -> fc6
I1226 07:40:48.624017 89665 net.cpp:228] Setting up conv5
I1226 07:40:48.624125 89665 net.cpp:235] Top shape: 64 256 13 13 (2768896)
I1226 07:40:48.624153 89665 net.cpp:243] Memory required for data: 512450048
I1226 07:40:48.624258 89665 layer_factory.hpp:114] Creating layer relu5
I1226 07:40:48.624341 89665 net.cpp:178] Creating Layer relu5
I1226 07:40:48.624382 89665 net.cpp:612] relu5 <- conv5
I1226 07:40:48.624423 89665 net.cpp:573] relu5 -> conv5 (in-place)
I1226 07:40:48.624517 89665 net.cpp:228] Setting up relu5
I1226 07:40:48.624560 89665 net.cpp:235] Top shape: 64 256 13 13 (2768896)
I1226 07:40:48.624583 89665 net.cpp:243] Memory required for data: 523525632
I1226 07:40:48.624611 89665 layer_factory.hpp:114] Creating layer pool5
I1226 07:40:48.624660 89665 net.cpp:178] Creating Layer pool5
I1226 07:40:48.624693 89665 net.cpp:612] pool5 <- conv5
I1226 07:40:48.624729 89665 net.cpp:586] pool5 -> pool5
I1226 07:40:48.624864 89665 net.cpp:228] Setting up pool5
I1226 07:40:48.624917 89665 net.cpp:235] Top shape: 64 256 6 6 (589824)
I1226 07:40:48.624939 89665 net.cpp:243] Memory required for data: 525884928
I1226 07:40:48.624968 89665 layer_factory.hpp:114] Creating layer fc6
I1226 07:40:48.625038 89665 net.cpp:178] Creating Layer fc6
I1226 07:40:48.625071 89665 net.cpp:612] fc6 <- pool5
I1226 07:40:48.625118 89665 net.cpp:586] fc6 -> fc6
I1226 07:40:45.551832 89666 net.cpp:228] Setting up conv5
I1226 07:40:45.551944 89666 net.cpp:235] Top shape: 64 256 13 13 (2768896)
I1226 07:40:45.551970 89666 net.cpp:243] Memory required for data: 512450048
I1226 07:40:45.552074 89666 layer_factory.hpp:114] Creating layer relu5
I1226 07:40:45.552150 89666 net.cpp:178] Creating Layer relu5
I1226 07:40:45.552319 89666 net.cpp:612] relu5 <- conv5
I1226 07:40:45.552379 89666 net.cpp:573] relu5 -> conv5 (in-place)
I1226 07:40:45.552496 89666 net.cpp:228] Setting up relu5
I1226 07:40:45.552546 89666 net.cpp:235] Top shape: 64 256 13 13 (2768896)
I1226 07:40:45.552570 89666 net.cpp:243] Memory required for data: 523525632
I1226 07:40:45.552628 89666 layer_factory.hpp:114] Creating layer pool5
I1226 07:40:45.552681 89666 net.cpp:178] Creating Layer pool5
I1226 07:40:45.552722 89666 net.cpp:612] pool5 <- conv5
I1226 07:40:45.552767 89666 net.cpp:586] pool5 -> pool5
I1226 07:40:45.552868 89666 net.cpp:228] Setting up pool5
I1226 07:40:45.552918 89666 net.cpp:235] Top shape: 64 256 6 6 (589824)
I1226 07:40:45.552944 89666 net.cpp:243] Memory required for data: 525884928
I1226 07:40:45.552973 89666 layer_factory.hpp:114] Creating layer fc6
I1226 07:40:45.553052 89666 net.cpp:178] Creating Layer fc6
I1226 07:40:45.553081 89666 net.cpp:612] fc6 <- pool5
I1226 07:40:45.553128 89666 net.cpp:586] fc6 -> fc6
I1226 07:40:49.065333 92408 net.cpp:228] Setting up conv3
I1226 07:40:49.065455 92408 net.cpp:235] Top shape: 64 384 13 13 (4153344)
I1226 07:40:49.065491 92408 net.cpp:243] Memory required for data: 451534336
I1226 07:40:49.065573 92408 layer_factory.hpp:114] Creating layer relu3
I1226 07:40:49.065681 92408 net.cpp:178] Creating Layer relu3
I1226 07:40:49.065739 92408 net.cpp:612] relu3 <- conv3
I1226 07:40:49.065796 92408 net.cpp:573] relu3 -> conv3 (in-place)
I1226 07:40:49.065935 92408 net.cpp:228] Setting up relu3
I1226 07:40:49.066007 92408 net.cpp:235] Top shape: 64 384 13 13 (4153344)
I1226 07:40:49.066052 92408 net.cpp:243] Memory required for data: 468147712
I1226 07:40:49.066088 92408 layer_factory.hpp:114] Creating layer conv4
I1226 07:40:49.066200 92408 net.cpp:178] Creating Layer conv4
I1226 07:40:49.066248 92408 net.cpp:612] conv4 <- conv3
I1226 07:40:49.066299 92408 net.cpp:586] conv4 -> conv4
I1226 07:40:49.239517 93793 net.cpp:228] Setting up conv2
I1226 07:40:49.239635 93793 net.cpp:235] Top shape: 64 256 27 27 (11943936)
I1226 07:40:49.239667 93793 net.cpp:243] Memory required for data: 328293888
I1226 07:40:49.239742 93793 layer_factory.hpp:114] Creating layer relu2
I1226 07:40:49.239917 93793 net.cpp:178] Creating Layer relu2
I1226 07:40:49.239959 93793 net.cpp:612] relu2 <- conv2
I1226 07:40:49.240020 93793 net.cpp:573] relu2 -> conv2 (in-place)
I1226 07:40:49.240120 93793 net.cpp:228] Setting up relu2
I1226 07:40:49.240165 93793 net.cpp:235] Top shape: 64 256 27 27 (11943936)
I1226 07:40:49.240190 93793 net.cpp:243] Memory required for data: 376069632
I1226 07:40:49.240219 93793 layer_factory.hpp:114] Creating layer norm2
I1226 07:40:49.240278 93793 net.cpp:178] Creating Layer norm2
I1226 07:40:49.240311 93793 net.cpp:612] norm2 <- conv2
I1226 07:40:49.240360 93793 net.cpp:586] norm2 -> norm2
I1226 07:40:49.240466 93793 net.cpp:228] Setting up norm2
I1226 07:40:49.240514 93793 net.cpp:235] Top shape: 64 256 27 27 (11943936)
I1226 07:40:49.240538 93793 net.cpp:243] Memory required for data: 423845376
I1226 07:40:49.240566 93793 layer_factory.hpp:114] Creating layer pool2
I1226 07:40:49.240627 93793 net.cpp:178] Creating Layer pool2
I1226 07:40:49.240663 93793 net.cpp:612] pool2 <- norm2
I1226 07:40:49.240717 93793 net.cpp:586] pool2 -> pool2
I1226 07:40:49.240826 93793 net.cpp:228] Setting up pool2
I1226 07:40:49.240876 93793 net.cpp:235] Top shape: 64 256 13 13 (2768896)
I1226 07:40:49.241000 93793 net.cpp:243] Memory required for data: 434920960
I1226 07:40:49.241039 93793 layer_factory.hpp:114] Creating layer conv3
I1226 07:40:49.241124 93793 net.cpp:178] Creating Layer conv3
I1226 07:40:49.241160 93793 net.cpp:612] conv3 <- pool2
I1226 07:40:49.241224 93793 net.cpp:586] conv3 -> conv3
I1226 07:40:49.943486 92408 net.cpp:228] Setting up conv4
I1226 07:40:49.943610 92408 net.cpp:235] Top shape: 64 384 13 13 (4153344)
I1226 07:40:49.943650 92408 net.cpp:243] Memory required for data: 484761088
I1226 07:40:49.943720 92408 layer_factory.hpp:114] Creating layer relu4
I1226 07:40:49.943861 92408 net.cpp:178] Creating Layer relu4
I1226 07:40:49.943927 92408 net.cpp:612] relu4 <- conv4
I1226 07:40:49.943980 92408 net.cpp:573] relu4 -> conv4 (in-place)
I1226 07:40:49.944090 92408 net.cpp:228] Setting up relu4
I1226 07:40:49.944154 92408 net.cpp:235] Top shape: 64 384 13 13 (4153344)
I1226 07:40:49.944182 92408 net.cpp:243] Memory required for data: 501374464
I1226 07:40:49.944217 92408 layer_factory.hpp:114] Creating layer conv5
I1226 07:40:49.944324 92408 net.cpp:178] Creating Layer conv5
I1226 07:40:49.944381 92408 net.cpp:612] conv5 <- conv4
I1226 07:40:49.944433 92408 net.cpp:586] conv5 -> conv5
I1226 07:40:50.424149 93793 net.cpp:228] Setting up conv3
I1226 07:40:50.424269 93793 net.cpp:235] Top shape: 64 384 13 13 (4153344)
I1226 07:40:50.424299 93793 net.cpp:243] Memory required for data: 451534336
I1226 07:40:50.424379 93793 layer_factory.hpp:114] Creating layer relu3
I1226 07:40:50.424556 93793 net.cpp:178] Creating Layer relu3
I1226 07:40:50.424607 93793 net.cpp:612] relu3 <- conv3
I1226 07:40:50.424654 93793 net.cpp:573] relu3 -> conv3 (in-place)
I1226 07:40:50.424768 93793 net.cpp:228] Setting up relu3
I1226 07:40:50.424846 93793 net.cpp:235] Top shape: 64 384 13 13 (4153344)
I1226 07:40:50.424873 93793 net.cpp:243] Memory required for data: 468147712
I1226 07:40:50.424903 93793 layer_factory.hpp:114] Creating layer conv4
I1226 07:40:50.425007 93793 net.cpp:178] Creating Layer conv4
I1226 07:40:50.425048 93793 net.cpp:612] conv4 <- conv3
I1226 07:40:50.425102 93793 net.cpp:586] conv4 -> conv4
I1226 07:40:50.573132 92408 net.cpp:228] Setting up conv5
I1226 07:40:50.573251 92408 net.cpp:235] Top shape: 64 256 13 13 (2768896)
I1226 07:40:50.573290 92408 net.cpp:243] Memory required for data: 512450048
I1226 07:40:50.573376 92408 layer_factory.hpp:114] Creating layer relu5
I1226 07:40:50.573483 92408 net.cpp:178] Creating Layer relu5
I1226 07:40:50.573539 92408 net.cpp:612] relu5 <- conv5
I1226 07:40:50.573602 92408 net.cpp:573] relu5 -> conv5 (in-place)
I1226 07:40:50.573704 92408 net.cpp:228] Setting up relu5
I1226 07:40:50.573762 92408 net.cpp:235] Top shape: 64 256 13 13 (2768896)
I1226 07:40:50.573791 92408 net.cpp:243] Memory required for data: 523525632
I1226 07:40:50.573856 92408 layer_factory.hpp:114] Creating layer pool5
I1226 07:40:50.573925 92408 net.cpp:178] Creating Layer pool5
I1226 07:40:50.573978 92408 net.cpp:612] pool5 <- conv5
I1226 07:40:50.574034 92408 net.cpp:586] pool5 -> pool5
I1226 07:40:50.574139 92408 net.cpp:228] Setting up pool5
I1226 07:40:50.574200 92408 net.cpp:235] Top shape: 64 256 6 6 (589824)
I1226 07:40:50.574226 92408 net.cpp:243] Memory required for data: 525884928
I1226 07:40:50.574259 92408 layer_factory.hpp:114] Creating layer fc6
I1226 07:40:50.574345 92408 net.cpp:178] Creating Layer fc6
I1226 07:40:50.574386 92408 net.cpp:612] fc6 <- pool5
I1226 07:40:50.574434 92408 net.cpp:586] fc6 -> fc6
I1226 07:40:51.301380 93793 net.cpp:228] Setting up conv4
I1226 07:40:51.301520 93793 net.cpp:235] Top shape: 64 384 13 13 (4153344)
I1226 07:40:51.301559 93793 net.cpp:243] Memory required for data: 484761088
I1226 07:40:51.301625 93793 layer_factory.hpp:114] Creating layer relu4
I1226 07:40:51.301698 93793 net.cpp:178] Creating Layer relu4
I1226 07:40:51.301745 93793 net.cpp:612] relu4 <- conv4
I1226 07:40:51.301841 93793 net.cpp:573] relu4 -> conv4 (in-place)
I1226 07:40:51.301955 93793 net.cpp:228] Setting up relu4
I1226 07:40:51.302017 93793 net.cpp:235] Top shape: 64 384 13 13 (4153344)
I1226 07:40:51.302045 93793 net.cpp:243] Memory required for data: 501374464
I1226 07:40:51.302076 93793 layer_factory.hpp:114] Creating layer conv5
I1226 07:40:51.302183 93793 net.cpp:178] Creating Layer conv5
I1226 07:40:51.302224 93793 net.cpp:612] conv5 <- conv4
I1226 07:40:51.302284 93793 net.cpp:586] conv5 -> conv5
I1226 07:40:51.929278 93793 net.cpp:228] Setting up conv5
I1226 07:40:51.929395 93793 net.cpp:235] Top shape: 64 256 13 13 (2768896)
I1226 07:40:51.929426 93793 net.cpp:243] Memory required for data: 512450048
I1226 07:40:51.929507 93793 layer_factory.hpp:114] Creating layer relu5
I1226 07:40:51.929605 93793 net.cpp:178] Creating Layer relu5
I1226 07:40:51.929653 93793 net.cpp:612] relu5 <- conv5
I1226 07:40:51.929697 93793 net.cpp:573] relu5 -> conv5 (in-place)
I1226 07:40:51.929841 93793 net.cpp:228] Setting up relu5
I1226 07:40:51.929900 93793 net.cpp:235] Top shape: 64 256 13 13 (2768896)
I1226 07:40:51.929927 93793 net.cpp:243] Memory required for data: 523525632
I1226 07:40:51.929958 93793 layer_factory.hpp:114] Creating layer pool5
I1226 07:40:51.930038 93793 net.cpp:178] Creating Layer pool5
I1226 07:40:51.930076 93793 net.cpp:612] pool5 <- conv5
I1226 07:40:51.930119 93793 net.cpp:586] pool5 -> pool5
I1226 07:40:51.930225 93793 net.cpp:228] Setting up pool5
I1226 07:40:51.930279 93793 net.cpp:235] Top shape: 64 256 6 6 (589824)
I1226 07:40:51.930302 93793 net.cpp:243] Memory required for data: 525884928
I1226 07:40:51.930332 93793 layer_factory.hpp:114] Creating layer fc6
I1226 07:40:51.930399 93793 net.cpp:178] Creating Layer fc6
I1226 07:40:51.930433 93793 net.cpp:612] fc6 <- pool5
I1226 07:40:51.930485 93793 net.cpp:586] fc6 -> fc6
I1226 07:40:54.043457 89800 net.cpp:228] Setting up fc6
I1226 07:40:54.043572 89800 net.cpp:235] Top shape: 64 4096 (262144)
I1226 07:40:54.043604 89800 net.cpp:243] Memory required for data: 526933504
I1226 07:40:54.043663 89800 layer_factory.hpp:114] Creating layer relu6
I1226 07:40:54.043766 89800 net.cpp:178] Creating Layer relu6
I1226 07:40:54.043879 89800 net.cpp:612] relu6 <- fc6
I1226 07:40:54.043922 89800 net.cpp:573] relu6 -> fc6 (in-place)
I1226 07:40:54.044008 89800 net.cpp:228] Setting up relu6
I1226 07:40:54.044160 89800 net.cpp:235] Top shape: 64 4096 (262144)
I1226 07:40:54.044193 89800 net.cpp:243] Memory required for data: 527982080
I1226 07:40:54.044225 89800 layer_factory.hpp:114] Creating layer drop6
I1226 07:40:54.044287 89800 net.cpp:178] Creating Layer drop6
I1226 07:40:54.044319 89800 net.cpp:612] drop6 <- fc6
I1226 07:40:54.044358 89800 net.cpp:573] drop6 -> fc6 (in-place)
I1226 07:40:54.044443 89800 net.cpp:228] Setting up drop6
I1226 07:40:54.044486 89800 net.cpp:235] Top shape: 64 4096 (262144)
I1226 07:40:54.044519 89800 net.cpp:243] Memory required for data: 529030656
I1226 07:40:54.044558 89800 layer_factory.hpp:114] Creating layer fc7
I1226 07:40:54.044646 89800 net.cpp:178] Creating Layer fc7
I1226 07:40:54.044683 89800 net.cpp:612] fc7 <- fc6
I1226 07:40:54.044729 89800 net.cpp:586] fc7 -> fc7
I1226 07:40:54.125360 86513 net.cpp:228] Setting up fc6
I1226 07:40:54.125509 86513 net.cpp:235] Top shape: 64 4096 (262144)
I1226 07:40:54.125558 86513 net.cpp:243] Memory required for data: 526933504
I1226 07:40:54.125638 86513 layer_factory.hpp:114] Creating layer relu6
I1226 07:40:54.125905 86513 net.cpp:178] Creating Layer relu6
I1226 07:40:54.126070 86513 net.cpp:612] relu6 <- fc6
I1226 07:40:54.126118 86513 net.cpp:573] relu6 -> fc6 (in-place)
I1226 07:40:54.126219 86513 net.cpp:228] Setting up relu6
I1226 07:40:54.126588 86513 net.cpp:235] Top shape: 64 4096 (262144)
I1226 07:40:54.126638 86513 net.cpp:243] Memory required for data: 527982080
I1226 07:40:54.126727 86513 layer_factory.hpp:114] Creating layer drop6
I1226 07:40:54.126806 86513 net.cpp:178] Creating Layer drop6
I1226 07:40:54.126968 86513 net.cpp:612] drop6 <- fc6
I1226 07:40:54.127059 86513 net.cpp:573] drop6 -> fc6 (in-place)
I1226 07:40:54.127167 86513 net.cpp:228] Setting up drop6
I1226 07:40:54.127226 86513 net.cpp:235] Top shape: 64 4096 (262144)
I1226 07:40:54.127271 86513 net.cpp:243] Memory required for data: 529030656
I1226 07:40:54.127367 86513 layer_factory.hpp:114] Creating layer fc7
I1226 07:40:54.127459 86513 net.cpp:178] Creating Layer fc7
I1226 07:40:54.127497 86513 net.cpp:612] fc7 <- fc6
I1226 07:40:54.127554 86513 net.cpp:586] fc7 -> fc7
I1226 07:40:54.115916 90196 net.cpp:228] Setting up fc6
I1226 07:40:54.116030 90196 net.cpp:235] Top shape: 64 4096 (262144)
I1226 07:40:54.116060 90196 net.cpp:243] Memory required for data: 526933504
I1226 07:40:54.116117 90196 layer_factory.hpp:114] Creating layer relu6
I1226 07:40:54.116215 90196 net.cpp:178] Creating Layer relu6
I1226 07:40:54.116315 90196 net.cpp:612] relu6 <- fc6
I1226 07:40:54.116358 90196 net.cpp:573] relu6 -> fc6 (in-place)
I1226 07:40:54.116470 90196 net.cpp:228] Setting up relu6
I1226 07:40:54.116617 90196 net.cpp:235] Top shape: 64 4096 (262144)
I1226 07:40:54.116648 90196 net.cpp:243] Memory required for data: 527982080
I1226 07:40:54.116680 90196 layer_factory.hpp:114] Creating layer drop6
I1226 07:40:54.116737 90196 net.cpp:178] Creating Layer drop6
I1226 07:40:54.116771 90196 net.cpp:612] drop6 <- fc6
I1226 07:40:54.116807 90196 net.cpp:573] drop6 -> fc6 (in-place)
I1226 07:40:54.116866 90196 net.cpp:228] Setting up drop6
I1226 07:40:54.116904 90196 net.cpp:235] Top shape: 64 4096 (262144)
I1226 07:40:54.116928 90196 net.cpp:243] Memory required for data: 529030656
I1226 07:40:54.116956 90196 layer_factory.hpp:114] Creating layer fc7
I1226 07:40:54.117024 90196 net.cpp:178] Creating Layer fc7
I1226 07:40:54.117054 90196 net.cpp:612] fc7 <- fc6
I1226 07:40:54.117092 90196 net.cpp:586] fc7 -> fc7
I1226 07:40:54.148154 88308 net.cpp:228] Setting up fc6
I1226 07:40:54.148275 88308 net.cpp:235] Top shape: 64 4096 (262144)
I1226 07:40:54.148308 88308 net.cpp:243] Memory required for data: 526933504
I1226 07:40:54.148370 88308 layer_factory.hpp:114] Creating layer relu6
I1226 07:40:54.148475 88308 net.cpp:178] Creating Layer relu6
I1226 07:40:54.148586 88308 net.cpp:612] relu6 <- fc6
I1226 07:40:54.148633 88308 net.cpp:573] relu6 -> fc6 (in-place)
I1226 07:40:54.148735 88308 net.cpp:228] Setting up relu6
I1226 07:40:54.148887 88308 net.cpp:235] Top shape: 64 4096 (262144)
I1226 07:40:54.148922 88308 net.cpp:243] Memory required for data: 527982080
I1226 07:40:54.148957 88308 layer_factory.hpp:114] Creating layer drop6
I1226 07:40:54.149024 88308 net.cpp:178] Creating Layer drop6
I1226 07:40:54.149057 88308 net.cpp:612] drop6 <- fc6
I1226 07:40:54.149108 88308 net.cpp:573] drop6 -> fc6 (in-place)
I1226 07:40:54.149170 88308 net.cpp:228] Setting up drop6
I1226 07:40:54.149211 88308 net.cpp:235] Top shape: 64 4096 (262144)
I1226 07:40:54.149245 88308 net.cpp:243] Memory required for data: 529030656
I1226 07:40:54.149274 88308 layer_factory.hpp:114] Creating layer fc7
I1226 07:40:54.149351 88308 net.cpp:178] Creating Layer fc7
I1226 07:40:54.149394 88308 net.cpp:612] fc7 <- fc6
I1226 07:40:54.149438 88308 net.cpp:586] fc7 -> fc7
I1226 07:40:54.182152 89665 net.cpp:228] Setting up fc6
I1226 07:40:54.182265 89665 net.cpp:235] Top shape: 64 4096 (262144)
I1226 07:40:54.182292 89665 net.cpp:243] Memory required for data: 526933504
I1226 07:40:54.182346 89665 layer_factory.hpp:114] Creating layer relu6
I1226 07:40:54.182428 89665 net.cpp:178] Creating Layer relu6
I1226 07:40:54.182461 89665 net.cpp:612] relu6 <- fc6
I1226 07:40:54.182533 89665 net.cpp:573] relu6 -> fc6 (in-place)
I1226 07:40:54.182626 89665 net.cpp:228] Setting up relu6
I1226 07:40:54.182770 89665 net.cpp:235] Top shape: 64 4096 (262144)
I1226 07:40:54.182801 89665 net.cpp:243] Memory required for data: 527982080
I1226 07:40:54.182862 89665 layer_factory.hpp:114] Creating layer drop6
I1226 07:40:54.182919 89665 net.cpp:178] Creating Layer drop6
I1226 07:40:54.182957 89665 net.cpp:612] drop6 <- fc6
I1226 07:40:54.182993 89665 net.cpp:573] drop6 -> fc6 (in-place)
I1226 07:40:54.183050 89665 net.cpp:228] Setting up drop6
I1226 07:40:54.183096 89665 net.cpp:235] Top shape: 64 4096 (262144)
I1226 07:40:54.183128 89665 net.cpp:243] Memory required for data: 529030656
I1226 07:40:54.183156 89665 layer_factory.hpp:114] Creating layer fc7
I1226 07:40:54.183229 89665 net.cpp:178] Creating Layer fc7
I1226 07:40:54.183265 89665 net.cpp:612] fc7 <- fc6
I1226 07:40:54.183305 89665 net.cpp:586] fc7 -> fc7
I1226 07:40:54.225277 89771 net.cpp:228] Setting up fc6
I1226 07:40:54.225390 89771 net.cpp:235] Top shape: 64 4096 (262144)
I1226 07:40:54.225422 89771 net.cpp:243] Memory required for data: 526933504
I1226 07:40:54.225509 89771 layer_factory.hpp:114] Creating layer relu6
I1226 07:40:54.225621 89771 net.cpp:178] Creating Layer relu6
I1226 07:40:54.225661 89771 net.cpp:612] relu6 <- fc6
I1226 07:40:54.225697 89771 net.cpp:573] relu6 -> fc6 (in-place)
I1226 07:40:54.225796 89771 net.cpp:228] Setting up relu6
I1226 07:40:54.225965 89771 net.cpp:235] Top shape: 64 4096 (262144)
I1226 07:40:54.226002 89771 net.cpp:243] Memory required for data: 527982080
I1226 07:40:54.226040 89771 layer_factory.hpp:114] Creating layer drop6
I1226 07:40:54.226150 89771 net.cpp:178] Creating Layer drop6
I1226 07:40:54.226188 89771 net.cpp:612] drop6 <- fc6
I1226 07:40:54.226230 89771 net.cpp:573] drop6 -> fc6 (in-place)
I1226 07:40:54.226289 89771 net.cpp:228] Setting up drop6
I1226 07:40:54.226326 89771 net.cpp:235] Top shape: 64 4096 (262144)
I1226 07:40:54.226351 89771 net.cpp:243] Memory required for data: 529030656
I1226 07:40:54.226383 89771 layer_factory.hpp:114] Creating layer fc7
I1226 07:40:54.226446 89771 net.cpp:178] Creating Layer fc7
I1226 07:40:54.226541 89771 net.cpp:612] fc7 <- fc6
I1226 07:40:54.226593 89771 net.cpp:586] fc7 -> fc7
I1226 07:40:56.306493 89800 net.cpp:228] Setting up fc7
I1226 07:40:56.306599 89800 net.cpp:235] Top shape: 64 4096 (262144)
I1226 07:40:56.306632 89800 net.cpp:243] Memory required for data: 530079232
I1226 07:40:56.306690 89800 layer_factory.hpp:114] Creating layer relu7
I1226 07:40:56.306797 89800 net.cpp:178] Creating Layer relu7
I1226 07:40:56.306947 89800 net.cpp:612] relu7 <- fc7
I1226 07:40:56.307013 89800 net.cpp:573] relu7 -> fc7 (in-place)
I1226 07:40:56.307103 89800 net.cpp:228] Setting up relu7
I1226 07:40:56.307145 89800 net.cpp:235] Top shape: 64 4096 (262144)
I1226 07:40:56.307173 89800 net.cpp:243] Memory required for data: 531127808
I1226 07:40:56.307227 89800 layer_factory.hpp:114] Creating layer drop7
I1226 07:40:56.307265 89800 net.cpp:178] Creating Layer drop7
I1226 07:40:56.307303 89800 net.cpp:612] drop7 <- fc7
I1226 07:40:56.307341 89800 net.cpp:573] drop7 -> fc7 (in-place)
I1226 07:40:56.307417 89800 net.cpp:228] Setting up drop7
I1226 07:40:56.307483 89800 net.cpp:235] Top shape: 64 4096 (262144)
I1226 07:40:56.307512 89800 net.cpp:243] Memory required for data: 532176384
I1226 07:40:56.307564 89800 layer_factory.hpp:114] Creating layer fc8
I1226 07:40:56.307651 89800 net.cpp:178] Creating Layer fc8
I1226 07:40:56.307684 89800 net.cpp:612] fc8 <- fc7
I1226 07:40:56.307736 89800 net.cpp:586] fc8 -> fc8
I1226 07:40:56.396721 86513 net.cpp:228] Setting up fc7
I1226 07:40:56.396841 86513 net.cpp:235] Top shape: 64 4096 (262144)
I1226 07:40:56.396877 86513 net.cpp:243] Memory required for data: 530079232
I1226 07:40:56.380563 90196 net.cpp:228] Setting up fc7
I1226 07:40:56.396957 86513 layer_factory.hpp:114] Creating layer relu7
I1226 07:40:56.380671 90196 net.cpp:235] Top shape: 64 4096 (262144)
I1226 07:40:56.380700 90196 net.cpp:243] Memory required for data: 530079232
I1226 07:40:56.397068 86513 net.cpp:178] Creating Layer relu7
I1226 07:40:56.380758 90196 layer_factory.hpp:114] Creating layer relu7
I1226 07:40:56.397255 86513 net.cpp:612] relu7 <- fc7
I1226 07:40:56.397333 86513 net.cpp:573] relu7 -> fc7 (in-place)
I1226 07:40:56.380849 90196 net.cpp:178] Creating Layer relu7
I1226 07:40:56.397454 86513 net.cpp:228] Setting up relu7
I1226 07:40:56.380892 90196 net.cpp:612] relu7 <- fc7
I1226 07:40:56.397531 86513 net.cpp:235] Top shape: 64 4096 (262144)
I1226 07:40:56.397562 86513 net.cpp:243] Memory required for data: 531127808
I1226 07:40:56.397601 86513 layer_factory.hpp:114] Creating layer drop7
I1226 07:40:56.380937 90196 net.cpp:573] relu7 -> fc7 (in-place)
I1226 07:40:56.397652 86513 net.cpp:178] Creating Layer drop7
I1226 07:40:56.381021 90196 net.cpp:228] Setting up relu7
I1226 07:40:56.381060 90196 net.cpp:235] Top shape: 64 4096 (262144)
I1226 07:40:56.381084 90196 net.cpp:243] Memory required for data: 531127808
I1226 07:40:56.397698 86513 net.cpp:612] drop7 <- fc7
I1226 07:40:56.397747 86513 net.cpp:573] drop7 -> fc7 (in-place)
I1226 07:40:56.381114 90196 layer_factory.hpp:114] Creating layer drop7
I1226 07:40:56.397814 86513 net.cpp:228] Setting up drop7
I1226 07:40:56.381150 90196 net.cpp:178] Creating Layer drop7
I1226 07:40:56.397876 86513 net.cpp:235] Top shape: 64 4096 (262144)
I1226 07:40:56.397907 86513 net.cpp:243] Memory required for data: 532176384
I1226 07:40:56.381193 90196 net.cpp:612] drop7 <- fc7
I1226 07:40:56.397948 86513 layer_factory.hpp:114] Creating layer fc8
I1226 07:40:56.381233 90196 net.cpp:573] drop7 -> fc7 (in-place)
I1226 07:40:56.381276 90196 net.cpp:228] Setting up drop7
I1226 07:40:56.381310 90196 net.cpp:235] Top shape: 64 4096 (262144)
I1226 07:40:56.398041 86513 net.cpp:178] Creating Layer fc8
I1226 07:40:56.398077 86513 net.cpp:612] fc8 <- fc7
I1226 07:40:56.381333 90196 net.cpp:243] Memory required for data: 532176384
I1226 07:40:56.398131 86513 net.cpp:586] fc8 -> fc8
I1226 07:40:56.381361 90196 layer_factory.hpp:114] Creating layer fc8
I1226 07:40:56.381425 90196 net.cpp:178] Creating Layer fc8
I1226 07:40:56.381484 90196 net.cpp:612] fc8 <- fc7
I1226 07:40:56.381528 90196 net.cpp:586] fc8 -> fc8
I1226 07:40:56.421308 88308 net.cpp:228] Setting up fc7
I1226 07:40:56.421422 88308 net.cpp:235] Top shape: 64 4096 (262144)
I1226 07:40:56.421450 88308 net.cpp:243] Memory required for data: 530079232
I1226 07:40:56.421509 88308 layer_factory.hpp:114] Creating layer relu7
I1226 07:40:56.421612 88308 net.cpp:178] Creating Layer relu7
I1226 07:40:56.421658 88308 net.cpp:612] relu7 <- fc7
I1226 07:40:56.421717 88308 net.cpp:573] relu7 -> fc7 (in-place)
I1226 07:40:56.421917 88308 net.cpp:228] Setting up relu7
I1226 07:40:56.421967 88308 net.cpp:235] Top shape: 64 4096 (262144)
I1226 07:40:56.421991 88308 net.cpp:243] Memory required for data: 531127808
I1226 07:40:56.422020 88308 layer_factory.hpp:114] Creating layer drop7
I1226 07:40:56.422058 88308 net.cpp:178] Creating Layer drop7
I1226 07:40:56.422086 88308 net.cpp:612] drop7 <- fc7
I1226 07:40:56.422122 88308 net.cpp:573] drop7 -> fc7 (in-place)
I1226 07:40:56.422168 88308 net.cpp:228] Setting up drop7
I1226 07:40:56.422216 88308 net.cpp:235] Top shape: 64 4096 (262144)
I1226 07:40:56.422241 88308 net.cpp:243] Memory required for data: 532176384
I1226 07:40:56.422269 88308 layer_factory.hpp:114] Creating layer fc8
I1226 07:40:56.422344 88308 net.cpp:178] Creating Layer fc8
I1226 07:40:56.422374 88308 net.cpp:612] fc8 <- fc7
I1226 07:40:56.422415 88308 net.cpp:586] fc8 -> fc8
I1226 07:40:53.190340 89666 net.cpp:228] Setting up fc6
I1226 07:40:53.190460 89666 net.cpp:235] Top shape: 64 4096 (262144)
I1226 07:40:53.190492 89666 net.cpp:243] Memory required for data: 526933504
I1226 07:40:53.190556 89666 layer_factory.hpp:114] Creating layer relu6
I1226 07:40:53.190665 89666 net.cpp:178] Creating Layer relu6
I1226 07:40:53.190803 89666 net.cpp:612] relu6 <- fc6
I1226 07:40:53.190850 89666 net.cpp:573] relu6 -> fc6 (in-place)
I1226 07:40:53.190951 89666 net.cpp:228] Setting up relu6
I1226 07:40:53.191102 89666 net.cpp:235] Top shape: 64 4096 (262144)
I1226 07:40:53.191134 89666 net.cpp:243] Memory required for data: 527982080
I1226 07:40:53.191169 89666 layer_factory.hpp:114] Creating layer drop6
I1226 07:40:53.191233 89666 net.cpp:178] Creating Layer drop6
I1226 07:40:53.191267 89666 net.cpp:612] drop6 <- fc6
I1226 07:40:53.191308 89666 net.cpp:573] drop6 -> fc6 (in-place)
I1226 07:40:53.191375 89666 net.cpp:228] Setting up drop6
I1226 07:40:53.191412 89666 net.cpp:235] Top shape: 64 4096 (262144)
I1226 07:40:53.191438 89666 net.cpp:243] Memory required for data: 529030656
I1226 07:40:53.191469 89666 layer_factory.hpp:114] Creating layer fc7
I1226 07:40:53.191540 89666 net.cpp:178] Creating Layer fc7
I1226 07:40:53.191601 89666 net.cpp:612] fc7 <- fc6
I1226 07:40:53.191666 89666 net.cpp:586] fc7 -> fc7
I1226 07:40:56.471531 89665 net.cpp:228] Setting up fc7
I1226 07:40:56.471638 89665 net.cpp:235] Top shape: 64 4096 (262144)
I1226 07:40:56.471665 89665 net.cpp:243] Memory required for data: 530079232
I1226 07:40:56.471721 89665 layer_factory.hpp:114] Creating layer relu7
I1226 07:40:56.471794 89665 net.cpp:178] Creating Layer relu7
I1226 07:40:56.471855 89665 net.cpp:612] relu7 <- fc7
I1226 07:40:56.471917 89665 net.cpp:573] relu7 -> fc7 (in-place)
I1226 07:40:56.472008 89665 net.cpp:228] Setting up relu7
I1226 07:40:56.472049 89665 net.cpp:235] Top shape: 64 4096 (262144)
I1226 07:40:56.472074 89665 net.cpp:243] Memory required for data: 531127808
I1226 07:40:56.472206 89665 layer_factory.hpp:114] Creating layer drop7
I1226 07:40:56.472246 89665 net.cpp:178] Creating Layer drop7
I1226 07:40:56.472273 89665 net.cpp:612] drop7 <- fc7
I1226 07:40:56.472321 89665 net.cpp:573] drop7 -> fc7 (in-place)
I1226 07:40:56.472373 89665 net.cpp:228] Setting up drop7
I1226 07:40:56.472407 89665 net.cpp:235] Top shape: 64 4096 (262144)
I1226 07:40:56.472429 89665 net.cpp:243] Memory required for data: 532176384
I1226 07:40:56.472466 89665 layer_factory.hpp:114] Creating layer fc8
I1226 07:40:56.472537 89665 net.cpp:178] Creating Layer fc8
I1226 07:40:56.472576 89665 net.cpp:612] fc8 <- fc7
I1226 07:40:56.472616 89665 net.cpp:586] fc8 -> fc8
I1226 07:40:56.537340 89771 net.cpp:228] Setting up fc7
I1226 07:40:56.537456 89771 net.cpp:235] Top shape: 64 4096 (262144)
I1226 07:40:56.537511 89771 net.cpp:243] Memory required for data: 530079232
I1226 07:40:56.537575 89771 layer_factory.hpp:114] Creating layer relu7
I1226 07:40:56.537672 89771 net.cpp:178] Creating Layer relu7
I1226 07:40:56.537720 89771 net.cpp:612] relu7 <- fc7
I1226 07:40:56.537768 89771 net.cpp:573] relu7 -> fc7 (in-place)
I1226 07:40:56.537864 89771 net.cpp:228] Setting up relu7
I1226 07:40:56.537910 89771 net.cpp:235] Top shape: 64 4096 (262144)
I1226 07:40:56.537935 89771 net.cpp:243] Memory required for data: 531127808
I1226 07:40:56.537966 89771 layer_factory.hpp:114] Creating layer drop7
I1226 07:40:56.538007 89771 net.cpp:178] Creating Layer drop7
I1226 07:40:56.538035 89771 net.cpp:612] drop7 <- fc7
I1226 07:40:56.538084 89771 net.cpp:573] drop7 -> fc7 (in-place)
I1226 07:40:56.538141 89771 net.cpp:228] Setting up drop7
I1226 07:40:56.538178 89771 net.cpp:235] Top shape: 64 4096 (262144)
I1226 07:40:56.538202 89771 net.cpp:243] Memory required for data: 532176384
I1226 07:40:56.538229 89771 layer_factory.hpp:114] Creating layer fc8
I1226 07:40:56.538287 89771 net.cpp:178] Creating Layer fc8
I1226 07:40:56.538316 89771 net.cpp:612] fc8 <- fc7
I1226 07:40:56.538355 89771 net.cpp:586] fc8 -> fc8
I1226 07:40:56.855495 89800 net.cpp:228] Setting up fc8
I1226 07:40:56.855620 89800 net.cpp:235] Top shape: 64 1000 (64000)
I1226 07:40:56.855653 89800 net.cpp:243] Memory required for data: 532432384
I1226 07:40:56.855736 89800 layer_factory.hpp:114] Creating layer fc8_fc8_0_split
I1226 07:40:56.855808 89800 net.cpp:178] Creating Layer fc8_fc8_0_split
I1226 07:40:56.855840 89800 net.cpp:612] fc8_fc8_0_split <- fc8
I1226 07:40:56.855901 89800 net.cpp:586] fc8_fc8_0_split -> fc8_fc8_0_split_0
I1226 07:40:56.855957 89800 net.cpp:586] fc8_fc8_0_split -> fc8_fc8_0_split_1
I1226 07:40:56.856043 89800 net.cpp:228] Setting up fc8_fc8_0_split
I1226 07:40:56.856096 89800 net.cpp:235] Top shape: 64 1000 (64000)
I1226 07:40:56.856127 89800 net.cpp:235] Top shape: 64 1000 (64000)
I1226 07:40:56.856150 89800 net.cpp:243] Memory required for data: 532944384
I1226 07:40:56.856179 89800 layer_factory.hpp:114] Creating layer accuracy
I1226 07:40:56.856261 89800 net.cpp:178] Creating Layer accuracy
I1226 07:40:56.856297 89800 net.cpp:612] accuracy <- fc8_fc8_0_split_0
I1226 07:40:56.856328 89800 net.cpp:612] accuracy <- label_data_1_split_0
I1226 07:40:56.856364 89800 net.cpp:586] accuracy -> accuracy
…
I1226 07:40:56.885924 89800 net.cpp:307] data does not need backward computation.
I1226 07:40:56.885958 89800 net.cpp:349] This network produces output accuracy
I1226 07:40:56.885995 89800 net.cpp:349] This network produces output loss
I1226 07:40:56.886107 89800 net.cpp:363] Network initialization done.
I1226 07:40:56.886597 89800 solver.cpp:119] Solver scaffolding done.
I1226 07:40:56.886836 89800 caffe.cpp:212] Finetuning from /export/data1/stanford/hazy/gordon_bell/caffenet_knl/snapshot/caffenet_MN8_B1024/_iter_25000.caffemodel
I1226 07:40:56.942694 90196 net.cpp:228] Setting up fc8
I1226 07:40:56.942806 90196 net.cpp:235] Top shape: 64 1000 (64000)
I1226 07:40:56.942838 90196 net.cpp:243] Memory required for data: 532432384
I1226 07:40:56.942895 90196 layer_factory.hpp:114] Creating layer fc8_fc8_0_split
I1226 07:40:56.942987 90196 net.cpp:178] Creating Layer fc8_fc8_0_split
I1226 07:40:56.943032 90196 net.cpp:612] fc8_fc8_0_split <- fc8
I1226 07:40:56.943089 90196 net.cpp:586] fc8_fc8_0_split -> fc8_fc8_0_split_0
I1226 07:40:56.943146 90196 net.cpp:586] fc8_fc8_0_split -> fc8_fc8_0_split_1
I1226 07:40:56.943238 90196 net.cpp:228] Setting up fc8_fc8_0_split
I1226 07:40:56.943289 90196 net.cpp:235] Top shape: 64 1000 (64000)
I1226 07:40:56.943320 90196 net.cpp:235] Top shape: 64 1000 (64000)
I1226 07:40:56.943343 90196 net.cpp:243] Memory required for data: 532944384
I1226 07:40:56.943372 90196 layer_factory.hpp:114] Creating layer accuracy
I1226 07:40:56.943431 90196 net.cpp:178] Creating Layer accuracy
I1226 07:40:56.943497 90196 net.cpp:612] accuracy <- fc8_fc8_0_split_0
I1226 07:40:56.943531 90196 net.cpp:612] accuracy <- label_data_1_split_0
I1226 07:40:56.943565 90196 net.cpp:586] accuracy -> accuracy
I1226 07:40:56.943610 90196 net.cpp:228] Setting up accuracy
I1226 07:40:56.943646 90196 net.cpp:235] Top shape: (1)
I1226 07:40:56.943681 90196 net.cpp:243] Memory required for data: 532944388
I1226 07:40:56.943709 90196 layer_factory.hpp:114] Creating layer loss
I1226 07:40:56.943754 90196 net.cpp:178] Creating Layer loss
I1226 07:40:56.943786 90196 net.cpp:612] loss <- fc8_fc8_0_split_1
I1226 07:40:56.943816 90196 net.cpp:612] loss <- label_data_1_split_1
I1226 07:40:56.943850 90196 net.cpp:586] loss -> loss
I1226 07:40:56.943912 90196 layer_factory.hpp:114] Creating layer loss
I1226 07:40:56.971472 86513 net.cpp:228] Setting up fc8
I1226 07:40:56.971602 86513 net.cpp:235] Top shape: 64 1000 (64000)
I1226 07:40:56.971639 86513 net.cpp:243] Memory required for data: 532432384
I1226 07:40:56.971717 86513 layer_factory.hpp:114] Creating layer fc8_fc8_0_split
I1226 07:40:56.971798 86513 net.cpp:178] Creating Layer fc8_fc8_0_split
I1226 07:40:56.971840 86513 net.cpp:612] fc8_fc8_0_split <- fc8
I1226 07:40:56.971899 86513 net.cpp:586] fc8_fc8_0_split -> fc8_fc8_0_split_0
I1226 07:40:56.971954 86513 net.cpp:586] fc8_fc8_0_split -> fc8_fc8_0_split_1
I1226 07:40:56.972053 86513 net.cpp:228] Setting up fc8_fc8_0_split
I1226 07:40:56.972115 86513 net.cpp:235] Top shape: 64 1000 (64000)
I1226 07:40:56.972152 86513 net.cpp:235] Top shape: 64 1000 (64000)
I1226 07:40:56.972182 86513 net.cpp:243] Memory required for data: 532944384
I1226 07:40:56.972216 86513 layer_factory.hpp:114] Creating layer accuracy
I1226 07:40:56.972295 86513 net.cpp:178] Creating Layer accuracy
I1226 07:40:56.972367 86513 net.cpp:612] accuracy <- fc8_fc8_0_split_0
I1226 07:40:56.972409 86513 net.cpp:612] accuracy <- label_data_1_split_0
I1226 07:40:56.972456 86513 net.cpp:586] accuracy -> accuracy
I1226 07:40:56.972514 86513 net.cpp:228] Setting up accuracy
I1226 07:40:56.972576 86513 net.cpp:235] Top shape: (1)
I1226 07:40:56.972605 86513 net.cpp:243] Memory required for data: 532944388
I1226 07:40:56.972642 86513 layer_factory.hpp:114] Creating layer loss
I1226 07:40:56.973682 88308 net.cpp:228] Setting up fc8
I1226 07:40:56.972707 86513 net.cpp:178] Creating Layer loss
I1226 07:40:56.973801 88308 net.cpp:235] Top shape: 64 1000 (64000)
I1226 07:40:56.973834 88308 net.cpp:243] Memory required for data: 532432384
I1226 07:40:56.972748 86513 net.cpp:612] loss <- fc8_fc8_0_split_1
I1226 07:40:56.972782 86513 net.cpp:612] loss <- label_data_1_split_1
I1226 07:40:56.973889 88308 layer_factory.hpp:114] Creating layer fc8_fc8_0_split
I1226 07:40:56.972826 86513 net.cpp:586] loss -> loss
I1226 07:40:56.973951 88308 net.cpp:178] Creating Layer fc8_fc8_0_split
I1226 07:40:56.972908 86513 layer_factory.hpp:114] Creating layer loss
I1226 07:40:56.973994 88308 net.cpp:612] fc8_fc8_0_split <- fc8
I1226 07:40:56.974048 88308 net.cpp:586] fc8_fc8_0_split -> fc8_fc8_0_split_0
I1226 07:40:56.974105 88308 net.cpp:586] fc8_fc8_0_split -> fc8_fc8_0_split_1
I1226 07:40:56.974189 88308 net.cpp:228] Setting up fc8_fc8_0_split
I1226 07:40:56.974241 88308 net.cpp:235] Top shape: 64 1000 (64000)
I1226 07:40:56.974278 88308 net.cpp:235] Top shape: 64 1000 (64000)
I1226 07:40:56.974301 88308 net.cpp:243] Memory required for data: 532944384
I1226 07:40:56.974329 88308 layer_factory.hpp:114] Creating layer accuracy
I1226 07:40:56.974390 88308 net.cpp:178] Creating Layer accuracy
I1226 07:40:56.974429 88308 net.cpp:612] accuracy <- fc8_fc8_0_split_0
I1226 07:40:56.974462 88308 net.cpp:612] accuracy <- label_data_1_split_0
I1226 07:40:56.974496 88308 net.cpp:586] accuracy -> accuracy
…
I1226 07:40:57.138191 89771 net.cpp:307] data does not need backward computation.
I1226 07:40:57.138221 89771 net.cpp:349] This network produces output accuracy
I1226 07:40:57.138255 89771 net.cpp:349] This network produces output loss
I1226 07:40:57.138361 89771 net.cpp:363] Network initialization done.
I1226 07:40:57.138825 89771 solver.cpp:119] Solver scaffolding done.
I1226 07:40:57.139029 89771 caffe.cpp:212] Finetuning from /export/data1/stanford/hazy/gordon_bell/caffenet_knl/snapshot/caffenet_MN8_B1024/_iter_25000.caffemodel
I1226 07:40:56.431377 89666 net.cpp:228] Setting up fc7
I1226 07:40:56.431488 89666 net.cpp:235] Top shape: 64 4096 (262144)
I1226 07:40:56.431519 89666 net.cpp:243] Memory required for data: 530079232
I1226 07:40:56.431605 89666 layer_factory.hpp:114] Creating layer relu7
I1226 07:40:56.431685 89666 net.cpp:178] Creating Layer relu7
I1226 07:40:56.431730 89666 net.cpp:612] relu7 <- fc7
I1226 07:40:56.431793 89666 net.cpp:573] relu7 -> fc7 (in-place)
I1226 07:40:56.431886 89666 net.cpp:228] Setting up relu7
I1226 07:40:56.431947 89666 net.cpp:235] Top shape: 64 4096 (262144)
I1226 07:40:56.431977 89666 net.cpp:243] Memory required for data: 531127808
I1226 07:40:56.432008 89666 layer_factory.hpp:114] Creating layer drop7
I1226 07:40:56.432049 89666 net.cpp:178] Creating Layer drop7
I1226 07:40:56.432085 89666 net.cpp:612] drop7 <- fc7
I1226 07:40:56.432121 89666 net.cpp:573] drop7 -> fc7 (in-place)
I1226 07:40:56.432168 89666 net.cpp:228] Setting up drop7
I1226 07:40:56.432200 89666 net.cpp:235] Top shape: 64 4096 (262144)
I1226 07:40:56.432224 89666 net.cpp:243] Memory required for data: 532176384
I1226 07:40:56.432252 89666 layer_factory.hpp:114] Creating layer fc8
I1226 07:40:56.432333 89666 net.cpp:178] Creating Layer fc8
I1226 07:40:56.432363 89666 net.cpp:612] fc8 <- fc7
I1226 07:40:56.432404 89666 net.cpp:586] fc8 -> fc8
I1226 07:41:00.322465 89665 caffe.cpp:376] Configuring multinode setup
I1226 07:41:00.323910 89665 caffe.cpp:392] Starting Multi-node Optimization in mpi environment
I1226 07:41:00.481856 89771 caffe.cpp:376] Configuring multinode setup
I1226 07:41:00.483440 89771 caffe.cpp:392] Starting Multi-node Optimization in mpi environment
I1226 07:40:57.243010 89666 net.cpp:228] Setting up fc8
I1226 07:40:57.243122 89666 net.cpp:235] Top shape: 64 1000 (64000)
I1226 07:40:57.243150 89666 net.cpp:243] Memory required for data: 532432384
I1226 07:40:57.243232 89666 layer_factory.hpp:114] Creating layer fc8_fc8_0_split
I1226 07:40:57.243326 89666 net.cpp:178] Creating Layer fc8_fc8_0_split
I1226 07:40:57.243368 89666 net.cpp:612] fc8_fc8_0_split <- fc8
I1226 07:40:57.243422 89666 net.cpp:586] fc8_fc8_0_split -> fc8_fc8_0_split_0
I1226 07:40:57.243571 89666 net.cpp:586] fc8_fc8_0_split -> fc8_fc8_0_split_1
I1226 07:40:57.243690 89666 net.cpp:228] Setting up fc8_fc8_0_split
I1226 07:40:57.243743 89666 net.cpp:235] Top shape: 64 1000 (64000)
I1226 07:40:57.243775 89666 net.cpp:235] Top shape: 64 1000 (64000)
I1226 07:40:57.243798 89666 net.cpp:243] Memory required for data: 532944384
I1226 07:40:57.243827 89666 layer_factory.hpp:114] Creating layer accuracy
I1226 07:40:57.243897 89666 net.cpp:178] Creating Layer accuracy
I1226 07:40:57.243933 89666 net.cpp:612] accuracy <- fc8_fc8_0_split_0
I1226 07:40:57.243965 89666 net.cpp:612] accuracy <- label_data_1_split_0
I1226 07:40:57.244004 89666 net.cpp:586] accuracy -> accuracy
…
I1226 07:41:01.007349 90196 caffe.cpp:392] Starting Multi-node Optimization in mpi environment
I1226 07:41:01.033462 86513 caffe.cpp:376] Configuring multinode setup
I1226 07:41:01.035017 86513 caffe.cpp:392] Starting Multi-node Optimization in mpi environment
I1226 07:41:01.044273 88308 caffe.cpp:376] Configuring multinode setup
I1226 07:41:01.045737 88308 caffe.cpp:392] Starting Multi-node Optimization in mpi environment
I1226 07:41:01.339850 89666 caffe.cpp:376] Configuring multinode setup
I1226 07:41:01.341349 89666 caffe.cpp:392] Starting Multi-node Optimization in mpi environment
I1226 07:41:19.957460 92408 net.cpp:228] Setting up fc6
I1226 07:41:19.957731 92408 net.cpp:235] Top shape: 64 4096 (262144)
I1226 07:41:19.957777 92408 net.cpp:243] Memory required for data: 526933504
I1226 07:41:19.957878 92408 layer_factory.hpp:114] Creating layer relu6
I1226 07:41:19.957959 92408 net.cpp:178] Creating Layer relu6
I1226 07:41:19.958065 92408 net.cpp:612] relu6 <- fc6
I1226 07:41:19.958112 92408 net.cpp:573] relu6 -> fc6 (in-place)
I1226 07:41:19.958221 92408 net.cpp:228] Setting up relu6
I1226 07:41:19.958283 92408 net.cpp:235] Top shape: 64 4096 (262144)
I1226 07:41:19.958310 92408 net.cpp:243] Memory required for data: 527982080
I1226 07:41:19.958344 92408 layer_factory.hpp:114] Creating layer drop6
I1226 07:41:19.958412 92408 net.cpp:178] Creating Layer drop6
I1226 07:41:19.958451 92408 net.cpp:612] drop6 <- fc6
I1226 07:41:19.958492 92408 net.cpp:573] drop6 -> fc6 (in-place)
I1226 07:41:19.958557 92408 net.cpp:228] Setting up drop6
I1226 07:41:19.958605 92408 net.cpp:235] Top shape: 64 4096 (262144)
I1226 07:41:19.958629 92408 net.cpp:243] Memory required for data: 529030656
I1226 07:41:19.958657 92408 layer_factory.hpp:114] Creating layer fc7
I1226 07:41:19.958739 92408 net.cpp:178] Creating Layer fc7
I1226 07:41:19.958778 92408 net.cpp:612] fc7 <- fc6
I1226 07:41:19.958843 92408 net.cpp:586] fc7 -> fc7
I1226 07:41:21.339978 93793 net.cpp:228] Setting up fc6
I1226 07:41:21.340245 93793 net.cpp:235] Top shape: 64 4096 (262144)
I1226 07:41:21.340291 93793 net.cpp:243] Memory required for data: 526933504
I1226 07:41:21.340358 93793 layer_factory.hpp:114] Creating layer relu6
I1226 07:41:21.340464 93793 net.cpp:178] Creating Layer relu6
I1226 07:41:21.340522 93793 net.cpp:612] relu6 <- fc6
I1226 07:41:21.340569 93793 net.cpp:573] relu6 -> fc6 (in-place)
I1226 07:41:21.340672 93793 net.cpp:228] Setting up relu6
I1226 07:41:21.340728 93793 net.cpp:235] Top shape: 64 4096 (262144)
I1226 07:41:21.340755 93793 net.cpp:243] Memory required for data: 527982080
I1226 07:41:21.340809 93793 layer_factory.hpp:114] Creating layer drop6
I1226 07:41:21.340881 93793 net.cpp:178] Creating Layer drop6
I1226 07:41:21.340914 93793 net.cpp:612] drop6 <- fc6
I1226 07:41:21.340970 93793 net.cpp:573] drop6 -> fc6 (in-place)
I1226 07:41:21.341043 93793 net.cpp:228] Setting up drop6
I1226 07:41:21.341081 93793 net.cpp:235] Top shape: 64 4096 (262144)
I1226 07:41:21.341115 93793 net.cpp:243] Memory required for data: 529030656
I1226 07:41:21.341157 93793 layer_factory.hpp:114] Creating layer fc7
I1226 07:41:21.341223 93793 net.cpp:178] Creating Layer fc7
I1226 07:41:21.341259 93793 net.cpp:612] fc7 <- fc6
I1226 07:41:21.341302 93793 net.cpp:586] fc7 -> fc7
I1226 07:41:33.019529 92408 net.cpp:228] Setting up fc7
I1226 07:41:33.019645 92408 net.cpp:235] Top shape: 64 4096 (262144)
I1226 07:41:33.019683 92408 net.cpp:243] Memory required for data: 530079232
I1226 07:41:33.019748 92408 layer_factory.hpp:114] Creating layer relu7
I1226 07:41:33.019959 92408 net.cpp:178] Creating Layer relu7
I1226 07:41:33.020017 92408 net.cpp:612] relu7 <- fc7
I1226 07:41:33.020063 92408 net.cpp:573] relu7 -> fc7 (in-place)
I1226 07:41:33.020169 92408 net.cpp:228] Setting up relu7
I1226 07:41:33.020227 92408 net.cpp:235] Top shape: 64 4096 (262144)
I1226 07:41:33.020256 92408 net.cpp:243] Memory required for data: 531127808
I1226 07:41:33.020289 92408 layer_factory.hpp:114] Creating layer drop7
I1226 07:41:33.020333 92408 net.cpp:178] Creating Layer drop7
I1226 07:41:33.020370 92408 net.cpp:612] drop7 <- fc7
I1226 07:41:33.020434 92408 net.cpp:573] drop7 -> fc7 (in-place)
I1226 07:41:33.020496 92408 net.cpp:228] Setting up drop7
I1226 07:41:33.020539 92408 net.cpp:235] Top shape: 64 4096 (262144)
I1226 07:41:33.020570 92408 net.cpp:243] Memory required for data: 532176384
I1226 07:41:33.020611 92408 layer_factory.hpp:114] Creating layer fc8
I1226 07:41:33.020676 92408 net.cpp:178] Creating Layer fc8
I1226 07:41:33.020714 92408 net.cpp:612] fc8 <- fc7
I1226 07:41:33.020758 92408 net.cpp:586] fc8 -> fc8
I1226 07:41:34.409385 93793 net.cpp:228] Setting up fc7
I1226 07:41:34.409502 93793 net.cpp:235] Top shape: 64 4096 (262144)
I1226 07:41:34.409538 93793 net.cpp:243] Memory required for data: 530079232
I1226 07:41:34.409602 93793 layer_factory.hpp:114] Creating layer relu7
I1226 07:41:34.409770 93793 net.cpp:178] Creating Layer relu7
I1226 07:41:34.409837 93793 net.cpp:612] relu7 <- fc7
I1226 07:41:34.409883 93793 net.cpp:573] relu7 -> fc7 (in-place)
I1226 07:41:34.409982 93793 net.cpp:228] Setting up relu7
I1226 07:41:34.410063 93793 net.cpp:235] Top shape: 64 4096 (262144)
I1226 07:41:34.410107 93793 net.cpp:243] Memory required for data: 531127808
I1226 07:41:34.410157 93793 layer_factory.hpp:114] Creating layer drop7
I1226 07:41:34.410228 93793 net.cpp:178] Creating Layer drop7
I1226 07:41:34.410279 93793 net.cpp:612] drop7 <- fc7
I1226 07:41:34.410342 93793 net.cpp:573] drop7 -> fc7 (in-place)
I1226 07:41:34.410414 93793 net.cpp:228] Setting up drop7
I1226 07:41:34.410466 93793 net.cpp:235] Top shape: 64 4096 (262144)
I1226 07:41:34.410501 93793 net.cpp:243] Memory required for data: 532176384
I1226 07:41:34.410542 93793 layer_factory.hpp:114] Creating layer fc8
I1226 07:41:34.410620 93793 net.cpp:178] Creating Layer fc8
I1226 07:41:34.410665 93793 net.cpp:612] fc8 <- fc7
I1226 07:41:34.410742 93793 net.cpp:586] fc8 -> fc8
I1226 07:41:36.209951 92408 net.cpp:228] Setting up fc8
I1226 07:41:36.210072 92408 net.cpp:235] Top shape: 64 1000 (64000)
I1226 07:41:36.210111 92408 net.cpp:243] Memory required for data: 532432384
I1226 07:41:36.210176 92408 layer_factory.hpp:114] Creating layer fc8_fc8_0_split
I1226 07:41:36.210367 92408 net.cpp:178] Creating Layer fc8_fc8_0_split
I1226 07:41:36.210420 92408 net.cpp:612] fc8_fc8_0_split <- fc8
I1226 07:41:36.210474 92408 net.cpp:586] fc8_fc8_0_split -> fc8_fc8_0_split_0
I1226 07:41:36.210530 92408 net.cpp:586] fc8_fc8_0_split -> fc8_fc8_0_split_1
I1226 07:41:36.210640 92408 net.cpp:228] Setting up fc8_fc8_0_split
I1226 07:41:36.210701 92408 net.cpp:235] Top shape: 64 1000 (64000)
I1226 07:41:36.210736 92408 net.cpp:235] Top shape: 64 1000 (64000)
I1226 07:41:36.210760 92408 net.cpp:243] Memory required for data: 532944384
I1226 07:41:36.210798 92408 layer_factory.hpp:114] Creating layer accuracy
I1226 07:41:36.210887 92408 net.cpp:178] Creating Layer accuracy
I1226 07:41:36.210928 92408 net.cpp:612] accuracy <- fc8_fc8_0_split_0
I1226 07:41:36.210974 92408 net.cpp:612] accuracy <- label_data_1_split_0
I1226 07:41:36.211014 92408 net.cpp:586] accuracy -> accuracy
…
