…
I1226 07:02:45.983772 90546 net.cpp:500] The NetState phase (0) differed from the phase (1) specified by a rule in layer data
I1226 07:02:45.985760 90546 net.cpp:136] Initializing net from parameters: 
name: "AlexNet"
state {
  phase: TRAIN
  level: 0
  stage: ""
}
engine: "MKL2017"
layer {
  name: "data"
  type: "Data"
  top: "data"
  top: "label"
  include {
    phase: TRAIN
  }
  transform_param {
    mirror: true
    crop_size: 227
    mean_value: 104
    mean_value: 117
    mean_value: 123
  }
  data_param {
    source: "/export/data1/stanford/hazy/zjian/gorden_bell/ILSVRC2012_lmdb/db_8/ilsvrc12_train_lmdb_0"
    batch_size: 64
    backend: LMDB
  }
}
layer {
  name: "label_data_1_split"
  type: "Split"
  bottom: "label"
  top: "label_data_1_split_0"
  top: "label_data_1_split_1"
}
layer {
  name: "conv1"
  type: "Convolution"
  bottom: "data"
  top: "conv1"
  param {
    lr_mult: 1
    decay_mult: 1
  }
  param {
    lr_mult: 2
    decay_mult: 0
  }
  convolution_param {
    num_output: 96
    kernel_size: 11
    stride: 4
    weight_filler {
      type: "gaussian"
      std: 0.01
    }
    bias_filler {
      type: "constant"
      value: 0
    }
    engine: MKL2017
  }
}
layer {
  name: "relu1"
  type: "ReLU"
  bottom: "conv1"
  top: "conv1"
  relu_param {
    engine: MKL2017
  }
}
layer {
  name: "norm1"
  type: "LRN"
  bottom: "conv1"
  top: "norm1"
  lrn_param {
    local_size: 5
    alpha: 0.0001
    beta: 0.75
    engine: MKL2017
  }
}
layer {
  name: "pool1"
  type: "Pooling"
  bottom: "norm1"
  top: "pool1"
  pooling_param {
    pool: MAX
    kernel_size: 3
    stride: 2
    engine: MKL2017
  }
}
layer {
  name: "conv2"
  type: "Convolution"
  bottom: "pool1"
  top: "conv2"
  param {
    lr_mult: 1
    decay_mult: 1
  }
  param {
    lr_mult: 2
    decay_mult: 0
  }
  convolution_param {
    num_output: 256
    pad: 2
    kernel_size: 5
    group: 2
    weight_filler {
      type: "gaussian"
      std: 0.01
    }
    bias_filler {
      type: "constant"
      value: 0.1
    }
    engine: MKL2017
  }
}
layer {
  name: "relu2"
  type: "ReLU"
  bottom: "conv2"
  top: "conv2"
  relu_param {
    engine: MKL2017
  }
}
layer {
  name: "norm2"
  type: "LRN"
  bottom: "conv2"
  top: "norm2"
  lrn_param {
    local_size: 5
    alpha: 0.0001
    beta: 0.75
    engine: MKL2017
  }
}
layer {
  name: "pool2"
  type: "Pooling"
  bottom: "norm2"
  top: "pool2"
  pooling_param {
    pool: MAX
    kernel_size: 3
    stride: 2
    engine: MKL2017
  }
}
layer {
  name: "conv3"
  type: "Convolution"
  bottom: "pool2"
  top: "conv3"
  param {
    lr_mult: 1
    decay_mult: 1
  }
  param {
    lr_mult: 2
    decay_mult: 0
  }
  convolution_param {
    num_output: 384
    pad: 1
    kernel_size: 3
    weight_filler {
      type: "gaussian"
      std: 0.01
    }
    bias_filler {
      type: "constant"
      value: 0
    }
    engine: MKL2017
  }
}
layer {
  name: "relu3"
  type: "ReLU"
  bottom: "conv3"
  top: "conv3"
  relu_param {
    engine: MKL2017
  }
}
layer {
  name: "conv4"
  type: "Convolution"
  bottom: "conv3"
  top: "conv4"
  param {
    lr_mult: 1
    decay_mult: 1
  }
  param {
    lr_mult: 2
    decay_mult: 0
  }
  convolution_param {
    num_output: 384
    pad: 1
    kernel_size: 3
    group: 2
    weight_filler {
      type: "gaussian"
      std: 0.01
    }
    bias_filler {
      type: "constant"
      value: 0.1
    }
    engine: MKL2017
  }
}
layer {
  name: "relu4"
  type: "ReLU"
  bottom: "conv4"
  top: "conv4"
  relu_param {
    engine: MKL2017
  }
}
layer {
  name: "conv5"
  type: "Convolution"
  bottom: "conv4"
  top: "conv5"
  param {
    lr_mult: 1
    decay_mult: 1
  }
  param {
    lr_mult: 2
    decay_mult: 0
  }
  convolution_param {
    num_output: 256
    pad: 1
    kernel_size: 3
    group: 2
    weight_filler {
      type: "gaussian"
      std: 0.01
    }
    bias_filler {
      type: "constant"
      value: 0.1
    }
    engine: MKL2017
  }
}
layer {
  name: "relu5"
  type: "ReLU"
  bottom: "conv5"
  top: "conv5"
  relu_param {
    engine: MKL2017
  }
}
layer {
  name: "pool5"
  type: "Pooling"
  bottom: "conv5"
  top: "pool5"
  pooling_param {
    pool: MAX
    kernel_size: 3
    stride: 2
    engine: MKL2017
  }
}
layer {
  name: "fc6"
  type: "InnerProduct"
  bottom: "pool5"
  top: "fc6"
  param {
    lr_mult: 1
    decay_mult: 1
  }
  param {
    lr_mult: 2
    decay_mult: 0
  }
  inner_product_param {
    num_output: 4096
    weight_filler {
      type: "gaussian"
      std: 0.005
    }
    bias_filler {
      type: "constant"
      value: 0.1
    }
  }
}
layer {
  name: "relu6"
  type: "ReLU"
  bottom: "fc6"
  top: "fc6"
}
layer {
  name: "drop6"
  type: "Dropout"
  bottom: "fc6"
  top: "fc6"
  dropout_param {
    dropout_ratio: 0.5
  }
}
layer {
  name: "fc7"
  type: "InnerProduct"
  bottom: "fc6"
  top: "fc7"
  param {
    lr_mult: 1
    decay_mult: 1
  }
  param {
    lr_mult: 2
    decay_mult: 0
  }
  inner_product_param {
    num_output: 4096
    weight_filler {
      type: "gaussian"
      std: 0.005
    }
    bias_filler {
      type: "constant"
      value: 0.1
    }
  }
}
layer {
  name: "relu7"
  type: "ReLU"
  bottom: "fc7"
  top: "fc7"
}
layer {
  name: "drop7"
  type: "Dropout"
  bottom: "fc7"
  top: "fc7"
  dropout_param {
    dropout_ratio: 0.5
  }
}
layer {
  name: "fc8"
  type: "InnerProduct"
  bottom: "fc7"
  top: "fc8"
  param {
    lr_mult: 1
    decay_mult: 1
  }
  param {
    lr_mult: 2
    decay_mult: 0
  }
  inner_product_param {
    num_output: 1000
    weight_filler {
      type: "gaussian"
      std: 0.01
    }
    bias_filler {
      type: "constant"
      value: 0
    }
  }
}
layer {
  name: "fc8_fc8_0_split"
  type: "Split"
  bottom: "fc8"
  top: "fc8_fc8_0_split_0"
  top: "fc8_fc8_0_split_1"
}
layer {
  name: "accuracy"
  type: "Accuracy"
  bottom: "fc8_fc8_0_split_0"
  bottom: "label_data_1_split_0"
  top: "accuracy"
}
layer {
  name: "loss"
  type: "SoftmaxWithLoss"
  bottom: "fc8_fc8_0_split_1"
  bottom: "label_data_1_split_1"
  top: "loss"
}
I1226 07:02:45.985199 93507 cpu_info.cpp:473] Number of OpenMP threads: 66
I1226 07:02:45.985548 93507 net.cpp:500] The NetState phase (0) differed from the phase (1) specified by a rule in layer data
I1226 07:02:45.987639 93507 net.cpp:136] Initializing net from parameters: 
name: "AlexNet"
state {
  phase: TRAIN
  level: 0
  stage: ""
}
engine: "MKL2017"
layer {
  name: "data"
  type: "Data"
  top: "data"
  top: "label"
  include {
    phase: TRAIN
  }
  transform_param {
    mirror: true
    crop_size: 227
    mean_value: 104
    mean_value: 117
    mean_value: 123
  }
  data_param {
    source: "/export/data1/stanford/hazy/zjian/gorden_bell/ILSVRC2012_lmdb/db_8/ilsvrc12_train_lmdb_7"
    batch_size: 64
    backend: LMDB
  }
}
layer {
  name: "label_data_1_split"
  type: "Split"
  bottom: "label"
  top: "label_data_1_split_0"
  top: "label_data_1_split_1"
}
layer {
  name: "conv1"
  type: "Convolution"
  bottom: "data"
  top: "conv1"
  param {
    lr_mult: 1
    decay_mult: 1
  }
  param {
    lr_mult: 2
    decay_mult: 0
  }
  convolution_param {
    num_output: 96
    kernel_size: 11
    stride: 4
    weight_filler {
      type: "gaussian"
      std: 0.01
    }
    bias_filler {
      type: "constant"
      value: 0
    }
    engine: MKL2017
  }
}
layer {
  name: "relu1"
  type: "ReLU"
  bottom: "conv1"
  top: "conv1"
  relu_param {
    engine: MKL2017
  }
}
layer {
  name: "norm1"
  type: "LRN"
  bottom: "conv1"
  top: "norm1"
  lrn_param {
    local_size: 5
    alpha: 0.0001
    beta: 0.75
    engine: MKL2017
  }
}
layer {
  name: "pool1"
  type: "Pooling"
  bottom: "norm1"
  top: "pool1"
  pooling_param {
    pool: MAX
    kernel_size: 3
    stride: 2
    engine: MKL2017
  }
}
layer {
  name: "conv2"
  type: "Convolution"
  bottom: "pool1"
  top: "conv2"
  param {
    lr_mult: 1
    decay_mult: 1
  }
  param {
    lr_mult: 2
    decay_mult: 0
  }
  convolution_param {
    num_output: 256
    pad: 2
    kernel_size: 5
    group: 2
    weight_filler {
      type: "gaussian"
      std: 0.01
    }
    bias_filler {
      type: "constant"
      value: 0.1
    }
    engine: MKL2017
  }
}
layer {
  name: "relu2"
  type: "ReLU"
  bottom: "conv2"
  top: "conv2"
  relu_param {
    engine: MKL2017
  }
}
layer {
  name: "norm2"
  type: "LRN"
  bottom: "conv2"
  top: "norm2"
  lrn_param {
    local_size: 5
    alpha: 0.0001
    beta: 0.75
    engine: MKL2017
  }
}
layer {
  name: "pool2"
  type: "Pooling"
  bottom: "norm2"
  top: "pool2"
  pooling_param {
    pool: MAX
    kernel_size: 3
    stride: 2
    engine: MKL2017
  }
}
layer {
  name: "conv3"
  type: "Convolution"
  bottom: "pool2"
  top: "conv3"
  param {
    lr_mult: 1
    decay_mult: 1
  }
  param {
    lr_mult: 2
    decay_mult: 0
  }
  convolution_param {
    num_output: 384
    pad: 1
    kernel_size: 3
    weight_filler {
      type: "gaussian"
      std: 0.01
    }
    bias_filler {
      type: "constant"
      value: 0
    }
    engine: MKL2017
  }
}
layer {
  name: "relu3"
  type: "ReLU"
  bottom: "conv3"
  top: "conv3"
  relu_param {
    engine: MKL2017
  }
}
layer {
  name: "conv4"
  type: "Convolution"
  bottom: "conv3"
  top: "conv4"
  param {
    lr_mult: 1
    decay_mult: 1
  }
  param {
    lr_mult: 2
    decay_mult: 0
  }
  convolution_param {
    num_output: 384
    pad: 1
    kernel_size: 3
    group: 2
    weight_filler {
      type: "gaussian"
      std: 0.01
    }
    bias_filler {
      type: "constant"
      value: 0.1
    }
    engine: MKL2017
  }
}
layer {
  name: "relu4"
  type: "ReLU"
  bottom: "conv4"
  top: "conv4"
  relu_param {
    engine: MKL2017
  }
}
layer {
  name: "conv5"
  type: "Convolution"
  bottom: "conv4"
  top: "conv5"
  param {
    lr_mult: 1
    decay_mult: 1
  }
  param {
    lr_mult: 2
    decay_mult: 0
  }
  convolution_param {
    num_output: 256
    pad: 1
    kernel_size: 3
    group: 2
    weight_filler {
      type: "gaussian"
      std: 0.01
    }
    bias_filler {
      type: "constant"
      value: 0.1
    }
    engine: MKL2017
  }
}
layer {
  name: "relu5"
  type: "ReLU"
  bottom: "conv5"
  top: "conv5"
  relu_param {
    engine: MKL2017
  }
}
layer {
  name: "pool5"
  type: "Pooling"
  bottom: "conv5"
  top: "pool5"
  pooling_param {
    pool: MAX
    kernel_size: 3
    stride: 2
    engine: MKL2017
  }
}
layer {
  name: "fc6"
  type: "InnerProduct"
  bottom: "pool5"
  top: "fc6"
  param {
    lr_mult: 1
    decay_mult: 1
  }
  param {
    lr_mult: 2
    decay_mult: 0
  }
  inner_product_param {
    num_output: 4096
    weight_filler {
      type: "gaussian"
      std: 0.005
    }
    bias_filler {
      type: "constant"
      value: 0.1
    }
  }
}
layer {
  name: "relu6"
  type: "ReLU"
  bottom: "fc6"
  top: "fc6"
}
layer {
  name: "drop6"
  type: "Dropout"
  bottom: "fc6"
  top: "fc6"
  dropout_param {
    dropout_ratio: 0.5
  }
}
layer {
  name: "fc7"
  type: "InnerProduct"
  bottom: "fc6"
  top: "fc7"
  param {
    lr_mult: 1
    decay_mult: 1
  }
  param {
    lr_mult: 2
    decay_mult: 0
  }
  inner_product_param {
    num_output: 4096
    weight_filler {
      type: "gaussian"
      std: 0.005
    }
    bias_filler {
      type: "constant"
      value: 0.1
    }
  }
}
layer {
  name: "relu7"
  type: "ReLU"
  bottom: "fc7"
  top: "fc7"
}
layer {
  name: "drop7"
  type: "Dropout"
  bottom: "fc7"
  top: "fc7"
  dropout_param {
    dropout_ratio: 0.5
  }
}
layer {
  name: "fc8"
  type: "InnerProduct"
  bottom: "fc7"
  top: "fc8"
  param {
    lr_mult: 1
    decay_mult: 1
  }
  param {
    lr_mult: 2
    decay_mult: 0
  }
  inner_product_param {
    num_output: 1000
    weight_filler {
      type: "gaussian"
      std: 0.01
    }
    bias_filler {
      type: "constant"
      value: 0
    }
  }
}
layer {
  name: "fc8_fc8_0_split"
  type: "Split"
  bottom: "fc8"
  top: "fc8_fc8_0_split_0"
  top: "fc8_fc8_0_split_1"
}
layer {
  name: "accuracy"
  type: "Accuracy"
  bottom: "fc8_fc8_0_split_0"
  bottom: "label_data_1_split_0"
  top: "accuracy"
}
layer {
  name: "loss"
  type: "SoftmaxWithLoss"
  bottom: "fc8_fc8_0_split_1"
  bottom: "label_data_1_split_1"
  top: "loss"
}
I1226 07:02:45.988492 96083 cpu_info.cpp:473] Number of OpenMP threads: 66
I1226 07:02:45.988953 96083 net.cpp:500] The NetState phase (0) differed from the phase (1) specified by a rule in layer data
I1226 07:02:45.991035 96083 net.cpp:136] Initializing net from parameters: 
name: "AlexNet"
state {
  phase: TRAIN
  level: 0
  stage: ""
}
engine: "MKL2017"
layer {
  name: "data"
  type: "DummyData"
  top: "data"
  top: "label"
  include {
    phase: TRAIN
  }
  transform_param {
    mirror: true
    crop_size: 227
    mean_value: 104
    mean_value: 117
    mean_value: 123
  }
  dummy_data_param {
    data_filler {
      type: "gaussian"
      std: 1
    }
    data_filler {
      type: "constant"
      value: 0
    }
    shape {
      dim: 64
      dim: 3
      dim: 227
      dim: 227
    }
    shape {
      dim: 64
      dim: 1
      dim: 1
      dim: 1
    }
  }
}
layer {
  name: "label_data_1_split"
  type: "Split"
  bottom: "label"
  top: "label_data_1_split_0"
  top: "label_data_1_split_1"
}
layer {
  name: "conv1"
  type: "Convolution"
  bottom: "data"
  top: "conv1"
  param {
    lr_mult: 1
    decay_mult: 1
  }
  param {
    lr_mult: 2
    decay_mult: 0
  }
  convolution_param {
    num_output: 96
    kernel_size: 11
    stride: 4
    weight_filler {
      type: "gaussian"
      std: 0.01
    }
    bias_filler {
      type: "constant"
      value: 0
    }
    engine: MKL2017
  }
}
layer {
  name: "relu1"
  type: "ReLU"
  bottom: "conv1"
  top: "conv1"
  relu_param {
    engine: MKL2017
  }
}
layer {
  name: "norm1"
  type: "LRN"
  bottom: "conv1"
  top: "norm1"
  lrn_param {
    local_size: 5
    alpha: 0.0001
    beta: 0.75
    engine: MKL2017
  }
}
layer {
  name: "pool1"
  type: "Pooling"
  bottom: "norm1"
  top: "pool1"
  pooling_param {
    pool: MAX
    kernel_size: 3
    stride: 2
    engine: MKL2017
  }
}
layer {
  name: "conv2"
  type: "Convolution"
  bottom: "pool1"
  top: "conv2"
  param {
    lr_mult: 1
    decay_mult: 1
  }
  param {
    lr_mult: 2
    decay_mult: 0
  }
  convolution_param {
    num_output: 256
    pad: 2
    kernel_size: 5
    group: 2
    weight_filler {
      type: "gaussian"
      std: 0.01
    }
    bias_filler {
      type: "constant"
      value: 0.1
    }
    engine: MKL2017
  }
}
layer {
  name: "relu2"
  type: "ReLU"
  bottom: "conv2"
  top: "conv2"
  relu_param {
    engine: MKL2017
  }
}
layer {
  name: "norm2"
  type: "LRN"
  bottom: "conv2"
  top: "norm2"
  lrn_param {
    local_size: 5
    alpha: 0.0001
    beta: 0.75
    engine: MKL2017
  }
}
layer {
  name: "pool2"
  type: "Pooling"
  bottom: "norm2"
  top: "pool2"
  pooling_param {
    pool: MAX
    kernel_size: 3
    stride: 2
    engine: MKL2017
  }
}
layer {
  name: "conv3"
  type: "Convolution"
  bottom: "pool2"
  top: "conv3"
  param {
    lr_mult: 1
    decay_mult: 1
  }
  param {
    lr_mult: 2
    decay_mult: 0
  }
  convolution_param {
    num_output: 384
    pad: 1
    kernel_size: 3
    weight_filler {
      type: "gaussian"
      std: 0.01
    }
    bias_filler {
      type: "constant"
      value: 0
    }
    engine: MKL2017
  }
}
layer {
  name: "relu3"
  type: "ReLU"
  bottom: "conv3"
  top: "conv3"
  relu_param {
    engine: MKL2017
  }
}
layer {
  name: "conv4"
  type: "Convolution"
  bottom: "conv3"
  top: "conv4"
  param {
    lr_mult: 1
    decay_mult: 1
  }
  param {
    lr_mult: 2
    decay_mult: 0
  }
  convolution_param {
    num_output: 384
    pad: 1
    kernel_size: 3
    group: 2
    weight_filler {
      type: "gaussian"
      std: 0.01
    }
    bias_filler {
      type: "constant"
      value: 0.1
    }
    engine: MKL2017
  }
}
layer {
  name: "relu4"
  type: "ReLU"
  bottom: "conv4"
  top: "conv4"
  relu_param {
    engine: MKL2017
  }
}
layer {
  name: "conv5"
  type: "Convolution"
  bottom: "conv4"
  top: "conv5"
  param {
    lr_mult: 1
    decay_mult: 1
  }
  param {
    lr_mult: 2
    decay_mult: 0
  }
  convolution_param {
    num_output: 256
    pad: 1
    kernel_size: 3
    group: 2
    weight_filler {
      type: "gaussian"
      std: 0.01
    }
    bias_filler {
      type: "constant"
      value: 0.1
    }
    engine: MKL2017
  }
}
layer {
  name: "relu5"
  type: "ReLU"
  bottom: "conv5"
  top: "conv5"
  relu_param {
    engine: MKL2017
  }
}
layer {
  name: "pool5"
  type: "Pooling"
  bottom: "conv5"
  top: "pool5"
  pooling_param {
    pool: MAX
    kernel_size: 3
    stride: 2
    engine: MKL2017
  }
}
layer {
  name: "fc6"
  type: "InnerProduct"
  bottom: "pool5"
  top: "fc6"
  param {
    lr_mult: 1
    decay_mult: 1
  }
  param {
    lr_mult: 2
    decay_mult: 0
  }
  inner_product_param {
    num_output: 4096
    weight_filler {
      type: "gaussian"
      std: 0.005
    }
    bias_filler {
      type: "constant"
      value: 0.1
    }
  }
}
layer {
  name: "relu6"
  type: "ReLU"
  bottom: "fc6"
  top: "fc6"
}
layer {
  name: "drop6"
  type: "Dropout"
  bottom: "fc6"
  top: "fc6"
  dropout_param {
    dropout_ratio: 0.5
  }
}
layer {
  name: "fc7"
  type: "InnerProduct"
  bottom: "fc6"
  top: "fc7"
  param {
    lr_mult: 1
    decay_mult: 1
  }
  param {
    lr_mult: 2
    decay_mult: 0
  }
  inner_product_param {
    num_output: 4096
    weight_filler {
      type: "gaussian"
      std: 0.005
    }
    bias_filler {
      type: "constant"
      value: 0.1
    }
  }
}
layer {
  name: "relu7"
  type: "ReLU"
  bottom: "fc7"
  top: "fc7"
}
layer {
  name: "drop7"
  type: "Dropout"
  bottom: "fc7"
  top: "fc7"
  dropout_param {
    dropout_ratio: 0.5
  }
}
layer {
  name: "fc8"
  type: "InnerProduct"
  bottom: "fc7"
  top: "fc8"
  param {
    lr_mult: 1
    decay_mult: 1
  }
  param {
    lr_mult: 2
    decay_mult: 0
  }
  inner_product_param {
    num_output: 1000
    weight_filler {
      type: "gaussian"
      std: 0.01
    }
    bias_filler {
      type: "constant"
      value: 0
    }
  }
}
layer {
  name: "fc8_fc8_0_split"
  type: "Split"
  bottom: "fc8"
  top: "fc8_fc8_0_split_0"
  top: "fc8_fc8_0_split_1"
}
layer {
  name: "accuracy"
  type: "Accuracy"
  bottom: "fc8_fc8_0_split_0"
  bottom: "label_data_1_split_0"
  top: "accuracy"
}
layer {
  name: "loss"
  type: "SoftmaxWithLoss"
  bottom: "fc8_fc8_0_split_1"
  bottom: "label_data_1_split_1"
  top: "loss"
}
I1226 07:02:46.011874 88126 cpu_info.cpp:473] Number of OpenMP threads: 66
I1226 07:02:46.007959 93507 layer_factory.hpp:114] Creating layer data
I1226 07:02:46.012164 88126 net.cpp:500] The NetState phase (0) differed from the phase (1) specified by a rule in layer data
I1226 07:02:46.013773 88126 net.cpp:136] Initializing net from parameters: 
name: "AlexNet"
state {
  phase: TRAIN
  level: 0
  stage: ""
}
engine: "MKL2017"
layer {
  name: "data"
  type: "Data"
  top: "data"
  top: "label"
  include {
    phase: TRAIN
  }
  transform_param {
    mirror: true
    crop_size: 227
    mean_value: 104
    mean_value: 117
    mean_value: 123
  }
  data_param {
    source: "/export/data1/stanford/hazy/zjian/gorden_bell/ILSVRC2012_lmdb/db_8/ilsvrc12_train_lmdb_6"
    batch_size: 64
    backend: LMDB
  }
}
layer {
  name: "label_data_1_split"
  type: "Split"
  bottom: "label"
  top: "label_data_1_split_0"
  top: "label_data_1_split_1"
}
layer {
  name: "conv1"
  type: "Convolution"
  bottom: "data"
  top: "conv1"
  param {
    lr_mult: 1
    decay_mult: 1
  }
  param {
    lr_mult: 2
    decay_mult: 0
  }
  convolution_param {
    num_output: 96
    kernel_size: 11
    stride: 4
    weight_filler {
      type: "gaussian"
      std: 0.01
    }
    bias_filler {
      type: "constant"
      value: 0
    }
    engine: MKL2017
  }
}
layer {
  name: "relu1"
  type: "ReLU"
  bottom: "conv1"
  top: "conv1"
  relu_param {
    engine: MKL2017
  }
}
layer {
  name: "norm1"
  type: "LRN"
  bottom: "conv1"
  top: "norm1"
  lrn_param {
    local_size: 5
    alpha: 0.0001
    beta: 0.75
    engine: MKL2017
  }
}
layer {
  name: "pool1"
  type: "Pooling"
  bottom: "norm1"
  top: "pool1"
  pooling_param {
    pool: MAX
    kernel_size: 3
    stride: 2
    engine: MKL2017
  }
}
layer {
  name: "conv2"
  type: "Convolution"
  bottom: "pool1"
  top: "conv2"
  param {
    lr_mult: 1
    decay_mult: 1
  }
  param {
    lr_mult: 2
    decay_mult: 0
  }
  convolution_param {
    num_output: 256
    pad: 2
    kernel_size: 5
    group: 2
    weight_filler {
      type: "gaussian"
      std: 0.01
    }
    bias_filler {
      type: "constant"
      value: 0.1
    }
    engine: MKL2017
  }
}
layer {
  name: "relu2"
  type: "ReLU"
  bottom: "conv2"
  top: "conv2"
  relu_param {
    engine: MKL2017
  }
}
layer {
  name: "norm2"
  type: "LRN"
  bottom: "conv2"
  top: "norm2"
  lrn_param {
    local_size: 5
    alpha: 0.0001
    beta: 0.75
    engine: MKL2017
  }
}
layer {
  name: "pool2"
  type: "Pooling"
  bottom: "norm2"
  top: "pool2"
  pooling_param {
    pool: MAX
    kernel_size: 3
    stride: 2
    engine: MKL2017
  }
}
layer {
  name: "conv3"
  type: "Convolution"
  bottom: "pool2"
  top: "conv3"
  param {
    lr_mult: 1
    decay_mult: 1
  }
  param {
    lr_mult: 2
    decay_mult: 0
  }
  convolution_param {
    num_output: 384
    pad: 1
    kernel_size: 3
    weight_filler {
      type: "gaussian"
      std: 0.01
    }
    bias_filler {
      type: "constant"
      value: 0
    }
    engine: MKL2017
  }
}
layer {
  name: "relu3"
  type: "ReLU"
  bottom: "conv3"
  top: "conv3"
  relu_param {
    engine: MKL2017
  }
}
layer {
  name: "conv4"
  type: "Convolution"
  bottom: "conv3"
  top: "conv4"
  param {
    lr_mult: 1
    decay_mult: 1
  }
  param {
    lr_mult: 2
    decay_mult: 0
  }
  convolution_param {
    num_output: 384
    pad: 1
    kernel_size: 3
    group: 2
    weight_filler {
      type: "gaussian"
      std: 0.01
    }
    bias_filler {
      type: "constant"
      value: 0.1
    }
    engine: MKL2017
  }
}
layer {
  name: "relu4"
  type: "ReLU"
  bottom: "conv4"
  top: "conv4"
  relu_param {
    engine: MKL2017
  }
}
layer {
  name: "conv5"
  type: "Convolution"
  bottom: "conv4"
  top: "conv5"
  param {
    lr_mult: 1
    decay_mult: 1
  }
  param {
    lr_mult: 2
    decay_mult: 0
  }
  convolution_param {
    num_output: 256
    pad: 1
    kernel_size: 3
    group: 2
    weight_filler {
      type: "gaussian"
      std: 0.01
    }
    bias_filler {
      type: "constant"
      value: 0.1
    }
    engine: MKL2017
  }
}
layer {
  name: "relu5"
  type: "ReLU"
  bottom: "conv5"
  top: "conv5"
  relu_param {
    engine: MKL2017
  }
}
layer {
  name: "pool5"
  type: "Pooling"
  bottom: "conv5"
  top: "pool5"
  pooling_param {
    pool: MAX
    kernel_size: 3
    stride: 2
    engine: MKL2017
  }
}
layer {
  name: "fc6"
  type: "InnerProduct"
  bottom: "pool5"
  top: "fc6"
  param {
    lr_mult: 1
    decay_mult: 1
  }
  param {
    lr_mult: 2
    decay_mult: 0
  }
  inner_product_param {
    num_output: 4096
    weight_filler {
      type: "gaussian"
      std: 0.005
    }
    bias_filler {
      type: "constant"
      value: 0.1
    }
  }
}
layer {
  name: "relu6"
  type: "ReLU"
  bottom: "fc6"
  top: "fc6"
}
layer {
  name: "drop6"
  type: "Dropout"
  bottom: "fc6"
  top: "fc6"
  dropout_param {
    dropout_ratio: 0.5
  }
}
layer {
  name: "fc7"
  type: "InnerProduct"
  bottom: "fc6"
  top: "fc7"
  param {
    lr_mult: 1
    decay_mult: 1
  }
  param {
    lr_mult: 2
    decay_mult: 0
  }
  inner_product_param {
    num_output: 4096
    weight_filler {
      type: "gaussian"
      std: 0.005
    }
    bias_filler {
      type: "constant"
      value: 0.1
    }
  }
}
layer {
  name: "relu7"
  type: "ReLU"
  bottom: "fc7"
  top: "fc7"
}
layer {
  name: "drop7"
  type: "Dropout"
  bottom: "fc7"
  top: "fc7"
  dropout_param {
    dropout_ratio: 0.5
  }
}
layer {
  name: "fc8"
  type: "InnerProduct"
  bottom: "fc7"
  top: "fc8"
  param {
    lr_mult: 1
    decay_mult: 1
  }
  param {
    lr_mult: 2
    decay_mult: 0
  }
  inner_product_param {
    num_output: 1000
    weight_filler {
      type: "gaussian"
      std: 0.01
    }
    bias_filler {
      type: "constant"
      value: 0
    }
  }
}
layer {
  name: "fc8_fc8_0_split"
  type: "Split"
  bottom: "fc8"
  top: "fc8_fc8_0_split_0"
  top: "fc8_fc8_0_split_1"
}
layer {
  name: "accuracy"
  type: "Accuracy"
  bottom: "fc8_fc8_0_split_0"
  bottom: "label_data_1_split_0"
  top: "accuracy"
}
layer {
  name: "loss"
  type: "SoftmaxWithLoss"
  bottom: "fc8_fc8_0_split_1"
  bottom: "label_data_1_split_1"
  top: "loss"
}
I1226 07:02:46.009851 89170 cpu_info.cpp:473] Number of OpenMP threads: 66
I1226 07:02:46.010279 89170 net.cpp:500] The NetState phase (0) differed from the phase (1) specified by a rule in layer data
I1226 07:02:46.011972 89170 net.cpp:136] Initializing net from parameters: 
name: "AlexNet"
state {
  phase: TRAIN
  level: 0
  stage: ""
}
engine: "MKL2017"
layer {
  name: "data"
  type: "Data"
  top: "data"
  top: "label"
  include {
    phase: TRAIN
  }
  transform_param {
    mirror: true
    crop_size: 227
    mean_value: 104
    mean_value: 117
    mean_value: 123
  }
  data_param {
    source: "/export/data1/stanford/hazy/zjian/gorden_bell/ILSVRC2012_lmdb/db_8/ilsvrc12_train_lmdb_3"
    batch_size: 64
    backend: LMDB
  }
}
layer {
  name: "label_data_1_split"
  type: "Split"
  bottom: "label"
  top: "label_data_1_split_0"
  top: "label_data_1_split_1"
}
layer {
  name: "conv1"
  type: "Convolution"
  bottom: "data"
  top: "conv1"
  param {
    lr_mult: 1
    decay_mult: 1
  }
  param {
    lr_mult: 2
    decay_mult: 0
  }
  convolution_param {
    num_output: 96
    kernel_size: 11
    stride: 4
    weight_filler {
      type: "gaussian"
      std: 0.01
    }
    bias_filler {
      type: "constant"
      value: 0
    }
    engine: MKL2017
  }
}
layer {
  name: "relu1"
  type: "ReLU"
  bottom: "conv1"
  top: "conv1"
  relu_param {
    engine: MKL2017
  }
}
layer {
  name: "norm1"
  type: "LRN"
  bottom: "conv1"
  top: "norm1"
  lrn_param {
    local_size: 5
    alpha: 0.0001
    beta: 0.75
    engine: MKL2017
  }
}
layer {
  name: "pool1"
  type: "Pooling"
  bottom: "norm1"
  top: "pool1"
  pooling_param {
    pool: MAX
    kernel_size: 3
    stride: 2
    engine: MKL2017
  }
}
layer {
  name: "conv2"
  type: "Convolution"
  bottom: "pool1"
  top: "conv2"
  param {
    lr_mult: 1
    decay_mult: 1
  }
  param {
    lr_mult: 2
    decay_mult: 0
  }
  convolution_param {
    num_output: 256
    pad: 2
    kernel_size: 5
    group: 2
    weight_filler {
      type: "gaussian"
      std: 0.01
    }
    bias_filler {
      type: "constant"
      value: 0.1
    }
    engine: MKL2017
  }
}
layer {
  name: "relu2"
  type: "ReLU"
  bottom: "conv2"
  top: "conv2"
  relu_param {
    engine: MKL2017
  }
}
layer {
  name: "norm2"
  type: "LRN"
  bottom: "conv2"
  top: "norm2"
  lrn_param {
    local_size: 5
    alpha: 0.0001
    beta: 0.75
    engine: MKL2017
  }
}
layer {
  name: "pool2"
  type: "Pooling"
  bottom: "norm2"
  top: "pool2"
  pooling_param {
    pool: MAX
    kernel_size: 3
    stride: 2
    engine: MKL2017
  }
}
layer {
  name: "conv3"
  type: "Convolution"
  bottom: "pool2"
  top: "conv3"
  param {
    lr_mult: 1
    decay_mult: 1
  }
  param {
    lr_mult: 2
    decay_mult: 0
  }
  convolution_param {
    num_output: 384
    pad: 1
    kernel_size: 3
    weight_filler {
      type: "gaussian"
      std: 0.01
    }
    bias_filler {
      type: "constant"
      value: 0
    }
    engine: MKL2017
  }
}
layer {
  name: "relu3"
  type: "ReLU"
  bottom: "conv3"
  top: "conv3"
  relu_param {
    engine: MKL2017
  }
}
layer {
  name: "conv4"
  type: "Convolution"
  bottom: "conv3"
  top: "conv4"
  param {
    lr_mult: 1
    decay_mult: 1
  }
  param {
    lr_mult: 2
    decay_mult: 0
  }
  convolution_param {
    num_output: 384
    pad: 1
    kernel_size: 3
    group: 2
    weight_filler {
      type: "gaussian"
      std: 0.01
    }
    bias_filler {
      type: "constant"
      value: 0.1
    }
    engine: MKL2017
  }
}
layer {
  name: "relu4"
  type: "ReLU"
  bottom: "conv4"
  top: "conv4"
  relu_param {
    engine: MKL2017
  }
}
layer {
  name: "conv5"
  type: "Convolution"
  bottom: "conv4"
  top: "conv5"
  param {
    lr_mult: 1
    decay_mult: 1
  }
  param {
    lr_mult: 2
    decay_mult: 0
  }
  convolution_param {
    num_output: 256
    pad: 1
    kernel_size: 3
    group: 2
    weight_filler {
      type: "gaussian"
      std: 0.01
    }
    bias_filler {
      type: "constant"
      value: 0.1
    }
    engine: MKL2017
  }
}
layer {
  name: "relu5"
  type: "ReLU"
  bottom: "conv5"
  top: "conv5"
  relu_param {
    engine: MKL2017
  }
}
layer {
  name: "pool5"
  type: "Pooling"
  bottom: "conv5"
  top: "pool5"
  pooling_param {
    pool: MAX
    kernel_size: 3
    stride: 2
    engine: MKL2017
  }
}
layer {
  name: "fc6"
  type: "InnerProduct"
  bottom: "pool5"
  top: "fc6"
  param {
    lr_mult: 1
    decay_mult: 1
  }
  param {
    lr_mult: 2
    decay_mult: 0
  }
  inner_product_param {
    num_output: 4096
    weight_filler {
      type: "gaussian"
      std: 0.005
    }
    bias_filler {
      type: "constant"
      value: 0.1
    }
  }
}
layer {
  name: "relu6"
  type: "ReLU"
  bottom: "fc6"
  top: "fc6"
}
layer {
  name: "drop6"
  type: "Dropout"
  bottom: "fc6"
  top: "fc6"
  dropout_param {
    dropout_ratio: 0.5
  }
}
layer {
  name: "fc7"
  type: "InnerProduct"
  bottom: "fc6"
  top: "fc7"
  param {
    lr_mult: 1
    decay_mult: 1
  }
  param {
    lr_mult: 2
    decay_mult: 0
  }
  inner_product_param {
    num_output: 4096
    weight_filler {
      type: "gaussian"
      std: 0.005
    }
    bias_filler {
      type: "constant"
      value: 0.1
    }
  }
}
layer {
  name: "relu7"
  type: "ReLU"
  bottom: "fc7"
  top: "fc7"
}
layer {
  name: "drop7"
  type: "Dropout"
  bottom: "fc7"
  top: "fc7"
  dropout_param {
    dropout_ratio: 0.5
  }
}
layer {
  name: "fc8"
  type: "InnerProduct"
  bottom: "fc7"
  top: "fc8"
  param {
    lr_mult: 1
    decay_mult: 1
  }
  param {
    lr_mult: 2
    decay_mult: 0
  }
  inner_product_param {
    num_output: 1000
    weight_filler {
      type: "gaussian"
      std: 0.01
    }
    bias_filler {
      type: "constant"
      value: 0
    }
  }
}
layer {
  name: "fc8_fc8_0_split"
  type: "Split"
  bottom: "fc8"
  top: "fc8_fc8_0_split_0"
  top: "fc8_fc8_0_split_1"
}
layer {
  name: "accuracy"
  type: "Accuracy"
  bottom: "fc8_fc8_0_split_0"
  bottom: "label_data_1_split_0"
  top: "accuracy"
}
layer {
  name: "loss"
  type: "SoftmaxWithLoss"
  bottom: "fc8_fc8_0_split_1"
  bottom: "label_data_1_split_1"
  top: "loss"
}
I1226 07:02:46.013489 51587 cpu_info.cpp:473] Number of OpenMP threads: 66
I1226 07:02:46.013842 51587 net.cpp:500] The NetState phase (0) differed from the phase (1) specified by a rule in layer data
I1226 07:02:46.015554 51587 net.cpp:136] Initializing net from parameters: 
name: "AlexNet"
state {
  phase: TRAIN
  level: 0
  stage: ""
}
engine: "MKL2017"
layer {
  name: "data"
  type: "Data"
  top: "data"
  top: "label"
  include {
    phase: TRAIN
  }
  transform_param {
    mirror: true
    crop_size: 227
    mean_value: 104
    mean_value: 117
    mean_value: 123
  }
  data_param {
    source: "/export/data1/stanford/hazy/zjian/gorden_bell/ILSVRC2012_lmdb/db_8/ilsvrc12_train_lmdb_5"
    batch_size: 64
    backend: LMDB
  }
}
layer {
  name: "label_data_1_split"
  type: "Split"
  bottom: "label"
  top: "label_data_1_split_0"
  top: "label_data_1_split_1"
}
layer {
  name: "conv1"
  type: "Convolution"
  bottom: "data"
  top: "conv1"
  param {
    lr_mult: 1
    decay_mult: 1
  }
  param {
    lr_mult: 2
    decay_mult: 0
  }
  convolution_param {
    num_output: 96
    kernel_size: 11
    stride: 4
    weight_filler {
      type: "gaussian"
      std: 0.01
    }
    bias_filler {
      type: "constant"
      value: 0
    }
    engine: MKL2017
  }
}
layer {
  name: "relu1"
  type: "ReLU"
  bottom: "conv1"
  top: "conv1"
  relu_param {
    engine: MKL2017
  }
}
layer {
  name: "norm1"
  type: "LRN"
  bottom: "conv1"
  top: "norm1"
  lrn_param {
    local_size: 5
    alpha: 0.0001
    beta: 0.75
    engine: MKL2017
  }
}
layer {
  name: "pool1"
  type: "Pooling"
  bottom: "norm1"
  top: "pool1"
  pooling_param {
    pool: MAX
    kernel_size: 3
    stride: 2
    engine: MKL2017
  }
}
layer {
  name: "conv2"
  type: "Convolution"
  bottom: "pool1"
  top: "conv2"
  param {
    lr_mult: 1
    decay_mult: 1
  }
  param {
    lr_mult: 2
    decay_mult: 0
  }
  convolution_param {
    num_output: 256
    pad: 2
    kernel_size: 5
    group: 2
    weight_filler {
      type: "gaussian"
      std: 0.01
    }
    bias_filler {
      type: "constant"
      value: 0.1
    }
    engine: MKL2017
  }
}
layer {
  name: "relu2"
  type: "ReLU"
  bottom: "conv2"
  top: "conv2"
  relu_param {
    engine: MKL2017
  }
}
layer {
  name: "norm2"
  type: "LRN"
  bottom: "conv2"
  top: "norm2"
  lrn_param {
    local_size: 5
    alpha: 0.0001
    beta: 0.75
    engine: MKL2017
  }
}
layer {
  name: "pool2"
  type: "Pooling"
  bottom: "norm2"
  top: "pool2"
  pooling_param {
    pool: MAX
    kernel_size: 3
    stride: 2
    engine: MKL2017
  }
}
layer {
  name: "conv3"
  type: "Convolution"
  bottom: "pool2"
  top: "conv3"
  param {
    lr_mult: 1
    decay_mult: 1
  }
  param {
    lr_mult: 2
    decay_mult: 0
  }
  convolution_param {
    num_output: 384
    pad: 1
    kernel_size: 3
    weight_filler {
      type: "gaussian"
      std: 0.01
    }
    bias_filler {
      type: "constant"
      value: 0
    }
    engine: MKL2017
  }
}
layer {
  name: "relu3"
  type: "ReLU"
  bottom: "conv3"
  top: "conv3"
  relu_param {
    engine: MKL2017
  }
}
layer {
  name: "conv4"
  type: "Convolution"
  bottom: "conv3"
  top: "conv4"
  param {
    lr_mult: 1
    decay_mult: 1
  }
  param {
    lr_mult: 2
    decay_mult: 0
  }
  convolution_param {
    num_output: 384
    pad: 1
    kernel_size: 3
    group: 2
    weight_filler {
      type: "gaussian"
      std: 0.01
    }
    bias_filler {
      type: "constant"
      value: 0.1
    }
    engine: MKL2017
  }
}
layer {
  name: "relu4"
  type: "ReLU"
  bottom: "conv4"
  top: "conv4"
  relu_param {
    engine: MKL2017
  }
}
layer {
  name: "conv5"
  type: "Convolution"
  bottom: "conv4"
  top: "conv5"
  param {
    lr_mult: 1
    decay_mult: 1
  }
  param {
    lr_mult: 2
    decay_mult: 0
  }
  convolution_param {
    num_output: 256
    pad: 1
    kernel_size: 3
    group: 2
    weight_filler {
      type: "gaussian"
      std: 0.01
    }
    bias_filler {
      type: "constant"
      value: 0.1
    }
    engine: MKL2017
  }
}
layer {
  name: "relu5"
  type: "ReLU"
  bottom: "conv5"
  top: "conv5"
  relu_param {
    engine: MKL2017
  }
}
layer {
  name: "pool5"
  type: "Pooling"
  bottom: "conv5"
  top: "pool5"
  pooling_param {
    pool: MAX
    kernel_size: 3
    stride: 2
    engine: MKL2017
  }
}
layer {
  name: "fc6"
  type: "InnerProduct"
  bottom: "pool5"
  top: "fc6"
  param {
    lr_mult: 1
    decay_mult: 1
  }
  param {
    lr_mult: 2
    decay_mult: 0
  }
  inner_product_param {
    num_output: 4096
    weight_filler {
      type: "gaussian"
      std: 0.005
    }
    bias_filler {
      type: "constant"
      value: 0.1
    }
  }
}
layer {
  name: "relu6"
  type: "ReLU"
  bottom: "fc6"
  top: "fc6"
}
layer {
  name: "drop6"
  type: "Dropout"
  bottom: "fc6"
  top: "fc6"
  dropout_param {
    dropout_ratio: 0.5
  }
}
layer {
  name: "fc7"
  type: "InnerProduct"
  bottom: "fc6"
  top: "fc7"
  param {
    lr_mult: 1
    decay_mult: 1
  }
  param {
    lr_mult: 2
    decay_mult: 0
  }
  inner_product_param {
    num_output: 4096
    weight_filler {
      type: "gaussian"
      std: 0.005
    }
    bias_filler {
      type: "constant"
      value: 0.1
    }
  }
}
layer {
  name: "relu7"
  type: "ReLU"
  bottom: "fc7"
  top: "fc7"
}
layer {
  name: "drop7"
  type: "Dropout"
  bottom: "fc7"
  top: "fc7"
  dropout_param {
    dropout_ratio: 0.5
  }
}
layer {
  name: "fc8"
  type: "InnerProduct"
  bottom: "fc7"
  top: "fc8"
  param {
    lr_mult: 1
    decay_mult: 1
  }
  param {
    lr_mult: 2
    decay_mult: 0
  }
  inner_product_param {
    num_output: 1000
    weight_filler {
      type: "gaussian"
      std: 0.01
    }
    bias_filler {
      type: "constant"
      value: 0
    }
  }
}
layer {
  name: "fc8_fc8_0_split"
  type: "Split"
  bottom: "fc8"
  top: "fc8_fc8_0_split_0"
  top: "fc8_fc8_0_split_1"
}
layer {
  name: "accuracy"
  type: "Accuracy"
  bottom: "fc8_fc8_0_split_0"
  bottom: "label_data_1_split_0"
  top: "accuracy"
}
layer {
  name: "loss"
  type: "SoftmaxWithLoss"
  bottom: "fc8_fc8_0_split_1"
  bottom: "label_data_1_split_1"
  top: "loss"
}
I1226 07:02:46.020583 90546 layer_factory.hpp:114] Creating layer data
I1226 07:02:46.023721 89165 cpu_info.cpp:473] Number of OpenMP threads: 66
I1226 07:02:46.024081 89165 net.cpp:500] The NetState phase (0) differed from the phase (1) specified by a rule in layer data
I1226 07:02:46.019434 93507 net.cpp:178] Creating Layer data
I1226 07:02:46.019562 93507 net.cpp:586] data -> data
I1226 07:02:46.019757 93507 net.cpp:586] data -> label
I1226 07:02:46.026602 89165 net.cpp:136] Initializing net from parameters: 
name: "AlexNet"
state {
  phase: TRAIN
  level: 0
  stage: ""
}
engine: "MKL2017"
layer {
  name: "data"
  type: "Data"
  top: "data"
  top: "label"
  include {
    phase: TRAIN
  }
  transform_param {
    mirror: true
    crop_size: 227
    mean_value: 104
    mean_value: 117
    mean_value: 123
  }
  data_param {
    source: "/export/data1/stanford/hazy/zjian/gorden_bell/ILSVRC2012_lmdb/db_8/ilsvrc12_train_lmdb_4"
    batch_size: 64
    backend: LMDB
  }
}
layer {
  name: "label_data_1_split"
  type: "Split"
  bottom: "label"
  top: "label_data_1_split_0"
  top: "label_data_1_split_1"
}
layer {
  name: "conv1"
  type: "Convolution"
  bottom: "data"
  top: "conv1"
  param {
    lr_mult: 1
    decay_mult: 1
  }
  param {
    lr_mult: 2
    decay_mult: 0
  }
  convolution_param {
    num_output: 96
    kernel_size: 11
    stride: 4
    weight_filler {
      type: "gaussian"
      std: 0.01
    }
    bias_filler {
      type: "constant"
      value: 0
    }
    engine: MKL2017
  }
}
layer {
  name: "relu1"
  type: "ReLU"
  bottom: "conv1"
  top: "conv1"
  relu_param {
    engine: MKL2017
  }
}
layer {
  name: "norm1"
  type: "LRN"
  bottom: "conv1"
  top: "norm1"
  lrn_param {
    local_size: 5
    alpha: 0.0001
    beta: 0.75
    engine: MKL2017
  }
}
layer {
  name: "pool1"
  type: "Pooling"
  bottom: "norm1"
  top: "pool1"
  pooling_param {
    pool: MAX
    kernel_size: 3
    stride: 2
    engine: MKL2017
  }
}
layer {
  name: "conv2"
  type: "Convolution"
  bottom: "pool1"
  top: "conv2"
  param {
    lr_mult: 1
    decay_mult: 1
  }
  param {
    lr_mult: 2
    decay_mult: 0
  }
  convolution_param {
    num_output: 256
    pad: 2
    kernel_size: 5
    group: 2
    weight_filler {
      type: "gaussian"
      std: 0.01
    }
    bias_filler {
      type: "constant"
      value: 0.1
    }
    engine: MKL2017
  }
}
layer {
  name: "relu2"
  type: "ReLU"
  bottom: "conv2"
  top: "conv2"
  relu_param {
    engine: MKL2017
  }
}
layer {
  name: "norm2"
  type: "LRN"
  bottom: "conv2"
  top: "norm2"
  lrn_param {
    local_size: 5
    alpha: 0.0001
    beta: 0.75
    engine: MKL2017
  }
}
layer {
  name: "pool2"
  type: "Pooling"
  bottom: "norm2"
  top: "pool2"
  pooling_param {
    pool: MAX
    kernel_size: 3
    stride: 2
    engine: MKL2017
  }
}
layer {
  name: "conv3"
  type: "Convolution"
  bottom: "pool2"
  top: "conv3"
  param {
    lr_mult: 1
    decay_mult: 1
  }
  param {
    lr_mult: 2
    decay_mult: 0
  }
  convolution_param {
    num_output: 384
    pad: 1
    kernel_size: 3
    weight_filler {
      type: "gaussian"
      std: 0.01
    }
    bias_filler {
      type: "constant"
      value: 0
    }
    engine: MKL2017
  }
}
layer {
  name: "relu3"
  type: "ReLU"
  bottom: "conv3"
  top: "conv3"
  relu_param {
    engine: MKL2017
  }
}
layer {
  name: "conv4"
  type: "Convolution"
  bottom: "conv3"
  top: "conv4"
  param {
    lr_mult: 1
    decay_mult: 1
  }
  param {
    lr_mult: 2
    decay_mult: 0
  }
  convolution_param {
    num_output: 384
    pad: 1
    kernel_size: 3
    group: 2
    weight_filler {
      type: "gaussian"
      std: 0.01
    }
    bias_filler {
      type: "constant"
      value: 0.1
    }
    engine: MKL2017
  }
}
layer {
  name: "relu4"
  type: "ReLU"
  bottom: "conv4"
  top: "conv4"
  relu_param {
    engine: MKL2017
  }
}
layer {
  name: "conv5"
  type: "Convolution"
  bottom: "conv4"
  top: "conv5"
  param {
    lr_mult: 1
    decay_mult: 1
  }
  param {
    lr_mult: 2
    decay_mult: 0
  }
  convolution_param {
    num_output: 256
    pad: 1
    kernel_size: 3
    group: 2
    weight_filler {
      type: "gaussian"
      std: 0.01
    }
    bias_filler {
      type: "constant"
      value: 0.1
    }
    engine: MKL2017
  }
}
layer {
  name: "relu5"
  type: "ReLU"
  bottom: "conv5"
  top: "conv5"
  relu_param {
    engine: MKL2017
  }
}
layer {
  name: "pool5"
  type: "Pooling"
  bottom: "conv5"
  top: "pool5"
  pooling_param {
    pool: MAX
    kernel_size: 3
    stride: 2
    engine: MKL2017
  }
}
layer {
  name: "fc6"
  type: "InnerProduct"
  bottom: "pool5"
  top: "fc6"
  param {
    lr_mult: 1
    decay_mult: 1
  }
  param {
    lr_mult: 2
    decay_mult: 0
  }
  inner_product_param {
    num_output: 4096
    weight_filler {
      type: "gaussian"
      std: 0.005
    }
    bias_filler {
      type: "constant"
      value: 0.1
    }
  }
}
layer {
  name: "relu6"
  type: "ReLU"
  bottom: "fc6"
  top: "fc6"
}
layer {
  name: "drop6"
  type: "Dropout"
  bottom: "fc6"
  top: "fc6"
  dropout_param {
    dropout_ratio: 0.5
  }
}
layer {
  name: "fc7"
  type: "InnerProduct"
  bottom: "fc6"
  top: "fc7"
  param {
    lr_mult: 1
    decay_mult: 1
  }
  param {
    lr_mult: 2
    decay_mult: 0
  }
  inner_product_param {
    num_output: 4096
    weight_filler {
      type: "gaussian"
      std: 0.005
    }
    bias_filler {
      type: "constant"
      value: 0.1
    }
  }
}
layer {
  name: "relu7"
  type: "ReLU"
  bottom: "fc7"
  top: "fc7"
}
layer {
  name: "drop7"
  type: "Dropout"
  bottom: "fc7"
  top: "fc7"
  dropout_param {
    dropout_ratio: 0.5
  }
}
layer {
  name: "fc8"
  type: "InnerProduct"
  bottom: "fc7"
  top: "fc8"
  param {
    lr_mult: 1
    decay_mult: 1
  }
  param {
    lr_mult: 2
    decay_mult: 0
  }
  inner_product_param {
    num_output: 1000
    weight_filler {
      type: "gaussian"
      std: 0.01
    }
    bias_filler {
      type: "constant"
      value: 0
    }
  }
}
layer {
  name: "fc8_fc8_0_split"
  type: "Split"
  bottom: "fc8"
  top: "fc8_fc8_0_split_0"
  top: "fc8_fc8_0_split_1"
}
layer {
  name: "accuracy"
  type: "Accuracy"
  bottom: "fc8_fc8_0_split_0"
  bottom: "label_data_1_split_0"
  top: "accuracy"
}
layer {
  name: "loss"
  type: "SoftmaxWithLoss"
  bottom: "fc8_fc8_0_split_1"
  bottom: "label_data_1_split_1"
  top: "loss"
}
I1226 07:02:46.023919 89377 cpu_info.cpp:473] Number of OpenMP threads: 66
I1226 07:02:46.024262 89377 net.cpp:500] The NetState phase (0) differed from the phase (1) specified by a rule in layer data
I1226 07:02:46.019726 96083 layer_factory.hpp:114] Creating layer data
I1226 07:02:46.019871 96083 net.cpp:178] Creating Layer data
I1226 07:02:46.019919 96083 net.cpp:586] data -> data
I1226 07:02:46.020009 96083 net.cpp:586] data -> label
I1226 07:02:46.026186 89377 net.cpp:136] Initializing net from parameters: 
name: "AlexNet"
state {
  phase: TRAIN
  level: 0
  stage: ""
}
engine: "MKL2017"
layer {
  name: "data"
  type: "Data"
  top: "data"
  top: "label"
  include {
    phase: TRAIN
  }
  transform_param {
    mirror: true
    crop_size: 227
    mean_value: 104
    mean_value: 117
    mean_value: 123
  }
  data_param {
    source: "/export/data1/stanford/hazy/zjian/gorden_bell/ILSVRC2012_lmdb/db_8/ilsvrc12_train_lmdb_1"
    batch_size: 64
    backend: LMDB
  }
}
layer {
  name: "label_data_1_split"
  type: "Split"
  bottom: "label"
  top: "label_data_1_split_0"
  top: "label_data_1_split_1"
}
layer {
  name: "conv1"
  type: "Convolution"
  bottom: "data"
  top: "conv1"
  param {
    lr_mult: 1
    decay_mult: 1
  }
  param {
    lr_mult: 2
    decay_mult: 0
  }
  convolution_param {
    num_output: 96
    kernel_size: 11
    stride: 4
    weight_filler {
      type: "gaussian"
      std: 0.01
    }
    bias_filler {
      type: "constant"
      value: 0
    }
    engine: MKL2017
  }
}
layer {
  name: "relu1"
  type: "ReLU"
  bottom: "conv1"
  top: "conv1"
  relu_param {
    engine: MKL2017
  }
}
layer {
  name: "norm1"
  type: "LRN"
  bottom: "conv1"
  top: "norm1"
  lrn_param {
    local_size: 5
    alpha: 0.0001
    beta: 0.75
    engine: MKL2017
  }
}
layer {
  name: "pool1"
  type: "Pooling"
  bottom: "norm1"
  top: "pool1"
  pooling_param {
    pool: MAX
    kernel_size: 3
    stride: 2
    engine: MKL2017
  }
}
layer {
  name: "conv2"
  type: "Convolution"
  bottom: "pool1"
  top: "conv2"
  param {
    lr_mult: 1
    decay_mult: 1
  }
  param {
    lr_mult: 2
    decay_mult: 0
  }
  convolution_param {
    num_output: 256
    pad: 2
    kernel_size: 5
    group: 2
    weight_filler {
      type: "gaussian"
      std: 0.01
    }
    bias_filler {
      type: "constant"
      value: 0.1
    }
    engine: MKL2017
  }
}
layer {
  name: "relu2"
  type: "ReLU"
  bottom: "conv2"
  top: "conv2"
  relu_param {
    engine: MKL2017
  }
}
layer {
  name: "norm2"
  type: "LRN"
  bottom: "conv2"
  top: "norm2"
  lrn_param {
    local_size: 5
    alpha: 0.0001
    beta: 0.75
    engine: MKL2017
  }
}
layer {
  name: "pool2"
  type: "Pooling"
  bottom: "norm2"
  top: "pool2"
  pooling_param {
    pool: MAX
    kernel_size: 3
    stride: 2
    engine: MKL2017
  }
}
layer {
  name: "conv3"
  type: "Convolution"
  bottom: "pool2"
  top: "conv3"
  param {
    lr_mult: 1
    decay_mult: 1
  }
  param {
    lr_mult: 2
    decay_mult: 0
  }
  convolution_param {
    num_output: 384
    pad: 1
    kernel_size: 3
    weight_filler {
      type: "gaussian"
      std: 0.01
    }
    bias_filler {
      type: "constant"
      value: 0
    }
    engine: MKL2017
  }
}
layer {
  name: "relu3"
  type: "ReLU"
  bottom: "conv3"
  top: "conv3"
  relu_param {
    engine: MKL2017
  }
}
layer {
  name: "conv4"
  type: "Convolution"
  bottom: "conv3"
  top: "conv4"
  param {
    lr_mult: 1
    decay_mult: 1
  }
  param {
    lr_mult: 2
    decay_mult: 0
  }
  convolution_param {
    num_output: 384
    pad: 1
    kernel_size: 3
    group: 2
    weight_filler {
      type: "gaussian"
      std: 0.01
    }
    bias_filler {
      type: "constant"
      value: 0.1
    }
    engine: MKL2017
  }
}
layer {
  name: "relu4"
  type: "ReLU"
  bottom: "conv4"
  top: "conv4"
  relu_param {
    engine: MKL2017
  }
}
layer {
  name: "conv5"
  type: "Convolution"
  bottom: "conv4"
  top: "conv5"
  param {
    lr_mult: 1
    decay_mult: 1
  }
  param {
    lr_mult: 2
    decay_mult: 0
  }
  convolution_param {
    num_output: 256
    pad: 1
    kernel_size: 3
    group: 2
    weight_filler {
      type: "gaussian"
      std: 0.01
    }
    bias_filler {
      type: "constant"
      value: 0.1
    }
    engine: MKL2017
  }
}
layer {
  name: "relu5"
  type: "ReLU"
  bottom: "conv5"
  top: "conv5"
  relu_param {
    engine: MKL2017
  }
}
layer {
  name: "pool5"
  type: "Pooling"
  bottom: "conv5"
  top: "pool5"
  pooling_param {
    pool: MAX
    kernel_size: 3
    stride: 2
    engine: MKL2017
  }
}
layer {
  name: "fc6"
  type: "InnerProduct"
  bottom: "pool5"
  top: "fc6"
  param {
    lr_mult: 1
    decay_mult: 1
  }
  param {
    lr_mult: 2
    decay_mult: 0
  }
  inner_product_param {
    num_output: 4096
    weight_filler {
      type: "gaussian"
      std: 0.005
    }
    bias_filler {
      type: "constant"
      value: 0.1
    }
  }
}
layer {
  name: "relu6"
  type: "ReLU"
  bottom: "fc6"
  top: "fc6"
}
layer {
  name: "drop6"
  type: "Dropout"
  bottom: "fc6"
  top: "fc6"
  dropout_param {
    dropout_ratio: 0.5
  }
}
layer {
  name: "fc7"
  type: "InnerProduct"
  bottom: "fc6"
  top: "fc7"
  param {
    lr_mult: 1
    decay_mult: 1
  }
  param {
    lr_mult: 2
    decay_mult: 0
  }
  inner_product_param {
    num_output: 4096
    weight_filler {
      type: "gaussian"
      std: 0.005
    }
    bias_filler {
      type: "constant"
      value: 0.1
    }
  }
}
layer {
  name: "relu7"
  type: "ReLU"
  bottom: "fc7"
  top: "fc7"
}
layer {
  name: "drop7"
  type: "Dropout"
  bottom: "fc7"
  top: "fc7"
  dropout_param {
    dropout_ratio: 0.5
  }
}
layer {
  name: "fc8"
  type: "InnerProduct"
  bottom: "fc7"
  top: "fc8"
  param {
    lr_mult: 1
    decay_mult: 1
  }
  param {
    lr_mult: 2
    decay_mult: 0
  }
  inner_product_param {
    num_output: 1000
    weight_filler {
      type: "gaussian"
      std: 0.01
    }
    bias_filler {
      type: "constant"
      value: 0
    }
  }
}
layer {
  name: "fc8_fc8_0_split"
  type: "Split"
  bottom: "fc8"
  top: "fc8_fc8_0_split_0"
  top: "fc8_fc8_0_split_1"
}
layer {
  name: "accuracy"
  type: "Accuracy"
  bottom: "fc8_fc8_0_split_0"
  bottom: "label_data_1_split_0"
  top: "accuracy"
}
layer {
  name: "loss"
  type: "SoftmaxWithLoss"
  bottom: "fc8_fc8_0_split_1"
  bottom: "label_data_1_split_1"
  top: "loss"
}
I1226 07:02:46.044180 88126 layer_factory.hpp:114] Creating layer data
I1226 07:02:46.044819 90546 net.cpp:178] Creating Layer data
I1226 07:02:46.044926 90546 net.cpp:586] data -> data
I1226 07:02:46.045011 90546 net.cpp:586] data -> label
I1226 07:02:46.050832 89165 layer_factory.hpp:114] Creating layer data
I1226 07:02:46.054865 89451 cpu_info.cpp:473] Number of OpenMP threads: 66
I1226 07:02:46.055210 89451 net.cpp:500] The NetState phase (0) differed from the phase (1) specified by a rule in layer data
I1226 07:02:46.056879 89451 net.cpp:136] Initializing net from parameters: 
name: "AlexNet"
state {
  phase: TRAIN
  level: 0
  stage: ""
}
engine: "MKL2017"
layer {
  name: "data"
  type: "Data"
  top: "data"
  top: "label"
  include {
    phase: TRAIN
  }
  transform_param {
    mirror: true
    crop_size: 227
    mean_value: 104
    mean_value: 117
    mean_value: 123
  }
  data_param {
    source: "/export/data1/stanford/hazy/zjian/gorden_bell/ILSVRC2012_lmdb/db_8/ilsvrc12_train_lmdb_2"
    batch_size: 64
    backend: LMDB
  }
}
layer {
  name: "label_data_1_split"
  type: "Split"
  bottom: "label"
  top: "label_data_1_split_0"
  top: "label_data_1_split_1"
}
layer {
  name: "conv1"
  type: "Convolution"
  bottom: "data"
  top: "conv1"
  param {
    lr_mult: 1
    decay_mult: 1
  }
  param {
    lr_mult: 2
    decay_mult: 0
  }
  convolution_param {
    num_output: 96
    kernel_size: 11
    stride: 4
    weight_filler {
      type: "gaussian"
      std: 0.01
    }
    bias_filler {
      type: "constant"
      value: 0
    }
    engine: MKL2017
  }
}
layer {
  name: "relu1"
  type: "ReLU"
  bottom: "conv1"
  top: "conv1"
  relu_param {
    engine: MKL2017
  }
}
layer {
  name: "norm1"
  type: "LRN"
  bottom: "conv1"
  top: "norm1"
  lrn_param {
    local_size: 5
    alpha: 0.0001
    beta: 0.75
    engine: MKL2017
  }
}
layer {
  name: "pool1"
  type: "Pooling"
  bottom: "norm1"
  top: "pool1"
  pooling_param {
    pool: MAX
    kernel_size: 3
    stride: 2
    engine: MKL2017
  }
}
layer {
  name: "conv2"
  type: "Convolution"
  bottom: "pool1"
  top: "conv2"
  param {
    lr_mult: 1
    decay_mult: 1
  }
  param {
    lr_mult: 2
    decay_mult: 0
  }
  convolution_param {
    num_output: 256
    pad: 2
    kernel_size: 5
    group: 2
    weight_filler {
      type: "gaussian"
      std: 0.01
    }
    bias_filler {
      type: "constant"
      value: 0.1
    }
    engine: MKL2017
  }
}
layer {
  name: "relu2"
  type: "ReLU"
  bottom: "conv2"
  top: "conv2"
  relu_param {
    engine: MKL2017
  }
}
layer {
  name: "norm2"
  type: "LRN"
  bottom: "conv2"
  top: "norm2"
  lrn_param {
    local_size: 5
    alpha: 0.0001
    beta: 0.75
    engine: MKL2017
  }
}
layer {
  name: "pool2"
  type: "Pooling"
  bottom: "norm2"
  top: "pool2"
  pooling_param {
    pool: MAX
    kernel_size: 3
    stride: 2
    engine: MKL2017
  }
}
layer {
  name: "conv3"
  type: "Convolution"
  bottom: "pool2"
  top: "conv3"
  param {
    lr_mult: 1
    decay_mult: 1
  }
  param {
    lr_mult: 2
    decay_mult: 0
  }
  convolution_param {
    num_output: 384
    pad: 1
    kernel_size: 3
    weight_filler {
      type: "gaussian"
      std: 0.01
    }
    bias_filler {
      type: "constant"
      value: 0
    }
    engine: MKL2017
  }
}
layer {
  name: "relu3"
  type: "ReLU"
  bottom: "conv3"
  top: "conv3"
  relu_param {
    engine: MKL2017
  }
}
layer {
  name: "conv4"
  type: "Convolution"
  bottom: "conv3"
  top: "conv4"
  param {
    lr_mult: 1
    decay_mult: 1
  }
  param {
    lr_mult: 2
    decay_mult: 0
  }
  convolution_param {
    num_output: 384
    pad: 1
    kernel_size: 3
    group: 2
    weight_filler {
      type: "gaussian"
      std: 0.01
    }
    bias_filler {
      type: "constant"
      value: 0.1
    }
    engine: MKL2017
  }
}
layer {
  name: "relu4"
  type: "ReLU"
  bottom: "conv4"
  top: "conv4"
  relu_param {
    engine: MKL2017
  }
}
layer {
  name: "conv5"
  type: "Convolution"
  bottom: "conv4"
  top: "conv5"
  param {
    lr_mult: 1
    decay_mult: 1
  }
  param {
    lr_mult: 2
    decay_mult: 0
  }
  convolution_param {
    num_output: 256
    pad: 1
    kernel_size: 3
    group: 2
    weight_filler {
      type: "gaussian"
      std: 0.01
    }
    bias_filler {
      type: "constant"
      value: 0.1
    }
    engine: MKL2017
  }
}
layer {
  name: "relu5"
  type: "ReLU"
  bottom: "conv5"
  top: "conv5"
  relu_param {
    engine: MKL2017
  }
}
layer {
  name: "pool5"
  type: "Pooling"
  bottom: "conv5"
  top: "pool5"
  pooling_param {
    pool: MAX
    kernel_size: 3
    stride: 2
    engine: MKL2017
  }
}
layer {
  name: "fc6"
  type: "InnerProduct"
  bottom: "pool5"
  top: "fc6"
  param {
    lr_mult: 1
    decay_mult: 1
  }
  param {
    lr_mult: 2
    decay_mult: 0
  }
  inner_product_param {
    num_output: 4096
    weight_filler {
      type: "gaussian"
      std: 0.005
    }
    bias_filler {
      type: "constant"
      value: 0.1
    }
  }
}
layer {
  name: "relu6"
  type: "ReLU"
  bottom: "fc6"
  top: "fc6"
}
layer {
  name: "drop6"
  type: "Dropout"
  bottom: "fc6"
  top: "fc6"
  dropout_param {
    dropout_ratio: 0.5
  }
}
layer {
  name: "fc7"
  type: "InnerProduct"
  bottom: "fc6"
  top: "fc7"
  param {
    lr_mult: 1
    decay_mult: 1
  }
  param {
    lr_mult: 2
    decay_mult: 0
  }
  inner_product_param {
    num_output: 4096
    weight_filler {
      type: "gaussian"
      std: 0.005
    }
    bias_filler {
      type: "constant"
      value: 0.1
    }
  }
}
layer {
  name: "relu7"
  type: "ReLU"
  bottom: "fc7"
  top: "fc7"
}
layer {
  name: "drop7"
  type: "Dropout"
  bottom: "fc7"
  top: "fc7"
  dropout_param {
    dropout_ratio: 0.5
  }
}
layer {
  name: "fc8"
  type: "InnerProduct"
  bottom: "fc7"
  top: "fc8"
  param {
    lr_mult: 1
    decay_mult: 1
  }
  param {
    lr_mult: 2
    decay_mult: 0
  }
  inner_product_param {
    num_output: 1000
    weight_filler {
      type: "gaussian"
      std: 0.01
    }
    bias_filler {
      type: "constant"
      value: 0
    }
  }
}
layer {
  name: "fc8_fc8_0_split"
  type: "Split"
  bottom: "fc8"
  top: "fc8_fc8_0_split_0"
  top: "fc8_fc8_0_split_1"
}
layer {
  name: "accuracy"
  type: "Accuracy"
  bottom: "fc8_fc8_0_split_0"
  bottom: "label_data_1_split_0"
  top: "accuracy"
}
layer {
  name: "loss"
  type: "SoftmaxWithLoss"
  bottom: "fc8_fc8_0_split_1"
  bottom: "label_data_1_split_1"
  top: "loss"
}
I1226 07:02:46.060396 88126 net.cpp:178] Creating Layer data
I1226 07:02:46.060487 88126 net.cpp:586] data -> data
I1226 07:02:46.060607 88126 net.cpp:586] data -> label
I1226 07:02:46.059483 89170 layer_factory.hpp:114] Creating layer data
I1226 07:02:46.061329 93509 db_lmdb.cpp:72] Opened lmdb /export/data1/stanford/hazy/zjian/gorden_bell/ILSVRC2012_lmdb/db_8/ilsvrc12_train_lmdb_7
I1226 07:02:46.066445 89165 net.cpp:178] Creating Layer data
I1226 07:02:46.066541 89165 net.cpp:586] data -> data
I1226 07:02:46.066619 89165 net.cpp:586] data -> label
I1226 07:02:46.065289 89377 layer_factory.hpp:114] Creating layer data
I1226 07:02:46.064649 51587 layer_factory.hpp:114] Creating layer data
I1226 07:02:46.068727 93507 data_layer.cpp:80] output data size: 64,3,227,227
I1226 07:02:46.079874 89170 net.cpp:178] Creating Layer data
I1226 07:02:46.081848 89377 net.cpp:178] Creating Layer data
I1226 07:02:46.081946 89377 net.cpp:586] data -> data
I1226 07:02:46.079972 89170 net.cpp:586] data -> data
I1226 07:02:46.082029 89377 net.cpp:586] data -> label
I1226 07:02:46.080045 89170 net.cpp:586] data -> label
I1226 07:02:46.077922 96083 net.cpp:228] Setting up data
I1226 07:02:46.078027 96083 net.cpp:235] Top shape: 64 3 227 227 (9893568)
I1226 07:02:46.078059 96083 net.cpp:235] Top shape: 64 1 1 1 (64)
I1226 07:02:46.078137 96083 net.cpp:243] Memory required for data: 39574528
I1226 07:02:46.078174 96083 layer_factory.hpp:114] Creating layer label_data_1_split
I1226 07:02:46.078263 96083 net.cpp:178] Creating Layer label_data_1_split
I1226 07:02:46.078294 96083 net.cpp:612] label_data_1_split <- label
I1226 07:02:46.078472 96083 net.cpp:586] label_data_1_split -> label_data_1_split_0
I1226 07:02:46.078519 96083 net.cpp:586] label_data_1_split -> label_data_1_split_1
I1226 07:02:46.085840 51587 net.cpp:178] Creating Layer data
I1226 07:02:46.085925 51587 net.cpp:586] data -> data
I1226 07:02:46.086021 51587 net.cpp:586] data -> label
I1226 07:02:46.090270 90550 db_lmdb.cpp:72] Opened lmdb /export/data1/stanford/hazy/zjian/gorden_bell/ILSVRC2012_lmdb/db_8/ilsvrc12_train_lmdb_0
I1226 07:02:46.096140 89451 layer_factory.hpp:114] Creating layer data
I1226 07:02:46.089284 96083 net.cpp:228] Setting up label_data_1_split
I1226 07:02:46.089411 96083 net.cpp:235] Top shape: 64 1 1 1 (64)
I1226 07:02:46.089442 96083 net.cpp:235] Top shape: 64 1 1 1 (64)
I1226 07:02:46.089462 96083 net.cpp:243] Memory required for data: 39575040
I1226 07:02:46.089524 96083 layer_factory.hpp:114] Creating layer conv1
I1226 07:02:46.089612 96083 net.cpp:178] Creating Layer conv1
I1226 07:02:46.089644 96083 net.cpp:612] conv1 <- data
I1226 07:02:46.089691 96083 net.cpp:586] conv1 -> conv1
I1226 07:02:46.104967 89451 net.cpp:178] Creating Layer data
I1226 07:02:46.105057 89451 net.cpp:586] data -> data
…
I1226 07:02:46.144481 88126 data_layer.cpp:80] output data size: 64,3,227,227
I1226 07:02:46.152760 89453 db_lmdb.cpp:72] Opened lmdb /export/data1/stanford/hazy/zjian/gorden_bell/ILSVRC2012_lmdb/db_8/ilsvrc12_train_lmdb_2
I1226 07:02:46.154047 89377 data_layer.cpp:80] output data size: 64,3,227,227
I1226 07:02:46.167791 51587 data_layer.cpp:80] output data size: 64,3,227,227
I1226 07:02:46.172063 89170 data_layer.cpp:80] output data size: 64,3,227,227
I1226 07:02:46.183464 89451 data_layer.cpp:80] output data size: 64,3,227,227
I1226 07:02:46.208315 90546 net.cpp:228] Setting up data
I1226 07:02:46.208745 90546 net.cpp:235] Top shape: 64 3 227 227 (9893568)
I1226 07:02:46.208827 90546 net.cpp:235] Top shape: 64 (64)
I1226 07:02:46.208861 90546 net.cpp:243] Memory required for data: 39574528
I1226 07:02:46.208906 90546 layer_factory.hpp:114] Creating layer label_data_1_split
I1226 07:02:46.209048 90546 net.cpp:178] Creating Layer label_data_1_split
I1226 07:02:46.209236 90546 net.cpp:612] label_data_1_split <- label
I1226 07:02:46.209300 90546 net.cpp:586] label_data_1_split -> label_data_1_split_0
I1226 07:02:46.209359 90546 net.cpp:586] label_data_1_split -> label_data_1_split_1
I1226 07:02:46.223906 90546 net.cpp:228] Setting up label_data_1_split
I1226 07:02:46.224015 90546 net.cpp:235] Top shape: 64 (64)
I1226 07:02:46.224053 90546 net.cpp:235] Top shape: 64 (64)
I1226 07:02:46.224078 90546 net.cpp:243] Memory required for data: 39575040
I1226 07:02:46.224114 90546 layer_factory.hpp:114] Creating layer conv1
I1226 07:02:46.224236 90546 net.cpp:178] Creating Layer conv1
I1226 07:02:46.224292 90546 net.cpp:612] conv1 <- data
I1226 07:02:46.224341 90546 net.cpp:586] conv1 -> conv1
I1226 07:02:46.227145 89165 net.cpp:228] Setting up data
I1226 07:02:46.227279 89165 net.cpp:235] Top shape: 64 3 227 227 (9893568)
I1226 07:02:46.227319 89165 net.cpp:235] Top shape: 64 (64)
I1226 07:02:46.227344 89165 net.cpp:243] Memory required for data: 39574528
I1226 07:02:46.227382 89165 layer_factory.hpp:114] Creating layer label_data_1_split
I1226 07:02:46.227463 89165 net.cpp:178] Creating Layer label_data_1_split
I1226 07:02:46.227586 89165 net.cpp:612] label_data_1_split <- label
I1226 07:02:46.227638 89165 net.cpp:586] label_data_1_split -> label_data_1_split_0
I1226 07:02:46.227685 89165 net.cpp:586] label_data_1_split -> label_data_1_split_1
I1226 07:02:46.239141 89165 net.cpp:228] Setting up label_data_1_split
I1226 07:02:46.239269 89165 net.cpp:235] Top shape: 64 (64)
I1226 07:02:46.239302 89165 net.cpp:235] Top shape: 64 (64)
I1226 07:02:46.239326 89165 net.cpp:243] Memory required for data: 39575040
I1226 07:02:46.239362 89165 layer_factory.hpp:114] Creating layer conv1
I1226 07:02:46.239491 89165 net.cpp:178] Creating Layer conv1
I1226 07:02:46.239549 89165 net.cpp:612] conv1 <- data
I1226 07:02:46.239593 89165 net.cpp:586] conv1 -> conv1
I1226 07:02:46.250471 88126 net.cpp:228] Setting up data
I1226 07:02:46.250615 88126 net.cpp:235] Top shape: 64 3 227 227 (9893568)
I1226 07:02:46.250658 88126 net.cpp:235] Top shape: 64 (64)
I1226 07:02:46.243719 96083 net.cpp:228] Setting up conv1
I1226 07:02:46.250684 88126 net.cpp:243] Memory required for data: 39574528
I1226 07:02:46.243832 96083 net.cpp:235] Top shape: 64 96 55 55 (18585600)
I1226 07:02:46.243857 96083 net.cpp:243] Memory required for data: 113917440
I1226 07:02:46.250722 88126 layer_factory.hpp:114] Creating layer label_data_1_split
I1226 07:02:46.244010 96083 layer_factory.hpp:114] Creating layer relu1
I1226 07:02:46.250816 88126 net.cpp:178] Creating Layer label_data_1_split
I1226 07:02:46.244112 96083 net.cpp:178] Creating Layer relu1
I1226 07:02:46.250955 88126 net.cpp:612] label_data_1_split <- label
I1226 07:02:46.244153 96083 net.cpp:612] relu1 <- conv1
I1226 07:02:46.244190 96083 net.cpp:573] relu1 -> conv1 (in-place)
I1226 07:02:46.251014 88126 net.cpp:586] label_data_1_split -> label_data_1_split_0
I1226 07:02:46.244283 96083 net.cpp:228] Setting up relu1
I1226 07:02:46.251160 88126 net.cpp:586] label_data_1_split -> label_data_1_split_1
I1226 07:02:46.244324 96083 net.cpp:235] Top shape: 64 96 55 55 (18585600)
I1226 07:02:46.244346 96083 net.cpp:243] Memory required for data: 188259840
I1226 07:02:46.244374 96083 layer_factory.hpp:114] Creating layer norm1
I1226 07:02:46.244439 96083 net.cpp:178] Creating Layer norm1
I1226 07:02:46.244470 96083 net.cpp:612] norm1 <- conv1
I1226 07:02:46.244503 96083 net.cpp:586] norm1 -> norm1
I1226 07:02:46.244580 96083 net.cpp:228] Setting up norm1
I1226 07:02:46.244613 96083 net.cpp:235] Top shape: 64 96 55 55 (18585600)
I1226 07:02:46.244635 96083 net.cpp:243] Memory required for data: 262602240
I1226 07:02:46.244662 96083 layer_factory.hpp:114] Creating layer pool1
I1226 07:02:46.244714 96083 net.cpp:178] Creating Layer pool1
I1226 07:02:46.244738 96083 net.cpp:612] pool1 <- norm1
I1226 07:02:46.244773 96083 net.cpp:586] pool1 -> pool1
I1226 07:02:46.244851 96083 net.cpp:228] Setting up pool1
I1226 07:02:46.244889 96083 net.cpp:235] Top shape: 64 96 27 27 (4478976)
I1226 07:02:46.244910 96083 net.cpp:243] Memory required for data: 280518144
I1226 07:02:46.244935 96083 layer_factory.hpp:114] Creating layer conv2
I1226 07:02:46.245003 96083 net.cpp:178] Creating Layer conv2
I1226 07:02:46.245038 96083 net.cpp:612] conv2 <- pool1
I1226 07:02:46.245102 96083 net.cpp:586] conv2 -> conv2
I1226 07:02:46.251533 89377 net.cpp:228] Setting up data
I1226 07:02:46.251680 89377 net.cpp:235] Top shape: 64 3 227 227 (9893568)
I1226 07:02:46.251723 89377 net.cpp:235] Top shape: 64 (64)
I1226 07:02:46.251863 89377 net.cpp:243] Memory required for data: 39574528
I1226 07:02:46.251925 89377 layer_factory.hpp:114] Creating layer label_data_1_split
I1226 07:02:46.252096 89377 net.cpp:178] Creating Layer label_data_1_split
I1226 07:02:46.252249 89377 net.cpp:612] label_data_1_split <- label
I1226 07:02:46.252300 89377 net.cpp:586] label_data_1_split -> label_data_1_split_0
I1226 07:02:46.252497 89377 net.cpp:586] label_data_1_split -> label_data_1_split_1
I1226 07:02:46.265877 88126 net.cpp:228] Setting up label_data_1_split
I1226 07:02:46.265987 88126 net.cpp:235] Top shape: 64 (64)
I1226 07:02:46.266022 88126 net.cpp:235] Top shape: 64 (64)
I1226 07:02:46.266047 88126 net.cpp:243] Memory required for data: 39575040
I1226 07:02:46.266083 88126 layer_factory.hpp:114] Creating layer conv1
I1226 07:02:46.266186 88126 net.cpp:178] Creating Layer conv1
I1226 07:02:46.266225 88126 net.cpp:612] conv1 <- data
I1226 07:02:46.266280 88126 net.cpp:586] conv1 -> conv1
I1226 07:02:46.270041 51587 net.cpp:228] Setting up data
I1226 07:02:46.270632 51587 net.cpp:235] Top shape: 64 3 227 227 (9893568)
I1226 07:02:46.270735 51587 net.cpp:235] Top shape: 64 (64)
I1226 07:02:46.270792 51587 net.cpp:243] Memory required for data: 39574528
I1226 07:02:46.270917 51587 layer_factory.hpp:114] Creating layer label_data_1_split
I1226 07:02:46.271884 89377 net.cpp:228] Setting up label_data_1_split
I1226 07:02:46.271986 89377 net.cpp:235] Top shape: 64 (64)
I1226 07:02:46.272019 89377 net.cpp:235] Top shape: 64 (64)
I1226 07:02:46.271162 51587 net.cpp:178] Creating Layer label_data_1_split
I1226 07:02:46.272068 89377 net.cpp:243] Memory required for data: 39575040
I1226 07:02:46.271327 51587 net.cpp:612] label_data_1_split <- label
I1226 07:02:46.272202 89377 layer_factory.hpp:114] Creating layer conv1
I1226 07:02:46.272318 89377 net.cpp:178] Creating Layer conv1
I1226 07:02:46.271410 51587 net.cpp:586] label_data_1_split -> label_data_1_split_0
I1226 07:02:46.272399 89377 net.cpp:612] conv1 <- data
I1226 07:02:46.271572 51587 net.cpp:586] label_data_1_split -> label_data_1_split_1
I1226 07:02:46.272464 89377 net.cpp:586] conv1 -> conv1
I1226 07:02:46.283179 89451 net.cpp:228] Setting up data
I1226 07:02:46.283293 89451 net.cpp:235] Top shape: 64 3 227 227 (9893568)
I1226 07:02:46.283326 89451 net.cpp:235] Top shape: 64 (64)
I1226 07:02:46.283377 89451 net.cpp:243] Memory required for data: 39574528
I1226 07:02:46.283416 89451 layer_factory.hpp:114] Creating layer label_data_1_split
I1226 07:02:46.283553 89451 net.cpp:178] Creating Layer label_data_1_split
I1226 07:02:46.283699 89451 net.cpp:612] label_data_1_split <- label
I1226 07:02:46.283782 89451 net.cpp:586] label_data_1_split -> label_data_1_split_0
I1226 07:02:46.283912 89451 net.cpp:586] label_data_1_split -> label_data_1_split_1
I1226 07:02:46.278635 89170 net.cpp:228] Setting up data
I1226 07:02:46.278748 89170 net.cpp:235] Top shape: 64 3 227 227 (9893568)
I1226 07:02:46.278784 89170 net.cpp:235] Top shape: 64 (64)
I1226 07:02:46.278808 89170 net.cpp:243] Memory required for data: 39574528
I1226 07:02:46.278846 89170 layer_factory.hpp:114] Creating layer label_data_1_split
I1226 07:02:46.279199 89170 net.cpp:178] Creating Layer label_data_1_split
I1226 07:02:46.279361 89170 net.cpp:612] label_data_1_split <- label
I1226 07:02:46.279454 89170 net.cpp:586] label_data_1_split -> label_data_1_split_0
I1226 07:02:46.279515 89170 net.cpp:586] label_data_1_split -> label_data_1_split_1
I1226 07:02:46.298207 89451 net.cpp:228] Setting up label_data_1_split
I1226 07:02:46.298313 89451 net.cpp:235] Top shape: 64 (64)
I1226 07:02:46.298346 89451 net.cpp:235] Top shape: 64 (64)
I1226 07:02:46.298367 89451 net.cpp:243] Memory required for data: 39575040
I1226 07:02:46.298429 89451 layer_factory.hpp:114] Creating layer conv1
I1226 07:02:46.298699 89451 net.cpp:178] Creating Layer conv1
I1226 07:02:46.298741 89451 net.cpp:612] conv1 <- data
I1226 07:02:46.298785 89451 net.cpp:586] conv1 -> conv1
I1226 07:02:46.292006 51587 net.cpp:228] Setting up label_data_1_split
I1226 07:02:46.292165 51587 net.cpp:235] Top shape: 64 (64)
I1226 07:02:46.292207 51587 net.cpp:235] Top shape: 64 (64)
I1226 07:02:46.292263 51587 net.cpp:243] Memory required for data: 39575040
I1226 07:02:46.292306 51587 layer_factory.hpp:114] Creating layer conv1
I1226 07:02:46.292421 51587 net.cpp:178] Creating Layer conv1
I1226 07:02:46.292459 51587 net.cpp:612] conv1 <- data
I1226 07:02:46.292505 51587 net.cpp:586] conv1 -> conv1
I1226 07:02:46.300861 89170 net.cpp:228] Setting up label_data_1_split
I1226 07:02:46.300992 89170 net.cpp:235] Top shape: 64 (64)
I1226 07:02:46.301048 89170 net.cpp:235] Top shape: 64 (64)
I1226 07:02:46.301074 89170 net.cpp:243] Memory required for data: 39575040
I1226 07:02:46.301110 89170 layer_factory.hpp:114] Creating layer conv1
I1226 07:02:46.301270 89170 net.cpp:178] Creating Layer conv1
I1226 07:02:46.301326 89170 net.cpp:612] conv1 <- data
I1226 07:02:46.301389 89170 net.cpp:586] conv1 -> conv1
I1226 07:02:46.309237 93507 net.cpp:228] Setting up data
I1226 07:02:46.309365 93507 net.cpp:235] Top shape: 64 3 227 227 (9893568)
I1226 07:02:46.309417 93507 net.cpp:235] Top shape: 64 (64)
I1226 07:02:46.309448 93507 net.cpp:243] Memory required for data: 39574528
I1226 07:02:46.309502 93507 layer_factory.hpp:114] Creating layer label_data_1_split
I1226 07:02:46.309607 93507 net.cpp:178] Creating Layer label_data_1_split
I1226 07:02:46.309756 93507 net.cpp:612] label_data_1_split <- label
I1226 07:02:46.309859 93507 net.cpp:586] label_data_1_split -> label_data_1_split_0
I1226 07:02:46.309924 93507 net.cpp:586] label_data_1_split -> label_data_1_split_1
I1226 07:02:46.336416 93507 net.cpp:228] Setting up label_data_1_split
I1226 07:02:46.336534 93507 net.cpp:235] Top shape: 64 (64)
I1226 07:02:46.336572 93507 net.cpp:235] Top shape: 64 (64)
I1226 07:02:46.336638 93507 net.cpp:243] Memory required for data: 39575040
I1226 07:02:46.336828 93507 layer_factory.hpp:114] Creating layer conv1
I1226 07:02:46.336943 93507 net.cpp:178] Creating Layer conv1
I1226 07:02:46.336992 93507 net.cpp:612] conv1 <- data
I1226 07:02:46.337043 93507 net.cpp:586] conv1 -> conv1
I1226 07:02:46.422866 90546 net.cpp:228] Setting up conv1
I1226 07:02:46.422982 90546 net.cpp:235] Top shape: 64 96 55 55 (18585600)
I1226 07:02:46.423010 90546 net.cpp:243] Memory required for data: 113917440
I1226 07:02:46.423120 90546 layer_factory.hpp:114] Creating layer relu1
I1226 07:02:46.423239 90546 net.cpp:178] Creating Layer relu1
I1226 07:02:46.423283 90546 net.cpp:612] relu1 <- conv1
I1226 07:02:46.423327 90546 net.cpp:573] relu1 -> conv1 (in-place)
I1226 07:02:46.423439 90546 net.cpp:228] Setting up relu1
I1226 07:02:46.423499 90546 net.cpp:235] Top shape: 64 96 55 55 (18585600)
I1226 07:02:46.423527 90546 net.cpp:243] Memory required for data: 188259840
I1226 07:02:46.423557 90546 layer_factory.hpp:114] Creating layer norm1
I1226 07:02:46.423633 90546 net.cpp:178] Creating Layer norm1
I1226 07:02:46.423668 90546 net.cpp:612] norm1 <- conv1
I1226 07:02:46.423707 90546 net.cpp:586] norm1 -> norm1
I1226 07:02:46.423805 90546 net.cpp:228] Setting up norm1
I1226 07:02:46.423863 90546 net.cpp:235] Top shape: 64 96 55 55 (18585600)
I1226 07:02:46.423888 90546 net.cpp:243] Memory required for data: 262602240
I1226 07:02:46.423915 90546 layer_factory.hpp:114] Creating layer pool1
I1226 07:02:46.423979 90546 net.cpp:178] Creating Layer pool1
I1226 07:02:46.424011 90546 net.cpp:612] pool1 <- norm1
I1226 07:02:46.424054 90546 net.cpp:586] pool1 -> pool1
I1226 07:02:46.424149 90546 net.cpp:228] Setting up pool1
I1226 07:02:46.424216 90546 net.cpp:235] Top shape: 64 96 27 27 (4478976)
I1226 07:02:46.424238 90546 net.cpp:243] Memory required for data: 280518144
I1226 07:02:46.424266 90546 layer_factory.hpp:114] Creating layer conv2
I1226 07:02:46.424352 90546 net.cpp:178] Creating Layer conv2
I1226 07:02:46.424381 90546 net.cpp:612] conv2 <- pool1
I1226 07:02:46.424420 90546 net.cpp:586] conv2 -> conv2
I1226 07:02:46.443200 89165 net.cpp:228] Setting up conv1
I1226 07:02:46.443338 89165 net.cpp:235] Top shape: 64 96 55 55 (18585600)
I1226 07:02:46.443369 89165 net.cpp:243] Memory required for data: 113917440
I1226 07:02:46.443478 89165 layer_factory.hpp:114] Creating layer relu1
I1226 07:02:46.443600 89165 net.cpp:178] Creating Layer relu1
I1226 07:02:46.443707 89165 net.cpp:612] relu1 <- conv1
I1226 07:02:46.443768 89165 net.cpp:573] relu1 -> conv1 (in-place)
I1226 07:02:46.443907 89165 net.cpp:228] Setting up relu1
I1226 07:02:46.443976 89165 net.cpp:235] Top shape: 64 96 55 55 (18585600)
I1226 07:02:46.444002 89165 net.cpp:243] Memory required for data: 188259840
I1226 07:02:46.444265 89165 layer_factory.hpp:114] Creating layer norm1
I1226 07:02:46.444352 89165 net.cpp:178] Creating Layer norm1
I1226 07:02:46.444392 89165 net.cpp:612] norm1 <- conv1
I1226 07:02:46.444916 89165 net.cpp:586] norm1 -> norm1
I1226 07:02:46.445124 89165 net.cpp:228] Setting up norm1
I1226 07:02:46.445191 89165 net.cpp:235] Top shape: 64 96 55 55 (18585600)
I1226 07:02:46.445215 89165 net.cpp:243] Memory required for data: 262602240
I1226 07:02:46.445292 89165 layer_factory.hpp:114] Creating layer pool1
I1226 07:02:46.445374 89165 net.cpp:178] Creating Layer pool1
I1226 07:02:46.445412 89165 net.cpp:612] pool1 <- norm1
I1226 07:02:46.445459 89165 net.cpp:586] pool1 -> pool1
I1226 07:02:46.445564 89165 net.cpp:228] Setting up pool1
I1226 07:02:46.445628 89165 net.cpp:235] Top shape: 64 96 27 27 (4478976)
I1226 07:02:46.445662 89165 net.cpp:243] Memory required for data: 280518144
I1226 07:02:46.445699 89165 layer_factory.hpp:114] Creating layer conv2
I1226 07:02:46.445775 89165 net.cpp:178] Creating Layer conv2
I1226 07:02:46.445821 89165 net.cpp:612] conv2 <- pool1
I1226 07:02:46.445870 89165 net.cpp:586] conv2 -> conv2
I1226 07:02:46.460150 96083 net.cpp:228] Setting up conv2
I1226 07:02:46.460264 96083 net.cpp:235] Top shape: 64 256 27 27 (11943936)
I1226 07:02:46.460294 96083 net.cpp:243] Memory required for data: 328293888
I1226 07:02:46.460367 96083 layer_factory.hpp:114] Creating layer relu2
I1226 07:02:46.460459 96083 net.cpp:178] Creating Layer relu2
I1226 07:02:46.460499 96083 net.cpp:612] relu2 <- conv2
I1226 07:02:46.460539 96083 net.cpp:573] relu2 -> conv2 (in-place)
I1226 07:02:46.460631 96083 net.cpp:228] Setting up relu2
I1226 07:02:46.460675 96083 net.cpp:235] Top shape: 64 256 27 27 (11943936)
I1226 07:02:46.460698 96083 net.cpp:243] Memory required for data: 376069632
I1226 07:02:46.460727 96083 layer_factory.hpp:114] Creating layer norm2
I1226 07:02:46.460786 96083 net.cpp:178] Creating Layer norm2
I1226 07:02:46.460819 96083 net.cpp:612] norm2 <- conv2
I1226 07:02:46.460853 96083 net.cpp:586] norm2 -> norm2
I1226 07:02:46.460945 96083 net.cpp:228] Setting up norm2
I1226 07:02:46.460993 96083 net.cpp:235] Top shape: 64 256 27 27 (11943936)
I1226 07:02:46.461016 96083 net.cpp:243] Memory required for data: 423845376
I1226 07:02:46.461045 96083 layer_factory.hpp:114] Creating layer pool2
I1226 07:02:46.461133 96083 net.cpp:178] Creating Layer pool2
I1226 07:02:46.461165 96083 net.cpp:612] pool2 <- norm2
I1226 07:02:46.461223 96083 net.cpp:586] pool2 -> pool2
I1226 07:02:46.461319 96083 net.cpp:228] Setting up pool2
I1226 07:02:46.461359 96083 net.cpp:235] Top shape: 64 256 13 13 (2768896)
I1226 07:02:46.461478 96083 net.cpp:243] Memory required for data: 434920960
I1226 07:02:46.461514 96083 layer_factory.hpp:114] Creating layer conv3
I1226 07:02:46.461592 96083 net.cpp:178] Creating Layer conv3
I1226 07:02:46.461621 96083 net.cpp:612] conv3 <- pool2
I1226 07:02:46.461659 96083 net.cpp:586] conv3 -> conv3
I1226 07:02:46.489970 88126 net.cpp:228] Setting up conv1
I1226 07:02:46.490100 88126 net.cpp:235] Top shape: 64 96 55 55 (18585600)
I1226 07:02:46.490135 88126 net.cpp:243] Memory required for data: 113917440
I1226 07:02:46.490500 88126 layer_factory.hpp:114] Creating layer relu1
I1226 07:02:46.490720 88126 net.cpp:178] Creating Layer relu1
I1226 07:02:46.491155 88126 net.cpp:612] relu1 <- conv1
I1226 07:02:46.491261 88126 net.cpp:573] relu1 -> conv1 (in-place)
I1226 07:02:46.491490 88126 net.cpp:228] Setting up relu1
I1226 07:02:46.491649 88126 net.cpp:235] Top shape: 64 96 55 55 (18585600)
I1226 07:02:46.491680 88126 net.cpp:243] Memory required for data: 188259840
I1226 07:02:46.491715 88126 layer_factory.hpp:114] Creating layer norm1
I1226 07:02:46.491821 88126 net.cpp:178] Creating Layer norm1
I1226 07:02:46.492019 88126 net.cpp:612] norm1 <- conv1
I1226 07:02:46.492077 88126 net.cpp:586] norm1 -> norm1
I1226 07:02:46.492209 88126 net.cpp:228] Setting up norm1
I1226 07:02:46.492262 88126 net.cpp:235] Top shape: 64 96 55 55 (18585600)
I1226 07:02:46.492290 88126 net.cpp:243] Memory required for data: 262602240
I1226 07:02:46.492321 88126 layer_factory.hpp:114] Creating layer pool1
I1226 07:02:46.492748 88126 net.cpp:178] Creating Layer pool1
I1226 07:02:46.492815 88126 net.cpp:612] pool1 <- norm1
I1226 07:02:46.492871 88126 net.cpp:586] pool1 -> pool1
I1226 07:02:46.493041 88126 net.cpp:228] Setting up pool1
I1226 07:02:46.493127 88126 net.cpp:235] Top shape: 64 96 27 27 (4478976)
I1226 07:02:46.493152 88126 net.cpp:243] Memory required for data: 280518144
I1226 07:02:46.493182 88126 layer_factory.hpp:114] Creating layer conv2
I1226 07:02:46.493291 88126 net.cpp:178] Creating Layer conv2
I1226 07:02:46.493322 88126 net.cpp:612] conv2 <- pool1
I1226 07:02:46.493378 88126 net.cpp:586] conv2 -> conv2
I1226 07:02:46.491390 51587 net.cpp:228] Setting up conv1
I1226 07:02:46.492038 51587 net.cpp:235] Top shape: 64 96 55 55 (18585600)
I1226 07:02:46.492108 51587 net.cpp:243] Memory required for data: 113917440
I1226 07:02:46.492249 51587 layer_factory.hpp:114] Creating layer relu1
I1226 07:02:46.492383 51587 net.cpp:178] Creating Layer relu1
I1226 07:02:46.492525 51587 net.cpp:612] relu1 <- conv1
I1226 07:02:46.492571 51587 net.cpp:573] relu1 -> conv1 (in-place)
I1226 07:02:46.492712 51587 net.cpp:228] Setting up relu1
I1226 07:02:46.492782 51587 net.cpp:235] Top shape: 64 96 55 55 (18585600)
I1226 07:02:46.492807 51587 net.cpp:243] Memory required for data: 188259840
I1226 07:02:46.492853 51587 layer_factory.hpp:114] Creating layer norm1
I1226 07:02:46.493028 51587 net.cpp:178] Creating Layer norm1
I1226 07:02:46.493072 51587 net.cpp:612] norm1 <- conv1
I1226 07:02:46.493113 51587 net.cpp:586] norm1 -> norm1
I1226 07:02:46.493542 51587 net.cpp:228] Setting up norm1
I1226 07:02:46.493613 51587 net.cpp:235] Top shape: 64 96 55 55 (18585600)
I1226 07:02:46.493638 51587 net.cpp:243] Memory required for data: 262602240
I1226 07:02:46.493706 51587 layer_factory.hpp:114] Creating layer pool1
I1226 07:02:46.493791 51587 net.cpp:178] Creating Layer pool1
I1226 07:02:46.493849 51587 net.cpp:612] pool1 <- norm1
I1226 07:02:46.493904 51587 net.cpp:586] pool1 -> pool1
I1226 07:02:46.494007 51587 net.cpp:228] Setting up pool1
I1226 07:02:46.494051 51587 net.cpp:235] Top shape: 64 96 27 27 (4478976)
I1226 07:02:46.494074 51587 net.cpp:243] Memory required for data: 280518144
I1226 07:02:46.494102 51587 layer_factory.hpp:114] Creating layer conv2
I1226 07:02:46.494213 51587 net.cpp:178] Creating Layer conv2
I1226 07:02:46.494243 51587 net.cpp:612] conv2 <- pool1
I1226 07:02:46.494282 51587 net.cpp:586] conv2 -> conv2
I1226 07:02:46.513818 89451 net.cpp:228] Setting up conv1
I1226 07:02:46.513962 89451 net.cpp:235] Top shape: 64 96 55 55 (18585600)
I1226 07:02:46.513991 89451 net.cpp:243] Memory required for data: 113917440
I1226 07:02:46.514142 89451 layer_factory.hpp:114] Creating layer relu1
I1226 07:02:46.514266 89451 net.cpp:178] Creating Layer relu1
I1226 07:02:46.514406 89451 net.cpp:612] relu1 <- conv1
I1226 07:02:46.514447 89451 net.cpp:573] relu1 -> conv1 (in-place)
I1226 07:02:46.514955 89451 net.cpp:228] Setting up relu1
I1226 07:02:46.515019 89451 net.cpp:235] Top shape: 64 96 55 55 (18585600)
I1226 07:02:46.515069 89451 net.cpp:243] Memory required for data: 188259840
I1226 07:02:46.515180 89451 layer_factory.hpp:114] Creating layer norm1
I1226 07:02:46.515296 89451 net.cpp:178] Creating Layer norm1
I1226 07:02:46.515333 89451 net.cpp:612] norm1 <- conv1
I1226 07:02:46.515388 89451 net.cpp:586] norm1 -> norm1
I1226 07:02:46.515621 89451 net.cpp:228] Setting up norm1
I1226 07:02:46.515668 89451 net.cpp:235] Top shape: 64 96 55 55 (18585600)
I1226 07:02:46.515691 89451 net.cpp:243] Memory required for data: 262602240
I1226 07:02:46.515718 89451 layer_factory.hpp:114] Creating layer pool1
I1226 07:02:46.516049 89451 net.cpp:178] Creating Layer pool1
I1226 07:02:46.516108 89451 net.cpp:612] pool1 <- norm1
I1226 07:02:46.516171 89451 net.cpp:586] pool1 -> pool1
I1226 07:02:46.516347 89451 net.cpp:228] Setting up pool1
I1226 07:02:46.516422 89451 net.cpp:235] Top shape: 64 96 27 27 (4478976)
I1226 07:02:46.516451 89451 net.cpp:243] Memory required for data: 280518144
I1226 07:02:46.516542 89451 layer_factory.hpp:114] Creating layer conv2
I1226 07:02:46.516619 89451 net.cpp:178] Creating Layer conv2
I1226 07:02:46.516652 89451 net.cpp:612] conv2 <- pool1
I1226 07:02:46.516712 89451 net.cpp:586] conv2 -> conv2
I1226 07:02:46.511487 89377 net.cpp:228] Setting up conv1
I1226 07:02:46.511603 89377 net.cpp:235] Top shape: 64 96 55 55 (18585600)
I1226 07:02:46.511631 89377 net.cpp:243] Memory required for data: 113917440
I1226 07:02:46.511739 89377 layer_factory.hpp:114] Creating layer relu1
I1226 07:02:46.511929 89377 net.cpp:178] Creating Layer relu1
I1226 07:02:46.512048 89377 net.cpp:612] relu1 <- conv1
I1226 07:02:46.512092 89377 net.cpp:573] relu1 -> conv1 (in-place)
I1226 07:02:46.512200 89377 net.cpp:228] Setting up relu1
I1226 07:02:46.512250 89377 net.cpp:235] Top shape: 64 96 55 55 (18585600)
I1226 07:02:46.512274 89377 net.cpp:243] Memory required for data: 188259840
I1226 07:02:46.512305 89377 layer_factory.hpp:114] Creating layer norm1
I1226 07:02:46.512447 89377 net.cpp:178] Creating Layer norm1
I1226 07:02:46.512476 89377 net.cpp:612] norm1 <- conv1
I1226 07:02:46.512591 89377 net.cpp:586] norm1 -> norm1
I1226 07:02:46.512681 89377 net.cpp:228] Setting up norm1
I1226 07:02:46.512738 89377 net.cpp:235] Top shape: 64 96 55 55 (18585600)
I1226 07:02:46.512761 89377 net.cpp:243] Memory required for data: 262602240
I1226 07:02:46.512790 89377 layer_factory.hpp:114] Creating layer pool1
I1226 07:02:46.512878 89377 net.cpp:178] Creating Layer pool1
I1226 07:02:46.512991 89377 net.cpp:612] pool1 <- norm1
I1226 07:02:46.513037 89377 net.cpp:586] pool1 -> pool1
I1226 07:02:46.513133 89377 net.cpp:228] Setting up pool1
I1226 07:02:46.513177 89377 net.cpp:235] Top shape: 64 96 27 27 (4478976)
I1226 07:02:46.513200 89377 net.cpp:243] Memory required for data: 280518144
I1226 07:02:46.513227 89377 layer_factory.hpp:114] Creating layer conv2
I1226 07:02:46.513305 89377 net.cpp:178] Creating Layer conv2
I1226 07:02:46.513336 89377 net.cpp:612] conv2 <- pool1
I1226 07:02:46.513375 89377 net.cpp:586] conv2 -> conv2
I1226 07:02:46.530541 89170 net.cpp:228] Setting up conv1
I1226 07:02:46.530656 89170 net.cpp:235] Top shape: 64 96 55 55 (18585600)
I1226 07:02:46.530684 89170 net.cpp:243] Memory required for data: 113917440
I1226 07:02:46.530791 89170 layer_factory.hpp:114] Creating layer relu1
I1226 07:02:46.530882 89170 net.cpp:178] Creating Layer relu1
I1226 07:02:46.530920 89170 net.cpp:612] relu1 <- conv1
I1226 07:02:46.530961 89170 net.cpp:573] relu1 -> conv1 (in-place)
I1226 07:02:46.531062 89170 net.cpp:228] Setting up relu1
I1226 07:02:46.531100 89170 net.cpp:235] Top shape: 64 96 55 55 (18585600)
I1226 07:02:46.531124 89170 net.cpp:243] Memory required for data: 188259840
I1226 07:02:46.531162 89170 layer_factory.hpp:114] Creating layer norm1
I1226 07:02:46.531251 89170 net.cpp:178] Creating Layer norm1
I1226 07:02:46.531289 89170 net.cpp:612] norm1 <- conv1
I1226 07:02:46.531339 89170 net.cpp:586] norm1 -> norm1
I1226 07:02:46.531435 89170 net.cpp:228] Setting up norm1
I1226 07:02:46.531481 89170 net.cpp:235] Top shape: 64 96 55 55 (18585600)
I1226 07:02:46.531505 89170 net.cpp:243] Memory required for data: 262602240
I1226 07:02:46.531534 89170 layer_factory.hpp:114] Creating layer pool1
I1226 07:02:46.531597 89170 net.cpp:178] Creating Layer pool1
I1226 07:02:46.531625 89170 net.cpp:612] pool1 <- norm1
I1226 07:02:46.531673 89170 net.cpp:586] pool1 -> pool1
I1226 07:02:46.531774 89170 net.cpp:228] Setting up pool1
I1226 07:02:46.531816 89170 net.cpp:235] Top shape: 64 96 27 27 (4478976)
I1226 07:02:46.531841 89170 net.cpp:243] Memory required for data: 280518144
I1226 07:02:46.531869 89170 layer_factory.hpp:114] Creating layer conv2
I1226 07:02:46.531983 89170 net.cpp:178] Creating Layer conv2
I1226 07:02:46.532016 89170 net.cpp:612] conv2 <- pool1
I1226 07:02:46.532054 89170 net.cpp:586] conv2 -> conv2
I1226 07:02:46.690424 96083 net.cpp:228] Setting up conv3
I1226 07:02:46.690537 96083 net.cpp:235] Top shape: 64 384 13 13 (4153344)
I1226 07:02:46.690565 96083 net.cpp:243] Memory required for data: 451534336
I1226 07:02:46.690639 96083 layer_factory.hpp:114] Creating layer relu3
I1226 07:02:46.690727 96083 net.cpp:178] Creating Layer relu3
I1226 07:02:46.690771 96083 net.cpp:612] relu3 <- conv3
I1226 07:02:46.690824 96083 net.cpp:573] relu3 -> conv3 (in-place)
I1226 07:02:46.690913 96083 net.cpp:228] Setting up relu3
I1226 07:02:46.690963 96083 net.cpp:235] Top shape: 64 384 13 13 (4153344)
I1226 07:02:46.690986 96083 net.cpp:243] Memory required for data: 468147712
I1226 07:02:46.691015 96083 layer_factory.hpp:114] Creating layer conv4
I1226 07:02:46.691113 96083 net.cpp:178] Creating Layer conv4
I1226 07:02:46.691154 96083 net.cpp:612] conv4 <- conv3
I1226 07:02:46.691195 96083 net.cpp:586] conv4 -> conv4
I1226 07:02:46.743043 90546 net.cpp:228] Setting up conv2
I1226 07:02:46.743157 90546 net.cpp:235] Top shape: 64 256 27 27 (11943936)
I1226 07:02:46.743214 90546 net.cpp:243] Memory required for data: 328293888
I1226 07:02:46.743293 90546 layer_factory.hpp:114] Creating layer relu2
I1226 07:02:46.743382 90546 net.cpp:178] Creating Layer relu2
I1226 07:02:46.743422 90546 net.cpp:612] relu2 <- conv2
I1226 07:02:46.743463 90546 net.cpp:573] relu2 -> conv2 (in-place)
I1226 07:02:46.743562 90546 net.cpp:228] Setting up relu2
I1226 07:02:46.743624 90546 net.cpp:235] Top shape: 64 256 27 27 (11943936)
I1226 07:02:46.743651 90546 net.cpp:243] Memory required for data: 376069632
I1226 07:02:46.743681 90546 layer_factory.hpp:114] Creating layer norm2
I1226 07:02:46.743748 90546 net.cpp:178] Creating Layer norm2
I1226 07:02:46.743782 90546 net.cpp:612] norm2 <- conv2
I1226 07:02:46.743819 90546 net.cpp:586] norm2 -> norm2
I1226 07:02:46.743916 90546 net.cpp:228] Setting up norm2
I1226 07:02:46.743970 90546 net.cpp:235] Top shape: 64 256 27 27 (11943936)
I1226 07:02:46.743993 90546 net.cpp:243] Memory required for data: 423845376
I1226 07:02:46.744022 90546 layer_factory.hpp:114] Creating layer pool2
I1226 07:02:46.744068 90546 net.cpp:178] Creating Layer pool2
I1226 07:02:46.744093 90546 net.cpp:612] pool2 <- norm2
I1226 07:02:46.744137 90546 net.cpp:586] pool2 -> pool2
I1226 07:02:46.744254 90546 net.cpp:228] Setting up pool2
I1226 07:02:46.744299 90546 net.cpp:235] Top shape: 64 256 13 13 (2768896)
I1226 07:02:46.744420 90546 net.cpp:243] Memory required for data: 434920960
I1226 07:02:46.744457 90546 layer_factory.hpp:114] Creating layer conv3
I1226 07:02:46.744544 90546 net.cpp:178] Creating Layer conv3
I1226 07:02:46.744582 90546 net.cpp:612] conv3 <- pool2
I1226 07:02:46.744637 90546 net.cpp:586] conv3 -> conv3
I1226 07:02:46.788786 89165 net.cpp:228] Setting up conv2
I1226 07:02:46.788897 89165 net.cpp:235] Top shape: 64 256 27 27 (11943936)
I1226 07:02:46.788924 89165 net.cpp:243] Memory required for data: 328293888
I1226 07:02:46.788997 89165 layer_factory.hpp:114] Creating layer relu2
I1226 07:02:46.789080 89165 net.cpp:178] Creating Layer relu2
I1226 07:02:46.789116 89165 net.cpp:612] relu2 <- conv2
I1226 07:02:46.789155 89165 net.cpp:573] relu2 -> conv2 (in-place)
I1226 07:02:46.789270 89165 net.cpp:228] Setting up relu2
I1226 07:02:46.789315 89165 net.cpp:235] Top shape: 64 256 27 27 (11943936)
I1226 07:02:46.789338 89165 net.cpp:243] Memory required for data: 376069632
I1226 07:02:46.789366 89165 layer_factory.hpp:114] Creating layer norm2
I1226 07:02:46.789429 89165 net.cpp:178] Creating Layer norm2
I1226 07:02:46.789461 89165 net.cpp:612] norm2 <- conv2
I1226 07:02:46.789497 89165 net.cpp:586] norm2 -> norm2
I1226 07:02:46.789579 89165 net.cpp:228] Setting up norm2
I1226 07:02:46.789635 89165 net.cpp:235] Top shape: 64 256 27 27 (11943936)
I1226 07:02:46.789664 89165 net.cpp:243] Memory required for data: 423845376
I1226 07:02:46.789703 89165 layer_factory.hpp:114] Creating layer pool2
I1226 07:02:46.789757 89165 net.cpp:178] Creating Layer pool2
I1226 07:02:46.789784 89165 net.cpp:612] pool2 <- norm2
I1226 07:02:46.789824 89165 net.cpp:586] pool2 -> pool2
I1226 07:02:46.789907 89165 net.cpp:228] Setting up pool2
I1226 07:02:46.789948 89165 net.cpp:235] Top shape: 64 256 13 13 (2768896)
I1226 07:02:46.790066 89165 net.cpp:243] Memory required for data: 434920960
I1226 07:02:46.790109 89165 layer_factory.hpp:114] Creating layer conv3
I1226 07:02:46.790189 89165 net.cpp:178] Creating Layer conv3
I1226 07:02:46.790222 89165 net.cpp:612] conv3 <- pool2
I1226 07:02:46.790297 89165 net.cpp:586] conv3 -> conv3
I1226 07:02:46.852205 88126 net.cpp:228] Setting up conv2
I1226 07:02:46.855849 89451 net.cpp:228] Setting up conv2
I1226 07:02:46.852322 88126 net.cpp:235] Top shape: 64 256 27 27 (11943936)
I1226 07:02:46.852354 88126 net.cpp:243] Memory required for data: 328293888
I1226 07:02:46.855958 89451 net.cpp:235] Top shape: 64 256 27 27 (11943936)
I1226 07:02:46.855985 89451 net.cpp:243] Memory required for data: 328293888
I1226 07:02:46.852427 88126 layer_factory.hpp:114] Creating layer relu2
I1226 07:02:46.856056 89451 layer_factory.hpp:114] Creating layer relu2
I1226 07:02:46.852519 88126 net.cpp:178] Creating Layer relu2
I1226 07:02:46.852566 88126 net.cpp:612] relu2 <- conv2
I1226 07:02:46.852641 88126 net.cpp:573] relu2 -> conv2 (in-place)
I1226 07:02:46.852746 88126 net.cpp:228] Setting up relu2
I1226 07:02:46.852803 88126 net.cpp:235] Top shape: 64 256 27 27 (11943936)
I1226 07:02:46.852828 88126 net.cpp:243] Memory required for data: 376069632
I1226 07:02:46.852859 88126 layer_factory.hpp:114] Creating layer norm2
I1226 07:02:46.852924 88126 net.cpp:178] Creating Layer norm2
I1226 07:02:46.852962 88126 net.cpp:612] norm2 <- conv2
I1226 07:02:46.853001 88126 net.cpp:586] norm2 -> norm2
I1226 07:02:46.853103 88126 net.cpp:228] Setting up norm2
I1226 07:02:46.856142 89451 net.cpp:178] Creating Layer relu2
I1226 07:02:46.853153 88126 net.cpp:235] Top shape: 64 256 27 27 (11943936)
I1226 07:02:46.853178 88126 net.cpp:243] Memory required for data: 423845376
I1226 07:02:46.853207 88126 layer_factory.hpp:114] Creating layer pool2
I1226 07:02:46.856732 89451 net.cpp:612] relu2 <- conv2
I1226 07:02:46.853265 88126 net.cpp:178] Creating Layer pool2
I1226 07:02:46.856806 89451 net.cpp:573] relu2 -> conv2 (in-place)
I1226 07:02:46.853301 88126 net.cpp:612] pool2 <- norm2
I1226 07:02:46.853338 88126 net.cpp:586] pool2 -> pool2
I1226 07:02:46.856942 89451 net.cpp:228] Setting up relu2
I1226 07:02:46.853423 88126 net.cpp:228] Setting up pool2
I1226 07:02:46.857028 89451 net.cpp:235] Top shape: 64 256 27 27 (11943936)
I1226 07:02:46.853476 88126 net.cpp:235] Top shape: 64 256 13 13 (2768896)
I1226 07:02:46.857053 89451 net.cpp:243] Memory required for data: 376069632
I1226 07:02:46.853647 88126 net.cpp:243] Memory required for data: 434920960
I1226 07:02:46.857084 89451 layer_factory.hpp:114] Creating layer norm2
I1226 07:02:46.853689 88126 layer_factory.hpp:114] Creating layer conv3
I1226 07:02:46.857174 89451 net.cpp:178] Creating Layer norm2
I1226 07:02:46.857203 89451 net.cpp:612] norm2 <- conv2
I1226 07:02:46.853777 88126 net.cpp:178] Creating Layer conv3
I1226 07:02:46.857240 89451 net.cpp:586] norm2 -> norm2
I1226 07:02:46.853816 88126 net.cpp:612] conv3 <- pool2
I1226 07:02:46.857353 89451 net.cpp:228] Setting up norm2
I1226 07:02:46.853869 88126 net.cpp:586] conv3 -> conv3
I1226 07:02:46.857403 89451 net.cpp:235] Top shape: 64 256 27 27 (11943936)
I1226 07:02:46.857441 89451 net.cpp:243] Memory required for data: 423845376
I1226 07:02:46.857471 89451 layer_factory.hpp:114] Creating layer pool2
I1226 07:02:46.857563 89451 net.cpp:178] Creating Layer pool2
I1226 07:02:46.857681 89451 net.cpp:612] pool2 <- norm2
I1226 07:02:46.857719 89451 net.cpp:586] pool2 -> pool2
I1226 07:02:46.857834 89451 net.cpp:228] Setting up pool2
I1226 07:02:46.857883 89451 net.cpp:235] Top shape: 64 256 13 13 (2768896)
I1226 07:02:46.858008 89451 net.cpp:243] Memory required for data: 434920960
I1226 07:02:46.858047 89451 layer_factory.hpp:114] Creating layer conv3
I1226 07:02:46.858439 89451 net.cpp:178] Creating Layer conv3
I1226 07:02:46.858530 89451 net.cpp:612] conv3 <- pool2
I1226 07:02:46.858597 89451 net.cpp:586] conv3 -> conv3
I1226 07:02:46.858582 89377 net.cpp:228] Setting up conv2
I1226 07:02:46.858690 89377 net.cpp:235] Top shape: 64 256 27 27 (11943936)
I1226 07:02:46.858716 89377 net.cpp:243] Memory required for data: 328293888
I1226 07:02:46.858842 89377 layer_factory.hpp:114] Creating layer relu2
I1226 07:02:46.858912 89377 net.cpp:178] Creating Layer relu2
I1226 07:02:46.858944 89377 net.cpp:612] relu2 <- conv2
I1226 07:02:46.859200 89377 net.cpp:573] relu2 -> conv2 (in-place)
I1226 07:02:46.859372 89377 net.cpp:228] Setting up relu2
I1226 07:02:46.859483 89377 net.cpp:235] Top shape: 64 256 27 27 (11943936)
I1226 07:02:46.859508 89377 net.cpp:243] Memory required for data: 376069632
I1226 07:02:46.859535 89377 layer_factory.hpp:114] Creating layer norm2
I1226 07:02:46.859583 89377 net.cpp:178] Creating Layer norm2
I1226 07:02:46.859684 89377 net.cpp:612] norm2 <- conv2
I1226 07:02:46.859735 89377 net.cpp:586] norm2 -> norm2
I1226 07:02:46.859858 89377 net.cpp:228] Setting up norm2
I1226 07:02:46.859915 89377 net.cpp:235] Top shape: 64 256 27 27 (11943936)
I1226 07:02:46.859940 89377 net.cpp:243] Memory required for data: 423845376
I1226 07:02:46.859969 89377 layer_factory.hpp:114] Creating layer pool2
I1226 07:02:46.860034 89377 net.cpp:178] Creating Layer pool2
I1226 07:02:46.860062 89377 net.cpp:612] pool2 <- norm2
I1226 07:02:46.860098 89377 net.cpp:586] pool2 -> pool2
I1226 07:02:46.860189 89377 net.cpp:228] Setting up pool2
I1226 07:02:46.860232 89377 net.cpp:235] Top shape: 64 256 13 13 (2768896)
I1226 07:02:46.860348 89377 net.cpp:243] Memory required for data: 434920960
I1226 07:02:46.860381 89377 layer_factory.hpp:114] Creating layer conv3
I1226 07:02:46.860457 89377 net.cpp:178] Creating Layer conv3
I1226 07:02:46.860492 89377 net.cpp:612] conv3 <- pool2
I1226 07:02:46.860534 89377 net.cpp:586] conv3 -> conv3
I1226 07:02:46.882721 51587 net.cpp:228] Setting up conv2
I1226 07:02:46.882834 51587 net.cpp:235] Top shape: 64 256 27 27 (11943936)
I1226 07:02:46.882860 51587 net.cpp:243] Memory required for data: 328293888
I1226 07:02:46.882931 51587 layer_factory.hpp:114] Creating layer relu2
I1226 07:02:46.883018 51587 net.cpp:178] Creating Layer relu2
I1226 07:02:46.883054 51587 net.cpp:612] relu2 <- conv2
I1226 07:02:46.883103 51587 net.cpp:573] relu2 -> conv2 (in-place)
I1226 07:02:46.883220 51587 net.cpp:228] Setting up relu2
I1226 07:02:46.883271 51587 net.cpp:235] Top shape: 64 256 27 27 (11943936)
I1226 07:02:46.883296 51587 net.cpp:243] Memory required for data: 376069632
I1226 07:02:46.883324 51587 layer_factory.hpp:114] Creating layer norm2
I1226 07:02:46.883371 51587 net.cpp:178] Creating Layer norm2
I1226 07:02:46.883419 51587 net.cpp:612] norm2 <- conv2
I1226 07:02:46.883457 51587 net.cpp:586] norm2 -> norm2
I1226 07:02:46.883551 51587 net.cpp:228] Setting up norm2
I1226 07:02:46.883601 51587 net.cpp:235] Top shape: 64 256 27 27 (11943936)
I1226 07:02:46.883626 51587 net.cpp:243] Memory required for data: 423845376
I1226 07:02:46.883653 51587 layer_factory.hpp:114] Creating layer pool2
I1226 07:02:46.883705 51587 net.cpp:178] Creating Layer pool2
I1226 07:02:46.883738 51587 net.cpp:612] pool2 <- norm2
I1226 07:02:46.883772 51587 net.cpp:586] pool2 -> pool2
I1226 07:02:46.883848 51587 net.cpp:228] Setting up pool2
I1226 07:02:46.883889 51587 net.cpp:235] Top shape: 64 256 13 13 (2768896)
I1226 07:02:46.884006 51587 net.cpp:243] Memory required for data: 434920960
I1226 07:02:46.884039 51587 layer_factory.hpp:114] Creating layer conv3
I1226 07:02:46.882979 89170 net.cpp:228] Setting up conv2
I1226 07:02:46.884157 51587 net.cpp:178] Creating Layer conv3
I1226 07:02:46.883088 89170 net.cpp:235] Top shape: 64 256 27 27 (11943936)
I1226 07:02:46.883116 89170 net.cpp:243] Memory required for data: 328293888
I1226 07:02:46.884196 51587 net.cpp:612] conv3 <- pool2
I1226 07:02:46.884237 51587 net.cpp:586] conv3 -> conv3
I1226 07:02:46.883186 89170 layer_factory.hpp:114] Creating layer relu2
I1226 07:02:46.883268 89170 net.cpp:178] Creating Layer relu2
I1226 07:02:46.883307 89170 net.cpp:612] relu2 <- conv2
I1226 07:02:46.883375 89170 net.cpp:573] relu2 -> conv2 (in-place)
I1226 07:02:46.883471 89170 net.cpp:228] Setting up relu2
I1226 07:02:46.883514 89170 net.cpp:235] Top shape: 64 256 27 27 (11943936)
I1226 07:02:46.883538 89170 net.cpp:243] Memory required for data: 376069632
I1226 07:02:46.883565 89170 layer_factory.hpp:114] Creating layer norm2
I1226 07:02:46.883613 89170 net.cpp:178] Creating Layer norm2
I1226 07:02:46.883638 89170 net.cpp:612] norm2 <- conv2
I1226 07:02:46.883685 89170 net.cpp:586] norm2 -> norm2
I1226 07:02:46.883774 89170 net.cpp:228] Setting up norm2
I1226 07:02:46.883819 89170 net.cpp:235] Top shape: 64 256 27 27 (11943936)
I1226 07:02:46.883841 89170 net.cpp:243] Memory required for data: 423845376
I1226 07:02:46.883869 89170 layer_factory.hpp:114] Creating layer pool2
I1226 07:02:46.883921 89170 net.cpp:178] Creating Layer pool2
I1226 07:02:46.883954 89170 net.cpp:612] pool2 <- norm2
I1226 07:02:46.883985 89170 net.cpp:586] pool2 -> pool2
I1226 07:02:46.884055 89170 net.cpp:228] Setting up pool2
I1226 07:02:46.884089 89170 net.cpp:235] Top shape: 64 256 13 13 (2768896)
I1226 07:02:46.884202 89170 net.cpp:243] Memory required for data: 434920960
I1226 07:02:46.884261 89170 layer_factory.hpp:114] Creating layer conv3
I1226 07:02:46.884344 89170 net.cpp:178] Creating Layer conv3
I1226 07:02:46.884383 89170 net.cpp:612] conv3 <- pool2
I1226 07:02:46.884423 89170 net.cpp:586] conv3 -> conv3
I1226 07:02:46.898542 96083 net.cpp:228] Setting up conv4
I1226 07:02:46.898651 96083 net.cpp:235] Top shape: 64 384 13 13 (4153344)
I1226 07:02:46.898679 96083 net.cpp:243] Memory required for data: 484761088
I1226 07:02:46.898741 96083 layer_factory.hpp:114] Creating layer relu4
I1226 07:02:46.898813 96083 net.cpp:178] Creating Layer relu4
I1226 07:02:46.898854 96083 net.cpp:612] relu4 <- conv4
I1226 07:02:46.898903 96083 net.cpp:573] relu4 -> conv4 (in-place)
I1226 07:02:46.899006 96083 net.cpp:228] Setting up relu4
I1226 07:02:46.899060 96083 net.cpp:235] Top shape: 64 384 13 13 (4153344)
I1226 07:02:46.899108 96083 net.cpp:243] Memory required for data: 501374464
I1226 07:02:46.899142 96083 layer_factory.hpp:114] Creating layer conv5
I1226 07:02:46.899240 96083 net.cpp:178] Creating Layer conv5
I1226 07:02:46.899281 96083 net.cpp:612] conv5 <- conv4
I1226 07:02:46.899322 96083 net.cpp:586] conv5 -> conv5
I1226 07:02:46.976279 93507 net.cpp:228] Setting up conv1
I1226 07:02:46.976395 93507 net.cpp:235] Top shape: 64 96 55 55 (18585600)
I1226 07:02:46.976426 93507 net.cpp:243] Memory required for data: 113917440
I1226 07:02:46.976537 93507 layer_factory.hpp:114] Creating layer relu1
I1226 07:02:46.976639 93507 net.cpp:178] Creating Layer relu1
I1226 07:02:46.976683 93507 net.cpp:612] relu1 <- conv1
I1226 07:02:46.976727 93507 net.cpp:573] relu1 -> conv1 (in-place)
I1226 07:02:46.976866 93507 net.cpp:228] Setting up relu1
I1226 07:02:46.976927 93507 net.cpp:235] Top shape: 64 96 55 55 (18585600)
I1226 07:02:46.976953 93507 net.cpp:243] Memory required for data: 188259840
I1226 07:02:46.976982 93507 layer_factory.hpp:114] Creating layer norm1
I1226 07:02:46.977066 93507 net.cpp:178] Creating Layer norm1
I1226 07:02:46.977103 93507 net.cpp:612] norm1 <- conv1
I1226 07:02:46.977152 93507 net.cpp:586] norm1 -> norm1
I1226 07:02:46.977262 93507 net.cpp:228] Setting up norm1
I1226 07:02:46.977308 93507 net.cpp:235] Top shape: 64 96 55 55 (18585600)
I1226 07:02:46.977332 93507 net.cpp:243] Memory required for data: 262602240
I1226 07:02:46.977362 93507 layer_factory.hpp:114] Creating layer pool1
I1226 07:02:46.977428 93507 net.cpp:178] Creating Layer pool1
I1226 07:02:46.977463 93507 net.cpp:612] pool1 <- norm1
I1226 07:02:46.977510 93507 net.cpp:586] pool1 -> pool1
I1226 07:02:46.977601 93507 net.cpp:228] Setting up pool1
I1226 07:02:46.977645 93507 net.cpp:235] Top shape: 64 96 27 27 (4478976)
I1226 07:02:46.977669 93507 net.cpp:243] Memory required for data: 280518144
I1226 07:02:46.977696 93507 layer_factory.hpp:114] Creating layer conv2
I1226 07:02:46.977782 93507 net.cpp:178] Creating Layer conv2
I1226 07:02:46.977864 93507 net.cpp:612] conv2 <- pool1
I1226 07:02:46.977910 93507 net.cpp:586] conv2 -> conv2
I1226 07:02:47.047415 96083 net.cpp:228] Setting up conv5
I1226 07:02:47.047523 96083 net.cpp:235] Top shape: 64 256 13 13 (2768896)
I1226 07:02:47.047550 96083 net.cpp:243] Memory required for data: 512450048
I1226 07:02:47.047623 96083 layer_factory.hpp:114] Creating layer relu5
I1226 07:02:47.047688 96083 net.cpp:178] Creating Layer relu5
I1226 07:02:47.047716 96083 net.cpp:612] relu5 <- conv5
I1226 07:02:47.047868 96083 net.cpp:573] relu5 -> conv5 (in-place)
I1226 07:02:47.047971 96083 net.cpp:228] Setting up relu5
I1226 07:02:47.048019 96083 net.cpp:235] Top shape: 64 256 13 13 (2768896)
I1226 07:02:47.048048 96083 net.cpp:243] Memory required for data: 523525632
I1226 07:02:47.048101 96083 layer_factory.hpp:114] Creating layer pool5
I1226 07:02:47.048169 96083 net.cpp:178] Creating Layer pool5
I1226 07:02:47.048213 96083 net.cpp:612] pool5 <- conv5
I1226 07:02:47.048256 96083 net.cpp:586] pool5 -> pool5
I1226 07:02:47.048355 96083 net.cpp:228] Setting up pool5
I1226 07:02:47.048403 96083 net.cpp:235] Top shape: 64 256 6 6 (589824)
I1226 07:02:47.048425 96083 net.cpp:243] Memory required for data: 525884928
I1226 07:02:47.048451 96083 layer_factory.hpp:114] Creating layer fc6
I1226 07:02:47.048533 96083 net.cpp:178] Creating Layer fc6
I1226 07:02:47.048568 96083 net.cpp:612] fc6 <- pool5
I1226 07:02:47.048612 96083 net.cpp:586] fc6 -> fc6
I1226 07:02:47.120626 90546 net.cpp:228] Setting up conv3
I1226 07:02:47.120736 90546 net.cpp:235] Top shape: 64 384 13 13 (4153344)
I1226 07:02:47.120764 90546 net.cpp:243] Memory required for data: 451534336
I1226 07:02:47.120838 90546 layer_factory.hpp:114] Creating layer relu3
I1226 07:02:47.120923 90546 net.cpp:178] Creating Layer relu3
I1226 07:02:47.120964 90546 net.cpp:612] relu3 <- conv3
I1226 07:02:47.121008 90546 net.cpp:573] relu3 -> conv3 (in-place)
I1226 07:02:47.121121 90546 net.cpp:228] Setting up relu3
I1226 07:02:47.121206 90546 net.cpp:235] Top shape: 64 384 13 13 (4153344)
I1226 07:02:47.121237 90546 net.cpp:243] Memory required for data: 468147712
I1226 07:02:47.121269 90546 layer_factory.hpp:114] Creating layer conv4
I1226 07:02:47.121368 90546 net.cpp:178] Creating Layer conv4
I1226 07:02:47.121405 90546 net.cpp:612] conv4 <- conv3
I1226 07:02:47.121459 90546 net.cpp:586] conv4 -> conv4
I1226 07:02:47.124430 89165 net.cpp:228] Setting up conv3
I1226 07:02:47.124541 89165 net.cpp:235] Top shape: 64 384 13 13 (4153344)
I1226 07:02:47.124568 89165 net.cpp:243] Memory required for data: 451534336
I1226 07:02:47.124639 89165 layer_factory.hpp:114] Creating layer relu3
I1226 07:02:47.124721 89165 net.cpp:178] Creating Layer relu3
I1226 07:02:47.124759 89165 net.cpp:612] relu3 <- conv3
I1226 07:02:47.124800 89165 net.cpp:573] relu3 -> conv3 (in-place)
I1226 07:02:47.124891 89165 net.cpp:228] Setting up relu3
I1226 07:02:47.124935 89165 net.cpp:235] Top shape: 64 384 13 13 (4153344)
I1226 07:02:47.124958 89165 net.cpp:243] Memory required for data: 468147712
I1226 07:02:47.124987 89165 layer_factory.hpp:114] Creating layer conv4
I1226 07:02:47.125067 89165 net.cpp:178] Creating Layer conv4
I1226 07:02:47.125102 89165 net.cpp:612] conv4 <- conv3
I1226 07:02:47.125149 89165 net.cpp:586] conv4 -> conv4
I1226 07:02:47.233156 89451 net.cpp:228] Setting up conv3
I1226 07:02:47.233264 89451 net.cpp:235] Top shape: 64 384 13 13 (4153344)
I1226 07:02:47.233289 89451 net.cpp:243] Memory required for data: 451534336
I1226 07:02:47.233386 89451 layer_factory.hpp:114] Creating layer relu3
I1226 07:02:47.233466 89451 net.cpp:178] Creating Layer relu3
I1226 07:02:47.233522 89451 net.cpp:612] relu3 <- conv3
I1226 07:02:47.233561 89451 net.cpp:573] relu3 -> conv3 (in-place)
I1226 07:02:47.233666 89451 net.cpp:228] Setting up relu3
I1226 07:02:47.233713 89451 net.cpp:235] Top shape: 64 384 13 13 (4153344)
I1226 07:02:47.233736 89451 net.cpp:243] Memory required for data: 468147712
I1226 07:02:47.233764 89451 layer_factory.hpp:114] Creating layer conv4
I1226 07:02:47.233857 89451 net.cpp:178] Creating Layer conv4
I1226 07:02:47.233891 89451 net.cpp:612] conv4 <- conv3
I1226 07:02:47.233940 89451 net.cpp:586] conv4 -> conv4
I1226 07:02:47.246562 88126 net.cpp:228] Setting up conv3
I1226 07:02:47.246721 88126 net.cpp:235] Top shape: 64 384 13 13 (4153344)
I1226 07:02:47.246748 88126 net.cpp:243] Memory required for data: 451534336
I1226 07:02:47.246819 88126 layer_factory.hpp:114] Creating layer relu3
I1226 07:02:47.246886 88126 net.cpp:178] Creating Layer relu3
I1226 07:02:47.246915 88126 net.cpp:612] relu3 <- conv3
I1226 07:02:47.246973 88126 net.cpp:573] relu3 -> conv3 (in-place)
I1226 07:02:47.247068 88126 net.cpp:228] Setting up relu3
I1226 07:02:47.247104 88126 net.cpp:235] Top shape: 64 384 13 13 (4153344)
I1226 07:02:47.247128 88126 net.cpp:243] Memory required for data: 468147712
I1226 07:02:47.247153 88126 layer_factory.hpp:114] Creating layer conv4
I1226 07:02:47.247232 88126 net.cpp:178] Creating Layer conv4
I1226 07:02:47.247277 88126 net.cpp:612] conv4 <- conv3
I1226 07:02:47.247331 88126 net.cpp:586] conv4 -> conv4
I1226 07:02:47.254883 89377 net.cpp:228] Setting up conv3
I1226 07:02:47.255028 89377 net.cpp:235] Top shape: 64 384 13 13 (4153344)
I1226 07:02:47.255065 89377 net.cpp:243] Memory required for data: 451534336
I1226 07:02:47.255141 89377 layer_factory.hpp:114] Creating layer relu3
I1226 07:02:47.255553 89377 net.cpp:178] Creating Layer relu3
I1226 07:02:47.255626 89377 net.cpp:612] relu3 <- conv3
I1226 07:02:47.255753 89377 net.cpp:573] relu3 -> conv3 (in-place)
I1226 07:02:47.255915 89377 net.cpp:228] Setting up relu3
I1226 07:02:47.255995 89377 net.cpp:235] Top shape: 64 384 13 13 (4153344)
I1226 07:02:47.256026 89377 net.cpp:243] Memory required for data: 468147712
I1226 07:02:47.256072 89377 layer_factory.hpp:114] Creating layer conv4
I1226 07:02:47.256181 89377 net.cpp:178] Creating Layer conv4
I1226 07:02:47.256214 89377 net.cpp:612] conv4 <- conv3
I1226 07:02:47.256268 89377 net.cpp:586] conv4 -> conv4
I1226 07:02:47.255695 51587 net.cpp:228] Setting up conv3
I1226 07:02:47.255801 51587 net.cpp:235] Top shape: 64 384 13 13 (4153344)
I1226 07:02:47.255828 51587 net.cpp:243] Memory required for data: 451534336
I1226 07:02:47.255918 51587 layer_factory.hpp:114] Creating layer relu3
I1226 07:02:47.255988 51587 net.cpp:178] Creating Layer relu3
I1226 07:02:47.256038 51587 net.cpp:612] relu3 <- conv3
I1226 07:02:47.256078 51587 net.cpp:573] relu3 -> conv3 (in-place)
I1226 07:02:47.256198 51587 net.cpp:228] Setting up relu3
I1226 07:02:47.256242 51587 net.cpp:235] Top shape: 64 384 13 13 (4153344)
I1226 07:02:47.256265 51587 net.cpp:243] Memory required for data: 468147712
I1226 07:02:47.256294 51587 layer_factory.hpp:114] Creating layer conv4
I1226 07:02:47.256374 51587 net.cpp:178] Creating Layer conv4
I1226 07:02:47.256472 51587 net.cpp:612] conv4 <- conv3
I1226 07:02:47.256527 51587 net.cpp:586] conv4 -> conv4
I1226 07:02:47.269877 89170 net.cpp:228] Setting up conv3
I1226 07:02:47.269984 89170 net.cpp:235] Top shape: 64 384 13 13 (4153344)
I1226 07:02:47.270009 89170 net.cpp:243] Memory required for data: 451534336
I1226 07:02:47.270094 89170 layer_factory.hpp:114] Creating layer relu3
I1226 07:02:47.270186 89170 net.cpp:178] Creating Layer relu3
I1226 07:02:47.270325 89170 net.cpp:612] relu3 <- conv3
I1226 07:02:47.270386 89170 net.cpp:573] relu3 -> conv3 (in-place)
I1226 07:02:47.270479 89170 net.cpp:228] Setting up relu3
I1226 07:02:47.270561 89170 net.cpp:235] Top shape: 64 384 13 13 (4153344)
I1226 07:02:47.270586 89170 net.cpp:243] Memory required for data: 468147712
I1226 07:02:47.270634 89170 layer_factory.hpp:114] Creating layer conv4
I1226 07:02:47.270771 89170 net.cpp:178] Creating Layer conv4
I1226 07:02:47.270800 89170 net.cpp:612] conv4 <- conv3
I1226 07:02:47.270848 89170 net.cpp:586] conv4 -> conv4
I1226 07:02:47.430802 90546 net.cpp:228] Setting up conv4
I1226 07:02:47.430912 90546 net.cpp:235] Top shape: 64 384 13 13 (4153344)
I1226 07:02:47.430939 90546 net.cpp:243] Memory required for data: 484761088
I1226 07:02:47.430997 90546 layer_factory.hpp:114] Creating layer relu4
I1226 07:02:47.431061 90546 net.cpp:178] Creating Layer relu4
I1226 07:02:47.431097 90546 net.cpp:612] relu4 <- conv4
I1226 07:02:47.431161 90546 net.cpp:573] relu4 -> conv4 (in-place)
I1226 07:02:47.431303 90546 net.cpp:228] Setting up relu4
I1226 07:02:47.431375 90546 net.cpp:235] Top shape: 64 384 13 13 (4153344)
I1226 07:02:47.431406 90546 net.cpp:243] Memory required for data: 501374464
I1226 07:02:47.431470 90546 layer_factory.hpp:114] Creating layer conv5
I1226 07:02:47.431565 90546 net.cpp:178] Creating Layer conv5
I1226 07:02:47.431597 90546 net.cpp:612] conv5 <- conv4
I1226 07:02:47.431676 90546 net.cpp:586] conv5 -> conv5
I1226 07:02:47.471761 89165 net.cpp:228] Setting up conv4
I1226 07:02:47.471895 89165 net.cpp:235] Top shape: 64 384 13 13 (4153344)
I1226 07:02:47.471923 89165 net.cpp:243] Memory required for data: 484761088
I1226 07:02:47.472017 89165 layer_factory.hpp:114] Creating layer relu4
I1226 07:02:47.472138 89165 net.cpp:178] Creating Layer relu4
I1226 07:02:47.472184 89165 net.cpp:612] relu4 <- conv4
I1226 07:02:47.472241 89165 net.cpp:573] relu4 -> conv4 (in-place)
I1226 07:02:47.472697 89165 net.cpp:228] Setting up relu4
I1226 07:02:47.472801 89165 net.cpp:235] Top shape: 64 384 13 13 (4153344)
I1226 07:02:47.472827 89165 net.cpp:243] Memory required for data: 501374464
I1226 07:02:47.472861 89165 layer_factory.hpp:114] Creating layer conv5
I1226 07:02:47.472983 89165 net.cpp:178] Creating Layer conv5
I1226 07:02:47.473115 89165 net.cpp:612] conv5 <- conv4
I1226 07:02:47.473182 89165 net.cpp:586] conv5 -> conv5
I1226 07:02:47.544112 89451 net.cpp:228] Setting up conv4
I1226 07:02:47.544251 89451 net.cpp:235] Top shape: 64 384 13 13 (4153344)
I1226 07:02:47.544286 89451 net.cpp:243] Memory required for data: 484761088
I1226 07:02:47.544345 89451 layer_factory.hpp:114] Creating layer relu4
I1226 07:02:47.544471 89451 net.cpp:178] Creating Layer relu4
I1226 07:02:47.544559 89451 net.cpp:612] relu4 <- conv4
I1226 07:02:47.544632 89451 net.cpp:573] relu4 -> conv4 (in-place)
I1226 07:02:47.544761 89451 net.cpp:228] Setting up relu4
I1226 07:02:47.544953 89451 net.cpp:235] Top shape: 64 384 13 13 (4153344)
I1226 07:02:47.544980 89451 net.cpp:243] Memory required for data: 501374464
I1226 07:02:47.545030 89451 layer_factory.hpp:114] Creating layer conv5
I1226 07:02:47.545126 89451 net.cpp:178] Creating Layer conv5
I1226 07:02:47.545742 89451 net.cpp:612] conv5 <- conv4
I1226 07:02:47.545917 89451 net.cpp:586] conv5 -> conv5
I1226 07:02:47.546833 88126 net.cpp:228] Setting up conv4
I1226 07:02:47.546969 88126 net.cpp:235] Top shape: 64 384 13 13 (4153344)
I1226 07:02:47.546996 88126 net.cpp:243] Memory required for data: 484761088
I1226 07:02:47.547055 88126 layer_factory.hpp:114] Creating layer relu4
I1226 07:02:47.547122 88126 net.cpp:178] Creating Layer relu4
I1226 07:02:47.547178 88126 net.cpp:612] relu4 <- conv4
I1226 07:02:47.547296 88126 net.cpp:573] relu4 -> conv4 (in-place)
I1226 07:02:47.547372 88126 net.cpp:228] Setting up relu4
I1226 07:02:47.547417 88126 net.cpp:235] Top shape: 64 384 13 13 (4153344)
I1226 07:02:47.547441 88126 net.cpp:243] Memory required for data: 501374464
I1226 07:02:47.547468 88126 layer_factory.hpp:114] Creating layer conv5
I1226 07:02:47.547560 88126 net.cpp:178] Creating Layer conv5
I1226 07:02:47.547627 88126 net.cpp:612] conv5 <- conv4
I1226 07:02:47.547694 88126 net.cpp:586] conv5 -> conv5
I1226 07:02:47.562126 89170 net.cpp:228] Setting up conv4
I1226 07:02:47.563093 51587 net.cpp:228] Setting up conv4
I1226 07:02:47.562269 89170 net.cpp:235] Top shape: 64 384 13 13 (4153344)
I1226 07:02:47.562304 89170 net.cpp:243] Memory required for data: 484761088
I1226 07:02:47.563482 51587 net.cpp:235] Top shape: 64 384 13 13 (4153344)
I1226 07:02:47.562364 89170 layer_factory.hpp:114] Creating layer relu4
I1226 07:02:47.562453 89170 net.cpp:178] Creating Layer relu4
I1226 07:02:47.562500 89170 net.cpp:612] relu4 <- conv4
I1226 07:02:47.562662 89170 net.cpp:573] relu4 -> conv4 (in-place)
I1226 07:02:47.563513 51587 net.cpp:243] Memory required for data: 484761088
I1226 07:02:47.562858 89170 net.cpp:228] Setting up relu4
I1226 07:02:47.563952 51587 layer_factory.hpp:114] Creating layer relu4
I1226 07:02:47.564059 51587 net.cpp:178] Creating Layer relu4
I1226 07:02:47.564193 51587 net.cpp:612] relu4 <- conv4
I1226 07:02:47.564261 51587 net.cpp:573] relu4 -> conv4 (in-place)
I1226 07:02:47.564368 51587 net.cpp:228] Setting up relu4
I1226 07:02:47.562916 89170 net.cpp:235] Top shape: 64 384 13 13 (4153344)
I1226 07:02:47.564420 51587 net.cpp:235] Top shape: 64 384 13 13 (4153344)
I1226 07:02:47.564443 51587 net.cpp:243] Memory required for data: 501374464
I1226 07:02:47.563302 89170 net.cpp:243] Memory required for data: 501374464
I1226 07:02:47.564473 51587 layer_factory.hpp:114] Creating layer conv5
I1226 07:02:47.563386 89170 layer_factory.hpp:114] Creating layer conv5
I1226 07:02:47.564580 51587 net.cpp:178] Creating Layer conv5
I1226 07:02:47.564633 51587 net.cpp:612] conv5 <- conv4
I1226 07:02:47.563531 89170 net.cpp:178] Creating Layer conv5
I1226 07:02:47.563627 89170 net.cpp:612] conv5 <- conv4
I1226 07:02:47.564939 51587 net.cpp:586] conv5 -> conv5
I1226 07:02:47.563684 89170 net.cpp:586] conv5 -> conv5
I1226 07:02:47.583225 89377 net.cpp:228] Setting up conv4
I1226 07:02:47.583369 89377 net.cpp:235] Top shape: 64 384 13 13 (4153344)
I1226 07:02:47.583401 89377 net.cpp:243] Memory required for data: 484761088
I1226 07:02:47.583490 89377 layer_factory.hpp:114] Creating layer relu4
I1226 07:02:47.583556 89377 net.cpp:178] Creating Layer relu4
I1226 07:02:47.583602 89377 net.cpp:612] relu4 <- conv4
I1226 07:02:47.583660 89377 net.cpp:573] relu4 -> conv4 (in-place)
I1226 07:02:47.583787 89377 net.cpp:228] Setting up relu4
I1226 07:02:47.583971 89377 net.cpp:235] Top shape: 64 384 13 13 (4153344)
I1226 07:02:47.584005 89377 net.cpp:243] Memory required for data: 501374464
I1226 07:02:47.584038 89377 layer_factory.hpp:114] Creating layer conv5
I1226 07:02:47.584127 89377 net.cpp:178] Creating Layer conv5
I1226 07:02:47.584600 89377 net.cpp:612] conv5 <- conv4
I1226 07:02:47.584699 89377 net.cpp:586] conv5 -> conv5
I1226 07:02:47.660084 90546 net.cpp:228] Setting up conv5
I1226 07:02:47.660223 90546 net.cpp:235] Top shape: 64 256 13 13 (2768896)
I1226 07:02:47.660253 90546 net.cpp:243] Memory required for data: 512450048
I1226 07:02:47.660326 90546 layer_factory.hpp:114] Creating layer relu5
I1226 07:02:47.660415 90546 net.cpp:178] Creating Layer relu5
I1226 07:02:47.660455 90546 net.cpp:612] relu5 <- conv5
I1226 07:02:47.660496 90546 net.cpp:573] relu5 -> conv5 (in-place)
I1226 07:02:47.660591 90546 net.cpp:228] Setting up relu5
I1226 07:02:47.660636 90546 net.cpp:235] Top shape: 64 256 13 13 (2768896)
I1226 07:02:47.660660 90546 net.cpp:243] Memory required for data: 523525632
I1226 07:02:47.660688 90546 layer_factory.hpp:114] Creating layer pool5
I1226 07:02:47.660751 90546 net.cpp:178] Creating Layer pool5
I1226 07:02:47.660784 90546 net.cpp:612] pool5 <- conv5
I1226 07:02:47.660821 90546 net.cpp:586] pool5 -> pool5
I1226 07:02:47.660912 90546 net.cpp:228] Setting up pool5
I1226 07:02:47.660979 90546 net.cpp:235] Top shape: 64 256 6 6 (589824)
I1226 07:02:47.661003 90546 net.cpp:243] Memory required for data: 525884928
I1226 07:02:47.661031 90546 layer_factory.hpp:114] Creating layer fc6
I1226 07:02:47.661104 90546 net.cpp:178] Creating Layer fc6
I1226 07:02:47.661133 90546 net.cpp:612] fc6 <- pool5
I1226 07:02:47.661239 90546 net.cpp:586] fc6 -> fc6
I1226 07:02:47.709610 89165 net.cpp:228] Setting up conv5
I1226 07:02:47.709722 89165 net.cpp:235] Top shape: 64 256 13 13 (2768896)
I1226 07:02:47.709785 89165 net.cpp:243] Memory required for data: 512450048
I1226 07:02:47.709888 89165 layer_factory.hpp:114] Creating layer relu5
I1226 07:02:47.710080 89165 net.cpp:178] Creating Layer relu5
I1226 07:02:47.710115 89165 net.cpp:612] relu5 <- conv5
I1226 07:02:47.710155 89165 net.cpp:573] relu5 -> conv5 (in-place)
I1226 07:02:47.710278 89165 net.cpp:228] Setting up relu5
I1226 07:02:47.710356 89165 net.cpp:235] Top shape: 64 256 13 13 (2768896)
I1226 07:02:47.710381 89165 net.cpp:243] Memory required for data: 523525632
I1226 07:02:47.710412 89165 layer_factory.hpp:114] Creating layer pool5
I1226 07:02:47.710589 89165 net.cpp:178] Creating Layer pool5
I1226 07:02:47.710644 89165 net.cpp:612] pool5 <- conv5
I1226 07:02:47.710788 89165 net.cpp:586] pool5 -> pool5
I1226 07:02:47.710886 89165 net.cpp:228] Setting up pool5
I1226 07:02:47.710952 89165 net.cpp:235] Top shape: 64 256 6 6 (589824)
I1226 07:02:47.710978 89165 net.cpp:243] Memory required for data: 525884928
I1226 07:02:47.711343 89165 layer_factory.hpp:114] Creating layer fc6
I1226 07:02:47.711467 89165 net.cpp:178] Creating Layer fc6
I1226 07:02:47.711500 89165 net.cpp:612] fc6 <- pool5
I1226 07:02:47.711599 89165 net.cpp:586] fc6 -> fc6
I1226 07:02:47.750870 88126 net.cpp:228] Setting up conv5
I1226 07:02:47.751014 88126 net.cpp:235] Top shape: 64 256 13 13 (2768896)
I1226 07:02:47.751080 88126 net.cpp:243] Memory required for data: 512450048
I1226 07:02:47.751307 88126 layer_factory.hpp:114] Creating layer relu5
I1226 07:02:47.751404 88126 net.cpp:178] Creating Layer relu5
I1226 07:02:47.751441 88126 net.cpp:612] relu5 <- conv5
I1226 07:02:47.751526 88126 net.cpp:573] relu5 -> conv5 (in-place)
I1226 07:02:47.751660 88126 net.cpp:228] Setting up relu5
I1226 07:02:47.752048 88126 net.cpp:235] Top shape: 64 256 13 13 (2768896)
I1226 07:02:47.752081 88126 net.cpp:243] Memory required for data: 523525632
I1226 07:02:47.752117 88126 layer_factory.hpp:114] Creating layer pool5
I1226 07:02:47.752316 88126 net.cpp:178] Creating Layer pool5
I1226 07:02:47.752359 88126 net.cpp:612] pool5 <- conv5
I1226 07:02:47.752427 88126 net.cpp:586] pool5 -> pool5
I1226 07:02:47.752661 88126 net.cpp:228] Setting up pool5
I1226 07:02:47.752745 88126 net.cpp:235] Top shape: 64 256 6 6 (589824)
I1226 07:02:47.752794 88126 net.cpp:243] Memory required for data: 525884928
I1226 07:02:47.752830 88126 layer_factory.hpp:114] Creating layer fc6
I1226 07:02:47.752944 88126 net.cpp:178] Creating Layer fc6
I1226 07:02:47.752979 88126 net.cpp:612] fc6 <- pool5
I1226 07:02:47.753036 88126 net.cpp:586] fc6 -> fc6
I1226 07:02:47.781030 89451 net.cpp:228] Setting up conv5
I1226 07:02:47.781144 89451 net.cpp:235] Top shape: 64 256 13 13 (2768896)
I1226 07:02:47.781170 89451 net.cpp:243] Memory required for data: 512450048
I1226 07:02:47.781242 89451 layer_factory.hpp:114] Creating layer relu5
I1226 07:02:47.781325 89451 net.cpp:178] Creating Layer relu5
I1226 07:02:47.781443 89451 net.cpp:612] relu5 <- conv5
I1226 07:02:47.781505 89451 net.cpp:573] relu5 -> conv5 (in-place)
I1226 07:02:47.781611 89451 net.cpp:228] Setting up relu5
I1226 07:02:47.781661 89451 net.cpp:235] Top shape: 64 256 13 13 (2768896)
I1226 07:02:47.781687 89451 net.cpp:243] Memory required for data: 523525632
I1226 07:02:47.781714 89451 layer_factory.hpp:114] Creating layer pool5
I1226 07:02:47.781777 89451 net.cpp:178] Creating Layer pool5
I1226 07:02:47.781813 89451 net.cpp:612] pool5 <- conv5
I1226 07:02:47.781852 89451 net.cpp:586] pool5 -> pool5
I1226 07:02:47.781941 89451 net.cpp:228] Setting up pool5
I1226 07:02:47.781994 89451 net.cpp:235] Top shape: 64 256 6 6 (589824)
I1226 07:02:47.782016 89451 net.cpp:243] Memory required for data: 525884928
I1226 07:02:47.782042 89451 layer_factory.hpp:114] Creating layer fc6
I1226 07:02:47.782124 89451 net.cpp:178] Creating Layer fc6
I1226 07:02:47.782155 89451 net.cpp:612] fc6 <- pool5
I1226 07:02:47.782204 89451 net.cpp:586] fc6 -> fc6
I1226 07:02:47.809294 51587 net.cpp:228] Setting up conv5
I1226 07:02:47.809406 51587 net.cpp:235] Top shape: 64 256 13 13 (2768896)
I1226 07:02:47.809432 51587 net.cpp:243] Memory required for data: 512450048
I1226 07:02:47.809556 51587 layer_factory.hpp:114] Creating layer relu5
I1226 07:02:47.809638 51587 net.cpp:178] Creating Layer relu5
I1226 07:02:47.809788 51587 net.cpp:612] relu5 <- conv5
I1226 07:02:47.809842 51587 net.cpp:573] relu5 -> conv5 (in-place)
I1226 07:02:47.809939 51587 net.cpp:228] Setting up relu5
I1226 07:02:47.810359 51587 net.cpp:235] Top shape: 64 256 13 13 (2768896)
I1226 07:02:47.810433 51587 net.cpp:243] Memory required for data: 523525632
I1226 07:02:47.810524 51587 layer_factory.hpp:114] Creating layer pool5
I1226 07:02:47.810632 51587 net.cpp:178] Creating Layer pool5
I1226 07:02:47.810705 51587 net.cpp:612] pool5 <- conv5
I1226 07:02:47.810752 51587 net.cpp:586] pool5 -> pool5
I1226 07:02:47.810854 51587 net.cpp:228] Setting up pool5
I1226 07:02:47.810904 51587 net.cpp:235] Top shape: 64 256 6 6 (589824)
I1226 07:02:47.810927 51587 net.cpp:243] Memory required for data: 525884928
I1226 07:02:47.810956 51587 layer_factory.hpp:114] Creating layer fc6
I1226 07:02:47.811034 51587 net.cpp:178] Creating Layer fc6
I1226 07:02:47.811066 51587 net.cpp:612] fc6 <- pool5
I1226 07:02:47.811105 51587 net.cpp:586] fc6 -> fc6
I1226 07:02:47.818888 89170 net.cpp:228] Setting up conv5
I1226 07:02:47.819005 89170 net.cpp:235] Top shape: 64 256 13 13 (2768896)
I1226 07:02:47.819036 89170 net.cpp:243] Memory required for data: 512450048
I1226 07:02:47.819598 89170 layer_factory.hpp:114] Creating layer relu5
I1226 07:02:47.819779 89170 net.cpp:178] Creating Layer relu5
I1226 07:02:47.819860 89170 net.cpp:612] relu5 <- conv5
I1226 07:02:47.819916 89170 net.cpp:573] relu5 -> conv5 (in-place)
I1226 07:02:47.820093 89170 net.cpp:228] Setting up relu5
I1226 07:02:47.820381 89170 net.cpp:235] Top shape: 64 256 13 13 (2768896)
I1226 07:02:47.820432 89170 net.cpp:243] Memory required for data: 523525632
I1226 07:02:47.820466 89170 layer_factory.hpp:114] Creating layer pool5
I1226 07:02:47.820830 89170 net.cpp:178] Creating Layer pool5
I1226 07:02:47.820897 89170 net.cpp:612] pool5 <- conv5
I1226 07:02:47.820960 89170 net.cpp:586] pool5 -> pool5
I1226 07:02:47.821110 89170 net.cpp:228] Setting up pool5
I1226 07:02:47.821162 89170 net.cpp:235] Top shape: 64 256 6 6 (589824)
I1226 07:02:47.821239 89170 net.cpp:243] Memory required for data: 525884928
I1226 07:02:47.821275 89170 layer_factory.hpp:114] Creating layer fc6
I1226 07:02:47.821382 89170 net.cpp:178] Creating Layer fc6
I1226 07:02:47.821419 89170 net.cpp:612] fc6 <- pool5
I1226 07:02:47.821480 89170 net.cpp:586] fc6 -> fc6
I1226 07:02:47.825363 89377 net.cpp:228] Setting up conv5
I1226 07:02:47.825479 89377 net.cpp:235] Top shape: 64 256 13 13 (2768896)
I1226 07:02:47.825511 89377 net.cpp:243] Memory required for data: 512450048
I1226 07:02:47.825588 89377 layer_factory.hpp:114] Creating layer relu5
I1226 07:02:47.825682 89377 net.cpp:178] Creating Layer relu5
I1226 07:02:47.825731 89377 net.cpp:612] relu5 <- conv5
I1226 07:02:47.825783 89377 net.cpp:573] relu5 -> conv5 (in-place)
I1226 07:02:47.825963 89377 net.cpp:228] Setting up relu5
I1226 07:02:47.826174 89377 net.cpp:235] Top shape: 64 256 13 13 (2768896)
I1226 07:02:47.826212 89377 net.cpp:243] Memory required for data: 523525632
I1226 07:02:47.826247 89377 layer_factory.hpp:114] Creating layer pool5
I1226 07:02:47.826326 89377 net.cpp:178] Creating Layer pool5
I1226 07:02:47.826377 89377 net.cpp:612] pool5 <- conv5
I1226 07:02:47.826452 89377 net.cpp:586] pool5 -> pool5
I1226 07:02:47.827164 89377 net.cpp:228] Setting up pool5
I1226 07:02:47.827316 89377 net.cpp:235] Top shape: 64 256 6 6 (589824)
I1226 07:02:47.827419 89377 net.cpp:243] Memory required for data: 525884928
I1226 07:02:47.827462 89377 layer_factory.hpp:114] Creating layer fc6
I1226 07:02:47.827599 89377 net.cpp:178] Creating Layer fc6
I1226 07:02:47.827651 89377 net.cpp:612] fc6 <- pool5
I1226 07:02:47.827700 89377 net.cpp:586] fc6 -> fc6
I1226 07:02:48.419587 93507 net.cpp:228] Setting up conv2
I1226 07:02:48.421298 93507 net.cpp:235] Top shape: 64 256 27 27 (11943936)
I1226 07:02:48.421367 93507 net.cpp:243] Memory required for data: 328293888
I1226 07:02:48.421489 93507 layer_factory.hpp:114] Creating layer relu2
I1226 07:02:48.421622 93507 net.cpp:178] Creating Layer relu2
I1226 07:02:48.421736 93507 net.cpp:612] relu2 <- conv2
I1226 07:02:48.421782 93507 net.cpp:573] relu2 -> conv2 (in-place)
I1226 07:02:48.421916 93507 net.cpp:228] Setting up relu2
I1226 07:02:48.421970 93507 net.cpp:235] Top shape: 64 256 27 27 (11943936)
I1226 07:02:48.421998 93507 net.cpp:243] Memory required for data: 376069632
I1226 07:02:48.422041 93507 layer_factory.hpp:114] Creating layer norm2
I1226 07:02:48.422108 93507 net.cpp:178] Creating Layer norm2
I1226 07:02:48.422147 93507 net.cpp:612] norm2 <- conv2
I1226 07:02:48.422188 93507 net.cpp:586] norm2 -> norm2
I1226 07:02:48.422289 93507 net.cpp:228] Setting up norm2
I1226 07:02:48.422343 93507 net.cpp:235] Top shape: 64 256 27 27 (11943936)
I1226 07:02:48.422369 93507 net.cpp:243] Memory required for data: 423845376
I1226 07:02:48.422399 93507 layer_factory.hpp:114] Creating layer pool2
I1226 07:02:48.422456 93507 net.cpp:178] Creating Layer pool2
I1226 07:02:48.422492 93507 net.cpp:612] pool2 <- norm2
I1226 07:02:48.422529 93507 net.cpp:586] pool2 -> pool2
I1226 07:02:48.422610 93507 net.cpp:228] Setting up pool2
I1226 07:02:48.422655 93507 net.cpp:235] Top shape: 64 256 13 13 (2768896)
I1226 07:02:48.422780 93507 net.cpp:243] Memory required for data: 434920960
I1226 07:02:48.422842 93507 layer_factory.hpp:114] Creating layer conv3
I1226 07:02:48.422937 93507 net.cpp:178] Creating Layer conv3
I1226 07:02:48.422976 93507 net.cpp:612] conv3 <- pool2
I1226 07:02:48.423022 93507 net.cpp:586] conv3 -> conv3
I1226 07:02:49.713770 93507 net.cpp:228] Setting up conv3
I1226 07:02:49.713906 93507 net.cpp:235] Top shape: 64 384 13 13 (4153344)
I1226 07:02:49.713935 93507 net.cpp:243] Memory required for data: 451534336
I1226 07:02:49.714032 93507 layer_factory.hpp:114] Creating layer relu3
I1226 07:02:49.714187 93507 net.cpp:178] Creating Layer relu3
I1226 07:02:49.714231 93507 net.cpp:612] relu3 <- conv3
I1226 07:02:49.714278 93507 net.cpp:573] relu3 -> conv3 (in-place)
I1226 07:02:49.714382 93507 net.cpp:228] Setting up relu3
I1226 07:02:49.714431 93507 net.cpp:235] Top shape: 64 384 13 13 (4153344)
I1226 07:02:49.714457 93507 net.cpp:243] Memory required for data: 468147712
I1226 07:02:49.714488 93507 layer_factory.hpp:114] Creating layer conv4
I1226 07:02:49.714586 93507 net.cpp:178] Creating Layer conv4
I1226 07:02:49.714627 93507 net.cpp:612] conv4 <- conv3
I1226 07:02:49.714670 93507 net.cpp:586] conv4 -> conv4
I1226 07:02:50.589476 93507 net.cpp:228] Setting up conv4
I1226 07:02:50.589604 93507 net.cpp:235] Top shape: 64 384 13 13 (4153344)
I1226 07:02:50.589635 93507 net.cpp:243] Memory required for data: 484761088
I1226 07:02:50.589700 93507 layer_factory.hpp:114] Creating layer relu4
I1226 07:02:50.589772 93507 net.cpp:178] Creating Layer relu4
I1226 07:02:50.589833 93507 net.cpp:612] relu4 <- conv4
I1226 07:02:50.589895 93507 net.cpp:573] relu4 -> conv4 (in-place)
I1226 07:02:50.590014 93507 net.cpp:228] Setting up relu4
I1226 07:02:50.590068 93507 net.cpp:235] Top shape: 64 384 13 13 (4153344)
I1226 07:02:50.590093 93507 net.cpp:243] Memory required for data: 501374464
I1226 07:02:50.590126 93507 layer_factory.hpp:114] Creating layer conv5
I1226 07:02:50.590216 93507 net.cpp:178] Creating Layer conv5
I1226 07:02:50.590256 93507 net.cpp:612] conv5 <- conv4
I1226 07:02:50.590309 93507 net.cpp:586] conv5 -> conv5
I1226 07:02:51.217679 93507 net.cpp:228] Setting up conv5
I1226 07:02:51.217828 93507 net.cpp:235] Top shape: 64 256 13 13 (2768896)
I1226 07:02:51.217865 93507 net.cpp:243] Memory required for data: 512450048
I1226 07:02:51.217948 93507 layer_factory.hpp:114] Creating layer relu5
I1226 07:02:51.218112 93507 net.cpp:178] Creating Layer relu5
I1226 07:02:51.218163 93507 net.cpp:612] relu5 <- conv5
I1226 07:02:51.218209 93507 net.cpp:573] relu5 -> conv5 (in-place)
I1226 07:02:51.218317 93507 net.cpp:228] Setting up relu5
I1226 07:02:51.218369 93507 net.cpp:235] Top shape: 64 256 13 13 (2768896)
I1226 07:02:51.218397 93507 net.cpp:243] Memory required for data: 523525632
I1226 07:02:51.218439 93507 layer_factory.hpp:114] Creating layer pool5
I1226 07:02:51.218513 93507 net.cpp:178] Creating Layer pool5
I1226 07:02:51.218550 93507 net.cpp:612] pool5 <- conv5
I1226 07:02:51.218600 93507 net.cpp:586] pool5 -> pool5
I1226 07:02:51.218701 93507 net.cpp:228] Setting up pool5
I1226 07:02:51.218753 93507 net.cpp:235] Top shape: 64 256 6 6 (589824)
I1226 07:02:51.218780 93507 net.cpp:243] Memory required for data: 525884928
I1226 07:02:51.218834 93507 layer_factory.hpp:114] Creating layer fc6
I1226 07:02:51.218924 93507 net.cpp:178] Creating Layer fc6
I1226 07:02:51.218961 93507 net.cpp:612] fc6 <- pool5
I1226 07:02:51.219020 93507 net.cpp:586] fc6 -> fc6
I1226 07:02:52.158545 96083 net.cpp:228] Setting up fc6
I1226 07:02:52.158663 96083 net.cpp:235] Top shape: 64 4096 (262144)
I1226 07:02:52.158692 96083 net.cpp:243] Memory required for data: 526933504
I1226 07:02:52.158751 96083 layer_factory.hpp:114] Creating layer relu6
I1226 07:02:52.158850 96083 net.cpp:178] Creating Layer relu6
I1226 07:02:52.158954 96083 net.cpp:612] relu6 <- fc6
I1226 07:02:52.158993 96083 net.cpp:573] relu6 -> fc6 (in-place)
I1226 07:02:52.159106 96083 net.cpp:228] Setting up relu6
I1226 07:02:52.159159 96083 net.cpp:235] Top shape: 64 4096 (262144)
I1226 07:02:52.159298 96083 net.cpp:243] Memory required for data: 527982080
I1226 07:02:52.159342 96083 layer_factory.hpp:114] Creating layer drop6
I1226 07:02:52.159412 96083 net.cpp:178] Creating Layer drop6
I1226 07:02:52.159451 96083 net.cpp:612] drop6 <- fc6
I1226 07:02:52.159487 96083 net.cpp:573] drop6 -> fc6 (in-place)
I1226 07:02:52.159545 96083 net.cpp:228] Setting up drop6
I1226 07:02:52.159584 96083 net.cpp:235] Top shape: 64 4096 (262144)
I1226 07:02:52.159616 96083 net.cpp:243] Memory required for data: 529030656
I1226 07:02:52.159646 96083 layer_factory.hpp:114] Creating layer fc7
I1226 07:02:52.159703 96083 net.cpp:178] Creating Layer fc7
I1226 07:02:52.159736 96083 net.cpp:612] fc7 <- fc6
I1226 07:02:52.159790 96083 net.cpp:586] fc7 -> fc7
I1226 07:02:53.397941 89377 net.cpp:228] Setting up fc6
I1226 07:02:53.398080 89377 net.cpp:235] Top shape: 64 4096 (262144)
I1226 07:02:53.398109 89377 net.cpp:243] Memory required for data: 526933504
I1226 07:02:53.398192 89377 layer_factory.hpp:114] Creating layer relu6
I1226 07:02:53.398289 89377 net.cpp:178] Creating Layer relu6
I1226 07:02:53.398334 89377 net.cpp:612] relu6 <- fc6
I1226 07:02:53.398373 89377 net.cpp:573] relu6 -> fc6 (in-place)
I1226 07:02:53.398576 89377 net.cpp:228] Setting up relu6
I1226 07:02:53.398720 89377 net.cpp:235] Top shape: 64 4096 (262144)
I1226 07:02:53.398751 89377 net.cpp:243] Memory required for data: 527982080
I1226 07:02:53.398782 89377 layer_factory.hpp:114] Creating layer drop6
I1226 07:02:53.398872 89377 net.cpp:178] Creating Layer drop6
I1226 07:02:53.398998 89377 net.cpp:612] drop6 <- fc6
I1226 07:02:53.399056 89377 net.cpp:573] drop6 -> fc6 (in-place)
I1226 07:02:53.399111 89377 net.cpp:228] Setting up drop6
I1226 07:02:53.399148 89377 net.cpp:235] Top shape: 64 4096 (262144)
I1226 07:02:53.399171 89377 net.cpp:243] Memory required for data: 529030656
I1226 07:02:53.399199 89377 layer_factory.hpp:114] Creating layer fc7
I1226 07:02:53.399263 89377 net.cpp:178] Creating Layer fc7
I1226 07:02:53.399296 89377 net.cpp:612] fc7 <- fc6
I1226 07:02:53.399333 89377 net.cpp:586] fc7 -> fc7
I1226 07:02:53.420733 89165 net.cpp:228] Setting up fc6
I1226 07:02:53.419478 88126 net.cpp:228] Setting up fc6
I1226 07:02:53.420850 89165 net.cpp:235] Top shape: 64 4096 (262144)
I1226 07:02:53.420877 89165 net.cpp:243] Memory required for data: 526933504
I1226 07:02:53.419616 88126 net.cpp:235] Top shape: 64 4096 (262144)
I1226 07:02:53.419651 88126 net.cpp:243] Memory required for data: 526933504
I1226 07:02:53.420963 89165 layer_factory.hpp:114] Creating layer relu6
I1226 07:02:53.419710 88126 layer_factory.hpp:114] Creating layer relu6
I1226 07:02:53.421041 89165 net.cpp:178] Creating Layer relu6
I1226 07:02:53.419792 88126 net.cpp:178] Creating Layer relu6
I1226 07:02:53.421083 89165 net.cpp:612] relu6 <- fc6
I1226 07:02:53.419826 88126 net.cpp:612] relu6 <- fc6
I1226 07:02:53.421129 89165 net.cpp:573] relu6 -> fc6 (in-place)
I1226 07:02:53.419878 88126 net.cpp:573] relu6 -> fc6 (in-place)
I1226 07:02:53.421216 89165 net.cpp:228] Setting up relu6
I1226 07:02:53.419978 88126 net.cpp:228] Setting up relu6
I1226 07:02:53.421397 89165 net.cpp:235] Top shape: 64 4096 (262144)
I1226 07:02:53.421429 89165 net.cpp:243] Memory required for data: 527982080
I1226 07:02:53.420130 88126 net.cpp:235] Top shape: 64 4096 (262144)
I1226 07:02:53.420161 88126 net.cpp:243] Memory required for data: 527982080
I1226 07:02:53.421461 89165 layer_factory.hpp:114] Creating layer drop6
I1226 07:02:53.420192 88126 layer_factory.hpp:114] Creating layer drop6
I1226 07:02:53.421541 89165 net.cpp:178] Creating Layer drop6
I1226 07:02:53.420271 88126 net.cpp:178] Creating Layer drop6
I1226 07:02:53.421581 89165 net.cpp:612] drop6 <- fc6
I1226 07:02:53.420302 88126 net.cpp:612] drop6 <- fc6
I1226 07:02:53.421627 89165 net.cpp:573] drop6 -> fc6 (in-place)
I1226 07:02:53.421679 89165 net.cpp:228] Setting up drop6
I1226 07:02:53.420341 88126 net.cpp:573] drop6 -> fc6 (in-place)
I1226 07:02:53.421715 89165 net.cpp:235] Top shape: 64 4096 (262144)
I1226 07:02:53.420405 88126 net.cpp:228] Setting up drop6
I1226 07:02:53.421743 89165 net.cpp:243] Memory required for data: 529030656
I1226 07:02:53.421772 89165 layer_factory.hpp:114] Creating layer fc7
I1226 07:02:53.420445 88126 net.cpp:235] Top shape: 64 4096 (262144)
I1226 07:02:53.420469 88126 net.cpp:243] Memory required for data: 529030656
I1226 07:02:53.421829 89165 net.cpp:178] Creating Layer fc7
I1226 07:02:53.420495 88126 layer_factory.hpp:114] Creating layer fc7
I1226 07:02:53.420550 88126 net.cpp:178] Creating Layer fc7
I1226 07:02:53.421862 89165 net.cpp:612] fc7 <- fc6
I1226 07:02:53.421900 89165 net.cpp:586] fc7 -> fc7
I1226 07:02:53.420606 88126 net.cpp:612] fc7 <- fc6
I1226 07:02:53.420649 88126 net.cpp:586] fc7 -> fc7
I1226 07:02:53.439318 89170 net.cpp:228] Setting up fc6
I1226 07:02:53.439435 89170 net.cpp:235] Top shape: 64 4096 (262144)
I1226 07:02:53.439467 89170 net.cpp:243] Memory required for data: 526933504
I1226 07:02:53.439525 89170 layer_factory.hpp:114] Creating layer relu6
I1226 07:02:53.439618 89170 net.cpp:178] Creating Layer relu6
I1226 07:02:53.439736 89170 net.cpp:612] relu6 <- fc6
I1226 07:02:53.439777 89170 net.cpp:573] relu6 -> fc6 (in-place)
I1226 07:02:53.439865 89170 net.cpp:228] Setting up relu6
I1226 07:02:53.440017 89170 net.cpp:235] Top shape: 64 4096 (262144)
I1226 07:02:53.440048 89170 net.cpp:243] Memory required for data: 527982080
I1226 07:02:53.440083 89170 layer_factory.hpp:114] Creating layer drop6
I1226 07:02:53.440145 89170 net.cpp:178] Creating Layer drop6
I1226 07:02:53.440173 89170 net.cpp:612] drop6 <- fc6
I1226 07:02:53.440249 89170 net.cpp:573] drop6 -> fc6 (in-place)
I1226 07:02:53.440322 89170 net.cpp:228] Setting up drop6
I1226 07:02:53.440361 89170 net.cpp:235] Top shape: 64 4096 (262144)
I1226 07:02:53.440387 89170 net.cpp:243] Memory required for data: 529030656
I1226 07:02:53.440415 89170 layer_factory.hpp:114] Creating layer fc7
I1226 07:02:53.440474 89170 net.cpp:178] Creating Layer fc7
I1226 07:02:53.440502 89170 net.cpp:612] fc7 <- fc6
I1226 07:02:53.440554 89170 net.cpp:586] fc7 -> fc7
I1226 07:02:53.459617 51587 net.cpp:228] Setting up fc6
I1226 07:02:53.459728 51587 net.cpp:235] Top shape: 64 4096 (262144)
I1226 07:02:53.459755 51587 net.cpp:243] Memory required for data: 526933504
I1226 07:02:53.459836 51587 layer_factory.hpp:114] Creating layer relu6
I1226 07:02:53.459933 51587 net.cpp:178] Creating Layer relu6
I1226 07:02:53.459978 51587 net.cpp:612] relu6 <- fc6
I1226 07:02:53.460016 51587 net.cpp:573] relu6 -> fc6 (in-place)
I1226 07:02:53.460101 51587 net.cpp:228] Setting up relu6
I1226 07:02:53.460281 51587 net.cpp:235] Top shape: 64 4096 (262144)
I1226 07:02:53.460312 51587 net.cpp:243] Memory required for data: 527982080
I1226 07:02:53.460345 51587 layer_factory.hpp:114] Creating layer drop6
I1226 07:02:53.460398 51587 net.cpp:178] Creating Layer drop6
I1226 07:02:53.460427 51587 net.cpp:612] drop6 <- fc6
I1226 07:02:53.460486 51587 net.cpp:573] drop6 -> fc6 (in-place)
I1226 07:02:53.460561 51587 net.cpp:228] Setting up drop6
I1226 07:02:53.460604 51587 net.cpp:235] Top shape: 64 4096 (262144)
I1226 07:02:53.460628 51587 net.cpp:243] Memory required for data: 529030656
I1226 07:02:53.460654 51587 layer_factory.hpp:114] Creating layer fc7
I1226 07:02:53.460712 51587 net.cpp:178] Creating Layer fc7
I1226 07:02:53.460746 51587 net.cpp:612] fc7 <- fc6
I1226 07:02:53.460784 51587 net.cpp:586] fc7 -> fc7
I1226 07:02:53.463619 90546 net.cpp:228] Setting up fc6
I1226 07:02:53.463729 90546 net.cpp:235] Top shape: 64 4096 (262144)
I1226 07:02:53.463758 90546 net.cpp:243] Memory required for data: 526933504
I1226 07:02:53.463819 90546 layer_factory.hpp:114] Creating layer relu6
I1226 07:02:53.463894 90546 net.cpp:178] Creating Layer relu6
I1226 07:02:53.463935 90546 net.cpp:612] relu6 <- fc6
I1226 07:02:53.463980 90546 net.cpp:573] relu6 -> fc6 (in-place)
I1226 07:02:53.464082 90546 net.cpp:228] Setting up relu6
I1226 07:02:53.464272 90546 net.cpp:235] Top shape: 64 4096 (262144)
I1226 07:02:53.464308 90546 net.cpp:243] Memory required for data: 527982080
I1226 07:02:53.464344 90546 layer_factory.hpp:114] Creating layer drop6
I1226 07:02:53.464422 90546 net.cpp:178] Creating Layer drop6
I1226 07:02:53.464462 90546 net.cpp:612] drop6 <- fc6
I1226 07:02:53.464504 90546 net.cpp:573] drop6 -> fc6 (in-place)
I1226 07:02:53.464565 90546 net.cpp:228] Setting up drop6
I1226 07:02:53.464603 90546 net.cpp:235] Top shape: 64 4096 (262144)
I1226 07:02:53.464627 90546 net.cpp:243] Memory required for data: 529030656
I1226 07:02:53.464655 90546 layer_factory.hpp:114] Creating layer fc7
I1226 07:02:53.464716 90546 net.cpp:178] Creating Layer fc7
I1226 07:02:53.464745 90546 net.cpp:612] fc7 <- fc6
I1226 07:02:53.464782 90546 net.cpp:586] fc7 -> fc7
I1226 07:02:53.522908 89451 net.cpp:228] Setting up fc6
I1226 07:02:53.523022 89451 net.cpp:235] Top shape: 64 4096 (262144)
I1226 07:02:53.523053 89451 net.cpp:243] Memory required for data: 526933504
I1226 07:02:53.523110 89451 layer_factory.hpp:114] Creating layer relu6
I1226 07:02:53.523272 89451 net.cpp:178] Creating Layer relu6
I1226 07:02:53.523306 89451 net.cpp:612] relu6 <- fc6
I1226 07:02:53.523360 89451 net.cpp:573] relu6 -> fc6 (in-place)
I1226 07:02:53.523449 89451 net.cpp:228] Setting up relu6
I1226 07:02:53.523617 89451 net.cpp:235] Top shape: 64 4096 (262144)
I1226 07:02:53.523643 89451 net.cpp:243] Memory required for data: 527982080
I1226 07:02:53.523674 89451 layer_factory.hpp:114] Creating layer drop6
I1226 07:02:53.523737 89451 net.cpp:178] Creating Layer drop6
I1226 07:02:53.523766 89451 net.cpp:612] drop6 <- fc6
I1226 07:02:53.523802 89451 net.cpp:573] drop6 -> fc6 (in-place)
I1226 07:02:53.523862 89451 net.cpp:228] Setting up drop6
I1226 07:02:53.523910 89451 net.cpp:235] Top shape: 64 4096 (262144)
I1226 07:02:53.523934 89451 net.cpp:243] Memory required for data: 529030656
I1226 07:02:53.523962 89451 layer_factory.hpp:114] Creating layer fc7
I1226 07:02:53.524026 89451 net.cpp:178] Creating Layer fc7
I1226 07:02:53.524057 89451 net.cpp:612] fc7 <- fc6
I1226 07:02:53.524093 89451 net.cpp:586] fc7 -> fc7
I1226 07:02:54.445690 96083 net.cpp:228] Setting up fc7
I1226 07:02:54.445806 96083 net.cpp:235] Top shape: 64 4096 (262144)
I1226 07:02:54.445837 96083 net.cpp:243] Memory required for data: 530079232
I1226 07:02:54.445899 96083 layer_factory.hpp:114] Creating layer relu7
I1226 07:02:54.445986 96083 net.cpp:178] Creating Layer relu7
I1226 07:02:54.446135 96083 net.cpp:612] relu7 <- fc7
I1226 07:02:54.446197 96083 net.cpp:573] relu7 -> fc7 (in-place)
I1226 07:02:54.446290 96083 net.cpp:228] Setting up relu7
I1226 07:02:54.446338 96083 net.cpp:235] Top shape: 64 4096 (262144)
I1226 07:02:54.446372 96083 net.cpp:243] Memory required for data: 531127808
I1226 07:02:54.446409 96083 layer_factory.hpp:114] Creating layer drop7
I1226 07:02:54.446452 96083 net.cpp:178] Creating Layer drop7
I1226 07:02:54.446488 96083 net.cpp:612] drop7 <- fc7
I1226 07:02:54.446523 96083 net.cpp:573] drop7 -> fc7 (in-place)
I1226 07:02:54.446569 96083 net.cpp:228] Setting up drop7
I1226 07:02:54.446605 96083 net.cpp:235] Top shape: 64 4096 (262144)
I1226 07:02:54.446638 96083 net.cpp:243] Memory required for data: 532176384
I1226 07:02:54.446667 96083 layer_factory.hpp:114] Creating layer fc8
I1226 07:02:54.446744 96083 net.cpp:178] Creating Layer fc8
I1226 07:02:54.446774 96083 net.cpp:612] fc8 <- fc7
I1226 07:02:54.446811 96083 net.cpp:586] fc8 -> fc8
I1226 07:02:55.005148 96083 net.cpp:228] Setting up fc8
I1226 07:02:55.005260 96083 net.cpp:235] Top shape: 64 1000 (64000)
I1226 07:02:55.005287 96083 net.cpp:243] Memory required for data: 532432384
I1226 07:02:55.005369 96083 layer_factory.hpp:114] Creating layer fc8_fc8_0_split
I1226 07:02:55.005465 96083 net.cpp:178] Creating Layer fc8_fc8_0_split
I1226 07:02:55.005509 96083 net.cpp:612] fc8_fc8_0_split <- fc8
I1226 07:02:55.005559 96083 net.cpp:586] fc8_fc8_0_split -> fc8_fc8_0_split_0
I1226 07:02:55.005611 96083 net.cpp:586] fc8_fc8_0_split -> fc8_fc8_0_split_1
I1226 07:02:55.005769 96083 net.cpp:228] Setting up fc8_fc8_0_split
I1226 07:02:55.005823 96083 net.cpp:235] Top shape: 64 1000 (64000)
I1226 07:02:55.005859 96083 net.cpp:235] Top shape: 64 1000 (64000)
I1226 07:02:55.005882 96083 net.cpp:243] Memory required for data: 532944384
I1226 07:02:55.005913 96083 layer_factory.hpp:114] Creating layer accuracy
I1226 07:02:55.005980 96083 net.cpp:178] Creating Layer accuracy
I1226 07:02:55.006013 96083 net.cpp:612] accuracy <- fc8_fc8_0_split_0
I1226 07:02:55.006045 96083 net.cpp:612] accuracy <- label_data_1_split_0
I1226 07:02:55.006114 96083 net.cpp:586] accuracy -> accuracy
…
I1226 07:02:55.037267 96083 net.cpp:307] data does not need backward computation.
I1226 07:02:55.037302 96083 net.cpp:349] This network produces output accuracy
I1226 07:02:55.037343 96083 net.cpp:349] This network produces output loss
I1226 07:02:55.037453 96083 net.cpp:363] Network initialization done.
I1226 07:02:55.037894 96083 solver.cpp:119] Solver scaffolding done.
I1226 07:02:55.038127 96083 caffe.cpp:212] Finetuning from /export/data1/stanford/hazy/gordon_bell/caffenet_knl/snapshot/caffenet_MN8_B1024/_iter_25000.caffemodel
I1226 07:02:55.672813 89165 net.cpp:228] Setting up fc7
I1226 07:02:55.672926 89165 net.cpp:235] Top shape: 64 4096 (262144)
I1226 07:02:55.672953 89165 net.cpp:243] Memory required for data: 530079232
I1226 07:02:55.673038 89165 layer_factory.hpp:114] Creating layer relu7
I1226 07:02:55.673130 89165 net.cpp:178] Creating Layer relu7
I1226 07:02:55.673172 89165 net.cpp:612] relu7 <- fc7
I1226 07:02:55.673213 89165 net.cpp:573] relu7 -> fc7 (in-place)
I1226 07:02:55.673334 89165 net.cpp:228] Setting up relu7
I1226 07:02:55.674121 89165 net.cpp:235] Top shape: 64 4096 (262144)
I1226 07:02:55.674175 89165 net.cpp:243] Memory required for data: 531127808
I1226 07:02:55.674209 89165 layer_factory.hpp:114] Creating layer drop7
I1226 07:02:55.674305 89165 net.cpp:178] Creating Layer drop7
I1226 07:02:55.674342 89165 net.cpp:612] drop7 <- fc7
I1226 07:02:55.674401 89165 net.cpp:573] drop7 -> fc7 (in-place)
I1226 07:02:55.674458 89165 net.cpp:228] Setting up drop7
I1226 07:02:55.674494 89165 net.cpp:235] Top shape: 64 4096 (262144)
I1226 07:02:55.674517 89165 net.cpp:243] Memory required for data: 532176384
I1226 07:02:55.674545 89165 layer_factory.hpp:114] Creating layer fc8
I1226 07:02:55.674617 89165 net.cpp:178] Creating Layer fc8
I1226 07:02:55.674651 89165 net.cpp:612] fc8 <- fc7
I1226 07:02:55.674690 89165 net.cpp:586] fc8 -> fc8
I1226 07:02:55.671217 89377 net.cpp:228] Setting up fc7
I1226 07:02:55.671329 89377 net.cpp:235] Top shape: 64 4096 (262144)
I1226 07:02:55.671358 89377 net.cpp:243] Memory required for data: 530079232
I1226 07:02:55.671413 89377 layer_factory.hpp:114] Creating layer relu7
I1226 07:02:55.671504 89377 net.cpp:178] Creating Layer relu7
I1226 07:02:55.671607 89377 net.cpp:612] relu7 <- fc7
I1226 07:02:55.671653 89377 net.cpp:573] relu7 -> fc7 (in-place)
I1226 07:02:55.671731 89377 net.cpp:228] Setting up relu7
I1226 07:02:55.671782 89377 net.cpp:235] Top shape: 64 4096 (262144)
I1226 07:02:55.671805 89377 net.cpp:243] Memory required for data: 531127808
I1226 07:02:55.671864 89377 layer_factory.hpp:114] Creating layer drop7
I1226 07:02:55.671905 89377 net.cpp:178] Creating Layer drop7
I1226 07:02:55.671931 89377 net.cpp:612] drop7 <- fc7
I1226 07:02:55.671964 89377 net.cpp:573] drop7 -> fc7 (in-place)
I1226 07:02:55.672008 89377 net.cpp:228] Setting up drop7
I1226 07:02:55.672049 89377 net.cpp:235] Top shape: 64 4096 (262144)
I1226 07:02:55.672072 89377 net.cpp:243] Memory required for data: 532176384
I1226 07:02:55.672099 89377 layer_factory.hpp:114] Creating layer fc8
I1226 07:02:55.672175 89377 net.cpp:178] Creating Layer fc8
I1226 07:02:55.672209 89377 net.cpp:612] fc8 <- fc7
I1226 07:02:55.672246 89377 net.cpp:586] fc8 -> fc8
I1226 07:02:55.703090 88126 net.cpp:228] Setting up fc7
I1226 07:02:55.703210 88126 net.cpp:235] Top shape: 64 4096 (262144)
I1226 07:02:55.703243 88126 net.cpp:243] Memory required for data: 530079232
I1226 07:02:55.703299 88126 layer_factory.hpp:114] Creating layer relu7
I1226 07:02:55.703402 88126 net.cpp:178] Creating Layer relu7
I1226 07:02:55.703451 88126 net.cpp:612] relu7 <- fc7
I1226 07:02:55.703495 88126 net.cpp:573] relu7 -> fc7 (in-place)
I1226 07:02:55.703608 88126 net.cpp:228] Setting up relu7
I1226 07:02:55.703662 88126 net.cpp:235] Top shape: 64 4096 (262144)
I1226 07:02:55.703686 88126 net.cpp:243] Memory required for data: 531127808
I1226 07:02:55.703716 88126 layer_factory.hpp:114] Creating layer drop7
I1226 07:02:55.703763 88126 net.cpp:178] Creating Layer drop7
I1226 07:02:55.703794 88126 net.cpp:612] drop7 <- fc7
I1226 07:02:55.703841 88126 net.cpp:573] drop7 -> fc7 (in-place)
I1226 07:02:55.703896 88126 net.cpp:228] Setting up drop7
I1226 07:02:55.703935 88126 net.cpp:235] Top shape: 64 4096 (262144)
I1226 07:02:55.703958 88126 net.cpp:243] Memory required for data: 532176384
I1226 07:02:55.703984 88126 layer_factory.hpp:114] Creating layer fc8
I1226 07:02:55.704040 88126 net.cpp:178] Creating Layer fc8
I1226 07:02:55.704072 88126 net.cpp:612] fc8 <- fc7
I1226 07:02:55.704110 88126 net.cpp:586] fc8 -> fc8
I1226 07:02:55.730502 89170 net.cpp:228] Setting up fc7
I1226 07:02:55.730614 89170 net.cpp:235] Top shape: 64 4096 (262144)
I1226 07:02:55.730639 89170 net.cpp:243] Memory required for data: 530079232
I1226 07:02:55.730718 89170 layer_factory.hpp:114] Creating layer relu7
I1226 07:02:55.730808 89170 net.cpp:178] Creating Layer relu7
I1226 07:02:55.730854 89170 net.cpp:612] relu7 <- fc7
I1226 07:02:55.730892 89170 net.cpp:573] relu7 -> fc7 (in-place)
I1226 07:02:55.730974 89170 net.cpp:228] Setting up relu7
I1226 07:02:55.731020 89170 net.cpp:235] Top shape: 64 4096 (262144)
I1226 07:02:55.731045 89170 net.cpp:243] Memory required for data: 531127808
I1226 07:02:55.731073 89170 layer_factory.hpp:114] Creating layer drop7
I1226 07:02:55.731109 89170 net.cpp:178] Creating Layer drop7
I1226 07:02:55.731143 89170 net.cpp:612] drop7 <- fc7
I1226 07:02:55.731176 89170 net.cpp:573] drop7 -> fc7 (in-place)
I1226 07:02:55.731259 89170 net.cpp:228] Setting up drop7
I1226 07:02:55.731298 89170 net.cpp:235] Top shape: 64 4096 (262144)
I1226 07:02:55.731322 89170 net.cpp:243] Memory required for data: 532176384
I1226 07:02:55.731361 89170 layer_factory.hpp:114] Creating layer fc8
I1226 07:02:55.731436 89170 net.cpp:178] Creating Layer fc8
I1226 07:02:55.731465 89170 net.cpp:612] fc8 <- fc7
I1226 07:02:55.731503 89170 net.cpp:586] fc8 -> fc8
I1226 07:02:55.752019 90546 net.cpp:228] Setting up fc7
I1226 07:02:55.752130 90546 net.cpp:235] Top shape: 64 4096 (262144)
I1226 07:02:55.752159 90546 net.cpp:243] Memory required for data: 530079232
I1226 07:02:55.752238 90546 layer_factory.hpp:114] Creating layer relu7
I1226 07:02:55.752327 90546 net.cpp:178] Creating Layer relu7
I1226 07:02:55.752370 90546 net.cpp:612] relu7 <- fc7
I1226 07:02:55.752416 90546 net.cpp:573] relu7 -> fc7 (in-place)
I1226 07:02:55.752516 90546 net.cpp:228] Setting up relu7
I1226 07:02:55.752562 90546 net.cpp:235] Top shape: 64 4096 (262144)
I1226 07:02:55.752588 90546 net.cpp:243] Memory required for data: 531127808
I1226 07:02:55.752617 90546 layer_factory.hpp:114] Creating layer drop7
I1226 07:02:55.752657 90546 net.cpp:178] Creating Layer drop7
I1226 07:02:55.752688 90546 net.cpp:612] drop7 <- fc7
I1226 07:02:55.752742 90546 net.cpp:573] drop7 -> fc7 (in-place)
I1226 07:02:55.752804 90546 net.cpp:228] Setting up drop7
I1226 07:02:55.752842 90546 net.cpp:235] Top shape: 64 4096 (262144)
I1226 07:02:55.752866 90546 net.cpp:243] Memory required for data: 532176384
I1226 07:02:55.752893 90546 layer_factory.hpp:114] Creating layer fc8
I1226 07:02:55.752954 90546 net.cpp:178] Creating Layer fc8
I1226 07:02:55.752981 90546 net.cpp:612] fc8 <- fc7
I1226 07:02:55.753020 90546 net.cpp:586] fc8 -> fc8
I1226 07:02:55.762027 51587 net.cpp:228] Setting up fc7
I1226 07:02:55.762161 51587 net.cpp:235] Top shape: 64 4096 (262144)
I1226 07:02:55.762192 51587 net.cpp:243] Memory required for data: 530079232
I1226 07:02:55.762249 51587 layer_factory.hpp:114] Creating layer relu7
I1226 07:02:55.762346 51587 net.cpp:178] Creating Layer relu7
I1226 07:02:55.762390 51587 net.cpp:612] relu7 <- fc7
I1226 07:02:55.762429 51587 net.cpp:573] relu7 -> fc7 (in-place)
I1226 07:02:55.762516 51587 net.cpp:228] Setting up relu7
I1226 07:02:55.762588 51587 net.cpp:235] Top shape: 64 4096 (262144)
I1226 07:02:55.762612 51587 net.cpp:243] Memory required for data: 531127808
I1226 07:02:55.762640 51587 layer_factory.hpp:114] Creating layer drop7
I1226 07:02:55.762683 51587 net.cpp:178] Creating Layer drop7
I1226 07:02:55.762709 51587 net.cpp:612] drop7 <- fc7
I1226 07:02:55.762742 51587 net.cpp:573] drop7 -> fc7 (in-place)
I1226 07:02:55.762786 51587 net.cpp:228] Setting up drop7
I1226 07:02:55.762826 51587 net.cpp:235] Top shape: 64 4096 (262144)
I1226 07:02:55.762850 51587 net.cpp:243] Memory required for data: 532176384
I1226 07:02:55.762876 51587 layer_factory.hpp:114] Creating layer fc8
I1226 07:02:55.762953 51587 net.cpp:178] Creating Layer fc8
I1226 07:02:55.762986 51587 net.cpp:612] fc8 <- fc7
I1226 07:02:55.763023 51587 net.cpp:586] fc8 -> fc8
I1226 07:02:55.790462 89451 net.cpp:228] Setting up fc7
I1226 07:02:55.790596 89451 net.cpp:235] Top shape: 64 4096 (262144)
I1226 07:02:55.790627 89451 net.cpp:243] Memory required for data: 530079232
I1226 07:02:55.790710 89451 layer_factory.hpp:114] Creating layer relu7
I1226 07:02:55.790809 89451 net.cpp:178] Creating Layer relu7
I1226 07:02:55.790854 89451 net.cpp:612] relu7 <- fc7
I1226 07:02:55.790894 89451 net.cpp:573] relu7 -> fc7 (in-place)
I1226 07:02:55.790982 89451 net.cpp:228] Setting up relu7
I1226 07:02:55.791052 89451 net.cpp:235] Top shape: 64 4096 (262144)
I1226 07:02:55.791076 89451 net.cpp:243] Memory required for data: 531127808
I1226 07:02:55.791105 89451 layer_factory.hpp:114] Creating layer drop7
I1226 07:02:55.791152 89451 net.cpp:178] Creating Layer drop7
I1226 07:02:55.791177 89451 net.cpp:612] drop7 <- fc7
I1226 07:02:55.791225 89451 net.cpp:573] drop7 -> fc7 (in-place)
I1226 07:02:55.791272 89451 net.cpp:228] Setting up drop7
I1226 07:02:55.791304 89451 net.cpp:235] Top shape: 64 4096 (262144)
I1226 07:02:55.791326 89451 net.cpp:243] Memory required for data: 532176384
I1226 07:02:55.791352 89451 layer_factory.hpp:114] Creating layer fc8
I1226 07:02:55.791409 89451 net.cpp:178] Creating Layer fc8
I1226 07:02:55.791445 89451 net.cpp:612] fc8 <- fc7
I1226 07:02:55.791507 89451 net.cpp:586] fc8 -> fc8
I1226 07:02:56.221218 89377 net.cpp:228] Setting up fc8
I1226 07:02:56.221343 89377 net.cpp:235] Top shape: 64 1000 (64000)
I1226 07:02:56.221372 89377 net.cpp:243] Memory required for data: 532432384
I1226 07:02:56.221427 89377 layer_factory.hpp:114] Creating layer fc8_fc8_0_split
I1226 07:02:56.221499 89377 net.cpp:178] Creating Layer fc8_fc8_0_split
I1226 07:02:56.221532 89377 net.cpp:612] fc8_fc8_0_split <- fc8
I1226 07:02:56.221609 89377 net.cpp:586] fc8_fc8_0_split -> fc8_fc8_0_split_0
I1226 07:02:56.221662 89377 net.cpp:586] fc8_fc8_0_split -> fc8_fc8_0_split_1
I1226 07:02:56.221745 89377 net.cpp:228] Setting up fc8_fc8_0_split
I1226 07:02:56.221793 89377 net.cpp:235] Top shape: 64 1000 (64000)
I1226 07:02:56.221854 89377 net.cpp:235] Top shape: 64 1000 (64000)
I1226 07:02:56.221884 89377 net.cpp:243] Memory required for data: 532944384
I1226 07:02:56.221912 89377 layer_factory.hpp:114] Creating layer accuracy
I1226 07:02:56.221972 89377 net.cpp:178] Creating Layer accuracy
I1226 07:02:56.222007 89377 net.cpp:612] accuracy <- fc8_fc8_0_split_0
I1226 07:02:56.222038 89377 net.cpp:612] accuracy <- label_data_1_split_0
I1226 07:02:56.222074 89377 net.cpp:586] accuracy -> accuracy
I1226 07:02:56.222116 89377 net.cpp:228] Setting up accuracy
I1226 07:02:56.222157 89377 net.cpp:235] Top shape: (1)
I1226 07:02:56.222179 89377 net.cpp:243] Memory required for data: 532944388
I1226 07:02:56.222205 89377 layer_factory.hpp:114] Creating layer loss
I1226 07:02:56.222254 89377 net.cpp:178] Creating Layer loss
I1226 07:02:56.222280 89377 net.cpp:612] loss <- fc8_fc8_0_split_1
I1226 07:02:56.222307 89377 net.cpp:612] loss <- label_data_1_split_1
I1226 07:02:56.222338 89377 net.cpp:586] loss -> loss
I1226 07:02:56.222394 89377 layer_factory.hpp:114] Creating layer loss
I1226 07:02:56.229827 89165 net.cpp:228] Setting up fc8
I1226 07:02:56.229940 89165 net.cpp:235] Top shape: 64 1000 (64000)
I1226 07:02:56.229967 89165 net.cpp:243] Memory required for data: 532432384
I1226 07:02:56.230020 89165 layer_factory.hpp:114] Creating layer fc8_fc8_0_split
I1226 07:02:56.230106 89165 net.cpp:178] Creating Layer fc8_fc8_0_split
I1226 07:02:56.230144 89165 net.cpp:612] fc8_fc8_0_split <- fc8
I1226 07:02:56.230201 89165 net.cpp:586] fc8_fc8_0_split -> fc8_fc8_0_split_0
I1226 07:02:56.230273 89165 net.cpp:586] fc8_fc8_0_split -> fc8_fc8_0_split_1
I1226 07:02:56.230365 89165 net.cpp:228] Setting up fc8_fc8_0_split
I1226 07:02:56.230409 89165 net.cpp:235] Top shape: 64 1000 (64000)
I1226 07:02:56.230439 89165 net.cpp:235] Top shape: 64 1000 (64000)
I1226 07:02:56.230473 89165 net.cpp:243] Memory required for data: 532944384
I1226 07:02:56.230504 89165 layer_factory.hpp:114] Creating layer accuracy
I1226 07:02:56.230572 89165 net.cpp:178] Creating Layer accuracy
I1226 07:02:56.230600 89165 net.cpp:612] accuracy <- fc8_fc8_0_split_0
I1226 07:02:56.230629 89165 net.cpp:612] accuracy <- label_data_1_split_0
I1226 07:02:56.230662 89165 net.cpp:586] accuracy -> accuracy
I1226 07:02:56.230712 89165 net.cpp:228] Setting up accuracy
I1226 07:02:56.230744 89165 net.cpp:235] Top shape: (1)
I1226 07:02:56.230767 89165 net.cpp:243] Memory required for data: 532944388
I1226 07:02:56.230808 89165 layer_factory.hpp:114] Creating layer loss
I1226 07:02:56.230850 89165 net.cpp:178] Creating Layer loss
I1226 07:02:56.230875 89165 net.cpp:612] loss <- fc8_fc8_0_split_1
I1226 07:02:56.230902 89165 net.cpp:612] loss <- label_data_1_split_1
I1226 07:02:56.230939 89165 net.cpp:586] loss -> loss
I1226 07:02:56.230998 89165 layer_factory.hpp:114] Creating layer loss
I1226 07:02:56.253981 88126 net.cpp:228] Setting up fc8
I1226 07:02:56.254098 88126 net.cpp:235] Top shape: 64 1000 (64000)
I1226 07:02:56.254129 88126 net.cpp:243] Memory required for data: 532432384
I1226 07:02:56.254184 88126 layer_factory.hpp:114] Creating layer fc8_fc8_0_split
I1226 07:02:56.254281 88126 net.cpp:178] Creating Layer fc8_fc8_0_split
I1226 07:02:56.254384 88126 net.cpp:612] fc8_fc8_0_split <- fc8
I1226 07:02:56.254437 88126 net.cpp:586] fc8_fc8_0_split -> fc8_fc8_0_split_0
I1226 07:02:56.254489 88126 net.cpp:586] fc8_fc8_0_split -> fc8_fc8_0_split_1
I1226 07:02:56.254608 88126 net.cpp:228] Setting up fc8_fc8_0_split
I1226 07:02:56.254658 88126 net.cpp:235] Top shape: 64 1000 (64000)
I1226 07:02:56.254688 88126 net.cpp:235] Top shape: 64 1000 (64000)
I1226 07:02:56.254724 88126 net.cpp:243] Memory required for data: 532944384
I1226 07:02:56.254755 88126 layer_factory.hpp:114] Creating layer accuracy
I1226 07:02:56.254820 88126 net.cpp:178] Creating Layer accuracy
I1226 07:02:56.254855 88126 net.cpp:612] accuracy <- fc8_fc8_0_split_0
I1226 07:02:56.254887 88126 net.cpp:612] accuracy <- label_data_1_split_0
I1226 07:02:56.254923 88126 net.cpp:586] accuracy -> accuracy
…
I1226 07:02:56.289075 88126 net.cpp:307] data does not need backward computation.
I1226 07:02:56.289111 88126 net.cpp:349] This network produces output accuracy
I1226 07:02:56.289145 88126 net.cpp:349] This network produces output loss
I1226 07:02:56.289260 88126 net.cpp:363] Network initialization done.
I1226 07:02:56.289736 88126 solver.cpp:119] Solver scaffolding done.
I1226 07:02:56.289966 88126 caffe.cpp:212] Finetuning from /export/data1/stanford/hazy/gordon_bell/caffenet_knl/snapshot/caffenet_MN8_B1024/_iter_25000.caffemodel
I1226 07:02:56.301091 89170 net.cpp:228] Setting up fc8
I1226 07:02:56.301239 89170 net.cpp:235] Top shape: 64 1000 (64000)
I1226 07:02:56.301275 89170 net.cpp:243] Memory required for data: 532432384
I1226 07:02:56.301329 89170 layer_factory.hpp:114] Creating layer fc8_fc8_0_split
I1226 07:02:56.301434 89170 net.cpp:178] Creating Layer fc8_fc8_0_split
I1226 07:02:56.301625 89170 net.cpp:612] fc8_fc8_0_split <- fc8
I1226 07:02:56.301692 89170 net.cpp:586] fc8_fc8_0_split -> fc8_fc8_0_split_0
I1226 07:02:56.301898 89170 net.cpp:586] fc8_fc8_0_split -> fc8_fc8_0_split_1
I1226 07:02:56.302000 89170 net.cpp:228] Setting up fc8_fc8_0_split
I1226 07:02:56.302053 89170 net.cpp:235] Top shape: 64 1000 (64000)
I1226 07:02:56.302083 89170 net.cpp:235] Top shape: 64 1000 (64000)
I1226 07:02:56.302108 89170 net.cpp:243] Memory required for data: 532944384
I1226 07:02:56.302147 89170 layer_factory.hpp:114] Creating layer accuracy
I1226 07:02:56.302230 89170 net.cpp:178] Creating Layer accuracy
I1226 07:02:56.302266 89170 net.cpp:612] accuracy <- fc8_fc8_0_split_0
I1226 07:02:56.302299 89170 net.cpp:612] accuracy <- label_data_1_split_0
I1226 07:02:56.302333 89170 net.cpp:586] accuracy -> accuracy
I1226 07:02:56.302379 89170 net.cpp:228] Setting up accuracy
I1226 07:02:56.302414 89170 net.cpp:235] Top shape: (1)
I1226 07:02:56.302449 89170 net.cpp:243] Memory required for data: 532944388
I1226 07:02:56.302487 89170 layer_factory.hpp:114] Creating layer loss
I1226 07:02:56.302531 89170 net.cpp:178] Creating Layer loss
I1226 07:02:56.302564 89170 net.cpp:612] loss <- fc8_fc8_0_split_1
I1226 07:02:56.302594 89170 net.cpp:612] loss <- label_data_1_split_1
I1226 07:02:56.302628 89170 net.cpp:586] loss -> loss
I1226 07:02:56.302686 89170 layer_factory.hpp:114] Creating layer loss
I1226 07:02:56.317596 51587 net.cpp:228] Setting up fc8
I1226 07:02:56.317719 51587 net.cpp:235] Top shape: 64 1000 (64000)
I1226 07:02:56.317749 51587 net.cpp:243] Memory required for data: 532432384
I1226 07:02:56.317805 51587 layer_factory.hpp:114] Creating layer fc8_fc8_0_split
I1226 07:02:56.317873 51587 net.cpp:178] Creating Layer fc8_fc8_0_split
I1226 07:02:56.317903 51587 net.cpp:612] fc8_fc8_0_split <- fc8
I1226 07:02:56.317965 51587 net.cpp:586] fc8_fc8_0_split -> fc8_fc8_0_split_0
I1226 07:02:56.318017 51587 net.cpp:586] fc8_fc8_0_split -> fc8_fc8_0_split_1
I1226 07:02:56.318097 51587 net.cpp:228] Setting up fc8_fc8_0_split
I1226 07:02:56.318166 51587 net.cpp:235] Top shape: 64 1000 (64000)
I1226 07:02:56.318199 51587 net.cpp:235] Top shape: 64 1000 (64000)
I1226 07:02:56.321033 90546 net.cpp:228] Setting up fc8
I1226 07:02:56.318222 51587 net.cpp:243] Memory required for data: 532944384
I1226 07:02:56.321137 90546 net.cpp:235] Top shape: 64 1000 (64000)
I1226 07:02:56.321197 90546 net.cpp:243] Memory required for data: 532432384
I1226 07:02:56.321257 90546 layer_factory.hpp:114] Creating layer fc8_fc8_0_split
I1226 07:02:56.318256 51587 layer_factory.hpp:114] Creating layer accuracy
I1226 07:02:56.318320 51587 net.cpp:178] Creating Layer accuracy
I1226 07:02:56.321338 90546 net.cpp:178] Creating Layer fc8_fc8_0_split
I1226 07:02:56.318349 51587 net.cpp:612] accuracy <- fc8_fc8_0_split_0
I1226 07:02:56.321380 90546 net.cpp:612] fc8_fc8_0_split <- fc8
I1226 07:02:56.318380 51587 net.cpp:612] accuracy <- label_data_1_split_0
I1226 07:02:56.321434 90546 net.cpp:586] fc8_fc8_0_split -> fc8_fc8_0_split_0
I1226 07:02:56.318426 51587 net.cpp:586] accuracy -> accuracy
I1226 07:02:56.321485 90546 net.cpp:586] fc8_fc8_0_split -> fc8_fc8_0_split_1
I1226 07:02:56.318473 51587 net.cpp:228] Setting up accuracy
I1226 07:02:56.321571 90546 net.cpp:228] Setting up fc8_fc8_0_split
I1226 07:02:56.318512 51587 net.cpp:235] Top shape: (1)
I1226 07:02:56.318536 51587 net.cpp:243] Memory required for data: 532944388
I1226 07:02:56.318562 51587 layer_factory.hpp:114] Creating layer loss
I1226 07:02:56.321650 90546 net.cpp:235] Top shape: 64 1000 (64000)
I1226 07:02:56.318606 51587 net.cpp:178] Creating Layer loss
I1226 07:02:56.318631 51587 net.cpp:612] loss <- fc8_fc8_0_split_1
I1226 07:02:56.321760 90546 net.cpp:235] Top shape: 64 1000 (64000)
I1226 07:02:56.321784 90546 net.cpp:243] Memory required for data: 532944384
I1226 07:02:56.318660 51587 net.cpp:612] loss <- label_data_1_split_1
I1226 07:02:56.321813 90546 layer_factory.hpp:114] Creating layer accuracy
I1226 07:02:56.318698 51587 net.cpp:586] loss -> loss
I1226 07:02:56.321880 90546 net.cpp:178] Creating Layer accuracy
I1226 07:02:56.321913 90546 net.cpp:612] accuracy <- fc8_fc8_0_split_0
…
I1226 07:03:00.376873 89170 caffe.cpp:392] Starting Multi-node Optimization in mpi environment
I1226 07:03:00.393020 51587 caffe.cpp:376] Configuring multinode setup
I1226 07:03:00.394587 51587 caffe.cpp:392] Starting Multi-node Optimization in mpi environment
I1226 07:03:00.422309 90546 caffe.cpp:376] Configuring multinode setup
I1226 07:03:00.423832 90546 caffe.cpp:392] Starting Multi-node Optimization in mpi environment
I1226 07:03:00.462393 89451 caffe.cpp:376] Configuring multinode setup
I1226 07:03:00.463934 89451 caffe.cpp:392] Starting Multi-node Optimization in mpi environment
I1226 07:03:20.621745 93507 net.cpp:228] Setting up fc6
I1226 07:03:20.622036 93507 net.cpp:235] Top shape: 64 4096 (262144)
I1226 07:03:20.622081 93507 net.cpp:243] Memory required for data: 526933504
I1226 07:03:20.622145 93507 layer_factory.hpp:114] Creating layer relu6
I1226 07:03:20.622342 93507 net.cpp:178] Creating Layer relu6
I1226 07:03:20.622398 93507 net.cpp:612] relu6 <- fc6
I1226 07:03:20.622442 93507 net.cpp:573] relu6 -> fc6 (in-place)
I1226 07:03:20.622534 93507 net.cpp:228] Setting up relu6
I1226 07:03:20.622589 93507 net.cpp:235] Top shape: 64 4096 (262144)
I1226 07:03:20.622615 93507 net.cpp:243] Memory required for data: 527982080
I1226 07:03:20.622647 93507 layer_factory.hpp:114] Creating layer drop6
I1226 07:03:20.622709 93507 net.cpp:178] Creating Layer drop6
I1226 07:03:20.622750 93507 net.cpp:612] drop6 <- fc6
I1226 07:03:20.622836 93507 net.cpp:573] drop6 -> fc6 (in-place)
I1226 07:03:20.622903 93507 net.cpp:228] Setting up drop6
I1226 07:03:20.622941 93507 net.cpp:235] Top shape: 64 4096 (262144)
I1226 07:03:20.622964 93507 net.cpp:243] Memory required for data: 529030656
I1226 07:03:20.622993 93507 layer_factory.hpp:114] Creating layer fc7
I1226 07:03:20.623051 93507 net.cpp:178] Creating Layer fc7
I1226 07:03:20.623080 93507 net.cpp:612] fc7 <- fc6
I1226 07:03:20.623116 93507 net.cpp:586] fc7 -> fc7
I1226 07:03:33.696946 93507 net.cpp:228] Setting up fc7
I1226 07:03:33.697067 93507 net.cpp:235] Top shape: 64 4096 (262144)
I1226 07:03:33.697101 93507 net.cpp:243] Memory required for data: 530079232
I1226 07:03:33.697165 93507 layer_factory.hpp:114] Creating layer relu7
I1226 07:03:33.697327 93507 net.cpp:178] Creating Layer relu7
I1226 07:03:33.697374 93507 net.cpp:612] relu7 <- fc7
I1226 07:03:33.697427 93507 net.cpp:573] relu7 -> fc7 (in-place)
I1226 07:03:33.697525 93507 net.cpp:228] Setting up relu7
I1226 07:03:33.697578 93507 net.cpp:235] Top shape: 64 4096 (262144)
I1226 07:03:33.697605 93507 net.cpp:243] Memory required for data: 531127808
I1226 07:03:33.697638 93507 layer_factory.hpp:114] Creating layer drop7
I1226 07:03:33.697680 93507 net.cpp:178] Creating Layer drop7
I1226 07:03:33.697711 93507 net.cpp:612] drop7 <- fc7
I1226 07:03:33.697756 93507 net.cpp:573] drop7 -> fc7 (in-place)
I1226 07:03:33.697835 93507 net.cpp:228] Setting up drop7
I1226 07:03:33.697878 93507 net.cpp:235] Top shape: 64 4096 (262144)
I1226 07:03:33.697903 93507 net.cpp:243] Memory required for data: 532176384
I1226 07:03:33.697934 93507 layer_factory.hpp:114] Creating layer fc8
I1226 07:03:33.697999 93507 net.cpp:178] Creating Layer fc8
I1226 07:03:33.698038 93507 net.cpp:612] fc8 <- fc7
I1226 07:03:33.698101 93507 net.cpp:586] fc8 -> fc8
I1226 07:03:36.887037 93507 net.cpp:228] Setting up fc8
I1226 07:03:36.887159 93507 net.cpp:235] Top shape: 64 1000 (64000)
I1226 07:03:36.887195 93507 net.cpp:243] Memory required for data: 532432384
I1226 07:03:36.887260 93507 layer_factory.hpp:114] Creating layer fc8_fc8_0_split
I1226 07:03:36.887343 93507 net.cpp:178] Creating Layer fc8_fc8_0_split
I1226 07:03:36.887390 93507 net.cpp:612] fc8_fc8_0_split <- fc8
I1226 07:03:36.887459 93507 net.cpp:586] fc8_fc8_0_split -> fc8_fc8_0_split_0
I1226 07:03:36.887523 93507 net.cpp:586] fc8_fc8_0_split -> fc8_fc8_0_split_1
I1226 07:03:36.887620 93507 net.cpp:228] Setting up fc8_fc8_0_split
I1226 07:03:36.887678 93507 net.cpp:235] Top shape: 64 1000 (64000)
I1226 07:03:36.887718 93507 net.cpp:235] Top shape: 64 1000 (64000)
I1226 07:03:36.887749 93507 net.cpp:243] Memory required for data: 532944384
I1226 07:03:36.887819 93507 layer_factory.hpp:114] Creating layer accuracy
I1226 07:03:36.887881 93507 net.cpp:178] Creating Layer accuracy
I1226 07:03:36.887915 93507 net.cpp:612] accuracy <- fc8_fc8_0_split_0
I1226 07:03:36.887948 93507 net.cpp:612] accuracy <- label_data_1_split_0
I1226 07:03:36.888002 93507 net.cpp:586] accuracy -> accuracy
…
