…
I1226 08:55:30.641907 95005 net.cpp:500] The NetState phase (0) differed from the phase (1) specified by a rule in layer data
I1226 08:55:30.643985 95005 net.cpp:136] Initializing net from parameters: 
name: "AlexNet"
state {
  phase: TRAIN
  level: 0
  stage: ""
}
engine: "MKL2017"
layer {
  name: "data"
  type: "Data"
  top: "data"
  top: "label"
  include {
    phase: TRAIN
  }
  transform_param {
    mirror: true
    crop_size: 227
    mean_value: 104
    mean_value: 117
    mean_value: 123
  }
  data_param {
    source: "/export/data1/stanford/hazy/zjian/gorden_bell/ILSVRC2012_lmdb/db_8/ilsvrc12_train_lmdb_5"
    batch_size: 256
    backend: LMDB
  }
}
layer {
  name: "label_data_1_split"
  type: "Split"
  bottom: "label"
  top: "label_data_1_split_0"
  top: "label_data_1_split_1"
}
layer {
  name: "conv1"
  type: "Convolution"
  bottom: "data"
  top: "conv1"
  param {
    lr_mult: 1
    decay_mult: 1
  }
  param {
    lr_mult: 2
    decay_mult: 0
  }
  convolution_param {
    num_output: 96
    kernel_size: 11
    stride: 4
    weight_filler {
      type: "gaussian"
      std: 0.01
    }
    bias_filler {
      type: "constant"
      value: 0
    }
    engine: MKL2017
  }
}
layer {
  name: "relu1"
  type: "ReLU"
  bottom: "conv1"
  top: "conv1"
  relu_param {
    engine: MKL2017
  }
}
layer {
  name: "norm1"
  type: "LRN"
  bottom: "conv1"
  top: "norm1"
  lrn_param {
    local_size: 5
    alpha: 0.0001
    beta: 0.75
    engine: MKL2017
  }
}
layer {
  name: "pool1"
  type: "Pooling"
  bottom: "norm1"
  top: "pool1"
  pooling_param {
    pool: MAX
    kernel_size: 3
    stride: 2
    engine: MKL2017
  }
}
layer {
  name: "conv2"
  type: "Convolution"
  bottom: "pool1"
  top: "conv2"
  param {
    lr_mult: 1
    decay_mult: 1
  }
  param {
    lr_mult: 2
    decay_mult: 0
  }
  convolution_param {
    num_output: 256
    pad: 2
    kernel_size: 5
    group: 2
    weight_filler {
      type: "gaussian"
      std: 0.01
    }
    bias_filler {
      type: "constant"
      value: 0.1
    }
    engine: MKL2017
  }
}
layer {
  name: "relu2"
  type: "ReLU"
  bottom: "conv2"
  top: "conv2"
  relu_param {
    engine: MKL2017
  }
}
layer {
  name: "norm2"
  type: "LRN"
  bottom: "conv2"
  top: "norm2"
  lrn_param {
    local_size: 5
    alpha: 0.0001
    beta: 0.75
    engine: MKL2017
  }
}
layer {
  name: "pool2"
  type: "Pooling"
  bottom: "norm2"
  top: "pool2"
  pooling_param {
    pool: MAX
    kernel_size: 3
    stride: 2
    engine: MKL2017
  }
}
layer {
  name: "conv3"
  type: "Convolution"
  bottom: "pool2"
  top: "conv3"
  param {
    lr_mult: 1
    decay_mult: 1
  }
  param {
    lr_mult: 2
    decay_mult: 0
  }
  convolution_param {
    num_output: 384
    pad: 1
    kernel_size: 3
    weight_filler {
      type: "gaussian"
      std: 0.01
    }
    bias_filler {
      type: "constant"
      value: 0
    }
    engine: MKL2017
  }
}
layer {
  name: "relu3"
  type: "ReLU"
  bottom: "conv3"
  top: "conv3"
  relu_param {
    engine: MKL2017
  }
}
layer {
  name: "conv4"
  type: "Convolution"
  bottom: "conv3"
  top: "conv4"
  param {
    lr_mult: 1
    decay_mult: 1
  }
  param {
    lr_mult: 2
    decay_mult: 0
  }
  convolution_param {
    num_output: 384
    pad: 1
    kernel_size: 3
    group: 2
    weight_filler {
      type: "gaussian"
      std: 0.01
    }
    bias_filler {
      type: "constant"
      value: 0.1
    }
    engine: MKL2017
  }
}
layer {
  name: "relu4"
  type: "ReLU"
  bottom: "conv4"
  top: "conv4"
  relu_param {
    engine: MKL2017
  }
}
layer {
  name: "conv5"
  type: "Convolution"
  bottom: "conv4"
  top: "conv5"
  param {
    lr_mult: 1
    decay_mult: 1
  }
  param {
    lr_mult: 2
    decay_mult: 0
  }
  convolution_param {
    num_output: 256
    pad: 1
    kernel_size: 3
    group: 2
    weight_filler {
      type: "gaussian"
      std: 0.01
    }
    bias_filler {
      type: "constant"
      value: 0.1
    }
    engine: MKL2017
  }
}
layer {
  name: "relu5"
  type: "ReLU"
  bottom: "conv5"
  top: "conv5"
  relu_param {
    engine: MKL2017
  }
}
layer {
  name: "pool5"
  type: "Pooling"
  bottom: "conv5"
  top: "pool5"
  pooling_param {
    pool: MAX
    kernel_size: 3
    stride: 2
    engine: MKL2017
  }
}
layer {
  name: "fc6"
  type: "InnerProduct"
  bottom: "pool5"
  top: "fc6"
  param {
    lr_mult: 1
    decay_mult: 1
  }
  param {
    lr_mult: 2
    decay_mult: 0
  }
  inner_product_param {
    num_output: 4096
    weight_filler {
      type: "gaussian"
      std: 0.005
    }
    bias_filler {
      type: "constant"
      value: 0.1
    }
  }
}
layer {
  name: "relu6"
  type: "ReLU"
  bottom: "fc6"
  top: "fc6"
}
layer {
  name: "drop6"
  type: "Dropout"
  bottom: "fc6"
  top: "fc6"
  dropout_param {
    dropout_ratio: 0.5
  }
}
layer {
  name: "fc7"
  type: "InnerProduct"
  bottom: "fc6"
  top: "fc7"
  param {
    lr_mult: 1
    decay_mult: 1
  }
  param {
    lr_mult: 2
    decay_mult: 0
  }
  inner_product_param {
    num_output: 4096
    weight_filler {
      type: "gaussian"
      std: 0.005
    }
    bias_filler {
      type: "constant"
      value: 0.1
    }
  }
}
layer {
  name: "relu7"
  type: "ReLU"
  bottom: "fc7"
  top: "fc7"
}
layer {
  name: "drop7"
  type: "Dropout"
  bottom: "fc7"
  top: "fc7"
  dropout_param {
    dropout_ratio: 0.5
  }
}
layer {
  name: "fc8"
  type: "InnerProduct"
  bottom: "fc7"
  top: "fc8"
  param {
    lr_mult: 1
    decay_mult: 1
  }
  param {
    lr_mult: 2
    decay_mult: 0
  }
  inner_product_param {
    num_output: 1000
    weight_filler {
      type: "gaussian"
      std: 0.01
    }
    bias_filler {
      type: "constant"
      value: 0
    }
  }
}
layer {
  name: "fc8_fc8_0_split"
  type: "Split"
  bottom: "fc8"
  top: "fc8_fc8_0_split_0"
  top: "fc8_fc8_0_split_1"
}
layer {
  name: "accuracy"
  type: "Accuracy"
  bottom: "fc8_fc8_0_split_0"
  bottom: "label_data_1_split_0"
  top: "accuracy"
}
layer {
  name: "loss"
  type: "SoftmaxWithLoss"
  bottom: "fc8_fc8_0_split_1"
  bottom: "label_data_1_split_1"
  top: "loss"
}
I1226 08:55:30.648136 86102 cpu_info.cpp:473] Number of OpenMP threads: 66
I1226 08:55:30.648432 86102 net.cpp:500] The NetState phase (0) differed from the phase (1) specified by a rule in layer data
I1226 08:55:27.384656 90165 cpu_info.cpp:473] Number of OpenMP threads: 66
I1226 08:55:30.650403 86102 net.cpp:136] Initializing net from parameters: 
name: "AlexNet"
state {
  phase: TRAIN
  level: 0
  stage: ""
}
engine: "MKL2017"
layer {
  name: "data"
  type: "Data"
  top: "data"
  top: "label"
  include {
    phase: TRAIN
  }
  transform_param {
    mirror: true
    crop_size: 227
    mean_value: 104
    mean_value: 117
    mean_value: 123
  }
  data_param {
    source: "/export/data1/stanford/hazy/zjian/gorden_bell/ILSVRC2012_lmdb/db_8/ilsvrc12_train_lmdb_3"
    batch_size: 256
    backend: LMDB
  }
}
layer {
  name: "label_data_1_split"
  type: "Split"
  bottom: "label"
  top: "label_data_1_split_0"
  top: "label_data_1_split_1"
}
layer {
  name: "conv1"
  type: "Convolution"
  bottom: "data"
  top: "conv1"
  param {
    lr_mult: 1
    decay_mult: 1
  }
  param {
    lr_mult: 2
    decay_mult: 0
  }
  convolution_param {
    num_output: 96
    kernel_size: 11
    stride: 4
    weight_filler {
      type: "gaussian"
      std: 0.01
    }
    bias_filler {
      type: "constant"
      value: 0
    }
    engine: MKL2017
  }
}
layer {
  name: "relu1"
  type: "ReLU"
  bottom: "conv1"
  top: "conv1"
  relu_param {
    engine: MKL2017
  }
}
layer {
  name: "norm1"
  type: "LRN"
  bottom: "conv1"
  top: "norm1"
  lrn_param {
    local_size: 5
    alpha: 0.0001
    beta: 0.75
    engine: MKL2017
  }
}
layer {
  name: "pool1"
  type: "Pooling"
  bottom: "norm1"
  top: "pool1"
  pooling_param {
    pool: MAX
    kernel_size: 3
    stride: 2
    engine: MKL2017
  }
}
layer {
  name: "conv2"
  type: "Convolution"
  bottom: "pool1"
  top: "conv2"
  param {
    lr_mult: 1
    decay_mult: 1
  }
  param {
    lr_mult: 2
    decay_mult: 0
  }
  convolution_param {
    num_output: 256
    pad: 2
    kernel_size: 5
    group: 2
    weight_filler {
      type: "gaussian"
      std: 0.01
    }
    bias_filler {
      type: "constant"
      value: 0.1
    }
    engine: MKL2017
  }
}
layer {
  name: "relu2"
  type: "ReLU"
  bottom: "conv2"
  top: "conv2"
  relu_param {
    engine: MKL2017
  }
}
layer {
  name: "norm2"
  type: "LRN"
  bottom: "conv2"
  top: "norm2"
  lrn_param {
    local_size: 5
    alpha: 0.0001
    beta: 0.75
    engine: MKL2017
  }
}
layer {
  name: "pool2"
  type: "Pooling"
  bottom: "norm2"
  top: "pool2"
  pooling_param {
    pool: MAX
    kernel_size: 3
    stride: 2
    engine: MKL2017
  }
}
layer {
  name: "conv3"
  type: "Convolution"
  bottom: "pool2"
  top: "conv3"
  param {
    lr_mult: 1
    decay_mult: 1
  }
  param {
    lr_mult: 2
    decay_mult: 0
  }
  convolution_param {
    num_output: 384
    pad: 1
    kernel_size: 3
    weight_filler {
      type: "gaussian"
      std: 0.01
    }
    bias_filler {
      type: "constant"
      value: 0
    }
    engine: MKL2017
  }
}
layer {
  name: "relu3"
  type: "ReLU"
  bottom: "conv3"
  top: "conv3"
  relu_param {
    engine: MKL2017
  }
}
layer {
  name: "conv4"
  type: "Convolution"
  bottom: "conv3"
  top: "conv4"
  param {
    lr_mult: 1
    decay_mult: 1
  }
  param {
    lr_mult: 2
    decay_mult: 0
  }
  convolution_param {
    num_output: 384
    pad: 1
    kernel_size: 3
    group: 2
    weight_filler {
      type: "gaussian"
      std: 0.01
    }
    bias_filler {
      type: "constant"
      value: 0.1
    }
    engine: MKL2017
  }
}
layer {
  name: "relu4"
  type: "ReLU"
  bottom: "conv4"
  top: "conv4"
  relu_param {
    engine: MKL2017
  }
}
layer {
  name: "conv5"
  type: "Convolution"
  bottom: "conv4"
  top: "conv5"
  param {
    lr_mult: 1
    decay_mult: 1
  }
  param {
    lr_mult: 2
    decay_mult: 0
  }
  convolution_param {
    num_output: 256
    pad: 1
    kernel_size: 3
    group: 2
    weight_filler {
      type: "gaussian"
      std: 0.01
    }
    bias_filler {
      type: "constant"
      value: 0.1
    }
    engine: MKL2017
  }
}
layer {
  name: "relu5"
  type: "ReLU"
  bottom: "conv5"
  top: "conv5"
  relu_param {
    engine: MKL2017
  }
}
layer {
  name: "pool5"
  type: "Pooling"
  bottom: "conv5"
  top: "pool5"
  pooling_param {
    pool: MAX
    kernel_size: 3
    stride: 2
    engine: MKL2017
  }
}
layer {
  name: "fc6"
  type: "InnerProduct"
  bottom: "pool5"
  top: "fc6"
  param {
    lr_mult: 1
    decay_mult: 1
  }
  param {
    lr_mult: 2
    decay_mult: 0
  }
  inner_product_param {
    num_output: 4096
    weight_filler {
      type: "gaussian"
      std: 0.005
    }
    bias_filler {
      type: "constant"
      value: 0.1
    }
  }
}
layer {
  name: "relu6"
  type: "ReLU"
  bottom: "fc6"
  top: "fc6"
}
layer {
  name: "drop6"
  type: "Dropout"
  bottom: "fc6"
  top: "fc6"
  dropout_param {
    dropout_ratio: 0.5
  }
}
layer {
  name: "fc7"
  type: "InnerProduct"
  bottom: "fc6"
  top: "fc7"
  param {
    lr_mult: 1
    decay_mult: 1
  }
  param {
    lr_mult: 2
    decay_mult: 0
  }
  inner_product_param {
    num_output: 4096
    weight_filler {
      type: "gaussian"
      std: 0.005
    }
    bias_filler {
      type: "constant"
      value: 0.1
    }
  }
}
layer {
  name: "relu7"
  type: "ReLU"
  bottom: "fc7"
  top: "fc7"
}
layer {
  name: "drop7"
  type: "Dropout"
  bottom: "fc7"
  top: "fc7"
  dropout_param {
    dropout_ratio: 0.5
  }
}
layer {
  name: "fc8"
  type: "InnerProduct"
  bottom: "fc7"
  top: "fc8"
  param {
    lr_mult: 1
    decay_mult: 1
  }
  param {
    lr_mult: 2
    decay_mult: 0
  }
  inner_product_param {
    num_output: 1000
    weight_filler {
      type: "gaussian"
      std: 0.01
    }
    bias_filler {
      type: "constant"
      value: 0
    }
  }
}
layer {
  name: "fc8_fc8_0_split"
  type: "Split"
  bottom: "fc8"
  top: "fc8_fc8_0_split_0"
  top: "fc8_fc8_0_split_1"
}
layer {
  name: "accuracy"
  type: "Accuracy"
  bottom: "fc8_fc8_0_split_0"
  bottom: "label_data_1_split_0"
  top: "accuracy"
}
layer {
  name: "loss"
  type: "SoftmaxWithLoss"
  bottom: "fc8_fc8_0_split_1"
  bottom: "label_data_1_split_1"
  top: "loss"
}
I1226 08:55:27.385038 90165 net.cpp:500] The NetState phase (0) differed from the phase (1) specified by a rule in layer data
I1226 08:55:27.387184 90165 net.cpp:136] Initializing net from parameters: 
name: "AlexNet"
state {
  phase: TRAIN
  level: 0
  stage: ""
}
engine: "MKL2017"
layer {
  name: "data"
  type: "Data"
  top: "data"
  top: "label"
  include {
    phase: TRAIN
  }
  transform_param {
    mirror: true
    crop_size: 227
    mean_value: 104
    mean_value: 117
    mean_value: 123
  }
  data_param {
    source: "/export/data1/stanford/hazy/zjian/gorden_bell/ILSVRC2012_lmdb/db_8/ilsvrc12_train_lmdb_1"
    batch_size: 256
    backend: LMDB
  }
}
layer {
  name: "label_data_1_split"
  type: "Split"
  bottom: "label"
  top: "label_data_1_split_0"
  top: "label_data_1_split_1"
}
layer {
  name: "conv1"
  type: "Convolution"
  bottom: "data"
  top: "conv1"
  param {
    lr_mult: 1
    decay_mult: 1
  }
  param {
    lr_mult: 2
    decay_mult: 0
  }
  convolution_param {
    num_output: 96
    kernel_size: 11
    stride: 4
    weight_filler {
      type: "gaussian"
      std: 0.01
    }
    bias_filler {
      type: "constant"
      value: 0
    }
    engine: MKL2017
  }
}
layer {
  name: "relu1"
  type: "ReLU"
  bottom: "conv1"
  top: "conv1"
  relu_param {
    engine: MKL2017
  }
}
layer {
  name: "norm1"
  type: "LRN"
  bottom: "conv1"
  top: "norm1"
  lrn_param {
    local_size: 5
    alpha: 0.0001
    beta: 0.75
    engine: MKL2017
  }
}
layer {
  name: "pool1"
  type: "Pooling"
  bottom: "norm1"
  top: "pool1"
  pooling_param {
    pool: MAX
    kernel_size: 3
    stride: 2
    engine: MKL2017
  }
}
layer {
  name: "conv2"
  type: "Convolution"
  bottom: "pool1"
  top: "conv2"
  param {
    lr_mult: 1
    decay_mult: 1
  }
  param {
    lr_mult: 2
    decay_mult: 0
  }
  convolution_param {
    num_output: 256
    pad: 2
    kernel_size: 5
    group: 2
    weight_filler {
      type: "gaussian"
      std: 0.01
    }
    bias_filler {
      type: "constant"
      value: 0.1
    }
    engine: MKL2017
  }
}
layer {
  name: "relu2"
  type: "ReLU"
  bottom: "conv2"
  top: "conv2"
  relu_param {
    engine: MKL2017
  }
}
layer {
  name: "norm2"
  type: "LRN"
  bottom: "conv2"
  top: "norm2"
  lrn_param {
    local_size: 5
    alpha: 0.0001
    beta: 0.75
    engine: MKL2017
  }
}
layer {
  name: "pool2"
  type: "Pooling"
  bottom: "norm2"
  top: "pool2"
  pooling_param {
    pool: MAX
    kernel_size: 3
    stride: 2
    engine: MKL2017
  }
}
layer {
  name: "conv3"
  type: "Convolution"
  bottom: "pool2"
  top: "conv3"
  param {
    lr_mult: 1
    decay_mult: 1
  }
  param {
    lr_mult: 2
    decay_mult: 0
  }
  convolution_param {
    num_output: 384
    pad: 1
    kernel_size: 3
    weight_filler {
      type: "gaussian"
      std: 0.01
    }
    bias_filler {
      type: "constant"
      value: 0
    }
    engine: MKL2017
  }
}
layer {
  name: "relu3"
  type: "ReLU"
  bottom: "conv3"
  top: "conv3"
  relu_param {
    engine: MKL2017
  }
}
layer {
  name: "conv4"
  type: "Convolution"
  bottom: "conv3"
  top: "conv4"
  param {
    lr_mult: 1
    decay_mult: 1
  }
  param {
    lr_mult: 2
    decay_mult: 0
  }
  convolution_param {
    num_output: 384
    pad: 1
    kernel_size: 3
    group: 2
    weight_filler {
      type: "gaussian"
      std: 0.01
    }
    bias_filler {
      type: "constant"
      value: 0.1
    }
    engine: MKL2017
  }
}
layer {
  name: "relu4"
  type: "ReLU"
  bottom: "conv4"
  top: "conv4"
  relu_param {
    engine: MKL2017
  }
}
layer {
  name: "conv5"
  type: "Convolution"
  bottom: "conv4"
  top: "conv5"
  param {
    lr_mult: 1
    decay_mult: 1
  }
  param {
    lr_mult: 2
    decay_mult: 0
  }
  convolution_param {
    num_output: 256
    pad: 1
    kernel_size: 3
    group: 2
    weight_filler {
      type: "gaussian"
      std: 0.01
    }
    bias_filler {
      type: "constant"
      value: 0.1
    }
    engine: MKL2017
  }
}
layer {
  name: "relu5"
  type: "ReLU"
  bottom: "conv5"
  top: "conv5"
  relu_param {
    engine: MKL2017
  }
}
layer {
  name: "pool5"
  type: "Pooling"
  bottom: "conv5"
  top: "pool5"
  pooling_param {
    pool: MAX
    kernel_size: 3
    stride: 2
    engine: MKL2017
  }
}
layer {
  name: "fc6"
  type: "InnerProduct"
  bottom: "pool5"
  top: "fc6"
  param {
    lr_mult: 1
    decay_mult: 1
  }
  param {
    lr_mult: 2
    decay_mult: 0
  }
  inner_product_param {
    num_output: 4096
    weight_filler {
      type: "gaussian"
      std: 0.005
    }
    bias_filler {
      type: "constant"
      value: 0.1
    }
  }
}
layer {
  name: "relu6"
  type: "ReLU"
  bottom: "fc6"
  top: "fc6"
}
layer {
  name: "drop6"
  type: "Dropout"
  bottom: "fc6"
  top: "fc6"
  dropout_param {
    dropout_ratio: 0.5
  }
}
layer {
  name: "fc7"
  type: "InnerProduct"
  bottom: "fc6"
  top: "fc7"
  param {
    lr_mult: 1
    decay_mult: 1
  }
  param {
    lr_mult: 2
    decay_mult: 0
  }
  inner_product_param {
    num_output: 4096
    weight_filler {
      type: "gaussian"
      std: 0.005
    }
    bias_filler {
      type: "constant"
      value: 0.1
    }
  }
}
layer {
  name: "relu7"
  type: "ReLU"
  bottom: "fc7"
  top: "fc7"
}
layer {
  name: "drop7"
  type: "Dropout"
  bottom: "fc7"
  top: "fc7"
  dropout_param {
    dropout_ratio: 0.5
  }
}
layer {
  name: "fc8"
  type: "InnerProduct"
  bottom: "fc7"
  top: "fc8"
  param {
    lr_mult: 1
    decay_mult: 1
  }
  param {
    lr_mult: 2
    decay_mult: 0
  }
  inner_product_param {
    num_output: 1000
    weight_filler {
      type: "gaussian"
      std: 0.01
    }
    bias_filler {
      type: "constant"
      value: 0
    }
  }
}
layer {
  name: "fc8_fc8_0_split"
  type: "Split"
  bottom: "fc8"
  top: "fc8_fc8_0_split_0"
  top: "fc8_fc8_0_split_1"
}
layer {
  name: "accuracy"
  type: "Accuracy"
  bottom: "fc8_fc8_0_split_0"
  bottom: "label_data_1_split_0"
  top: "accuracy"
}
layer {
  name: "loss"
  type: "SoftmaxWithLoss"
  bottom: "fc8_fc8_0_split_1"
  bottom: "label_data_1_split_1"
  top: "loss"
}
I1226 08:55:30.662101 94304 cpu_info.cpp:473] Number of OpenMP threads: 66
I1226 08:55:30.662448 94304 net.cpp:500] The NetState phase (0) differed from the phase (1) specified by a rule in layer data
I1226 08:55:30.662389 95005 layer_factory.hpp:114] Creating layer data
I1226 08:55:30.664463 94304 net.cpp:136] Initializing net from parameters: 
name: "AlexNet"
state {
  phase: TRAIN
  level: 0
  stage: ""
}
engine: "MKL2017"
layer {
  name: "data"
  type: "Data"
  top: "data"
  top: "label"
  include {
    phase: TRAIN
  }
  transform_param {
    mirror: true
    crop_size: 227
    mean_value: 104
    mean_value: 117
    mean_value: 123
  }
  data_param {
    source: "/export/data1/stanford/hazy/zjian/gorden_bell/ILSVRC2012_lmdb/db_8/ilsvrc12_train_lmdb_0"
    batch_size: 256
    backend: LMDB
  }
}
layer {
  name: "label_data_1_split"
  type: "Split"
  bottom: "label"
  top: "label_data_1_split_0"
  top: "label_data_1_split_1"
}
layer {
  name: "conv1"
  type: "Convolution"
  bottom: "data"
  top: "conv1"
  param {
    lr_mult: 1
    decay_mult: 1
  }
  param {
    lr_mult: 2
    decay_mult: 0
  }
  convolution_param {
    num_output: 96
    kernel_size: 11
    stride: 4
    weight_filler {
      type: "gaussian"
      std: 0.01
    }
    bias_filler {
      type: "constant"
      value: 0
    }
    engine: MKL2017
  }
}
layer {
  name: "relu1"
  type: "ReLU"
  bottom: "conv1"
  top: "conv1"
  relu_param {
    engine: MKL2017
  }
}
layer {
  name: "norm1"
  type: "LRN"
  bottom: "conv1"
  top: "norm1"
  lrn_param {
    local_size: 5
    alpha: 0.0001
    beta: 0.75
    engine: MKL2017
  }
}
layer {
  name: "pool1"
  type: "Pooling"
  bottom: "norm1"
  top: "pool1"
  pooling_param {
    pool: MAX
    kernel_size: 3
    stride: 2
    engine: MKL2017
  }
}
layer {
  name: "conv2"
  type: "Convolution"
  bottom: "pool1"
  top: "conv2"
  param {
    lr_mult: 1
    decay_mult: 1
  }
  param {
    lr_mult: 2
    decay_mult: 0
  }
  convolution_param {
    num_output: 256
    pad: 2
    kernel_size: 5
    group: 2
    weight_filler {
      type: "gaussian"
      std: 0.01
    }
    bias_filler {
      type: "constant"
      value: 0.1
    }
    engine: MKL2017
  }
}
layer {
  name: "relu2"
  type: "ReLU"
  bottom: "conv2"
  top: "conv2"
  relu_param {
    engine: MKL2017
  }
}
layer {
  name: "norm2"
  type: "LRN"
  bottom: "conv2"
  top: "norm2"
  lrn_param {
    local_size: 5
    alpha: 0.0001
    beta: 0.75
    engine: MKL2017
  }
}
layer {
  name: "pool2"
  type: "Pooling"
  bottom: "norm2"
  top: "pool2"
  pooling_param {
    pool: MAX
    kernel_size: 3
    stride: 2
    engine: MKL2017
  }
}
layer {
  name: "conv3"
  type: "Convolution"
  bottom: "pool2"
  top: "conv3"
  param {
    lr_mult: 1
    decay_mult: 1
  }
  param {
    lr_mult: 2
    decay_mult: 0
  }
  convolution_param {
    num_output: 384
    pad: 1
    kernel_size: 3
    weight_filler {
      type: "gaussian"
      std: 0.01
    }
    bias_filler {
      type: "constant"
      value: 0
    }
    engine: MKL2017
  }
}
layer {
  name: "relu3"
  type: "ReLU"
  bottom: "conv3"
  top: "conv3"
  relu_param {
    engine: MKL2017
  }
}
layer {
  name: "conv4"
  type: "Convolution"
  bottom: "conv3"
  top: "conv4"
  param {
    lr_mult: 1
    decay_mult: 1
  }
  param {
    lr_mult: 2
    decay_mult: 0
  }
  convolution_param {
    num_output: 384
    pad: 1
    kernel_size: 3
    group: 2
    weight_filler {
      type: "gaussian"
      std: 0.01
    }
    bias_filler {
      type: "constant"
      value: 0.1
    }
    engine: MKL2017
  }
}
layer {
  name: "relu4"
  type: "ReLU"
  bottom: "conv4"
  top: "conv4"
  relu_param {
    engine: MKL2017
  }
}
layer {
  name: "conv5"
  type: "Convolution"
  bottom: "conv4"
  top: "conv5"
  param {
    lr_mult: 1
    decay_mult: 1
  }
  param {
    lr_mult: 2
    decay_mult: 0
  }
  convolution_param {
    num_output: 256
    pad: 1
    kernel_size: 3
    group: 2
    weight_filler {
      type: "gaussian"
      std: 0.01
    }
    bias_filler {
      type: "constant"
      value: 0.1
    }
    engine: MKL2017
  }
}
layer {
  name: "relu5"
  type: "ReLU"
  bottom: "conv5"
  top: "conv5"
  relu_param {
    engine: MKL2017
  }
}
layer {
  name: "pool5"
  type: "Pooling"
  bottom: "conv5"
  top: "pool5"
  pooling_param {
    pool: MAX
    kernel_size: 3
    stride: 2
    engine: MKL2017
  }
}
layer {
  name: "fc6"
  type: "InnerProduct"
  bottom: "pool5"
  top: "fc6"
  param {
    lr_mult: 1
    decay_mult: 1
  }
  param {
    lr_mult: 2
    decay_mult: 0
  }
  inner_product_param {
    num_output: 4096
    weight_filler {
      type: "gaussian"
      std: 0.005
    }
    bias_filler {
      type: "constant"
      value: 0.1
    }
  }
}
layer {
  name: "relu6"
  type: "ReLU"
  bottom: "fc6"
  top: "fc6"
}
layer {
  name: "drop6"
  type: "Dropout"
  bottom: "fc6"
  top: "fc6"
  dropout_param {
    dropout_ratio: 0.5
  }
}
layer {
  name: "fc7"
  type: "InnerProduct"
  bottom: "fc6"
  top: "fc7"
  param {
    lr_mult: 1
    decay_mult: 1
  }
  param {
    lr_mult: 2
    decay_mult: 0
  }
  inner_product_param {
    num_output: 4096
    weight_filler {
      type: "gaussian"
      std: 0.005
    }
    bias_filler {
      type: "constant"
      value: 0.1
    }
  }
}
layer {
  name: "relu7"
  type: "ReLU"
  bottom: "fc7"
  top: "fc7"
}
layer {
  name: "drop7"
  type: "Dropout"
  bottom: "fc7"
  top: "fc7"
  dropout_param {
    dropout_ratio: 0.5
  }
}
layer {
  name: "fc8"
  type: "InnerProduct"
  bottom: "fc7"
  top: "fc8"
  param {
    lr_mult: 1
    decay_mult: 1
  }
  param {
    lr_mult: 2
    decay_mult: 0
  }
  inner_product_param {
    num_output: 1000
    weight_filler {
      type: "gaussian"
      std: 0.01
    }
    bias_filler {
      type: "constant"
      value: 0
    }
  }
}
layer {
  name: "fc8_fc8_0_split"
  type: "Split"
  bottom: "fc8"
  top: "fc8_fc8_0_split_0"
  top: "fc8_fc8_0_split_1"
}
layer {
  name: "accuracy"
  type: "Accuracy"
  bottom: "fc8_fc8_0_split_0"
  bottom: "label_data_1_split_0"
  top: "accuracy"
}
layer {
  name: "loss"
  type: "SoftmaxWithLoss"
  bottom: "fc8_fc8_0_split_1"
  bottom: "label_data_1_split_1"
  top: "loss"
}
I1226 08:55:30.664342 86102 layer_factory.hpp:114] Creating layer data
I1226 08:55:30.662564 89709 cpu_info.cpp:473] Number of OpenMP threads: 66
I1226 08:55:30.662919 89709 net.cpp:500] The NetState phase (0) differed from the phase (1) specified by a rule in layer data
I1226 08:55:30.665267 89709 net.cpp:136] Initializing net from parameters: 
name: "AlexNet"
state {
  phase: TRAIN
  level: 0
  stage: ""
}
engine: "MKL2017"
layer {
  name: "data"
  type: "Data"
  top: "data"
  top: "label"
  include {
    phase: TRAIN
  }
  transform_param {
    mirror: true
    crop_size: 227
    mean_value: 104
    mean_value: 117
    mean_value: 123
  }
  data_param {
    source: "/export/data1/stanford/hazy/zjian/gorden_bell/ILSVRC2012_lmdb/db_8/ilsvrc12_train_lmdb_7"
    batch_size: 256
    backend: LMDB
  }
}
layer {
  name: "label_data_1_split"
  type: "Split"
  bottom: "label"
  top: "label_data_1_split_0"
  top: "label_data_1_split_1"
}
layer {
  name: "conv1"
  type: "Convolution"
  bottom: "data"
  top: "conv1"
  param {
    lr_mult: 1
    decay_mult: 1
  }
  param {
    lr_mult: 2
    decay_mult: 0
  }
  convolution_param {
    num_output: 96
    kernel_size: 11
    stride: 4
    weight_filler {
      type: "gaussian"
      std: 0.01
    }
    bias_filler {
      type: "constant"
      value: 0
    }
    engine: MKL2017
  }
}
layer {
  name: "relu1"
  type: "ReLU"
  bottom: "conv1"
  top: "conv1"
  relu_param {
    engine: MKL2017
  }
}
layer {
  name: "norm1"
  type: "LRN"
  bottom: "conv1"
  top: "norm1"
  lrn_param {
    local_size: 5
    alpha: 0.0001
    beta: 0.75
    engine: MKL2017
  }
}
layer {
  name: "pool1"
  type: "Pooling"
  bottom: "norm1"
  top: "pool1"
  pooling_param {
    pool: MAX
    kernel_size: 3
    stride: 2
    engine: MKL2017
  }
}
layer {
  name: "conv2"
  type: "Convolution"
  bottom: "pool1"
  top: "conv2"
  param {
    lr_mult: 1
    decay_mult: 1
  }
  param {
    lr_mult: 2
    decay_mult: 0
  }
  convolution_param {
    num_output: 256
    pad: 2
    kernel_size: 5
    group: 2
    weight_filler {
      type: "gaussian"
      std: 0.01
    }
    bias_filler {
      type: "constant"
      value: 0.1
    }
    engine: MKL2017
  }
}
layer {
  name: "relu2"
  type: "ReLU"
  bottom: "conv2"
  top: "conv2"
  relu_param {
    engine: MKL2017
  }
}
layer {
  name: "norm2"
  type: "LRN"
  bottom: "conv2"
  top: "norm2"
  lrn_param {
    local_size: 5
    alpha: 0.0001
    beta: 0.75
    engine: MKL2017
  }
}
layer {
  name: "pool2"
  type: "Pooling"
  bottom: "norm2"
  top: "pool2"
  pooling_param {
    pool: MAX
    kernel_size: 3
    stride: 2
    engine: MKL2017
  }
}
layer {
  name: "conv3"
  type: "Convolution"
  bottom: "pool2"
  top: "conv3"
  param {
    lr_mult: 1
    decay_mult: 1
  }
  param {
    lr_mult: 2
    decay_mult: 0
  }
  convolution_param {
    num_output: 384
    pad: 1
    kernel_size: 3
    weight_filler {
      type: "gaussian"
      std: 0.01
    }
    bias_filler {
      type: "constant"
      value: 0
    }
    engine: MKL2017
  }
}
layer {
  name: "relu3"
  type: "ReLU"
  bottom: "conv3"
  top: "conv3"
  relu_param {
    engine: MKL2017
  }
}
layer {
  name: "conv4"
  type: "Convolution"
  bottom: "conv3"
  top: "conv4"
  param {
    lr_mult: 1
    decay_mult: 1
  }
  param {
    lr_mult: 2
    decay_mult: 0
  }
  convolution_param {
    num_output: 384
    pad: 1
    kernel_size: 3
    group: 2
    weight_filler {
      type: "gaussian"
      std: 0.01
    }
    bias_filler {
      type: "constant"
      value: 0.1
    }
    engine: MKL2017
  }
}
layer {
  name: "relu4"
  type: "ReLU"
  bottom: "conv4"
  top: "conv4"
  relu_param {
    engine: MKL2017
  }
}
layer {
  name: "conv5"
  type: "Convolution"
  bottom: "conv4"
  top: "conv5"
  param {
    lr_mult: 1
    decay_mult: 1
  }
  param {
    lr_mult: 2
    decay_mult: 0
  }
  convolution_param {
    num_output: 256
    pad: 1
    kernel_size: 3
    group: 2
    weight_filler {
      type: "gaussian"
      std: 0.01
    }
    bias_filler {
      type: "constant"
      value: 0.1
    }
    engine: MKL2017
  }
}
layer {
  name: "relu5"
  type: "ReLU"
  bottom: "conv5"
  top: "conv5"
  relu_param {
    engine: MKL2017
  }
}
layer {
  name: "pool5"
  type: "Pooling"
  bottom: "conv5"
  top: "pool5"
  pooling_param {
    pool: MAX
    kernel_size: 3
    stride: 2
    engine: MKL2017
  }
}
layer {
  name: "fc6"
  type: "InnerProduct"
  bottom: "pool5"
  top: "fc6"
  param {
    lr_mult: 1
    decay_mult: 1
  }
  param {
    lr_mult: 2
    decay_mult: 0
  }
  inner_product_param {
    num_output: 4096
    weight_filler {
      type: "gaussian"
      std: 0.005
    }
    bias_filler {
      type: "constant"
      value: 0.1
    }
  }
}
layer {
  name: "relu6"
  type: "ReLU"
  bottom: "fc6"
  top: "fc6"
}
layer {
  name: "drop6"
  type: "Dropout"
  bottom: "fc6"
  top: "fc6"
  dropout_param {
    dropout_ratio: 0.5
  }
}
layer {
  name: "fc7"
  type: "InnerProduct"
  bottom: "fc6"
  top: "fc7"
  param {
    lr_mult: 1
    decay_mult: 1
  }
  param {
    lr_mult: 2
    decay_mult: 0
  }
  inner_product_param {
    num_output: 4096
    weight_filler {
      type: "gaussian"
      std: 0.005
    }
    bias_filler {
      type: "constant"
      value: 0.1
    }
  }
}
layer {
  name: "relu7"
  type: "ReLU"
  bottom: "fc7"
  top: "fc7"
}
layer {
  name: "drop7"
  type: "Dropout"
  bottom: "fc7"
  top: "fc7"
  dropout_param {
    dropout_ratio: 0.5
  }
}
layer {
  name: "fc8"
  type: "InnerProduct"
  bottom: "fc7"
  top: "fc8"
  param {
    lr_mult: 1
    decay_mult: 1
  }
  param {
    lr_mult: 2
    decay_mult: 0
  }
  inner_product_param {
    num_output: 1000
    weight_filler {
      type: "gaussian"
      std: 0.01
    }
    bias_filler {
      type: "constant"
      value: 0
    }
  }
}
layer {
  name: "fc8_fc8_0_split"
  type: "Split"
  bottom: "fc8"
  top: "fc8_fc8_0_split_0"
  top: "fc8_fc8_0_split_1"
}
layer {
  name: "accuracy"
  type: "Accuracy"
  bottom: "fc8_fc8_0_split_0"
  bottom: "label_data_1_split_0"
  top: "accuracy"
}
layer {
  name: "loss"
  type: "SoftmaxWithLoss"
  bottom: "fc8_fc8_0_split_1"
  bottom: "label_data_1_split_1"
  top: "loss"
}
I1226 08:55:30.665293 91127 cpu_info.cpp:473] Number of OpenMP threads: 66
I1226 08:55:30.665709 91127 net.cpp:500] The NetState phase (0) differed from the phase (1) specified by a rule in layer data
I1226 08:55:30.667501 91127 net.cpp:136] Initializing net from parameters: 
name: "AlexNet"
state {
  phase: TRAIN
  level: 0
  stage: ""
}
engine: "MKL2017"
layer {
  name: "data"
  type: "Data"
  top: "data"
  top: "label"
  include {
    phase: TRAIN
  }
  transform_param {
    mirror: true
    crop_size: 227
    mean_value: 104
    mean_value: 117
    mean_value: 123
  }
  data_param {
    source: "/export/data1/stanford/hazy/zjian/gorden_bell/ILSVRC2012_lmdb/db_8/ilsvrc12_train_lmdb_6"
    batch_size: 256
    backend: LMDB
  }
}
layer {
  name: "label_data_1_split"
  type: "Split"
  bottom: "label"
  top: "label_data_1_split_0"
  top: "label_data_1_split_1"
}
layer {
  name: "conv1"
  type: "Convolution"
  bottom: "data"
  top: "conv1"
  param {
    lr_mult: 1
    decay_mult: 1
  }
  param {
    lr_mult: 2
    decay_mult: 0
  }
  convolution_param {
    num_output: 96
    kernel_size: 11
    stride: 4
    weight_filler {
      type: "gaussian"
      std: 0.01
    }
    bias_filler {
      type: "constant"
      value: 0
    }
    engine: MKL2017
  }
}
layer {
  name: "relu1"
  type: "ReLU"
  bottom: "conv1"
  top: "conv1"
  relu_param {
    engine: MKL2017
  }
}
layer {
  name: "norm1"
  type: "LRN"
  bottom: "conv1"
  top: "norm1"
  lrn_param {
    local_size: 5
    alpha: 0.0001
    beta: 0.75
    engine: MKL2017
  }
}
layer {
  name: "pool1"
  type: "Pooling"
  bottom: "norm1"
  top: "pool1"
  pooling_param {
    pool: MAX
    kernel_size: 3
    stride: 2
    engine: MKL2017
  }
}
layer {
  name: "conv2"
  type: "Convolution"
  bottom: "pool1"
  top: "conv2"
  param {
    lr_mult: 1
    decay_mult: 1
  }
  param {
    lr_mult: 2
    decay_mult: 0
  }
  convolution_param {
    num_output: 256
    pad: 2
    kernel_size: 5
    group: 2
    weight_filler {
      type: "gaussian"
      std: 0.01
    }
    bias_filler {
      type: "constant"
      value: 0.1
    }
    engine: MKL2017
  }
}
layer {
  name: "relu2"
  type: "ReLU"
  bottom: "conv2"
  top: "conv2"
  relu_param {
    engine: MKL2017
  }
}
layer {
  name: "norm2"
  type: "LRN"
  bottom: "conv2"
  top: "norm2"
  lrn_param {
    local_size: 5
    alpha: 0.0001
    beta: 0.75
    engine: MKL2017
  }
}
layer {
  name: "pool2"
  type: "Pooling"
  bottom: "norm2"
  top: "pool2"
  pooling_param {
    pool: MAX
    kernel_size: 3
    stride: 2
    engine: MKL2017
  }
}
layer {
  name: "conv3"
  type: "Convolution"
  bottom: "pool2"
  top: "conv3"
  param {
    lr_mult: 1
    decay_mult: 1
  }
  param {
    lr_mult: 2
    decay_mult: 0
  }
  convolution_param {
    num_output: 384
    pad: 1
    kernel_size: 3
    weight_filler {
      type: "gaussian"
      std: 0.01
    }
    bias_filler {
      type: "constant"
      value: 0
    }
    engine: MKL2017
  }
}
layer {
  name: "relu3"
  type: "ReLU"
  bottom: "conv3"
  top: "conv3"
  relu_param {
    engine: MKL2017
  }
}
layer {
  name: "conv4"
  type: "Convolution"
  bottom: "conv3"
  top: "conv4"
  param {
    lr_mult: 1
    decay_mult: 1
  }
  param {
    lr_mult: 2
    decay_mult: 0
  }
  convolution_param {
    num_output: 384
    pad: 1
    kernel_size: 3
    group: 2
    weight_filler {
      type: "gaussian"
      std: 0.01
    }
    bias_filler {
      type: "constant"
      value: 0.1
    }
    engine: MKL2017
  }
}
layer {
  name: "relu4"
  type: "ReLU"
  bottom: "conv4"
  top: "conv4"
  relu_param {
    engine: MKL2017
  }
}
layer {
  name: "conv5"
  type: "Convolution"
  bottom: "conv4"
  top: "conv5"
  param {
    lr_mult: 1
    decay_mult: 1
  }
  param {
    lr_mult: 2
    decay_mult: 0
  }
  convolution_param {
    num_output: 256
    pad: 1
    kernel_size: 3
    group: 2
    weight_filler {
      type: "gaussian"
      std: 0.01
    }
    bias_filler {
      type: "constant"
      value: 0.1
    }
    engine: MKL2017
  }
}
layer {
  name: "relu5"
  type: "ReLU"
  bottom: "conv5"
  top: "conv5"
  relu_param {
    engine: MKL2017
  }
}
layer {
  name: "pool5"
  type: "Pooling"
  bottom: "conv5"
  top: "pool5"
  pooling_param {
    pool: MAX
    kernel_size: 3
    stride: 2
    engine: MKL2017
  }
}
layer {
  name: "fc6"
  type: "InnerProduct"
  bottom: "pool5"
  top: "fc6"
  param {
    lr_mult: 1
    decay_mult: 1
  }
  param {
    lr_mult: 2
    decay_mult: 0
  }
  inner_product_param {
    num_output: 4096
    weight_filler {
      type: "gaussian"
      std: 0.005
    }
    bias_filler {
      type: "constant"
      value: 0.1
    }
  }
}
layer {
  name: "relu6"
  type: "ReLU"
  bottom: "fc6"
  top: "fc6"
}
layer {
  name: "drop6"
  type: "Dropout"
  bottom: "fc6"
  top: "fc6"
  dropout_param {
    dropout_ratio: 0.5
  }
}
layer {
  name: "fc7"
  type: "InnerProduct"
  bottom: "fc6"
  top: "fc7"
  param {
    lr_mult: 1
    decay_mult: 1
  }
  param {
    lr_mult: 2
    decay_mult: 0
  }
  inner_product_param {
    num_output: 4096
    weight_filler {
      type: "gaussian"
      std: 0.005
    }
    bias_filler {
      type: "constant"
      value: 0.1
    }
  }
}
layer {
  name: "relu7"
  type: "ReLU"
  bottom: "fc7"
  top: "fc7"
}
layer {
  name: "drop7"
  type: "Dropout"
  bottom: "fc7"
  top: "fc7"
  dropout_param {
    dropout_ratio: 0.5
  }
}
layer {
  name: "fc8"
  type: "InnerProduct"
  bottom: "fc7"
  top: "fc8"
  param {
    lr_mult: 1
    decay_mult: 1
  }
  param {
    lr_mult: 2
    decay_mult: 0
  }
  inner_product_param {
    num_output: 1000
    weight_filler {
      type: "gaussian"
      std: 0.01
    }
    bias_filler {
      type: "constant"
      value: 0
    }
  }
}
layer {
  name: "fc8_fc8_0_split"
  type: "Split"
  bottom: "fc8"
  top: "fc8_fc8_0_split_0"
  top: "fc8_fc8_0_split_1"
}
layer {
  name: "accuracy"
  type: "Accuracy"
  bottom: "fc8_fc8_0_split_0"
  bottom: "label_data_1_split_0"
  top: "accuracy"
}
layer {
  name: "loss"
  type: "SoftmaxWithLoss"
  bottom: "fc8_fc8_0_split_1"
  bottom: "label_data_1_split_1"
  top: "loss"
}
I1226 08:55:30.672966 86102 net.cpp:178] Creating Layer data
I1226 08:55:30.673046 86102 net.cpp:586] data -> data
I1226 08:55:30.673147 86102 net.cpp:586] data -> label
I1226 08:55:30.676522 95005 net.cpp:178] Creating Layer data
I1226 08:55:30.676656 95005 net.cpp:586] data -> data
I1226 08:55:30.676826 95005 net.cpp:586] data -> label
I1226 08:55:30.666712 119888 cpu_info.cpp:473] Number of OpenMP threads: 66
I1226 08:55:30.667132 119888 net.cpp:500] The NetState phase (0) differed from the phase (1) specified by a rule in layer data
I1226 08:55:30.669438 119888 net.cpp:136] Initializing net from parameters: 
name: "AlexNet"
state {
  phase: TRAIN
  level: 0
  stage: ""
}
engine: "MKL2017"
layer {
  name: "data"
  type: "Data"
  top: "data"
  top: "label"
  include {
    phase: TRAIN
  }
  transform_param {
    mirror: true
    crop_size: 227
    mean_value: 104
    mean_value: 117
    mean_value: 123
  }
  data_param {
    source: "/export/data1/stanford/hazy/zjian/gorden_bell/ILSVRC2012_lmdb/db_8/ilsvrc12_train_lmdb_4"
    batch_size: 256
    backend: LMDB
  }
}
layer {
  name: "label_data_1_split"
  type: "Split"
  bottom: "label"
  top: "label_data_1_split_0"
  top: "label_data_1_split_1"
}
layer {
  name: "conv1"
  type: "Convolution"
  bottom: "data"
  top: "conv1"
  param {
    lr_mult: 1
    decay_mult: 1
  }
  param {
    lr_mult: 2
    decay_mult: 0
  }
  convolution_param {
    num_output: 96
    kernel_size: 11
    stride: 4
    weight_filler {
      type: "gaussian"
      std: 0.01
    }
    bias_filler {
      type: "constant"
      value: 0
    }
    engine: MKL2017
  }
}
layer {
  name: "relu1"
  type: "ReLU"
  bottom: "conv1"
  top: "conv1"
  relu_param {
    engine: MKL2017
  }
}
layer {
  name: "norm1"
  type: "LRN"
  bottom: "conv1"
  top: "norm1"
  lrn_param {
    local_size: 5
    alpha: 0.0001
    beta: 0.75
    engine: MKL2017
  }
}
layer {
  name: "pool1"
  type: "Pooling"
  bottom: "norm1"
  top: "pool1"
  pooling_param {
    pool: MAX
    kernel_size: 3
    stride: 2
    engine: MKL2017
  }
}
layer {
  name: "conv2"
  type: "Convolution"
  bottom: "pool1"
  top: "conv2"
  param {
    lr_mult: 1
    decay_mult: 1
  }
  param {
    lr_mult: 2
    decay_mult: 0
  }
  convolution_param {
    num_output: 256
    pad: 2
    kernel_size: 5
    group: 2
    weight_filler {
      type: "gaussian"
      std: 0.01
    }
    bias_filler {
      type: "constant"
      value: 0.1
    }
    engine: MKL2017
  }
}
layer {
  name: "relu2"
  type: "ReLU"
  bottom: "conv2"
  top: "conv2"
  relu_param {
    engine: MKL2017
  }
}
layer {
  name: "norm2"
  type: "LRN"
  bottom: "conv2"
  top: "norm2"
  lrn_param {
    local_size: 5
    alpha: 0.0001
    beta: 0.75
    engine: MKL2017
  }
}
layer {
  name: "pool2"
  type: "Pooling"
  bottom: "norm2"
  top: "pool2"
  pooling_param {
    pool: MAX
    kernel_size: 3
    stride: 2
    engine: MKL2017
  }
}
layer {
  name: "conv3"
  type: "Convolution"
  bottom: "pool2"
  top: "conv3"
  param {
    lr_mult: 1
    decay_mult: 1
  }
  param {
    lr_mult: 2
    decay_mult: 0
  }
  convolution_param {
    num_output: 384
    pad: 1
    kernel_size: 3
    weight_filler {
      type: "gaussian"
      std: 0.01
    }
    bias_filler {
      type: "constant"
      value: 0
    }
    engine: MKL2017
  }
}
layer {
  name: "relu3"
  type: "ReLU"
  bottom: "conv3"
  top: "conv3"
  relu_param {
    engine: MKL2017
  }
}
layer {
  name: "conv4"
  type: "Convolution"
  bottom: "conv3"
  top: "conv4"
  param {
    lr_mult: 1
    decay_mult: 1
  }
  param {
    lr_mult: 2
    decay_mult: 0
  }
  convolution_param {
    num_output: 384
    pad: 1
    kernel_size: 3
    group: 2
    weight_filler {
      type: "gaussian"
      std: 0.01
    }
    bias_filler {
      type: "constant"
      value: 0.1
    }
    engine: MKL2017
  }
}
layer {
  name: "relu4"
  type: "ReLU"
  bottom: "conv4"
  top: "conv4"
  relu_param {
    engine: MKL2017
  }
}
layer {
  name: "conv5"
  type: "Convolution"
  bottom: "conv4"
  top: "conv5"
  param {
    lr_mult: 1
    decay_mult: 1
  }
  param {
    lr_mult: 2
    decay_mult: 0
  }
  convolution_param {
    num_output: 256
    pad: 1
    kernel_size: 3
    group: 2
    weight_filler {
      type: "gaussian"
      std: 0.01
    }
    bias_filler {
      type: "constant"
      value: 0.1
    }
    engine: MKL2017
  }
}
layer {
  name: "relu5"
  type: "ReLU"
  bottom: "conv5"
  top: "conv5"
  relu_param {
    engine: MKL2017
  }
}
layer {
  name: "pool5"
  type: "Pooling"
  bottom: "conv5"
  top: "pool5"
  pooling_param {
    pool: MAX
    kernel_size: 3
    stride: 2
    engine: MKL2017
  }
}
layer {
  name: "fc6"
  type: "InnerProduct"
  bottom: "pool5"
  top: "fc6"
  param {
    lr_mult: 1
    decay_mult: 1
  }
  param {
    lr_mult: 2
    decay_mult: 0
  }
  inner_product_param {
    num_output: 4096
    weight_filler {
      type: "gaussian"
      std: 0.005
    }
    bias_filler {
      type: "constant"
      value: 0.1
    }
  }
}
layer {
  name: "relu6"
  type: "ReLU"
  bottom: "fc6"
  top: "fc6"
}
layer {
  name: "drop6"
  type: "Dropout"
  bottom: "fc6"
  top: "fc6"
  dropout_param {
    dropout_ratio: 0.5
  }
}
layer {
  name: "fc7"
  type: "InnerProduct"
  bottom: "fc6"
  top: "fc7"
  param {
    lr_mult: 1
    decay_mult: 1
  }
  param {
    lr_mult: 2
    decay_mult: 0
  }
  inner_product_param {
    num_output: 4096
    weight_filler {
      type: "gaussian"
      std: 0.005
    }
    bias_filler {
      type: "constant"
      value: 0.1
    }
  }
}
layer {
  name: "relu7"
  type: "ReLU"
  bottom: "fc7"
  top: "fc7"
}
layer {
  name: "drop7"
  type: "Dropout"
  bottom: "fc7"
  top: "fc7"
  dropout_param {
    dropout_ratio: 0.5
  }
}
layer {
  name: "fc8"
  type: "InnerProduct"
  bottom: "fc7"
  top: "fc8"
  param {
    lr_mult: 1
    decay_mult: 1
  }
  param {
    lr_mult: 2
    decay_mult: 0
  }
  inner_product_param {
    num_output: 1000
    weight_filler {
      type: "gaussian"
      std: 0.01
    }
    bias_filler {
      type: "constant"
      value: 0
    }
  }
}
layer {
  name: "fc8_fc8_0_split"
  type: "Split"
  bottom: "fc8"
  top: "fc8_fc8_0_split_0"
  top: "fc8_fc8_0_split_1"
}
layer {
  name: "accuracy"
  type: "Accuracy"
  bottom: "fc8_fc8_0_split_0"
  bottom: "label_data_1_split_0"
  top: "accuracy"
}
layer {
  name: "loss"
  type: "SoftmaxWithLoss"
  bottom: "fc8_fc8_0_split_1"
  bottom: "label_data_1_split_1"
  top: "loss"
}
I1226 08:55:30.679702 89709 layer_factory.hpp:114] Creating layer data
I1226 08:55:30.675465 85894 cpu_info.cpp:473] Number of OpenMP threads: 66
I1226 08:55:30.675788 85894 net.cpp:500] The NetState phase (0) differed from the phase (1) specified by a rule in layer data
I1226 08:55:30.677516 85894 net.cpp:136] Initializing net from parameters: 
name: "AlexNet"
state {
  phase: TRAIN
  level: 0
  stage: ""
}
engine: "MKL2017"
layer {
  name: "data"
  type: "DummyData"
  top: "data"
  top: "label"
  include {
    phase: TRAIN
  }
  transform_param {
    mirror: true
    crop_size: 227
    mean_value: 104
    mean_value: 117
    mean_value: 123
  }
  dummy_data_param {
    data_filler {
      type: "gaussian"
      std: 1
    }
    data_filler {
      type: "constant"
      value: 0
    }
    shape {
      dim: 256
      dim: 3
      dim: 227
      dim: 227
    }
    shape {
      dim: 256
      dim: 1
      dim: 1
      dim: 1
    }
  }
}
layer {
  name: "label_data_1_split"
  type: "Split"
  bottom: "label"
  top: "label_data_1_split_0"
  top: "label_data_1_split_1"
}
layer {
  name: "conv1"
  type: "Convolution"
  bottom: "data"
  top: "conv1"
  param {
    lr_mult: 1
    decay_mult: 1
  }
  param {
    lr_mult: 2
    decay_mult: 0
  }
  convolution_param {
    num_output: 96
    kernel_size: 11
    stride: 4
    weight_filler {
      type: "gaussian"
      std: 0.01
    }
    bias_filler {
      type: "constant"
      value: 0
    }
    engine: MKL2017
  }
}
layer {
  name: "relu1"
  type: "ReLU"
  bottom: "conv1"
  top: "conv1"
  relu_param {
    engine: MKL2017
  }
}
layer {
  name: "norm1"
  type: "LRN"
  bottom: "conv1"
  top: "norm1"
  lrn_param {
    local_size: 5
    alpha: 0.0001
    beta: 0.75
    engine: MKL2017
  }
}
layer {
  name: "pool1"
  type: "Pooling"
  bottom: "norm1"
  top: "pool1"
  pooling_param {
    pool: MAX
    kernel_size: 3
    stride: 2
    engine: MKL2017
  }
}
layer {
  name: "conv2"
  type: "Convolution"
  bottom: "pool1"
  top: "conv2"
  param {
    lr_mult: 1
    decay_mult: 1
  }
  param {
    lr_mult: 2
    decay_mult: 0
  }
  convolution_param {
    num_output: 256
    pad: 2
    kernel_size: 5
    group: 2
    weight_filler {
      type: "gaussian"
      std: 0.01
    }
    bias_filler {
      type: "constant"
      value: 0.1
    }
    engine: MKL2017
  }
}
layer {
  name: "relu2"
  type: "ReLU"
  bottom: "conv2"
  top: "conv2"
  relu_param {
    engine: MKL2017
  }
}
layer {
  name: "norm2"
  type: "LRN"
  bottom: "conv2"
  top: "norm2"
  lrn_param {
    local_size: 5
    alpha: 0.0001
    beta: 0.75
    engine: MKL2017
  }
}
layer {
  name: "pool2"
  type: "Pooling"
  bottom: "norm2"
  top: "pool2"
  pooling_param {
    pool: MAX
    kernel_size: 3
    stride: 2
    engine: MKL2017
  }
}
layer {
  name: "conv3"
  type: "Convolution"
  bottom: "pool2"
  top: "conv3"
  param {
    lr_mult: 1
    decay_mult: 1
  }
  param {
    lr_mult: 2
    decay_mult: 0
  }
  convolution_param {
    num_output: 384
    pad: 1
    kernel_size: 3
    weight_filler {
      type: "gaussian"
      std: 0.01
    }
    bias_filler {
      type: "constant"
      value: 0
    }
    engine: MKL2017
  }
}
layer {
  name: "relu3"
  type: "ReLU"
  bottom: "conv3"
  top: "conv3"
  relu_param {
    engine: MKL2017
  }
}
layer {
  name: "conv4"
  type: "Convolution"
  bottom: "conv3"
  top: "conv4"
  param {
    lr_mult: 1
    decay_mult: 1
  }
  param {
    lr_mult: 2
    decay_mult: 0
  }
  convolution_param {
    num_output: 384
    pad: 1
    kernel_size: 3
    group: 2
    weight_filler {
      type: "gaussian"
      std: 0.01
    }
    bias_filler {
      type: "constant"
      value: 0.1
    }
    engine: MKL2017
  }
}
layer {
  name: "relu4"
  type: "ReLU"
  bottom: "conv4"
  top: "conv4"
  relu_param {
    engine: MKL2017
  }
}
layer {
  name: "conv5"
  type: "Convolution"
  bottom: "conv4"
  top: "conv5"
  param {
    lr_mult: 1
    decay_mult: 1
  }
  param {
    lr_mult: 2
    decay_mult: 0
  }
  convolution_param {
    num_output: 256
    pad: 1
    kernel_size: 3
    group: 2
    weight_filler {
      type: "gaussian"
      std: 0.01
    }
    bias_filler {
      type: "constant"
      value: 0.1
    }
    engine: MKL2017
  }
}
layer {
  name: "relu5"
  type: "ReLU"
  bottom: "conv5"
  top: "conv5"
  relu_param {
    engine: MKL2017
  }
}
layer {
  name: "pool5"
  type: "Pooling"
  bottom: "conv5"
  top: "pool5"
  pooling_param {
    pool: MAX
    kernel_size: 3
    stride: 2
    engine: MKL2017
  }
}
layer {
  name: "fc6"
  type: "InnerProduct"
  bottom: "pool5"
  top: "fc6"
  param {
    lr_mult: 1
    decay_mult: 1
  }
  param {
    lr_mult: 2
    decay_mult: 0
  }
  inner_product_param {
    num_output: 4096
    weight_filler {
      type: "gaussian"
      std: 0.005
    }
    bias_filler {
      type: "constant"
      value: 0.1
    }
  }
}
layer {
  name: "relu6"
  type: "ReLU"
  bottom: "fc6"
  top: "fc6"
}
layer {
  name: "drop6"
  type: "Dropout"
  bottom: "fc6"
  top: "fc6"
  dropout_param {
    dropout_ratio: 0.5
  }
}
layer {
  name: "fc7"
  type: "InnerProduct"
  bottom: "fc6"
  top: "fc7"
  param {
    lr_mult: 1
    decay_mult: 1
  }
  param {
    lr_mult: 2
    decay_mult: 0
  }
  inner_product_param {
    num_output: 4096
    weight_filler {
      type: "gaussian"
      std: 0.005
    }
    bias_filler {
      type: "constant"
      value: 0.1
    }
  }
}
layer {
  name: "relu7"
  type: "ReLU"
  bottom: "fc7"
  top: "fc7"
}
layer {
  name: "drop7"
  type: "Dropout"
  bottom: "fc7"
  top: "fc7"
  dropout_param {
    dropout_ratio: 0.5
  }
}
layer {
  name: "fc8"
  type: "InnerProduct"
  bottom: "fc7"
  top: "fc8"
  param {
    lr_mult: 1
    decay_mult: 1
  }
  param {
    lr_mult: 2
    decay_mult: 0
  }
  inner_product_param {
    num_output: 1000
    weight_filler {
      type: "gaussian"
      std: 0.01
    }
    bias_filler {
      type: "constant"
      value: 0
    }
  }
}
layer {
  name: "fc8_fc8_0_split"
  type: "Split"
  bottom: "fc8"
  top: "fc8_fc8_0_split_0"
  top: "fc8_fc8_0_split_1"
}
layer {
  name: "accuracy"
  type: "Accuracy"
  bottom: "fc8_fc8_0_split_0"
  bottom: "label_data_1_split_0"
  top: "accuracy"
}
layer {
  name: "loss"
  type: "SoftmaxWithLoss"
  bottom: "fc8_fc8_0_split_1"
  bottom: "label_data_1_split_1"
  top: "loss"
}
I1226 08:55:30.688951 92150 cpu_info.cpp:473] Number of OpenMP threads: 66
I1226 08:55:30.689316 92150 net.cpp:500] The NetState phase (0) differed from the phase (1) specified by a rule in layer data
I1226 08:55:30.691468 92150 net.cpp:136] Initializing net from parameters: 
name: "AlexNet"
state {
  phase: TRAIN
  level: 0
  stage: ""
}
engine: "MKL2017"
layer {
  name: "data"
  type: "Data"
  top: "data"
  top: "label"
  include {
    phase: TRAIN
  }
  transform_param {
    mirror: true
    crop_size: 227
    mean_value: 104
    mean_value: 117
    mean_value: 123
  }
  data_param {
    source: "/export/data1/stanford/hazy/zjian/gorden_bell/ILSVRC2012_lmdb/db_8/ilsvrc12_train_lmdb_2"
    batch_size: 256
    backend: LMDB
  }
}
layer {
  name: "label_data_1_split"
  type: "Split"
  bottom: "label"
  top: "label_data_1_split_0"
  top: "label_data_1_split_1"
}
layer {
  name: "conv1"
  type: "Convolution"
  bottom: "data"
  top: "conv1"
  param {
    lr_mult: 1
    decay_mult: 1
  }
  param {
    lr_mult: 2
    decay_mult: 0
  }
  convolution_param {
    num_output: 96
    kernel_size: 11
    stride: 4
    weight_filler {
      type: "gaussian"
      std: 0.01
    }
    bias_filler {
      type: "constant"
      value: 0
    }
    engine: MKL2017
  }
}
layer {
  name: "relu1"
  type: "ReLU"
  bottom: "conv1"
  top: "conv1"
  relu_param {
    engine: MKL2017
  }
}
layer {
  name: "norm1"
  type: "LRN"
  bottom: "conv1"
  top: "norm1"
  lrn_param {
    local_size: 5
    alpha: 0.0001
    beta: 0.75
    engine: MKL2017
  }
}
layer {
  name: "pool1"
  type: "Pooling"
  bottom: "norm1"
  top: "pool1"
  pooling_param {
    pool: MAX
    kernel_size: 3
    stride: 2
    engine: MKL2017
  }
}
layer {
  name: "conv2"
  type: "Convolution"
  bottom: "pool1"
  top: "conv2"
  param {
    lr_mult: 1
    decay_mult: 1
  }
  param {
    lr_mult: 2
    decay_mult: 0
  }
  convolution_param {
    num_output: 256
    pad: 2
    kernel_size: 5
    group: 2
    weight_filler {
      type: "gaussian"
      std: 0.01
    }
    bias_filler {
      type: "constant"
      value: 0.1
    }
    engine: MKL2017
  }
}
layer {
  name: "relu2"
  type: "ReLU"
  bottom: "conv2"
  top: "conv2"
  relu_param {
    engine: MKL2017
  }
}
layer {
  name: "norm2"
  type: "LRN"
  bottom: "conv2"
  top: "norm2"
  lrn_param {
    local_size: 5
    alpha: 0.0001
    beta: 0.75
    engine: MKL2017
  }
}
layer {
  name: "pool2"
  type: "Pooling"
  bottom: "norm2"
  top: "pool2"
  pooling_param {
    pool: MAX
    kernel_size: 3
    stride: 2
    engine: MKL2017
  }
}
layer {
  name: "conv3"
  type: "Convolution"
  bottom: "pool2"
  top: "conv3"
  param {
    lr_mult: 1
    decay_mult: 1
  }
  param {
    lr_mult: 2
    decay_mult: 0
  }
  convolution_param {
    num_output: 384
    pad: 1
    kernel_size: 3
    weight_filler {
      type: "gaussian"
      std: 0.01
    }
    bias_filler {
      type: "constant"
      value: 0
    }
    engine: MKL2017
  }
}
layer {
  name: "relu3"
  type: "ReLU"
  bottom: "conv3"
  top: "conv3"
  relu_param {
    engine: MKL2017
  }
}
layer {
  name: "conv4"
  type: "Convolution"
  bottom: "conv3"
  top: "conv4"
  param {
    lr_mult: 1
    decay_mult: 1
  }
  param {
    lr_mult: 2
    decay_mult: 0
  }
  convolution_param {
    num_output: 384
    pad: 1
    kernel_size: 3
    group: 2
    weight_filler {
      type: "gaussian"
      std: 0.01
    }
    bias_filler {
      type: "constant"
      value: 0.1
    }
    engine: MKL2017
  }
}
layer {
  name: "relu4"
  type: "ReLU"
  bottom: "conv4"
  top: "conv4"
  relu_param {
    engine: MKL2017
  }
}
layer {
  name: "conv5"
  type: "Convolution"
  bottom: "conv4"
  top: "conv5"
  param {
    lr_mult: 1
    decay_mult: 1
  }
  param {
    lr_mult: 2
    decay_mult: 0
  }
  convolution_param {
    num_output: 256
    pad: 1
    kernel_size: 3
    group: 2
    weight_filler {
      type: "gaussian"
      std: 0.01
    }
    bias_filler {
      type: "constant"
      value: 0.1
    }
    engine: MKL2017
  }
}
layer {
  name: "relu5"
  type: "ReLU"
  bottom: "conv5"
  top: "conv5"
  relu_param {
    engine: MKL2017
  }
}
layer {
  name: "pool5"
  type: "Pooling"
  bottom: "conv5"
  top: "pool5"
  pooling_param {
    pool: MAX
    kernel_size: 3
    stride: 2
    engine: MKL2017
  }
}
layer {
  name: "fc6"
  type: "InnerProduct"
  bottom: "pool5"
  top: "fc6"
  param {
    lr_mult: 1
    decay_mult: 1
  }
  param {
    lr_mult: 2
    decay_mult: 0
  }
  inner_product_param {
    num_output: 4096
    weight_filler {
      type: "gaussian"
      std: 0.005
    }
    bias_filler {
      type: "constant"
      value: 0.1
    }
  }
}
layer {
  name: "relu6"
  type: "ReLU"
  bottom: "fc6"
  top: "fc6"
}
layer {
  name: "drop6"
  type: "Dropout"
  bottom: "fc6"
  top: "fc6"
  dropout_param {
    dropout_ratio: 0.5
  }
}
layer {
  name: "fc7"
  type: "InnerProduct"
  bottom: "fc6"
  top: "fc7"
  param {
    lr_mult: 1
    decay_mult: 1
  }
  param {
    lr_mult: 2
    decay_mult: 0
  }
  inner_product_param {
    num_output: 4096
    weight_filler {
      type: "gaussian"
      std: 0.005
    }
    bias_filler {
      type: "constant"
      value: 0.1
    }
  }
}
layer {
  name: "relu7"
  type: "ReLU"
  bottom: "fc7"
  top: "fc7"
}
layer {
  name: "drop7"
  type: "Dropout"
  bottom: "fc7"
  top: "fc7"
  dropout_param {
    dropout_ratio: 0.5
  }
}
layer {
  name: "fc8"
  type: "InnerProduct"
  bottom: "fc7"
  top: "fc8"
  param {
    lr_mult: 1
    decay_mult: 1
  }
  param {
    lr_mult: 2
    decay_mult: 0
  }
  inner_product_param {
    num_output: 1000
    weight_filler {
      type: "gaussian"
      std: 0.01
    }
    bias_filler {
      type: "constant"
      value: 0
    }
  }
}
layer {
  name: "fc8_fc8_0_split"
  type: "Split"
  bottom: "fc8"
  top: "fc8_fc8_0_split_0"
  top: "fc8_fc8_0_split_1"
}
layer {
  name: "accuracy"
  type: "Accuracy"
  bottom: "fc8_fc8_0_split_0"
  bottom: "label_data_1_split_0"
  top: "accuracy"
}
layer {
  name: "loss"
  type: "SoftmaxWithLoss"
  bottom: "fc8_fc8_0_split_1"
  bottom: "label_data_1_split_1"
  top: "loss"
}
I1226 08:55:27.425257 90165 layer_factory.hpp:114] Creating layer data
I1226 08:55:30.688355 89709 net.cpp:178] Creating Layer data
I1226 08:55:30.688483 89709 net.cpp:586] data -> data
I1226 08:55:30.688576 89709 net.cpp:586] data -> label
I1226 08:55:30.697074 85894 layer_factory.hpp:114] Creating layer data
I1226 08:55:30.697278 85894 net.cpp:178] Creating Layer data
…
I1226 08:55:30.784286 92152 db_lmdb.cpp:72] Opened lmdb /export/data1/stanford/hazy/zjian/gorden_bell/ILSVRC2012_lmdb/db_8/ilsvrc12_train_lmdb_2
I1226 08:55:30.780725 91127 data_layer.cpp:80] output data size: 256,3,227,227
I1226 08:55:30.780252 119888 data_layer.cpp:80] output data size: 256,3,227,227
I1226 08:55:30.804365 94307 db_lmdb.cpp:72] Opened lmdb /export/data1/stanford/hazy/zjian/gorden_bell/ILSVRC2012_lmdb/db_8/ilsvrc12_train_lmdb_0
I1226 08:55:30.819265 92150 data_layer.cpp:80] output data size: 256,3,227,227
I1226 08:55:30.827575 94304 data_layer.cpp:80] output data size: 256,3,227,227
I1226 08:55:30.909132 85894 net.cpp:228] Setting up conv1
I1226 08:55:30.909243 85894 net.cpp:235] Top shape: 256 96 55 55 (74342400)
I1226 08:55:30.909270 85894 net.cpp:243] Memory required for data: 455669760
I1226 08:55:30.909567 85894 layer_factory.hpp:114] Creating layer relu1
I1226 08:55:30.909654 85894 net.cpp:178] Creating Layer relu1
I1226 08:55:30.909771 85894 net.cpp:612] relu1 <- conv1
I1226 08:55:30.909808 85894 net.cpp:573] relu1 -> conv1 (in-place)
I1226 08:55:30.909899 85894 net.cpp:228] Setting up relu1
I1226 08:55:30.909948 85894 net.cpp:235] Top shape: 256 96 55 55 (74342400)
I1226 08:55:30.909971 85894 net.cpp:243] Memory required for data: 753039360
I1226 08:55:30.910004 85894 layer_factory.hpp:114] Creating layer norm1
I1226 08:55:30.910066 85894 net.cpp:178] Creating Layer norm1
I1226 08:55:30.910091 85894 net.cpp:612] norm1 <- conv1
I1226 08:55:30.910132 85894 net.cpp:586] norm1 -> norm1
I1226 08:55:30.910315 85894 net.cpp:228] Setting up norm1
I1226 08:55:30.910372 85894 net.cpp:235] Top shape: 256 96 55 55 (74342400)
I1226 08:55:30.910395 85894 net.cpp:243] Memory required for data: 1050408960
I1226 08:55:30.910423 85894 layer_factory.hpp:114] Creating layer pool1
I1226 08:55:30.910473 85894 net.cpp:178] Creating Layer pool1
I1226 08:55:30.910504 85894 net.cpp:612] pool1 <- norm1
I1226 08:55:30.910543 85894 net.cpp:586] pool1 -> pool1
I1226 08:55:30.910627 85894 net.cpp:228] Setting up pool1
I1226 08:55:30.910667 85894 net.cpp:235] Top shape: 256 96 27 27 (17915904)
I1226 08:55:30.910689 85894 net.cpp:243] Memory required for data: 1122072576
I1226 08:55:30.910714 85894 layer_factory.hpp:114] Creating layer conv2
I1226 08:55:30.910782 85894 net.cpp:178] Creating Layer conv2
I1226 08:55:30.910814 85894 net.cpp:612] conv2 <- pool1
I1226 08:55:30.910856 85894 net.cpp:586] conv2 -> conv2
I1226 08:55:31.015528 86102 net.cpp:228] Setting up data
I1226 08:55:31.015666 86102 net.cpp:235] Top shape: 256 3 227 227 (39574272)
I1226 08:55:31.015704 86102 net.cpp:235] Top shape: 256 (256)
I1226 08:55:31.015729 86102 net.cpp:243] Memory required for data: 158298112
I1226 08:55:31.015782 86102 layer_factory.hpp:114] Creating layer label_data_1_split
I1226 08:55:31.015974 86102 net.cpp:178] Creating Layer label_data_1_split
I1226 08:55:31.016023 86102 net.cpp:612] label_data_1_split <- label
I1226 08:55:31.016072 86102 net.cpp:586] label_data_1_split -> label_data_1_split_0
I1226 08:55:31.016124 86102 net.cpp:586] label_data_1_split -> label_data_1_split_1
I1226 08:55:31.016062 89709 net.cpp:228] Setting up data
I1226 08:55:31.016175 89709 net.cpp:235] Top shape: 256 3 227 227 (39574272)
I1226 08:55:31.016212 89709 net.cpp:235] Top shape: 256 (256)
I1226 08:55:31.016263 89709 net.cpp:243] Memory required for data: 158298112
I1226 08:55:31.016301 89709 layer_factory.hpp:114] Creating layer label_data_1_split
I1226 08:55:31.016576 89709 net.cpp:178] Creating Layer label_data_1_split
I1226 08:55:31.016621 89709 net.cpp:612] label_data_1_split <- label
I1226 08:55:31.016660 89709 net.cpp:586] label_data_1_split -> label_data_1_split_0
I1226 08:55:31.016710 89709 net.cpp:586] label_data_1_split -> label_data_1_split_1
I1226 08:55:31.031294 86102 net.cpp:228] Setting up label_data_1_split
I1226 08:55:31.031409 86102 net.cpp:235] Top shape: 256 (256)
I1226 08:55:31.031443 86102 net.cpp:235] Top shape: 256 (256)
I1226 08:55:31.031469 86102 net.cpp:243] Memory required for data: 158300160
I1226 08:55:31.031507 86102 layer_factory.hpp:114] Creating layer conv1
I1226 08:55:31.031644 86102 net.cpp:178] Creating Layer conv1
I1226 08:55:31.031690 86102 net.cpp:612] conv1 <- data
I1226 08:55:31.031733 86102 net.cpp:586] conv1 -> conv1
I1226 08:55:31.035459 89709 net.cpp:228] Setting up label_data_1_split
I1226 08:55:31.035560 89709 net.cpp:235] Top shape: 256 (256)
I1226 08:55:31.035593 89709 net.cpp:235] Top shape: 256 (256)
I1226 08:55:31.035614 89709 net.cpp:243] Memory required for data: 158300160
I1226 08:55:31.035677 89709 layer_factory.hpp:114] Creating layer conv1
I1226 08:55:31.035778 89709 net.cpp:178] Creating Layer conv1
I1226 08:55:31.035820 89709 net.cpp:612] conv1 <- data
I1226 08:55:31.035869 89709 net.cpp:586] conv1 -> conv1
I1226 08:55:27.775869 90165 net.cpp:228] Setting up data
I1226 08:55:27.775988 90165 net.cpp:235] Top shape: 256 3 227 227 (39574272)
I1226 08:55:27.776036 90165 net.cpp:235] Top shape: 256 (256)
I1226 08:55:27.776062 90165 net.cpp:243] Memory required for data: 158298112
I1226 08:55:27.776100 90165 layer_factory.hpp:114] Creating layer label_data_1_split
I1226 08:55:27.776834 90165 net.cpp:178] Creating Layer label_data_1_split
I1226 08:55:27.776932 90165 net.cpp:612] label_data_1_split <- label
I1226 08:55:27.776983 90165 net.cpp:586] label_data_1_split -> label_data_1_split_0
I1226 08:55:27.777045 90165 net.cpp:586] label_data_1_split -> label_data_1_split_1
I1226 08:55:31.040024 119888 net.cpp:228] Setting up data
I1226 08:55:31.040138 119888 net.cpp:235] Top shape: 256 3 227 227 (39574272)
I1226 08:55:31.040174 119888 net.cpp:235] Top shape: 256 (256)
I1226 08:55:31.040227 119888 net.cpp:243] Memory required for data: 158298112
I1226 08:55:31.040266 119888 layer_factory.hpp:114] Creating layer label_data_1_split
I1226 08:55:31.040451 119888 net.cpp:178] Creating Layer label_data_1_split
I1226 08:55:31.040495 119888 net.cpp:612] label_data_1_split <- label
I1226 08:55:31.040536 119888 net.cpp:586] label_data_1_split -> label_data_1_split_0
I1226 08:55:31.040599 119888 net.cpp:586] label_data_1_split -> label_data_1_split_1
I1226 08:55:31.059167 119888 net.cpp:228] Setting up label_data_1_split
I1226 08:55:31.059273 119888 net.cpp:235] Top shape: 256 (256)
I1226 08:55:31.059335 119888 net.cpp:235] Top shape: 256 (256)
I1226 08:55:31.059489 119888 net.cpp:243] Memory required for data: 158300160
I1226 08:55:31.059530 119888 layer_factory.hpp:114] Creating layer conv1
I1226 08:55:31.059682 119888 net.cpp:178] Creating Layer conv1
I1226 08:55:31.059723 119888 net.cpp:612] conv1 <- data
I1226 08:55:31.059788 119888 net.cpp:586] conv1 -> conv1
I1226 08:55:27.802990 90165 net.cpp:228] Setting up label_data_1_split
I1226 08:55:27.803098 90165 net.cpp:235] Top shape: 256 (256)
I1226 08:55:27.803134 90165 net.cpp:235] Top shape: 256 (256)
I1226 08:55:27.803189 90165 net.cpp:243] Memory required for data: 158300160
I1226 08:55:27.803346 90165 layer_factory.hpp:114] Creating layer conv1
I1226 08:55:27.803442 90165 net.cpp:178] Creating Layer conv1
I1226 08:55:27.803481 90165 net.cpp:612] conv1 <- data
I1226 08:55:27.803524 90165 net.cpp:586] conv1 -> conv1
I1226 08:55:31.071586 92150 net.cpp:228] Setting up data
I1226 08:55:31.071710 92150 net.cpp:235] Top shape: 256 3 227 227 (39574272)
I1226 08:55:31.071753 92150 net.cpp:235] Top shape: 256 (256)
I1226 08:55:31.071781 92150 net.cpp:243] Memory required for data: 158298112
I1226 08:55:31.071840 92150 layer_factory.hpp:114] Creating layer label_data_1_split
I1226 08:55:31.072057 92150 net.cpp:178] Creating Layer label_data_1_split
I1226 08:55:31.072109 92150 net.cpp:612] label_data_1_split <- label
I1226 08:55:31.072154 92150 net.cpp:586] label_data_1_split -> label_data_1_split_0
I1226 08:55:31.072212 92150 net.cpp:586] label_data_1_split -> label_data_1_split_1
I1226 08:55:31.102270 92150 net.cpp:228] Setting up label_data_1_split
I1226 08:55:31.102432 92150 net.cpp:235] Top shape: 256 (256)
I1226 08:55:31.102470 92150 net.cpp:235] Top shape: 256 (256)
I1226 08:55:31.102495 92150 net.cpp:243] Memory required for data: 158300160
I1226 08:55:31.102533 92150 layer_factory.hpp:114] Creating layer conv1
I1226 08:55:31.102721 92150 net.cpp:178] Creating Layer conv1
I1226 08:55:31.102764 92150 net.cpp:612] conv1 <- data
I1226 08:55:31.102807 92150 net.cpp:586] conv1 -> conv1
I1226 08:55:31.116467 91127 net.cpp:228] Setting up data
I1226 08:55:31.116585 91127 net.cpp:235] Top shape: 256 3 227 227 (39574272)
I1226 08:55:31.116621 91127 net.cpp:235] Top shape: 256 (256)
I1226 08:55:31.116642 91127 net.cpp:243] Memory required for data: 158298112
I1226 08:55:31.116677 91127 layer_factory.hpp:114] Creating layer label_data_1_split
I1226 08:55:31.116885 91127 net.cpp:178] Creating Layer label_data_1_split
I1226 08:55:31.116925 91127 net.cpp:612] label_data_1_split <- label
I1226 08:55:31.116963 91127 net.cpp:586] label_data_1_split -> label_data_1_split_0
I1226 08:55:31.117017 91127 net.cpp:586] label_data_1_split -> label_data_1_split_1
I1226 08:55:31.131541 85894 net.cpp:228] Setting up conv2
I1226 08:55:31.131652 85894 net.cpp:235] Top shape: 256 256 27 27 (47775744)
I1226 08:55:31.131680 85894 net.cpp:243] Memory required for data: 1313175552
I1226 08:55:31.131755 85894 layer_factory.hpp:114] Creating layer relu2
I1226 08:55:31.131840 85894 net.cpp:178] Creating Layer relu2
I1226 08:55:31.131880 85894 net.cpp:612] relu2 <- conv2
I1226 08:55:31.131928 85894 net.cpp:573] relu2 -> conv2 (in-place)
I1226 08:55:31.132021 85894 net.cpp:228] Setting up relu2
I1226 08:55:31.132061 85894 net.cpp:235] Top shape: 256 256 27 27 (47775744)
I1226 08:55:31.132091 85894 net.cpp:243] Memory required for data: 1504278528
I1226 08:55:31.132128 85894 layer_factory.hpp:114] Creating layer norm2
I1226 08:55:31.132186 85894 net.cpp:178] Creating Layer norm2
I1226 08:55:31.132215 85894 net.cpp:612] norm2 <- conv2
I1226 08:55:31.132252 85894 net.cpp:586] norm2 -> norm2
I1226 08:55:31.132372 85894 net.cpp:228] Setting up norm2
I1226 08:55:31.132426 85894 net.cpp:235] Top shape: 256 256 27 27 (47775744)
I1226 08:55:31.132450 85894 net.cpp:243] Memory required for data: 1695381504
I1226 08:55:31.132478 85894 layer_factory.hpp:114] Creating layer pool2
I1226 08:55:31.132544 85894 net.cpp:178] Creating Layer pool2
I1226 08:55:31.132571 85894 net.cpp:612] pool2 <- norm2
I1226 08:55:31.132606 85894 net.cpp:586] pool2 -> pool2
I1226 08:55:31.132690 85894 net.cpp:228] Setting up pool2
I1226 08:55:31.132735 85894 net.cpp:235] Top shape: 256 256 13 13 (11075584)
I1226 08:55:31.132853 85894 net.cpp:243] Memory required for data: 1739683840
I1226 08:55:31.132887 85894 layer_factory.hpp:114] Creating layer conv3
I1226 08:55:31.132964 85894 net.cpp:178] Creating Layer conv3
I1226 08:55:31.133000 85894 net.cpp:612] conv3 <- pool2
I1226 08:55:31.133049 85894 net.cpp:586] conv3 -> conv3
I1226 08:55:31.142760 91127 net.cpp:228] Setting up label_data_1_split
I1226 08:55:31.142860 91127 net.cpp:235] Top shape: 256 (256)
I1226 08:55:31.142892 91127 net.cpp:235] Top shape: 256 (256)
I1226 08:55:31.142915 91127 net.cpp:243] Memory required for data: 158300160
I1226 08:55:31.142979 91127 layer_factory.hpp:114] Creating layer conv1
I1226 08:55:31.143218 91127 net.cpp:178] Creating Layer conv1
I1226 08:55:31.143288 91127 net.cpp:612] conv1 <- data
I1226 08:55:31.143331 91127 net.cpp:586] conv1 -> conv1
I1226 08:55:31.241016 86102 net.cpp:228] Setting up conv1
I1226 08:55:31.241134 86102 net.cpp:235] Top shape: 256 96 55 55 (74342400)
I1226 08:55:31.241163 86102 net.cpp:243] Memory required for data: 455669760
I1226 08:55:31.241271 86102 layer_factory.hpp:114] Creating layer relu1
I1226 08:55:31.241363 86102 net.cpp:178] Creating Layer relu1
I1226 08:55:31.241401 86102 net.cpp:612] relu1 <- conv1
I1226 08:55:31.241441 86102 net.cpp:573] relu1 -> conv1 (in-place)
I1226 08:55:31.241576 86102 net.cpp:228] Setting up relu1
I1226 08:55:31.241626 86102 net.cpp:235] Top shape: 256 96 55 55 (74342400)
I1226 08:55:31.241649 86102 net.cpp:243] Memory required for data: 753039360
I1226 08:55:31.241678 86102 layer_factory.hpp:114] Creating layer norm1
I1226 08:55:31.241762 86102 net.cpp:178] Creating Layer norm1
I1226 08:55:31.241796 86102 net.cpp:612] norm1 <- conv1
I1226 08:55:31.241833 86102 net.cpp:586] norm1 -> norm1
I1226 08:55:31.241932 86102 net.cpp:228] Setting up norm1
I1226 08:55:31.241978 86102 net.cpp:235] Top shape: 256 96 55 55 (74342400)
I1226 08:55:31.242002 86102 net.cpp:243] Memory required for data: 1050408960
I1226 08:55:31.242028 86102 layer_factory.hpp:114] Creating layer pool1
I1226 08:55:31.242086 86102 net.cpp:178] Creating Layer pool1
I1226 08:55:31.242120 86102 net.cpp:612] pool1 <- norm1
I1226 08:55:31.242166 86102 net.cpp:586] pool1 -> pool1
I1226 08:55:31.242264 86102 net.cpp:228] Setting up pool1
I1226 08:55:31.242311 86102 net.cpp:235] Top shape: 256 96 27 27 (17915904)
I1226 08:55:31.242334 86102 net.cpp:243] Memory required for data: 1122072576
I1226 08:55:31.242362 86102 layer_factory.hpp:114] Creating layer conv2
I1226 08:55:31.242434 86102 net.cpp:178] Creating Layer conv2
I1226 08:55:31.242472 86102 net.cpp:612] conv2 <- pool1
I1226 08:55:31.242512 86102 net.cpp:586] conv2 -> conv2
I1226 08:55:31.245493 89709 net.cpp:228] Setting up conv1
I1226 08:55:31.245630 89709 net.cpp:235] Top shape: 256 96 55 55 (74342400)
I1226 08:55:31.245657 89709 net.cpp:243] Memory required for data: 455669760
I1226 08:55:31.245795 89709 layer_factory.hpp:114] Creating layer relu1
I1226 08:55:31.245909 89709 net.cpp:178] Creating Layer relu1
I1226 08:55:31.246000 89709 net.cpp:612] relu1 <- conv1
I1226 08:55:31.246057 89709 net.cpp:573] relu1 -> conv1 (in-place)
I1226 08:55:31.246181 89709 net.cpp:228] Setting up relu1
I1226 08:55:31.246572 89709 net.cpp:235] Top shape: 256 96 55 55 (74342400)
I1226 08:55:31.246634 89709 net.cpp:243] Memory required for data: 753039360
I1226 08:55:31.246670 89709 layer_factory.hpp:114] Creating layer norm1
I1226 08:55:31.246754 89709 net.cpp:178] Creating Layer norm1
I1226 08:55:31.246829 89709 net.cpp:612] norm1 <- conv1
I1226 08:55:31.246878 89709 net.cpp:586] norm1 -> norm1
I1226 08:55:31.247018 89709 net.cpp:228] Setting up norm1
I1226 08:55:31.247068 89709 net.cpp:235] Top shape: 256 96 55 55 (74342400)
I1226 08:55:31.247092 89709 net.cpp:243] Memory required for data: 1050408960
I1226 08:55:31.247122 89709 layer_factory.hpp:114] Creating layer pool1
I1226 08:55:31.247184 89709 net.cpp:178] Creating Layer pool1
I1226 08:55:31.247223 89709 net.cpp:612] pool1 <- norm1
I1226 08:55:31.247268 89709 net.cpp:586] pool1 -> pool1
I1226 08:55:31.247365 89709 net.cpp:228] Setting up pool1
I1226 08:55:31.247455 89709 net.cpp:235] Top shape: 256 96 27 27 (17915904)
I1226 08:55:31.247479 89709 net.cpp:243] Memory required for data: 1122072576
I1226 08:55:31.247506 89709 layer_factory.hpp:114] Creating layer conv2
I1226 08:55:31.247620 89709 net.cpp:178] Creating Layer conv2
I1226 08:55:31.247659 89709 net.cpp:612] conv2 <- pool1
I1226 08:55:31.247704 89709 net.cpp:586] conv2 -> conv2
I1226 08:55:28.016211 90165 net.cpp:228] Setting up conv1
I1226 08:55:28.016340 90165 net.cpp:235] Top shape: 256 96 55 55 (74342400)
I1226 08:55:28.016391 90165 net.cpp:243] Memory required for data: 455669760
I1226 08:55:28.016541 90165 layer_factory.hpp:114] Creating layer relu1
I1226 08:55:28.016691 90165 net.cpp:178] Creating Layer relu1
I1226 08:55:28.016790 90165 net.cpp:612] relu1 <- conv1
I1226 08:55:28.016834 90165 net.cpp:573] relu1 -> conv1 (in-place)
I1226 08:55:28.017266 90165 net.cpp:228] Setting up relu1
I1226 08:55:28.017400 90165 net.cpp:235] Top shape: 256 96 55 55 (74342400)
I1226 08:55:28.017449 90165 net.cpp:243] Memory required for data: 753039360
I1226 08:55:28.017524 90165 layer_factory.hpp:114] Creating layer norm1
I1226 08:55:28.017660 90165 net.cpp:178] Creating Layer norm1
I1226 08:55:28.017750 90165 net.cpp:612] norm1 <- conv1
I1226 08:55:28.017792 90165 net.cpp:586] norm1 -> norm1
I1226 08:55:28.017907 90165 net.cpp:228] Setting up norm1
I1226 08:55:28.017961 90165 net.cpp:235] Top shape: 256 96 55 55 (74342400)
I1226 08:55:28.017984 90165 net.cpp:243] Memory required for data: 1050408960
I1226 08:55:28.018026 90165 layer_factory.hpp:114] Creating layer pool1
I1226 08:55:28.018100 90165 net.cpp:178] Creating Layer pool1
I1226 08:55:28.018131 90165 net.cpp:612] pool1 <- norm1
I1226 08:55:28.018182 90165 net.cpp:586] pool1 -> pool1
I1226 08:55:28.018306 90165 net.cpp:228] Setting up pool1
I1226 08:55:28.018357 90165 net.cpp:235] Top shape: 256 96 27 27 (17915904)
I1226 08:55:28.018398 90165 net.cpp:243] Memory required for data: 1122072576
I1226 08:55:28.018429 90165 layer_factory.hpp:114] Creating layer conv2
I1226 08:55:28.018527 90165 net.cpp:178] Creating Layer conv2
I1226 08:55:28.018597 90165 net.cpp:612] conv2 <- pool1
I1226 08:55:28.018647 90165 net.cpp:586] conv2 -> conv2
I1226 08:55:31.276790 119888 net.cpp:228] Setting up conv1
I1226 08:55:31.276898 119888 net.cpp:235] Top shape: 256 96 55 55 (74342400)
I1226 08:55:31.276929 119888 net.cpp:243] Memory required for data: 455669760
I1226 08:55:31.277070 119888 layer_factory.hpp:114] Creating layer relu1
I1226 08:55:31.277182 119888 net.cpp:178] Creating Layer relu1
I1226 08:55:31.277225 119888 net.cpp:612] relu1 <- conv1
I1226 08:55:31.277266 119888 net.cpp:573] relu1 -> conv1 (in-place)
I1226 08:55:31.277396 119888 net.cpp:228] Setting up relu1
I1226 08:55:31.277446 119888 net.cpp:235] Top shape: 256 96 55 55 (74342400)
I1226 08:55:31.277469 119888 net.cpp:243] Memory required for data: 753039360
I1226 08:55:31.277519 119888 layer_factory.hpp:114] Creating layer norm1
I1226 08:55:31.277705 119888 net.cpp:178] Creating Layer norm1
I1226 08:55:31.277747 119888 net.cpp:612] norm1 <- conv1
I1226 08:55:31.277786 119888 net.cpp:586] norm1 -> norm1
I1226 08:55:31.277912 119888 net.cpp:228] Setting up norm1
I1226 08:55:31.277992 119888 net.cpp:235] Top shape: 256 96 55 55 (74342400)
I1226 08:55:31.278015 119888 net.cpp:243] Memory required for data: 1050408960
I1226 08:55:31.278045 119888 layer_factory.hpp:114] Creating layer pool1
I1226 08:55:31.278141 119888 net.cpp:178] Creating Layer pool1
I1226 08:55:31.278174 119888 net.cpp:612] pool1 <- norm1
I1226 08:55:31.278218 119888 net.cpp:586] pool1 -> pool1
I1226 08:55:31.278347 119888 net.cpp:228] Setting up pool1
I1226 08:55:31.278390 119888 net.cpp:235] Top shape: 256 96 27 27 (17915904)
I1226 08:55:31.278422 119888 net.cpp:243] Memory required for data: 1122072576
I1226 08:55:31.278475 119888 layer_factory.hpp:114] Creating layer conv2
I1226 08:55:31.278560 119888 net.cpp:178] Creating Layer conv2
I1226 08:55:31.278594 119888 net.cpp:612] conv2 <- pool1
I1226 08:55:31.278690 119888 net.cpp:586] conv2 -> conv2
I1226 08:55:31.317538 92150 net.cpp:228] Setting up conv1
I1226 08:55:31.317682 92150 net.cpp:235] Top shape: 256 96 55 55 (74342400)
I1226 08:55:31.317708 92150 net.cpp:243] Memory required for data: 455669760
I1226 08:55:31.317842 92150 layer_factory.hpp:114] Creating layer relu1
I1226 08:55:31.317950 92150 net.cpp:178] Creating Layer relu1
I1226 08:55:31.317994 92150 net.cpp:612] relu1 <- conv1
I1226 08:55:31.318032 92150 net.cpp:573] relu1 -> conv1 (in-place)
I1226 08:55:31.318131 92150 net.cpp:228] Setting up relu1
I1226 08:55:31.318178 92150 net.cpp:235] Top shape: 256 96 55 55 (74342400)
I1226 08:55:31.318202 92150 net.cpp:243] Memory required for data: 753039360
I1226 08:55:31.318230 92150 layer_factory.hpp:114] Creating layer norm1
I1226 08:55:31.318295 92150 net.cpp:178] Creating Layer norm1
I1226 08:55:31.318331 92150 net.cpp:612] norm1 <- conv1
I1226 08:55:31.318364 92150 net.cpp:586] norm1 -> norm1
I1226 08:55:31.318894 92150 net.cpp:228] Setting up norm1
I1226 08:55:31.318979 92150 net.cpp:235] Top shape: 256 96 55 55 (74342400)
I1226 08:55:31.319005 92150 net.cpp:243] Memory required for data: 1050408960
I1226 08:55:31.319036 92150 layer_factory.hpp:114] Creating layer pool1
I1226 08:55:31.319131 92150 net.cpp:178] Creating Layer pool1
I1226 08:55:31.319174 92150 net.cpp:612] pool1 <- norm1
I1226 08:55:31.319221 92150 net.cpp:586] pool1 -> pool1
I1226 08:55:31.319331 92150 net.cpp:228] Setting up pool1
I1226 08:55:31.319396 92150 net.cpp:235] Top shape: 256 96 27 27 (17915904)
I1226 08:55:31.319423 92150 net.cpp:243] Memory required for data: 1122072576
I1226 08:55:31.319453 92150 layer_factory.hpp:114] Creating layer conv2
I1226 08:55:31.319530 92150 net.cpp:178] Creating Layer conv2
I1226 08:55:31.319566 92150 net.cpp:612] conv2 <- pool1
I1226 08:55:31.319609 92150 net.cpp:586] conv2 -> conv2
I1226 08:55:31.366888 85894 net.cpp:228] Setting up conv3
I1226 08:55:31.366997 85894 net.cpp:235] Top shape: 256 384 13 13 (16613376)
I1226 08:55:31.367024 85894 net.cpp:243] Memory required for data: 1806137344
I1226 08:55:31.367096 85894 layer_factory.hpp:114] Creating layer relu3
I1226 08:55:31.367177 85894 net.cpp:178] Creating Layer relu3
I1226 08:55:31.367209 85894 net.cpp:612] relu3 <- conv3
I1226 08:55:31.367260 85894 net.cpp:573] relu3 -> conv3 (in-place)
I1226 08:55:31.367372 85894 net.cpp:228] Setting up relu3
I1226 08:55:31.367421 85894 net.cpp:235] Top shape: 256 384 13 13 (16613376)
I1226 08:55:31.367451 85894 net.cpp:243] Memory required for data: 1872590848
I1226 08:55:31.367480 85894 layer_factory.hpp:114] Creating layer conv4
I1226 08:55:31.367547 85894 net.cpp:178] Creating Layer conv4
I1226 08:55:31.367581 85894 net.cpp:612] conv4 <- conv3
I1226 08:55:31.367620 85894 net.cpp:586] conv4 -> conv4
I1226 08:55:31.405191 91127 net.cpp:228] Setting up conv1
I1226 08:55:31.405300 91127 net.cpp:235] Top shape: 256 96 55 55 (74342400)
I1226 08:55:31.405325 91127 net.cpp:243] Memory required for data: 455669760
I1226 08:55:31.405483 91127 layer_factory.hpp:114] Creating layer relu1
I1226 08:55:31.405573 91127 net.cpp:178] Creating Layer relu1
I1226 08:55:31.405613 91127 net.cpp:612] relu1 <- conv1
I1226 08:55:31.405649 91127 net.cpp:573] relu1 -> conv1 (in-place)
I1226 08:55:31.405750 91127 net.cpp:228] Setting up relu1
I1226 08:55:31.405791 91127 net.cpp:235] Top shape: 256 96 55 55 (74342400)
I1226 08:55:31.405820 91127 net.cpp:243] Memory required for data: 753039360
I1226 08:55:31.405856 91127 layer_factory.hpp:114] Creating layer norm1
I1226 08:55:31.405925 91127 net.cpp:178] Creating Layer norm1
I1226 08:55:31.405951 91127 net.cpp:612] norm1 <- conv1
I1226 08:55:31.406003 91127 net.cpp:586] norm1 -> norm1
I1226 08:55:31.406096 91127 net.cpp:228] Setting up norm1
I1226 08:55:31.406136 91127 net.cpp:235] Top shape: 256 96 55 55 (74342400)
I1226 08:55:31.406158 91127 net.cpp:243] Memory required for data: 1050408960
I1226 08:55:31.406185 91127 layer_factory.hpp:114] Creating layer pool1
I1226 08:55:31.406245 91127 net.cpp:178] Creating Layer pool1
I1226 08:55:31.406276 91127 net.cpp:612] pool1 <- norm1
I1226 08:55:31.406319 91127 net.cpp:586] pool1 -> pool1
I1226 08:55:31.406430 91127 net.cpp:228] Setting up pool1
I1226 08:55:31.406474 91127 net.cpp:235] Top shape: 256 96 27 27 (17915904)
I1226 08:55:31.406507 91127 net.cpp:243] Memory required for data: 1122072576
I1226 08:55:31.406533 91127 layer_factory.hpp:114] Creating layer conv2
I1226 08:55:31.406612 91127 net.cpp:178] Creating Layer conv2
I1226 08:55:31.406646 91127 net.cpp:612] conv2 <- pool1
I1226 08:55:31.406689 91127 net.cpp:586] conv2 -> conv2
I1226 08:55:31.569686 85894 net.cpp:228] Setting up conv4
I1226 08:55:31.569794 85894 net.cpp:235] Top shape: 256 384 13 13 (16613376)
I1226 08:55:31.569818 85894 net.cpp:243] Memory required for data: 1939044352
I1226 08:55:31.569901 85894 layer_factory.hpp:114] Creating layer relu4
I1226 08:55:31.569986 85894 net.cpp:178] Creating Layer relu4
I1226 08:55:31.570026 85894 net.cpp:612] relu4 <- conv4
I1226 08:55:31.570073 85894 net.cpp:573] relu4 -> conv4 (in-place)
I1226 08:55:31.570160 85894 net.cpp:228] Setting up relu4
I1226 08:55:31.570205 85894 net.cpp:235] Top shape: 256 384 13 13 (16613376)
I1226 08:55:31.570228 85894 net.cpp:243] Memory required for data: 2005497856
I1226 08:55:31.570255 85894 layer_factory.hpp:114] Creating layer conv5
I1226 08:55:31.570338 85894 net.cpp:178] Creating Layer conv5
I1226 08:55:31.570397 85894 net.cpp:612] conv5 <- conv4
I1226 08:55:31.570444 85894 net.cpp:586] conv5 -> conv5
I1226 08:55:31.590797 95005 net.cpp:228] Setting up data
I1226 08:55:31.590924 95005 net.cpp:235] Top shape: 256 3 227 227 (39574272)
I1226 08:55:31.590968 95005 net.cpp:235] Top shape: 256 (256)
I1226 08:55:31.590996 95005 net.cpp:243] Memory required for data: 158298112
I1226 08:55:31.591037 95005 layer_factory.hpp:114] Creating layer label_data_1_split
I1226 08:55:31.591249 95005 net.cpp:178] Creating Layer label_data_1_split
I1226 08:55:31.591305 95005 net.cpp:612] label_data_1_split <- label
I1226 08:55:31.591351 95005 net.cpp:586] label_data_1_split -> label_data_1_split_0
I1226 08:55:31.591413 95005 net.cpp:586] label_data_1_split -> label_data_1_split_1
I1226 08:55:31.607616 95005 net.cpp:228] Setting up label_data_1_split
I1226 08:55:31.607761 95005 net.cpp:235] Top shape: 256 (256)
I1226 08:55:31.607805 95005 net.cpp:235] Top shape: 256 (256)
I1226 08:55:31.607833 95005 net.cpp:243] Memory required for data: 158300160
I1226 08:55:31.607872 95005 layer_factory.hpp:114] Creating layer conv1
I1226 08:55:31.607991 95005 net.cpp:178] Creating Layer conv1
I1226 08:55:31.608037 95005 net.cpp:612] conv1 <- data
I1226 08:55:31.608085 95005 net.cpp:586] conv1 -> conv1
I1226 08:55:31.605254 86102 net.cpp:228] Setting up conv2
I1226 08:55:31.605396 86102 net.cpp:235] Top shape: 256 256 27 27 (47775744)
I1226 08:55:31.605433 86102 net.cpp:243] Memory required for data: 1313175552
I1226 08:55:31.605536 86102 layer_factory.hpp:114] Creating layer relu2
I1226 08:55:31.605669 86102 net.cpp:178] Creating Layer relu2
I1226 08:55:31.605712 86102 net.cpp:612] relu2 <- conv2
I1226 08:55:31.605756 86102 net.cpp:573] relu2 -> conv2 (in-place)
I1226 08:55:31.606422 86102 net.cpp:228] Setting up relu2
I1226 08:55:31.606525 86102 net.cpp:235] Top shape: 256 256 27 27 (47775744)
I1226 08:55:31.606590 86102 net.cpp:243] Memory required for data: 1504278528
I1226 08:55:31.606626 86102 layer_factory.hpp:114] Creating layer norm2
I1226 08:55:31.606711 86102 net.cpp:178] Creating Layer norm2
I1226 08:55:31.606832 86102 net.cpp:612] norm2 <- conv2
I1226 08:55:31.606895 86102 net.cpp:586] norm2 -> norm2
I1226 08:55:31.607024 86102 net.cpp:228] Setting up norm2
I1226 08:55:31.607095 86102 net.cpp:235] Top shape: 256 256 27 27 (47775744)
I1226 08:55:31.607218 86102 net.cpp:243] Memory required for data: 1695381504
I1226 08:55:31.607251 86102 layer_factory.hpp:114] Creating layer pool2
I1226 08:55:31.607328 86102 net.cpp:178] Creating Layer pool2
I1226 08:55:31.607430 86102 net.cpp:612] pool2 <- norm2
I1226 08:55:31.607475 86102 net.cpp:586] pool2 -> pool2
I1226 08:55:31.607595 86102 net.cpp:228] Setting up pool2
I1226 08:55:31.608074 86102 net.cpp:235] Top shape: 256 256 13 13 (11075584)
I1226 08:55:31.608158 86102 net.cpp:243] Memory required for data: 1739683840
I1226 08:55:31.608197 86102 layer_factory.hpp:114] Creating layer conv3
I1226 08:55:31.608314 86102 net.cpp:178] Creating Layer conv3
I1226 08:55:31.608361 86102 net.cpp:612] conv3 <- pool2
I1226 08:55:31.608424 86102 net.cpp:586] conv3 -> conv3
I1226 08:55:31.615399 89709 net.cpp:228] Setting up conv2
I1226 08:55:31.615540 89709 net.cpp:235] Top shape: 256 256 27 27 (47775744)
I1226 08:55:31.615578 89709 net.cpp:243] Memory required for data: 1313175552
I1226 08:55:31.615658 89709 layer_factory.hpp:114] Creating layer relu2
I1226 08:55:31.615736 89709 net.cpp:178] Creating Layer relu2
I1226 08:55:31.616351 89709 net.cpp:612] relu2 <- conv2
I1226 08:55:31.616525 89709 net.cpp:573] relu2 -> conv2 (in-place)
I1226 08:55:31.616782 89709 net.cpp:228] Setting up relu2
I1226 08:55:31.616858 89709 net.cpp:235] Top shape: 256 256 27 27 (47775744)
I1226 08:55:31.616909 89709 net.cpp:243] Memory required for data: 1504278528
I1226 08:55:31.616967 89709 layer_factory.hpp:114] Creating layer norm2
I1226 08:55:31.617039 89709 net.cpp:178] Creating Layer norm2
I1226 08:55:31.617086 89709 net.cpp:612] norm2 <- conv2
I1226 08:55:31.617151 89709 net.cpp:586] norm2 -> norm2
I1226 08:55:31.617455 89709 net.cpp:228] Setting up norm2
I1226 08:55:31.617903 89709 net.cpp:235] Top shape: 256 256 27 27 (47775744)
I1226 08:55:31.618002 89709 net.cpp:243] Memory required for data: 1695381504
I1226 08:55:31.618108 89709 layer_factory.hpp:114] Creating layer pool2
I1226 08:55:31.618238 89709 net.cpp:178] Creating Layer pool2
I1226 08:55:31.618314 89709 net.cpp:612] pool2 <- norm2
I1226 08:55:31.618362 89709 net.cpp:586] pool2 -> pool2
I1226 08:55:31.618536 89709 net.cpp:228] Setting up pool2
I1226 08:55:31.618899 89709 net.cpp:235] Top shape: 256 256 13 13 (11075584)
I1226 08:55:31.618964 89709 net.cpp:243] Memory required for data: 1739683840
I1226 08:55:31.619002 89709 layer_factory.hpp:114] Creating layer conv3
I1226 08:55:31.619124 89709 net.cpp:178] Creating Layer conv3
I1226 08:55:31.619180 89709 net.cpp:612] conv3 <- pool2
I1226 08:55:31.619658 89709 net.cpp:586] conv3 -> conv3
I1226 08:55:31.660850 94304 net.cpp:228] Setting up data
I1226 08:55:31.660971 94304 net.cpp:235] Top shape: 256 3 227 227 (39574272)
I1226 08:55:31.661020 94304 net.cpp:235] Top shape: 256 (256)
I1226 08:55:31.661051 94304 net.cpp:243] Memory required for data: 158298112
I1226 08:55:31.661097 94304 layer_factory.hpp:114] Creating layer label_data_1_split
I1226 08:55:31.661322 94304 net.cpp:178] Creating Layer label_data_1_split
I1226 08:55:31.661392 94304 net.cpp:612] label_data_1_split <- label
I1226 08:55:31.661445 94304 net.cpp:586] label_data_1_split -> label_data_1_split_0
I1226 08:55:31.661507 94304 net.cpp:586] label_data_1_split -> label_data_1_split_1
I1226 08:55:28.393296 90165 net.cpp:228] Setting up conv2
I1226 08:55:28.393463 90165 net.cpp:235] Top shape: 256 256 27 27 (47775744)
I1226 08:55:28.393501 90165 net.cpp:243] Memory required for data: 1313175552
I1226 08:55:28.393712 90165 layer_factory.hpp:114] Creating layer relu2
I1226 08:55:28.393844 90165 net.cpp:178] Creating Layer relu2
I1226 08:55:28.394016 90165 net.cpp:612] relu2 <- conv2
I1226 08:55:28.394063 90165 net.cpp:573] relu2 -> conv2 (in-place)
I1226 08:55:28.394549 90165 net.cpp:228] Setting up relu2
I1226 08:55:28.394681 90165 net.cpp:235] Top shape: 256 256 27 27 (47775744)
I1226 08:55:28.394708 90165 net.cpp:243] Memory required for data: 1504278528
I1226 08:55:28.394744 90165 layer_factory.hpp:114] Creating layer norm2
I1226 08:55:28.394860 90165 net.cpp:178] Creating Layer norm2
I1226 08:55:28.394908 90165 net.cpp:612] norm2 <- conv2
I1226 08:55:28.394953 90165 net.cpp:586] norm2 -> norm2
I1226 08:55:28.395092 90165 net.cpp:228] Setting up norm2
I1226 08:55:28.395150 90165 net.cpp:235] Top shape: 256 256 27 27 (47775744)
I1226 08:55:28.395174 90165 net.cpp:243] Memory required for data: 1695381504
I1226 08:55:28.395216 90165 layer_factory.hpp:114] Creating layer pool2
I1226 08:55:28.395300 90165 net.cpp:178] Creating Layer pool2
I1226 08:55:28.395328 90165 net.cpp:612] pool2 <- norm2
I1226 08:55:28.395364 90165 net.cpp:586] pool2 -> pool2
I1226 08:55:28.395476 90165 net.cpp:228] Setting up pool2
I1226 08:55:28.395678 90165 net.cpp:235] Top shape: 256 256 13 13 (11075584)
I1226 08:55:28.395709 90165 net.cpp:243] Memory required for data: 1739683840
I1226 08:55:28.395751 90165 layer_factory.hpp:114] Creating layer conv3
I1226 08:55:28.395830 90165 net.cpp:178] Creating Layer conv3
I1226 08:55:28.395864 90165 net.cpp:612] conv3 <- pool2
I1226 08:55:28.395921 90165 net.cpp:586] conv3 -> conv3
I1226 08:55:31.658844 119888 net.cpp:228] Setting up conv2
I1226 08:55:31.658983 119888 net.cpp:235] Top shape: 256 256 27 27 (47775744)
I1226 08:55:31.659014 119888 net.cpp:243] Memory required for data: 1313175552
I1226 08:55:31.659090 119888 layer_factory.hpp:114] Creating layer relu2
I1226 08:55:31.659241 119888 net.cpp:178] Creating Layer relu2
I1226 08:55:31.659286 119888 net.cpp:612] relu2 <- conv2
I1226 08:55:31.659327 119888 net.cpp:573] relu2 -> conv2 (in-place)
I1226 08:55:31.659422 119888 net.cpp:228] Setting up relu2
I1226 08:55:31.659466 119888 net.cpp:235] Top shape: 256 256 27 27 (47775744)
I1226 08:55:31.659492 119888 net.cpp:243] Memory required for data: 1504278528
I1226 08:55:31.659519 119888 layer_factory.hpp:114] Creating layer norm2
I1226 08:55:31.659621 119888 net.cpp:178] Creating Layer norm2
I1226 08:55:31.659654 119888 net.cpp:612] norm2 <- conv2
I1226 08:55:31.659724 119888 net.cpp:586] norm2 -> norm2
I1226 08:55:31.659880 119888 net.cpp:228] Setting up norm2
I1226 08:55:31.659932 119888 net.cpp:235] Top shape: 256 256 27 27 (47775744)
I1226 08:55:31.659957 119888 net.cpp:243] Memory required for data: 1695381504
I1226 08:55:31.659986 119888 layer_factory.hpp:114] Creating layer pool2
I1226 08:55:31.660064 119888 net.cpp:178] Creating Layer pool2
I1226 08:55:31.660110 119888 net.cpp:612] pool2 <- norm2
I1226 08:55:31.660146 119888 net.cpp:586] pool2 -> pool2
I1226 08:55:31.660699 119888 net.cpp:228] Setting up pool2
I1226 08:55:31.660820 119888 net.cpp:235] Top shape: 256 256 13 13 (11075584)
I1226 08:55:31.660856 119888 net.cpp:243] Memory required for data: 1739683840
I1226 08:55:31.660888 119888 layer_factory.hpp:114] Creating layer conv3
I1226 08:55:31.660980 119888 net.cpp:178] Creating Layer conv3
I1226 08:55:31.661039 119888 net.cpp:612] conv3 <- pool2
I1226 08:55:31.661098 119888 net.cpp:586] conv3 -> conv3
I1226 08:55:31.678990 94304 net.cpp:228] Setting up label_data_1_split
I1226 08:55:31.679108 94304 net.cpp:235] Top shape: 256 (256)
I1226 08:55:31.679147 94304 net.cpp:235] Top shape: 256 (256)
I1226 08:55:31.679174 94304 net.cpp:243] Memory required for data: 158300160
I1226 08:55:31.679215 94304 layer_factory.hpp:114] Creating layer conv1
I1226 08:55:31.679400 94304 net.cpp:178] Creating Layer conv1
I1226 08:55:31.679509 94304 net.cpp:612] conv1 <- data
I1226 08:55:31.679652 94304 net.cpp:586] conv1 -> conv1
I1226 08:55:31.683442 92150 net.cpp:228] Setting up conv2
I1226 08:55:31.683585 92150 net.cpp:235] Top shape: 256 256 27 27 (47775744)
I1226 08:55:31.683615 92150 net.cpp:243] Memory required for data: 1313175552
I1226 08:55:31.683745 92150 layer_factory.hpp:114] Creating layer relu2
I1226 08:55:31.683924 92150 net.cpp:178] Creating Layer relu2
I1226 08:55:31.683985 92150 net.cpp:612] relu2 <- conv2
I1226 08:55:31.684031 92150 net.cpp:573] relu2 -> conv2 (in-place)
I1226 08:55:31.684417 92150 net.cpp:228] Setting up relu2
I1226 08:55:31.684480 92150 net.cpp:235] Top shape: 256 256 27 27 (47775744)
I1226 08:55:31.684507 92150 net.cpp:243] Memory required for data: 1504278528
I1226 08:55:31.685106 92150 layer_factory.hpp:114] Creating layer norm2
I1226 08:55:31.685263 92150 net.cpp:178] Creating Layer norm2
I1226 08:55:31.685317 92150 net.cpp:612] norm2 <- conv2
I1226 08:55:31.685415 92150 net.cpp:586] norm2 -> norm2
I1226 08:55:31.685555 92150 net.cpp:228] Setting up norm2
I1226 08:55:31.685621 92150 net.cpp:235] Top shape: 256 256 27 27 (47775744)
I1226 08:55:31.685647 92150 net.cpp:243] Memory required for data: 1695381504
I1226 08:55:31.685679 92150 layer_factory.hpp:114] Creating layer pool2
I1226 08:55:31.685750 92150 net.cpp:178] Creating Layer pool2
I1226 08:55:31.685781 92150 net.cpp:612] pool2 <- norm2
I1226 08:55:31.685819 92150 net.cpp:586] pool2 -> pool2
I1226 08:55:31.685942 92150 net.cpp:228] Setting up pool2
I1226 08:55:31.686091 92150 net.cpp:235] Top shape: 256 256 13 13 (11075584)
I1226 08:55:31.686138 92150 net.cpp:243] Memory required for data: 1739683840
I1226 08:55:31.686170 92150 layer_factory.hpp:114] Creating layer conv3
I1226 08:55:31.686290 92150 net.cpp:178] Creating Layer conv3
I1226 08:55:31.686349 92150 net.cpp:612] conv3 <- pool2
I1226 08:55:31.686442 92150 net.cpp:586] conv3 -> conv3
I1226 08:55:31.716874 85894 net.cpp:228] Setting up conv5
I1226 08:55:31.716984 85894 net.cpp:235] Top shape: 256 256 13 13 (11075584)
I1226 08:55:31.717010 85894 net.cpp:243] Memory required for data: 2049800192
I1226 08:55:31.717083 85894 layer_factory.hpp:114] Creating layer relu5
I1226 08:55:31.717161 85894 net.cpp:178] Creating Layer relu5
I1226 08:55:31.717205 85894 net.cpp:612] relu5 <- conv5
I1226 08:55:31.717253 85894 net.cpp:573] relu5 -> conv5 (in-place)
I1226 08:55:31.717367 85894 net.cpp:228] Setting up relu5
I1226 08:55:31.717417 85894 net.cpp:235] Top shape: 256 256 13 13 (11075584)
I1226 08:55:31.717447 85894 net.cpp:243] Memory required for data: 2094102528
I1226 08:55:31.717481 85894 layer_factory.hpp:114] Creating layer pool5
I1226 08:55:31.717542 85894 net.cpp:178] Creating Layer pool5
I1226 08:55:31.717571 85894 net.cpp:612] pool5 <- conv5
I1226 08:55:31.717614 85894 net.cpp:586] pool5 -> pool5
I1226 08:55:31.717793 85894 net.cpp:228] Setting up pool5
I1226 08:55:31.717839 85894 net.cpp:235] Top shape: 256 256 6 6 (2359296)
I1226 08:55:31.717862 85894 net.cpp:243] Memory required for data: 2103539712
I1226 08:55:31.717890 85894 layer_factory.hpp:114] Creating layer fc6
I1226 08:55:31.717963 85894 net.cpp:178] Creating Layer fc6
I1226 08:55:31.717996 85894 net.cpp:612] fc6 <- pool5
I1226 08:55:31.718034 85894 net.cpp:586] fc6 -> fc6
I1226 08:55:31.836488 91127 net.cpp:228] Setting up conv2
I1226 08:55:31.836599 91127 net.cpp:235] Top shape: 256 256 27 27 (47775744)
I1226 08:55:31.836625 91127 net.cpp:243] Memory required for data: 1313175552
I1226 08:55:31.836696 91127 layer_factory.hpp:114] Creating layer relu2
I1226 08:55:31.836781 91127 net.cpp:178] Creating Layer relu2
I1226 08:55:31.836935 91127 net.cpp:612] relu2 <- conv2
I1226 08:55:31.836977 91127 net.cpp:573] relu2 -> conv2 (in-place)
I1226 08:55:31.837075 91127 net.cpp:228] Setting up relu2
I1226 08:55:31.837117 91127 net.cpp:235] Top shape: 256 256 27 27 (47775744)
I1226 08:55:31.837141 91127 net.cpp:243] Memory required for data: 1504278528
I1226 08:55:31.837170 91127 layer_factory.hpp:114] Creating layer norm2
I1226 08:55:31.837220 91127 net.cpp:178] Creating Layer norm2
I1226 08:55:31.837332 91127 net.cpp:612] norm2 <- conv2
I1226 08:55:31.837368 91127 net.cpp:586] norm2 -> norm2
I1226 08:55:31.837494 91127 net.cpp:228] Setting up norm2
I1226 08:55:31.837541 91127 net.cpp:235] Top shape: 256 256 27 27 (47775744)
I1226 08:55:31.837564 91127 net.cpp:243] Memory required for data: 1695381504
I1226 08:55:31.837592 91127 layer_factory.hpp:114] Creating layer pool2
I1226 08:55:31.837647 91127 net.cpp:178] Creating Layer pool2
I1226 08:55:31.837680 91127 net.cpp:612] pool2 <- norm2
I1226 08:55:31.837714 91127 net.cpp:586] pool2 -> pool2
I1226 08:55:31.837793 91127 net.cpp:228] Setting up pool2
I1226 08:55:31.837921 91127 net.cpp:235] Top shape: 256 256 13 13 (11075584)
I1226 08:55:31.837947 91127 net.cpp:243] Memory required for data: 1739683840
I1226 08:55:31.837977 91127 layer_factory.hpp:114] Creating layer conv3
I1226 08:55:31.838055 91127 net.cpp:178] Creating Layer conv3
I1226 08:55:31.838088 91127 net.cpp:612] conv3 <- pool2
I1226 08:55:31.838135 91127 net.cpp:586] conv3 -> conv3
I1226 08:55:31.983474 86102 net.cpp:228] Setting up conv3
I1226 08:55:31.984119 86102 net.cpp:235] Top shape: 256 384 13 13 (16613376)
I1226 08:55:31.984177 86102 net.cpp:243] Memory required for data: 1806137344
I1226 08:55:31.984316 86102 layer_factory.hpp:114] Creating layer relu3
I1226 08:55:31.984400 86102 net.cpp:178] Creating Layer relu3
I1226 08:55:31.984467 86102 net.cpp:612] relu3 <- conv3
I1226 08:55:31.984635 86102 net.cpp:573] relu3 -> conv3 (in-place)
I1226 08:55:31.984772 86102 net.cpp:228] Setting up relu3
I1226 08:55:31.984828 86102 net.cpp:235] Top shape: 256 384 13 13 (16613376)
I1226 08:55:31.984854 86102 net.cpp:243] Memory required for data: 1872590848
I1226 08:55:31.984884 86102 layer_factory.hpp:114] Creating layer conv4
I1226 08:55:31.985081 86102 net.cpp:178] Creating Layer conv4
I1226 08:55:31.985121 86102 net.cpp:612] conv4 <- conv3
I1226 08:55:31.985196 86102 net.cpp:586] conv4 -> conv4
I1226 08:55:32.001039 89709 net.cpp:228] Setting up conv3
I1226 08:55:32.001155 89709 net.cpp:235] Top shape: 256 384 13 13 (16613376)
I1226 08:55:32.001185 89709 net.cpp:243] Memory required for data: 1806137344
I1226 08:55:32.001263 89709 layer_factory.hpp:114] Creating layer relu3
I1226 08:55:32.001333 89709 net.cpp:178] Creating Layer relu3
I1226 08:55:32.001368 89709 net.cpp:612] relu3 <- conv3
I1226 08:55:32.001452 89709 net.cpp:573] relu3 -> conv3 (in-place)
I1226 08:55:32.001554 89709 net.cpp:228] Setting up relu3
I1226 08:55:32.001721 89709 net.cpp:235] Top shape: 256 384 13 13 (16613376)
I1226 08:55:32.001749 89709 net.cpp:243] Memory required for data: 1872590848
I1226 08:55:32.001780 89709 layer_factory.hpp:114] Creating layer conv4
I1226 08:55:32.001948 89709 net.cpp:178] Creating Layer conv4
I1226 08:55:32.002020 89709 net.cpp:612] conv4 <- conv3
I1226 08:55:32.002074 89709 net.cpp:586] conv4 -> conv4
I1226 08:55:28.783241 90165 net.cpp:228] Setting up conv3
I1226 08:55:28.783375 90165 net.cpp:235] Top shape: 256 384 13 13 (16613376)
I1226 08:55:28.783411 90165 net.cpp:243] Memory required for data: 1806137344
I1226 08:55:28.783488 90165 layer_factory.hpp:114] Creating layer relu3
I1226 08:55:28.783654 90165 net.cpp:178] Creating Layer relu3
I1226 08:55:28.783704 90165 net.cpp:612] relu3 <- conv3
I1226 08:55:28.783812 90165 net.cpp:573] relu3 -> conv3 (in-place)
I1226 08:55:28.783931 90165 net.cpp:228] Setting up relu3
I1226 08:55:28.784337 90165 net.cpp:235] Top shape: 256 384 13 13 (16613376)
I1226 08:55:28.784392 90165 net.cpp:243] Memory required for data: 1872590848
I1226 08:55:28.784477 90165 layer_factory.hpp:114] Creating layer conv4
I1226 08:55:28.784647 90165 net.cpp:178] Creating Layer conv4
I1226 08:55:28.784696 90165 net.cpp:612] conv4 <- conv3
I1226 08:55:28.784756 90165 net.cpp:586] conv4 -> conv4
I1226 08:55:32.055302 92150 net.cpp:228] Setting up conv3
I1226 08:55:32.055486 92150 net.cpp:235] Top shape: 256 384 13 13 (16613376)
I1226 08:55:32.055546 92150 net.cpp:243] Memory required for data: 1806137344
I1226 08:55:32.055621 92150 layer_factory.hpp:114] Creating layer relu3
I1226 08:55:32.055740 92150 net.cpp:178] Creating Layer relu3
I1226 08:55:32.055784 92150 net.cpp:612] relu3 <- conv3
I1226 08:55:32.055827 92150 net.cpp:573] relu3 -> conv3 (in-place)
I1226 08:55:32.055922 92150 net.cpp:228] Setting up relu3
I1226 08:55:32.055968 92150 net.cpp:235] Top shape: 256 384 13 13 (16613376)
I1226 08:55:32.055992 92150 net.cpp:243] Memory required for data: 1872590848
I1226 08:55:32.056020 92150 layer_factory.hpp:114] Creating layer conv4
I1226 08:55:32.056126 92150 net.cpp:178] Creating Layer conv4
I1226 08:55:32.056167 92150 net.cpp:612] conv4 <- conv3
I1226 08:55:32.056223 92150 net.cpp:586] conv4 -> conv4
I1226 08:55:32.096360 119888 net.cpp:228] Setting up conv3
I1226 08:55:32.096472 119888 net.cpp:235] Top shape: 256 384 13 13 (16613376)
I1226 08:55:32.096503 119888 net.cpp:243] Memory required for data: 1806137344
I1226 08:55:32.096580 119888 layer_factory.hpp:114] Creating layer relu3
I1226 08:55:32.096681 119888 net.cpp:178] Creating Layer relu3
I1226 08:55:32.096725 119888 net.cpp:612] relu3 <- conv3
I1226 08:55:32.096771 119888 net.cpp:573] relu3 -> conv3 (in-place)
I1226 08:55:32.096873 119888 net.cpp:228] Setting up relu3
I1226 08:55:32.096930 119888 net.cpp:235] Top shape: 256 384 13 13 (16613376)
I1226 08:55:32.096954 119888 net.cpp:243] Memory required for data: 1872590848
I1226 08:55:32.096984 119888 layer_factory.hpp:114] Creating layer conv4
I1226 08:55:32.097069 119888 net.cpp:178] Creating Layer conv4
I1226 08:55:32.097105 119888 net.cpp:612] conv4 <- conv3
I1226 08:55:32.097153 119888 net.cpp:586] conv4 -> conv4
I1226 08:55:32.249352 95005 net.cpp:228] Setting up conv1
I1226 08:55:32.249518 95005 net.cpp:235] Top shape: 256 96 55 55 (74342400)
I1226 08:55:32.249554 95005 net.cpp:243] Memory required for data: 455669760
I1226 08:55:32.249840 95005 layer_factory.hpp:114] Creating layer relu1
I1226 08:55:32.250450 95005 net.cpp:178] Creating Layer relu1
I1226 08:55:32.250635 95005 net.cpp:612] relu1 <- conv1
I1226 08:55:32.250705 95005 net.cpp:573] relu1 -> conv1 (in-place)
I1226 08:55:32.250978 95005 net.cpp:228] Setting up relu1
I1226 08:55:32.251060 95005 net.cpp:235] Top shape: 256 96 55 55 (74342400)
I1226 08:55:32.251197 95005 net.cpp:243] Memory required for data: 753039360
I1226 08:55:32.251247 95005 layer_factory.hpp:114] Creating layer norm1
I1226 08:55:32.251693 95005 net.cpp:178] Creating Layer norm1
I1226 08:55:32.251817 95005 net.cpp:612] norm1 <- conv1
I1226 08:55:32.251940 95005 net.cpp:586] norm1 -> norm1
I1226 08:55:32.252117 95005 net.cpp:228] Setting up norm1
I1226 08:55:32.252207 95005 net.cpp:235] Top shape: 256 96 55 55 (74342400)
I1226 08:55:32.252233 95005 net.cpp:243] Memory required for data: 1050408960
I1226 08:55:32.252296 95005 layer_factory.hpp:114] Creating layer pool1
I1226 08:55:32.252393 95005 net.cpp:178] Creating Layer pool1
I1226 08:55:32.252473 95005 net.cpp:612] pool1 <- norm1
I1226 08:55:32.252526 95005 net.cpp:586] pool1 -> pool1
I1226 08:55:32.253015 95005 net.cpp:228] Setting up pool1
I1226 08:55:32.253178 95005 net.cpp:235] Top shape: 256 96 27 27 (17915904)
I1226 08:55:32.253211 95005 net.cpp:243] Memory required for data: 1122072576
I1226 08:55:32.253247 95005 layer_factory.hpp:114] Creating layer conv2
I1226 08:55:32.253357 95005 net.cpp:178] Creating Layer conv2
I1226 08:55:32.253423 95005 net.cpp:612] conv2 <- pool1
I1226 08:55:32.253499 95005 net.cpp:586] conv2 -> conv2
I1226 08:55:32.307432 86102 net.cpp:228] Setting up conv4
I1226 08:55:32.307569 86102 net.cpp:235] Top shape: 256 384 13 13 (16613376)
I1226 08:55:32.307605 86102 net.cpp:243] Memory required for data: 1939044352
I1226 08:55:32.307669 86102 layer_factory.hpp:114] Creating layer relu4
I1226 08:55:32.307737 86102 net.cpp:178] Creating Layer relu4
I1226 08:55:32.307771 86102 net.cpp:612] relu4 <- conv4
I1226 08:55:32.307837 86102 net.cpp:573] relu4 -> conv4 (in-place)
I1226 08:55:32.307942 86102 net.cpp:228] Setting up relu4
I1226 08:55:32.308018 86102 net.cpp:235] Top shape: 256 384 13 13 (16613376)
I1226 08:55:32.308164 86102 net.cpp:243] Memory required for data: 2005497856
I1226 08:55:32.308218 86102 layer_factory.hpp:114] Creating layer conv5
I1226 08:55:32.308331 86102 net.cpp:178] Creating Layer conv5
I1226 08:55:32.308373 86102 net.cpp:612] conv5 <- conv4
I1226 08:55:32.308429 86102 net.cpp:586] conv5 -> conv5
I1226 08:55:32.326020 94304 net.cpp:228] Setting up conv1
I1226 08:55:32.326179 94304 net.cpp:235] Top shape: 256 96 55 55 (74342400)
I1226 08:55:32.326221 94304 net.cpp:243] Memory required for data: 455669760
I1226 08:55:32.326778 94304 layer_factory.hpp:114] Creating layer relu1
I1226 08:55:32.326987 94304 net.cpp:178] Creating Layer relu1
I1226 08:55:32.327035 94304 net.cpp:612] relu1 <- conv1
I1226 08:55:32.327087 94304 net.cpp:573] relu1 -> conv1 (in-place)
I1226 08:55:32.327252 94304 net.cpp:228] Setting up relu1
I1226 08:55:32.327314 94304 net.cpp:235] Top shape: 256 96 55 55 (74342400)
I1226 08:55:32.327342 94304 net.cpp:243] Memory required for data: 753039360
I1226 08:55:32.327376 94304 layer_factory.hpp:114] Creating layer norm1
I1226 08:55:32.327492 94304 net.cpp:178] Creating Layer norm1
I1226 08:55:32.327567 94304 net.cpp:612] norm1 <- conv1
I1226 08:55:32.327638 94304 net.cpp:586] norm1 -> norm1
I1226 08:55:32.328166 94304 net.cpp:228] Setting up norm1
I1226 08:55:32.328341 94304 net.cpp:235] Top shape: 256 96 55 55 (74342400)
I1226 08:55:32.328374 94304 net.cpp:243] Memory required for data: 1050408960
I1226 08:55:32.328413 94304 layer_factory.hpp:114] Creating layer pool1
I1226 08:55:32.328505 94304 net.cpp:178] Creating Layer pool1
I1226 08:55:32.319674 91127 net.cpp:228] Setting up conv3
I1226 08:55:32.328562 94304 net.cpp:612] pool1 <- norm1
I1226 08:55:32.328619 94304 net.cpp:586] pool1 -> pool1
I1226 08:55:32.319777 91127 net.cpp:235] Top shape: 256 384 13 13 (16613376)
I1226 08:55:32.319804 91127 net.cpp:243] Memory required for data: 1806137344
I1226 08:55:32.328835 94304 net.cpp:228] Setting up pool1
I1226 08:55:32.319880 91127 layer_factory.hpp:114] Creating layer relu3
I1226 08:55:32.329121 94304 net.cpp:235] Top shape: 256 96 27 27 (17915904)
I1226 08:55:32.320091 91127 net.cpp:178] Creating Layer relu3
I1226 08:55:32.329309 94304 net.cpp:243] Memory required for data: 1122072576
I1226 08:55:32.329356 94304 layer_factory.hpp:114] Creating layer conv2
I1226 08:55:32.329468 94304 net.cpp:178] Creating Layer conv2
I1226 08:55:32.329505 94304 net.cpp:612] conv2 <- pool1
I1226 08:55:32.329553 94304 net.cpp:586] conv2 -> conv2
I1226 08:55:32.320205 91127 net.cpp:612] relu3 <- conv3
I1226 08:55:32.320245 91127 net.cpp:573] relu3 -> conv3 (in-place)
I1226 08:55:32.320451 91127 net.cpp:228] Setting up relu3
I1226 08:55:32.320492 91127 net.cpp:235] Top shape: 256 384 13 13 (16613376)
I1226 08:55:32.320516 91127 net.cpp:243] Memory required for data: 1872590848
I1226 08:55:32.320544 91127 layer_factory.hpp:114] Creating layer conv4
I1226 08:55:32.320736 91127 net.cpp:178] Creating Layer conv4
I1226 08:55:32.320775 91127 net.cpp:612] conv4 <- conv3
I1226 08:55:32.320819 91127 net.cpp:586] conv4 -> conv4
I1226 08:55:32.354421 89709 net.cpp:228] Setting up conv4
I1226 08:55:32.354544 89709 net.cpp:235] Top shape: 256 384 13 13 (16613376)
I1226 08:55:32.354573 89709 net.cpp:243] Memory required for data: 1939044352
I1226 08:55:32.354635 89709 layer_factory.hpp:114] Creating layer relu4
I1226 08:55:32.354704 89709 net.cpp:178] Creating Layer relu4
I1226 08:55:32.354739 89709 net.cpp:612] relu4 <- conv4
I1226 08:55:32.354790 89709 net.cpp:573] relu4 -> conv4 (in-place)
I1226 08:55:32.354938 89709 net.cpp:228] Setting up relu4
I1226 08:55:32.354979 89709 net.cpp:235] Top shape: 256 384 13 13 (16613376)
I1226 08:55:32.355003 89709 net.cpp:243] Memory required for data: 2005497856
I1226 08:55:32.355039 89709 layer_factory.hpp:114] Creating layer conv5
I1226 08:55:32.355131 89709 net.cpp:178] Creating Layer conv5
I1226 08:55:32.355167 89709 net.cpp:612] conv5 <- conv4
I1226 08:55:32.355208 89709 net.cpp:586] conv5 -> conv5
I1226 08:55:32.359710 92150 net.cpp:228] Setting up conv4
I1226 08:55:32.360188 92150 net.cpp:235] Top shape: 256 384 13 13 (16613376)
I1226 08:55:32.360307 92150 net.cpp:243] Memory required for data: 1939044352
I1226 08:55:32.360479 92150 layer_factory.hpp:114] Creating layer relu4
I1226 08:55:32.360604 92150 net.cpp:178] Creating Layer relu4
I1226 08:55:32.360656 92150 net.cpp:612] relu4 <- conv4
I1226 08:55:32.360713 92150 net.cpp:573] relu4 -> conv4 (in-place)
I1226 08:55:32.360832 92150 net.cpp:228] Setting up relu4
I1226 08:55:32.360893 92150 net.cpp:235] Top shape: 256 384 13 13 (16613376)
I1226 08:55:32.360954 92150 net.cpp:243] Memory required for data: 2005497856
I1226 08:55:32.360998 92150 layer_factory.hpp:114] Creating layer conv5
I1226 08:55:32.361130 92150 net.cpp:178] Creating Layer conv5
I1226 08:55:32.361244 92150 net.cpp:612] conv5 <- conv4
I1226 08:55:32.361311 92150 net.cpp:586] conv5 -> conv5
I1226 08:55:29.131894 90165 net.cpp:228] Setting up conv4
I1226 08:55:29.132011 90165 net.cpp:235] Top shape: 256 384 13 13 (16613376)
I1226 08:55:29.132041 90165 net.cpp:243] Memory required for data: 1939044352
I1226 08:55:29.132103 90165 layer_factory.hpp:114] Creating layer relu4
I1226 08:55:29.132171 90165 net.cpp:178] Creating Layer relu4
I1226 08:55:29.132325 90165 net.cpp:612] relu4 <- conv4
I1226 08:55:29.132454 90165 net.cpp:573] relu4 -> conv4 (in-place)
I1226 08:55:29.132534 90165 net.cpp:228] Setting up relu4
I1226 08:55:29.132668 90165 net.cpp:235] Top shape: 256 384 13 13 (16613376)
I1226 08:55:29.132694 90165 net.cpp:243] Memory required for data: 2005497856
I1226 08:55:29.132722 90165 layer_factory.hpp:114] Creating layer conv5
I1226 08:55:29.132787 90165 net.cpp:178] Creating Layer conv5
I1226 08:55:29.132815 90165 net.cpp:612] conv5 <- conv4
I1226 08:55:29.132855 90165 net.cpp:586] conv5 -> conv5
I1226 08:55:32.477589 119888 net.cpp:228] Setting up conv4
I1226 08:55:32.477721 119888 net.cpp:235] Top shape: 256 384 13 13 (16613376)
I1226 08:55:32.477751 119888 net.cpp:243] Memory required for data: 1939044352
I1226 08:55:32.477805 119888 layer_factory.hpp:114] Creating layer relu4
I1226 08:55:32.477862 119888 net.cpp:178] Creating Layer relu4
I1226 08:55:32.477922 119888 net.cpp:612] relu4 <- conv4
I1226 08:55:32.477970 119888 net.cpp:573] relu4 -> conv4 (in-place)
I1226 08:55:32.478055 119888 net.cpp:228] Setting up relu4
I1226 08:55:32.478147 119888 net.cpp:235] Top shape: 256 384 13 13 (16613376)
I1226 08:55:32.478257 119888 net.cpp:243] Memory required for data: 2005497856
I1226 08:55:32.478286 119888 layer_factory.hpp:114] Creating layer conv5
I1226 08:55:32.478353 119888 net.cpp:178] Creating Layer conv5
I1226 08:55:32.478471 119888 net.cpp:612] conv5 <- conv4
I1226 08:55:32.478513 119888 net.cpp:586] conv5 -> conv5
I1226 08:55:32.547327 86102 net.cpp:228] Setting up conv5
I1226 08:55:32.547981 86102 net.cpp:235] Top shape: 256 256 13 13 (11075584)
I1226 08:55:32.548032 86102 net.cpp:243] Memory required for data: 2049800192
I1226 08:55:32.548252 86102 layer_factory.hpp:114] Creating layer relu5
I1226 08:55:32.548321 86102 net.cpp:178] Creating Layer relu5
I1226 08:55:32.548362 86102 net.cpp:612] relu5 <- conv5
I1226 08:55:32.548450 86102 net.cpp:573] relu5 -> conv5 (in-place)
I1226 08:55:32.548666 86102 net.cpp:228] Setting up relu5
I1226 08:55:32.548717 86102 net.cpp:235] Top shape: 256 256 13 13 (11075584)
I1226 08:55:32.548760 86102 net.cpp:243] Memory required for data: 2094102528
I1226 08:55:32.548792 86102 layer_factory.hpp:114] Creating layer pool5
I1226 08:55:32.548878 86102 net.cpp:178] Creating Layer pool5
I1226 08:55:32.548910 86102 net.cpp:612] pool5 <- conv5
I1226 08:55:32.549319 86102 net.cpp:586] pool5 -> pool5
I1226 08:55:32.549479 86102 net.cpp:228] Setting up pool5
I1226 08:55:32.549532 86102 net.cpp:235] Top shape: 256 256 6 6 (2359296)
I1226 08:55:32.549593 86102 net.cpp:243] Memory required for data: 2103539712
I1226 08:55:32.549623 86102 layer_factory.hpp:114] Creating layer fc6
I1226 08:55:32.549706 86102 net.cpp:178] Creating Layer fc6
I1226 08:55:32.549739 86102 net.cpp:612] fc6 <- pool5
I1226 08:55:32.549779 86102 net.cpp:586] fc6 -> fc6
I1226 08:55:32.603930 89709 net.cpp:228] Setting up conv5
I1226 08:55:32.604341 89709 net.cpp:235] Top shape: 256 256 13 13 (11075584)
I1226 08:55:32.604440 89709 net.cpp:243] Memory required for data: 2049800192
I1226 08:55:32.604564 89709 layer_factory.hpp:114] Creating layer relu5
I1226 08:55:32.604660 89709 net.cpp:178] Creating Layer relu5
I1226 08:55:32.604817 89709 net.cpp:612] relu5 <- conv5
I1226 08:55:32.604934 89709 net.cpp:573] relu5 -> conv5 (in-place)
I1226 08:55:32.605034 89709 net.cpp:228] Setting up relu5
I1226 08:55:32.605080 89709 net.cpp:235] Top shape: 256 256 13 13 (11075584)
I1226 08:55:32.605103 89709 net.cpp:243] Memory required for data: 2094102528
I1226 08:55:32.605132 89709 layer_factory.hpp:114] Creating layer pool5
I1226 08:55:32.605181 89709 net.cpp:178] Creating Layer pool5
I1226 08:55:32.605231 89709 net.cpp:612] pool5 <- conv5
I1226 08:55:32.605289 89709 net.cpp:586] pool5 -> pool5
I1226 08:55:32.605520 89709 net.cpp:228] Setting up pool5
I1226 08:55:32.605574 89709 net.cpp:235] Top shape: 256 256 6 6 (2359296)
I1226 08:55:32.605614 89709 net.cpp:243] Memory required for data: 2103539712
I1226 08:55:32.605645 89709 layer_factory.hpp:114] Creating layer fc6
I1226 08:55:32.605734 89709 net.cpp:178] Creating Layer fc6
I1226 08:55:32.605774 89709 net.cpp:612] fc6 <- pool5
I1226 08:55:32.605815 89709 net.cpp:586] fc6 -> fc6
I1226 08:55:32.617424 92150 net.cpp:228] Setting up conv5
I1226 08:55:32.617547 92150 net.cpp:235] Top shape: 256 256 13 13 (11075584)
I1226 08:55:32.617612 92150 net.cpp:243] Memory required for data: 2049800192
I1226 08:55:32.617740 92150 layer_factory.hpp:114] Creating layer relu5
I1226 08:55:32.617826 92150 net.cpp:178] Creating Layer relu5
I1226 08:55:32.617889 92150 net.cpp:612] relu5 <- conv5
I1226 08:55:32.617971 92150 net.cpp:573] relu5 -> conv5 (in-place)
I1226 08:55:32.618229 92150 net.cpp:228] Setting up relu5
I1226 08:55:32.619779 92150 net.cpp:235] Top shape: 256 256 13 13 (11075584)
I1226 08:55:32.619853 92150 net.cpp:243] Memory required for data: 2094102528
I1226 08:55:32.620008 92150 layer_factory.hpp:114] Creating layer pool5
I1226 08:55:32.620111 92150 net.cpp:178] Creating Layer pool5
I1226 08:55:32.620344 92150 net.cpp:612] pool5 <- conv5
I1226 08:55:32.620426 92150 net.cpp:586] pool5 -> pool5
I1226 08:55:32.620586 92150 net.cpp:228] Setting up pool5
I1226 08:55:32.620651 92150 net.cpp:235] Top shape: 256 256 6 6 (2359296)
I1226 08:55:32.620678 92150 net.cpp:243] Memory required for data: 2103539712
I1226 08:55:32.620717 92150 layer_factory.hpp:114] Creating layer fc6
I1226 08:55:32.620801 92150 net.cpp:178] Creating Layer fc6
I1226 08:55:32.620841 92150 net.cpp:612] fc6 <- pool5
I1226 08:55:32.620898 92150 net.cpp:586] fc6 -> fc6
I1226 08:55:29.373510 90165 net.cpp:228] Setting up conv5
I1226 08:55:29.373708 90165 net.cpp:235] Top shape: 256 256 13 13 (11075584)
I1226 08:55:29.373739 90165 net.cpp:243] Memory required for data: 2049800192
I1226 08:55:29.373816 90165 layer_factory.hpp:114] Creating layer relu5
I1226 08:55:29.373909 90165 net.cpp:178] Creating Layer relu5
I1226 08:55:29.373952 90165 net.cpp:612] relu5 <- conv5
I1226 08:55:29.374011 90165 net.cpp:573] relu5 -> conv5 (in-place)
I1226 08:55:29.374104 90165 net.cpp:228] Setting up relu5
I1226 08:55:29.374157 90165 net.cpp:235] Top shape: 256 256 13 13 (11075584)
I1226 08:55:29.374181 90165 net.cpp:243] Memory required for data: 2094102528
I1226 08:55:29.374212 90165 layer_factory.hpp:114] Creating layer pool5
I1226 08:55:29.374263 90165 net.cpp:178] Creating Layer pool5
I1226 08:55:29.374289 90165 net.cpp:612] pool5 <- conv5
I1226 08:55:29.374341 90165 net.cpp:586] pool5 -> pool5
I1226 08:55:29.374440 90165 net.cpp:228] Setting up pool5
I1226 08:55:29.374485 90165 net.cpp:235] Top shape: 256 256 6 6 (2359296)
I1226 08:55:29.374507 90165 net.cpp:243] Memory required for data: 2103539712
I1226 08:55:29.374536 90165 layer_factory.hpp:114] Creating layer fc6
I1226 08:55:29.374634 90165 net.cpp:178] Creating Layer fc6
I1226 08:55:29.374673 90165 net.cpp:612] fc6 <- pool5
I1226 08:55:29.374714 90165 net.cpp:586] fc6 -> fc6
I1226 08:55:32.739527 91127 net.cpp:228] Setting up conv4
I1226 08:55:32.739665 91127 net.cpp:235] Top shape: 256 384 13 13 (16613376)
I1226 08:55:32.739689 91127 net.cpp:243] Memory required for data: 1939044352
I1226 08:55:32.739771 91127 layer_factory.hpp:114] Creating layer relu4
I1226 08:55:32.739826 91127 net.cpp:178] Creating Layer relu4
I1226 08:55:32.739861 91127 net.cpp:612] relu4 <- conv4
I1226 08:55:32.739898 91127 net.cpp:573] relu4 -> conv4 (in-place)
I1226 08:55:32.739970 91127 net.cpp:228] Setting up relu4
I1226 08:55:32.740011 91127 net.cpp:235] Top shape: 256 384 13 13 (16613376)
I1226 08:55:32.740036 91127 net.cpp:243] Memory required for data: 2005497856
I1226 08:55:32.740061 91127 layer_factory.hpp:114] Creating layer conv5
I1226 08:55:32.740126 91127 net.cpp:178] Creating Layer conv5
I1226 08:55:32.740159 91127 net.cpp:612] conv5 <- conv4
I1226 08:55:32.740195 91127 net.cpp:586] conv5 -> conv5
I1226 08:55:32.761090 119888 net.cpp:228] Setting up conv5
I1226 08:55:32.761466 119888 net.cpp:235] Top shape: 256 256 13 13 (11075584)
I1226 08:55:32.761502 119888 net.cpp:243] Memory required for data: 2049800192
I1226 08:55:32.761633 119888 layer_factory.hpp:114] Creating layer relu5
I1226 08:55:32.761807 119888 net.cpp:178] Creating Layer relu5
I1226 08:55:32.761853 119888 net.cpp:612] relu5 <- conv5
I1226 08:55:32.761909 119888 net.cpp:573] relu5 -> conv5 (in-place)
I1226 08:55:32.762007 119888 net.cpp:228] Setting up relu5
I1226 08:55:32.762054 119888 net.cpp:235] Top shape: 256 256 13 13 (11075584)
I1226 08:55:32.762079 119888 net.cpp:243] Memory required for data: 2094102528
I1226 08:55:32.762130 119888 layer_factory.hpp:114] Creating layer pool5
I1226 08:55:32.762257 119888 net.cpp:178] Creating Layer pool5
I1226 08:55:32.762305 119888 net.cpp:612] pool5 <- conv5
I1226 08:55:32.762374 119888 net.cpp:586] pool5 -> pool5
I1226 08:55:32.762846 119888 net.cpp:228] Setting up pool5
I1226 08:55:32.762940 119888 net.cpp:235] Top shape: 256 256 6 6 (2359296)
I1226 08:55:32.762969 119888 net.cpp:243] Memory required for data: 2103539712
I1226 08:55:32.763036 119888 layer_factory.hpp:114] Creating layer fc6
I1226 08:55:32.763123 119888 net.cpp:178] Creating Layer fc6
I1226 08:55:32.763160 119888 net.cpp:612] fc6 <- pool5
I1226 08:55:32.763205 119888 net.cpp:586] fc6 -> fc6
I1226 08:55:33.033567 91127 net.cpp:228] Setting up conv5
I1226 08:55:33.033680 91127 net.cpp:235] Top shape: 256 256 13 13 (11075584)
I1226 08:55:33.033707 91127 net.cpp:243] Memory required for data: 2049800192
I1226 08:55:33.033797 91127 layer_factory.hpp:114] Creating layer relu5
I1226 08:55:33.033864 91127 net.cpp:178] Creating Layer relu5
I1226 08:55:33.034032 91127 net.cpp:612] relu5 <- conv5
I1226 08:55:33.034085 91127 net.cpp:573] relu5 -> conv5 (in-place)
I1226 08:55:33.034236 91127 net.cpp:228] Setting up relu5
I1226 08:55:33.034329 91127 net.cpp:235] Top shape: 256 256 13 13 (11075584)
I1226 08:55:33.034353 91127 net.cpp:243] Memory required for data: 2094102528
I1226 08:55:33.044474 91127 layer_factory.hpp:114] Creating layer pool5
I1226 08:55:33.044625 91127 net.cpp:178] Creating Layer pool5
I1226 08:55:33.044666 91127 net.cpp:612] pool5 <- conv5
I1226 08:55:33.044747 91127 net.cpp:586] pool5 -> pool5
I1226 08:55:33.044894 91127 net.cpp:228] Setting up pool5
I1226 08:55:33.045058 91127 net.cpp:235] Top shape: 256 256 6 6 (2359296)
I1226 08:55:33.045188 91127 net.cpp:243] Memory required for data: 2103539712
I1226 08:55:33.045220 91127 layer_factory.hpp:114] Creating layer fc6
I1226 08:55:33.045312 91127 net.cpp:178] Creating Layer fc6
I1226 08:55:33.045351 91127 net.cpp:612] fc6 <- pool5
I1226 08:55:33.045451 91127 net.cpp:586] fc6 -> fc6
I1226 08:55:33.652916 95005 net.cpp:228] Setting up conv2
I1226 08:55:33.653053 95005 net.cpp:235] Top shape: 256 256 27 27 (47775744)
I1226 08:55:33.653136 95005 net.cpp:243] Memory required for data: 1313175552
I1226 08:55:33.653265 95005 layer_factory.hpp:114] Creating layer relu2
I1226 08:55:33.653758 95005 net.cpp:178] Creating Layer relu2
I1226 08:55:33.653903 95005 net.cpp:612] relu2 <- conv2
I1226 08:55:33.654103 95005 net.cpp:573] relu2 -> conv2 (in-place)
I1226 08:55:33.654275 95005 net.cpp:228] Setting up relu2
I1226 08:55:33.654366 95005 net.cpp:235] Top shape: 256 256 27 27 (47775744)
I1226 08:55:33.654516 95005 net.cpp:243] Memory required for data: 1504278528
I1226 08:55:33.654569 95005 layer_factory.hpp:114] Creating layer norm2
I1226 08:55:33.655226 95005 net.cpp:178] Creating Layer norm2
I1226 08:55:33.655365 95005 net.cpp:612] norm2 <- conv2
I1226 08:55:33.655467 95005 net.cpp:586] norm2 -> norm2
I1226 08:55:33.655778 95005 net.cpp:228] Setting up norm2
I1226 08:55:33.655874 95005 net.cpp:235] Top shape: 256 256 27 27 (47775744)
I1226 08:55:33.655942 95005 net.cpp:243] Memory required for data: 1695381504
I1226 08:55:33.656138 95005 layer_factory.hpp:114] Creating layer pool2
I1226 08:55:33.656285 95005 net.cpp:178] Creating Layer pool2
I1226 08:55:33.656816 95005 net.cpp:612] pool2 <- norm2
I1226 08:55:33.656970 95005 net.cpp:586] pool2 -> pool2
I1226 08:55:33.657202 95005 net.cpp:228] Setting up pool2
I1226 08:55:33.657444 95005 net.cpp:235] Top shape: 256 256 13 13 (11075584)
I1226 08:55:33.657531 95005 net.cpp:243] Memory required for data: 1739683840
I1226 08:55:33.657580 95005 layer_factory.hpp:114] Creating layer conv3
I1226 08:55:33.657780 95005 net.cpp:178] Creating Layer conv3
I1226 08:55:33.657855 95005 net.cpp:612] conv3 <- pool2
I1226 08:55:33.658383 95005 net.cpp:586] conv3 -> conv3
I1226 08:55:33.756367 94304 net.cpp:228] Setting up conv2
I1226 08:55:33.756505 94304 net.cpp:235] Top shape: 256 256 27 27 (47775744)
I1226 08:55:33.756561 94304 net.cpp:243] Memory required for data: 1313175552
I1226 08:55:33.756649 94304 layer_factory.hpp:114] Creating layer relu2
I1226 08:55:33.756752 94304 net.cpp:178] Creating Layer relu2
I1226 08:55:33.756849 94304 net.cpp:612] relu2 <- conv2
I1226 08:55:33.757331 94304 net.cpp:573] relu2 -> conv2 (in-place)
I1226 08:55:33.757609 94304 net.cpp:228] Setting up relu2
I1226 08:55:33.757684 94304 net.cpp:235] Top shape: 256 256 27 27 (47775744)
I1226 08:55:33.757714 94304 net.cpp:243] Memory required for data: 1504278528
I1226 08:55:33.757750 94304 layer_factory.hpp:114] Creating layer norm2
I1226 08:55:33.757844 94304 net.cpp:178] Creating Layer norm2
I1226 08:55:33.757890 94304 net.cpp:612] norm2 <- conv2
I1226 08:55:33.757943 94304 net.cpp:586] norm2 -> norm2
I1226 08:55:33.758105 94304 net.cpp:228] Setting up norm2
I1226 08:55:33.758159 94304 net.cpp:235] Top shape: 256 256 27 27 (47775744)
I1226 08:55:33.758210 94304 net.cpp:243] Memory required for data: 1695381504
I1226 08:55:33.758257 94304 layer_factory.hpp:114] Creating layer pool2
I1226 08:55:33.758376 94304 net.cpp:178] Creating Layer pool2
I1226 08:55:33.758419 94304 net.cpp:612] pool2 <- norm2
I1226 08:55:33.758492 94304 net.cpp:586] pool2 -> pool2
I1226 08:55:33.759253 94304 net.cpp:228] Setting up pool2
I1226 08:55:33.759543 94304 net.cpp:235] Top shape: 256 256 13 13 (11075584)
I1226 08:55:33.759584 94304 net.cpp:243] Memory required for data: 1739683840
I1226 08:55:33.759625 94304 layer_factory.hpp:114] Creating layer conv3
I1226 08:55:33.759740 94304 net.cpp:178] Creating Layer conv3
I1226 08:55:33.759779 94304 net.cpp:612] conv3 <- pool2
I1226 08:55:33.759910 94304 net.cpp:586] conv3 -> conv3
I1226 08:55:35.545173 95005 net.cpp:228] Setting up conv3
I1226 08:55:35.545315 95005 net.cpp:235] Top shape: 256 384 13 13 (16613376)
I1226 08:55:35.545368 95005 net.cpp:243] Memory required for data: 1806137344
I1226 08:55:35.545570 95005 layer_factory.hpp:114] Creating layer relu3
I1226 08:55:35.545799 95005 net.cpp:178] Creating Layer relu3
I1226 08:55:35.545912 95005 net.cpp:612] relu3 <- conv3
I1226 08:55:35.545977 95005 net.cpp:573] relu3 -> conv3 (in-place)
I1226 08:55:35.546164 95005 net.cpp:228] Setting up relu3
I1226 08:55:35.546324 95005 net.cpp:235] Top shape: 256 384 13 13 (16613376)
I1226 08:55:35.546371 95005 net.cpp:243] Memory required for data: 1872590848
I1226 08:55:35.546422 95005 layer_factory.hpp:114] Creating layer conv4
I1226 08:55:35.546566 95005 net.cpp:178] Creating Layer conv4
I1226 08:55:35.546628 95005 net.cpp:612] conv4 <- conv3
I1226 08:55:35.546699 95005 net.cpp:586] conv4 -> conv4
I1226 08:55:35.640602 94304 net.cpp:228] Setting up conv3
I1226 08:55:35.640719 94304 net.cpp:235] Top shape: 256 384 13 13 (16613376)
I1226 08:55:35.640753 94304 net.cpp:243] Memory required for data: 1806137344
I1226 08:55:35.640938 94304 layer_factory.hpp:114] Creating layer relu3
I1226 08:55:35.641222 94304 net.cpp:178] Creating Layer relu3
I1226 08:55:35.641315 94304 net.cpp:612] relu3 <- conv3
I1226 08:55:35.641367 94304 net.cpp:573] relu3 -> conv3 (in-place)
I1226 08:55:35.641543 94304 net.cpp:228] Setting up relu3
I1226 08:55:35.642057 94304 net.cpp:235] Top shape: 256 384 13 13 (16613376)
I1226 08:55:35.642135 94304 net.cpp:243] Memory required for data: 1872590848
I1226 08:55:35.642244 94304 layer_factory.hpp:114] Creating layer conv4
I1226 08:55:35.642416 94304 net.cpp:178] Creating Layer conv4
I1226 08:55:35.642457 94304 net.cpp:612] conv4 <- conv3
I1226 08:55:35.642520 94304 net.cpp:586] conv4 -> conv4
I1226 08:55:36.842593 85894 net.cpp:228] Setting up fc6
I1226 08:55:36.842706 85894 net.cpp:235] Top shape: 256 4096 (1048576)
I1226 08:55:36.842732 85894 net.cpp:243] Memory required for data: 2107734016
I1226 08:55:36.842813 85894 layer_factory.hpp:114] Creating layer relu6
I1226 08:55:36.842895 85894 net.cpp:178] Creating Layer relu6
I1226 08:55:36.842938 85894 net.cpp:612] relu6 <- fc6
I1226 08:55:36.842993 85894 net.cpp:573] relu6 -> fc6 (in-place)
I1226 08:55:36.843093 85894 net.cpp:228] Setting up relu6
I1226 08:55:36.843240 85894 net.cpp:235] Top shape: 256 4096 (1048576)
I1226 08:55:36.843268 85894 net.cpp:243] Memory required for data: 2111928320
I1226 08:55:36.843302 85894 layer_factory.hpp:114] Creating layer drop6
I1226 08:55:36.843385 85894 net.cpp:178] Creating Layer drop6
I1226 08:55:36.843420 85894 net.cpp:612] drop6 <- fc6
I1226 08:55:36.843459 85894 net.cpp:573] drop6 -> fc6 (in-place)
I1226 08:55:36.843521 85894 net.cpp:228] Setting up drop6
I1226 08:55:36.843565 85894 net.cpp:235] Top shape: 256 4096 (1048576)
I1226 08:55:36.843588 85894 net.cpp:243] Memory required for data: 2116122624
I1226 08:55:36.843616 85894 layer_factory.hpp:114] Creating layer fc7
I1226 08:55:36.843693 85894 net.cpp:178] Creating Layer fc7
I1226 08:55:36.843729 85894 net.cpp:612] fc7 <- fc6
I1226 08:55:36.843780 85894 net.cpp:586] fc7 -> fc7
I1226 08:55:37.155555 95005 net.cpp:228] Setting up conv4
I1226 08:55:37.155702 95005 net.cpp:235] Top shape: 256 384 13 13 (16613376)
I1226 08:55:37.155827 95005 net.cpp:243] Memory required for data: 1939044352
I1226 08:55:37.155957 95005 layer_factory.hpp:114] Creating layer relu4
I1226 08:55:37.156600 95005 net.cpp:178] Creating Layer relu4
I1226 08:55:37.156709 95005 net.cpp:612] relu4 <- conv4
I1226 08:55:37.157119 95005 net.cpp:573] relu4 -> conv4 (in-place)
I1226 08:55:37.157387 95005 net.cpp:228] Setting up relu4
I1226 08:55:37.158048 95005 net.cpp:235] Top shape: 256 384 13 13 (16613376)
I1226 08:55:37.158278 95005 net.cpp:243] Memory required for data: 2005497856
I1226 08:55:37.158370 95005 layer_factory.hpp:114] Creating layer conv5
I1226 08:55:37.158576 95005 net.cpp:178] Creating Layer conv5
I1226 08:55:37.158649 95005 net.cpp:612] conv5 <- conv4
I1226 08:55:37.159112 95005 net.cpp:586] conv5 -> conv5
I1226 08:55:37.245134 94304 net.cpp:228] Setting up conv4
I1226 08:55:37.245250 94304 net.cpp:235] Top shape: 256 384 13 13 (16613376)
I1226 08:55:37.245283 94304 net.cpp:243] Memory required for data: 1939044352
I1226 08:55:37.245352 94304 layer_factory.hpp:114] Creating layer relu4
I1226 08:55:37.245447 94304 net.cpp:178] Creating Layer relu4
I1226 08:55:37.245496 94304 net.cpp:612] relu4 <- conv4
I1226 08:55:37.245546 94304 net.cpp:573] relu4 -> conv4 (in-place)
I1226 08:55:37.245661 94304 net.cpp:228] Setting up relu4
I1226 08:55:37.245713 94304 net.cpp:235] Top shape: 256 384 13 13 (16613376)
I1226 08:55:37.245740 94304 net.cpp:243] Memory required for data: 2005497856
I1226 08:55:37.245772 94304 layer_factory.hpp:114] Creating layer conv5
I1226 08:55:37.245906 94304 net.cpp:178] Creating Layer conv5
I1226 08:55:37.245952 94304 net.cpp:612] conv5 <- conv4
I1226 08:55:37.246007 94304 net.cpp:586] conv5 -> conv5
I1226 08:55:38.320298 95005 net.cpp:228] Setting up conv5
I1226 08:55:38.320415 95005 net.cpp:235] Top shape: 256 256 13 13 (11075584)
I1226 08:55:38.320452 95005 net.cpp:243] Memory required for data: 2049800192
I1226 08:55:38.320623 95005 layer_factory.hpp:114] Creating layer relu5
I1226 08:55:38.320904 95005 net.cpp:178] Creating Layer relu5
I1226 08:55:38.320969 95005 net.cpp:612] relu5 <- conv5
I1226 08:55:38.321024 95005 net.cpp:573] relu5 -> conv5 (in-place)
I1226 08:55:38.321161 95005 net.cpp:228] Setting up relu5
I1226 08:55:38.321259 95005 net.cpp:235] Top shape: 256 256 13 13 (11075584)
I1226 08:55:38.321295 95005 net.cpp:243] Memory required for data: 2094102528
I1226 08:55:38.321337 95005 layer_factory.hpp:114] Creating layer pool5
I1226 08:55:38.321415 95005 net.cpp:178] Creating Layer pool5
I1226 08:55:38.338841 95005 net.cpp:612] pool5 <- conv5
I1226 08:55:38.338949 95005 net.cpp:586] pool5 -> pool5
I1226 08:55:38.339128 95005 net.cpp:228] Setting up pool5
I1226 08:55:38.339201 95005 net.cpp:235] Top shape: 256 256 6 6 (2359296)
I1226 08:55:38.339234 95005 net.cpp:243] Memory required for data: 2103539712
I1226 08:55:38.339278 95005 layer_factory.hpp:114] Creating layer fc6
I1226 08:55:38.339357 95005 net.cpp:178] Creating Layer fc6
I1226 08:55:38.339402 95005 net.cpp:612] fc6 <- pool5
I1226 08:55:38.339455 95005 net.cpp:586] fc6 -> fc6
I1226 08:55:38.406343 94304 net.cpp:228] Setting up conv5
I1226 08:55:38.406460 94304 net.cpp:235] Top shape: 256 256 13 13 (11075584)
I1226 08:55:38.406491 94304 net.cpp:243] Memory required for data: 2049800192
I1226 08:55:38.406574 94304 layer_factory.hpp:114] Creating layer relu5
I1226 08:55:38.406646 94304 net.cpp:178] Creating Layer relu5
I1226 08:55:38.406682 94304 net.cpp:612] relu5 <- conv5
I1226 08:55:38.406728 94304 net.cpp:573] relu5 -> conv5 (in-place)
I1226 08:55:38.406867 94304 net.cpp:228] Setting up relu5
I1226 08:55:38.406925 94304 net.cpp:235] Top shape: 256 256 13 13 (11075584)
I1226 08:55:38.406952 94304 net.cpp:243] Memory required for data: 2094102528
I1226 08:55:38.406987 94304 layer_factory.hpp:114] Creating layer pool5
I1226 08:55:38.407063 94304 net.cpp:178] Creating Layer pool5
I1226 08:55:38.407115 94304 net.cpp:612] pool5 <- conv5
I1226 08:55:38.407163 94304 net.cpp:586] pool5 -> pool5
I1226 08:55:38.407279 94304 net.cpp:228] Setting up pool5
I1226 08:55:38.407342 94304 net.cpp:235] Top shape: 256 256 6 6 (2359296)
I1226 08:55:38.407368 94304 net.cpp:243] Memory required for data: 2103539712
I1226 08:55:38.407398 94304 layer_factory.hpp:114] Creating layer fc6
I1226 08:55:38.407462 94304 net.cpp:178] Creating Layer fc6
I1226 08:55:38.407492 94304 net.cpp:612] fc6 <- pool5
I1226 08:55:38.407536 94304 net.cpp:586] fc6 -> fc6
I1226 08:55:39.112212 85894 net.cpp:228] Setting up fc7
I1226 08:55:39.112325 85894 net.cpp:235] Top shape: 256 4096 (1048576)
I1226 08:55:39.112402 85894 net.cpp:243] Memory required for data: 2120316928
I1226 08:55:39.112463 85894 layer_factory.hpp:114] Creating layer relu7
I1226 08:55:39.112526 85894 net.cpp:178] Creating Layer relu7
I1226 08:55:39.112571 85894 net.cpp:612] relu7 <- fc7
I1226 08:55:39.112610 85894 net.cpp:573] relu7 -> fc7 (in-place)
I1226 08:55:39.112697 85894 net.cpp:228] Setting up relu7
I1226 08:55:39.112743 85894 net.cpp:235] Top shape: 256 4096 (1048576)
I1226 08:55:39.112767 85894 net.cpp:243] Memory required for data: 2124511232
I1226 08:55:39.112795 85894 layer_factory.hpp:114] Creating layer drop7
I1226 08:55:39.112840 85894 net.cpp:178] Creating Layer drop7
I1226 08:55:39.112866 85894 net.cpp:612] drop7 <- fc7
I1226 08:55:39.112911 85894 net.cpp:573] drop7 -> fc7 (in-place)
I1226 08:55:39.112953 85894 net.cpp:228] Setting up drop7
I1226 08:55:39.112987 85894 net.cpp:235] Top shape: 256 4096 (1048576)
I1226 08:55:39.113008 85894 net.cpp:243] Memory required for data: 2128705536
I1226 08:55:39.113042 85894 layer_factory.hpp:114] Creating layer fc8
I1226 08:55:39.113100 85894 net.cpp:178] Creating Layer fc8
I1226 08:55:39.113126 85894 net.cpp:612] fc8 <- fc7
I1226 08:55:39.113186 85894 net.cpp:586] fc8 -> fc8
I1226 08:55:39.164944 91127 net.cpp:228] Setting up fc6
I1226 08:55:39.165058 91127 net.cpp:235] Top shape: 256 4096 (1048576)
I1226 08:55:39.165088 91127 net.cpp:243] Memory required for data: 2107734016
I1226 08:55:39.165146 91127 layer_factory.hpp:114] Creating layer relu6
I1226 08:55:39.165233 91127 net.cpp:178] Creating Layer relu6
I1226 08:55:39.165362 91127 net.cpp:612] relu6 <- fc6
I1226 08:55:39.165449 91127 net.cpp:573] relu6 -> fc6 (in-place)
I1226 08:55:39.165650 91127 net.cpp:228] Setting up relu6
I1226 08:55:39.165707 91127 net.cpp:235] Top shape: 256 4096 (1048576)
I1226 08:55:39.165731 91127 net.cpp:243] Memory required for data: 2111928320
I1226 08:55:39.165762 91127 layer_factory.hpp:114] Creating layer drop6
I1226 08:55:39.165815 91127 net.cpp:178] Creating Layer drop6
I1226 08:55:39.165850 91127 net.cpp:612] drop6 <- fc6
I1226 08:55:39.165886 91127 net.cpp:573] drop6 -> fc6 (in-place)
I1226 08:55:39.165940 91127 net.cpp:228] Setting up drop6
I1226 08:55:39.165978 91127 net.cpp:235] Top shape: 256 4096 (1048576)
I1226 08:55:39.166007 91127 net.cpp:243] Memory required for data: 2116122624
I1226 08:55:39.166035 91127 layer_factory.hpp:114] Creating layer fc7
I1226 08:55:39.166095 91127 net.cpp:178] Creating Layer fc7
I1226 08:55:39.166128 91127 net.cpp:612] fc7 <- fc6
I1226 08:55:39.166167 91127 net.cpp:586] fc7 -> fc7
I1226 08:55:39.677559 85894 net.cpp:228] Setting up fc8
I1226 08:55:39.677675 85894 net.cpp:235] Top shape: 256 1000 (256000)
I1226 08:55:39.677703 85894 net.cpp:243] Memory required for data: 2129729536
I1226 08:55:39.677758 85894 layer_factory.hpp:114] Creating layer fc8_fc8_0_split
I1226 08:55:39.677848 85894 net.cpp:178] Creating Layer fc8_fc8_0_split
I1226 08:55:39.677893 85894 net.cpp:612] fc8_fc8_0_split <- fc8
I1226 08:55:39.677933 85894 net.cpp:586] fc8_fc8_0_split -> fc8_fc8_0_split_0
I1226 08:55:39.677992 85894 net.cpp:586] fc8_fc8_0_split -> fc8_fc8_0_split_1
I1226 08:55:39.678073 85894 net.cpp:228] Setting up fc8_fc8_0_split
I1226 08:55:39.678112 85894 net.cpp:235] Top shape: 256 1000 (256000)
I1226 08:55:39.678141 85894 net.cpp:235] Top shape: 256 1000 (256000)
I1226 08:55:39.678174 85894 net.cpp:243] Memory required for data: 2131777536
I1226 08:55:39.678203 85894 layer_factory.hpp:114] Creating layer accuracy
I1226 08:55:39.678252 85894 net.cpp:178] Creating Layer accuracy
I1226 08:55:39.678279 85894 net.cpp:612] accuracy <- fc8_fc8_0_split_0
I1226 08:55:39.678315 85894 net.cpp:612] accuracy <- label_data_1_split_0
I1226 08:55:39.678383 85894 net.cpp:586] accuracy -> accuracy
…
I1226 08:55:39.715019 85894 net.cpp:307] data does not need backward computation.
I1226 08:55:39.715045 85894 net.cpp:349] This network produces output accuracy
I1226 08:55:39.715076 85894 net.cpp:349] This network produces output loss
I1226 08:55:39.715163 85894 net.cpp:363] Network initialization done.
I1226 08:55:39.715734 85894 solver.cpp:119] Solver scaffolding done.
I1226 08:55:39.715948 85894 caffe.cpp:212] Finetuning from /export/data1/stanford/hazy/gordon_bell/caffenet_knl/snapshot/caffenet_MN8_B1024/_iter_25000.caffemodel
I1226 08:55:41.388530 89709 net.cpp:228] Setting up fc6
I1226 08:55:41.388635 89709 net.cpp:235] Top shape: 256 4096 (1048576)
I1226 08:55:41.388661 89709 net.cpp:243] Memory required for data: 2107734016
I1226 08:55:41.388715 89709 layer_factory.hpp:114] Creating layer relu6
I1226 08:55:41.388789 89709 net.cpp:178] Creating Layer relu6
I1226 08:55:41.388821 89709 net.cpp:612] relu6 <- fc6
I1226 08:55:41.388866 89709 net.cpp:573] relu6 -> fc6 (in-place)
I1226 08:55:41.389047 89709 net.cpp:228] Setting up relu6
I1226 08:55:41.389099 89709 net.cpp:235] Top shape: 256 4096 (1048576)
I1226 08:55:41.389132 89709 net.cpp:243] Memory required for data: 2111928320
I1226 08:55:41.389160 89709 layer_factory.hpp:114] Creating layer drop6
I1226 08:55:41.389209 89709 net.cpp:178] Creating Layer drop6
I1226 08:55:41.389235 89709 net.cpp:612] drop6 <- fc6
I1226 08:55:41.389284 89709 net.cpp:573] drop6 -> fc6 (in-place)
I1226 08:55:41.389339 89709 net.cpp:228] Setting up drop6
I1226 08:55:41.389400 89709 net.cpp:235] Top shape: 256 4096 (1048576)
I1226 08:55:41.389425 89709 net.cpp:243] Memory required for data: 2116122624
I1226 08:55:41.389451 89709 layer_factory.hpp:114] Creating layer fc7
I1226 08:55:41.389518 89709 net.cpp:178] Creating Layer fc7
I1226 08:55:41.389549 89709 net.cpp:612] fc7 <- fc6
I1226 08:55:41.389586 89709 net.cpp:586] fc7 -> fc7
I1226 08:55:41.414541 91127 net.cpp:228] Setting up fc7
I1226 08:55:41.414654 91127 net.cpp:235] Top shape: 256 4096 (1048576)
I1226 08:55:41.414682 91127 net.cpp:243] Memory required for data: 2120316928
I1226 08:55:41.414738 91127 layer_factory.hpp:114] Creating layer relu7
I1226 08:55:41.414825 91127 net.cpp:178] Creating Layer relu7
I1226 08:55:41.414952 91127 net.cpp:612] relu7 <- fc7
I1226 08:55:41.414990 91127 net.cpp:573] relu7 -> fc7 (in-place)
I1226 08:55:41.415082 91127 net.cpp:228] Setting up relu7
I1226 08:55:41.415138 91127 net.cpp:235] Top shape: 256 4096 (1048576)
I1226 08:55:41.415160 91127 net.cpp:243] Memory required for data: 2124511232
I1226 08:55:41.415189 91127 layer_factory.hpp:114] Creating layer drop7
I1226 08:55:41.415237 91127 net.cpp:178] Creating Layer drop7
I1226 08:55:41.415266 91127 net.cpp:612] drop7 <- fc7
I1226 08:55:41.415302 91127 net.cpp:573] drop7 -> fc7 (in-place)
I1226 08:55:41.415354 91127 net.cpp:228] Setting up drop7
I1226 08:55:41.415416 91127 net.cpp:235] Top shape: 256 4096 (1048576)
I1226 08:55:41.415464 91127 net.cpp:243] Memory required for data: 2128705536
I1226 08:55:41.415503 91127 layer_factory.hpp:114] Creating layer fc8
I1226 08:55:41.415563 91127 net.cpp:178] Creating Layer fc8
I1226 08:55:41.415593 91127 net.cpp:612] fc8 <- fc7
I1226 08:55:41.415633 91127 net.cpp:586] fc8 -> fc8
I1226 08:55:41.477100 86102 net.cpp:228] Setting up fc6
I1226 08:55:41.477211 86102 net.cpp:235] Top shape: 256 4096 (1048576)
I1226 08:55:41.477239 86102 net.cpp:243] Memory required for data: 2107734016
I1226 08:55:41.477293 86102 layer_factory.hpp:114] Creating layer relu6
I1226 08:55:41.477362 86102 net.cpp:178] Creating Layer relu6
I1226 08:55:41.477394 86102 net.cpp:612] relu6 <- fc6
I1226 08:55:41.477440 86102 net.cpp:573] relu6 -> fc6 (in-place)
I1226 08:55:41.477656 86102 net.cpp:228] Setting up relu6
I1226 08:55:41.477710 86102 net.cpp:235] Top shape: 256 4096 (1048576)
I1226 08:55:41.477735 86102 net.cpp:243] Memory required for data: 2111928320
I1226 08:55:41.477762 86102 layer_factory.hpp:114] Creating layer drop6
I1226 08:55:41.477825 86102 net.cpp:178] Creating Layer drop6
I1226 08:55:41.477859 86102 net.cpp:612] drop6 <- fc6
I1226 08:55:41.477895 86102 net.cpp:573] drop6 -> fc6 (in-place)
I1226 08:55:41.477946 86102 net.cpp:228] Setting up drop6
I1226 08:55:41.477987 86102 net.cpp:235] Top shape: 256 4096 (1048576)
I1226 08:55:41.478009 86102 net.cpp:243] Memory required for data: 2116122624
I1226 08:55:41.478035 86102 layer_factory.hpp:114] Creating layer fc7
I1226 08:55:41.478088 86102 net.cpp:178] Creating Layer fc7
I1226 08:55:41.478123 86102 net.cpp:612] fc7 <- fc6
I1226 08:55:41.478160 86102 net.cpp:586] fc7 -> fc7
I1226 08:55:41.595641 92150 net.cpp:228] Setting up fc6
I1226 08:55:41.595762 92150 net.cpp:235] Top shape: 256 4096 (1048576)
I1226 08:55:41.595795 92150 net.cpp:243] Memory required for data: 2107734016
I1226 08:55:41.595880 92150 layer_factory.hpp:114] Creating layer relu6
I1226 08:55:41.596192 92150 net.cpp:178] Creating Layer relu6
I1226 08:55:41.596238 92150 net.cpp:612] relu6 <- fc6
I1226 08:55:41.596307 92150 net.cpp:573] relu6 -> fc6 (in-place)
I1226 08:55:41.596561 92150 net.cpp:228] Setting up relu6
I1226 08:55:41.596797 92150 net.cpp:235] Top shape: 256 4096 (1048576)
I1226 08:55:41.596830 92150 net.cpp:243] Memory required for data: 2111928320
I1226 08:55:41.596870 92150 layer_factory.hpp:114] Creating layer drop6
I1226 08:55:41.596937 92150 net.cpp:178] Creating Layer drop6
I1226 08:55:41.597121 92150 net.cpp:612] drop6 <- fc6
I1226 08:55:41.597169 92150 net.cpp:573] drop6 -> fc6 (in-place)
I1226 08:55:41.597235 92150 net.cpp:228] Setting up drop6
I1226 08:55:41.597427 92150 net.cpp:235] Top shape: 256 4096 (1048576)
I1226 08:55:41.597461 92150 net.cpp:243] Memory required for data: 2116122624
I1226 08:55:41.597499 92150 layer_factory.hpp:114] Creating layer fc7
I1226 08:55:41.597578 92150 net.cpp:178] Creating Layer fc7
I1226 08:55:41.597776 92150 net.cpp:612] fc7 <- fc6
I1226 08:55:41.597842 92150 net.cpp:586] fc7 -> fc7
I1226 08:55:38.432232 90165 net.cpp:228] Setting up fc6
I1226 08:55:38.432343 90165 net.cpp:235] Top shape: 256 4096 (1048576)
I1226 08:55:38.432369 90165 net.cpp:243] Memory required for data: 2107734016
I1226 08:55:38.432425 90165 layer_factory.hpp:114] Creating layer relu6
I1226 08:55:38.432492 90165 net.cpp:178] Creating Layer relu6
I1226 08:55:38.432530 90165 net.cpp:612] relu6 <- fc6
I1226 08:55:38.432569 90165 net.cpp:573] relu6 -> fc6 (in-place)
I1226 08:55:38.437495 90165 net.cpp:228] Setting up relu6
I1226 08:55:38.437598 90165 net.cpp:235] Top shape: 256 4096 (1048576)
I1226 08:55:38.437669 90165 net.cpp:243] Memory required for data: 2111928320
I1226 08:55:38.437712 90165 layer_factory.hpp:114] Creating layer drop6
I1226 08:55:38.437783 90165 net.cpp:178] Creating Layer drop6
I1226 08:55:38.437947 90165 net.cpp:612] drop6 <- fc6
I1226 08:55:38.438011 90165 net.cpp:573] drop6 -> fc6 (in-place)
I1226 08:55:38.438091 90165 net.cpp:228] Setting up drop6
I1226 08:55:38.438136 90165 net.cpp:235] Top shape: 256 4096 (1048576)
I1226 08:55:38.438169 90165 net.cpp:243] Memory required for data: 2116122624
I1226 08:55:38.438205 90165 layer_factory.hpp:114] Creating layer fc7
I1226 08:55:38.438287 90165 net.cpp:178] Creating Layer fc7
I1226 08:55:38.438328 90165 net.cpp:612] fc7 <- fc6
I1226 08:55:38.438375 90165 net.cpp:586] fc7 -> fc7
I1226 08:55:41.963279 91127 net.cpp:228] Setting up fc8
I1226 08:55:41.963423 91127 net.cpp:235] Top shape: 256 1000 (256000)
I1226 08:55:41.963454 91127 net.cpp:243] Memory required for data: 2129729536
I1226 08:55:41.963536 91127 layer_factory.hpp:114] Creating layer fc8_fc8_0_split
I1226 08:55:41.963609 91127 net.cpp:178] Creating Layer fc8_fc8_0_split
I1226 08:55:41.963640 91127 net.cpp:612] fc8_fc8_0_split <- fc8
I1226 08:55:41.963678 91127 net.cpp:586] fc8_fc8_0_split -> fc8_fc8_0_split_0
I1226 08:55:41.963735 91127 net.cpp:586] fc8_fc8_0_split -> fc8_fc8_0_split_1
I1226 08:55:41.963821 91127 net.cpp:228] Setting up fc8_fc8_0_split
I1226 08:55:41.963863 91127 net.cpp:235] Top shape: 256 1000 (256000)
I1226 08:55:41.963902 91127 net.cpp:235] Top shape: 256 1000 (256000)
I1226 08:55:41.963924 91127 net.cpp:243] Memory required for data: 2131777536
I1226 08:55:41.963953 91127 layer_factory.hpp:114] Creating layer accuracy
I1226 08:55:41.964126 91127 net.cpp:178] Creating Layer accuracy
I1226 08:55:41.964154 91127 net.cpp:612] accuracy <- fc8_fc8_0_split_0
I1226 08:55:41.964195 91127 net.cpp:612] accuracy <- label_data_1_split_0
I1226 08:55:41.964241 91127 net.cpp:586] accuracy -> accuracy
…
I1226 08:55:41.998260 91127 net.cpp:349] This network produces output loss
I1226 08:55:41.998360 91127 net.cpp:363] Network initialization done.
I1226 08:55:41.999023 91127 solver.cpp:119] Solver scaffolding done.
I1226 08:55:41.999244 91127 caffe.cpp:212] Finetuning from /export/data1/stanford/hazy/gordon_bell/caffenet_knl/snapshot/caffenet_MN8_B1024/_iter_25000.caffemodel
I1226 08:55:43.870010 85894 caffe.cpp:376] Configuring multinode setup
I1226 08:55:43.886426 85894 caffe.cpp:386] Starting parameter server in mpi environment
I1226 08:55:43.941548 119888 net.cpp:228] Setting up fc6
I1226 08:55:43.941694 119888 net.cpp:235] Top shape: 256 4096 (1048576)
I1226 08:55:43.941726 119888 net.cpp:243] Memory required for data: 2107734016
I1226 08:55:43.941813 119888 layer_factory.hpp:114] Creating layer relu6
I1226 08:55:43.941895 119888 net.cpp:178] Creating Layer relu6
I1226 08:55:43.942055 119888 net.cpp:612] relu6 <- fc6
I1226 08:55:43.942108 119888 net.cpp:573] relu6 -> fc6 (in-place)
I1226 08:55:43.942220 119888 net.cpp:228] Setting up relu6
I1226 08:55:43.942276 119888 net.cpp:235] Top shape: 256 4096 (1048576)
I1226 08:55:43.942302 119888 net.cpp:243] Memory required for data: 2111928320
I1226 08:55:43.942333 119888 layer_factory.hpp:114] Creating layer drop6
I1226 08:55:43.942394 119888 net.cpp:178] Creating Layer drop6
I1226 08:55:43.942435 119888 net.cpp:612] drop6 <- fc6
I1226 08:55:43.942483 119888 net.cpp:573] drop6 -> fc6 (in-place)
I1226 08:55:43.942558 119888 net.cpp:228] Setting up drop6
I1226 08:55:43.942598 119888 net.cpp:235] Top shape: 256 4096 (1048576)
I1226 08:55:43.942648 119888 net.cpp:243] Memory required for data: 2116122624
I1226 08:55:43.942678 119888 layer_factory.hpp:114] Creating layer fc7
I1226 08:55:43.942735 119888 net.cpp:178] Creating Layer fc7
I1226 08:55:43.942776 119888 net.cpp:612] fc7 <- fc6
I1226 08:55:43.942816 119888 net.cpp:586] fc7 -> fc7
I1226 08:55:44.038425 89709 net.cpp:228] Setting up fc7
I1226 08:55:44.038534 89709 net.cpp:235] Top shape: 256 4096 (1048576)
I1226 08:55:44.038563 89709 net.cpp:243] Memory required for data: 2120316928
I1226 08:55:44.038619 89709 layer_factory.hpp:114] Creating layer relu7
I1226 08:55:44.038698 89709 net.cpp:178] Creating Layer relu7
I1226 08:55:44.038743 89709 net.cpp:612] relu7 <- fc7
I1226 08:55:44.038789 89709 net.cpp:573] relu7 -> fc7 (in-place)
I1226 08:55:44.038884 89709 net.cpp:228] Setting up relu7
I1226 08:55:44.038938 89709 net.cpp:235] Top shape: 256 4096 (1048576)
I1226 08:55:44.038969 89709 net.cpp:243] Memory required for data: 2124511232
I1226 08:55:44.039000 89709 layer_factory.hpp:114] Creating layer drop7
I1226 08:55:44.039036 89709 net.cpp:178] Creating Layer drop7
I1226 08:55:44.039064 89709 net.cpp:612] drop7 <- fc7
I1226 08:55:44.039106 89709 net.cpp:573] drop7 -> fc7 (in-place)
I1226 08:55:44.039149 89709 net.cpp:228] Setting up drop7
I1226 08:55:44.039188 89709 net.cpp:235] Top shape: 256 4096 (1048576)
I1226 08:55:44.039221 89709 net.cpp:243] Memory required for data: 2128705536
I1226 08:55:44.039247 89709 layer_factory.hpp:114] Creating layer fc8
I1226 08:55:44.039301 89709 net.cpp:178] Creating Layer fc8
I1226 08:55:44.039329 89709 net.cpp:612] fc8 <- fc7
I1226 08:55:44.039391 89709 net.cpp:586] fc8 -> fc8
I1226 08:55:44.068822 86102 net.cpp:228] Setting up fc7
I1226 08:55:44.068936 86102 net.cpp:235] Top shape: 256 4096 (1048576)
I1226 08:55:44.068967 86102 net.cpp:243] Memory required for data: 2120316928
I1226 08:55:44.069025 86102 layer_factory.hpp:114] Creating layer relu7
I1226 08:55:44.069102 86102 net.cpp:178] Creating Layer relu7
I1226 08:55:44.069226 86102 net.cpp:612] relu7 <- fc7
I1226 08:55:44.069267 86102 net.cpp:573] relu7 -> fc7 (in-place)
I1226 08:55:44.069365 86102 net.cpp:228] Setting up relu7
I1226 08:55:44.069411 86102 net.cpp:235] Top shape: 256 4096 (1048576)
I1226 08:55:44.069442 86102 net.cpp:243] Memory required for data: 2124511232
I1226 08:55:44.069471 86102 layer_factory.hpp:114] Creating layer drop7
I1226 08:55:44.069509 86102 net.cpp:178] Creating Layer drop7
I1226 08:55:44.069567 86102 net.cpp:612] drop7 <- fc7
I1226 08:55:44.069609 86102 net.cpp:573] drop7 -> fc7 (in-place)
I1226 08:55:44.069655 86102 net.cpp:228] Setting up drop7
I1226 08:55:44.069689 86102 net.cpp:235] Top shape: 256 4096 (1048576)
I1226 08:55:44.069711 86102 net.cpp:243] Memory required for data: 2128705536
I1226 08:55:44.069746 86102 layer_factory.hpp:114] Creating layer fc8
I1226 08:55:44.069804 86102 net.cpp:178] Creating Layer fc8
I1226 08:55:44.069835 86102 net.cpp:612] fc8 <- fc7
I1226 08:55:44.069875 86102 net.cpp:586] fc8 -> fc8
I1226 08:55:40.822330 90165 net.cpp:228] Setting up fc7
I1226 08:55:40.822451 90165 net.cpp:235] Top shape: 256 4096 (1048576)
I1226 08:55:40.822489 90165 net.cpp:243] Memory required for data: 2120316928
I1226 08:55:40.822569 90165 layer_factory.hpp:114] Creating layer relu7
I1226 08:55:40.822686 90165 net.cpp:178] Creating Layer relu7
I1226 08:55:40.822733 90165 net.cpp:612] relu7 <- fc7
I1226 08:55:40.822782 90165 net.cpp:573] relu7 -> fc7 (in-place)
I1226 08:55:40.822906 90165 net.cpp:228] Setting up relu7
I1226 08:55:40.822983 90165 net.cpp:235] Top shape: 256 4096 (1048576)
I1226 08:55:40.823012 90165 net.cpp:243] Memory required for data: 2124511232
I1226 08:55:40.823055 90165 layer_factory.hpp:114] Creating layer drop7
I1226 08:55:40.823107 90165 net.cpp:178] Creating Layer drop7
I1226 08:55:40.823142 90165 net.cpp:612] drop7 <- fc7
I1226 08:55:40.823179 90165 net.cpp:573] drop7 -> fc7 (in-place)
I1226 08:55:40.823230 90165 net.cpp:228] Setting up drop7
I1226 08:55:40.823264 90165 net.cpp:235] Top shape: 256 4096 (1048576)
I1226 08:55:40.823297 90165 net.cpp:243] Memory required for data: 2128705536
I1226 08:55:40.823326 90165 layer_factory.hpp:114] Creating layer fc8
I1226 08:55:40.823387 90165 net.cpp:178] Creating Layer fc8
I1226 08:55:40.823415 90165 net.cpp:612] fc8 <- fc7
I1226 08:55:40.823454 90165 net.cpp:586] fc8 -> fc8
I1226 08:55:44.214902 92150 net.cpp:228] Setting up fc7
I1226 08:55:44.215025 92150 net.cpp:235] Top shape: 256 4096 (1048576)
I1226 08:55:44.215065 92150 net.cpp:243] Memory required for data: 2120316928
I1226 08:55:44.215147 92150 layer_factory.hpp:114] Creating layer relu7
I1226 08:55:44.215240 92150 net.cpp:178] Creating Layer relu7
I1226 08:55:44.215296 92150 net.cpp:612] relu7 <- fc7
I1226 08:55:44.215347 92150 net.cpp:573] relu7 -> fc7 (in-place)
I1226 08:55:44.215492 92150 net.cpp:228] Setting up relu7
I1226 08:55:44.215569 92150 net.cpp:235] Top shape: 256 4096 (1048576)
I1226 08:55:44.215603 92150 net.cpp:243] Memory required for data: 2124511232
I1226 08:55:44.215643 92150 layer_factory.hpp:114] Creating layer drop7
I1226 08:55:44.215692 92150 net.cpp:178] Creating Layer drop7
I1226 08:55:44.215728 92150 net.cpp:612] drop7 <- fc7
I1226 08:55:44.215793 92150 net.cpp:573] drop7 -> fc7 (in-place)
I1226 08:55:44.215868 92150 net.cpp:228] Setting up drop7
I1226 08:55:44.215919 92150 net.cpp:235] Top shape: 256 4096 (1048576)
I1226 08:55:44.215950 92150 net.cpp:243] Memory required for data: 2128705536
I1226 08:55:44.215986 92150 layer_factory.hpp:114] Creating layer fc8
I1226 08:55:44.216069 92150 net.cpp:178] Creating Layer fc8
I1226 08:55:44.216109 92150 net.cpp:612] fc8 <- fc7
I1226 08:55:44.216161 92150 net.cpp:586] fc8 -> fc8
I1226 08:55:44.579216 91127 caffe.cpp:376] Configuring multinode setup
I1226 08:55:44.580687 91127 caffe.cpp:392] Starting Multi-node Optimization in mpi environment
I1226 08:55:44.602007 89709 net.cpp:228] Setting up fc8
I1226 08:55:44.602121 89709 net.cpp:235] Top shape: 256 1000 (256000)
I1226 08:55:44.602149 89709 net.cpp:243] Memory required for data: 2129729536
I1226 08:55:44.602200 89709 layer_factory.hpp:114] Creating layer fc8_fc8_0_split
I1226 08:55:44.602283 89709 net.cpp:178] Creating Layer fc8_fc8_0_split
I1226 08:55:44.602319 89709 net.cpp:612] fc8_fc8_0_split <- fc8
I1226 08:55:44.602363 89709 net.cpp:586] fc8_fc8_0_split -> fc8_fc8_0_split_0
I1226 08:55:44.602449 89709 net.cpp:586] fc8_fc8_0_split -> fc8_fc8_0_split_1
I1226 08:55:44.602535 89709 net.cpp:228] Setting up fc8_fc8_0_split
I1226 08:55:44.602597 89709 net.cpp:235] Top shape: 256 1000 (256000)
I1226 08:55:44.602629 89709 net.cpp:235] Top shape: 256 1000 (256000)
I1226 08:55:44.602653 89709 net.cpp:243] Memory required for data: 2131777536
I1226 08:55:44.602691 89709 layer_factory.hpp:114] Creating layer accuracy
I1226 08:55:44.602742 89709 net.cpp:178] Creating Layer accuracy
I1226 08:55:44.602769 89709 net.cpp:612] accuracy <- fc8_fc8_0_split_0
I1226 08:55:44.602799 89709 net.cpp:612] accuracy <- label_data_1_split_0
I1226 08:55:44.602834 89709 net.cpp:586] accuracy -> accuracy
I1226 08:55:44.602885 89709 net.cpp:228] Setting up accuracy
I1226 08:55:44.602923 89709 net.cpp:235] Top shape: (1)
I1226 08:55:44.602953 89709 net.cpp:243] Memory required for data: 2131777540
I1226 08:55:44.602979 89709 layer_factory.hpp:114] Creating layer loss
I1226 08:55:44.603022 89709 net.cpp:178] Creating Layer loss
I1226 08:55:44.603050 89709 net.cpp:612] loss <- fc8_fc8_0_split_1
I1226 08:55:44.603080 89709 net.cpp:612] loss <- label_data_1_split_1
I1226 08:55:44.603132 89709 net.cpp:586] loss -> loss
I1226 08:55:44.603189 89709 layer_factory.hpp:114] Creating layer loss
I1226 08:55:44.626595 86102 net.cpp:228] Setting up fc8
I1226 08:55:44.626706 86102 net.cpp:235] Top shape: 256 1000 (256000)
I1226 08:55:44.626736 86102 net.cpp:243] Memory required for data: 2129729536
I1226 08:55:44.626791 86102 layer_factory.hpp:114] Creating layer fc8_fc8_0_split
I1226 08:55:44.626868 86102 net.cpp:178] Creating Layer fc8_fc8_0_split
I1226 08:55:44.626901 86102 net.cpp:612] fc8_fc8_0_split <- fc8
I1226 08:55:44.626966 86102 net.cpp:586] fc8_fc8_0_split -> fc8_fc8_0_split_0
I1226 08:55:44.627023 86102 net.cpp:586] fc8_fc8_0_split -> fc8_fc8_0_split_1
I1226 08:55:44.627104 86102 net.cpp:228] Setting up fc8_fc8_0_split
I1226 08:55:44.627159 86102 net.cpp:235] Top shape: 256 1000 (256000)
I1226 08:55:44.627190 86102 net.cpp:235] Top shape: 256 1000 (256000)
I1226 08:55:44.627213 86102 net.cpp:243] Memory required for data: 2131777536
I1226 08:55:44.627243 86102 layer_factory.hpp:114] Creating layer accuracy
I1226 08:55:44.627300 86102 net.cpp:178] Creating Layer accuracy
I1226 08:55:44.627326 86102 net.cpp:612] accuracy <- fc8_fc8_0_split_0
I1226 08:55:44.627357 86102 net.cpp:612] accuracy <- label_data_1_split_0
I1226 08:55:44.627389 86102 net.cpp:586] accuracy -> accuracy
…
I1226 08:55:44.821072 92150 net.cpp:307] data does not need backward computation.
I1226 08:55:44.821100 92150 net.cpp:349] This network produces output accuracy
I1226 08:55:44.821135 92150 net.cpp:349] This network produces output loss
I1226 08:55:44.821290 92150 net.cpp:363] Network initialization done.
I1226 08:55:44.821831 92150 solver.cpp:119] Solver scaffolding done.
I1226 08:55:44.822047 92150 caffe.cpp:212] Finetuning from /export/data1/stanford/hazy/gordon_bell/caffenet_knl/snapshot/caffenet_MN8_B1024/_iter_25000.caffemodel
I1226 08:55:47.152120 119888 net.cpp:228] Setting up fc7
I1226 08:55:47.152233 119888 net.cpp:235] Top shape: 256 4096 (1048576)
I1226 08:55:47.152261 119888 net.cpp:243] Memory required for data: 2120316928
I1226 08:55:47.152318 119888 layer_factory.hpp:114] Creating layer relu7
I1226 08:55:47.152395 119888 net.cpp:178] Creating Layer relu7
I1226 08:55:47.152431 119888 net.cpp:612] relu7 <- fc7
I1226 08:55:47.152479 119888 net.cpp:573] relu7 -> fc7 (in-place)
I1226 08:55:47.152568 119888 net.cpp:228] Setting up relu7
I1226 08:55:47.152642 119888 net.cpp:235] Top shape: 256 4096 (1048576)
I1226 08:55:47.152670 119888 net.cpp:243] Memory required for data: 2124511232
I1226 08:55:47.152700 119888 layer_factory.hpp:114] Creating layer drop7
I1226 08:55:47.152741 119888 net.cpp:178] Creating Layer drop7
I1226 08:55:47.152777 119888 net.cpp:612] drop7 <- fc7
I1226 08:55:47.152820 119888 net.cpp:573] drop7 -> fc7 (in-place)
I1226 08:55:47.152868 119888 net.cpp:228] Setting up drop7
I1226 08:55:47.152909 119888 net.cpp:235] Top shape: 256 4096 (1048576)
I1226 08:55:47.152936 119888 net.cpp:243] Memory required for data: 2128705536
I1226 08:55:47.152964 119888 layer_factory.hpp:114] Creating layer fc8
I1226 08:55:47.153023 119888 net.cpp:178] Creating Layer fc8
I1226 08:55:47.153059 119888 net.cpp:612] fc8 <- fc7
I1226 08:55:47.153098 119888 net.cpp:586] fc8 -> fc8
I1226 08:55:47.950953 119888 net.cpp:228] Setting up fc8
I1226 08:55:47.951067 119888 net.cpp:235] Top shape: 256 1000 (256000)
I1226 08:55:47.951098 119888 net.cpp:243] Memory required for data: 2129729536
I1226 08:55:47.951154 119888 layer_factory.hpp:114] Creating layer fc8_fc8_0_split
I1226 08:55:47.951251 119888 net.cpp:178] Creating Layer fc8_fc8_0_split
I1226 08:55:47.951299 119888 net.cpp:612] fc8_fc8_0_split <- fc8
I1226 08:55:47.951342 119888 net.cpp:586] fc8_fc8_0_split -> fc8_fc8_0_split_0
I1226 08:55:47.951395 119888 net.cpp:586] fc8_fc8_0_split -> fc8_fc8_0_split_1
I1226 08:55:47.951491 119888 net.cpp:228] Setting up fc8_fc8_0_split
I1226 08:55:47.951552 119888 net.cpp:235] Top shape: 256 1000 (256000)
I1226 08:55:47.951586 119888 net.cpp:235] Top shape: 256 1000 (256000)
I1226 08:55:47.951637 119888 net.cpp:243] Memory required for data: 2131777536
I1226 08:55:47.951670 119888 layer_factory.hpp:114] Creating layer accuracy
I1226 08:55:47.951735 119888 net.cpp:178] Creating Layer accuracy
I1226 08:55:47.951766 119888 net.cpp:612] accuracy <- fc8_fc8_0_split_0
I1226 08:55:47.951797 119888 net.cpp:612] accuracy <- label_data_1_split_0
I1226 08:55:47.951838 119888 net.cpp:586] accuracy -> accuracy
…
I1226 08:55:48.736704 86102 caffe.cpp:392] Starting Multi-node Optimization in mpi environment
I1226 08:55:45.487975 90165 caffe.cpp:376] Configuring multinode setup
I1226 08:55:45.489461 90165 caffe.cpp:392] Starting Multi-node Optimization in mpi environment
I1226 08:55:48.886487 92150 caffe.cpp:376] Configuring multinode setup
I1226 08:55:48.887864 92150 caffe.cpp:392] Starting Multi-node Optimization in mpi environment
I1226 08:55:52.020531 119888 caffe.cpp:376] Configuring multinode setup
I1226 08:55:52.022114 119888 caffe.cpp:392] Starting Multi-node Optimization in mpi environment
I1226 08:56:09.595038 95005 net.cpp:228] Setting up fc6
I1226 08:56:09.595310 95005 net.cpp:235] Top shape: 256 4096 (1048576)
I1226 08:56:09.595371 95005 net.cpp:243] Memory required for data: 2107734016
I1226 08:56:09.595469 95005 layer_factory.hpp:114] Creating layer relu6
I1226 08:56:09.595576 95005 net.cpp:178] Creating Layer relu6
I1226 08:56:09.595628 95005 net.cpp:612] relu6 <- fc6
I1226 08:56:09.595684 95005 net.cpp:573] relu6 -> fc6 (in-place)
I1226 08:56:09.595849 95005 net.cpp:228] Setting up relu6
I1226 08:56:09.595923 95005 net.cpp:235] Top shape: 256 4096 (1048576)
I1226 08:56:09.595984 95005 net.cpp:243] Memory required for data: 2111928320
I1226 08:56:09.596035 95005 layer_factory.hpp:114] Creating layer drop6
I1226 08:56:09.596132 95005 net.cpp:178] Creating Layer drop6
I1226 08:56:09.596191 95005 net.cpp:612] drop6 <- fc6
I1226 08:56:09.596251 95005 net.cpp:573] drop6 -> fc6 (in-place)
I1226 08:56:09.596362 95005 net.cpp:228] Setting up drop6
I1226 08:56:09.596431 95005 net.cpp:235] Top shape: 256 4096 (1048576)
I1226 08:56:09.596478 95005 net.cpp:243] Memory required for data: 2116122624
I1226 08:56:09.596523 95005 layer_factory.hpp:114] Creating layer fc7
I1226 08:56:09.596606 95005 net.cpp:178] Creating Layer fc7
I1226 08:56:09.596655 95005 net.cpp:612] fc7 <- fc6
I1226 08:56:09.596716 95005 net.cpp:586] fc7 -> fc7
I1226 08:56:09.877897 94304 net.cpp:228] Setting up fc6
I1226 08:56:09.878157 94304 net.cpp:235] Top shape: 256 4096 (1048576)
I1226 08:56:09.878204 94304 net.cpp:243] Memory required for data: 2107734016
I1226 08:56:09.878280 94304 layer_factory.hpp:114] Creating layer relu6
I1226 08:56:09.878365 94304 net.cpp:178] Creating Layer relu6
I1226 08:56:09.878413 94304 net.cpp:612] relu6 <- fc6
I1226 08:56:09.878463 94304 net.cpp:573] relu6 -> fc6 (in-place)
I1226 08:56:09.878577 94304 net.cpp:228] Setting up relu6
I1226 08:56:09.878634 94304 net.cpp:235] Top shape: 256 4096 (1048576)
I1226 08:56:09.878666 94304 net.cpp:243] Memory required for data: 2111928320
I1226 08:56:09.878700 94304 layer_factory.hpp:114] Creating layer drop6
I1226 08:56:09.878775 94304 net.cpp:178] Creating Layer drop6
I1226 08:56:09.878847 94304 net.cpp:612] drop6 <- fc6
I1226 08:56:09.878896 94304 net.cpp:573] drop6 -> fc6 (in-place)
I1226 08:56:09.878964 94304 net.cpp:228] Setting up drop6
I1226 08:56:09.879006 94304 net.cpp:235] Top shape: 256 4096 (1048576)
I1226 08:56:09.879034 94304 net.cpp:243] Memory required for data: 2116122624
I1226 08:56:09.879067 94304 layer_factory.hpp:114] Creating layer fc7
I1226 08:56:09.879134 94304 net.cpp:178] Creating Layer fc7
I1226 08:56:09.879166 94304 net.cpp:612] fc7 <- fc6
I1226 08:56:09.879214 94304 net.cpp:586] fc7 -> fc7
I1226 08:56:22.678261 95005 net.cpp:228] Setting up fc7
I1226 08:56:22.678386 95005 net.cpp:235] Top shape: 256 4096 (1048576)
I1226 08:56:22.678438 95005 net.cpp:243] Memory required for data: 2120316928
I1226 08:56:22.678534 95005 layer_factory.hpp:114] Creating layer relu7
I1226 08:56:22.678829 95005 net.cpp:178] Creating Layer relu7
I1226 08:56:22.678910 95005 net.cpp:612] relu7 <- fc7
I1226 08:56:22.678973 95005 net.cpp:573] relu7 -> fc7 (in-place)
I1226 08:56:22.679117 95005 net.cpp:228] Setting up relu7
I1226 08:56:22.679191 95005 net.cpp:235] Top shape: 256 4096 (1048576)
I1226 08:56:22.679230 95005 net.cpp:243] Memory required for data: 2124511232
I1226 08:56:22.679275 95005 layer_factory.hpp:114] Creating layer drop7
I1226 08:56:22.679330 95005 net.cpp:178] Creating Layer drop7
I1226 08:56:22.679379 95005 net.cpp:612] drop7 <- fc7
I1226 08:56:22.679431 95005 net.cpp:573] drop7 -> fc7 (in-place)
I1226 08:56:22.679497 95005 net.cpp:228] Setting up drop7
I1226 08:56:22.679558 95005 net.cpp:235] Top shape: 256 4096 (1048576)
I1226 08:56:22.679590 95005 net.cpp:243] Memory required for data: 2128705536
I1226 08:56:22.679630 95005 layer_factory.hpp:114] Creating layer fc8
I1226 08:56:22.679762 95005 net.cpp:178] Creating Layer fc8
I1226 08:56:22.679819 95005 net.cpp:612] fc8 <- fc7
I1226 08:56:22.679878 95005 net.cpp:586] fc8 -> fc8
I1226 08:56:22.998358 94304 net.cpp:228] Setting up fc7
I1226 08:56:22.998474 94304 net.cpp:235] Top shape: 256 4096 (1048576)
I1226 08:56:22.998512 94304 net.cpp:243] Memory required for data: 2120316928
I1226 08:56:22.998581 94304 layer_factory.hpp:114] Creating layer relu7
I1226 08:56:22.998687 94304 net.cpp:178] Creating Layer relu7
I1226 08:56:22.998762 94304 net.cpp:612] relu7 <- fc7
I1226 08:56:22.998853 94304 net.cpp:573] relu7 -> fc7 (in-place)
I1226 08:56:22.998971 94304 net.cpp:228] Setting up relu7
I1226 08:56:22.999027 94304 net.cpp:235] Top shape: 256 4096 (1048576)
I1226 08:56:22.999056 94304 net.cpp:243] Memory required for data: 2124511232
I1226 08:56:22.999092 94304 layer_factory.hpp:114] Creating layer drop7
I1226 08:56:22.999136 94304 net.cpp:178] Creating Layer drop7
I1226 08:56:22.999168 94304 net.cpp:612] drop7 <- fc7
I1226 08:56:22.999209 94304 net.cpp:573] drop7 -> fc7 (in-place)
I1226 08:56:22.999263 94304 net.cpp:228] Setting up drop7
I1226 08:56:22.999300 94304 net.cpp:235] Top shape: 256 4096 (1048576)
I1226 08:56:22.999326 94304 net.cpp:243] Memory required for data: 2128705536
I1226 08:56:22.999356 94304 layer_factory.hpp:114] Creating layer fc8
I1226 08:56:22.999442 94304 net.cpp:178] Creating Layer fc8
I1226 08:56:22.999488 94304 net.cpp:612] fc8 <- fc7
I1226 08:56:22.999541 94304 net.cpp:586] fc8 -> fc8
I1226 08:56:25.871878 95005 net.cpp:228] Setting up fc8
I1226 08:56:25.872028 95005 net.cpp:235] Top shape: 256 1000 (256000)
I1226 08:56:25.872089 95005 net.cpp:243] Memory required for data: 2129729536
I1226 08:56:25.872177 95005 layer_factory.hpp:114] Creating layer fc8_fc8_0_split
I1226 08:56:25.872287 95005 net.cpp:178] Creating Layer fc8_fc8_0_split
I1226 08:56:25.872341 95005 net.cpp:612] fc8_fc8_0_split <- fc8
I1226 08:56:25.872398 95005 net.cpp:586] fc8_fc8_0_split -> fc8_fc8_0_split_0
I1226 08:56:25.872468 95005 net.cpp:586] fc8_fc8_0_split -> fc8_fc8_0_split_1
I1226 08:56:25.872628 95005 net.cpp:228] Setting up fc8_fc8_0_split
I1226 08:56:25.872706 95005 net.cpp:235] Top shape: 256 1000 (256000)
I1226 08:56:25.872792 95005 net.cpp:235] Top shape: 256 1000 (256000)
I1226 08:56:25.872830 95005 net.cpp:243] Memory required for data: 2131777536
I1226 08:56:25.872875 95005 layer_factory.hpp:114] Creating layer accuracy
I1226 08:56:25.872947 95005 net.cpp:178] Creating Layer accuracy
I1226 08:56:25.872987 95005 net.cpp:612] accuracy <- fc8_fc8_0_split_0
I1226 08:56:25.873034 95005 net.cpp:612] accuracy <- label_data_1_split_0
I1226 08:56:25.873111 95005 net.cpp:586] accuracy -> accuracy
…
