…
I1230 12:26:53.493396 159318 net.cpp:500] The NetState phase (0) differed from the phase (1) specified by a rule in layer loss
I1230 12:26:53.493852 159318 net.cpp:136] Initializing net from parameters: 
name: "HEP_CLASSIFIER"
state {
  phase: TRAIN
  level: 0
  stage: ""
}
engine: "MKL2017"
layer {
  name: "data"
  type: "HDF5Data"
  top: "data"
  top: "label"
  include {
    phase: TRAIN
  }
  hdf5_data_param {
    source: "/project/projectdirs/dasrepo/zjian/Climate-scripts/split_prototxt/2_nodes_hdf5_config_1/train-val/train_chunk2.txt"
    batch_size: 4
    shuffle: true
  }
}
layer {
  name: "label_data_1_split"
  type: "Split"
  bottom: "label"
  top: "label_data_1_split_0"
  top: "label_data_1_split_1"
}
layer {
  name: "tile1"
  type: "Tile"
  bottom: "data"
  top: "tile1"
  tile_param {
    axis: 1
    tiles: 2
  }
}
layer {
  name: "conv1"
  type: "Convolution"
  bottom: "tile1"
  top: "conv1"
  convolution_param {
    num_output: 64
    pad: 0
    kernel_size: 3
    stride: 1
    weight_filler {
      type: "msra"
    }
    bias_filler {
      type: "constant"
      value: 0
    }
  }
}
layer {
  name: "relu1"
  type: "ReLU"
  bottom: "conv1"
  top: "conv1"
  relu_param {
    negative_slope: 0.1
  }
}
layer {
  name: "dropout1"
  type: "Dropout"
  bottom: "conv1"
  top: "drop1"
}
layer {
  name: "pool1"
  type: "Pooling"
  bottom: "drop1"
  top: "pool1"
  pooling_param {
    pool: MAX
    kernel_size: 2
    stride: 2
  }
}
layer {
  name: "conv2"
  type: "Convolution"
  bottom: "pool1"
  top: "conv2"
  convolution_param {
    num_output: 128
    pad: 0
    kernel_size: 3
    stride: 1
    weight_filler {
      type: "msra"
    }
    bias_filler {
      type: "constant"
      value: 0
    }
  }
}
layer {
  name: "relu2"
  type: "ReLU"
  bottom: "conv2"
  top: "conv2"
  relu_param {
    negative_slope: 0.1
  }
}
layer {
  name: "dropout2"
  type: "Dropout"
  bottom: "conv2"
  top: "drop2"
}
layer {
  name: "pool2"
  type: "Pooling"
  bottom: "drop2"
  top: "pool2"
  pooling_param {
    pool: MAX
    kernel_size: 2
    stride: 2
  }
}
layer {
  name: "conv3"
  type: "Convolution"
  bottom: "pool2"
  top: "conv3"
  convolution_parI1230 12:26:53.472658 159393 cpu_info.cpp:473] Number of OpenMP threads: 66
am {
    num_output: 128
    pad: 0
    kernel_size: 3
    stride: 1
    weight_filler {
      type: "msra"
    }
    bias_filler {
      type: "constant"
      value: 0
    }
  }
}
layer {
  name: "relu3"
  type: "ReLU"
  bottom: "conv3"
  top: "conv3"
  relu_param {
    negative_slope: 0.1
  }
}
layer {
  name: "dropout3"
  type: "Dropout"
  bottom: "conv3"
  top: "drop3"
}
layer {
  name: "pool3"
  type: "Pooling"
  bottom: "drop3"
  top: "pool3"
  pooling_param {
    pool: MAX
    kernel_size: 2
    stride: 2
  }
}
layer {
  name: "conv4"
  type: "Convolution"
  bottom: "pool3"
  top: "conv4"
  convolution_param {
    num_output: 128
    pad: 0
    kernel_size: 3
    stride: 1
    weight_filler {
      type: "msra"
    }
    bias_filler {
      type: "constant"
      value: 0
    }
  }
}
layer {
  name: "relu4"
  type: "ReLU"
  bottom: "conv4"
  top: "conv4"
  relu_param {
    negative_slope: 0.1
  }
}
layer {
  name: "dropout4"
  type: "Dropout"
  bottom: "conv4"
  top: "drop4"
}
layer {
  name: "pool4"
I1230 12:26:53.497218 159393 net.cpp:500] The NetState phase (0) differed from the phase (1) specified by a rule in layer accuracy
I1230 12:26:53.497279 159393 net.cpp:500] The NetState phase (0) differed from the phase (1) specified by a rule in layer loss
  type: "Pooling"
  bottom: "drop4"
  top: "pool4"
  pooling_param {
    pool: MAX
    kernel_size: 2
    stride: 2
  }
}
layer {
  name: "fc1"
  type: "InnerProduct"
  bottom: "pool4"
  top: "fc1"
  inner_product_param {
    num_output: 1024
    weight_filler {
      type: "msra"
    }
    bias_filler {
      type: "constant"
      value: 0
    }
  }
}
layer {
  name: "relu5"
  type: "ReLU"
  bottom: "fc1"
  top: "fc1"
  relu_param {
    negative_slope: 0.1
  }
}
layer {
  name: "dropout5"
  type: "Dropout"
  bottom: "fc1"
  top: "drop5"
}
layer {
  name: "fc2"
  type: "InnerProduct"
  bottom: "drop5"
  top: "fc2"
  inner_product_param {
    num_output: 2
    weight_filler {
      type: "msra"
    }
    bias_filler {
      type: "constant"
      value: 0
    }
  }
}
layer {
  name: "fc2_fc2_0_split"
  type: "Split"
  bottom: "fc2"
  top: "fc2_fc2_0_split_0"
  top: "fc2_fc2_0_split_1"
}
layer {
  name: "loss"
  type: "SoftmaxWithLoss"
  bottom: "fc2_fc2_0_split_0"
  bottom: "label_data_1_split_0"
  loss_weighI1230 12:26:53.497699 159393 net.cpp:136] Initializing net from parameters: 
name: "HEP_CLASSIFIER"
state {
  phase: TRAIN
  level: 0
  stage: ""
}
engine: "MKL2017"
layer {
  name: "data"
  type: "DummyData"
  top: "data"
  top: "label"
  include {
    phase: TRAIN
  }
  dummy_data_param {
    data_filler {
      type: "gaussian"
      std: 1
    }
    data_filler {
      type: "constant"
      value: 0
    }
    shape {
      dim: 4
      dim: 1
      dim: 227
      dim: 227
    }
    shape {
      dim: 4
      dim: 1
      dim: 1
      dim: 1
    }
  }
}
layer {
  name: "label_data_1_split"
  type: "Split"
  bottom: "label"
  top: "label_data_1_split_0"
  top: "label_data_1_split_1"
}
layer {
  name: "tile1"
  type: "Tile"
  bottom: "data"
  top: "tile1"
  tile_param {
    axis: 1
    tiles: 2
  }
}
layer {
  name: "conv1"
  type: "Convolution"
  bottom: "tile1"
  top: "conv1"
  convolution_param {
    num_output: 64
    pad: 0
    kernel_size: 3
    stride: 1
    weight_filler {
      type: "msra"
    }
 t: 1
}
layer {
  name: "accuracy"
  type: "Accuracy"
  bottom: "fc2_fc2_0_split_1"
  bottom: "label_data_1_split_1"
  top: "accuracy_train"
  include {
    phase: TRAIN
  }
}
I1230 12:26:53.494590 159318 layer_factory.hpp:114] Creating layer data
I1230 12:26:53.494642 159318 net.cpp:178] Creating Layer data
I1230 12:26:53.494674 159318 net.cpp:586] data -> data
   bias_filler {
      type: "constant"
      value: 0
    }
  }
}
layer {
  name: "relu1"
  type: "ReLU"
  bottom: "conv1"
  top: "conv1"
  relu_param {
    negative_slope: 0.1
  }
}
layer {
  name: "dropout1"
  type: "Dropout"
  bottom: "conv1"
  top: "drop1"
}
layer {
  name: "pool1"
  type: "Pooling"
  bottom: "drop1"
  top: "pool1"
  pooling_param {
    pool: MAX
    kernel_size: 2
    stride: 2
  }
}
layer {
  name: "conv2"
  type: "Convolution"
  bottom: "pool1"
  top: "conv2"
  convolution_param {
    num_output: 128
    pad: 0
    kernel_size: 3
    stride: 1
    weight_filler {
      type: "msra"
    }
    bias_filler {
      type: "constant"
      value: 0
    }
  }
}
layer {
  name: "relu2"
  type: "ReLU"
  bottom: "conv2"
  top: "conv2"
  relu_param {
    negative_slope: 0.1
  }
}
layer {
  name: "dropout2"
  type: "Dropout"
  bottom: "conv2"
  top: "drop2"
}
layer {
  name: "pool2"
  type: "Pooling"
  bottom: "drop2"
  top: "pool2"
  pooling_param {
    pool: MAX
    kernel_size: 2
    stride: 2I1230 12:26:53.494741 159318 net.cpp:586] data -> label
I1230 12:26:53.494793 159318 hdf5_data_layer.cpp:116] Loading list of HDF5 filenames from: /project/projectdirs/dasrepo/zjian/Climate-scripts/split_prototxt/2_nodes_hdf5_config_1/train-val/train_chunk2.txt

  }
}
layer {
  name: "conv3"
  type: "Convolution"
  bottom: "pool2"
  top: "conv3"
  convolution_param {
    num_output: 128
    pad: 0
    kernel_size: 3
    stride: 1
    weight_filler {
      type: "msra"
    }
    bias_filler {
      type: "constant"
      value: 0
    }
  }
}
layer {
  name: "relu3"
  type: "ReLU"
  bottom: "conv3"
  top: "conv3"
  relu_param {
    negative_slope: 0.1
  }
}
layer {
  name: "dropout3"
  type: "Dropout"
  bottom: "conv3"
  top: "drop3"
}
layer {
  name: "pool3"
  type: "Pooling"
  bottom: "drop3"
  top: "pool3"
  pooling_param {
    pool: MAX
    kernel_size: 2
    stride: 2
  }
}
layer {
  name: "conv4"
  type: "Convolution"
  bottom: "pool3"
  top: "conv4"
  convolution_param {
    num_output: 128
    pad: 0
    kernel_size: 3
    stride: 1
    weight_filler {
      type: "msra"
    }
    bias_filler {
      type: "constant"
      value: 0
    }
  }
}
layer {
  name: "relu4"
  type: "ReLU"
  bottom: "conv4"
  top: "conv4"
  relu_param {
    negative_slope: 0.1
  }
}
lI1230 12:26:53.520485 159318 hdf5_data_layer.cpp:130] Number of HDF5 files: 4650
ayer {
  name: "dropout4"
  type: "Dropout"
  bottom: "conv4"
  top: "drop4"
}
layer {
  name: "pool4"
  type: "Pooling"
  bottom: "drop4"
  top: "pool4"
  pooling_param {
    pool: MAX
    kernel_size: 2
    stride: 2
  }
}
layer {
  name: "fc1"
  type: "InnerProduct"
  bottom: "pool4"
  top: "fc1"
  inner_product_param {
    num_output: 1024
    weight_filler {
      type: "msra"
    }
    bias_filler {
      type: "constant"
      value: 0
    }
  }
}
layer {
  name: "relu5"
  type: "ReLU"
  bottom: "fc1"
  top: "fc1"
  relu_param {
    negative_slope: 0.1
  }
}
layer {
  name: "dropout5"
  type: "Dropout"
  bottom: "fc1"
  top: "drop5"
}
layer {
  name: "fc2"
  type: "InnerProduct"
  bottom: "drop5"
  top: "fc2"
  inner_product_param {
    num_output: 2
    weight_filler {
      type: "msra"
    }
    bias_filler {
      type: "constant"
      value: 0
    }
  }
}
layer {
  name: "fc2_fc2_0_split"
  type: "Split"
  bottom: "fc2"
  top: "fc2_fc2_0_split_0"
  top: "fc2_fc2_0_split_1"
}
layer {
  name: "loss"
  type: "SoftmaxWithLoss"
  bottom: "fc2_fc2_0_split_0"
  bottom: "label_data_1_split_0"
  loss_weight: 1
}
layer {
  name: "accuracy"
  type: "Accuracy"
  bottom: "fc2_fc2_0_split_1"
  bottom: "label_data_1_split_1"
  top: "accuracy_train"
  include {
    phase: TRAIN
  }
}
I1230 12:26:53.498459 159393 layer_factory.hpp:114] Creating layer data
I1230 12:26:53.498518 159393 net.cpp:178] Creating Layer data
I1230 12:26:53.498551 159393 net.cpp:586] data -> data
I1230 12:26:53.498623 159393 net.cpp:586] data -> label
I1230 12:26:53.551584 159393 net.cpp:228] Setting up data
I1230 12:26:53.551669 159393 net.cpp:235] Top shape: 4 1 227 227 (206116)
I1230 12:26:53.551724 159393 net.cpp:235] Top shape: 4 1 1 1 (4)
I1230 12:26:53.551754 159393 net.cpp:243] Memory required for data: 824480
I1230 12:26:53.551789 159393 layer_factory.hpp:114] Creating layer label_data_1_split
I1230 12:26:53.551867 159393 net.cpp:178] Creating Layer label_data_1_split
I1230 12:26:53.551889 159393 net.cpp:612] label_data_1_split <- label
I1230 12:26:53.551934 159393 net.cpp:586] label_data_1_split -> label_data_1_split_0
I1230 12:26:53.551980 159393 net.cpp:586] label_data_1_split -> label_data_1_split_1
I1230 12:26:53.573521 159393 net.cpp:228] Setting up label_data_1_split
I1230 12:26:53.573609 159393 net.cpp:235] Top shape: 4 1 1 1 (4)
I1230 12:26:53.573652 159393 net.cpp:235] Top shape: 4 1 1 1 (4)
I1230 12:26:53.573680 159393 net.cpp:243] Memory required for data: 824512
I1230 12:26:53.573714 159393 layer_factory.hpp:114] Creating layer tile1
I1230 12:26:53.573763 159393 net.cpp:178] Creating Layer tile1
I1230 12:26:53.573784 159393 net.cpp:612] tile1 <- data
I1230 12:26:53.573818 159393 net.cpp:586] tile1 -> tile1
I1230 12:26:53.573885 159393 net.cpp:228] Setting up tile1
I1230 12:26:53.573907 159393 net.cpp:235] Top shape: 4 2 227 227 (412232)
I1230 12:26:53.573933 159393 net.cpp:243] Memory required for data: 2473440
I1230 12:26:53.573953 159393 layer_factory.hpp:114] Creating layer conv1
I1230 12:26:53.574039 159393 net.cpp:178] Creating Layer conv1
I1230 12:26:53.574082 159393 net.cpp:612] conv1 <- tile1
I1230 12:26:53.574112 159393 net.cpp:586] conv1 -> conv1
I1230 12:26:53.674113 159393 net.cpp:228] Setting up conv1
I1230 12:26:53.674201 159393 net.cpp:235] Top shape: 4 64 225 225 (12960000)
I1230 12:26:53.674242 159393 net.cpp:243] Memory required for data: 54313440
I1230 12:26:53.674345 159393 layer_factory.hpp:114] Creating layer relu1
I1230 12:26:53.674425 159393 net.cpp:178] Creating Layer relu1
I1230 12:26:53.674554 159393 net.cpp:612] relu1 <- conv1
I1230 12:26:53.674597 159393 net.cpp:573] relu1 -> conv1 (in-place)
I1230 12:26:53.674687 159393 net.cpp:228] Setting up relu1
I1230 12:26:53.674712 159393 net.cpp:235] Top shape: 4 64 225 225 (12960000)
I1230 12:26:53.674741 159393 net.cpp:243] Memory required for data: 106153440
I1230 12:26:53.674762 159393 layer_factory.hpp:114] Creating layer dropout1
I1230 12:26:53.674861 159393 net.cpp:178] Creating Layer dropout1
I1230 12:26:53.674882 159393 net.cpp:612] dropout1 <- conv1
I1230 12:26:53.674921 159393 net.cpp:586] dropout1 -> drop1
I1230 12:26:53.674967 159393 net.cpp:228] Setting up dropout1
I1230 12:26:53.674985 159393 net.cpp:235] Top shape: 4 64 225 225 (12960000)
I1230 12:26:53.675010 159393 net.cpp:243] Memory required for data: 157993440
I1230 12:26:53.675031 159393 layer_factory.hpp:114] Creating layer pool1
I1230 12:26:53.675082 159393 net.cpp:178] Creating Layer pool1
I1230 12:26:53.675102 159393 net.cpp:612] pool1 <- drop1
I1230 12:26:53.675130 159393 net.cpp:586] pool1 -> pool1
I1230 12:26:53.675233 159393 net.cpp:228] Setting up pool1
I1230 12:26:53.675340 159393 net.cpp:235] Top shape: 4 64 113 113 (3268864)
I1230 12:26:53.675380 159393 net.cpp:243] Memory required for data: 171068896
I1230 12:26:53.675405 159393 layer_factory.hpp:114] Creating layer conv2
I1230 12:26:53.675484 159393 net.cpp:178] Creating Layer conv2
I1230 12:26:53.675508 159393 net.cpp:612] conv2 <- pool1
I1230 12:26:53.675539 159393 net.cpp:586] conv2 -> conv2
I1230 12:26:53.823921 159393 net.cpp:228] Setting up conv2
I1230 12:26:53.824021 159393 net.cpp:235] Top shape: 4 128 111 111 (6308352)
I1230 12:26:53.824065 159393 net.cpp:243] Memory required for data: 196302304
I1230 12:26:53.824138 159393 layer_factory.hpp:114] Creating layer relu2
I1230 12:26:53.824226 159393 net.cpp:178] Creating Layer relu2
I1230 12:26:53.824254 159393 net.cpp:612] relu2 <- conv2
I1230 12:26:53.824302 159393 net.cpp:573] relu2 -> conv2 (in-place)
I1230 12:26:53.824517 159393 net.cpp:228] Setting up relu2
I1230 12:26:53.824540 159393 net.cpp:235] Top shape: 4 128 111 111 (6308352)
I1230 12:26:53.824569 159393 net.cpp:243] Memory required for data: 221535712
I1230 12:26:53.824594 159393 layer_factory.hpp:114] Creating layer dropout2
I1230 12:26:53.824625 159393 net.cpp:178] Creating Layer dropout2
I1230 12:26:53.824648 159393 net.cpp:612] dropout2 <- conv2
I1230 12:26:53.824687 159393 net.cpp:586] dropout2 -> drop2
I1230 12:26:53.824728 159393 net.cpp:228] Setting up dropout2
I1230 12:26:53.824748 159393 net.cpp:235] Top shape: 4 128 111 111 (6308352)
I1230 12:26:53.824775 159393 net.cpp:243] Memory required for data: 246769120
I1230 12:26:53.824796 159393 layer_factory.hpp:114] Creating layer pool2
I1230 12:26:53.824852 159393 net.cpp:178] Creating Layer pool2
I1230 12:26:53.825031 159393 net.cpp:612] pool2 <- drop2
I1230 12:26:53.825067 159393 net.cpp:586] pool2 -> pool2
I1230 12:26:53.825152 159393 net.cpp:228] Setting up pool2
I1230 12:26:53.825219 159393 net.cpp:235] Top shape: 4 128 56 56 (1605632)
I1230 12:26:53.825250 159393 net.cpp:243] Memory required for data: 253191648
I1230 12:26:53.825275 159393 layer_factory.hpp:114] Creating layer conv3
I1230 12:26:53.825354 159393 net.cpp:178] Creating Layer conv3
I1230 12:26:53.825381 159393 net.cpp:612] conv3 <- pool2
I1230 12:26:53.825412 159393 net.cpp:586] conv3 -> conv3
I1230 12:26:53.904172 159393 net.cpp:228] Setting up conv3
I1230 12:26:53.904268 159393 net.cpp:235] Top shape: 4 128 54 54 (1492992)
I1230 12:26:53.904309 159393 net.cpp:243] Memory required for data: 259163616
I1230 12:26:53.904383 159393 layer_factory.hpp:114] Creating layer relu3
I1230 12:26:53.904470 159393 net.cpp:178] Creating Layer relu3
I1230 12:26:53.904497 159393 net.cpp:612] relu3 <- conv3
I1230 12:26:53.904531 159393 net.cpp:573] relu3 -> conv3 (in-place)
I1230 12:26:53.904615 159393 net.cpp:228] Setting up relu3
I1230 12:26:53.904742 159393 net.cpp:235] Top shape: 4 128 54 54 (1492992)
I1230 12:26:53.904772 159393 net.cpp:243] Memory required for data: 265135584
I1230 12:26:53.904832 159393 layer_factory.hpp:114] Creating layer dropout3
I1230 12:26:53.904875 159393 net.cpp:178] Creating Layer dropout3
I1230 12:26:53.904896 159393 net.cpp:612] dropout3 <- conv3
I1230 12:26:53.904955 159393 net.cpp:586] dropout3 -> drop3
I1230 12:26:53.905007 159393 net.cpp:228] Setting up dropout3
I1230 12:26:53.905030 159393 net.cpp:235] Top shape: 4 128 54 54 (1492992)
I1230 12:26:53.905058 159393 net.cpp:243] Memory required for data: 271107552
I1230 12:26:53.905081 159393 layer_factory.hpp:114] Creating layer pool3
I1230 12:26:53.905125 159393 net.cpp:178] Creating Layer pool3
I1230 12:26:53.905148 159393 net.cpp:612] pool3 <- drop3
I1230 12:26:53.905192 159393 net.cpp:586] pool3 -> pool3
I1230 12:26:53.905267 159393 net.cpp:228] Setting up pool3
I1230 12:26:53.905369 159393 net.cpp:235] Top shape: 4 128 27 27 (373248)
I1230 12:26:53.905398 159393 net.cpp:243] Memory required for data: 272600544
I1230 12:26:53.905421 159393 layer_factory.hpp:114] Creating layer conv4
I1230 12:26:53.905498 159393 net.cpp:178] Creating Layer conv4
I1230 12:26:53.905521 159393 net.cpp:612] conv4 <- pool3
I1230 12:26:53.905553 159393 net.cpp:586] conv4 -> conv4
I1230 12:26:53.945587 159393 net.cpp:228] Setting up conv4
I1230 12:26:53.945680 159393 net.cpp:235] Top shape: 4 128 25 25 (320000)
I1230 12:26:53.945721 159393 net.cpp:243] Memory required for data: 273880544
I1230 12:26:53.945785 159393 layer_factory.hpp:114] Creating layer relu4
I1230 12:26:53.945870 159393 net.cpp:178] Creating Layer relu4
I1230 12:26:53.945896 159393 net.cpp:612] relu4 <- conv4
I1230 12:26:53.945931 159393 net.cpp:573] relu4 -> conv4 (in-place)
I1230 12:26:53.946008 159393 net.cpp:228] Setting up relu4
I1230 12:26:53.946125 159393 net.cpp:235] Top shape: 4 128 25 25 (320000)
I1230 12:26:53.946154 159393 net.cpp:243] Memory required for data: 275160544
I1230 12:26:53.946177 159393 layer_factory.hpp:114] Creating layer dropout4
I1230 12:26:53.946215 159393 net.cpp:178] Creating Layer dropout4
I1230 12:26:53.946235 159393 net.cpp:612] dropout4 <- conv4
I1230 12:26:53.946274 159393 net.cpp:586] dropout4 -> drop4
I1230 12:26:53.946316 159393 net.cpp:228] Setting up dropout4
I1230 12:26:53.946429 159393 net.cpp:235] Top shape: 4 128 25 25 (320000)
I1230 12:26:53.946456 159393 net.cpp:243] Memory required for data: 276440544
I1230 12:26:53.946477 159393 layer_factory.hpp:114] Creating layer pool4
I1230 12:26:53.946519 159393 net.cpp:178] Creating Layer pool4
I1230 12:26:53.946542 159393 net.cpp:612] pool4 <- drop4
I1230 12:26:53.946573 159393 net.cpp:586] pool4 -> pool4
I1230 12:26:53.946660 159393 net.cpp:228] Setting up pool4
I1230 12:26:53.946779 159393 net.cpp:235] Top shape: 4 128 13 13 (86528)
I1230 12:26:53.946807 159393 net.cpp:243] Memory required for data: 276786656
I1230 12:26:53.946831 159393 layer_factory.hpp:114] Creating layer fc1
I1230 12:26:53.946895 159393 net.cpp:178] Creating Layer fc1
I1230 12:26:53.946918 159393 net.cpp:612] fc1 <- pool4
I1230 12:26:53.946964 159393 net.cpp:586] fc1 -> fc1
I1230 12:26:54.348881 159318 hdf5.cpp:69] Datatype class: H5T_FLOAT
I1230 12:26:55.095739 159393 net.cpp:228] Setting up fc1
I1230 12:26:55.095860 159393 net.cpp:235] Top shape: 4 1024 (4096)
I1230 12:26:55.095901 159393 net.cpp:243] Memory required for data: 276803040
I1230 12:26:55.095969 159393 layer_factory.hpp:114] Creating layer relu5
I1230 12:26:55.096036 159393 net.cpp:178] Creating Layer relu5
I1230 12:26:55.096060 159393 net.cpp:612] relu5 <- fc1
I1230 12:26:55.096093 159393 net.cpp:573] relu5 -> fc1 (in-place)
I1230 12:26:55.096179 159393 net.cpp:228] Setting up relu5
I1230 12:26:55.096285 159393 net.cpp:235] Top shape: 4 1024 (4096)
I1230 12:26:55.096313 159393 net.cpp:243] Memory required for data: 276819424
I1230 12:26:55.096336 159393 layer_factory.hpp:114] Creating layer dropout5
I1230 12:26:55.096367 159393 net.cpp:178] Creating Layer dropout5
I1230 12:26:55.096388 159393 net.cpp:612] dropout5 <- fc1
I1230 12:26:55.096417 159393 net.cpp:586] dropout5 -> drop5
I1230 12:26:55.096457 159393 net.cpp:228] Setting up dropout5
I1230 12:26:55.096477 159393 net.cpp:235] Top shape: 4 1024 (4096)
I1230 12:26:55.096544 159393 net.cpp:243] Memory required for data: 276835808
I1230 12:26:55.096570 159393 layer_factory.hpp:114] Creating layer fc2
I1230 12:26:55.096617 159393 net.cpp:178] Creating Layer fc2
I1230 12:26:55.096638 159393 net.cpp:612] fc2 <- drop5
I1230 12:26:55.096669 159393 net.cpp:586] fc2 -> fc2
I1230 12:26:55.096884 159393 net.cpp:228] Setting up fc2
I1230 12:26:55.096999 159393 net.cpp:235] Top shape: 4 2 (8)
I1230 12:26:55.097033 159393 net.cpp:243] Memory required for data: 276835840
I1230 12:26:55.097077 159393 layer_factory.hpp:114] Creating layer fc2_fc2_0_split
I1230 12:26:55.097133 159393 net.cpp:178] Creating Layer fc2_fc2_0_split
I1230 12:26:55.097154 159393 net.cpp:612] fc2_fc2_0_split <- fc2
I1230 12:26:55.097182 159393 net.cpp:586] fc2_fc2_0_split -> fc2_fc2_0_split_0
I1230 12:26:55.097218 159393 net.cpp:586] fc2_fc2_0_split -> fc2_fc2_0_split_1
I1230 12:26:55.097283 159393 net.cpp:228] Setting up fc2_fc2_0_split
I1230 12:26:55.097304 159393 net.cpp:235] Top shape: 4 2 (8)
I1230 12:26:55.097329 159393 net.cpp:235] Top shape: 4 2 (8)
I1230 12:26:55.097353 159393 net.cpp:243] Memory required for data: 276835904
I1230 12:26:55.097374 159393 layer_factory.hpp:114] Creating layer loss
I1230 12:26:55.097416 159393 net.cpp:178] Creating Layer loss
I1230 12:26:55.097437 159393 net.cpp:612] loss <- fc2_fc2_0_split_0
I1230 12:26:55.097460 159393 net.cpp:612] loss <- label_data_1_split_0
I1230 12:26:55.097494 159393 net.cpp:586] loss -> (automatic)
…
I1230 12:26:55.920827 161666 net.cpp:500] The NetState phase (0) differed from the phase (1) specified by a rule in layer loss
I1230 12:26:55.921246 161666 net.cpp:136] Initializing net from parameters: 
name: "HEP_CLASSIFIER"
state {
  phase: TRAIN
  level: 0
  stage: ""
}
engine: "MKL2017"
layer {
  name: "data"
  type: "HDF5Data"
  top: "data"
  top: "label"
  include {
    phase: TRAIN
  }
  hdf5_data_param {
    source: "/project/projectdirs/dasrepo/zjian/Climate-scripts/split_prototxt/2_nodes_hdf5_config_1/train-val/train_chunk1.txt"
    batch_size: 4
    shuffle: true
  }
}
layer {
  name: "label_data_1_split"
  type: "Split"
  bottom: "label"
  top: "label_data_1_split_0"
  top: "label_data_1_split_1"
}
layer {
  name: "tile1"
  type: "Tile"
  bottom: "data"
  top: "tile1"
  tile_param {
    axis: 1
    tiles: 2
  }
}
layer {
  name: "conv1"
  type: "Convolution"
  bottom: "tile1"
  top: "conv1"
  convolution_param {
    num_output: 64
    pad: 0
    kernel_size: 3
    stride: 1
    weight_filler {
      type: "msra"
    }
    bias_filler {
      type: "constant"
      value: 0
    }
  }
}
layer {
  name: "relu1"
  type: "ReLU"
  bottom: "conv1"
  top: "conv1"
  relu_param {
    negative_slope: 0.1
  }
}
layer {
  name: "dropout1"
  type: "Dropout"
  bottom: "conv1"
  top: "drop1"
}
layer {
  name: "pool1"
  type: "Pooling"
  bottom: "drop1"
  top: "pool1"
  pooling_param {
    pool: MAX
    kernel_size: 2
    stride: 2
  }
}
layer {
  name: "conv2"
  type: "Convolution"
  bottom: "pool1"
  top: "conv2"
  convolution_param {
    num_output: 128
    pad: 0
    kernel_size: 3
    stride: 1
    weight_filler {
      type: "msra"
    }
    bias_filler {
      type: "constant"
      value: 0
    }
  }
}
layer {
  name: "relu2"
  type: "ReLU"
  bottom: "conv2"
  top: "conv2"
  relu_param {
    negative_slope: 0.1
  }
}
layer {
  name: "dropout2"
  type: "Dropout"
  bottom: "conv2"
  top: "drop2"
}
layer {
  name: "pool2"
  type: "Pooling"
  bottom: "drop2"
  top: "pool2"
  pooling_param {
    pool: MAX
    kernel_size: 2
    stride: 2
  }
}
layer {
  name: "conv3"
  type: "Convolution"
  bottom: "pool2"
  top: "conv3"
  convolution_param {
    num_output: 128
    pad: 0
    kernel_size: 3
    stride: 1
    weight_filler {
      type: "msra"
    }
    bias_filler {
      type: "constant"
      value: 0
    }
  }
}
layer {
  name: "relu3"
  type: "ReLU"
  bottom: "conv3"
  top: "conv3"
  relu_param {
    negative_slope: 0.1
  }
}
layer {
  name: "dropout3"
  type: "Dropout"
  bottom: "conv3"
  top: "drop3"
}
layer {
  name: "pool3"
  type: "Pooling"
  bottom: "drop3"
  top: "pool3"
  pooling_param {
    pool: MAX
    kernel_size: 2
    stride: 2
  }
}
layer {
  name: "conv4"
  type: "Convolution"
  bottom: "pool3"
  top: "conv4"
  convolution_param {
    num_output: 128
    pad: 0
    kernel_size: 3
    stride: 1
    weight_filler {
      type: "msra"
    }
    bias_filler {
      type: "constant"
      value: 0
    }
  }
}
layer {
  name: "relu4"
  type: "ReLU"
  bottom: "conv4"
  top: "conv4"
  relu_param {
    negative_slope: 0.1
  }
}
layer {
  name: "dropout4"
  type: "Dropout"
  bottom: "conv4"
  top: "drop4"
}
layer {
  name: "pool4"
  type: "Pooling"
  bottom: "drop4"
  top: "pool4"
  pooling_param {
    pool: MAX
    kernel_size: 2
    stride: 2
  }
}
layer {
  name: "fc1"
  type: "InnerProduct"
  bottom: "pool4"
  top: "fc1"
  inner_product_param {
    num_output: 1024
    weight_filler {
      type: "msra"
    }
    bias_filler {
      type: "constant"
      value: 0
    }
  }
}
layer {
  name: "relu5"
  type: "ReLU"
  bottom: "fc1"
  top: "fc1"
  relu_param {
    negative_slope: 0.1
  }
}
layer {
  name: "dropout5"
  type: "Dropout"
  bottom: "fc1"
  top: "drop5"
}
layer {
  name: "fc2"
  type: "InnerProduct"
  bottom: "drop5"
  top: "fc2"
  inner_product_param {
    num_output: 2
    weight_filler {
      type: "msra"
    }
    bias_filler {
      type: "constant"
      value: 0
    }
  }
}
layer {
  name: "fc2_fc2_0_split"
  type: "Split"
  bottom: "fc2"
  top: "fc2_fc2_0_split_0"
  top: "fc2_fc2_0_split_1"
}
layer {
  name: "loss"
  type: "SoftmaxWithLoss"
  bottom: "fc2_fc2_0_split_0"
  bottom: "label_data_1_split_0"
  loss_weight: 1
}
layer {
  name: "accuracy"
  type: "Accuracy"
  bottom: "fc2_fc2_0_split_1"
  bottom: "label_data_1_split_1"
  top: "accuracy_train"
  include {
    phase: TRAIN
  }
}
I1230 12:26:55.921979 161666 layer_factory.hpp:114] Creating layer data
I1230 12:26:55.922030 161666 net.cpp:178] Creating Layer data
I1230 12:26:55.922060 161666 net.cpp:586] data -> data
I1230 12:26:55.922124 161666 net.cpp:586] data -> label
I1230 12:26:55.922174 161666 hdf5_data_layer.cpp:116] Loading list of HDF5 filenames from: /project/projectdirs/dasrepo/zjian/Climate-scripts/split_prototxt/2_nodes_hdf5_config_1/train-val/train_chunk1.txt
I1230 12:26:55.947827 161666 hdf5_data_layer.cpp:130] Number of HDF5 files: 4650
I1230 12:26:56.747086 161666 hdf5.cpp:69] Datatype class: H5T_FLOAT
I1230 12:26:56.868141 159318 hdf5.cpp:72] Datatype class: H5T_INTEGER
I1230 12:26:56.869797 159318 net.cpp:228] Setting up data
I1230 12:26:56.869881 159318 net.cpp:235] Top shape: 4 1 227 227 (206116)
I1230 12:26:56.869930 159318 net.cpp:235] Top shape: 4 (4)
I1230 12:26:56.869956 159318 net.cpp:243] Memory required for data: 824480
I1230 12:26:56.869992 159318 layer_factory.hpp:114] Creating layer label_data_1_split
I1230 12:26:56.870077 159318 net.cpp:178] Creating Layer label_data_1_split
I1230 12:26:56.870100 159318 net.cpp:612] label_data_1_split <- label
I1230 12:26:56.870146 159318 net.cpp:586] label_data_1_split -> label_data_1_split_0
I1230 12:26:56.870190 159318 net.cpp:586] label_data_1_split -> label_data_1_split_1
I1230 12:26:56.893600 159318 net.cpp:228] Setting up label_data_1_split
I1230 12:26:56.893689 159318 net.cpp:235] Top shape: 4 (4)
I1230 12:26:56.893769 159318 net.cpp:235] Top shape: 4 (4)
I1230 12:26:56.893796 159318 net.cpp:243] Memory required for data: 824512
I1230 12:26:56.893831 159318 layer_factory.hpp:114] Creating layer tile1
I1230 12:26:56.893880 159318 net.cpp:178] Creating Layer tile1
I1230 12:26:56.893901 159318 net.cpp:612] tile1 <- data
I1230 12:26:56.893947 159318 net.cpp:586] tile1 -> tile1
I1230 12:26:56.894026 159318 net.cpp:228] Setting up tile1
I1230 12:26:56.894047 159318 net.cpp:235] Top shape: 4 2 227 227 (412232)
I1230 12:26:56.894073 159318 net.cpp:243] Memory required for data: 2473440
I1230 12:26:56.894094 159318 layer_factory.hpp:114] Creating layer conv1
I1230 12:26:56.894197 159318 net.cpp:178] Creating Layer conv1
I1230 12:26:56.894232 159318 net.cpp:612] conv1 <- tile1
I1230 12:26:56.894263 159318 net.cpp:586] conv1 -> conv1
I1230 12:26:56.937160 161666 hdf5.cpp:72] Datatype class: H5T_INTEGER
I1230 12:26:56.939105 161666 net.cpp:228] Setting up data
I1230 12:26:56.939193 161666 net.cpp:235] Top shape: 4 1 227 227 (206116)
I1230 12:26:56.939261 161666 net.cpp:235] Top shape: 4 (4)
I1230 12:26:56.939292 161666 net.cpp:243] Memory required for data: 824480
I1230 12:26:56.939328 161666 layer_factory.hpp:114] Creating layer label_data_1_split
I1230 12:26:56.939404 161666 net.cpp:178] Creating Layer label_data_1_split
I1230 12:26:56.939702 161666 net.cpp:612] label_data_1_split <- label
I1230 12:26:56.939781 161666 net.cpp:586] label_data_1_split -> label_data_1_split_0
I1230 12:26:56.939828 161666 net.cpp:586] label_data_1_split -> label_data_1_split_1
I1230 12:26:56.961053 161666 net.cpp:228] Setting up label_data_1_split
I1230 12:26:56.961143 161666 net.cpp:235] Top shape: 4 (4)
I1230 12:26:56.961182 161666 net.cpp:235] Top shape: 4 (4)
I1230 12:26:56.961207 161666 net.cpp:243] Memory required for data: 824512
I1230 12:26:56.961244 161666 layer_factory.hpp:114] Creating layer tile1
I1230 12:26:56.961305 161666 net.cpp:178] Creating Layer tile1
I1230 12:26:56.961328 161666 net.cpp:612] tile1 <- data
I1230 12:26:56.961611 161666 net.cpp:586] tile1 -> tile1
I1230 12:26:56.961787 161666 net.cpp:228] Setting up tile1
I1230 12:26:56.961812 161666 net.cpp:235] Top shape: 4 2 227 227 (412232)
I1230 12:26:56.961902 161666 net.cpp:243] Memory required for data: 2473440
I1230 12:26:56.961928 161666 layer_factory.hpp:114] Creating layer conv1
I1230 12:26:56.962128 161666 net.cpp:178] Creating Layer conv1
I1230 12:26:56.962152 161666 net.cpp:612] conv1 <- tile1
I1230 12:26:56.962247 161666 net.cpp:586] conv1 -> conv1
I1230 12:26:57.003176 159318 net.cpp:228] Setting up conv1
I1230 12:26:57.003293 159318 net.cpp:235] Top shape: 4 64 225 225 (12960000)
I1230 12:26:57.003348 159318 net.cpp:243] Memory required for data: 54313440
I1230 12:26:57.003443 159318 layer_factory.hpp:114] Creating layer relu1
I1230 12:26:57.003532 159318 net.cpp:178] Creating Layer relu1
I1230 12:26:57.003556 159318 net.cpp:612] relu1 <- conv1
I1230 12:26:57.003592 159318 net.cpp:573] relu1 -> conv1 (in-place)
I1230 12:26:57.003686 159318 net.cpp:228] Setting up relu1
I1230 12:26:57.003808 159318 net.cpp:235] Top shape: 4 64 225 225 (12960000)
I1230 12:26:57.003836 159318 net.cpp:243] Memory required for data: 106153440
I1230 12:26:57.003859 159318 layer_factory.hpp:114] Creating layer dropout1
I1230 12:26:57.003901 159318 net.cpp:178] Creating Layer dropout1
I1230 12:26:57.003921 159318 net.cpp:612] dropout1 <- conv1
I1230 12:26:57.003949 159318 net.cpp:586] dropout1 -> drop1
I1230 12:26:57.003994 159318 net.cpp:228] Setting up dropout1
I1230 12:26:57.004014 159318 net.cpp:235] Top shape: 4 64 225 225 (12960000)
I1230 12:26:57.004039 159318 net.cpp:243] Memory required for data: 157993440
I1230 12:26:57.004060 159318 layer_factory.hpp:114] Creating layer pool1
I1230 12:26:57.004111 159318 net.cpp:178] Creating Layer pool1
I1230 12:26:57.004132 159318 net.cpp:612] pool1 <- drop1
I1230 12:26:57.004166 159318 net.cpp:586] pool1 -> pool1
I1230 12:26:57.004256 159318 net.cpp:228] Setting up pool1
I1230 12:26:57.004334 159318 net.cpp:235] Top shape: 4 64 113 113 (3268864)
I1230 12:26:57.004370 159318 net.cpp:243] Memory required for data: 171068896
I1230 12:26:57.004393 159318 layer_factory.hpp:114] Creating layer conv2
I1230 12:26:57.004472 159318 net.cpp:178] Creating Layer conv2
I1230 12:26:57.004497 159318 net.cpp:612] conv2 <- pool1
I1230 12:26:57.004528 159318 net.cpp:586] conv2 -> conv2
I1230 12:26:57.068176 161666 net.cpp:228] Setting up conv1
I1230 12:26:57.068289 161666 net.cpp:235] Top shape: 4 64 225 225 (12960000)
I1230 12:26:57.068331 161666 net.cpp:243] Memory required for data: 54313440
I1230 12:26:57.068426 161666 layer_factory.hpp:114] Creating layer relu1
I1230 12:26:57.068722 161666 net.cpp:178] Creating Layer relu1
I1230 12:26:57.068774 161666 net.cpp:612] relu1 <- conv1
I1230 12:26:57.068825 161666 net.cpp:573] relu1 -> conv1 (in-place)
I1230 12:26:57.068953 161666 net.cpp:228] Setting up relu1
I1230 12:26:57.068975 161666 net.cpp:235] Top shape: 4 64 225 225 (12960000)
I1230 12:26:57.069003 161666 net.cpp:243] Memory required for data: 106153440
I1230 12:26:57.069195 161666 layer_factory.hpp:114] Creating layer dropout1
I1230 12:26:57.069239 161666 net.cpp:178] Creating Layer dropout1
I1230 12:26:57.069260 161666 net.cpp:612] dropout1 <- conv1
I1230 12:26:57.069288 161666 net.cpp:586] dropout1 -> drop1
I1230 12:26:57.069334 161666 net.cpp:228] Setting up dropout1
I1230 12:26:57.069355 161666 net.cpp:235] Top shape: 4 64 225 225 (12960000)
I1230 12:26:57.069380 161666 net.cpp:243] Memory required for data: 157993440
I1230 12:26:57.069401 161666 layer_factory.hpp:114] Creating layer pool1
I1230 12:26:57.069458 161666 net.cpp:178] Creating Layer pool1
I1230 12:26:57.069478 161666 net.cpp:612] pool1 <- drop1
I1230 12:26:57.069512 161666 net.cpp:586] pool1 -> pool1
I1230 12:26:57.069613 161666 net.cpp:228] Setting up pool1
I1230 12:26:57.069649 161666 net.cpp:235] Top shape: 4 64 113 113 (3268864)
I1230 12:26:57.069756 161666 net.cpp:243] Memory required for data: 171068896
I1230 12:26:57.069779 161666 layer_factory.hpp:114] Creating layer conv2
I1230 12:26:57.069890 161666 net.cpp:178] Creating Layer conv2
I1230 12:26:57.069912 161666 net.cpp:612] conv2 <- pool1
I1230 12:26:57.069944 161666 net.cpp:586] conv2 -> conv2
I1230 12:26:57.150883 159318 net.cpp:228] Setting up conv2
I1230 12:26:57.150982 159318 net.cpp:235] Top shape: 4 128 111 111 (6308352)
I1230 12:26:57.151024 159318 net.cpp:243] Memory required for data: 196302304
I1230 12:26:57.151098 159318 layer_factory.hpp:114] Creating layer relu2
I1230 12:26:57.151183 159318 net.cpp:178] Creating Layer relu2
I1230 12:26:57.151207 159318 net.cpp:612] relu2 <- conv2
I1230 12:26:57.151253 159318 net.cpp:573] relu2 -> conv2 (in-place)
I1230 12:26:57.151340 159318 net.cpp:228] Setting up relu2
I1230 12:26:57.151456 159318 net.cpp:235] Top shape: 4 128 111 111 (6308352)
I1230 12:26:57.151485 159318 net.cpp:243] Memory required for data: 221535712
I1230 12:26:57.151509 159318 layer_factory.hpp:114] Creating layer dropout2
I1230 12:26:57.151538 159318 net.cpp:178] Creating Layer dropout2
I1230 12:26:57.151557 159318 net.cpp:612] dropout2 <- conv2
I1230 12:26:57.151594 159318 net.cpp:586] dropout2 -> drop2
I1230 12:26:57.151633 159318 net.cpp:228] Setting up dropout2
I1230 12:26:57.151653 159318 net.cpp:235] Top shape: 4 128 111 111 (6308352)
I1230 12:26:57.151679 159318 net.cpp:243] Memory required for data: 246769120
I1230 12:26:57.151700 159318 layer_factory.hpp:114] Creating layer pool2
I1230 12:26:57.151746 159318 net.cpp:178] Creating Layer pool2
I1230 12:26:57.151767 159318 net.cpp:612] pool2 <- drop2
I1230 12:26:57.151798 159318 net.cpp:586] pool2 -> pool2
I1230 12:26:57.151871 159318 net.cpp:228] Setting up pool2
I1230 12:26:57.151976 159318 net.cpp:235] Top shape: 4 128 56 56 (1605632)
I1230 12:26:57.152005 159318 net.cpp:243] Memory required for data: 253191648
I1230 12:26:57.152027 159318 layer_factory.hpp:114] Creating layer conv3
I1230 12:26:57.152101 159318 net.cpp:178] Creating Layer conv3
I1230 12:26:57.152127 159318 net.cpp:612] conv3 <- pool2
I1230 12:26:57.152158 159318 net.cpp:586] conv3 -> conv3
I1230 12:26:57.223052 161666 net.cpp:228] Setting up conv2
I1230 12:26:57.223158 161666 net.cpp:235] Top shape: 4 128 111 111 (6308352)
I1230 12:26:57.223208 161666 net.cpp:243] Memory required for data: 196302304
I1230 12:26:57.223287 161666 layer_factory.hpp:114] Creating layer relu2
I1230 12:26:57.223613 161666 net.cpp:178] Creating Layer relu2
I1230 12:26:57.223687 161666 net.cpp:612] relu2 <- conv2
I1230 12:26:57.223734 161666 net.cpp:573] relu2 -> conv2 (in-place)
I1230 12:26:57.223968 161666 net.cpp:228] Setting up relu2
I1230 12:26:57.224071 161666 net.cpp:235] Top shape: 4 128 111 111 (6308352)
I1230 12:26:57.224227 161666 net.cpp:243] Memory required for data: 221535712
I1230 12:26:57.224705 161666 layer_factory.hpp:114] Creating layer dropout2
I1230 12:26:57.224925 161666 net.cpp:178] Creating Layer dropout2
I1230 12:26:57.225024 161666 net.cpp:612] dropout2 <- conv2
I1230 12:26:57.225064 161666 net.cpp:586] dropout2 -> drop2
I1230 12:26:57.225118 161666 net.cpp:228] Setting up dropout2
I1230 12:26:57.225251 161666 net.cpp:235] Top shape: 4 128 111 111 (6308352)
I1230 12:26:57.225343 161666 net.cpp:243] Memory required for data: 246769120
I1230 12:26:57.225373 161666 layer_factory.hpp:114] Creating layer pool2
I1230 12:26:57.225603 161666 net.cpp:178] Creating Layer pool2
I1230 12:26:57.225785 161666 net.cpp:612] pool2 <- drop2
I1230 12:26:57.226068 161666 net.cpp:586] pool2 -> pool2
I1230 12:26:57.226490 161666 net.cpp:228] Setting up pool2
I1230 12:26:57.226686 161666 net.cpp:235] Top shape: 4 128 56 56 (1605632)
I1230 12:26:57.226732 161666 net.cpp:243] Memory required for data: 253191648
I1230 12:26:57.226884 161666 layer_factory.hpp:114] Creating layer conv3
I1230 12:26:57.227219 161666 net.cpp:178] Creating Layer conv3
I1230 12:26:57.227437 161666 net.cpp:612] conv3 <- pool2
I1230 12:26:57.227584 161666 net.cpp:586] conv3 -> conv3
I1230 12:26:57.231595 159318 net.cpp:228] Setting up conv3
I1230 12:26:57.231690 159318 net.cpp:235] Top shape: 4 128 54 54 (1492992)
I1230 12:26:57.231732 159318 net.cpp:243] Memory required for data: 259163616
I1230 12:26:57.231806 159318 layer_factory.hpp:114] Creating layer relu3
I1230 12:26:57.231896 159318 net.cpp:178] Creating Layer relu3
I1230 12:26:57.232070 159318 net.cpp:612] relu3 <- conv3
I1230 12:26:57.232106 159318 net.cpp:573] relu3 -> conv3 (in-place)
I1230 12:26:57.232189 159318 net.cpp:228] Setting up relu3
I1230 12:26:57.232301 159318 net.cpp:235] Top shape: 4 128 54 54 (1492992)
I1230 12:26:57.232329 159318 net.cpp:243] Memory required for data: 265135584
I1230 12:26:57.232352 159318 layer_factory.hpp:114] Creating layer dropout3
I1230 12:26:57.232390 159318 net.cpp:178] Creating Layer dropout3
I1230 12:26:57.232414 159318 net.cpp:612] dropout3 <- conv3
I1230 12:26:57.232445 159318 net.cpp:586] dropout3 -> drop3
I1230 12:26:57.232494 159318 net.cpp:228] Setting up dropout3
I1230 12:26:57.232514 159318 net.cpp:235] Top shape: 4 128 54 54 (1492992)
I1230 12:26:57.232542 159318 net.cpp:243] Memory required for data: 271107552
I1230 12:26:57.232563 159318 layer_factory.hpp:114] Creating layer pool3
I1230 12:26:57.232604 159318 net.cpp:178] Creating Layer pool3
I1230 12:26:57.232623 159318 net.cpp:612] pool3 <- drop3
I1230 12:26:57.232669 159318 net.cpp:586] pool3 -> pool3
I1230 12:26:57.232740 159318 net.cpp:228] Setting up pool3
I1230 12:26:57.232879 159318 net.cpp:235] Top shape: 4 128 27 27 (373248)
I1230 12:26:57.232908 159318 net.cpp:243] Memory required for data: 272600544
I1230 12:26:57.232929 159318 layer_factory.hpp:114] Creating layer conv4
I1230 12:26:57.233002 159318 net.cpp:178] Creating Layer conv4
I1230 12:26:57.233027 159318 net.cpp:612] conv4 <- pool3
I1230 12:26:57.233078 159318 net.cpp:586] conv4 -> conv4
I1230 12:26:57.273699 159318 net.cpp:228] Setting up conv4
I1230 12:26:57.273813 159318 net.cpp:235] Top shape: 4 128 25 25 (320000)
I1230 12:26:57.273854 159318 net.cpp:243] Memory required for data: 273880544
I1230 12:26:57.273918 159318 layer_factory.hpp:114] Creating layer relu4
I1230 12:26:57.274005 159318 net.cpp:178] Creating Layer relu4
I1230 12:26:57.274032 159318 net.cpp:612] relu4 <- conv4
I1230 12:26:57.274068 159318 net.cpp:573] relu4 -> conv4 (in-place)
I1230 12:26:57.274144 159318 net.cpp:228] Setting up relu4
I1230 12:26:57.274258 159318 net.cpp:235] Top shape: 4 128 25 25 (320000)
I1230 12:26:57.274286 159318 net.cpp:243] Memory required for data: 275160544
I1230 12:26:57.274309 159318 layer_factory.hpp:114] Creating layer dropout4
I1230 12:26:57.274348 159318 net.cpp:178] Creating Layer dropout4
I1230 12:26:57.274369 159318 net.cpp:612] dropout4 <- conv4
I1230 12:26:57.274405 159318 net.cpp:586] dropout4 -> drop4
I1230 12:26:57.274447 159318 net.cpp:228] Setting up dropout4
I1230 12:26:57.274467 159318 net.cpp:235] Top shape: 4 128 25 25 (320000)
I1230 12:26:57.274493 159318 net.cpp:243] Memory required for data: 276440544
I1230 12:26:57.274514 159318 layer_factory.hpp:114] Creating layer pool4
I1230 12:26:57.274555 159318 net.cpp:178] Creating Layer pool4
I1230 12:26:57.274574 159318 net.cpp:612] pool4 <- drop4
I1230 12:26:57.274610 159318 net.cpp:586] pool4 -> pool4
I1230 12:26:57.274682 159318 net.cpp:228] Setting up pool4
I1230 12:26:57.274776 159318 net.cpp:235] Top shape: 4 128 13 13 (86528)
I1230 12:26:57.274803 159318 net.cpp:243] Memory required for data: 276786656
I1230 12:26:57.274824 159318 layer_factory.hpp:114] Creating layer fc1
I1230 12:26:57.274902 159318 net.cpp:178] Creating Layer fc1
I1230 12:26:57.274925 159318 net.cpp:612] fc1 <- pool4
I1230 12:26:57.274957 159318 net.cpp:586] fc1 -> fc1
I1230 12:26:57.313747 161666 net.cpp:228] Setting up conv3
I1230 12:26:57.313844 161666 net.cpp:235] Top shape: 4 128 54 54 (1492992)
I1230 12:26:57.313891 161666 net.cpp:243] Memory required for data: 259163616
I1230 12:26:57.313969 161666 layer_factory.hpp:114] Creating layer relu3
I1230 12:26:57.314302 161666 net.cpp:178] Creating Layer relu3
I1230 12:26:57.314422 161666 net.cpp:612] relu3 <- conv3
I1230 12:26:57.314533 161666 net.cpp:573] relu3 -> conv3 (in-place)
I1230 12:26:57.314741 161666 net.cpp:228] Setting up relu3
I1230 12:26:57.314878 161666 net.cpp:235] Top shape: 4 128 54 54 (1492992)
I1230 12:26:57.314942 161666 net.cpp:243] Memory required for data: 265135584
I1230 12:26:57.314977 161666 layer_factory.hpp:114] Creating layer dropout3
I1230 12:26:57.315017 161666 net.cpp:178] Creating Layer dropout3
I1230 12:26:57.315269 161666 net.cpp:612] dropout3 <- conv3
I1230 12:26:57.315495 161666 net.cpp:586] dropout3 -> drop3
I1230 12:26:57.315559 161666 net.cpp:228] Setting up dropout3
I1230 12:26:57.315601 161666 net.cpp:235] Top shape: 4 128 54 54 (1492992)
I1230 12:26:57.315899 161666 net.cpp:243] Memory required for data: 271107552
I1230 12:26:57.315932 161666 layer_factory.hpp:114] Creating layer pool3
I1230 12:26:57.315990 161666 net.cpp:178] Creating Layer pool3
I1230 12:26:57.316056 161666 net.cpp:612] pool3 <- drop3
I1230 12:26:57.316092 161666 net.cpp:586] pool3 -> pool3
I1230 12:26:57.316301 161666 net.cpp:228] Setting up pool3
I1230 12:26:57.316350 161666 net.cpp:235] Top shape: 4 128 27 27 (373248)
I1230 12:26:57.316382 161666 net.cpp:243] Memory required for data: 272600544
I1230 12:26:57.316409 161666 layer_factory.hpp:114] Creating layer conv4
I1230 12:26:57.316660 161666 net.cpp:178] Creating Layer conv4
I1230 12:26:57.316812 161666 net.cpp:612] conv4 <- pool3
I1230 12:26:57.316896 161666 net.cpp:586] conv4 -> conv4
I1230 12:26:57.359966 161666 net.cpp:228] Setting up conv4
I1230 12:26:57.360060 161666 net.cpp:235] Top shape: 4 128 25 25 (320000)
I1230 12:26:57.360105 161666 net.cpp:243] Memory required for data: 273880544
I1230 12:26:57.360170 161666 layer_factory.hpp:114] Creating layer relu4
I1230 12:26:57.360260 161666 net.cpp:178] Creating Layer relu4
I1230 12:26:57.360287 161666 net.cpp:612] relu4 <- conv4
I1230 12:26:57.360597 161666 net.cpp:573] relu4 -> conv4 (in-place)
I1230 12:26:57.360872 161666 net.cpp:228] Setting up relu4
I1230 12:26:57.360957 161666 net.cpp:235] Top shape: 4 128 25 25 (320000)
I1230 12:26:57.361064 161666 net.cpp:243] Memory required for data: 275160544
I1230 12:26:57.361099 161666 layer_factory.hpp:114] Creating layer dropout4
I1230 12:26:57.361137 161666 net.cpp:178] Creating Layer dropout4
I1230 12:26:57.361187 161666 net.cpp:612] dropout4 <- conv4
I1230 12:26:57.361237 161666 net.cpp:586] dropout4 -> drop4
I1230 12:26:57.361552 161666 net.cpp:228] Setting up dropout4
I1230 12:26:57.361613 161666 net.cpp:235] Top shape: 4 128 25 25 (320000)
I1230 12:26:57.361647 161666 net.cpp:243] Memory required for data: 276440544
I1230 12:26:57.361675 161666 layer_factory.hpp:114] Creating layer pool4
I1230 12:26:57.361730 161666 net.cpp:178] Creating Layer pool4
I1230 12:26:57.361752 161666 net.cpp:612] pool4 <- drop4
I1230 12:26:57.361783 161666 net.cpp:586] pool4 -> pool4
I1230 12:26:57.362046 161666 net.cpp:228] Setting up pool4
I1230 12:26:57.362231 161666 net.cpp:235] Top shape: 4 128 13 13 (86528)
I1230 12:26:57.362293 161666 net.cpp:243] Memory required for data: 276786656
I1230 12:26:57.362414 161666 layer_factory.hpp:114] Creating layer fc1
I1230 12:26:57.362617 161666 net.cpp:178] Creating Layer fc1
I1230 12:26:57.362661 161666 net.cpp:612] fc1 <- pool4
I1230 12:26:57.362803 161666 net.cpp:586] fc1 -> fc1
I1230 12:26:58.424044 159318 net.cpp:228] Setting up fc1
I1230 12:26:58.424140 159318 net.cpp:235] Top shape: 4 1024 (4096)
I1230 12:26:58.424178 159318 net.cpp:243] Memory required for data: 276803040
I1230 12:26:58.424244 159318 layer_factory.hpp:114] Creating layer relu5
I1230 12:26:58.424309 159318 net.cpp:178] Creating Layer relu5
I1230 12:26:58.424332 159318 net.cpp:612] relu5 <- fc1
I1230 12:26:58.424365 159318 net.cpp:573] relu5 -> fc1 (in-place)
I1230 12:26:58.424445 159318 net.cpp:228] Setting up relu5
I1230 12:26:58.424466 159318 net.cpp:235] Top shape: 4 1024 (4096)
I1230 12:26:58.424492 159318 net.cpp:243] Memory required for data: 276819424
I1230 12:26:58.424513 159318 layer_factory.hpp:114] Creating layer dropout5
I1230 12:26:58.424695 159318 net.cpp:178] Creating Layer dropout5
I1230 12:26:58.424715 159318 net.cpp:612] dropout5 <- fc1
I1230 12:26:58.424742 159318 net.cpp:586] dropout5 -> drop5
I1230 12:26:58.424780 159318 net.cpp:228] Setting up dropout5
I1230 12:26:58.424799 159318 net.cpp:235] Top shape: 4 1024 (4096)
I1230 12:26:58.424824 159318 net.cpp:243] Memory required for data: 276835808
I1230 12:26:58.424845 159318 layer_factory.hpp:114] Creating layer fc2
I1230 12:26:58.424890 159318 net.cpp:178] Creating Layer fc2
I1230 12:26:58.424909 159318 net.cpp:612] fc2 <- drop5
I1230 12:26:58.424950 159318 net.cpp:586] fc2 -> fc2
I1230 12:26:58.425148 159318 net.cpp:228] Setting up fc2
I1230 12:26:58.425196 159318 net.cpp:235] Top shape: 4 2 (8)
I1230 12:26:58.425225 159318 net.cpp:243] Memory required for data: 276835840
I1230 12:26:58.425274 159318 layer_factory.hpp:114] Creating layer fc2_fc2_0_split
I1230 12:26:58.425317 159318 net.cpp:178] Creating Layer fc2_fc2_0_split
I1230 12:26:58.425338 159318 net.cpp:612] fc2_fc2_0_split <- fc2
I1230 12:26:58.425365 159318 net.cpp:586] fc2_fc2_0_split -> fc2_fc2_0_split_0
I1230 12:26:58.425407 159318 net.cpp:586] fc2_fc2_0_split -> fc2_fc2_0_split_1
I1230 12:26:58.425475 159318 net.cpp:228] Setting up fc2_fc2_0_split
I1230 12:26:58.425495 159318 net.cpp:235] Top shape: 4 2 (8)
I1230 12:26:58.425520 159318 net.cpp:235] Top shape: 4 2 (8)
I1230 12:26:58.425544 159318 net.cpp:243] Memory required for data: 276835904
I1230 12:26:58.425566 159318 layer_factory.hpp:114] Creating layer loss
I1230 12:26:58.425613 159318 net.cpp:178] Creating Layer loss
I1230 12:26:58.425633 159318 net.cpp:612] loss <- fc2_fc2_0_split_0
I1230 12:26:58.425655 159318 net.cpp:612] loss <- label_data_1_split_0
I1230 12:26:58.425689 159318 net.cpp:586] loss -> (automatic)
…
I1230 12:26:58.426872 159318 net.cpp:307] label_data_1_split does not need backward computation.
I1230 12:26:58.426894 159318 net.cpp:307] data does not need backward computation.
I1230 12:26:58.426913 159318 net.cpp:349] This network produces output accuracy_train
I1230 12:26:58.426966 159318 net.cpp:363] Network initialization done.
I1230 12:26:58.427243 159318 solver.cpp:107] Solver scaffolding done.
I1230 12:26:58.427363 159318 caffe.cpp:376] Configuring multinode setup
I1230 12:26:58.428350 159318 caffe.cpp:392] Starting Multi-node Optimization in mpi environment
I1230 12:26:58.523996 161666 net.cpp:228] Setting up fc1
I1230 12:26:58.524091 161666 net.cpp:235] Top shape: 4 1024 (4096)
I1230 12:26:58.524132 161666 net.cpp:243] Memory required for data: 276803040
I1230 12:26:58.524200 161666 layer_factory.hpp:114] Creating layer relu5
I1230 12:26:58.524267 161666 net.cpp:178] Creating Layer relu5
I1230 12:26:58.524291 161666 net.cpp:612] relu5 <- fc1
I1230 12:26:58.524551 161666 net.cpp:573] relu5 -> fc1 (in-place)
I1230 12:26:58.524677 161666 net.cpp:228] Setting up relu5
I1230 12:26:58.524816 161666 net.cpp:235] Top shape: 4 1024 (4096)
I1230 12:26:58.524855 161666 net.cpp:243] Memory required for data: 276819424
I1230 12:26:58.524914 161666 layer_factory.hpp:114] Creating layer dropout5
I1230 12:26:58.525068 161666 net.cpp:178] Creating Layer dropout5
I1230 12:26:58.525102 161666 net.cpp:612] dropout5 <- fc1
I1230 12:26:58.525161 161666 net.cpp:586] dropout5 -> drop5
I1230 12:26:58.525213 161666 net.cpp:228] Setting up dropout5
I1230 12:26:58.525235 161666 net.cpp:235] Top shape: 4 1024 (4096)
I1230 12:26:58.525429 161666 net.cpp:243] Memory required for data: 276835808
I1230 12:26:58.525549 161666 layer_factory.hpp:114] Creating layer fc2
I1230 12:26:58.525635 161666 net.cpp:178] Creating Layer fc2
I1230 12:26:58.525658 161666 net.cpp:612] fc2 <- drop5
I1230 12:26:58.525746 161666 net.cpp:586] fc2 -> fc2
I1230 12:26:58.526147 161666 net.cpp:228] Setting up fc2
I1230 12:26:58.526417 161666 net.cpp:235] Top shape: 4 2 (8)
I1230 12:26:58.526535 161666 net.cpp:243] Memory required for data: 276835840
I1230 12:26:58.526677 161666 layer_factory.hpp:114] Creating layer fc2_fc2_0_split
I1230 12:26:58.526751 161666 net.cpp:178] Creating Layer fc2_fc2_0_split
I1230 12:26:58.526793 161666 net.cpp:612] fc2_fc2_0_split <- fc2
I1230 12:26:58.527037 161666 net.cpp:586] fc2_fc2_0_split -> fc2_fc2_0_split_0
I1230 12:26:58.527272 161666 net.cpp:586] fc2_fc2_0_split -> fc2_fc2_0_split_1
I1230 12:26:58.527536 161666 net.cpp:228] Setting up fc2_fc2_0_split
I1230 12:26:58.527582 161666 net.cpp:235] Top shape: 4 2 (8)
I1230 12:26:58.527717 161666 net.cpp:235] Top shape: 4 2 (8)
I1230 12:26:58.527842 161666 net.cpp:243] Memory required for data: 276835904
I1230 12:26:58.527878 161666 layer_factory.hpp:114] Creating layer loss
I1230 12:26:58.527928 161666 net.cpp:178] Creating Layer loss
I1230 12:26:58.527952 161666 net.cpp:612] loss <- fc2_fc2_0_split_0
I1230 12:26:58.527979 161666 net.cpp:612] loss <- label_data_1_split_0
I1230 12:26:58.528144 161666 net.cpp:586] loss -> (automatic)
…
