…
I1230 14:45:17.635601 213105 net.cpp:500] The NetState phase (0) differed from the phase (1) specified by a rule in layer loss
I1230 14:45:17.636239 213105 net.cpp:136] Initializing net from parameters: 
name: "HEP_CLASSIFIER"
state {
  phase: TRAIN
  level: 0
  stage: ""
}
engine: "MKL2017"
layer {
  name: "data"
  type: "HDF5Data"
  top: "data"
  top: "label"
  include {
    phase: TRAIN
  }
  hdf5_data_param {
    source: "/project/projectdirs/dasrepo/zjian/Climate-scripts/split_prototxt/4_nodes_hdf5_config_1/train-val/train_chunk1.txt"
    batch_size: 4
    shuffle: true
  }
}
layer {
  name: "label_data_1_split"
  type: "Split"
  bottom: "label"
  top: "label_data_1_split_0"
  top: "label_data_1_split_1"
}
layer {
  name: "tile1"
  type: "Tile"
  bottom: "data"
  top: "tile1"
  tile_param {
    axis: 1
    tiles: 2
  }
}
layer {
  name: "conv1"
  type: "Convolution"
  bottom: "tile1"
  top: "conv1"
  convolution_param {
    num_output: 64
    pad: 0
    kernel_size: 3
    stride: 1
    weight_filler {
      type: "msra"
    }
    bias_filler {
      type: "constant"
      value: 0
    }
  }
}
layer {
  name: "relu1"
  type: "ReLU"
  bottom: "conv1"
  top: "conv1"
  relu_param {
    negative_slope: 0.1
  }
}
layer {
  name: "dropout1"
  type: "Dropout"
  bottom: "conv1"
  top: "drop1"
}
layer {
  name: "pool1"
  type: "Pooling"
  bottom: "drop1"
  top: "pool1"
  pooling_param {
    pool: MAX
    kernel_size: 2
    stride: 2
  }
}
layer {
  name: "conv2"
  type: "Convolution"
  bottom: "pool1"
  top: "conv2"
  convolution_param {
    num_output: 128
    pad: 0
    kernel_size: 3
    stride: 1
    weight_filler {
      type: "msra"
    }
    bias_filler {
      type: "constant"
      value: 0
    }
  }
}
layer {
  name: "relu2"
  type: "ReLU"
  bottom: "conv2"
  top: "conv2"
  relu_param {
    negative_slope: 0.1
  }
}
layer {
  name: "dropout2"
  type: "Dropout"
  bottom: "conv2"
  top: "drop2"
}
layer {
  name: "pool2"
  type: "Pooling"
  bottom: "drop2"
  top: "pool2"
  pooling_param {
    pool: MAX
    kernel_size: 2
    stride: 2
  }
}
layer {
  name: "conv3"
  type: "Convolution"
  bottom: "pool2"
  top: "conv3"
  convolution_parI1230 14:45:17.613411 213991 cpu_info.cpp:473] Number of OpenMP threads: 66
I1230 14:45:17.613734 153603 cpu_info.cpp:473] Number of OpenMP threads: 66
am {
    num_output: 128
    pad: 0
    kernel_size: 3
    stride: 1
    weight_filler {
      type: "msra"
    }
    bias_filler {
      type: "constant"
      value: 0
    }
  }
}
layer {
  name: "relu3"
  type: "ReLU"
  bottom: "conv3"
  top: "conv3"
  relu_param {
    negative_slope: 0.1
  }
}
layer {
  name: "dropout3"
  type: "Dropout"
  bottom: "conv3"
  top: "drop3"
}
layer {
  name: "pool3"
  type: "Pooling"
  bottom: "drop3"
  top: "pool3"
  pooling_param {
    pool: MAX
    kernel_size: 2
    stride: 2
  }
}
layer {
  name: "conv4"
  type: "Convolution"
  bottom: "pool3"
  top: "conv4"
  convolution_param {
    num_output: 128
    pad: 0
    kernel_size: 3
    stride: 1
    weight_filler {
      type: "msra"
    }
    bias_filler {
      type: "constant"
      value: 0
    }
  }
}
layer {
  name: "relu4"
  type: "ReLU"
  bottom: "conv4"
  top: "conv4"
  relu_param {
    negative_slope: 0.1
  }
}
layer {
  name: "dropout4"
  type: "Dropout"
  bottom: "conv4"
  top: "drop4"
}
layer {
  name: "pool4"
I1230 14:45:17.614583 228001 cpu_info.cpp:473] Number of OpenMP threads: 66
I1230 14:45:17.637610 213991 net.cpp:500] The NetState phase (0) differed from the phase (1) specified by a rule in layer accuracy
I1230 14:45:17.637697 213991 net.cpp:500] The NetState phase (0) differed from the phase (1) specified by a rule in layer loss
I1230 14:45:17.640089 153603 net.cpp:500] The NetState phase (0) differed from the phase (1) specified by a rule in layer accuracy
I1230 14:45:17.640202 153603 net.cpp:500] The NetState phase (0) differed from the phase (1) specified by a rule in layer loss
  type: "Pooling"
  bottom: "drop4"
  top: "pool4"
  pooling_param {
    pool: MAX
    kernel_size: 2
    stride: 2
  }
}
layer {
  name: "fc1"
  type: "InnerProduct"
  bottom: "pool4"
  top: "fc1"
  inner_product_param {
    num_output: 1024
    weight_filler {
      type: "msra"
    }
    bias_filler {
      type: "constant"
      value: 0
    }
  }
}
layer {
  name: "relu5"
  type: "ReLU"
  bottom: "fc1"
  top: "fc1"
  relu_param {
    negative_slope: 0.1
  }
}
layer {
  name: "dropout5"
  type: "Dropout"
  bottom: "fc1"
  top: "drop5"
}
layer {
  name: "fc2"
  type: "InnerProduct"
  bottom: "drop5"
  top: "fc2"
  inner_product_param {
    num_output: 2
    weight_filler {
      type: "msra"
    }
    bias_filler {
      type: "constant"
      value: 0
    }
  }
}
layer {
  name: "fc2_fc2_0_split"
  type: "Split"
  bottom: "fc2"
  top: "fc2_fc2_0_split_0"
  top: "fc2_fc2_0_split_1"
}
layer {
  name: "loss"
  type: "SoftmaxWithLoss"
  bottom: "fc2_fc2_0_split_0"
  bottom: "label_data_1_split_0"
  loss_weighI1230 14:45:17.640130 228001 net.cpp:500] The NetState phase (0) differed from the phase (1) specified by a rule in layer accuracy
I1230 14:45:17.638113 213991 net.cpp:136] Initializing net from parameters: 
name: "HEP_CLASSIFIER"
state {
  phase: TRAIN
  level: 0
  stage: ""
}
engine: "MKL2017"
layer {
  name: "data"
  type: "HDF5Data"
  top: "data"
  top: "label"
  include {
    phase: TRAIN
  }
  hdf5_data_param {
    source: "/project/projectdirs/dasrepo/zjian/Climate-scripts/split_prototxt/4_nodes_hdf5_config_1/train-val/train_chunk3.txt"
    batch_size: 4
    shuffle: true
  }
}
layer {
  name: "label_data_1_split"
  type: "Split"
  bottom: "label"
  top: "label_data_1_split_0"
  top: "label_data_1_split_1"
}
layer {
  name: "tile1"
  type: "Tile"
  bottom: "data"
  top: "tile1"
  tile_param {
    axis: 1
    tiles: 2
  }
}
layer {
  name: "conv1"
  type: "Convolution"
  bottom: "tile1"
  top: "conv1"
  convolution_param {
    num_output: 64
    pad: 0
    kernel_size: 3
    stride: 1
    weight_filler {
      type: "msra"
    }
    bias_filler {
      type: "constant"
      value: 0
    }
  }
}
layer {
  name: "relu1"
  type: "ReLI1230 14:45:17.628077 209770 cpu_info.cpp:473] Number of OpenMP threads: 66
I1230 14:45:17.640656 153603 net.cpp:136] Initializing net from parameters: 
name: "HEP_CLASSIFIER"
state {
  phase: TRAIN
  level: 0
  stage: ""
}
engine: "MKL2017"
layer {
  name: "data"
  type: "HDF5Data"
  top: "data"
  top: "label"
  include {
    phase: TRAIN
  }
  hdf5_data_param {
    source: "/project/projectdirs/dasrepo/zjian/Climate-scripts/split_prototxt/4_nodes_hdf5_config_1/train-val/train_chunk2.txt"
    batch_size: 4
    shuffle: true
  }
}
layer {
  name: "label_data_1_split"
  type: "Split"
  bottom: "label"
  top: "label_data_1_split_0"
  top: "label_data_1_split_1"
}
layer {
  name: "tile1"
  type: "Tile"
  bottom: "data"
  top: "tile1"
  tile_param {
    axis: 1
    tiles: 2
  }
}
layer {
  name: "conv1"
  type: "Convolution"
  bottom: "tile1"
  top: "conv1"
  convolution_param {
    num_output: 64
    pad: 0
    kernel_size: 3
    stride: 1
    weight_filler {
      type: "msra"
    }
    bias_filler {
      type: "constant"
      value: 0
    }
  }
}
layer {
  name: "relu1"
  type: "ReLt: 1
}
layer {
  name: "accuracy"
  type: "Accuracy"
  bottom: "fc2_fc2_0_split_1"
  bottom: "label_data_1_split_1"
  top: "accuracy_train"
  include {
    phase: TRAIN
  }
}
I1230 14:45:17.636987 213105 layer_factory.hpp:114] Creating layer data
I1230 14:45:17.637043 213105 net.cpp:178] Creating Layer data
I1230 14:45:17.637074 213105 net.cpp:586] data -> data
I1230 14:45:17.640245 228001 net.cpp:500] The NetState phase (0) differed from the phase (1) specified by a rule in layer loss
U"
  bottom: "conv1"
  top: "conv1"
  relu_param {
    negative_slope: 0.1
  }
}
layer {
  name: "dropout1"
  type: "Dropout"
  bottom: "conv1"
  top: "drop1"
}
layer {
  name: "pool1"
  type: "Pooling"
  bottom: "drop1"
  top: "pool1"
  pooling_param {
    pool: MAX
    kernel_size: 2
    stride: 2
  }
}
layer {
  name: "conv2"
  type: "Convolution"
  bottom: "pool1"
  top: "conv2"
  convolution_param {
    num_output: 128
    pad: 0
    kernel_size: 3
    stride: 1
    weight_filler {
      type: "msra"
    }
    bias_filler {
      type: "constant"
      value: 0
    }
  }
}
layer {
  name: "relu2"
  type: "ReLU"
  bottom: "conv2"
  top: "conv2"
  relu_param {
    negative_slope: 0.1
  }
}
layer {
  name: "dropout2"
  type: "Dropout"
  bottom: "conv2"
  top: "drop2"
}
layer {
  name: "pool2"
  type: "Pooling"
  bottom: "drop2"
  top: "pool2"
  pooling_param {
    pool: MAX
    kernel_size: 2
    stride: 2
  }
}
layer {
  name: "conv3"
  type: "Convolution"
  bottom: "pool2"
  top: "conv3"
  convolution_parI1230 14:45:17.654057 209770 net.cpp:500] The NetState phase (0) differed from the phase (1) specified by a rule in layer accuracy
I1230 14:45:17.654119 209770 net.cpp:500] The NetState phase (0) differed from the phase (1) specified by a rule in layer loss
U"
  bottom: "conv1"
  top: "conv1"
  relu_param {
    negative_slope: 0.1
  }
}
layer {
  name: "dropout1"
  type: "Dropout"
  bottom: "conv1"
  top: "drop1"
}
layer {
  name: "pool1"
  type: "Pooling"
  bottom: "drop1"
  top: "pool1"
  pooling_param {
    pool: MAX
    kernel_size: 2
    stride: 2
  }
}
layer {
  name: "conv2"
  type: "Convolution"
  bottom: "pool1"
  top: "conv2"
  convolution_param {
    num_output: 128
    pad: 0
    kernel_size: 3
    stride: 1
    weight_filler {
      type: "msra"
    }
    bias_filler {
      type: "constant"
      value: 0
    }
  }
}
layer {
  name: "relu2"
  type: "ReLU"
  bottom: "conv2"
  top: "conv2"
  relu_param {
    negative_slope: 0.1
  }
}
layer {
  name: "dropout2"
  type: "Dropout"
  bottom: "conv2"
  top: "drop2"
}
layer {
  name: "pool2"
  type: "Pooling"
  bottom: "drop2"
  top: "pool2"
  pooling_param {
    pool: MAX
    kernel_size: 2
    stride: 2
  }
}
layer {
  name: "conv3"
  type: "Convolution"
  bottom: "pool2"
  top: "conv3"
  convolution_parI1230 14:45:17.637141 213105 net.cpp:586] data -> label
I1230 14:45:17.637190 213105 hdf5_data_layer.cpp:116] Loading list of HDF5 filenames from: /project/projectdirs/dasrepo/zjian/Climate-scripts/split_prototxt/4_nodes_hdf5_config_1/train-val/train_chunk1.txt
I1230 14:45:17.640714 228001 net.cpp:136] Initializing net from parameters: 
name: "HEP_CLASSIFIER"
state {
  phase: TRAIN
  level: 0
  stage: ""
}
engine: "MKL2017"
layer {
  name: "data"
  type: "DummyData"
  top: "data"
  top: "label"
  include {
    phase: TRAIN
  }
  dummy_data_param {
    data_filler {
      type: "gaussian"
      std: 1
    }
    data_filler {
      type: "constant"
      value: 0
    }
    shape {
      dim: 4
      dim: 1
      dim: 227
      dim: 227
    }
    shape {
      dim: 4
      dim: 1
      dim: 1
      dim: 1
    }
  }
}
layer {
  name: "label_data_1_split"
  type: "Split"
  bottom: "label"
  top: "label_data_1_split_0"
  top: "label_data_1_split_1"
}
layer {
  name: "tile1"
  type: "Tile"
  bottom: "data"
  top: "tile1"
  tile_param {
    axis: 1
    tiles: 2
  }
}
layer {
  name: "conv1"
  type: "Convolution"
  bottom: "tile1"
  top: "conv1"
  convolution_param {
    num_output: 64
    pad: 0
    kernel_size: 3
    stride: 1
    weight_filler {
      type: "msra"
    }
 am {
    num_output: 128
    pad: 0
    kernel_size: 3
    stride: 1
    weight_filler {
      type: "msra"
    }
    bias_filler {
      type: "constant"
      value: 0
    }
  }
}
layer {
  name: "relu3"
  type: "ReLU"
  bottom: "conv3"
  top: "conv3"
  relu_param {
    negative_slope: 0.1
  }
}
layer {
  name: "dropout3"
  type: "Dropout"
  bottom: "conv3"
  top: "drop3"
}
layer {
  name: "pool3"
  type: "Pooling"
  bottom: "drop3"
  top: "pool3"
  pooling_param {
    pool: MAX
    kernel_size: 2
    stride: 2
  }
}
layer {
  name: "conv4"
  type: "Convolution"
  bottom: "pool3"
  top: "conv4"
  convolution_param {
    num_output: 128
    pad: 0
    kernel_size: 3
    stride: 1
    weight_filler {
      type: "msra"
    }
    bias_filler {
      type: "constant"
      value: 0
    }
  }
}
layer {
  name: "relu4"
  type: "ReLU"
  bottom: "conv4"
  top: "conv4"
  relu_param {
    negative_slope: 0.1
  }
}
layer {
  name: "dropout4"
  type: "Dropout"
  bottom: "conv4"
  top: "drop4"
}
layer {
  name: "pool4"
I1230 14:45:17.654534 209770 net.cpp:136] Initializing net from parameters: 
name: "HEP_CLASSIFIER"
state {
  phase: TRAIN
  level: 0
  stage: ""
}
engine: "MKL2017"
layer {
  name: "data"
  type: "HDF5Data"
  top: "data"
  top: "label"
  include {
    phase: TRAIN
  }
  hdf5_data_param {
    source: "/project/projectdirs/dasrepo/zjian/Climate-scripts/split_prototxt/4_nodes_hdf5_config_1/train-val/train_chunk4.txt"
    batch_size: 4
    shuffle: true
  }
}
layer {
  name: "label_data_1_split"
  type: "Split"
  bottom: "label"
  top: "label_data_1_split_0"
  top: "label_data_1_split_1"
}
layer {
  name: "tile1"
  type: "Tile"
  bottom: "data"
  top: "tile1"
  tile_param {
    axis: 1
    tiles: 2
  }
}
layer {
  name: "conv1"
  type: "Convolution"
  bottom: "tile1"
  top: "conv1"
  convolution_param {
    num_output: 64
    pad: 0
    kernel_size: 3
    stride: 1
    weight_filler {
      type: "msra"
    }
    bias_filler {
      type: "constant"
      value: 0
    }
  }
}
layer {
  name: "relu1"
  type: "ReLam {
    num_output: 128
    pad: 0
    kernel_size: 3
    stride: 1
    weight_filler {
      type: "msra"
    }
    bias_filler {
      type: "constant"
      value: 0
    }
  }
}
layer {
  name: "relu3"
  type: "ReLU"
  bottom: "conv3"
  top: "conv3"
  relu_param {
    negative_slope: 0.1
  }
}
layer {
  name: "dropout3"
  type: "Dropout"
  bottom: "conv3"
  top: "drop3"
}
layer {
  name: "pool3"
  type: "Pooling"
  bottom: "drop3"
  top: "pool3"
  pooling_param {
    pool: MAX
    kernel_size: 2
    stride: 2
  }
}
layer {
  name: "conv4"
  type: "Convolution"
  bottom: "pool3"
  top: "conv4"
  convolution_param {
    num_output: 128
    pad: 0
    kernel_size: 3
    stride: 1
    weight_filler {
      type: "msra"
    }
    bias_filler {
      type: "constant"
      value: 0
    }
  }
}
layer {
  name: "relu4"
  type: "ReLU"
  bottom: "conv4"
  top: "conv4"
  relu_param {
    negative_slope: 0.1
  }
}
layer {
  name: "dropout4"
  type: "Dropout"
  bottom: "conv4"
  top: "drop4"
}
layer {
  name: "pool4"
I1230 14:45:17.654611 213105 hdf5_data_layer.cpp:130] Number of HDF5 files: 2325
   bias_filler {
      type: "constant"
      value: 0
    }
  }
}
layer {
  name: "relu1"
  type: "ReLU"
  bottom: "conv1"
  top: "conv1"
  relu_param {
    negative_slope: 0.1
  }
}
layer {
  name: "dropout1"
  type: "Dropout"
  bottom: "conv1"
  top: "drop1"
}
layer {
  name: "pool1"
  type: "Pooling"
  bottom: "drop1"
  top: "pool1"
  pooling_param {
    pool: MAX
    kernel_size: 2
    stride: 2
  }
}
layer {
  name: "conv2"
  type: "Convolution"
  bottom: "pool1"
  top: "conv2"
  convolution_param {
    num_output: 128
    pad: 0
    kernel_size: 3
    stride: 1
    weight_filler {
      type: "msra"
    }
    bias_filler {
      type: "constant"
      value: 0
    }
  }
}
layer {
  name: "relu2"
  type: "ReLU"
  bottom: "conv2"
  top: "conv2"
  relu_param {
    negative_slope: 0.1
  }
}
layer {
  name: "dropout2"
  type: "Dropout"
  bottom: "conv2"
  top: "drop2"
}
layer {
  name: "pool2"
  type: "Pooling"
  bottom: "drop2"
  top: "pool2"
  pooling_param {
    pool: MAX
    kernel_size: 2
    stride: 2  type: "Pooling"
  bottom: "drop4"
  top: "pool4"
  pooling_param {
    pool: MAX
    kernel_size: 2
    stride: 2
  }
}
layer {
  name: "fc1"
  type: "InnerProduct"
  bottom: "pool4"
  top: "fc1"
  inner_product_param {
    num_output: 1024
    weight_filler {
      type: "msra"
    }
    bias_filler {
      type: "constant"
      value: 0
    }
  }
}
layer {
  name: "relu5"
  type: "ReLU"
  bottom: "fc1"
  top: "fc1"
  relu_param {
    negative_slope: 0.1
  }
}
layer {
  name: "dropout5"
  type: "Dropout"
  bottom: "fc1"
  top: "drop5"
}
layer {
  name: "fc2"
  type: "InnerProduct"
  bottom: "drop5"
  top: "fc2"
  inner_product_param {
    num_output: 2
    weight_filler {
      type: "msra"
    }
    bias_filler {
      type: "constant"
      value: 0
    }
  }
}
layer {
  name: "fc2_fc2_0_split"
  type: "Split"
  bottom: "fc2"
  top: "fc2_fc2_0_split_0"
  top: "fc2_fc2_0_split_1"
}
layer {
  name: "loss"
  type: "SoftmaxWithLoss"
  bottom: "fc2_fc2_0_split_0"
  bottom: "label_data_1_split_0"
  loss_weighU"
  bottom: "conv1"
  top: "conv1"
  relu_param {
    negative_slope: 0.1
  }
}
layer {
  name: "dropout1"
  type: "Dropout"
  bottom: "conv1"
  top: "drop1"
}
layer {
  name: "pool1"
  type: "Pooling"
  bottom: "drop1"
  top: "pool1"
  pooling_param {
    pool: MAX
    kernel_size: 2
    stride: 2
  }
}
layer {
  name: "conv2"
  type: "Convolution"
  bottom: "pool1"
  top: "conv2"
  convolution_param {
    num_output: 128
    pad: 0
    kernel_size: 3
    stride: 1
    weight_filler {
      type: "msra"
    }
    bias_filler {
      type: "constant"
      value: 0
    }
  }
}
layer {
  name: "relu2"
  type: "ReLU"
  bottom: "conv2"
  top: "conv2"
  relu_param {
    negative_slope: 0.1
  }
}
layer {
  name: "dropout2"
  type: "Dropout"
  bottom: "conv2"
  top: "drop2"
}
layer {
  name: "pool2"
  type: "Pooling"
  bottom: "drop2"
  top: "pool2"
  pooling_param {
    pool: MAX
    kernel_size: 2
    stride: 2
  }
}
layer {
  name: "conv3"
  type: "Convolution"
  bottom: "pool2"
  top: "conv3"
  convolution_par  type: "Pooling"
  bottom: "drop4"
  top: "pool4"
  pooling_param {
    pool: MAX
    kernel_size: 2
    stride: 2
  }
}
layer {
  name: "fc1"
  type: "InnerProduct"
  bottom: "pool4"
  top: "fc1"
  inner_product_param {
    num_output: 1024
    weight_filler {
      type: "msra"
    }
    bias_filler {
      type: "constant"
      value: 0
    }
  }
}
layer {
  name: "relu5"
  type: "ReLU"
  bottom: "fc1"
  top: "fc1"
  relu_param {
    negative_slope: 0.1
  }
}
layer {
  name: "dropout5"
  type: "Dropout"
  bottom: "fc1"
  top: "drop5"
}
layer {
  name: "fc2"
  type: "InnerProduct"
  bottom: "drop5"
  top: "fc2"
  inner_product_param {
    num_output: 2
    weight_filler {
      type: "msra"
    }
    bias_filler {
      type: "constant"
      value: 0
    }
  }
}
layer {
  name: "fc2_fc2_0_split"
  type: "Split"
  bottom: "fc2"
  top: "fc2_fc2_0_split_0"
  top: "fc2_fc2_0_split_1"
}
layer {
  name: "loss"
  type: "SoftmaxWithLoss"
  bottom: "fc2_fc2_0_split_0"
  bottom: "label_data_1_split_0"
  loss_weigh
  }
}
layer {
  name: "conv3"
  type: "Convolution"
  bottom: "pool2"
  top: "conv3"
  convolution_param {
    num_output: 128
    pad: 0
    kernel_size: 3
    stride: 1
    weight_filler {
      type: "msra"
    }
    bias_filler {
      type: "constant"
      value: 0
    }
  }
}
layer {
  name: "relu3"
  type: "ReLU"
  bottom: "conv3"
  top: "conv3"
  relu_param {
    negative_slope: 0.1
  }
}
layer {
  name: "dropout3"
  type: "Dropout"
  bottom: "conv3"
  top: "drop3"
}
layer {
  name: "pool3"
  type: "Pooling"
  bottom: "drop3"
  top: "pool3"
  pooling_param {
    pool: MAX
    kernel_size: 2
    stride: 2
  }
}
layer {
  name: "conv4"
  type: "Convolution"
  bottom: "pool3"
  top: "conv4"
  convolution_param {
    num_output: 128
    pad: 0
    kernel_size: 3
    stride: 1
    weight_filler {
      type: "msra"
    }
    bias_filler {
      type: "constant"
      value: 0
    }
  }
}
layer {
  name: "relu4"
  type: "ReLU"
  bottom: "conv4"
  top: "conv4"
  relu_param {
    negative_slope: 0.1
  }
}
lt: 1
}
layer {
  name: "accuracy"
  type: "Accuracy"
  bottom: "fc2_fc2_0_split_1"
  bottom: "label_data_1_split_1"
  top: "accuracy_train"
  include {
    phase: TRAIN
  }
}
I1230 14:45:17.638835 213991 layer_factory.hpp:114] Creating layer data
I1230 14:45:17.638888 213991 net.cpp:178] Creating Layer data
I1230 14:45:17.638917 213991 net.cpp:586] data -> data
I1230 14:45:17.638979 213991 net.cpp:586] data -> label
am {
    num_output: 128
    pad: 0
    kernel_size: 3
    stride: 1
    weight_filler {
      type: "msra"
    }
    bias_filler {
      type: "constant"
      value: 0
    }
  }
}
layer {
  name: "relu3"
  type: "ReLU"
  bottom: "conv3"
  top: "conv3"
  relu_param {
    negative_slope: 0.1
  }
}
layer {
  name: "dropout3"
  type: "Dropout"
  bottom: "conv3"
  top: "drop3"
}
layer {
  name: "pool3"
  type: "Pooling"
  bottom: "drop3"
  top: "pool3"
  pooling_param {
    pool: MAX
    kernel_size: 2
    stride: 2
  }
}
layer {
  name: "conv4"
  type: "Convolution"
  bottom: "pool3"
  top: "conv4"
  convolution_param {
    num_output: 128
    pad: 0
    kernel_size: 3
    stride: 1
    weight_filler {
      type: "msra"
    }
    bias_filler {
      type: "constant"
      value: 0
    }
  }
}
layer {
  name: "relu4"
  type: "ReLU"
  bottom: "conv4"
  top: "conv4"
  relu_param {
    negative_slope: 0.1
  }
}
layer {
  name: "dropout4"
  type: "Dropout"
  bottom: "conv4"
  top: "drop4"
}
layer {
  name: "pool4"
t: 1
}
layer {
  name: "accuracy"
  type: "Accuracy"
  bottom: "fc2_fc2_0_split_1"
  bottom: "label_data_1_split_1"
  top: "accuracy_train"
  include {
    phase: TRAIN
  }
}
I1230 14:45:17.641391 153603 layer_factory.hpp:114] Creating layer data
I1230 14:45:17.641443 153603 net.cpp:178] Creating Layer data
I1230 14:45:17.641474 153603 net.cpp:586] data -> data
I1230 14:45:17.641538 153603 net.cpp:586] data -> label
ayer {
  name: "dropout4"
  type: "Dropout"
  bottom: "conv4"
  top: "drop4"
}
layer {
  name: "pool4"
  type: "Pooling"
  bottom: "drop4"
  top: "pool4"
  pooling_param {
    pool: MAX
    kernel_size: 2
    stride: 2
  }
}
layer {
  name: "fc1"
  type: "InnerProduct"
  bottom: "pool4"
  top: "fc1"
  inner_product_param {
    num_output: 1024
    weight_filler {
      type: "msra"
    }
    bias_filler {
      type: "constant"
      value: 0
    }
  }
}
layer {
  name: "relu5"
  type: "ReLU"
  bottom: "fc1"
  top: "fc1"
  relu_param {
    negative_slope: 0.1
  }
}
layer {
  name: "dropout5"
  type: "Dropout"
  bottom: "fc1"
  top: "drop5"
}
layer {
  name: "fc2"
  type: "InnerProduct"
  bottom: "drop5"
  top: "fc2"
  inner_product_param {
    num_output: 2
    weight_filler {
      type: "msra"
    }
    bias_filler {
      type: "constant"
      value: 0
    }
  }
}
layer {
  name: "fc2_fc2_0_split"
  type: "Split"
  bottom: "fc2"
  top: "fc2_fc2_0_split_0"
  top: "fc2_fc2_0_split_1"
}
layer {
  name: "lossI1230 14:45:17.639029 213991 hdf5_data_layer.cpp:116] Loading list of HDF5 filenames from: /project/projectdirs/dasrepo/zjian/Climate-scripts/split_prototxt/4_nodes_hdf5_config_1/train-val/train_chunk3.txt
  type: "Pooling"
  bottom: "drop4"
  top: "pool4"
  pooling_param {
    pool: MAX
    kernel_size: 2
    stride: 2
  }
}
layer {
  name: "fc1"
  type: "InnerProduct"
  bottom: "pool4"
  top: "fc1"
  inner_product_param {
    num_output: 1024
    weight_filler {
      type: "msra"
    }
    bias_filler {
      type: "constant"
      value: 0
    }
  }
}
layer {
  name: "relu5"
  type: "ReLU"
  bottom: "fc1"
  top: "fc1"
  relu_param {
    negative_slope: 0.1
  }
}
layer {
  name: "dropout5"
  type: "Dropout"
  bottom: "fc1"
  top: "drop5"
}
layer {
  name: "fc2"
  type: "InnerProduct"
  bottom: "drop5"
  top: "fc2"
  inner_product_param {
    num_output: 2
    weight_filler {
      type: "msra"
    }
    bias_filler {
      type: "constant"
      value: 0
    }
  }
}
layer {
  name: "fc2_fc2_0_split"
  type: "Split"
  bottom: "fc2"
  top: "fc2_fc2_0_split_0"
  top: "fc2_fc2_0_split_1"
}
layer {
  name: "loss"
  type: "SoftmaxWithLoss"
  bottom: "fc2_fc2_0_split_0"
  bottom: "label_data_1_split_0"
  loss_weighI1230 14:45:17.641589 153603 hdf5_data_layer.cpp:116] Loading list of HDF5 filenames from: /project/projectdirs/dasrepo/zjian/Climate-scripts/split_prototxt/4_nodes_hdf5_config_1/train-val/train_chunk2.txt
"
  type: "SoftmaxWithLoss"
  bottom: "fc2_fc2_0_split_0"
  bottom: "label_data_1_split_0"
  loss_weight: 1
}
layer {
  name: "accuracy"
  type: "Accuracy"
  bottom: "fc2_fc2_0_split_1"
  bottom: "label_data_1_split_1"
  top: "accuracy_train"
  include {
    phase: TRAIN
  }
}
I1230 14:45:17.641474 228001 layer_factory.hpp:114] Creating layer data
I1230 14:45:17.641528 228001 net.cpp:178] Creating Layer data
I1230 14:45:17.641558 228001 net.cpp:586] data -> data
I1230 14:45:17.641626 228001 net.cpp:586] data -> label
I1230 14:45:17.659175 213991 hdf5_data_layer.cpp:130] Number of HDF5 files: 2325
t: 1
}
layer {
  name: "accuracy"
  type: "Accuracy"
  bottom: "fc2_fc2_0_split_1"
  bottom: "label_data_1_split_1"
  top: "accuracy_train"
  include {
    phase: TRAIN
  }
}
I1230 14:45:17.655263 209770 layer_factory.hpp:114] Creating layer data
I1230 14:45:17.655316 209770 net.cpp:178] Creating Layer data
I1230 14:45:17.655349 209770 net.cpp:586] data -> data
I1230 14:45:17.664572 153603 hdf5_data_layer.cpp:130] Number of HDF5 files: 2325
I1230 14:45:17.655414 209770 net.cpp:586] data -> label
I1230 14:45:17.655463 209770 hdf5_data_layer.cpp:116] Loading list of HDF5 filenames from: /project/projectdirs/dasrepo/zjian/Climate-scripts/split_prototxt/4_nodes_hdf5_config_1/train-val/train_chunk4.txt
I1230 14:45:17.674540 209770 hdf5_data_layer.cpp:130] Number of HDF5 files: 2325
I1230 14:45:17.685899 213991 hdf5.cpp:69] Datatype class: H5T_FLOAT
I1230 14:45:17.687801 153603 hdf5.cpp:69] Datatype class: H5T_FLOAT
I1230 14:45:17.693030 213105 hdf5.cpp:69] Datatype class: H5T_FLOAT
I1230 14:45:17.692629 228001 net.cpp:228] Setting up data
I1230 14:45:17.692714 228001 net.cpp:235] Top shape: 4 1 227 227 (206116)
I1230 14:45:17.704227 209770 hdf5.cpp:69] Datatype class: H5T_FLOAT
I1230 14:45:17.692770 228001 net.cpp:235] Top shape: 4 1 1 1 (4)
I1230 14:45:17.692797 228001 net.cpp:243] Memory required for data: 824480
I1230 14:45:17.692833 228001 layer_factory.hpp:114] Creating layer label_data_1_split
I1230 14:45:17.692909 228001 net.cpp:178] Creating Layer label_data_1_split
I1230 14:45:17.692931 228001 net.cpp:612] label_data_1_split <- label
I1230 14:45:17.692976 228001 net.cpp:586] label_data_1_split -> label_data_1_split_0
I1230 14:45:17.693020 228001 net.cpp:586] label_data_1_split -> label_data_1_split_1
I1230 14:45:17.715057 228001 net.cpp:228] Setting up label_data_1_split
I1230 14:45:17.715145 228001 net.cpp:235] Top shape: 4 1 1 1 (4)
I1230 14:45:17.715188 228001 net.cpp:235] Top shape: 4 1 1 1 (4)
I1230 14:45:17.715217 228001 net.cpp:243] Memory required for data: 824512
I1230 14:45:17.715252 228001 layer_factory.hpp:114] Creating layer tile1
I1230 14:45:17.715301 228001 net.cpp:178] Creating Layer tile1
I1230 14:45:17.715322 228001 net.cpp:612] tile1 <- data
I1230 14:45:17.715356 228001 net.cpp:586] tile1 -> tile1
I1230 14:45:17.715425 228001 net.cpp:228] Setting up tile1
I1230 14:45:17.715445 228001 net.cpp:235] Top shape: 4 2 227 227 (412232)
I1230 14:45:17.715471 228001 net.cpp:243] Memory required for data: 2473440
I1230 14:45:17.715492 228001 layer_factory.hpp:114] Creating layer conv1
I1230 14:45:17.715577 228001 net.cpp:178] Creating Layer conv1
I1230 14:45:17.715598 228001 net.cpp:612] conv1 <- tile1
I1230 14:45:17.715628 228001 net.cpp:586] conv1 -> conv1
I1230 14:45:17.806615 213991 hdf5.cpp:72] Datatype class: H5T_INTEGER
I1230 14:45:17.808044 213991 net.cpp:228] Setting up data
I1230 14:45:17.808127 213991 net.cpp:235] Top shape: 4 1 227 227 (206116)
I1230 14:45:17.808238 213991 net.cpp:235] Top shape: 4 (4)
I1230 14:45:17.816702 228001 net.cpp:228] Setting up conv1
I1230 14:45:17.816788 228001 net.cpp:235] Top shape: 4 64 225 225 (12960000)
I1230 14:45:17.816830 228001 net.cpp:243] Memory required for data: 54313440
I1230 14:45:17.808265 213991 net.cpp:243] Memory required for data: 824480
I1230 14:45:17.808301 213991 layer_factory.hpp:114] Creating layer label_data_1_split
I1230 14:45:17.808393 213991 net.cpp:178] Creating Layer label_data_1_split
I1230 14:45:17.808414 213991 net.cpp:612] label_data_1_split <- label
I1230 14:45:17.829882 209770 hdf5.cpp:72] Datatype class: H5T_INTEGER
I1230 14:45:17.825558 153603 hdf5.cpp:72] Datatype class: H5T_INTEGER
I1230 14:45:17.816932 228001 layer_factory.hpp:114] Creating layer relu1
I1230 14:45:17.808465 213991 net.cpp:586] label_data_1_split -> label_data_1_split_0
I1230 14:45:17.808511 213991 net.cpp:586] label_data_1_split -> label_data_1_split_1
I1230 14:45:17.831508 209770 net.cpp:228] Setting up data
I1230 14:45:17.831596 209770 net.cpp:235] Top shape: 4 1 227 227 (206116)
I1230 14:45:17.831645 209770 net.cpp:235] Top shape: 4 (4)
I1230 14:45:17.827035 153603 net.cpp:228] Setting up data
I1230 14:45:17.827119 153603 net.cpp:235] Top shape: 4 1 227 227 (206116)
I1230 14:45:17.827168 153603 net.cpp:235] Top shape: 4 (4)
I1230 14:45:17.817009 228001 net.cpp:178] Creating Layer relu1
I1230 14:45:17.817152 228001 net.cpp:612] relu1 <- conv1
I1230 14:45:17.817194 228001 net.cpp:573] relu1 -> conv1 (in-place)
I1230 14:45:17.831553 213991 net.cpp:228] Setting up label_data_1_split
I1230 14:45:17.831673 209770 net.cpp:243] Memory required for data: 824480
I1230 14:45:17.827195 153603 net.cpp:243] Memory required for data: 824480
I1230 14:45:17.817292 228001 net.cpp:228] Setting up relu1
I1230 14:45:17.831640 213991 net.cpp:235] Top shape: 4 (4)
I1230 14:45:17.831681 213991 net.cpp:235] Top shape: 4 (4)
I1230 14:45:17.831707 213991 net.cpp:243] Memory required for data: 824512
I1230 14:45:17.831712 209770 layer_factory.hpp:114] Creating layer label_data_1_split
I1230 14:45:17.831804 209770 net.cpp:178] Creating Layer label_data_1_split
I1230 14:45:17.831826 209770 net.cpp:612] label_data_1_split <- label
I1230 14:45:17.827232 153603 layer_factory.hpp:114] Creating layer label_data_1_split
I1230 14:45:17.827327 153603 net.cpp:178] Creating Layer label_data_1_split
I1230 14:45:17.827348 153603 net.cpp:612] label_data_1_split <- label
I1230 14:45:17.817317 228001 net.cpp:235] Top shape: 4 64 225 225 (12960000)
I1230 14:45:17.831740 213991 layer_factory.hpp:114] Creating layer tile1
I1230 14:45:17.831799 213991 net.cpp:178] Creating Layer tile1
I1230 14:45:17.831877 209770 net.cpp:586] label_data_1_split -> label_data_1_split_0
I1230 14:45:17.827401 153603 net.cpp:586] label_data_1_split -> label_data_1_split_0
I1230 14:45:17.817344 228001 net.cpp:243] Memory required for data: 106153440
I1230 14:45:17.817368 228001 layer_factory.hpp:114] Creating layer dropout1
I1230 14:45:17.831821 213991 net.cpp:612] tile1 <- data
I1230 14:45:17.831923 209770 net.cpp:586] label_data_1_split -> label_data_1_split_1
I1230 14:45:17.827446 153603 net.cpp:586] label_data_1_split -> label_data_1_split_1
I1230 14:45:17.817401 228001 net.cpp:178] Creating Layer dropout1
I1230 14:45:17.831853 213991 net.cpp:586] tile1 -> tile1
I1230 14:45:17.817422 228001 net.cpp:612] dropout1 <- conv1
I1230 14:45:17.831913 213991 net.cpp:228] Setting up tile1
I1230 14:45:17.831934 213991 net.cpp:235] Top shape: 4 2 227 227 (412232)
I1230 14:45:17.817458 228001 net.cpp:586] dropout1 -> drop1
I1230 14:45:17.831960 213991 net.cpp:243] Memory required for data: 2473440
I1230 14:45:17.817502 228001 net.cpp:228] Setting up dropout1
I1230 14:45:17.817653 228001 net.cpp:235] Top shape: 4 64 225 225 (12960000)
I1230 14:45:17.817679 228001 net.cpp:243] Memory required for data: 157993440
I1230 14:45:17.817701 228001 layer_factory.hpp:114] Creating layer pool1
I1230 14:45:17.831981 213991 layer_factory.hpp:114] Creating layer conv1
I1230 14:45:17.817757 228001 net.cpp:178] Creating Layer pool1
I1230 14:45:17.817780 228001 net.cpp:612] pool1 <- drop1
I1230 14:45:17.832077 213991 net.cpp:178] Creating Layer conv1
I1230 14:45:17.832113 213991 net.cpp:612] conv1 <- tile1
I1230 14:45:17.817809 228001 net.cpp:586] pool1 -> pool1
I1230 14:45:17.832150 213991 net.cpp:586] conv1 -> conv1
I1230 14:45:17.817909 228001 net.cpp:228] Setting up pool1
I1230 14:45:17.818030 228001 net.cpp:235] Top shape: 4 64 113 113 (3268864)
I1230 14:45:17.818058 228001 net.cpp:243] Memory required for data: 171068896
I1230 14:45:17.818079 228001 layer_factory.hpp:114] Creating layer conv2
I1230 14:45:17.818161 228001 net.cpp:178] Creating Layer conv2
I1230 14:45:17.818184 228001 net.cpp:612] conv2 <- pool1
I1230 14:45:17.818228 228001 net.cpp:586] conv2 -> conv2
I1230 14:45:17.850127 153603 net.cpp:228] Setting up label_data_1_split
I1230 14:45:17.850221 153603 net.cpp:235] Top shape: 4 (4)
I1230 14:45:17.850261 153603 net.cpp:235] Top shape: 4 (4)
I1230 14:45:17.850289 153603 net.cpp:243] Memory required for data: 824512
I1230 14:45:17.850324 153603 layer_factory.hpp:114] Creating layer tile1
I1230 14:45:17.850388 153603 net.cpp:178] Creating Layer tile1
I1230 14:45:17.850409 153603 net.cpp:612] tile1 <- data
I1230 14:45:17.850442 153603 net.cpp:586] tile1 -> tile1
I1230 14:45:17.850502 153603 net.cpp:228] Setting up tile1
I1230 14:45:17.850524 153603 net.cpp:235] Top shape: 4 2 227 227 (412232)
I1230 14:45:17.850549 153603 net.cpp:243] Memory required for data: 2473440
I1230 14:45:17.850570 153603 layer_factory.hpp:114] Creating layer conv1
I1230 14:45:17.850670 153603 net.cpp:178] Creating Layer conv1
I1230 14:45:17.850706 153603 net.cpp:612] conv1 <- tile1
I1230 14:45:17.850744 153603 net.cpp:586] conv1 -> conv1
I1230 14:45:17.856107 209770 net.cpp:228] Setting up label_data_1_split
I1230 14:45:17.856201 209770 net.cpp:235] Top shape: 4 (4)
I1230 14:45:17.856241 209770 net.cpp:235] Top shape: 4 (4)
I1230 14:45:17.856267 209770 net.cpp:243] Memory required for data: 824512
I1230 14:45:17.856303 209770 layer_factory.hpp:114] Creating layer tile1
I1230 14:45:17.856365 209770 net.cpp:178] Creating Layer tile1
I1230 14:45:17.856386 209770 net.cpp:612] tile1 <- data
I1230 14:45:17.856420 209770 net.cpp:586] tile1 -> tile1
I1230 14:45:17.856479 209770 net.cpp:228] Setting up tile1
I1230 14:45:17.856501 209770 net.cpp:235] Top shape: 4 2 227 227 (412232)
I1230 14:45:17.856526 209770 net.cpp:243] Memory required for data: 2473440
I1230 14:45:17.856547 209770 layer_factory.hpp:114] Creating layer conv1
I1230 14:45:17.856642 209770 net.cpp:178] Creating Layer conv1
I1230 14:45:17.856662 209770 net.cpp:612] conv1 <- tile1
I1230 14:45:17.856698 209770 net.cpp:586] conv1 -> conv1
I1230 14:45:17.923832 213105 hdf5.cpp:72] Datatype class: H5T_INTEGER
I1230 14:45:17.925786 213105 net.cpp:228] Setting up data
I1230 14:45:17.925873 213105 net.cpp:235] Top shape: 4 1 227 227 (206116)
I1230 14:45:17.925923 213105 net.cpp:235] Top shape: 4 (4)
I1230 14:45:17.925951 213105 net.cpp:243] Memory required for data: 824480
I1230 14:45:17.925988 213105 layer_factory.hpp:114] Creating layer label_data_1_split
I1230 14:45:17.926065 213105 net.cpp:178] Creating Layer label_data_1_split
I1230 14:45:17.926087 213105 net.cpp:612] label_data_1_split <- label
I1230 14:45:17.926424 213105 net.cpp:586] label_data_1_split -> label_data_1_split_0
I1230 14:45:17.926489 213105 net.cpp:586] label_data_1_split -> label_data_1_split_1
I1230 14:45:17.935125 213991 net.cpp:228] Setting up conv1
I1230 14:45:17.935214 213991 net.cpp:235] Top shape: 4 64 225 225 (12960000)
I1230 14:45:17.935253 213991 net.cpp:243] Memory required for data: 54313440
I1230 14:45:17.935348 213991 layer_factory.hpp:114] Creating layer relu1
I1230 14:45:17.935439 213991 net.cpp:178] Creating Layer relu1
I1230 14:45:17.935463 213991 net.cpp:612] relu1 <- conv1
I1230 14:45:17.935495 213991 net.cpp:573] relu1 -> conv1 (in-place)
I1230 14:45:17.935590 213991 net.cpp:228] Setting up relu1
I1230 14:45:17.935688 213991 net.cpp:235] Top shape: 4 64 225 225 (12960000)
I1230 14:45:17.935715 213991 net.cpp:243] Memory required for data: 106153440
I1230 14:45:17.935739 213991 layer_factory.hpp:114] Creating layer dropout1
I1230 14:45:17.935778 213991 net.cpp:178] Creating Layer dropout1
I1230 14:45:17.935799 213991 net.cpp:612] dropout1 <- conv1
I1230 14:45:17.935827 213991 net.cpp:586] dropout1 -> drop1
I1230 14:45:17.935873 213991 net.cpp:228] Setting up dropout1
I1230 14:45:17.935891 213991 net.cpp:235] Top shape: 4 64 225 225 (12960000)
I1230 14:45:17.935917 213991 net.cpp:243] Memory required for data: 157993440
I1230 14:45:17.935937 213991 layer_factory.hpp:114] Creating layer pool1
I1230 14:45:17.935986 213991 net.cpp:178] Creating Layer pool1
I1230 14:45:17.936107 213991 net.cpp:612] pool1 <- drop1
I1230 14:45:17.936142 213991 net.cpp:586] pool1 -> pool1
I1230 14:45:17.936362 213991 net.cpp:228] Setting up pool1
I1230 14:45:17.936439 213991 net.cpp:235] Top shape: 4 64 113 113 (3268864)
I1230 14:45:17.936465 213991 net.cpp:243] Memory required for data: 171068896
I1230 14:45:17.936487 213991 layer_factory.hpp:114] Creating layer conv2
I1230 14:45:17.936561 213991 net.cpp:178] Creating Layer conv2
I1230 14:45:17.936648 213991 net.cpp:612] conv2 <- pool1
I1230 14:45:17.936688 213991 net.cpp:586] conv2 -> conv2
I1230 14:45:17.949797 213105 net.cpp:228] Setting up label_data_1_split
I1230 14:45:17.949885 213105 net.cpp:235] Top shape: 4 (4)
I1230 14:45:17.949935 213105 net.cpp:235] Top shape: 4 (4)
I1230 14:45:17.949964 213105 net.cpp:243] Memory required for data: 824512
I1230 14:45:17.949997 213105 layer_factory.hpp:114] Creating layer tile1
I1230 14:45:17.950045 213105 net.cpp:178] Creating Layer tile1
I1230 14:45:17.950237 213105 net.cpp:612] tile1 <- data
I1230 14:45:17.950289 213105 net.cpp:586] tile1 -> tile1
I1230 14:45:17.950352 213105 net.cpp:228] Setting up tile1
I1230 14:45:17.950373 213105 net.cpp:235] Top shape: 4 2 227 227 (412232)
I1230 14:45:17.950400 213105 net.cpp:243] Memory required for data: 2473440
I1230 14:45:17.950521 213105 layer_factory.hpp:114] Creating layer conv1
I1230 14:45:17.950673 213105 net.cpp:178] Creating Layer conv1
I1230 14:45:17.950773 213105 net.cpp:612] conv1 <- tile1
I1230 14:45:17.950814 213105 net.cpp:586] conv1 -> conv1
I1230 14:45:17.958894 153603 net.cpp:228] Setting up conv1
I1230 14:45:17.958981 153603 net.cpp:235] Top shape: 4 64 225 225 (12960000)
I1230 14:45:17.959023 153603 net.cpp:243] Memory required for data: 54313440
I1230 14:45:17.959117 153603 layer_factory.hpp:114] Creating layer relu1
I1230 14:45:17.959204 153603 net.cpp:178] Creating Layer relu1
I1230 14:45:17.959228 153603 net.cpp:612] relu1 <- conv1
I1230 14:45:17.959260 153603 net.cpp:573] relu1 -> conv1 (in-place)
I1230 14:45:17.959362 153603 net.cpp:228] Setting up relu1
I1230 14:45:17.959465 153603 net.cpp:235] Top shape: 4 64 225 225 (12960000)
I1230 14:45:17.959492 153603 net.cpp:243] Memory required for data: 106153440
I1230 14:45:17.959514 153603 layer_factory.hpp:114] Creating layer dropout1
I1230 14:45:17.959553 153603 net.cpp:178] Creating Layer dropout1
I1230 14:45:17.959573 153603 net.cpp:612] dropout1 <- conv1
I1230 14:45:17.959601 153603 net.cpp:586] dropout1 -> drop1
I1230 14:45:17.959646 153603 net.cpp:228] Setting up dropout1
I1230 14:45:17.961273 209770 net.cpp:228] Setting up conv1
I1230 14:45:17.961361 209770 net.cpp:235] Top shape: 4 64 225 225 (12960000)
I1230 14:45:17.961402 209770 net.cpp:243] Memory required for data: 54313440
I1230 14:45:17.959666 153603 net.cpp:235] Top shape: 4 64 225 225 (12960000)
I1230 14:45:17.959691 153603 net.cpp:243] Memory required for data: 157993440
I1230 14:45:17.959712 153603 layer_factory.hpp:114] Creating layer pool1
I1230 14:45:17.961498 209770 layer_factory.hpp:114] Creating layer relu1
I1230 14:45:17.959763 153603 net.cpp:178] Creating Layer pool1
I1230 14:45:17.959869 153603 net.cpp:612] pool1 <- drop1
I1230 14:45:17.959903 153603 net.cpp:586] pool1 -> pool1
I1230 14:45:17.961583 209770 net.cpp:178] Creating Layer relu1
I1230 14:45:17.960000 153603 net.cpp:228] Setting up pool1
I1230 14:45:17.961608 209770 net.cpp:612] relu1 <- conv1
I1230 14:45:17.960023 153603 net.cpp:235] Top shape: 4 64 113 113 (3268864)
I1230 14:45:17.961963 228001 net.cpp:228] Setting up conv2
I1230 14:45:17.962061 228001 net.cpp:235] Top shape: 4 128 111 111 (6308352)
I1230 14:45:17.962105 228001 net.cpp:243] Memory required for data: 196302304
I1230 14:45:17.961642 209770 net.cpp:573] relu1 -> conv1 (in-place)
I1230 14:45:17.960050 153603 net.cpp:243] Memory required for data: 171068896
I1230 14:45:17.960072 153603 layer_factory.hpp:114] Creating layer conv2
I1230 14:45:17.961740 209770 net.cpp:228] Setting up relu1
I1230 14:45:17.961845 209770 net.cpp:235] Top shape: 4 64 225 225 (12960000)
I1230 14:45:17.961874 209770 net.cpp:243] Memory required for data: 106153440
I1230 14:45:17.961896 209770 layer_factory.hpp:114] Creating layer dropout1
I1230 14:45:17.961940 209770 net.cpp:178] Creating Layer dropout1
I1230 14:45:17.961961 209770 net.cpp:612] dropout1 <- conv1
I1230 14:45:17.962023 209770 net.cpp:586] dropout1 -> drop1
I1230 14:45:17.960151 153603 net.cpp:178] Creating Layer conv2
I1230 14:45:17.960280 153603 net.cpp:612] conv2 <- pool1
I1230 14:45:17.960351 153603 net.cpp:586] conv2 -> conv2
I1230 14:45:17.962179 228001 layer_factory.hpp:114] Creating layer relu2
I1230 14:45:17.962265 228001 net.cpp:178] Creating Layer relu2
I1230 14:45:17.962072 209770 net.cpp:228] Setting up dropout1
I1230 14:45:17.962095 209770 net.cpp:235] Top shape: 4 64 225 225 (12960000)
I1230 14:45:17.962291 228001 net.cpp:612] relu2 <- conv2
I1230 14:45:17.962122 209770 net.cpp:243] Memory required for data: 157993440
I1230 14:45:17.962144 209770 layer_factory.hpp:114] Creating layer pool1
I1230 14:45:17.962337 228001 net.cpp:573] relu2 -> conv2 (in-place)
I1230 14:45:17.962208 209770 net.cpp:178] Creating Layer pool1
I1230 14:45:17.962424 228001 net.cpp:228] Setting up relu2
I1230 14:45:17.962543 228001 net.cpp:235] Top shape: 4 128 111 111 (6308352)
I1230 14:45:17.962573 228001 net.cpp:243] Memory required for data: 221535712
I1230 14:45:17.962596 228001 layer_factory.hpp:114] Creating layer dropout2
I1230 14:45:17.962229 209770 net.cpp:612] pool1 <- drop1
I1230 14:45:17.962267 209770 net.cpp:586] pool1 -> pool1
I1230 14:45:17.962627 228001 net.cpp:178] Creating Layer dropout2
I1230 14:45:17.962651 228001 net.cpp:612] dropout2 <- conv2
I1230 14:45:17.962680 228001 net.cpp:586] dropout2 -> drop2
I1230 14:45:17.962719 228001 net.cpp:228] Setting up dropout2
I1230 14:45:17.962739 228001 net.cpp:235] Top shape: 4 128 111 111 (6308352)
I1230 14:45:17.962766 228001 net.cpp:243] Memory required for data: 246769120
I1230 14:45:17.962368 209770 net.cpp:228] Setting up pool1
I1230 14:45:17.962404 209770 net.cpp:235] Top shape: 4 64 113 113 (3268864)
I1230 14:45:17.962430 209770 net.cpp:243] Memory required for data: 171068896
I1230 14:45:17.962787 228001 layer_factory.hpp:114] Creating layer pool2
I1230 14:45:17.962843 228001 net.cpp:178] Creating Layer pool2
I1230 14:45:17.962453 209770 layer_factory.hpp:114] Creating layer conv2
I1230 14:45:17.962865 228001 net.cpp:612] pool2 <- drop2
I1230 14:45:17.962527 209770 net.cpp:178] Creating Layer conv2
I1230 14:45:17.962617 209770 net.cpp:612] conv2 <- pool1
I1230 14:45:17.962656 209770 net.cpp:586] conv2 -> conv2
I1230 14:45:17.962903 228001 net.cpp:586] pool2 -> pool2
I1230 14:45:17.962975 228001 net.cpp:228] Setting up pool2
I1230 14:45:17.963109 228001 net.cpp:235] Top shape: 4 128 56 56 (1605632)
I1230 14:45:17.963136 228001 net.cpp:243] Memory required for data: 253191648
I1230 14:45:17.963158 228001 layer_factory.hpp:114] Creating layer conv3
I1230 14:45:17.963243 228001 net.cpp:178] Creating Layer conv3
I1230 14:45:17.963268 228001 net.cpp:612] conv3 <- pool2
I1230 14:45:17.963299 228001 net.cpp:586] conv3 -> conv3
I1230 14:45:18.041116 228001 net.cpp:228] Setting up conv3
I1230 14:45:18.041237 228001 net.cpp:235] Top shape: 4 128 54 54 (1492992)
I1230 14:45:18.041280 228001 net.cpp:243] Memory required for data: 259163616
I1230 14:45:18.041357 228001 layer_factory.hpp:114] Creating layer relu3
I1230 14:45:18.041441 228001 net.cpp:178] Creating Layer relu3
I1230 14:45:18.041468 228001 net.cpp:612] relu3 <- conv3
I1230 14:45:18.041502 228001 net.cpp:573] relu3 -> conv3 (in-place)
I1230 14:45:18.041591 228001 net.cpp:228] Setting up relu3
I1230 14:45:18.041718 228001 net.cpp:235] Top shape: 4 128 54 54 (1492992)
I1230 14:45:18.041748 228001 net.cpp:243] Memory required for data: 265135584
I1230 14:45:18.041803 228001 layer_factory.hpp:114] Creating layer dropout3
I1230 14:45:18.041836 228001 net.cpp:178] Creating Layer dropout3
I1230 14:45:18.041857 228001 net.cpp:612] dropout3 <- conv3
I1230 14:45:18.041885 228001 net.cpp:586] dropout3 -> drop3
I1230 14:45:18.041925 228001 net.cpp:228] Setting up dropout3
I1230 14:45:18.041946 228001 net.cpp:235] Top shape: 4 128 54 54 (1492992)
I1230 14:45:18.041972 228001 net.cpp:243] Memory required for data: 271107552
I1230 14:45:18.041995 228001 layer_factory.hpp:114] Creating layer pool3
I1230 14:45:18.042044 228001 net.cpp:178] Creating Layer pool3
I1230 14:45:18.042065 228001 net.cpp:612] pool3 <- drop3
I1230 14:45:18.042094 228001 net.cpp:586] pool3 -> pool3
I1230 14:45:18.042166 228001 net.cpp:228] Setting up pool3
I1230 14:45:18.042263 228001 net.cpp:235] Top shape: 4 128 27 27 (373248)
I1230 14:45:18.042304 228001 net.cpp:243] Memory required for data: 272600544
I1230 14:45:18.042327 228001 layer_factory.hpp:114] Creating layer conv4
I1230 14:45:18.042400 228001 net.cpp:178] Creating Layer conv4
I1230 14:45:18.042424 228001 net.cpp:612] conv4 <- pool3
I1230 14:45:18.042456 228001 net.cpp:586] conv4 -> conv4
I1230 14:45:18.058097 213105 net.cpp:228] Setting up conv1
I1230 14:45:18.058213 213105 net.cpp:235] Top shape: 4 64 225 225 (12960000)
I1230 14:45:18.058256 213105 net.cpp:243] Memory required for data: 54313440
I1230 14:45:18.058353 213105 layer_factory.hpp:114] Creating layer relu1
I1230 14:45:18.058792 213105 net.cpp:178] Creating Layer relu1
I1230 14:45:18.058907 213105 net.cpp:612] relu1 <- conv1
I1230 14:45:18.059226 213105 net.cpp:573] relu1 -> conv1 (in-place)
I1230 14:45:18.059453 213105 net.cpp:228] Setting up relu1
I1230 14:45:18.059631 213105 net.cpp:235] Top shape: 4 64 225 225 (12960000)
I1230 14:45:18.059806 213105 net.cpp:243] Memory required for data: 106153440
I1230 14:45:18.059857 213105 layer_factory.hpp:114] Creating layer dropout1
I1230 14:45:18.060214 213105 net.cpp:178] Creating Layer dropout1
I1230 14:45:18.060257 213105 net.cpp:612] dropout1 <- conv1
I1230 14:45:18.060292 213105 net.cpp:586] dropout1 -> drop1
I1230 14:45:18.060353 213105 net.cpp:228] Setting up dropout1
I1230 14:45:18.060374 213105 net.cpp:235] Top shape: 4 64 225 225 (12960000)
I1230 14:45:18.060418 213105 net.cpp:243] Memory required for data: 157993440
I1230 14:45:18.060442 213105 layer_factory.hpp:114] Creating layer pool1
I1230 14:45:18.060505 213105 net.cpp:178] Creating Layer pool1
I1230 14:45:18.060541 213105 net.cpp:612] pool1 <- drop1
I1230 14:45:18.060784 213105 net.cpp:586] pool1 -> pool1
I1230 14:45:18.060933 213105 net.cpp:228] Setting up pool1
I1230 14:45:18.060959 213105 net.cpp:235] Top shape: 4 64 113 113 (3268864)
I1230 14:45:18.060989 213105 net.cpp:243] Memory required for data: 171068896
I1230 14:45:18.061014 213105 layer_factory.hpp:114] Creating layer conv2
I1230 14:45:18.061102 213105 net.cpp:178] Creating Layer conv2
I1230 14:45:18.061282 213105 net.cpp:612] conv2 <- pool1
I1230 14:45:18.061417 213105 net.cpp:586] conv2 -> conv2
I1230 14:45:18.081189 213991 net.cpp:228] Setting up conv2
I1230 14:45:18.081323 213991 net.cpp:235] Top shape: 4 128 111 111 (6308352)
I1230 14:45:18.081365 213991 net.cpp:243] Memory required for data: 196302304
I1230 14:45:18.081439 213991 layer_factory.hpp:114] Creating layer relu2
I1230 14:45:18.081507 213991 net.cpp:178] Creating Layer relu2
I1230 14:45:18.081532 213991 net.cpp:612] relu2 <- conv2
I1230 14:45:18.081580 213991 net.cpp:573] relu2 -> conv2 (in-place)
I1230 14:45:18.081666 213991 net.cpp:228] Setting up relu2
I1230 14:45:18.081771 213991 net.cpp:235] Top shape: 4 128 111 111 (6308352)
I1230 14:45:18.081799 213991 net.cpp:243] Memory required for data: 221535712
I1230 14:45:18.082587 228001 net.cpp:228] Setting up conv4
I1230 14:45:18.082682 228001 net.cpp:235] Top shape: 4 128 25 25 (320000)
I1230 14:45:18.082725 228001 net.cpp:243] Memory required for data: 273880544
I1230 14:45:18.081822 213991 layer_factory.hpp:114] Creating layer dropout2
I1230 14:45:18.081853 213991 net.cpp:178] Creating Layer dropout2
I1230 14:45:18.082788 228001 layer_factory.hpp:114] Creating layer relu4
I1230 14:45:18.081873 213991 net.cpp:612] dropout2 <- conv2
I1230 14:45:18.081902 213991 net.cpp:586] dropout2 -> drop2
I1230 14:45:18.082860 228001 net.cpp:178] Creating Layer relu4
I1230 14:45:18.082885 228001 net.cpp:612] relu4 <- conv4
I1230 14:45:18.081941 213991 net.cpp:228] Setting up dropout2
I1230 14:45:18.082062 213991 net.cpp:235] Top shape: 4 128 111 111 (6308352)
I1230 14:45:18.082089 213991 net.cpp:243] Memory required for data: 246769120
I1230 14:45:18.082111 213991 layer_factory.hpp:114] Creating layer pool2
I1230 14:45:18.082934 228001 net.cpp:573] relu4 -> conv4 (in-place)
I1230 14:45:18.082172 213991 net.cpp:178] Creating Layer pool2
I1230 14:45:18.082196 213991 net.cpp:612] pool2 <- drop2
I1230 14:45:18.082227 213991 net.cpp:586] pool2 -> pool2
I1230 14:45:18.083019 228001 net.cpp:228] Setting up relu4
I1230 14:45:18.083127 228001 net.cpp:235] Top shape: 4 128 25 25 (320000)
I1230 14:45:18.083156 228001 net.cpp:243] Memory required for data: 275160544
I1230 14:45:18.082310 213991 net.cpp:228] Setting up pool2
I1230 14:45:18.083180 228001 layer_factory.hpp:114] Creating layer dropout4
I1230 14:45:18.082437 213991 net.cpp:235] Top shape: 4 128 56 56 (1605632)
I1230 14:45:18.083210 228001 net.cpp:178] Creating Layer dropout4
I1230 14:45:18.082465 213991 net.cpp:243] Memory required for data: 253191648
I1230 14:45:18.082487 213991 layer_factory.hpp:114] Creating layer conv3
I1230 14:45:18.083230 228001 net.cpp:612] dropout4 <- conv4
I1230 14:45:18.082559 213991 net.cpp:178] Creating Layer conv3
I1230 14:45:18.082654 213991 net.cpp:612] conv3 <- pool2
I1230 14:45:18.082687 213991 net.cpp:586] conv3 -> conv3
I1230 14:45:18.083274 228001 net.cpp:586] dropout4 -> drop4
I1230 14:45:18.083315 228001 net.cpp:228] Setting up dropout4
I1230 14:45:18.083434 228001 net.cpp:235] Top shape: 4 128 25 25 (320000)
I1230 14:45:18.083461 228001 net.cpp:243] Memory required for data: 276440544
I1230 14:45:18.083483 228001 layer_factory.hpp:114] Creating layer pool4
I1230 14:45:18.083534 228001 net.cpp:178] Creating Layer pool4
I1230 14:45:18.083557 228001 net.cpp:612] pool4 <- drop4
I1230 14:45:18.083587 228001 net.cpp:586] pool4 -> pool4
I1230 14:45:18.083669 228001 net.cpp:228] Setting up pool4
I1230 14:45:18.083816 228001 net.cpp:235] Top shape: 4 128 13 13 (86528)
I1230 14:45:18.083845 228001 net.cpp:243] Memory required for data: 276786656
I1230 14:45:18.083868 228001 layer_factory.hpp:114] Creating layer fc1
I1230 14:45:18.083931 228001 net.cpp:178] Creating Layer fc1
I1230 14:45:18.083956 228001 net.cpp:612] fc1 <- pool4
I1230 14:45:18.083987 228001 net.cpp:586] fc1 -> fc1
I1230 14:45:18.109307 209770 net.cpp:228] Setting up conv2
I1230 14:45:18.109413 209770 net.cpp:235] Top shape: 4 128 111 111 (6308352)
I1230 14:45:18.109455 209770 net.cpp:243] Memory required for data: 196302304
I1230 14:45:18.109529 209770 layer_factory.hpp:114] Creating layer relu2
I1230 14:45:18.109599 209770 net.cpp:178] Creating Layer relu2
I1230 14:45:18.109622 209770 net.cpp:612] relu2 <- conv2
I1230 14:45:18.109669 209770 net.cpp:573] relu2 -> conv2 (in-place)
I1230 14:45:18.109758 209770 net.cpp:228] Setting up relu2
I1230 14:45:18.109869 209770 net.cpp:235] Top shape: 4 128 111 111 (6308352)
I1230 14:45:18.109899 209770 net.cpp:243] Memory required for data: 221535712
I1230 14:45:18.109923 209770 layer_factory.hpp:114] Creating layer dropout2
I1230 14:45:18.109956 209770 net.cpp:178] Creating Layer dropout2
I1230 14:45:18.110013 209770 net.cpp:612] dropout2 <- conv2
I1230 14:45:18.110054 209770 net.cpp:586] dropout2 -> drop2
I1230 14:45:18.110097 209770 net.cpp:228] Setting up dropout2
I1230 14:45:18.110119 209770 net.cpp:235] Top shape: 4 128 111 111 (6308352)
I1230 14:45:18.110146 209770 net.cpp:243] Memory required for data: 246769120
I1230 14:45:18.110169 209770 layer_factory.hpp:114] Creating layer pool2
I1230 14:45:18.110244 209770 net.cpp:178] Creating Layer pool2
I1230 14:45:18.110366 209770 net.cpp:612] pool2 <- drop2
I1230 14:45:18.110399 209770 net.cpp:586] pool2 -> pool2
I1230 14:45:18.110486 209770 net.cpp:228] Setting up pool2
I1230 14:45:18.110512 209770 net.cpp:235] Top shape: 4 128 56 56 (1605632)
I1230 14:45:18.110539 209770 net.cpp:243] Memory required for data: 253191648
I1230 14:45:18.110561 209770 layer_factory.hpp:114] Creating layer conv3
I1230 14:45:18.110640 209770 net.cpp:178] Creating Layer conv3
I1230 14:45:18.110659 209770 net.cpp:612] conv3 <- pool2
I1230 14:45:18.110689 209770 net.cpp:586] conv3 -> conv3
I1230 14:45:18.118718 153603 net.cpp:228] Setting up conv2
I1230 14:45:18.118824 153603 net.cpp:235] Top shape: 4 128 111 111 (6308352)
I1230 14:45:18.118866 153603 net.cpp:243] Memory required for data: 196302304
I1230 14:45:18.118940 153603 layer_factory.hpp:114] Creating layer relu2
I1230 14:45:18.119009 153603 net.cpp:178] Creating Layer relu2
I1230 14:45:18.119032 153603 net.cpp:612] relu2 <- conv2
I1230 14:45:18.119078 153603 net.cpp:573] relu2 -> conv2 (in-place)
I1230 14:45:18.119165 153603 net.cpp:228] Setting up relu2
I1230 14:45:18.119276 153603 net.cpp:235] Top shape: 4 128 111 111 (6308352)
I1230 14:45:18.119303 153603 net.cpp:243] Memory required for data: 221535712
I1230 14:45:18.119325 153603 layer_factory.hpp:114] Creating layer dropout2
I1230 14:45:18.119355 153603 net.cpp:178] Creating Layer dropout2
I1230 14:45:18.119375 153603 net.cpp:612] dropout2 <- conv2
I1230 14:45:18.119403 153603 net.cpp:586] dropout2 -> drop2
I1230 14:45:18.119442 153603 net.cpp:228] Setting up dropout2
I1230 14:45:18.119464 153603 net.cpp:235] Top shape: 4 128 111 111 (6308352)
I1230 14:45:18.119491 153603 net.cpp:243] Memory required for data: 246769120
I1230 14:45:18.119511 153603 layer_factory.hpp:114] Creating layer pool2
I1230 14:45:18.119570 153603 net.cpp:178] Creating Layer pool2
I1230 14:45:18.119669 153603 net.cpp:612] pool2 <- drop2
I1230 14:45:18.119699 153603 net.cpp:586] pool2 -> pool2
I1230 14:45:18.119778 153603 net.cpp:228] Setting up pool2
I1230 14:45:18.119801 153603 net.cpp:235] Top shape: 4 128 56 56 (1605632)
I1230 14:45:18.119827 153603 net.cpp:243] Memory required for data: 253191648
I1230 14:45:18.119848 153603 layer_factory.hpp:114] Creating layer conv3
I1230 14:45:18.119923 153603 net.cpp:178] Creating Layer conv3
I1230 14:45:18.120070 153603 net.cpp:612] conv3 <- pool2
I1230 14:45:18.120100 153603 net.cpp:586] conv3 -> conv3
I1230 14:45:18.159936 213991 net.cpp:228] Setting up conv3
I1230 14:45:18.160032 213991 net.cpp:235] Top shape: 4 128 54 54 (1492992)
I1230 14:45:18.160073 213991 net.cpp:243] Memory required for data: 259163616
I1230 14:45:18.160148 213991 layer_factory.hpp:114] Creating layer relu3
I1230 14:45:18.160262 213991 net.cpp:178] Creating Layer relu3
I1230 14:45:18.160320 213991 net.cpp:612] relu3 <- conv3
I1230 14:45:18.160354 213991 net.cpp:573] relu3 -> conv3 (in-place)
I1230 14:45:18.160444 213991 net.cpp:228] Setting up relu3
I1230 14:45:18.160537 213991 net.cpp:235] Top shape: 4 128 54 54 (1492992)
I1230 14:45:18.160565 213991 net.cpp:243] Memory required for data: 265135584
I1230 14:45:18.160588 213991 layer_factory.hpp:114] Creating layer dropout3
I1230 14:45:18.160619 213991 net.cpp:178] Creating Layer dropout3
I1230 14:45:18.160640 213991 net.cpp:612] dropout3 <- conv3
I1230 14:45:18.160668 213991 net.cpp:586] dropout3 -> drop3
I1230 14:45:18.160706 213991 net.cpp:228] Setting up dropout3
I1230 14:45:18.160725 213991 net.cpp:235] Top shape: 4 128 54 54 (1492992)
I1230 14:45:18.160763 213991 net.cpp:243] Memory required for data: 271107552
I1230 14:45:18.160784 213991 layer_factory.hpp:114] Creating layer pool3
I1230 14:45:18.160825 213991 net.cpp:178] Creating Layer pool3
I1230 14:45:18.160843 213991 net.cpp:612] pool3 <- drop3
I1230 14:45:18.160871 213991 net.cpp:586] pool3 -> pool3
I1230 14:45:18.160948 213991 net.cpp:228] Setting up pool3
I1230 14:45:18.161039 213991 net.cpp:235] Top shape: 4 128 27 27 (373248)
I1230 14:45:18.161067 213991 net.cpp:243] Memory required for data: 272600544
I1230 14:45:18.161087 213991 layer_factory.hpp:114] Creating layer conv4
I1230 14:45:18.161160 213991 net.cpp:178] Creating Layer conv4
I1230 14:45:18.161183 213991 net.cpp:612] conv4 <- pool3
I1230 14:45:18.161214 213991 net.cpp:586] conv4 -> conv4
I1230 14:45:18.189105 209770 net.cpp:228] Setting up conv3
I1230 14:45:18.189199 209770 net.cpp:235] Top shape: 4 128 54 54 (1492992)
I1230 14:45:18.189240 209770 net.cpp:243] Memory required for data: 259163616
I1230 14:45:18.189314 209770 layer_factory.hpp:114] Creating layer relu3
I1230 14:45:18.189399 209770 net.cpp:178] Creating Layer relu3
I1230 14:45:18.189456 209770 net.cpp:612] relu3 <- conv3
I1230 14:45:18.189492 209770 net.cpp:573] relu3 -> conv3 (in-place)
I1230 14:45:18.189584 209770 net.cpp:228] Setting up relu3
I1230 14:45:18.189682 209770 net.cpp:235] Top shape: 4 128 54 54 (1492992)
I1230 14:45:18.189712 209770 net.cpp:243] Memory required for data: 265135584
I1230 14:45:18.189734 209770 layer_factory.hpp:114] Creating layer dropout3
I1230 14:45:18.189764 209770 net.cpp:178] Creating Layer dropout3
I1230 14:45:18.189782 209770 net.cpp:612] dropout3 <- conv3
I1230 14:45:18.189810 209770 net.cpp:586] dropout3 -> drop3
I1230 14:45:18.189851 209770 net.cpp:228] Setting up dropout3
I1230 14:45:18.189869 209770 net.cpp:235] Top shape: 4 128 54 54 (1492992)
I1230 14:45:18.189904 209770 net.cpp:243] Memory required for data: 271107552
I1230 14:45:18.189926 209770 layer_factory.hpp:114] Creating layer pool3
I1230 14:45:18.189967 209770 net.cpp:178] Creating Layer pool3
I1230 14:45:18.190022 209770 net.cpp:612] pool3 <- drop3
I1230 14:45:18.190055 209770 net.cpp:586] pool3 -> pool3
I1230 14:45:18.190140 209770 net.cpp:228] Setting up pool3
I1230 14:45:18.190209 209770 net.cpp:235] Top shape: 4 128 27 27 (373248)
I1230 14:45:18.190238 209770 net.cpp:243] Memory required for data: 272600544
I1230 14:45:18.190261 209770 layer_factory.hpp:114] Creating layer conv4
I1230 14:45:18.190337 209770 net.cpp:178] Creating Layer conv4
I1230 14:45:18.190362 209770 net.cpp:612] conv4 <- pool3
I1230 14:45:18.190393 209770 net.cpp:586] conv4 -> conv4
I1230 14:45:18.201047 213991 net.cpp:228] Setting up conv4
I1230 14:45:18.201138 213991 net.cpp:235] Top shape: 4 128 25 25 (320000)
I1230 14:45:18.201179 213991 net.cpp:243] Memory required for data: 273880544
I1230 14:45:18.201243 213991 layer_factory.hpp:114] Creating layer relu4
I1230 14:45:18.201326 213991 net.cpp:178] Creating Layer relu4
I1230 14:45:18.201351 213991 net.cpp:612] relu4 <- conv4
I1230 14:45:18.201391 213991 net.cpp:573] relu4 -> conv4 (in-place)
I1230 14:45:18.201475 213991 net.cpp:228] Setting up relu4
I1230 14:45:18.201496 213991 net.cpp:235] Top shape: 4 128 25 25 (320000)
I1230 14:45:18.201524 213991 net.cpp:243] Memory required for data: 275160544
I1230 14:45:18.201545 213991 layer_factory.hpp:114] Creating layer dropout4
I1230 14:45:18.201575 213991 net.cpp:178] Creating Layer dropout4
I1230 14:45:18.201594 213991 net.cpp:612] dropout4 <- conv4
I1230 14:45:18.201630 213991 net.cpp:586] dropout4 -> drop4
I1230 14:45:18.201669 213991 net.cpp:228] Setting up dropout4
I1230 14:45:18.201689 213991 net.cpp:235] Top shape: 4 128 25 25 (320000)
I1230 14:45:18.201714 213991 net.cpp:243] Memory required for data: 276440544
I1230 14:45:18.201733 213991 layer_factory.hpp:114] Creating layer pool4
I1230 14:45:18.201782 213991 net.cpp:178] Creating Layer pool4
I1230 14:45:18.201802 213991 net.cpp:612] pool4 <- drop4
I1230 14:45:18.201830 213991 net.cpp:586] pool4 -> pool4
I1230 14:45:18.201908 213991 net.cpp:228] Setting up pool4
I1230 14:45:18.202030 213991 net.cpp:235] Top shape: 4 128 13 13 (86528)
I1230 14:45:18.202059 213991 net.cpp:243] Memory required for data: 276786656
I1230 14:45:18.202080 213991 layer_factory.hpp:114] Creating layer fc1
I1230 14:45:18.204520 153603 net.cpp:228] Setting up conv3
I1230 14:45:18.204614 153603 net.cpp:235] Top shape: 4 128 54 54 (1492992)
I1230 14:45:18.204656 153603 net.cpp:243] Memory required for data: 259163616
I1230 14:45:18.202142 213991 net.cpp:178] Creating Layer fc1
I1230 14:45:18.202165 213991 net.cpp:612] fc1 <- pool4
I1230 14:45:18.202196 213991 net.cpp:586] fc1 -> fc1
I1230 14:45:18.204731 153603 layer_factory.hpp:114] Creating layer relu3
I1230 14:45:18.204814 153603 net.cpp:178] Creating Layer relu3
I1230 14:45:18.204870 153603 net.cpp:612] relu3 <- conv3
I1230 14:45:18.204906 153603 net.cpp:573] relu3 -> conv3 (in-place)
I1230 14:45:18.204993 153603 net.cpp:228] Setting up relu3
I1230 14:45:18.205111 153603 net.cpp:235] Top shape: 4 128 54 54 (1492992)
I1230 14:45:18.205137 153603 net.cpp:243] Memory required for data: 265135584
I1230 14:45:18.205160 153603 layer_factory.hpp:114] Creating layer dropout3
I1230 14:45:18.205190 153603 net.cpp:178] Creating Layer dropout3
I1230 14:45:18.205209 153603 net.cpp:612] dropout3 <- conv3
I1230 14:45:18.205237 153603 net.cpp:586] dropout3 -> drop3
I1230 14:45:18.205276 153603 net.cpp:228] Setting up dropout3
I1230 14:45:18.205296 153603 net.cpp:235] Top shape: 4 128 54 54 (1492992)
I1230 14:45:18.205330 153603 net.cpp:243] Memory required for data: 271107552
I1230 14:45:18.205351 153603 layer_factory.hpp:114] Creating layer pool3
I1230 14:45:18.205392 153603 net.cpp:178] Creating Layer pool3
I1230 14:45:18.205411 153603 net.cpp:612] pool3 <- drop3
I1230 14:45:18.205440 153603 net.cpp:586] pool3 -> pool3
I1230 14:45:18.205516 153603 net.cpp:228] Setting up pool3
I1230 14:45:18.205608 153603 net.cpp:235] Top shape: 4 128 27 27 (373248)
I1230 14:45:18.205636 153603 net.cpp:243] Memory required for data: 272600544
I1230 14:45:18.205657 153603 layer_factory.hpp:114] Creating layer conv4
I1230 14:45:18.205730 153603 net.cpp:178] Creating Layer conv4
I1230 14:45:18.205754 153603 net.cpp:612] conv4 <- pool3
I1230 14:45:18.205782 153603 net.cpp:586] conv4 -> conv4
I1230 14:45:18.228543 213105 net.cpp:228] Setting up conv2
I1230 14:45:18.228646 213105 net.cpp:235] Top shape: 4 128 111 111 (6308352)
I1230 14:45:18.228690 213105 net.cpp:243] Memory required for data: 196302304
I1230 14:45:18.228765 213105 layer_factory.hpp:114] Creating layer relu2
I1230 14:45:18.229063 213105 net.cpp:178] Creating Layer relu2
I1230 14:45:18.229121 213105 net.cpp:612] relu2 <- conv2
I1230 14:45:18.229260 213105 net.cpp:573] relu2 -> conv2 (in-place)
I1230 14:45:18.229792 213105 net.cpp:228] Setting up relu2
I1230 14:45:18.229909 213105 net.cpp:235] Top shape: 4 128 111 111 (6308352)
I1230 14:45:18.229948 213105 net.cpp:243] Memory required for data: 221535712
I1230 14:45:18.229979 213105 layer_factory.hpp:114] Creating layer dropout2
I1230 14:45:18.230509 209770 net.cpp:228] Setting up conv4
I1230 14:45:18.230602 209770 net.cpp:235] Top shape: 4 128 25 25 (320000)
I1230 14:45:18.230643 209770 net.cpp:243] Memory required for data: 273880544
I1230 14:45:18.230028 213105 net.cpp:178] Creating Layer dropout2
I1230 14:45:18.230078 213105 net.cpp:612] dropout2 <- conv2
I1230 14:45:18.230114 213105 net.cpp:586] dropout2 -> drop2
I1230 14:45:18.230708 209770 layer_factory.hpp:114] Creating layer relu4
I1230 14:45:18.230159 213105 net.cpp:228] Setting up dropout2
I1230 14:45:18.230793 209770 net.cpp:178] Creating Layer relu4
I1230 14:45:18.230818 209770 net.cpp:612] relu4 <- conv4
I1230 14:45:18.230486 213105 net.cpp:235] Top shape: 4 128 111 111 (6308352)
I1230 14:45:18.230859 209770 net.cpp:573] relu4 -> conv4 (in-place)
I1230 14:45:18.230527 213105 net.cpp:243] Memory required for data: 246769120
I1230 14:45:18.230692 213105 layer_factory.hpp:114] Creating layer pool2
I1230 14:45:18.230939 209770 net.cpp:228] Setting up relu4
I1230 14:45:18.231050 209770 net.cpp:235] Top shape: 4 128 25 25 (320000)
I1230 14:45:18.231077 209770 net.cpp:243] Memory required for data: 275160544
I1230 14:45:18.231101 209770 layer_factory.hpp:114] Creating layer dropout4
I1230 14:45:18.231132 209770 net.cpp:178] Creating Layer dropout4
I1230 14:45:18.231153 209770 net.cpp:612] dropout4 <- conv4
I1230 14:45:18.231189 209770 net.cpp:586] dropout4 -> drop4
I1230 14:45:18.230821 213105 net.cpp:178] Creating Layer pool2
I1230 14:45:18.230845 213105 net.cpp:612] pool2 <- drop2
I1230 14:45:18.231230 209770 net.cpp:228] Setting up dropout4
I1230 14:45:18.231251 209770 net.cpp:235] Top shape: 4 128 25 25 (320000)
I1230 14:45:18.231278 209770 net.cpp:243] Memory required for data: 276440544
I1230 14:45:18.231024 213105 net.cpp:586] pool2 -> pool2
I1230 14:45:18.231300 209770 layer_factory.hpp:114] Creating layer pool4
I1230 14:45:18.231271 213105 net.cpp:228] Setting up pool2
I1230 14:45:18.231317 213105 net.cpp:235] Top shape: 4 128 56 56 (1605632)
I1230 14:45:18.231351 213105 net.cpp:243] Memory required for data: 253191648
I1230 14:45:18.231449 213105 layer_factory.hpp:114] Creating layer conv3
I1230 14:45:18.231355 209770 net.cpp:178] Creating Layer pool4
I1230 14:45:18.231560 213105 net.cpp:178] Creating Layer conv3
I1230 14:45:18.231585 213105 net.cpp:612] conv3 <- pool2
I1230 14:45:18.231376 209770 net.cpp:612] pool4 <- drop4
I1230 14:45:18.231691 213105 net.cpp:586] conv3 -> conv3
I1230 14:45:18.231405 209770 net.cpp:586] pool4 -> pool4
I1230 14:45:18.231490 209770 net.cpp:228] Setting up pool4
I1230 14:45:18.231606 209770 net.cpp:235] Top shape: 4 128 13 13 (86528)
I1230 14:45:18.231636 209770 net.cpp:243] Memory required for data: 276786656
I1230 14:45:18.231657 209770 layer_factory.hpp:114] Creating layer fc1
I1230 14:45:18.231720 209770 net.cpp:178] Creating Layer fc1
I1230 14:45:18.231744 209770 net.cpp:612] fc1 <- pool4
I1230 14:45:18.231775 209770 net.cpp:586] fc1 -> fc1
I1230 14:45:18.248863 153603 net.cpp:228] Setting up conv4
I1230 14:45:18.248956 153603 net.cpp:235] Top shape: 4 128 25 25 (320000)
I1230 14:45:18.248998 153603 net.cpp:243] Memory required for data: 273880544
I1230 14:45:18.249063 153603 layer_factory.hpp:114] Creating layer relu4
I1230 14:45:18.249146 153603 net.cpp:178] Creating Layer relu4
I1230 14:45:18.249171 153603 net.cpp:612] relu4 <- conv4
I1230 14:45:18.249217 153603 net.cpp:573] relu4 -> conv4 (in-place)
I1230 14:45:18.249299 153603 net.cpp:228] Setting up relu4
I1230 14:45:18.249402 153603 net.cpp:235] Top shape: 4 128 25 25 (320000)
I1230 14:45:18.249429 153603 net.cpp:243] Memory required for data: 275160544
I1230 14:45:18.249451 153603 layer_factory.hpp:114] Creating layer dropout4
I1230 14:45:18.249481 153603 net.cpp:178] Creating Layer dropout4
I1230 14:45:18.249500 153603 net.cpp:612] dropout4 <- conv4
I1230 14:45:18.249536 153603 net.cpp:586] dropout4 -> drop4
I1230 14:45:18.249575 153603 net.cpp:228] Setting up dropout4
I1230 14:45:18.249594 153603 net.cpp:235] Top shape: 4 128 25 25 (320000)
I1230 14:45:18.249619 153603 net.cpp:243] Memory required for data: 276440544
I1230 14:45:18.249640 153603 layer_factory.hpp:114] Creating layer pool4
I1230 14:45:18.249688 153603 net.cpp:178] Creating Layer pool4
I1230 14:45:18.249708 153603 net.cpp:612] pool4 <- drop4
I1230 14:45:18.249737 153603 net.cpp:586] pool4 -> pool4
I1230 14:45:18.249819 153603 net.cpp:228] Setting up pool4
I1230 14:45:18.249904 153603 net.cpp:235] Top shape: 4 128 13 13 (86528)
I1230 14:45:18.249932 153603 net.cpp:243] Memory required for data: 276786656
I1230 14:45:18.249953 153603 layer_factory.hpp:114] Creating layer fc1
I1230 14:45:18.250015 153603 net.cpp:178] Creating Layer fc1
I1230 14:45:18.250037 153603 net.cpp:612] fc1 <- pool4
I1230 14:45:18.250066 153603 net.cpp:586] fc1 -> fc1
I1230 14:45:18.316480 213105 net.cpp:228] Setting up conv3
I1230 14:45:18.316587 213105 net.cpp:235] Top shape: 4 128 54 54 (1492992)
I1230 14:45:18.316630 213105 net.cpp:243] Memory required for data: 259163616
I1230 14:45:18.316707 213105 layer_factory.hpp:114] Creating layer relu3
I1230 14:45:18.317000 213105 net.cpp:178] Creating Layer relu3
I1230 14:45:18.317174 213105 net.cpp:612] relu3 <- conv3
I1230 14:45:18.317289 213105 net.cpp:573] relu3 -> conv3 (in-place)
I1230 14:45:18.317698 213105 net.cpp:228] Setting up relu3
I1230 14:45:18.317757 213105 net.cpp:235] Top shape: 4 128 54 54 (1492992)
I1230 14:45:18.317795 213105 net.cpp:243] Memory required for data: 265135584
I1230 14:45:18.317826 213105 layer_factory.hpp:114] Creating layer dropout3
I1230 14:45:18.317970 213105 net.cpp:178] Creating Layer dropout3
I1230 14:45:18.318045 213105 net.cpp:612] dropout3 <- conv3
I1230 14:45:18.318079 213105 net.cpp:586] dropout3 -> drop3
I1230 14:45:18.318128 213105 net.cpp:228] Setting up dropout3
I1230 14:45:18.318156 213105 net.cpp:235] Top shape: 4 128 54 54 (1492992)
I1230 14:45:18.318300 213105 net.cpp:243] Memory required for data: 271107552
I1230 14:45:18.318330 213105 layer_factory.hpp:114] Creating layer pool3
I1230 14:45:18.318397 213105 net.cpp:178] Creating Layer pool3
I1230 14:45:18.318418 213105 net.cpp:612] pool3 <- drop3
I1230 14:45:18.318449 213105 net.cpp:586] pool3 -> pool3
I1230 14:45:18.318528 213105 net.cpp:228] Setting up pool3
I1230 14:45:18.318549 213105 net.cpp:235] Top shape: 4 128 27 27 (373248)
I1230 14:45:18.318730 213105 net.cpp:243] Memory required for data: 272600544
I1230 14:45:18.318820 213105 layer_factory.hpp:114] Creating layer conv4
I1230 14:45:18.319043 213105 net.cpp:178] Creating Layer conv4
I1230 14:45:18.319111 213105 net.cpp:612] conv4 <- pool3
I1230 14:45:18.319265 213105 net.cpp:586] conv4 -> conv4
I1230 14:45:18.362408 213105 net.cpp:228] Setting up conv4
I1230 14:45:18.362504 213105 net.cpp:235] Top shape: 4 128 25 25 (320000)
I1230 14:45:18.362545 213105 net.cpp:243] Memory required for data: 273880544
I1230 14:45:18.362627 213105 layer_factory.hpp:114] Creating layer relu4
I1230 14:45:18.362699 213105 net.cpp:178] Creating Layer relu4
I1230 14:45:18.363000 213105 net.cpp:612] relu4 <- conv4
I1230 14:45:18.363137 213105 net.cpp:573] relu4 -> conv4 (in-place)
I1230 14:45:18.363617 213105 net.cpp:228] Setting up relu4
I1230 14:45:18.363775 213105 net.cpp:235] Top shape: 4 128 25 25 (320000)
I1230 14:45:18.363852 213105 net.cpp:243] Memory required for data: 275160544
I1230 14:45:18.363883 213105 layer_factory.hpp:114] Creating layer dropout4
I1230 14:45:18.363922 213105 net.cpp:178] Creating Layer dropout4
I1230 14:45:18.363945 213105 net.cpp:612] dropout4 <- conv4
I1230 14:45:18.363993 213105 net.cpp:586] dropout4 -> drop4
I1230 14:45:18.364130 213105 net.cpp:228] Setting up dropout4
I1230 14:45:18.364156 213105 net.cpp:235] Top shape: 4 128 25 25 (320000)
I1230 14:45:18.364184 213105 net.cpp:243] Memory required for data: 276440544
I1230 14:45:18.364392 213105 layer_factory.hpp:114] Creating layer pool4
I1230 14:45:18.364609 213105 net.cpp:178] Creating Layer pool4
I1230 14:45:18.364666 213105 net.cpp:612] pool4 <- drop4
I1230 14:45:18.364806 213105 net.cpp:586] pool4 -> pool4
I1230 14:45:18.364996 213105 net.cpp:228] Setting up pool4
I1230 14:45:18.365066 213105 net.cpp:235] Top shape: 4 128 13 13 (86528)
I1230 14:45:18.365108 213105 net.cpp:243] Memory required for data: 276786656
I1230 14:45:18.365135 213105 layer_factory.hpp:114] Creating layer fc1
I1230 14:45:18.365310 213105 net.cpp:178] Creating Layer fc1
I1230 14:45:18.365353 213105 net.cpp:612] fc1 <- pool4
I1230 14:45:18.365479 213105 net.cpp:586] fc1 -> fc1
I1230 14:45:19.231607 228001 net.cpp:228] Setting up fc1
I1230 14:45:19.231700 228001 net.cpp:235] Top shape: 4 1024 (4096)
I1230 14:45:19.231741 228001 net.cpp:243] Memory required for data: 276803040
I1230 14:45:19.231808 228001 layer_factory.hpp:114] Creating layer relu5
I1230 14:45:19.231873 228001 net.cpp:178] Creating Layer relu5
I1230 14:45:19.231896 228001 net.cpp:612] relu5 <- fc1
I1230 14:45:19.231928 228001 net.cpp:573] relu5 -> fc1 (in-place)
I1230 14:45:19.231990 228001 net.cpp:228] Setting up relu5
I1230 14:45:19.232009 228001 net.cpp:235] Top shape: 4 1024 (4096)
I1230 14:45:19.232036 228001 net.cpp:243] Memory required for data: 276819424
I1230 14:45:19.232059 228001 layer_factory.hpp:114] Creating layer dropout5
I1230 14:45:19.232086 228001 net.cpp:178] Creating Layer dropout5
I1230 14:45:19.232106 228001 net.cpp:612] dropout5 <- fc1
I1230 14:45:19.232133 228001 net.cpp:586] dropout5 -> drop5
I1230 14:45:19.232170 228001 net.cpp:228] Setting up dropout5
I1230 14:45:19.232188 228001 net.cpp:235] Top shape: 4 1024 (4096)
I1230 14:45:19.232421 228001 net.cpp:243] Memory required for data: 276835808
I1230 14:45:19.232450 228001 layer_factory.hpp:114] Creating layer fc2
I1230 14:45:19.232498 228001 net.cpp:178] Creating Layer fc2
I1230 14:45:19.232519 228001 net.cpp:612] fc2 <- drop5
I1230 14:45:19.232550 228001 net.cpp:586] fc2 -> fc2
I1230 14:45:19.232769 228001 net.cpp:228] Setting up fc2
I1230 14:45:19.232808 228001 net.cpp:235] Top shape: 4 2 (8)
I1230 14:45:19.232837 228001 net.cpp:243] Memory required for data: 276835840
I1230 14:45:19.232880 228001 layer_factory.hpp:114] Creating layer fc2_fc2_0_split
I1230 14:45:19.232928 228001 net.cpp:178] Creating Layer fc2_fc2_0_split
I1230 14:45:19.232949 228001 net.cpp:612] fc2_fc2_0_split <- fc2
I1230 14:45:19.232978 228001 net.cpp:586] fc2_fc2_0_split -> fc2_fc2_0_split_0
I1230 14:45:19.233026 228001 net.cpp:586] fc2_fc2_0_split -> fc2_fc2_0_split_1
I1230 14:45:19.233091 228001 net.cpp:228] Setting up fc2_fc2_0_split
I1230 14:45:19.233201 228001 net.cpp:235] Top shape: 4 2 (8)
I1230 14:45:19.233227 228001 net.cpp:235] Top shape: 4 2 (8)
I1230 14:45:19.233249 228001 net.cpp:243] Memory required for data: 276835904
I1230 14:45:19.233270 228001 layer_factory.hpp:114] Creating layer loss
I1230 14:45:19.233306 228001 net.cpp:178] Creating Layer loss
I1230 14:45:19.233326 228001 net.cpp:612] loss <- fc2_fc2_0_split_0
I1230 14:45:19.233350 228001 net.cpp:612] loss <- label_data_1_split_0
I1230 14:45:19.233388 228001 net.cpp:586] loss -> (automatic)
…
I1230 14:45:19.234540 228001 net.cpp:307] label_data_1_split does not need backward computation.
I1230 14:45:19.234562 228001 net.cpp:307] data does not need backward computation.
I1230 14:45:19.234580 228001 net.cpp:349] This network produces output accuracy_train
I1230 14:45:19.234634 228001 net.cpp:363] Network initialization done.
I1230 14:45:19.234923 228001 solver.cpp:107] Solver scaffolding done.
I1230 14:45:19.235046 228001 caffe.cpp:376] Configuring multinode setup
I1230 14:45:19.236129 228001 caffe.cpp:386] Starting parameter server in mpi environment
I1230 14:45:19.350482 213991 net.cpp:228] Setting up fc1
I1230 14:45:19.350576 213991 net.cpp:235] Top shape: 4 1024 (4096)
I1230 14:45:19.350617 213991 net.cpp:243] Memory required for data: 276803040
I1230 14:45:19.350683 213991 layer_factory.hpp:114] Creating layer relu5
I1230 14:45:19.350747 213991 net.cpp:178] Creating Layer relu5
I1230 14:45:19.350769 213991 net.cpp:612] relu5 <- fc1
I1230 14:45:19.350801 213991 net.cpp:573] relu5 -> fc1 (in-place)
I1230 14:45:19.350864 213991 net.cpp:228] Setting up relu5
I1230 14:45:19.350883 213991 net.cpp:235] Top shape: 4 1024 (4096)
I1230 14:45:19.350908 213991 net.cpp:243] Memory required for data: 276819424
I1230 14:45:19.350929 213991 layer_factory.hpp:114] Creating layer dropout5
I1230 14:45:19.351117 213991 net.cpp:178] Creating Layer dropout5
I1230 14:45:19.351140 213991 net.cpp:612] dropout5 <- fc1
I1230 14:45:19.351167 213991 net.cpp:586] dropout5 -> drop5
I1230 14:45:19.351205 213991 net.cpp:228] Setting up dropout5
I1230 14:45:19.351224 213991 net.cpp:235] Top shape: 4 1024 (4096)
I1230 14:45:19.351248 213991 net.cpp:243] Memory required for data: 276835808
I1230 14:45:19.351269 213991 layer_factory.hpp:114] Creating layer fc2
I1230 14:45:19.351330 213991 net.cpp:178] Creating Layer fc2
I1230 14:45:19.351351 213991 net.cpp:612] fc2 <- drop5
I1230 14:45:19.351379 213991 net.cpp:586] fc2 -> fc2
I1230 14:45:19.351583 213991 net.cpp:228] Setting up fc2
I1230 14:45:19.351619 213991 net.cpp:235] Top shape: 4 2 (8)
I1230 14:45:19.351655 213991 net.cpp:243] Memory required for data: 276835840
I1230 14:45:19.351693 213991 layer_factory.hpp:114] Creating layer fc2_fc2_0_split
I1230 14:45:19.351735 213991 net.cpp:178] Creating Layer fc2_fc2_0_split
I1230 14:45:19.351755 213991 net.cpp:612] fc2_fc2_0_split <- fc2
I1230 14:45:19.351790 213991 net.cpp:586] fc2_fc2_0_split -> fc2_fc2_0_split_0
I1230 14:45:19.351826 213991 net.cpp:586] fc2_fc2_0_split -> fc2_fc2_0_split_1
I1230 14:45:19.351893 213991 net.cpp:228] Setting up fc2_fc2_0_split
I1230 14:45:19.351914 213991 net.cpp:235] Top shape: 4 2 (8)
I1230 14:45:19.351950 213991 net.cpp:235] Top shape: 4 2 (8)
I1230 14:45:19.351974 213991 net.cpp:243] Memory required for data: 276835904
I1230 14:45:19.351994 213991 layer_factory.hpp:114] Creating layer loss
I1230 14:45:19.352031 213991 net.cpp:178] Creating Layer loss
I1230 14:45:19.352051 213991 net.cpp:612] loss <- fc2_fc2_0_split_0
I1230 14:45:19.352073 213991 net.cpp:612] loss <- label_data_1_split_0
I1230 14:45:19.352114 213991 net.cpp:586] loss -> (automatic)
…
