…
I1228 13:25:49.535533 111726 net.cpp:500] The NetState phase (0) differed from the phase (1) specified by a rule in layer data
I1228 13:25:49.560982 110187 net.cpp:136] Initializing net from parameters: 
name: "AlexNet"
state {
  phase: TRAIN
  level: 0
  stage: ""
}
layer {
  name: "data"
  type: "Data"
  top: "data"
  top: "label"
  include {
    phase: TRAIN
  }
  transform_param {
    mirror: true
    crop_size: 227
    mean_value: 104
    mean_value: 117
    mean_value: 123
  }
  data_param {
    source: "/export/data1/stanford/hazy/zjian/gorden_bell/ILSVRC2012_lmdb/db_8/ilsvrc12_train_lmdb_3"
    batch_size: 64
    backend: LMDB
  }
}
layer {
  name: "label_data_1_split"
  type: "Split"
  bottom: "label"
  top: "label_data_1_split_0"
  top: "label_data_1_split_1"
}
layer {
  name: "conv1"
  type: "Convolution"
  bottom: "data"
  top: "conv1"
  param {
    lr_mult: 1
    decay_mult: 1
  }
  param {
    lr_mult: 2
    decay_mult: 0
  }
  convolution_param {
    num_output: 96
    kernel_size: 11
    stride: 4
    weight_filler {
      type: "gaussian"
      std: 0.01
    }
    bias_filler {
      type: "constant"
      value: 0
    }
    engine: MKL2017
  }
}
layer {
  name: "relu1"
  type: "ReLU"
  bottom: "conv1"
  top: "conv1"
  relu_param {
    engine: MKL2017
  }
}
layer {
  name: "norm1"
  type: "LRN"
  bottom: "conv1"
  top: "norm1"
  lrn_param {
    local_size: 5
    alpha: 0.0001
    beta: 0.75
    engine: MKL2017
  }
}
layer {
  name: "pool1"
  type: "Pooling"
  bottom: "norm1"
  top: "pool1"
  pooling_param {
    pool: MAX
    kernel_size: 3
    stride: 2
    engine: MKL2017
  }
}
layer {
  name: "conv2"
  type: "Convolution"
  bottom: "pool1"
  top: "conv2"
  param {
    lr_mult: 1
    decay_mult: 1
  }
  param {
    lr_mult: 2
    decay_mult: 0
  }
  convolution_param {
    num_output: 256
    pad: 2
    kernel_size: 5
    group: 2
    weight_filler {
      type: "gaussian"
      std: 0.01
    }
    bias_filler {
      type: "constant"
      value: 0.1
    }
    engine: MKL2017
  }
}
layer {
  name: "relu2"
  type: "ReLU"
  bottom: "conv2"
  top: "conv2"
  relu_param {
    engine: MKL2017
  }
}
layer {
  name: "norm2"
  type: "LRN"
  bottom: "conv2"
  top: "norm2"
  lrn_param {
    local_size: 5
    alpha: 0.0001
    beta: 0.75
    engine: MKL2017
  }
}
layer {
  name: "pool2"
  type: "Pooling"
  bottom: "norm2"
  top: "pool2"
  pooling_param {
    pool: MAX
    kernel_size: 3
    stride: 2
    engine: MKL2017
  }
}
layer {
  name: "conv3"
  type: "Convolution"
  bottom: "pool2"
  top: "conv3"
  param {
    lr_mult: 1
    decay_mult: 1
  }
  param {
    lr_mult: 2
    decay_mult: 0
  }
  convolution_param {
    num_output: 384
    pad: 1
    kernel_size: 3
    weight_filler {
      type: "gaussian"
      std: 0.01
    }
    bias_filler {
      type: "constant"
      value: 0
    }
    engine: MKL2017
  }
}
layer {
  name: "relu3"
  type: "ReLU"
  bottom: "conv3"
  top: "conv3"
  relu_param {
    engine: MKL2017
  }
}
layer {
  name: "conv4"
  type: "Convolution"
  bottom: "conv3"
  top: "conv4"
  param {
    lr_mult: 1
    decay_mult: 1
  }
  param {
    lr_mult: 2
    decay_mult: 0
  }
  convolution_param {
    num_output: 384
    pad: 1
    kernel_size: 3
    group: 2
    weight_filler {
      type: "gaussian"
      std: 0.01
    }
    bias_filler {
      type: "constant"
      value: 0.1
    }
    engine: MKL2017
  }
}
layer {
  name: "relu4"
  type: "ReLU"
  bottom: "conv4"
  top: "conv4"
  relu_param {
    engine: MKL2017
  }
}
layer {
  name: "conv5"
  type: "Convolution"
  bottom: "conv4"
  top: "conv5"
  param {
    lr_mult: 1
    decay_mult: 1
  }
  param {
    lr_mult: 2
    decay_mult: 0
  }
  convolution_param {
    num_output: 256
    pad: 1
    kernel_size: 3
    group: 2
    weight_filler {
      type: "gaussian"
      std: 0.01
    }
    bias_filler {
      type: "constant"
      value: 0.1
    }
    engine: MKL2017
  }
}
layer {
  name: "relu5"
  type: "ReLU"
  bottom: "conv5"
  top: "conv5"
  relu_param {
    engine: MKL2017
  }
}
layer {
  name: "pool5"
  type: "Pooling"
  bottom: "conv5"
  top: "pool5"
  pooling_param {
    pool: MAX
    kernel_size: 3
    stride: 2
    engine: MKL2017
  }
}
layer {
  name: "fc6"
  type: "InnerProduct"
  bottom: "pool5"
  top: "fc6"
  param {
    lr_mult: 1
    decay_mult: 1
  }
  param {
    lr_mult: 2
    decay_mult: 0
  }
  inner_product_param {
    num_output: 4096
    weight_filler {
      type: "gaussian"
      std: 0.005
    }
    bias_filler {
      type: "constant"
      value: 0.1
    }
  }
}
layer {
  name: "relu6"
  type: "ReLU"
  bottom: "fc6"
  top: "fc6"
}
layer {
  name: "drop6"
  type: "Dropout"
  bottom: "fc6"
  top: "fc6"
  dropout_param {
    dropout_ratio: 0.5
  }
}
layer {
  name: "fc7"
  type: "InnerProduct"
  bottom: "fc6"
  top: "fc7"
  param {
    lr_mult: 1
    decay_mult: 1
  }
  param {
    lr_mult: 2
    decay_mult: 0
  }
  inner_product_param {
    num_output: 4096
    weight_filler {
      type: "gaussian"
      std: 0.005
    }
    bias_filler {
      type: "constant"
      value: 0.1
    }
  }
}
layer {
  name: "relu7"
  type: "ReLU"
  bottom: "fc7"
  top: "fc7"
}
layer {
  name: "drop7"
  type: "Dropout"
  bottom: "fc7"
  top: "fc7"
  dropout_param {
    dropout_ratio: 0.5
  }
}
layer {
  name: "fc8"
  type: "InnerProduct"
  bottom: "fc7"
  top: "fc8"
  param {
    lr_mult: 1
    decay_mult: 1
  }
  param {
    lr_mult: 2
    decay_mult: 0
  }
  inner_product_param {
    num_output: 1000
    weight_filler {
      type: "gaussian"
      std: 0.01
    }
    bias_filler {
      type: "constant"
      value: 0
    }
  }
}
layer {
  name: "fc8_fc8_0_split"
  type: "Split"
  bottom: "fc8"
  top: "fc8_fc8_0_split_0"
  top: "fc8_fc8_0_split_1"
}
layer {
  name: "accuracy"
  type: "Accuracy"
  bottom: "fc8_fc8_0_split_0"
  bottom: "label_data_1_split_0"
  top: "accuracy"
}
layer {
  name: "loss"
  type: "SoftmaxWithLoss"
  bottom: "fc8_fc8_0_split_1"
  bottom: "label_data_1_split_1"
  top: "loss"
}
I1228 13:25:49.551635 103425 cpu_info.cpp:473] Number of OpenMP threads: 66
I1228 13:25:49.546722 108582 cpu_info.cpp:473] Number of OpenMP threads: 66
I1228 13:25:49.546548 111726 net.cpp:136] Initializing net from parameters: 
name: "AlexNet"
state {
  phase: TRAIN
  level: 0
  stage: ""
}
layer {
  name: "data"
  type: "Data"
  top: "data"
  top: "label"
  include {
    phase: TRAIN
  }
  transform_param {
    mirror: true
    crop_size: 227
    mean_value: 104
    mean_value: 117
    mean_value: 123
  }
  data_param {
    source: "/export/data1/stanford/hazy/zjian/gorden_bell/ILSVRC2012_lmdb/db_8/ilsvrc12_train_lmdb_1"
    batch_size: 64
    backend: LMDB
  }
}
layer {
  name: "label_data_1_split"
  type: "Split"
  bottom: "label"
  top: "label_data_1_split_0"
  top: "label_data_1_split_1"
}
layer {
  name: "conv1"
  type: "Convolution"
  bottom: "data"
  top: "conv1"
  param {
    lr_mult: 1
    decay_mult: 1
  }
  param {
    lr_mult: 2
    decay_mult: 0
  }
  convolution_param {
    num_output: 96
    kernel_size: 11
    stride: 4
    weight_filler {
      type: "gaussian"
      std: 0.01
    }
    bias_filler {
      type: "constant"
      value: 0
    }
    engine: MKL2017
  }
}
layer {
  name: "relu1"
  type: "ReLU"
  bottom: "conv1"
  top: "conv1"
  relu_param {
    engine: MKL2017
  }
}
layer {
  name: "norm1"
  type: "LRN"
  bottom: "conv1"
  top: "norm1"
  lrn_param {
    local_size: 5
    alpha: 0.0001
    beta: 0.75
    engine: MKL2017
  }
}
layer {
  name: "pool1"
  type: "Pooling"
  bottom: "norm1"
  top: "pool1"
  pooling_param {
    pool: MAX
    kernel_size: 3
    stride: 2
    engine: MKL2017
  }
}
layer {
  name: "conv2"
  type: "Convolution"
  bottom: "pool1"
  top: "conv2"
  param {
    lr_mult: 1
    decay_mult: 1
  }
  param {
    lr_mult: 2
    decay_mult: 0
  }
  convolution_param {
    num_output: 256
    pad: 2
    kernel_size: 5
    group: 2
    weight_filler {
      type: "gaussian"
      std: 0.01
    }
    bias_filler {
      type: "constant"
      value: 0.1
    }
    engine: MKL2017
  }
}
layer {
  name: "relu2"
  type: "ReLU"
  bottom: "conv2"
  top: "conv2"
  relu_param {
    engine: MKL2017
  }
}
layer {
  name: "norm2"
  type: "LRN"
  bottom: "conv2"
  top: "norm2"
  lrn_param {
    local_size: 5
    alpha: 0.0001
    beta: 0.75
    engine: MKL2017
  }
}
layer {
  name: "pool2"
  type: "Pooling"
  bottom: "norm2"
  top: "pool2"
  pooling_param {
    pool: MAX
    kernel_size: 3
    stride: 2
    engine: MKL2017
  }
}
layer {
  name: "conv3"
  type: "Convolution"
  bottom: "pool2"
  top: "conv3"
  param {
    lr_mult: 1
    decay_mult: 1
  }
  param {
    lr_mult: 2
    decay_mult: 0
  }
  convolution_param {
    num_output: 384
    pad: 1
    kernel_size: 3
    weight_filler {
      type: "gaussian"
      std: 0.01
    }
    bias_filler {
      type: "constant"
      value: 0
    }
    engine: MKL2017
  }
}
layer {
  name: "relu3"
  type: "ReLU"
  bottom: "conv3"
  top: "conv3"
  relu_param {
    engine: MKL2017
  }
}
layer {
  name: "conv4"
  type: "Convolution"
  bottom: "conv3"
  top: "conv4"
  param {
    lr_mult: 1
    decay_mult: 1
  }
  param {
    lr_mult: 2
    decay_mult: 0
  }
  convolution_param {
    num_output: 384
    pad: 1
    kernel_size: 3
    group: 2
    weight_filler {
      type: "gaussian"
      std: 0.01
    }
    bias_filler {
      type: "constant"
      value: 0.1
    }
    engine: MKL2017
  }
}
layer {
  name: "relu4"
  type: "ReLU"
  bottom: "conv4"
  top: "conv4"
  relu_param {
    engine: MKL2017
  }
}
layer {
  name: "conv5"
  type: "Convolution"
  bottom: "conv4"
  top: "conv5"
  param {
    lr_mult: 1
    decay_mult: 1
  }
  param {
    lr_mult: 2
    decay_mult: 0
  }
  convolution_param {
    num_output: 256
    pad: 1
    kernel_size: 3
    group: 2
    weight_filler {
      type: "gaussian"
      std: 0.01
    }
    bias_filler {
      type: "constant"
      value: 0.1
    }
    engine: MKL2017
  }
}
layer {
  name: "relu5"
  type: "ReLU"
  bottom: "conv5"
  top: "conv5"
  relu_param {
    engine: MKL2017
  }
}
layer {
  name: "pool5"
  type: "Pooling"
  bottom: "conv5"
  top: "pool5"
  pooling_param {
    pool: MAX
    kernel_size: 3
    stride: 2
    engine: MKL2017
  }
}
layer {
  name: "fc6"
  type: "InnerProduct"
  bottom: "pool5"
  top: "fc6"
  param {
    lr_mult: 1
    decay_mult: 1
  }
  param {
    lr_mult: 2
    decay_mult: 0
  }
  inner_product_param {
    num_output: 4096
    weight_filler {
      type: "gaussian"
      std: 0.005
    }
    bias_filler {
      type: "constant"
      value: 0.1
    }
  }
}
layer {
  name: "relu6"
  type: "ReLU"
  bottom: "fc6"
  top: "fc6"
}
layer {
  name: "drop6"
  type: "Dropout"
  bottom: "fc6"
  top: "fc6"
  dropout_param {
    dropout_ratio: 0.5
  }
}
layer {
  name: "fc7"
  type: "InnerProduct"
  bottom: "fc6"
  top: "fc7"
  param {
    lr_mult: 1
    decay_mult: 1
  }
  param {
    lr_mult: 2
    decay_mult: 0
  }
  inner_product_param {
    num_output: 4096
    weight_filler {
      type: "gaussian"
      std: 0.005
    }
    bias_filler {
      type: "constant"
      value: 0.1
    }
  }
}
layer {
  name: "relu7"
  type: "ReLU"
  bottom: "fc7"
  top: "fc7"
}
layer {
  name: "drop7"
  type: "Dropout"
  bottom: "fc7"
  top: "fc7"
  dropout_param {
    dropout_ratio: 0.5
  }
}
layer {
  name: "fc8"
  type: "InnerProduct"
  bottom: "fc7"
  top: "fc8"
  param {
    lr_mult: 1
    decay_mult: 1
  }
  param {
    lr_mult: 2
    decay_mult: 0
  }
  inner_product_param {
    num_output: 1000
    weight_filler {
      type: "gaussian"
      std: 0.01
    }
    bias_filler {
      type: "constant"
      value: 0
    }
  }
}
layer {
  name: "fc8_fc8_0_split"
  type: "Split"
  bottom: "fc8"
  top: "fc8_fc8_0_split_0"
  top: "fc8_fc8_0_split_1"
}
layer {
  name: "accuracy"
  type: "Accuracy"
  bottom: "fc8_fc8_0_split_0"
  bottom: "label_data_1_split_0"
  top: "accuracy"
}
layer {
  name: "loss"
  type: "SoftmaxWithLoss"
  bottom: "fc8_fc8_0_split_1"
  bottom: "label_data_1_split_1"
  top: "loss"
}
I1228 13:25:49.562448 110187 layer_factory.hpp:114] Creating layer data
I1228 13:25:49.548985 108582 net.cpp:500] The NetState phase (0) differed from the phase (1) specified by a rule in layer data
I1228 13:25:49.548102 111726 layer_factory.hpp:114] Creating layer data
I1228 13:25:49.554494 103425 net.cpp:500] The NetState phase (0) differed from the phase (1) specified by a rule in layer data
I1228 13:25:49.561748 104155 cpu_info.cpp:473] Number of OpenMP threads: 66
I1228 13:25:49.563987 104155 net.cpp:500] The NetState phase (0) differed from the phase (1) specified by a rule in layer data
I1228 13:25:49.571501 103525 cpu_info.cpp:473] Number of OpenMP threads: 66
I1228 13:25:49.573878 103525 net.cpp:500] The NetState phase (0) differed from the phase (1) specified by a rule in layer data
I1228 13:25:49.560178 108582 net.cpp:136] Initializing net from parameters: 
name: "AlexNet"
state {
  phase: TRAIN
  level: 0
  stage: ""
}
layer {
  name: "data"
  type: "Data"
  top: "data"
  top: "label"
  include {
    phase: TRAIN
  }
  transform_param {
    mirror: true
    crop_size: 227
    mean_value: 104
    mean_value: 117
    mean_value: 123
  }
  data_param {
    source: "/export/data1/stanford/hazy/zjian/gorden_bell/ILSVRC2012_lmdb/db_8/ilsvrc12_train_lmdb_2"
    batch_size: 64
    backend: LMDB
  }
}
layer {
  name: "label_data_1_split"
  type: "Split"
  bottom: "label"
  top: "label_data_1_split_0"
  top: "label_data_1_split_1"
}
layer {
  name: "conv1"
  type: "Convolution"
  bottom: "data"
  top: "conv1"
  param {
    lr_mult: 1
    decay_mult: 1
  }
  param {
    lr_mult: 2
    decay_mult: 0
  }
  convolution_param {
    num_output: 96
    kernel_size: 11
    stride: 4
    weight_filler {
      type: "gaussian"
      std: 0.01
    }
    bias_filler {
      type: "constant"
      value: 0
    }
    engine: MKL2017
  }
}
layer {
  name: "relu1"
  type: "ReLU"
  bottom: "conv1"
  top: "conv1"
  relu_param {
    engine: MKL2017
  }
}
layer {
  name: "norm1"
  type: "LRN"
  bottom: "conv1"
  top: "norm1"
  lrn_param {
    local_size: 5
    alpha: 0.0001
    beta: 0.75
    engine: MKL2017
  }
}
layer {
  name: "pool1"
  type: "Pooling"
  bottom: "norm1"
  top: "pool1"
  pooling_param {
    pool: MAX
    kernel_size: 3
    stride: 2
    engine: MKL2017
  }
}
layer {
  name: "conv2"
  type: "Convolution"
  bottom: "pool1"
  top: "conv2"
  param {
    lr_mult: 1
    decay_mult: 1
  }
  param {
    lr_mult: 2
    decay_mult: 0
  }
  convolution_param {
    num_output: 256
    pad: 2
    kernel_size: 5
    group: 2
    weight_filler {
      type: "gaussian"
      std: 0.01
    }
    bias_filler {
      type: "constant"
      value: 0.1
    }
    engine: MKL2017
  }
}
layer {
  name: "relu2"
  type: "ReLU"
  bottom: "conv2"
  top: "conv2"
  relu_param {
    engine: MKL2017
  }
}
layer {
  name: "norm2"
  type: "LRN"
  bottom: "conv2"
  top: "norm2"
  lrn_param {
    local_size: 5
    alpha: 0.0001
    beta: 0.75
    engine: MKL2017
  }
}
layer {
  name: "pool2"
  type: "Pooling"
  bottom: "norm2"
  top: "pool2"
  pooling_param {
    pool: MAX
    kernel_size: 3
    stride: 2
    engine: MKL2017
  }
}
layer {
  name: "conv3"
  type: "Convolution"
  bottom: "pool2"
  top: "conv3"
  param {
    lr_mult: 1
    decay_mult: 1
  }
  param {
    lr_mult: 2
    decay_mult: 0
  }
  convolution_param {
    num_output: 384
    pad: 1
    kernel_size: 3
    weight_filler {
      type: "gaussian"
      std: 0.01
    }
    bias_filler {
      type: "constant"
      value: 0
    }
    engine: MKL2017
  }
}
layer {
  name: "relu3"
  type: "ReLU"
  bottom: "conv3"
  top: "conv3"
  relu_param {
    engine: MKL2017
  }
}
layer {
  name: "conv4"
  type: "Convolution"
  bottom: "conv3"
  top: "conv4"
  param {
    lr_mult: 1
    decay_mult: 1
  }
  param {
    lr_mult: 2
    decay_mult: 0
  }
  convolution_param {
    num_output: 384
    pad: 1
    kernel_size: 3
    group: 2
    weight_filler {
      type: "gaussian"
      std: 0.01
    }
    bias_filler {
      type: "constant"
      value: 0.1
    }
    engine: MKL2017
  }
}
layer {
  name: "relu4"
  type: "ReLU"
  bottom: "conv4"
  top: "conv4"
  relu_param {
    engine: MKL2017
  }
}
layer {
  name: "conv5"
  type: "Convolution"
  bottom: "conv4"
  top: "conv5"
  param {
    lr_mult: 1
    decay_mult: 1
  }
  param {
    lr_mult: 2
    decay_mult: 0
  }
  convolution_param {
    num_output: 256
    pad: 1
    kernel_size: 3
    group: 2
    weight_filler {
      type: "gaussian"
      std: 0.01
    }
    bias_filler {
      type: "constant"
      value: 0.1
    }
    engine: MKL2017
  }
}
layer {
  name: "relu5"
  type: "ReLU"
  bottom: "conv5"
  top: "conv5"
  relu_param {
    engine: MKL2017
  }
}
layer {
  name: "pool5"
  type: "Pooling"
  bottom: "conv5"
  top: "pool5"
  pooling_param {
    pool: MAX
    kernel_size: 3
    stride: 2
    engine: MKL2017
  }
}
layer {
  name: "fc6"
  type: "InnerProduct"
  bottom: "pool5"
  top: "fc6"
  param {
    lr_mult: 1
    decay_mult: 1
  }
  param {
    lr_mult: 2
    decay_mult: 0
  }
  inner_product_param {
    num_output: 4096
    weight_filler {
      type: "gaussian"
      std: 0.005
    }
    bias_filler {
      type: "constant"
      value: 0.1
    }
  }
}
layer {
  name: "relu6"
  type: "ReLU"
  bottom: "fc6"
  top: "fc6"
}
layer {
  name: "drop6"
  type: "Dropout"
  bottom: "fc6"
  top: "fc6"
  dropout_param {
    dropout_ratio: 0.5
  }
}
layer {
  name: "fc7"
  type: "InnerProduct"
  bottom: "fc6"
  top: "fc7"
  param {
    lr_mult: 1
    decay_mult: 1
  }
  param {
    lr_mult: 2
    decay_mult: 0
  }
  inner_product_param {
    num_output: 4096
    weight_filler {
      type: "gaussian"
      std: 0.005
    }
    bias_filler {
      type: "constant"
      value: 0.1
    }
  }
}
layer {
  name: "relu7"
  type: "ReLU"
  bottom: "fc7"
  top: "fc7"
}
layer {
  name: "drop7"
  type: "Dropout"
  bottom: "fc7"
  top: "fc7"
  dropout_param {
    dropout_ratio: 0.5
  }
}
layer {
  name: "fc8"
  type: "InnerProduct"
  bottom: "fc7"
  top: "fc8"
  param {
    lr_mult: 1
    decay_mult: 1
  }
  param {
    lr_mult: 2
    decay_mult: 0
  }
  inner_product_param {
    num_output: 1000
    weight_filler {
      type: "gaussian"
      std: 0.01
    }
    bias_filler {
      type: "constant"
      value: 0
    }
  }
}
layer {
  name: "fc8_fc8_0_split"
  type: "Split"
  bottom: "fc8"
  top: "fc8_fc8_0_split_0"
  top: "fc8_fc8_0_split_1"
}
layer {
  name: "accuracy"
  type: "Accuracy"
  bottom: "fc8_fc8_0_split_0"
  bottom: "label_data_1_split_0"
  top: "accuracy"
}
layer {
  name: "loss"
  type: "SoftmaxWithLoss"
  bottom: "fc8_fc8_0_split_1"
  bottom: "label_data_1_split_1"
  top: "loss"
}
I1228 13:25:49.561695 108582 layer_factory.hpp:114] Creating layer data
I1228 13:25:49.578058 110187 net.cpp:178] Creating Layer data
I1228 13:25:49.568910 103425 net.cpp:136] Initializing net from parameters: 
name: "AlexNet"
state {
  phase: TRAIN
  level: 0
  stage: ""
}
layer {
  name: "data"
  type: "Data"
  top: "data"
  top: "label"
  include {
    phase: TRAIN
  }
  transform_param {
    mirror: true
    crop_size: 227
    mean_value: 104
    mean_value: 117
    mean_value: 123
  }
  data_param {
    source: "/export/data1/stanford/hazy/zjian/gorden_bell/ILSVRC2012_lmdb/db_8/ilsvrc12_train_lmdb_7"
    batch_size: 64
    backend: LMDB
  }
}
layer {
  name: "label_data_1_split"
  type: "Split"
  bottom: "label"
  top: "label_data_1_split_0"
  top: "label_data_1_split_1"
}
layer {
  name: "conv1"
  type: "Convolution"
  bottom: "data"
  top: "conv1"
  param {
    lr_mult: 1
    decay_mult: 1
  }
  param {
    lr_mult: 2
    decay_mult: 0
  }
  convolution_param {
    num_output: 96
    kernel_size: 11
    stride: 4
    weight_filler {
      type: "gaussian"
      std: 0.01
    }
    bias_filler {
      type: "constant"
      value: 0
    }
    engine: MKL2017
  }
}
layer {
  name: "relu1"
  type: "ReLU"
  bottom: "conv1"
  top: "conv1"
  relu_param {
    engine: MKL2017
  }
}
layer {
  name: "norm1"
  type: "LRN"
  bottom: "conv1"
  top: "norm1"
  lrn_param {
    local_size: 5
    alpha: 0.0001
    beta: 0.75
    engine: MKL2017
  }
}
layer {
  name: "pool1"
  type: "Pooling"
  bottom: "norm1"
  top: "pool1"
  pooling_param {
    pool: MAX
    kernel_size: 3
    stride: 2
    engine: MKL2017
  }
}
layer {
  name: "conv2"
  type: "Convolution"
  bottom: "pool1"
  top: "conv2"
  param {
    lr_mult: 1
    decay_mult: 1
  }
  param {
    lr_mult: 2
    decay_mult: 0
  }
  convolution_param {
    num_output: 256
    pad: 2
    kernel_size: 5
    group: 2
    weight_filler {
      type: "gaussian"
      std: 0.01
    }
    bias_filler {
      type: "constant"
      value: 0.1
    }
    engine: MKL2017
  }
}
layer {
  name: "relu2"
  type: "ReLU"
  bottom: "conv2"
  top: "conv2"
  relu_param {
    engine: MKL2017
  }
}
layer {
  name: "norm2"
  type: "LRN"
  bottom: "conv2"
  top: "norm2"
  lrn_param {
    local_size: 5
    alpha: 0.0001
    beta: 0.75
    engine: MKL2017
  }
}
layer {
  name: "pool2"
  type: "Pooling"
  bottom: "norm2"
  top: "pool2"
  pooling_param {
    pool: MAX
    kernel_size: 3
    stride: 2
    engine: MKL2017
  }
}
layer {
  name: "conv3"
  type: "Convolution"
  bottom: "pool2"
  top: "conv3"
  param {
    lr_mult: 1
    decay_mult: 1
  }
  param {
    lr_mult: 2
    decay_mult: 0
  }
  convolution_param {
    num_output: 384
    pad: 1
    kernel_size: 3
    weight_filler {
      type: "gaussian"
      std: 0.01
    }
    bias_filler {
      type: "constant"
      value: 0
    }
    engine: MKL2017
  }
}
layer {
  name: "relu3"
  type: "ReLU"
  bottom: "conv3"
  top: "conv3"
  relu_param {
    engine: MKL2017
  }
}
layer {
  name: "conv4"
  type: "Convolution"
  bottom: "conv3"
  top: "conv4"
  param {
    lr_mult: 1
    decay_mult: 1
  }
  param {
    lr_mult: 2
    decay_mult: 0
  }
  convolution_param {
    num_output: 384
    pad: 1
    kernel_size: 3
    group: 2
    weight_filler {
      type: "gaussian"
      std: 0.01
    }
    bias_filler {
      type: "constant"
      value: 0.1
    }
    engine: MKL2017
  }
}
layer {
  name: "relu4"
  type: "ReLU"
  bottom: "conv4"
  top: "conv4"
  relu_param {
    engine: MKL2017
  }
}
layer {
  name: "conv5"
  type: "Convolution"
  bottom: "conv4"
  top: "conv5"
  param {
    lr_mult: 1
    decay_mult: 1
  }
  param {
    lr_mult: 2
    decay_mult: 0
  }
  convolution_param {
    num_output: 256
    pad: 1
    kernel_size: 3
    group: 2
    weight_filler {
      type: "gaussian"
      std: 0.01
    }
    bias_filler {
      type: "constant"
      value: 0.1
    }
    engine: MKL2017
  }
}
layer {
  name: "relu5"
  type: "ReLU"
  bottom: "conv5"
  top: "conv5"
  relu_param {
    engine: MKL2017
  }
}
layer {
  name: "pool5"
  type: "Pooling"
  bottom: "conv5"
  top: "pool5"
  pooling_param {
    pool: MAX
    kernel_size: 3
    stride: 2
    engine: MKL2017
  }
}
layer {
  name: "fc6"
  type: "InnerProduct"
  bottom: "pool5"
  top: "fc6"
  param {
    lr_mult: 1
    decay_mult: 1
  }
  param {
    lr_mult: 2
    decay_mult: 0
  }
  inner_product_param {
    num_output: 4096
    weight_filler {
      type: "gaussian"
      std: 0.005
    }
    bias_filler {
      type: "constant"
      value: 0.1
    }
  }
}
layer {
  name: "relu6"
  type: "ReLU"
  bottom: "fc6"
  top: "fc6"
}
layer {
  name: "drop6"
  type: "Dropout"
  bottom: "fc6"
  top: "fc6"
  dropout_param {
    dropout_ratio: 0.5
  }
}
layer {
  name: "fc7"
  type: "InnerProduct"
  bottom: "fc6"
  top: "fc7"
  param {
    lr_mult: 1
    decay_mult: 1
  }
  param {
    lr_mult: 2
    decay_mult: 0
  }
  inner_product_param {
    num_output: 4096
    weight_filler {
      type: "gaussian"
      std: 0.005
    }
    bias_filler {
      type: "constant"
      value: 0.1
    }
  }
}
layer {
  name: "relu7"
  type: "ReLU"
  bottom: "fc7"
  top: "fc7"
}
layer {
  name: "drop7"
  type: "Dropout"
  bottom: "fc7"
  top: "fc7"
  dropout_param {
    dropout_ratio: 0.5
  }
}
layer {
  name: "fc8"
  type: "InnerProduct"
  bottom: "fc7"
  top: "fc8"
  param {
    lr_mult: 1
    decay_mult: 1
  }
  param {
    lr_mult: 2
    decay_mult: 0
  }
  inner_product_param {
    num_output: 1000
    weight_filler {
      type: "gaussian"
      std: 0.01
    }
    bias_filler {
      type: "constant"
      value: 0
    }
  }
}
layer {
  name: "fc8_fc8_0_split"
  type: "Split"
  bottom: "fc8"
  top: "fc8_fc8_0_split_0"
  top: "fc8_fc8_0_split_1"
}
layer {
  name: "accuracy"
  type: "Accuracy"
  bottom: "fc8_fc8_0_split_0"
  bottom: "label_data_1_split_0"
  top: "accuracy"
}
layer {
  name: "loss"
  type: "SoftmaxWithLoss"
  bottom: "fc8_fc8_0_split_1"
  bottom: "label_data_1_split_1"
  top: "loss"
}
I1228 13:25:49.564256 111726 net.cpp:178] Creating Layer data
I1228 13:25:49.580163 106496 cpu_info.cpp:473] Number of OpenMP threads: 66
I1228 13:25:49.580528 110187 net.cpp:586] data -> data
I1228 13:25:49.570950 103425 layer_factory.hpp:114] Creating layer data
I1228 13:25:49.567106 111726 net.cpp:586] data -> data
I1228 13:25:49.582914 106496 net.cpp:500] The NetState phase (0) differed from the phase (1) specified by a rule in layer data
I1228 13:25:49.576637 104155 net.cpp:136] Initializing net from parameters: 
name: "AlexNet"
state {
  phase: TRAIN
  level: 0
  stage: ""
}
layer {
  name: "data"
  type: "Data"
  top: "data"
  top: "label"
  include {
    phase: TRAIN
  }
  transform_param {
    mirror: true
    crop_size: 227
    mean_value: 104
    mean_value: 117
    mean_value: 123
  }
  data_param {
    source: "/export/data1/stanford/hazy/zjian/gorden_bell/ILSVRC2012_lmdb/db_8/ilsvrc12_train_lmdb_6"
    batch_size: 64
    backend: LMDB
  }
}
layer {
  name: "label_data_1_split"
  type: "Split"
  bottom: "label"
  top: "label_data_1_split_0"
  top: "label_data_1_split_1"
}
layer {
  name: "conv1"
  type: "Convolution"
  bottom: "data"
  top: "conv1"
  param {
    lr_mult: 1
    decay_mult: 1
  }
  param {
    lr_mult: 2
    decay_mult: 0
  }
  convolution_param {
    num_output: 96
    kernel_size: 11
    stride: 4
    weight_filler {
      type: "gaussian"
      std: 0.01
    }
    bias_filler {
      type: "constant"
      value: 0
    }
    engine: MKL2017
  }
}
layer {
  name: "relu1"
  type: "ReLU"
  bottom: "conv1"
  top: "conv1"
  relu_param {
    engine: MKL2017
  }
}
layer {
  name: "norm1"
  type: "LRN"
  bottom: "conv1"
  top: "norm1"
  lrn_param {
    local_size: 5
    alpha: 0.0001
    beta: 0.75
    engine: MKL2017
  }
}
layer {
  name: "pool1"
  type: "Pooling"
  bottom: "norm1"
  top: "pool1"
  pooling_param {
    pool: MAX
    kernel_size: 3
    stride: 2
    engine: MKL2017
  }
}
layer {
  name: "conv2"
  type: "Convolution"
  bottom: "pool1"
  top: "conv2"
  param {
    lr_mult: 1
    decay_mult: 1
  }
  param {
    lr_mult: 2
    decay_mult: 0
  }
  convolution_param {
    num_output: 256
    pad: 2
    kernel_size: 5
    group: 2
    weight_filler {
      type: "gaussian"
      std: 0.01
    }
    bias_filler {
      type: "constant"
      value: 0.1
    }
    engine: MKL2017
  }
}
layer {
  name: "relu2"
  type: "ReLU"
  bottom: "conv2"
  top: "conv2"
  relu_param {
    engine: MKL2017
  }
}
layer {
  name: "norm2"
  type: "LRN"
  bottom: "conv2"
  top: "norm2"
  lrn_param {
    local_size: 5
    alpha: 0.0001
    beta: 0.75
    engine: MKL2017
  }
}
layer {
  name: "pool2"
  type: "Pooling"
  bottom: "norm2"
  top: "pool2"
  pooling_param {
    pool: MAX
    kernel_size: 3
    stride: 2
    engine: MKL2017
  }
}
layer {
  name: "conv3"
  type: "Convolution"
  bottom: "pool2"
  top: "conv3"
  param {
    lr_mult: 1
    decay_mult: 1
  }
  param {
    lr_mult: 2
    decay_mult: 0
  }
  convolution_param {
    num_output: 384
    pad: 1
    kernel_size: 3
    weight_filler {
      type: "gaussian"
      std: 0.01
    }
    bias_filler {
      type: "constant"
      value: 0
    }
    engine: MKL2017
  }
}
layer {
  name: "relu3"
  type: "ReLU"
  bottom: "conv3"
  top: "conv3"
  relu_param {
    engine: MKL2017
  }
}
layer {
  name: "conv4"
  type: "Convolution"
  bottom: "conv3"
  top: "conv4"
  param {
    lr_mult: 1
    decay_mult: 1
  }
  param {
    lr_mult: 2
    decay_mult: 0
  }
  convolution_param {
    num_output: 384
    pad: 1
    kernel_size: 3
    group: 2
    weight_filler {
      type: "gaussian"
      std: 0.01
    }
    bias_filler {
      type: "constant"
      value: 0.1
    }
    engine: MKL2017
  }
}
layer {
  name: "relu4"
  type: "ReLU"
  bottom: "conv4"
  top: "conv4"
  relu_param {
    engine: MKL2017
  }
}
layer {
  name: "conv5"
  type: "Convolution"
  bottom: "conv4"
  top: "conv5"
  param {
    lr_mult: 1
    decay_mult: 1
  }
  param {
    lr_mult: 2
    decay_mult: 0
  }
  convolution_param {
    num_output: 256
    pad: 1
    kernel_size: 3
    group: 2
    weight_filler {
      type: "gaussian"
      std: 0.01
    }
    bias_filler {
      type: "constant"
      value: 0.1
    }
    engine: MKL2017
  }
}
layer {
  name: "relu5"
  type: "ReLU"
  bottom: "conv5"
  top: "conv5"
  relu_param {
    engine: MKL2017
  }
}
layer {
  name: "pool5"
  type: "Pooling"
  bottom: "conv5"
  top: "pool5"
  pooling_param {
    pool: MAX
    kernel_size: 3
    stride: 2
    engine: MKL2017
  }
}
layer {
  name: "fc6"
  type: "InnerProduct"
  bottom: "pool5"
  top: "fc6"
  param {
    lr_mult: 1
    decay_mult: 1
  }
  param {
    lr_mult: 2
    decay_mult: 0
  }
  inner_product_param {
    num_output: 4096
    weight_filler {
      type: "gaussian"
      std: 0.005
    }
    bias_filler {
      type: "constant"
      value: 0.1
    }
  }
}
layer {
  name: "relu6"
  type: "ReLU"
  bottom: "fc6"
  top: "fc6"
}
layer {
  name: "drop6"
  type: "Dropout"
  bottom: "fc6"
  top: "fc6"
  dropout_param {
    dropout_ratio: 0.5
  }
}
layer {
  name: "fc7"
  type: "InnerProduct"
  bottom: "fc6"
  top: "fc7"
  param {
    lr_mult: 1
    decay_mult: 1
  }
  param {
    lr_mult: 2
    decay_mult: 0
  }
  inner_product_param {
    num_output: 4096
    weight_filler {
      type: "gaussian"
      std: 0.005
    }
    bias_filler {
      type: "constant"
      value: 0.1
    }
  }
}
layer {
  name: "relu7"
  type: "ReLU"
  bottom: "fc7"
  top: "fc7"
}
layer {
  name: "drop7"
  type: "Dropout"
  bottom: "fc7"
  top: "fc7"
  dropout_param {
    dropout_ratio: 0.5
  }
}
layer {
  name: "fc8"
  type: "InnerProduct"
  bottom: "fc7"
  top: "fc8"
  param {
    lr_mult: 1
    decay_mult: 1
  }
  param {
    lr_mult: 2
    decay_mult: 0
  }
  inner_product_param {
    num_output: 1000
    weight_filler {
      type: "gaussian"
      std: 0.01
    }
    bias_filler {
      type: "constant"
      value: 0
    }
  }
}
layer {
  name: "fc8_fc8_0_split"
  type: "Split"
  bottom: "fc8"
  top: "fc8_fc8_0_split_0"
  top: "fc8_fc8_0_split_1"
}
layer {
  name: "accuracy"
  type: "Accuracy"
  bottom: "fc8_fc8_0_split_0"
  bottom: "label_data_1_split_0"
  top: "accuracy"
}
layer {
  name: "loss"
  type: "SoftmaxWithLoss"
  bottom: "fc8_fc8_0_split_1"
  bottom: "label_data_1_split_1"
  top: "loss"
}
I1228 13:25:49.578399 104155 layer_factory.hpp:114] Creating layer data
I1228 13:25:49.585892 110187 net.cpp:586] data -> label
I1228 13:25:49.572232 111726 net.cpp:586] data -> label
I1228 13:25:49.587028 103525 net.cpp:136] Initializing net from parameters: 
name: "AlexNet"
state {
  phase: TRAIN
  level: 0
  stage: ""
}
layer {
  name: "data"
  type: "Data"
  top: "data"
  top: "label"
  include {
    phase: TRAIN
  }
  transform_param {
    mirror: true
    crop_size: 227
    mean_value: 104
    mean_value: 117
    mean_value: 123
  }
  data_param {
    source: "/export/data1/stanford/hazy/zjian/gorden_bell/ILSVRC2012_lmdb/db_8/ilsvrc12_train_lmdb_4"
    batch_size: 64
    backend: LMDB
  }
}
layer {
  name: "label_data_1_split"
  type: "Split"
  bottom: "label"
  top: "label_data_1_split_0"
  top: "label_data_1_split_1"
}
layer {
  name: "conv1"
  type: "Convolution"
  bottom: "data"
  top: "conv1"
  param {
    lr_mult: 1
    decay_mult: 1
  }
  param {
    lr_mult: 2
    decay_mult: 0
  }
  convolution_param {
    num_output: 96
    kernel_size: 11
    stride: 4
    weight_filler {
      type: "gaussian"
      std: 0.01
    }
    bias_filler {
      type: "constant"
      value: 0
    }
    engine: MKL2017
  }
}
layer {
  name: "relu1"
  type: "ReLU"
  bottom: "conv1"
  top: "conv1"
  relu_param {
    engine: MKL2017
  }
}
layer {
  name: "norm1"
  type: "LRN"
  bottom: "conv1"
  top: "norm1"
  lrn_param {
    local_size: 5
    alpha: 0.0001
    beta: 0.75
    engine: MKL2017
  }
}
layer {
  name: "pool1"
  type: "Pooling"
  bottom: "norm1"
  top: "pool1"
  pooling_param {
    pool: MAX
    kernel_size: 3
    stride: 2
    engine: MKL2017
  }
}
layer {
  name: "conv2"
  type: "Convolution"
  bottom: "pool1"
  top: "conv2"
  param {
    lr_mult: 1
    decay_mult: 1
  }
  param {
    lr_mult: 2
    decay_mult: 0
  }
  convolution_param {
    num_output: 256
    pad: 2
    kernel_size: 5
    group: 2
    weight_filler {
      type: "gaussian"
      std: 0.01
    }
    bias_filler {
      type: "constant"
      value: 0.1
    }
    engine: MKL2017
  }
}
layer {
  name: "relu2"
  type: "ReLU"
  bottom: "conv2"
  top: "conv2"
  relu_param {
    engine: MKL2017
  }
}
layer {
  name: "norm2"
  type: "LRN"
  bottom: "conv2"
  top: "norm2"
  lrn_param {
    local_size: 5
    alpha: 0.0001
    beta: 0.75
    engine: MKL2017
  }
}
layer {
  name: "pool2"
  type: "Pooling"
  bottom: "norm2"
  top: "pool2"
  pooling_param {
    pool: MAX
    kernel_size: 3
    stride: 2
    engine: MKL2017
  }
}
layer {
  name: "conv3"
  type: "Convolution"
  bottom: "pool2"
  top: "conv3"
  param {
    lr_mult: 1
    decay_mult: 1
  }
  param {
    lr_mult: 2
    decay_mult: 0
  }
  convolution_param {
    num_output: 384
    pad: 1
    kernel_size: 3
    weight_filler {
      type: "gaussian"
      std: 0.01
    }
    bias_filler {
      type: "constant"
      value: 0
    }
    engine: MKL2017
  }
}
layer {
  name: "relu3"
  type: "ReLU"
  bottom: "conv3"
  top: "conv3"
  relu_param {
    engine: MKL2017
  }
}
layer {
  name: "conv4"
  type: "Convolution"
  bottom: "conv3"
  top: "conv4"
  param {
    lr_mult: 1
    decay_mult: 1
  }
  param {
    lr_mult: 2
    decay_mult: 0
  }
  convolution_param {
    num_output: 384
    pad: 1
    kernel_size: 3
    group: 2
    weight_filler {
      type: "gaussian"
      std: 0.01
    }
    bias_filler {
      type: "constant"
      value: 0.1
    }
    engine: MKL2017
  }
}
layer {
  name: "relu4"
  type: "ReLU"
  bottom: "conv4"
  top: "conv4"
  relu_param {
    engine: MKL2017
  }
}
layer {
  name: "conv5"
  type: "Convolution"
  bottom: "conv4"
  top: "conv5"
  param {
    lr_mult: 1
    decay_mult: 1
  }
  param {
    lr_mult: 2
    decay_mult: 0
  }
  convolution_param {
    num_output: 256
    pad: 1
    kernel_size: 3
    group: 2
    weight_filler {
      type: "gaussian"
      std: 0.01
    }
    bias_filler {
      type: "constant"
      value: 0.1
    }
    engine: MKL2017
  }
}
layer {
  name: "relu5"
  type: "ReLU"
  bottom: "conv5"
  top: "conv5"
  relu_param {
    engine: MKL2017
  }
}
layer {
  name: "pool5"
  type: "Pooling"
  bottom: "conv5"
  top: "pool5"
  pooling_param {
    pool: MAX
    kernel_size: 3
    stride: 2
    engine: MKL2017
  }
}
layer {
  name: "fc6"
  type: "InnerProduct"
  bottom: "pool5"
  top: "fc6"
  param {
    lr_mult: 1
    decay_mult: 1
  }
  param {
    lr_mult: 2
    decay_mult: 0
  }
  inner_product_param {
    num_output: 4096
    weight_filler {
      type: "gaussian"
      std: 0.005
    }
    bias_filler {
      type: "constant"
      value: 0.1
    }
  }
}
layer {
  name: "relu6"
  type: "ReLU"
  bottom: "fc6"
  top: "fc6"
}
layer {
  name: "drop6"
  type: "Dropout"
  bottom: "fc6"
  top: "fc6"
  dropout_param {
    dropout_ratio: 0.5
  }
}
layer {
  name: "fc7"
  type: "InnerProduct"
  bottom: "fc6"
  top: "fc7"
  param {
    lr_mult: 1
    decay_mult: 1
  }
  param {
    lr_mult: 2
    decay_mult: 0
  }
  inner_product_param {
    num_output: 4096
    weight_filler {
      type: "gaussian"
      std: 0.005
    }
    bias_filler {
      type: "constant"
      value: 0.1
    }
  }
}
layer {
  name: "relu7"
  type: "ReLU"
  bottom: "fc7"
  top: "fc7"
}
layer {
  name: "drop7"
  type: "Dropout"
  bottom: "fc7"
  top: "fc7"
  dropout_param {
    dropout_ratio: 0.5
  }
}
layer {
  name: "fc8"
  type: "InnerProduct"
  bottom: "fc7"
  top: "fc8"
  param {
    lr_mult: 1
    decay_mult: 1
  }
  param {
    lr_mult: 2
    decay_mult: 0
  }
  inner_product_param {
    num_output: 1000
    weight_filler {
      type: "gaussian"
      std: 0.01
    }
    bias_filler {
      type: "constant"
      value: 0
    }
  }
}
layer {
  name: "fc8_fc8_0_split"
  type: "Split"
  bottom: "fc8"
  top: "fc8_fc8_0_split_0"
  top: "fc8_fc8_0_split_1"
}
layer {
  name: "accuracy"
  type: "Accuracy"
  bottom: "fc8_fc8_0_split_0"
  bottom: "label_data_1_split_0"
  top: "accuracy"
}
layer {
  name: "loss"
  type: "SoftmaxWithLoss"
  bottom: "fc8_fc8_0_split_1"
  bottom: "label_data_1_split_1"
  top: "loss"
}
I1228 13:25:49.588824 103525 layer_factory.hpp:114] Creating layer data
I1228 13:25:49.576804 99727 cpu_info.cpp:473] Number of OpenMP threads: 66
I1228 13:25:49.577729 108582 net.cpp:178] Creating Layer data
I1228 13:25:49.579226 99727 net.cpp:500] The NetState phase (0) differed from the phase (1) specified by a rule in layer data
I1228 13:25:49.600589 135543 cpu_info.cpp:473] Number of OpenMP threads: 66
I1228 13:25:49.580093 108582 net.cpp:586] data -> data
I1228 13:25:49.597296 106496 net.cpp:136] Initializing net from parameters: 
name: "AlexNet"
state {
  phase: TRAIN
  level: 0
  stage: ""
}
layer {
  name: "data"
  type: "DummyData"
  top: "data"
  top: "label"
  include {
    phase: TRAIN
  }
  transform_param {
    mirror: true
    crop_size: 227
    mean_value: 104
    mean_value: 117
    mean_value: 123
  }
  dummy_data_param {
    data_filler {
      type: "gaussian"
      std: 1
    }
    data_filler {
      type: "constant"
      value: 0
    }
    shape {
      dim: 64
      dim: 3
      dim: 227
      dim: 227
    }
    shape {
      dim: 64
      dim: 1
      dim: 1
      dim: 1
    }
  }
}
layer {
  name: "label_data_1_split"
  type: "Split"
  bottom: "label"
  top: "label_data_1_split_0"
  top: "label_data_1_split_1"
}
layer {
  name: "conv1"
  type: "Convolution"
  bottom: "data"
  top: "conv1"
  param {
    lr_mult: 1
    decay_mult: 1
  }
  param {
    lr_mult: 2
    decay_mult: 0
  }
  convolution_param {
    num_output: 96
    kernel_size: 11
    stride: 4
    weight_filler {
      type: "gaussian"
      std: 0.01
    }
    bias_filler {
      type: "constant"
      value: 0
    }
    engine: MKL2017
  }
}
layer {
  name: "relu1"
  type: "ReLU"
  bottom: "conv1"
  top: "conv1"
  relu_param {
    engine: MKL2017
  }
}
layer {
  name: "norm1"
  type: "LRN"
  bottom: "conv1"
  top: "norm1"
  lrn_param {
    local_size: 5
    alpha: 0.0001
    beta: 0.75
    engine: MKL2017
  }
}
layer {
  name: "pool1"
  type: "Pooling"
  bottom: "norm1"
  top: "pool1"
  pooling_param {
    pool: MAX
    kernel_size: 3
    stride: 2
    engine: MKL2017
  }
}
layer {
  name: "conv2"
  type: "Convolution"
  bottom: "pool1"
  top: "conv2"
  param {
    lr_mult: 1
    decay_mult: 1
  }
  param {
    lr_mult: 2
    decay_mult: 0
  }
  convolution_param {
    num_output: 256
    pad: 2
    kernel_size: 5
    group: 2
    weight_filler {
      type: "gaussian"
      std: 0.01
    }
    bias_filler {
      type: "constant"
      value: 0.1
    }
    engine: MKL2017
  }
}
layer {
  name: "relu2"
  type: "ReLU"
  bottom: "conv2"
  top: "conv2"
  relu_param {
    engine: MKL2017
  }
}
layer {
  name: "norm2"
  type: "LRN"
  bottom: "conv2"
  top: "norm2"
  lrn_param {
    local_size: 5
    alpha: 0.0001
    beta: 0.75
    engine: MKL2017
  }
}
layer {
  name: "pool2"
  type: "Pooling"
  bottom: "norm2"
  top: "pool2"
  pooling_param {
    pool: MAX
    kernel_size: 3
    stride: 2
    engine: MKL2017
  }
}
layer {
  name: "conv3"
  type: "Convolution"
  bottom: "pool2"
  top: "conv3"
  param {
    lr_mult: 1
    decay_mult: 1
  }
  param {
    lr_mult: 2
    decay_mult: 0
  }
  convolution_param {
    num_output: 384
    pad: 1
    kernel_size: 3
    weight_filler {
      type: "gaussian"
      std: 0.01
    }
    bias_filler {
      type: "constant"
      value: 0
    }
    engine: MKL2017
  }
}
layer {
  name: "relu3"
  type: "ReLU"
  bottom: "conv3"
  top: "conv3"
  relu_param {
    engine: MKL2017
  }
}
layer {
  name: "conv4"
  type: "Convolution"
  bottom: "conv3"
  top: "conv4"
  param {
    lr_mult: 1
    decay_mult: 1
  }
  param {
    lr_mult: 2
    decay_mult: 0
  }
  convolution_param {
    num_output: 384
    pad: 1
    kernel_size: 3
    group: 2
    weight_filler {
      type: "gaussian"
      std: 0.01
    }
    bias_filler {
      type: "constant"
      value: 0.1
    }
    engine: MKL2017
  }
}
layer {
  name: "relu4"
  type: "ReLU"
  bottom: "conv4"
  top: "conv4"
  relu_param {
    engine: MKL2017
  }
}
layer {
  name: "conv5"
  type: "Convolution"
  bottom: "conv4"
  top: "conv5"
  param {
    lr_mult: 1
    decay_mult: 1
  }
  param {
    lr_mult: 2
    decay_mult: 0
  }
  convolution_param {
    num_output: 256
    pad: 1
    kernel_size: 3
    group: 2
    weight_filler {
      type: "gaussian"
      std: 0.01
    }
    bias_filler {
      type: "constant"
      value: 0.1
    }
    engine: MKL2017
  }
}
layer {
  name: "relu5"
  type: "ReLU"
  bottom: "conv5"
  top: "conv5"
  relu_param {
    engine: MKL2017
  }
}
layer {
  name: "pool5"
  type: "Pooling"
  bottom: "conv5"
  top: "pool5"
  pooling_param {
    pool: MAX
    kernel_size: 3
    stride: 2
    engine: MKL2017
  }
}
layer {
  name: "fc6"
  type: "InnerProduct"
  bottom: "pool5"
  top: "fc6"
  param {
    lr_mult: 1
    decay_mult: 1
  }
  param {
    lr_mult: 2
    decay_mult: 0
  }
  inner_product_param {
    num_output: 4096
    weight_filler {
      type: "gaussian"
      std: 0.005
    }
    bias_filler {
      type: "constant"
      value: 0.1
    }
  }
}
layer {
  name: "relu6"
  type: "ReLU"
  bottom: "fc6"
  top: "fc6"
}
layer {
  name: "drop6"
  type: "Dropout"
  bottom: "fc6"
  top: "fc6"
  dropout_param {
    dropout_ratio: 0.5
  }
}
layer {
  name: "fc7"
  type: "InnerProduct"
  bottom: "fc6"
  top: "fc7"
  param {
    lr_mult: 1
    decay_mult: 1
  }
  param {
    lr_mult: 2
    decay_mult: 0
  }
  inner_product_param {
    num_output: 4096
    weight_filler {
      type: "gaussian"
      std: 0.005
    }
    bias_filler {
      type: "constant"
      value: 0.1
    }
  }
}
layer {
  name: "relu7"
  type: "ReLU"
  bottom: "fc7"
  top: "fc7"
}
layer {
  name: "drop7"
  type: "Dropout"
  bottom: "fc7"
  top: "fc7"
  dropout_param {
    dropout_ratio: 0.5
  }
}
layer {
  name: "fc8"
  type: "InnerProduct"
  bottom: "fc7"
  top: "fc8"
  param {
    lr_mult: 1
    decay_mult: 1
  }
  param {
    lr_mult: 2
    decay_mult: 0
  }
  inner_product_param {
    num_output: 1000
    weight_filler {
      type: "gaussian"
      std: 0.01
    }
    bias_filler {
      type: "constant"
      value: 0
    }
  }
}
layer {
  name: "fc8_fc8_0_split"
  type: "Split"
  bottom: "fc8"
  top: "fc8_fc8_0_split_0"
  top: "fc8_fc8_0_split_1"
}
layer {
  name: "accuracy"
  type: "Accuracy"
  bottom: "fc8_fc8_0_split_0"
  bottom: "label_data_1_split_0"
  top: "accuracy"
}
layer {
  name: "loss"
  type: "SoftmaxWithLoss"
  bottom: "fc8_fc8_0_split_1"
  bottom: "label_data_1_split_1"
  top: "loss"
}
I1228 13:25:49.603484 135543 net.cpp:500] The NetState phase (0) differed from the phase (1) specified by a rule in layer data
I1228 13:25:49.599148 106496 layer_factory.hpp:114] Creating layer data
I1228 13:25:49.584750 108582 net.cpp:586] data -> label
I1228 13:25:49.592691 103425 net.cpp:178] Creating Layer data
I1228 13:25:49.596288 104155 net.cpp:178] Creating Layer data
I1228 13:25:49.605504 106496 net.cpp:178] Creating Layer data
I1228 13:25:49.595691 103425 net.cpp:586] data -> data
I1228 13:25:49.605284 103525 net.cpp:178] Creating Layer data
I1228 13:25:49.599272 104155 net.cpp:586] data -> data
I1228 13:25:49.593066 99727 net.cpp:136] Initializing net from parameters: 
name: "AlexNet"
state {
  phase: TRAIN
  level: 0
  stage: ""
}
layer {
  name: "data"
  type: "Data"
  top: "data"
  top: "label"
  include {
    phase: TRAIN
  }
  transform_param {
    mirror: true
    crop_size: 227
    mean_value: 104
    mean_value: 117
    mean_value: 123
  }
  data_param {
    source: "/export/data1/stanford/hazy/zjian/gorden_bell/ILSVRC2012_lmdb/db_8/ilsvrc12_train_lmdb_5"
    batch_size: 64
    backend: LMDB
  }
}
layer {
  name: "label_data_1_split"
  type: "Split"
  bottom: "label"
  top: "label_data_1_split_0"
  top: "label_data_1_split_1"
}
layer {
  name: "conv1"
  type: "Convolution"
  bottom: "data"
  top: "conv1"
  param {
    lr_mult: 1
    decay_mult: 1
  }
  param {
    lr_mult: 2
    decay_mult: 0
  }
  convolution_param {
    num_output: 96
    kernel_size: 11
    stride: 4
    weight_filler {
      type: "gaussian"
      std: 0.01
    }
    bias_filler {
      type: "constant"
      value: 0
    }
    engine: MKL2017
  }
}
layer {
  name: "relu1"
  type: "ReLU"
  bottom: "conv1"
  top: "conv1"
  relu_param {
    engine: MKL2017
  }
}
layer {
  name: "norm1"
  type: "LRN"
  bottom: "conv1"
  top: "norm1"
  lrn_param {
    local_size: 5
    alpha: 0.0001
    beta: 0.75
    engine: MKL2017
  }
}
layer {
  name: "pool1"
  type: "Pooling"
  bottom: "norm1"
  top: "pool1"
  pooling_param {
    pool: MAX
    kernel_size: 3
    stride: 2
    engine: MKL2017
  }
}
layer {
  name: "conv2"
  type: "Convolution"
  bottom: "pool1"
  top: "conv2"
  param {
    lr_mult: 1
    decay_mult: 1
  }
  param {
    lr_mult: 2
    decay_mult: 0
  }
  convolution_param {
    num_output: 256
    pad: 2
    kernel_size: 5
    group: 2
    weight_filler {
      type: "gaussian"
      std: 0.01
    }
    bias_filler {
      type: "constant"
      value: 0.1
    }
    engine: MKL2017
  }
}
layer {
  name: "relu2"
  type: "ReLU"
  bottom: "conv2"
  top: "conv2"
  relu_param {
    engine: MKL2017
  }
}
layer {
  name: "norm2"
  type: "LRN"
  bottom: "conv2"
  top: "norm2"
  lrn_param {
    local_size: 5
    alpha: 0.0001
    beta: 0.75
    engine: MKL2017
  }
}
layer {
  name: "pool2"
  type: "Pooling"
  bottom: "norm2"
  top: "pool2"
  pooling_param {
    pool: MAX
    kernel_size: 3
    stride: 2
    engine: MKL2017
  }
}
layer {
  name: "conv3"
  type: "Convolution"
  bottom: "pool2"
  top: "conv3"
  param {
    lr_mult: 1
    decay_mult: 1
  }
  param {
    lr_mult: 2
    decay_mult: 0
  }
  convolution_param {
    num_output: 384
    pad: 1
    kernel_size: 3
    weight_filler {
      type: "gaussian"
      std: 0.01
    }
    bias_filler {
      type: "constant"
      value: 0
    }
    engine: MKL2017
  }
}
layer {
  name: "relu3"
  type: "ReLU"
  bottom: "conv3"
  top: "conv3"
  relu_param {
    engine: MKL2017
  }
}
layer {
  name: "conv4"
  type: "Convolution"
  bottom: "conv3"
  top: "conv4"
  param {
    lr_mult: 1
    decay_mult: 1
  }
  param {
    lr_mult: 2
    decay_mult: 0
  }
  convolution_param {
    num_output: 384
    pad: 1
    kernel_size: 3
    group: 2
    weight_filler {
      type: "gaussian"
      std: 0.01
    }
    bias_filler {
      type: "constant"
      value: 0.1
    }
    engine: MKL2017
  }
}
layer {
  name: "relu4"
  type: "ReLU"
  bottom: "conv4"
  top: "conv4"
  relu_param {
    engine: MKL2017
  }
}
layer {
  name: "conv5"
  type: "Convolution"
  bottom: "conv4"
  top: "conv5"
  param {
    lr_mult: 1
    decay_mult: 1
  }
  param {
    lr_mult: 2
    decay_mult: 0
  }
  convolution_param {
    num_output: 256
    pad: 1
    kernel_size: 3
    group: 2
    weight_filler {
      type: "gaussian"
      std: 0.01
    }
    bias_filler {
      type: "constant"
      value: 0.1
    }
    engine: MKL2017
  }
}
layer {
  name: "relu5"
  type: "ReLU"
  bottom: "conv5"
  top: "conv5"
  relu_param {
    engine: MKL2017
  }
}
layer {
  name: "pool5"
  type: "Pooling"
  bottom: "conv5"
  top: "pool5"
  pooling_param {
    pool: MAX
    kernel_size: 3
    stride: 2
    engine: MKL2017
  }
}
layer {
  name: "fc6"
  type: "InnerProduct"
  bottom: "pool5"
  top: "fc6"
  param {
    lr_mult: 1
    decay_mult: 1
  }
  param {
    lr_mult: 2
    decay_mult: 0
  }
  inner_product_param {
    num_output: 4096
    weight_filler {
      type: "gaussian"
      std: 0.005
    }
    bias_filler {
      type: "constant"
      value: 0.1
    }
  }
}
layer {
  name: "relu6"
  type: "ReLU"
  bottom: "fc6"
  top: "fc6"
}
layer {
  name: "drop6"
  type: "Dropout"
  bottom: "fc6"
  top: "fc6"
  dropout_param {
    dropout_ratio: 0.5
  }
}
layer {
  name: "fc7"
  type: "InnerProduct"
  bottom: "fc6"
  top: "fc7"
  param {
    lr_mult: 1
    decay_mult: 1
  }
  param {
    lr_mult: 2
    decay_mult: 0
  }
  inner_product_param {
    num_output: 4096
    weight_filler {
      type: "gaussian"
      std: 0.005
    }
    bias_filler {
      type: "constant"
      value: 0.1
    }
  }
}
layer {
  name: "relu7"
  type: "ReLU"
  bottom: "fc7"
  top: "fc7"
}
layer {
  name: "drop7"
  type: "Dropout"
  bottom: "fc7"
  top: "fc7"
  dropout_param {
    dropout_ratio: 0.5
  }
}
layer {
  name: "fc8"
  type: "InnerProduct"
  bottom: "fc7"
  top: "fc8"
  param {
    lr_mult: 1
    decay_mult: 1
  }
  param {
    lr_mult: 2
    decay_mult: 0
  }
  inner_product_param {
    num_output: 1000
    weight_filler {
      type: "gaussian"
      std: 0.01
    }
    bias_filler {
      type: "constant"
      value: 0
    }
  }
}
layer {
  name: "fc8_fc8_0_split"
  type: "Split"
  bottom: "fc8"
  top: "fc8_fc8_0_split_0"
  top: "fc8_fc8_0_split_1"
}
layer {
  name: "accuracy"
  type: "Accuracy"
  bottom: "fc8_fc8_0_split_0"
  bottom: "label_data_1_split_0"
  top: "accuracy"
}
layer {
  name: "loss"
  type: "SoftmaxWithLoss"
  bottom: "fc8_fc8_0_split_1"
  bottom: "label_data_1_split_1"
  top: "loss"
}
I1228 13:25:49.609040 106496 net.cpp:586] data -> data
I1228 13:25:49.608427 103525 net.cpp:586] data -> data
I1228 13:25:49.595018 99727 layer_factory.hpp:114] Creating layer data
I1228 13:25:49.601019 103425 net.cpp:586] data -> label
I1228 13:25:49.603636 104155 net.cpp:586] data -> label
I1228 13:25:49.613656 106496 net.cpp:586] data -> label
I1228 13:25:49.618173 135543 net.cpp:136] Initializing net from parameters: 
name: "AlexNet"
state {
  phase: TRAIN
  level: 0
  stage: ""
}
layer {
  name: "data"
  type: "Data"
  top: "data"
  top: "label"
  include {
    phase: TRAIN
  }
  transform_param {
    mirror: true
    crop_size: 227
    mean_value: 104
    mean_value: 117
    mean_value: 123
  }
  data_param {
    source: "/export/data1/stanford/hazy/zjian/gorden_bell/ILSVRC2012_lmdb/db_8/ilsvrc12_train_lmdb_0"
    batch_size: 64
    backend: LMDB
  }
}
layer {
  name: "label_data_1_split"
  type: "Split"
  bottom: "label"
  top: "label_data_1_split_0"
  top: "label_data_1_split_1"
}
layer {
  name: "conv1"
  type: "Convolution"
  bottom: "data"
  top: "conv1"
  param {
    lr_mult: 1
    decay_mult: 1
  }
  param {
    lr_mult: 2
    decay_mult: 0
  }
  convolution_param {
    num_output: 96
    kernel_size: 11
    stride: 4
    weight_filler {
      type: "gaussian"
      std: 0.01
    }
    bias_filler {
      type: "constant"
      value: 0
    }
    engine: MKL2017
  }
}
layer {
  name: "relu1"
  type: "ReLU"
  bottom: "conv1"
  top: "conv1"
  relu_param {
    engine: MKL2017
  }
}
layer {
  name: "norm1"
  type: "LRN"
  bottom: "conv1"
  top: "norm1"
  lrn_param {
    local_size: 5
    alpha: 0.0001
    beta: 0.75
    engine: MKL2017
  }
}
layer {
  name: "pool1"
  type: "Pooling"
  bottom: "norm1"
  top: "pool1"
  pooling_param {
    pool: MAX
    kernel_size: 3
    stride: 2
    engine: MKL2017
  }
}
layer {
  name: "conv2"
  type: "Convolution"
  bottom: "pool1"
  top: "conv2"
  param {
    lr_mult: 1
    decay_mult: 1
  }
  param {
    lr_mult: 2
    decay_mult: 0
  }
  convolution_param {
    num_output: 256
    pad: 2
    kernel_size: 5
    group: 2
    weight_filler {
      type: "gaussian"
      std: 0.01
    }
    bias_filler {
      type: "constant"
      value: 0.1
    }
    engine: MKL2017
  }
}
layer {
  name: "relu2"
  type: "ReLU"
  bottom: "conv2"
  top: "conv2"
  relu_param {
    engine: MKL2017
  }
}
layer {
  name: "norm2"
  type: "LRN"
  bottom: "conv2"
  top: "norm2"
  lrn_param {
    local_size: 5
    alpha: 0.0001
    beta: 0.75
    engine: MKL2017
  }
}
layer {
  name: "pool2"
  type: "Pooling"
  bottom: "norm2"
  top: "pool2"
  pooling_param {
    pool: MAX
    kernel_size: 3
    stride: 2
    engine: MKL2017
  }
}
layer {
  name: "conv3"
  type: "Convolution"
  bottom: "pool2"
  top: "conv3"
  param {
    lr_mult: 1
    decay_mult: 1
  }
  param {
    lr_mult: 2
    decay_mult: 0
  }
  convolution_param {
    num_output: 384
    pad: 1
    kernel_size: 3
    weight_filler {
      type: "gaussian"
      std: 0.01
    }
    bias_filler {
      type: "constant"
      value: 0
    }
    engine: MKL2017
  }
}
layer {
  name: "relu3"
  type: "ReLU"
  bottom: "conv3"
  top: "conv3"
  relu_param {
    engine: MKL2017
  }
}
layer {
  name: "conv4"
  type: "Convolution"
  bottom: "conv3"
  top: "conv4"
  param {
    lr_mult: 1
    decay_mult: 1
  }
  param {
    lr_mult: 2
    decay_mult: 0
  }
  convolution_param {
    num_output: 384
    pad: 1
    kernel_size: 3
    group: 2
    weight_filler {
      type: "gaussian"
      std: 0.01
    }
    bias_filler {
      type: "constant"
      value: 0.1
    }
    engine: MKL2017
  }
}
layer {
  name: "relu4"
  type: "ReLU"
  bottom: "conv4"
  top: "conv4"
  relu_param {
    engine: MKL2017
  }
}
layer {
  name: "conv5"
  type: "Convolution"
  bottom: "conv4"
  top: "conv5"
  param {
    lr_mult: 1
    decay_mult: 1
  }
  param {
    lr_mult: 2
    decay_mult: 0
  }
  convolution_param {
    num_output: 256
    pad: 1
    kernel_size: 3
    group: 2
    weight_filler {
      type: "gaussian"
      std: 0.01
    }
    bias_filler {
      type: "constant"
      value: 0.1
    }
    engine: MKL2017
  }
}
layer {
  name: "relu5"
  type: "ReLU"
  bottom: "conv5"
  top: "conv5"
  relu_param {
    engine: MKL2017
  }
}
layer {
  name: "pool5"
  type: "Pooling"
  bottom: "conv5"
  top: "pool5"
  pooling_param {
    pool: MAX
    kernel_size: 3
    stride: 2
    engine: MKL2017
  }
}
layer {
  name: "fc6"
  type: "InnerProduct"
  bottom: "pool5"
  top: "fc6"
  param {
    lr_mult: 1
    decay_mult: 1
  }
  param {
    lr_mult: 2
    decay_mult: 0
  }
  inner_product_param {
    num_output: 4096
    weight_filler {
      type: "gaussian"
      std: 0.005
    }
    bias_filler {
      type: "constant"
      value: 0.1
    }
  }
}
layer {
  name: "relu6"
  type: "ReLU"
  bottom: "fc6"
  top: "fc6"
}
layer {
  name: "drop6"
  type: "Dropout"
  bottom: "fc6"
  top: "fc6"
  dropout_param {
    dropout_ratio: 0.5
  }
}
layer {
  name: "fc7"
  type: "InnerProduct"
  bottom: "fc6"
  top: "fc7"
  param {
    lr_mult: 1
    decay_mult: 1
  }
  param {
    lr_mult: 2
    decay_mult: 0
  }
  inner_product_param {
    num_output: 4096
    weight_filler {
      type: "gaussian"
      std: 0.005
    }
    bias_filler {
      type: "constant"
      value: 0.1
    }
  }
}
layer {
  name: "relu7"
  type: "ReLU"
  bottom: "fc7"
  top: "fc7"
}
layer {
  name: "drop7"
  type: "Dropout"
  bottom: "fc7"
  top: "fc7"
  dropout_param {
    dropout_ratio: 0.5
  }
}
layer {
  name: "fc8"
  type: "InnerProduct"
  bottom: "fc7"
  top: "fc8"
  param {
    lr_mult: 1
    decay_mult: 1
  }
  param {
    lr_mult: 2
    decay_mult: 0
  }
  inner_product_param {
    num_output: 1000
    weight_filler {
      type: "gaussian"
      std: 0.01
    }
    bias_filler {
      type: "constant"
      value: 0
    }
  }
}
layer {
  name: "fc8_fc8_0_split"
  type: "Split"
  bottom: "fc8"
  top: "fc8_fc8_0_split_0"
  top: "fc8_fc8_0_split_1"
}
layer {
  name: "accuracy"
  type: "Accuracy"
  bottom: "fc8_fc8_0_split_0"
  bottom: "label_data_1_split_0"
  top: "accuracy"
}
layer {
  name: "loss"
  type: "SoftmaxWithLoss"
  bottom: "fc8_fc8_0_split_1"
  bottom: "label_data_1_split_1"
  top: "loss"
}
I1228 13:25:49.613950 103525 net.cpp:586] data -> label
I1228 13:25:49.620270 135543 layer_factory.hpp:114] Creating layer data
I1228 13:25:49.616384 99727 net.cpp:178] Creating Layer data
I1228 13:25:49.619042 99727 net.cpp:586] data -> data
I1228 13:25:49.633577 110189 db_lmdb.cpp:72] Opened lmdb /export/data1/stanford/hazy/zjian/gorden_bell/ILSVRC2012_lmdb/db_8/ilsvrc12_train_lmdb_3
I1228 13:25:49.621866 108584 db_lmdb.cpp:72] Opened lmdb /export/data1/stanford/hazy/zjian/gorden_bell/ILSVRC2012_lmdb/db_8/ilsvrc12_train_lmdb_2
I1228 13:25:49.644317 135543 net.cpp:178] Creating Layer data
I1228 13:25:49.624239 111728 db_lmdb.cpp:72] Opened lmdb /export/data1/stanford/hazy/zjian/gorden_bell/ILSVRC2012_lmdb/db_8/ilsvrc12_train_lmdb_1
I1228 13:25:49.625713 99727 net.cpp:586] data -> label
I1228 13:25:49.648126 135543 net.cpp:586] data -> data
I1228 13:25:49.638804 104157 db_lmdb.cpp:72] Opened lmdb /export/data1/stanford/hazy/zjian/gorden_bell/ILSVRC2012_lmdb/db_8/ilsvrc12_train_lmdb_6
I1228 13:25:49.654439 135543 net.cpp:586] data -> label
I1228 13:25:49.650058 106496 net.cpp:228] Setting up data
I1228 13:25:49.650344 106496 net.cpp:235] Top shape: 64 3 227 227 (9893568)
I1228 13:25:49.650398 106496 net.cpp:235] Top shape: 64 1 1 1 (64)
I1228 13:25:49.650420 106496 net.cpp:243] Memory required for data: 39574528
I1228 13:25:49.650456 106496 layer_factory.hpp:114] Creating layer label_data_1_split
I1228 13:25:49.650624 106496 net.cpp:178] Creating Layer label_data_1_split
I1228 13:25:49.650825 106496 net.cpp:612] label_data_1_split <- label
I1228 13:25:49.650878 106496 net.cpp:586] label_data_1_split -> label_data_1_split_0
I1228 13:25:49.651039 106496 net.cpp:586] label_data_1_split -> label_data_1_split_1
I1228 13:25:49.654549 106496 net.cpp:228] Setting up label_data_1_split
I1228 13:25:49.654655 106496 net.cpp:235] Top shape: 64 1 1 1 (64)
I1228 13:25:49.654687 106496 net.cpp:235] Top shape: 64 1 1 1 (64)
I1228 13:25:49.654709 106496 net.cpp:243] Memory required for data: 39575040
I1228 13:25:49.654742 106496 layer_factory.hpp:114] Creating layer conv1
I1228 13:25:49.646080 103427 db_lmdb.cpp:72] Opened lmdb /export/data1/stanford/hazy/zjian/gorden_bell/ILSVRC2012_lmdb/db_8/ilsvrc12_train_lmdb_7
I1228 13:25:49.658051 106496 net.cpp:178] Creating Layer conv1
I1228 13:25:49.658133 106496 net.cpp:612] conv1 <- data
…
I1228 13:25:49.682399 104155 data_layer.cpp:80] output data size: 64,3,227,227
I1228 13:25:49.684334 103425 data_layer.cpp:80] output data size: 64,3,227,227
I1228 13:25:49.697372 103525 data_layer.cpp:80] output data size: 64,3,227,227
I1228 13:25:49.703603 135546 db_lmdb.cpp:72] Opened lmdb /export/data1/stanford/hazy/zjian/gorden_bell/ILSVRC2012_lmdb/db_8/ilsvrc12_train_lmdb_0
I1228 13:25:49.720654 99727 data_layer.cpp:80] output data size: 64,3,227,227
I1228 13:25:49.745718 135543 data_layer.cpp:80] output data size: 64,3,227,227
I1228 13:25:49.777215 104155 net.cpp:228] Setting up data
I1228 13:25:49.777547 104155 net.cpp:235] Top shape: 64 3 227 227 (9893568)
I1228 13:25:49.777622 104155 net.cpp:235] Top shape: 64 (64)
I1228 13:25:49.777650 104155 net.cpp:243] Memory required for data: 39574528
I1228 13:25:49.777688 104155 layer_factory.hpp:114] Creating layer label_data_1_split
I1228 13:25:49.780962 104155 net.cpp:178] Creating Layer label_data_1_split
I1228 13:25:49.779052 103425 net.cpp:228] Setting up data
I1228 13:25:49.779405 103425 net.cpp:235] Top shape: 64 3 227 227 (9893568)
I1228 13:25:49.779475 103425 net.cpp:235] Top shape: 64 (64)
I1228 13:25:49.779502 103425 net.cpp:243] Memory required for data: 39574528
I1228 13:25:49.779541 103425 layer_factory.hpp:114] Creating layer label_data_1_split
I1228 13:25:49.782558 104155 net.cpp:612] label_data_1_split <- label
I1228 13:25:49.782655 104155 net.cpp:586] label_data_1_split -> label_data_1_split_0
I1228 13:25:49.782716 104155 net.cpp:586] label_data_1_split -> label_data_1_split_1
I1228 13:25:49.792665 103525 net.cpp:228] Setting up data
I1228 13:25:49.792966 103525 net.cpp:235] Top shape: 64 3 227 227 (9893568)
I1228 13:25:49.793032 103525 net.cpp:235] Top shape: 64 (64)
I1228 13:25:49.793057 103525 net.cpp:243] Memory required for data: 39574528
I1228 13:25:49.793094 103525 layer_factory.hpp:114] Creating layer label_data_1_split
I1228 13:25:49.784401 103425 net.cpp:178] Creating Layer label_data_1_split
I1228 13:25:49.786443 103425 net.cpp:612] label_data_1_split <- label
I1228 13:25:49.786552 103425 net.cpp:586] label_data_1_split -> label_data_1_split_0
I1228 13:25:49.786603 103425 net.cpp:586] label_data_1_split -> label_data_1_split_1
I1228 13:25:49.796742 103525 net.cpp:178] Creating Layer label_data_1_split
I1228 13:25:49.798789 103525 net.cpp:612] label_data_1_split <- label
I1228 13:25:49.789805 103425 net.cpp:228] Setting up label_data_1_split
I1228 13:25:49.798913 103525 net.cpp:586] label_data_1_split -> label_data_1_split_0
I1228 13:25:49.789863 103425 net.cpp:235] Top shape: 64 (64)
I1228 13:25:49.798982 103525 net.cpp:586] label_data_1_split -> label_data_1_split_1
I1228 13:25:49.789893 103425 net.cpp:235] Top shape: 64 (64)
I1228 13:25:49.789916 103425 net.cpp:243] Memory required for data: 39575040
I1228 13:25:49.789952 103425 layer_factory.hpp:114] Creating layer conv1
I1228 13:25:49.786427 104155 net.cpp:228] Setting up label_data_1_split
I1228 13:25:49.786535 104155 net.cpp:235] Top shape: 64 (64)
I1228 13:25:49.786574 104155 net.cpp:235] Top shape: 64 (64)
I1228 13:25:49.786612 104155 net.cpp:243] Memory required for data: 39575040
I1228 13:25:49.786645 104155 layer_factory.hpp:114] Creating layer conv1
I1228 13:25:49.793117 104155 net.cpp:178] Creating Layer conv1
I1228 13:25:49.793185 104155 net.cpp:612] conv1 <- data
I1228 13:25:49.793236 104155 net.cpp:586] conv1 -> conv1
I1228 13:25:49.802700 103525 net.cpp:228] Setting up label_data_1_split
I1228 13:25:49.802845 103525 net.cpp:235] Top shape: 64 (64)
I1228 13:25:49.802887 103525 net.cpp:235] Top shape: 64 (64)
I1228 13:25:49.803009 103525 net.cpp:243] Memory required for data: 39575040
I1228 13:25:49.803046 103525 layer_factory.hpp:114] Creating layer conv1
I1228 13:25:49.794919 103425 net.cpp:178] Creating Layer conv1
I1228 13:25:49.794997 103425 net.cpp:612] conv1 <- data
I1228 13:25:49.795048 103425 net.cpp:586] conv1 -> conv1
I1228 13:25:49.808948 103525 net.cpp:178] Creating Layer conv1
I1228 13:25:49.809028 103525 net.cpp:612] conv1 <- data
I1228 13:25:49.809087 103525 net.cpp:586] conv1 -> conv1
I1228 13:25:49.854125 106496 net.cpp:228] Setting up conv1
I1228 13:25:49.854235 106496 net.cpp:235] Top shape: 64 96 55 55 (18585600)
I1228 13:25:49.854259 106496 net.cpp:243] Memory required for data: 113917440
I1228 13:25:49.856528 106496 layer_factory.hpp:114] Creating layer relu1
I1228 13:25:49.856781 106496 net.cpp:178] Creating Layer relu1
I1228 13:25:49.856854 106496 net.cpp:612] relu1 <- conv1
I1228 13:25:49.856917 106496 net.cpp:573] relu1 -> conv1 (in-place)
I1228 13:25:49.858858 106496 net.cpp:228] Setting up relu1
I1228 13:25:49.858928 106496 net.cpp:235] Top shape: 64 96 55 55 (18585600)
I1228 13:25:49.858952 106496 net.cpp:243] Memory required for data: 188259840
I1228 13:25:49.858983 106496 layer_factory.hpp:114] Creating layer norm1
I1228 13:25:49.860641 106496 net.cpp:178] Creating Layer norm1
I1228 13:25:49.860693 106496 net.cpp:612] norm1 <- conv1
I1228 13:25:49.860730 106496 net.cpp:586] norm1 -> norm1
I1228 13:25:49.863859 106496 net.cpp:228] Setting up norm1
I1228 13:25:49.863950 106496 net.cpp:235] Top shape: 64 96 55 55 (18585600)
I1228 13:25:49.863975 106496 net.cpp:243] Memory required for data: 262602240
I1228 13:25:49.864007 106496 layer_factory.hpp:114] Creating layer pool1
I1228 13:25:49.866775 106496 net.cpp:178] Creating Layer pool1
I1228 13:25:49.866844 106496 net.cpp:612] pool1 <- norm1
I1228 13:25:49.866900 106496 net.cpp:586] pool1 -> pool1
I1228 13:25:49.871114 106496 net.cpp:228] Setting up pool1
I1228 13:25:49.871194 106496 net.cpp:235] Top shape: 64 96 27 27 (4478976)
I1228 13:25:49.871219 106496 net.cpp:243] Memory required for data: 280518144
I1228 13:25:49.871250 106496 layer_factory.hpp:114] Creating layer conv2
I1228 13:25:49.871343 106496 net.cpp:178] Creating Layer conv2
I1228 13:25:49.871381 106496 net.cpp:612] conv2 <- pool1
I1228 13:25:49.871428 106496 net.cpp:586] conv2 -> conv2
I1228 13:25:49.858002 99727 net.cpp:228] Setting up data
I1228 13:25:49.858427 99727 net.cpp:235] Top shape: 64 3 227 227 (9893568)
I1228 13:25:49.858539 99727 net.cpp:235] Top shape: 64 (64)
I1228 13:25:49.858578 99727 net.cpp:243] Memory required for data: 39574528
I1228 13:25:49.858630 99727 layer_factory.hpp:114] Creating layer label_data_1_split
I1228 13:25:49.862236 99727 net.cpp:178] Creating Layer label_data_1_split
I1228 13:25:49.863889 99727 net.cpp:612] label_data_1_split <- label
I1228 13:25:49.883152 135543 net.cpp:228] Setting up data
I1228 13:25:49.864004 99727 net.cpp:586] label_data_1_split -> label_data_1_split_0
I1228 13:25:49.883544 135543 net.cpp:235] Top shape: 64 3 227 227 (9893568)
I1228 13:25:49.864084 99727 net.cpp:586] label_data_1_split -> label_data_1_split_1
I1228 13:25:49.883669 135543 net.cpp:235] Top shape: 64 (64)
I1228 13:25:49.883713 135543 net.cpp:243] Memory required for data: 39574528
I1228 13:25:49.883765 135543 layer_factory.hpp:114] Creating layer label_data_1_split
I1228 13:25:49.867324 99727 net.cpp:228] Setting up label_data_1_split
I1228 13:25:49.867509 99727 net.cpp:235] Top shape: 64 (64)
I1228 13:25:49.867563 99727 net.cpp:235] Top shape: 64 (64)
I1228 13:25:49.867755 99727 net.cpp:243] Memory required for data: 39575040
I1228 13:25:49.867805 99727 layer_factory.hpp:114] Creating layer conv1
I1228 13:25:49.887142 135543 net.cpp:178] Creating Layer label_data_1_split
I1228 13:25:49.889165 135543 net.cpp:612] label_data_1_split <- label
I1228 13:25:49.889293 135543 net.cpp:586] label_data_1_split -> label_data_1_split_0
I1228 13:25:49.889379 135543 net.cpp:586] label_data_1_split -> label_data_1_split_1
I1228 13:25:49.892987 135543 net.cpp:228] Setting up label_data_1_split
I1228 13:25:49.893128 135543 net.cpp:235] Top shape: 64 (64)
I1228 13:25:49.893180 135543 net.cpp:235] Top shape: 64 (64)
I1228 13:25:49.893218 135543 net.cpp:243] Memory required for data: 39575040
I1228 13:25:49.893270 135543 layer_factory.hpp:114] Creating layer conv1
I1228 13:25:49.874372 99727 net.cpp:178] Creating Layer conv1
I1228 13:25:49.874552 99727 net.cpp:612] conv1 <- data
I1228 13:25:49.874639 99727 net.cpp:586] conv1 -> conv1
I1228 13:25:49.877377 111726 net.cpp:228] Setting up data
I1228 13:25:49.877709 111726 net.cpp:235] Top shape: 64 3 227 227 (9893568)
I1228 13:25:49.877830 111726 net.cpp:235] Top shape: 64 (64)
I1228 13:25:49.877861 111726 net.cpp:243] Memory required for data: 39574528
I1228 13:25:49.877902 111726 layer_factory.hpp:114] Creating layer label_data_1_split
I1228 13:25:49.901762 135543 net.cpp:178] Creating Layer conv1
I1228 13:25:49.901890 135543 net.cpp:612] conv1 <- data
I1228 13:25:49.901980 135543 net.cpp:586] conv1 -> conv1
I1228 13:25:49.882218 108582 net.cpp:228] Setting up data
I1228 13:25:49.882549 108582 net.cpp:235] Top shape: 64 3 227 227 (9893568)
I1228 13:25:49.882639 108582 net.cpp:235] Top shape: 64 (64)
I1228 13:25:49.882673 108582 net.cpp:243] Memory required for data: 39574528
I1228 13:25:49.882715 108582 layer_factory.hpp:114] Creating layer label_data_1_split
I1228 13:25:49.885015 108582 net.cpp:178] Creating Layer label_data_1_split
I1228 13:25:49.886170 108582 net.cpp:612] label_data_1_split <- label
I1228 13:25:49.886289 108582 net.cpp:586] label_data_1_split -> label_data_1_split_0
I1228 13:25:49.886358 108582 net.cpp:586] label_data_1_split -> label_data_1_split_1
I1228 13:25:49.888864 108582 net.cpp:228] Setting up label_data_1_split
I1228 13:25:49.888980 108582 net.cpp:235] Top shape: 64 (64)
I1228 13:25:49.889024 108582 net.cpp:235] Top shape: 64 (64)
I1228 13:25:49.889209 108582 net.cpp:243] Memory required for data: 39575040
I1228 13:25:49.889348 108582 layer_factory.hpp:114] Creating layer conv1
I1228 13:25:49.892693 111726 net.cpp:178] Creating Layer label_data_1_split
I1228 13:25:49.909778 110187 net.cpp:228] Setting up data
I1228 13:25:49.894477 111726 net.cpp:612] label_data_1_split <- label
I1228 13:25:49.894623 111726 net.cpp:586] label_data_1_split -> label_data_1_split_0
I1228 13:25:49.894708 111726 net.cpp:586] label_data_1_split -> label_data_1_split_1
I1228 13:25:49.910198 110187 net.cpp:235] Top shape: 64 3 227 227 (9893568)
I1228 13:25:49.910289 110187 net.cpp:235] Top shape: 64 (64)
I1228 13:25:49.910320 110187 net.cpp:243] Memory required for data: 39574528
I1228 13:25:49.910362 110187 layer_factory.hpp:114] Creating layer label_data_1_split
I1228 13:25:49.912760 110187 net.cpp:178] Creating Layer label_data_1_split
I1228 13:25:49.898128 111726 net.cpp:228] Setting up label_data_1_split
I1228 13:25:49.898269 111726 net.cpp:235] Top shape: 64 (64)
I1228 13:25:49.898345 111726 net.cpp:235] Top shape: 64 (64)
I1228 13:25:49.898380 111726 net.cpp:243] Memory required for data: 39575040
I1228 13:25:49.898416 111726 layer_factory.hpp:114] Creating layer conv1
I1228 13:25:49.914243 110187 net.cpp:612] label_data_1_split <- label
I1228 13:25:49.914367 110187 net.cpp:586] label_data_1_split -> label_data_1_split_0
I1228 13:25:49.914439 110187 net.cpp:586] label_data_1_split -> label_data_1_split_1
I1228 13:25:49.916734 110187 net.cpp:228] Setting up label_data_1_split
I1228 13:25:49.916920 110187 net.cpp:235] Top shape: 64 (64)
I1228 13:25:49.916985 110187 net.cpp:235] Top shape: 64 (64)
I1228 13:25:49.917014 110187 net.cpp:243] Memory required for data: 39575040
I1228 13:25:49.917052 110187 layer_factory.hpp:114] Creating layer conv1
I1228 13:25:49.906658 111726 net.cpp:178] Creating Layer conv1
I1228 13:25:49.906774 111726 net.cpp:612] conv1 <- data
I1228 13:25:49.906844 111726 net.cpp:586] conv1 -> conv1
I1228 13:25:49.913916 108582 net.cpp:178] Creating Layer conv1
I1228 13:25:49.914007 108582 net.cpp:612] conv1 <- data
I1228 13:25:49.914074 108582 net.cpp:586] conv1 -> conv1
I1228 13:25:49.940279 110187 net.cpp:178] Creating Layer conv1
I1228 13:25:49.940373 110187 net.cpp:612] conv1 <- data
I1228 13:25:49.940440 110187 net.cpp:586] conv1 -> conv1
I1228 13:25:50.023993 103425 net.cpp:228] Setting up conv1
I1228 13:25:50.024153 103425 net.cpp:235] Top shape: 64 96 55 55 (18585600)
I1228 13:25:50.024188 103425 net.cpp:243] Memory required for data: 113917440
I1228 13:25:50.035775 103525 net.cpp:228] Setting up conv1
I1228 13:25:50.035931 103525 net.cpp:235] Top shape: 64 96 55 55 (18585600)
I1228 13:25:50.035962 103525 net.cpp:243] Memory required for data: 113917440
I1228 13:25:50.027374 103425 layer_factory.hpp:114] Creating layer relu1
I1228 13:25:50.030107 104155 net.cpp:228] Setting up conv1
I1228 13:25:50.030238 104155 net.cpp:235] Top shape: 64 96 55 55 (18585600)
I1228 13:25:50.030969 104155 net.cpp:243] Memory required for data: 113917440
I1228 13:25:50.029469 103425 net.cpp:178] Creating Layer relu1
I1228 13:25:50.029556 103425 net.cpp:612] relu1 <- conv1
I1228 13:25:50.029605 103425 net.cpp:573] relu1 -> conv1 (in-place)
I1228 13:25:50.039162 103525 layer_factory.hpp:114] Creating layer relu1
I1228 13:25:50.034209 104155 layer_factory.hpp:114] Creating layer relu1
I1228 13:25:50.031900 103425 net.cpp:228] Setting up relu1
I1228 13:25:50.041095 103525 net.cpp:178] Creating Layer relu1
I1228 13:25:50.032016 103425 net.cpp:235] Top shape: 64 96 55 55 (18585600)
I1228 13:25:50.032047 103425 net.cpp:243] Memory required for data: 188259840
I1228 13:25:50.041190 103525 net.cpp:612] relu1 <- conv1
I1228 13:25:50.041246 103525 net.cpp:573] relu1 -> conv1 (in-place)
I1228 13:25:50.032083 103425 layer_factory.hpp:114] Creating layer norm1
I1228 13:25:50.036160 104155 net.cpp:178] Creating Layer relu1
I1228 13:25:50.036247 104155 net.cpp:612] relu1 <- conv1
I1228 13:25:50.036346 104155 net.cpp:573] relu1 -> conv1 (in-place)
I1228 13:25:50.043742 103525 net.cpp:228] Setting up relu1
I1228 13:25:50.043864 103525 net.cpp:235] Top shape: 64 96 55 55 (18585600)
I1228 13:25:50.043926 103525 net.cpp:243] Memory required for data: 188259840
I1228 13:25:50.043974 103525 layer_factory.hpp:114] Creating layer norm1
I1228 13:25:50.035604 103425 net.cpp:178] Creating Layer norm1
I1228 13:25:50.035709 103425 net.cpp:612] norm1 <- conv1
I1228 13:25:50.035780 103425 net.cpp:586] norm1 -> norm1
I1228 13:25:50.038077 104155 net.cpp:228] Setting up relu1
I1228 13:25:50.038194 104155 net.cpp:235] Top shape: 64 96 55 55 (18585600)
I1228 13:25:50.038229 104155 net.cpp:243] Memory required for data: 188259840
I1228 13:25:50.038264 104155 layer_factory.hpp:114] Creating layer norm1
I1228 13:25:50.046959 103525 net.cpp:178] Creating Layer norm1
I1228 13:25:50.047077 103525 net.cpp:612] norm1 <- conv1
I1228 13:25:50.047185 103525 net.cpp:586] norm1 -> norm1
I1228 13:25:50.039194 103425 net.cpp:228] Setting up norm1
I1228 13:25:50.039294 103425 net.cpp:235] Top shape: 64 96 55 55 (18585600)
I1228 13:25:50.039324 103425 net.cpp:243] Memory required for data: 262602240
I1228 13:25:50.041435 104155 net.cpp:178] Creating Layer norm1
I1228 13:25:50.039360 103425 layer_factory.hpp:114] Creating layer pool1
I1228 13:25:50.041601 104155 net.cpp:612] norm1 <- conv1
I1228 13:25:50.041681 104155 net.cpp:586] norm1 -> norm1
I1228 13:25:50.050314 103525 net.cpp:228] Setting up norm1
I1228 13:25:50.050434 103525 net.cpp:235] Top shape: 64 96 55 55 (18585600)
I1228 13:25:50.050462 103525 net.cpp:243] Memory required for data: 262602240
I1228 13:25:50.050498 103525 layer_factory.hpp:114] Creating layer pool1
I1228 13:25:50.044318 104155 net.cpp:228] Setting up norm1
I1228 13:25:50.044435 104155 net.cpp:235] Top shape: 64 96 55 55 (18585600)
I1228 13:25:50.044461 104155 net.cpp:243] Memory required for data: 262602240
I1228 13:25:50.044497 104155 layer_factory.hpp:114] Creating layer pool1
I1228 13:25:50.042829 103425 net.cpp:178] Creating Layer pool1
I1228 13:25:50.042940 103425 net.cpp:612] pool1 <- norm1
I1228 13:25:50.043016 103425 net.cpp:586] pool1 -> pool1
I1228 13:25:50.053228 103525 net.cpp:178] Creating Layer pool1
I1228 13:25:50.053321 103525 net.cpp:612] pool1 <- norm1
I1228 13:25:50.053432 103525 net.cpp:586] pool1 -> pool1
I1228 13:25:50.047149 104155 net.cpp:178] Creating Layer pool1
I1228 13:25:50.047235 104155 net.cpp:612] pool1 <- norm1
I1228 13:25:50.047368 104155 net.cpp:586] pool1 -> pool1
I1228 13:25:50.048724 103425 net.cpp:228] Setting up pool1
I1228 13:25:50.048851 103425 net.cpp:235] Top shape: 64 96 27 27 (4478976)
I1228 13:25:50.048883 103425 net.cpp:243] Memory required for data: 280518144
I1228 13:25:50.049043 103425 layer_factory.hpp:114] Creating layer conv2
I1228 13:25:50.058202 103525 net.cpp:228] Setting up pool1
I1228 13:25:50.058324 103525 net.cpp:235] Top shape: 64 96 27 27 (4478976)
I1228 13:25:50.049188 103425 net.cpp:178] Creating Layer conv2
I1228 13:25:50.058367 103525 net.cpp:243] Memory required for data: 280518144
I1228 13:25:50.049237 103425 net.cpp:612] conv2 <- pool1
I1228 13:25:50.058403 103525 layer_factory.hpp:114] Creating layer conv2
I1228 13:25:50.049321 103425 net.cpp:586] conv2 -> conv2
I1228 13:25:50.051652 104155 net.cpp:228] Setting up pool1
I1228 13:25:50.058691 103525 net.cpp:178] Creating Layer conv2
I1228 13:25:50.051777 104155 net.cpp:235] Top shape: 64 96 27 27 (4478976)
I1228 13:25:50.051810 104155 net.cpp:243] Memory required for data: 280518144
I1228 13:25:50.058836 103525 net.cpp:612] conv2 <- pool1
I1228 13:25:50.051844 104155 layer_factory.hpp:114] Creating layer conv2
I1228 13:25:50.059188 103525 net.cpp:586] conv2 -> conv2
I1228 13:25:50.051949 104155 net.cpp:178] Creating Layer conv2
I1228 13:25:50.052009 104155 net.cpp:612] conv2 <- pool1
I1228 13:25:50.052062 104155 net.cpp:586] conv2 -> conv2
I1228 13:25:50.087275 106496 net.cpp:228] Setting up conv2
I1228 13:25:50.087404 106496 net.cpp:235] Top shape: 64 256 27 27 (11943936)
I1228 13:25:50.087430 106496 net.cpp:243] Memory required for data: 328293888
I1228 13:25:50.087548 106496 layer_factory.hpp:114] Creating layer relu2
I1228 13:25:50.087707 106496 net.cpp:178] Creating Layer relu2
I1228 13:25:50.087744 106496 net.cpp:612] relu2 <- conv2
I1228 13:25:50.087790 106496 net.cpp:573] relu2 -> conv2 (in-place)
I1228 13:25:50.087887 106496 net.cpp:228] Setting up relu2
I1228 13:25:50.087940 106496 net.cpp:235] Top shape: 64 256 27 27 (11943936)
I1228 13:25:50.087965 106496 net.cpp:243] Memory required for data: 376069632
I1228 13:25:50.088006 106496 layer_factory.hpp:114] Creating layer norm2
I1228 13:25:50.088088 106496 net.cpp:178] Creating Layer norm2
I1228 13:25:50.088125 106496 net.cpp:612] norm2 <- conv2
I1228 13:25:50.088162 106496 net.cpp:586] norm2 -> norm2
I1228 13:25:50.088258 106496 net.cpp:228] Setting up norm2
I1228 13:25:50.088305 106496 net.cpp:235] Top shape: 64 256 27 27 (11943936)
I1228 13:25:50.088333 106496 net.cpp:243] Memory required for data: 423845376
I1228 13:25:50.088366 106496 layer_factory.hpp:114] Creating layer pool2
I1228 13:25:50.088415 106496 net.cpp:178] Creating Layer pool2
I1228 13:25:50.088444 106496 net.cpp:612] pool2 <- norm2
I1228 13:25:50.088533 106496 net.cpp:586] pool2 -> pool2
I1228 13:25:50.088627 106496 net.cpp:228] Setting up pool2
I1228 13:25:50.088784 106496 net.cpp:235] Top shape: 64 256 13 13 (2768896)
I1228 13:25:50.088810 106496 net.cpp:243] Memory required for data: 434920960
I1228 13:25:50.088838 106496 layer_factory.hpp:114] Creating layer conv3
I1228 13:25:50.088923 106496 net.cpp:178] Creating Layer conv3
I1228 13:25:50.088976 106496 net.cpp:612] conv3 <- pool2
I1228 13:25:50.089031 106496 net.cpp:586] conv3 -> conv3
I1228 13:25:50.201426 99727 net.cpp:228] Setting up conv1
I1228 13:25:50.201656 99727 net.cpp:235] Top shape: 64 96 55 55 (18585600)
I1228 13:25:50.201702 99727 net.cpp:243] Memory required for data: 113917440
I1228 13:25:50.206073 99727 layer_factory.hpp:114] Creating layer relu1
I1228 13:25:50.208245 99727 net.cpp:178] Creating Layer relu1
I1228 13:25:50.208395 99727 net.cpp:612] relu1 <- conv1
I1228 13:25:50.208525 99727 net.cpp:573] relu1 -> conv1 (in-place)
I1228 13:25:50.239400 135543 net.cpp:228] Setting up conv1
I1228 13:25:50.239548 135543 net.cpp:235] Top shape: 64 96 55 55 (18585600)
I1228 13:25:50.239594 135543 net.cpp:243] Memory required for data: 113917440
I1228 13:25:50.222666 99727 net.cpp:228] Setting up relu1
I1228 13:25:50.222817 99727 net.cpp:235] Top shape: 64 96 55 55 (18585600)
I1228 13:25:50.222862 99727 net.cpp:243] Memory required for data: 188259840
I1228 13:25:50.222910 99727 layer_factory.hpp:114] Creating layer norm1
I1228 13:25:50.244158 135543 layer_factory.hpp:114] Creating layer relu1
I1228 13:25:50.236057 99727 net.cpp:178] Creating Layer norm1
I1228 13:25:50.236168 99727 net.cpp:612] norm1 <- conv1
I1228 13:25:50.236234 99727 net.cpp:586] norm1 -> norm1
I1228 13:25:50.240584 99727 net.cpp:228] Setting up norm1
I1228 13:25:50.240713 99727 net.cpp:235] Top shape: 64 96 55 55 (18585600)
I1228 13:25:50.240753 99727 net.cpp:243] Memory required for data: 262602240
I1228 13:25:50.240802 99727 layer_factory.hpp:114] Creating layer pool1
I1228 13:25:50.244602 99727 net.cpp:178] Creating Layer pool1
I1228 13:25:50.244710 99727 net.cpp:612] pool1 <- norm1
I1228 13:25:50.244804 99727 net.cpp:586] pool1 -> pool1
I1228 13:25:50.268759 135543 net.cpp:178] Creating Layer relu1
I1228 13:25:50.268874 135543 net.cpp:612] relu1 <- conv1
I1228 13:25:50.268941 135543 net.cpp:573] relu1 -> conv1 (in-place)
I1228 13:25:50.250195 99727 net.cpp:228] Setting up pool1
I1228 13:25:50.250313 99727 net.cpp:235] Top shape: 64 96 27 27 (4478976)
I1228 13:25:50.250349 99727 net.cpp:243] Memory required for data: 280518144
I1228 13:25:50.250392 99727 layer_factory.hpp:114] Creating layer conv2
I1228 13:25:50.250562 99727 net.cpp:178] Creating Layer conv2
I1228 13:25:50.250624 99727 net.cpp:612] conv2 <- pool1
I1228 13:25:50.250691 99727 net.cpp:586] conv2 -> conv2
I1228 13:25:50.271174 135543 net.cpp:228] Setting up relu1
I1228 13:25:50.271329 135543 net.cpp:235] Top shape: 64 96 55 55 (18585600)
I1228 13:25:50.271373 135543 net.cpp:243] Memory required for data: 188259840
I1228 13:25:50.271422 135543 layer_factory.hpp:114] Creating layer norm1
I1228 13:25:50.275728 135543 net.cpp:178] Creating Layer norm1
I1228 13:25:50.275843 135543 net.cpp:612] norm1 <- conv1
I1228 13:25:50.275908 135543 net.cpp:586] norm1 -> norm1
I1228 13:25:50.279850 135543 net.cpp:228] Setting up norm1
I1228 13:25:50.279983 135543 net.cpp:235] Top shape: 64 96 55 55 (18585600)
I1228 13:25:50.280024 135543 net.cpp:243] Memory required for data: 262602240
I1228 13:25:50.280074 135543 layer_factory.hpp:114] Creating layer pool1
I1228 13:25:50.284122 135543 net.cpp:178] Creating Layer pool1
I1228 13:25:50.284246 135543 net.cpp:612] pool1 <- norm1
I1228 13:25:50.284356 135543 net.cpp:586] pool1 -> pool1
I1228 13:25:50.290105 135543 net.cpp:228] Setting up pool1
I1228 13:25:50.290238 135543 net.cpp:235] Top shape: 64 96 27 27 (4478976)
I1228 13:25:50.290277 135543 net.cpp:243] Memory required for data: 280518144
I1228 13:25:50.290328 135543 layer_factory.hpp:114] Creating layer conv2
I1228 13:25:50.290467 135543 net.cpp:178] Creating Layer conv2
I1228 13:25:50.290524 135543 net.cpp:612] conv2 <- pool1
I1228 13:25:50.290592 135543 net.cpp:586] conv2 -> conv2
I1228 13:25:50.316431 106496 net.cpp:228] Setting up conv3
I1228 13:25:50.316578 106496 net.cpp:235] Top shape: 64 384 13 13 (4153344)
I1228 13:25:50.316607 106496 net.cpp:243] Memory required for data: 451534336
I1228 13:25:50.316676 106496 layer_factory.hpp:114] Creating layer relu3
I1228 13:25:50.316740 106496 net.cpp:178] Creating Layer relu3
I1228 13:25:50.316769 106496 net.cpp:612] relu3 <- conv3
I1228 13:25:50.316839 106496 net.cpp:573] relu3 -> conv3 (in-place)
I1228 13:25:50.317028 106496 net.cpp:228] Setting up relu3
I1228 13:25:50.317091 106496 net.cpp:235] Top shape: 64 384 13 13 (4153344)
I1228 13:25:50.317116 106496 net.cpp:243] Memory required for data: 468147712
I1228 13:25:50.317144 106496 layer_factory.hpp:114] Creating layer conv4
I1228 13:25:50.317234 106496 net.cpp:178] Creating Layer conv4
I1228 13:25:50.317268 106496 net.cpp:612] conv4 <- conv3
I1228 13:25:50.317307 106496 net.cpp:586] conv4 -> conv4
I1228 13:25:50.379413 103525 net.cpp:228] Setting up conv2
I1228 13:25:50.379532 103525 net.cpp:235] Top shape: 64 256 27 27 (11943936)
I1228 13:25:50.379564 103525 net.cpp:243] Memory required for data: 328293888
I1228 13:25:50.379676 103525 layer_factory.hpp:114] Creating layer relu2
I1228 13:25:50.379776 103525 net.cpp:178] Creating Layer relu2
I1228 13:25:50.379840 103525 net.cpp:612] relu2 <- conv2
I1228 13:25:50.379904 103525 net.cpp:573] relu2 -> conv2 (in-place)
I1228 13:25:50.380061 103525 net.cpp:228] Setting up relu2
I1228 13:25:50.380136 103525 net.cpp:235] Top shape: 64 256 27 27 (11943936)
I1228 13:25:50.380178 103525 net.cpp:243] Memory required for data: 376069632
I1228 13:25:50.380228 103525 layer_factory.hpp:114] Creating layer norm2
I1228 13:25:50.380306 103525 net.cpp:178] Creating Layer norm2
I1228 13:25:50.380344 103525 net.cpp:612] norm2 <- conv2
I1228 13:25:50.380394 103525 net.cpp:586] norm2 -> norm2
I1228 13:25:50.380522 103525 net.cpp:228] Setting up norm2
I1228 13:25:50.380589 103525 net.cpp:235] Top shape: 64 256 27 27 (11943936)
I1228 13:25:50.380625 103525 net.cpp:243] Memory required for data: 423845376
I1228 13:25:50.380688 103525 layer_factory.hpp:114] Creating layer pool2
I1228 13:25:50.380770 103525 net.cpp:178] Creating Layer pool2
I1228 13:25:50.380815 103525 net.cpp:612] pool2 <- norm2
I1228 13:25:50.380870 103525 net.cpp:586] pool2 -> pool2
I1228 13:25:50.381094 103525 net.cpp:228] Setting up pool2
I1228 13:25:50.381160 103525 net.cpp:235] Top shape: 64 256 13 13 (2768896)
I1228 13:25:50.381191 103525 net.cpp:243] Memory required for data: 434920960
I1228 13:25:50.381225 103525 layer_factory.hpp:114] Creating layer conv3
I1228 13:25:50.381319 103525 net.cpp:178] Creating Layer conv3
I1228 13:25:50.381356 103525 net.cpp:612] conv3 <- pool2
I1228 13:25:50.381410 103525 net.cpp:586] conv3 -> conv3
I1228 13:25:50.387660 104155 net.cpp:228] Setting up conv2
I1228 13:25:50.387770 104155 net.cpp:235] Top shape: 64 256 27 27 (11943936)
I1228 13:25:50.387797 104155 net.cpp:243] Memory required for data: 328293888
I1228 13:25:50.387866 104155 layer_factory.hpp:114] Creating layer relu2
I1228 13:25:50.387948 104155 net.cpp:178] Creating Layer relu2
I1228 13:25:50.387989 104155 net.cpp:612] relu2 <- conv2
I1228 13:25:50.388032 104155 net.cpp:573] relu2 -> conv2 (in-place)
I1228 13:25:50.388135 104155 net.cpp:228] Setting up relu2
I1228 13:25:50.388182 104155 net.cpp:235] Top shape: 64 256 27 27 (11943936)
I1228 13:25:50.388216 104155 net.cpp:243] Memory required for data: 376069632
I1228 13:25:50.388243 104155 layer_factory.hpp:114] Creating layer norm2
I1228 13:25:50.388290 104155 net.cpp:178] Creating Layer norm2
I1228 13:25:50.388346 104155 net.cpp:612] norm2 <- conv2
I1228 13:25:50.388384 104155 net.cpp:586] norm2 -> norm2
I1228 13:25:50.388475 104155 net.cpp:228] Setting up norm2
I1228 13:25:50.388530 104155 net.cpp:235] Top shape: 64 256 27 27 (11943936)
I1228 13:25:50.388552 104155 net.cpp:243] Memory required for data: 423845376
I1228 13:25:50.388581 104155 layer_factory.hpp:114] Creating layer pool2
I1228 13:25:50.388638 104155 net.cpp:178] Creating Layer pool2
I1228 13:25:50.388669 104155 net.cpp:612] pool2 <- norm2
I1228 13:25:50.388716 104155 net.cpp:586] pool2 -> pool2
I1228 13:25:50.388911 104155 net.cpp:228] Setting up pool2
I1228 13:25:50.388962 104155 net.cpp:235] Top shape: 64 256 13 13 (2768896)
I1228 13:25:50.388984 104155 net.cpp:243] Memory required for data: 434920960
I1228 13:25:50.389010 104155 layer_factory.hpp:114] Creating layer conv3
I1228 13:25:50.389101 104155 net.cpp:178] Creating Layer conv3
I1228 13:25:50.389134 104155 net.cpp:612] conv3 <- pool2
I1228 13:25:50.389174 104155 net.cpp:586] conv3 -> conv3
I1228 13:25:50.390888 103425 net.cpp:228] Setting up conv2
I1228 13:25:50.390993 103425 net.cpp:235] Top shape: 64 256 27 27 (11943936)
I1228 13:25:50.391019 103425 net.cpp:243] Memory required for data: 328293888
I1228 13:25:50.391088 103425 layer_factory.hpp:114] Creating layer relu2
I1228 13:25:50.391190 103425 net.cpp:178] Creating Layer relu2
I1228 13:25:50.391299 103425 net.cpp:612] relu2 <- conv2
I1228 13:25:50.391340 103425 net.cpp:573] relu2 -> conv2 (in-place)
I1228 13:25:50.391458 103425 net.cpp:228] Setting up relu2
I1228 13:25:50.391548 103425 net.cpp:235] Top shape: 64 256 27 27 (11943936)
I1228 13:25:50.391571 103425 net.cpp:243] Memory required for data: 376069632
I1228 13:25:50.391707 103425 layer_factory.hpp:114] Creating layer norm2
I1228 13:25:50.391758 103425 net.cpp:178] Creating Layer norm2
I1228 13:25:50.391789 103425 net.cpp:612] norm2 <- conv2
I1228 13:25:50.391824 103425 net.cpp:586] norm2 -> norm2
I1228 13:25:50.391919 103425 net.cpp:228] Setting up norm2
I1228 13:25:50.391990 103425 net.cpp:235] Top shape: 64 256 27 27 (11943936)
I1228 13:25:50.392019 103425 net.cpp:243] Memory required for data: 423845376
I1228 13:25:50.392045 103425 layer_factory.hpp:114] Creating layer pool2
I1228 13:25:50.392127 103425 net.cpp:178] Creating Layer pool2
I1228 13:25:50.392175 103425 net.cpp:612] pool2 <- norm2
I1228 13:25:50.392218 103425 net.cpp:586] pool2 -> pool2
I1228 13:25:50.392407 103425 net.cpp:228] Setting up pool2
I1228 13:25:50.392465 103425 net.cpp:235] Top shape: 64 256 13 13 (2768896)
I1228 13:25:50.392496 103425 net.cpp:243] Memory required for data: 434920960
I1228 13:25:50.392529 103425 layer_factory.hpp:114] Creating layer conv3
I1228 13:25:50.392642 103425 net.cpp:178] Creating Layer conv3
I1228 13:25:50.392676 103425 net.cpp:612] conv3 <- pool2
I1228 13:25:50.392734 103425 net.cpp:586] conv3 -> conv3
I1228 13:25:50.524422 106496 net.cpp:228] Setting up conv4
I1228 13:25:50.524559 106496 net.cpp:235] Top shape: 64 384 13 13 (4153344)
I1228 13:25:50.524582 106496 net.cpp:243] Memory required for data: 484761088
I1228 13:25:50.524662 106496 layer_factory.hpp:114] Creating layer relu4
I1228 13:25:50.524726 106496 net.cpp:178] Creating Layer relu4
I1228 13:25:50.524760 106496 net.cpp:612] relu4 <- conv4
I1228 13:25:50.524796 106496 net.cpp:573] relu4 -> conv4 (in-place)
I1228 13:25:50.524920 106496 net.cpp:228] Setting up relu4
I1228 13:25:50.524961 106496 net.cpp:235] Top shape: 64 384 13 13 (4153344)
I1228 13:25:50.524984 106496 net.cpp:243] Memory required for data: 501374464
I1228 13:25:50.525010 106496 layer_factory.hpp:114] Creating layer conv5
I1228 13:25:50.525074 106496 net.cpp:178] Creating Layer conv5
I1228 13:25:50.525106 106496 net.cpp:612] conv5 <- conv4
I1228 13:25:50.525143 106496 net.cpp:586] conv5 -> conv5
I1228 13:25:50.512925 108582 net.cpp:228] Setting up conv1
I1228 13:25:50.513047 108582 net.cpp:235] Top shape: 64 96 55 55 (18585600)
I1228 13:25:50.513079 108582 net.cpp:243] Memory required for data: 113917440
I1228 13:25:50.515728 108582 layer_factory.hpp:114] Creating layer relu1
I1228 13:25:50.517266 108582 net.cpp:178] Creating Layer relu1
I1228 13:25:50.517359 108582 net.cpp:612] relu1 <- conv1
I1228 13:25:50.517437 108582 net.cpp:573] relu1 -> conv1 (in-place)
I1228 13:25:50.531981 108582 net.cpp:228] Setting up relu1
I1228 13:25:50.532095 108582 net.cpp:235] Top shape: 64 96 55 55 (18585600)
I1228 13:25:50.532131 108582 net.cpp:243] Memory required for data: 188259840
I1228 13:25:50.532171 108582 layer_factory.hpp:114] Creating layer norm1
I1228 13:25:50.540606 108582 net.cpp:178] Creating Layer norm1
I1228 13:25:50.540701 108582 net.cpp:612] norm1 <- conv1
I1228 13:25:50.540760 108582 net.cpp:586] norm1 -> norm1
I1228 13:25:50.543512 108582 net.cpp:228] Setting up norm1
I1228 13:25:50.543619 108582 net.cpp:235] Top shape: 64 96 55 55 (18585600)
I1228 13:25:50.543650 108582 net.cpp:243] Memory required for data: 262602240
I1228 13:25:50.543686 108582 layer_factory.hpp:114] Creating layer pool1
I1228 13:25:50.560981 110187 net.cpp:228] Setting up conv1
I1228 13:25:50.561103 110187 net.cpp:235] Top shape: 64 96 55 55 (18585600)
I1228 13:25:50.561137 110187 net.cpp:243] Memory required for data: 113917440
I1228 13:25:50.546083 108582 net.cpp:178] Creating Layer pool1
I1228 13:25:50.546170 108582 net.cpp:612] pool1 <- norm1
I1228 13:25:50.546244 108582 net.cpp:586] pool1 -> pool1
I1228 13:25:50.564102 110187 layer_factory.hpp:114] Creating layer relu1
I1228 13:25:50.549779 108582 net.cpp:228] Setting up pool1
I1228 13:25:50.549912 108582 net.cpp:235] Top shape: 64 96 27 27 (4478976)
I1228 13:25:50.549942 108582 net.cpp:243] Memory required for data: 280518144
I1228 13:25:50.549976 108582 layer_factory.hpp:114] Creating layer conv2
I1228 13:25:50.550076 108582 net.cpp:178] Creating Layer conv2
I1228 13:25:50.550124 108582 net.cpp:612] conv2 <- pool1
I1228 13:25:50.550173 108582 net.cpp:586] conv2 -> conv2
I1228 13:25:50.565745 110187 net.cpp:178] Creating Layer relu1
I1228 13:25:50.565888 110187 net.cpp:612] relu1 <- conv1
I1228 13:25:50.565976 110187 net.cpp:573] relu1 -> conv1 (in-place)
I1228 13:25:50.567615 110187 net.cpp:228] Setting up relu1
I1228 13:25:50.567737 110187 net.cpp:235] Top shape: 64 96 55 55 (18585600)
I1228 13:25:50.568322 110187 net.cpp:243] Memory required for data: 188259840
I1228 13:25:50.568430 110187 layer_factory.hpp:114] Creating layer norm1
I1228 13:25:50.571168 110187 net.cpp:178] Creating Layer norm1
I1228 13:25:50.571269 110187 net.cpp:612] norm1 <- conv1
I1228 13:25:50.571393 110187 net.cpp:586] norm1 -> norm1
I1228 13:25:50.574288 110187 net.cpp:228] Setting up norm1
I1228 13:25:50.574877 110187 net.cpp:235] Top shape: 64 96 55 55 (18585600)
I1228 13:25:50.575011 110187 net.cpp:243] Memory required for data: 262602240
I1228 13:25:50.575067 110187 layer_factory.hpp:114] Creating layer pool1
I1228 13:25:50.577986 110187 net.cpp:178] Creating Layer pool1
I1228 13:25:50.578121 110187 net.cpp:612] pool1 <- norm1
I1228 13:25:50.578248 110187 net.cpp:586] pool1 -> pool1
I1228 13:25:50.583714 110187 net.cpp:228] Setting up pool1
I1228 13:25:50.583863 110187 net.cpp:235] Top shape: 64 96 27 27 (4478976)
I1228 13:25:50.583899 110187 net.cpp:243] Memory required for data: 280518144
I1228 13:25:50.584008 110187 layer_factory.hpp:114] Creating layer conv2
I1228 13:25:50.584122 110187 net.cpp:178] Creating Layer conv2
I1228 13:25:50.584198 110187 net.cpp:612] conv2 <- pool1
I1228 13:25:50.584276 110187 net.cpp:586] conv2 -> conv2
I1228 13:25:50.569924 111726 net.cpp:228] Setting up conv1
I1228 13:25:50.570050 111726 net.cpp:235] Top shape: 64 96 55 55 (18585600)
I1228 13:25:50.570086 111726 net.cpp:243] Memory required for data: 113917440
I1228 13:25:50.572899 111726 layer_factory.hpp:114] Creating layer relu1
I1228 13:25:50.574378 111726 net.cpp:178] Creating Layer relu1
I1228 13:25:50.574481 111726 net.cpp:612] relu1 <- conv1
I1228 13:25:50.574540 111726 net.cpp:573] relu1 -> conv1 (in-place)
I1228 13:25:50.576067 111726 net.cpp:228] Setting up relu1
I1228 13:25:50.576171 111726 net.cpp:235] Top shape: 64 96 55 55 (18585600)
I1228 13:25:50.576206 111726 net.cpp:243] Memory required for data: 188259840
I1228 13:25:50.576243 111726 layer_factory.hpp:114] Creating layer norm1
I1228 13:25:50.578889 111726 net.cpp:178] Creating Layer norm1
I1228 13:25:50.579017 111726 net.cpp:612] norm1 <- conv1
I1228 13:25:50.579406 111726 net.cpp:586] norm1 -> norm1
I1228 13:25:50.582325 111726 net.cpp:228] Setting up norm1
I1228 13:25:50.582496 111726 net.cpp:235] Top shape: 64 96 55 55 (18585600)
I1228 13:25:50.582532 111726 net.cpp:243] Memory required for data: 262602240
I1228 13:25:50.582568 111726 layer_factory.hpp:114] Creating layer pool1
I1228 13:25:50.585448 111726 net.cpp:178] Creating Layer pool1
I1228 13:25:50.585547 111726 net.cpp:612] pool1 <- norm1
I1228 13:25:50.585702 111726 net.cpp:586] pool1 -> pool1
I1228 13:25:50.590243 111726 net.cpp:228] Setting up pool1
I1228 13:25:50.590389 111726 net.cpp:235] Top shape: 64 96 27 27 (4478976)
I1228 13:25:50.590428 111726 net.cpp:243] Memory required for data: 280518144
I1228 13:25:50.590492 111726 layer_factory.hpp:114] Creating layer conv2
I1228 13:25:50.590716 111726 net.cpp:178] Creating Layer conv2
I1228 13:25:50.590819 111726 net.cpp:612] conv2 <- pool1
I1228 13:25:50.590879 111726 net.cpp:586] conv2 -> conv2
I1228 13:25:50.670248 106496 net.cpp:228] Setting up conv5
I1228 13:25:50.670358 106496 net.cpp:235] Top shape: 64 256 13 13 (2768896)
I1228 13:25:50.670384 106496 net.cpp:243] Memory required for data: 512450048
I1228 13:25:50.670455 106496 layer_factory.hpp:114] Creating layer relu5
I1228 13:25:50.670567 106496 net.cpp:178] Creating Layer relu5
I1228 13:25:50.670608 106496 net.cpp:612] relu5 <- conv5
I1228 13:25:50.670656 106496 net.cpp:573] relu5 -> conv5 (in-place)
I1228 13:25:50.670753 106496 net.cpp:228] Setting up relu5
I1228 13:25:50.670794 106496 net.cpp:235] Top shape: 64 256 13 13 (2768896)
I1228 13:25:50.670819 106496 net.cpp:243] Memory required for data: 523525632
I1228 13:25:50.670853 106496 layer_factory.hpp:114] Creating layer pool5
I1228 13:25:50.670920 106496 net.cpp:178] Creating Layer pool5
I1228 13:25:50.670948 106496 net.cpp:612] pool5 <- conv5
I1228 13:25:50.670984 106496 net.cpp:586] pool5 -> pool5
I1228 13:25:50.671074 106496 net.cpp:228] Setting up pool5
I1228 13:25:50.671118 106496 net.cpp:235] Top shape: 64 256 6 6 (589824)
I1228 13:25:50.671141 106496 net.cpp:243] Memory required for data: 525884928
I1228 13:25:50.671196 106496 layer_factory.hpp:114] Creating layer fc6
I1228 13:25:50.671258 106496 net.cpp:178] Creating Layer fc6
I1228 13:25:50.671290 106496 net.cpp:612] fc6 <- pool5
I1228 13:25:50.671325 106496 net.cpp:586] fc6 -> fc6
I1228 13:25:50.742308 103425 net.cpp:228] Setting up conv3
I1228 13:25:50.742416 103425 net.cpp:235] Top shape: 64 384 13 13 (4153344)
I1228 13:25:50.742446 103425 net.cpp:243] Memory required for data: 451534336
I1228 13:25:50.742518 103425 layer_factory.hpp:114] Creating layer relu3
I1228 13:25:50.742601 103425 net.cpp:178] Creating Layer relu3
I1228 13:25:50.742641 103425 net.cpp:612] relu3 <- conv3
I1228 13:25:50.742691 103425 net.cpp:573] relu3 -> conv3 (in-place)
I1228 13:25:50.742789 103425 net.cpp:228] Setting up relu3
I1228 13:25:50.742831 103425 net.cpp:235] Top shape: 64 384 13 13 (4153344)
I1228 13:25:50.742863 103425 net.cpp:243] Memory required for data: 468147712
I1228 13:25:50.742892 103425 layer_factory.hpp:114] Creating layer conv4
I1228 13:25:50.742985 103425 net.cpp:178] Creating Layer conv4
I1228 13:25:50.743021 103425 net.cpp:612] conv4 <- conv3
I1228 13:25:50.743086 103425 net.cpp:586] conv4 -> conv4
I1228 13:25:50.753973 104155 net.cpp:228] Setting up conv3
I1228 13:25:50.754081 104155 net.cpp:235] Top shape: 64 384 13 13 (4153344)
I1228 13:25:50.754106 104155 net.cpp:243] Memory required for data: 451534336
I1228 13:25:50.754199 104155 layer_factory.hpp:114] Creating layer relu3
I1228 13:25:50.754281 104155 net.cpp:178] Creating Layer relu3
I1228 13:25:50.754354 104155 net.cpp:612] relu3 <- conv3
I1228 13:25:50.754395 104155 net.cpp:573] relu3 -> conv3 (in-place)
I1228 13:25:50.756981 104155 net.cpp:228] Setting up relu3
I1228 13:25:50.757077 104155 net.cpp:235] Top shape: 64 384 13 13 (4153344)
I1228 13:25:50.757113 104155 net.cpp:243] Memory required for data: 468147712
I1228 13:25:50.757145 104155 layer_factory.hpp:114] Creating layer conv4
I1228 13:25:50.757246 104155 net.cpp:178] Creating Layer conv4
I1228 13:25:50.757338 104155 net.cpp:612] conv4 <- conv3
I1228 13:25:50.757397 104155 net.cpp:586] conv4 -> conv4
I1228 13:25:50.754632 99727 net.cpp:228] Setting up conv2
I1228 13:25:50.754767 99727 net.cpp:235] Top shape: 64 256 27 27 (11943936)
I1228 13:25:50.754804 99727 net.cpp:243] Memory required for data: 328293888
I1228 13:25:50.754896 99727 layer_factory.hpp:114] Creating layer relu2
I1228 13:25:50.755000 99727 net.cpp:178] Creating Layer relu2
I1228 13:25:50.755060 99727 net.cpp:612] relu2 <- conv2
I1228 13:25:50.755115 99727 net.cpp:573] relu2 -> conv2 (in-place)
I1228 13:25:50.755234 99727 net.cpp:228] Setting up relu2
I1228 13:25:50.755329 99727 net.cpp:235] Top shape: 64 256 27 27 (11943936)
I1228 13:25:50.755523 99727 net.cpp:243] Memory required for data: 376069632
I1228 13:25:50.774751 135543 net.cpp:228] Setting up conv2
I1228 13:25:50.755565 99727 layer_factory.hpp:114] Creating layer norm2
I1228 13:25:50.774889 135543 net.cpp:235] Top shape: 64 256 27 27 (11943936)
I1228 13:25:50.774931 135543 net.cpp:243] Memory required for data: 328293888
I1228 13:25:50.775027 135543 layer_factory.hpp:114] Creating layer relu2
I1228 13:25:50.755632 99727 net.cpp:178] Creating Layer norm2
I1228 13:25:50.775135 135543 net.cpp:178] Creating Layer relu2
I1228 13:25:50.775183 135543 net.cpp:612] relu2 <- conv2
I1228 13:25:50.755681 99727 net.cpp:612] norm2 <- conv2
I1228 13:25:50.775241 135543 net.cpp:573] relu2 -> conv2 (in-place)
I1228 13:25:50.755731 99727 net.cpp:586] norm2 -> norm2
I1228 13:25:50.775373 135543 net.cpp:228] Setting up relu2
I1228 13:25:50.755899 99727 net.cpp:228] Setting up norm2
I1228 13:25:50.775610 135543 net.cpp:235] Top shape: 64 256 27 27 (11943936)
I1228 13:25:50.775686 135543 net.cpp:243] Memory required for data: 376069632
I1228 13:25:50.756122 99727 net.cpp:235] Top shape: 64 256 27 27 (11943936)
I1228 13:25:50.775768 135543 layer_factory.hpp:114] Creating layer norm2
I1228 13:25:50.775846 135543 net.cpp:178] Creating Layer norm2
I1228 13:25:50.756163 99727 net.cpp:243] Memory required for data: 423845376
I1228 13:25:50.756218 99727 layer_factory.hpp:114] Creating layer pool2
I1228 13:25:50.775887 135543 net.cpp:612] norm2 <- conv2
I1228 13:25:50.775941 135543 net.cpp:586] norm2 -> norm2
I1228 13:25:50.756305 99727 net.cpp:178] Creating Layer pool2
I1228 13:25:50.776068 135543 net.cpp:228] Setting up norm2
I1228 13:25:50.756367 99727 net.cpp:612] pool2 <- norm2
I1228 13:25:50.776150 135543 net.cpp:235] Top shape: 64 256 27 27 (11943936)
I1228 13:25:50.776185 135543 net.cpp:243] Memory required for data: 423845376
I1228 13:25:50.756436 99727 net.cpp:586] pool2 -> pool2
I1228 13:25:50.776224 135543 layer_factory.hpp:114] Creating layer pool2
I1228 13:25:50.756613 99727 net.cpp:228] Setting up pool2
I1228 13:25:50.776340 135543 net.cpp:178] Creating Layer pool2
I1228 13:25:50.776383 135543 net.cpp:612] pool2 <- norm2
I1228 13:25:50.756678 99727 net.cpp:235] Top shape: 64 256 13 13 (2768896)
I1228 13:25:50.756839 99727 net.cpp:243] Memory required for data: 434920960
I1228 13:25:50.756922 99727 layer_factory.hpp:114] Creating layer conv3
I1228 13:25:50.757068 99727 net.cpp:178] Creating Layer conv3
I1228 13:25:50.776446 135543 net.cpp:586] pool2 -> pool2
I1228 13:25:50.757120 99727 net.cpp:612] conv3 <- pool2
I1228 13:25:50.757177 99727 net.cpp:586] conv3 -> conv3
I1228 13:25:50.776890 135543 net.cpp:228] Setting up pool2
I1228 13:25:50.776988 135543 net.cpp:235] Top shape: 64 256 13 13 (2768896)
I1228 13:25:50.777024 135543 net.cpp:243] Memory required for data: 434920960
I1228 13:25:50.777065 135543 layer_factory.hpp:114] Creating layer conv3
I1228 13:25:50.777189 135543 net.cpp:178] Creating Layer conv3
I1228 13:25:50.777269 135543 net.cpp:612] conv3 <- pool2
I1228 13:25:50.777348 135543 net.cpp:586] conv3 -> conv3
I1228 13:25:50.775836 103525 net.cpp:228] Setting up conv3
I1228 13:25:50.775950 103525 net.cpp:235] Top shape: 64 384 13 13 (4153344)
I1228 13:25:50.775981 103525 net.cpp:243] Memory required for data: 451534336
I1228 13:25:50.776069 103525 layer_factory.hpp:114] Creating layer relu3
I1228 13:25:50.776152 103525 net.cpp:178] Creating Layer relu3
I1228 13:25:50.776198 103525 net.cpp:612] relu3 <- conv3
I1228 13:25:50.776245 103525 net.cpp:573] relu3 -> conv3 (in-place)
I1228 13:25:50.776360 103525 net.cpp:228] Setting up relu3
I1228 13:25:50.776407 103525 net.cpp:235] Top shape: 64 384 13 13 (4153344)
I1228 13:25:50.776437 103525 net.cpp:243] Memory required for data: 468147712
I1228 13:25:50.776470 103525 layer_factory.hpp:114] Creating layer conv4
I1228 13:25:50.776571 103525 net.cpp:178] Creating Layer conv4
I1228 13:25:50.776607 103525 net.cpp:612] conv4 <- conv3
I1228 13:25:50.776685 103525 net.cpp:586] conv4 -> conv4
I1228 13:25:51.041395 103425 net.cpp:228] Setting up conv4
I1228 13:25:51.041541 103425 net.cpp:235] Top shape: 64 384 13 13 (4153344)
I1228 13:25:51.041573 103425 net.cpp:243] Memory required for data: 484761088
I1228 13:25:51.041663 103425 layer_factory.hpp:114] Creating layer relu4
I1228 13:25:51.041795 103425 net.cpp:178] Creating Layer relu4
I1228 13:25:51.041834 103425 net.cpp:612] relu4 <- conv4
I1228 13:25:51.041880 103425 net.cpp:573] relu4 -> conv4 (in-place)
I1228 13:25:51.041975 103425 net.cpp:228] Setting up relu4
I1228 13:25:51.042021 103425 net.cpp:235] Top shape: 64 384 13 13 (4153344)
I1228 13:25:51.042068 103425 net.cpp:243] Memory required for data: 501374464
I1228 13:25:51.042117 103425 layer_factory.hpp:114] Creating layer conv5
I1228 13:25:51.042310 103425 net.cpp:178] Creating Layer conv5
I1228 13:25:51.042412 103425 net.cpp:612] conv5 <- conv4
I1228 13:25:51.042472 103425 net.cpp:586] conv5 -> conv5
I1228 13:25:51.058254 104155 net.cpp:228] Setting up conv4
I1228 13:25:51.058400 104155 net.cpp:235] Top shape: 64 384 13 13 (4153344)
I1228 13:25:51.058428 104155 net.cpp:243] Memory required for data: 484761088
I1228 13:25:51.058482 104155 layer_factory.hpp:114] Creating layer relu4
I1228 13:25:51.058548 104155 net.cpp:178] Creating Layer relu4
I1228 13:25:51.058601 104155 net.cpp:612] relu4 <- conv4
I1228 13:25:51.058650 104155 net.cpp:573] relu4 -> conv4 (in-place)
I1228 13:25:51.058744 104155 net.cpp:228] Setting up relu4
I1228 13:25:51.058791 104155 net.cpp:235] Top shape: 64 384 13 13 (4153344)
I1228 13:25:51.058820 104155 net.cpp:243] Memory required for data: 501374464
I1228 13:25:51.058848 104155 layer_factory.hpp:114] Creating layer conv5
I1228 13:25:51.058930 104155 net.cpp:178] Creating Layer conv5
I1228 13:25:51.058964 104155 net.cpp:612] conv5 <- conv4
I1228 13:25:51.059015 104155 net.cpp:586] conv5 -> conv5
I1228 13:25:51.080803 103525 net.cpp:228] Setting up conv4
I1228 13:25:51.080924 103525 net.cpp:235] Top shape: 64 384 13 13 (4153344)
I1228 13:25:51.080956 103525 net.cpp:243] Memory required for data: 484761088
I1228 13:25:51.081059 103525 layer_factory.hpp:114] Creating layer relu4
I1228 13:25:51.081303 103525 net.cpp:178] Creating Layer relu4
I1228 13:25:51.081347 103525 net.cpp:612] relu4 <- conv4
I1228 13:25:51.081635 103525 net.cpp:573] relu4 -> conv4 (in-place)
I1228 13:25:51.081918 103525 net.cpp:228] Setting up relu4
I1228 13:25:51.082439 103525 net.cpp:235] Top shape: 64 384 13 13 (4153344)
I1228 13:25:51.082501 103525 net.cpp:243] Memory required for data: 501374464
I1228 13:25:51.082543 103525 layer_factory.hpp:114] Creating layer conv5
I1228 13:25:51.082727 103525 net.cpp:178] Creating Layer conv5
I1228 13:25:51.082780 103525 net.cpp:612] conv5 <- conv4
I1228 13:25:51.082887 103525 net.cpp:586] conv5 -> conv5
I1228 13:25:51.277537 103425 net.cpp:228] Setting up conv5
I1228 13:25:51.277701 103425 net.cpp:235] Top shape: 64 256 13 13 (2768896)
I1228 13:25:51.277892 103425 net.cpp:243] Memory required for data: 512450048
I1228 13:25:51.277977 103425 layer_factory.hpp:114] Creating layer relu5
I1228 13:25:51.278069 103425 net.cpp:178] Creating Layer relu5
I1228 13:25:51.278152 103425 net.cpp:612] relu5 <- conv5
I1228 13:25:51.278209 103425 net.cpp:573] relu5 -> conv5 (in-place)
I1228 13:25:51.278349 103425 net.cpp:228] Setting up relu5
I1228 13:25:51.278405 103425 net.cpp:235] Top shape: 64 256 13 13 (2768896)
I1228 13:25:51.278430 103425 net.cpp:243] Memory required for data: 523525632
I1228 13:25:51.278458 103425 layer_factory.hpp:114] Creating layer pool5
I1228 13:25:51.278549 103425 net.cpp:178] Creating Layer pool5
I1228 13:25:51.278584 103425 net.cpp:612] pool5 <- conv5
I1228 13:25:51.279345 103425 net.cpp:586] pool5 -> pool5
I1228 13:25:51.279572 103425 net.cpp:228] Setting up pool5
I1228 13:25:51.279634 103425 net.cpp:235] Top shape: 64 256 6 6 (589824)
I1228 13:25:51.279788 103425 net.cpp:243] Memory required for data: 525884928
I1228 13:25:51.279820 103425 layer_factory.hpp:114] Creating layer fc6
I1228 13:25:51.279947 103425 net.cpp:178] Creating Layer fc6
I1228 13:25:51.279991 103425 net.cpp:612] fc6 <- pool5
I1228 13:25:51.280048 103425 net.cpp:586] fc6 -> fc6
I1228 13:25:51.290282 103525 net.cpp:228] Setting up conv5
I1228 13:25:51.290439 103525 net.cpp:235] Top shape: 64 256 13 13 (2768896)
I1228 13:25:51.290480 103525 net.cpp:243] Memory required for data: 512450048
I1228 13:25:51.290992 103525 layer_factory.hpp:114] Creating layer relu5
I1228 13:25:51.291147 103525 net.cpp:178] Creating Layer relu5
I1228 13:25:51.291386 103525 net.cpp:612] relu5 <- conv5
I1228 13:25:51.291718 103525 net.cpp:573] relu5 -> conv5 (in-place)
I1228 13:25:51.292251 103525 net.cpp:228] Setting up relu5
I1228 13:25:51.292376 103525 net.cpp:235] Top shape: 64 256 13 13 (2768896)
I1228 13:25:51.292443 103525 net.cpp:243] Memory required for data: 523525632
I1228 13:25:51.292628 103525 layer_factory.hpp:114] Creating layer pool5
I1228 13:25:51.292938 103525 net.cpp:178] Creating Layer pool5
I1228 13:25:51.293086 103525 net.cpp:612] pool5 <- conv5
I1228 13:25:51.293143 103525 net.cpp:586] pool5 -> pool5
I1228 13:25:51.279731 99727 net.cpp:228] Setting up conv3
I1228 13:25:51.279873 99727 net.cpp:235] Top shape: 64 384 13 13 (4153344)
I1228 13:25:51.279913 99727 net.cpp:243] Memory required for data: 451534336
I1228 13:25:51.293592 103525 net.cpp:228] Setting up pool5
I1228 13:25:51.280009 99727 layer_factory.hpp:114] Creating layer relu3
I1228 13:25:51.293777 103525 net.cpp:235] Top shape: 64 256 6 6 (589824)
I1228 13:25:51.280092 99727 net.cpp:178] Creating Layer relu3
I1228 13:25:51.293812 103525 net.cpp:243] Memory required for data: 525884928
I1228 13:25:51.280150 99727 net.cpp:612] relu3 <- conv3
I1228 13:25:51.293851 103525 layer_factory.hpp:114] Creating layer fc6
I1228 13:25:51.280223 99727 net.cpp:573] relu3 -> conv3 (in-place)
I1228 13:25:51.293939 103525 net.cpp:178] Creating Layer fc6
I1228 13:25:51.280349 99727 net.cpp:228] Setting up relu3
I1228 13:25:51.294000 103525 net.cpp:612] fc6 <- pool5
I1228 13:25:51.280411 99727 net.cpp:235] Top shape: 64 384 13 13 (4153344)
I1228 13:25:51.280443 99727 net.cpp:243] Memory required for data: 468147712
I1228 13:25:51.294085 103525 net.cpp:586] fc6 -> fc6
I1228 13:25:51.280517 99727 layer_factory.hpp:114] Creating layer conv4
I1228 13:25:51.280637 99727 net.cpp:178] Creating Layer conv4
I1228 13:25:51.280686 99727 net.cpp:612] conv4 <- conv3
I1228 13:25:51.280743 99727 net.cpp:586] conv4 -> conv4
I1228 13:25:51.288977 104155 net.cpp:228] Setting up conv5
I1228 13:25:51.289111 104155 net.cpp:235] Top shape: 64 256 13 13 (2768896)
I1228 13:25:51.289149 104155 net.cpp:243] Memory required for data: 512450048
I1228 13:25:51.289227 104155 layer_factory.hpp:114] Creating layer relu5
I1228 13:25:51.289743 104155 net.cpp:178] Creating Layer relu5
I1228 13:25:51.289811 104155 net.cpp:612] relu5 <- conv5
I1228 13:25:51.289897 104155 net.cpp:573] relu5 -> conv5 (in-place)
I1228 13:25:51.290015 104155 net.cpp:228] Setting up relu5
I1228 13:25:51.290096 104155 net.cpp:235] Top shape: 64 256 13 13 (2768896)
I1228 13:25:51.290223 104155 net.cpp:243] Memory required for data: 523525632
I1228 13:25:51.290256 104155 layer_factory.hpp:114] Creating layer pool5
I1228 13:25:51.290431 104155 net.cpp:178] Creating Layer pool5
I1228 13:25:51.290470 104155 net.cpp:612] pool5 <- conv5
I1228 13:25:51.290511 104155 net.cpp:586] pool5 -> pool5
I1228 13:25:51.290632 104155 net.cpp:228] Setting up pool5
I1228 13:25:51.290683 104155 net.cpp:235] Top shape: 64 256 6 6 (589824)
I1228 13:25:51.290705 104155 net.cpp:243] Memory required for data: 525884928
I1228 13:25:51.290735 104155 layer_factory.hpp:114] Creating layer fc6
I1228 13:25:51.290802 104155 net.cpp:178] Creating Layer fc6
I1228 13:25:51.290858 104155 net.cpp:612] fc6 <- pool5
I1228 13:25:51.290902 104155 net.cpp:586] fc6 -> fc6
I1228 13:25:51.311084 135543 net.cpp:228] Setting up conv3
I1228 13:25:51.311224 135543 net.cpp:235] Top shape: 64 384 13 13 (4153344)
I1228 13:25:51.311264 135543 net.cpp:243] Memory required for data: 451534336
I1228 13:25:51.311362 135543 layer_factory.hpp:114] Creating layer relu3
I1228 13:25:51.311451 135543 net.cpp:178] Creating Layer relu3
I1228 13:25:51.311499 135543 net.cpp:612] relu3 <- conv3
I1228 13:25:51.311583 135543 net.cpp:573] relu3 -> conv3 (in-place)
I1228 13:25:51.311766 135543 net.cpp:228] Setting up relu3
I1228 13:25:51.311847 135543 net.cpp:235] Top shape: 64 384 13 13 (4153344)
I1228 13:25:51.311890 135543 net.cpp:243] Memory required for data: 468147712
I1228 13:25:51.311938 135543 layer_factory.hpp:114] Creating layer conv4
I1228 13:25:51.312078 135543 net.cpp:178] Creating Layer conv4
I1228 13:25:51.312134 135543 net.cpp:612] conv4 <- conv3
I1228 13:25:51.312218 135543 net.cpp:586] conv4 -> conv4
I1228 13:25:51.749032 99727 net.cpp:228] Setting up conv4
I1228 13:25:51.749217 99727 net.cpp:235] Top shape: 64 384 13 13 (4153344)
I1228 13:25:51.749259 99727 net.cpp:243] Memory required for data: 484761088
I1228 13:25:51.749333 99727 layer_factory.hpp:114] Creating layer relu4
I1228 13:25:51.749451 99727 net.cpp:178] Creating Layer relu4
I1228 13:25:51.749531 99727 net.cpp:612] relu4 <- conv4
I1228 13:25:51.749598 99727 net.cpp:573] relu4 -> conv4 (in-place)
I1228 13:25:51.750178 99727 net.cpp:228] Setting up relu4
I1228 13:25:51.750283 99727 net.cpp:235] Top shape: 64 384 13 13 (4153344)
I1228 13:25:51.750319 99727 net.cpp:243] Memory required for data: 501374464
I1228 13:25:51.750422 99727 layer_factory.hpp:114] Creating layer conv5
I1228 13:25:51.750617 99727 net.cpp:178] Creating Layer conv5
I1228 13:25:51.750758 99727 net.cpp:612] conv5 <- conv4
I1228 13:25:51.750833 99727 net.cpp:586] conv5 -> conv5
I1228 13:25:51.797468 135543 net.cpp:228] Setting up conv4
I1228 13:25:51.798094 135543 net.cpp:235] Top shape: 64 384 13 13 (4153344)
I1228 13:25:51.798212 135543 net.cpp:243] Memory required for data: 484761088
I1228 13:25:51.798385 135543 layer_factory.hpp:114] Creating layer relu4
I1228 13:25:51.798521 135543 net.cpp:178] Creating Layer relu4
I1228 13:25:51.798579 135543 net.cpp:612] relu4 <- conv4
I1228 13:25:51.798705 135543 net.cpp:573] relu4 -> conv4 (in-place)
I1228 13:25:51.798892 135543 net.cpp:228] Setting up relu4
I1228 13:25:51.799012 135543 net.cpp:235] Top shape: 64 384 13 13 (4153344)
I1228 13:25:51.799248 135543 net.cpp:243] Memory required for data: 501374464
I1228 13:25:51.799340 135543 layer_factory.hpp:114] Creating layer conv5
I1228 13:25:51.799530 135543 net.cpp:178] Creating Layer conv5
I1228 13:25:51.799612 135543 net.cpp:612] conv5 <- conv4
I1228 13:25:51.800230 135543 net.cpp:586] conv5 -> conv5
I1228 13:25:51.817384 108582 net.cpp:228] Setting up conv2
I1228 13:25:51.817499 108582 net.cpp:235] Top shape: 64 256 27 27 (11943936)
I1228 13:25:51.817531 108582 net.cpp:243] Memory required for data: 328293888
I1228 13:25:51.817606 108582 layer_factory.hpp:114] Creating layer relu2
I1228 13:25:51.817795 108582 net.cpp:178] Creating Layer relu2
I1228 13:25:51.817867 108582 net.cpp:612] relu2 <- conv2
I1228 13:25:51.817931 108582 net.cpp:573] relu2 -> conv2 (in-place)
I1228 13:25:51.818107 108582 net.cpp:228] Setting up relu2
I1228 13:25:51.818192 108582 net.cpp:235] Top shape: 64 256 27 27 (11943936)
I1228 13:25:51.818302 108582 net.cpp:243] Memory required for data: 376069632
I1228 13:25:51.818421 108582 layer_factory.hpp:114] Creating layer norm2
I1228 13:25:51.818476 108582 net.cpp:178] Creating Layer norm2
I1228 13:25:51.818513 108582 net.cpp:612] norm2 <- conv2
I1228 13:25:51.818552 108582 net.cpp:586] norm2 -> norm2
I1228 13:25:51.818655 108582 net.cpp:228] Setting up norm2
I1228 13:25:51.818709 108582 net.cpp:235] Top shape: 64 256 27 27 (11943936)
I1228 13:25:51.818733 108582 net.cpp:243] Memory required for data: 423845376
I1228 13:25:51.818763 108582 layer_factory.hpp:114] Creating layer pool2
I1228 13:25:51.818842 108582 net.cpp:178] Creating Layer pool2
I1228 13:25:51.818881 108582 net.cpp:612] pool2 <- norm2
I1228 13:25:51.818928 108582 net.cpp:586] pool2 -> pool2
I1228 13:25:51.819139 108582 net.cpp:228] Setting up pool2
I1228 13:25:51.819201 108582 net.cpp:235] Top shape: 64 256 13 13 (2768896)
I1228 13:25:51.819226 108582 net.cpp:243] Memory required for data: 434920960
I1228 13:25:51.819257 108582 layer_factory.hpp:114] Creating layer conv3
I1228 13:25:51.819349 108582 net.cpp:178] Creating Layer conv3
I1228 13:25:51.819385 108582 net.cpp:612] conv3 <- pool2
I1228 13:25:51.819428 108582 net.cpp:586] conv3 -> conv3
I1228 13:25:51.842411 110187 net.cpp:228] Setting up conv2
I1228 13:25:51.842524 110187 net.cpp:235] Top shape: 64 256 27 27 (11943936)
I1228 13:25:51.842555 110187 net.cpp:243] Memory required for data: 328293888
I1228 13:25:51.842628 110187 layer_factory.hpp:114] Creating layer relu2
I1228 13:25:51.842716 110187 net.cpp:178] Creating Layer relu2
I1228 13:25:51.842759 110187 net.cpp:612] relu2 <- conv2
I1228 13:25:51.842855 110187 net.cpp:573] relu2 -> conv2 (in-place)
I1228 13:25:51.842959 110187 net.cpp:228] Setting up relu2
I1228 13:25:51.843010 110187 net.cpp:235] Top shape: 64 256 27 27 (11943936)
I1228 13:25:51.843044 110187 net.cpp:243] Memory required for data: 376069632
I1228 13:25:51.843082 110187 layer_factory.hpp:114] Creating layer norm2
I1228 13:25:51.843138 110187 net.cpp:178] Creating Layer norm2
I1228 13:25:51.843171 110187 net.cpp:612] norm2 <- conv2
I1228 13:25:51.843219 110187 net.cpp:586] norm2 -> norm2
I1228 13:25:51.843307 110187 net.cpp:228] Setting up norm2
I1228 13:25:51.843356 110187 net.cpp:235] Top shape: 64 256 27 27 (11943936)
I1228 13:25:51.843380 110187 net.cpp:243] Memory required for data: 423845376
I1228 13:25:51.843408 110187 layer_factory.hpp:114] Creating layer pool2
I1228 13:25:51.843468 110187 net.cpp:178] Creating Layer pool2
I1228 13:25:51.843502 110187 net.cpp:612] pool2 <- norm2
I1228 13:25:51.843538 110187 net.cpp:586] pool2 -> pool2
I1228 13:25:51.843744 110187 net.cpp:228] Setting up pool2
I1228 13:25:51.843827 110187 net.cpp:235] Top shape: 64 256 13 13 (2768896)
I1228 13:25:51.843853 110187 net.cpp:243] Memory required for data: 434920960
I1228 13:25:51.843883 110187 layer_factory.hpp:114] Creating layer conv3
I1228 13:25:51.843968 110187 net.cpp:178] Creating Layer conv3
I1228 13:25:51.844007 110187 net.cpp:612] conv3 <- pool2
I1228 13:25:51.844058 110187 net.cpp:586] conv3 -> conv3
I1228 13:25:51.903126 111726 net.cpp:228] Setting up conv2
I1228 13:25:51.903239 111726 net.cpp:235] Top shape: 64 256 27 27 (11943936)
I1228 13:25:51.903270 111726 net.cpp:243] Memory required for data: 328293888
I1228 13:25:51.903342 111726 layer_factory.hpp:114] Creating layer relu2
I1228 13:25:51.903497 111726 net.cpp:178] Creating Layer relu2
I1228 13:25:51.903539 111726 net.cpp:612] relu2 <- conv2
I1228 13:25:51.903609 111726 net.cpp:573] relu2 -> conv2 (in-place)
I1228 13:25:51.903714 111726 net.cpp:228] Setting up relu2
I1228 13:25:51.903795 111726 net.cpp:235] Top shape: 64 256 27 27 (11943936)
I1228 13:25:51.903821 111726 net.cpp:243] Memory required for data: 376069632
I1228 13:25:51.903851 111726 layer_factory.hpp:114] Creating layer norm2
I1228 13:25:51.903910 111726 net.cpp:178] Creating Layer norm2
I1228 13:25:51.903944 111726 net.cpp:612] norm2 <- conv2
I1228 13:25:51.903991 111726 net.cpp:586] norm2 -> norm2
I1228 13:25:51.904090 111726 net.cpp:228] Setting up norm2
I1228 13:25:51.904141 111726 net.cpp:235] Top shape: 64 256 27 27 (11943936)
I1228 13:25:51.904165 111726 net.cpp:243] Memory required for data: 423845376
I1228 13:25:51.904192 111726 layer_factory.hpp:114] Creating layer pool2
I1228 13:25:51.904247 111726 net.cpp:178] Creating Layer pool2
I1228 13:25:51.904283 111726 net.cpp:612] pool2 <- norm2
I1228 13:25:51.904320 111726 net.cpp:586] pool2 -> pool2
I1228 13:25:51.904541 111726 net.cpp:228] Setting up pool2
I1228 13:25:51.904602 111726 net.cpp:235] Top shape: 64 256 13 13 (2768896)
I1228 13:25:51.904625 111726 net.cpp:243] Memory required for data: 434920960
I1228 13:25:51.904669 111726 layer_factory.hpp:114] Creating layer conv3
I1228 13:25:51.904778 111726 net.cpp:178] Creating Layer conv3
I1228 13:25:51.904819 111726 net.cpp:612] conv3 <- pool2
I1228 13:25:51.904883 111726 net.cpp:586] conv3 -> conv3
I1228 13:25:52.074741 99727 net.cpp:228] Setting up conv5
I1228 13:25:52.075261 99727 net.cpp:235] Top shape: 64 256 13 13 (2768896)
I1228 13:25:52.075320 99727 net.cpp:243] Memory required for data: 512450048
I1228 13:25:52.075587 99727 layer_factory.hpp:114] Creating layer relu5
I1228 13:25:52.075692 99727 net.cpp:178] Creating Layer relu5
I1228 13:25:52.075739 99727 net.cpp:612] relu5 <- conv5
I1228 13:25:52.075793 99727 net.cpp:573] relu5 -> conv5 (in-place)
I1228 13:25:52.075925 99727 net.cpp:228] Setting up relu5
I1228 13:25:52.075994 99727 net.cpp:235] Top shape: 64 256 13 13 (2768896)
I1228 13:25:52.076030 99727 net.cpp:243] Memory required for data: 523525632
I1228 13:25:52.076102 99727 layer_factory.hpp:114] Creating layer pool5
I1228 13:25:52.076360 99727 net.cpp:178] Creating Layer pool5
I1228 13:25:52.076417 99727 net.cpp:612] pool5 <- conv5
I1228 13:25:52.076548 99727 net.cpp:586] pool5 -> pool5
I1228 13:25:52.076678 99727 net.cpp:228] Setting up pool5
I1228 13:25:52.077308 99727 net.cpp:235] Top shape: 64 256 6 6 (589824)
I1228 13:25:52.077383 99727 net.cpp:243] Memory required for data: 525884928
I1228 13:25:52.077508 99727 layer_factory.hpp:114] Creating layer fc6
I1228 13:25:52.077631 99727 net.cpp:178] Creating Layer fc6
I1228 13:25:52.077682 99727 net.cpp:612] fc6 <- pool5
I1228 13:25:52.077767 99727 net.cpp:586] fc6 -> fc6
I1228 13:25:52.149986 135543 net.cpp:228] Setting up conv5
I1228 13:25:52.150146 135543 net.cpp:235] Top shape: 64 256 13 13 (2768896)
I1228 13:25:52.150230 135543 net.cpp:243] Memory required for data: 512450048
I1228 13:25:52.150347 135543 layer_factory.hpp:114] Creating layer relu5
I1228 13:25:52.150449 135543 net.cpp:178] Creating Layer relu5
I1228 13:25:52.150957 135543 net.cpp:612] relu5 <- conv5
I1228 13:25:52.151124 135543 net.cpp:573] relu5 -> conv5 (in-place)
I1228 13:25:52.151393 135543 net.cpp:228] Setting up relu5
I1228 13:25:52.151484 135543 net.cpp:235] Top shape: 64 256 13 13 (2768896)
I1228 13:25:52.151522 135543 net.cpp:243] Memory required for data: 523525632
I1228 13:25:52.151567 135543 layer_factory.hpp:114] Creating layer pool5
I1228 13:25:52.151741 135543 net.cpp:178] Creating Layer pool5
I1228 13:25:52.151803 135543 net.cpp:612] pool5 <- conv5
I1228 13:25:52.151926 135543 net.cpp:586] pool5 -> pool5
I1228 13:25:52.152129 135543 net.cpp:228] Setting up pool5
I1228 13:25:52.152207 135543 net.cpp:235] Top shape: 64 256 6 6 (589824)
I1228 13:25:52.152251 135543 net.cpp:243] Memory required for data: 525884928
I1228 13:25:52.152308 135543 layer_factory.hpp:114] Creating layer fc6
I1228 13:25:52.152941 135543 net.cpp:178] Creating Layer fc6
I1228 13:25:52.153060 135543 net.cpp:612] fc6 <- pool5
I1228 13:25:52.153192 135543 net.cpp:586] fc6 -> fc6
I1228 13:25:53.334200 111726 net.cpp:228] Setting up conv3
I1228 13:25:53.334321 111726 net.cpp:235] Top shape: 64 384 13 13 (4153344)
I1228 13:25:53.334350 111726 net.cpp:243] Memory required for data: 451534336
I1228 13:25:53.334424 111726 layer_factory.hpp:114] Creating layer relu3
I1228 13:25:53.334585 111726 net.cpp:178] Creating Layer relu3
I1228 13:25:53.334621 111726 net.cpp:612] relu3 <- conv3
I1228 13:25:53.334692 111726 net.cpp:573] relu3 -> conv3 (in-place)
I1228 13:25:53.334828 111726 net.cpp:228] Setting up relu3
I1228 13:25:53.334885 111726 net.cpp:235] Top shape: 64 384 13 13 (4153344)
I1228 13:25:53.334911 111726 net.cpp:243] Memory required for data: 468147712
I1228 13:25:53.334941 111726 layer_factory.hpp:114] Creating layer conv4
I1228 13:25:53.335055 111726 net.cpp:178] Creating Layer conv4
I1228 13:25:53.335098 111726 net.cpp:612] conv4 <- conv3
I1228 13:25:53.335155 111726 net.cpp:586] conv4 -> conv4
I1228 13:25:53.337873 108582 net.cpp:228] Setting up conv3
I1228 13:25:53.337994 108582 net.cpp:235] Top shape: 64 384 13 13 (4153344)
I1228 13:25:53.338027 108582 net.cpp:243] Memory required for data: 451534336
I1228 13:25:53.338104 108582 layer_factory.hpp:114] Creating layer relu3
I1228 13:25:53.338194 108582 net.cpp:178] Creating Layer relu3
I1228 13:25:53.338243 108582 net.cpp:612] relu3 <- conv3
I1228 13:25:53.338290 108582 net.cpp:573] relu3 -> conv3 (in-place)
I1228 13:25:53.338402 108582 net.cpp:228] Setting up relu3
I1228 13:25:53.338460 108582 net.cpp:235] Top shape: 64 384 13 13 (4153344)
I1228 13:25:53.338487 108582 net.cpp:243] Memory required for data: 468147712
I1228 13:25:53.338517 108582 layer_factory.hpp:114] Creating layer conv4
I1228 13:25:53.338624 108582 net.cpp:178] Creating Layer conv4
I1228 13:25:53.338665 108582 net.cpp:612] conv4 <- conv3
I1228 13:25:53.338723 108582 net.cpp:586] conv4 -> conv4
I1228 13:25:53.363389 110187 net.cpp:228] Setting up conv3
I1228 13:25:53.363507 110187 net.cpp:235] Top shape: 64 384 13 13 (4153344)
I1228 13:25:53.363536 110187 net.cpp:243] Memory required for data: 451534336
I1228 13:25:53.363611 110187 layer_factory.hpp:114] Creating layer relu3
I1228 13:25:53.363706 110187 net.cpp:178] Creating Layer relu3
I1228 13:25:53.363751 110187 net.cpp:612] relu3 <- conv3
I1228 13:25:53.363823 110187 net.cpp:573] relu3 -> conv3 (in-place)
I1228 13:25:53.363929 110187 net.cpp:228] Setting up relu3
I1228 13:25:53.363986 110187 net.cpp:235] Top shape: 64 384 13 13 (4153344)
I1228 13:25:53.364012 110187 net.cpp:243] Memory required for data: 468147712
I1228 13:25:53.364042 110187 layer_factory.hpp:114] Creating layer conv4
I1228 13:25:53.364140 110187 net.cpp:178] Creating Layer conv4
I1228 13:25:53.364181 110187 net.cpp:612] conv4 <- conv3
I1228 13:25:53.364246 110187 net.cpp:586] conv4 -> conv4
I1228 13:25:54.214560 111726 net.cpp:228] Setting up conv4
I1228 13:25:54.214676 111726 net.cpp:235] Top shape: 64 384 13 13 (4153344)
I1228 13:25:54.214709 111726 net.cpp:243] Memory required for data: 484761088
I1228 13:25:54.214802 111726 layer_factory.hpp:114] Creating layer relu4
I1228 13:25:54.214867 111726 net.cpp:178] Creating Layer relu4
I1228 13:25:54.214915 111726 net.cpp:612] relu4 <- conv4
I1228 13:25:54.214980 111726 net.cpp:573] relu4 -> conv4 (in-place)
I1228 13:25:54.215163 111726 net.cpp:228] Setting up relu4
I1228 13:25:54.215219 111726 net.cpp:235] Top shape: 64 384 13 13 (4153344)
I1228 13:25:54.215246 111726 net.cpp:243] Memory required for data: 501374464
I1228 13:25:54.215276 111726 layer_factory.hpp:114] Creating layer conv5
I1228 13:25:54.215385 111726 net.cpp:178] Creating Layer conv5
I1228 13:25:54.215425 111726 net.cpp:612] conv5 <- conv4
I1228 13:25:54.215492 111726 net.cpp:586] conv5 -> conv5
I1228 13:25:54.242260 110187 net.cpp:228] Setting up conv4
I1228 13:25:54.226866 108582 net.cpp:228] Setting up conv4
I1228 13:25:54.242379 110187 net.cpp:235] Top shape: 64 384 13 13 (4153344)
I1228 13:25:54.242411 110187 net.cpp:243] Memory required for data: 484761088
I1228 13:25:54.226976 108582 net.cpp:235] Top shape: 64 384 13 13 (4153344)
I1228 13:25:54.242472 110187 layer_factory.hpp:114] Creating layer relu4
I1228 13:25:54.227042 108582 net.cpp:243] Memory required for data: 484761088
I1228 13:25:54.242563 110187 net.cpp:178] Creating Layer relu4
I1228 13:25:54.227107 108582 layer_factory.hpp:114] Creating layer relu4
I1228 13:25:54.242609 110187 net.cpp:612] relu4 <- conv4
I1228 13:25:54.227200 108582 net.cpp:178] Creating Layer relu4
I1228 13:25:54.242656 110187 net.cpp:573] relu4 -> conv4 (in-place)
I1228 13:25:54.227246 108582 net.cpp:612] relu4 <- conv4
I1228 13:25:54.242769 110187 net.cpp:228] Setting up relu4
I1228 13:25:54.227289 108582 net.cpp:573] relu4 -> conv4 (in-place)
I1228 13:25:54.242852 110187 net.cpp:235] Top shape: 64 384 13 13 (4153344)
I1228 13:25:54.227370 108582 net.cpp:228] Setting up relu4
I1228 13:25:54.227412 108582 net.cpp:235] Top shape: 64 384 13 13 (4153344)
I1228 13:25:54.242882 110187 net.cpp:243] Memory required for data: 501374464
I1228 13:25:54.227438 108582 net.cpp:243] Memory required for data: 501374464
I1228 13:25:54.242913 110187 layer_factory.hpp:114] Creating layer conv5
I1228 13:25:54.227468 108582 layer_factory.hpp:114] Creating layer conv5
I1228 13:25:54.227551 108582 net.cpp:178] Creating Layer conv5
I1228 13:25:54.227727 108582 net.cpp:612] conv5 <- conv4
I1228 13:25:54.227897 108582 net.cpp:586] conv5 -> conv5
I1228 13:25:54.243015 110187 net.cpp:178] Creating Layer conv5
I1228 13:25:54.243057 110187 net.cpp:612] conv5 <- conv4
I1228 13:25:54.243122 110187 net.cpp:586] conv5 -> conv5
I1228 13:25:54.844633 111726 net.cpp:228] Setting up conv5
I1228 13:25:54.844771 111726 net.cpp:235] Top shape: 64 256 13 13 (2768896)
I1228 13:25:54.844807 111726 net.cpp:243] Memory required for data: 512450048
I1228 13:25:54.844885 111726 layer_factory.hpp:114] Creating layer relu5
I1228 13:25:54.844982 111726 net.cpp:178] Creating Layer relu5
I1228 13:25:54.845031 111726 net.cpp:612] relu5 <- conv5
I1228 13:25:54.845075 111726 net.cpp:573] relu5 -> conv5 (in-place)
I1228 13:25:54.845182 111726 net.cpp:228] Setting up relu5
I1228 13:25:54.845235 111726 net.cpp:235] Top shape: 64 256 13 13 (2768896)
I1228 13:25:54.845260 111726 net.cpp:243] Memory required for data: 523525632
I1228 13:25:54.845290 111726 layer_factory.hpp:114] Creating layer pool5
I1228 13:25:54.845343 111726 net.cpp:178] Creating Layer pool5
I1228 13:25:54.845382 111726 net.cpp:612] pool5 <- conv5
I1228 13:25:54.845439 111726 net.cpp:586] pool5 -> pool5
I1228 13:25:54.845543 111726 net.cpp:228] Setting up pool5
I1228 13:25:54.845595 111726 net.cpp:235] Top shape: 64 256 6 6 (589824)
I1228 13:25:54.845619 111726 net.cpp:243] Memory required for data: 525884928
I1228 13:25:54.845649 111726 layer_factory.hpp:114] Creating layer fc6
I1228 13:25:54.845701 111726 net.cpp:178] Creating Layer fc6
I1228 13:25:54.845762 111726 net.cpp:612] fc6 <- pool5
I1228 13:25:54.845832 111726 net.cpp:586] fc6 -> fc6
I1228 13:25:54.872819 110187 net.cpp:228] Setting up conv5
I1228 13:25:54.872939 110187 net.cpp:235] Top shape: 64 256 13 13 (2768896)
I1228 13:25:54.872974 110187 net.cpp:243] Memory required for data: 512450048
I1228 13:25:54.873050 110187 layer_factory.hpp:114] Creating layer relu5
I1228 13:25:54.873144 110187 net.cpp:178] Creating Layer relu5
I1228 13:25:54.873191 110187 net.cpp:612] relu5 <- conv5
I1228 13:25:54.873234 110187 net.cpp:573] relu5 -> conv5 (in-place)
I1228 13:25:54.873337 110187 net.cpp:228] Setting up relu5
I1228 13:25:54.873392 110187 net.cpp:235] Top shape: 64 256 13 13 (2768896)
I1228 13:25:54.873417 110187 net.cpp:243] Memory required for data: 523525632
I1228 13:25:54.873448 110187 layer_factory.hpp:114] Creating layer pool5
I1228 13:25:54.873502 110187 net.cpp:178] Creating Layer pool5
I1228 13:25:54.873538 110187 net.cpp:612] pool5 <- conv5
I1228 13:25:54.873592 110187 net.cpp:586] pool5 -> pool5
I1228 13:25:54.873689 110187 net.cpp:228] Setting up pool5
I1228 13:25:54.873742 110187 net.cpp:235] Top shape: 64 256 6 6 (589824)
I1228 13:25:54.873774 110187 net.cpp:243] Memory required for data: 525884928
I1228 13:25:54.873826 110187 layer_factory.hpp:114] Creating layer fc6
I1228 13:25:54.873883 110187 net.cpp:178] Creating Layer fc6
I1228 13:25:54.873911 110187 net.cpp:612] fc6 <- pool5
I1228 13:25:54.873975 110187 net.cpp:586] fc6 -> fc6
I1228 13:25:54.858762 108582 net.cpp:228] Setting up conv5
I1228 13:25:54.858901 108582 net.cpp:235] Top shape: 64 256 13 13 (2768896)
I1228 13:25:54.858937 108582 net.cpp:243] Memory required for data: 512450048
I1228 13:25:54.859010 108582 layer_factory.hpp:114] Creating layer relu5
I1228 13:25:54.859102 108582 net.cpp:178] Creating Layer relu5
I1228 13:25:54.859146 108582 net.cpp:612] relu5 <- conv5
I1228 13:25:54.859189 108582 net.cpp:573] relu5 -> conv5 (in-place)
I1228 13:25:54.859293 108582 net.cpp:228] Setting up relu5
I1228 13:25:54.859345 108582 net.cpp:235] Top shape: 64 256 13 13 (2768896)
I1228 13:25:54.859371 108582 net.cpp:243] Memory required for data: 523525632
I1228 13:25:54.859402 108582 layer_factory.hpp:114] Creating layer pool5
I1228 13:25:54.859457 108582 net.cpp:178] Creating Layer pool5
I1228 13:25:54.859491 108582 net.cpp:612] pool5 <- conv5
I1228 13:25:54.859553 108582 net.cpp:586] pool5 -> pool5
I1228 13:25:54.859658 108582 net.cpp:228] Setting up pool5
I1228 13:25:54.859710 108582 net.cpp:235] Top shape: 64 256 6 6 (589824)
I1228 13:25:54.859735 108582 net.cpp:243] Memory required for data: 525884928
I1228 13:25:54.859766 108582 layer_factory.hpp:114] Creating layer fc6
I1228 13:25:54.859853 108582 net.cpp:178] Creating Layer fc6
I1228 13:25:54.859899 108582 net.cpp:612] fc6 <- pool5
I1228 13:25:54.859947 108582 net.cpp:586] fc6 -> fc6
I1228 13:25:55.803521 106496 net.cpp:228] Setting up fc6
I1228 13:25:55.803629 106496 net.cpp:235] Top shape: 64 4096 (262144)
I1228 13:25:55.803658 106496 net.cpp:243] Memory required for data: 526933504
I1228 13:25:55.803714 106496 layer_factory.hpp:114] Creating layer relu6
I1228 13:25:55.803778 106496 net.cpp:178] Creating Layer relu6
I1228 13:25:55.803812 106496 net.cpp:612] relu6 <- fc6
I1228 13:25:55.803849 106496 net.cpp:573] relu6 -> fc6 (in-place)
I1228 13:25:55.804004 106496 net.cpp:228] Setting up relu6
I1228 13:25:55.804054 106496 net.cpp:235] Top shape: 64 4096 (262144)
I1228 13:25:55.804080 106496 net.cpp:243] Memory required for data: 527982080
I1228 13:25:55.804108 106496 layer_factory.hpp:114] Creating layer drop6
I1228 13:25:55.808018 106496 net.cpp:178] Creating Layer drop6
I1228 13:25:55.808099 106496 net.cpp:612] drop6 <- fc6
I1228 13:25:55.808145 106496 net.cpp:573] drop6 -> fc6 (in-place)
I1228 13:25:55.810205 106496 net.cpp:228] Setting up drop6
I1228 13:25:55.810284 106496 net.cpp:235] Top shape: 64 4096 (262144)
I1228 13:25:55.810310 106496 net.cpp:243] Memory required for data: 529030656
I1228 13:25:55.810341 106496 layer_factory.hpp:114] Creating layer fc7
I1228 13:25:55.810430 106496 net.cpp:178] Creating Layer fc7
I1228 13:25:55.810498 106496 net.cpp:612] fc7 <- fc6
I1228 13:25:55.810544 106496 net.cpp:586] fc7 -> fc7
I1228 13:25:57.026963 104155 net.cpp:228] Setting up fc6
I1228 13:25:57.027076 104155 net.cpp:235] Top shape: 64 4096 (262144)
I1228 13:25:57.027107 104155 net.cpp:243] Memory required for data: 526933504
I1228 13:25:57.027194 104155 layer_factory.hpp:114] Creating layer relu6
I1228 13:25:57.027359 104155 net.cpp:178] Creating Layer relu6
I1228 13:25:57.027395 104155 net.cpp:612] relu6 <- fc6
I1228 13:25:57.027544 104155 net.cpp:573] relu6 -> fc6 (in-place)
I1228 13:25:57.027601 104155 net.cpp:228] Setting up relu6
I1228 13:25:57.027645 104155 net.cpp:235] Top shape: 64 4096 (262144)
I1228 13:25:57.027667 104155 net.cpp:243] Memory required for data: 527982080
I1228 13:25:57.027721 104155 layer_factory.hpp:114] Creating layer drop6
I1228 13:25:57.031813 104155 net.cpp:178] Creating Layer drop6
I1228 13:25:57.031888 104155 net.cpp:612] drop6 <- fc6
I1228 13:25:57.031952 104155 net.cpp:573] drop6 -> fc6 (in-place)
I1228 13:25:57.033664 104155 net.cpp:228] Setting up drop6
I1228 13:25:57.033757 104155 net.cpp:235] Top shape: 64 4096 (262144)
I1228 13:25:57.033785 104155 net.cpp:243] Memory required for data: 529030656
I1228 13:25:57.033922 104155 layer_factory.hpp:114] Creating layer fc7
I1228 13:25:57.033982 104155 net.cpp:178] Creating Layer fc7
I1228 13:25:57.031864 103425 net.cpp:228] Setting up fc6
I1228 13:25:57.034035 104155 net.cpp:612] fc7 <- fc6
I1228 13:25:57.031975 103425 net.cpp:235] Top shape: 64 4096 (262144)
I1228 13:25:57.032004 103425 net.cpp:243] Memory required for data: 526933504
I1228 13:25:57.034077 104155 net.cpp:586] fc7 -> fc7
I1228 13:25:57.032060 103425 layer_factory.hpp:114] Creating layer relu6
I1228 13:25:57.032140 103425 net.cpp:178] Creating Layer relu6
I1228 13:25:57.032176 103425 net.cpp:612] relu6 <- fc6
I1228 13:25:57.032354 103425 net.cpp:573] relu6 -> fc6 (in-place)
I1228 13:25:57.032411 103425 net.cpp:228] Setting up relu6
I1228 13:25:57.032454 103425 net.cpp:235] Top shape: 64 4096 (262144)
I1228 13:25:57.032487 103425 net.cpp:243] Memory required for data: 527982080
I1228 13:25:57.032521 103425 layer_factory.hpp:114] Creating layer drop6
I1228 13:25:57.036201 103425 net.cpp:178] Creating Layer drop6
I1228 13:25:57.036293 103425 net.cpp:612] drop6 <- fc6
I1228 13:25:57.036368 103425 net.cpp:573] drop6 -> fc6 (in-place)
I1228 13:25:57.038578 103425 net.cpp:228] Setting up drop6
I1228 13:25:57.038662 103425 net.cpp:235] Top shape: 64 4096 (262144)
I1228 13:25:57.038688 103425 net.cpp:243] Memory required for data: 529030656
I1228 13:25:57.038722 103425 layer_factory.hpp:114] Creating layer fc7
I1228 13:25:57.038787 103425 net.cpp:178] Creating Layer fc7
I1228 13:25:57.038817 103425 net.cpp:612] fc7 <- fc6
I1228 13:25:57.038858 103425 net.cpp:586] fc7 -> fc7
I1228 13:25:57.056926 103525 net.cpp:228] Setting up fc6
I1228 13:25:57.057049 103525 net.cpp:235] Top shape: 64 4096 (262144)
I1228 13:25:57.057085 103525 net.cpp:243] Memory required for data: 526933504
I1228 13:25:57.057160 103525 layer_factory.hpp:114] Creating layer relu6
I1228 13:25:57.057215 103525 net.cpp:178] Creating Layer relu6
I1228 13:25:57.057253 103525 net.cpp:612] relu6 <- fc6
I1228 13:25:57.057426 103525 net.cpp:573] relu6 -> fc6 (in-place)
I1228 13:25:57.057504 103525 net.cpp:228] Setting up relu6
I1228 13:25:57.057564 103525 net.cpp:235] Top shape: 64 4096 (262144)
I1228 13:25:57.057601 103525 net.cpp:243] Memory required for data: 527982080
I1228 13:25:57.057637 103525 layer_factory.hpp:114] Creating layer drop6
I1228 13:25:57.061966 103525 net.cpp:178] Creating Layer drop6
I1228 13:25:57.062062 103525 net.cpp:612] drop6 <- fc6
I1228 13:25:57.062150 103525 net.cpp:573] drop6 -> fc6 (in-place)
I1228 13:25:57.064378 103525 net.cpp:228] Setting up drop6
I1228 13:25:57.064469 103525 net.cpp:235] Top shape: 64 4096 (262144)
I1228 13:25:57.064502 103525 net.cpp:243] Memory required for data: 529030656
I1228 13:25:57.064548 103525 layer_factory.hpp:114] Creating layer fc7
I1228 13:25:57.064632 103525 net.cpp:178] Creating Layer fc7
I1228 13:25:57.064707 103525 net.cpp:612] fc7 <- fc6
I1228 13:25:57.064762 103525 net.cpp:586] fc7 -> fc7
I1228 13:25:58.077674 106496 net.cpp:228] Setting up fc7
I1228 13:25:58.077788 106496 net.cpp:235] Top shape: 64 4096 (262144)
I1228 13:25:58.077818 106496 net.cpp:243] Memory required for data: 530079232
I1228 13:25:58.077874 106496 layer_factory.hpp:114] Creating layer relu7
I1228 13:25:58.077932 106496 net.cpp:178] Creating Layer relu7
I1228 13:25:58.077971 106496 net.cpp:612] relu7 <- fc7
I1228 13:25:58.078025 106496 net.cpp:573] relu7 -> fc7 (in-place)
I1228 13:25:58.078166 106496 net.cpp:228] Setting up relu7
I1228 13:25:58.078279 106496 net.cpp:235] Top shape: 64 4096 (262144)
I1228 13:25:58.078302 106496 net.cpp:243] Memory required for data: 531127808
I1228 13:25:58.078328 106496 layer_factory.hpp:114] Creating layer drop7
I1228 13:25:58.078374 106496 net.cpp:178] Creating Layer drop7
I1228 13:25:58.078405 106496 net.cpp:612] drop7 <- fc7
I1228 13:25:58.078438 106496 net.cpp:573] drop7 -> fc7 (in-place)
I1228 13:25:58.078508 106496 net.cpp:228] Setting up drop7
I1228 13:25:58.078547 106496 net.cpp:235] Top shape: 64 4096 (262144)
I1228 13:25:58.078568 106496 net.cpp:243] Memory required for data: 532176384
I1228 13:25:58.078594 106496 layer_factory.hpp:114] Creating layer fc8
I1228 13:25:58.078670 106496 net.cpp:178] Creating Layer fc8
I1228 13:25:58.078707 106496 net.cpp:612] fc8 <- fc7
I1228 13:25:58.078749 106496 net.cpp:586] fc8 -> fc8
I1228 13:25:58.645597 106496 net.cpp:228] Setting up fc8
I1228 13:25:58.645710 106496 net.cpp:235] Top shape: 64 1000 (64000)
I1228 13:25:58.645737 106496 net.cpp:243] Memory required for data: 532432384
I1228 13:25:58.645789 106496 layer_factory.hpp:114] Creating layer fc8_fc8_0_split
I1228 13:25:58.645862 106496 net.cpp:178] Creating Layer fc8_fc8_0_split
I1228 13:25:58.645900 106496 net.cpp:612] fc8_fc8_0_split <- fc8
I1228 13:25:58.645946 106496 net.cpp:586] fc8_fc8_0_split -> fc8_fc8_0_split_0
I1228 13:25:58.646004 106496 net.cpp:586] fc8_fc8_0_split -> fc8_fc8_0_split_1
I1228 13:25:58.646049 106496 net.cpp:228] Setting up fc8_fc8_0_split
I1228 13:25:58.646090 106496 net.cpp:235] Top shape: 64 1000 (64000)
I1228 13:25:58.646117 106496 net.cpp:235] Top shape: 64 1000 (64000)
I1228 13:25:58.646138 106496 net.cpp:243] Memory required for data: 532944384
I1228 13:25:58.646165 106496 layer_factory.hpp:114] Creating layer accuracy
I1228 13:25:58.646378 106496 net.cpp:178] Creating Layer accuracy
I1228 13:25:58.646435 106496 net.cpp:612] accuracy <- fc8_fc8_0_split_0
I1228 13:25:58.646492 106496 net.cpp:612] accuracy <- label_data_1_split_0
I1228 13:25:58.646536 106496 net.cpp:586] accuracy -> accuracy
…
I1228 13:25:58.684867 106496 net.cpp:307] data does not need backward computation.
I1228 13:25:58.684895 106496 net.cpp:349] This network produces output accuracy
I1228 13:25:58.684934 106496 net.cpp:349] This network produces output loss
I1228 13:25:58.685021 106496 net.cpp:363] Network initialization done.
I1228 13:25:58.688599 106496 solver.cpp:107] Solver scaffolding done.
I1228 13:25:58.689954 106496 caffe.cpp:212] Finetuning from /export/data1/stanford/hazy/gordon_bell/caffenet_knl/snapshot/caffenet_MN8_B1024/_iter_25000.caffemodel
I1228 13:25:59.297236 104155 net.cpp:228] Setting up fc7
I1228 13:25:59.297386 104155 net.cpp:235] Top shape: 64 4096 (262144)
I1228 13:25:59.297420 104155 net.cpp:243] Memory required for data: 530079232
I1228 13:25:59.297474 104155 layer_factory.hpp:114] Creating layer relu7
I1228 13:25:59.297534 104155 net.cpp:178] Creating Layer relu7
I1228 13:25:59.297565 104155 net.cpp:612] relu7 <- fc7
I1228 13:25:59.297631 104155 net.cpp:573] relu7 -> fc7 (in-place)
I1228 13:25:59.297693 104155 net.cpp:228] Setting up relu7
I1228 13:25:59.297843 104155 net.cpp:235] Top shape: 64 4096 (262144)
I1228 13:25:59.297868 104155 net.cpp:243] Memory required for data: 531127808
I1228 13:25:59.297894 104155 layer_factory.hpp:114] Creating layer drop7
I1228 13:25:59.297931 104155 net.cpp:178] Creating Layer drop7
I1228 13:25:59.297962 104155 net.cpp:612] drop7 <- fc7
I1228 13:25:59.297996 104155 net.cpp:573] drop7 -> fc7 (in-place)
I1228 13:25:59.298039 104155 net.cpp:228] Setting up drop7
I1228 13:25:59.298079 104155 net.cpp:235] Top shape: 64 4096 (262144)
I1228 13:25:59.298101 104155 net.cpp:243] Memory required for data: 532176384
I1228 13:25:59.298130 104155 layer_factory.hpp:114] Creating layer fc8
I1228 13:25:59.298192 104155 net.cpp:178] Creating Layer fc8
I1228 13:25:59.298226 104155 net.cpp:612] fc8 <- fc7
I1228 13:25:59.298264 104155 net.cpp:586] fc8 -> fc8
I1228 13:25:59.317589 103425 net.cpp:228] Setting up fc7
I1228 13:25:59.317698 103425 net.cpp:235] Top shape: 64 4096 (262144)
I1228 13:25:59.317725 103425 net.cpp:243] Memory required for data: 530079232
I1228 13:25:59.317780 103425 layer_factory.hpp:114] Creating layer relu7
I1228 13:25:59.317857 103425 net.cpp:178] Creating Layer relu7
I1228 13:25:59.317889 103425 net.cpp:612] relu7 <- fc7
I1228 13:25:59.317940 103425 net.cpp:573] relu7 -> fc7 (in-place)
I1228 13:25:59.317992 103425 net.cpp:228] Setting up relu7
I1228 13:25:59.318027 103425 net.cpp:235] Top shape: 64 4096 (262144)
I1228 13:25:59.318051 103425 net.cpp:243] Memory required for data: 531127808
I1228 13:25:59.318084 103425 layer_factory.hpp:114] Creating layer drop7
I1228 13:25:59.318150 103425 net.cpp:178] Creating Layer drop7
I1228 13:25:59.318176 103425 net.cpp:612] drop7 <- fc7
I1228 13:25:59.318207 103425 net.cpp:573] drop7 -> fc7 (in-place)
I1228 13:25:59.318249 103425 net.cpp:228] Setting up drop7
I1228 13:25:59.318287 103425 net.cpp:235] Top shape: 64 4096 (262144)
I1228 13:25:59.318315 103425 net.cpp:243] Memory required for data: 532176384
I1228 13:25:59.318341 103425 layer_factory.hpp:114] Creating layer fc8
I1228 13:25:59.318406 103425 net.cpp:178] Creating Layer fc8
I1228 13:25:59.318440 103425 net.cpp:612] fc8 <- fc7
I1228 13:25:59.318480 103425 net.cpp:586] fc8 -> fc8
I1228 13:25:59.331357 103525 net.cpp:228] Setting up fc7
I1228 13:25:59.331475 103525 net.cpp:235] Top shape: 64 4096 (262144)
I1228 13:25:59.331506 103525 net.cpp:243] Memory required for data: 530079232
I1228 13:25:59.331604 103525 layer_factory.hpp:114] Creating layer relu7
I1228 13:25:59.331696 103525 net.cpp:178] Creating Layer relu7
I1228 13:25:59.331738 103525 net.cpp:612] relu7 <- fc7
I1228 13:25:59.331802 103525 net.cpp:573] relu7 -> fc7 (in-place)
I1228 13:25:59.331866 103525 net.cpp:228] Setting up relu7
I1228 13:25:59.331913 103525 net.cpp:235] Top shape: 64 4096 (262144)
I1228 13:25:59.331943 103525 net.cpp:243] Memory required for data: 531127808
I1228 13:25:59.331974 103525 layer_factory.hpp:114] Creating layer drop7
I1228 13:25:59.332016 103525 net.cpp:178] Creating Layer drop7
I1228 13:25:59.332044 103525 net.cpp:612] drop7 <- fc7
I1228 13:25:59.332085 103525 net.cpp:573] drop7 -> fc7 (in-place)
I1228 13:25:59.332144 103525 net.cpp:228] Setting up drop7
I1228 13:25:59.332177 103525 net.cpp:235] Top shape: 64 4096 (262144)
I1228 13:25:59.332200 103525 net.cpp:243] Memory required for data: 532176384
I1228 13:25:59.332227 103525 layer_factory.hpp:114] Creating layer fc8
I1228 13:25:59.332298 103525 net.cpp:178] Creating Layer fc8
I1228 13:25:59.332336 103525 net.cpp:612] fc8 <- fc7
I1228 13:25:59.332376 103525 net.cpp:586] fc8 -> fc8
I1228 13:25:59.875134 104155 net.cpp:228] Setting up fc8
I1228 13:25:59.875248 104155 net.cpp:235] Top shape: 64 1000 (64000)
I1228 13:25:59.875277 104155 net.cpp:243] Memory required for data: 532432384
I1228 13:25:59.875385 104155 layer_factory.hpp:114] Creating layer fc8_fc8_0_split
I1228 13:25:59.875433 104155 net.cpp:178] Creating Layer fc8_fc8_0_split
I1228 13:25:59.875470 104155 net.cpp:612] fc8_fc8_0_split <- fc8
I1228 13:25:59.875510 104155 net.cpp:586] fc8_fc8_0_split -> fc8_fc8_0_split_0
I1228 13:25:59.875561 104155 net.cpp:586] fc8_fc8_0_split -> fc8_fc8_0_split_1
I1228 13:25:59.875612 104155 net.cpp:228] Setting up fc8_fc8_0_split
I1228 13:25:59.875648 104155 net.cpp:235] Top shape: 64 1000 (64000)
I1228 13:25:59.875676 104155 net.cpp:235] Top shape: 64 1000 (64000)
I1228 13:25:59.875697 104155 net.cpp:243] Memory required for data: 532944384
I1228 13:25:59.875722 104155 layer_factory.hpp:114] Creating layer accuracy
I1228 13:25:59.875938 104155 net.cpp:178] Creating Layer accuracy
I1228 13:25:59.875988 104155 net.cpp:612] accuracy <- fc8_fc8_0_split_0
I1228 13:25:59.876020 104155 net.cpp:612] accuracy <- label_data_1_split_0
I1228 13:25:59.876056 104155 net.cpp:586] accuracy -> accuracy
I1228 13:25:59.883226 103525 net.cpp:228] Setting up fc8
I1228 13:25:59.876222 104155 net.cpp:228] Setting up accuracy
I1228 13:25:59.883334 103525 net.cpp:235] Top shape: 64 1000 (64000)
I1228 13:25:59.883358 103525 net.cpp:243] Memory required for data: 532432384
I1228 13:25:59.876277 104155 net.cpp:235] Top shape: (1)
I1228 13:25:59.876324 104155 net.cpp:243] Memory required for data: 532944388
I1228 13:25:59.883438 103525 layer_factory.hpp:114] Creating layer fc8_fc8_0_split
I1228 13:25:59.876358 104155 layer_factory.hpp:114] Creating layer loss
I1228 13:25:59.883503 103525 net.cpp:178] Creating Layer fc8_fc8_0_split
I1228 13:25:59.876554 104155 net.cpp:178] Creating Layer loss
I1228 13:25:59.883538 103525 net.cpp:612] fc8_fc8_0_split <- fc8
I1228 13:25:59.876603 104155 net.cpp:612] loss <- fc8_fc8_0_split_1
I1228 13:25:59.876634 104155 net.cpp:612] loss <- label_data_1_split_1
I1228 13:25:59.883606 103525 net.cpp:586] fc8_fc8_0_split -> fc8_fc8_0_split_0
I1228 13:25:59.876679 104155 net.cpp:586] loss -> loss
I1228 13:25:59.883783 103525 net.cpp:586] fc8_fc8_0_split -> fc8_fc8_0_split_1
I1228 13:25:59.877143 104155 layer_factory.hpp:114] Creating layer loss
I1228 13:25:59.883834 103525 net.cpp:228] Setting up fc8_fc8_0_split
I1228 13:25:59.883870 103525 net.cpp:235] Top shape: 64 1000 (64000)
I1228 13:25:59.883909 103525 net.cpp:235] Top shape: 64 1000 (64000)
I1228 13:25:59.883932 103525 net.cpp:243] Memory required for data: 532944384
I1228 13:25:59.883958 103525 layer_factory.hpp:114] Creating layer accuracy
I1228 13:25:59.884233 103525 net.cpp:178] Creating Layer accuracy
I1228 13:25:59.884347 103525 net.cpp:612] accuracy <- fc8_fc8_0_split_0
I1228 13:25:59.884410 103525 net.cpp:612] accuracy <- label_data_1_split_0
I1228 13:25:59.884548 103525 net.cpp:586] accuracy -> accuracy
I1228 13:25:59.884822 103525 net.cpp:228] Setting up accuracy
I1228 13:25:59.884894 103525 net.cpp:235] Top shape: (1)
I1228 13:25:59.884920 103525 net.cpp:243] Memory required for data: 532944388
I1228 13:25:59.884951 103525 layer_factory.hpp:114] Creating layer loss
I1228 13:25:59.885119 103525 net.cpp:178] Creating Layer loss
I1228 13:25:59.885169 103525 net.cpp:612] loss <- fc8_fc8_0_split_1
I1228 13:25:59.885201 103525 net.cpp:612] loss <- label_data_1_split_1
I1228 13:25:59.885303 103525 net.cpp:586] loss -> loss
I1228 13:25:59.885794 103525 layer_factory.hpp:114] Creating layer loss
I1228 13:25:59.883358 103425 net.cpp:228] Setting up fc8
I1228 13:25:59.883471 103425 net.cpp:235] Top shape: 64 1000 (64000)
I1228 13:25:59.883499 103425 net.cpp:243] Memory required for data: 532432384
I1228 13:25:59.883553 103425 layer_factory.hpp:114] Creating layer fc8_fc8_0_split
I1228 13:25:59.883608 103425 net.cpp:178] Creating Layer fc8_fc8_0_split
I1228 13:25:59.883637 103425 net.cpp:612] fc8_fc8_0_split <- fc8
I1228 13:25:59.883676 103425 net.cpp:586] fc8_fc8_0_split -> fc8_fc8_0_split_0
I1228 13:25:59.883728 103425 net.cpp:586] fc8_fc8_0_split -> fc8_fc8_0_split_1
I1228 13:25:59.883772 103425 net.cpp:228] Setting up fc8_fc8_0_split
I1228 13:25:59.883813 103425 net.cpp:235] Top shape: 64 1000 (64000)
I1228 13:25:59.883848 103425 net.cpp:235] Top shape: 64 1000 (64000)
I1228 13:25:59.883870 103425 net.cpp:243] Memory required for data: 532944384
I1228 13:25:59.883895 103425 layer_factory.hpp:114] Creating layer accuracy
I1228 13:25:59.884124 103425 net.cpp:178] Creating Layer accuracy
I1228 13:25:59.884186 103425 net.cpp:612] accuracy <- fc8_fc8_0_split_0
I1228 13:25:59.884219 103425 net.cpp:612] accuracy <- label_data_1_split_0
I1228 13:25:59.884284 103425 net.cpp:586] accuracy -> accuracy
…
I1228 13:25:59.914726 103425 net.cpp:363] Network initialization done.
I1228 13:25:59.927575 103525 solver.cpp:107] Solver scaffolding done.
I1228 13:25:59.918627 103425 solver.cpp:107] Solver scaffolding done.
I1228 13:25:59.931017 103525 caffe.cpp:212] Finetuning from /export/data1/stanford/hazy/gordon_bell/caffenet_knl/snapshot/caffenet_MN8_B1024/_iter_25000.caffemodel
I1228 13:25:59.921918 103425 caffe.cpp:212] Finetuning from /export/data1/stanford/hazy/gordon_bell/caffenet_knl/snapshot/caffenet_MN8_B1024/_iter_25000.caffemodel
I1228 13:26:00.596777 99727 net.cpp:228] Setting up fc6
I1228 13:26:00.596916 99727 net.cpp:235] Top shape: 64 4096 (262144)
I1228 13:26:00.596961 99727 net.cpp:243] Memory required for data: 526933504
I1228 13:26:00.597038 99727 layer_factory.hpp:114] Creating layer relu6
I1228 13:26:00.597112 99727 net.cpp:178] Creating Layer relu6
I1228 13:26:00.597159 99727 net.cpp:612] relu6 <- fc6
I1228 13:26:00.597221 99727 net.cpp:573] relu6 -> fc6 (in-place)
I1228 13:26:00.597281 99727 net.cpp:228] Setting up relu6
I1228 13:26:00.597497 99727 net.cpp:235] Top shape: 64 4096 (262144)
I1228 13:26:00.597549 99727 net.cpp:243] Memory required for data: 527982080
I1228 13:26:00.597595 99727 layer_factory.hpp:114] Creating layer drop6
I1228 13:26:00.601774 99727 net.cpp:178] Creating Layer drop6
I1228 13:26:00.601886 99727 net.cpp:612] drop6 <- fc6
I1228 13:26:00.601955 99727 net.cpp:573] drop6 -> fc6 (in-place)
I1228 13:26:00.604100 99727 net.cpp:228] Setting up drop6
I1228 13:26:00.604215 99727 net.cpp:235] Top shape: 64 4096 (262144)
I1228 13:26:00.604254 99727 net.cpp:243] Memory required for data: 529030656
I1228 13:26:00.604301 99727 layer_factory.hpp:114] Creating layer fc7
I1228 13:26:00.604419 99727 net.cpp:178] Creating Layer fc7
I1228 13:26:00.604514 99727 net.cpp:612] fc7 <- fc6
I1228 13:26:00.604579 99727 net.cpp:586] fc7 -> fc7
I1228 13:26:00.741266 135543 net.cpp:228] Setting up fc6
I1228 13:26:00.741432 135543 net.cpp:235] Top shape: 64 4096 (262144)
I1228 13:26:00.741477 135543 net.cpp:243] Memory required for data: 526933504
I1228 13:26:00.741555 135543 layer_factory.hpp:114] Creating layer relu6
I1228 13:26:00.741665 135543 net.cpp:178] Creating Layer relu6
I1228 13:26:00.741772 135543 net.cpp:612] relu6 <- fc6
I1228 13:26:00.741999 135543 net.cpp:573] relu6 -> fc6 (in-place)
I1228 13:26:00.742079 135543 net.cpp:228] Setting up relu6
I1228 13:26:00.742141 135543 net.cpp:235] Top shape: 64 4096 (262144)
I1228 13:26:00.742182 135543 net.cpp:243] Memory required for data: 527982080
I1228 13:26:00.742228 135543 layer_factory.hpp:114] Creating layer drop6
I1228 13:26:00.747159 135543 net.cpp:178] Creating Layer drop6
I1228 13:26:00.747274 135543 net.cpp:612] drop6 <- fc6
I1228 13:26:00.747346 135543 net.cpp:573] drop6 -> fc6 (in-place)
I1228 13:26:00.749970 135543 net.cpp:228] Setting up drop6
I1228 13:26:00.750102 135543 net.cpp:235] Top shape: 64 4096 (262144)
I1228 13:26:00.750144 135543 net.cpp:243] Memory required for data: 529030656
I1228 13:26:00.750192 135543 layer_factory.hpp:114] Creating layer fc7
I1228 13:26:00.750313 135543 net.cpp:178] Creating Layer fc7
I1228 13:26:00.750376 135543 net.cpp:612] fc7 <- fc6
I1228 13:26:00.750454 135543 net.cpp:586] fc7 -> fc7
I1228 13:26:02.978907 106496 caffe.cpp:376] Configuring multinode setup
I1228 13:26:02.989666 106496 caffe.cpp:386] Starting parameter server in mpi environment
I1228 13:26:03.979429 104155 caffe.cpp:376] Configuring multinode setup
I1228 13:26:03.995173 103425 caffe.cpp:376] Configuring multinode setup
I1228 13:26:04.010635 103525 caffe.cpp:376] Configuring multinode setup
I1228 13:26:04.017659 104155 caffe.cpp:392] Starting Multi-node Optimization in mpi environment
I1228 13:26:04.032701 103425 caffe.cpp:392] Starting Multi-node Optimization in mpi environment
I1228 13:26:04.047760 103525 caffe.cpp:392] Starting Multi-node Optimization in mpi environment
I1228 13:26:04.053450 99727 net.cpp:228] Setting up fc7
I1228 13:26:04.053625 99727 net.cpp:235] Top shape: 64 4096 (262144)
I1228 13:26:04.053668 99727 net.cpp:243] Memory required for data: 530079232
I1228 13:26:04.053743 99727 layer_factory.hpp:114] Creating layer relu7
I1228 13:26:04.053824 99727 net.cpp:178] Creating Layer relu7
I1228 13:26:04.053869 99727 net.cpp:612] relu7 <- fc7
I1228 13:26:04.053920 99727 net.cpp:573] relu7 -> fc7 (in-place)
I1228 13:26:04.053983 99727 net.cpp:228] Setting up relu7
I1228 13:26:04.054116 99727 net.cpp:235] Top shape: 64 4096 (262144)
I1228 13:26:04.054153 99727 net.cpp:243] Memory required for data: 531127808
I1228 13:26:04.054194 99727 layer_factory.hpp:114] Creating layer drop7
I1228 13:26:04.054257 99727 net.cpp:178] Creating Layer drop7
I1228 13:26:04.054296 99727 net.cpp:612] drop7 <- fc7
I1228 13:26:04.054368 99727 net.cpp:573] drop7 -> fc7 (in-place)
I1228 13:26:04.054441 99727 net.cpp:228] Setting up drop7
I1228 13:26:04.054520 99727 net.cpp:235] Top shape: 64 4096 (262144)
I1228 13:26:04.054554 99727 net.cpp:243] Memory required for data: 532176384
I1228 13:26:04.054594 99727 layer_factory.hpp:114] Creating layer fc8
I1228 13:26:04.054661 99727 net.cpp:178] Creating Layer fc8
I1228 13:26:04.054697 99727 net.cpp:612] fc8 <- fc7
I1228 13:26:04.054766 99727 net.cpp:586] fc8 -> fc8
I1228 13:26:04.230538 135543 net.cpp:228] Setting up fc7
I1228 13:26:04.230705 135543 net.cpp:235] Top shape: 64 4096 (262144)
I1228 13:26:04.230751 135543 net.cpp:243] Memory required for data: 530079232
I1228 13:26:04.230829 135543 layer_factory.hpp:114] Creating layer relu7
I1228 13:26:04.230904 135543 net.cpp:178] Creating Layer relu7
I1228 13:26:04.230957 135543 net.cpp:612] relu7 <- fc7
I1228 13:26:04.231019 135543 net.cpp:573] relu7 -> fc7 (in-place)
I1228 13:26:04.231098 135543 net.cpp:228] Setting up relu7
I1228 13:26:04.231164 135543 net.cpp:235] Top shape: 64 4096 (262144)
I1228 13:26:04.231246 135543 net.cpp:243] Memory required for data: 531127808
I1228 13:26:04.231297 135543 layer_factory.hpp:114] Creating layer drop7
I1228 13:26:04.231853 135543 net.cpp:178] Creating Layer drop7
I1228 13:26:04.231921 135543 net.cpp:612] drop7 <- fc7
I1228 13:26:04.232009 135543 net.cpp:573] drop7 -> fc7 (in-place)
I1228 13:26:04.232097 135543 net.cpp:228] Setting up drop7
I1228 13:26:04.232161 135543 net.cpp:235] Top shape: 64 4096 (262144)
I1228 13:26:04.232199 135543 net.cpp:243] Memory required for data: 532176384
I1228 13:26:04.232244 135543 layer_factory.hpp:114] Creating layer fc8
I1228 13:26:04.232327 135543 net.cpp:178] Creating Layer fc8
I1228 13:26:04.232372 135543 net.cpp:612] fc8 <- fc7
I1228 13:26:04.232455 135543 net.cpp:586] fc8 -> fc8
I1228 13:26:04.898149 99727 net.cpp:228] Setting up fc8
I1228 13:26:04.898289 99727 net.cpp:235] Top shape: 64 1000 (64000)
I1228 13:26:04.898330 99727 net.cpp:243] Memory required for data: 532432384
I1228 13:26:04.898402 99727 layer_factory.hpp:114] Creating layer fc8_fc8_0_split
I1228 13:26:04.898540 99727 net.cpp:178] Creating Layer fc8_fc8_0_split
I1228 13:26:04.898592 99727 net.cpp:612] fc8_fc8_0_split <- fc8
I1228 13:26:04.898659 99727 net.cpp:586] fc8_fc8_0_split -> fc8_fc8_0_split_0
I1228 13:26:04.898726 99727 net.cpp:586] fc8_fc8_0_split -> fc8_fc8_0_split_1
I1228 13:26:04.898792 99727 net.cpp:228] Setting up fc8_fc8_0_split
I1228 13:26:04.898854 99727 net.cpp:235] Top shape: 64 1000 (64000)
I1228 13:26:04.898897 99727 net.cpp:235] Top shape: 64 1000 (64000)
I1228 13:26:04.898931 99727 net.cpp:243] Memory required for data: 532944384
I1228 13:26:04.898970 99727 layer_factory.hpp:114] Creating layer accuracy
I1228 13:26:04.899241 99727 net.cpp:178] Creating Layer accuracy
I1228 13:26:04.899312 99727 net.cpp:612] accuracy <- fc8_fc8_0_split_0
I1228 13:26:04.899358 99727 net.cpp:612] accuracy <- label_data_1_split_0
I1228 13:26:04.899410 99727 net.cpp:586] accuracy -> accuracy
…
I1228 13:26:05.140930 135543 solver.cpp:107] Solver scaffolding done.
I1228 13:26:05.145694 135543 caffe.cpp:212] Finetuning from /export/data1/stanford/hazy/gordon_bell/caffenet_knl/snapshot/caffenet_MN8_B1024/_iter_25000.caffemodel
I1228 13:26:10.933179 99727 caffe.cpp:376] Configuring multinode setup
I1228 13:26:10.973623 99727 caffe.cpp:392] Starting Multi-node Optimization in mpi environment
I1228 13:26:11.318562 135543 caffe.cpp:376] Configuring multinode setup
I1228 13:26:11.364820 135543 caffe.cpp:392] Starting Multi-node Optimization in mpi environment
I1228 13:26:24.251425 108582 net.cpp:228] Setting up fc6
I1228 13:26:24.251693 108582 net.cpp:235] Top shape: 64 4096 (262144)
I1228 13:26:24.251734 108582 net.cpp:243] Memory required for data: 526933504
I1228 13:26:24.251796 108582 layer_factory.hpp:114] Creating layer relu6
I1228 13:26:24.251880 108582 net.cpp:178] Creating Layer relu6
I1228 13:26:24.251934 108582 net.cpp:612] relu6 <- fc6
I1228 13:26:24.251976 108582 net.cpp:573] relu6 -> fc6 (in-place)
I1228 13:26:24.252033 108582 net.cpp:228] Setting up relu6
I1228 13:26:24.252075 108582 net.cpp:235] Top shape: 64 4096 (262144)
I1228 13:26:24.252102 108582 net.cpp:243] Memory required for data: 527982080
I1228 13:26:24.252140 108582 layer_factory.hpp:114] Creating layer drop6
I1228 13:26:24.254717 108582 net.cpp:178] Creating Layer drop6
I1228 13:26:24.254814 108582 net.cpp:612] drop6 <- fc6
I1228 13:26:24.254907 108582 net.cpp:573] drop6 -> fc6 (in-place)
I1228 13:26:24.256316 108582 net.cpp:228] Setting up drop6
I1228 13:26:24.256412 108582 net.cpp:235] Top shape: 64 4096 (262144)
I1228 13:26:24.256443 108582 net.cpp:243] Memory required for data: 529030656
I1228 13:26:24.256479 108582 layer_factory.hpp:114] Creating layer fc7
I1228 13:26:24.256572 108582 net.cpp:178] Creating Layer fc7
I1228 13:26:24.256618 108582 net.cpp:612] fc7 <- fc6
I1228 13:26:24.256666 108582 net.cpp:586] fc7 -> fc7
I1228 13:26:24.256935 111726 net.cpp:228] Setting up fc6
I1228 13:26:24.257236 111726 net.cpp:235] Top shape: 64 4096 (262144)
I1228 13:26:24.257385 111726 net.cpp:243] Memory required for data: 526933504
I1228 13:26:24.257490 111726 layer_factory.hpp:114] Creating layer relu6
I1228 13:26:24.257585 111726 net.cpp:178] Creating Layer relu6
I1228 13:26:24.257621 111726 net.cpp:612] relu6 <- fc6
I1228 13:26:24.257661 111726 net.cpp:573] relu6 -> fc6 (in-place)
I1228 13:26:24.257834 111726 net.cpp:228] Setting up relu6
I1228 13:26:24.257881 111726 net.cpp:235] Top shape: 64 4096 (262144)
I1228 13:26:24.257946 111726 net.cpp:243] Memory required for data: 527982080
I1228 13:26:24.257977 111726 layer_factory.hpp:114] Creating layer drop6
I1228 13:26:24.260509 111726 net.cpp:178] Creating Layer drop6
I1228 13:26:24.260596 111726 net.cpp:612] drop6 <- fc6
I1228 13:26:24.260653 111726 net.cpp:573] drop6 -> fc6 (in-place)
I1228 13:26:24.262150 111726 net.cpp:228] Setting up drop6
I1228 13:26:24.262257 111726 net.cpp:235] Top shape: 64 4096 (262144)
I1228 13:26:24.262286 111726 net.cpp:243] Memory required for data: 529030656
I1228 13:26:24.262320 111726 layer_factory.hpp:114] Creating layer fc7
I1228 13:26:24.262440 111726 net.cpp:178] Creating Layer fc7
I1228 13:26:24.262496 111726 net.cpp:612] fc7 <- fc6
I1228 13:26:24.262544 111726 net.cpp:586] fc7 -> fc7
I1228 13:26:24.285557 110187 net.cpp:228] Setting up fc6
I1228 13:26:24.285854 110187 net.cpp:235] Top shape: 64 4096 (262144)
I1228 13:26:24.285900 110187 net.cpp:243] Memory required for data: 526933504
I1228 13:26:24.285962 110187 layer_factory.hpp:114] Creating layer relu6
I1228 13:26:24.286048 110187 net.cpp:178] Creating Layer relu6
I1228 13:26:24.286262 110187 net.cpp:612] relu6 <- fc6
I1228 13:26:24.286322 110187 net.cpp:573] relu6 -> fc6 (in-place)
I1228 13:26:24.286406 110187 net.cpp:228] Setting up relu6
I1228 13:26:24.286469 110187 net.cpp:235] Top shape: 64 4096 (262144)
I1228 13:26:24.286514 110187 net.cpp:243] Memory required for data: 527982080
I1228 13:26:24.286564 110187 layer_factory.hpp:114] Creating layer drop6
I1228 13:26:24.289175 110187 net.cpp:178] Creating Layer drop6
I1228 13:26:24.289263 110187 net.cpp:612] drop6 <- fc6
I1228 13:26:24.289330 110187 net.cpp:573] drop6 -> fc6 (in-place)
I1228 13:26:24.290612 110187 net.cpp:228] Setting up drop6
I1228 13:26:24.290707 110187 net.cpp:235] Top shape: 64 4096 (262144)
I1228 13:26:24.290745 110187 net.cpp:243] Memory required for data: 529030656
I1228 13:26:24.290817 110187 layer_factory.hpp:114] Creating layer fc7
I1228 13:26:24.290922 110187 net.cpp:178] Creating Layer fc7
I1228 13:26:24.290982 110187 net.cpp:612] fc7 <- fc6
I1228 13:26:24.291050 110187 net.cpp:586] fc7 -> fc7
I1228 13:26:37.334098 111726 net.cpp:228] Setting up fc7
I1228 13:26:37.335312 108582 net.cpp:228] Setting up fc7
I1228 13:26:37.334213 111726 net.cpp:235] Top shape: 64 4096 (262144)
I1228 13:26:37.334247 111726 net.cpp:243] Memory required for data: 530079232
I1228 13:26:37.335430 108582 net.cpp:235] Top shape: 64 4096 (262144)
I1228 13:26:37.335467 108582 net.cpp:243] Memory required for data: 530079232
I1228 13:26:37.334309 111726 layer_factory.hpp:114] Creating layer relu7
I1228 13:26:37.335528 108582 layer_factory.hpp:114] Creating layer relu7
I1228 13:26:37.334462 111726 net.cpp:178] Creating Layer relu7
I1228 13:26:37.335619 108582 net.cpp:178] Creating Layer relu7
I1228 13:26:37.334501 111726 net.cpp:612] relu7 <- fc7
I1228 13:26:37.335671 108582 net.cpp:612] relu7 <- fc7
I1228 13:26:37.334590 111726 net.cpp:573] relu7 -> fc7 (in-place)
I1228 13:26:37.335716 108582 net.cpp:573] relu7 -> fc7 (in-place)
I1228 13:26:37.334646 111726 net.cpp:228] Setting up relu7
I1228 13:26:37.335769 108582 net.cpp:228] Setting up relu7
I1228 13:26:37.334704 111726 net.cpp:235] Top shape: 64 4096 (262144)
I1228 13:26:37.334759 111726 net.cpp:243] Memory required for data: 531127808
I1228 13:26:37.334796 111726 layer_factory.hpp:114] Creating layer drop7
I1228 13:26:37.335811 108582 net.cpp:235] Top shape: 64 4096 (262144)
I1228 13:26:37.335866 108582 net.cpp:243] Memory required for data: 531127808
I1228 13:26:37.334837 111726 net.cpp:178] Creating Layer drop7
I1228 13:26:37.335901 108582 layer_factory.hpp:114] Creating layer drop7
I1228 13:26:37.334867 111726 net.cpp:612] drop7 <- fc7
I1228 13:26:37.335942 108582 net.cpp:178] Creating Layer drop7
I1228 13:26:37.334904 111726 net.cpp:573] drop7 -> fc7 (in-place)
I1228 13:26:37.335983 108582 net.cpp:612] drop7 <- fc7
I1228 13:26:37.336020 108582 net.cpp:573] drop7 -> fc7 (in-place)
I1228 13:26:37.334954 111726 net.cpp:228] Setting up drop7
I1228 13:26:37.336069 108582 net.cpp:228] Setting up drop7
I1228 13:26:37.335005 111726 net.cpp:235] Top shape: 64 4096 (262144)
I1228 13:26:37.335031 111726 net.cpp:243] Memory required for data: 532176384
I1228 13:26:37.336118 108582 net.cpp:235] Top shape: 64 4096 (262144)
I1228 13:26:37.335059 111726 layer_factory.hpp:114] Creating layer fc8
I1228 13:26:37.336143 108582 net.cpp:243] Memory required for data: 532176384
I1228 13:26:37.335109 111726 net.cpp:178] Creating Layer fc8
I1228 13:26:37.336182 108582 layer_factory.hpp:114] Creating layer fc8
I1228 13:26:37.335145 111726 net.cpp:612] fc8 <- fc7
I1228 13:26:37.336242 108582 net.cpp:178] Creating Layer fc8
I1228 13:26:37.335204 111726 net.cpp:586] fc8 -> fc8
I1228 13:26:37.336282 108582 net.cpp:612] fc8 <- fc7
I1228 13:26:37.336341 108582 net.cpp:586] fc8 -> fc8
I1228 13:26:37.355759 110187 net.cpp:228] Setting up fc7
I1228 13:26:37.355906 110187 net.cpp:235] Top shape: 64 4096 (262144)
I1228 13:26:37.355952 110187 net.cpp:243] Memory required for data: 530079232
I1228 13:26:37.356040 110187 layer_factory.hpp:114] Creating layer relu7
I1228 13:26:37.356120 110187 net.cpp:178] Creating Layer relu7
I1228 13:26:37.356181 110187 net.cpp:612] relu7 <- fc7
I1228 13:26:37.356254 110187 net.cpp:573] relu7 -> fc7 (in-place)
I1228 13:26:37.356322 110187 net.cpp:228] Setting up relu7
I1228 13:26:37.356376 110187 net.cpp:235] Top shape: 64 4096 (262144)
I1228 13:26:37.356421 110187 net.cpp:243] Memory required for data: 531127808
I1228 13:26:37.356459 110187 layer_factory.hpp:114] Creating layer drop7
I1228 13:26:37.356508 110187 net.cpp:178] Creating Layer drop7
I1228 13:26:37.356542 110187 net.cpp:612] drop7 <- fc7
I1228 13:26:37.356587 110187 net.cpp:573] drop7 -> fc7 (in-place)
I1228 13:26:37.356659 110187 net.cpp:228] Setting up drop7
I1228 13:26:37.356712 110187 net.cpp:235] Top shape: 64 4096 (262144)
I1228 13:26:37.356755 110187 net.cpp:243] Memory required for data: 532176384
I1228 13:26:37.356813 110187 layer_factory.hpp:114] Creating layer fc8
I1228 13:26:37.356890 110187 net.cpp:178] Creating Layer fc8
I1228 13:26:37.356940 110187 net.cpp:612] fc8 <- fc7
I1228 13:26:37.357022 110187 net.cpp:586] fc8 -> fc8
I1228 13:26:40.527309 111726 net.cpp:228] Setting up fc8
I1228 13:26:40.527428 111726 net.cpp:235] Top shape: 64 1000 (64000)
I1228 13:26:40.527465 111726 net.cpp:243] Memory required for data: 532432384
I1228 13:26:40.527526 111726 layer_factory.hpp:114] Creating layer fc8_fc8_0_split
I1228 13:26:40.527674 111726 net.cpp:178] Creating Layer fc8_fc8_0_split
I1228 13:26:40.527712 111726 net.cpp:612] fc8_fc8_0_split <- fc8
I1228 13:26:40.527806 111726 net.cpp:586] fc8_fc8_0_split -> fc8_fc8_0_split_0
I1228 13:26:40.527868 111726 net.cpp:586] fc8_fc8_0_split -> fc8_fc8_0_split_1
I1228 13:26:40.527940 111726 net.cpp:228] Setting up fc8_fc8_0_split
I1228 13:26:40.527984 111726 net.cpp:235] Top shape: 64 1000 (64000)
I1228 13:26:40.528028 111726 net.cpp:235] Top shape: 64 1000 (64000)
I1228 13:26:40.528059 111726 net.cpp:243] Memory required for data: 532944384
I1228 13:26:40.528090 111726 layer_factory.hpp:114] Creating layer accuracy
I1228 13:26:40.528333 111726 net.cpp:178] Creating Layer accuracy
I1228 13:26:40.528405 111726 net.cpp:612] accuracy <- fc8_fc8_0_split_0
I1228 13:26:40.528445 111726 net.cpp:612] accuracy <- label_data_1_split_0
I1228 13:26:40.528486 111726 net.cpp:586] accuracy -> accuracy
I1228 13:26:40.528690 111726 net.cpp:228] Setting up accuracy
I1228 13:26:40.528790 111726 net.cpp:235] Top shape: (1)
I1228 13:26:40.528821 111726 net.cpp:243] Memory required for data: 532944388
I1228 13:26:40.528965 111726 layer_factory.hpp:114] Creating layer loss
I1228 13:26:40.529163 111726 net.cpp:178] Creating Layer loss
I1228 13:26:40.529227 111726 net.cpp:612] loss <- fc8_fc8_0_split_1
I1228 13:26:40.529265 111726 net.cpp:612] loss <- label_data_1_split_1
I1228 13:26:40.529325 111726 net.cpp:586] loss -> loss
I1228 13:26:40.529649 111726 layer_factory.hpp:114] Creating layer loss
I1228 13:26:40.535361 108582 net.cpp:228] Setting up fc8
I1228 13:26:40.535480 108582 net.cpp:235] Top shape: 64 1000 (64000)
I1228 13:26:40.535516 108582 net.cpp:243] Memory required for data: 532432384
I1228 13:26:40.535579 108582 layer_factory.hpp:114] Creating layer fc8_fc8_0_split
I1228 13:26:40.535648 108582 net.cpp:178] Creating Layer fc8_fc8_0_split
I1228 13:26:40.535682 108582 net.cpp:612] fc8_fc8_0_split <- fc8
I1228 13:26:40.535754 108582 net.cpp:586] fc8_fc8_0_split -> fc8_fc8_0_split_0
I1228 13:26:40.535842 108582 net.cpp:586] fc8_fc8_0_split -> fc8_fc8_0_split_1
I1228 13:26:40.535907 108582 net.cpp:228] Setting up fc8_fc8_0_split
I1228 13:26:40.535955 108582 net.cpp:235] Top shape: 64 1000 (64000)
I1228 13:26:40.535989 108582 net.cpp:235] Top shape: 64 1000 (64000)
I1228 13:26:40.536012 108582 net.cpp:243] Memory required for data: 532944384
I1228 13:26:40.536042 108582 layer_factory.hpp:114] Creating layer accuracy
I1228 13:26:40.536288 108582 net.cpp:178] Creating Layer accuracy
I1228 13:26:40.536360 108582 net.cpp:612] accuracy <- fc8_fc8_0_split_0
I1228 13:26:40.536396 108582 net.cpp:612] accuracy <- label_data_1_split_0
I1228 13:26:40.536437 108582 net.cpp:586] accuracy -> accuracy
I1228 13:26:40.536648 108582 net.cpp:228] Setting up accuracy
I1228 13:26:40.536718 108582 net.cpp:235] Top shape: (1)
I1228 13:26:40.536747 108582 net.cpp:243] Memory required for data: 532944388
I1228 13:26:40.536921 108582 layer_factory.hpp:114] Creating layer loss
I1228 13:26:40.537120 108582 net.cpp:178] Creating Layer loss
I1228 13:26:40.537178 108582 net.cpp:612] loss <- fc8_fc8_0_split_1
I1228 13:26:40.537233 108582 net.cpp:612] loss <- label_data_1_split_1
I1228 13:26:40.537284 108582 net.cpp:586] loss -> loss
I1228 13:26:40.537613 108582 layer_factory.hpp:114] Creating layer loss
I1228 13:26:40.553918 110187 net.cpp:228] Setting up fc8
I1228 13:26:40.554080 110187 net.cpp:235] Top shape: 64 1000 (64000)
I1228 13:26:40.554322 110187 net.cpp:243] Memory required for data: 532432384
I1228 13:26:40.554411 110187 layer_factory.hpp:114] Creating layer fc8_fc8_0_split
I1228 13:26:40.554476 110187 net.cpp:178] Creating Layer fc8_fc8_0_split
I1228 13:26:40.554534 110187 net.cpp:612] fc8_fc8_0_split <- fc8
I1228 13:26:40.554613 110187 net.cpp:586] fc8_fc8_0_split -> fc8_fc8_0_split_0
I1228 13:26:40.554702 110187 net.cpp:586] fc8_fc8_0_split -> fc8_fc8_0_split_1
I1228 13:26:40.554774 110187 net.cpp:228] Setting up fc8_fc8_0_split
I1228 13:26:40.554868 110187 net.cpp:235] Top shape: 64 1000 (64000)
I1228 13:26:40.554929 110187 net.cpp:235] Top shape: 64 1000 (64000)
I1228 13:26:40.554965 110187 net.cpp:243] Memory required for data: 532944384
I1228 13:26:40.555007 110187 layer_factory.hpp:114] Creating layer accuracy
I1228 13:26:40.555265 110187 net.cpp:178] Creating Layer accuracy
I1228 13:26:40.555343 110187 net.cpp:612] accuracy <- fc8_fc8_0_split_0
I1228 13:26:40.555390 110187 net.cpp:612] accuracy <- label_data_1_split_0
I1228 13:26:40.555443 110187 net.cpp:586] accuracy -> accuracy
…
