…
I1226 14:16:41.897579 97473 cpu_info.cpp:473] Number of OpenMP threads: 66
I1226 14:16:41.910176 95408 net.cpp:136] Initializing net from parameters: 
name: "AlexNet"
state {
  phase: TRAIN
  level: 0
  stage: ""
}
engine: "MKL2017"
layer {
  name: "data"
  type: "Data"
  top: "data"
  top: "label"
  include {
    phase: TRAIN
  }
  transform_param {
    mirror: true
    crop_size: 227
    mean_value: 104
    mean_value: 117
    mean_value: 123
  }
  data_param {
    source: "/export/data1/stanford/hazy/zjian/gorden_bell/ILSVRC2012_lmdb/db_8/ilsvrc12_train_lmdb_4"
    batch_size: 128
    backend: LMDB
  }
}
layer {
  name: "label_data_1_split"
  type: "Split"
  bottom: "label"
  top: "label_data_1_split_0"
  top: "label_data_1_split_1"
}
layer {
  name: "conv1"
  type: "Convolution"
  bottom: "data"
  top: "conv1"
  param {
    lr_mult: 1
    decay_mult: 1
  }
  param {
    lr_mult: 2
    decay_mult: 0
  }
  convolution_param {
    num_output: 96
    kernel_size: 11
    stride: 4
    weight_filler {
      type: "gaussian"
      std: 0.01
    }
    bias_filler {
      type: "constant"
      value: 0
    }
    engine: MKL2017
  }
}
layer {
  name: "relu1"
  type: "ReLU"
  bottom: "conv1"
  top: "conv1"
  relu_param {
    engine: MKL2017
  }
}
layer {
  name: "norm1"
  type: "LRN"
  bottom: "conv1"
  top: "norm1"
  lrn_param {
    local_size: 5
    alpha: 0.0001
    beta: 0.75
    engine: MKL2017
  }
}
layer {
  name: "pool1"
  type: "Pooling"
  bottom: "norm1"
  top: "pool1"
  pooling_param {
    pool: MAX
    kernel_size: 3
    stride: 2
    engine: MKL2017
  }
}
layer {
  name: "conv2"
  type: "Convolution"
  bottom: "pool1"
  top: "conv2"
  param {
    lr_mult: 1
    decay_mult: 1
  }
  param {
    lr_mult: 2
    decay_mult: 0
  }
  convolution_param {
    num_output: 256
    pad: 2
    kernel_size: 5
    group: 2
    weight_filler {
      type: "gaussian"
      std: 0.01
    }
    bias_filler {
      type: "constant"
      value: 0.1
    }
    engine: MKL2017
  }
}
layer {
  name: "relu2"
  type: "ReLU"
  bottom: "conv2"
  top: "conv2"
  relu_param {
    engine: MKL2017
  }
}
layer {
  name: "norm2"
  type: "LRN"
  bottom: "conv2"
  top: "norm2"
  lrn_param {
    local_size: 5
    alpha: 0.0001
    beta: 0.75
    engine: MKL2017
  }
}
layer {
  name: "pool2"
  type: "Pooling"
  bottom: "norm2"
  top: "pool2"
  pooling_param {
    pool: MAX
    kernel_size: 3
    stride: 2
    engine: MKL2017
  }
}
layer {
  name: "conv3"
  type: "Convolution"
  bottom: "pool2"
  top: "conv3"
  param {
    lr_mult: 1
    decay_mult: 1
  }
  param {
    lr_mult: 2
    decay_mult: 0
  }
  convolution_param {
    num_output: 384
    pad: 1
    kernel_size: 3
    weight_filler {
      type: "gaussian"
      std: 0.01
    }
    bias_filler {
      type: "constant"
      value: 0
    }
    engine: MKL2017
  }
}
layer {
  name: "relu3"
  type: "ReLU"
  bottom: "conv3"
  top: "conv3"
  relu_param {
    engine: MKL2017
  }
}
layer {
  name: "conv4"
  type: "Convolution"
  bottom: "conv3"
  top: "conv4"
  param {
    lr_mult: 1
    decay_mult: 1
  }
  param {
    lr_mult: 2
    decay_mult: 0
  }
  convolution_param {
    num_output: 384
    pad: 1
    kernel_size: 3
    group: 2
    weight_filler {
      type: "gaussian"
      std: 0.01
    }
    bias_filler {
      type: "constant"
      value: 0.1
    }
    engine: MKL2017
  }
}
layer {
  name: "relu4"
  type: "ReLU"
  bottom: "conv4"
  top: "conv4"
  relu_param {
    engine: MKL2017
  }
}
layer {
  name: "conv5"
  type: "Convolution"
  bottom: "conv4"
  top: "conv5"
  param {
    lr_mult: 1
    decay_mult: 1
  }
  param {
    lr_mult: 2
    decay_mult: 0
  }
  convolution_param {
    num_output: 256
    pad: 1
    kernel_size: 3
    group: 2
    weight_filler {
      type: "gaussian"
      std: 0.01
    }
    bias_filler {
      type: "constant"
      value: 0.1
    }
    engine: MKL2017
  }
}
layer {
  name: "relu5"
  type: "ReLU"
  bottom: "conv5"
  top: "conv5"
  relu_param {
    engine: MKL2017
  }
}
layer {
  name: "pool5"
  type: "Pooling"
  bottom: "conv5"
  top: "pool5"
  pooling_param {
    pool: MAX
    kernel_size: 3
    stride: 2
    engine: MKL2017
  }
}
layer {
  name: "fc6"
  type: "InnerProduct"
  bottom: "pool5"
  top: "fc6"
  param {
    lr_mult: 1
    decay_mult: 1
  }
  param {
    lr_mult: 2
    decay_mult: 0
  }
  inner_product_param {
    num_output: 4096
    weight_filler {
      type: "gaussian"
      std: 0.005
    }
    bias_filler {
      type: "constant"
      value: 0.1
    }
  }
}
layer {
  name: "relu6"
  type: "ReLU"
  bottom: "fc6"
  top: "fc6"
}
layer {
  name: "drop6"
  type: "Dropout"
  bottom: "fc6"
  top: "fc6"
  dropout_param {
    dropout_ratio: 0.5
  }
}
layer {
  name: "fc7"
  type: "InnerProduct"
  bottom: "fc6"
  top: "fc7"
  param {
    lr_mult: 1
    decay_mult: 1
  }
  param {
    lr_mult: 2
    decay_mult: 0
  }
  inner_product_param {
    num_output: 4096
    weight_filler {
      type: "gaussian"
      std: 0.005
    }
    bias_filler {
      type: "constant"
      value: 0.1
    }
  }
}
layer {
  name: "relu7"
  type: "ReLU"
  bottom: "fc7"
  top: "fc7"
}
layer {
  name: "drop7"
  type: "Dropout"
  bottom: "fc7"
  top: "fc7"
  dropout_param {
    dropout_ratio: 0.5
  }
}
layer {
  name: "fc8"
  type: "InnerProduct"
  bottom: "fc7"
  top: "fc8"
  param {
    lr_mult: 1
    decay_mult: 1
  }
  param {
    lr_mult: 2
    decay_mult: 0
  }
  inner_product_param {
    num_output: 1000
    weight_filler {
      type: "gaussian"
      std: 0.01
    }
    bias_filler {
      type: "constant"
      value: 0
    }
  }
}
layer {
  name: "fc8_fc8_0_split"
  type: "Split"
  bottom: "fc8"
  top: "fc8_fc8_0_split_0"
  top: "fc8_fc8_0_split_1"
}
layer {
  name: "accuracy"
  type: "Accuracy"
  bottom: "fc8_fc8_0_split_0"
  bottom: "label_data_1_split_0"
  top: "accuracy"
}
layer {
  name: "loss"
  type: "SoftmaxWithLoss"
  bottom: "fc8_fc8_0_split_1"
  bottom: "label_data_1_split_1"
  top: "loss"
}
I1226 14:16:41.897994 97473 net.cpp:500] The NetState phase (0) differed from the phase (1) specified by a rule in layer data
I1226 14:16:41.910456 95408 layer_factory.hpp:114] Creating layer data
I1226 14:16:41.899479 97044 cpu_info.cpp:473] Number of OpenMP threads: 66
I1226 14:16:41.899901 97044 net.cpp:500] The NetState phase (0) differed from the phase (1) specified by a rule in layer data
I1226 14:16:41.900104 97473 net.cpp:136] Initializing net from parameters: 
name: "AlexNet"
state {
  phase: TRAIN
  level: 0
  stage: ""
}
engine: "MKL2017"
layer {
  name: "data"
  type: "Data"
  top: "data"
  top: "label"
  include {
    phase: TRAIN
  }
  transform_param {
    mirror: true
    crop_size: 227
    mean_value: 104
    mean_value: 117
    mean_value: 123
  }
  data_param {
    source: "/export/data1/stanford/hazy/zjian/gorden_bell/ILSVRC2012_lmdb/db_8/ilsvrc12_train_lmdb_2"
    batch_size: 128
    backend: LMDB
  }
}
layer {
  name: "label_data_1_split"
  type: "Split"
  bottom: "label"
  top: "label_data_1_split_0"
  top: "label_data_1_split_1"
}
layer {
  name: "conv1"
  type: "Convolution"
  bottom: "data"
  top: "conv1"
  param {
    lr_mult: 1
    decay_mult: 1
  }
  param {
    lr_mult: 2
    decay_mult: 0
  }
  convolution_param {
    num_output: 96
    kernel_size: 11
    stride: 4
    weight_filler {
      type: "gaussian"
      std: 0.01
    }
    bias_filler {
      type: "constant"
      value: 0
    }
    engine: MKL2017
  }
}
layer {
  name: "relu1"
  type: "ReLU"
  bottom: "conv1"
  top: "conv1"
  relu_param {
    engine: MKL2017
  }
}
layer {
  name: "norm1"
  type: "LRN"
  bottom: "conv1"
  top: "norm1"
  lrn_param {
    local_size: 5
    alpha: 0.0001
    beta: 0.75
    engine: MKL2017
  }
}
layer {
  name: "pool1"
  type: "Pooling"
  bottom: "norm1"
  top: "pool1"
  pooling_param {
    pool: MAX
    kernel_size: 3
    stride: 2
    engine: MKL2017
  }
}
layer {
  name: "conv2"
  type: "Convolution"
  bottom: "pool1"
  top: "conv2"
  param {
    lr_mult: 1
    decay_mult: 1
  }
  param {
    lr_mult: 2
    decay_mult: 0
  }
  convolution_param {
    num_output: 256
    pad: 2
    kernel_size: 5
    group: 2
    weight_filler {
      type: "gaussian"
      std: 0.01
    }
    bias_filler {
      type: "constant"
      value: 0.1
    }
    engine: MKL2017
  }
}
layer {
  name: "relu2"
  type: "ReLU"
  bottom: "conv2"
  top: "conv2"
  relu_param {
    engine: MKL2017
  }
}
layer {
  name: "norm2"
  type: "LRN"
  bottom: "conv2"
  top: "norm2"
  lrn_param {
    local_size: 5
    alpha: 0.0001
    beta: 0.75
    engine: MKL2017
  }
}
layer {
  name: "pool2"
  type: "Pooling"
  bottom: "norm2"
  top: "pool2"
  pooling_param {
    pool: MAX
    kernel_size: 3
    stride: 2
    engine: MKL2017
  }
}
layer {
  name: "conv3"
  type: "Convolution"
  bottom: "pool2"
  top: "conv3"
  param {
    lr_mult: 1
    decay_mult: 1
  }
  param {
    lr_mult: 2
    decay_mult: 0
  }
  convolution_param {
    num_output: 384
    pad: 1
    kernel_size: 3
    weight_filler {
      type: "gaussian"
      std: 0.01
    }
    bias_filler {
      type: "constant"
      value: 0
    }
    engine: MKL2017
  }
}
layer {
  name: "relu3"
  type: "ReLU"
  bottom: "conv3"
  top: "conv3"
  relu_param {
    engine: MKL2017
  }
}
layer {
  name: "conv4"
  type: "Convolution"
  bottom: "conv3"
  top: "conv4"
  param {
    lr_mult: 1
    decay_mult: 1
  }
  param {
    lr_mult: 2
    decay_mult: 0
  }
  convolution_param {
    num_output: 384
    pad: 1
    kernel_size: 3
    group: 2
    weight_filler {
      type: "gaussian"
      std: 0.01
    }
    bias_filler {
      type: "constant"
      value: 0.1
    }
    engine: MKL2017
  }
}
layer {
  name: "relu4"
  type: "ReLU"
  bottom: "conv4"
  top: "conv4"
  relu_param {
    engine: MKL2017
  }
}
layer {
  name: "conv5"
  type: "Convolution"
  bottom: "conv4"
  top: "conv5"
  param {
    lr_mult: 1
    decay_mult: 1
  }
  param {
    lr_mult: 2
    decay_mult: 0
  }
  convolution_param {
    num_output: 256
    pad: 1
    kernel_size: 3
    group: 2
    weight_filler {
      type: "gaussian"
      std: 0.01
    }
    bias_filler {
      type: "constant"
      value: 0.1
    }
    engine: MKL2017
  }
}
layer {
  name: "relu5"
  type: "ReLU"
  bottom: "conv5"
  top: "conv5"
  relu_param {
    engine: MKL2017
  }
}
layer {
  name: "pool5"
  type: "Pooling"
  bottom: "conv5"
  top: "pool5"
  pooling_param {
    pool: MAX
    kernel_size: 3
    stride: 2
    engine: MKL2017
  }
}
layer {
  name: "fc6"
  type: "InnerProduct"
  bottom: "pool5"
  top: "fc6"
  param {
    lr_mult: 1
    decay_mult: 1
  }
  param {
    lr_mult: 2
    decay_mult: 0
  }
  inner_product_param {
    num_output: 4096
    weight_filler {
      type: "gaussian"
      std: 0.005
    }
    bias_filler {
      type: "constant"
      value: 0.1
    }
  }
}
layer {
  name: "relu6"
  type: "ReLU"
  bottom: "fc6"
  top: "fc6"
}
layer {
  name: "drop6"
  type: "Dropout"
  bottom: "fc6"
  top: "fc6"
  dropout_param {
    dropout_ratio: 0.5
  }
}
layer {
  name: "fc7"
  type: "InnerProduct"
  bottom: "fc6"
  top: "fc7"
  param {
    lr_mult: 1
    decay_mult: 1
  }
  param {
    lr_mult: 2
    decay_mult: 0
  }
  inner_product_param {
    num_output: 4096
    weight_filler {
      type: "gaussian"
      std: 0.005
    }
    bias_filler {
      type: "constant"
      value: 0.1
    }
  }
}
layer {
  name: "relu7"
  type: "ReLU"
  bottom: "fc7"
  top: "fc7"
}
layer {
  name: "drop7"
  type: "Dropout"
  bottom: "fc7"
  top: "fc7"
  dropout_param {
    dropout_ratio: 0.5
  }
}
layer {
  name: "fc8"
  type: "InnerProduct"
  bottom: "fc7"
  top: "fc8"
  param {
    lr_mult: 1
    decay_mult: 1
  }
  param {
    lr_mult: 2
    decay_mult: 0
  }
  inner_product_param {
    num_output: 1000
    weight_filler {
      type: "gaussian"
      std: 0.01
    }
    bias_filler {
      type: "constant"
      value: 0
    }
  }
}
layer {
  name: "fc8_fc8_0_split"
  type: "Split"
  bottom: "fc8"
  top: "fc8_fc8_0_split_0"
  top: "fc8_fc8_0_split_1"
}
layer {
  name: "accuracy"
  type: "Accuracy"
  bottom: "fc8_fc8_0_split_0"
  bottom: "label_data_1_split_0"
  top: "accuracy"
}
layer {
  name: "loss"
  type: "SoftmaxWithLoss"
  bottom: "fc8_fc8_0_split_1"
  bottom: "label_data_1_split_1"
  top: "loss"
}
I1226 14:16:41.913069 95408 net.cpp:178] Creating Layer data
I1226 14:16:41.913192 95408 net.cpp:586] data -> data
I1226 14:16:41.913302 95408 net.cpp:586] data -> label
I1226 14:16:41.901985 97044 net.cpp:136] Initializing net from parameters: 
name: "AlexNet"
state {
  phase: TRAIN
  level: 0
  stage: ""
}
engine: "MKL2017"
layer {
  name: "data"
  type: "Data"
  top: "data"
  top: "label"
  include {
    phase: TRAIN
  }
  transform_param {
    mirror: true
    crop_size: 227
    mean_value: 104
    mean_value: 117
    mean_value: 123
  }
  data_param {
    source: "/export/data1/stanford/hazy/zjian/gorden_bell/ILSVRC2012_lmdb/db_8/ilsvrc12_train_lmdb_7"
    batch_size: 128
    backend: LMDB
  }
}
layer {
  name: "label_data_1_split"
  type: "Split"
  bottom: "label"
  top: "label_data_1_split_0"
  top: "label_data_1_split_1"
}
layer {
  name: "conv1"
  type: "Convolution"
  bottom: "data"
  top: "conv1"
  param {
    lr_mult: 1
    decay_mult: 1
  }
  param {
    lr_mult: 2
    decay_mult: 0
  }
  convolution_param {
    num_output: 96
    kernel_size: 11
    stride: 4
    weight_filler {
      type: "gaussian"
      std: 0.01
    }
    bias_filler {
      type: "constant"
      value: 0
    }
    engine: MKL2017
  }
}
layer {
  name: "relu1"
  type: "ReLU"
  bottom: "conv1"
  top: "conv1"
  relu_param {
    engine: MKL2017
  }
}
layer {
  name: "norm1"
  type: "LRN"
  bottom: "conv1"
  top: "norm1"
  lrn_param {
    local_size: 5
    alpha: 0.0001
    beta: 0.75
    engine: MKL2017
  }
}
layer {
  name: "pool1"
  type: "Pooling"
  bottom: "norm1"
  top: "pool1"
  pooling_param {
    pool: MAX
    kernel_size: 3
    stride: 2
    engine: MKL2017
  }
}
layer {
  name: "conv2"
  type: "Convolution"
  bottom: "pool1"
  top: "conv2"
  param {
    lr_mult: 1
    decay_mult: 1
  }
  param {
    lr_mult: 2
    decay_mult: 0
  }
  convolution_param {
    num_output: 256
    pad: 2
    kernel_size: 5
    group: 2
    weight_filler {
      type: "gaussian"
      std: 0.01
    }
    bias_filler {
      type: "constant"
      value: 0.1
    }
    engine: MKL2017
  }
}
layer {
  name: "relu2"
  type: "ReLU"
  bottom: "conv2"
  top: "conv2"
  relu_param {
    engine: MKL2017
  }
}
layer {
  name: "norm2"
  type: "LRN"
  bottom: "conv2"
  top: "norm2"
  lrn_param {
    local_size: 5
    alpha: 0.0001
    beta: 0.75
    engine: MKL2017
  }
}
layer {
  name: "pool2"
  type: "Pooling"
  bottom: "norm2"
  top: "pool2"
  pooling_param {
    pool: MAX
    kernel_size: 3
    stride: 2
    engine: MKL2017
  }
}
layer {
  name: "conv3"
  type: "Convolution"
  bottom: "pool2"
  top: "conv3"
  param {
    lr_mult: 1
    decay_mult: 1
  }
  param {
    lr_mult: 2
    decay_mult: 0
  }
  convolution_param {
    num_output: 384
    pad: 1
    kernel_size: 3
    weight_filler {
      type: "gaussian"
      std: 0.01
    }
    bias_filler {
      type: "constant"
      value: 0
    }
    engine: MKL2017
  }
}
layer {
  name: "relu3"
  type: "ReLU"
  bottom: "conv3"
  top: "conv3"
  relu_param {
    engine: MKL2017
  }
}
layer {
  name: "conv4"
  type: "Convolution"
  bottom: "conv3"
  top: "conv4"
  param {
    lr_mult: 1
    decay_mult: 1
  }
  param {
    lr_mult: 2
    decay_mult: 0
  }
  convolution_param {
    num_output: 384
    pad: 1
    kernel_size: 3
    group: 2
    weight_filler {
      type: "gaussian"
      std: 0.01
    }
    bias_filler {
      type: "constant"
      value: 0.1
    }
    engine: MKL2017
  }
}
layer {
  name: "relu4"
  type: "ReLU"
  bottom: "conv4"
  top: "conv4"
  relu_param {
    engine: MKL2017
  }
}
layer {
  name: "conv5"
  type: "Convolution"
  bottom: "conv4"
  top: "conv5"
  param {
    lr_mult: 1
    decay_mult: 1
  }
  param {
    lr_mult: 2
    decay_mult: 0
  }
  convolution_param {
    num_output: 256
    pad: 1
    kernel_size: 3
    group: 2
    weight_filler {
      type: "gaussian"
      std: 0.01
    }
    bias_filler {
      type: "constant"
      value: 0.1
    }
    engine: MKL2017
  }
}
layer {
  name: "relu5"
  type: "ReLU"
  bottom: "conv5"
  top: "conv5"
  relu_param {
    engine: MKL2017
  }
}
layer {
  name: "pool5"
  type: "Pooling"
  bottom: "conv5"
  top: "pool5"
  pooling_param {
    pool: MAX
    kernel_size: 3
    stride: 2
    engine: MKL2017
  }
}
layer {
  name: "fc6"
  type: "InnerProduct"
  bottom: "pool5"
  top: "fc6"
  param {
    lr_mult: 1
    decay_mult: 1
  }
  param {
    lr_mult: 2
    decay_mult: 0
  }
  inner_product_param {
    num_output: 4096
    weight_filler {
      type: "gaussian"
      std: 0.005
    }
    bias_filler {
      type: "constant"
      value: 0.1
    }
  }
}
layer {
  name: "relu6"
  type: "ReLU"
  bottom: "fc6"
  top: "fc6"
}
layer {
  name: "drop6"
  type: "Dropout"
  bottom: "fc6"
  top: "fc6"
  dropout_param {
    dropout_ratio: 0.5
  }
}
layer {
  name: "fc7"
  type: "InnerProduct"
  bottom: "fc6"
  top: "fc7"
  param {
    lr_mult: 1
    decay_mult: 1
  }
  param {
    lr_mult: 2
    decay_mult: 0
  }
  inner_product_param {
    num_output: 4096
    weight_filler {
      type: "gaussian"
      std: 0.005
    }
    bias_filler {
      type: "constant"
      value: 0.1
    }
  }
}
layer {
  name: "relu7"
  type: "ReLU"
  bottom: "fc7"
  top: "fc7"
}
layer {
  name: "drop7"
  type: "Dropout"
  bottom: "fc7"
  top: "fc7"
  dropout_param {
    dropout_ratio: 0.5
  }
}
layer {
  name: "fc8"
  type: "InnerProduct"
  bottom: "fc7"
  top: "fc8"
  param {
    lr_mult: 1
    decay_mult: 1
  }
  param {
    lr_mult: 2
    decay_mult: 0
  }
  inner_product_param {
    num_output: 1000
    weight_filler {
      type: "gaussian"
      std: 0.01
    }
    bias_filler {
      type: "constant"
      value: 0
    }
  }
}
layer {
  name: "fc8_fc8_0_split"
  type: "Split"
  bottom: "fc8"
  top: "fc8_fc8_0_split_0"
  top: "fc8_fc8_0_split_1"
}
layer {
  name: "accuracy"
  type: "Accuracy"
  bottom: "fc8_fc8_0_split_0"
  bottom: "label_data_1_split_0"
  top: "accuracy"
}
layer {
  name: "loss"
  type: "SoftmaxWithLoss"
  bottom: "fc8_fc8_0_split_1"
  bottom: "label_data_1_split_1"
  top: "loss"
}
I1226 14:16:41.902267 97044 layer_factory.hpp:114] Creating layer data
I1226 14:16:41.904865 97044 net.cpp:178] Creating Layer data
I1226 14:16:41.904996 97044 net.cpp:586] data -> data
I1226 14:16:41.905117 97044 net.cpp:586] data -> label
I1226 14:16:41.930790 91408 cpu_info.cpp:473] Number of OpenMP threads: 66
I1226 14:16:41.931077 91408 net.cpp:500] The NetState phase (0) differed from the phase (1) specified by a rule in layer data
I1226 14:16:41.908221 97473 layer_factory.hpp:114] Creating layer data
I1226 14:16:41.932648 91408 net.cpp:136] Initializing net from parameters: 
name: "AlexNet"
state {
  phase: TRAIN
  level: 0
  stage: ""
}
engine: "MKL2017"
layer {
  name: "data"
  type: "Data"
  top: "data"
  top: "label"
  include {
    phase: TRAIN
  }
  transform_param {
    mirror: true
    crop_size: 227
    mean_value: 104
    mean_value: 117
    mean_value: 123
  }
  data_param {
    source: "/export/data1/stanford/hazy/zjian/gorden_bell/ILSVRC2012_lmdb/db_8/ilsvrc12_train_lmdb_5"
    batch_size: 128
    backend: LMDB
  }
}
layer {
  name: "label_data_1_split"
  type: "Split"
  bottom: "label"
  top: "label_data_1_split_0"
  top: "label_data_1_split_1"
}
layer {
  name: "conv1"
  type: "Convolution"
  bottom: "data"
  top: "conv1"
  param {
    lr_mult: 1
    decay_mult: 1
  }
  param {
    lr_mult: 2
    decay_mult: 0
  }
  convolution_param {
    num_output: 96
    kernel_size: 11
    stride: 4
    weight_filler {
      type: "gaussian"
      std: 0.01
    }
    bias_filler {
      type: "constant"
      value: 0
    }
    engine: MKL2017
  }
}
layer {
  name: "relu1"
  type: "ReLU"
  bottom: "conv1"
  top: "conv1"
  relu_param {
    engine: MKL2017
  }
}
layer {
  name: "norm1"
  type: "LRN"
  bottom: "conv1"
  top: "norm1"
  lrn_param {
    local_size: 5
    alpha: 0.0001
    beta: 0.75
    engine: MKL2017
  }
}
layer {
  name: "pool1"
  type: "Pooling"
  bottom: "norm1"
  top: "pool1"
  pooling_param {
    pool: MAX
    kernel_size: 3
    stride: 2
    engine: MKL2017
  }
}
layer {
  name: "conv2"
  type: "Convolution"
  bottom: "pool1"
  top: "conv2"
  param {
    lr_mult: 1
    decay_mult: 1
  }
  param {
    lr_mult: 2
    decay_mult: 0
  }
  convolution_param {
    num_output: 256
    pad: 2
    kernel_size: 5
    group: 2
    weight_filler {
      type: "gaussian"
      std: 0.01
    }
    bias_filler {
      type: "constant"
      value: 0.1
    }
    engine: MKL2017
  }
}
layer {
  name: "relu2"
  type: "ReLU"
  bottom: "conv2"
  top: "conv2"
  relu_param {
    engine: MKL2017
  }
}
layer {
  name: "norm2"
  type: "LRN"
  bottom: "conv2"
  top: "norm2"
  lrn_param {
    local_size: 5
    alpha: 0.0001
    beta: 0.75
    engine: MKL2017
  }
}
layer {
  name: "pool2"
  type: "Pooling"
  bottom: "norm2"
  top: "pool2"
  pooling_param {
    pool: MAX
    kernel_size: 3
    stride: 2
    engine: MKL2017
  }
}
layer {
  name: "conv3"
  type: "Convolution"
  bottom: "pool2"
  top: "conv3"
  param {
    lr_mult: 1
    decay_mult: 1
  }
  param {
    lr_mult: 2
    decay_mult: 0
  }
  convolution_param {
    num_output: 384
    pad: 1
    kernel_size: 3
    weight_filler {
      type: "gaussian"
      std: 0.01
    }
    bias_filler {
      type: "constant"
      value: 0
    }
    engine: MKL2017
  }
}
layer {
  name: "relu3"
  type: "ReLU"
  bottom: "conv3"
  top: "conv3"
  relu_param {
    engine: MKL2017
  }
}
layer {
  name: "conv4"
  type: "Convolution"
  bottom: "conv3"
  top: "conv4"
  param {
    lr_mult: 1
    decay_mult: 1
  }
  param {
    lr_mult: 2
    decay_mult: 0
  }
  convolution_param {
    num_output: 384
    pad: 1
    kernel_size: 3
    group: 2
    weight_filler {
      type: "gaussian"
      std: 0.01
    }
    bias_filler {
      type: "constant"
      value: 0.1
    }
    engine: MKL2017
  }
}
layer {
  name: "relu4"
  type: "ReLU"
  bottom: "conv4"
  top: "conv4"
  relu_param {
    engine: MKL2017
  }
}
layer {
  name: "conv5"
  type: "Convolution"
  bottom: "conv4"
  top: "conv5"
  param {
    lr_mult: 1
    decay_mult: 1
  }
  param {
    lr_mult: 2
    decay_mult: 0
  }
  convolution_param {
    num_output: 256
    pad: 1
    kernel_size: 3
    group: 2
    weight_filler {
      type: "gaussian"
      std: 0.01
    }
    bias_filler {
      type: "constant"
      value: 0.1
    }
    engine: MKL2017
  }
}
layer {
  name: "relu5"
  type: "ReLU"
  bottom: "conv5"
  top: "conv5"
  relu_param {
    engine: MKL2017
  }
}
layer {
  name: "pool5"
  type: "Pooling"
  bottom: "conv5"
  top: "pool5"
  pooling_param {
    pool: MAX
    kernel_size: 3
    stride: 2
    engine: MKL2017
  }
}
layer {
  name: "fc6"
  type: "InnerProduct"
  bottom: "pool5"
  top: "fc6"
  param {
    lr_mult: 1
    decay_mult: 1
  }
  param {
    lr_mult: 2
    decay_mult: 0
  }
  inner_product_param {
    num_output: 4096
    weight_filler {
      type: "gaussian"
      std: 0.005
    }
    bias_filler {
      type: "constant"
      value: 0.1
    }
  }
}
layer {
  name: "relu6"
  type: "ReLU"
  bottom: "fc6"
  top: "fc6"
}
layer {
  name: "drop6"
  type: "Dropout"
  bottom: "fc6"
  top: "fc6"
  dropout_param {
    dropout_ratio: 0.5
  }
}
layer {
  name: "fc7"
  type: "InnerProduct"
  bottom: "fc6"
  top: "fc7"
  param {
    lr_mult: 1
    decay_mult: 1
  }
  param {
    lr_mult: 2
    decay_mult: 0
  }
  inner_product_param {
    num_output: 4096
    weight_filler {
      type: "gaussian"
      std: 0.005
    }
    bias_filler {
      type: "constant"
      value: 0.1
    }
  }
}
layer {
  name: "relu7"
  type: "ReLU"
  bottom: "fc7"
  top: "fc7"
}
layer {
  name: "drop7"
  type: "Dropout"
  bottom: "fc7"
  top: "fc7"
  dropout_param {
    dropout_ratio: 0.5
  }
}
layer {
  name: "fc8"
  type: "InnerProduct"
  bottom: "fc7"
  top: "fc8"
  param {
    lr_mult: 1
    decay_mult: 1
  }
  param {
    lr_mult: 2
    decay_mult: 0
  }
  inner_product_param {
    num_output: 1000
    weight_filler {
      type: "gaussian"
      std: 0.01
    }
    bias_filler {
      type: "constant"
      value: 0
    }
  }
}
layer {
  name: "fc8_fc8_0_split"
  type: "Split"
  bottom: "fc8"
  top: "fc8_fc8_0_split_0"
  top: "fc8_fc8_0_split_1"
}
layer {
  name: "accuracy"
  type: "Accuracy"
  bottom: "fc8_fc8_0_split_0"
  bottom: "label_data_1_split_0"
  top: "accuracy"
}
layer {
  name: "loss"
  type: "SoftmaxWithLoss"
  bottom: "fc8_fc8_0_split_1"
  bottom: "label_data_1_split_1"
  top: "loss"
}
I1226 14:16:41.924496 93418 cpu_info.cpp:473] Number of OpenMP threads: 66
I1226 14:16:41.924887 93418 net.cpp:500] The NetState phase (0) differed from the phase (1) specified by a rule in layer data
I1226 14:16:41.925421 93636 cpu_info.cpp:473] Number of OpenMP threads: 66
I1226 14:16:41.925792 93636 net.cpp:500] The NetState phase (0) differed from the phase (1) specified by a rule in layer data
I1226 14:16:41.926427 93418 net.cpp:136] Initializing net from parameters: 
name: "AlexNet"
state {
  phase: TRAIN
  level: 0
  stage: ""
}
engine: "MKL2017"
layer {
  name: "data"
  type: "Data"
  top: "data"
  top: "label"
  include {
    phase: TRAIN
  }
  transform_param {
    mirror: true
    crop_size: 227
    mean_value: 104
    mean_value: 117
    mean_value: 123
  }
  data_param {
    source: "/export/data1/stanford/hazy/zjian/gorden_bell/ILSVRC2012_lmdb/db_8/ilsvrc12_train_lmdb_0"
    batch_size: 128
    backend: LMDB
  }
}
layer {
  name: "label_data_1_split"
  type: "Split"
  bottom: "label"
  top: "label_data_1_split_0"
  top: "label_data_1_split_1"
}
layer {
  name: "conv1"
  type: "Convolution"
  bottom: "data"
  top: "conv1"
  param {
    lr_mult: 1
    decay_mult: 1
  }
  param {
    lr_mult: 2
    decay_mult: 0
  }
  convolution_param {
    num_output: 96
    kernel_size: 11
    stride: 4
    weight_filler {
      type: "gaussian"
      std: 0.01
    }
    bias_filler {
      type: "constant"
      value: 0
    }
    engine: MKL2017
  }
}
layer {
  name: "relu1"
  type: "ReLU"
  bottom: "conv1"
  top: "conv1"
  relu_param {
    engine: MKL2017
  }
}
layer {
  name: "norm1"
  type: "LRN"
  bottom: "conv1"
  top: "norm1"
  lrn_param {
    local_size: 5
    alpha: 0.0001
    beta: 0.75
    engine: MKL2017
  }
}
layer {
  name: "pool1"
  type: "Pooling"
  bottom: "norm1"
  top: "pool1"
  pooling_param {
    pool: MAX
    kernel_size: 3
    stride: 2
    engine: MKL2017
  }
}
layer {
  name: "conv2"
  type: "Convolution"
  bottom: "pool1"
  top: "conv2"
  param {
    lr_mult: 1
    decay_mult: 1
  }
  param {
    lr_mult: 2
    decay_mult: 0
  }
  convolution_param {
    num_output: 256
    pad: 2
    kernel_size: 5
    group: 2
    weight_filler {
      type: "gaussian"
      std: 0.01
    }
    bias_filler {
      type: "constant"
      value: 0.1
    }
    engine: MKL2017
  }
}
layer {
  name: "relu2"
  type: "ReLU"
  bottom: "conv2"
  top: "conv2"
  relu_param {
    engine: MKL2017
  }
}
layer {
  name: "norm2"
  type: "LRN"
  bottom: "conv2"
  top: "norm2"
  lrn_param {
    local_size: 5
    alpha: 0.0001
    beta: 0.75
    engine: MKL2017
  }
}
layer {
  name: "pool2"
  type: "Pooling"
  bottom: "norm2"
  top: "pool2"
  pooling_param {
    pool: MAX
    kernel_size: 3
    stride: 2
    engine: MKL2017
  }
}
layer {
  name: "conv3"
  type: "Convolution"
  bottom: "pool2"
  top: "conv3"
  param {
    lr_mult: 1
    decay_mult: 1
  }
  param {
    lr_mult: 2
    decay_mult: 0
  }
  convolution_param {
    num_output: 384
    pad: 1
    kernel_size: 3
    weight_filler {
      type: "gaussian"
      std: 0.01
    }
    bias_filler {
      type: "constant"
      value: 0
    }
    engine: MKL2017
  }
}
layer {
  name: "relu3"
  type: "ReLU"
  bottom: "conv3"
  top: "conv3"
  relu_param {
    engine: MKL2017
  }
}
layer {
  name: "conv4"
  type: "Convolution"
  bottom: "conv3"
  top: "conv4"
  param {
    lr_mult: 1
    decay_mult: 1
  }
  param {
    lr_mult: 2
    decay_mult: 0
  }
  convolution_param {
    num_output: 384
    pad: 1
    kernel_size: 3
    group: 2
    weight_filler {
      type: "gaussian"
      std: 0.01
    }
    bias_filler {
      type: "constant"
      value: 0.1
    }
    engine: MKL2017
  }
}
layer {
  name: "relu4"
  type: "ReLU"
  bottom: "conv4"
  top: "conv4"
  relu_param {
    engine: MKL2017
  }
}
layer {
  name: "conv5"
  type: "Convolution"
  bottom: "conv4"
  top: "conv5"
  param {
    lr_mult: 1
    decay_mult: 1
  }
  param {
    lr_mult: 2
    decay_mult: 0
  }
  convolution_param {
    num_output: 256
    pad: 1
    kernel_size: 3
    group: 2
    weight_filler {
      type: "gaussian"
      std: 0.01
    }
    bias_filler {
      type: "constant"
      value: 0.1
    }
    engine: MKL2017
  }
}
layer {
  name: "relu5"
  type: "ReLU"
  bottom: "conv5"
  top: "conv5"
  relu_param {
    engine: MKL2017
  }
}
layer {
  name: "pool5"
  type: "Pooling"
  bottom: "conv5"
  top: "pool5"
  pooling_param {
    pool: MAX
    kernel_size: 3
    stride: 2
    engine: MKL2017
  }
}
layer {
  name: "fc6"
  type: "InnerProduct"
  bottom: "pool5"
  top: "fc6"
  param {
    lr_mult: 1
    decay_mult: 1
  }
  param {
    lr_mult: 2
    decay_mult: 0
  }
  inner_product_param {
    num_output: 4096
    weight_filler {
      type: "gaussian"
      std: 0.005
    }
    bias_filler {
      type: "constant"
      value: 0.1
    }
  }
}
layer {
  name: "relu6"
  type: "ReLU"
  bottom: "fc6"
  top: "fc6"
}
layer {
  name: "drop6"
  type: "Dropout"
  bottom: "fc6"
  top: "fc6"
  dropout_param {
    dropout_ratio: 0.5
  }
}
layer {
  name: "fc7"
  type: "InnerProduct"
  bottom: "fc6"
  top: "fc7"
  param {
    lr_mult: 1
    decay_mult: 1
  }
  param {
    lr_mult: 2
    decay_mult: 0
  }
  inner_product_param {
    num_output: 4096
    weight_filler {
      type: "gaussian"
      std: 0.005
    }
    bias_filler {
      type: "constant"
      value: 0.1
    }
  }
}
layer {
  name: "relu7"
  type: "ReLU"
  bottom: "fc7"
  top: "fc7"
}
layer {
  name: "drop7"
  type: "Dropout"
  bottom: "fc7"
  top: "fc7"
  dropout_param {
    dropout_ratio: 0.5
  }
}
layer {
  name: "fc8"
  type: "InnerProduct"
  bottom: "fc7"
  top: "fc8"
  param {
    lr_mult: 1
    decay_mult: 1
  }
  param {
    lr_mult: 2
    decay_mult: 0
  }
  inner_product_param {
    num_output: 1000
    weight_filler {
      type: "gaussian"
      std: 0.01
    }
    bias_filler {
      type: "constant"
      value: 0
    }
  }
}
layer {
  name: "fc8_fc8_0_split"
  type: "Split"
  bottom: "fc8"
  top: "fc8_fc8_0_split_0"
  top: "fc8_fc8_0_split_1"
}
layer {
  name: "accuracy"
  type: "Accuracy"
  bottom: "fc8_fc8_0_split_0"
  bottom: "label_data_1_split_0"
  top: "accuracy"
}
layer {
  name: "loss"
  type: "SoftmaxWithLoss"
  bottom: "fc8_fc8_0_split_1"
  bottom: "label_data_1_split_1"
  top: "loss"
}
I1226 14:16:41.925851 95411 db_lmdb.cpp:72] Opened lmdb /export/data1/stanford/hazy/zjian/gorden_bell/ILSVRC2012_lmdb/db_8/ilsvrc12_train_lmdb_4
I1226 14:16:41.913790 97473 net.cpp:178] Creating Layer data
I1226 14:16:41.913923 97473 net.cpp:586] data -> data
I1226 14:16:41.914044 97473 net.cpp:586] data -> label
I1226 14:16:41.927656 93636 net.cpp:136] Initializing net from parameters: 
name: "AlexNet"
state {
  phase: TRAIN
  level: 0
  stage: ""
}
engine: "MKL2017"
layer {
  name: "data"
  type: "DummyData"
  top: "data"
  top: "label"
  include {
    phase: TRAIN
  }
  transform_param {
    mirror: true
    crop_size: 227
    mean_value: 104
    mean_value: 117
    mean_value: 123
  }
  dummy_data_param {
    data_filler {
      type: "gaussian"
      std: 1
    }
    data_filler {
      type: "constant"
      value: 0
    }
    shape {
      dim: 128
      dim: 3
      dim: 227
      dim: 227
    }
    shape {
      dim: 128
      dim: 1
      dim: 1
      dim: 1
    }
  }
}
layer {
  name: "label_data_1_split"
  type: "Split"
  bottom: "label"
  top: "label_data_1_split_0"
  top: "label_data_1_split_1"
}
layer {
  name: "conv1"
  type: "Convolution"
  bottom: "data"
  top: "conv1"
  param {
    lr_mult: 1
    decay_mult: 1
  }
  param {
    lr_mult: 2
    decay_mult: 0
  }
  convolution_param {
    num_output: 96
    kernel_size: 11
    stride: 4
    weight_filler {
      type: "gaussian"
      std: 0.01
    }
    bias_filler {
      type: "constant"
      value: 0
    }
    engine: MKL2017
  }
}
layer {
  name: "relu1"
  type: "ReLU"
  bottom: "conv1"
  top: "conv1"
  relu_param {
    engine: MKL2017
  }
}
layer {
  name: "norm1"
  type: "LRN"
  bottom: "conv1"
  top: "norm1"
  lrn_param {
    local_size: 5
    alpha: 0.0001
    beta: 0.75
    engine: MKL2017
  }
}
layer {
  name: "pool1"
  type: "Pooling"
  bottom: "norm1"
  top: "pool1"
  pooling_param {
    pool: MAX
    kernel_size: 3
    stride: 2
    engine: MKL2017
  }
}
layer {
  name: "conv2"
  type: "Convolution"
  bottom: "pool1"
  top: "conv2"
  param {
    lr_mult: 1
    decay_mult: 1
  }
  param {
    lr_mult: 2
    decay_mult: 0
  }
  convolution_param {
    num_output: 256
    pad: 2
    kernel_size: 5
    group: 2
    weight_filler {
      type: "gaussian"
      std: 0.01
    }
    bias_filler {
      type: "constant"
      value: 0.1
    }
    engine: MKL2017
  }
}
layer {
  name: "relu2"
  type: "ReLU"
  bottom: "conv2"
  top: "conv2"
  relu_param {
    engine: MKL2017
  }
}
layer {
  name: "norm2"
  type: "LRN"
  bottom: "conv2"
  top: "norm2"
  lrn_param {
    local_size: 5
    alpha: 0.0001
    beta: 0.75
    engine: MKL2017
  }
}
layer {
  name: "pool2"
  type: "Pooling"
  bottom: "norm2"
  top: "pool2"
  pooling_param {
    pool: MAX
    kernel_size: 3
    stride: 2
    engine: MKL2017
  }
}
layer {
  name: "conv3"
  type: "Convolution"
  bottom: "pool2"
  top: "conv3"
  param {
    lr_mult: 1
    decay_mult: 1
  }
  param {
    lr_mult: 2
    decay_mult: 0
  }
  convolution_param {
    num_output: 384
    pad: 1
    kernel_size: 3
    weight_filler {
      type: "gaussian"
      std: 0.01
    }
    bias_filler {
      type: "constant"
      value: 0
    }
    engine: MKL2017
  }
}
layer {
  name: "relu3"
  type: "ReLU"
  bottom: "conv3"
  top: "conv3"
  relu_param {
    engine: MKL2017
  }
}
layer {
  name: "conv4"
  type: "Convolution"
  bottom: "conv3"
  top: "conv4"
  param {
    lr_mult: 1
    decay_mult: 1
  }
  param {
    lr_mult: 2
    decay_mult: 0
  }
  convolution_param {
    num_output: 384
    pad: 1
    kernel_size: 3
    group: 2
    weight_filler {
      type: "gaussian"
      std: 0.01
    }
    bias_filler {
      type: "constant"
      value: 0.1
    }
    engine: MKL2017
  }
}
layer {
  name: "relu4"
  type: "ReLU"
  bottom: "conv4"
  top: "conv4"
  relu_param {
    engine: MKL2017
  }
}
layer {
  name: "conv5"
  type: "Convolution"
  bottom: "conv4"
  top: "conv5"
  param {
    lr_mult: 1
    decay_mult: 1
  }
  param {
    lr_mult: 2
    decay_mult: 0
  }
  convolution_param {
    num_output: 256
    pad: 1
    kernel_size: 3
    group: 2
    weight_filler {
      type: "gaussian"
      std: 0.01
    }
    bias_filler {
      type: "constant"
      value: 0.1
    }
    engine: MKL2017
  }
}
layer {
  name: "relu5"
  type: "ReLU"
  bottom: "conv5"
  top: "conv5"
  relu_param {
    engine: MKL2017
  }
}
layer {
  name: "pool5"
  type: "Pooling"
  bottom: "conv5"
  top: "pool5"
  pooling_param {
    pool: MAX
    kernel_size: 3
    stride: 2
    engine: MKL2017
  }
}
layer {
  name: "fc6"
  type: "InnerProduct"
  bottom: "pool5"
  top: "fc6"
  param {
    lr_mult: 1
    decay_mult: 1
  }
  param {
    lr_mult: 2
    decay_mult: 0
  }
  inner_product_param {
    num_output: 4096
    weight_filler {
      type: "gaussian"
      std: 0.005
    }
    bias_filler {
      type: "constant"
      value: 0.1
    }
  }
}
layer {
  name: "relu6"
  type: "ReLU"
  bottom: "fc6"
  top: "fc6"
}
layer {
  name: "drop6"
  type: "Dropout"
  bottom: "fc6"
  top: "fc6"
  dropout_param {
    dropout_ratio: 0.5
  }
}
layer {
  name: "fc7"
  type: "InnerProduct"
  bottom: "fc6"
  top: "fc7"
  param {
    lr_mult: 1
    decay_mult: 1
  }
  param {
    lr_mult: 2
    decay_mult: 0
  }
  inner_product_param {
    num_output: 4096
    weight_filler {
      type: "gaussian"
      std: 0.005
    }
    bias_filler {
      type: "constant"
      value: 0.1
    }
  }
}
layer {
  name: "relu7"
  type: "ReLU"
  bottom: "fc7"
  top: "fc7"
}
layer {
  name: "drop7"
  type: "Dropout"
  bottom: "fc7"
  top: "fc7"
  dropout_param {
    dropout_ratio: 0.5
  }
}
layer {
  name: "fc8"
  type: "InnerProduct"
  bottom: "fc7"
  top: "fc8"
  param {
    lr_mult: 1
    decay_mult: 1
  }
  param {
    lr_mult: 2
    decay_mult: 0
  }
  inner_product_param {
    num_output: 1000
    weight_filler {
      type: "gaussian"
      std: 0.01
    }
    bias_filler {
      type: "constant"
      value: 0
    }
  }
}
layer {
  name: "fc8_fc8_0_split"
  type: "Split"
  bottom: "fc8"
  top: "fc8_fc8_0_split_0"
  top: "fc8_fc8_0_split_1"
}
layer {
  name: "accuracy"
  type: "Accuracy"
  bottom: "fc8_fc8_0_split_0"
  bottom: "label_data_1_split_0"
  top: "accuracy"
}
layer {
  name: "loss"
  type: "SoftmaxWithLoss"
  bottom: "fc8_fc8_0_split_1"
  bottom: "label_data_1_split_1"
  top: "loss"
}
I1226 14:16:41.930435 95408 data_layer.cpp:80] output data size: 128,3,227,227
I1226 14:16:41.934795 92503 cpu_info.cpp:473] Number of OpenMP threads: 66
I1226 14:16:41.935093 92503 net.cpp:500] The NetState phase (0) differed from the phase (1) specified by a rule in layer data
I1226 14:16:41.947180 91408 layer_factory.hpp:114] Creating layer data
I1226 14:16:41.926369 97047 db_lmdb.cpp:72] Opened lmdb /export/data1/stanford/hazy/zjian/gorden_bell/ILSVRC2012_lmdb/db_8/ilsvrc12_train_lmdb_7
I1226 14:16:41.942488 93418 layer_factory.hpp:114] Creating layer data
I1226 14:16:41.925462 97475 db_lmdb.cpp:72] Opened lmdb /export/data1/stanford/hazy/zjian/gorden_bell/ILSVRC2012_lmdb/db_8/ilsvrc12_train_lmdb_2
I1226 14:16:41.936687 92503 net.cpp:136] Initializing net from parameters: 
name: "AlexNet"
state {
  phase: TRAIN
  level: 0
  stage: ""
}
engine: "MKL2017"
layer {
  name: "data"
  type: "Data"
  top: "data"
  top: "label"
  include {
    phase: TRAIN
  }
  transform_param {
    mirror: true
    crop_size: 227
    mean_value: 104
    mean_value: 117
    mean_value: 123
  }
  data_param {
    source: "/export/data1/stanford/hazy/zjian/gorden_bell/ILSVRC2012_lmdb/db_8/ilsvrc12_train_lmdb_3"
    batch_size: 128
    backend: LMDB
  }
}
layer {
  name: "label_data_1_split"
  type: "Split"
  bottom: "label"
  top: "label_data_1_split_0"
  top: "label_data_1_split_1"
}
layer {
  name: "conv1"
  type: "Convolution"
  bottom: "data"
  top: "conv1"
  param {
    lr_mult: 1
    decay_mult: 1
  }
  param {
    lr_mult: 2
    decay_mult: 0
  }
  convolution_param {
    num_output: 96
    kernel_size: 11
    stride: 4
    weight_filler {
      type: "gaussian"
      std: 0.01
    }
    bias_filler {
      type: "constant"
      value: 0
    }
    engine: MKL2017
  }
}
layer {
  name: "relu1"
  type: "ReLU"
  bottom: "conv1"
  top: "conv1"
  relu_param {
    engine: MKL2017
  }
}
layer {
  name: "norm1"
  type: "LRN"
  bottom: "conv1"
  top: "norm1"
  lrn_param {
    local_size: 5
    alpha: 0.0001
    beta: 0.75
    engine: MKL2017
  }
}
layer {
  name: "pool1"
  type: "Pooling"
  bottom: "norm1"
  top: "pool1"
  pooling_param {
    pool: MAX
    kernel_size: 3
    stride: 2
    engine: MKL2017
  }
}
layer {
  name: "conv2"
  type: "Convolution"
  bottom: "pool1"
  top: "conv2"
  param {
    lr_mult: 1
    decay_mult: 1
  }
  param {
    lr_mult: 2
    decay_mult: 0
  }
  convolution_param {
    num_output: 256
    pad: 2
    kernel_size: 5
    group: 2
    weight_filler {
      type: "gaussian"
      std: 0.01
    }
    bias_filler {
      type: "constant"
      value: 0.1
    }
    engine: MKL2017
  }
}
layer {
  name: "relu2"
  type: "ReLU"
  bottom: "conv2"
  top: "conv2"
  relu_param {
    engine: MKL2017
  }
}
layer {
  name: "norm2"
  type: "LRN"
  bottom: "conv2"
  top: "norm2"
  lrn_param {
    local_size: 5
    alpha: 0.0001
    beta: 0.75
    engine: MKL2017
  }
}
layer {
  name: "pool2"
  type: "Pooling"
  bottom: "norm2"
  top: "pool2"
  pooling_param {
    pool: MAX
    kernel_size: 3
    stride: 2
    engine: MKL2017
  }
}
layer {
  name: "conv3"
  type: "Convolution"
  bottom: "pool2"
  top: "conv3"
  param {
    lr_mult: 1
    decay_mult: 1
  }
  param {
    lr_mult: 2
    decay_mult: 0
  }
  convolution_param {
    num_output: 384
    pad: 1
    kernel_size: 3
    weight_filler {
      type: "gaussian"
      std: 0.01
    }
    bias_filler {
      type: "constant"
      value: 0
    }
    engine: MKL2017
  }
}
layer {
  name: "relu3"
  type: "ReLU"
  bottom: "conv3"
  top: "conv3"
  relu_param {
    engine: MKL2017
  }
}
layer {
  name: "conv4"
  type: "Convolution"
  bottom: "conv3"
  top: "conv4"
  param {
    lr_mult: 1
    decay_mult: 1
  }
  param {
    lr_mult: 2
    decay_mult: 0
  }
  convolution_param {
    num_output: 384
    pad: 1
    kernel_size: 3
    group: 2
    weight_filler {
      type: "gaussian"
      std: 0.01
    }
    bias_filler {
      type: "constant"
      value: 0.1
    }
    engine: MKL2017
  }
}
layer {
  name: "relu4"
  type: "ReLU"
  bottom: "conv4"
  top: "conv4"
  relu_param {
    engine: MKL2017
  }
}
layer {
  name: "conv5"
  type: "Convolution"
  bottom: "conv4"
  top: "conv5"
  param {
    lr_mult: 1
    decay_mult: 1
  }
  param {
    lr_mult: 2
    decay_mult: 0
  }
  convolution_param {
    num_output: 256
    pad: 1
    kernel_size: 3
    group: 2
    weight_filler {
      type: "gaussian"
      std: 0.01
    }
    bias_filler {
      type: "constant"
      value: 0.1
    }
    engine: MKL2017
  }
}
layer {
  name: "relu5"
  type: "ReLU"
  bottom: "conv5"
  top: "conv5"
  relu_param {
    engine: MKL2017
  }
}
layer {
  name: "pool5"
  type: "Pooling"
  bottom: "conv5"
  top: "pool5"
  pooling_param {
    pool: MAX
    kernel_size: 3
    stride: 2
    engine: MKL2017
  }
}
layer {
  name: "fc6"
  type: "InnerProduct"
  bottom: "pool5"
  top: "fc6"
  param {
    lr_mult: 1
    decay_mult: 1
  }
  param {
    lr_mult: 2
    decay_mult: 0
  }
  inner_product_param {
    num_output: 4096
    weight_filler {
      type: "gaussian"
      std: 0.005
    }
    bias_filler {
      type: "constant"
      value: 0.1
    }
  }
}
layer {
  name: "relu6"
  type: "ReLU"
  bottom: "fc6"
  top: "fc6"
}
layer {
  name: "drop6"
  type: "Dropout"
  bottom: "fc6"
  top: "fc6"
  dropout_param {
    dropout_ratio: 0.5
  }
}
layer {
  name: "fc7"
  type: "InnerProduct"
  bottom: "fc6"
  top: "fc7"
  param {
    lr_mult: 1
    decay_mult: 1
  }
  param {
    lr_mult: 2
    decay_mult: 0
  }
  inner_product_param {
    num_output: 4096
    weight_filler {
      type: "gaussian"
      std: 0.005
    }
    bias_filler {
      type: "constant"
      value: 0.1
    }
  }
}
layer {
  name: "relu7"
  type: "ReLU"
  bottom: "fc7"
  top: "fc7"
}
layer {
  name: "drop7"
  type: "Dropout"
  bottom: "fc7"
  top: "fc7"
  dropout_param {
    dropout_ratio: 0.5
  }
}
layer {
  name: "fc8"
  type: "InnerProduct"
  bottom: "fc7"
  top: "fc8"
  param {
    lr_mult: 1
    decay_mult: 1
  }
  param {
    lr_mult: 2
    decay_mult: 0
  }
  inner_product_param {
    num_output: 1000
    weight_filler {
      type: "gaussian"
      std: 0.01
    }
    bias_filler {
      type: "constant"
      value: 0
    }
  }
}
layer {
  name: "fc8_fc8_0_split"
  type: "Split"
  bottom: "fc8"
  top: "fc8_fc8_0_split_0"
  top: "fc8_fc8_0_split_1"
}
layer {
  name: "accuracy"
  type: "Accuracy"
  bottom: "fc8_fc8_0_split_0"
  bottom: "label_data_1_split_0"
  top: "accuracy"
}
layer {
  name: "loss"
  type: "SoftmaxWithLoss"
  bottom: "fc8_fc8_0_split_1"
  bottom: "label_data_1_split_1"
  top: "loss"
}
I1226 14:16:41.930207 97473 data_layer.cpp:80] output data size: 128,3,227,227
I1226 14:16:41.938874 91497 cpu_info.cpp:473] Number of OpenMP threads: 66
I1226 14:16:41.939172 91497 net.cpp:500] The NetState phase (0) differed from the phase (1) specified by a rule in layer data
I1226 14:16:41.940865 91497 net.cpp:136] Initializing net from parameters: 
name: "AlexNet"
state {
  phase: TRAIN
  level: 0
  stage: ""
}
engine: "MKL2017"
layer {
  name: "data"
  type: "Data"
  top: "data"
  top: "label"
  include {
    phase: TRAIN
  }
  transform_param {
    mirror: true
    crop_size: 227
    mean_value: 104
    mean_value: 117
    mean_value: 123
  }
  data_param {
    source: "/export/data1/stanford/hazy/zjian/gorden_bell/ILSVRC2012_lmdb/db_8/ilsvrc12_train_lmdb_1"
    batch_size: 128
    backend: LMDB
  }
}
layer {
  name: "label_data_1_split"
  type: "Split"
  bottom: "label"
  top: "label_data_1_split_0"
  top: "label_data_1_split_1"
}
layer {
  name: "conv1"
  type: "Convolution"
  bottom: "data"
  top: "conv1"
  param {
    lr_mult: 1
    decay_mult: 1
  }
  param {
    lr_mult: 2
    decay_mult: 0
  }
  convolution_param {
    num_output: 96
    kernel_size: 11
    stride: 4
    weight_filler {
      type: "gaussian"
      std: 0.01
    }
    bias_filler {
      type: "constant"
      value: 0
    }
    engine: MKL2017
  }
}
layer {
  name: "relu1"
  type: "ReLU"
  bottom: "conv1"
  top: "conv1"
  relu_param {
    engine: MKL2017
  }
}
layer {
  name: "norm1"
  type: "LRN"
  bottom: "conv1"
  top: "norm1"
  lrn_param {
    local_size: 5
    alpha: 0.0001
    beta: 0.75
    engine: MKL2017
  }
}
layer {
  name: "pool1"
  type: "Pooling"
  bottom: "norm1"
  top: "pool1"
  pooling_param {
    pool: MAX
    kernel_size: 3
    stride: 2
    engine: MKL2017
  }
}
layer {
  name: "conv2"
  type: "Convolution"
  bottom: "pool1"
  top: "conv2"
  param {
    lr_mult: 1
    decay_mult: 1
  }
  param {
    lr_mult: 2
    decay_mult: 0
  }
  convolution_param {
    num_output: 256
    pad: 2
    kernel_size: 5
    group: 2
    weight_filler {
      type: "gaussian"
      std: 0.01
    }
    bias_filler {
      type: "constant"
      value: 0.1
    }
    engine: MKL2017
  }
}
layer {
  name: "relu2"
  type: "ReLU"
  bottom: "conv2"
  top: "conv2"
  relu_param {
    engine: MKL2017
  }
}
layer {
  name: "norm2"
  type: "LRN"
  bottom: "conv2"
  top: "norm2"
  lrn_param {
    local_size: 5
    alpha: 0.0001
    beta: 0.75
    engine: MKL2017
  }
}
layer {
  name: "pool2"
  type: "Pooling"
  bottom: "norm2"
  top: "pool2"
  pooling_param {
    pool: MAX
    kernel_size: 3
    stride: 2
    engine: MKL2017
  }
}
layer {
  name: "conv3"
  type: "Convolution"
  bottom: "pool2"
  top: "conv3"
  param {
    lr_mult: 1
    decay_mult: 1
  }
  param {
    lr_mult: 2
    decay_mult: 0
  }
  convolution_param {
    num_output: 384
    pad: 1
    kernel_size: 3
    weight_filler {
      type: "gaussian"
      std: 0.01
    }
    bias_filler {
      type: "constant"
      value: 0
    }
    engine: MKL2017
  }
}
layer {
  name: "relu3"
  type: "ReLU"
  bottom: "conv3"
  top: "conv3"
  relu_param {
    engine: MKL2017
  }
}
layer {
  name: "conv4"
  type: "Convolution"
  bottom: "conv3"
  top: "conv4"
  param {
    lr_mult: 1
    decay_mult: 1
  }
  param {
    lr_mult: 2
    decay_mult: 0
  }
  convolution_param {
    num_output: 384
    pad: 1
    kernel_size: 3
    group: 2
    weight_filler {
      type: "gaussian"
      std: 0.01
    }
    bias_filler {
      type: "constant"
      value: 0.1
    }
    engine: MKL2017
  }
}
layer {
  name: "relu4"
  type: "ReLU"
  bottom: "conv4"
  top: "conv4"
  relu_param {
    engine: MKL2017
  }
}
layer {
  name: "conv5"
  type: "Convolution"
  bottom: "conv4"
  top: "conv5"
  param {
    lr_mult: 1
    decay_mult: 1
  }
  param {
    lr_mult: 2
    decay_mult: 0
  }
  convolution_param {
    num_output: 256
    pad: 1
    kernel_size: 3
    group: 2
    weight_filler {
      type: "gaussian"
      std: 0.01
    }
    bias_filler {
      type: "constant"
      value: 0.1
    }
    engine: MKL2017
  }
}
layer {
  name: "relu5"
  type: "ReLU"
  bottom: "conv5"
  top: "conv5"
  relu_param {
    engine: MKL2017
  }
}
layer {
  name: "pool5"
  type: "Pooling"
  bottom: "conv5"
  top: "pool5"
  pooling_param {
    pool: MAX
    kernel_size: 3
    stride: 2
    engine: MKL2017
  }
}
layer {
  name: "fc6"
  type: "InnerProduct"
  bottom: "pool5"
  top: "fc6"
  param {
    lr_mult: 1
    decay_mult: 1
  }
  param {
    lr_mult: 2
    decay_mult: 0
  }
  inner_product_param {
    num_output: 4096
    weight_filler {
      type: "gaussian"
      std: 0.005
    }
    bias_filler {
      type: "constant"
      value: 0.1
    }
  }
}
layer {
  name: "relu6"
  type: "ReLU"
  bottom: "fc6"
  top: "fc6"
}
layer {
  name: "drop6"
  type: "Dropout"
  bottom: "fc6"
  top: "fc6"
  dropout_param {
    dropout_ratio: 0.5
  }
}
layer {
  name: "fc7"
  type: "InnerProduct"
  bottom: "fc6"
  top: "fc7"
  param {
    lr_mult: 1
    decay_mult: 1
  }
  param {
    lr_mult: 2
    decay_mult: 0
  }
  inner_product_param {
    num_output: 4096
    weight_filler {
      type: "gaussian"
      std: 0.005
    }
    bias_filler {
      type: "constant"
      value: 0.1
    }
  }
}
layer {
  name: "relu7"
  type: "ReLU"
  bottom: "fc7"
  top: "fc7"
}
layer {
  name: "drop7"
  type: "Dropout"
  bottom: "fc7"
  top: "fc7"
  dropout_param {
    dropout_ratio: 0.5
  }
}
layer {
  name: "fc8"
  type: "InnerProduct"
  bottom: "fc7"
  top: "fc8"
  param {
    lr_mult: 1
    decay_mult: 1
  }
  param {
    lr_mult: 2
    decay_mult: 0
  }
  inner_product_param {
    num_output: 1000
    weight_filler {
      type: "gaussian"
      std: 0.01
    }
    bias_filler {
      type: "constant"
      value: 0
    }
  }
}
layer {
  name: "fc8_fc8_0_split"
  type: "Split"
  bottom: "fc8"
  top: "fc8_fc8_0_split_0"
  top: "fc8_fc8_0_split_1"
}
layer {
  name: "accuracy"
  type: "Accuracy"
  bottom: "fc8_fc8_0_split_0"
  bottom: "label_data_1_split_0"
  top: "accuracy"
}
layer {
  name: "loss"
  type: "SoftmaxWithLoss"
  bottom: "fc8_fc8_0_split_1"
  bottom: "label_data_1_split_1"
  top: "loss"
}
I1226 14:16:41.941056 91497 layer_factory.hpp:114] Creating layer data
I1226 14:16:41.943397 91497 net.cpp:178] Creating Layer data
I1226 14:16:41.943467 91497 net.cpp:586] data -> data
I1226 14:16:41.943542 91497 net.cpp:586] data -> label
I1226 14:16:41.953140 93418 net.cpp:178] Creating Layer data
I1226 14:16:41.953225 93418 net.cpp:586] data -> data
I1226 14:16:41.953299 93418 net.cpp:586] data -> label
…
I1226 14:16:41.980402 98928 net.cpp:500] The NetState phase (0) differed from the phase (1) specified by a rule in layer data
I1226 14:16:41.982692 98928 net.cpp:136] Initializing net from parameters: 
name: "AlexNet"
state {
  phase: TRAIN
  level: 0
  stage: ""
}
engine: "MKL2017"
layer {
  name: "data"
  type: "Data"
  top: "data"
  top: "label"
  include {
    phase: TRAIN
  }
  transform_param {
    mirror: true
    crop_size: 227
    mean_value: 104
    mean_value: 117
    mean_value: 123
  }
  data_param {
    source: "/export/data1/stanford/hazy/zjian/gorden_bell/ILSVRC2012_lmdb/db_8/ilsvrc12_train_lmdb_6"
    batch_size: 128
    backend: LMDB
  }
}
layer {
  name: "label_data_1_split"
  type: "Split"
  bottom: "label"
  top: "label_data_1_split_0"
  top: "label_data_1_split_1"
}
layer {
  name: "conv1"
  type: "Convolution"
  bottom: "data"
  top: "conv1"
  param {
    lr_mult: 1
    decay_mult: 1
  }
  param {
    lr_mult: 2
    decay_mult: 0
  }
  convolution_param {
    num_output: 96
    kernel_size: 11
    stride: 4
    weight_filler {
      type: "gaussian"
      std: 0.01
    }
    bias_filler {
      type: "constant"
      value: 0
    }
    engine: MKL2017
  }
}
layer {
  name: "relu1"
  type: "ReLU"
  bottom: "conv1"
  top: "conv1"
  relu_param {
    engine: MKL2017
  }
}
layer {
  name: "norm1"
  type: "LRN"
  bottom: "conv1"
  top: "norm1"
  lrn_param {
    local_size: 5
    alpha: 0.0001
    beta: 0.75
    engine: MKL2017
  }
}
layer {
  name: "pool1"
  type: "Pooling"
  bottom: "norm1"
  top: "pool1"
  pooling_param {
    pool: MAX
    kernel_size: 3
    stride: 2
    engine: MKL2017
  }
}
layer {
  name: "conv2"
  type: "Convolution"
  bottom: "pool1"
  top: "conv2"
  param {
    lr_mult: 1
    decay_mult: 1
  }
  param {
    lr_mult: 2
    decay_mult: 0
  }
  convolution_param {
    num_output: 256
    pad: 2
    kernel_size: 5
    group: 2
    weight_filler {
      type: "gaussian"
      std: 0.01
    }
    bias_filler {
      type: "constant"
      value: 0.1
    }
    engine: MKL2017
  }
}
layer {
  name: "relu2"
  type: "ReLU"
  bottom: "conv2"
  top: "conv2"
  relu_param {
    engine: MKL2017
  }
}
layer {
  name: "norm2"
  type: "LRN"
  bottom: "conv2"
  top: "norm2"
  lrn_param {
    local_size: 5
    alpha: 0.0001
    beta: 0.75
    engine: MKL2017
  }
}
layer {
  name: "pool2"
  type: "Pooling"
  bottom: "norm2"
  top: "pool2"
  pooling_param {
    pool: MAX
    kernel_size: 3
    stride: 2
    engine: MKL2017
  }
}
layer {
  name: "conv3"
  type: "Convolution"
  bottom: "pool2"
  top: "conv3"
  param {
    lr_mult: 1
    decay_mult: 1
  }
  param {
    lr_mult: 2
    decay_mult: 0
  }
  convolution_param {
    num_output: 384
    pad: 1
    kernel_size: 3
    weight_filler {
      type: "gaussian"
      std: 0.01
    }
    bias_filler {
      type: "constant"
      value: 0
    }
    engine: MKL2017
  }
}
layer {
  name: "relu3"
  type: "ReLU"
  bottom: "conv3"
  top: "conv3"
  relu_param {
    engine: MKL2017
  }
}
layer {
  name: "conv4"
  type: "Convolution"
  bottom: "conv3"
  top: "conv4"
  param {
    lr_mult: 1
    decay_mult: 1
  }
  param {
    lr_mult: 2
    decay_mult: 0
  }
  convolution_param {
    num_output: 384
    pad: 1
    kernel_size: 3
    group: 2
    weight_filler {
      type: "gaussian"
      std: 0.01
    }
    bias_filler {
      type: "constant"
      value: 0.1
    }
    engine: MKL2017
  }
}
layer {
  name: "relu4"
  type: "ReLU"
  bottom: "conv4"
  top: "conv4"
  relu_param {
    engine: MKL2017
  }
}
layer {
  name: "conv5"
  type: "Convolution"
  bottom: "conv4"
  top: "conv5"
  param {
    lr_mult: 1
    decay_mult: 1
  }
  param {
    lr_mult: 2
    decay_mult: 0
  }
  convolution_param {
    num_output: 256
    pad: 1
    kernel_size: 3
    group: 2
    weight_filler {
      type: "gaussian"
      std: 0.01
    }
    bias_filler {
      type: "constant"
      value: 0.1
    }
    engine: MKL2017
  }
}
layer {
  name: "relu5"
  type: "ReLU"
  bottom: "conv5"
  top: "conv5"
  relu_param {
    engine: MKL2017
  }
}
layer {
  name: "pool5"
  type: "Pooling"
  bottom: "conv5"
  top: "pool5"
  pooling_param {
    pool: MAX
    kernel_size: 3
    stride: 2
    engine: MKL2017
  }
}
layer {
  name: "fc6"
  type: "InnerProduct"
  bottom: "pool5"
  top: "fc6"
  param {
    lr_mult: 1
    decay_mult: 1
  }
  param {
    lr_mult: 2
    decay_mult: 0
  }
  inner_product_param {
    num_output: 4096
    weight_filler {
      type: "gaussian"
      std: 0.005
    }
    bias_filler {
      type: "constant"
      value: 0.1
    }
  }
}
layer {
  name: "relu6"
  type: "ReLU"
  bottom: "fc6"
  top: "fc6"
}
layer {
  name: "drop6"
  type: "Dropout"
  bottom: "fc6"
  top: "fc6"
  dropout_param {
    dropout_ratio: 0.5
  }
}
layer {
  name: "fc7"
  type: "InnerProduct"
  bottom: "fc6"
  top: "fc7"
  param {
    lr_mult: 1
    decay_mult: 1
  }
  param {
    lr_mult: 2
    decay_mult: 0
  }
  inner_product_param {
    num_output: 4096
    weight_filler {
      type: "gaussian"
      std: 0.005
    }
    bias_filler {
      type: "constant"
      value: 0.1
    }
  }
}
layer {
  name: "relu7"
  type: "ReLU"
  bottom: "fc7"
  top: "fc7"
}
layer {
  name: "drop7"
  type: "Dropout"
  bottom: "fc7"
  top: "fc7"
  dropout_param {
    dropout_ratio: 0.5
  }
}
layer {
  name: "fc8"
  type: "InnerProduct"
  bottom: "fc7"
  top: "fc8"
  param {
    lr_mult: 1
    decay_mult: 1
  }
  param {
    lr_mult: 2
    decay_mult: 0
  }
  inner_product_param {
    num_output: 1000
    weight_filler {
      type: "gaussian"
      std: 0.01
    }
    bias_filler {
      type: "constant"
      value: 0
    }
  }
}
layer {
  name: "fc8_fc8_0_split"
  type: "Split"
  bottom: "fc8"
  top: "fc8_fc8_0_split_0"
  top: "fc8_fc8_0_split_1"
}
layer {
  name: "accuracy"
  type: "Accuracy"
  bottom: "fc8_fc8_0_split_0"
  bottom: "label_data_1_split_0"
  top: "accuracy"
}
layer {
  name: "loss"
  type: "SoftmaxWithLoss"
  bottom: "fc8_fc8_0_split_1"
  bottom: "label_data_1_split_1"
  top: "loss"
}
I1226 14:16:41.982939 98928 layer_factory.hpp:114] Creating layer data
I1226 14:16:41.995268 91408 data_layer.cpp:80] output data size: 128,3,227,227
I1226 14:16:41.986240 98928 net.cpp:178] Creating Layer data
I1226 14:16:41.986337 98928 net.cpp:586] data -> data
I1226 14:16:41.986439 98928 net.cpp:586] data -> label
I1226 14:16:41.982384 91500 db_lmdb.cpp:72] Opened lmdb /export/data1/stanford/hazy/zjian/gorden_bell/ILSVRC2012_lmdb/db_8/ilsvrc12_train_lmdb_1
I1226 14:16:41.987179 93636 net.cpp:228] Setting up data
I1226 14:16:41.987287 93636 net.cpp:235] Top shape: 128 3 227 227 (19787136)
I1226 14:16:41.987321 93636 net.cpp:235] Top shape: 128 1 1 1 (128)
I1226 14:16:41.987344 93636 net.cpp:243] Memory required for data: 79149056
I1226 14:16:41.987380 93636 layer_factory.hpp:114] Creating layer label_data_1_split
I1226 14:16:41.987462 93636 net.cpp:178] Creating Layer label_data_1_split
I1226 14:16:41.987570 93636 net.cpp:612] label_data_1_split <- label
I1226 14:16:41.987606 93636 net.cpp:586] label_data_1_split -> label_data_1_split_0
I1226 14:16:41.987650 93636 net.cpp:586] label_data_1_split -> label_data_1_split_1
I1226 14:16:41.988378 92505 db_lmdb.cpp:72] Opened lmdb /export/data1/stanford/hazy/zjian/gorden_bell/ILSVRC2012_lmdb/db_8/ilsvrc12_train_lmdb_3
I1226 14:16:41.991260 91497 data_layer.cpp:80] output data size: 128,3,227,227
I1226 14:16:41.995959 92503 data_layer.cpp:80] output data size: 128,3,227,227
I1226 14:16:41.998739 93636 net.cpp:228] Setting up label_data_1_split
I1226 14:16:41.998839 93636 net.cpp:235] Top shape: 128 1 1 1 (128)
I1226 14:16:41.998872 93636 net.cpp:235] Top shape: 128 1 1 1 (128)
I1226 14:16:41.998893 93636 net.cpp:243] Memory required for data: 79150080
I1226 14:16:41.998925 93636 layer_factory.hpp:114] Creating layer conv1
I1226 14:16:41.999017 93636 net.cpp:178] Creating Layer conv1
I1226 14:16:41.999048 93636 net.cpp:612] conv1 <- data
I1226 14:16:41.999088 93636 net.cpp:586] conv1 -> conv1
I1226 14:16:42.012804 93421 db_lmdb.cpp:72] Opened lmdb /export/data1/stanford/hazy/zjian/gorden_bell/ILSVRC2012_lmdb/db_8/ilsvrc12_train_lmdb_0
I1226 14:16:42.033435 93418 data_layer.cpp:80] output data size: 128,3,227,227
I1226 14:16:42.033025 98931 db_lmdb.cpp:72] Opened lmdb /export/data1/stanford/hazy/zjian/gorden_bell/ILSVRC2012_lmdb/db_8/ilsvrc12_train_lmdb_6
I1226 14:16:42.041846 98928 data_layer.cpp:80] output data size: 128,3,227,227
I1226 14:16:42.125141 91497 net.cpp:228] Setting up data
I1226 14:16:42.125322 91497 net.cpp:235] Top shape: 128 3 227 227 (19787136)
I1226 14:16:42.125373 91497 net.cpp:235] Top shape: 128 (128)
I1226 14:16:42.125535 91497 net.cpp:243] Memory required for data: 79149056
I1226 14:16:42.125586 91497 layer_factory.hpp:114] Creating layer label_data_1_split
I1226 14:16:42.125741 91497 net.cpp:178] Creating Layer label_data_1_split
I1226 14:16:42.125919 91497 net.cpp:612] label_data_1_split <- label
I1226 14:16:42.125980 91497 net.cpp:586] label_data_1_split -> label_data_1_split_0
I1226 14:16:42.126392 91497 net.cpp:586] label_data_1_split -> label_data_1_split_1
I1226 14:16:42.147511 93636 net.cpp:228] Setting up conv1
I1226 14:16:42.147619 93636 net.cpp:235] Top shape: 128 96 55 55 (37171200)
I1226 14:16:42.147644 93636 net.cpp:243] Memory required for data: 227834880
I1226 14:16:42.147807 93636 layer_factory.hpp:114] Creating layer relu1
I1226 14:16:42.147938 93636 net.cpp:178] Creating Layer relu1
I1226 14:16:42.147979 93636 net.cpp:612] relu1 <- conv1
I1226 14:16:42.148036 93636 net.cpp:573] relu1 -> conv1 (in-place)
I1226 14:16:42.148221 93636 net.cpp:228] Setting up relu1
I1226 14:16:42.148290 93636 net.cpp:235] Top shape: 128 96 55 55 (37171200)
I1226 14:16:42.148314 93636 net.cpp:243] Memory required for data: 376519680
I1226 14:16:42.148340 93636 layer_factory.hpp:114] Creating layer norm1
I1226 14:16:42.148409 93636 net.cpp:178] Creating Layer norm1
I1226 14:16:42.148439 93636 net.cpp:612] norm1 <- conv1
I1226 14:16:42.148471 93636 net.cpp:586] norm1 -> norm1
I1226 14:16:42.148553 93636 net.cpp:228] Setting up norm1
I1226 14:16:42.148600 93636 net.cpp:235] Top shape: 128 96 55 55 (37171200)
I1226 14:16:42.148624 93636 net.cpp:243] Memory required for data: 525204480
I1226 14:16:42.148651 93636 layer_factory.hpp:114] Creating layer pool1
I1226 14:16:42.148717 93636 net.cpp:178] Creating Layer pool1
I1226 14:16:42.148752 93636 net.cpp:612] pool1 <- norm1
I1226 14:16:42.148803 93636 net.cpp:586] pool1 -> pool1
I1226 14:16:42.148883 93636 net.cpp:228] Setting up pool1
I1226 14:16:42.148922 93636 net.cpp:235] Top shape: 128 96 27 27 (8957952)
I1226 14:16:42.148944 93636 net.cpp:243] Memory required for data: 561036288
I1226 14:16:42.148977 93636 layer_factory.hpp:114] Creating layer conv2
I1226 14:16:42.149041 93636 net.cpp:178] Creating Layer conv2
I1226 14:16:42.149091 93636 net.cpp:612] conv2 <- pool1
I1226 14:16:42.149138 93636 net.cpp:586] conv2 -> conv2
I1226 14:16:42.144632 91497 net.cpp:228] Setting up label_data_1_split
I1226 14:16:42.144759 91497 net.cpp:235] Top shape: 128 (128)
I1226 14:16:42.144798 91497 net.cpp:235] Top shape: 128 (128)
I1226 14:16:42.144824 91497 net.cpp:243] Memory required for data: 79150080
I1226 14:16:42.144860 91497 layer_factory.hpp:114] Creating layer conv1
I1226 14:16:42.144996 91497 net.cpp:178] Creating Layer conv1
I1226 14:16:42.145081 91497 net.cpp:612] conv1 <- data
I1226 14:16:42.145129 91497 net.cpp:586] conv1 -> conv1
I1226 14:16:42.170581 91408 net.cpp:228] Setting up data
I1226 14:16:42.170689 91408 net.cpp:235] Top shape: 128 3 227 227 (19787136)
I1226 14:16:42.170727 91408 net.cpp:235] Top shape: 128 (128)
I1226 14:16:42.170750 91408 net.cpp:243] Memory required for data: 79149056
I1226 14:16:42.170791 91408 layer_factory.hpp:114] Creating layer label_data_1_split
I1226 14:16:42.170886 91408 net.cpp:178] Creating Layer label_data_1_split
I1226 14:16:42.171011 91408 net.cpp:612] label_data_1_split <- label
I1226 14:16:42.171056 91408 net.cpp:586] label_data_1_split -> label_data_1_split_0
I1226 14:16:42.171106 91408 net.cpp:586] label_data_1_split -> label_data_1_split_1
I1226 14:16:42.161973 92503 net.cpp:228] Setting up data
I1226 14:16:42.162106 92503 net.cpp:235] Top shape: 128 3 227 227 (19787136)
I1226 14:16:42.162158 92503 net.cpp:235] Top shape: 128 (128)
I1226 14:16:42.162190 92503 net.cpp:243] Memory required for data: 79149056
I1226 14:16:42.162255 92503 layer_factory.hpp:114] Creating layer label_data_1_split
I1226 14:16:42.162400 92503 net.cpp:178] Creating Layer label_data_1_split
I1226 14:16:42.162573 92503 net.cpp:612] label_data_1_split <- label
I1226 14:16:42.162647 92503 net.cpp:586] label_data_1_split -> label_data_1_split_0
I1226 14:16:42.162730 92503 net.cpp:586] label_data_1_split -> label_data_1_split_1
I1226 14:16:42.191030 91408 net.cpp:228] Setting up label_data_1_split
I1226 14:16:42.191164 91408 net.cpp:235] Top shape: 128 (128)
I1226 14:16:42.191202 91408 net.cpp:235] Top shape: 128 (128)
I1226 14:16:42.191226 91408 net.cpp:243] Memory required for data: 79150080
I1226 14:16:42.191403 91408 layer_factory.hpp:114] Creating layer conv1
I1226 14:16:42.191560 91408 net.cpp:178] Creating Layer conv1
I1226 14:16:42.191650 91408 net.cpp:612] conv1 <- data
I1226 14:16:42.191786 91408 net.cpp:586] conv1 -> conv1
I1226 14:16:42.188525 92503 net.cpp:228] Setting up label_data_1_split
I1226 14:16:42.188632 92503 net.cpp:235] Top shape: 128 (128)
I1226 14:16:42.188665 92503 net.cpp:235] Top shape: 128 (128)
I1226 14:16:42.188689 92503 net.cpp:243] Memory required for data: 79150080
I1226 14:16:42.188724 92503 layer_factory.hpp:114] Creating layer conv1
I1226 14:16:42.188959 92503 net.cpp:178] Creating Layer conv1
I1226 14:16:42.189033 92503 net.cpp:612] conv1 <- data
I1226 14:16:42.189077 92503 net.cpp:586] conv1 -> conv1
I1226 14:16:42.214071 93418 net.cpp:228] Setting up data
I1226 14:16:42.214192 93418 net.cpp:235] Top shape: 128 3 227 227 (19787136)
I1226 14:16:42.214227 93418 net.cpp:235] Top shape: 128 (128)
I1226 14:16:42.214252 93418 net.cpp:243] Memory required for data: 79149056
I1226 14:16:42.214289 93418 layer_factory.hpp:114] Creating layer label_data_1_split
I1226 14:16:42.214406 93418 net.cpp:178] Creating Layer label_data_1_split
I1226 14:16:42.214552 93418 net.cpp:612] label_data_1_split <- label
I1226 14:16:42.214612 93418 net.cpp:586] label_data_1_split -> label_data_1_split_0
I1226 14:16:42.214669 93418 net.cpp:586] label_data_1_split -> label_data_1_split_1
I1226 14:16:42.218458 98928 net.cpp:228] Setting up data
I1226 14:16:42.218607 98928 net.cpp:235] Top shape: 128 3 227 227 (19787136)
I1226 14:16:42.218680 98928 net.cpp:235] Top shape: 128 (128)
I1226 14:16:42.218719 98928 net.cpp:243] Memory required for data: 79149056
I1226 14:16:42.218768 98928 layer_factory.hpp:114] Creating layer label_data_1_split
I1226 14:16:42.219043 98928 net.cpp:178] Creating Layer label_data_1_split
I1226 14:16:42.219233 98928 net.cpp:612] label_data_1_split <- label
I1226 14:16:42.219293 98928 net.cpp:586] label_data_1_split -> label_data_1_split_0
I1226 14:16:42.219365 98928 net.cpp:586] label_data_1_split -> label_data_1_split_1
I1226 14:16:42.252759 98928 net.cpp:228] Setting up label_data_1_split
I1226 14:16:42.252871 98928 net.cpp:235] Top shape: 128 (128)
I1226 14:16:42.252905 98928 net.cpp:235] Top shape: 128 (128)
I1226 14:16:42.252931 98928 net.cpp:243] Memory required for data: 79150080
I1226 14:16:42.252969 98928 layer_factory.hpp:114] Creating layer conv1
I1226 14:16:42.253104 98928 net.cpp:178] Creating Layer conv1
I1226 14:16:42.253151 98928 net.cpp:612] conv1 <- data
I1226 14:16:42.253197 98928 net.cpp:586] conv1 -> conv1
I1226 14:16:42.259727 93418 net.cpp:228] Setting up label_data_1_split
I1226 14:16:42.259834 93418 net.cpp:235] Top shape: 128 (128)
I1226 14:16:42.259865 93418 net.cpp:235] Top shape: 128 (128)
I1226 14:16:42.259886 93418 net.cpp:243] Memory required for data: 79150080
I1226 14:16:42.259920 93418 layer_factory.hpp:114] Creating layer conv1
I1226 14:16:42.260020 93418 net.cpp:178] Creating Layer conv1
I1226 14:16:42.260056 93418 net.cpp:612] conv1 <- data
I1226 14:16:42.260099 93418 net.cpp:586] conv1 -> conv1
I1226 14:16:42.351372 91497 net.cpp:228] Setting up conv1
I1226 14:16:42.351871 91497 net.cpp:235] Top shape: 128 96 55 55 (37171200)
I1226 14:16:42.351953 91497 net.cpp:243] Memory required for data: 227834880
I1226 14:16:42.352126 91497 layer_factory.hpp:114] Creating layer relu1
I1226 14:16:42.352250 91497 net.cpp:178] Creating Layer relu1
I1226 14:16:42.352407 91497 net.cpp:612] relu1 <- conv1
I1226 14:16:42.352458 91497 net.cpp:573] relu1 -> conv1 (in-place)
I1226 14:16:42.352582 91497 net.cpp:228] Setting up relu1
I1226 14:16:42.352648 91497 net.cpp:235] Top shape: 128 96 55 55 (37171200)
I1226 14:16:42.352676 91497 net.cpp:243] Memory required for data: 376519680
I1226 14:16:42.352743 91497 layer_factory.hpp:114] Creating layer norm1
I1226 14:16:42.352815 91497 net.cpp:178] Creating Layer norm1
I1226 14:16:42.352869 91497 net.cpp:612] norm1 <- conv1
I1226 14:16:42.352938 91497 net.cpp:586] norm1 -> norm1
I1226 14:16:42.353080 91497 net.cpp:228] Setting up norm1
I1226 14:16:42.353164 91497 net.cpp:235] Top shape: 128 96 55 55 (37171200)
I1226 14:16:42.353193 91497 net.cpp:243] Memory required for data: 525204480
I1226 14:16:42.353413 91497 layer_factory.hpp:114] Creating layer pool1
I1226 14:16:42.353482 91497 net.cpp:178] Creating Layer pool1
I1226 14:16:42.353518 91497 net.cpp:612] pool1 <- norm1
I1226 14:16:42.353570 91497 net.cpp:586] pool1 -> pool1
I1226 14:16:42.354086 91497 net.cpp:228] Setting up pool1
I1226 14:16:42.354255 91497 net.cpp:235] Top shape: 128 96 27 27 (8957952)
I1226 14:16:42.354306 91497 net.cpp:243] Memory required for data: 561036288
I1226 14:16:42.354367 91497 layer_factory.hpp:114] Creating layer conv2
I1226 14:16:42.354475 91497 net.cpp:178] Creating Layer conv2
I1226 14:16:42.354518 91497 net.cpp:612] conv2 <- pool1
I1226 14:16:42.354579 91497 net.cpp:586] conv2 -> conv2
I1226 14:16:42.363843 93636 net.cpp:228] Setting up conv2
I1226 14:16:42.363981 93636 net.cpp:235] Top shape: 128 256 27 27 (23887872)
I1226 14:16:42.364006 93636 net.cpp:243] Memory required for data: 656587776
I1226 14:16:42.364104 93636 layer_factory.hpp:114] Creating layer relu2
I1226 14:16:42.364183 93636 net.cpp:178] Creating Layer relu2
I1226 14:16:42.364215 93636 net.cpp:612] relu2 <- conv2
I1226 14:16:42.364261 93636 net.cpp:573] relu2 -> conv2 (in-place)
I1226 14:16:42.364353 93636 net.cpp:228] Setting up relu2
I1226 14:16:42.364398 93636 net.cpp:235] Top shape: 128 256 27 27 (23887872)
I1226 14:16:42.364423 93636 net.cpp:243] Memory required for data: 752139264
I1226 14:16:42.364451 93636 layer_factory.hpp:114] Creating layer norm2
I1226 14:16:42.364498 93636 net.cpp:178] Creating Layer norm2
I1226 14:16:42.364529 93636 net.cpp:612] norm2 <- conv2
I1226 14:16:42.364578 93636 net.cpp:586] norm2 -> norm2
I1226 14:16:42.364660 93636 net.cpp:228] Setting up norm2
I1226 14:16:42.364729 93636 net.cpp:235] Top shape: 128 256 27 27 (23887872)
I1226 14:16:42.364756 93636 net.cpp:243] Memory required for data: 847690752
I1226 14:16:42.364784 93636 layer_factory.hpp:114] Creating layer pool2
I1226 14:16:42.364840 93636 net.cpp:178] Creating Layer pool2
I1226 14:16:42.364872 93636 net.cpp:612] pool2 <- norm2
I1226 14:16:42.364907 93636 net.cpp:586] pool2 -> pool2
I1226 14:16:42.364985 93636 net.cpp:228] Setting up pool2
I1226 14:16:42.365025 93636 net.cpp:235] Top shape: 128 256 13 13 (5537792)
I1226 14:16:42.365197 93636 net.cpp:243] Memory required for data: 869841920
I1226 14:16:42.365229 93636 layer_factory.hpp:114] Creating layer conv3
I1226 14:16:42.365314 93636 net.cpp:178] Creating Layer conv3
I1226 14:16:42.365346 93636 net.cpp:612] conv3 <- pool2
I1226 14:16:42.365393 93636 net.cpp:586] conv3 -> conv3
I1226 14:16:42.403511 91408 net.cpp:228] Setting up conv1
I1226 14:16:42.403640 91408 net.cpp:235] Top shape: 128 96 55 55 (37171200)
I1226 14:16:42.403667 91408 net.cpp:243] Memory required for data: 227834880
I1226 14:16:42.403779 91408 layer_factory.hpp:114] Creating layer relu1
I1226 14:16:42.403857 91408 net.cpp:178] Creating Layer relu1
I1226 14:16:42.403895 91408 net.cpp:612] relu1 <- conv1
I1226 14:16:42.403939 91408 net.cpp:573] relu1 -> conv1 (in-place)
I1226 14:16:42.404044 91408 net.cpp:228] Setting up relu1
I1226 14:16:42.404104 91408 net.cpp:235] Top shape: 128 96 55 55 (37171200)
I1226 14:16:42.404129 91408 net.cpp:243] Memory required for data: 376519680
I1226 14:16:42.404163 91408 layer_factory.hpp:114] Creating layer norm1
I1226 14:16:42.404230 91408 net.cpp:178] Creating Layer norm1
I1226 14:16:42.404256 91408 net.cpp:612] norm1 <- conv1
I1226 14:16:42.404291 91408 net.cpp:586] norm1 -> norm1
I1226 14:16:42.404417 91408 net.cpp:228] Setting up norm1
I1226 14:16:42.404469 91408 net.cpp:235] Top shape: 128 96 55 55 (37171200)
I1226 14:16:42.404492 91408 net.cpp:243] Memory required for data: 525204480
I1226 14:16:42.404520 91408 layer_factory.hpp:114] Creating layer pool1
I1226 14:16:42.404577 91408 net.cpp:178] Creating Layer pool1
I1226 14:16:42.404602 91408 net.cpp:612] pool1 <- norm1
I1226 14:16:42.404659 91408 net.cpp:586] pool1 -> pool1
I1226 14:16:42.404759 91408 net.cpp:228] Setting up pool1
I1226 14:16:42.404803 91408 net.cpp:235] Top shape: 128 96 27 27 (8957952)
I1226 14:16:42.404825 91408 net.cpp:243] Memory required for data: 561036288
I1226 14:16:42.404856 91408 layer_factory.hpp:114] Creating layer conv2
I1226 14:16:42.404937 91408 net.cpp:178] Creating Layer conv2
I1226 14:16:42.404971 91408 net.cpp:612] conv2 <- pool1
I1226 14:16:42.405009 91408 net.cpp:586] conv2 -> conv2
I1226 14:16:42.397267 97044 net.cpp:228] Setting up data
I1226 14:16:42.397397 97044 net.cpp:235] Top shape: 128 3 227 227 (19787136)
I1226 14:16:42.397450 97044 net.cpp:235] Top shape: 128 (128)
I1226 14:16:42.397483 97044 net.cpp:243] Memory required for data: 79149056
I1226 14:16:42.397526 97044 layer_factory.hpp:114] Creating layer label_data_1_split
I1226 14:16:42.397635 97044 net.cpp:178] Creating Layer label_data_1_split
I1226 14:16:42.397812 97044 net.cpp:612] label_data_1_split <- label
I1226 14:16:42.397881 97044 net.cpp:586] label_data_1_split -> label_data_1_split_0
I1226 14:16:42.397948 97044 net.cpp:586] label_data_1_split -> label_data_1_split_1
I1226 14:16:42.412935 92503 net.cpp:228] Setting up conv1
I1226 14:16:42.413049 92503 net.cpp:235] Top shape: 128 96 55 55 (37171200)
I1226 14:16:42.413079 92503 net.cpp:243] Memory required for data: 227834880
I1226 14:16:42.413223 92503 layer_factory.hpp:114] Creating layer relu1
I1226 14:16:42.413414 92503 net.cpp:178] Creating Layer relu1
I1226 14:16:42.413463 92503 net.cpp:612] relu1 <- conv1
I1226 14:16:42.413506 92503 net.cpp:573] relu1 -> conv1 (in-place)
I1226 14:16:42.413619 92503 net.cpp:228] Setting up relu1
I1226 14:16:42.413672 92503 net.cpp:235] Top shape: 128 96 55 55 (37171200)
I1226 14:16:42.413697 92503 net.cpp:243] Memory required for data: 376519680
I1226 14:16:42.413728 92503 layer_factory.hpp:114] Creating layer norm1
I1226 14:16:42.413800 92503 net.cpp:178] Creating Layer norm1
I1226 14:16:42.413836 92503 net.cpp:612] norm1 <- conv1
I1226 14:16:42.413873 92503 net.cpp:586] norm1 -> norm1
I1226 14:16:42.413967 92503 net.cpp:228] Setting up norm1
I1226 14:16:42.414026 92503 net.cpp:235] Top shape: 128 96 55 55 (37171200)
I1226 14:16:42.414049 92503 net.cpp:243] Memory required for data: 525204480
I1226 14:16:42.414078 92503 layer_factory.hpp:114] Creating layer pool1
I1226 14:16:42.414129 92503 net.cpp:178] Creating Layer pool1
I1226 14:16:42.414325 92503 net.cpp:612] pool1 <- norm1
I1226 14:16:42.414391 92503 net.cpp:586] pool1 -> pool1
I1226 14:16:42.414510 92503 net.cpp:228] Setting up pool1
I1226 14:16:42.414559 92503 net.cpp:235] Top shape: 128 96 27 27 (8957952)
I1226 14:16:42.414590 92503 net.cpp:243] Memory required for data: 561036288
I1226 14:16:42.414618 92503 layer_factory.hpp:114] Creating layer conv2
I1226 14:16:42.414700 92503 net.cpp:178] Creating Layer conv2
I1226 14:16:42.414737 92503 net.cpp:612] conv2 <- pool1
I1226 14:16:42.414777 92503 net.cpp:586] conv2 -> conv2
I1226 14:16:42.425161 97044 net.cpp:228] Setting up label_data_1_split
I1226 14:16:42.425317 97044 net.cpp:235] Top shape: 128 (128)
I1226 14:16:42.425364 97044 net.cpp:235] Top shape: 128 (128)
I1226 14:16:42.425390 97044 net.cpp:243] Memory required for data: 79150080
I1226 14:16:42.425431 97044 layer_factory.hpp:114] Creating layer conv1
I1226 14:16:42.425542 97044 net.cpp:178] Creating Layer conv1
I1226 14:16:42.425592 97044 net.cpp:612] conv1 <- data
I1226 14:16:42.425644 97044 net.cpp:586] conv1 -> conv1
I1226 14:16:42.433751 97473 net.cpp:228] Setting up data
I1226 14:16:42.433878 97473 net.cpp:235] Top shape: 128 3 227 227 (19787136)
I1226 14:16:42.433925 97473 net.cpp:235] Top shape: 128 (128)
I1226 14:16:42.433954 97473 net.cpp:243] Memory required for data: 79149056
I1226 14:16:42.434010 97473 layer_factory.hpp:114] Creating layer label_data_1_split
I1226 14:16:42.434109 97473 net.cpp:178] Creating Layer label_data_1_split
I1226 14:16:42.434257 97473 net.cpp:612] label_data_1_split <- label
I1226 14:16:42.434311 97473 net.cpp:586] label_data_1_split -> label_data_1_split_0
I1226 14:16:42.434370 97473 net.cpp:586] label_data_1_split -> label_data_1_split_1
I1226 14:16:42.447515 95408 net.cpp:228] Setting up data
I1226 14:16:42.447641 95408 net.cpp:235] Top shape: 128 3 227 227 (19787136)
I1226 14:16:42.447687 95408 net.cpp:235] Top shape: 128 (128)
I1226 14:16:42.447715 95408 net.cpp:243] Memory required for data: 79149056
I1226 14:16:42.447770 95408 layer_factory.hpp:114] Creating layer label_data_1_split
I1226 14:16:42.447901 95408 net.cpp:178] Creating Layer label_data_1_split
I1226 14:16:42.448056 95408 net.cpp:612] label_data_1_split <- label
I1226 14:16:42.448117 95408 net.cpp:586] label_data_1_split -> label_data_1_split_0
I1226 14:16:42.448189 95408 net.cpp:586] label_data_1_split -> label_data_1_split_1
I1226 14:16:42.474040 95408 net.cpp:228] Setting up label_data_1_split
I1226 14:16:42.474154 95408 net.cpp:235] Top shape: 128 (128)
I1226 14:16:42.474194 95408 net.cpp:235] Top shape: 128 (128)
I1226 14:16:42.474218 95408 net.cpp:243] Memory required for data: 79150080
I1226 14:16:42.474256 95408 layer_factory.hpp:114] Creating layer conv1
I1226 14:16:42.474367 95408 net.cpp:178] Creating Layer conv1
I1226 14:16:42.474409 95408 net.cpp:612] conv1 <- data
I1226 14:16:42.474464 95408 net.cpp:586] conv1 -> conv1
I1226 14:16:42.485772 98928 net.cpp:228] Setting up conv1
I1226 14:16:42.485890 98928 net.cpp:235] Top shape: 128 96 55 55 (37171200)
I1226 14:16:42.485924 98928 net.cpp:243] Memory required for data: 227834880
I1226 14:16:42.486052 98928 layer_factory.hpp:114] Creating layer relu1
I1226 14:16:42.486203 98928 net.cpp:178] Creating Layer relu1
I1226 14:16:42.486261 98928 net.cpp:612] relu1 <- conv1
I1226 14:16:42.473072 97473 net.cpp:228] Setting up label_data_1_split
I1226 14:16:42.486310 98928 net.cpp:573] relu1 -> conv1 (in-place)
I1226 14:16:42.473189 97473 net.cpp:235] Top shape: 128 (128)
I1226 14:16:42.473227 97473 net.cpp:235] Top shape: 128 (128)
I1226 14:16:42.486439 98928 net.cpp:228] Setting up relu1
I1226 14:16:42.473253 97473 net.cpp:243] Memory required for data: 79150080
I1226 14:16:42.486500 98928 net.cpp:235] Top shape: 128 96 55 55 (37171200)
I1226 14:16:42.473289 97473 layer_factory.hpp:114] Creating layer conv1
I1226 14:16:42.486524 98928 net.cpp:243] Memory required for data: 376519680
I1226 14:16:42.486557 98928 layer_factory.hpp:114] Creating layer norm1
I1226 14:16:42.473412 97473 net.cpp:178] Creating Layer conv1
I1226 14:16:42.486639 98928 net.cpp:178] Creating Layer norm1
I1226 14:16:42.473455 97473 net.cpp:612] conv1 <- data
I1226 14:16:42.486682 98928 net.cpp:612] norm1 <- conv1
I1226 14:16:42.486723 98928 net.cpp:586] norm1 -> norm1
I1226 14:16:42.473503 97473 net.cpp:586] conv1 -> conv1
I1226 14:16:42.487231 98928 net.cpp:228] Setting up norm1
I1226 14:16:42.487411 98928 net.cpp:235] Top shape: 128 96 55 55 (37171200)
I1226 14:16:42.487478 98928 net.cpp:243] Memory required for data: 525204480
I1226 14:16:42.487520 98928 layer_factory.hpp:114] Creating layer pool1
I1226 14:16:42.487624 98928 net.cpp:178] Creating Layer pool1
I1226 14:16:42.487669 98928 net.cpp:612] pool1 <- norm1
I1226 14:16:42.487733 98928 net.cpp:586] pool1 -> pool1
I1226 14:16:42.487880 98928 net.cpp:228] Setting up pool1
I1226 14:16:42.487937 98928 net.cpp:235] Top shape: 128 96 27 27 (8957952)
I1226 14:16:42.487962 98928 net.cpp:243] Memory required for data: 561036288
I1226 14:16:42.488020 98928 layer_factory.hpp:114] Creating layer conv2
I1226 14:16:42.488147 98928 net.cpp:178] Creating Layer conv2
I1226 14:16:42.488198 98928 net.cpp:612] conv2 <- pool1
I1226 14:16:42.488261 98928 net.cpp:586] conv2 -> conv2
I1226 14:16:42.502997 93418 net.cpp:228] Setting up conv1
I1226 14:16:42.503114 93418 net.cpp:235] Top shape: 128 96 55 55 (37171200)
I1226 14:16:42.503142 93418 net.cpp:243] Memory required for data: 227834880
I1226 14:16:42.503262 93418 layer_factory.hpp:114] Creating layer relu1
I1226 14:16:42.503357 93418 net.cpp:178] Creating Layer relu1
I1226 14:16:42.503425 93418 net.cpp:612] relu1 <- conv1
I1226 14:16:42.503473 93418 net.cpp:573] relu1 -> conv1 (in-place)
I1226 14:16:42.503585 93418 net.cpp:228] Setting up relu1
I1226 14:16:42.503629 93418 net.cpp:235] Top shape: 128 96 55 55 (37171200)
I1226 14:16:42.503654 93418 net.cpp:243] Memory required for data: 376519680
I1226 14:16:42.503684 93418 layer_factory.hpp:114] Creating layer norm1
I1226 14:16:42.503746 93418 net.cpp:178] Creating Layer norm1
I1226 14:16:42.503774 93418 net.cpp:612] norm1 <- conv1
I1226 14:16:42.503832 93418 net.cpp:586] norm1 -> norm1
I1226 14:16:42.503937 93418 net.cpp:228] Setting up norm1
I1226 14:16:42.504106 93418 net.cpp:235] Top shape: 128 96 55 55 (37171200)
I1226 14:16:42.504130 93418 net.cpp:243] Memory required for data: 525204480
I1226 14:16:42.504161 93418 layer_factory.hpp:114] Creating layer pool1
I1226 14:16:42.504220 93418 net.cpp:178] Creating Layer pool1
I1226 14:16:42.504248 93418 net.cpp:612] pool1 <- norm1
I1226 14:16:42.504298 93418 net.cpp:586] pool1 -> pool1
I1226 14:16:42.504438 93418 net.cpp:228] Setting up pool1
I1226 14:16:42.504482 93418 net.cpp:235] Top shape: 128 96 27 27 (8957952)
I1226 14:16:42.504506 93418 net.cpp:243] Memory required for data: 561036288
I1226 14:16:42.504535 93418 layer_factory.hpp:114] Creating layer conv2
I1226 14:16:42.504621 93418 net.cpp:178] Creating Layer conv2
I1226 14:16:42.504806 93418 net.cpp:612] conv2 <- pool1
I1226 14:16:42.504865 93418 net.cpp:586] conv2 -> conv2
I1226 14:16:42.590739 93636 net.cpp:228] Setting up conv3
I1226 14:16:42.590848 93636 net.cpp:235] Top shape: 128 384 13 13 (8306688)
I1226 14:16:42.590875 93636 net.cpp:243] Memory required for data: 903068672
I1226 14:16:42.590947 93636 layer_factory.hpp:114] Creating layer relu3
I1226 14:16:42.591012 93636 net.cpp:178] Creating Layer relu3
I1226 14:16:42.591043 93636 net.cpp:612] relu3 <- conv3
I1226 14:16:42.591092 93636 net.cpp:573] relu3 -> conv3 (in-place)
I1226 14:16:42.591163 93636 net.cpp:228] Setting up relu3
I1226 14:16:42.591204 93636 net.cpp:235] Top shape: 128 384 13 13 (8306688)
I1226 14:16:42.591233 93636 net.cpp:243] Memory required for data: 936295424
I1226 14:16:42.591259 93636 layer_factory.hpp:114] Creating layer conv4
I1226 14:16:42.591325 93636 net.cpp:178] Creating Layer conv4
I1226 14:16:42.591356 93636 net.cpp:612] conv4 <- conv3
I1226 14:16:42.591394 93636 net.cpp:586] conv4 -> conv4
I1226 14:16:42.745807 91497 net.cpp:228] Setting up conv2
I1226 14:16:42.745920 91497 net.cpp:235] Top shape: 128 256 27 27 (23887872)
I1226 14:16:42.745949 91497 net.cpp:243] Memory required for data: 656587776
I1226 14:16:42.746026 91497 layer_factory.hpp:114] Creating layer relu2
I1226 14:16:42.746114 91497 net.cpp:178] Creating Layer relu2
I1226 14:16:42.746158 91497 net.cpp:612] relu2 <- conv2
I1226 14:16:42.746206 91497 net.cpp:573] relu2 -> conv2 (in-place)
I1226 14:16:42.746326 91497 net.cpp:228] Setting up relu2
I1226 14:16:42.746371 91497 net.cpp:235] Top shape: 128 256 27 27 (23887872)
I1226 14:16:42.746395 91497 net.cpp:243] Memory required for data: 752139264
I1226 14:16:42.746425 91497 layer_factory.hpp:114] Creating layer norm2
I1226 14:16:42.746484 91497 net.cpp:178] Creating Layer norm2
I1226 14:16:42.746520 91497 net.cpp:612] norm2 <- conv2
I1226 14:16:42.746563 91497 net.cpp:586] norm2 -> norm2
I1226 14:16:42.746659 91497 net.cpp:228] Setting up norm2
I1226 14:16:42.746733 91497 net.cpp:235] Top shape: 128 256 27 27 (23887872)
I1226 14:16:42.746773 91497 net.cpp:243] Memory required for data: 847690752
I1226 14:16:42.746803 91497 layer_factory.hpp:114] Creating layer pool2
I1226 14:16:42.746866 91497 net.cpp:178] Creating Layer pool2
I1226 14:16:42.746903 91497 net.cpp:612] pool2 <- norm2
I1226 14:16:42.746948 91497 net.cpp:586] pool2 -> pool2
I1226 14:16:42.747036 91497 net.cpp:228] Setting up pool2
I1226 14:16:42.747174 91497 net.cpp:235] Top shape: 128 256 13 13 (5537792)
I1226 14:16:42.747201 91497 net.cpp:243] Memory required for data: 869841920
I1226 14:16:42.747231 91497 layer_factory.hpp:114] Creating layer conv3
I1226 14:16:42.747319 91497 net.cpp:178] Creating Layer conv3
I1226 14:16:42.747356 91497 net.cpp:612] conv3 <- pool2
I1226 14:16:42.747407 91497 net.cpp:586] conv3 -> conv3
I1226 14:16:42.791002 91408 net.cpp:228] Setting up conv2
I1226 14:16:42.791115 91408 net.cpp:235] Top shape: 128 256 27 27 (23887872)
I1226 14:16:42.791144 91408 net.cpp:243] Memory required for data: 656587776
I1226 14:16:42.791219 91408 layer_factory.hpp:114] Creating layer relu2
I1226 14:16:42.791329 91408 net.cpp:178] Creating Layer relu2
I1226 14:16:42.791370 91408 net.cpp:612] relu2 <- conv2
I1226 14:16:42.791422 91408 net.cpp:573] relu2 -> conv2 (in-place)
I1226 14:16:42.791527 91408 net.cpp:228] Setting up relu2
I1226 14:16:42.791570 91408 net.cpp:235] Top shape: 128 256 27 27 (23887872)
I1226 14:16:42.791594 91408 net.cpp:243] Memory required for data: 752139264
I1226 14:16:42.791621 91408 layer_factory.hpp:114] Creating layer norm2
I1226 14:16:42.791671 91408 net.cpp:178] Creating Layer norm2
I1226 14:16:42.791718 91408 net.cpp:612] norm2 <- conv2
I1226 14:16:42.791757 91408 net.cpp:586] norm2 -> norm2
I1226 14:16:42.791854 91408 net.cpp:228] Setting up norm2
I1226 14:16:42.791909 91408 net.cpp:235] Top shape: 128 256 27 27 (23887872)
I1226 14:16:42.791936 91408 net.cpp:243] Memory required for data: 847690752
I1226 14:16:42.791965 91408 layer_factory.hpp:114] Creating layer pool2
I1226 14:16:42.792021 91408 net.cpp:178] Creating Layer pool2
I1226 14:16:42.792055 91408 net.cpp:612] pool2 <- norm2
I1226 14:16:42.792090 91408 net.cpp:586] pool2 -> pool2
I1226 14:16:42.792181 91408 net.cpp:228] Setting up pool2
I1226 14:16:42.792347 91408 net.cpp:235] Top shape: 128 256 13 13 (5537792)
I1226 14:16:42.792379 91408 net.cpp:243] Memory required for data: 869841920
I1226 14:16:42.792410 91408 layer_factory.hpp:114] Creating layer conv3
I1226 14:16:42.792492 91408 net.cpp:178] Creating Layer conv3
I1226 14:16:42.792529 91408 net.cpp:612] conv3 <- pool2
I1226 14:16:42.792572 91408 net.cpp:586] conv3 -> conv3
I1226 14:16:42.788892 93636 net.cpp:228] Setting up conv4
I1226 14:16:42.789033 93636 net.cpp:235] Top shape: 128 384 13 13 (8306688)
I1226 14:16:42.789062 93636 net.cpp:243] Memory required for data: 969522176
I1226 14:16:42.789146 93636 layer_factory.hpp:114] Creating layer relu4
I1226 14:16:42.789211 93636 net.cpp:178] Creating Layer relu4
I1226 14:16:42.789250 93636 net.cpp:612] relu4 <- conv4
I1226 14:16:42.789294 93636 net.cpp:573] relu4 -> conv4 (in-place)
I1226 14:16:42.789371 93636 net.cpp:228] Setting up relu4
I1226 14:16:42.789407 93636 net.cpp:235] Top shape: 128 384 13 13 (8306688)
I1226 14:16:42.789432 93636 net.cpp:243] Memory required for data: 1002748928
I1226 14:16:42.789461 93636 layer_factory.hpp:114] Creating layer conv5
I1226 14:16:42.789539 93636 net.cpp:178] Creating Layer conv5
I1226 14:16:42.789577 93636 net.cpp:612] conv5 <- conv4
I1226 14:16:42.789618 93636 net.cpp:586] conv5 -> conv5
I1226 14:16:42.790782 92503 net.cpp:228] Setting up conv2
I1226 14:16:42.791193 92503 net.cpp:235] Top shape: 128 256 27 27 (23887872)
I1226 14:16:42.791242 92503 net.cpp:243] Memory required for data: 656587776
I1226 14:16:42.791493 92503 layer_factory.hpp:114] Creating layer relu2
I1226 14:16:42.791632 92503 net.cpp:178] Creating Layer relu2
I1226 14:16:42.791749 92503 net.cpp:612] relu2 <- conv2
I1226 14:16:42.791803 92503 net.cpp:573] relu2 -> conv2 (in-place)
I1226 14:16:42.791909 92503 net.cpp:228] Setting up relu2
I1226 14:16:42.791996 92503 net.cpp:235] Top shape: 128 256 27 27 (23887872)
I1226 14:16:42.792026 92503 net.cpp:243] Memory required for data: 752139264
I1226 14:16:42.792057 92503 layer_factory.hpp:114] Creating layer norm2
I1226 14:16:42.792215 92503 net.cpp:178] Creating Layer norm2
I1226 14:16:42.792246 92503 net.cpp:612] norm2 <- conv2
I1226 14:16:42.792285 92503 net.cpp:586] norm2 -> norm2
I1226 14:16:42.792779 92503 net.cpp:228] Setting up norm2
I1226 14:16:42.792928 92503 net.cpp:235] Top shape: 128 256 27 27 (23887872)
I1226 14:16:42.792992 92503 net.cpp:243] Memory required for data: 847690752
I1226 14:16:42.793153 92503 layer_factory.hpp:114] Creating layer pool2
I1226 14:16:42.793236 92503 net.cpp:178] Creating Layer pool2
I1226 14:16:42.793279 92503 net.cpp:612] pool2 <- norm2
I1226 14:16:42.793391 92503 net.cpp:586] pool2 -> pool2
I1226 14:16:42.793529 92503 net.cpp:228] Setting up pool2
I1226 14:16:42.794013 92503 net.cpp:235] Top shape: 128 256 13 13 (5537792)
I1226 14:16:42.794093 92503 net.cpp:243] Memory required for data: 869841920
I1226 14:16:42.794134 92503 layer_factory.hpp:114] Creating layer conv3
I1226 14:16:42.794275 92503 net.cpp:178] Creating Layer conv3
I1226 14:16:42.794374 92503 net.cpp:612] conv3 <- pool2
I1226 14:16:42.794461 92503 net.cpp:586] conv3 -> conv3
I1226 14:16:42.856415 98928 net.cpp:228] Setting up conv2
I1226 14:16:42.856530 98928 net.cpp:235] Top shape: 128 256 27 27 (23887872)
I1226 14:16:42.856565 98928 net.cpp:243] Memory required for data: 656587776
I1226 14:16:42.856647 98928 layer_factory.hpp:114] Creating layer relu2
I1226 14:16:42.856748 98928 net.cpp:178] Creating Layer relu2
I1226 14:16:42.856828 98928 net.cpp:612] relu2 <- conv2
I1226 14:16:42.857019 98928 net.cpp:573] relu2 -> conv2 (in-place)
I1226 14:16:42.857290 98928 net.cpp:228] Setting up relu2
I1226 14:16:42.857409 98928 net.cpp:235] Top shape: 128 256 27 27 (23887872)
I1226 14:16:42.857439 98928 net.cpp:243] Memory required for data: 752139264
I1226 14:16:42.857578 98928 layer_factory.hpp:114] Creating layer norm2
I1226 14:16:42.857642 98928 net.cpp:178] Creating Layer norm2
I1226 14:16:42.857684 98928 net.cpp:612] norm2 <- conv2
I1226 14:16:42.857736 98928 net.cpp:586] norm2 -> norm2
I1226 14:16:42.858214 98928 net.cpp:228] Setting up norm2
I1226 14:16:42.858388 98928 net.cpp:235] Top shape: 128 256 27 27 (23887872)
I1226 14:16:42.858469 98928 net.cpp:243] Memory required for data: 847690752
I1226 14:16:42.858542 98928 layer_factory.hpp:114] Creating layer pool2
I1226 14:16:42.858636 98928 net.cpp:178] Creating Layer pool2
I1226 14:16:42.858680 98928 net.cpp:612] pool2 <- norm2
I1226 14:16:42.858724 98928 net.cpp:586] pool2 -> pool2
I1226 14:16:42.858836 98928 net.cpp:228] Setting up pool2
I1226 14:16:42.858986 98928 net.cpp:235] Top shape: 128 256 13 13 (5537792)
I1226 14:16:42.859016 98928 net.cpp:243] Memory required for data: 869841920
I1226 14:16:42.859050 98928 layer_factory.hpp:114] Creating layer conv3
I1226 14:16:42.859176 98928 net.cpp:178] Creating Layer conv3
I1226 14:16:42.859248 98928 net.cpp:612] conv3 <- pool2
I1226 14:16:42.859308 98928 net.cpp:586] conv3 -> conv3
I1226 14:16:42.936168 93636 net.cpp:228] Setting up conv5
I1226 14:16:42.936274 93636 net.cpp:235] Top shape: 128 256 13 13 (5537792)
I1226 14:16:42.936297 93636 net.cpp:243] Memory required for data: 1024900096
I1226 14:16:42.936395 93636 layer_factory.hpp:114] Creating layer relu5
I1226 14:16:42.936460 93636 net.cpp:178] Creating Layer relu5
I1226 14:16:42.936491 93636 net.cpp:612] relu5 <- conv5
I1226 14:16:42.936545 93636 net.cpp:573] relu5 -> conv5 (in-place)
I1226 14:16:42.936645 93636 net.cpp:228] Setting up relu5
I1226 14:16:42.936712 93636 net.cpp:235] Top shape: 128 256 13 13 (5537792)
I1226 14:16:42.936738 93636 net.cpp:243] Memory required for data: 1047051264
I1226 14:16:42.936767 93636 layer_factory.hpp:114] Creating layer pool5
I1226 14:16:42.936826 93636 net.cpp:178] Creating Layer pool5
I1226 14:16:42.936856 93636 net.cpp:612] pool5 <- conv5
I1226 14:16:42.936913 93636 net.cpp:586] pool5 -> pool5
I1226 14:16:42.936997 93636 net.cpp:228] Setting up pool5
I1226 14:16:42.937039 93636 net.cpp:235] Top shape: 128 256 6 6 (1179648)
I1226 14:16:42.937069 93636 net.cpp:243] Memory required for data: 1051769856
I1226 14:16:42.937111 93636 layer_factory.hpp:114] Creating layer fc6
I1226 14:16:42.937186 93636 net.cpp:178] Creating Layer fc6
I1226 14:16:42.937222 93636 net.cpp:612] fc6 <- pool5
I1226 14:16:42.937270 93636 net.cpp:586] fc6 -> fc6
I1226 14:16:42.950186 93418 net.cpp:228] Setting up conv2
I1226 14:16:42.950294 93418 net.cpp:235] Top shape: 128 256 27 27 (23887872)
I1226 14:16:42.950320 93418 net.cpp:243] Memory required for data: 656587776
I1226 14:16:42.950413 93418 layer_factory.hpp:114] Creating layer relu2
I1226 14:16:42.950479 93418 net.cpp:178] Creating Layer relu2
I1226 14:16:42.950510 93418 net.cpp:612] relu2 <- conv2
I1226 14:16:42.950551 93418 net.cpp:573] relu2 -> conv2 (in-place)
I1226 14:16:42.950624 93418 net.cpp:228] Setting up relu2
I1226 14:16:42.950659 93418 net.cpp:235] Top shape: 128 256 27 27 (23887872)
I1226 14:16:42.950683 93418 net.cpp:243] Memory required for data: 752139264
I1226 14:16:42.950711 93418 layer_factory.hpp:114] Creating layer norm2
I1226 14:16:42.950758 93418 net.cpp:178] Creating Layer norm2
I1226 14:16:42.950785 93418 net.cpp:612] norm2 <- conv2
I1226 14:16:42.950822 93418 net.cpp:586] norm2 -> norm2
I1226 14:16:42.950891 93418 net.cpp:228] Setting up norm2
I1226 14:16:42.950937 93418 net.cpp:235] Top shape: 128 256 27 27 (23887872)
I1226 14:16:42.950960 93418 net.cpp:243] Memory required for data: 847690752
I1226 14:16:42.950986 93418 layer_factory.hpp:114] Creating layer pool2
I1226 14:16:42.951028 93418 net.cpp:178] Creating Layer pool2
I1226 14:16:42.951051 93418 net.cpp:612] pool2 <- norm2
I1226 14:16:42.951083 93418 net.cpp:586] pool2 -> pool2
I1226 14:16:42.951143 93418 net.cpp:228] Setting up pool2
I1226 14:16:42.951278 93418 net.cpp:235] Top shape: 128 256 13 13 (5537792)
I1226 14:16:42.951305 93418 net.cpp:243] Memory required for data: 869841920
I1226 14:16:42.951333 93418 layer_factory.hpp:114] Creating layer conv3
I1226 14:16:42.951429 93418 net.cpp:178] Creating Layer conv3
I1226 14:16:42.951465 93418 net.cpp:612] conv3 <- pool2
I1226 14:16:42.951510 93418 net.cpp:586] conv3 -> conv3
I1226 14:16:43.092139 97044 net.cpp:228] Setting up conv1
I1226 14:16:43.092321 97044 net.cpp:235] Top shape: 128 96 55 55 (37171200)
I1226 14:16:43.092720 97044 net.cpp:243] Memory required for data: 227834880
I1226 14:16:43.093029 97044 layer_factory.hpp:114] Creating layer relu1
I1226 14:16:43.093155 97044 net.cpp:178] Creating Layer relu1
I1226 14:16:43.093276 97044 net.cpp:612] relu1 <- conv1
I1226 14:16:43.093320 97044 net.cpp:573] relu1 -> conv1 (in-place)
I1226 14:16:43.093441 97044 net.cpp:228] Setting up relu1
I1226 14:16:43.093505 97044 net.cpp:235] Top shape: 128 96 55 55 (37171200)
I1226 14:16:43.093534 97044 net.cpp:243] Memory required for data: 376519680
I1226 14:16:43.093744 97044 layer_factory.hpp:114] Creating layer norm1
I1226 14:16:43.093901 97044 net.cpp:178] Creating Layer norm1
I1226 14:16:43.093978 97044 net.cpp:612] norm1 <- conv1
I1226 14:16:43.094389 97044 net.cpp:586] norm1 -> norm1
I1226 14:16:43.094635 97044 net.cpp:228] Setting up norm1
I1226 14:16:43.094703 97044 net.cpp:235] Top shape: 128 96 55 55 (37171200)
I1226 14:16:43.094732 97044 net.cpp:243] Memory required for data: 525204480
I1226 14:16:43.094764 97044 layer_factory.hpp:114] Creating layer pool1
I1226 14:16:43.094861 97044 net.cpp:178] Creating Layer pool1
I1226 14:16:43.094899 97044 net.cpp:612] pool1 <- norm1
I1226 14:16:43.094952 97044 net.cpp:586] pool1 -> pool1
I1226 14:16:43.095110 97044 net.cpp:228] Setting up pool1
I1226 14:16:43.095181 97044 net.cpp:235] Top shape: 128 96 27 27 (8957952)
I1226 14:16:43.095230 97044 net.cpp:243] Memory required for data: 561036288
I1226 14:16:43.095270 97044 layer_factory.hpp:114] Creating layer conv2
I1226 14:16:43.095403 97044 net.cpp:178] Creating Layer conv2
I1226 14:16:43.095443 97044 net.cpp:612] conv2 <- pool1
I1226 14:16:43.096035 97044 net.cpp:586] conv2 -> conv2
I1226 14:16:43.135105 91497 net.cpp:228] Setting up conv3
I1226 14:16:43.135246 91497 net.cpp:235] Top shape: 128 384 13 13 (8306688)
I1226 14:16:43.135275 91497 net.cpp:243] Memory required for data: 903068672
I1226 14:16:43.135393 91497 layer_factory.hpp:114] Creating layer relu3
I1226 14:16:43.135526 91497 net.cpp:178] Creating Layer relu3
I1226 14:16:43.135604 91497 net.cpp:612] relu3 <- conv3
I1226 14:16:43.135740 91497 net.cpp:573] relu3 -> conv3 (in-place)
I1226 14:16:43.135850 91497 net.cpp:228] Setting up relu3
I1226 14:16:43.135905 91497 net.cpp:235] Top shape: 128 384 13 13 (8306688)
I1226 14:16:43.135929 91497 net.cpp:243] Memory required for data: 936295424
I1226 14:16:43.135960 91497 layer_factory.hpp:114] Creating layer conv4
I1226 14:16:43.136085 91497 net.cpp:178] Creating Layer conv4
I1226 14:16:43.136203 91497 net.cpp:612] conv4 <- conv3
I1226 14:16:43.136301 91497 net.cpp:586] conv4 -> conv4
I1226 14:16:43.175942 92503 net.cpp:228] Setting up conv3
I1226 14:16:43.176070 92503 net.cpp:235] Top shape: 128 384 13 13 (8306688)
I1226 14:16:43.176100 92503 net.cpp:243] Memory required for data: 903068672
I1226 14:16:43.176177 92503 layer_factory.hpp:114] Creating layer relu3
I1226 14:16:43.176334 92503 net.cpp:178] Creating Layer relu3
I1226 14:16:43.176705 92503 net.cpp:612] relu3 <- conv3
I1226 14:16:43.176765 92503 net.cpp:573] relu3 -> conv3 (in-place)
I1226 14:16:43.176914 92503 net.cpp:228] Setting up relu3
I1226 14:16:43.176996 92503 net.cpp:235] Top shape: 128 384 13 13 (8306688)
I1226 14:16:43.177023 92503 net.cpp:243] Memory required for data: 936295424
I1226 14:16:43.177054 92503 layer_factory.hpp:114] Creating layer conv4
I1226 14:16:43.177224 92503 net.cpp:178] Creating Layer conv4
I1226 14:16:43.177260 92503 net.cpp:612] conv4 <- conv3
I1226 14:16:43.177342 92503 net.cpp:586] conv4 -> conv4
I1226 14:16:43.207700 91408 net.cpp:228] Setting up conv3
I1226 14:16:43.207840 91408 net.cpp:235] Top shape: 128 384 13 13 (8306688)
I1226 14:16:43.207873 91408 net.cpp:243] Memory required for data: 903068672
I1226 14:16:43.207952 91408 layer_factory.hpp:114] Creating layer relu3
I1226 14:16:43.208086 91408 net.cpp:178] Creating Layer relu3
I1226 14:16:43.208128 91408 net.cpp:612] relu3 <- conv3
I1226 14:16:43.208170 91408 net.cpp:573] relu3 -> conv3 (in-place)
I1226 14:16:43.208267 91408 net.cpp:228] Setting up relu3
I1226 14:16:43.208344 91408 net.cpp:235] Top shape: 128 384 13 13 (8306688)
I1226 14:16:43.208381 91408 net.cpp:243] Memory required for data: 936295424
I1226 14:16:43.208438 91408 layer_factory.hpp:114] Creating layer conv4
I1226 14:16:43.208526 91408 net.cpp:178] Creating Layer conv4
I1226 14:16:43.208559 91408 net.cpp:612] conv4 <- conv3
I1226 14:16:43.208607 91408 net.cpp:586] conv4 -> conv4
I1226 14:16:43.191431 97473 net.cpp:228] Setting up conv1
I1226 14:16:43.191548 97473 net.cpp:235] Top shape: 128 96 55 55 (37171200)
I1226 14:16:43.191582 97473 net.cpp:243] Memory required for data: 227834880
I1226 14:16:43.191700 97473 layer_factory.hpp:114] Creating layer relu1
I1226 14:16:43.191880 97473 net.cpp:178] Creating Layer relu1
I1226 14:16:43.191932 97473 net.cpp:612] relu1 <- conv1
I1226 14:16:43.191978 97473 net.cpp:573] relu1 -> conv1 (in-place)
I1226 14:16:43.192111 97473 net.cpp:228] Setting up relu1
I1226 14:16:43.192163 97473 net.cpp:235] Top shape: 128 96 55 55 (37171200)
I1226 14:16:43.192190 97473 net.cpp:243] Memory required for data: 376519680
I1226 14:16:43.192222 97473 layer_factory.hpp:114] Creating layer norm1
I1226 14:16:43.192299 97473 net.cpp:178] Creating Layer norm1
I1226 14:16:43.192337 97473 net.cpp:612] norm1 <- conv1
I1226 14:16:43.192378 97473 net.cpp:586] norm1 -> norm1
I1226 14:16:43.192473 97473 net.cpp:228] Setting up norm1
I1226 14:16:43.192519 97473 net.cpp:235] Top shape: 128 96 55 55 (37171200)
I1226 14:16:43.192543 97473 net.cpp:243] Memory required for data: 525204480
I1226 14:16:43.192574 97473 layer_factory.hpp:114] Creating layer pool1
I1226 14:16:43.192638 97473 net.cpp:178] Creating Layer pool1
I1226 14:16:43.192673 97473 net.cpp:612] pool1 <- norm1
I1226 14:16:43.210199 95408 net.cpp:228] Setting up conv1
I1226 14:16:43.210320 95408 net.cpp:235] Top shape: 128 96 55 55 (37171200)
I1226 14:16:43.210350 95408 net.cpp:243] Memory required for data: 227834880
I1226 14:16:43.210472 95408 layer_factory.hpp:114] Creating layer relu1
I1226 14:16:43.210628 95408 net.cpp:178] Creating Layer relu1
I1226 14:16:43.210676 95408 net.cpp:612] relu1 <- conv1
I1226 14:16:43.210729 95408 net.cpp:573] relu1 -> conv1 (in-place)
I1226 14:16:43.210880 95408 net.cpp:228] Setting up relu1
I1226 14:16:43.210940 95408 net.cpp:235] Top shape: 128 96 55 55 (37171200)
I1226 14:16:43.210968 95408 net.cpp:243] Memory required for data: 376519680
I1226 14:16:43.211001 95408 layer_factory.hpp:114] Creating layer norm1
I1226 14:16:43.211071 95408 net.cpp:178] Creating Layer norm1
I1226 14:16:43.211112 95408 net.cpp:612] norm1 <- conv1
I1226 14:16:43.211161 95408 net.cpp:586] norm1 -> norm1
I1226 14:16:43.211262 95408 net.cpp:228] Setting up norm1
I1226 14:16:43.211310 95408 net.cpp:235] Top shape: 128 96 55 55 (37171200)
I1226 14:16:43.211335 95408 net.cpp:243] Memory required for data: 525204480
I1226 14:16:43.211364 95408 layer_factory.hpp:114] Creating layer pool1
I1226 14:16:43.211431 95408 net.cpp:178] Creating Layer pool1
I1226 14:16:43.211467 95408 net.cpp:612] pool1 <- norm1
I1226 14:16:43.211505 95408 net.cpp:586] pool1 -> pool1
I1226 14:16:43.211603 95408 net.cpp:228] Setting up pool1
I1226 14:16:43.211649 95408 net.cpp:235] Top shape: 128 96 27 27 (8957952)
I1226 14:16:43.211680 95408 net.cpp:243] Memory required for data: 561036288
I1226 14:16:43.211709 95408 layer_factory.hpp:114] Creating layer conv2
I1226 14:16:43.192713 97473 net.cpp:586] pool1 -> pool1
I1226 14:16:43.205983 97473 net.cpp:228] Setting up pool1
I1226 14:16:43.206060 97473 net.cpp:235] Top shape: 128 96 27 27 (8957952)
I1226 14:16:43.206087 97473 net.cpp:243] Memory required for data: 561036288
I1226 14:16:43.206120 97473 layer_factory.hpp:114] Creating layer conv2
I1226 14:16:43.206223 97473 net.cpp:178] Creating Layer conv2
I1226 14:16:43.206261 97473 net.cpp:612] conv2 <- pool1
I1226 14:16:43.206307 97473 net.cpp:586] conv2 -> conv2
I1226 14:16:43.211808 95408 net.cpp:178] Creating Layer conv2
I1226 14:16:43.224959 95408 net.cpp:612] conv2 <- pool1
I1226 14:16:43.225049 95408 net.cpp:586] conv2 -> conv2
I1226 14:16:43.253497 98928 net.cpp:228] Setting up conv3
I1226 14:16:43.255121 98928 net.cpp:235] Top shape: 128 384 13 13 (8306688)
I1226 14:16:43.255200 98928 net.cpp:243] Memory required for data: 903068672
I1226 14:16:43.255333 98928 layer_factory.hpp:114] Creating layer relu3
I1226 14:16:43.255451 98928 net.cpp:178] Creating Layer relu3
I1226 14:16:43.255570 98928 net.cpp:612] relu3 <- conv3
I1226 14:16:43.255625 98928 net.cpp:573] relu3 -> conv3 (in-place)
I1226 14:16:43.255738 98928 net.cpp:228] Setting up relu3
I1226 14:16:43.255786 98928 net.cpp:235] Top shape: 128 384 13 13 (8306688)
I1226 14:16:43.255810 98928 net.cpp:243] Memory required for data: 936295424
I1226 14:16:43.255844 98928 layer_factory.hpp:114] Creating layer conv4
I1226 14:16:43.255939 98928 net.cpp:178] Creating Layer conv4
I1226 14:16:43.255978 98928 net.cpp:612] conv4 <- conv3
I1226 14:16:43.256041 98928 net.cpp:586] conv4 -> conv4
I1226 14:16:43.412889 93418 net.cpp:228] Setting up conv3
I1226 14:16:43.413017 93418 net.cpp:235] Top shape: 128 384 13 13 (8306688)
I1226 14:16:43.413054 93418 net.cpp:243] Memory required for data: 903068672
I1226 14:16:43.413142 93418 layer_factory.hpp:114] Creating layer relu3
I1226 14:16:43.413218 93418 net.cpp:178] Creating Layer relu3
I1226 14:16:43.413254 93418 net.cpp:612] relu3 <- conv3
I1226 14:16:43.413326 93418 net.cpp:573] relu3 -> conv3 (in-place)
I1226 14:16:43.413483 93418 net.cpp:228] Setting up relu3
I1226 14:16:43.413552 93418 net.cpp:235] Top shape: 128 384 13 13 (8306688)
I1226 14:16:43.413583 93418 net.cpp:243] Memory required for data: 936295424
I1226 14:16:43.413625 93418 layer_factory.hpp:114] Creating layer conv4
I1226 14:16:43.413713 93418 net.cpp:178] Creating Layer conv4
I1226 14:16:43.413785 93418 net.cpp:612] conv4 <- conv3
I1226 14:16:43.413866 93418 net.cpp:586] conv4 -> conv4
I1226 14:16:43.461974 91497 net.cpp:228] Setting up conv4
I1226 14:16:43.462111 91497 net.cpp:235] Top shape: 128 384 13 13 (8306688)
I1226 14:16:43.462144 91497 net.cpp:243] Memory required for data: 969522176
I1226 14:16:43.462206 91497 layer_factory.hpp:114] Creating layer relu4
I1226 14:16:43.462278 91497 net.cpp:178] Creating Layer relu4
I1226 14:16:43.462452 91497 net.cpp:612] relu4 <- conv4
I1226 14:16:43.462504 91497 net.cpp:573] relu4 -> conv4 (in-place)
I1226 14:16:43.462612 91497 net.cpp:228] Setting up relu4
I1226 14:16:43.463207 91497 net.cpp:235] Top shape: 128 384 13 13 (8306688)
I1226 14:16:43.463239 91497 net.cpp:243] Memory required for data: 1002748928
I1226 14:16:43.463289 91497 layer_factory.hpp:114] Creating layer conv5
I1226 14:16:43.463464 91497 net.cpp:178] Creating Layer conv5
I1226 14:16:43.463518 91497 net.cpp:612] conv5 <- conv4
I1226 14:16:43.463587 91497 net.cpp:586] conv5 -> conv5
I1226 14:16:43.505234 92503 net.cpp:228] Setting up conv4
I1226 14:16:43.505358 92503 net.cpp:235] Top shape: 128 384 13 13 (8306688)
I1226 14:16:43.505386 92503 net.cpp:243] Memory required for data: 969522176
I1226 14:16:43.505446 92503 layer_factory.hpp:114] Creating layer relu4
I1226 14:16:43.505511 92503 net.cpp:178] Creating Layer relu4
I1226 14:16:43.505691 92503 net.cpp:612] relu4 <- conv4
I1226 14:16:43.505846 92503 net.cpp:573] relu4 -> conv4 (in-place)
I1226 14:16:43.506032 92503 net.cpp:228] Setting up relu4
I1226 14:16:43.506131 92503 net.cpp:235] Top shape: 128 384 13 13 (8306688)
I1226 14:16:43.506235 92503 net.cpp:243] Memory required for data: 1002748928
I1226 14:16:43.506265 92503 layer_factory.hpp:114] Creating layer conv5
I1226 14:16:43.519438 92503 net.cpp:178] Creating Layer conv5
I1226 14:16:43.519531 92503 net.cpp:612] conv5 <- conv4
I1226 14:16:43.519604 92503 net.cpp:586] conv5 -> conv5
I1226 14:16:43.589583 91408 net.cpp:228] Setting up conv4
I1226 14:16:43.589711 91408 net.cpp:235] Top shape: 128 384 13 13 (8306688)
I1226 14:16:43.589738 91408 net.cpp:243] Memory required for data: 969522176
I1226 14:16:43.589797 91408 layer_factory.hpp:114] Creating layer relu4
I1226 14:16:43.589898 91408 net.cpp:178] Creating Layer relu4
I1226 14:16:43.590003 91408 net.cpp:612] relu4 <- conv4
I1226 14:16:43.590042 91408 net.cpp:573] relu4 -> conv4 (in-place)
I1226 14:16:43.590164 91408 net.cpp:228] Setting up relu4
I1226 14:16:43.590204 91408 net.cpp:235] Top shape: 128 384 13 13 (8306688)
I1226 14:16:43.590340 91408 net.cpp:243] Memory required for data: 1002748928
I1226 14:16:43.590369 91408 layer_factory.hpp:114] Creating layer conv5
I1226 14:16:43.590454 91408 net.cpp:178] Creating Layer conv5
I1226 14:16:43.590486 91408 net.cpp:612] conv5 <- conv4
I1226 14:16:43.590531 91408 net.cpp:586] conv5 -> conv5
I1226 14:16:43.616317 98928 net.cpp:228] Setting up conv4
I1226 14:16:43.616493 98928 net.cpp:235] Top shape: 128 384 13 13 (8306688)
I1226 14:16:43.616552 98928 net.cpp:243] Memory required for data: 969522176
I1226 14:16:43.616696 98928 layer_factory.hpp:114] Creating layer relu4
I1226 14:16:43.616791 98928 net.cpp:178] Creating Layer relu4
I1226 14:16:43.616928 98928 net.cpp:612] relu4 <- conv4
I1226 14:16:43.617020 98928 net.cpp:573] relu4 -> conv4 (in-place)
I1226 14:16:43.617172 98928 net.cpp:228] Setting up relu4
I1226 14:16:43.617295 98928 net.cpp:235] Top shape: 128 384 13 13 (8306688)
I1226 14:16:43.617331 98928 net.cpp:243] Memory required for data: 1002748928
I1226 14:16:43.617362 98928 layer_factory.hpp:114] Creating layer conv5
I1226 14:16:43.617483 98928 net.cpp:178] Creating Layer conv5
I1226 14:16:43.617521 98928 net.cpp:612] conv5 <- conv4
I1226 14:16:43.617563 98928 net.cpp:586] conv5 -> conv5
I1226 14:16:43.726641 91497 net.cpp:228] Setting up conv5
I1226 14:16:43.726801 91497 net.cpp:235] Top shape: 128 256 13 13 (5537792)
I1226 14:16:43.726827 91497 net.cpp:243] Memory required for data: 1024900096
I1226 14:16:43.726928 91497 layer_factory.hpp:114] Creating layer relu5
I1226 14:16:43.727051 91497 net.cpp:178] Creating Layer relu5
I1226 14:16:43.727082 91497 net.cpp:612] relu5 <- conv5
I1226 14:16:43.727149 91497 net.cpp:573] relu5 -> conv5 (in-place)
I1226 14:16:43.727246 91497 net.cpp:228] Setting up relu5
I1226 14:16:43.727285 91497 net.cpp:235] Top shape: 128 256 13 13 (5537792)
I1226 14:16:43.727308 91497 net.cpp:243] Memory required for data: 1047051264
I1226 14:16:43.727344 91497 layer_factory.hpp:114] Creating layer pool5
I1226 14:16:43.727393 91497 net.cpp:178] Creating Layer pool5
I1226 14:16:43.727417 91497 net.cpp:612] pool5 <- conv5
I1226 14:16:43.727452 91497 net.cpp:586] pool5 -> pool5
I1226 14:16:43.727568 91497 net.cpp:228] Setting up pool5
I1226 14:16:43.727648 91497 net.cpp:235] Top shape: 128 256 6 6 (1179648)
I1226 14:16:43.727671 91497 net.cpp:243] Memory required for data: 1051769856
I1226 14:16:43.727697 91497 layer_factory.hpp:114] Creating layer fc6
I1226 14:16:43.727807 91497 net.cpp:178] Creating Layer fc6
I1226 14:16:43.727843 91497 net.cpp:612] fc6 <- pool5
I1226 14:16:43.727890 91497 net.cpp:586] fc6 -> fc6
I1226 14:16:43.765926 92503 net.cpp:228] Setting up conv5
I1226 14:16:43.766049 92503 net.cpp:235] Top shape: 128 256 13 13 (5537792)
I1226 14:16:43.766075 92503 net.cpp:243] Memory required for data: 1024900096
I1226 14:16:43.766146 92503 layer_factory.hpp:114] Creating layer relu5
I1226 14:16:43.766216 92503 net.cpp:178] Creating Layer relu5
I1226 14:16:43.766247 92503 net.cpp:612] relu5 <- conv5
I1226 14:16:43.766330 92503 net.cpp:573] relu5 -> conv5 (in-place)
I1226 14:16:43.766424 92503 net.cpp:228] Setting up relu5
I1226 14:16:43.766481 92503 net.cpp:235] Top shape: 128 256 13 13 (5537792)
I1226 14:16:43.766505 92503 net.cpp:243] Memory required for data: 1047051264
I1226 14:16:43.766532 92503 layer_factory.hpp:114] Creating layer pool5
I1226 14:16:43.766589 92503 net.cpp:178] Creating Layer pool5
I1226 14:16:43.766619 92503 net.cpp:612] pool5 <- conv5
I1226 14:16:43.766655 92503 net.cpp:586] pool5 -> pool5
I1226 14:16:43.766741 92503 net.cpp:228] Setting up pool5
I1226 14:16:43.766783 92503 net.cpp:235] Top shape: 128 256 6 6 (1179648)
I1226 14:16:43.766805 92503 net.cpp:243] Memory required for data: 1051769856
I1226 14:16:43.766831 92503 layer_factory.hpp:114] Creating layer fc6
I1226 14:16:43.766894 92503 net.cpp:178] Creating Layer fc6
I1226 14:16:43.766927 92503 net.cpp:612] fc6 <- pool5
I1226 14:16:43.766964 92503 net.cpp:586] fc6 -> fc6
I1226 14:16:43.821960 93418 net.cpp:228] Setting up conv4
I1226 14:16:43.822073 93418 net.cpp:235] Top shape: 128 384 13 13 (8306688)
I1226 14:16:43.822099 93418 net.cpp:243] Memory required for data: 969522176
I1226 14:16:43.822157 93418 layer_factory.hpp:114] Creating layer relu4
I1226 14:16:43.822217 93418 net.cpp:178] Creating Layer relu4
I1226 14:16:43.822252 93418 net.cpp:612] relu4 <- conv4
I1226 14:16:43.822314 93418 net.cpp:573] relu4 -> conv4 (in-place)
I1226 14:16:43.835563 93418 net.cpp:228] Setting up relu4
I1226 14:16:43.836196 93418 net.cpp:235] Top shape: 128 384 13 13 (8306688)
I1226 14:16:43.836256 93418 net.cpp:243] Memory required for data: 1002748928
I1226 14:16:43.836293 93418 layer_factory.hpp:114] Creating layer conv5
I1226 14:16:43.836418 93418 net.cpp:178] Creating Layer conv5
I1226 14:16:43.836464 93418 net.cpp:612] conv5 <- conv4
I1226 14:16:43.836518 93418 net.cpp:586] conv5 -> conv5
I1226 14:16:43.873164 91408 net.cpp:228] Setting up conv5
I1226 14:16:43.873270 91408 net.cpp:235] Top shape: 128 256 13 13 (5537792)
I1226 14:16:43.873317 91408 net.cpp:243] Memory required for data: 1024900096
I1226 14:16:43.873411 91408 layer_factory.hpp:114] Creating layer relu5
I1226 14:16:43.873783 91408 net.cpp:178] Creating Layer relu5
I1226 14:16:43.873842 91408 net.cpp:612] relu5 <- conv5
I1226 14:16:43.873883 91408 net.cpp:573] relu5 -> conv5 (in-place)
I1226 14:16:43.874013 91408 net.cpp:228] Setting up relu5
I1226 14:16:43.874068 91408 net.cpp:235] Top shape: 128 256 13 13 (5537792)
I1226 14:16:43.874092 91408 net.cpp:243] Memory required for data: 1047051264
I1226 14:16:43.874122 91408 layer_factory.hpp:114] Creating layer pool5
I1226 14:16:43.874209 91408 net.cpp:178] Creating Layer pool5
I1226 14:16:43.874239 91408 net.cpp:612] pool5 <- conv5
I1226 14:16:43.874276 91408 net.cpp:586] pool5 -> pool5
I1226 14:16:43.874506 91408 net.cpp:228] Setting up pool5
I1226 14:16:43.874611 91408 net.cpp:235] Top shape: 128 256 6 6 (1179648)
I1226 14:16:43.874636 91408 net.cpp:243] Memory required for data: 1051769856
I1226 14:16:43.874673 91408 layer_factory.hpp:114] Creating layer fc6
I1226 14:16:43.874760 91408 net.cpp:178] Creating Layer fc6
I1226 14:16:43.874861 91408 net.cpp:612] fc6 <- pool5
I1226 14:16:43.874939 91408 net.cpp:586] fc6 -> fc6
I1226 14:16:43.876142 98928 net.cpp:228] Setting up conv5
I1226 14:16:43.876260 98928 net.cpp:235] Top shape: 128 256 13 13 (5537792)
I1226 14:16:43.876287 98928 net.cpp:243] Memory required for data: 1024900096
I1226 14:16:43.876391 98928 layer_factory.hpp:114] Creating layer relu5
I1226 14:16:43.876533 98928 net.cpp:178] Creating Layer relu5
I1226 14:16:43.876631 98928 net.cpp:612] relu5 <- conv5
I1226 14:16:43.876675 98928 net.cpp:573] relu5 -> conv5 (in-place)
I1226 14:16:43.876804 98928 net.cpp:228] Setting up relu5
I1226 14:16:43.876859 98928 net.cpp:235] Top shape: 128 256 13 13 (5537792)
I1226 14:16:43.876900 98928 net.cpp:243] Memory required for data: 1047051264
I1226 14:16:43.876936 98928 layer_factory.hpp:114] Creating layer pool5
I1226 14:16:43.877002 98928 net.cpp:178] Creating Layer pool5
I1226 14:16:43.877035 98928 net.cpp:612] pool5 <- conv5
I1226 14:16:43.877104 98928 net.cpp:586] pool5 -> pool5
I1226 14:16:43.877249 98928 net.cpp:228] Setting up pool5
I1226 14:16:43.877317 98928 net.cpp:235] Top shape: 128 256 6 6 (1179648)
I1226 14:16:43.877344 98928 net.cpp:243] Memory required for data: 1051769856
I1226 14:16:43.877379 98928 layer_factory.hpp:114] Creating layer fc6
I1226 14:16:43.877467 98928 net.cpp:178] Creating Layer fc6
I1226 14:16:43.877517 98928 net.cpp:612] fc6 <- pool5
I1226 14:16:43.877568 98928 net.cpp:586] fc6 -> fc6
I1226 14:16:44.120260 93418 net.cpp:228] Setting up conv5
I1226 14:16:44.120398 93418 net.cpp:235] Top shape: 128 256 13 13 (5537792)
I1226 14:16:44.120427 93418 net.cpp:243] Memory required for data: 1024900096
I1226 14:16:44.120506 93418 layer_factory.hpp:114] Creating layer relu5
I1226 14:16:44.120568 93418 net.cpp:178] Creating Layer relu5
I1226 14:16:44.120604 93418 net.cpp:612] relu5 <- conv5
I1226 14:16:44.120666 93418 net.cpp:573] relu5 -> conv5 (in-place)
I1226 14:16:44.120779 93418 net.cpp:228] Setting up relu5
I1226 14:16:44.120827 93418 net.cpp:235] Top shape: 128 256 13 13 (5537792)
I1226 14:16:44.120853 93418 net.cpp:243] Memory required for data: 1047051264
I1226 14:16:44.120887 93418 layer_factory.hpp:114] Creating layer pool5
I1226 14:16:44.120942 93418 net.cpp:178] Creating Layer pool5
I1226 14:16:44.120972 93418 net.cpp:612] pool5 <- conv5
I1226 14:16:44.121013 93418 net.cpp:586] pool5 -> pool5
I1226 14:16:44.121112 93418 net.cpp:228] Setting up pool5
I1226 14:16:44.121170 93418 net.cpp:235] Top shape: 128 256 6 6 (1179648)
I1226 14:16:44.121194 93418 net.cpp:243] Memory required for data: 1051769856
I1226 14:16:44.121225 93418 layer_factory.hpp:114] Creating layer fc6
I1226 14:16:44.121284 93418 net.cpp:178] Creating Layer fc6
I1226 14:16:44.121312 93418 net.cpp:612] fc6 <- pool5
I1226 14:16:44.121366 93418 net.cpp:586] fc6 -> fc6
I1226 14:16:44.607697 97044 net.cpp:228] Setting up conv2
I1226 14:16:44.608134 97044 net.cpp:235] Top shape: 128 256 27 27 (23887872)
I1226 14:16:44.608258 97044 net.cpp:243] Memory required for data: 656587776
I1226 14:16:44.608342 97044 layer_factory.hpp:114] Creating layer relu2
I1226 14:16:44.608433 97044 net.cpp:178] Creating Layer relu2
I1226 14:16:44.608572 97044 net.cpp:612] relu2 <- conv2
I1226 14:16:44.608661 97044 net.cpp:573] relu2 -> conv2 (in-place)
I1226 14:16:44.608822 97044 net.cpp:228] Setting up relu2
I1226 14:16:44.609504 97044 net.cpp:235] Top shape: 128 256 27 27 (23887872)
I1226 14:16:44.609644 97044 net.cpp:243] Memory required for data: 752139264
I1226 14:16:44.609706 97044 layer_factory.hpp:114] Creating layer norm2
I1226 14:16:44.609890 97044 net.cpp:178] Creating Layer norm2
I1226 14:16:44.610028 97044 net.cpp:612] norm2 <- conv2
I1226 14:16:44.610071 97044 net.cpp:586] norm2 -> norm2
I1226 14:16:44.610579 97044 net.cpp:228] Setting up norm2
I1226 14:16:44.610662 97044 net.cpp:235] Top shape: 128 256 27 27 (23887872)
I1226 14:16:44.610689 97044 net.cpp:243] Memory required for data: 847690752
I1226 14:16:44.610749 97044 layer_factory.hpp:114] Creating layer pool2
I1226 14:16:44.610875 97044 net.cpp:178] Creating Layer pool2
I1226 14:16:44.610935 97044 net.cpp:612] pool2 <- norm2
I1226 14:16:44.611016 97044 net.cpp:586] pool2 -> pool2
I1226 14:16:44.611129 97044 net.cpp:228] Setting up pool2
I1226 14:16:44.611661 97044 net.cpp:235] Top shape: 128 256 13 13 (5537792)
I1226 14:16:44.611708 97044 net.cpp:243] Memory required for data: 869841920
I1226 14:16:44.611768 97044 layer_factory.hpp:114] Creating layer conv3
I1226 14:16:44.611937 97044 net.cpp:178] Creating Layer conv3
I1226 14:16:44.611999 97044 net.cpp:612] conv3 <- pool2
I1226 14:16:44.612071 97044 net.cpp:586] conv3 -> conv3
I1226 14:16:44.801951 97473 net.cpp:228] Setting up conv2
I1226 14:16:44.802064 97473 net.cpp:235] Top shape: 128 256 27 27 (23887872)
I1226 14:16:44.802094 97473 net.cpp:243] Memory required for data: 656587776
I1226 14:16:44.802170 97473 layer_factory.hpp:114] Creating layer relu2
I1226 14:16:44.802366 97473 net.cpp:178] Creating Layer relu2
I1226 14:16:44.802413 97473 net.cpp:612] relu2 <- conv2
I1226 14:16:44.802477 97473 net.cpp:573] relu2 -> conv2 (in-place)
I1226 14:16:44.802589 97473 net.cpp:228] Setting up relu2
I1226 14:16:44.802652 97473 net.cpp:235] Top shape: 128 256 27 27 (23887872)
I1226 14:16:44.802680 97473 net.cpp:243] Memory required for data: 752139264
I1226 14:16:44.802709 97473 layer_factory.hpp:114] Creating layer norm2
I1226 14:16:44.802789 97473 net.cpp:178] Creating Layer norm2
I1226 14:16:44.802829 97473 net.cpp:612] norm2 <- conv2
I1226 14:16:44.802870 97473 net.cpp:586] norm2 -> norm2
I1226 14:16:44.802974 97473 net.cpp:228] Setting up norm2
I1226 14:16:44.803037 97473 net.cpp:235] Top shape: 128 256 27 27 (23887872)
I1226 14:16:44.803063 97473 net.cpp:243] Memory required for data: 847690752
I1226 14:16:44.803093 97473 layer_factory.hpp:114] Creating layer pool2
I1226 14:16:44.803148 97473 net.cpp:178] Creating Layer pool2
I1226 14:16:44.803182 97473 net.cpp:612] pool2 <- norm2
I1226 14:16:44.803222 97473 net.cpp:586] pool2 -> pool2
I1226 14:16:44.803318 97473 net.cpp:228] Setting up pool2
I1226 14:16:44.803462 97473 net.cpp:235] Top shape: 128 256 13 13 (5537792)
I1226 14:16:44.803489 97473 net.cpp:243] Memory required for data: 869841920
I1226 14:16:44.803521 97473 layer_factory.hpp:114] Creating layer conv3
I1226 14:16:44.803611 97473 net.cpp:178] Creating Layer conv3
I1226 14:16:44.803652 97473 net.cpp:612] conv3 <- pool2
I1226 14:16:44.803695 97473 net.cpp:586] conv3 -> conv3
I1226 14:16:44.863411 95408 net.cpp:228] Setting up conv2
I1226 14:16:44.863524 95408 net.cpp:235] Top shape: 128 256 27 27 (23887872)
I1226 14:16:44.863556 95408 net.cpp:243] Memory required for data: 656587776
I1226 14:16:44.863631 95408 layer_factory.hpp:114] Creating layer relu2
I1226 14:16:44.863699 95408 net.cpp:178] Creating Layer relu2
I1226 14:16:44.863737 95408 net.cpp:612] relu2 <- conv2
I1226 14:16:44.863803 95408 net.cpp:573] relu2 -> conv2 (in-place)
I1226 14:16:44.866240 95408 net.cpp:228] Setting up relu2
I1226 14:16:44.866322 95408 net.cpp:235] Top shape: 128 256 27 27 (23887872)
I1226 14:16:44.866350 95408 net.cpp:243] Memory required for data: 752139264
I1226 14:16:44.866386 95408 layer_factory.hpp:114] Creating layer norm2
I1226 14:16:44.866466 95408 net.cpp:178] Creating Layer norm2
I1226 14:16:44.866503 95408 net.cpp:612] norm2 <- conv2
I1226 14:16:44.866552 95408 net.cpp:586] norm2 -> norm2
I1226 14:16:44.866647 95408 net.cpp:228] Setting up norm2
I1226 14:16:44.866696 95408 net.cpp:235] Top shape: 128 256 27 27 (23887872)
I1226 14:16:44.866720 95408 net.cpp:243] Memory required for data: 847690752
I1226 14:16:44.866755 95408 layer_factory.hpp:114] Creating layer pool2
I1226 14:16:44.866816 95408 net.cpp:178] Creating Layer pool2
I1226 14:16:44.866868 95408 net.cpp:612] pool2 <- norm2
I1226 14:16:44.866914 95408 net.cpp:586] pool2 -> pool2
I1226 14:16:44.867004 95408 net.cpp:228] Setting up pool2
I1226 14:16:44.867152 95408 net.cpp:235] Top shape: 128 256 13 13 (5537792)
I1226 14:16:44.867184 95408 net.cpp:243] Memory required for data: 869841920
I1226 14:16:44.867216 95408 layer_factory.hpp:114] Creating layer conv3
I1226 14:16:44.867308 95408 net.cpp:178] Creating Layer conv3
I1226 14:16:44.867344 95408 net.cpp:612] conv3 <- pool2
I1226 14:16:44.867395 95408 net.cpp:586] conv3 -> conv3
I1226 14:16:46.057963 95408 net.cpp:228] Setting up conv3
I1226 14:16:46.058101 95408 net.cpp:235] Top shape: 128 384 13 13 (8306688)
I1226 14:16:46.058133 95408 net.cpp:243] Memory required for data: 903068672
I1226 14:16:46.058210 95408 layer_factory.hpp:114] Creating layer relu3
I1226 14:16:46.058357 95408 net.cpp:178] Creating Layer relu3
I1226 14:16:46.058390 95408 net.cpp:612] relu3 <- conv3
I1226 14:16:46.058437 95408 net.cpp:573] relu3 -> conv3 (in-place)
I1226 14:16:46.058544 95408 net.cpp:228] Setting up relu3
I1226 14:16:46.058591 95408 net.cpp:235] Top shape: 128 384 13 13 (8306688)
I1226 14:16:46.058632 95408 net.cpp:243] Memory required for data: 936295424
I1226 14:16:46.058671 95408 layer_factory.hpp:114] Creating layer conv4
I1226 14:16:46.058759 95408 net.cpp:178] Creating Layer conv4
I1226 14:16:46.058799 95408 net.cpp:612] conv4 <- conv3
I1226 14:16:46.058876 95408 net.cpp:586] conv4 -> conv4
I1226 14:16:46.282860 97473 net.cpp:228] Setting up conv3
I1226 14:16:46.282991 97473 net.cpp:235] Top shape: 128 384 13 13 (8306688)
I1226 14:16:46.283025 97473 net.cpp:243] Memory required for data: 903068672
I1226 14:16:46.283107 97473 layer_factory.hpp:114] Creating layer relu3
I1226 14:16:46.283260 97473 net.cpp:178] Creating Layer relu3
I1226 14:16:46.283313 97473 net.cpp:612] relu3 <- conv3
I1226 14:16:46.283356 97473 net.cpp:573] relu3 -> conv3 (in-place)
I1226 14:16:46.283473 97473 net.cpp:228] Setting up relu3
I1226 14:16:46.283525 97473 net.cpp:235] Top shape: 128 384 13 13 (8306688)
I1226 14:16:46.283551 97473 net.cpp:243] Memory required for data: 936295424
I1226 14:16:46.283582 97473 layer_factory.hpp:114] Creating layer conv4
I1226 14:16:46.283691 97473 net.cpp:178] Creating Layer conv4
I1226 14:16:46.283757 97473 net.cpp:612] conv4 <- conv3
I1226 14:16:46.283831 97473 net.cpp:586] conv4 -> conv4
I1226 14:16:46.531476 97044 net.cpp:228] Setting up conv3
I1226 14:16:46.531592 97044 net.cpp:235] Top shape: 128 384 13 13 (8306688)
I1226 14:16:46.531625 97044 net.cpp:243] Memory required for data: 903068672
I1226 14:16:46.531703 97044 layer_factory.hpp:114] Creating layer relu3
I1226 14:16:46.531929 97044 net.cpp:178] Creating Layer relu3
I1226 14:16:46.531968 97044 net.cpp:612] relu3 <- conv3
I1226 14:16:46.532101 97044 net.cpp:573] relu3 -> conv3 (in-place)
I1226 14:16:46.532208 97044 net.cpp:228] Setting up relu3
I1226 14:16:46.532299 97044 net.cpp:235] Top shape: 128 384 13 13 (8306688)
I1226 14:16:46.532326 97044 net.cpp:243] Memory required for data: 936295424
I1226 14:16:46.532358 97044 layer_factory.hpp:114] Creating layer conv4
I1226 14:16:46.532450 97044 net.cpp:178] Creating Layer conv4
I1226 14:16:46.532495 97044 net.cpp:612] conv4 <- conv3
I1226 14:16:46.532551 97044 net.cpp:586] conv4 -> conv4
I1226 14:16:46.944581 95408 net.cpp:228] Setting up conv4
I1226 14:16:46.944701 95408 net.cpp:235] Top shape: 128 384 13 13 (8306688)
I1226 14:16:46.944732 95408 net.cpp:243] Memory required for data: 969522176
I1226 14:16:46.944797 95408 layer_factory.hpp:114] Creating layer relu4
I1226 14:16:46.944888 95408 net.cpp:178] Creating Layer relu4
I1226 14:16:46.944933 95408 net.cpp:612] relu4 <- conv4
I1226 14:16:46.944988 95408 net.cpp:573] relu4 -> conv4 (in-place)
I1226 14:16:46.945070 95408 net.cpp:228] Setting up relu4
I1226 14:16:46.945122 95408 net.cpp:235] Top shape: 128 384 13 13 (8306688)
I1226 14:16:46.945147 95408 net.cpp:243] Memory required for data: 1002748928
I1226 14:16:46.945178 95408 layer_factory.hpp:114] Creating layer conv5
I1226 14:16:46.945250 95408 net.cpp:178] Creating Layer conv5
I1226 14:16:46.945291 95408 net.cpp:612] conv5 <- conv4
I1226 14:16:46.945336 95408 net.cpp:586] conv5 -> conv5
I1226 14:16:47.169402 97473 net.cpp:228] Setting up conv4
I1226 14:16:47.169540 97473 net.cpp:235] Top shape: 128 384 13 13 (8306688)
I1226 14:16:47.169576 97473 net.cpp:243] Memory required for data: 969522176
I1226 14:16:47.169642 97473 layer_factory.hpp:114] Creating layer relu4
I1226 14:16:47.169715 97473 net.cpp:178] Creating Layer relu4
I1226 14:16:47.169777 97473 net.cpp:612] relu4 <- conv4
I1226 14:16:47.169826 97473 net.cpp:573] relu4 -> conv4 (in-place)
I1226 14:16:47.169940 97473 net.cpp:228] Setting up relu4
I1226 14:16:47.169996 97473 net.cpp:235] Top shape: 128 384 13 13 (8306688)
I1226 14:16:47.170022 97473 net.cpp:243] Memory required for data: 1002748928
I1226 14:16:47.170052 97473 layer_factory.hpp:114] Creating layer conv5
I1226 14:16:47.170148 97473 net.cpp:178] Creating Layer conv5
I1226 14:16:47.170187 97473 net.cpp:612] conv5 <- conv4
I1226 14:16:47.170236 97473 net.cpp:586] conv5 -> conv5
I1226 14:16:47.578361 95408 net.cpp:228] Setting up conv5
I1226 14:16:47.578481 95408 net.cpp:235] Top shape: 128 256 13 13 (5537792)
I1226 14:16:47.578512 95408 net.cpp:243] Memory required for data: 1024900096
I1226 14:16:47.578618 95408 layer_factory.hpp:114] Creating layer relu5
I1226 14:16:47.578739 95408 net.cpp:178] Creating Layer relu5
I1226 14:16:47.578776 95408 net.cpp:612] relu5 <- conv5
I1226 14:16:47.578857 95408 net.cpp:573] relu5 -> conv5 (in-place)
I1226 14:16:47.578977 95408 net.cpp:228] Setting up relu5
I1226 14:16:47.579043 95408 net.cpp:235] Top shape: 128 256 13 13 (5537792)
I1226 14:16:47.579079 95408 net.cpp:243] Memory required for data: 1047051264
I1226 14:16:47.579113 95408 layer_factory.hpp:114] Creating layer pool5
I1226 14:16:47.579181 95408 net.cpp:178] Creating Layer pool5
I1226 14:16:47.579221 95408 net.cpp:612] pool5 <- conv5
I1226 14:16:47.579264 95408 net.cpp:586] pool5 -> pool5
I1226 14:16:47.579376 95408 net.cpp:228] Setting up pool5
I1226 14:16:47.579427 95408 net.cpp:235] Top shape: 128 256 6 6 (1179648)
I1226 14:16:47.579452 95408 net.cpp:243] Memory required for data: 1051769856
I1226 14:16:47.579481 95408 layer_factory.hpp:114] Creating layer fc6
I1226 14:16:47.579541 95408 net.cpp:178] Creating Layer fc6
I1226 14:16:47.579578 95408 net.cpp:612] fc6 <- pool5
I1226 14:16:47.579632 95408 net.cpp:586] fc6 -> fc6
I1226 14:16:47.805703 97473 net.cpp:228] Setting up conv5
I1226 14:16:47.805846 97473 net.cpp:235] Top shape: 128 256 13 13 (5537792)
I1226 14:16:47.805882 97473 net.cpp:243] Memory required for data: 1024900096
I1226 14:16:47.805989 97473 layer_factory.hpp:114] Creating layer relu5
I1226 14:16:47.806071 97473 net.cpp:178] Creating Layer relu5
I1226 14:16:47.806109 97473 net.cpp:612] relu5 <- conv5
I1226 14:16:47.806162 97473 net.cpp:573] relu5 -> conv5 (in-place)
I1226 14:16:47.806279 97473 net.cpp:228] Setting up relu5
I1226 14:16:47.806334 97473 net.cpp:235] Top shape: 128 256 13 13 (5537792)
I1226 14:16:47.806360 97473 net.cpp:243] Memory required for data: 1047051264
I1226 14:16:47.806391 97473 layer_factory.hpp:114] Creating layer pool5
I1226 14:16:47.806468 97473 net.cpp:178] Creating Layer pool5
I1226 14:16:47.806506 97473 net.cpp:612] pool5 <- conv5
I1226 14:16:47.806548 97473 net.cpp:586] pool5 -> pool5
I1226 14:16:47.806653 97473 net.cpp:228] Setting up pool5
I1226 14:16:47.806715 97473 net.cpp:235] Top shape: 128 256 6 6 (1179648)
I1226 14:16:47.806769 97473 net.cpp:243] Memory required for data: 1051769856
I1226 14:16:47.806802 97473 layer_factory.hpp:114] Creating layer fc6
I1226 14:16:47.806864 97473 net.cpp:178] Creating Layer fc6
I1226 14:16:47.806902 97473 net.cpp:612] fc6 <- pool5
I1226 14:16:47.806960 97473 net.cpp:586] fc6 -> fc6
I1226 14:16:47.946012 97044 net.cpp:228] Setting up conv4
I1226 14:16:47.946130 97044 net.cpp:235] Top shape: 128 384 13 13 (8306688)
I1226 14:16:47.946161 97044 net.cpp:243] Memory required for data: 969522176
I1226 14:16:47.946225 97044 layer_factory.hpp:114] Creating layer relu4
I1226 14:16:47.946406 97044 net.cpp:178] Creating Layer relu4
I1226 14:16:47.946455 97044 net.cpp:612] relu4 <- conv4
I1226 14:16:47.946498 97044 net.cpp:573] relu4 -> conv4 (in-place)
I1226 14:16:47.946602 97044 net.cpp:228] Setting up relu4
I1226 14:16:47.946653 97044 net.cpp:235] Top shape: 128 384 13 13 (8306688)
I1226 14:16:47.946681 97044 net.cpp:243] Memory required for data: 1002748928
I1226 14:16:47.946710 97044 layer_factory.hpp:114] Creating layer conv5
I1226 14:16:47.946830 97044 net.cpp:178] Creating Layer conv5
I1226 14:16:47.946876 97044 net.cpp:612] conv5 <- conv4
I1226 14:16:47.946933 97044 net.cpp:586] conv5 -> conv5
I1226 14:16:48.014863 93636 net.cpp:228] Setting up fc6
I1226 14:16:48.014997 93636 net.cpp:235] Top shape: 128 4096 (524288)
I1226 14:16:48.015027 93636 net.cpp:243] Memory required for data: 1053867008
I1226 14:16:48.015087 93636 layer_factory.hpp:114] Creating layer relu6
I1226 14:16:48.015164 93636 net.cpp:178] Creating Layer relu6
I1226 14:16:48.015282 93636 net.cpp:612] relu6 <- fc6
I1226 14:16:48.015321 93636 net.cpp:573] relu6 -> fc6 (in-place)
I1226 14:16:48.015424 93636 net.cpp:228] Setting up relu6
I1226 14:16:48.015471 93636 net.cpp:235] Top shape: 128 4096 (524288)
I1226 14:16:48.015594 93636 net.cpp:243] Memory required for data: 1055964160
I1226 14:16:48.015630 93636 layer_factory.hpp:114] Creating layer drop6
I1226 14:16:48.015681 93636 net.cpp:178] Creating Layer drop6
I1226 14:16:48.015746 93636 net.cpp:612] drop6 <- fc6
I1226 14:16:48.015782 93636 net.cpp:573] drop6 -> fc6 (in-place)
I1226 14:16:48.015844 93636 net.cpp:228] Setting up drop6
I1226 14:16:48.015884 93636 net.cpp:235] Top shape: 128 4096 (524288)
I1226 14:16:48.015908 93636 net.cpp:243] Memory required for data: 1058061312
I1226 14:16:48.015935 93636 layer_factory.hpp:114] Creating layer fc7
I1226 14:16:48.015995 93636 net.cpp:178] Creating Layer fc7
I1226 14:16:48.016033 93636 net.cpp:612] fc7 <- fc6
I1226 14:16:48.016094 93636 net.cpp:586] fc7 -> fc7
I1226 14:16:48.581626 97044 net.cpp:228] Setting up conv5
I1226 14:16:48.581745 97044 net.cpp:235] Top shape: 128 256 13 13 (5537792)
I1226 14:16:48.581779 97044 net.cpp:243] Memory required for data: 1024900096
I1226 14:16:48.581912 97044 layer_factory.hpp:114] Creating layer relu5
I1226 14:16:48.582005 97044 net.cpp:178] Creating Layer relu5
I1226 14:16:48.582051 97044 net.cpp:612] relu5 <- conv5
I1226 14:16:48.582103 97044 net.cpp:573] relu5 -> conv5 (in-place)
I1226 14:16:48.582201 97044 net.cpp:228] Setting up relu5
I1226 14:16:48.582247 97044 net.cpp:235] Top shape: 128 256 13 13 (5537792)
I1226 14:16:48.582273 97044 net.cpp:243] Memory required for data: 1047051264
I1226 14:16:48.582304 97044 layer_factory.hpp:114] Creating layer pool5
I1226 14:16:48.582366 97044 net.cpp:178] Creating Layer pool5
I1226 14:16:48.582418 97044 net.cpp:612] pool5 <- conv5
I1226 14:16:48.582460 97044 net.cpp:586] pool5 -> pool5
I1226 14:16:48.582557 97044 net.cpp:228] Setting up pool5
I1226 14:16:48.582607 97044 net.cpp:235] Top shape: 128 256 6 6 (1179648)
I1226 14:16:48.582631 97044 net.cpp:243] Memory required for data: 1051769856
I1226 14:16:48.582660 97044 layer_factory.hpp:114] Creating layer fc6
I1226 14:16:48.582720 97044 net.cpp:178] Creating Layer fc6
I1226 14:16:48.582754 97044 net.cpp:612] fc6 <- pool5
I1226 14:16:48.582834 97044 net.cpp:586] fc6 -> fc6
I1226 14:16:49.295042 93418 net.cpp:228] Setting up fc6
I1226 14:16:49.295161 93418 net.cpp:235] Top shape: 128 4096 (524288)
I1226 14:16:49.295189 93418 net.cpp:243] Memory required for data: 1053867008
I1226 14:16:49.295248 93418 layer_factory.hpp:114] Creating layer relu6
I1226 14:16:49.295321 93418 net.cpp:178] Creating Layer relu6
I1226 14:16:49.295361 93418 net.cpp:612] relu6 <- fc6
I1226 14:16:49.295442 93418 net.cpp:573] relu6 -> fc6 (in-place)
I1226 14:16:49.295553 93418 net.cpp:228] Setting up relu6
I1226 14:16:49.295716 93418 net.cpp:235] Top shape: 128 4096 (524288)
I1226 14:16:49.295752 93418 net.cpp:243] Memory required for data: 1055964160
I1226 14:16:49.295789 93418 layer_factory.hpp:114] Creating layer drop6
I1226 14:16:49.295850 93418 net.cpp:178] Creating Layer drop6
I1226 14:16:49.295887 93418 net.cpp:612] drop6 <- fc6
I1226 14:16:49.295930 93418 net.cpp:573] drop6 -> fc6 (in-place)
I1226 14:16:49.295999 93418 net.cpp:228] Setting up drop6
I1226 14:16:49.296041 93418 net.cpp:235] Top shape: 128 4096 (524288)
I1226 14:16:49.296069 93418 net.cpp:243] Memory required for data: 1058061312
I1226 14:16:49.296102 93418 layer_factory.hpp:114] Creating layer fc7
I1226 14:16:49.296167 93418 net.cpp:178] Creating Layer fc7
I1226 14:16:49.296200 93418 net.cpp:612] fc7 <- fc6
I1226 14:16:49.296247 93418 net.cpp:586] fc7 -> fc7
I1226 14:16:50.287760 93636 net.cpp:228] Setting up fc7
I1226 14:16:50.287870 93636 net.cpp:235] Top shape: 128 4096 (524288)
I1226 14:16:50.287899 93636 net.cpp:243] Memory required for data: 1060158464
I1226 14:16:50.287979 93636 layer_factory.hpp:114] Creating layer relu7
I1226 14:16:50.288067 93636 net.cpp:178] Creating Layer relu7
I1226 14:16:50.288110 93636 net.cpp:612] relu7 <- fc7
I1226 14:16:50.288149 93636 net.cpp:573] relu7 -> fc7 (in-place)
I1226 14:16:50.288234 93636 net.cpp:228] Setting up relu7
I1226 14:16:50.288280 93636 net.cpp:235] Top shape: 128 4096 (524288)
I1226 14:16:50.288305 93636 net.cpp:243] Memory required for data: 1062255616
I1226 14:16:50.288332 93636 layer_factory.hpp:114] Creating layer drop7
I1226 14:16:50.288379 93636 net.cpp:178] Creating Layer drop7
I1226 14:16:50.288408 93636 net.cpp:612] drop7 <- fc7
I1226 14:16:50.288463 93636 net.cpp:573] drop7 -> fc7 (in-place)
I1226 14:16:50.288516 93636 net.cpp:228] Setting up drop7
I1226 14:16:50.288556 93636 net.cpp:235] Top shape: 128 4096 (524288)
I1226 14:16:50.288579 93636 net.cpp:243] Memory required for data: 1064352768
I1226 14:16:50.288605 93636 layer_factory.hpp:114] Creating layer fc8
I1226 14:16:50.288663 93636 net.cpp:178] Creating Layer fc8
I1226 14:16:50.288717 93636 net.cpp:612] fc8 <- fc7
I1226 14:16:50.288758 93636 net.cpp:586] fc8 -> fc8
I1226 14:16:50.447870 91408 net.cpp:228] Setting up fc6
I1226 14:16:50.447981 91408 net.cpp:235] Top shape: 128 4096 (524288)
I1226 14:16:50.448014 91408 net.cpp:243] Memory required for data: 1053867008
I1226 14:16:50.448073 91408 layer_factory.hpp:114] Creating layer relu6
I1226 14:16:50.448155 91408 net.cpp:178] Creating Layer relu6
I1226 14:16:50.448287 91408 net.cpp:612] relu6 <- fc6
I1226 14:16:50.448355 91408 net.cpp:573] relu6 -> fc6 (in-place)
I1226 14:16:50.448451 91408 net.cpp:228] Setting up relu6
I1226 14:16:50.448607 91408 net.cpp:235] Top shape: 128 4096 (524288)
I1226 14:16:50.448637 91408 net.cpp:243] Memory required for data: 1055964160
I1226 14:16:50.448669 91408 layer_factory.hpp:114] Creating layer drop6
I1226 14:16:50.448737 91408 net.cpp:178] Creating Layer drop6
I1226 14:16:50.448779 91408 net.cpp:612] drop6 <- fc6
I1226 14:16:50.448822 91408 net.cpp:573] drop6 -> fc6 (in-place)
I1226 14:16:50.448886 91408 net.cpp:228] Setting up drop6
I1226 14:16:50.448925 91408 net.cpp:235] Top shape: 128 4096 (524288)
I1226 14:16:50.449054 91408 net.cpp:243] Memory required for data: 1058061312
I1226 14:16:50.449082 91408 layer_factory.hpp:114] Creating layer fc7
I1226 14:16:50.449142 91408 net.cpp:178] Creating Layer fc7
I1226 14:16:50.449177 91408 net.cpp:612] fc7 <- fc6
I1226 14:16:50.449218 91408 net.cpp:586] fc7 -> fc7
I1226 14:16:50.478808 91497 net.cpp:228] Setting up fc6
I1226 14:16:50.478919 91497 net.cpp:235] Top shape: 128 4096 (524288)
I1226 14:16:50.478945 91497 net.cpp:243] Memory required for data: 1053867008
I1226 14:16:50.479029 91497 layer_factory.hpp:114] Creating layer relu6
I1226 14:16:50.479107 91497 net.cpp:178] Creating Layer relu6
I1226 14:16:50.479146 91497 net.cpp:612] relu6 <- fc6
I1226 14:16:50.479185 91497 net.cpp:573] relu6 -> fc6 (in-place)
I1226 14:16:50.479284 91497 net.cpp:228] Setting up relu6
I1226 14:16:50.479419 91497 net.cpp:235] Top shape: 128 4096 (524288)
I1226 14:16:50.479450 91497 net.cpp:243] Memory required for data: 1055964160
I1226 14:16:50.479482 91497 layer_factory.hpp:114] Creating layer drop6
I1226 14:16:50.479543 91497 net.cpp:178] Creating Layer drop6
I1226 14:16:50.479571 91497 net.cpp:612] drop6 <- fc6
I1226 14:16:50.479607 91497 net.cpp:573] drop6 -> fc6 (in-place)
I1226 14:16:50.479671 91497 net.cpp:228] Setting up drop6
I1226 14:16:50.479732 91497 net.cpp:235] Top shape: 128 4096 (524288)
I1226 14:16:50.479760 91497 net.cpp:243] Memory required for data: 1058061312
I1226 14:16:50.479799 91497 layer_factory.hpp:114] Creating layer fc7
I1226 14:16:50.479858 91497 net.cpp:178] Creating Layer fc7
I1226 14:16:50.479883 91497 net.cpp:612] fc7 <- fc6
I1226 14:16:50.479930 91497 net.cpp:586] fc7 -> fc7
I1226 14:16:50.505254 92503 net.cpp:228] Setting up fc6
I1226 14:16:50.505389 92503 net.cpp:235] Top shape: 128 4096 (524288)
I1226 14:16:50.505419 92503 net.cpp:243] Memory required for data: 1053867008
I1226 14:16:50.505476 92503 layer_factory.hpp:114] Creating layer relu6
I1226 14:16:50.505548 92503 net.cpp:178] Creating Layer relu6
I1226 14:16:50.505583 92503 net.cpp:612] relu6 <- fc6
I1226 14:16:50.505625 92503 net.cpp:573] relu6 -> fc6 (in-place)
I1226 14:16:50.505717 92503 net.cpp:228] Setting up relu6
I1226 14:16:50.505892 92503 net.cpp:235] Top shape: 128 4096 (524288)
I1226 14:16:50.505921 92503 net.cpp:243] Memory required for data: 1055964160
I1226 14:16:50.505951 92503 layer_factory.hpp:114] Creating layer drop6
I1226 14:16:50.506014 92503 net.cpp:178] Creating Layer drop6
I1226 14:16:50.506042 92503 net.cpp:612] drop6 <- fc6
I1226 14:16:50.506078 92503 net.cpp:573] drop6 -> fc6 (in-place)
I1226 14:16:50.506175 92503 net.cpp:228] Setting up drop6
I1226 14:16:50.506224 92503 net.cpp:235] Top shape: 128 4096 (524288)
I1226 14:16:50.506248 92503 net.cpp:243] Memory required for data: 1058061312
I1226 14:16:50.506275 92503 layer_factory.hpp:114] Creating layer fc7
I1226 14:16:50.506373 92503 net.cpp:178] Creating Layer fc7
I1226 14:16:50.506409 92503 net.cpp:612] fc7 <- fc6
I1226 14:16:50.506448 92503 net.cpp:586] fc7 -> fc7
I1226 14:16:50.593550 98928 net.cpp:228] Setting up fc6
I1226 14:16:50.593660 98928 net.cpp:235] Top shape: 128 4096 (524288)
I1226 14:16:50.593689 98928 net.cpp:243] Memory required for data: 1053867008
I1226 14:16:50.593775 98928 layer_factory.hpp:114] Creating layer relu6
I1226 14:16:50.593859 98928 net.cpp:178] Creating Layer relu6
I1226 14:16:50.593895 98928 net.cpp:612] relu6 <- fc6
I1226 14:16:50.593935 98928 net.cpp:573] relu6 -> fc6 (in-place)
I1226 14:16:50.594036 98928 net.cpp:228] Setting up relu6
I1226 14:16:50.594219 98928 net.cpp:235] Top shape: 128 4096 (524288)
I1226 14:16:50.594252 98928 net.cpp:243] Memory required for data: 1055964160
I1226 14:16:50.594287 98928 layer_factory.hpp:114] Creating layer drop6
I1226 14:16:50.594354 98928 net.cpp:178] Creating Layer drop6
I1226 14:16:50.594384 98928 net.cpp:612] drop6 <- fc6
I1226 14:16:50.594420 98928 net.cpp:573] drop6 -> fc6 (in-place)
I1226 14:16:50.594485 98928 net.cpp:228] Setting up drop6
I1226 14:16:50.594527 98928 net.cpp:235] Top shape: 128 4096 (524288)
I1226 14:16:50.594552 98928 net.cpp:243] Memory required for data: 1058061312
I1226 14:16:50.594583 98928 layer_factory.hpp:114] Creating layer fc7
I1226 14:16:50.594650 98928 net.cpp:178] Creating Layer fc7
I1226 14:16:50.594683 98928 net.cpp:612] fc7 <- fc6
I1226 14:16:50.594728 98928 net.cpp:586] fc7 -> fc7
I1226 14:16:50.835952 93636 net.cpp:228] Setting up fc8
I1226 14:16:50.836061 93636 net.cpp:235] Top shape: 128 1000 (128000)
I1226 14:16:50.836091 93636 net.cpp:243] Memory required for data: 1064864768
I1226 14:16:50.836148 93636 layer_factory.hpp:114] Creating layer fc8_fc8_0_split
I1226 14:16:50.836241 93636 net.cpp:178] Creating Layer fc8_fc8_0_split
I1226 14:16:50.836355 93636 net.cpp:612] fc8_fc8_0_split <- fc8
I1226 14:16:50.836393 93636 net.cpp:586] fc8_fc8_0_split -> fc8_fc8_0_split_0
I1226 14:16:50.836442 93636 net.cpp:586] fc8_fc8_0_split -> fc8_fc8_0_split_1
I1226 14:16:50.836530 93636 net.cpp:228] Setting up fc8_fc8_0_split
I1226 14:16:50.836576 93636 net.cpp:235] Top shape: 128 1000 (128000)
I1226 14:16:50.836607 93636 net.cpp:235] Top shape: 128 1000 (128000)
I1226 14:16:50.836630 93636 net.cpp:243] Memory required for data: 1065888768
I1226 14:16:50.836658 93636 layer_factory.hpp:114] Creating layer accuracy
I1226 14:16:50.836735 93636 net.cpp:178] Creating Layer accuracy
I1226 14:16:50.836772 93636 net.cpp:612] accuracy <- fc8_fc8_0_split_0
I1226 14:16:50.836802 93636 net.cpp:612] accuracy <- label_data_1_split_0
I1226 14:16:50.836834 93636 net.cpp:586] accuracy -> accuracy
…
I1226 14:16:50.864843 93636 net.cpp:307] data does not need backward computation.
I1226 14:16:50.864872 93636 net.cpp:349] This network produces output accuracy
I1226 14:16:50.864907 93636 net.cpp:349] This network produces output loss
I1226 14:16:50.865005 93636 net.cpp:363] Network initialization done.
I1226 14:16:50.865559 93636 solver.cpp:107] Solver scaffolding done.
I1226 14:16:50.865799 93636 caffe.cpp:212] Finetuning from /export/data1/stanford/hazy/gordon_bell/caffenet_knl/snapshot/caffenet_MN8_B1024/_iter_25000.caffemodel
I1226 14:16:51.595155 93418 net.cpp:228] Setting up fc7
I1226 14:16:51.595265 93418 net.cpp:235] Top shape: 128 4096 (524288)
I1226 14:16:51.595291 93418 net.cpp:243] Memory required for data: 1060158464
I1226 14:16:51.595348 93418 layer_factory.hpp:114] Creating layer relu7
I1226 14:16:51.595438 93418 net.cpp:178] Creating Layer relu7
I1226 14:16:51.595482 93418 net.cpp:612] relu7 <- fc7
I1226 14:16:51.595525 93418 net.cpp:573] relu7 -> fc7 (in-place)
I1226 14:16:51.595633 93418 net.cpp:228] Setting up relu7
I1226 14:16:51.595684 93418 net.cpp:235] Top shape: 128 4096 (524288)
I1226 14:16:51.595710 93418 net.cpp:243] Memory required for data: 1062255616
I1226 14:16:51.595743 93418 layer_factory.hpp:114] Creating layer drop7
I1226 14:16:51.595816 93418 net.cpp:178] Creating Layer drop7
I1226 14:16:51.595849 93418 net.cpp:612] drop7 <- fc7
I1226 14:16:51.595890 93418 net.cpp:573] drop7 -> fc7 (in-place)
I1226 14:16:51.595973 93418 net.cpp:228] Setting up drop7
I1226 14:16:51.596011 93418 net.cpp:235] Top shape: 128 4096 (524288)
I1226 14:16:51.596035 93418 net.cpp:243] Memory required for data: 1064352768
I1226 14:16:51.596065 93418 layer_factory.hpp:114] Creating layer fc8
I1226 14:16:51.596123 93418 net.cpp:178] Creating Layer fc8
I1226 14:16:51.596153 93418 net.cpp:612] fc8 <- fc7
I1226 14:16:51.596194 93418 net.cpp:586] fc8 -> fc8
I1226 14:16:52.165596 93418 net.cpp:228] Setting up fc8
I1226 14:16:52.165710 93418 net.cpp:235] Top shape: 128 1000 (128000)
I1226 14:16:52.165740 93418 net.cpp:243] Memory required for data: 1064864768
I1226 14:16:52.165796 93418 layer_factory.hpp:114] Creating layer fc8_fc8_0_split
I1226 14:16:52.165865 93418 net.cpp:178] Creating Layer fc8_fc8_0_split
I1226 14:16:52.165901 93418 net.cpp:612] fc8_fc8_0_split <- fc8
I1226 14:16:52.165966 93418 net.cpp:586] fc8_fc8_0_split -> fc8_fc8_0_split_0
I1226 14:16:52.166028 93418 net.cpp:586] fc8_fc8_0_split -> fc8_fc8_0_split_1
I1226 14:16:52.166129 93418 net.cpp:228] Setting up fc8_fc8_0_split
I1226 14:16:52.166180 93418 net.cpp:235] Top shape: 128 1000 (128000)
I1226 14:16:52.166215 93418 net.cpp:235] Top shape: 128 1000 (128000)
I1226 14:16:52.166240 93418 net.cpp:243] Memory required for data: 1065888768
I1226 14:16:52.166272 93418 layer_factory.hpp:114] Creating layer accuracy
I1226 14:16:52.166339 93418 net.cpp:178] Creating Layer accuracy
I1226 14:16:52.166390 93418 net.cpp:612] accuracy <- fc8_fc8_0_split_0
I1226 14:16:52.166435 93418 net.cpp:612] accuracy <- label_data_1_split_0
I1226 14:16:52.166478 93418 net.cpp:586] accuracy -> accuracy
…
I1226 14:16:52.188072 93418 net.cpp:307] data does not need backward computation.
I1226 14:16:52.188093 93418 net.cpp:349] This network produces output accuracy
I1226 14:16:52.188120 93418 net.cpp:349] This network produces output loss
I1226 14:16:52.188194 93418 net.cpp:363] Network initialization done.
I1226 14:16:52.188626 93418 solver.cpp:107] Solver scaffolding done.
I1226 14:16:52.188783 93418 caffe.cpp:212] Finetuning from /export/data1/stanford/hazy/gordon_bell/caffenet_knl/snapshot/caffenet_MN8_B1024/_iter_25000.caffemodel
I1226 14:16:52.729979 91408 net.cpp:228] Setting up fc7
I1226 14:16:52.730109 91408 net.cpp:235] Top shape: 128 4096 (524288)
I1226 14:16:52.730140 91408 net.cpp:243] Memory required for data: 1060158464
I1226 14:16:52.730198 91408 layer_factory.hpp:114] Creating layer relu7
I1226 14:16:52.730383 91408 net.cpp:178] Creating Layer relu7
I1226 14:16:52.730482 91408 net.cpp:612] relu7 <- fc7
I1226 14:16:52.730598 91408 net.cpp:573] relu7 -> fc7 (in-place)
I1226 14:16:52.730717 91408 net.cpp:228] Setting up relu7
I1226 14:16:52.730775 91408 net.cpp:235] Top shape: 128 4096 (524288)
I1226 14:16:52.730800 91408 net.cpp:243] Memory required for data: 1062255616
I1226 14:16:52.730832 91408 layer_factory.hpp:114] Creating layer drop7
I1226 14:16:52.730901 91408 net.cpp:178] Creating Layer drop7
I1226 14:16:52.730927 91408 net.cpp:612] drop7 <- fc7
I1226 14:16:52.730962 91408 net.cpp:573] drop7 -> fc7 (in-place)
I1226 14:16:52.731088 91408 net.cpp:228] Setting up drop7
I1226 14:16:52.731124 91408 net.cpp:235] Top shape: 128 4096 (524288)
I1226 14:16:52.731147 91408 net.cpp:243] Memory required for data: 1064352768
I1226 14:16:52.731178 91408 layer_factory.hpp:114] Creating layer fc8
I1226 14:16:52.731248 91408 net.cpp:178] Creating Layer fc8
I1226 14:16:52.731289 91408 net.cpp:612] fc8 <- fc7
I1226 14:16:52.731354 91408 net.cpp:586] fc8 -> fc8
I1226 14:16:52.745993 91497 net.cpp:228] Setting up fc7
I1226 14:16:52.746104 91497 net.cpp:235] Top shape: 128 4096 (524288)
I1226 14:16:52.746134 91497 net.cpp:243] Memory required for data: 1060158464
I1226 14:16:52.746196 91497 layer_factory.hpp:114] Creating layer relu7
I1226 14:16:52.746273 91497 net.cpp:178] Creating Layer relu7
I1226 14:16:52.746305 91497 net.cpp:612] relu7 <- fc7
I1226 14:16:52.746346 91497 net.cpp:573] relu7 -> fc7 (in-place)
I1226 14:16:52.746465 91497 net.cpp:228] Setting up relu7
I1226 14:16:52.746520 91497 net.cpp:235] Top shape: 128 4096 (524288)
I1226 14:16:52.746546 91497 net.cpp:243] Memory required for data: 1062255616
I1226 14:16:52.746577 91497 layer_factory.hpp:114] Creating layer drop7
I1226 14:16:52.746630 91497 net.cpp:178] Creating Layer drop7
I1226 14:16:52.746660 91497 net.cpp:612] drop7 <- fc7
I1226 14:16:52.746726 91497 net.cpp:573] drop7 -> fc7 (in-place)
I1226 14:16:52.746783 91497 net.cpp:228] Setting up drop7
I1226 14:16:52.746821 91497 net.cpp:235] Top shape: 128 4096 (524288)
I1226 14:16:52.746858 91497 net.cpp:243] Memory required for data: 1064352768
I1226 14:16:52.746888 91497 layer_factory.hpp:114] Creating layer fc8
I1226 14:16:52.746949 91497 net.cpp:178] Creating Layer fc8
I1226 14:16:52.746978 91497 net.cpp:612] fc8 <- fc7
I1226 14:16:52.747022 91497 net.cpp:586] fc8 -> fc8
I1226 14:16:52.763401 92503 net.cpp:228] Setting up fc7
I1226 14:16:52.763514 92503 net.cpp:235] Top shape: 128 4096 (524288)
I1226 14:16:52.763545 92503 net.cpp:243] Memory required for data: 1060158464
I1226 14:16:52.763602 92503 layer_factory.hpp:114] Creating layer relu7
I1226 14:16:52.763681 92503 net.cpp:178] Creating Layer relu7
I1226 14:16:52.763808 92503 net.cpp:612] relu7 <- fc7
I1226 14:16:52.763845 92503 net.cpp:573] relu7 -> fc7 (in-place)
I1226 14:16:52.763937 92503 net.cpp:228] Setting up relu7
I1226 14:16:52.763986 92503 net.cpp:235] Top shape: 128 4096 (524288)
I1226 14:16:52.764010 92503 net.cpp:243] Memory required for data: 1062255616
I1226 14:16:52.764040 92503 layer_factory.hpp:114] Creating layer drop7
I1226 14:16:52.764091 92503 net.cpp:178] Creating Layer drop7
I1226 14:16:52.764117 92503 net.cpp:612] drop7 <- fc7
I1226 14:16:52.764161 92503 net.cpp:573] drop7 -> fc7 (in-place)
I1226 14:16:52.764211 92503 net.cpp:228] Setting up drop7
I1226 14:16:52.764255 92503 net.cpp:235] Top shape: 128 4096 (524288)
I1226 14:16:52.764278 92503 net.cpp:243] Memory required for data: 1064352768
I1226 14:16:52.764325 92503 layer_factory.hpp:114] Creating layer fc8
I1226 14:16:52.764382 92503 net.cpp:178] Creating Layer fc8
I1226 14:16:52.764416 92503 net.cpp:612] fc8 <- fc7
I1226 14:16:52.764456 92503 net.cpp:586] fc8 -> fc8
I1226 14:16:52.864197 98928 net.cpp:228] Setting up fc7
I1226 14:16:52.864310 98928 net.cpp:235] Top shape: 128 4096 (524288)
I1226 14:16:52.864337 98928 net.cpp:243] Memory required for data: 1060158464
I1226 14:16:52.864423 98928 layer_factory.hpp:114] Creating layer relu7
I1226 14:16:52.864517 98928 net.cpp:178] Creating Layer relu7
I1226 14:16:52.864565 98928 net.cpp:612] relu7 <- fc7
I1226 14:16:52.864605 98928 net.cpp:573] relu7 -> fc7 (in-place)
I1226 14:16:52.864696 98928 net.cpp:228] Setting up relu7
I1226 14:16:52.864745 98928 net.cpp:235] Top shape: 128 4096 (524288)
I1226 14:16:52.864769 98928 net.cpp:243] Memory required for data: 1062255616
I1226 14:16:52.864799 98928 layer_factory.hpp:114] Creating layer drop7
I1226 14:16:52.864837 98928 net.cpp:178] Creating Layer drop7
I1226 14:16:52.864864 98928 net.cpp:612] drop7 <- fc7
I1226 14:16:52.864912 98928 net.cpp:573] drop7 -> fc7 (in-place)
I1226 14:16:52.864959 98928 net.cpp:228] Setting up drop7
I1226 14:16:52.864989 98928 net.cpp:235] Top shape: 128 4096 (524288)
I1226 14:16:52.865021 98928 net.cpp:243] Memory required for data: 1064352768
I1226 14:16:52.865054 98928 layer_factory.hpp:114] Creating layer fc8
I1226 14:16:52.865139 98928 net.cpp:178] Creating Layer fc8
I1226 14:16:52.865170 98928 net.cpp:612] fc8 <- fc7
I1226 14:16:52.865211 98928 net.cpp:586] fc8 -> fc8
I1226 14:16:53.285995 91408 net.cpp:228] Setting up fc8
I1226 14:16:53.286106 91408 net.cpp:235] Top shape: 128 1000 (128000)
I1226 14:16:53.286134 91408 net.cpp:243] Memory required for data: 1064864768
I1226 14:16:53.286191 91408 layer_factory.hpp:114] Creating layer fc8_fc8_0_split
I1226 14:16:53.286336 91408 net.cpp:178] Creating Layer fc8_fc8_0_split
I1226 14:16:53.286427 91408 net.cpp:612] fc8_fc8_0_split <- fc8
I1226 14:16:53.286468 91408 net.cpp:586] fc8_fc8_0_split -> fc8_fc8_0_split_0
I1226 14:16:53.286519 91408 net.cpp:586] fc8_fc8_0_split -> fc8_fc8_0_split_1
I1226 14:16:53.286633 91408 net.cpp:228] Setting up fc8_fc8_0_split
I1226 14:16:53.286700 91408 net.cpp:235] Top shape: 128 1000 (128000)
I1226 14:16:53.286731 91408 net.cpp:235] Top shape: 128 1000 (128000)
I1226 14:16:53.286752 91408 net.cpp:243] Memory required for data: 1065888768
I1226 14:16:53.286887 91408 layer_factory.hpp:114] Creating layer accuracy
I1226 14:16:53.286943 91408 net.cpp:178] Creating Layer accuracy
I1226 14:16:53.286969 91408 net.cpp:612] accuracy <- fc8_fc8_0_split_0
I1226 14:16:53.287000 91408 net.cpp:612] accuracy <- label_data_1_split_0
I1226 14:16:53.287040 91408 net.cpp:586] accuracy -> accuracy
…
I1226 14:16:53.319277 91408 net.cpp:307] data does not need backward computation.
I1226 14:16:53.319326 91408 net.cpp:349] This network produces output accuracy
I1226 14:16:53.319375 91408 net.cpp:349] This network produces output loss
I1226 14:16:53.319478 91408 net.cpp:363] Network initialization done.
I1226 14:16:53.319952 91408 solver.cpp:107] Solver scaffolding done.
I1226 14:16:53.320181 91408 caffe.cpp:212] Finetuning from /export/data1/stanford/hazy/gordon_bell/caffenet_knl/snapshot/caffenet_MN8_B1024/_iter_25000.caffemodel
I1226 14:16:53.314934 91497 net.cpp:228] Setting up fc8
I1226 14:16:53.315047 91497 net.cpp:235] Top shape: 128 1000 (128000)
I1226 14:16:53.315074 91497 net.cpp:243] Memory required for data: 1064864768
I1226 14:16:53.315130 91497 layer_factory.hpp:114] Creating layer fc8_fc8_0_split
I1226 14:16:53.315207 91497 net.cpp:178] Creating Layer fc8_fc8_0_split
I1226 14:16:53.315325 91497 net.cpp:612] fc8_fc8_0_split <- fc8
I1226 14:16:53.315388 91497 net.cpp:586] fc8_fc8_0_split -> fc8_fc8_0_split_0
I1226 14:16:53.315443 91497 net.cpp:586] fc8_fc8_0_split -> fc8_fc8_0_split_1
I1226 14:16:53.315536 91497 net.cpp:228] Setting up fc8_fc8_0_split
I1226 14:16:53.315578 91497 net.cpp:235] Top shape: 128 1000 (128000)
I1226 14:16:53.315616 91497 net.cpp:235] Top shape: 128 1000 (128000)
I1226 14:16:53.315649 91497 net.cpp:243] Memory required for data: 1065888768
I1226 14:16:53.315680 91497 layer_factory.hpp:114] Creating layer accuracy
I1226 14:16:53.315758 91497 net.cpp:178] Creating Layer accuracy
I1226 14:16:53.315789 91497 net.cpp:612] accuracy <- fc8_fc8_0_split_0
I1226 14:16:53.315829 91497 net.cpp:612] accuracy <- label_data_1_split_0
I1226 14:16:53.315878 91497 net.cpp:586] accuracy -> accuracy
I1226 14:16:53.315933 91497 net.cpp:228] Setting up accuracy
I1226 14:16:53.315974 91497 net.cpp:235] Top shape: (1)
I1226 14:16:53.315999 91497 net.cpp:243] Memory required for data: 1065888772
I1226 14:16:53.316026 91497 layer_factory.hpp:114] Creating layer loss
I1226 14:16:53.316071 91497 net.cpp:178] Creating Layer loss
I1226 14:16:53.316102 91497 net.cpp:612] loss <- fc8_fc8_0_split_1
I1226 14:16:53.316131 91497 net.cpp:612] loss <- label_data_1_split_1
I1226 14:16:53.316164 91497 net.cpp:586] loss -> loss
I1226 14:16:53.316226 91497 layer_factory.hpp:114] Creating layer loss
I1226 14:16:53.319422 92503 net.cpp:228] Setting up fc8
I1226 14:16:53.319533 92503 net.cpp:235] Top shape: 128 1000 (128000)
I1226 14:16:53.319561 92503 net.cpp:243] Memory required for data: 1064864768
I1226 14:16:53.319643 92503 layer_factory.hpp:114] Creating layer fc8_fc8_0_split
I1226 14:16:53.319717 92503 net.cpp:178] Creating Layer fc8_fc8_0_split
I1226 14:16:53.319756 92503 net.cpp:612] fc8_fc8_0_split <- fc8
I1226 14:16:53.319811 92503 net.cpp:586] fc8_fc8_0_split -> fc8_fc8_0_split_0
I1226 14:16:53.319864 92503 net.cpp:586] fc8_fc8_0_split -> fc8_fc8_0_split_1
I1226 14:16:53.319950 92503 net.cpp:228] Setting up fc8_fc8_0_split
I1226 14:16:53.319989 92503 net.cpp:235] Top shape: 128 1000 (128000)
I1226 14:16:53.320025 92503 net.cpp:235] Top shape: 128 1000 (128000)
I1226 14:16:53.320051 92503 net.cpp:243] Memory required for data: 1065888768
I1226 14:16:53.320080 92503 layer_factory.hpp:114] Creating layer accuracy
I1226 14:16:53.320129 92503 net.cpp:178] Creating Layer accuracy
I1226 14:16:53.320163 92503 net.cpp:612] accuracy <- fc8_fc8_0_split_0
I1226 14:16:53.320199 92503 net.cpp:612] accuracy <- label_data_1_split_0
I1226 14:16:53.320232 92503 net.cpp:586] accuracy -> accuracy
…
I1226 14:16:56.575636 92503 caffe.cpp:392] Starting Multi-node Optimization in mpi environment
I1226 14:16:56.582511 91497 caffe.cpp:376] Configuring multinode setup
I1226 14:16:56.583919 91497 caffe.cpp:392] Starting Multi-node Optimization in mpi environment
I1226 14:16:56.694471 98928 caffe.cpp:376] Configuring multinode setup
I1226 14:16:56.695832 98928 caffe.cpp:392] Starting Multi-node Optimization in mpi environment
I1226 14:16:57.340623 91408 caffe.cpp:376] Configuring multinode setup
I1226 14:16:57.342092 91408 caffe.cpp:392] Starting Multi-node Optimization in mpi environment
I1226 14:17:16.985034 95408 net.cpp:228] Setting up fc6
I1226 14:17:16.985297 95408 net.cpp:235] Top shape: 128 4096 (524288)
I1226 14:17:16.985340 95408 net.cpp:243] Memory required for data: 1053867008
I1226 14:17:16.985407 95408 layer_factory.hpp:114] Creating layer relu6
I1226 14:17:16.985491 95408 net.cpp:178] Creating Layer relu6
I1226 14:17:16.985535 95408 net.cpp:612] relu6 <- fc6
I1226 14:17:16.985599 95408 net.cpp:573] relu6 -> fc6 (in-place)
I1226 14:17:16.985693 95408 net.cpp:228] Setting up relu6
I1226 14:17:16.985749 95408 net.cpp:235] Top shape: 128 4096 (524288)
I1226 14:17:16.985783 95408 net.cpp:243] Memory required for data: 1055964160
I1226 14:17:16.985848 95408 layer_factory.hpp:114] Creating layer drop6
I1226 14:17:16.985908 95408 net.cpp:178] Creating Layer drop6
I1226 14:17:16.985936 95408 net.cpp:612] drop6 <- fc6
I1226 14:17:16.985985 95408 net.cpp:573] drop6 -> fc6 (in-place)
I1226 14:17:16.986040 95408 net.cpp:228] Setting up drop6
I1226 14:17:16.986076 95408 net.cpp:235] Top shape: 128 4096 (524288)
I1226 14:17:16.986100 95408 net.cpp:243] Memory required for data: 1058061312
I1226 14:17:16.986129 95408 layer_factory.hpp:114] Creating layer fc7
I1226 14:17:16.986182 95408 net.cpp:178] Creating Layer fc7
I1226 14:17:16.986209 95408 net.cpp:612] fc7 <- fc6
I1226 14:17:16.986245 95408 net.cpp:586] fc7 -> fc7
I1226 14:17:17.222532 97473 net.cpp:228] Setting up fc6
I1226 14:17:17.222821 97473 net.cpp:235] Top shape: 128 4096 (524288)
I1226 14:17:17.222869 97473 net.cpp:243] Memory required for data: 1053867008
I1226 14:17:17.222934 97473 layer_factory.hpp:114] Creating layer relu6
I1226 14:17:17.223094 97473 net.cpp:178] Creating Layer relu6
I1226 14:17:17.223145 97473 net.cpp:612] relu6 <- fc6
I1226 14:17:17.223211 97473 net.cpp:573] relu6 -> fc6 (in-place)
I1226 14:17:17.223318 97473 net.cpp:228] Setting up relu6
I1226 14:17:17.223372 97473 net.cpp:235] Top shape: 128 4096 (524288)
I1226 14:17:17.223407 97473 net.cpp:243] Memory required for data: 1055964160
I1226 14:17:17.223448 97473 layer_factory.hpp:114] Creating layer drop6
I1226 14:17:17.223508 97473 net.cpp:178] Creating Layer drop6
I1226 14:17:17.223546 97473 net.cpp:612] drop6 <- fc6
I1226 14:17:17.223587 97473 net.cpp:573] drop6 -> fc6 (in-place)
I1226 14:17:17.223644 97473 net.cpp:228] Setting up drop6
I1226 14:17:17.223686 97473 net.cpp:235] Top shape: 128 4096 (524288)
I1226 14:17:17.223712 97473 net.cpp:243] Memory required for data: 1058061312
I1226 14:17:17.223770 97473 layer_factory.hpp:114] Creating layer fc7
I1226 14:17:17.223860 97473 net.cpp:178] Creating Layer fc7
I1226 14:17:17.223903 97473 net.cpp:612] fc7 <- fc6
I1226 14:17:17.223948 97473 net.cpp:586] fc7 -> fc7
I1226 14:17:18.003244 97044 net.cpp:228] Setting up fc6
I1226 14:17:18.003496 97044 net.cpp:235] Top shape: 128 4096 (524288)
I1226 14:17:18.003541 97044 net.cpp:243] Memory required for data: 1053867008
I1226 14:17:18.003609 97044 layer_factory.hpp:114] Creating layer relu6
I1226 14:17:18.003703 97044 net.cpp:178] Creating Layer relu6
I1226 14:17:18.003819 97044 net.cpp:612] relu6 <- fc6
I1226 14:17:18.003871 97044 net.cpp:573] relu6 -> fc6 (in-place)
I1226 14:17:18.003964 97044 net.cpp:228] Setting up relu6
I1226 14:17:18.004011 97044 net.cpp:235] Top shape: 128 4096 (524288)
I1226 14:17:18.004041 97044 net.cpp:243] Memory required for data: 1055964160
I1226 14:17:18.004076 97044 layer_factory.hpp:114] Creating layer drop6
I1226 14:17:18.004158 97044 net.cpp:178] Creating Layer drop6
I1226 14:17:18.004210 97044 net.cpp:612] drop6 <- fc6
I1226 14:17:18.004287 97044 net.cpp:573] drop6 -> fc6 (in-place)
I1226 14:17:18.004371 97044 net.cpp:228] Setting up drop6
I1226 14:17:18.004441 97044 net.cpp:235] Top shape: 128 4096 (524288)
I1226 14:17:18.004477 97044 net.cpp:243] Memory required for data: 1058061312
I1226 14:17:18.004518 97044 layer_factory.hpp:114] Creating layer fc7
I1226 14:17:18.004590 97044 net.cpp:178] Creating Layer fc7
I1226 14:17:18.004624 97044 net.cpp:612] fc7 <- fc6
I1226 14:17:18.004672 97044 net.cpp:586] fc7 -> fc7
I1226 14:17:30.056569 95408 net.cpp:228] Setting up fc7
I1226 14:17:30.056689 95408 net.cpp:235] Top shape: 128 4096 (524288)
I1226 14:17:30.056726 95408 net.cpp:243] Memory required for data: 1060158464
I1226 14:17:30.056792 95408 layer_factory.hpp:114] Creating layer relu7
I1226 14:17:30.056982 95408 net.cpp:178] Creating Layer relu7
I1226 14:17:30.057023 95408 net.cpp:612] relu7 <- fc7
I1226 14:17:30.057063 95408 net.cpp:573] relu7 -> fc7 (in-place)
I1226 14:17:30.057159 95408 net.cpp:228] Setting up relu7
I1226 14:17:30.057222 95408 net.cpp:235] Top shape: 128 4096 (524288)
I1226 14:17:30.057250 95408 net.cpp:243] Memory required for data: 1062255616
I1226 14:17:30.057284 95408 layer_factory.hpp:114] Creating layer drop7
I1226 14:17:30.057337 95408 net.cpp:178] Creating Layer drop7
I1226 14:17:30.057375 95408 net.cpp:612] drop7 <- fc7
I1226 14:17:30.057415 95408 net.cpp:573] drop7 -> fc7 (in-place)
I1226 14:17:30.057467 95408 net.cpp:228] Setting up drop7
I1226 14:17:30.057513 95408 net.cpp:235] Top shape: 128 4096 (524288)
I1226 14:17:30.057549 95408 net.cpp:243] Memory required for data: 1064352768
I1226 14:17:30.057588 95408 layer_factory.hpp:114] Creating layer fc8
I1226 14:17:30.057654 95408 net.cpp:178] Creating Layer fc8
I1226 14:17:30.057690 95408 net.cpp:612] fc8 <- fc7
I1226 14:17:30.057745 95408 net.cpp:586] fc8 -> fc8
I1226 14:17:30.299144 97473 net.cpp:228] Setting up fc7
I1226 14:17:30.299260 97473 net.cpp:235] Top shape: 128 4096 (524288)
I1226 14:17:30.299298 97473 net.cpp:243] Memory required for data: 1060158464
I1226 14:17:30.299365 97473 layer_factory.hpp:114] Creating layer relu7
I1226 14:17:30.299451 97473 net.cpp:178] Creating Layer relu7
I1226 14:17:30.299499 97473 net.cpp:612] relu7 <- fc7
I1226 14:17:30.299542 97473 net.cpp:573] relu7 -> fc7 (in-place)
I1226 14:17:30.299649 97473 net.cpp:228] Setting up relu7
I1226 14:17:30.299702 97473 net.cpp:235] Top shape: 128 4096 (524288)
I1226 14:17:30.299753 97473 net.cpp:243] Memory required for data: 1062255616
I1226 14:17:30.299793 97473 layer_factory.hpp:114] Creating layer drop7
I1226 14:17:30.299846 97473 net.cpp:178] Creating Layer drop7
I1226 14:17:30.299885 97473 net.cpp:612] drop7 <- fc7
I1226 14:17:30.299932 97473 net.cpp:573] drop7 -> fc7 (in-place)
I1226 14:17:30.299981 97473 net.cpp:228] Setting up drop7
I1226 14:17:30.300019 97473 net.cpp:235] Top shape: 128 4096 (524288)
I1226 14:17:30.300051 97473 net.cpp:243] Memory required for data: 1064352768
I1226 14:17:30.300079 97473 layer_factory.hpp:114] Creating layer fc8
I1226 14:17:30.300142 97473 net.cpp:178] Creating Layer fc8
I1226 14:17:30.300176 97473 net.cpp:612] fc8 <- fc7
I1226 14:17:30.300233 97473 net.cpp:586] fc8 -> fc8
I1226 14:17:31.076092 97044 net.cpp:228] Setting up fc7
I1226 14:17:31.076215 97044 net.cpp:235] Top shape: 128 4096 (524288)
I1226 14:17:31.076264 97044 net.cpp:243] Memory required for data: 1060158464
I1226 14:17:31.076354 97044 layer_factory.hpp:114] Creating layer relu7
I1226 14:17:31.076464 97044 net.cpp:178] Creating Layer relu7
I1226 14:17:31.076529 97044 net.cpp:612] relu7 <- fc7
I1226 14:17:31.076581 97044 net.cpp:573] relu7 -> fc7 (in-place)
I1226 14:17:31.076704 97044 net.cpp:228] Setting up relu7
I1226 14:17:31.076774 97044 net.cpp:235] Top shape: 128 4096 (524288)
I1226 14:17:31.076848 97044 net.cpp:243] Memory required for data: 1062255616
I1226 14:17:31.076895 97044 layer_factory.hpp:114] Creating layer drop7
I1226 14:17:31.076953 97044 net.cpp:178] Creating Layer drop7
I1226 14:17:31.076994 97044 net.cpp:612] drop7 <- fc7
I1226 14:17:31.077044 97044 net.cpp:573] drop7 -> fc7 (in-place)
I1226 14:17:31.077112 97044 net.cpp:228] Setting up drop7
I1226 14:17:31.077188 97044 net.cpp:235] Top shape: 128 4096 (524288)
I1226 14:17:31.077227 97044 net.cpp:243] Memory required for data: 1064352768
I1226 14:17:31.077268 97044 layer_factory.hpp:114] Creating layer fc8
I1226 14:17:31.077347 97044 net.cpp:178] Creating Layer fc8
I1226 14:17:31.077389 97044 net.cpp:612] fc8 <- fc7
I1226 14:17:31.077473 97044 net.cpp:586] fc8 -> fc8
I1226 14:17:33.243432 95408 net.cpp:228] Setting up fc8
I1226 14:17:33.243551 95408 net.cpp:235] Top shape: 128 1000 (128000)
I1226 14:17:33.243588 95408 net.cpp:243] Memory required for data: 1064864768
I1226 14:17:33.243654 95408 layer_factory.hpp:114] Creating layer fc8_fc8_0_split
I1226 14:17:33.243759 95408 net.cpp:178] Creating Layer fc8_fc8_0_split
I1226 14:17:33.243813 95408 net.cpp:612] fc8_fc8_0_split <- fc8
I1226 14:17:33.243887 95408 net.cpp:586] fc8_fc8_0_split -> fc8_fc8_0_split_0
I1226 14:17:33.243943 95408 net.cpp:586] fc8_fc8_0_split -> fc8_fc8_0_split_1
I1226 14:17:33.244043 95408 net.cpp:228] Setting up fc8_fc8_0_split
I1226 14:17:33.244107 95408 net.cpp:235] Top shape: 128 1000 (128000)
I1226 14:17:33.244143 95408 net.cpp:235] Top shape: 128 1000 (128000)
I1226 14:17:33.244179 95408 net.cpp:243] Memory required for data: 1065888768
I1226 14:17:33.244222 95408 layer_factory.hpp:114] Creating layer accuracy
I1226 14:17:33.244285 95408 net.cpp:178] Creating Layer accuracy
I1226 14:17:33.244318 95408 net.cpp:612] accuracy <- fc8_fc8_0_split_0
I1226 14:17:33.244350 95408 net.cpp:612] accuracy <- label_data_1_split_0
I1226 14:17:33.244411 95408 net.cpp:586] accuracy -> accuracy
…
