…
I1226 09:06:53.171639 91281 net.cpp:500] The NetState phase (0) differed from the phase (1) specified by a rule in layer data
I1226 09:06:53.163146 94464 net.cpp:136] Initializing net from parameters: 
name: "AlexNet"
state {
  phase: TRAIN
  level: 0
  stage: ""
}
engine: "MKL2017"
layer {
  name: "data"
  type: "Data"
  top: "data"
  top: "label"
  include {
    phase: TRAIN
  }
  transform_param {
    mirror: true
    crop_size: 227
    mean_value: 104
    mean_value: 117
    mean_value: 123
  }
  data_param {
    source: "/export/data1/stanford/hazy/zjian/gorden_bell/ILSVRC2012_lmdb/db_8/ilsvrc12_train_lmdb_1"
    batch_size: 32
    backend: LMDB
  }
}
layer {
  name: "label_data_1_split"
  type: "Split"
  bottom: "label"
  top: "label_data_1_split_0"
  top: "label_data_1_split_1"
}
layer {
  name: "conv1"
  type: "Convolution"
  bottom: "data"
  top: "conv1"
  param {
    lr_mult: 1
    decay_mult: 1
  }
  param {
    lr_mult: 2
    decay_mult: 0
  }
  convolution_param {
    num_output: 96
    kernel_size: 11
    stride: 4
    weight_filler {
      type: "gaussian"
      std: 0.01
    }
    bias_filler {
      type: "constant"
      value: 0
    }
    engine: MKL2017
  }
}
layer {
  name: "relu1"
  type: "ReLU"
  bottom: "conv1"
  top: "conv1"
  relu_param {
    engine: MKL2017
  }
}
layer {
  name: "norm1"
  type: "LRN"
  bottom: "conv1"
  top: "norm1"
  lrn_param {
    local_size: 5
    alpha: 0.0001
    beta: 0.75
    engine: MKL2017
  }
}
layer {
  name: "pool1"
  type: "Pooling"
  bottom: "norm1"
  top: "pool1"
  pooling_param {
    pool: MAX
    kernel_size: 3
    stride: 2
    engine: MKL2017
  }
}
layer {
  name: "conv2"
  type: "Convolution"
  bottom: "pool1"
  top: "conv2"
  param {
    lr_mult: 1
    decay_mult: 1
  }
  param {
    lr_mult: 2
    decay_mult: 0
  }
  convolution_param {
    num_output: 256
    pad: 2
    kernel_size: 5
    group: 2
    weight_filler {
      type: "gaussian"
      std: 0.01
    }
    bias_filler {
      type: "constant"
      value: 0.1
    }
    engine: MKL2017
  }
}
layer {
  name: "relu2"
  type: "ReLU"
  bottom: "conv2"
  top: "conv2"
  relu_param {
    engine: MKL2017
  }
}
layer {
  name: "norm2"
  type: "LRN"
  bottom: "conv2"
  top: "norm2"
  lrn_param {
    local_size: 5
    alpha: 0.0001
    beta: 0.75
    engine: MKL2017
  }
}
layer {
  name: "pool2"
  type: "Pooling"
  bottom: "norm2"
  top: "pool2"
  pooling_param {
    pool: MAX
    kernel_size: 3
    stride: 2
    engine: MKL2017
  }
}
layer {
  name: "conv3"
  type: "Convolution"
  bottom: "pool2"
  top: "conv3"
  param {
    lr_mult: 1
    decay_mult: 1
  }
  param {
    lr_mult: 2
    decay_mult: 0
  }
  convolution_param {
    num_output: 384
    pad: 1
    kernel_size: 3
    weight_filler {
      type: "gaussian"
      std: 0.01
    }
    bias_filler {
      type: "constant"
      value: 0
    }
    engine: MKL2017
  }
}
layer {
  name: "relu3"
  type: "ReLU"
  bottom: "conv3"
  top: "conv3"
  relu_param {
    engine: MKL2017
  }
}
layer {
  name: "conv4"
  type: "Convolution"
  bottom: "conv3"
  top: "conv4"
  param {
    lr_mult: 1
    decay_mult: 1
  }
  param {
    lr_mult: 2
    decay_mult: 0
  }
  convolution_param {
    num_output: 384
    pad: 1
    kernel_size: 3
    group: 2
    weight_filler {
      type: "gaussian"
      std: 0.01
    }
    bias_filler {
      type: "constant"
      value: 0.1
    }
    engine: MKL2017
  }
}
layer {
  name: "relu4"
  type: "ReLU"
  bottom: "conv4"
  top: "conv4"
  relu_param {
    engine: MKL2017
  }
}
layer {
  name: "conv5"
  type: "Convolution"
  bottom: "conv4"
  top: "conv5"
  param {
    lr_mult: 1
    decay_mult: 1
  }
  param {
    lr_mult: 2
    decay_mult: 0
  }
  convolution_param {
    num_output: 256
    pad: 1
    kernel_size: 3
    group: 2
    weight_filler {
      type: "gaussian"
      std: 0.01
    }
    bias_filler {
      type: "constant"
      value: 0.1
    }
    engine: MKL2017
  }
}
layer {
  name: "relu5"
  type: "ReLU"
  bottom: "conv5"
  top: "conv5"
  relu_param {
    engine: MKL2017
  }
}
layer {
  name: "pool5"
  type: "Pooling"
  bottom: "conv5"
  top: "pool5"
  pooling_param {
    pool: MAX
    kernel_size: 3
    stride: 2
    engine: MKL2017
  }
}
layer {
  name: "fc6"
  type: "InnerProduct"
  bottom: "pool5"
  top: "fc6"
  param {
    lr_mult: 1
    decay_mult: 1
  }
  param {
    lr_mult: 2
    decay_mult: 0
  }
  inner_product_param {
    num_output: 4096
    weight_filler {
      type: "gaussian"
      std: 0.005
    }
    bias_filler {
      type: "constant"
      value: 0.1
    }
  }
}
layer {
  name: "relu6"
  type: "ReLU"
  bottom: "fc6"
  top: "fc6"
}
layer {
  name: "drop6"
  type: "Dropout"
  bottom: "fc6"
  top: "fc6"
  dropout_param {
    dropout_ratio: 0.5
  }
}
layer {
  name: "fc7"
  type: "InnerProduct"
  bottom: "fc6"
  top: "fc7"
  param {
    lr_mult: 1
    decay_mult: 1
  }
  param {
    lr_mult: 2
    decay_mult: 0
  }
  inner_product_param {
    num_output: 4096
    weight_filler {
      type: "gaussian"
      std: 0.005
    }
    bias_filler {
      type: "constant"
      value: 0.1
    }
  }
}
layer {
  name: "relu7"
  type: "ReLU"
  bottom: "fc7"
  top: "fc7"
}
layer {
  name: "drop7"
  type: "Dropout"
  bottom: "fc7"
  top: "fc7"
  dropout_param {
    dropout_ratio: 0.5
  }
}
layer {
  name: "fc8"
  type: "InnerProduct"
  bottom: "fc7"
  top: "fc8"
  param {
    lr_mult: 1
    decay_mult: 1
  }
  param {
    lr_mult: 2
    decay_mult: 0
  }
  inner_product_param {
    num_output: 1000
    weight_filler {
      type: "gaussian"
      std: 0.01
    }
    bias_filler {
      type: "constant"
      value: 0
    }
  }
}
layer {
  name: "fc8_fc8_0_split"
  type: "Split"
  bottom: "fc8"
  top: "fc8_fc8_0_split_0"
  top: "fc8_fc8_0_split_1"
}
layer {
  name: "accuracy"
  type: "Accuracy"
  bottom: "fc8_fc8_0_split_0"
  bottom: "label_data_1_split_0"
  top: "accuracy"
}
layer {
  name: "loss"
  type: "SoftmaxWithLoss"
  bottom: "fc8_fc8_0_split_1"
  bottom: "label_data_1_split_1"
  top: "loss"
}
I1226 09:06:49.910840 90317 net.cpp:500] The NetState phase (0) differed from the phase (1) specified by a rule in layer data
I1226 09:06:53.173835 117050 net.cpp:136] Initializing net from parameters: 
name: "AlexNet"
state {
  phase: TRAIN
  level: 0
  stage: ""
}
engine: "MKL2017"
layer {
  name: "data"
  type: "Data"
  top: "data"
  top: "label"
  include {
    phase: TRAIN
  }
  transform_param {
    mirror: true
    crop_size: 227
    mean_value: 104
    mean_value: 117
    mean_value: 123
  }
  data_param {
    source: "/export/data1/stanford/hazy/zjian/gorden_bell/ILSVRC2012_lmdb/db_8/ilsvrc12_train_lmdb_5"
    batch_size: 32
    backend: LMDB
  }
}
layer {
  name: "label_data_1_split"
  type: "Split"
  bottom: "label"
  top: "label_data_1_split_0"
  top: "label_data_1_split_1"
}
layer {
  name: "conv1"
  type: "Convolution"
  bottom: "data"
  top: "conv1"
  param {
    lr_mult: 1
    decay_mult: 1
  }
  param {
    lr_mult: 2
    decay_mult: 0
  }
  convolution_param {
    num_output: 96
    kernel_size: 11
    stride: 4
    weight_filler {
      type: "gaussian"
      std: 0.01
    }
    bias_filler {
      type: "constant"
      value: 0
    }
    engine: MKL2017
  }
}
layer {
  name: "relu1"
  type: "ReLU"
  bottom: "conv1"
  top: "conv1"
  relu_param {
    engine: MKL2017
  }
}
layer {
  name: "norm1"
  type: "LRN"
  bottom: "conv1"
  top: "norm1"
  lrn_param {
    local_size: 5
    alpha: 0.0001
    beta: 0.75
    engine: MKL2017
  }
}
layer {
  name: "pool1"
  type: "Pooling"
  bottom: "norm1"
  top: "pool1"
  pooling_param {
    pool: MAX
    kernel_size: 3
    stride: 2
    engine: MKL2017
  }
}
layer {
  name: "conv2"
  type: "Convolution"
  bottom: "pool1"
  top: "conv2"
  param {
    lr_mult: 1
    decay_mult: 1
  }
  param {
    lr_mult: 2
    decay_mult: 0
  }
  convolution_param {
    num_output: 256
    pad: 2
    kernel_size: 5
    group: 2
    weight_filler {
      type: "gaussian"
      std: 0.01
    }
    bias_filler {
      type: "constant"
      value: 0.1
    }
    engine: MKL2017
  }
}
layer {
  name: "relu2"
  type: "ReLU"
  bottom: "conv2"
  top: "conv2"
  relu_param {
    engine: MKL2017
  }
}
layer {
  name: "norm2"
  type: "LRN"
  bottom: "conv2"
  top: "norm2"
  lrn_param {
    local_size: 5
    alpha: 0.0001
    beta: 0.75
    engine: MKL2017
  }
}
layer {
  name: "pool2"
  type: "Pooling"
  bottom: "norm2"
  top: "pool2"
  pooling_param {
    pool: MAX
    kernel_size: 3
    stride: 2
    engine: MKL2017
  }
}
layer {
  name: "conv3"
  type: "Convolution"
  bottom: "pool2"
  top: "conv3"
  param {
    lr_mult: 1
    decay_mult: 1
  }
  param {
    lr_mult: 2
    decay_mult: 0
  }
  convolution_param {
    num_output: 384
    pad: 1
    kernel_size: 3
    weight_filler {
      type: "gaussian"
      std: 0.01
    }
    bias_filler {
      type: "constant"
      value: 0
    }
    engine: MKL2017
  }
}
layer {
  name: "relu3"
  type: "ReLU"
  bottom: "conv3"
  top: "conv3"
  relu_param {
    engine: MKL2017
  }
}
layer {
  name: "conv4"
  type: "Convolution"
  bottom: "conv3"
  top: "conv4"
  param {
    lr_mult: 1
    decay_mult: 1
  }
  param {
    lr_mult: 2
    decay_mult: 0
  }
  convolution_param {
    num_output: 384
    pad: 1
    kernel_size: 3
    group: 2
    weight_filler {
      type: "gaussian"
      std: 0.01
    }
    bias_filler {
      type: "constant"
      value: 0.1
    }
    engine: MKL2017
  }
}
layer {
  name: "relu4"
  type: "ReLU"
  bottom: "conv4"
  top: "conv4"
  relu_param {
    engine: MKL2017
  }
}
layer {
  name: "conv5"
  type: "Convolution"
  bottom: "conv4"
  top: "conv5"
  param {
    lr_mult: 1
    decay_mult: 1
  }
  param {
    lr_mult: 2
    decay_mult: 0
  }
  convolution_param {
    num_output: 256
    pad: 1
    kernel_size: 3
    group: 2
    weight_filler {
      type: "gaussian"
      std: 0.01
    }
    bias_filler {
      type: "constant"
      value: 0.1
    }
    engine: MKL2017
  }
}
layer {
  name: "relu5"
  type: "ReLU"
  bottom: "conv5"
  top: "conv5"
  relu_param {
    engine: MKL2017
  }
}
layer {
  name: "pool5"
  type: "Pooling"
  bottom: "conv5"
  top: "pool5"
  pooling_param {
    pool: MAX
    kernel_size: 3
    stride: 2
    engine: MKL2017
  }
}
layer {
  name: "fc6"
  type: "InnerProduct"
  bottom: "pool5"
  top: "fc6"
  param {
    lr_mult: 1
    decay_mult: 1
  }
  param {
    lr_mult: 2
    decay_mult: 0
  }
  inner_product_param {
    num_output: 4096
    weight_filler {
      type: "gaussian"
      std: 0.005
    }
    bias_filler {
      type: "constant"
      value: 0.1
    }
  }
}
layer {
  name: "relu6"
  type: "ReLU"
  bottom: "fc6"
  top: "fc6"
}
layer {
  name: "drop6"
  type: "Dropout"
  bottom: "fc6"
  top: "fc6"
  dropout_param {
    dropout_ratio: 0.5
  }
}
layer {
  name: "fc7"
  type: "InnerProduct"
  bottom: "fc6"
  top: "fc7"
  param {
    lr_mult: 1
    decay_mult: 1
  }
  param {
    lr_mult: 2
    decay_mult: 0
  }
  inner_product_param {
    num_output: 4096
    weight_filler {
      type: "gaussian"
      std: 0.005
    }
    bias_filler {
      type: "constant"
      value: 0.1
    }
  }
}
layer {
  name: "relu7"
  type: "ReLU"
  bottom: "fc7"
  top: "fc7"
}
layer {
  name: "drop7"
  type: "Dropout"
  bottom: "fc7"
  top: "fc7"
  dropout_param {
    dropout_ratio: 0.5
  }
}
layer {
  name: "fc8"
  type: "InnerProduct"
  bottom: "fc7"
  top: "fc8"
  param {
    lr_mult: 1
    decay_mult: 1
  }
  param {
    lr_mult: 2
    decay_mult: 0
  }
  inner_product_param {
    num_output: 1000
    weight_filler {
      type: "gaussian"
      std: 0.01
    }
    bias_filler {
      type: "constant"
      value: 0
    }
  }
}
layer {
  name: "fc8_fc8_0_split"
  type: "Split"
  bottom: "fc8"
  top: "fc8_fc8_0_split_0"
  top: "fc8_fc8_0_split_1"
}
layer {
  name: "accuracy"
  type: "Accuracy"
  bottom: "fc8_fc8_0_split_0"
  bottom: "label_data_1_split_0"
  top: "accuracy"
}
layer {
  name: "loss"
  type: "SoftmaxWithLoss"
  bottom: "fc8_fc8_0_split_1"
  bottom: "label_data_1_split_1"
  top: "loss"
}
I1226 09:06:53.185581 120755 net.cpp:500] The NetState phase (0) differed from the phase (1) specified by a rule in layer data
I1226 09:06:53.173192 91281 net.cpp:136] Initializing net from parameters: 
name: "AlexNet"
state {
  phase: TRAIN
  level: 0
  stage: ""
}
engine: "MKL2017"
layer {
  name: "data"
  type: "Data"
  top: "data"
  top: "label"
  include {
    phase: TRAIN
  }
  transform_param {
    mirror: true
    crop_size: 227
    mean_value: 104
    mean_value: 117
    mean_value: 123
  }
  data_param {
    source: "/export/data1/stanford/hazy/zjian/gorden_bell/ILSVRC2012_lmdb/db_8/ilsvrc12_train_lmdb_4"
    batch_size: 32
    backend: LMDB
  }
}
layer {
  name: "label_data_1_split"
  type: "Split"
  bottom: "label"
  top: "label_data_1_split_0"
  top: "label_data_1_split_1"
}
layer {
  name: "conv1"
  type: "Convolution"
  bottom: "data"
  top: "conv1"
  param {
    lr_mult: 1
    decay_mult: 1
  }
  param {
    lr_mult: 2
    decay_mult: 0
  }
  convolution_param {
    num_output: 96
    kernel_size: 11
    stride: 4
    weight_filler {
      type: "gaussian"
      std: 0.01
    }
    bias_filler {
      type: "constant"
      value: 0
    }
    engine: MKL2017
  }
}
layer {
  name: "relu1"
  type: "ReLU"
  bottom: "conv1"
  top: "conv1"
  relu_param {
    engine: MKL2017
  }
}
layer {
  name: "norm1"
  type: "LRN"
  bottom: "conv1"
  top: "norm1"
  lrn_param {
    local_size: 5
    alpha: 0.0001
    beta: 0.75
    engine: MKL2017
  }
}
layer {
  name: "pool1"
  type: "Pooling"
  bottom: "norm1"
  top: "pool1"
  pooling_param {
    pool: MAX
    kernel_size: 3
    stride: 2
    engine: MKL2017
  }
}
layer {
  name: "conv2"
  type: "Convolution"
  bottom: "pool1"
  top: "conv2"
  param {
    lr_mult: 1
    decay_mult: 1
  }
  param {
    lr_mult: 2
    decay_mult: 0
  }
  convolution_param {
    num_output: 256
    pad: 2
    kernel_size: 5
    group: 2
    weight_filler {
      type: "gaussian"
      std: 0.01
    }
    bias_filler {
      type: "constant"
      value: 0.1
    }
    engine: MKL2017
  }
}
layer {
  name: "relu2"
  type: "ReLU"
  bottom: "conv2"
  top: "conv2"
  relu_param {
    engine: MKL2017
  }
}
layer {
  name: "norm2"
  type: "LRN"
  bottom: "conv2"
  top: "norm2"
  lrn_param {
    local_size: 5
    alpha: 0.0001
    beta: 0.75
    engine: MKL2017
  }
}
layer {
  name: "pool2"
  type: "Pooling"
  bottom: "norm2"
  top: "pool2"
  pooling_param {
    pool: MAX
    kernel_size: 3
    stride: 2
    engine: MKL2017
  }
}
layer {
  name: "conv3"
  type: "Convolution"
  bottom: "pool2"
  top: "conv3"
  param {
    lr_mult: 1
    decay_mult: 1
  }
  param {
    lr_mult: 2
    decay_mult: 0
  }
  convolution_param {
    num_output: 384
    pad: 1
    kernel_size: 3
    weight_filler {
      type: "gaussian"
      std: 0.01
    }
    bias_filler {
      type: "constant"
      value: 0
    }
    engine: MKL2017
  }
}
layer {
  name: "relu3"
  type: "ReLU"
  bottom: "conv3"
  top: "conv3"
  relu_param {
    engine: MKL2017
  }
}
layer {
  name: "conv4"
  type: "Convolution"
  bottom: "conv3"
  top: "conv4"
  param {
    lr_mult: 1
    decay_mult: 1
  }
  param {
    lr_mult: 2
    decay_mult: 0
  }
  convolution_param {
    num_output: 384
    pad: 1
    kernel_size: 3
    group: 2
    weight_filler {
      type: "gaussian"
      std: 0.01
    }
    bias_filler {
      type: "constant"
      value: 0.1
    }
    engine: MKL2017
  }
}
layer {
  name: "relu4"
  type: "ReLU"
  bottom: "conv4"
  top: "conv4"
  relu_param {
    engine: MKL2017
  }
}
layer {
  name: "conv5"
  type: "Convolution"
  bottom: "conv4"
  top: "conv5"
  param {
    lr_mult: 1
    decay_mult: 1
  }
  param {
    lr_mult: 2
    decay_mult: 0
  }
  convolution_param {
    num_output: 256
    pad: 1
    kernel_size: 3
    group: 2
    weight_filler {
      type: "gaussian"
      std: 0.01
    }
    bias_filler {
      type: "constant"
      value: 0.1
    }
    engine: MKL2017
  }
}
layer {
  name: "relu5"
  type: "ReLU"
  bottom: "conv5"
  top: "conv5"
  relu_param {
    engine: MKL2017
  }
}
layer {
  name: "pool5"
  type: "Pooling"
  bottom: "conv5"
  top: "pool5"
  pooling_param {
    pool: MAX
    kernel_size: 3
    stride: 2
    engine: MKL2017
  }
}
layer {
  name: "fc6"
  type: "InnerProduct"
  bottom: "pool5"
  top: "fc6"
  param {
    lr_mult: 1
    decay_mult: 1
  }
  param {
    lr_mult: 2
    decay_mult: 0
  }
  inner_product_param {
    num_output: 4096
    weight_filler {
      type: "gaussian"
      std: 0.005
    }
    bias_filler {
      type: "constant"
      value: 0.1
    }
  }
}
layer {
  name: "relu6"
  type: "ReLU"
  bottom: "fc6"
  top: "fc6"
}
layer {
  name: "drop6"
  type: "Dropout"
  bottom: "fc6"
  top: "fc6"
  dropout_param {
    dropout_ratio: 0.5
  }
}
layer {
  name: "fc7"
  type: "InnerProduct"
  bottom: "fc6"
  top: "fc7"
  param {
    lr_mult: 1
    decay_mult: 1
  }
  param {
    lr_mult: 2
    decay_mult: 0
  }
  inner_product_param {
    num_output: 4096
    weight_filler {
      type: "gaussian"
      std: 0.005
    }
    bias_filler {
      type: "constant"
      value: 0.1
    }
  }
}
layer {
  name: "relu7"
  type: "ReLU"
  bottom: "fc7"
  top: "fc7"
}
layer {
  name: "drop7"
  type: "Dropout"
  bottom: "fc7"
  top: "fc7"
  dropout_param {
    dropout_ratio: 0.5
  }
}
layer {
  name: "fc8"
  type: "InnerProduct"
  bottom: "fc7"
  top: "fc8"
  param {
    lr_mult: 1
    decay_mult: 1
  }
  param {
    lr_mult: 2
    decay_mult: 0
  }
  inner_product_param {
    num_output: 1000
    weight_filler {
      type: "gaussian"
      std: 0.01
    }
    bias_filler {
      type: "constant"
      value: 0
    }
  }
}
layer {
  name: "fc8_fc8_0_split"
  type: "Split"
  bottom: "fc8"
  top: "fc8_fc8_0_split_0"
  top: "fc8_fc8_0_split_1"
}
layer {
  name: "accuracy"
  type: "Accuracy"
  bottom: "fc8_fc8_0_split_0"
  bottom: "label_data_1_split_0"
  top: "accuracy"
}
layer {
  name: "loss"
  type: "SoftmaxWithLoss"
  bottom: "fc8_fc8_0_split_1"
  bottom: "label_data_1_split_1"
  top: "loss"
}
I1226 09:06:49.913147 90317 net.cpp:136] Initializing net from parameters: 
name: "AlexNet"
state {
  phase: TRAIN
  level: 0
  stage: ""
}
engine: "MKL2017"
layer {
  name: "data"
  type: "Data"
  top: "data"
  top: "label"
  include {
    phase: TRAIN
  }
  transform_param {
    mirror: true
    crop_size: 227
    mean_value: 104
    mean_value: 117
    mean_value: 123
  }
  data_param {
    source: "/export/data1/stanford/hazy/zjian/gorden_bell/ILSVRC2012_lmdb/db_8/ilsvrc12_train_lmdb_6"
    batch_size: 32
    backend: LMDB
  }
}
layer {
  name: "label_data_1_split"
  type: "Split"
  bottom: "label"
  top: "label_data_1_split_0"
  top: "label_data_1_split_1"
}
layer {
  name: "conv1"
  type: "Convolution"
  bottom: "data"
  top: "conv1"
  param {
    lr_mult: 1
    decay_mult: 1
  }
  param {
    lr_mult: 2
    decay_mult: 0
  }
  convolution_param {
    num_output: 96
    kernel_size: 11
    stride: 4
    weight_filler {
      type: "gaussian"
      std: 0.01
    }
    bias_filler {
      type: "constant"
      value: 0
    }
    engine: MKL2017
  }
}
layer {
  name: "relu1"
  type: "ReLU"
  bottom: "conv1"
  top: "conv1"
  relu_param {
    engine: MKL2017
  }
}
layer {
  name: "norm1"
  type: "LRN"
  bottom: "conv1"
  top: "norm1"
  lrn_param {
    local_size: 5
    alpha: 0.0001
    beta: 0.75
    engine: MKL2017
  }
}
layer {
  name: "pool1"
  type: "Pooling"
  bottom: "norm1"
  top: "pool1"
  pooling_param {
    pool: MAX
    kernel_size: 3
    stride: 2
    engine: MKL2017
  }
}
layer {
  name: "conv2"
  type: "Convolution"
  bottom: "pool1"
  top: "conv2"
  param {
    lr_mult: 1
    decay_mult: 1
  }
  param {
    lr_mult: 2
    decay_mult: 0
  }
  convolution_param {
    num_output: 256
    pad: 2
    kernel_size: 5
    group: 2
    weight_filler {
      type: "gaussian"
      std: 0.01
    }
    bias_filler {
      type: "constant"
      value: 0.1
    }
    engine: MKL2017
  }
}
layer {
  name: "relu2"
  type: "ReLU"
  bottom: "conv2"
  top: "conv2"
  relu_param {
    engine: MKL2017
  }
}
layer {
  name: "norm2"
  type: "LRN"
  bottom: "conv2"
  top: "norm2"
  lrn_param {
    local_size: 5
    alpha: 0.0001
    beta: 0.75
    engine: MKL2017
  }
}
layer {
  name: "pool2"
  type: "Pooling"
  bottom: "norm2"
  top: "pool2"
  pooling_param {
    pool: MAX
    kernel_size: 3
    stride: 2
    engine: MKL2017
  }
}
layer {
  name: "conv3"
  type: "Convolution"
  bottom: "pool2"
  top: "conv3"
  param {
    lr_mult: 1
    decay_mult: 1
  }
  param {
    lr_mult: 2
    decay_mult: 0
  }
  convolution_param {
    num_output: 384
    pad: 1
    kernel_size: 3
    weight_filler {
      type: "gaussian"
      std: 0.01
    }
    bias_filler {
      type: "constant"
      value: 0
    }
    engine: MKL2017
  }
}
layer {
  name: "relu3"
  type: "ReLU"
  bottom: "conv3"
  top: "conv3"
  relu_param {
    engine: MKL2017
  }
}
layer {
  name: "conv4"
  type: "Convolution"
  bottom: "conv3"
  top: "conv4"
  param {
    lr_mult: 1
    decay_mult: 1
  }
  param {
    lr_mult: 2
    decay_mult: 0
  }
  convolution_param {
    num_output: 384
    pad: 1
    kernel_size: 3
    group: 2
    weight_filler {
      type: "gaussian"
      std: 0.01
    }
    bias_filler {
      type: "constant"
      value: 0.1
    }
    engine: MKL2017
  }
}
layer {
  name: "relu4"
  type: "ReLU"
  bottom: "conv4"
  top: "conv4"
  relu_param {
    engine: MKL2017
  }
}
layer {
  name: "conv5"
  type: "Convolution"
  bottom: "conv4"
  top: "conv5"
  param {
    lr_mult: 1
    decay_mult: 1
  }
  param {
    lr_mult: 2
    decay_mult: 0
  }
  convolution_param {
    num_output: 256
    pad: 1
    kernel_size: 3
    group: 2
    weight_filler {
      type: "gaussian"
      std: 0.01
    }
    bias_filler {
      type: "constant"
      value: 0.1
    }
    engine: MKL2017
  }
}
layer {
  name: "relu5"
  type: "ReLU"
  bottom: "conv5"
  top: "conv5"
  relu_param {
    engine: MKL2017
  }
}
layer {
  name: "pool5"
  type: "Pooling"
  bottom: "conv5"
  top: "pool5"
  pooling_param {
    pool: MAX
    kernel_size: 3
    stride: 2
    engine: MKL2017
  }
}
layer {
  name: "fc6"
  type: "InnerProduct"
  bottom: "pool5"
  top: "fc6"
  param {
    lr_mult: 1
    decay_mult: 1
  }
  param {
    lr_mult: 2
    decay_mult: 0
  }
  inner_product_param {
    num_output: 4096
    weight_filler {
      type: "gaussian"
      std: 0.005
    }
    bias_filler {
      type: "constant"
      value: 0.1
    }
  }
}
layer {
  name: "relu6"
  type: "ReLU"
  bottom: "fc6"
  top: "fc6"
}
layer {
  name: "drop6"
  type: "Dropout"
  bottom: "fc6"
  top: "fc6"
  dropout_param {
    dropout_ratio: 0.5
  }
}
layer {
  name: "fc7"
  type: "InnerProduct"
  bottom: "fc6"
  top: "fc7"
  param {
    lr_mult: 1
    decay_mult: 1
  }
  param {
    lr_mult: 2
    decay_mult: 0
  }
  inner_product_param {
    num_output: 4096
    weight_filler {
      type: "gaussian"
      std: 0.005
    }
    bias_filler {
      type: "constant"
      value: 0.1
    }
  }
}
layer {
  name: "relu7"
  type: "ReLU"
  bottom: "fc7"
  top: "fc7"
}
layer {
  name: "drop7"
  type: "Dropout"
  bottom: "fc7"
  top: "fc7"
  dropout_param {
    dropout_ratio: 0.5
  }
}
layer {
  name: "fc8"
  type: "InnerProduct"
  bottom: "fc7"
  top: "fc8"
  param {
    lr_mult: 1
    decay_mult: 1
  }
  param {
    lr_mult: 2
    decay_mult: 0
  }
  inner_product_param {
    num_output: 1000
    weight_filler {
      type: "gaussian"
      std: 0.01
    }
    bias_filler {
      type: "constant"
      value: 0
    }
  }
}
layer {
  name: "fc8_fc8_0_split"
  type: "Split"
  bottom: "fc8"
  top: "fc8_fc8_0_split_0"
  top: "fc8_fc8_0_split_1"
}
layer {
  name: "accuracy"
  type: "Accuracy"
  bottom: "fc8_fc8_0_split_0"
  bottom: "label_data_1_split_0"
  top: "accuracy"
}
layer {
  name: "loss"
  type: "SoftmaxWithLoss"
  bottom: "fc8_fc8_0_split_1"
  bottom: "label_data_1_split_1"
  top: "loss"
}
I1226 09:06:53.187726 120755 net.cpp:136] Initializing net from parameters: 
name: "AlexNet"
state {
  phase: TRAIN
  level: 0
  stage: ""
}
engine: "MKL2017"
layer {
  name: "data"
  type: "DummyData"
  top: "data"
  top: "label"
  include {
    phase: TRAIN
  }
  transform_param {
    mirror: true
    crop_size: 227
    mean_value: 104
    mean_value: 117
    mean_value: 123
  }
  dummy_data_param {
    data_filler {
      type: "gaussian"
      std: 1
    }
    data_filler {
      type: "constant"
      value: 0
    }
    shape {
      dim: 32
      dim: 3
      dim: 227
      dim: 227
    }
    shape {
      dim: 32
      dim: 1
      dim: 1
      dim: 1
    }
  }
}
layer {
  name: "label_data_1_split"
  type: "Split"
  bottom: "label"
  top: "label_data_1_split_0"
  top: "label_data_1_split_1"
}
layer {
  name: "conv1"
  type: "Convolution"
  bottom: "data"
  top: "conv1"
  param {
    lr_mult: 1
    decay_mult: 1
  }
  param {
    lr_mult: 2
    decay_mult: 0
  }
  convolution_param {
    num_output: 96
    kernel_size: 11
    stride: 4
    weight_filler {
      type: "gaussian"
      std: 0.01
    }
    bias_filler {
      type: "constant"
      value: 0
    }
    engine: MKL2017
  }
}
layer {
  name: "relu1"
  type: "ReLU"
  bottom: "conv1"
  top: "conv1"
  relu_param {
    engine: MKL2017
  }
}
layer {
  name: "norm1"
  type: "LRN"
  bottom: "conv1"
  top: "norm1"
  lrn_param {
    local_size: 5
    alpha: 0.0001
    beta: 0.75
    engine: MKL2017
  }
}
layer {
  name: "pool1"
  type: "Pooling"
  bottom: "norm1"
  top: "pool1"
  pooling_param {
    pool: MAX
    kernel_size: 3
    stride: 2
    engine: MKL2017
  }
}
layer {
  name: "conv2"
  type: "Convolution"
  bottom: "pool1"
  top: "conv2"
  param {
    lr_mult: 1
    decay_mult: 1
  }
  param {
    lr_mult: 2
    decay_mult: 0
  }
  convolution_param {
    num_output: 256
    pad: 2
    kernel_size: 5
    group: 2
    weight_filler {
      type: "gaussian"
      std: 0.01
    }
    bias_filler {
      type: "constant"
      value: 0.1
    }
    engine: MKL2017
  }
}
layer {
  name: "relu2"
  type: "ReLU"
  bottom: "conv2"
  top: "conv2"
  relu_param {
    engine: MKL2017
  }
}
layer {
  name: "norm2"
  type: "LRN"
  bottom: "conv2"
  top: "norm2"
  lrn_param {
    local_size: 5
    alpha: 0.0001
    beta: 0.75
    engine: MKL2017
  }
}
layer {
  name: "pool2"
  type: "Pooling"
  bottom: "norm2"
  top: "pool2"
  pooling_param {
    pool: MAX
    kernel_size: 3
    stride: 2
    engine: MKL2017
  }
}
layer {
  name: "conv3"
  type: "Convolution"
  bottom: "pool2"
  top: "conv3"
  param {
    lr_mult: 1
    decay_mult: 1
  }
  param {
    lr_mult: 2
    decay_mult: 0
  }
  convolution_param {
    num_output: 384
    pad: 1
    kernel_size: 3
    weight_filler {
      type: "gaussian"
      std: 0.01
    }
    bias_filler {
      type: "constant"
      value: 0
    }
    engine: MKL2017
  }
}
layer {
  name: "relu3"
  type: "ReLU"
  bottom: "conv3"
  top: "conv3"
  relu_param {
    engine: MKL2017
  }
}
layer {
  name: "conv4"
  type: "Convolution"
  bottom: "conv3"
  top: "conv4"
  param {
    lr_mult: 1
    decay_mult: 1
  }
  param {
    lr_mult: 2
    decay_mult: 0
  }
  convolution_param {
    num_output: 384
    pad: 1
    kernel_size: 3
    group: 2
    weight_filler {
      type: "gaussian"
      std: 0.01
    }
    bias_filler {
      type: "constant"
      value: 0.1
    }
    engine: MKL2017
  }
}
layer {
  name: "relu4"
  type: "ReLU"
  bottom: "conv4"
  top: "conv4"
  relu_param {
    engine: MKL2017
  }
}
layer {
  name: "conv5"
  type: "Convolution"
  bottom: "conv4"
  top: "conv5"
  param {
    lr_mult: 1
    decay_mult: 1
  }
  param {
    lr_mult: 2
    decay_mult: 0
  }
  convolution_param {
    num_output: 256
    pad: 1
    kernel_size: 3
    group: 2
    weight_filler {
      type: "gaussian"
      std: 0.01
    }
    bias_filler {
      type: "constant"
      value: 0.1
    }
    engine: MKL2017
  }
}
layer {
  name: "relu5"
  type: "ReLU"
  bottom: "conv5"
  top: "conv5"
  relu_param {
    engine: MKL2017
  }
}
layer {
  name: "pool5"
  type: "Pooling"
  bottom: "conv5"
  top: "pool5"
  pooling_param {
    pool: MAX
    kernel_size: 3
    stride: 2
    engine: MKL2017
  }
}
layer {
  name: "fc6"
  type: "InnerProduct"
  bottom: "pool5"
  top: "fc6"
  param {
    lr_mult: 1
    decay_mult: 1
  }
  param {
    lr_mult: 2
    decay_mult: 0
  }
  inner_product_param {
    num_output: 4096
    weight_filler {
      type: "gaussian"
      std: 0.005
    }
    bias_filler {
      type: "constant"
      value: 0.1
    }
  }
}
layer {
  name: "relu6"
  type: "ReLU"
  bottom: "fc6"
  top: "fc6"
}
layer {
  name: "drop6"
  type: "Dropout"
  bottom: "fc6"
  top: "fc6"
  dropout_param {
    dropout_ratio: 0.5
  }
}
layer {
  name: "fc7"
  type: "InnerProduct"
  bottom: "fc6"
  top: "fc7"
  param {
    lr_mult: 1
    decay_mult: 1
  }
  param {
    lr_mult: 2
    decay_mult: 0
  }
  inner_product_param {
    num_output: 4096
    weight_filler {
      type: "gaussian"
      std: 0.005
    }
    bias_filler {
      type: "constant"
      value: 0.1
    }
  }
}
layer {
  name: "relu7"
  type: "ReLU"
  bottom: "fc7"
  top: "fc7"
}
layer {
  name: "drop7"
  type: "Dropout"
  bottom: "fc7"
  top: "fc7"
  dropout_param {
    dropout_ratio: 0.5
  }
}
layer {
  name: "fc8"
  type: "InnerProduct"
  bottom: "fc7"
  top: "fc8"
  param {
    lr_mult: 1
    decay_mult: 1
  }
  param {
    lr_mult: 2
    decay_mult: 0
  }
  inner_product_param {
    num_output: 1000
    weight_filler {
      type: "gaussian"
      std: 0.01
    }
    bias_filler {
      type: "constant"
      value: 0
    }
  }
}
layer {
  name: "fc8_fc8_0_split"
  type: "Split"
  bottom: "fc8"
  top: "fc8_fc8_0_split_0"
  top: "fc8_fc8_0_split_1"
}
layer {
  name: "accuracy"
  type: "Accuracy"
  bottom: "fc8_fc8_0_split_0"
  bottom: "label_data_1_split_0"
  top: "accuracy"
}
layer {
  name: "loss"
  type: "SoftmaxWithLoss"
  bottom: "fc8_fc8_0_split_1"
  bottom: "label_data_1_split_1"
  top: "loss"
}
I1226 09:06:53.193753 90178 cpu_info.cpp:473] Number of OpenMP threads: 66
I1226 09:06:53.194200 90178 net.cpp:500] The NetState phase (0) differed from the phase (1) specified by a rule in layer data
I1226 09:06:53.191153 96748 cpu_info.cpp:473] Number of OpenMP threads: 66
I1226 09:06:53.191449 96748 net.cpp:500] The NetState phase (0) differed from the phase (1) specified by a rule in layer data
I1226 09:06:53.196465 90178 net.cpp:136] Initializing net from parameters: 
name: "AlexNet"
state {
  phase: TRAIN
  level: 0
  stage: ""
}
engine: "MKL2017"
layer {
  name: "data"
  type: "Data"
  top: "data"
  top: "label"
  include {
    phase: TRAIN
  }
  transform_param {
    mirror: true
    crop_size: 227
    mean_value: 104
    mean_value: 117
    mean_value: 123
  }
  data_param {
    source: "/export/data1/stanford/hazy/zjian/gorden_bell/ILSVRC2012_lmdb/db_8/ilsvrc12_train_lmdb_2"
    batch_size: 32
    backend: LMDB
  }
}
layer {
  name: "label_data_1_split"
  type: "Split"
  bottom: "label"
  top: "label_data_1_split_0"
  top: "label_data_1_split_1"
}
layer {
  name: "conv1"
  type: "Convolution"
  bottom: "data"
  top: "conv1"
  param {
    lr_mult: 1
    decay_mult: 1
  }
  param {
    lr_mult: 2
    decay_mult: 0
  }
  convolution_param {
    num_output: 96
    kernel_size: 11
    stride: 4
    weight_filler {
      type: "gaussian"
      std: 0.01
    }
    bias_filler {
      type: "constant"
      value: 0
    }
    engine: MKL2017
  }
}
layer {
  name: "relu1"
  type: "ReLU"
  bottom: "conv1"
  top: "conv1"
  relu_param {
    engine: MKL2017
  }
}
layer {
  name: "norm1"
  type: "LRN"
  bottom: "conv1"
  top: "norm1"
  lrn_param {
    local_size: 5
    alpha: 0.0001
    beta: 0.75
    engine: MKL2017
  }
}
layer {
  name: "pool1"
  type: "Pooling"
  bottom: "norm1"
  top: "pool1"
  pooling_param {
    pool: MAX
    kernel_size: 3
    stride: 2
    engine: MKL2017
  }
}
layer {
  name: "conv2"
  type: "Convolution"
  bottom: "pool1"
  top: "conv2"
  param {
    lr_mult: 1
    decay_mult: 1
  }
  param {
    lr_mult: 2
    decay_mult: 0
  }
  convolution_param {
    num_output: 256
    pad: 2
    kernel_size: 5
    group: 2
    weight_filler {
      type: "gaussian"
      std: 0.01
    }
    bias_filler {
      type: "constant"
      value: 0.1
    }
    engine: MKL2017
  }
}
layer {
  name: "relu2"
  type: "ReLU"
  bottom: "conv2"
  top: "conv2"
  relu_param {
    engine: MKL2017
  }
}
layer {
  name: "norm2"
  type: "LRN"
  bottom: "conv2"
  top: "norm2"
  lrn_param {
    local_size: 5
    alpha: 0.0001
    beta: 0.75
    engine: MKL2017
  }
}
layer {
  name: "pool2"
  type: "Pooling"
  bottom: "norm2"
  top: "pool2"
  pooling_param {
    pool: MAX
    kernel_size: 3
    stride: 2
    engine: MKL2017
  }
}
layer {
  name: "conv3"
  type: "Convolution"
  bottom: "pool2"
  top: "conv3"
  param {
    lr_mult: 1
    decay_mult: 1
  }
  param {
    lr_mult: 2
    decay_mult: 0
  }
  convolution_param {
    num_output: 384
    pad: 1
    kernel_size: 3
    weight_filler {
      type: "gaussian"
      std: 0.01
    }
    bias_filler {
      type: "constant"
      value: 0
    }
    engine: MKL2017
  }
}
layer {
  name: "relu3"
  type: "ReLU"
  bottom: "conv3"
  top: "conv3"
  relu_param {
    engine: MKL2017
  }
}
layer {
  name: "conv4"
  type: "Convolution"
  bottom: "conv3"
  top: "conv4"
  param {
    lr_mult: 1
    decay_mult: 1
  }
  param {
    lr_mult: 2
    decay_mult: 0
  }
  convolution_param {
    num_output: 384
    pad: 1
    kernel_size: 3
    group: 2
    weight_filler {
      type: "gaussian"
      std: 0.01
    }
    bias_filler {
      type: "constant"
      value: 0.1
    }
    engine: MKL2017
  }
}
layer {
  name: "relu4"
  type: "ReLU"
  bottom: "conv4"
  top: "conv4"
  relu_param {
    engine: MKL2017
  }
}
layer {
  name: "conv5"
  type: "Convolution"
  bottom: "conv4"
  top: "conv5"
  param {
    lr_mult: 1
    decay_mult: 1
  }
  param {
    lr_mult: 2
    decay_mult: 0
  }
  convolution_param {
    num_output: 256
    pad: 1
    kernel_size: 3
    group: 2
    weight_filler {
      type: "gaussian"
      std: 0.01
    }
    bias_filler {
      type: "constant"
      value: 0.1
    }
    engine: MKL2017
  }
}
layer {
  name: "relu5"
  type: "ReLU"
  bottom: "conv5"
  top: "conv5"
  relu_param {
    engine: MKL2017
  }
}
layer {
  name: "pool5"
  type: "Pooling"
  bottom: "conv5"
  top: "pool5"
  pooling_param {
    pool: MAX
    kernel_size: 3
    stride: 2
    engine: MKL2017
  }
}
layer {
  name: "fc6"
  type: "InnerProduct"
  bottom: "pool5"
  top: "fc6"
  param {
    lr_mult: 1
    decay_mult: 1
  }
  param {
    lr_mult: 2
    decay_mult: 0
  }
  inner_product_param {
    num_output: 4096
    weight_filler {
      type: "gaussian"
      std: 0.005
    }
    bias_filler {
      type: "constant"
      value: 0.1
    }
  }
}
layer {
  name: "relu6"
  type: "ReLU"
  bottom: "fc6"
  top: "fc6"
}
layer {
  name: "drop6"
  type: "Dropout"
  bottom: "fc6"
  top: "fc6"
  dropout_param {
    dropout_ratio: 0.5
  }
}
layer {
  name: "fc7"
  type: "InnerProduct"
  bottom: "fc6"
  top: "fc7"
  param {
    lr_mult: 1
    decay_mult: 1
  }
  param {
    lr_mult: 2
    decay_mult: 0
  }
  inner_product_param {
    num_output: 4096
    weight_filler {
      type: "gaussian"
      std: 0.005
    }
    bias_filler {
      type: "constant"
      value: 0.1
    }
  }
}
layer {
  name: "relu7"
  type: "ReLU"
  bottom: "fc7"
  top: "fc7"
}
layer {
  name: "drop7"
  type: "Dropout"
  bottom: "fc7"
  top: "fc7"
  dropout_param {
    dropout_ratio: 0.5
  }
}
layer {
  name: "fc8"
  type: "InnerProduct"
  bottom: "fc7"
  top: "fc8"
  param {
    lr_mult: 1
    decay_mult: 1
  }
  param {
    lr_mult: 2
    decay_mult: 0
  }
  inner_product_param {
    num_output: 1000
    weight_filler {
      type: "gaussian"
      std: 0.01
    }
    bias_filler {
      type: "constant"
      value: 0
    }
  }
}
layer {
  name: "fc8_fc8_0_split"
  type: "Split"
  bottom: "fc8"
  top: "fc8_fc8_0_split_0"
  top: "fc8_fc8_0_split_1"
}
layer {
  name: "accuracy"
  type: "Accuracy"
  bottom: "fc8_fc8_0_split_0"
  bottom: "label_data_1_split_0"
  top: "accuracy"
}
layer {
  name: "loss"
  type: "SoftmaxWithLoss"
  bottom: "fc8_fc8_0_split_1"
  bottom: "label_data_1_split_1"
  top: "loss"
}
I1226 09:06:53.193472 96748 net.cpp:136] Initializing net from parameters: 
name: "AlexNet"
state {
  phase: TRAIN
  level: 0
  stage: ""
}
engine: "MKL2017"
layer {
  name: "data"
  type: "Data"
  top: "data"
  top: "label"
  include {
    phase: TRAIN
  }
  transform_param {
    mirror: true
    crop_size: 227
    mean_value: 104
    mean_value: 117
    mean_value: 123
  }
  data_param {
    source: "/export/data1/stanford/hazy/zjian/gorden_bell/ILSVRC2012_lmdb/db_8/ilsvrc12_train_lmdb_3"
    batch_size: 32
    backend: LMDB
  }
}
layer {
  name: "label_data_1_split"
  type: "Split"
  bottom: "label"
  top: "label_data_1_split_0"
  top: "label_data_1_split_1"
}
layer {
  name: "conv1"
  type: "Convolution"
  bottom: "data"
  top: "conv1"
  param {
    lr_mult: 1
    decay_mult: 1
  }
  param {
    lr_mult: 2
    decay_mult: 0
  }
  convolution_param {
    num_output: 96
    kernel_size: 11
    stride: 4
    weight_filler {
      type: "gaussian"
      std: 0.01
    }
    bias_filler {
      type: "constant"
      value: 0
    }
    engine: MKL2017
  }
}
layer {
  name: "relu1"
  type: "ReLU"
  bottom: "conv1"
  top: "conv1"
  relu_param {
    engine: MKL2017
  }
}
layer {
  name: "norm1"
  type: "LRN"
  bottom: "conv1"
  top: "norm1"
  lrn_param {
    local_size: 5
    alpha: 0.0001
    beta: 0.75
    engine: MKL2017
  }
}
layer {
  name: "pool1"
  type: "Pooling"
  bottom: "norm1"
  top: "pool1"
  pooling_param {
    pool: MAX
    kernel_size: 3
    stride: 2
    engine: MKL2017
  }
}
layer {
  name: "conv2"
  type: "Convolution"
  bottom: "pool1"
  top: "conv2"
  param {
    lr_mult: 1
    decay_mult: 1
  }
  param {
    lr_mult: 2
    decay_mult: 0
  }
  convolution_param {
    num_output: 256
    pad: 2
    kernel_size: 5
    group: 2
    weight_filler {
      type: "gaussian"
      std: 0.01
    }
    bias_filler {
      type: "constant"
      value: 0.1
    }
    engine: MKL2017
  }
}
layer {
  name: "relu2"
  type: "ReLU"
  bottom: "conv2"
  top: "conv2"
  relu_param {
    engine: MKL2017
  }
}
layer {
  name: "norm2"
  type: "LRN"
  bottom: "conv2"
  top: "norm2"
  lrn_param {
    local_size: 5
    alpha: 0.0001
    beta: 0.75
    engine: MKL2017
  }
}
layer {
  name: "pool2"
  type: "Pooling"
  bottom: "norm2"
  top: "pool2"
  pooling_param {
    pool: MAX
    kernel_size: 3
    stride: 2
    engine: MKL2017
  }
}
layer {
  name: "conv3"
  type: "Convolution"
  bottom: "pool2"
  top: "conv3"
  param {
    lr_mult: 1
    decay_mult: 1
  }
  param {
    lr_mult: 2
    decay_mult: 0
  }
  convolution_param {
    num_output: 384
    pad: 1
    kernel_size: 3
    weight_filler {
      type: "gaussian"
      std: 0.01
    }
    bias_filler {
      type: "constant"
      value: 0
    }
    engine: MKL2017
  }
}
layer {
  name: "relu3"
  type: "ReLU"
  bottom: "conv3"
  top: "conv3"
  relu_param {
    engine: MKL2017
  }
}
layer {
  name: "conv4"
  type: "Convolution"
  bottom: "conv3"
  top: "conv4"
  param {
    lr_mult: 1
    decay_mult: 1
  }
  param {
    lr_mult: 2
    decay_mult: 0
  }
  convolution_param {
    num_output: 384
    pad: 1
    kernel_size: 3
    group: 2
    weight_filler {
      type: "gaussian"
      std: 0.01
    }
    bias_filler {
      type: "constant"
      value: 0.1
    }
    engine: MKL2017
  }
}
layer {
  name: "relu4"
  type: "ReLU"
  bottom: "conv4"
  top: "conv4"
  relu_param {
    engine: MKL2017
  }
}
layer {
  name: "conv5"
  type: "Convolution"
  bottom: "conv4"
  top: "conv5"
  param {
    lr_mult: 1
    decay_mult: 1
  }
  param {
    lr_mult: 2
    decay_mult: 0
  }
  convolution_param {
    num_output: 256
    pad: 1
    kernel_size: 3
    group: 2
    weight_filler {
      type: "gaussian"
      std: 0.01
    }
    bias_filler {
      type: "constant"
      value: 0.1
    }
    engine: MKL2017
  }
}
layer {
  name: "relu5"
  type: "ReLU"
  bottom: "conv5"
  top: "conv5"
  relu_param {
    engine: MKL2017
  }
}
layer {
  name: "pool5"
  type: "Pooling"
  bottom: "conv5"
  top: "pool5"
  pooling_param {
    pool: MAX
    kernel_size: 3
    stride: 2
    engine: MKL2017
  }
}
layer {
  name: "fc6"
  type: "InnerProduct"
  bottom: "pool5"
  top: "fc6"
  param {
    lr_mult: 1
    decay_mult: 1
  }
  param {
    lr_mult: 2
    decay_mult: 0
  }
  inner_product_param {
    num_output: 4096
    weight_filler {
      type: "gaussian"
      std: 0.005
    }
    bias_filler {
      type: "constant"
      value: 0.1
    }
  }
}
layer {
  name: "relu6"
  type: "ReLU"
  bottom: "fc6"
  top: "fc6"
}
layer {
  name: "drop6"
  type: "Dropout"
  bottom: "fc6"
  top: "fc6"
  dropout_param {
    dropout_ratio: 0.5
  }
}
layer {
  name: "fc7"
  type: "InnerProduct"
  bottom: "fc6"
  top: "fc7"
  param {
    lr_mult: 1
    decay_mult: 1
  }
  param {
    lr_mult: 2
    decay_mult: 0
  }
  inner_product_param {
    num_output: 4096
    weight_filler {
      type: "gaussian"
      std: 0.005
    }
    bias_filler {
      type: "constant"
      value: 0.1
    }
  }
}
layer {
  name: "relu7"
  type: "ReLU"
  bottom: "fc7"
  top: "fc7"
}
layer {
  name: "drop7"
  type: "Dropout"
  bottom: "fc7"
  top: "fc7"
  dropout_param {
    dropout_ratio: 0.5
  }
}
layer {
  name: "fc8"
  type: "InnerProduct"
  bottom: "fc7"
  top: "fc8"
  param {
    lr_mult: 1
    decay_mult: 1
  }
  param {
    lr_mult: 2
    decay_mult: 0
  }
  inner_product_param {
    num_output: 1000
    weight_filler {
      type: "gaussian"
      std: 0.01
    }
    bias_filler {
      type: "constant"
      value: 0
    }
  }
}
layer {
  name: "fc8_fc8_0_split"
  type: "Split"
  bottom: "fc8"
  top: "fc8_fc8_0_split_0"
  top: "fc8_fc8_0_split_1"
}
layer {
  name: "accuracy"
  type: "Accuracy"
  bottom: "fc8_fc8_0_split_0"
  bottom: "label_data_1_split_0"
  top: "accuracy"
}
layer {
  name: "loss"
  type: "SoftmaxWithLoss"
  bottom: "fc8_fc8_0_split_1"
  bottom: "label_data_1_split_1"
  top: "loss"
}
I1226 09:06:53.195024 117050 layer_factory.hpp:114] Creating layer data
I1226 09:06:53.189934 120057 cpu_info.cpp:473] Number of OpenMP threads: 66
I1226 09:06:53.190255 120057 net.cpp:500] The NetState phase (0) differed from the phase (1) specified by a rule in layer data
I1226 09:06:53.192261 120057 net.cpp:136] Initializing net from parameters: 
name: "AlexNet"
state {
  phase: TRAIN
  level: 0
  stage: ""
}
engine: "MKL2017"
layer {
  name: "data"
  type: "Data"
  top: "data"
  top: "label"
  include {
    phase: TRAIN
  }
  transform_param {
    mirror: true
    crop_size: 227
    mean_value: 104
    mean_value: 117
    mean_value: 123
  }
  data_param {
    source: "/export/data1/stanford/hazy/zjian/gorden_bell/ILSVRC2012_lmdb/db_8/ilsvrc12_train_lmdb_0"
    batch_size: 32
    backend: LMDB
  }
}
layer {
  name: "label_data_1_split"
  type: "Split"
  bottom: "label"
  top: "label_data_1_split_0"
  top: "label_data_1_split_1"
}
layer {
  name: "conv1"
  type: "Convolution"
  bottom: "data"
  top: "conv1"
  param {
    lr_mult: 1
    decay_mult: 1
  }
  param {
    lr_mult: 2
    decay_mult: 0
  }
  convolution_param {
    num_output: 96
    kernel_size: 11
    stride: 4
    weight_filler {
      type: "gaussian"
      std: 0.01
    }
    bias_filler {
      type: "constant"
      value: 0
    }
    engine: MKL2017
  }
}
layer {
  name: "relu1"
  type: "ReLU"
  bottom: "conv1"
  top: "conv1"
  relu_param {
    engine: MKL2017
  }
}
layer {
  name: "norm1"
  type: "LRN"
  bottom: "conv1"
  top: "norm1"
  lrn_param {
    local_size: 5
    alpha: 0.0001
    beta: 0.75
    engine: MKL2017
  }
}
layer {
  name: "pool1"
  type: "Pooling"
  bottom: "norm1"
  top: "pool1"
  pooling_param {
    pool: MAX
    kernel_size: 3
    stride: 2
    engine: MKL2017
  }
}
layer {
  name: "conv2"
  type: "Convolution"
  bottom: "pool1"
  top: "conv2"
  param {
    lr_mult: 1
    decay_mult: 1
  }
  param {
    lr_mult: 2
    decay_mult: 0
  }
  convolution_param {
    num_output: 256
    pad: 2
    kernel_size: 5
    group: 2
    weight_filler {
      type: "gaussian"
      std: 0.01
    }
    bias_filler {
      type: "constant"
      value: 0.1
    }
    engine: MKL2017
  }
}
layer {
  name: "relu2"
  type: "ReLU"
  bottom: "conv2"
  top: "conv2"
  relu_param {
    engine: MKL2017
  }
}
layer {
  name: "norm2"
  type: "LRN"
  bottom: "conv2"
  top: "norm2"
  lrn_param {
    local_size: 5
    alpha: 0.0001
    beta: 0.75
    engine: MKL2017
  }
}
layer {
  name: "pool2"
  type: "Pooling"
  bottom: "norm2"
  top: "pool2"
  pooling_param {
    pool: MAX
    kernel_size: 3
    stride: 2
    engine: MKL2017
  }
}
layer {
  name: "conv3"
  type: "Convolution"
  bottom: "pool2"
  top: "conv3"
  param {
    lr_mult: 1
    decay_mult: 1
  }
  param {
    lr_mult: 2
    decay_mult: 0
  }
  convolution_param {
    num_output: 384
    pad: 1
    kernel_size: 3
    weight_filler {
      type: "gaussian"
      std: 0.01
    }
    bias_filler {
      type: "constant"
      value: 0
    }
    engine: MKL2017
  }
}
layer {
  name: "relu3"
  type: "ReLU"
  bottom: "conv3"
  top: "conv3"
  relu_param {
    engine: MKL2017
  }
}
layer {
  name: "conv4"
  type: "Convolution"
  bottom: "conv3"
  top: "conv4"
  param {
    lr_mult: 1
    decay_mult: 1
  }
  param {
    lr_mult: 2
    decay_mult: 0
  }
  convolution_param {
    num_output: 384
    pad: 1
    kernel_size: 3
    group: 2
    weight_filler {
      type: "gaussian"
      std: 0.01
    }
    bias_filler {
      type: "constant"
      value: 0.1
    }
    engine: MKL2017
  }
}
layer {
  name: "relu4"
  type: "ReLU"
  bottom: "conv4"
  top: "conv4"
  relu_param {
    engine: MKL2017
  }
}
layer {
  name: "conv5"
  type: "Convolution"
  bottom: "conv4"
  top: "conv5"
  param {
    lr_mult: 1
    decay_mult: 1
  }
  param {
    lr_mult: 2
    decay_mult: 0
  }
  convolution_param {
    num_output: 256
    pad: 1
    kernel_size: 3
    group: 2
    weight_filler {
      type: "gaussian"
      std: 0.01
    }
    bias_filler {
      type: "constant"
      value: 0.1
    }
    engine: MKL2017
  }
}
layer {
  name: "relu5"
  type: "ReLU"
  bottom: "conv5"
  top: "conv5"
  relu_param {
    engine: MKL2017
  }
}
layer {
  name: "pool5"
  type: "Pooling"
  bottom: "conv5"
  top: "pool5"
  pooling_param {
    pool: MAX
    kernel_size: 3
    stride: 2
    engine: MKL2017
  }
}
layer {
  name: "fc6"
  type: "InnerProduct"
  bottom: "pool5"
  top: "fc6"
  param {
    lr_mult: 1
    decay_mult: 1
  }
  param {
    lr_mult: 2
    decay_mult: 0
  }
  inner_product_param {
    num_output: 4096
    weight_filler {
      type: "gaussian"
      std: 0.005
    }
    bias_filler {
      type: "constant"
      value: 0.1
    }
  }
}
layer {
  name: "relu6"
  type: "ReLU"
  bottom: "fc6"
  top: "fc6"
}
layer {
  name: "drop6"
  type: "Dropout"
  bottom: "fc6"
  top: "fc6"
  dropout_param {
    dropout_ratio: 0.5
  }
}
layer {
  name: "fc7"
  type: "InnerProduct"
  bottom: "fc6"
  top: "fc7"
  param {
    lr_mult: 1
    decay_mult: 1
  }
  param {
    lr_mult: 2
    decay_mult: 0
  }
  inner_product_param {
    num_output: 4096
    weight_filler {
      type: "gaussian"
      std: 0.005
    }
    bias_filler {
      type: "constant"
      value: 0.1
    }
  }
}
layer {
  name: "relu7"
  type: "ReLU"
  bottom: "fc7"
  top: "fc7"
}
layer {
  name: "drop7"
  type: "Dropout"
  bottom: "fc7"
  top: "fc7"
  dropout_param {
    dropout_ratio: 0.5
  }
}
layer {
  name: "fc8"
  type: "InnerProduct"
  bottom: "fc7"
  top: "fc8"
  param {
    lr_mult: 1
    decay_mult: 1
  }
  param {
    lr_mult: 2
    decay_mult: 0
  }
  inner_product_param {
    num_output: 1000
    weight_filler {
      type: "gaussian"
      std: 0.01
    }
    bias_filler {
      type: "constant"
      value: 0
    }
  }
}
layer {
  name: "fc8_fc8_0_split"
  type: "Split"
  bottom: "fc8"
  top: "fc8_fc8_0_split_0"
  top: "fc8_fc8_0_split_1"
}
layer {
  name: "accuracy"
  type: "Accuracy"
  bottom: "fc8_fc8_0_split_0"
  bottom: "label_data_1_split_0"
  top: "accuracy"
}
layer {
  name: "loss"
  type: "SoftmaxWithLoss"
  bottom: "fc8_fc8_0_split_1"
  bottom: "label_data_1_split_1"
  top: "loss"
}
I1226 09:06:53.211958 117050 net.cpp:178] Creating Layer data
I1226 09:06:53.212071 117050 net.cpp:586] data -> data
I1226 09:06:53.212152 117050 net.cpp:586] data -> label
I1226 09:06:53.223191 120755 layer_factory.hpp:114] Creating layer data
I1226 09:06:53.223372 120755 net.cpp:178] Creating Layer data
I1226 09:06:53.223417 120755 net.cpp:586] data -> data
I1226 09:06:53.223507 120755 net.cpp:586] data -> label
I1226 09:06:53.218925 88808 cpu_info.cpp:473] Number of OpenMP threads: 66
I1226 09:06:53.219282 88808 net.cpp:500] The NetState phase (0) differed from the phase (1) specified by a rule in layer data
I1226 09:06:53.221469 88808 net.cpp:136] Initializing net from parameters: 
name: "AlexNet"
state {
  phase: TRAIN
  level: 0
  stage: ""
}
engine: "MKL2017"
layer {
  name: "data"
  type: "Data"
  top: "data"
  top: "label"
  include {
    phase: TRAIN
  }
  transform_param {
    mirror: true
    crop_size: 227
    mean_value: 104
    mean_value: 117
    mean_value: 123
  }
  data_param {
    source: "/export/data1/stanford/hazy/zjian/gorden_bell/ILSVRC2012_lmdb/db_8/ilsvrc12_train_lmdb_7"
    batch_size: 32
    backend: LMDB
  }
}
layer {
  name: "label_data_1_split"
  type: "Split"
  bottom: "label"
  top: "label_data_1_split_0"
  top: "label_data_1_split_1"
}
layer {
  name: "conv1"
  type: "Convolution"
  bottom: "data"
  top: "conv1"
  param {
    lr_mult: 1
    decay_mult: 1
  }
  param {
    lr_mult: 2
    decay_mult: 0
  }
  convolution_param {
    num_output: 96
    kernel_size: 11
    stride: 4
    weight_filler {
      type: "gaussian"
      std: 0.01
    }
    bias_filler {
      type: "constant"
      value: 0
    }
    engine: MKL2017
  }
}
layer {
  name: "relu1"
  type: "ReLU"
  bottom: "conv1"
  top: "conv1"
  relu_param {
    engine: MKL2017
  }
}
layer {
  name: "norm1"
  type: "LRN"
  bottom: "conv1"
  top: "norm1"
  lrn_param {
    local_size: 5
    alpha: 0.0001
    beta: 0.75
    engine: MKL2017
  }
}
layer {
  name: "pool1"
  type: "Pooling"
  bottom: "norm1"
  top: "pool1"
  pooling_param {
    pool: MAX
    kernel_size: 3
    stride: 2
    engine: MKL2017
  }
}
layer {
  name: "conv2"
  type: "Convolution"
  bottom: "pool1"
  top: "conv2"
  param {
    lr_mult: 1
    decay_mult: 1
  }
  param {
    lr_mult: 2
    decay_mult: 0
  }
  convolution_param {
    num_output: 256
    pad: 2
    kernel_size: 5
    group: 2
    weight_filler {
      type: "gaussian"
      std: 0.01
    }
    bias_filler {
      type: "constant"
      value: 0.1
    }
    engine: MKL2017
  }
}
layer {
  name: "relu2"
  type: "ReLU"
  bottom: "conv2"
  top: "conv2"
  relu_param {
    engine: MKL2017
  }
}
layer {
  name: "norm2"
  type: "LRN"
  bottom: "conv2"
  top: "norm2"
  lrn_param {
    local_size: 5
    alpha: 0.0001
    beta: 0.75
    engine: MKL2017
  }
}
layer {
  name: "pool2"
  type: "Pooling"
  bottom: "norm2"
  top: "pool2"
  pooling_param {
    pool: MAX
    kernel_size: 3
    stride: 2
    engine: MKL2017
  }
}
layer {
  name: "conv3"
  type: "Convolution"
  bottom: "pool2"
  top: "conv3"
  param {
    lr_mult: 1
    decay_mult: 1
  }
  param {
    lr_mult: 2
    decay_mult: 0
  }
  convolution_param {
    num_output: 384
    pad: 1
    kernel_size: 3
    weight_filler {
      type: "gaussian"
      std: 0.01
    }
    bias_filler {
      type: "constant"
      value: 0
    }
    engine: MKL2017
  }
}
layer {
  name: "relu3"
  type: "ReLU"
  bottom: "conv3"
  top: "conv3"
  relu_param {
    engine: MKL2017
  }
}
layer {
  name: "conv4"
  type: "Convolution"
  bottom: "conv3"
  top: "conv4"
  param {
    lr_mult: 1
    decay_mult: 1
  }
  param {
    lr_mult: 2
    decay_mult: 0
  }
  convolution_param {
    num_output: 384
    pad: 1
    kernel_size: 3
    group: 2
    weight_filler {
      type: "gaussian"
      std: 0.01
    }
    bias_filler {
      type: "constant"
      value: 0.1
    }
    engine: MKL2017
  }
}
layer {
  name: "relu4"
  type: "ReLU"
  bottom: "conv4"
  top: "conv4"
  relu_param {
    engine: MKL2017
  }
}
layer {
  name: "conv5"
  type: "Convolution"
  bottom: "conv4"
  top: "conv5"
  param {
    lr_mult: 1
    decay_mult: 1
  }
  param {
    lr_mult: 2
    decay_mult: 0
  }
  convolution_param {
    num_output: 256
    pad: 1
    kernel_size: 3
    group: 2
    weight_filler {
      type: "gaussian"
      std: 0.01
    }
    bias_filler {
      type: "constant"
      value: 0.1
    }
    engine: MKL2017
  }
}
layer {
  name: "relu5"
  type: "ReLU"
  bottom: "conv5"
  top: "conv5"
  relu_param {
    engine: MKL2017
  }
}
layer {
  name: "pool5"
  type: "Pooling"
  bottom: "conv5"
  top: "pool5"
  pooling_param {
    pool: MAX
    kernel_size: 3
    stride: 2
    engine: MKL2017
  }
}
layer {
  name: "fc6"
  type: "InnerProduct"
  bottom: "pool5"
  top: "fc6"
  param {
    lr_mult: 1
    decay_mult: 1
  }
  param {
    lr_mult: 2
    decay_mult: 0
  }
  inner_product_param {
    num_output: 4096
    weight_filler {
      type: "gaussian"
      std: 0.005
    }
    bias_filler {
      type: "constant"
      value: 0.1
    }
  }
}
layer {
  name: "relu6"
  type: "ReLU"
  bottom: "fc6"
  top: "fc6"
}
layer {
  name: "drop6"
  type: "Dropout"
  bottom: "fc6"
  top: "fc6"
  dropout_param {
    dropout_ratio: 0.5
  }
}
layer {
  name: "fc7"
  type: "InnerProduct"
  bottom: "fc6"
  top: "fc7"
  param {
    lr_mult: 1
    decay_mult: 1
  }
  param {
    lr_mult: 2
    decay_mult: 0
  }
  inner_product_param {
    num_output: 4096
    weight_filler {
      type: "gaussian"
      std: 0.005
    }
    bias_filler {
      type: "constant"
      value: 0.1
    }
  }
}
layer {
  name: "relu7"
  type: "ReLU"
  bottom: "fc7"
  top: "fc7"
}
layer {
  name: "drop7"
  type: "Dropout"
  bottom: "fc7"
  top: "fc7"
  dropout_param {
    dropout_ratio: 0.5
  }
}
layer {
  name: "fc8"
  type: "InnerProduct"
  bottom: "fc7"
  top: "fc8"
  param {
    lr_mult: 1
    decay_mult: 1
  }
  param {
    lr_mult: 2
    decay_mult: 0
  }
  inner_product_param {
    num_output: 1000
    weight_filler {
      type: "gaussian"
      std: 0.01
    }
    bias_filler {
      type: "constant"
      value: 0
    }
  }
}
layer {
  name: "fc8_fc8_0_split"
  type: "Split"
  bottom: "fc8"
  top: "fc8_fc8_0_split_0"
  top: "fc8_fc8_0_split_1"
}
layer {
  name: "accuracy"
  type: "Accuracy"
  bottom: "fc8_fc8_0_split_0"
  bottom: "label_data_1_split_0"
  top: "accuracy"
}
layer {
  name: "loss"
  type: "SoftmaxWithLoss"
  bottom: "fc8_fc8_0_split_1"
  bottom: "label_data_1_split_1"
  top: "loss"
}
I1226 09:06:49.958796 90317 layer_factory.hpp:114] Creating layer data
I1226 09:06:53.247521 90178 layer_factory.hpp:114] Creating layer data
I1226 09:06:53.247256 117052 db_lmdb.cpp:72] Opened lmdb /export/data1/stanford/hazy/zjian/gorden_bell/ILSVRC2012_lmdb/db_8/ilsvrc12_train_lmdb_5
I1226 09:06:49.984071 90317 net.cpp:178] Creating Layer data
I1226 09:06:49.984174 90317 net.cpp:586] data -> data
I1226 09:06:49.984274 90317 net.cpp:586] data -> label
I1226 09:06:53.258146 90178 net.cpp:178] Creating Layer data
I1226 09:06:53.258222 90178 net.cpp:586] data -> data
I1226 09:06:53.258299 90178 net.cpp:586] data -> label
I1226 09:06:53.251662 91281 layer_factory.hpp:114] Creating layer data
I1226 09:06:53.268059 117050 data_layer.cpp:80] output data size: 32,3,227,227
I1226 09:06:53.271723 94464 layer_factory.hpp:114] Creating layer data
I1226 09:06:53.277281 120755 net.cpp:228] Setting up data
I1226 09:06:53.277422 120755 net.cpp:235] Top shape: 32 3 227 227 (4946784)
I1226 09:06:53.277458 120755 net.cpp:235] Top shape: 32 1 1 1 (32)
I1226 09:06:53.277508 120755 net.cpp:243] Memory required for data: 19787264
I1226 09:06:53.277544 120755 layer_factory.hpp:114] Creating layer label_data_1_split
I1226 09:06:53.277627 120755 net.cpp:178] Creating Layer label_data_1_split
I1226 09:06:53.277732 120755 net.cpp:612] label_data_1_split <- label
I1226 09:06:53.277767 120755 net.cpp:586] label_data_1_split -> label_data_1_split_0
I1226 09:06:53.277813 120755 net.cpp:586] label_data_1_split -> label_data_1_split_1
I1226 09:06:53.269412 91281 net.cpp:178] Creating Layer data
I1226 09:06:53.269502 91281 net.cpp:586] data -> data
I1226 09:06:53.269582 91281 net.cpp:586] data -> label
I1226 09:06:53.288411 120755 net.cpp:228] Setting up label_data_1_split
I1226 09:06:53.288512 120755 net.cpp:235] Top shape: 32 1 1 1 (32)
I1226 09:06:53.288542 120755 net.cpp:235] Top shape: 32 1 1 1 (32)
I1226 09:06:53.288563 120755 net.cpp:243] Memory required for data: 19787520
I1226 09:06:53.288625 120755 layer_factory.hpp:114] Creating layer conv1
I1226 09:06:53.288724 120755 net.cpp:178] Creating Layer conv1
I1226 09:06:53.288816 120755 net.cpp:612] conv1 <- data
I1226 09:06:53.288856 120755 net.cpp:586] conv1 -> conv1
I1226 09:06:53.286605 94464 net.cpp:178] Creating Layer data
I1226 09:06:53.286733 94464 net.cpp:586] data -> data
…
I1226 09:06:53.323515 90178 data_layer.cpp:80] output data size: 32,3,227,227
I1226 09:06:53.327411 94466 db_lmdb.cpp:72] Opened lmdb /export/data1/stanford/hazy/zjian/gorden_bell/ILSVRC2012_lmdb/db_8/ilsvrc12_train_lmdb_1
I1226 09:06:53.335204 94464 data_layer.cpp:80] output data size: 32,3,227,227
I1226 09:06:53.330879 91281 data_layer.cpp:80] output data size: 32,3,227,227
I1226 09:06:53.338099 96750 db_lmdb.cpp:72] Opened lmdb /export/data1/stanford/hazy/zjian/gorden_bell/ILSVRC2012_lmdb/db_8/ilsvrc12_train_lmdb_3
I1226 09:06:53.345214 117050 net.cpp:228] Setting up data
I1226 09:06:53.345324 117050 net.cpp:235] Top shape: 32 3 227 227 (4946784)
I1226 09:06:53.345357 117050 net.cpp:235] Top shape: 32 (32)
I1226 09:06:53.345381 117050 net.cpp:243] Memory required for data: 19787264
I1226 09:06:53.345417 117050 layer_factory.hpp:114] Creating layer label_data_1_split
I1226 09:06:53.345603 117050 net.cpp:178] Creating Layer label_data_1_split
I1226 09:06:53.345648 117050 net.cpp:612] label_data_1_split <- label
I1226 09:06:53.345685 117050 net.cpp:586] label_data_1_split -> label_data_1_split_0
I1226 09:06:53.345736 117050 net.cpp:586] label_data_1_split -> label_data_1_split_1
I1226 09:06:53.350585 120060 db_lmdb.cpp:72] Opened lmdb /export/data1/stanford/hazy/zjian/gorden_bell/ILSVRC2012_lmdb/db_8/ilsvrc12_train_lmdb_0
I1226 09:06:53.357453 117050 net.cpp:228] Setting up label_data_1_split
I1226 09:06:53.357580 117050 net.cpp:235] Top shape: 32 (32)
I1226 09:06:53.357615 117050 net.cpp:235] Top shape: 32 (32)
I1226 09:06:53.357640 117050 net.cpp:243] Memory required for data: 19787520
I1226 09:06:53.357676 117050 layer_factory.hpp:114] Creating layer conv1
I1226 09:06:53.357779 117050 net.cpp:178] Creating Layer conv1
I1226 09:06:53.357815 117050 net.cpp:612] conv1 <- data
I1226 09:06:53.357856 117050 net.cpp:586] conv1 -> conv1
I1226 09:06:53.363112 88810 db_lmdb.cpp:72] Opened lmdb /export/data1/stanford/hazy/zjian/gorden_bell/ILSVRC2012_lmdb/db_8/ilsvrc12_train_lmdb_7
I1226 09:06:53.358000 120057 data_layer.cpp:80] output data size: 32,3,227,227
I1226 09:06:53.371290 88808 data_layer.cpp:80] output data size: 32,3,227,227
I1226 09:06:53.373670 96748 data_layer.cpp:80] output data size: 32,3,227,227
I1226 09:06:53.397292 120755 net.cpp:228] Setting up conv1
I1226 09:06:53.397404 120755 net.cpp:235] Top shape: 32 96 55 55 (9292800)
I1226 09:06:53.397429 120755 net.cpp:243] Memory required for data: 56958720
I1226 09:06:53.397572 120755 layer_factory.hpp:114] Creating layer relu1
I1226 09:06:53.397641 120755 net.cpp:178] Creating Layer relu1
I1226 09:06:53.397685 120755 net.cpp:612] relu1 <- conv1
I1226 09:06:53.397730 120755 net.cpp:573] relu1 -> conv1 (in-place)
I1226 09:06:53.397832 120755 net.cpp:228] Setting up relu1
I1226 09:06:53.397877 120755 net.cpp:235] Top shape: 32 96 55 55 (9292800)
I1226 09:06:53.397920 120755 net.cpp:243] Memory required for data: 94129920
I1226 09:06:53.397951 120755 layer_factory.hpp:114] Creating layer norm1
I1226 09:06:53.398017 120755 net.cpp:178] Creating Layer norm1
I1226 09:06:53.398114 120755 net.cpp:612] norm1 <- conv1
I1226 09:06:53.398149 120755 net.cpp:586] norm1 -> norm1
I1226 09:06:53.398226 120755 net.cpp:228] Setting up norm1
I1226 09:06:53.398267 120755 net.cpp:235] Top shape: 32 96 55 55 (9292800)
I1226 09:06:53.398289 120755 net.cpp:243] Memory required for data: 131301120
I1226 09:06:53.398315 120755 layer_factory.hpp:114] Creating layer pool1
I1226 09:06:53.398365 120755 net.cpp:178] Creating Layer pool1
I1226 09:06:53.398396 120755 net.cpp:612] pool1 <- norm1
I1226 09:06:53.398428 120755 net.cpp:586] pool1 -> pool1
I1226 09:06:53.398505 120755 net.cpp:228] Setting up pool1
I1226 09:06:53.398538 120755 net.cpp:235] Top shape: 32 96 27 27 (2239488)
I1226 09:06:53.398566 120755 net.cpp:243] Memory required for data: 140259072
I1226 09:06:53.398597 120755 layer_factory.hpp:114] Creating layer conv2
I1226 09:06:53.398665 120755 net.cpp:178] Creating Layer conv2
I1226 09:06:53.398690 120755 net.cpp:612] conv2 <- pool1
I1226 09:06:53.398737 120755 net.cpp:586] conv2 -> conv2
I1226 09:06:50.126595 90317 net.cpp:228] Setting up data
I1226 09:06:50.126718 90317 net.cpp:235] Top shape: 32 3 227 227 (4946784)
I1226 09:06:50.126760 90317 net.cpp:235] Top shape: 32 (32)
I1226 09:06:50.126785 90317 net.cpp:243] Memory required for data: 19787264
I1226 09:06:50.126833 90317 layer_factory.hpp:114] Creating layer label_data_1_split
I1226 09:06:50.126921 90317 net.cpp:178] Creating Layer label_data_1_split
I1226 09:06:50.127053 90317 net.cpp:612] label_data_1_split <- label
I1226 09:06:50.127095 90317 net.cpp:586] label_data_1_split -> label_data_1_split_0
I1226 09:06:50.127151 90317 net.cpp:586] label_data_1_split -> label_data_1_split_1
I1226 09:06:53.401198 90178 net.cpp:228] Setting up data
I1226 09:06:53.401315 90178 net.cpp:235] Top shape: 32 3 227 227 (4946784)
I1226 09:06:53.401350 90178 net.cpp:235] Top shape: 32 (32)
I1226 09:06:53.401374 90178 net.cpp:243] Memory required for data: 19787264
I1226 09:06:53.401410 90178 layer_factory.hpp:114] Creating layer label_data_1_split
I1226 09:06:53.401494 90178 net.cpp:178] Creating Layer label_data_1_split
I1226 09:06:53.401609 90178 net.cpp:612] label_data_1_split <- label
I1226 09:06:53.401649 90178 net.cpp:586] label_data_1_split -> label_data_1_split_0
I1226 09:06:53.401701 90178 net.cpp:586] label_data_1_split -> label_data_1_split_1
I1226 09:06:50.139509 90317 net.cpp:228] Setting up label_data_1_split
I1226 09:06:50.139645 90317 net.cpp:235] Top shape: 32 (32)
I1226 09:06:50.139680 90317 net.cpp:235] Top shape: 32 (32)
I1226 09:06:50.139706 90317 net.cpp:243] Memory required for data: 19787520
I1226 09:06:50.139756 90317 layer_factory.hpp:114] Creating layer conv1
I1226 09:06:50.139854 90317 net.cpp:178] Creating Layer conv1
I1226 09:06:50.139892 90317 net.cpp:612] conv1 <- data
I1226 09:06:50.139935 90317 net.cpp:586] conv1 -> conv1
I1226 09:06:53.417623 90178 net.cpp:228] Setting up label_data_1_split
I1226 09:06:53.417733 90178 net.cpp:235] Top shape: 32 (32)
I1226 09:06:53.417768 90178 net.cpp:235] Top shape: 32 (32)
I1226 09:06:53.417793 90178 net.cpp:243] Memory required for data: 19787520
I1226 09:06:53.417856 90178 layer_factory.hpp:114] Creating layer conv1
I1226 09:06:53.417959 90178 net.cpp:178] Creating Layer conv1
I1226 09:06:53.418001 90178 net.cpp:612] conv1 <- data
I1226 09:06:53.418045 90178 net.cpp:586] conv1 -> conv1
I1226 09:06:53.429888 91281 net.cpp:228] Setting up data
I1226 09:06:53.430045 91281 net.cpp:235] Top shape: 32 3 227 227 (4946784)
I1226 09:06:53.430130 91281 net.cpp:235] Top shape: 32 (32)
I1226 09:06:53.430196 91281 net.cpp:243] Memory required for data: 19787264
I1226 09:06:53.430259 91281 layer_factory.hpp:114] Creating layer label_data_1_split
I1226 09:06:53.430441 91281 net.cpp:178] Creating Layer label_data_1_split
I1226 09:06:53.430610 91281 net.cpp:612] label_data_1_split <- label
I1226 09:06:53.430672 91281 net.cpp:586] label_data_1_split -> label_data_1_split_0
I1226 09:06:53.430732 91281 net.cpp:586] label_data_1_split -> label_data_1_split_1
I1226 09:06:53.436287 120057 net.cpp:228] Setting up data
I1226 09:06:53.436403 120057 net.cpp:235] Top shape: 32 3 227 227 (4946784)
I1226 09:06:53.436439 120057 net.cpp:235] Top shape: 32 (32)
I1226 09:06:53.436462 120057 net.cpp:243] Memory required for data: 19787264
I1226 09:06:53.436497 120057 layer_factory.hpp:114] Creating layer label_data_1_split
I1226 09:06:53.436703 120057 net.cpp:178] Creating Layer label_data_1_split
I1226 09:06:53.436756 120057 net.cpp:612] label_data_1_split <- label
I1226 09:06:53.436801 120057 net.cpp:586] label_data_1_split -> label_data_1_split_0
I1226 09:06:53.436852 120057 net.cpp:586] label_data_1_split -> label_data_1_split_1
I1226 09:06:53.443867 88808 net.cpp:228] Setting up data
I1226 09:06:53.443979 88808 net.cpp:235] Top shape: 32 3 227 227 (4946784)
I1226 09:06:53.444011 88808 net.cpp:235] Top shape: 32 (32)
I1226 09:06:53.444062 88808 net.cpp:243] Memory required for data: 19787264
I1226 09:06:53.444098 88808 layer_factory.hpp:114] Creating layer label_data_1_split
I1226 09:06:53.444183 88808 net.cpp:178] Creating Layer label_data_1_split
I1226 09:06:53.444304 88808 net.cpp:612] label_data_1_split <- label
I1226 09:06:53.444342 88808 net.cpp:586] label_data_1_split -> label_data_1_split_0
I1226 09:06:53.444399 88808 net.cpp:586] label_data_1_split -> label_data_1_split_1
I1226 09:06:53.450569 120057 net.cpp:228] Setting up label_data_1_split
I1226 09:06:53.450701 120057 net.cpp:235] Top shape: 32 (32)
I1226 09:06:53.450737 120057 net.cpp:235] Top shape: 32 (32)
I1226 09:06:53.450764 120057 net.cpp:243] Memory required for data: 19787520
I1226 09:06:53.450801 120057 layer_factory.hpp:114] Creating layer conv1
I1226 09:06:53.450942 120057 net.cpp:178] Creating Layer conv1
I1226 09:06:53.451161 120057 net.cpp:612] conv1 <- data
I1226 09:06:53.451215 120057 net.cpp:586] conv1 -> conv1
I1226 09:06:53.458139 91281 net.cpp:228] Setting up label_data_1_split
I1226 09:06:53.458268 91281 net.cpp:235] Top shape: 32 (32)
I1226 09:06:53.458322 91281 net.cpp:235] Top shape: 32 (32)
I1226 09:06:53.458358 91281 net.cpp:243] Memory required for data: 19787520
I1226 09:06:53.458446 91281 layer_factory.hpp:114] Creating layer conv1
I1226 09:06:53.458590 91281 net.cpp:178] Creating Layer conv1
I1226 09:06:53.458663 91281 net.cpp:612] conv1 <- data
I1226 09:06:53.458736 91281 net.cpp:586] conv1 -> conv1
I1226 09:06:53.462736 96748 net.cpp:228] Setting up data
I1226 09:06:53.462852 96748 net.cpp:235] Top shape: 32 3 227 227 (4946784)
I1226 09:06:53.462888 96748 net.cpp:235] Top shape: 32 (32)
I1226 09:06:53.462940 96748 net.cpp:243] Memory required for data: 19787264
I1226 09:06:53.462977 96748 layer_factory.hpp:114] Creating layer label_data_1_split
I1226 09:06:53.463090 96748 net.cpp:178] Creating Layer label_data_1_split
I1226 09:06:53.463225 96748 net.cpp:612] label_data_1_split <- label
I1226 09:06:53.463304 96748 net.cpp:586] label_data_1_split -> label_data_1_split_0
I1226 09:06:53.463395 96748 net.cpp:586] label_data_1_split -> label_data_1_split_1
I1226 09:06:53.467308 88808 net.cpp:228] Setting up label_data_1_split
I1226 09:06:53.467525 88808 net.cpp:235] Top shape: 32 (32)
I1226 09:06:53.467689 88808 net.cpp:235] Top shape: 32 (32)
I1226 09:06:53.467744 88808 net.cpp:243] Memory required for data: 19787520
I1226 09:06:53.468149 88808 layer_factory.hpp:114] Creating layer conv1
I1226 09:06:53.468317 88808 net.cpp:178] Creating Layer conv1
I1226 09:06:53.468401 88808 net.cpp:612] conv1 <- data
I1226 09:06:53.468452 88808 net.cpp:586] conv1 -> conv1
I1226 09:06:53.494732 94464 net.cpp:228] Setting up data
I1226 09:06:53.477898 96748 net.cpp:228] Setting up label_data_1_split
I1226 09:06:53.494879 94464 net.cpp:235] Top shape: 32 3 227 227 (4946784)
I1226 09:06:53.494923 94464 net.cpp:235] Top shape: 32 (32)
I1226 09:06:53.478008 96748 net.cpp:235] Top shape: 32 (32)
I1226 09:06:53.478040 96748 net.cpp:235] Top shape: 32 (32)
I1226 09:06:53.478117 96748 net.cpp:243] Memory required for data: 19787520
I1226 09:06:53.494952 94464 net.cpp:243] Memory required for data: 19787264
I1226 09:06:53.478160 96748 layer_factory.hpp:114] Creating layer conv1
I1226 09:06:53.494992 94464 layer_factory.hpp:114] Creating layer label_data_1_split
I1226 09:06:53.478271 96748 net.cpp:178] Creating Layer conv1
I1226 09:06:53.495100 94464 net.cpp:178] Creating Layer label_data_1_split
I1226 09:06:53.478310 96748 net.cpp:612] conv1 <- data
I1226 09:06:53.495241 94464 net.cpp:612] label_data_1_split <- label
I1226 09:06:53.478355 96748 net.cpp:586] conv1 -> conv1
I1226 09:06:53.495292 94464 net.cpp:586] label_data_1_split -> label_data_1_split_0
I1226 09:06:53.495357 94464 net.cpp:586] label_data_1_split -> label_data_1_split_1
I1226 09:06:53.512501 94464 net.cpp:228] Setting up label_data_1_split
I1226 09:06:53.518311 117050 net.cpp:228] Setting up conv1
I1226 09:06:53.518425 117050 net.cpp:235] Top shape: 32 96 55 55 (9292800)
I1226 09:06:53.518452 117050 net.cpp:243] Memory required for data: 56958720
I1226 09:06:53.518579 117050 layer_factory.hpp:114] Creating layer relu1
I1226 09:06:53.518726 117050 net.cpp:178] Creating Layer relu1
I1226 09:06:53.518759 117050 net.cpp:612] relu1 <- conv1
I1226 09:06:53.518893 117050 net.cpp:573] relu1 -> conv1 (in-place)
I1226 09:06:53.518990 117050 net.cpp:228] Setting up relu1
I1226 09:06:53.519033 117050 net.cpp:235] Top shape: 32 96 55 55 (9292800)
I1226 09:06:53.519057 117050 net.cpp:243] Memory required for data: 94129920
I1226 09:06:53.519084 117050 layer_factory.hpp:114] Creating layer norm1
I1226 09:06:53.519210 117050 net.cpp:178] Creating Layer norm1
I1226 09:06:53.519315 117050 net.cpp:612] norm1 <- conv1
I1226 09:06:53.519438 117050 net.cpp:586] norm1 -> norm1
I1226 09:06:53.519523 117050 net.cpp:228] Setting up norm1
I1226 09:06:53.519587 117050 net.cpp:235] Top shape: 32 96 55 55 (9292800)
I1226 09:06:53.519611 117050 net.cpp:243] Memory required for data: 131301120
I1226 09:06:53.519639 117050 layer_factory.hpp:114] Creating layer pool1
I1226 09:06:53.519709 117050 net.cpp:178] Creating Layer pool1
I1226 09:06:53.519742 117050 net.cpp:612] pool1 <- norm1
I1226 09:06:53.519776 117050 net.cpp:586] pool1 -> pool1
I1226 09:06:53.519856 117050 net.cpp:228] Setting up pool1
I1226 09:06:53.519896 117050 net.cpp:235] Top shape: 32 96 27 27 (2239488)
I1226 09:06:53.519918 117050 net.cpp:243] Memory required for data: 140259072
I1226 09:06:53.519944 117050 layer_factory.hpp:114] Creating layer conv2
I1226 09:06:53.520018 117050 net.cpp:178] Creating Layer conv2
I1226 09:06:53.520050 117050 net.cpp:612] conv2 <- pool1
I1226 09:06:53.520086 117050 net.cpp:586] conv2 -> conv2
I1226 09:06:53.530674 120755 net.cpp:228] Setting up conv2
I1226 09:06:53.530786 120755 net.cpp:235] Top shape: 32 256 27 27 (5971968)
I1226 09:06:53.530812 120755 net.cpp:243] Memory required for data: 164146944
I1226 09:06:53.530882 120755 layer_factory.hpp:114] Creating layer relu2
I1226 09:06:53.530988 120755 net.cpp:178] Creating Layer relu2
I1226 09:06:53.531031 120755 net.cpp:612] relu2 <- conv2
I1226 09:06:53.531074 120755 net.cpp:573] relu2 -> conv2 (in-place)
I1226 09:06:53.531172 120755 net.cpp:228] Setting up relu2
I1226 09:06:53.531213 120755 net.cpp:235] Top shape: 32 256 27 27 (5971968)
I1226 09:06:53.531236 120755 net.cpp:243] Memory required for data: 188034816
I1226 09:06:53.531265 120755 layer_factory.hpp:114] Creating layer norm2
I1226 09:06:53.531312 120755 net.cpp:178] Creating Layer norm2
I1226 09:06:53.531342 120755 net.cpp:612] norm2 <- conv2
I1226 09:06:53.531375 120755 net.cpp:586] norm2 -> norm2
I1226 09:06:53.531457 120755 net.cpp:228] Setting up norm2
I1226 09:06:53.531500 120755 net.cpp:235] Top shape: 32 256 27 27 (5971968)
I1226 09:06:53.531523 120755 net.cpp:243] Memory required for data: 211922688
I1226 09:06:53.531551 120755 layer_factory.hpp:114] Creating layer pool2
I1226 09:06:53.531602 120755 net.cpp:178] Creating Layer pool2
I1226 09:06:53.531635 120755 net.cpp:612] pool2 <- norm2
I1226 09:06:53.531678 120755 net.cpp:586] pool2 -> pool2
I1226 09:06:53.531751 120755 net.cpp:228] Setting up pool2
I1226 09:06:53.531878 120755 net.cpp:235] Top shape: 32 256 13 13 (1384448)
I1226 09:06:53.531937 120755 net.cpp:243] Memory required for data: 217460480
I1226 09:06:53.531971 120755 layer_factory.hpp:114] Creating layer conv3
I1226 09:06:53.532058 120755 net.cpp:178] Creating Layer conv3
I1226 09:06:53.532090 120755 net.cpp:612] conv3 <- pool2
I1226 09:06:53.532130 120755 net.cpp:586] conv3 -> conv3
I1226 09:06:53.512635 94464 net.cpp:235] Top shape: 32 (32)
I1226 09:06:53.532755 94464 net.cpp:235] Top shape: 32 (32)
I1226 09:06:53.532861 94464 net.cpp:243] Memory required for data: 19787520
I1226 09:06:53.532996 94464 layer_factory.hpp:114] Creating layer conv1
I1226 09:06:53.533169 94464 net.cpp:178] Creating Layer conv1
I1226 09:06:53.533241 94464 net.cpp:612] conv1 <- data
I1226 09:06:53.533293 94464 net.cpp:586] conv1 -> conv1
I1226 09:06:50.284376 90317 net.cpp:228] Setting up conv1
I1226 09:06:50.284495 90317 net.cpp:235] Top shape: 32 96 55 55 (9292800)
I1226 09:06:50.284554 90317 net.cpp:243] Memory required for data: 56958720
I1226 09:06:50.284715 90317 layer_factory.hpp:114] Creating layer relu1
I1226 09:06:50.284921 90317 net.cpp:178] Creating Layer relu1
I1226 09:06:50.284968 90317 net.cpp:612] relu1 <- conv1
I1226 09:06:50.285018 90317 net.cpp:573] relu1 -> conv1 (in-place)
I1226 09:06:50.285126 90317 net.cpp:228] Setting up relu1
I1226 09:06:50.285181 90317 net.cpp:235] Top shape: 32 96 55 55 (9292800)
I1226 09:06:50.285204 90317 net.cpp:243] Memory required for data: 94129920
I1226 09:06:50.285234 90317 layer_factory.hpp:114] Creating layer norm1
I1226 09:06:50.285310 90317 net.cpp:178] Creating Layer norm1
I1226 09:06:50.285348 90317 net.cpp:612] norm1 <- conv1
I1226 09:06:50.285398 90317 net.cpp:586] norm1 -> norm1
I1226 09:06:50.285504 90317 net.cpp:228] Setting up norm1
I1226 09:06:50.285553 90317 net.cpp:235] Top shape: 32 96 55 55 (9292800)
I1226 09:06:50.285599 90317 net.cpp:243] Memory required for data: 131301120
I1226 09:06:50.285632 90317 layer_factory.hpp:114] Creating layer pool1
I1226 09:06:50.285699 90317 net.cpp:178] Creating Layer pool1
I1226 09:06:50.285735 90317 net.cpp:612] pool1 <- norm1
I1226 09:06:50.285774 90317 net.cpp:586] pool1 -> pool1
I1226 09:06:50.285863 90317 net.cpp:228] Setting up pool1
I1226 09:06:50.285915 90317 net.cpp:235] Top shape: 32 96 27 27 (2239488)
I1226 09:06:50.285939 90317 net.cpp:243] Memory required for data: 140259072
I1226 09:06:50.285967 90317 layer_factory.hpp:114] Creating layer conv2
I1226 09:06:50.286046 90317 net.cpp:178] Creating Layer conv2
I1226 09:06:50.286083 90317 net.cpp:612] conv2 <- pool1
I1226 09:06:50.286135 90317 net.cpp:586] conv2 -> conv2
I1226 09:06:53.578840 90178 net.cpp:228] Setting up conv1
I1226 09:06:53.578963 90178 net.cpp:235] Top shape: 32 96 55 55 (9292800)
I1226 09:06:53.578997 90178 net.cpp:243] Memory required for data: 56958720
I1226 09:06:53.579453 90178 layer_factory.hpp:114] Creating layer relu1
I1226 09:06:53.579713 90178 net.cpp:178] Creating Layer relu1
I1226 09:06:53.579784 90178 net.cpp:612] relu1 <- conv1
I1226 09:06:53.579916 90178 net.cpp:573] relu1 -> conv1 (in-place)
I1226 09:06:53.580329 90178 net.cpp:228] Setting up relu1
I1226 09:06:53.580404 90178 net.cpp:235] Top shape: 32 96 55 55 (9292800)
I1226 09:06:53.580441 90178 net.cpp:243] Memory required for data: 94129920
I1226 09:06:53.580484 90178 layer_factory.hpp:114] Creating layer norm1
I1226 09:06:53.580775 90178 net.cpp:178] Creating Layer norm1
I1226 09:06:53.580950 90178 net.cpp:612] norm1 <- conv1
I1226 09:06:53.582568 90178 net.cpp:586] norm1 -> norm1
I1226 09:06:53.582883 90178 net.cpp:228] Setting up norm1
I1226 09:06:53.583029 90178 net.cpp:235] Top shape: 32 96 55 55 (9292800)
I1226 09:06:53.583073 90178 net.cpp:243] Memory required for data: 131301120
I1226 09:06:53.583175 90178 layer_factory.hpp:114] Creating layer pool1
I1226 09:06:53.583293 90178 net.cpp:178] Creating Layer pool1
I1226 09:06:53.583526 90178 net.cpp:612] pool1 <- norm1
I1226 09:06:53.583627 90178 net.cpp:586] pool1 -> pool1
I1226 09:06:53.583781 90178 net.cpp:228] Setting up pool1
I1226 09:06:53.583876 90178 net.cpp:235] Top shape: 32 96 27 27 (2239488)
I1226 09:06:53.583971 90178 net.cpp:243] Memory required for data: 140259072
I1226 09:06:53.584020 90178 layer_factory.hpp:114] Creating layer conv2
I1226 09:06:53.584118 90178 net.cpp:178] Creating Layer conv2
I1226 09:06:53.584158 90178 net.cpp:612] conv2 <- pool1
I1226 09:06:53.584211 90178 net.cpp:586] conv2 -> conv2
I1226 09:06:53.614203 120057 net.cpp:228] Setting up conv1
I1226 09:06:53.614326 120057 net.cpp:235] Top shape: 32 96 55 55 (9292800)
I1226 09:06:53.614357 120057 net.cpp:243] Memory required for data: 56958720
I1226 09:06:53.614477 120057 layer_factory.hpp:114] Creating layer relu1
I1226 09:06:53.614586 120057 net.cpp:178] Creating Layer relu1
I1226 09:06:53.614661 120057 net.cpp:612] relu1 <- conv1
I1226 09:06:53.614729 120057 net.cpp:573] relu1 -> conv1 (in-place)
I1226 09:06:53.614845 120057 net.cpp:228] Setting up relu1
I1226 09:06:53.614913 120057 net.cpp:235] Top shape: 32 96 55 55 (9292800)
I1226 09:06:53.614944 120057 net.cpp:243] Memory required for data: 94129920
I1226 09:06:53.614979 120057 layer_factory.hpp:114] Creating layer norm1
I1226 09:06:53.615058 120057 net.cpp:178] Creating Layer norm1
I1226 09:06:53.615090 120057 net.cpp:612] norm1 <- conv1
I1226 09:06:53.615139 120057 net.cpp:586] norm1 -> norm1
I1226 09:06:53.615257 120057 net.cpp:228] Setting up norm1
I1226 09:06:53.615315 120057 net.cpp:235] Top shape: 32 96 55 55 (9292800)
I1226 09:06:53.615339 120057 net.cpp:243] Memory required for data: 131301120
I1226 09:06:53.615371 120057 layer_factory.hpp:114] Creating layer pool1
I1226 09:06:53.615442 120057 net.cpp:178] Creating Layer pool1
I1226 09:06:53.615470 120057 net.cpp:612] pool1 <- norm1
I1226 09:06:53.615509 120057 net.cpp:586] pool1 -> pool1
I1226 09:06:53.615639 120057 net.cpp:228] Setting up pool1
I1226 09:06:53.615697 120057 net.cpp:235] Top shape: 32 96 27 27 (2239488)
I1226 09:06:53.615722 120057 net.cpp:243] Memory required for data: 140259072
I1226 09:06:53.615751 120057 layer_factory.hpp:114] Creating layer conv2
I1226 09:06:53.615833 120057 net.cpp:178] Creating Layer conv2
I1226 09:06:53.615862 120057 net.cpp:612] conv2 <- pool1
I1226 09:06:53.615905 120057 net.cpp:586] conv2 -> conv2
I1226 09:06:53.622800 88808 net.cpp:228] Setting up conv1
I1226 09:06:53.622938 88808 net.cpp:235] Top shape: 32 96 55 55 (9292800)
I1226 09:06:53.622972 88808 net.cpp:243] Memory required for data: 56958720
I1226 09:06:53.623263 88808 layer_factory.hpp:114] Creating layer relu1
I1226 09:06:53.623399 88808 net.cpp:178] Creating Layer relu1
I1226 09:06:53.623531 88808 net.cpp:612] relu1 <- conv1
I1226 09:06:53.623615 88808 net.cpp:573] relu1 -> conv1 (in-place)
I1226 09:06:53.624117 88808 net.cpp:228] Setting up relu1
I1226 09:06:53.624297 88808 net.cpp:235] Top shape: 32 96 55 55 (9292800)
I1226 09:06:53.624390 88808 net.cpp:243] Memory required for data: 94129920
I1226 09:06:53.624441 88808 layer_factory.hpp:114] Creating layer norm1
I1226 09:06:53.624569 88808 net.cpp:178] Creating Layer norm1
I1226 09:06:53.624665 88808 net.cpp:612] norm1 <- conv1
I1226 09:06:53.624729 88808 net.cpp:586] norm1 -> norm1
I1226 09:06:53.624882 88808 net.cpp:228] Setting up norm1
I1226 09:06:53.624963 88808 net.cpp:235] Top shape: 32 96 55 55 (9292800)
I1226 09:06:53.624994 88808 net.cpp:243] Memory required for data: 131301120
I1226 09:06:53.625036 88808 layer_factory.hpp:114] Creating layer pool1
I1226 09:06:53.625134 88808 net.cpp:178] Creating Layer pool1
I1226 09:06:53.625193 88808 net.cpp:612] pool1 <- norm1
I1226 09:06:53.625247 88808 net.cpp:586] pool1 -> pool1
I1226 09:06:53.622244 91281 net.cpp:228] Setting up conv1
I1226 09:06:53.622357 91281 net.cpp:235] Top shape: 32 96 55 55 (9292800)
I1226 09:06:53.622421 91281 net.cpp:243] Memory required for data: 56958720
I1226 09:06:53.625892 88808 net.cpp:228] Setting up pool1
I1226 09:06:53.622539 91281 layer_factory.hpp:114] Creating layer relu1
I1226 09:06:53.626015 88808 net.cpp:235] Top shape: 32 96 27 27 (2239488)
I1226 09:06:53.622635 91281 net.cpp:178] Creating Layer relu1
I1226 09:06:53.626055 88808 net.cpp:243] Memory required for data: 140259072
I1226 09:06:53.622678 91281 net.cpp:612] relu1 <- conv1
I1226 09:06:53.626134 88808 layer_factory.hpp:114] Creating layer conv2
I1226 09:06:53.622720 91281 net.cpp:573] relu1 -> conv1 (in-place)
I1226 09:06:53.622828 91281 net.cpp:228] Setting up relu1
I1226 09:06:53.626292 88808 net.cpp:178] Creating Layer conv2
I1226 09:06:53.622874 91281 net.cpp:235] Top shape: 32 96 55 55 (9292800)
I1226 09:06:53.626345 88808 net.cpp:612] conv2 <- pool1
I1226 09:06:53.622898 91281 net.cpp:243] Memory required for data: 94129920
I1226 09:06:53.626404 88808 net.cpp:586] conv2 -> conv2
I1226 09:06:53.622926 91281 layer_factory.hpp:114] Creating layer norm1
I1226 09:06:53.622994 91281 net.cpp:178] Creating Layer norm1
I1226 09:06:53.623026 91281 net.cpp:612] norm1 <- conv1
I1226 09:06:53.623075 91281 net.cpp:586] norm1 -> norm1
I1226 09:06:53.623167 91281 net.cpp:228] Setting up norm1
I1226 09:06:53.623210 91281 net.cpp:235] Top shape: 32 96 55 55 (9292800)
I1226 09:06:53.623234 91281 net.cpp:243] Memory required for data: 131301120
I1226 09:06:53.623261 91281 layer_factory.hpp:114] Creating layer pool1
I1226 09:06:53.623324 91281 net.cpp:178] Creating Layer pool1
I1226 09:06:53.623356 91281 net.cpp:612] pool1 <- norm1
I1226 09:06:53.623431 91281 net.cpp:586] pool1 -> pool1
I1226 09:06:53.623535 91281 net.cpp:228] Setting up pool1
I1226 09:06:53.623577 91281 net.cpp:235] Top shape: 32 96 27 27 (2239488)
I1226 09:06:53.623601 91281 net.cpp:243] Memory required for data: 140259072
I1226 09:06:53.623631 91281 layer_factory.hpp:114] Creating layer conv2
I1226 09:06:53.623706 91281 net.cpp:178] Creating Layer conv2
I1226 09:06:53.623744 91281 net.cpp:612] conv2 <- pool1
I1226 09:06:53.623782 91281 net.cpp:586] conv2 -> conv2
I1226 09:06:53.646806 96748 net.cpp:228] Setting up conv1
I1226 09:06:53.646919 96748 net.cpp:235] Top shape: 32 96 55 55 (9292800)
I1226 09:06:53.646948 96748 net.cpp:243] Memory required for data: 56958720
I1226 09:06:53.647059 96748 layer_factory.hpp:114] Creating layer relu1
I1226 09:06:53.647189 96748 net.cpp:178] Creating Layer relu1
I1226 09:06:53.647233 96748 net.cpp:612] relu1 <- conv1
I1226 09:06:53.647275 96748 net.cpp:573] relu1 -> conv1 (in-place)
I1226 09:06:53.647385 96748 net.cpp:228] Setting up relu1
I1226 09:06:53.647466 96748 net.cpp:235] Top shape: 32 96 55 55 (9292800)
I1226 09:06:53.647491 96748 net.cpp:243] Memory required for data: 94129920
I1226 09:06:53.647522 96748 layer_factory.hpp:114] Creating layer norm1
I1226 09:06:53.647599 96748 net.cpp:178] Creating Layer norm1
I1226 09:06:53.647634 96748 net.cpp:612] norm1 <- conv1
I1226 09:06:53.647678 96748 net.cpp:586] norm1 -> norm1
I1226 09:06:53.648396 96748 net.cpp:228] Setting up norm1
I1226 09:06:53.648489 96748 net.cpp:235] Top shape: 32 96 55 55 (9292800)
I1226 09:06:53.648592 96748 net.cpp:243] Memory required for data: 131301120
I1226 09:06:53.648643 96748 layer_factory.hpp:114] Creating layer pool1
I1226 09:06:53.648767 96748 net.cpp:178] Creating Layer pool1
I1226 09:06:53.648804 96748 net.cpp:612] pool1 <- norm1
I1226 09:06:53.648864 96748 net.cpp:586] pool1 -> pool1
I1226 09:06:53.648973 96748 net.cpp:228] Setting up pool1
I1226 09:06:53.649030 96748 net.cpp:235] Top shape: 32 96 27 27 (2239488)
I1226 09:06:53.649054 96748 net.cpp:243] Memory required for data: 140259072
I1226 09:06:53.649144 96748 layer_factory.hpp:114] Creating layer conv2
I1226 09:06:53.649230 96748 net.cpp:178] Creating Layer conv2
I1226 09:06:53.649286 96748 net.cpp:612] conv2 <- pool1
I1226 09:06:53.649333 96748 net.cpp:586] conv2 -> conv2
I1226 09:06:53.696535 117050 net.cpp:228] Setting up conv2
I1226 09:06:53.696671 117050 net.cpp:235] Top shape: 32 256 27 27 (5971968)
I1226 09:06:53.696701 117050 net.cpp:243] Memory required for data: 164146944
I1226 09:06:53.696777 117050 layer_factory.hpp:114] Creating layer relu2
I1226 09:06:53.696851 117050 net.cpp:178] Creating Layer relu2
I1226 09:06:53.696889 117050 net.cpp:612] relu2 <- conv2
I1226 09:06:53.696938 117050 net.cpp:573] relu2 -> conv2 (in-place)
I1226 09:06:53.697046 117050 net.cpp:228] Setting up relu2
I1226 09:06:53.697104 117050 net.cpp:235] Top shape: 32 256 27 27 (5971968)
I1226 09:06:53.697130 117050 net.cpp:243] Memory required for data: 188034816
I1226 09:06:53.697161 117050 layer_factory.hpp:114] Creating layer norm2
I1226 09:06:53.697221 117050 net.cpp:178] Creating Layer norm2
I1226 09:06:53.697252 117050 net.cpp:612] norm2 <- conv2
I1226 09:06:53.697301 117050 net.cpp:586] norm2 -> norm2
I1226 09:06:53.697399 117050 net.cpp:228] Setting up norm2
I1226 09:06:53.697445 117050 net.cpp:235] Top shape: 32 256 27 27 (5971968)
I1226 09:06:53.697470 117050 net.cpp:243] Memory required for data: 211922688
I1226 09:06:53.697499 117050 layer_factory.hpp:114] Creating layer pool2
I1226 09:06:53.697585 117050 net.cpp:178] Creating Layer pool2
I1226 09:06:53.697628 117050 net.cpp:612] pool2 <- norm2
I1226 09:06:53.697665 117050 net.cpp:586] pool2 -> pool2
I1226 09:06:53.697870 117050 net.cpp:228] Setting up pool2
I1226 09:06:53.697922 117050 net.cpp:235] Top shape: 32 256 13 13 (1384448)
I1226 09:06:53.697947 117050 net.cpp:243] Memory required for data: 217460480
I1226 09:06:53.697988 117050 layer_factory.hpp:114] Creating layer conv3
I1226 09:06:53.698076 117050 net.cpp:178] Creating Layer conv3
I1226 09:06:53.698112 117050 net.cpp:612] conv3 <- pool2
I1226 09:06:53.698160 117050 net.cpp:586] conv3 -> conv3
I1226 09:06:53.716348 120755 net.cpp:228] Setting up conv3
I1226 09:06:53.716461 120755 net.cpp:235] Top shape: 32 384 13 13 (2076672)
I1226 09:06:53.716488 120755 net.cpp:243] Memory required for data: 225767168
I1226 09:06:53.716560 120755 layer_factory.hpp:114] Creating layer relu3
I1226 09:06:53.716650 120755 net.cpp:178] Creating Layer relu3
I1226 09:06:53.716691 120755 net.cpp:612] relu3 <- conv3
I1226 09:06:53.716730 120755 net.cpp:573] relu3 -> conv3 (in-place)
I1226 09:06:53.716884 120755 net.cpp:228] Setting up relu3
I1226 09:06:53.716953 120755 net.cpp:235] Top shape: 32 384 13 13 (2076672)
I1226 09:06:53.716979 120755 net.cpp:243] Memory required for data: 234073856
I1226 09:06:53.717007 120755 layer_factory.hpp:114] Creating layer conv4
I1226 09:06:53.717078 120755 net.cpp:178] Creating Layer conv4
I1226 09:06:53.717105 120755 net.cpp:612] conv4 <- conv3
I1226 09:06:53.717144 120755 net.cpp:586] conv4 -> conv4
I1226 09:06:50.503208 90317 net.cpp:228] Setting up conv2
I1226 09:06:50.503320 90317 net.cpp:235] Top shape: 32 256 27 27 (5971968)
I1226 09:06:50.503350 90317 net.cpp:243] Memory required for data: 164146944
I1226 09:06:50.503427 90317 layer_factory.hpp:114] Creating layer relu2
I1226 09:06:50.503501 90317 net.cpp:178] Creating Layer relu2
I1226 09:06:50.503537 90317 net.cpp:612] relu2 <- conv2
I1226 09:06:50.503618 90317 net.cpp:573] relu2 -> conv2 (in-place)
I1226 09:06:50.503723 90317 net.cpp:228] Setting up relu2
I1226 09:06:50.503787 90317 net.cpp:235] Top shape: 32 256 27 27 (5971968)
I1226 09:06:50.503816 90317 net.cpp:243] Memory required for data: 188034816
I1226 09:06:50.503847 90317 layer_factory.hpp:114] Creating layer norm2
I1226 09:06:50.503912 90317 net.cpp:178] Creating Layer norm2
I1226 09:06:50.503947 90317 net.cpp:612] norm2 <- conv2
I1226 09:06:50.503999 90317 net.cpp:586] norm2 -> norm2
I1226 09:06:50.504103 90317 net.cpp:228] Setting up norm2
I1226 09:06:50.504159 90317 net.cpp:235] Top shape: 32 256 27 27 (5971968)
I1226 09:06:50.504184 90317 net.cpp:243] Memory required for data: 211922688
I1226 09:06:50.504214 90317 layer_factory.hpp:114] Creating layer pool2
I1226 09:06:50.504283 90317 net.cpp:178] Creating Layer pool2
I1226 09:06:50.504312 90317 net.cpp:612] pool2 <- norm2
I1226 09:06:50.504351 90317 net.cpp:586] pool2 -> pool2
I1226 09:06:50.504441 90317 net.cpp:228] Setting up pool2
I1226 09:06:50.504489 90317 net.cpp:235] Top shape: 32 256 13 13 (1384448)
I1226 09:06:50.504652 90317 net.cpp:243] Memory required for data: 217460480
I1226 09:06:50.504693 90317 layer_factory.hpp:114] Creating layer conv3
I1226 09:06:50.504781 90317 net.cpp:178] Creating Layer conv3
I1226 09:06:50.504822 90317 net.cpp:612] conv3 <- pool2
I1226 09:06:50.504878 90317 net.cpp:586] conv3 -> conv3
I1226 09:06:53.789587 90178 net.cpp:228] Setting up conv2
I1226 09:06:53.789733 90178 net.cpp:235] Top shape: 32 256 27 27 (5971968)
I1226 09:06:53.789777 90178 net.cpp:243] Memory required for data: 164146944
I1226 09:06:53.789902 90178 layer_factory.hpp:114] Creating layer relu2
I1226 09:06:53.789986 90178 net.cpp:178] Creating Layer relu2
I1226 09:06:53.790249 90178 net.cpp:612] relu2 <- conv2
I1226 09:06:53.790321 90178 net.cpp:573] relu2 -> conv2 (in-place)
I1226 09:06:53.790467 90178 net.cpp:228] Setting up relu2
I1226 09:06:53.790549 90178 net.cpp:235] Top shape: 32 256 27 27 (5971968)
I1226 09:06:53.790585 90178 net.cpp:243] Memory required for data: 188034816
I1226 09:06:53.790634 90178 layer_factory.hpp:114] Creating layer norm2
I1226 09:06:53.790756 90178 net.cpp:178] Creating Layer norm2
I1226 09:06:53.790846 90178 net.cpp:612] norm2 <- conv2
I1226 09:06:53.790920 90178 net.cpp:586] norm2 -> norm2
I1226 09:06:53.791100 90178 net.cpp:228] Setting up norm2
I1226 09:06:53.791194 90178 net.cpp:235] Top shape: 32 256 27 27 (5971968)
I1226 09:06:53.791231 90178 net.cpp:243] Memory required for data: 211922688
I1226 09:06:53.791287 90178 layer_factory.hpp:114] Creating layer pool2
I1226 09:06:53.791357 90178 net.cpp:178] Creating Layer pool2
I1226 09:06:53.791398 90178 net.cpp:612] pool2 <- norm2
I1226 09:06:53.791471 90178 net.cpp:586] pool2 -> pool2
I1226 09:06:53.792006 90178 net.cpp:228] Setting up pool2
I1226 09:06:53.792158 90178 net.cpp:235] Top shape: 32 256 13 13 (1384448)
I1226 09:06:53.792345 90178 net.cpp:243] Memory required for data: 217460480
I1226 09:06:53.792402 90178 layer_factory.hpp:114] Creating layer conv3
I1226 09:06:53.792515 90178 net.cpp:178] Creating Layer conv3
I1226 09:06:53.792560 90178 net.cpp:612] conv3 <- pool2
I1226 09:06:53.792664 90178 net.cpp:586] conv3 -> conv3
I1226 09:06:53.819351 120057 net.cpp:228] Setting up conv2
I1226 09:06:53.819463 120057 net.cpp:235] Top shape: 32 256 27 27 (5971968)
I1226 09:06:53.819494 120057 net.cpp:243] Memory required for data: 164146944
I1226 09:06:53.819571 120057 layer_factory.hpp:114] Creating layer relu2
I1226 09:06:53.819675 120057 net.cpp:178] Creating Layer relu2
I1226 09:06:53.819722 120057 net.cpp:612] relu2 <- conv2
I1226 09:06:53.819777 120057 net.cpp:573] relu2 -> conv2 (in-place)
I1226 09:06:53.819885 120057 net.cpp:228] Setting up relu2
I1226 09:06:53.819968 120057 net.cpp:235] Top shape: 32 256 27 27 (5971968)
I1226 09:06:53.820001 120057 net.cpp:243] Memory required for data: 188034816
I1226 09:06:53.820036 120057 layer_factory.hpp:114] Creating layer norm2
I1226 09:06:53.820096 120057 net.cpp:178] Creating Layer norm2
I1226 09:06:53.820125 120057 net.cpp:612] norm2 <- conv2
I1226 09:06:53.820183 120057 net.cpp:586] norm2 -> norm2
I1226 09:06:53.820289 120057 net.cpp:228] Setting up norm2
I1226 09:06:53.820350 120057 net.cpp:235] Top shape: 32 256 27 27 (5971968)
I1226 09:06:53.820376 120057 net.cpp:243] Memory required for data: 211922688
I1226 09:06:53.820407 120057 layer_factory.hpp:114] Creating layer pool2
I1226 09:06:53.820477 120057 net.cpp:178] Creating Layer pool2
I1226 09:06:53.820508 120057 net.cpp:612] pool2 <- norm2
I1226 09:06:53.820549 120057 net.cpp:586] pool2 -> pool2
I1226 09:06:53.820808 120057 net.cpp:228] Setting up pool2
I1226 09:06:53.820976 120057 net.cpp:235] Top shape: 32 256 13 13 (1384448)
I1226 09:06:53.821002 120057 net.cpp:243] Memory required for data: 217460480
I1226 09:06:53.821035 120057 layer_factory.hpp:114] Creating layer conv3
I1226 09:06:53.821127 120057 net.cpp:178] Creating Layer conv3
I1226 09:06:53.821161 120057 net.cpp:612] conv3 <- pool2
I1226 09:06:53.821216 120057 net.cpp:586] conv3 -> conv3
I1226 09:06:53.861026 96748 net.cpp:228] Setting up conv2
I1226 09:06:53.861160 96748 net.cpp:235] Top shape: 32 256 27 27 (5971968)
I1226 09:06:53.861191 96748 net.cpp:243] Memory required for data: 164146944
I1226 09:06:53.861268 96748 layer_factory.hpp:114] Creating layer relu2
I1226 09:06:53.861343 96748 net.cpp:178] Creating Layer relu2
I1226 09:06:53.861387 96748 net.cpp:612] relu2 <- conv2
I1226 09:06:53.861433 96748 net.cpp:573] relu2 -> conv2 (in-place)
I1226 09:06:53.861541 96748 net.cpp:228] Setting up relu2
I1226 09:06:53.861590 96748 net.cpp:235] Top shape: 32 256 27 27 (5971968)
I1226 09:06:53.861615 96748 net.cpp:243] Memory required for data: 188034816
I1226 09:06:53.861646 96748 layer_factory.hpp:114] Creating layer norm2
I1226 09:06:53.861713 96748 net.cpp:178] Creating Layer norm2
I1226 09:06:53.861752 96748 net.cpp:612] norm2 <- conv2
I1226 09:06:53.861793 96748 net.cpp:586] norm2 -> norm2
I1226 09:06:53.861894 96748 net.cpp:228] Setting up norm2
I1226 09:06:53.861948 96748 net.cpp:235] Top shape: 32 256 27 27 (5971968)
I1226 09:06:53.861974 96748 net.cpp:243] Memory required for data: 211922688
I1226 09:06:53.862004 96748 layer_factory.hpp:114] Creating layer pool2
I1226 09:06:53.862057 96748 net.cpp:178] Creating Layer pool2
I1226 09:06:53.862112 96748 net.cpp:612] pool2 <- norm2
I1226 09:06:53.862193 96748 net.cpp:586] pool2 -> pool2
I1226 09:06:53.862277 96748 net.cpp:228] Setting up pool2
I1226 09:06:53.862325 96748 net.cpp:235] Top shape: 32 256 13 13 (1384448)
I1226 09:06:53.862447 96748 net.cpp:243] Memory required for data: 217460480
I1226 09:06:53.862486 96748 layer_factory.hpp:114] Creating layer conv3
I1226 09:06:53.862565 96748 net.cpp:178] Creating Layer conv3
I1226 09:06:53.862601 96748 net.cpp:612] conv3 <- pool2
I1226 09:06:53.862655 96748 net.cpp:586] conv3 -> conv3
I1226 09:06:53.870935 120755 net.cpp:228] Setting up conv4
I1226 09:06:53.871047 120755 net.cpp:235] Top shape: 32 384 13 13 (2076672)
I1226 09:06:53.871073 120755 net.cpp:243] Memory required for data: 242380544
I1226 09:06:53.871129 120755 layer_factory.hpp:114] Creating layer relu4
I1226 09:06:53.871187 120755 net.cpp:178] Creating Layer relu4
I1226 09:06:53.871217 120755 net.cpp:612] relu4 <- conv4
I1226 09:06:53.871255 120755 net.cpp:573] relu4 -> conv4 (in-place)
I1226 09:06:53.871335 120755 net.cpp:228] Setting up relu4
I1226 09:06:53.871373 120755 net.cpp:235] Top shape: 32 384 13 13 (2076672)
I1226 09:06:53.871397 120755 net.cpp:243] Memory required for data: 250687232
I1226 09:06:53.871424 120755 layer_factory.hpp:114] Creating layer conv5
I1226 09:06:53.871489 120755 net.cpp:178] Creating Layer conv5
I1226 09:06:53.871526 120755 net.cpp:612] conv5 <- conv4
I1226 09:06:53.871564 120755 net.cpp:586] conv5 -> conv5
I1226 09:06:53.872294 88808 net.cpp:228] Setting up conv2
I1226 09:06:53.872417 88808 net.cpp:235] Top shape: 32 256 27 27 (5971968)
I1226 09:06:53.872457 88808 net.cpp:243] Memory required for data: 164146944
I1226 09:06:53.872551 88808 layer_factory.hpp:114] Creating layer relu2
I1226 09:06:53.872661 88808 net.cpp:178] Creating Layer relu2
I1226 09:06:53.872711 88808 net.cpp:612] relu2 <- conv2
I1226 09:06:53.872758 88808 net.cpp:573] relu2 -> conv2 (in-place)
I1226 09:06:53.872880 88808 net.cpp:228] Setting up relu2
I1226 09:06:53.872938 88808 net.cpp:235] Top shape: 32 256 27 27 (5971968)
I1226 09:06:53.872969 88808 net.cpp:243] Memory required for data: 188034816
I1226 09:06:53.873005 88808 layer_factory.hpp:114] Creating layer norm2
I1226 09:06:53.873085 88808 net.cpp:178] Creating Layer norm2
I1226 09:06:53.873124 88808 net.cpp:612] norm2 <- conv2
I1226 09:06:53.873172 88808 net.cpp:586] norm2 -> norm2
I1226 09:06:53.873277 88808 net.cpp:228] Setting up norm2
I1226 09:06:53.873334 88808 net.cpp:235] Top shape: 32 256 27 27 (5971968)
I1226 09:06:53.873365 88808 net.cpp:243] Memory required for data: 211922688
I1226 09:06:53.873399 88808 layer_factory.hpp:114] Creating layer pool2
I1226 09:06:53.873450 88808 net.cpp:178] Creating Layer pool2
I1226 09:06:53.873488 88808 net.cpp:612] pool2 <- norm2
I1226 09:06:53.873543 88808 net.cpp:586] pool2 -> pool2
I1226 09:06:53.873687 88808 net.cpp:228] Setting up pool2
I1226 09:06:53.873751 88808 net.cpp:235] Top shape: 32 256 13 13 (1384448)
I1226 09:06:53.873885 88808 net.cpp:243] Memory required for data: 217460480
I1226 09:06:53.873927 88808 layer_factory.hpp:114] Creating layer conv3
I1226 09:06:53.874038 88808 net.cpp:178] Creating Layer conv3
I1226 09:06:53.874081 88808 net.cpp:612] conv3 <- pool2
I1226 09:06:53.874143 88808 net.cpp:586] conv3 -> conv3
I1226 09:06:53.887313 91281 net.cpp:228] Setting up conv2
I1226 09:06:53.887450 91281 net.cpp:235] Top shape: 32 256 27 27 (5971968)
I1226 09:06:53.887481 91281 net.cpp:243] Memory required for data: 164146944
I1226 09:06:53.887559 91281 layer_factory.hpp:114] Creating layer relu2
I1226 09:06:53.887625 91281 net.cpp:178] Creating Layer relu2
I1226 09:06:53.887655 91281 net.cpp:612] relu2 <- conv2
I1226 09:06:53.887713 91281 net.cpp:573] relu2 -> conv2 (in-place)
I1226 09:06:53.887819 91281 net.cpp:228] Setting up relu2
I1226 09:06:53.887984 91281 net.cpp:235] Top shape: 32 256 27 27 (5971968)
I1226 09:06:53.888008 91281 net.cpp:243] Memory required for data: 188034816
I1226 09:06:53.888037 91281 layer_factory.hpp:114] Creating layer norm2
I1226 09:06:53.888094 91281 net.cpp:178] Creating Layer norm2
I1226 09:06:53.888124 91281 net.cpp:612] norm2 <- conv2
I1226 09:06:53.888171 91281 net.cpp:586] norm2 -> norm2
I1226 09:06:53.888259 91281 net.cpp:228] Setting up norm2
I1226 09:06:53.888301 91281 net.cpp:235] Top shape: 32 256 27 27 (5971968)
I1226 09:06:53.888324 91281 net.cpp:243] Memory required for data: 211922688
I1226 09:06:53.888350 91281 layer_factory.hpp:114] Creating layer pool2
I1226 09:06:53.895488 91281 net.cpp:178] Creating Layer pool2
I1226 09:06:53.895614 91281 net.cpp:612] pool2 <- norm2
I1226 09:06:53.895701 91281 net.cpp:586] pool2 -> pool2
I1226 09:06:53.895817 91281 net.cpp:228] Setting up pool2
I1226 09:06:53.896589 91281 net.cpp:235] Top shape: 32 256 13 13 (1384448)
I1226 09:06:53.896795 91281 net.cpp:243] Memory required for data: 217460480
I1226 09:06:53.896862 91281 layer_factory.hpp:114] Creating layer conv3
I1226 09:06:53.897020 91281 net.cpp:178] Creating Layer conv3
I1226 09:06:53.897578 91281 net.cpp:612] conv3 <- pool2
I1226 09:06:53.897856 91281 net.cpp:586] conv3 -> conv3
I1226 09:06:53.931027 94464 net.cpp:228] Setting up conv1
I1226 09:06:53.931172 94464 net.cpp:235] Top shape: 32 96 55 55 (9292800)
I1226 09:06:53.931215 94464 net.cpp:243] Memory required for data: 56958720
I1226 09:06:53.931361 94464 layer_factory.hpp:114] Creating layer relu1
I1226 09:06:53.931509 94464 net.cpp:178] Creating Layer relu1
I1226 09:06:53.931557 94464 net.cpp:612] relu1 <- conv1
I1226 09:06:53.931653 94464 net.cpp:573] relu1 -> conv1 (in-place)
I1226 09:06:53.931859 94464 net.cpp:228] Setting up relu1
I1226 09:06:53.932097 94464 net.cpp:235] Top shape: 32 96 55 55 (9292800)
I1226 09:06:53.932152 94464 net.cpp:243] Memory required for data: 94129920
I1226 09:06:53.932199 94464 layer_factory.hpp:114] Creating layer norm1
I1226 09:06:53.932281 94464 net.cpp:178] Creating Layer norm1
I1226 09:06:53.932319 94464 net.cpp:612] norm1 <- conv1
I1226 09:06:53.932361 94464 net.cpp:586] norm1 -> norm1
I1226 09:06:53.932476 94464 net.cpp:228] Setting up norm1
I1226 09:06:53.932533 94464 net.cpp:235] Top shape: 32 96 55 55 (9292800)
I1226 09:06:53.932559 94464 net.cpp:243] Memory required for data: 131301120
I1226 09:06:53.932590 94464 layer_factory.hpp:114] Creating layer pool1
I1226 09:06:53.932660 94464 net.cpp:178] Creating Layer pool1
I1226 09:06:53.932696 94464 net.cpp:612] pool1 <- norm1
I1226 09:06:53.932746 94464 net.cpp:586] pool1 -> pool1
I1226 09:06:53.932886 94464 net.cpp:228] Setting up pool1
I1226 09:06:53.932942 94464 net.cpp:235] Top shape: 32 96 27 27 (2239488)
I1226 09:06:53.932966 94464 net.cpp:243] Memory required for data: 140259072
I1226 09:06:53.932996 94464 layer_factory.hpp:114] Creating layer conv2
I1226 09:06:53.933079 94464 net.cpp:178] Creating Layer conv2
I1226 09:06:53.933120 94464 net.cpp:612] conv2 <- pool1
I1226 09:06:53.933166 94464 net.cpp:586] conv2 -> conv2
I1226 09:06:53.978731 120755 net.cpp:228] Setting up conv5
I1226 09:06:53.978840 120755 net.cpp:235] Top shape: 32 256 13 13 (1384448)
I1226 09:06:53.978865 120755 net.cpp:243] Memory required for data: 256225024
I1226 09:06:53.979008 120755 layer_factory.hpp:114] Creating layer relu5
I1226 09:06:53.979079 120755 net.cpp:178] Creating Layer relu5
I1226 09:06:53.979110 120755 net.cpp:612] relu5 <- conv5
I1226 09:06:53.979169 120755 net.cpp:573] relu5 -> conv5 (in-place)
I1226 09:06:53.979272 120755 net.cpp:228] Setting up relu5
I1226 09:06:53.979315 120755 net.cpp:235] Top shape: 32 256 13 13 (1384448)
I1226 09:06:53.979341 120755 net.cpp:243] Memory required for data: 261762816
I1226 09:06:53.979368 120755 layer_factory.hpp:114] Creating layer pool5
I1226 09:06:53.979435 120755 net.cpp:178] Creating Layer pool5
I1226 09:06:53.979470 120755 net.cpp:612] pool5 <- conv5
I1226 09:06:53.979506 120755 net.cpp:586] pool5 -> pool5
I1226 09:06:53.979595 120755 net.cpp:228] Setting up pool5
I1226 09:06:53.979636 120755 net.cpp:235] Top shape: 32 256 6 6 (294912)
I1226 09:06:53.979658 120755 net.cpp:243] Memory required for data: 262942464
I1226 09:06:53.979686 120755 layer_factory.hpp:114] Creating layer fc6
I1226 09:06:53.979751 120755 net.cpp:178] Creating Layer fc6
I1226 09:06:53.979785 120755 net.cpp:612] fc6 <- pool5
I1226 09:06:53.979836 120755 net.cpp:586] fc6 -> fc6
I1226 09:06:54.004158 117050 net.cpp:228] Setting up conv3
I1226 09:06:54.004273 117050 net.cpp:235] Top shape: 32 384 13 13 (2076672)
I1226 09:06:54.004302 117050 net.cpp:243] Memory required for data: 225767168
I1226 09:06:54.004377 117050 layer_factory.hpp:114] Creating layer relu3
I1226 09:06:54.004447 117050 net.cpp:178] Creating Layer relu3
I1226 09:06:54.004480 117050 net.cpp:612] relu3 <- conv3
I1226 09:06:54.004568 117050 net.cpp:573] relu3 -> conv3 (in-place)
I1226 09:06:54.004676 117050 net.cpp:228] Setting up relu3
I1226 09:06:54.004730 117050 net.cpp:235] Top shape: 32 384 13 13 (2076672)
I1226 09:06:54.004755 117050 net.cpp:243] Memory required for data: 234073856
I1226 09:06:54.004786 117050 layer_factory.hpp:114] Creating layer conv4
I1226 09:06:54.004875 117050 net.cpp:178] Creating Layer conv4
I1226 09:06:54.004918 117050 net.cpp:612] conv4 <- conv3
I1226 09:06:54.004971 117050 net.cpp:586] conv4 -> conv4
I1226 09:06:50.802060 90317 net.cpp:228] Setting up conv3
I1226 09:06:50.802175 90317 net.cpp:235] Top shape: 32 384 13 13 (2076672)
I1226 09:06:50.802206 90317 net.cpp:243] Memory required for data: 225767168
I1226 09:06:50.802285 90317 layer_factory.hpp:114] Creating layer relu3
I1226 09:06:50.802359 90317 net.cpp:178] Creating Layer relu3
I1226 09:06:50.802403 90317 net.cpp:612] relu3 <- conv3
I1226 09:06:50.802474 90317 net.cpp:573] relu3 -> conv3 (in-place)
I1226 09:06:50.802603 90317 net.cpp:228] Setting up relu3
I1226 09:06:50.802659 90317 net.cpp:235] Top shape: 32 384 13 13 (2076672)
I1226 09:06:50.802693 90317 net.cpp:243] Memory required for data: 234073856
I1226 09:06:50.802726 90317 layer_factory.hpp:114] Creating layer conv4
I1226 09:06:50.802819 90317 net.cpp:178] Creating Layer conv4
I1226 09:06:50.802861 90317 net.cpp:612] conv4 <- conv3
I1226 09:06:50.802920 90317 net.cpp:586] conv4 -> conv4
I1226 09:06:54.091804 120057 net.cpp:228] Setting up conv3
I1226 09:06:54.091955 120057 net.cpp:235] Top shape: 32 384 13 13 (2076672)
I1226 09:06:54.092016 120057 net.cpp:243] Memory required for data: 225767168
I1226 09:06:54.092110 120057 layer_factory.hpp:114] Creating layer relu3
I1226 09:06:54.092193 120057 net.cpp:178] Creating Layer relu3
I1226 09:06:54.092262 120057 net.cpp:612] relu3 <- conv3
I1226 09:06:54.092344 120057 net.cpp:573] relu3 -> conv3 (in-place)
I1226 09:06:54.092505 120057 net.cpp:228] Setting up relu3
I1226 09:06:54.092567 120057 net.cpp:235] Top shape: 32 384 13 13 (2076672)
I1226 09:06:54.092595 120057 net.cpp:243] Memory required for data: 234073856
I1226 09:06:54.092695 120057 layer_factory.hpp:114] Creating layer conv4
I1226 09:06:54.092808 120057 net.cpp:178] Creating Layer conv4
I1226 09:06:54.092844 120057 net.cpp:612] conv4 <- conv3
I1226 09:06:54.092938 120057 net.cpp:586] conv4 -> conv4
I1226 09:06:54.097470 91281 net.cpp:228] Setting up conv3
I1226 09:06:54.097584 91281 net.cpp:235] Top shape: 32 384 13 13 (2076672)
I1226 09:06:54.097611 91281 net.cpp:243] Memory required for data: 225767168
I1226 09:06:54.097741 91281 layer_factory.hpp:114] Creating layer relu3
I1226 09:06:54.097810 91281 net.cpp:178] Creating Layer relu3
I1226 09:06:54.097842 91281 net.cpp:612] relu3 <- conv3
I1226 09:06:54.097960 91281 net.cpp:573] relu3 -> conv3 (in-place)
I1226 09:06:54.098072 91281 net.cpp:228] Setting up relu3
I1226 09:06:54.098119 91281 net.cpp:235] Top shape: 32 384 13 13 (2076672)
I1226 09:06:54.098141 91281 net.cpp:243] Memory required for data: 234073856
I1226 09:06:54.098170 91281 layer_factory.hpp:114] Creating layer conv4
I1226 09:06:54.098256 91281 net.cpp:178] Creating Layer conv4
I1226 09:06:54.098294 91281 net.cpp:612] conv4 <- conv3
I1226 09:06:54.098347 91281 net.cpp:586] conv4 -> conv4
I1226 09:06:54.110293 90178 net.cpp:228] Setting up conv3
I1226 09:06:54.110474 90178 net.cpp:235] Top shape: 32 384 13 13 (2076672)
I1226 09:06:54.110517 90178 net.cpp:243] Memory required for data: 225767168
I1226 09:06:54.110641 90178 layer_factory.hpp:114] Creating layer relu3
I1226 09:06:54.110849 90178 net.cpp:178] Creating Layer relu3
I1226 09:06:54.110906 90178 net.cpp:612] relu3 <- conv3
I1226 09:06:54.111212 90178 net.cpp:573] relu3 -> conv3 (in-place)
I1226 09:06:54.111361 90178 net.cpp:228] Setting up relu3
I1226 09:06:54.111986 90178 net.cpp:235] Top shape: 32 384 13 13 (2076672)
I1226 09:06:54.112068 90178 net.cpp:243] Memory required for data: 234073856
I1226 09:06:54.112118 90178 layer_factory.hpp:114] Creating layer conv4
I1226 09:06:54.112288 90178 net.cpp:178] Creating Layer conv4
I1226 09:06:54.112339 90178 net.cpp:612] conv4 <- conv3
I1226 09:06:54.112431 90178 net.cpp:586] conv4 -> conv4
I1226 09:06:54.172147 96748 net.cpp:228] Setting up conv3
I1226 09:06:54.172255 96748 net.cpp:235] Top shape: 32 384 13 13 (2076672)
I1226 09:06:54.172281 96748 net.cpp:243] Memory required for data: 225767168
I1226 09:06:54.172354 96748 layer_factory.hpp:114] Creating layer relu3
I1226 09:06:54.172417 96748 net.cpp:178] Creating Layer relu3
I1226 09:06:54.172446 96748 net.cpp:612] relu3 <- conv3
I1226 09:06:54.172487 96748 net.cpp:573] relu3 -> conv3 (in-place)
I1226 09:06:54.172585 96748 net.cpp:228] Setting up relu3
I1226 09:06:54.172622 96748 net.cpp:235] Top shape: 32 384 13 13 (2076672)
I1226 09:06:54.172646 96748 net.cpp:243] Memory required for data: 234073856
I1226 09:06:54.172674 96748 layer_factory.hpp:114] Creating layer conv4
I1226 09:06:54.172765 96748 net.cpp:178] Creating Layer conv4
I1226 09:06:54.172798 96748 net.cpp:612] conv4 <- conv3
I1226 09:06:54.172837 96748 net.cpp:586] conv4 -> conv4
I1226 09:06:54.217953 88808 net.cpp:228] Setting up conv3
I1226 09:06:54.218188 88808 net.cpp:235] Top shape: 32 384 13 13 (2076672)
I1226 09:06:54.218390 88808 net.cpp:243] Memory required for data: 225767168
I1226 09:06:54.218509 88808 layer_factory.hpp:114] Creating layer relu3
I1226 09:06:54.218574 88808 net.cpp:178] Creating Layer relu3
I1226 09:06:54.218664 88808 net.cpp:612] relu3 <- conv3
I1226 09:06:54.218709 88808 net.cpp:573] relu3 -> conv3 (in-place)
I1226 09:06:54.218837 88808 net.cpp:228] Setting up relu3
I1226 09:06:54.218915 88808 net.cpp:235] Top shape: 32 384 13 13 (2076672)
I1226 09:06:54.218950 88808 net.cpp:243] Memory required for data: 234073856
I1226 09:06:54.218998 88808 layer_factory.hpp:114] Creating layer conv4
I1226 09:06:54.219138 88808 net.cpp:178] Creating Layer conv4
I1226 09:06:54.219199 88808 net.cpp:612] conv4 <- conv3
I1226 09:06:54.219281 88808 net.cpp:586] conv4 -> conv4
I1226 09:06:54.250583 91281 net.cpp:228] Setting up conv4
I1226 09:06:54.250692 91281 net.cpp:235] Top shape: 32 384 13 13 (2076672)
I1226 09:06:54.250717 91281 net.cpp:243] Memory required for data: 242380544
I1226 09:06:54.250774 91281 layer_factory.hpp:114] Creating layer relu4
I1226 09:06:54.250854 91281 net.cpp:178] Creating Layer relu4
I1226 09:06:54.250892 91281 net.cpp:612] relu4 <- conv4
I1226 09:06:54.250936 91281 net.cpp:573] relu4 -> conv4 (in-place)
I1226 09:06:54.251029 91281 net.cpp:228] Setting up relu4
I1226 09:06:54.251073 91281 net.cpp:235] Top shape: 32 384 13 13 (2076672)
I1226 09:06:54.251106 91281 net.cpp:243] Memory required for data: 250687232
I1226 09:06:54.251134 91281 layer_factory.hpp:114] Creating layer conv5
I1226 09:06:54.251215 91281 net.cpp:178] Creating Layer conv5
I1226 09:06:54.251248 91281 net.cpp:612] conv5 <- conv4
I1226 09:06:54.251289 91281 net.cpp:586] conv5 -> conv5
I1226 09:06:54.262286 117050 net.cpp:228] Setting up conv4
I1226 09:06:54.262395 117050 net.cpp:235] Top shape: 32 384 13 13 (2076672)
I1226 09:06:54.262423 117050 net.cpp:243] Memory required for data: 242380544
I1226 09:06:54.262480 117050 layer_factory.hpp:114] Creating layer relu4
I1226 09:06:54.262578 117050 net.cpp:178] Creating Layer relu4
I1226 09:06:54.262624 117050 net.cpp:612] relu4 <- conv4
I1226 09:06:54.262689 117050 net.cpp:573] relu4 -> conv4 (in-place)
I1226 09:06:54.262789 117050 net.cpp:228] Setting up relu4
I1226 09:06:54.262831 117050 net.cpp:235] Top shape: 32 384 13 13 (2076672)
I1226 09:06:54.262856 117050 net.cpp:243] Memory required for data: 250687232
I1226 09:06:54.262886 117050 layer_factory.hpp:114] Creating layer conv5
I1226 09:06:54.262972 117050 net.cpp:178] Creating Layer conv5
I1226 09:06:54.263006 117050 net.cpp:612] conv5 <- conv4
I1226 09:06:54.263056 117050 net.cpp:586] conv5 -> conv5
I1226 09:06:51.060325 90317 net.cpp:228] Setting up conv4
I1226 09:06:51.060441 90317 net.cpp:235] Top shape: 32 384 13 13 (2076672)
I1226 09:06:51.060472 90317 net.cpp:243] Memory required for data: 242380544
I1226 09:06:51.060533 90317 layer_factory.hpp:114] Creating layer relu4
I1226 09:06:51.060642 90317 net.cpp:178] Creating Layer relu4
I1226 09:06:51.060695 90317 net.cpp:612] relu4 <- conv4
I1226 09:06:51.060756 90317 net.cpp:573] relu4 -> conv4 (in-place)
I1226 09:06:51.060847 90317 net.cpp:228] Setting up relu4
I1226 09:06:51.060889 90317 net.cpp:235] Top shape: 32 384 13 13 (2076672)
I1226 09:06:51.060914 90317 net.cpp:243] Memory required for data: 250687232
I1226 09:06:51.060943 90317 layer_factory.hpp:114] Creating layer conv5
I1226 09:06:51.061035 90317 net.cpp:178] Creating Layer conv5
I1226 09:06:51.061074 90317 net.cpp:612] conv5 <- conv4
I1226 09:06:51.061127 90317 net.cpp:586] conv5 -> conv5
I1226 09:06:54.334198 120057 net.cpp:228] Setting up conv4
I1226 09:06:54.334334 120057 net.cpp:235] Top shape: 32 384 13 13 (2076672)
I1226 09:06:54.334370 120057 net.cpp:243] Memory required for data: 242380544
I1226 09:06:54.334434 120057 layer_factory.hpp:114] Creating layer relu4
I1226 09:06:54.334527 120057 net.cpp:178] Creating Layer relu4
I1226 09:06:54.334780 120057 net.cpp:612] relu4 <- conv4
I1226 09:06:54.334893 120057 net.cpp:573] relu4 -> conv4 (in-place)
I1226 09:06:54.335041 120057 net.cpp:228] Setting up relu4
I1226 09:06:54.335093 120057 net.cpp:235] Top shape: 32 384 13 13 (2076672)
I1226 09:06:54.335117 120057 net.cpp:243] Memory required for data: 250687232
I1226 09:06:54.335147 120057 layer_factory.hpp:114] Creating layer conv5
I1226 09:06:54.335269 120057 net.cpp:178] Creating Layer conv5
I1226 09:06:54.335346 120057 net.cpp:612] conv5 <- conv4
I1226 09:06:54.335443 120057 net.cpp:586] conv5 -> conv5
I1226 09:06:54.362133 91281 net.cpp:228] Setting up conv5
I1226 09:06:54.362241 91281 net.cpp:235] Top shape: 32 256 13 13 (1384448)
I1226 09:06:54.362268 91281 net.cpp:243] Memory required for data: 256225024
I1226 09:06:54.362342 91281 layer_factory.hpp:114] Creating layer relu5
I1226 09:06:54.362453 91281 net.cpp:178] Creating Layer relu5
I1226 09:06:54.362498 91281 net.cpp:612] relu5 <- conv5
I1226 09:06:54.362547 91281 net.cpp:573] relu5 -> conv5 (in-place)
I1226 09:06:54.362644 91281 net.cpp:228] Setting up relu5
I1226 09:06:54.362682 91281 net.cpp:235] Top shape: 32 256 13 13 (1384448)
I1226 09:06:54.362705 91281 net.cpp:243] Memory required for data: 261762816
I1226 09:06:54.362746 91281 layer_factory.hpp:114] Creating layer pool5
I1226 09:06:54.362818 91281 net.cpp:178] Creating Layer pool5
I1226 09:06:54.362854 91281 net.cpp:612] pool5 <- conv5
I1226 09:06:54.362890 91281 net.cpp:586] pool5 -> pool5
I1226 09:06:54.362980 91281 net.cpp:228] Setting up pool5
I1226 09:06:54.363031 91281 net.cpp:235] Top shape: 32 256 6 6 (294912)
I1226 09:06:54.363054 91281 net.cpp:243] Memory required for data: 262942464
I1226 09:06:54.363091 91281 layer_factory.hpp:114] Creating layer fc6
I1226 09:06:54.363147 91281 net.cpp:178] Creating Layer fc6
I1226 09:06:54.363173 91281 net.cpp:612] fc6 <- pool5
I1226 09:06:54.363209 91281 net.cpp:586] fc6 -> fc6
I1226 09:06:54.384434 90178 net.cpp:228] Setting up conv4
I1226 09:06:54.384554 90178 net.cpp:235] Top shape: 32 384 13 13 (2076672)
I1226 09:06:54.384587 90178 net.cpp:243] Memory required for data: 242380544
I1226 09:06:54.384667 90178 layer_factory.hpp:114] Creating layer relu4
I1226 09:06:54.384742 90178 net.cpp:178] Creating Layer relu4
I1226 09:06:54.384791 90178 net.cpp:612] relu4 <- conv4
I1226 09:06:54.384869 90178 net.cpp:573] relu4 -> conv4 (in-place)
I1226 09:06:54.384968 90178 net.cpp:228] Setting up relu4
I1226 09:06:54.385032 90178 net.cpp:235] Top shape: 32 384 13 13 (2076672)
I1226 09:06:54.385066 90178 net.cpp:243] Memory required for data: 250687232
I1226 09:06:54.385107 90178 layer_factory.hpp:114] Creating layer conv5
I1226 09:06:54.385207 90178 net.cpp:178] Creating Layer conv5
I1226 09:06:54.385258 90178 net.cpp:612] conv5 <- conv4
I1226 09:06:54.385318 90178 net.cpp:586] conv5 -> conv5
I1226 09:06:54.405817 96748 net.cpp:228] Setting up conv4
I1226 09:06:54.405927 96748 net.cpp:235] Top shape: 32 384 13 13 (2076672)
I1226 09:06:54.405952 96748 net.cpp:243] Memory required for data: 242380544
I1226 09:06:54.406034 96748 layer_factory.hpp:114] Creating layer relu4
I1226 09:06:54.406141 96748 net.cpp:178] Creating Layer relu4
I1226 09:06:54.406184 96748 net.cpp:612] relu4 <- conv4
I1226 09:06:54.406224 96748 net.cpp:573] relu4 -> conv4 (in-place)
I1226 09:06:54.406314 96748 net.cpp:228] Setting up relu4
I1226 09:06:54.406349 96748 net.cpp:235] Top shape: 32 384 13 13 (2076672)
I1226 09:06:54.406383 96748 net.cpp:243] Memory required for data: 250687232
I1226 09:06:54.406419 96748 layer_factory.hpp:114] Creating layer conv5
I1226 09:06:54.406499 96748 net.cpp:178] Creating Layer conv5
I1226 09:06:54.406534 96748 net.cpp:612] conv5 <- conv4
I1226 09:06:54.406584 96748 net.cpp:586] conv5 -> conv5
I1226 09:06:54.458465 117050 net.cpp:228] Setting up conv5
I1226 09:06:54.458596 117050 net.cpp:235] Top shape: 32 256 13 13 (1384448)
I1226 09:06:54.458623 117050 net.cpp:243] Memory required for data: 256225024
I1226 09:06:54.458695 117050 layer_factory.hpp:114] Creating layer relu5
I1226 09:06:54.458762 117050 net.cpp:178] Creating Layer relu5
I1226 09:06:54.458796 117050 net.cpp:612] relu5 <- conv5
I1226 09:06:54.458855 117050 net.cpp:573] relu5 -> conv5 (in-place)
I1226 09:06:54.458946 117050 net.cpp:228] Setting up relu5
I1226 09:06:54.459002 117050 net.cpp:235] Top shape: 32 256 13 13 (1384448)
I1226 09:06:54.459028 117050 net.cpp:243] Memory required for data: 261762816
I1226 09:06:54.459054 117050 layer_factory.hpp:114] Creating layer pool5
I1226 09:06:54.459103 117050 net.cpp:178] Creating Layer pool5
I1226 09:06:54.459136 117050 net.cpp:612] pool5 <- conv5
I1226 09:06:54.459182 117050 net.cpp:586] pool5 -> pool5
I1226 09:06:54.459277 117050 net.cpp:228] Setting up pool5
I1226 09:06:54.459318 117050 net.cpp:235] Top shape: 32 256 6 6 (294912)
I1226 09:06:54.459345 117050 net.cpp:243] Memory required for data: 262942464
I1226 09:06:54.459379 117050 layer_factory.hpp:114] Creating layer fc6
I1226 09:06:54.459435 117050 net.cpp:178] Creating Layer fc6
I1226 09:06:54.459462 117050 net.cpp:612] fc6 <- pool5
I1226 09:06:54.459496 117050 net.cpp:586] fc6 -> fc6
I1226 09:06:51.252204 90317 net.cpp:228] Setting up conv5
I1226 09:06:51.252348 90317 net.cpp:235] Top shape: 32 256 13 13 (1384448)
I1226 09:06:51.252382 90317 net.cpp:243] Memory required for data: 256225024
I1226 09:06:51.252454 90317 layer_factory.hpp:114] Creating layer relu5
I1226 09:06:51.252601 90317 net.cpp:178] Creating Layer relu5
I1226 09:06:51.252646 90317 net.cpp:612] relu5 <- conv5
I1226 09:06:51.252732 90317 net.cpp:573] relu5 -> conv5 (in-place)
I1226 09:06:51.252825 90317 net.cpp:228] Setting up relu5
I1226 09:06:51.252895 90317 net.cpp:235] Top shape: 32 256 13 13 (1384448)
I1226 09:06:51.252954 90317 net.cpp:243] Memory required for data: 261762816
I1226 09:06:51.252985 90317 layer_factory.hpp:114] Creating layer pool5
I1226 09:06:51.253046 90317 net.cpp:178] Creating Layer pool5
I1226 09:06:51.253103 90317 net.cpp:612] pool5 <- conv5
I1226 09:06:51.253142 90317 net.cpp:586] pool5 -> pool5
I1226 09:06:51.253233 90317 net.cpp:228] Setting up pool5
I1226 09:06:51.253335 90317 net.cpp:235] Top shape: 32 256 6 6 (294912)
I1226 09:06:51.253360 90317 net.cpp:243] Memory required for data: 262942464
I1226 09:06:51.253803 90317 layer_factory.hpp:114] Creating layer fc6
I1226 09:06:51.253927 90317 net.cpp:178] Creating Layer fc6
I1226 09:06:51.254006 90317 net.cpp:612] fc6 <- pool5
I1226 09:06:51.254075 90317 net.cpp:586] fc6 -> fc6
I1226 09:06:54.521600 88808 net.cpp:228] Setting up conv4
I1226 09:06:54.521711 88808 net.cpp:235] Top shape: 32 384 13 13 (2076672)
I1226 09:06:54.521740 88808 net.cpp:243] Memory required for data: 242380544
I1226 09:06:54.521800 88808 layer_factory.hpp:114] Creating layer relu4
I1226 09:06:54.521880 88808 net.cpp:178] Creating Layer relu4
I1226 09:06:54.521914 88808 net.cpp:612] relu4 <- conv4
I1226 09:06:54.521965 88808 net.cpp:573] relu4 -> conv4 (in-place)
I1226 09:06:54.522069 88808 net.cpp:228] Setting up relu4
I1226 09:06:54.522121 88808 net.cpp:235] Top shape: 32 384 13 13 (2076672)
I1226 09:06:54.522145 88808 net.cpp:243] Memory required for data: 250687232
I1226 09:06:54.522172 88808 layer_factory.hpp:114] Creating layer conv5
I1226 09:06:54.522249 88808 net.cpp:178] Creating Layer conv5
I1226 09:06:54.522286 88808 net.cpp:612] conv5 <- conv4
I1226 09:06:54.522336 88808 net.cpp:586] conv5 -> conv5
I1226 09:06:54.526962 120057 net.cpp:228] Setting up conv5
I1226 09:06:54.527072 120057 net.cpp:235] Top shape: 32 256 13 13 (1384448)
I1226 09:06:54.527099 120057 net.cpp:243] Memory required for data: 256225024
I1226 09:06:54.527174 120057 layer_factory.hpp:114] Creating layer relu5
I1226 09:06:54.527240 120057 net.cpp:178] Creating Layer relu5
I1226 09:06:54.527279 120057 net.cpp:612] relu5 <- conv5
I1226 09:06:54.527343 120057 net.cpp:573] relu5 -> conv5 (in-place)
I1226 09:06:54.527451 120057 net.cpp:228] Setting up relu5
I1226 09:06:54.527516 120057 net.cpp:235] Top shape: 32 256 13 13 (1384448)
I1226 09:06:54.527544 120057 net.cpp:243] Memory required for data: 261762816
I1226 09:06:54.527576 120057 layer_factory.hpp:114] Creating layer pool5
I1226 09:06:54.527673 120057 net.cpp:178] Creating Layer pool5
I1226 09:06:54.527709 120057 net.cpp:612] pool5 <- conv5
I1226 09:06:54.527752 120057 net.cpp:586] pool5 -> pool5
I1226 09:06:54.527856 120057 net.cpp:228] Setting up pool5
I1226 09:06:54.527904 120057 net.cpp:235] Top shape: 32 256 6 6 (294912)
I1226 09:06:54.527926 120057 net.cpp:243] Memory required for data: 262942464
I1226 09:06:54.527956 120057 layer_factory.hpp:114] Creating layer fc6
I1226 09:06:54.528017 120057 net.cpp:178] Creating Layer fc6
I1226 09:06:54.528043 120057 net.cpp:612] fc6 <- pool5
I1226 09:06:54.528096 120057 net.cpp:586] fc6 -> fc6
I1226 09:06:54.552057 90178 net.cpp:228] Setting up conv5
I1226 09:06:54.552207 90178 net.cpp:235] Top shape: 32 256 13 13 (1384448)
I1226 09:06:54.552264 90178 net.cpp:243] Memory required for data: 256225024
I1226 09:06:54.552368 90178 layer_factory.hpp:114] Creating layer relu5
I1226 09:06:54.552873 90178 net.cpp:178] Creating Layer relu5
I1226 09:06:54.552979 90178 net.cpp:612] relu5 <- conv5
I1226 09:06:54.553114 90178 net.cpp:573] relu5 -> conv5 (in-place)
I1226 09:06:54.553282 90178 net.cpp:228] Setting up relu5
I1226 09:06:54.553442 90178 net.cpp:235] Top shape: 32 256 13 13 (1384448)
I1226 09:06:54.553474 90178 net.cpp:243] Memory required for data: 261762816
I1226 09:06:54.553527 90178 layer_factory.hpp:114] Creating layer pool5
I1226 09:06:54.553593 90178 net.cpp:178] Creating Layer pool5
I1226 09:06:54.553627 90178 net.cpp:612] pool5 <- conv5
I1226 09:06:54.553707 90178 net.cpp:586] pool5 -> pool5
I1226 09:06:54.553902 90178 net.cpp:228] Setting up pool5
I1226 09:06:54.553983 90178 net.cpp:235] Top shape: 32 256 6 6 (294912)
I1226 09:06:54.554018 90178 net.cpp:243] Memory required for data: 262942464
I1226 09:06:54.554081 90178 layer_factory.hpp:114] Creating layer fc6
I1226 09:06:54.554162 90178 net.cpp:178] Creating Layer fc6
I1226 09:06:54.554566 90178 net.cpp:612] fc6 <- pool5
I1226 09:06:54.554728 90178 net.cpp:586] fc6 -> fc6
I1226 09:06:54.568342 96748 net.cpp:228] Setting up conv5
I1226 09:06:54.568465 96748 net.cpp:235] Top shape: 32 256 13 13 (1384448)
I1226 09:06:54.568495 96748 net.cpp:243] Memory required for data: 256225024
I1226 09:06:54.568568 96748 layer_factory.hpp:114] Creating layer relu5
I1226 09:06:54.568634 96748 net.cpp:178] Creating Layer relu5
I1226 09:06:54.568672 96748 net.cpp:612] relu5 <- conv5
I1226 09:06:54.568727 96748 net.cpp:573] relu5 -> conv5 (in-place)
I1226 09:06:54.568823 96748 net.cpp:228] Setting up relu5
I1226 09:06:54.568900 96748 net.cpp:235] Top shape: 32 256 13 13 (1384448)
I1226 09:06:54.568929 96748 net.cpp:243] Memory required for data: 261762816
I1226 09:06:54.568961 96748 layer_factory.hpp:114] Creating layer pool5
I1226 09:06:54.569015 96748 net.cpp:178] Creating Layer pool5
I1226 09:06:54.569041 96748 net.cpp:612] pool5 <- conv5
I1226 09:06:54.569135 96748 net.cpp:586] pool5 -> pool5
I1226 09:06:54.569288 96748 net.cpp:228] Setting up pool5
I1226 09:06:54.569397 96748 net.cpp:235] Top shape: 32 256 6 6 (294912)
I1226 09:06:54.569473 96748 net.cpp:243] Memory required for data: 262942464
I1226 09:06:54.569576 96748 layer_factory.hpp:114] Creating layer fc6
I1226 09:06:54.569654 96748 net.cpp:178] Creating Layer fc6
I1226 09:06:54.569705 96748 net.cpp:612] fc6 <- pool5
I1226 09:06:54.569774 96748 net.cpp:586] fc6 -> fc6
I1226 09:06:54.699673 88808 net.cpp:228] Setting up conv5
I1226 09:06:54.699784 88808 net.cpp:235] Top shape: 32 256 13 13 (1384448)
I1226 09:06:54.699815 88808 net.cpp:243] Memory required for data: 256225024
I1226 09:06:54.699890 88808 layer_factory.hpp:114] Creating layer relu5
I1226 09:06:54.699980 88808 net.cpp:178] Creating Layer relu5
I1226 09:06:54.700023 88808 net.cpp:612] relu5 <- conv5
I1226 09:06:54.700067 88808 net.cpp:573] relu5 -> conv5 (in-place)
I1226 09:06:54.700160 88808 net.cpp:228] Setting up relu5
I1226 09:06:54.700201 88808 net.cpp:235] Top shape: 32 256 13 13 (1384448)
I1226 09:06:54.700225 88808 net.cpp:243] Memory required for data: 261762816
I1226 09:06:54.700254 88808 layer_factory.hpp:114] Creating layer pool5
I1226 09:06:54.700323 88808 net.cpp:178] Creating Layer pool5
I1226 09:06:54.700350 88808 net.cpp:612] pool5 <- conv5
I1226 09:06:54.700387 88808 net.cpp:586] pool5 -> pool5
I1226 09:06:54.700479 88808 net.cpp:228] Setting up pool5
I1226 09:06:54.700532 88808 net.cpp:235] Top shape: 32 256 6 6 (294912)
I1226 09:06:54.700556 88808 net.cpp:243] Memory required for data: 262942464
I1226 09:06:54.700611 88808 layer_factory.hpp:114] Creating layer fc6
I1226 09:06:54.700673 88808 net.cpp:178] Creating Layer fc6
I1226 09:06:54.700711 88808 net.cpp:612] fc6 <- pool5
I1226 09:06:54.700748 88808 net.cpp:586] fc6 -> fc6
I1226 09:06:54.836587 94464 net.cpp:228] Setting up conv2
I1226 09:06:54.836705 94464 net.cpp:235] Top shape: 32 256 27 27 (5971968)
I1226 09:06:54.836736 94464 net.cpp:243] Memory required for data: 164146944
I1226 09:06:54.836841 94464 layer_factory.hpp:114] Creating layer relu2
I1226 09:06:54.836905 94464 net.cpp:178] Creating Layer relu2
I1226 09:06:54.836949 94464 net.cpp:612] relu2 <- conv2
I1226 09:06:54.837020 94464 net.cpp:573] relu2 -> conv2 (in-place)
I1226 09:06:54.837131 94464 net.cpp:228] Setting up relu2
I1226 09:06:54.837193 94464 net.cpp:235] Top shape: 32 256 27 27 (5971968)
I1226 09:06:54.837221 94464 net.cpp:243] Memory required for data: 188034816
I1226 09:06:54.837263 94464 layer_factory.hpp:114] Creating layer norm2
I1226 09:06:54.837316 94464 net.cpp:178] Creating Layer norm2
I1226 09:06:54.837352 94464 net.cpp:612] norm2 <- conv2
I1226 09:06:54.837393 94464 net.cpp:586] norm2 -> norm2
I1226 09:06:54.837488 94464 net.cpp:228] Setting up norm2
I1226 09:06:54.837539 94464 net.cpp:235] Top shape: 32 256 27 27 (5971968)
I1226 09:06:54.837565 94464 net.cpp:243] Memory required for data: 211922688
I1226 09:06:54.837594 94464 layer_factory.hpp:114] Creating layer pool2
I1226 09:06:54.837643 94464 net.cpp:178] Creating Layer pool2
I1226 09:06:54.837678 94464 net.cpp:612] pool2 <- norm2
I1226 09:06:54.837734 94464 net.cpp:586] pool2 -> pool2
I1226 09:06:54.837858 94464 net.cpp:228] Setting up pool2
I1226 09:06:54.837913 94464 net.cpp:235] Top shape: 32 256 13 13 (1384448)
I1226 09:06:54.838038 94464 net.cpp:243] Memory required for data: 217460480
I1226 09:06:54.838075 94464 layer_factory.hpp:114] Creating layer conv3
I1226 09:06:54.838165 94464 net.cpp:178] Creating Layer conv3
I1226 09:06:54.838204 94464 net.cpp:612] conv3 <- pool2
I1226 09:06:54.838260 94464 net.cpp:586] conv3 -> conv3
I1226 09:06:55.714550 94464 net.cpp:228] Setting up conv3
I1226 09:06:55.714668 94464 net.cpp:235] Top shape: 32 384 13 13 (2076672)
I1226 09:06:55.714702 94464 net.cpp:243] Memory required for data: 225767168
I1226 09:06:55.714840 94464 layer_factory.hpp:114] Creating layer relu3
I1226 09:06:55.714931 94464 net.cpp:178] Creating Layer relu3
I1226 09:06:55.714968 94464 net.cpp:612] relu3 <- conv3
I1226 09:06:55.715013 94464 net.cpp:573] relu3 -> conv3 (in-place)
I1226 09:06:55.715131 94464 net.cpp:228] Setting up relu3
I1226 09:06:55.715204 94464 net.cpp:235] Top shape: 32 384 13 13 (2076672)
I1226 09:06:55.715234 94464 net.cpp:243] Memory required for data: 234073856
I1226 09:06:55.715267 94464 layer_factory.hpp:114] Creating layer conv4
I1226 09:06:55.715360 94464 net.cpp:178] Creating Layer conv4
I1226 09:06:55.715404 94464 net.cpp:612] conv4 <- conv3
I1226 09:06:55.715466 94464 net.cpp:586] conv4 -> conv4
I1226 09:06:56.437021 94464 net.cpp:228] Setting up conv4
I1226 09:06:56.437141 94464 net.cpp:235] Top shape: 32 384 13 13 (2076672)
I1226 09:06:56.437178 94464 net.cpp:243] Memory required for data: 242380544
I1226 09:06:56.437249 94464 layer_factory.hpp:114] Creating layer relu4
I1226 09:06:56.437443 94464 net.cpp:178] Creating Layer relu4
I1226 09:06:56.437487 94464 net.cpp:612] relu4 <- conv4
I1226 09:06:56.437533 94464 net.cpp:573] relu4 -> conv4 (in-place)
I1226 09:06:56.437631 94464 net.cpp:228] Setting up relu4
I1226 09:06:56.437697 94464 net.cpp:235] Top shape: 32 384 13 13 (2076672)
I1226 09:06:56.437726 94464 net.cpp:243] Memory required for data: 250687232
I1226 09:06:56.437759 94464 layer_factory.hpp:114] Creating layer conv5
I1226 09:06:56.437901 94464 net.cpp:178] Creating Layer conv5
I1226 09:06:56.437961 94464 net.cpp:612] conv5 <- conv4
I1226 09:06:56.438015 94464 net.cpp:586] conv5 -> conv5
I1226 09:06:56.938138 94464 net.cpp:228] Setting up conv5
I1226 09:06:56.938257 94464 net.cpp:235] Top shape: 32 256 13 13 (1384448)
I1226 09:06:56.938289 94464 net.cpp:243] Memory required for data: 256225024
I1226 09:06:56.938371 94464 layer_factory.hpp:114] Creating layer relu5
I1226 09:06:56.938469 94464 net.cpp:178] Creating Layer relu5
I1226 09:06:56.938515 94464 net.cpp:612] relu5 <- conv5
I1226 09:06:56.938570 94464 net.cpp:573] relu5 -> conv5 (in-place)
I1226 09:06:56.938676 94464 net.cpp:228] Setting up relu5
I1226 09:06:56.938735 94464 net.cpp:235] Top shape: 32 256 13 13 (1384448)
I1226 09:06:56.938763 94464 net.cpp:243] Memory required for data: 261762816
I1226 09:06:56.938829 94464 layer_factory.hpp:114] Creating layer pool5
I1226 09:06:56.938902 94464 net.cpp:178] Creating Layer pool5
I1226 09:06:56.938947 94464 net.cpp:612] pool5 <- conv5
I1226 09:06:56.938990 94464 net.cpp:586] pool5 -> pool5
I1226 09:06:56.939087 94464 net.cpp:228] Setting up pool5
I1226 09:06:56.939141 94464 net.cpp:235] Top shape: 32 256 6 6 (294912)
I1226 09:06:56.939167 94464 net.cpp:243] Memory required for data: 262942464
I1226 09:06:56.939196 94464 layer_factory.hpp:114] Creating layer fc6
I1226 09:06:56.939277 94464 net.cpp:178] Creating Layer fc6
I1226 09:06:56.939314 94464 net.cpp:612] fc6 <- pool5
I1226 09:06:56.939358 94464 net.cpp:586] fc6 -> fc6
I1226 09:06:59.081490 120755 net.cpp:228] Setting up fc6
I1226 09:06:59.081603 120755 net.cpp:235] Top shape: 32 4096 (131072)
I1226 09:06:59.081634 120755 net.cpp:243] Memory required for data: 263466752
I1226 09:06:59.081693 120755 layer_factory.hpp:114] Creating layer relu6
I1226 09:06:59.081785 120755 net.cpp:178] Creating Layer relu6
I1226 09:06:59.081833 120755 net.cpp:612] relu6 <- fc6
I1226 09:06:59.081884 120755 net.cpp:573] relu6 -> fc6 (in-place)
I1226 09:06:59.082126 120755 net.cpp:228] Setting up relu6
I1226 09:06:59.082243 120755 net.cpp:235] Top shape: 32 4096 (131072)
I1226 09:06:59.082271 120755 net.cpp:243] Memory required for data: 263991040
I1226 09:06:59.082304 120755 layer_factory.hpp:114] Creating layer drop6
I1226 09:06:59.082375 120755 net.cpp:178] Creating Layer drop6
I1226 09:06:59.082406 120755 net.cpp:612] drop6 <- fc6
I1226 09:06:59.082443 120755 net.cpp:573] drop6 -> fc6 (in-place)
I1226 09:06:59.082509 120755 net.cpp:228] Setting up drop6
I1226 09:06:59.082551 120755 net.cpp:235] Top shape: 32 4096 (131072)
I1226 09:06:59.082573 120755 net.cpp:243] Memory required for data: 264515328
I1226 09:06:59.082602 120755 layer_factory.hpp:114] Creating layer fc7
I1226 09:06:59.082659 120755 net.cpp:178] Creating Layer fc7
I1226 09:06:59.082691 120755 net.cpp:612] fc7 <- fc6
I1226 09:06:59.082728 120755 net.cpp:586] fc7 -> fc7
I1226 09:06:59.470233 91281 net.cpp:228] Setting up fc6
I1226 09:06:59.470345 91281 net.cpp:235] Top shape: 32 4096 (131072)
I1226 09:06:59.470398 91281 net.cpp:243] Memory required for data: 263466752
I1226 09:06:59.470466 91281 layer_factory.hpp:114] Creating layer relu6
I1226 09:06:59.470531 91281 net.cpp:178] Creating Layer relu6
I1226 09:06:59.470578 91281 net.cpp:612] relu6 <- fc6
I1226 09:06:59.470638 91281 net.cpp:573] relu6 -> fc6 (in-place)
I1226 09:06:59.470736 91281 net.cpp:228] Setting up relu6
I1226 09:06:59.470877 91281 net.cpp:235] Top shape: 32 4096 (131072)
I1226 09:06:59.470908 91281 net.cpp:243] Memory required for data: 263991040
I1226 09:06:59.470942 91281 layer_factory.hpp:114] Creating layer drop6
I1226 09:06:59.471007 91281 net.cpp:178] Creating Layer drop6
I1226 09:06:59.471040 91281 net.cpp:612] drop6 <- fc6
I1226 09:06:59.471086 91281 net.cpp:573] drop6 -> fc6 (in-place)
I1226 09:06:59.471148 91281 net.cpp:228] Setting up drop6
I1226 09:06:59.471181 91281 net.cpp:235] Top shape: 32 4096 (131072)
I1226 09:06:59.471204 91281 net.cpp:243] Memory required for data: 264515328
I1226 09:06:59.471231 91281 layer_factory.hpp:114] Creating layer fc7
I1226 09:06:59.471312 91281 net.cpp:178] Creating Layer fc7
I1226 09:06:59.471345 91281 net.cpp:612] fc7 <- fc6
I1226 09:06:59.471408 91281 net.cpp:586] fc7 -> fc7
I1226 09:06:59.765272 90178 net.cpp:228] Setting up fc6
I1226 09:06:59.765396 90178 net.cpp:235] Top shape: 32 4096 (131072)
I1226 09:06:59.765430 90178 net.cpp:243] Memory required for data: 263466752
I1226 09:06:59.765540 90178 layer_factory.hpp:114] Creating layer relu6
I1226 09:06:59.765633 90178 net.cpp:178] Creating Layer relu6
I1226 09:06:59.765883 90178 net.cpp:612] relu6 <- fc6
I1226 09:06:59.765990 90178 net.cpp:573] relu6 -> fc6 (in-place)
I1226 09:06:59.766109 90178 net.cpp:228] Setting up relu6
I1226 09:06:59.766301 90178 net.cpp:235] Top shape: 32 4096 (131072)
I1226 09:06:59.766369 90178 net.cpp:243] Memory required for data: 263991040
I1226 09:06:59.766422 90178 layer_factory.hpp:114] Creating layer drop6
I1226 09:06:59.766489 90178 net.cpp:178] Creating Layer drop6
I1226 09:06:59.766530 90178 net.cpp:612] drop6 <- fc6
I1226 09:06:59.766577 90178 net.cpp:573] drop6 -> fc6 (in-place)
I1226 09:06:59.766654 90178 net.cpp:228] Setting up drop6
I1226 09:06:59.766708 90178 net.cpp:235] Top shape: 32 4096 (131072)
I1226 09:06:59.766743 90178 net.cpp:243] Memory required for data: 264515328
I1226 09:06:59.766778 90178 layer_factory.hpp:114] Creating layer fc7
I1226 09:06:59.766898 90178 net.cpp:178] Creating Layer fc7
I1226 09:06:59.766948 90178 net.cpp:612] fc7 <- fc6
I1226 09:06:59.767015 90178 net.cpp:586] fc7 -> fc7
I1226 09:06:59.769585 117050 net.cpp:228] Setting up fc6
I1226 09:06:59.769697 117050 net.cpp:235] Top shape: 32 4096 (131072)
I1226 09:06:59.769727 117050 net.cpp:243] Memory required for data: 263466752
I1226 09:06:56.505079 90317 net.cpp:228] Setting up fc6
I1226 09:06:59.769783 117050 layer_factory.hpp:114] Creating layer relu6
I1226 09:06:56.505193 90317 net.cpp:235] Top shape: 32 4096 (131072)
I1226 09:06:56.505223 90317 net.cpp:243] Memory required for data: 263466752
I1226 09:06:59.769850 117050 net.cpp:178] Creating Layer relu6
I1226 09:06:56.505280 90317 layer_factory.hpp:114] Creating layer relu6
I1226 09:06:59.769896 117050 net.cpp:612] relu6 <- fc6
I1226 09:06:56.505355 90317 net.cpp:178] Creating Layer relu6
I1226 09:06:59.770066 117050 net.cpp:573] relu6 -> fc6 (in-place)
I1226 09:06:56.505389 90317 net.cpp:612] relu6 <- fc6
I1226 09:06:59.770170 117050 net.cpp:228] Setting up relu6
I1226 09:06:56.505451 90317 net.cpp:573] relu6 -> fc6 (in-place)
I1226 09:06:59.770226 117050 net.cpp:235] Top shape: 32 4096 (131072)
I1226 09:06:59.770251 117050 net.cpp:243] Memory required for data: 263991040
I1226 09:06:56.505539 90317 net.cpp:228] Setting up relu6
I1226 09:06:59.770283 117050 layer_factory.hpp:114] Creating layer drop6
I1226 09:06:56.505720 90317 net.cpp:235] Top shape: 32 4096 (131072)
I1226 09:06:59.770346 117050 net.cpp:178] Creating Layer drop6
I1226 09:06:56.505750 90317 net.cpp:243] Memory required for data: 263991040
I1226 09:06:59.770383 117050 net.cpp:612] drop6 <- fc6
I1226 09:06:56.505789 90317 layer_factory.hpp:114] Creating layer drop6
I1226 09:06:59.770427 117050 net.cpp:573] drop6 -> fc6 (in-place)
I1226 09:06:56.505844 90317 net.cpp:178] Creating Layer drop6
I1226 09:06:56.505873 90317 net.cpp:612] drop6 <- fc6
I1226 09:06:59.770490 117050 net.cpp:228] Setting up drop6
I1226 09:06:56.505913 90317 net.cpp:573] drop6 -> fc6 (in-place)
I1226 09:06:59.770531 117050 net.cpp:235] Top shape: 32 4096 (131072)
I1226 09:06:59.770578 117050 net.cpp:243] Memory required for data: 264515328
I1226 09:06:59.770612 117050 layer_factory.hpp:114] Creating layer fc7
I1226 09:06:56.505980 90317 net.cpp:228] Setting up drop6
I1226 09:06:59.770691 117050 net.cpp:178] Creating Layer fc7
I1226 09:06:56.506016 90317 net.cpp:235] Top shape: 32 4096 (131072)
I1226 09:06:56.506038 90317 net.cpp:243] Memory required for data: 264515328
I1226 09:06:59.770730 117050 net.cpp:612] fc7 <- fc6
I1226 09:06:56.506067 90317 layer_factory.hpp:114] Creating layer fc7
I1226 09:06:59.770771 117050 net.cpp:586] fc7 -> fc7
I1226 09:06:56.506150 90317 net.cpp:178] Creating Layer fc7
I1226 09:06:56.506186 90317 net.cpp:612] fc7 <- fc6
I1226 09:06:56.506225 90317 net.cpp:586] fc7 -> fc7
I1226 09:06:59.829813 96748 net.cpp:228] Setting up fc6
I1226 09:06:59.829928 96748 net.cpp:235] Top shape: 32 4096 (131072)
I1226 09:06:59.829957 96748 net.cpp:243] Memory required for data: 263466752
I1226 09:06:59.830044 96748 layer_factory.hpp:114] Creating layer relu6
I1226 09:06:59.830149 96748 net.cpp:178] Creating Layer relu6
I1226 09:06:59.830296 96748 net.cpp:612] relu6 <- fc6
I1226 09:06:59.830355 96748 net.cpp:573] relu6 -> fc6 (in-place)
I1226 09:06:59.830451 96748 net.cpp:228] Setting up relu6
I1226 09:06:59.830638 96748 net.cpp:235] Top shape: 32 4096 (131072)
I1226 09:06:59.830698 96748 net.cpp:243] Memory required for data: 263991040
I1226 09:06:59.830744 96748 layer_factory.hpp:114] Creating layer drop6
I1226 09:06:59.830806 96748 net.cpp:178] Creating Layer drop6
I1226 09:06:59.830837 96748 net.cpp:612] drop6 <- fc6
I1226 09:06:59.830878 96748 net.cpp:573] drop6 -> fc6 (in-place)
I1226 09:06:59.830945 96748 net.cpp:228] Setting up drop6
I1226 09:06:59.830993 96748 net.cpp:235] Top shape: 32 4096 (131072)
I1226 09:06:59.831018 96748 net.cpp:243] Memory required for data: 264515328
I1226 09:06:59.831051 96748 layer_factory.hpp:114] Creating layer fc7
I1226 09:06:59.831153 96748 net.cpp:178] Creating Layer fc7
I1226 09:06:59.831192 96748 net.cpp:612] fc7 <- fc6
I1226 09:06:59.831233 96748 net.cpp:586] fc7 -> fc7
I1226 09:06:59.847319 88808 net.cpp:228] Setting up fc6
I1226 09:06:59.847432 88808 net.cpp:235] Top shape: 32 4096 (131072)
I1226 09:06:59.847465 88808 net.cpp:243] Memory required for data: 263466752
I1226 09:06:59.847525 88808 layer_factory.hpp:114] Creating layer relu6
I1226 09:06:59.847628 88808 net.cpp:178] Creating Layer relu6
I1226 09:06:59.847669 88808 net.cpp:612] relu6 <- fc6
I1226 09:06:59.847736 88808 net.cpp:573] relu6 -> fc6 (in-place)
I1226 09:06:59.847851 88808 net.cpp:228] Setting up relu6
I1226 09:06:59.848001 88808 net.cpp:235] Top shape: 32 4096 (131072)
I1226 09:06:59.848032 88808 net.cpp:243] Memory required for data: 263991040
I1226 09:06:59.848065 88808 layer_factory.hpp:114] Creating layer drop6
I1226 09:06:59.848122 88808 net.cpp:178] Creating Layer drop6
I1226 09:06:59.848150 88808 net.cpp:612] drop6 <- fc6
I1226 09:06:59.848196 88808 net.cpp:573] drop6 -> fc6 (in-place)
I1226 09:06:59.848251 88808 net.cpp:228] Setting up drop6
I1226 09:06:59.848290 88808 net.cpp:235] Top shape: 32 4096 (131072)
I1226 09:06:59.848323 88808 net.cpp:243] Memory required for data: 264515328
I1226 09:06:59.848358 88808 layer_factory.hpp:114] Creating layer fc7
I1226 09:06:59.848433 88808 net.cpp:178] Creating Layer fc7
I1226 09:06:59.848469 88808 net.cpp:612] fc7 <- fc6
I1226 09:06:59.848515 88808 net.cpp:586] fc7 -> fc7
I1226 09:06:59.878804 120057 net.cpp:228] Setting up fc6
I1226 09:06:59.878917 120057 net.cpp:235] Top shape: 32 4096 (131072)
I1226 09:06:59.878948 120057 net.cpp:243] Memory required for data: 263466752
I1226 09:06:59.879005 120057 layer_factory.hpp:114] Creating layer relu6
I1226 09:06:59.879099 120057 net.cpp:178] Creating Layer relu6
I1226 09:06:59.879146 120057 net.cpp:612] relu6 <- fc6
I1226 09:06:59.879320 120057 net.cpp:573] relu6 -> fc6 (in-place)
I1226 09:06:59.879444 120057 net.cpp:228] Setting up relu6
I1226 09:06:59.879511 120057 net.cpp:235] Top shape: 32 4096 (131072)
I1226 09:06:59.879541 120057 net.cpp:243] Memory required for data: 263991040
I1226 09:06:59.879575 120057 layer_factory.hpp:114] Creating layer drop6
I1226 09:06:59.879663 120057 net.cpp:178] Creating Layer drop6
I1226 09:06:59.879698 120057 net.cpp:612] drop6 <- fc6
I1226 09:06:59.879736 120057 net.cpp:573] drop6 -> fc6 (in-place)
I1226 09:06:59.879801 120057 net.cpp:228] Setting up drop6
I1226 09:06:59.879840 120057 net.cpp:235] Top shape: 32 4096 (131072)
I1226 09:06:59.879864 120057 net.cpp:243] Memory required for data: 264515328
I1226 09:06:59.879894 120057 layer_factory.hpp:114] Creating layer fc7
I1226 09:06:59.879969 120057 net.cpp:178] Creating Layer fc7
I1226 09:06:59.880002 120057 net.cpp:612] fc7 <- fc6
I1226 09:06:59.880045 120057 net.cpp:586] fc7 -> fc7
I1226 09:07:01.359990 120755 net.cpp:228] Setting up fc7
I1226 09:07:01.360095 120755 net.cpp:235] Top shape: 32 4096 (131072)
I1226 09:07:01.360123 120755 net.cpp:243] Memory required for data: 265039616
I1226 09:07:01.360208 120755 layer_factory.hpp:114] Creating layer relu7
I1226 09:07:01.360290 120755 net.cpp:178] Creating Layer relu7
I1226 09:07:01.360334 120755 net.cpp:612] relu7 <- fc7
I1226 09:07:01.360380 120755 net.cpp:573] relu7 -> fc7 (in-place)
I1226 09:07:01.360474 120755 net.cpp:228] Setting up relu7
I1226 09:07:01.360520 120755 net.cpp:235] Top shape: 32 4096 (131072)
I1226 09:07:01.360545 120755 net.cpp:243] Memory required for data: 265563904
I1226 09:07:01.360575 120755 layer_factory.hpp:114] Creating layer drop7
I1226 09:07:01.360621 120755 net.cpp:178] Creating Layer drop7
I1226 09:07:01.360648 120755 net.cpp:612] drop7 <- fc7
I1226 09:07:01.360682 120755 net.cpp:573] drop7 -> fc7 (in-place)
I1226 09:07:01.360730 120755 net.cpp:228] Setting up drop7
I1226 09:07:01.360772 120755 net.cpp:235] Top shape: 32 4096 (131072)
I1226 09:07:01.360796 120755 net.cpp:243] Memory required for data: 266088192
I1226 09:07:01.360823 120755 layer_factory.hpp:114] Creating layer fc8
I1226 09:07:01.360893 120755 net.cpp:178] Creating Layer fc8
I1226 09:07:01.360949 120755 net.cpp:612] fc8 <- fc7
I1226 09:07:01.360997 120755 net.cpp:586] fc8 -> fc8
I1226 09:07:01.741704 91281 net.cpp:228] Setting up fc7
I1226 09:07:01.741817 91281 net.cpp:235] Top shape: 32 4096 (131072)
I1226 09:07:01.741845 91281 net.cpp:243] Memory required for data: 265039616
I1226 09:07:01.741901 91281 layer_factory.hpp:114] Creating layer relu7
I1226 09:07:01.741994 91281 net.cpp:178] Creating Layer relu7
I1226 09:07:01.742039 91281 net.cpp:612] relu7 <- fc7
I1226 09:07:01.742089 91281 net.cpp:573] relu7 -> fc7 (in-place)
I1226 09:07:01.742172 91281 net.cpp:228] Setting up relu7
I1226 09:07:01.742220 91281 net.cpp:235] Top shape: 32 4096 (131072)
I1226 09:07:01.742244 91281 net.cpp:243] Memory required for data: 265563904
I1226 09:07:01.742272 91281 layer_factory.hpp:114] Creating layer drop7
I1226 09:07:01.742319 91281 net.cpp:178] Creating Layer drop7
I1226 09:07:01.742347 91281 net.cpp:612] drop7 <- fc7
I1226 09:07:01.742431 91281 net.cpp:573] drop7 -> fc7 (in-place)
I1226 09:07:01.742481 91281 net.cpp:228] Setting up drop7
I1226 09:07:01.742516 91281 net.cpp:235] Top shape: 32 4096 (131072)
I1226 09:07:01.742547 91281 net.cpp:243] Memory required for data: 266088192
I1226 09:07:01.742575 91281 layer_factory.hpp:114] Creating layer fc8
I1226 09:07:01.742630 91281 net.cpp:178] Creating Layer fc8
I1226 09:07:01.742663 91281 net.cpp:612] fc8 <- fc7
I1226 09:07:01.742699 91281 net.cpp:586] fc8 -> fc8
I1226 09:07:01.917551 120755 net.cpp:228] Setting up fc8
I1226 09:07:01.917661 120755 net.cpp:235] Top shape: 32 1000 (32000)
I1226 09:07:01.917692 120755 net.cpp:243] Memory required for data: 266216192
I1226 09:07:01.917748 120755 layer_factory.hpp:114] Creating layer fc8_fc8_0_split
I1226 09:07:01.917842 120755 net.cpp:178] Creating Layer fc8_fc8_0_split
I1226 09:07:01.917888 120755 net.cpp:612] fc8_fc8_0_split <- fc8
I1226 09:07:01.917963 120755 net.cpp:586] fc8_fc8_0_split -> fc8_fc8_0_split_0
I1226 09:07:01.918036 120755 net.cpp:586] fc8_fc8_0_split -> fc8_fc8_0_split_1
I1226 09:07:01.918138 120755 net.cpp:228] Setting up fc8_fc8_0_split
I1226 09:07:01.918184 120755 net.cpp:235] Top shape: 32 1000 (32000)
I1226 09:07:01.918218 120755 net.cpp:235] Top shape: 32 1000 (32000)
I1226 09:07:01.918257 120755 net.cpp:243] Memory required for data: 266472192
I1226 09:07:01.918290 120755 layer_factory.hpp:114] Creating layer accuracy
I1226 09:07:01.918341 120755 net.cpp:178] Creating Layer accuracy
I1226 09:07:01.918376 120755 net.cpp:612] accuracy <- fc8_fc8_0_split_0
I1226 09:07:01.918419 120755 net.cpp:612] accuracy <- label_data_1_split_0
I1226 09:07:01.918459 120755 net.cpp:586] accuracy -> accuracy
…
I1226 09:07:01.947340 120755 net.cpp:307] data does not need backward computation.
I1226 09:07:01.947367 120755 net.cpp:349] This network produces output accuracy
I1226 09:07:01.947399 120755 net.cpp:349] This network produces output loss
I1226 09:07:01.947484 120755 net.cpp:363] Network initialization done.
I1226 09:07:01.948086 120755 solver.cpp:119] Solver scaffolding done.
I1226 09:07:01.948323 120755 caffe.cpp:212] Finetuning from /export/data1/stanford/hazy/gordon_bell/caffenet_knl/snapshot/caffenet_MN8_B1024/_iter_25000.caffemodel
I1226 09:06:58.757256 90317 net.cpp:228] Setting up fc7
I1226 09:06:58.757367 90317 net.cpp:235] Top shape: 32 4096 (131072)
I1226 09:06:58.757396 90317 net.cpp:243] Memory required for data: 265039616
I1226 09:06:58.757454 90317 layer_factory.hpp:114] Creating layer relu7
I1226 09:06:58.757547 90317 net.cpp:178] Creating Layer relu7
I1226 09:06:58.757614 90317 net.cpp:612] relu7 <- fc7
I1226 09:06:58.757660 90317 net.cpp:573] relu7 -> fc7 (in-place)
I1226 09:06:58.757743 90317 net.cpp:228] Setting up relu7
I1226 09:06:58.757789 90317 net.cpp:235] Top shape: 32 4096 (131072)
I1226 09:06:58.757814 90317 net.cpp:243] Memory required for data: 265563904
I1226 09:06:58.757844 90317 layer_factory.hpp:114] Creating layer drop7
I1226 09:06:58.757899 90317 net.cpp:178] Creating Layer drop7
I1226 09:06:58.757936 90317 net.cpp:612] drop7 <- fc7
I1226 09:06:58.757972 90317 net.cpp:573] drop7 -> fc7 (in-place)
I1226 09:06:58.758025 90317 net.cpp:228] Setting up drop7
I1226 09:06:58.758065 90317 net.cpp:235] Top shape: 32 4096 (131072)
I1226 09:06:58.758087 90317 net.cpp:243] Memory required for data: 266088192
I1226 09:06:58.758116 90317 layer_factory.hpp:114] Creating layer fc8
I1226 09:06:58.758172 90317 net.cpp:178] Creating Layer fc8
I1226 09:06:58.758203 90317 net.cpp:612] fc8 <- fc7
I1226 09:06:58.758258 90317 net.cpp:586] fc8 -> fc8
I1226 09:07:02.051203 90178 net.cpp:228] Setting up fc7
I1226 09:07:02.051331 90178 net.cpp:235] Top shape: 32 4096 (131072)
I1226 09:07:02.051365 90178 net.cpp:243] Memory required for data: 265039616
I1226 09:07:02.051445 90178 layer_factory.hpp:114] Creating layer relu7
I1226 09:07:02.051550 90178 net.cpp:178] Creating Layer relu7
I1226 09:07:02.051601 90178 net.cpp:612] relu7 <- fc7
I1226 09:07:02.051650 90178 net.cpp:573] relu7 -> fc7 (in-place)
I1226 09:07:02.051745 90178 net.cpp:228] Setting up relu7
I1226 09:07:02.051805 90178 net.cpp:235] Top shape: 32 4096 (131072)
I1226 09:07:02.051872 90178 net.cpp:243] Memory required for data: 265563904
I1226 09:07:02.051954 90178 layer_factory.hpp:114] Creating layer drop7
I1226 09:07:02.052217 90178 net.cpp:178] Creating Layer drop7
I1226 09:07:02.052281 90178 net.cpp:612] drop7 <- fc7
I1226 09:07:02.052367 90178 net.cpp:573] drop7 -> fc7 (in-place)
I1226 09:07:02.052534 90178 net.cpp:228] Setting up drop7
I1226 09:07:02.052775 90178 net.cpp:235] Top shape: 32 4096 (131072)
I1226 09:07:02.052835 90178 net.cpp:243] Memory required for data: 266088192
I1226 09:07:02.052882 90178 layer_factory.hpp:114] Creating layer fc8
I1226 09:07:02.052961 90178 net.cpp:178] Creating Layer fc8
I1226 09:07:02.053009 90178 net.cpp:612] fc8 <- fc7
I1226 09:07:02.053066 90178 net.cpp:586] fc8 -> fc8
I1226 09:07:02.064375 117050 net.cpp:228] Setting up fc7
I1226 09:07:02.064484 117050 net.cpp:235] Top shape: 32 4096 (131072)
I1226 09:07:02.064514 117050 net.cpp:243] Memory required for data: 265039616
I1226 09:07:02.064597 117050 layer_factory.hpp:114] Creating layer relu7
I1226 09:07:02.064683 117050 net.cpp:178] Creating Layer relu7
I1226 09:07:02.064730 117050 net.cpp:612] relu7 <- fc7
I1226 09:07:02.064769 117050 net.cpp:573] relu7 -> fc7 (in-place)
I1226 09:07:02.064857 117050 net.cpp:228] Setting up relu7
I1226 09:07:02.064905 117050 net.cpp:235] Top shape: 32 4096 (131072)
I1226 09:07:02.064930 117050 net.cpp:243] Memory required for data: 265563904
I1226 09:07:02.064960 117050 layer_factory.hpp:114] Creating layer drop7
I1226 09:07:02.065014 117050 net.cpp:178] Creating Layer drop7
I1226 09:07:02.065050 117050 net.cpp:612] drop7 <- fc7
I1226 09:07:02.065085 117050 net.cpp:573] drop7 -> fc7 (in-place)
I1226 09:07:02.065129 117050 net.cpp:228] Setting up drop7
I1226 09:07:02.065168 117050 net.cpp:235] Top shape: 32 4096 (131072)
I1226 09:07:02.065196 117050 net.cpp:243] Memory required for data: 266088192
I1226 09:07:02.065223 117050 layer_factory.hpp:114] Creating layer fc8
I1226 09:07:02.065281 117050 net.cpp:178] Creating Layer fc8
I1226 09:07:02.065313 117050 net.cpp:612] fc8 <- fc7
I1226 09:07:02.065364 117050 net.cpp:586] fc8 -> fc8
I1226 09:07:02.092777 96748 net.cpp:228] Setting up fc7
I1226 09:07:02.092890 96748 net.cpp:235] Top shape: 32 4096 (131072)
I1226 09:07:02.092922 96748 net.cpp:243] Memory required for data: 265039616
I1226 09:07:02.092981 96748 layer_factory.hpp:114] Creating layer relu7
I1226 09:07:02.093104 96748 net.cpp:178] Creating Layer relu7
I1226 09:07:02.093149 96748 net.cpp:612] relu7 <- fc7
I1226 09:07:02.093192 96748 net.cpp:573] relu7 -> fc7 (in-place)
I1226 09:07:02.093277 96748 net.cpp:228] Setting up relu7
I1226 09:07:02.093318 96748 net.cpp:235] Top shape: 32 4096 (131072)
I1226 09:07:02.093341 96748 net.cpp:243] Memory required for data: 265563904
I1226 09:07:02.093371 96748 layer_factory.hpp:114] Creating layer drop7
I1226 09:07:02.093426 96748 net.cpp:178] Creating Layer drop7
I1226 09:07:02.093456 96748 net.cpp:612] drop7 <- fc7
I1226 09:07:02.093489 96748 net.cpp:573] drop7 -> fc7 (in-place)
I1226 09:07:02.093549 96748 net.cpp:228] Setting up drop7
I1226 09:07:02.093585 96748 net.cpp:235] Top shape: 32 4096 (131072)
I1226 09:07:02.093618 96748 net.cpp:243] Memory required for data: 266088192
I1226 09:07:02.093648 96748 layer_factory.hpp:114] Creating layer fc8
I1226 09:07:02.093709 96748 net.cpp:178] Creating Layer fc8
I1226 09:07:02.093739 96748 net.cpp:612] fc8 <- fc7
I1226 09:07:02.093780 96748 net.cpp:586] fc8 -> fc8
I1226 09:07:02.147300 88808 net.cpp:228] Setting up fc7
I1226 09:07:02.147416 88808 net.cpp:235] Top shape: 32 4096 (131072)
I1226 09:07:02.147446 88808 net.cpp:243] Memory required for data: 265039616
I1226 09:07:02.147505 88808 layer_factory.hpp:114] Creating layer relu7
I1226 09:07:02.147621 88808 net.cpp:178] Creating Layer relu7
I1226 09:07:02.147666 88808 net.cpp:612] relu7 <- fc7
I1226 09:07:02.147722 88808 net.cpp:573] relu7 -> fc7 (in-place)
I1226 09:07:02.147819 88808 net.cpp:228] Setting up relu7
I1226 09:07:02.147868 88808 net.cpp:235] Top shape: 32 4096 (131072)
I1226 09:07:02.147893 88808 net.cpp:243] Memory required for data: 265563904
I1226 09:07:02.147924 88808 layer_factory.hpp:114] Creating layer drop7
I1226 09:07:02.147982 88808 net.cpp:178] Creating Layer drop7
I1226 09:07:02.148015 88808 net.cpp:612] drop7 <- fc7
I1226 09:07:02.148052 88808 net.cpp:573] drop7 -> fc7 (in-place)
I1226 09:07:02.148098 88808 net.cpp:228] Setting up drop7
I1226 09:07:02.148131 88808 net.cpp:235] Top shape: 32 4096 (131072)
I1226 09:07:02.148155 88808 net.cpp:243] Memory required for data: 266088192
I1226 09:07:02.148191 88808 layer_factory.hpp:114] Creating layer fc8
I1226 09:07:02.148254 88808 net.cpp:178] Creating Layer fc8
I1226 09:07:02.148283 88808 net.cpp:612] fc8 <- fc7
I1226 09:07:02.148332 88808 net.cpp:586] fc8 -> fc8
I1226 09:07:02.179738 120057 net.cpp:228] Setting up fc7
I1226 09:07:02.179853 120057 net.cpp:235] Top shape: 32 4096 (131072)
I1226 09:07:02.179885 120057 net.cpp:243] Memory required for data: 265039616
I1226 09:07:02.179947 120057 layer_factory.hpp:114] Creating layer relu7
I1226 09:07:02.180044 120057 net.cpp:178] Creating Layer relu7
I1226 09:07:02.180094 120057 net.cpp:612] relu7 <- fc7
I1226 09:07:02.180143 120057 net.cpp:573] relu7 -> fc7 (in-place)
I1226 09:07:02.180240 120057 net.cpp:228] Setting up relu7
I1226 09:07:02.180310 120057 net.cpp:235] Top shape: 32 4096 (131072)
I1226 09:07:02.180343 120057 net.cpp:243] Memory required for data: 265563904
I1226 09:07:02.180382 120057 layer_factory.hpp:114] Creating layer drop7
I1226 09:07:02.180443 120057 net.cpp:178] Creating Layer drop7
I1226 09:07:02.180477 120057 net.cpp:612] drop7 <- fc7
I1226 09:07:02.180518 120057 net.cpp:573] drop7 -> fc7 (in-place)
I1226 09:07:02.180567 120057 net.cpp:228] Setting up drop7
I1226 09:07:02.180632 120057 net.cpp:235] Top shape: 32 4096 (131072)
I1226 09:07:02.180665 120057 net.cpp:243] Memory required for data: 266088192
I1226 09:07:02.180696 120057 layer_factory.hpp:114] Creating layer fc8
I1226 09:07:02.180759 120057 net.cpp:178] Creating Layer fc8
I1226 09:07:02.180789 120057 net.cpp:612] fc8 <- fc7
I1226 09:07:02.180848 120057 net.cpp:586] fc8 -> fc8
I1226 09:07:02.307533 91281 net.cpp:228] Setting up fc8
I1226 09:07:02.307656 91281 net.cpp:235] Top shape: 32 1000 (32000)
I1226 09:07:02.307687 91281 net.cpp:243] Memory required for data: 266216192
I1226 09:07:02.307746 91281 layer_factory.hpp:114] Creating layer fc8_fc8_0_split
I1226 09:07:02.307818 91281 net.cpp:178] Creating Layer fc8_fc8_0_split
I1226 09:07:02.307857 91281 net.cpp:612] fc8_fc8_0_split <- fc8
I1226 09:07:02.307903 91281 net.cpp:586] fc8_fc8_0_split -> fc8_fc8_0_split_0
I1226 09:07:02.307961 91281 net.cpp:586] fc8_fc8_0_split -> fc8_fc8_0_split_1
I1226 09:07:02.308159 91281 net.cpp:228] Setting up fc8_fc8_0_split
I1226 09:07:02.308209 91281 net.cpp:235] Top shape: 32 1000 (32000)
I1226 09:07:02.308238 91281 net.cpp:235] Top shape: 32 1000 (32000)
I1226 09:07:02.308264 91281 net.cpp:243] Memory required for data: 266472192
I1226 09:07:02.308298 91281 layer_factory.hpp:114] Creating layer accuracy
I1226 09:07:02.308348 91281 net.cpp:178] Creating Layer accuracy
I1226 09:07:02.308403 91281 net.cpp:612] accuracy <- fc8_fc8_0_split_0
I1226 09:07:02.308436 91281 net.cpp:612] accuracy <- label_data_1_split_0
I1226 09:07:02.308470 91281 net.cpp:586] accuracy -> accuracy
…
I1226 09:07:02.337934 91281 net.cpp:307] data does not need backward computation.
I1226 09:07:02.337956 91281 net.cpp:349] This network produces output accuracy
I1226 09:07:02.337990 91281 net.cpp:349] This network produces output loss
I1226 09:07:02.338066 91281 net.cpp:363] Network initialization done.
I1226 09:07:02.338510 91281 solver.cpp:119] Solver scaffolding done.
I1226 09:07:02.338690 91281 caffe.cpp:212] Finetuning from /export/data1/stanford/hazy/gordon_bell/caffenet_knl/snapshot/caffenet_MN8_B1024/_iter_25000.caffemodel
I1226 09:06:59.306838 90317 net.cpp:228] Setting up fc8
I1226 09:06:59.306948 90317 net.cpp:235] Top shape: 32 1000 (32000)
I1226 09:06:59.306975 90317 net.cpp:243] Memory required for data: 266216192
I1226 09:06:59.307059 90317 layer_factory.hpp:114] Creating layer fc8_fc8_0_split
I1226 09:06:59.307129 90317 net.cpp:178] Creating Layer fc8_fc8_0_split
I1226 09:06:59.307173 90317 net.cpp:612] fc8_fc8_0_split <- fc8
I1226 09:06:59.307214 90317 net.cpp:586] fc8_fc8_0_split -> fc8_fc8_0_split_0
I1226 09:06:59.307339 90317 net.cpp:586] fc8_fc8_0_split -> fc8_fc8_0_split_1
I1226 09:06:59.307427 90317 net.cpp:228] Setting up fc8_fc8_0_split
I1226 09:06:59.307478 90317 net.cpp:235] Top shape: 32 1000 (32000)
I1226 09:06:59.307508 90317 net.cpp:235] Top shape: 32 1000 (32000)
I1226 09:06:59.307531 90317 net.cpp:243] Memory required for data: 266472192
I1226 09:06:59.307569 90317 layer_factory.hpp:114] Creating layer accuracy
I1226 09:06:59.307646 90317 net.cpp:178] Creating Layer accuracy
I1226 09:06:59.307675 90317 net.cpp:612] accuracy <- fc8_fc8_0_split_0
I1226 09:06:59.307716 90317 net.cpp:612] accuracy <- label_data_1_split_0
I1226 09:06:59.307757 90317 net.cpp:586] accuracy -> accuracy
I1226 09:06:59.307804 90317 net.cpp:228] Setting up accuracy
I1226 09:06:59.307840 90317 net.cpp:235] Top shape: (1)
I1226 09:06:59.307863 90317 net.cpp:243] Memory required for data: 266472196
I1226 09:06:59.307896 90317 layer_factory.hpp:114] Creating layer loss
I1226 09:06:59.307958 90317 net.cpp:178] Creating Layer loss
I1226 09:06:59.307986 90317 net.cpp:612] loss <- fc8_fc8_0_split_1
I1226 09:06:59.308017 90317 net.cpp:612] loss <- label_data_1_split_1
I1226 09:06:59.308049 90317 net.cpp:586] loss -> loss
I1226 09:06:59.308106 90317 layer_factory.hpp:114] Creating layer loss
I1226 09:07:02.603979 90178 net.cpp:228] Setting up fc8
I1226 09:07:02.604122 90178 net.cpp:235] Top shape: 32 1000 (32000)
I1226 09:07:02.604189 90178 net.cpp:243] Memory required for data: 266216192
I1226 09:07:02.604265 90178 layer_factory.hpp:114] Creating layer fc8_fc8_0_split
I1226 09:07:02.604343 90178 net.cpp:178] Creating Layer fc8_fc8_0_split
I1226 09:07:02.604394 90178 net.cpp:612] fc8_fc8_0_split <- fc8
I1226 09:07:02.604445 90178 net.cpp:586] fc8_fc8_0_split -> fc8_fc8_0_split_0
I1226 09:07:02.604564 90178 net.cpp:586] fc8_fc8_0_split -> fc8_fc8_0_split_1
I1226 09:07:02.604676 90178 net.cpp:228] Setting up fc8_fc8_0_split
I1226 09:07:02.604733 90178 net.cpp:235] Top shape: 32 1000 (32000)
I1226 09:07:02.604774 90178 net.cpp:235] Top shape: 32 1000 (32000)
I1226 09:07:02.604805 90178 net.cpp:243] Memory required for data: 266472192
I1226 09:07:02.604873 90178 layer_factory.hpp:114] Creating layer accuracy
I1226 09:07:02.604995 90178 net.cpp:178] Creating Layer accuracy
I1226 09:07:02.605043 90178 net.cpp:612] accuracy <- fc8_fc8_0_split_0
I1226 09:07:02.605083 90178 net.cpp:612] accuracy <- label_data_1_split_0
I1226 09:07:02.605131 90178 net.cpp:586] accuracy -> accuracy
…
I1226 09:07:06.690529 90178 caffe.cpp:392] Starting Multi-node Optimization in mpi environment
I1226 09:07:06.710278 117050 caffe.cpp:376] Configuring multinode setup
I1226 09:07:06.711773 117050 caffe.cpp:392] Starting Multi-node Optimization in mpi environment
I1226 09:07:06.715953 96748 caffe.cpp:376] Configuring multinode setup
I1226 09:07:06.717597 96748 caffe.cpp:392] Starting Multi-node Optimization in mpi environment
I1226 09:07:06.827172 88808 caffe.cpp:376] Configuring multinode setup
I1226 09:07:06.828702 88808 caffe.cpp:392] Starting Multi-node Optimization in mpi environment
I1226 09:07:26.348158 94464 net.cpp:228] Setting up fc6
I1226 09:07:26.348423 94464 net.cpp:235] Top shape: 32 4096 (131072)
I1226 09:07:26.348465 94464 net.cpp:243] Memory required for data: 263466752
I1226 09:07:26.348533 94464 layer_factory.hpp:114] Creating layer relu6
I1226 09:07:26.348701 94464 net.cpp:178] Creating Layer relu6
I1226 09:07:26.348750 94464 net.cpp:612] relu6 <- fc6
I1226 09:07:26.348817 94464 net.cpp:573] relu6 -> fc6 (in-place)
I1226 09:07:26.348933 94464 net.cpp:228] Setting up relu6
I1226 09:07:26.348979 94464 net.cpp:235] Top shape: 32 4096 (131072)
I1226 09:07:26.349005 94464 net.cpp:243] Memory required for data: 263991040
I1226 09:07:26.349035 94464 layer_factory.hpp:114] Creating layer drop6
I1226 09:07:26.349093 94464 net.cpp:178] Creating Layer drop6
I1226 09:07:26.349123 94464 net.cpp:612] drop6 <- fc6
I1226 09:07:26.349160 94464 net.cpp:573] drop6 -> fc6 (in-place)
I1226 09:07:26.349215 94464 net.cpp:228] Setting up drop6
I1226 09:07:26.349249 94464 net.cpp:235] Top shape: 32 4096 (131072)
I1226 09:07:26.349273 94464 net.cpp:243] Memory required for data: 264515328
I1226 09:07:26.349301 94464 layer_factory.hpp:114] Creating layer fc7
I1226 09:07:26.349373 94464 net.cpp:178] Creating Layer fc7
I1226 09:07:26.349403 94464 net.cpp:612] fc7 <- fc6
I1226 09:07:26.349441 94464 net.cpp:586] fc7 -> fc7
I1226 09:07:39.424681 94464 net.cpp:228] Setting up fc7
I1226 09:07:39.424825 94464 net.cpp:235] Top shape: 32 4096 (131072)
I1226 09:07:39.424865 94464 net.cpp:243] Memory required for data: 265039616
I1226 09:07:39.424926 94464 layer_factory.hpp:114] Creating layer relu7
I1226 09:07:39.425024 94464 net.cpp:178] Creating Layer relu7
I1226 09:07:39.425081 94464 net.cpp:612] relu7 <- fc7
I1226 09:07:39.425125 94464 net.cpp:573] relu7 -> fc7 (in-place)
I1226 09:07:39.425227 94464 net.cpp:228] Setting up relu7
I1226 09:07:39.425287 94464 net.cpp:235] Top shape: 32 4096 (131072)
I1226 09:07:39.425315 94464 net.cpp:243] Memory required for data: 265563904
I1226 09:07:39.425349 94464 layer_factory.hpp:114] Creating layer drop7
I1226 09:07:39.425400 94464 net.cpp:178] Creating Layer drop7
I1226 09:07:39.425439 94464 net.cpp:612] drop7 <- fc7
I1226 09:07:39.425508 94464 net.cpp:573] drop7 -> fc7 (in-place)
I1226 09:07:39.425568 94464 net.cpp:228] Setting up drop7
I1226 09:07:39.425710 94464 net.cpp:235] Top shape: 32 4096 (131072)
I1226 09:07:39.425737 94464 net.cpp:243] Memory required for data: 266088192
I1226 09:07:39.425768 94464 layer_factory.hpp:114] Creating layer fc8
I1226 09:07:39.425861 94464 net.cpp:178] Creating Layer fc8
I1226 09:07:39.425901 94464 net.cpp:612] fc8 <- fc7
I1226 09:07:39.425945 94464 net.cpp:586] fc8 -> fc8
I1226 09:07:42.619910 94464 net.cpp:228] Setting up fc8
I1226 09:07:42.620034 94464 net.cpp:235] Top shape: 32 1000 (32000)
I1226 09:07:42.620074 94464 net.cpp:243] Memory required for data: 266216192
I1226 09:07:42.620137 94464 layer_factory.hpp:114] Creating layer fc8_fc8_0_split
I1226 09:07:42.620244 94464 net.cpp:178] Creating Layer fc8_fc8_0_split
I1226 09:07:42.620299 94464 net.cpp:612] fc8_fc8_0_split <- fc8
I1226 09:07:42.620348 94464 net.cpp:586] fc8_fc8_0_split -> fc8_fc8_0_split_0
I1226 09:07:42.620403 94464 net.cpp:586] fc8_fc8_0_split -> fc8_fc8_0_split_1
I1226 09:07:42.620510 94464 net.cpp:228] Setting up fc8_fc8_0_split
I1226 09:07:42.620573 94464 net.cpp:235] Top shape: 32 1000 (32000)
I1226 09:07:42.620610 94464 net.cpp:235] Top shape: 32 1000 (32000)
I1226 09:07:42.620638 94464 net.cpp:243] Memory required for data: 266472192
I1226 09:07:42.620677 94464 layer_factory.hpp:114] Creating layer accuracy
I1226 09:07:42.620738 94464 net.cpp:178] Creating Layer accuracy
I1226 09:07:42.620777 94464 net.cpp:612] accuracy <- fc8_fc8_0_split_0
I1226 09:07:42.620841 94464 net.cpp:612] accuracy <- label_data_1_split_0
I1226 09:07:42.620878 94464 net.cpp:586] accuracy -> accuracy
…
