…
I1226 14:57:30.053087 95720 net.cpp:500] The NetState phase (0) differed from the phase (1) specified by a rule in layer data
I1226 14:57:30.055397 95720 net.cpp:136] Initializing net from parameters: 
name: "AlexNet"
state {
  phase: TRAIN
  level: 0
  stage: ""
}
engine: "MKL2017"
layer {
  name: "data"
  type: "Data"
  top: "data"
  top: "label"
  include {
    phase: TRAIN
  }
  transform_param {
    mirror: true
    crop_size: 227
    mean_value: 104
    mean_value: 117
    mean_value: 123
  }
  data_param {
    source: "/export/data1/stanford/hazy/zjian/gorden_bell/ILSVRC2012_lmdb/db_8/ilsvrc12_train_lmdb_0"
    batch_size: 128
    backend: LMDB
  }
}
layer {
  name: "label_data_1_split"
  type: "Split"
  bottom: "label"
  top: "label_data_1_split_0"
  top: "label_data_1_split_1"
}
layer {
  name: "conv1"
  type: "Convolution"
  bottom: "data"
  top: "conv1"
  param {
    lr_mult: 1
    decay_mult: 1
  }
  param {
    lr_mult: 2
    decay_mult: 0
  }
  convolution_param {
    num_output: 96
    kernel_size: 11
    stride: 4
    weight_filler {
      type: "gaussian"
      std: 0.01
    }
    bias_filler {
      type: "constant"
      value: 0
    }
    engine: MKL2017
  }
}
layer {
  name: "relu1"
  type: "ReLU"
  bottom: "conv1"
  top: "conv1"
  relu_param {
    engine: MKL2017
  }
}
layer {
  name: "norm1"
  type: "LRN"
  bottom: "conv1"
  top: "norm1"
  lrn_param {
    local_size: 5
    alpha: 0.0001
    beta: 0.75
    engine: MKL2017
  }
}
layer {
  name: "pool1"
  type: "Pooling"
  bottom: "norm1"
  top: "pool1"
  pooling_param {
    pool: MAX
    kernel_size: 3
    stride: 2
    engine: MKL2017
  }
}
layer {
  name: "conv2"
  type: "Convolution"
  bottom: "pool1"
  top: "conv2"
  param {
    lr_mult: 1
    decay_mult: 1
  }
  param {
    lr_mult: 2
    decay_mult: 0
  }
  convolution_param {
    num_output: 256
    pad: 2
    kernel_size: 5
    group: 2
    weight_filler {
      type: "gaussian"
      std: 0.01
    }
    bias_filler {
      type: "constant"
      value: 0.1
    }
    engine: MKL2017
  }
}
layer {
  name: "relu2"
  type: "ReLU"
  bottom: "conv2"
  top: "conv2"
  relu_param {
    engine: MKL2017
  }
}
layer {
  name: "norm2"
  type: "LRN"
  bottom: "conv2"
  top: "norm2"
  lrn_param {
    local_size: 5
    alpha: 0.0001
    beta: 0.75
    engine: MKL2017
  }
}
layer {
  name: "pool2"
  type: "Pooling"
  bottom: "norm2"
  top: "pool2"
  pooling_param {
    pool: MAX
    kernel_size: 3
    stride: 2
    engine: MKL2017
  }
}
layer {
  name: "conv3"
  type: "Convolution"
  bottom: "pool2"
  top: "conv3"
  param {
    lr_mult: 1
    decay_mult: 1
  }
  param {
    lr_mult: 2
    decay_mult: 0
  }
  convolution_param {
    num_output: 384
    pad: 1
    kernel_size: 3
    weight_filler {
      type: "gaussian"
      std: 0.01
    }
    bias_filler {
      type: "constant"
      value: 0
    }
    engine: MKL2017
  }
}
layer {
  name: "relu3"
  type: "ReLU"
  bottom: "conv3"
  top: "conv3"
  relu_param {
    engine: MKL2017
  }
}
layer {
  name: "conv4"
  type: "Convolution"
  bottom: "conv3"
  top: "conv4"
  param {
    lr_mult: 1
    decay_mult: 1
  }
  param {
    lr_mult: 2
    decay_mult: 0
  }
  convolution_param {
    num_output: 384
    pad: 1
    kernel_size: 3
    group: 2
    weight_filler {
      type: "gaussian"
      std: 0.01
    }
    bias_filler {
      type: "constant"
      value: 0.1
    }
    engine: MKL2017
  }
}
layer {
  name: "relu4"
  type: "ReLU"
  bottom: "conv4"
  top: "conv4"
  relu_param {
    engine: MKL2017
  }
}
layer {
  name: "conv5"
  type: "Convolution"
  bottom: "conv4"
  top: "conv5"
  param {
    lr_mult: 1
    decay_mult: 1
  }
  param {
    lr_mult: 2
    decay_mult: 0
  }
  convolution_param {
    num_output: 256
    pad: 1
    kernel_size: 3
    group: 2
    weight_filler {
      type: "gaussian"
      std: 0.01
    }
    bias_filler {
      type: "constant"
      value: 0.1
    }
    engine: MKL2017
  }
}
layer {
  name: "relu5"
  type: "ReLU"
  bottom: "conv5"
  top: "conv5"
  relu_param {
    engine: MKL2017
  }
}
layer {
  name: "pool5"
  type: "Pooling"
  bottom: "conv5"
  top: "pool5"
  pooling_param {
    pool: MAX
    kernel_size: 3
    stride: 2
    engine: MKL2017
  }
}
layer {
  name: "fc6"
  type: "InnerProduct"
  bottom: "pool5"
  top: "fc6"
  param {
    lr_mult: 1
    decay_mult: 1
  }
  param {
    lr_mult: 2
    decay_mult: 0
  }
  inner_product_param {
    num_output: 4096
    weight_filler {
      type: "gaussian"
      std: 0.005
    }
    bias_filler {
      type: "constant"
      value: 0.1
    }
  }
}
layer {
  name: "relu6"
  type: "ReLU"
  bottom: "fc6"
  top: "fc6"
}
layer {
  name: "drop6"
  type: "Dropout"
  bottom: "fc6"
  top: "fc6"
  dropout_param {
    dropout_ratio: 0.5
  }
}
layer {
  name: "fc7"
  type: "InnerProduct"
  bottom: "fc6"
  top: "fc7"
  param {
    lr_mult: 1
    decay_mult: 1
  }
  param {
    lr_mult: 2
    decay_mult: 0
  }
  inner_product_param {
    num_output: 4096
    weight_filler {
      type: "gaussian"
      std: 0.005
    }
    bias_filler {
      type: "constant"
      value: 0.1
    }
  }
}
layer {
  name: "relu7"
  type: "ReLU"
  bottom: "fc7"
  top: "fc7"
}
layer {
  name: "drop7"
  type: "Dropout"
  bottom: "fc7"
  top: "fc7"
  dropout_param {
    dropout_ratio: 0.5
  }
}
layer {
  name: "fc8"
  type: "InnerProduct"
  bottom: "fc7"
  top: "fc8"
  param {
    lr_mult: 1
    decay_mult: 1
  }
  param {
    lr_mult: 2
    decay_mult: 0
  }
  inner_product_param {
    num_output: 1000
    weight_filler {
      type: "gaussian"
      std: 0.01
    }
    bias_filler {
      type: "constant"
      value: 0
    }
  }
}
layer {
  name: "fc8_fc8_0_split"
  type: "Split"
  bottom: "fc8"
  top: "fc8_fc8_0_split_0"
  top: "fc8_fc8_0_split_1"
}
layer {
  name: "accuracy"
  type: "Accuracy"
  bottom: "fc8_fc8_0_split_0"
  bottom: "label_data_1_split_0"
  top: "accuracy"
}
layer {
  name: "loss"
  type: "SoftmaxWithLoss"
  bottom: "fc8_fc8_0_split_1"
  bottom: "label_data_1_split_1"
  top: "loss"
}
I1226 14:57:30.047255 97855 cpu_info.cpp:473] Number of OpenMP threads: 66
I1226 14:57:30.047590 97855 net.cpp:500] The NetState phase (0) differed from the phase (1) specified by a rule in layer data
I1226 14:57:30.049664 97855 net.cpp:136] Initializing net from parameters: 
name: "AlexNet"
state {
  phase: TRAIN
  level: 0
  stage: ""
}
engine: "MKL2017"
layer {
  name: "data"
  type: "Data"
  top: "data"
  top: "label"
  include {
    phase: TRAIN
  }
  transform_param {
    mirror: true
    crop_size: 227
    mean_value: 104
    mean_value: 117
    mean_value: 123
  }
  data_param {
    source: "/export/data1/stanford/hazy/zjian/gorden_bell/ILSVRC2012_lmdb/db_8/ilsvrc12_train_lmdb_4"
    batch_size: 128
    backend: LMDB
  }
}
layer {
  name: "label_data_1_split"
  type: "Split"
  bottom: "label"
  top: "label_data_1_split_0"
  top: "label_data_1_split_1"
}
layer {
  name: "conv1"
  type: "Convolution"
  bottom: "data"
  top: "conv1"
  param {
    lr_mult: 1
    decay_mult: 1
  }
  param {
    lr_mult: 2
    decay_mult: 0
  }
  convolution_param {
    num_output: 96
    kernel_size: 11
    stride: 4
    weight_filler {
      type: "gaussian"
      std: 0.01
    }
    bias_filler {
      type: "constant"
      value: 0
    }
    engine: MKL2017
  }
}
layer {
  name: "relu1"
  type: "ReLU"
  bottom: "conv1"
  top: "conv1"
  relu_param {
    engine: MKL2017
  }
}
layer {
  name: "norm1"
  type: "LRN"
  bottom: "conv1"
  top: "norm1"
  lrn_param {
    local_size: 5
    alpha: 0.0001
    beta: 0.75
    engine: MKL2017
  }
}
layer {
  name: "pool1"
  type: "Pooling"
  bottom: "norm1"
  top: "pool1"
  pooling_param {
    pool: MAX
    kernel_size: 3
    stride: 2
    engine: MKL2017
  }
}
layer {
  name: "conv2"
  type: "Convolution"
  bottom: "pool1"
  top: "conv2"
  param {
    lr_mult: 1
    decay_mult: 1
  }
  param {
    lr_mult: 2
    decay_mult: 0
  }
  convolution_param {
    num_output: 256
    pad: 2
    kernel_size: 5
    group: 2
    weight_filler {
      type: "gaussian"
      std: 0.01
    }
    bias_filler {
      type: "constant"
      value: 0.1
    }
    engine: MKL2017
  }
}
layer {
  name: "relu2"
  type: "ReLU"
  bottom: "conv2"
  top: "conv2"
  relu_param {
    engine: MKL2017
  }
}
layer {
  name: "norm2"
  type: "LRN"
  bottom: "conv2"
  top: "norm2"
  lrn_param {
    local_size: 5
    alpha: 0.0001
    beta: 0.75
    engine: MKL2017
  }
}
layer {
  name: "pool2"
  type: "Pooling"
  bottom: "norm2"
  top: "pool2"
  pooling_param {
    pool: MAX
    kernel_size: 3
    stride: 2
    engine: MKL2017
  }
}
layer {
  name: "conv3"
  type: "Convolution"
  bottom: "pool2"
  top: "conv3"
  param {
    lr_mult: 1
    decay_mult: 1
  }
  param {
    lr_mult: 2
    decay_mult: 0
  }
  convolution_param {
    num_output: 384
    pad: 1
    kernel_size: 3
    weight_filler {
      type: "gaussian"
      std: 0.01
    }
    bias_filler {
      type: "constant"
      value: 0
    }
    engine: MKL2017
  }
}
layer {
  name: "relu3"
  type: "ReLU"
  bottom: "conv3"
  top: "conv3"
  relu_param {
    engine: MKL2017
  }
}
layer {
  name: "conv4"
  type: "Convolution"
  bottom: "conv3"
  top: "conv4"
  param {
    lr_mult: 1
    decay_mult: 1
  }
  param {
    lr_mult: 2
    decay_mult: 0
  }
  convolution_param {
    num_output: 384
    pad: 1
    kernel_size: 3
    group: 2
    weight_filler {
      type: "gaussian"
      std: 0.01
    }
    bias_filler {
      type: "constant"
      value: 0.1
    }
    engine: MKL2017
  }
}
layer {
  name: "relu4"
  type: "ReLU"
  bottom: "conv4"
  top: "conv4"
  relu_param {
    engine: MKL2017
  }
}
layer {
  name: "conv5"
  type: "Convolution"
  bottom: "conv4"
  top: "conv5"
  param {
    lr_mult: 1
    decay_mult: 1
  }
  param {
    lr_mult: 2
    decay_mult: 0
  }
  convolution_param {
    num_output: 256
    pad: 1
    kernel_size: 3
    group: 2
    weight_filler {
      type: "gaussian"
      std: 0.01
    }
    bias_filler {
      type: "constant"
      value: 0.1
    }
    engine: MKL2017
  }
}
layer {
  name: "relu5"
  type: "ReLU"
  bottom: "conv5"
  top: "conv5"
  relu_param {
    engine: MKL2017
  }
}
layer {
  name: "pool5"
  type: "Pooling"
  bottom: "conv5"
  top: "pool5"
  pooling_param {
    pool: MAX
    kernel_size: 3
    stride: 2
    engine: MKL2017
  }
}
layer {
  name: "fc6"
  type: "InnerProduct"
  bottom: "pool5"
  top: "fc6"
  param {
    lr_mult: 1
    decay_mult: 1
  }
  param {
    lr_mult: 2
    decay_mult: 0
  }
  inner_product_param {
    num_output: 4096
    weight_filler {
      type: "gaussian"
      std: 0.005
    }
    bias_filler {
      type: "constant"
      value: 0.1
    }
  }
}
layer {
  name: "relu6"
  type: "ReLU"
  bottom: "fc6"
  top: "fc6"
}
layer {
  name: "drop6"
  type: "Dropout"
  bottom: "fc6"
  top: "fc6"
  dropout_param {
    dropout_ratio: 0.5
  }
}
layer {
  name: "fc7"
  type: "InnerProduct"
  bottom: "fc6"
  top: "fc7"
  param {
    lr_mult: 1
    decay_mult: 1
  }
  param {
    lr_mult: 2
    decay_mult: 0
  }
  inner_product_param {
    num_output: 4096
    weight_filler {
      type: "gaussian"
      std: 0.005
    }
    bias_filler {
      type: "constant"
      value: 0.1
    }
  }
}
layer {
  name: "relu7"
  type: "ReLU"
  bottom: "fc7"
  top: "fc7"
}
layer {
  name: "drop7"
  type: "Dropout"
  bottom: "fc7"
  top: "fc7"
  dropout_param {
    dropout_ratio: 0.5
  }
}
layer {
  name: "fc8"
  type: "InnerProduct"
  bottom: "fc7"
  top: "fc8"
  param {
    lr_mult: 1
    decay_mult: 1
  }
  param {
    lr_mult: 2
    decay_mult: 0
  }
  inner_product_param {
    num_output: 1000
    weight_filler {
      type: "gaussian"
      std: 0.01
    }
    bias_filler {
      type: "constant"
      value: 0
    }
  }
}
layer {
  name: "fc8_fc8_0_split"
  type: "Split"
  bottom: "fc8"
  top: "fc8_fc8_0_split_0"
  top: "fc8_fc8_0_split_1"
}
layer {
  name: "accuracy"
  type: "Accuracy"
  bottom: "fc8_fc8_0_split_0"
  bottom: "label_data_1_split_0"
  top: "accuracy"
}
layer {
  name: "loss"
  type: "SoftmaxWithLoss"
  bottom: "fc8_fc8_0_split_1"
  bottom: "label_data_1_split_1"
  top: "loss"
}
I1226 14:57:30.056974 94946 cpu_info.cpp:473] Number of OpenMP threads: 66
I1226 14:57:30.057272 94946 net.cpp:500] The NetState phase (0) differed from the phase (1) specified by a rule in layer data
I1226 14:57:30.058859 94946 net.cpp:136] Initializing net from parameters: 
name: "AlexNet"
state {
  phase: TRAIN
  level: 0
  stage: ""
}
engine: "MKL2017"
layer {
  name: "data"
  type: "Data"
  top: "data"
  top: "label"
  include {
    phase: TRAIN
  }
  transform_param {
    mirror: true
    crop_size: 227
    mean_value: 104
    mean_value: 117
    mean_value: 123
  }
  data_param {
    source: "/export/data1/stanford/hazy/zjian/gorden_bell/ILSVRC2012_lmdb/db_8/ilsvrc12_train_lmdb_1"
    batch_size: 128
    backend: LMDB
  }
}
layer {
  name: "label_data_1_split"
  type: "Split"
  bottom: "label"
  top: "label_data_1_split_0"
  top: "label_data_1_split_1"
}
layer {
  name: "conv1"
  type: "Convolution"
  bottom: "data"
  top: "conv1"
  param {
    lr_mult: 1
    decay_mult: 1
  }
  param {
    lr_mult: 2
    decay_mult: 0
  }
  convolution_param {
    num_output: 96
    kernel_size: 11
    stride: 4
    weight_filler {
      type: "gaussian"
      std: 0.01
    }
    bias_filler {
      type: "constant"
      value: 0
    }
    engine: MKL2017
  }
}
layer {
  name: "relu1"
  type: "ReLU"
  bottom: "conv1"
  top: "conv1"
  relu_param {
    engine: MKL2017
  }
}
layer {
  name: "norm1"
  type: "LRN"
  bottom: "conv1"
  top: "norm1"
  lrn_param {
    local_size: 5
    alpha: 0.0001
    beta: 0.75
    engine: MKL2017
  }
}
layer {
  name: "pool1"
  type: "Pooling"
  bottom: "norm1"
  top: "pool1"
  pooling_param {
    pool: MAX
    kernel_size: 3
    stride: 2
    engine: MKL2017
  }
}
layer {
  name: "conv2"
  type: "Convolution"
  bottom: "pool1"
  top: "conv2"
  param {
    lr_mult: 1
    decay_mult: 1
  }
  param {
    lr_mult: 2
    decay_mult: 0
  }
  convolution_param {
    num_output: 256
    pad: 2
    kernel_size: 5
    group: 2
    weight_filler {
      type: "gaussian"
      std: 0.01
    }
    bias_filler {
      type: "constant"
      value: 0.1
    }
    engine: MKL2017
  }
}
layer {
  name: "relu2"
  type: "ReLU"
  bottom: "conv2"
  top: "conv2"
  relu_param {
    engine: MKL2017
  }
}
layer {
  name: "norm2"
  type: "LRN"
  bottom: "conv2"
  top: "norm2"
  lrn_param {
    local_size: 5
    alpha: 0.0001
    beta: 0.75
    engine: MKL2017
  }
}
layer {
  name: "pool2"
  type: "Pooling"
  bottom: "norm2"
  top: "pool2"
  pooling_param {
    pool: MAX
    kernel_size: 3
    stride: 2
    engine: MKL2017
  }
}
layer {
  name: "conv3"
  type: "Convolution"
  bottom: "pool2"
  top: "conv3"
  param {
    lr_mult: 1
    decay_mult: 1
  }
  param {
    lr_mult: 2
    decay_mult: 0
  }
  convolution_param {
    num_output: 384
    pad: 1
    kernel_size: 3
    weight_filler {
      type: "gaussian"
      std: 0.01
    }
    bias_filler {
      type: "constant"
      value: 0
    }
    engine: MKL2017
  }
}
layer {
  name: "relu3"
  type: "ReLU"
  bottom: "conv3"
  top: "conv3"
  relu_param {
    engine: MKL2017
  }
}
layer {
  name: "conv4"
  type: "Convolution"
  bottom: "conv3"
  top: "conv4"
  param {
    lr_mult: 1
    decay_mult: 1
  }
  param {
    lr_mult: 2
    decay_mult: 0
  }
  convolution_param {
    num_output: 384
    pad: 1
    kernel_size: 3
    group: 2
    weight_filler {
      type: "gaussian"
      std: 0.01
    }
    bias_filler {
      type: "constant"
      value: 0.1
    }
    engine: MKL2017
  }
}
layer {
  name: "relu4"
  type: "ReLU"
  bottom: "conv4"
  top: "conv4"
  relu_param {
    engine: MKL2017
  }
}
layer {
  name: "conv5"
  type: "Convolution"
  bottom: "conv4"
  top: "conv5"
  param {
    lr_mult: 1
    decay_mult: 1
  }
  param {
    lr_mult: 2
    decay_mult: 0
  }
  convolution_param {
    num_output: 256
    pad: 1
    kernel_size: 3
    group: 2
    weight_filler {
      type: "gaussian"
      std: 0.01
    }
    bias_filler {
      type: "constant"
      value: 0.1
    }
    engine: MKL2017
  }
}
layer {
  name: "relu5"
  type: "ReLU"
  bottom: "conv5"
  top: "conv5"
  relu_param {
    engine: MKL2017
  }
}
layer {
  name: "pool5"
  type: "Pooling"
  bottom: "conv5"
  top: "pool5"
  pooling_param {
    pool: MAX
    kernel_size: 3
    stride: 2
    engine: MKL2017
  }
}
layer {
  name: "fc6"
  type: "InnerProduct"
  bottom: "pool5"
  top: "fc6"
  param {
    lr_mult: 1
    decay_mult: 1
  }
  param {
    lr_mult: 2
    decay_mult: 0
  }
  inner_product_param {
    num_output: 4096
    weight_filler {
      type: "gaussian"
      std: 0.005
    }
    bias_filler {
      type: "constant"
      value: 0.1
    }
  }
}
layer {
  name: "relu6"
  type: "ReLU"
  bottom: "fc6"
  top: "fc6"
}
layer {
  name: "drop6"
  type: "Dropout"
  bottom: "fc6"
  top: "fc6"
  dropout_param {
    dropout_ratio: 0.5
  }
}
layer {
  name: "fc7"
  type: "InnerProduct"
  bottom: "fc6"
  top: "fc7"
  param {
    lr_mult: 1
    decay_mult: 1
  }
  param {
    lr_mult: 2
    decay_mult: 0
  }
  inner_product_param {
    num_output: 4096
    weight_filler {
      type: "gaussian"
      std: 0.005
    }
    bias_filler {
      type: "constant"
      value: 0.1
    }
  }
}
layer {
  name: "relu7"
  type: "ReLU"
  bottom: "fc7"
  top: "fc7"
}
layer {
  name: "drop7"
  type: "Dropout"
  bottom: "fc7"
  top: "fc7"
  dropout_param {
    dropout_ratio: 0.5
  }
}
layer {
  name: "fc8"
  type: "InnerProduct"
  bottom: "fc7"
  top: "fc8"
  param {
    lr_mult: 1
    decay_mult: 1
  }
  param {
    lr_mult: 2
    decay_mult: 0
  }
  inner_product_param {
    num_output: 1000
    weight_filler {
      type: "gaussian"
      std: 0.01
    }
    bias_filler {
      type: "constant"
      value: 0
    }
  }
}
layer {
  name: "fc8_fc8_0_split"
  type: "Split"
  bottom: "fc8"
  top: "fc8_fc8_0_split_0"
  top: "fc8_fc8_0_split_1"
}
layer {
  name: "accuracy"
  type: "Accuracy"
  bottom: "fc8_fc8_0_split_0"
  bottom: "label_data_1_split_0"
  top: "accuracy"
}
layer {
  name: "loss"
  type: "SoftmaxWithLoss"
  bottom: "fc8_fc8_0_split_1"
  bottom: "label_data_1_split_1"
  top: "loss"
}
I1226 14:57:30.051555 97424 cpu_info.cpp:473] Number of OpenMP threads: 66
I1226 14:57:30.051966 97424 net.cpp:500] The NetState phase (0) differed from the phase (1) specified by a rule in layer data
I1226 14:57:30.078251 118646 cpu_info.cpp:473] Number of OpenMP threads: 66
I1226 14:57:30.078698 118646 net.cpp:500] The NetState phase (0) differed from the phase (1) specified by a rule in layer data
I1226 14:57:30.054051 97424 net.cpp:136] Initializing net from parameters: 
name: "AlexNet"
state {
  phase: TRAIN
  level: 0
  stage: ""
}
engine: "MKL2017"
layer {
  name: "data"
  type: "Data"
  top: "data"
  top: "label"
  include {
    phase: TRAIN
  }
  transform_param {
    mirror: true
    crop_size: 227
    mean_value: 104
    mean_value: 117
    mean_value: 123
  }
  data_param {
    source: "/export/data1/stanford/hazy/zjian/gorden_bell/ILSVRC2012_lmdb/db_8/ilsvrc12_train_lmdb_2"
    batch_size: 128
    backend: LMDB
  }
}
layer {
  name: "label_data_1_split"
  type: "Split"
  bottom: "label"
  top: "label_data_1_split_0"
  top: "label_data_1_split_1"
}
layer {
  name: "conv1"
  type: "Convolution"
  bottom: "data"
  top: "conv1"
  param {
    lr_mult: 1
    decay_mult: 1
  }
  param {
    lr_mult: 2
    decay_mult: 0
  }
  convolution_param {
    num_output: 96
    kernel_size: 11
    stride: 4
    weight_filler {
      type: "gaussian"
      std: 0.01
    }
    bias_filler {
      type: "constant"
      value: 0
    }
    engine: MKL2017
  }
}
layer {
  name: "relu1"
  type: "ReLU"
  bottom: "conv1"
  top: "conv1"
  relu_param {
    engine: MKL2017
  }
}
layer {
  name: "norm1"
  type: "LRN"
  bottom: "conv1"
  top: "norm1"
  lrn_param {
    local_size: 5
    alpha: 0.0001
    beta: 0.75
    engine: MKL2017
  }
}
layer {
  name: "pool1"
  type: "Pooling"
  bottom: "norm1"
  top: "pool1"
  pooling_param {
    pool: MAX
    kernel_size: 3
    stride: 2
    engine: MKL2017
  }
}
layer {
  name: "conv2"
  type: "Convolution"
  bottom: "pool1"
  top: "conv2"
  param {
    lr_mult: 1
    decay_mult: 1
  }
  param {
    lr_mult: 2
    decay_mult: 0
  }
  convolution_param {
    num_output: 256
    pad: 2
    kernel_size: 5
    group: 2
    weight_filler {
      type: "gaussian"
      std: 0.01
    }
    bias_filler {
      type: "constant"
      value: 0.1
    }
    engine: MKL2017
  }
}
layer {
  name: "relu2"
  type: "ReLU"
  bottom: "conv2"
  top: "conv2"
  relu_param {
    engine: MKL2017
  }
}
layer {
  name: "norm2"
  type: "LRN"
  bottom: "conv2"
  top: "norm2"
  lrn_param {
    local_size: 5
    alpha: 0.0001
    beta: 0.75
    engine: MKL2017
  }
}
layer {
  name: "pool2"
  type: "Pooling"
  bottom: "norm2"
  top: "pool2"
  pooling_param {
    pool: MAX
    kernel_size: 3
    stride: 2
    engine: MKL2017
  }
}
layer {
  name: "conv3"
  type: "Convolution"
  bottom: "pool2"
  top: "conv3"
  param {
    lr_mult: 1
    decay_mult: 1
  }
  param {
    lr_mult: 2
    decay_mult: 0
  }
  convolution_param {
    num_output: 384
    pad: 1
    kernel_size: 3
    weight_filler {
      type: "gaussian"
      std: 0.01
    }
    bias_filler {
      type: "constant"
      value: 0
    }
    engine: MKL2017
  }
}
layer {
  name: "relu3"
  type: "ReLU"
  bottom: "conv3"
  top: "conv3"
  relu_param {
    engine: MKL2017
  }
}
layer {
  name: "conv4"
  type: "Convolution"
  bottom: "conv3"
  top: "conv4"
  param {
    lr_mult: 1
    decay_mult: 1
  }
  param {
    lr_mult: 2
    decay_mult: 0
  }
  convolution_param {
    num_output: 384
    pad: 1
    kernel_size: 3
    group: 2
    weight_filler {
      type: "gaussian"
      std: 0.01
    }
    bias_filler {
      type: "constant"
      value: 0.1
    }
    engine: MKL2017
  }
}
layer {
  name: "relu4"
  type: "ReLU"
  bottom: "conv4"
  top: "conv4"
  relu_param {
    engine: MKL2017
  }
}
layer {
  name: "conv5"
  type: "Convolution"
  bottom: "conv4"
  top: "conv5"
  param {
    lr_mult: 1
    decay_mult: 1
  }
  param {
    lr_mult: 2
    decay_mult: 0
  }
  convolution_param {
    num_output: 256
    pad: 1
    kernel_size: 3
    group: 2
    weight_filler {
      type: "gaussian"
      std: 0.01
    }
    bias_filler {
      type: "constant"
      value: 0.1
    }
    engine: MKL2017
  }
}
layer {
  name: "relu5"
  type: "ReLU"
  bottom: "conv5"
  top: "conv5"
  relu_param {
    engine: MKL2017
  }
}
layer {
  name: "pool5"
  type: "Pooling"
  bottom: "conv5"
  top: "pool5"
  pooling_param {
    pool: MAX
    kernel_size: 3
    stride: 2
    engine: MKL2017
  }
}
layer {
  name: "fc6"
  type: "InnerProduct"
  bottom: "pool5"
  top: "fc6"
  param {
    lr_mult: 1
    decay_mult: 1
  }
  param {
    lr_mult: 2
    decay_mult: 0
  }
  inner_product_param {
    num_output: 4096
    weight_filler {
      type: "gaussian"
      std: 0.005
    }
    bias_filler {
      type: "constant"
      value: 0.1
    }
  }
}
layer {
  name: "relu6"
  type: "ReLU"
  bottom: "fc6"
  top: "fc6"
}
layer {
  name: "drop6"
  type: "Dropout"
  bottom: "fc6"
  top: "fc6"
  dropout_param {
    dropout_ratio: 0.5
  }
}
layer {
  name: "fc7"
  type: "InnerProduct"
  bottom: "fc6"
  top: "fc7"
  param {
    lr_mult: 1
    decay_mult: 1
  }
  param {
    lr_mult: 2
    decay_mult: 0
  }
  inner_product_param {
    num_output: 4096
    weight_filler {
      type: "gaussian"
      std: 0.005
    }
    bias_filler {
      type: "constant"
      value: 0.1
    }
  }
}
layer {
  name: "relu7"
  type: "ReLU"
  bottom: "fc7"
  top: "fc7"
}
layer {
  name: "drop7"
  type: "Dropout"
  bottom: "fc7"
  top: "fc7"
  dropout_param {
    dropout_ratio: 0.5
  }
}
layer {
  name: "fc8"
  type: "InnerProduct"
  bottom: "fc7"
  top: "fc8"
  param {
    lr_mult: 1
    decay_mult: 1
  }
  param {
    lr_mult: 2
    decay_mult: 0
  }
  inner_product_param {
    num_output: 1000
    weight_filler {
      type: "gaussian"
      std: 0.01
    }
    bias_filler {
      type: "constant"
      value: 0
    }
  }
}
layer {
  name: "fc8_fc8_0_split"
  type: "Split"
  bottom: "fc8"
  top: "fc8_fc8_0_split_0"
  top: "fc8_fc8_0_split_1"
}
layer {
  name: "accuracy"
  type: "Accuracy"
  bottom: "fc8_fc8_0_split_0"
  bottom: "label_data_1_split_0"
  top: "accuracy"
}
layer {
  name: "loss"
  type: "SoftmaxWithLoss"
  bottom: "fc8_fc8_0_split_1"
  bottom: "label_data_1_split_1"
  top: "loss"
}
I1226 14:57:30.080364 118646 net.cpp:136] Initializing net from parameters: 
name: "AlexNet"
state {
  phase: TRAIN
  level: 0
  stage: ""
}
engine: "MKL2017"
layer {
  name: "data"
  type: "Data"
  top: "data"
  top: "label"
  include {
    phase: TRAIN
  }
  transform_param {
    mirror: true
    crop_size: 227
    mean_value: 104
    mean_value: 117
    mean_value: 123
  }
  data_param {
    source: "/export/data1/stanford/hazy/zjian/gorden_bell/ILSVRC2012_lmdb/db_8/ilsvrc12_train_lmdb_5"
    batch_size: 128
    backend: LMDB
  }
}
layer {
  name: "label_data_1_split"
  type: "Split"
  bottom: "label"
  top: "label_data_1_split_0"
  top: "label_data_1_split_1"
}
layer {
  name: "conv1"
  type: "Convolution"
  bottom: "data"
  top: "conv1"
  param {
    lr_mult: 1
    decay_mult: 1
  }
  param {
    lr_mult: 2
    decay_mult: 0
  }
  convolution_param {
    num_output: 96
    kernel_size: 11
    stride: 4
    weight_filler {
      type: "gaussian"
      std: 0.01
    }
    bias_filler {
      type: "constant"
      value: 0
    }
    engine: MKL2017
  }
}
layer {
  name: "relu1"
  type: "ReLU"
  bottom: "conv1"
  top: "conv1"
  relu_param {
    engine: MKL2017
  }
}
layer {
  name: "norm1"
  type: "LRN"
  bottom: "conv1"
  top: "norm1"
  lrn_param {
    local_size: 5
    alpha: 0.0001
    beta: 0.75
    engine: MKL2017
  }
}
layer {
  name: "pool1"
  type: "Pooling"
  bottom: "norm1"
  top: "pool1"
  pooling_param {
    pool: MAX
    kernel_size: 3
    stride: 2
    engine: MKL2017
  }
}
layer {
  name: "conv2"
  type: "Convolution"
  bottom: "pool1"
  top: "conv2"
  param {
    lr_mult: 1
    decay_mult: 1
  }
  param {
    lr_mult: 2
    decay_mult: 0
  }
  convolution_param {
    num_output: 256
    pad: 2
    kernel_size: 5
    group: 2
    weight_filler {
      type: "gaussian"
      std: 0.01
    }
    bias_filler {
      type: "constant"
      value: 0.1
    }
    engine: MKL2017
  }
}
layer {
  name: "relu2"
  type: "ReLU"
  bottom: "conv2"
  top: "conv2"
  relu_param {
    engine: MKL2017
  }
}
layer {
  name: "norm2"
  type: "LRN"
  bottom: "conv2"
  top: "norm2"
  lrn_param {
    local_size: 5
    alpha: 0.0001
    beta: 0.75
    engine: MKL2017
  }
}
layer {
  name: "pool2"
  type: "Pooling"
  bottom: "norm2"
  top: "pool2"
  pooling_param {
    pool: MAX
    kernel_size: 3
    stride: 2
    engine: MKL2017
  }
}
layer {
  name: "conv3"
  type: "Convolution"
  bottom: "pool2"
  top: "conv3"
  param {
    lr_mult: 1
    decay_mult: 1
  }
  param {
    lr_mult: 2
    decay_mult: 0
  }
  convolution_param {
    num_output: 384
    pad: 1
    kernel_size: 3
    weight_filler {
      type: "gaussian"
      std: 0.01
    }
    bias_filler {
      type: "constant"
      value: 0
    }
    engine: MKL2017
  }
}
layer {
  name: "relu3"
  type: "ReLU"
  bottom: "conv3"
  top: "conv3"
  relu_param {
    engine: MKL2017
  }
}
layer {
  name: "conv4"
  type: "Convolution"
  bottom: "conv3"
  top: "conv4"
  param {
    lr_mult: 1
    decay_mult: 1
  }
  param {
    lr_mult: 2
    decay_mult: 0
  }
  convolution_param {
    num_output: 384
    pad: 1
    kernel_size: 3
    group: 2
    weight_filler {
      type: "gaussian"
      std: 0.01
    }
    bias_filler {
      type: "constant"
      value: 0.1
    }
    engine: MKL2017
  }
}
layer {
  name: "relu4"
  type: "ReLU"
  bottom: "conv4"
  top: "conv4"
  relu_param {
    engine: MKL2017
  }
}
layer {
  name: "conv5"
  type: "Convolution"
  bottom: "conv4"
  top: "conv5"
  param {
    lr_mult: 1
    decay_mult: 1
  }
  param {
    lr_mult: 2
    decay_mult: 0
  }
  convolution_param {
    num_output: 256
    pad: 1
    kernel_size: 3
    group: 2
    weight_filler {
      type: "gaussian"
      std: 0.01
    }
    bias_filler {
      type: "constant"
      value: 0.1
    }
    engine: MKL2017
  }
}
layer {
  name: "relu5"
  type: "ReLU"
  bottom: "conv5"
  top: "conv5"
  relu_param {
    engine: MKL2017
  }
}
layer {
  name: "pool5"
  type: "Pooling"
  bottom: "conv5"
  top: "pool5"
  pooling_param {
    pool: MAX
    kernel_size: 3
    stride: 2
    engine: MKL2017
  }
}
layer {
  name: "fc6"
  type: "InnerProduct"
  bottom: "pool5"
  top: "fc6"
  param {
    lr_mult: 1
    decay_mult: 1
  }
  param {
    lr_mult: 2
    decay_mult: 0
  }
  inner_product_param {
    num_output: 4096
    weight_filler {
      type: "gaussian"
      std: 0.005
    }
    bias_filler {
      type: "constant"
      value: 0.1
    }
  }
}
layer {
  name: "relu6"
  type: "ReLU"
  bottom: "fc6"
  top: "fc6"
}
layer {
  name: "drop6"
  type: "Dropout"
  bottom: "fc6"
  top: "fc6"
  dropout_param {
    dropout_ratio: 0.5
  }
}
layer {
  name: "fc7"
  type: "InnerProduct"
  bottom: "fc6"
  top: "fc7"
  param {
    lr_mult: 1
    decay_mult: 1
  }
  param {
    lr_mult: 2
    decay_mult: 0
  }
  inner_product_param {
    num_output: 4096
    weight_filler {
      type: "gaussian"
      std: 0.005
    }
    bias_filler {
      type: "constant"
      value: 0.1
    }
  }
}
layer {
  name: "relu7"
  type: "ReLU"
  bottom: "fc7"
  top: "fc7"
}
layer {
  name: "drop7"
  type: "Dropout"
  bottom: "fc7"
  top: "fc7"
  dropout_param {
    dropout_ratio: 0.5
  }
}
layer {
  name: "fc8"
  type: "InnerProduct"
  bottom: "fc7"
  top: "fc8"
  param {
    lr_mult: 1
    decay_mult: 1
  }
  param {
    lr_mult: 2
    decay_mult: 0
  }
  inner_product_param {
    num_output: 1000
    weight_filler {
      type: "gaussian"
      std: 0.01
    }
    bias_filler {
      type: "constant"
      value: 0
    }
  }
}
layer {
  name: "fc8_fc8_0_split"
  type: "Split"
  bottom: "fc8"
  top: "fc8_fc8_0_split_0"
  top: "fc8_fc8_0_split_1"
}
layer {
  name: "accuracy"
  type: "Accuracy"
  bottom: "fc8_fc8_0_split_0"
  bottom: "label_data_1_split_0"
  top: "accuracy"
}
layer {
  name: "loss"
  type: "SoftmaxWithLoss"
  bottom: "fc8_fc8_0_split_1"
  bottom: "label_data_1_split_1"
  top: "loss"
}
I1226 14:57:30.086269 86421 cpu_info.cpp:473] Number of OpenMP threads: 66
I1226 14:57:30.086643 86421 net.cpp:500] The NetState phase (0) differed from the phase (1) specified by a rule in layer data
I1226 14:57:30.088964 86421 net.cpp:136] Initializing net from parameters: 
name: "AlexNet"
state {
  phase: TRAIN
  level: 0
  stage: ""
}
engine: "MKL2017"
layer {
  name: "data"
  type: "Data"
  top: "data"
  top: "label"
  include {
    phase: TRAIN
  }
  transform_param {
    mirror: true
    crop_size: 227
    mean_value: 104
    mean_value: 117
    mean_value: 123
  }
  data_param {
    source: "/export/data1/stanford/hazy/zjian/gorden_bell/ILSVRC2012_lmdb/db_8/ilsvrc12_train_lmdb_6"
    batch_size: 128
    backend: LMDB
  }
}
layer {
  name: "label_data_1_split"
  type: "Split"
  bottom: "label"
  top: "label_data_1_split_0"
  top: "label_data_1_split_1"
}
layer {
  name: "conv1"
  type: "Convolution"
  bottom: "data"
  top: "conv1"
  param {
    lr_mult: 1
    decay_mult: 1
  }
  param {
    lr_mult: 2
    decay_mult: 0
  }
  convolution_param {
    num_output: 96
    kernel_size: 11
    stride: 4
    weight_filler {
      type: "gaussian"
      std: 0.01
    }
    bias_filler {
      type: "constant"
      value: 0
    }
    engine: MKL2017
  }
}
layer {
  name: "relu1"
  type: "ReLU"
  bottom: "conv1"
  top: "conv1"
  relu_param {
    engine: MKL2017
  }
}
layer {
  name: "norm1"
  type: "LRN"
  bottom: "conv1"
  top: "norm1"
  lrn_param {
    local_size: 5
    alpha: 0.0001
    beta: 0.75
    engine: MKL2017
  }
}
layer {
  name: "pool1"
  type: "Pooling"
  bottom: "norm1"
  top: "pool1"
  pooling_param {
    pool: MAX
    kernel_size: 3
    stride: 2
    engine: MKL2017
  }
}
layer {
  name: "conv2"
  type: "Convolution"
  bottom: "pool1"
  top: "conv2"
  param {
    lr_mult: 1
    decay_mult: 1
  }
  param {
    lr_mult: 2
    decay_mult: 0
  }
  convolution_param {
    num_output: 256
    pad: 2
    kernel_size: 5
    group: 2
    weight_filler {
      type: "gaussian"
      std: 0.01
    }
    bias_filler {
      type: "constant"
      value: 0.1
    }
    engine: MKL2017
  }
}
layer {
  name: "relu2"
  type: "ReLU"
  bottom: "conv2"
  top: "conv2"
  relu_param {
    engine: MKL2017
  }
}
layer {
  name: "norm2"
  type: "LRN"
  bottom: "conv2"
  top: "norm2"
  lrn_param {
    local_size: 5
    alpha: 0.0001
    beta: 0.75
    engine: MKL2017
  }
}
layer {
  name: "pool2"
  type: "Pooling"
  bottom: "norm2"
  top: "pool2"
  pooling_param {
    pool: MAX
    kernel_size: 3
    stride: 2
    engine: MKL2017
  }
}
layer {
  name: "conv3"
  type: "Convolution"
  bottom: "pool2"
  top: "conv3"
  param {
    lr_mult: 1
    decay_mult: 1
  }
  param {
    lr_mult: 2
    decay_mult: 0
  }
  convolution_param {
    num_output: 384
    pad: 1
    kernel_size: 3
    weight_filler {
      type: "gaussian"
      std: 0.01
    }
    bias_filler {
      type: "constant"
      value: 0
    }
    engine: MKL2017
  }
}
layer {
  name: "relu3"
  type: "ReLU"
  bottom: "conv3"
  top: "conv3"
  relu_param {
    engine: MKL2017
  }
}
layer {
  name: "conv4"
  type: "Convolution"
  bottom: "conv3"
  top: "conv4"
  param {
    lr_mult: 1
    decay_mult: 1
  }
  param {
    lr_mult: 2
    decay_mult: 0
  }
  convolution_param {
    num_output: 384
    pad: 1
    kernel_size: 3
    group: 2
    weight_filler {
      type: "gaussian"
      std: 0.01
    }
    bias_filler {
      type: "constant"
      value: 0.1
    }
    engine: MKL2017
  }
}
layer {
  name: "relu4"
  type: "ReLU"
  bottom: "conv4"
  top: "conv4"
  relu_param {
    engine: MKL2017
  }
}
layer {
  name: "conv5"
  type: "Convolution"
  bottom: "conv4"
  top: "conv5"
  param {
    lr_mult: 1
    decay_mult: 1
  }
  param {
    lr_mult: 2
    decay_mult: 0
  }
  convolution_param {
    num_output: 256
    pad: 1
    kernel_size: 3
    group: 2
    weight_filler {
      type: "gaussian"
      std: 0.01
    }
    bias_filler {
      type: "constant"
      value: 0.1
    }
    engine: MKL2017
  }
}
layer {
  name: "relu5"
  type: "ReLU"
  bottom: "conv5"
  top: "conv5"
  relu_param {
    engine: MKL2017
  }
}
layer {
  name: "pool5"
  type: "Pooling"
  bottom: "conv5"
  top: "pool5"
  pooling_param {
    pool: MAX
    kernel_size: 3
    stride: 2
    engine: MKL2017
  }
}
layer {
  name: "fc6"
  type: "InnerProduct"
  bottom: "pool5"
  top: "fc6"
  param {
    lr_mult: 1
    decay_mult: 1
  }
  param {
    lr_mult: 2
    decay_mult: 0
  }
  inner_product_param {
    num_output: 4096
    weight_filler {
      type: "gaussian"
      std: 0.005
    }
    bias_filler {
      type: "constant"
      value: 0.1
    }
  }
}
layer {
  name: "relu6"
  type: "ReLU"
  bottom: "fc6"
  top: "fc6"
}
layer {
  name: "drop6"
  type: "Dropout"
  bottom: "fc6"
  top: "fc6"
  dropout_param {
    dropout_ratio: 0.5
  }
}
layer {
  name: "fc7"
  type: "InnerProduct"
  bottom: "fc6"
  top: "fc7"
  param {
    lr_mult: 1
    decay_mult: 1
  }
  param {
    lr_mult: 2
    decay_mult: 0
  }
  inner_product_param {
    num_output: 4096
    weight_filler {
      type: "gaussian"
      std: 0.005
    }
    bias_filler {
      type: "constant"
      value: 0.1
    }
  }
}
layer {
  name: "relu7"
  type: "ReLU"
  bottom: "fc7"
  top: "fc7"
}
layer {
  name: "drop7"
  type: "Dropout"
  bottom: "fc7"
  top: "fc7"
  dropout_param {
    dropout_ratio: 0.5
  }
}
layer {
  name: "fc8"
  type: "InnerProduct"
  bottom: "fc7"
  top: "fc8"
  param {
    lr_mult: 1
    decay_mult: 1
  }
  param {
    lr_mult: 2
    decay_mult: 0
  }
  inner_product_param {
    num_output: 1000
    weight_filler {
      type: "gaussian"
      std: 0.01
    }
    bias_filler {
      type: "constant"
      value: 0
    }
  }
}
layer {
  name: "fc8_fc8_0_split"
  type: "Split"
  bottom: "fc8"
  top: "fc8_fc8_0_split_0"
  top: "fc8_fc8_0_split_1"
}
layer {
  name: "accuracy"
  type: "Accuracy"
  bottom: "fc8_fc8_0_split_0"
  bottom: "label_data_1_split_0"
  top: "accuracy"
}
layer {
  name: "loss"
  type: "SoftmaxWithLoss"
  bottom: "fc8_fc8_0_split_1"
  bottom: "label_data_1_split_1"
  top: "loss"
}
I1226 14:57:30.083082 93926 cpu_info.cpp:473] Number of OpenMP threads: 66
I1226 14:57:30.083472 93926 net.cpp:500] The NetState phase (0) differed from the phase (1) specified by a rule in layer data
I1226 14:57:30.085786 93926 net.cpp:136] Initializing net from parameters: 
name: "AlexNet"
state {
  phase: TRAIN
  level: 0
  stage: ""
}
engine: "MKL2017"
layer {
  name: "data"
  type: "DummyData"
  top: "data"
  top: "label"
  include {
    phase: TRAIN
  }
  transform_param {
    mirror: true
    crop_size: 227
    mean_value: 104
    mean_value: 117
    mean_value: 123
  }
  dummy_data_param {
    data_filler {
      type: "gaussian"
      std: 1
    }
    data_filler {
      type: "constant"
      value: 0
    }
    shape {
      dim: 128
      dim: 3
      dim: 227
      dim: 227
    }
    shape {
      dim: 128
      dim: 1
      dim: 1
      dim: 1
    }
  }
}
layer {
  name: "label_data_1_split"
  type: "Split"
  bottom: "label"
  top: "label_data_1_split_0"
  top: "label_data_1_split_1"
}
layer {
  name: "conv1"
  type: "Convolution"
  bottom: "data"
  top: "conv1"
  param {
    lr_mult: 1
    decay_mult: 1
  }
  param {
    lr_mult: 2
    decay_mult: 0
  }
  convolution_param {
    num_output: 96
    kernel_size: 11
    stride: 4
    weight_filler {
      type: "gaussian"
      std: 0.01
    }
    bias_filler {
      type: "constant"
      value: 0
    }
    engine: MKL2017
  }
}
layer {
  name: "relu1"
  type: "ReLU"
  bottom: "conv1"
  top: "conv1"
  relu_param {
    engine: MKL2017
  }
}
layer {
  name: "norm1"
  type: "LRN"
  bottom: "conv1"
  top: "norm1"
  lrn_param {
    local_size: 5
    alpha: 0.0001
    beta: 0.75
    engine: MKL2017
  }
}
layer {
  name: "pool1"
  type: "Pooling"
  bottom: "norm1"
  top: "pool1"
  pooling_param {
    pool: MAX
    kernel_size: 3
    stride: 2
    engine: MKL2017
  }
}
layer {
  name: "conv2"
  type: "Convolution"
  bottom: "pool1"
  top: "conv2"
  param {
    lr_mult: 1
    decay_mult: 1
  }
  param {
    lr_mult: 2
    decay_mult: 0
  }
  convolution_param {
    num_output: 256
    pad: 2
    kernel_size: 5
    group: 2
    weight_filler {
      type: "gaussian"
      std: 0.01
    }
    bias_filler {
      type: "constant"
      value: 0.1
    }
    engine: MKL2017
  }
}
layer {
  name: "relu2"
  type: "ReLU"
  bottom: "conv2"
  top: "conv2"
  relu_param {
    engine: MKL2017
  }
}
layer {
  name: "norm2"
  type: "LRN"
  bottom: "conv2"
  top: "norm2"
  lrn_param {
    local_size: 5
    alpha: 0.0001
    beta: 0.75
    engine: MKL2017
  }
}
layer {
  name: "pool2"
  type: "Pooling"
  bottom: "norm2"
  top: "pool2"
  pooling_param {
    pool: MAX
    kernel_size: 3
    stride: 2
    engine: MKL2017
  }
}
layer {
  name: "conv3"
  type: "Convolution"
  bottom: "pool2"
  top: "conv3"
  param {
    lr_mult: 1
    decay_mult: 1
  }
  param {
    lr_mult: 2
    decay_mult: 0
  }
  convolution_param {
    num_output: 384
    pad: 1
    kernel_size: 3
    weight_filler {
      type: "gaussian"
      std: 0.01
    }
    bias_filler {
      type: "constant"
      value: 0
    }
    engine: MKL2017
  }
}
layer {
  name: "relu3"
  type: "ReLU"
  bottom: "conv3"
  top: "conv3"
  relu_param {
    engine: MKL2017
  }
}
layer {
  name: "conv4"
  type: "Convolution"
  bottom: "conv3"
  top: "conv4"
  param {
    lr_mult: 1
    decay_mult: 1
  }
  param {
    lr_mult: 2
    decay_mult: 0
  }
  convolution_param {
    num_output: 384
    pad: 1
    kernel_size: 3
    group: 2
    weight_filler {
      type: "gaussian"
      std: 0.01
    }
    bias_filler {
      type: "constant"
      value: 0.1
    }
    engine: MKL2017
  }
}
layer {
  name: "relu4"
  type: "ReLU"
  bottom: "conv4"
  top: "conv4"
  relu_param {
    engine: MKL2017
  }
}
layer {
  name: "conv5"
  type: "Convolution"
  bottom: "conv4"
  top: "conv5"
  param {
    lr_mult: 1
    decay_mult: 1
  }
  param {
    lr_mult: 2
    decay_mult: 0
  }
  convolution_param {
    num_output: 256
    pad: 1
    kernel_size: 3
    group: 2
    weight_filler {
      type: "gaussian"
      std: 0.01
    }
    bias_filler {
      type: "constant"
      value: 0.1
    }
    engine: MKL2017
  }
}
layer {
  name: "relu5"
  type: "ReLU"
  bottom: "conv5"
  top: "conv5"
  relu_param {
    engine: MKL2017
  }
}
layer {
  name: "pool5"
  type: "Pooling"
  bottom: "conv5"
  top: "pool5"
  pooling_param {
    pool: MAX
    kernel_size: 3
    stride: 2
    engine: MKL2017
  }
}
layer {
  name: "fc6"
  type: "InnerProduct"
  bottom: "pool5"
  top: "fc6"
  param {
    lr_mult: 1
    decay_mult: 1
  }
  param {
    lr_mult: 2
    decay_mult: 0
  }
  inner_product_param {
    num_output: 4096
    weight_filler {
      type: "gaussian"
      std: 0.005
    }
    bias_filler {
      type: "constant"
      value: 0.1
    }
  }
}
layer {
  name: "relu6"
  type: "ReLU"
  bottom: "fc6"
  top: "fc6"
}
layer {
  name: "drop6"
  type: "Dropout"
  bottom: "fc6"
  top: "fc6"
  dropout_param {
    dropout_ratio: 0.5
  }
}
layer {
  name: "fc7"
  type: "InnerProduct"
  bottom: "fc6"
  top: "fc7"
  param {
    lr_mult: 1
    decay_mult: 1
  }
  param {
    lr_mult: 2
    decay_mult: 0
  }
  inner_product_param {
    num_output: 4096
    weight_filler {
      type: "gaussian"
      std: 0.005
    }
    bias_filler {
      type: "constant"
      value: 0.1
    }
  }
}
layer {
  name: "relu7"
  type: "ReLU"
  bottom: "fc7"
  top: "fc7"
}
layer {
  name: "drop7"
  type: "Dropout"
  bottom: "fc7"
  top: "fc7"
  dropout_param {
    dropout_ratio: 0.5
  }
}
layer {
  name: "fc8"
  type: "InnerProduct"
  bottom: "fc7"
  top: "fc8"
  param {
    lr_mult: 1
    decay_mult: 1
  }
  param {
    lr_mult: 2
    decay_mult: 0
  }
  inner_product_param {
    num_output: 1000
    weight_filler {
      type: "gaussian"
      std: 0.01
    }
    bias_filler {
      type: "constant"
      value: 0
    }
  }
}
layer {
  name: "fc8_fc8_0_split"
  type: "Split"
  bottom: "fc8"
  top: "fc8_fc8_0_split_0"
  top: "fc8_fc8_0_split_1"
}
layer {
  name: "accuracy"
  type: "Accuracy"
  bottom: "fc8_fc8_0_split_0"
  bottom: "label_data_1_split_0"
  top: "accuracy"
}
layer {
  name: "loss"
  type: "SoftmaxWithLoss"
  bottom: "fc8_fc8_0_split_1"
  bottom: "label_data_1_split_1"
  top: "loss"
}
I1226 14:57:30.076210 97855 layer_factory.hpp:114] Creating layer data
I1226 14:57:30.113039 91862 cpu_info.cpp:473] Number of OpenMP threads: 66
I1226 14:57:30.113445 91862 net.cpp:500] The NetState phase (0) differed from the phase (1) specified by a rule in layer data
I1226 14:57:30.115236 91862 net.cpp:136] Initializing net from parameters: 
name: "AlexNet"
state {
  phase: TRAIN
  level: 0
  stage: ""
}
engine: "MKL2017"
layer {
  name: "data"
  type: "Data"
  top: "data"
  top: "label"
  include {
    phase: TRAIN
  }
  transform_param {
    mirror: true
    crop_size: 227
    mean_value: 104
    mean_value: 117
    mean_value: 123
  }
  data_param {
    source: "/export/data1/stanford/hazy/zjian/gorden_bell/ILSVRC2012_lmdb/db_8/ilsvrc12_train_lmdb_7"
    batch_size: 128
    backend: LMDB
  }
}
layer {
  name: "label_data_1_split"
  type: "Split"
  bottom: "label"
  top: "label_data_1_split_0"
  top: "label_data_1_split_1"
}
layer {
  name: "conv1"
  type: "Convolution"
  bottom: "data"
  top: "conv1"
  param {
    lr_mult: 1
    decay_mult: 1
  }
  param {
    lr_mult: 2
    decay_mult: 0
  }
  convolution_param {
    num_output: 96
    kernel_size: 11
    stride: 4
    weight_filler {
      type: "gaussian"
      std: 0.01
    }
    bias_filler {
      type: "constant"
      value: 0
    }
    engine: MKL2017
  }
}
layer {
  name: "relu1"
  type: "ReLU"
  bottom: "conv1"
  top: "conv1"
  relu_param {
    engine: MKL2017
  }
}
layer {
  name: "norm1"
  type: "LRN"
  bottom: "conv1"
  top: "norm1"
  lrn_param {
    local_size: 5
    alpha: 0.0001
    beta: 0.75
    engine: MKL2017
  }
}
layer {
  name: "pool1"
  type: "Pooling"
  bottom: "norm1"
  top: "pool1"
  pooling_param {
    pool: MAX
    kernel_size: 3
    stride: 2
    engine: MKL2017
  }
}
layer {
  name: "conv2"
  type: "Convolution"
  bottom: "pool1"
  top: "conv2"
  param {
    lr_mult: 1
    decay_mult: 1
  }
  param {
    lr_mult: 2
    decay_mult: 0
  }
  convolution_param {
    num_output: 256
    pad: 2
    kernel_size: 5
    group: 2
    weight_filler {
      type: "gaussian"
      std: 0.01
    }
    bias_filler {
      type: "constant"
      value: 0.1
    }
    engine: MKL2017
  }
}
layer {
  name: "relu2"
  type: "ReLU"
  bottom: "conv2"
  top: "conv2"
  relu_param {
    engine: MKL2017
  }
}
layer {
  name: "norm2"
  type: "LRN"
  bottom: "conv2"
  top: "norm2"
  lrn_param {
    local_size: 5
    alpha: 0.0001
    beta: 0.75
    engine: MKL2017
  }
}
layer {
  name: "pool2"
  type: "Pooling"
  bottom: "norm2"
  top: "pool2"
  pooling_param {
    pool: MAX
    kernel_size: 3
    stride: 2
    engine: MKL2017
  }
}
layer {
  name: "conv3"
  type: "Convolution"
  bottom: "pool2"
  top: "conv3"
  param {
    lr_mult: 1
    decay_mult: 1
  }
  param {
    lr_mult: 2
    decay_mult: 0
  }
  convolution_param {
    num_output: 384
    pad: 1
    kernel_size: 3
    weight_filler {
      type: "gaussian"
      std: 0.01
    }
    bias_filler {
      type: "constant"
      value: 0
    }
    engine: MKL2017
  }
}
layer {
  name: "relu3"
  type: "ReLU"
  bottom: "conv3"
  top: "conv3"
  relu_param {
    engine: MKL2017
  }
}
layer {
  name: "conv4"
  type: "Convolution"
  bottom: "conv3"
  top: "conv4"
  param {
    lr_mult: 1
    decay_mult: 1
  }
  param {
    lr_mult: 2
    decay_mult: 0
  }
  convolution_param {
    num_output: 384
    pad: 1
    kernel_size: 3
    group: 2
    weight_filler {
      type: "gaussian"
      std: 0.01
    }
    bias_filler {
      type: "constant"
      value: 0.1
    }
    engine: MKL2017
  }
}
layer {
  name: "relu4"
  type: "ReLU"
  bottom: "conv4"
  top: "conv4"
  relu_param {
    engine: MKL2017
  }
}
layer {
  name: "conv5"
  type: "Convolution"
  bottom: "conv4"
  top: "conv5"
  param {
    lr_mult: 1
    decay_mult: 1
  }
  param {
    lr_mult: 2
    decay_mult: 0
  }
  convolution_param {
    num_output: 256
    pad: 1
    kernel_size: 3
    group: 2
    weight_filler {
      type: "gaussian"
      std: 0.01
    }
    bias_filler {
      type: "constant"
      value: 0.1
    }
    engine: MKL2017
  }
}
layer {
  name: "relu5"
  type: "ReLU"
  bottom: "conv5"
  top: "conv5"
  relu_param {
    engine: MKL2017
  }
}
layer {
  name: "pool5"
  type: "Pooling"
  bottom: "conv5"
  top: "pool5"
  pooling_param {
    pool: MAX
    kernel_size: 3
    stride: 2
    engine: MKL2017
  }
}
layer {
  name: "fc6"
  type: "InnerProduct"
  bottom: "pool5"
  top: "fc6"
  param {
    lr_mult: 1
    decay_mult: 1
  }
  param {
    lr_mult: 2
    decay_mult: 0
  }
  inner_product_param {
    num_output: 4096
    weight_filler {
      type: "gaussian"
      std: 0.005
    }
    bias_filler {
      type: "constant"
      value: 0.1
    }
  }
}
layer {
  name: "relu6"
  type: "ReLU"
  bottom: "fc6"
  top: "fc6"
}
layer {
  name: "drop6"
  type: "Dropout"
  bottom: "fc6"
  top: "fc6"
  dropout_param {
    dropout_ratio: 0.5
  }
}
layer {
  name: "fc7"
  type: "InnerProduct"
  bottom: "fc6"
  top: "fc7"
  param {
    lr_mult: 1
    decay_mult: 1
  }
  param {
    lr_mult: 2
    decay_mult: 0
  }
  inner_product_param {
    num_output: 4096
    weight_filler {
      type: "gaussian"
      std: 0.005
    }
    bias_filler {
      type: "constant"
      value: 0.1
    }
  }
}
layer {
  name: "relu7"
  type: "ReLU"
  bottom: "fc7"
  top: "fc7"
}
layer {
  name: "drop7"
  type: "Dropout"
  bottom: "fc7"
  top: "fc7"
  dropout_param {
    dropout_ratio: 0.5
  }
}
layer {
  name: "fc8"
  type: "InnerProduct"
  bottom: "fc7"
  top: "fc8"
  param {
    lr_mult: 1
    decay_mult: 1
  }
  param {
    lr_mult: 2
    decay_mult: 0
  }
  inner_product_param {
    num_output: 1000
    weight_filler {
      type: "gaussian"
      std: 0.01
    }
    bias_filler {
      type: "constant"
      value: 0
    }
  }
}
layer {
  name: "fc8_fc8_0_split"
  type: "Split"
  bottom: "fc8"
  top: "fc8_fc8_0_split_0"
  top: "fc8_fc8_0_split_1"
}
layer {
  name: "accuracy"
  type: "Accuracy"
  bottom: "fc8_fc8_0_split_0"
  bottom: "label_data_1_split_0"
  top: "accuracy"
}
layer {
  name: "loss"
  type: "SoftmaxWithLoss"
  bottom: "fc8_fc8_0_split_1"
  bottom: "label_data_1_split_1"
  top: "loss"
}
I1226 14:57:30.103436 91414 cpu_info.cpp:473] Number of OpenMP threads: 66
I1226 14:57:30.103821 91414 net.cpp:500] The NetState phase (0) differed from the phase (1) specified by a rule in layer data
I1226 14:57:30.105808 91414 net.cpp:136] Initializing net from parameters: 
name: "AlexNet"
state {
  phase: TRAIN
  level: 0
  stage: ""
}
engine: "MKL2017"
layer {
  name: "data"
  type: "Data"
  top: "data"
  top: "label"
  include {
    phase: TRAIN
  }
  transform_param {
    mirror: true
    crop_size: 227
    mean_value: 104
    mean_value: 117
    mean_value: 123
  }
  data_param {
    source: "/export/data1/stanford/hazy/zjian/gorden_bell/ILSVRC2012_lmdb/db_8/ilsvrc12_train_lmdb_3"
    batch_size: 128
    backend: LMDB
  }
}
layer {
  name: "label_data_1_split"
  type: "Split"
  bottom: "label"
  top: "label_data_1_split_0"
  top: "label_data_1_split_1"
}
layer {
  name: "conv1"
  type: "Convolution"
  bottom: "data"
  top: "conv1"
  param {
    lr_mult: 1
    decay_mult: 1
  }
  param {
    lr_mult: 2
    decay_mult: 0
  }
  convolution_param {
    num_output: 96
    kernel_size: 11
    stride: 4
    weight_filler {
      type: "gaussian"
      std: 0.01
    }
    bias_filler {
      type: "constant"
      value: 0
    }
    engine: MKL2017
  }
}
layer {
  name: "relu1"
  type: "ReLU"
  bottom: "conv1"
  top: "conv1"
  relu_param {
    engine: MKL2017
  }
}
layer {
  name: "norm1"
  type: "LRN"
  bottom: "conv1"
  top: "norm1"
  lrn_param {
    local_size: 5
    alpha: 0.0001
    beta: 0.75
    engine: MKL2017
  }
}
layer {
  name: "pool1"
  type: "Pooling"
  bottom: "norm1"
  top: "pool1"
  pooling_param {
    pool: MAX
    kernel_size: 3
    stride: 2
    engine: MKL2017
  }
}
layer {
  name: "conv2"
  type: "Convolution"
  bottom: "pool1"
  top: "conv2"
  param {
    lr_mult: 1
    decay_mult: 1
  }
  param {
    lr_mult: 2
    decay_mult: 0
  }
  convolution_param {
    num_output: 256
    pad: 2
    kernel_size: 5
    group: 2
    weight_filler {
      type: "gaussian"
      std: 0.01
    }
    bias_filler {
      type: "constant"
      value: 0.1
    }
    engine: MKL2017
  }
}
layer {
  name: "relu2"
  type: "ReLU"
  bottom: "conv2"
  top: "conv2"
  relu_param {
    engine: MKL2017
  }
}
layer {
  name: "norm2"
  type: "LRN"
  bottom: "conv2"
  top: "norm2"
  lrn_param {
    local_size: 5
    alpha: 0.0001
    beta: 0.75
    engine: MKL2017
  }
}
layer {
  name: "pool2"
  type: "Pooling"
  bottom: "norm2"
  top: "pool2"
  pooling_param {
    pool: MAX
    kernel_size: 3
    stride: 2
    engine: MKL2017
  }
}
layer {
  name: "conv3"
  type: "Convolution"
  bottom: "pool2"
  top: "conv3"
  param {
    lr_mult: 1
    decay_mult: 1
  }
  param {
    lr_mult: 2
    decay_mult: 0
  }
  convolution_param {
    num_output: 384
    pad: 1
    kernel_size: 3
    weight_filler {
      type: "gaussian"
      std: 0.01
    }
    bias_filler {
      type: "constant"
      value: 0
    }
    engine: MKL2017
  }
}
layer {
  name: "relu3"
  type: "ReLU"
  bottom: "conv3"
  top: "conv3"
  relu_param {
    engine: MKL2017
  }
}
layer {
  name: "conv4"
  type: "Convolution"
  bottom: "conv3"
  top: "conv4"
  param {
    lr_mult: 1
    decay_mult: 1
  }
  param {
    lr_mult: 2
    decay_mult: 0
  }
  convolution_param {
    num_output: 384
    pad: 1
    kernel_size: 3
    group: 2
    weight_filler {
      type: "gaussian"
      std: 0.01
    }
    bias_filler {
      type: "constant"
      value: 0.1
    }
    engine: MKL2017
  }
}
layer {
  name: "relu4"
  type: "ReLU"
  bottom: "conv4"
  top: "conv4"
  relu_param {
    engine: MKL2017
  }
}
layer {
  name: "conv5"
  type: "Convolution"
  bottom: "conv4"
  top: "conv5"
  param {
    lr_mult: 1
    decay_mult: 1
  }
  param {
    lr_mult: 2
    decay_mult: 0
  }
  convolution_param {
    num_output: 256
    pad: 1
    kernel_size: 3
    group: 2
    weight_filler {
      type: "gaussian"
      std: 0.01
    }
    bias_filler {
      type: "constant"
      value: 0.1
    }
    engine: MKL2017
  }
}
layer {
  name: "relu5"
  type: "ReLU"
  bottom: "conv5"
  top: "conv5"
  relu_param {
    engine: MKL2017
  }
}
layer {
  name: "pool5"
  type: "Pooling"
  bottom: "conv5"
  top: "pool5"
  pooling_param {
    pool: MAX
    kernel_size: 3
    stride: 2
    engine: MKL2017
  }
}
layer {
  name: "fc6"
  type: "InnerProduct"
  bottom: "pool5"
  top: "fc6"
  param {
    lr_mult: 1
    decay_mult: 1
  }
  param {
    lr_mult: 2
    decay_mult: 0
  }
  inner_product_param {
    num_output: 4096
    weight_filler {
      type: "gaussian"
      std: 0.005
    }
    bias_filler {
      type: "constant"
      value: 0.1
    }
  }
}
layer {
  name: "relu6"
  type: "ReLU"
  bottom: "fc6"
  top: "fc6"
}
layer {
  name: "drop6"
  type: "Dropout"
  bottom: "fc6"
  top: "fc6"
  dropout_param {
    dropout_ratio: 0.5
  }
}
layer {
  name: "fc7"
  type: "InnerProduct"
  bottom: "fc6"
  top: "fc7"
  param {
    lr_mult: 1
    decay_mult: 1
  }
  param {
    lr_mult: 2
    decay_mult: 0
  }
  inner_product_param {
    num_output: 4096
    weight_filler {
      type: "gaussian"
      std: 0.005
    }
    bias_filler {
      type: "constant"
      value: 0.1
    }
  }
}
layer {
  name: "relu7"
  type: "ReLU"
  bottom: "fc7"
  top: "fc7"
}
layer {
  name: "drop7"
  type: "Dropout"
  bottom: "fc7"
  top: "fc7"
  dropout_param {
    dropout_ratio: 0.5
  }
}
layer {
  name: "fc8"
  type: "InnerProduct"
  bottom: "fc7"
  top: "fc8"
  param {
    lr_mult: 1
    decay_mult: 1
  }
  param {
    lr_mult: 2
    decay_mult: 0
  }
  inner_product_param {
    num_output: 1000
    weight_filler {
      type: "gaussian"
      std: 0.01
    }
    bias_filler {
      type: "constant"
      value: 0
    }
  }
}
layer {
  name: "fc8_fc8_0_split"
  type: "Split"
  bottom: "fc8"
  top: "fc8_fc8_0_split_0"
  top: "fc8_fc8_0_split_1"
}
layer {
  name: "accuracy"
  type: "Accuracy"
  bottom: "fc8_fc8_0_split_0"
  bottom: "label_data_1_split_0"
  top: "accuracy"
}
layer {
  name: "loss"
  type: "SoftmaxWithLoss"
  bottom: "fc8_fc8_0_split_1"
  bottom: "label_data_1_split_1"
  top: "loss"
}
I1226 14:57:30.102702 97855 net.cpp:178] Creating Layer data
I1226 14:57:30.102881 97855 net.cpp:586] data -> data
I1226 14:57:30.103010 97855 net.cpp:586] data -> label
I1226 14:57:30.132627 91414 layer_factory.hpp:114] Creating layer data
I1226 14:57:30.142817 118646 layer_factory.hpp:114] Creating layer data
I1226 14:57:30.140138 93926 layer_factory.hpp:114] Creating layer data
…
I1226 14:57:30.222519 86421 net.cpp:586] data -> data
I1226 14:57:30.222618 86421 net.cpp:586] data -> label
I1226 14:57:30.215106 91417 db_lmdb.cpp:72] Opened lmdb /export/data1/stanford/hazy/zjian/gorden_bell/ILSVRC2012_lmdb/db_8/ilsvrc12_train_lmdb_3
I1226 14:57:30.216028 95720 data_layer.cpp:80] output data size: 128,3,227,227
I1226 14:57:30.205433 97424 net.cpp:178] Creating Layer data
I1226 14:57:30.205564 97424 net.cpp:586] data -> data
I1226 14:57:30.205680 97424 net.cpp:586] data -> label
I1226 14:57:30.229948 93926 net.cpp:228] Setting up data
I1226 14:57:30.230077 93926 net.cpp:235] Top shape: 128 3 227 227 (19787136)
I1226 14:57:30.230121 93926 net.cpp:235] Top shape: 128 1 1 1 (128)
I1226 14:57:30.230149 93926 net.cpp:243] Memory required for data: 79149056
I1226 14:57:30.230193 93926 layer_factory.hpp:114] Creating layer label_data_1_split
I1226 14:57:30.230428 93926 net.cpp:178] Creating Layer label_data_1_split
I1226 14:57:30.230583 93926 net.cpp:612] label_data_1_split <- label
I1226 14:57:30.230633 93926 net.cpp:586] label_data_1_split -> label_data_1_split_0
I1226 14:57:30.230710 93926 net.cpp:586] label_data_1_split -> label_data_1_split_1
I1226 14:57:30.215737 97426 db_lmdb.cpp:72] Opened lmdb /export/data1/stanford/hazy/zjian/gorden_bell/ILSVRC2012_lmdb/db_8/ilsvrc12_train_lmdb_2
I1226 14:57:30.241672 118646 data_layer.cpp:80] output data size: 128,3,227,227
I1226 14:57:30.220367 97424 data_layer.cpp:80] output data size: 128,3,227,227
I1226 14:57:30.248502 86423 db_lmdb.cpp:72] Opened lmdb /export/data1/stanford/hazy/zjian/gorden_bell/ILSVRC2012_lmdb/db_8/ilsvrc12_train_lmdb_6
I1226 14:57:30.233408 94948 db_lmdb.cpp:72] Opened lmdb /export/data1/stanford/hazy/zjian/gorden_bell/ILSVRC2012_lmdb/db_8/ilsvrc12_train_lmdb_1
I1226 14:57:30.255126 91864 db_lmdb.cpp:72] Opened lmdb /export/data1/stanford/hazy/zjian/gorden_bell/ILSVRC2012_lmdb/db_8/ilsvrc12_train_lmdb_7
I1226 14:57:30.242730 93926 net.cpp:228] Setting up label_data_1_split
I1226 14:57:30.242825 93926 net.cpp:235] Top shape: 128 1 1 1 (128)
I1226 14:57:30.242857 93926 net.cpp:235] Top shape: 128 1 1 1 (128)
I1226 14:57:30.242879 93926 net.cpp:243] Memory required for data: 79150080
I1226 14:57:30.242930 93926 layer_factory.hpp:114] Creating layer conv1
I1226 14:57:30.243021 93926 net.cpp:178] Creating Layer conv1
I1226 14:57:30.243053 93926 net.cpp:612] conv1 <- data
I1226 14:57:30.243093 93926 net.cpp:586] conv1 -> conv1
I1226 14:57:30.256434 86421 data_layer.cpp:80] output data size: 128,3,227,227
I1226 14:57:30.258285 91414 data_layer.cpp:80] output data size: 128,3,227,227
I1226 14:57:30.257117 94946 data_layer.cpp:80] output data size: 128,3,227,227
I1226 14:57:30.280210 91862 data_layer.cpp:80] output data size: 128,3,227,227
I1226 14:57:30.394507 86421 net.cpp:228] Setting up data
I1226 14:57:30.394991 86421 net.cpp:235] Top shape: 128 3 227 227 (19787136)
I1226 14:57:30.395079 86421 net.cpp:235] Top shape: 128 (128)
I1226 14:57:30.395143 86421 net.cpp:243] Memory required for data: 79149056
I1226 14:57:30.395212 86421 layer_factory.hpp:114] Creating layer label_data_1_split
I1226 14:57:30.395308 86421 net.cpp:178] Creating Layer label_data_1_split
I1226 14:57:30.395443 86421 net.cpp:612] label_data_1_split <- label
I1226 14:57:30.395491 86421 net.cpp:586] label_data_1_split -> label_data_1_split_0
I1226 14:57:30.395542 86421 net.cpp:586] label_data_1_split -> label_data_1_split_1
I1226 14:57:30.400836 118646 net.cpp:228] Setting up data
I1226 14:57:30.400966 118646 net.cpp:235] Top shape: 128 3 227 227 (19787136)
I1226 14:57:30.401007 118646 net.cpp:235] Top shape: 128 (128)
I1226 14:57:30.401034 118646 net.cpp:243] Memory required for data: 79149056
I1226 14:57:30.401080 118646 layer_factory.hpp:114] Creating layer label_data_1_split
I1226 14:57:30.401278 118646 net.cpp:178] Creating Layer label_data_1_split
I1226 14:57:30.401324 118646 net.cpp:612] label_data_1_split <- label
I1226 14:57:30.401367 118646 net.cpp:586] label_data_1_split -> label_data_1_split_0
I1226 14:57:30.401417 118646 net.cpp:586] label_data_1_split -> label_data_1_split_1
I1226 14:57:30.408872 91862 net.cpp:228] Setting up data
I1226 14:57:30.409008 91862 net.cpp:235] Top shape: 128 3 227 227 (19787136)
I1226 14:57:30.409078 91862 net.cpp:235] Top shape: 128 (128)
I1226 14:57:30.409106 91862 net.cpp:243] Memory required for data: 79149056
I1226 14:57:30.409159 91862 layer_factory.hpp:114] Creating layer label_data_1_split
I1226 14:57:30.409250 91862 net.cpp:178] Creating Layer label_data_1_split
I1226 14:57:30.409385 91862 net.cpp:612] label_data_1_split <- label
I1226 14:57:30.409493 91862 net.cpp:586] label_data_1_split -> label_data_1_split_0
I1226 14:57:30.409555 91862 net.cpp:586] label_data_1_split -> label_data_1_split_1
I1226 14:57:30.399590 93926 net.cpp:228] Setting up conv1
I1226 14:57:30.399729 93926 net.cpp:235] Top shape: 128 96 55 55 (37171200)
I1226 14:57:30.399756 93926 net.cpp:243] Memory required for data: 227834880
I1226 14:57:30.399862 93926 layer_factory.hpp:114] Creating layer relu1
I1226 14:57:30.399950 93926 net.cpp:178] Creating Layer relu1
I1226 14:57:30.399986 93926 net.cpp:612] relu1 <- conv1
I1226 14:57:30.400027 93926 net.cpp:573] relu1 -> conv1 (in-place)
I1226 14:57:30.400126 93926 net.cpp:228] Setting up relu1
I1226 14:57:30.400167 93926 net.cpp:235] Top shape: 128 96 55 55 (37171200)
I1226 14:57:30.400189 93926 net.cpp:243] Memory required for data: 376519680
I1226 14:57:30.400221 93926 layer_factory.hpp:114] Creating layer norm1
I1226 14:57:30.400279 93926 net.cpp:178] Creating Layer norm1
I1226 14:57:30.400303 93926 net.cpp:612] norm1 <- conv1
I1226 14:57:30.400334 93926 net.cpp:586] norm1 -> norm1
I1226 14:57:30.400418 93926 net.cpp:228] Setting up norm1
I1226 14:57:30.400465 93926 net.cpp:235] Top shape: 128 96 55 55 (37171200)
I1226 14:57:30.400488 93926 net.cpp:243] Memory required for data: 525204480
I1226 14:57:30.400514 93926 layer_factory.hpp:114] Creating layer pool1
I1226 14:57:30.400558 93926 net.cpp:178] Creating Layer pool1
I1226 14:57:30.400588 93926 net.cpp:612] pool1 <- norm1
I1226 14:57:30.400626 93926 net.cpp:586] pool1 -> pool1
I1226 14:57:30.400732 93926 net.cpp:228] Setting up pool1
I1226 14:57:30.400773 93926 net.cpp:235] Top shape: 128 96 27 27 (8957952)
I1226 14:57:30.400794 93926 net.cpp:243] Memory required for data: 561036288
I1226 14:57:30.400820 93926 layer_factory.hpp:114] Creating layer conv2
I1226 14:57:30.400883 93926 net.cpp:178] Creating Layer conv2
I1226 14:57:30.400908 93926 net.cpp:612] conv2 <- pool1
I1226 14:57:30.400950 93926 net.cpp:586] conv2 -> conv2
I1226 14:57:30.399288 94946 net.cpp:228] Setting up data
I1226 14:57:30.399466 94946 net.cpp:235] Top shape: 128 3 227 227 (19787136)
I1226 14:57:30.399516 94946 net.cpp:235] Top shape: 128 (128)
I1226 14:57:30.399649 94946 net.cpp:243] Memory required for data: 79149056
I1226 14:57:30.399695 94946 layer_factory.hpp:114] Creating layer label_data_1_split
I1226 14:57:30.399874 94946 net.cpp:178] Creating Layer label_data_1_split
I1226 14:57:30.400351 94946 net.cpp:612] label_data_1_split <- label
I1226 14:57:30.400518 94946 net.cpp:586] label_data_1_split -> label_data_1_split_0
I1226 14:57:30.400607 94946 net.cpp:586] label_data_1_split -> label_data_1_split_1
I1226 14:57:30.422890 91862 net.cpp:228] Setting up label_data_1_split
I1226 14:57:30.422996 91862 net.cpp:235] Top shape: 128 (128)
I1226 14:57:30.423030 91862 net.cpp:235] Top shape: 128 (128)
I1226 14:57:30.423055 91862 net.cpp:243] Memory required for data: 79150080
I1226 14:57:30.423089 91862 layer_factory.hpp:114] Creating layer conv1
I1226 14:57:30.423517 91862 net.cpp:178] Creating Layer conv1
I1226 14:57:30.423583 91862 net.cpp:612] conv1 <- data
I1226 14:57:30.423640 91862 net.cpp:586] conv1 -> conv1
I1226 14:57:30.415160 91414 net.cpp:228] Setting up data
I1226 14:57:30.415319 91414 net.cpp:235] Top shape: 128 3 227 227 (19787136)
I1226 14:57:30.415362 91414 net.cpp:235] Top shape: 128 (128)
I1226 14:57:30.415388 91414 net.cpp:243] Memory required for data: 79149056
I1226 14:57:30.415437 91414 layer_factory.hpp:114] Creating layer label_data_1_split
I1226 14:57:30.415524 91414 net.cpp:178] Creating Layer label_data_1_split
I1226 14:57:30.415654 91414 net.cpp:612] label_data_1_split <- label
I1226 14:57:30.415705 91414 net.cpp:586] label_data_1_split -> label_data_1_split_0
I1226 14:57:30.415766 91414 net.cpp:586] label_data_1_split -> label_data_1_split_1
I1226 14:57:30.428503 86421 net.cpp:228] Setting up label_data_1_split
I1226 14:57:30.428607 86421 net.cpp:235] Top shape: 128 (128)
I1226 14:57:30.428640 86421 net.cpp:235] Top shape: 128 (128)
I1226 14:57:30.428689 86421 net.cpp:243] Memory required for data: 79150080
I1226 14:57:30.428726 86421 layer_factory.hpp:114] Creating layer conv1
I1226 14:57:30.428963 86421 net.cpp:178] Creating Layer conv1
I1226 14:57:30.429004 86421 net.cpp:612] conv1 <- data
I1226 14:57:30.429046 86421 net.cpp:586] conv1 -> conv1
I1226 14:57:30.432590 118646 net.cpp:228] Setting up label_data_1_split
I1226 14:57:30.432727 118646 net.cpp:235] Top shape: 128 (128)
I1226 14:57:30.432761 118646 net.cpp:235] Top shape: 128 (128)
I1226 14:57:30.432785 118646 net.cpp:243] Memory required for data: 79150080
I1226 14:57:30.432818 118646 layer_factory.hpp:114] Creating layer conv1
I1226 14:57:30.433037 118646 net.cpp:178] Creating Layer conv1
I1226 14:57:30.433112 118646 net.cpp:612] conv1 <- data
I1226 14:57:30.433156 118646 net.cpp:586] conv1 -> conv1
I1226 14:57:30.437337 94946 net.cpp:228] Setting up label_data_1_split
I1226 14:57:30.437479 94946 net.cpp:235] Top shape: 128 (128)
I1226 14:57:30.437517 94946 net.cpp:235] Top shape: 128 (128)
I1226 14:57:30.437543 94946 net.cpp:243] Memory required for data: 79150080
I1226 14:57:30.437593 94946 layer_factory.hpp:114] Creating layer conv1
I1226 14:57:30.437692 94946 net.cpp:178] Creating Layer conv1
I1226 14:57:30.437731 94946 net.cpp:612] conv1 <- data
I1226 14:57:30.437783 94946 net.cpp:586] conv1 -> conv1
I1226 14:57:30.446527 91414 net.cpp:228] Setting up label_data_1_split
I1226 14:57:30.446642 91414 net.cpp:235] Top shape: 128 (128)
I1226 14:57:30.446681 91414 net.cpp:235] Top shape: 128 (128)
I1226 14:57:30.446707 91414 net.cpp:243] Memory required for data: 79150080
I1226 14:57:30.446743 91414 layer_factory.hpp:114] Creating layer conv1
I1226 14:57:30.446851 91414 net.cpp:178] Creating Layer conv1
I1226 14:57:30.446889 91414 net.cpp:612] conv1 <- data
I1226 14:57:30.446933 91414 net.cpp:586] conv1 -> conv1
I1226 14:57:30.605526 118646 net.cpp:228] Setting up conv1
I1226 14:57:30.605695 118646 net.cpp:235] Top shape: 128 96 55 55 (37171200)
I1226 14:57:30.605728 118646 net.cpp:243] Memory required for data: 227834880
I1226 14:57:30.606104 118646 layer_factory.hpp:114] Creating layer relu1
I1226 14:57:30.606215 118646 net.cpp:178] Creating Layer relu1
I1226 14:57:30.606290 118646 net.cpp:612] relu1 <- conv1
I1226 14:57:30.606375 118646 net.cpp:573] relu1 -> conv1 (in-place)
I1226 14:57:30.606495 118646 net.cpp:228] Setting up relu1
I1226 14:57:30.606669 118646 net.cpp:235] Top shape: 128 96 55 55 (37171200)
I1226 14:57:30.606710 118646 net.cpp:243] Memory required for data: 376519680
I1226 14:57:30.606745 118646 layer_factory.hpp:114] Creating layer norm1
I1226 14:57:30.606812 118646 net.cpp:178] Creating Layer norm1
I1226 14:57:30.606897 118646 net.cpp:612] norm1 <- conv1
I1226 14:57:30.606969 118646 net.cpp:586] norm1 -> norm1
I1226 14:57:30.607173 118646 net.cpp:228] Setting up norm1
I1226 14:57:30.607583 118646 net.cpp:235] Top shape: 128 96 55 55 (37171200)
I1226 14:57:30.607633 118646 net.cpp:243] Memory required for data: 525204480
I1226 14:57:30.607666 118646 layer_factory.hpp:114] Creating layer pool1
I1226 14:57:30.607748 118646 net.cpp:178] Creating Layer pool1
I1226 14:57:30.607816 118646 net.cpp:612] pool1 <- norm1
I1226 14:57:30.607877 118646 net.cpp:586] pool1 -> pool1
I1226 14:57:30.607995 118646 net.cpp:228] Setting up pool1
I1226 14:57:30.608042 118646 net.cpp:235] Top shape: 128 96 27 27 (8957952)
I1226 14:57:30.608064 118646 net.cpp:243] Memory required for data: 561036288
I1226 14:57:30.608093 118646 layer_factory.hpp:114] Creating layer conv2
I1226 14:57:30.608194 118646 net.cpp:178] Creating Layer conv2
I1226 14:57:30.608228 118646 net.cpp:612] conv2 <- pool1
I1226 14:57:30.608297 118646 net.cpp:586] conv2 -> conv2
I1226 14:57:30.607512 95720 net.cpp:228] Setting up data
I1226 14:57:30.607679 95720 net.cpp:235] Top shape: 128 3 227 227 (19787136)
I1226 14:57:30.608300 95720 net.cpp:235] Top shape: 128 (128)
I1226 14:57:30.608544 95720 net.cpp:243] Memory required for data: 79149056
I1226 14:57:30.608606 95720 layer_factory.hpp:114] Creating layer label_data_1_split
I1226 14:57:30.608785 95720 net.cpp:178] Creating Layer label_data_1_split
I1226 14:57:30.609051 95720 net.cpp:612] label_data_1_split <- label
I1226 14:57:30.609467 95720 net.cpp:586] label_data_1_split -> label_data_1_split_0
I1226 14:57:30.609640 95720 net.cpp:586] label_data_1_split -> label_data_1_split_1
I1226 14:57:30.625591 91862 net.cpp:228] Setting up conv1
I1226 14:57:30.625777 91862 net.cpp:235] Top shape: 128 96 55 55 (37171200)
I1226 14:57:30.625891 91862 net.cpp:243] Memory required for data: 227834880
I1226 14:57:30.626134 91862 layer_factory.hpp:114] Creating layer relu1
I1226 14:57:30.626230 91862 net.cpp:178] Creating Layer relu1
I1226 14:57:30.626268 91862 net.cpp:612] relu1 <- conv1
I1226 14:57:30.626338 91862 net.cpp:573] relu1 -> conv1 (in-place)
I1226 14:57:30.626488 91862 net.cpp:228] Setting up relu1
I1226 14:57:30.626626 91862 net.cpp:235] Top shape: 128 96 55 55 (37171200)
I1226 14:57:30.626663 91862 net.cpp:243] Memory required for data: 376519680
I1226 14:57:30.626699 91862 layer_factory.hpp:114] Creating layer norm1
I1226 14:57:30.626824 91862 net.cpp:178] Creating Layer norm1
I1226 14:57:30.626863 91862 net.cpp:612] norm1 <- conv1
I1226 14:57:30.626945 91862 net.cpp:586] norm1 -> norm1
I1226 14:57:30.627699 91862 net.cpp:228] Setting up norm1
I1226 14:57:30.627887 91862 net.cpp:235] Top shape: 128 96 55 55 (37171200)
I1226 14:57:30.628041 91862 net.cpp:243] Memory required for data: 525204480
I1226 14:57:30.628077 91862 layer_factory.hpp:114] Creating layer pool1
I1226 14:57:30.628144 91862 net.cpp:178] Creating Layer pool1
I1226 14:57:30.628175 91862 net.cpp:612] pool1 <- norm1
I1226 14:57:30.628244 91862 net.cpp:586] pool1 -> pool1
I1226 14:57:30.628408 91862 net.cpp:228] Setting up pool1
I1226 14:57:30.628473 91862 net.cpp:235] Top shape: 128 96 27 27 (8957952)
I1226 14:57:30.628514 91862 net.cpp:243] Memory required for data: 561036288
I1226 14:57:30.628547 91862 layer_factory.hpp:114] Creating layer conv2
I1226 14:57:30.629086 91862 net.cpp:178] Creating Layer conv2
I1226 14:57:30.629144 91862 net.cpp:612] conv2 <- pool1
I1226 14:57:30.629510 91862 net.cpp:586] conv2 -> conv2
I1226 14:57:30.620314 93926 net.cpp:228] Setting up conv2
I1226 14:57:30.620424 93926 net.cpp:235] Top shape: 128 256 27 27 (23887872)
I1226 14:57:30.620453 93926 net.cpp:243] Memory required for data: 656587776
I1226 14:57:30.620523 93926 layer_factory.hpp:114] Creating layer relu2
I1226 14:57:30.620610 93926 net.cpp:178] Creating Layer relu2
I1226 14:57:30.620652 93926 net.cpp:612] relu2 <- conv2
I1226 14:57:30.620726 93926 net.cpp:573] relu2 -> conv2 (in-place)
I1226 14:57:30.620833 93926 net.cpp:228] Setting up relu2
I1226 14:57:30.620884 93926 net.cpp:235] Top shape: 128 256 27 27 (23887872)
I1226 14:57:30.620908 93926 net.cpp:243] Memory required for data: 752139264
I1226 14:57:30.620936 93926 layer_factory.hpp:114] Creating layer norm2
I1226 14:57:30.620983 93926 net.cpp:178] Creating Layer norm2
I1226 14:57:30.621017 93926 net.cpp:612] norm2 <- conv2
I1226 14:57:30.621073 93926 net.cpp:586] norm2 -> norm2
I1226 14:57:30.621166 93926 net.cpp:228] Setting up norm2
I1226 14:57:30.621215 93926 net.cpp:235] Top shape: 128 256 27 27 (23887872)
I1226 14:57:30.621245 93926 net.cpp:243] Memory required for data: 847690752
I1226 14:57:30.621279 93926 layer_factory.hpp:114] Creating layer pool2
I1226 14:57:30.621330 93926 net.cpp:178] Creating Layer pool2
I1226 14:57:30.621356 93926 net.cpp:612] pool2 <- norm2
I1226 14:57:30.621387 93926 net.cpp:586] pool2 -> pool2
I1226 14:57:30.621465 93926 net.cpp:228] Setting up pool2
I1226 14:57:30.621508 93926 net.cpp:235] Top shape: 128 256 13 13 (5537792)
I1226 14:57:30.621628 93926 net.cpp:243] Memory required for data: 869841920
I1226 14:57:30.621664 93926 layer_factory.hpp:114] Creating layer conv3
I1226 14:57:30.621765 93926 net.cpp:178] Creating Layer conv3
I1226 14:57:30.621809 93926 net.cpp:612] conv3 <- pool2
I1226 14:57:30.621860 93926 net.cpp:586] conv3 -> conv3
I1226 14:57:30.632323 95720 net.cpp:228] Setting up label_data_1_split
I1226 14:57:30.632432 95720 net.cpp:235] Top shape: 128 (128)
I1226 14:57:30.632469 95720 net.cpp:235] Top shape: 128 (128)
I1226 14:57:30.632495 95720 net.cpp:243] Memory required for data: 79150080
I1226 14:57:30.632535 95720 layer_factory.hpp:114] Creating layer conv1
I1226 14:57:30.632709 95720 net.cpp:178] Creating Layer conv1
I1226 14:57:30.632993 95720 net.cpp:612] conv1 <- data
I1226 14:57:30.633083 95720 net.cpp:586] conv1 -> conv1
I1226 14:57:30.651090 86421 net.cpp:228] Setting up conv1
I1226 14:57:30.651213 86421 net.cpp:235] Top shape: 128 96 55 55 (37171200)
I1226 14:57:30.651247 86421 net.cpp:243] Memory required for data: 227834880
I1226 14:57:30.651376 86421 layer_factory.hpp:114] Creating layer relu1
I1226 14:57:30.651484 86421 net.cpp:178] Creating Layer relu1
I1226 14:57:30.651551 86421 net.cpp:612] relu1 <- conv1
I1226 14:57:30.651602 86421 net.cpp:573] relu1 -> conv1 (in-place)
I1226 14:57:30.651749 86421 net.cpp:228] Setting up relu1
I1226 14:57:30.651839 86421 net.cpp:235] Top shape: 128 96 55 55 (37171200)
I1226 14:57:30.651865 86421 net.cpp:243] Memory required for data: 376519680
I1226 14:57:30.651921 86421 layer_factory.hpp:114] Creating layer norm1
I1226 14:57:30.651988 86421 net.cpp:178] Creating Layer norm1
I1226 14:57:30.652021 86421 net.cpp:612] norm1 <- conv1
I1226 14:57:30.652114 86421 net.cpp:586] norm1 -> norm1
I1226 14:57:30.652209 86421 net.cpp:228] Setting up norm1
I1226 14:57:30.652256 86421 net.cpp:235] Top shape: 128 96 55 55 (37171200)
I1226 14:57:30.652278 86421 net.cpp:243] Memory required for data: 525204480
I1226 14:57:30.652307 86421 layer_factory.hpp:114] Creating layer pool1
I1226 14:57:30.652355 86421 net.cpp:178] Creating Layer pool1
I1226 14:57:30.652390 86421 net.cpp:612] pool1 <- norm1
I1226 14:57:30.652434 86421 net.cpp:586] pool1 -> pool1
I1226 14:57:30.652529 86421 net.cpp:228] Setting up pool1
I1226 14:57:30.652571 86421 net.cpp:235] Top shape: 128 96 27 27 (8957952)
I1226 14:57:30.652595 86421 net.cpp:243] Memory required for data: 561036288
I1226 14:57:30.652621 86421 layer_factory.hpp:114] Creating layer conv2
I1226 14:57:30.652724 86421 net.cpp:178] Creating Layer conv2
I1226 14:57:30.652756 86421 net.cpp:612] conv2 <- pool1
I1226 14:57:30.652806 86421 net.cpp:586] conv2 -> conv2
I1226 14:57:30.640136 94946 net.cpp:228] Setting up conv1
I1226 14:57:30.640261 94946 net.cpp:235] Top shape: 128 96 55 55 (37171200)
I1226 14:57:30.640305 94946 net.cpp:243] Memory required for data: 227834880
I1226 14:57:30.640460 94946 layer_factory.hpp:114] Creating layer relu1
I1226 14:57:30.640581 94946 net.cpp:178] Creating Layer relu1
I1226 14:57:30.640631 94946 net.cpp:612] relu1 <- conv1
I1226 14:57:30.640697 94946 net.cpp:573] relu1 -> conv1 (in-place)
I1226 14:57:30.640822 94946 net.cpp:228] Setting up relu1
I1226 14:57:30.640897 94946 net.cpp:235] Top shape: 128 96 55 55 (37171200)
I1226 14:57:30.640929 94946 net.cpp:243] Memory required for data: 376519680
I1226 14:57:30.640979 94946 layer_factory.hpp:114] Creating layer norm1
I1226 14:57:30.641049 94946 net.cpp:178] Creating Layer norm1
I1226 14:57:30.641089 94946 net.cpp:612] norm1 <- conv1
I1226 14:57:30.641129 94946 net.cpp:586] norm1 -> norm1
I1226 14:57:30.641234 94946 net.cpp:228] Setting up norm1
I1226 14:57:30.641290 94946 net.cpp:235] Top shape: 128 96 55 55 (37171200)
I1226 14:57:30.641315 94946 net.cpp:243] Memory required for data: 525204480
I1226 14:57:30.641360 94946 layer_factory.hpp:114] Creating layer pool1
I1226 14:57:30.641448 94946 net.cpp:178] Creating Layer pool1
I1226 14:57:30.641484 94946 net.cpp:612] pool1 <- norm1
I1226 14:57:30.641546 94946 net.cpp:586] pool1 -> pool1
I1226 14:57:30.641665 94946 net.cpp:228] Setting up pool1
I1226 14:57:30.641717 94946 net.cpp:235] Top shape: 128 96 27 27 (8957952)
I1226 14:57:30.641741 94946 net.cpp:243] Memory required for data: 561036288
I1226 14:57:30.641772 94946 layer_factory.hpp:114] Creating layer conv2
I1226 14:57:30.641861 94946 net.cpp:178] Creating Layer conv2
I1226 14:57:30.641894 94946 net.cpp:612] conv2 <- pool1
I1226 14:57:30.641942 94946 net.cpp:586] conv2 -> conv2
I1226 14:57:30.661646 91414 net.cpp:228] Setting up conv1
I1226 14:57:30.661764 91414 net.cpp:235] Top shape: 128 96 55 55 (37171200)
I1226 14:57:30.661795 91414 net.cpp:243] Memory required for data: 227834880
I1226 14:57:30.674352 91414 layer_factory.hpp:114] Creating layer relu1
I1226 14:57:30.674502 91414 net.cpp:178] Creating Layer relu1
I1226 14:57:30.674548 91414 net.cpp:612] relu1 <- conv1
I1226 14:57:30.674604 91414 net.cpp:573] relu1 -> conv1 (in-place)
I1226 14:57:30.674715 91414 net.cpp:228] Setting up relu1
I1226 14:57:30.674768 91414 net.cpp:235] Top shape: 128 96 55 55 (37171200)
I1226 14:57:30.674794 91414 net.cpp:243] Memory required for data: 376519680
I1226 14:57:30.675874 91414 layer_factory.hpp:114] Creating layer norm1
I1226 14:57:30.676028 91414 net.cpp:178] Creating Layer norm1
I1226 14:57:30.676075 91414 net.cpp:612] norm1 <- conv1
I1226 14:57:30.676120 91414 net.cpp:586] norm1 -> norm1
I1226 14:57:30.676236 91414 net.cpp:228] Setting up norm1
I1226 14:57:30.676620 91414 net.cpp:235] Top shape: 128 96 55 55 (37171200)
I1226 14:57:30.676676 91414 net.cpp:243] Memory required for data: 525204480
I1226 14:57:30.676962 91414 layer_factory.hpp:114] Creating layer pool1
I1226 14:57:30.677050 91414 net.cpp:178] Creating Layer pool1
I1226 14:57:30.677088 91414 net.cpp:612] pool1 <- norm1
I1226 14:57:30.677139 91414 net.cpp:586] pool1 -> pool1
I1226 14:57:30.677595 91414 net.cpp:228] Setting up pool1
I1226 14:57:30.677675 91414 net.cpp:235] Top shape: 128 96 27 27 (8957952)
I1226 14:57:30.677700 91414 net.cpp:243] Memory required for data: 561036288
I1226 14:57:30.677731 91414 layer_factory.hpp:114] Creating layer conv2
I1226 14:57:30.677829 91414 net.cpp:178] Creating Layer conv2
I1226 14:57:30.677868 91414 net.cpp:612] conv2 <- pool1
I1226 14:57:30.677920 91414 net.cpp:586] conv2 -> conv2
I1226 14:57:30.742846 97424 net.cpp:228] Setting up data
I1226 14:57:30.742981 97424 net.cpp:235] Top shape: 128 3 227 227 (19787136)
I1226 14:57:30.743031 97424 net.cpp:235] Top shape: 128 (128)
I1226 14:57:30.743059 97424 net.cpp:243] Memory required for data: 79149056
I1226 14:57:30.743100 97424 layer_factory.hpp:114] Creating layer label_data_1_split
I1226 14:57:30.743201 97424 net.cpp:178] Creating Layer label_data_1_split
I1226 14:57:30.743413 97424 net.cpp:612] label_data_1_split <- label
I1226 14:57:30.743475 97424 net.cpp:586] label_data_1_split -> label_data_1_split_0
I1226 14:57:30.743631 97424 net.cpp:586] label_data_1_split -> label_data_1_split_1
I1226 14:57:30.756768 97424 net.cpp:228] Setting up label_data_1_split
I1226 14:57:30.769950 97424 net.cpp:235] Top shape: 128 (128)
I1226 14:57:30.769999 97424 net.cpp:235] Top shape: 128 (128)
I1226 14:57:30.770023 97424 net.cpp:243] Memory required for data: 79150080
I1226 14:57:30.770071 97424 layer_factory.hpp:114] Creating layer conv1
I1226 14:57:30.770184 97424 net.cpp:178] Creating Layer conv1
I1226 14:57:30.770225 97424 net.cpp:612] conv1 <- data
I1226 14:57:30.770269 97424 net.cpp:586] conv1 -> conv1
I1226 14:57:30.787663 97855 net.cpp:228] Setting up data
I1226 14:57:30.787834 97855 net.cpp:235] Top shape: 128 3 227 227 (19787136)
I1226 14:57:30.787889 97855 net.cpp:235] Top shape: 128 (128)
I1226 14:57:30.787935 97855 net.cpp:243] Memory required for data: 79149056
I1226 14:57:30.787981 97855 layer_factory.hpp:114] Creating layer label_data_1_split
I1226 14:57:30.788074 97855 net.cpp:178] Creating Layer label_data_1_split
I1226 14:57:30.788224 97855 net.cpp:612] label_data_1_split <- label
I1226 14:57:30.788287 97855 net.cpp:586] label_data_1_split -> label_data_1_split_0
I1226 14:57:30.788368 97855 net.cpp:586] label_data_1_split -> label_data_1_split_1
I1226 14:57:30.816176 97855 net.cpp:228] Setting up label_data_1_split
I1226 14:57:30.816292 97855 net.cpp:235] Top shape: 128 (128)
I1226 14:57:30.816761 97855 net.cpp:235] Top shape: 128 (128)
I1226 14:57:30.816818 97855 net.cpp:243] Memory required for data: 79150080
I1226 14:57:30.816918 97855 layer_factory.hpp:114] Creating layer conv1
I1226 14:57:30.817085 97855 net.cpp:178] Creating Layer conv1
I1226 14:57:30.817167 97855 net.cpp:612] conv1 <- data
I1226 14:57:30.817215 97855 net.cpp:586] conv1 -> conv1
I1226 14:57:30.854619 93926 net.cpp:228] Setting up conv3
I1226 14:57:30.854750 93926 net.cpp:235] Top shape: 128 384 13 13 (8306688)
I1226 14:57:30.854779 93926 net.cpp:243] Memory required for data: 903068672
I1226 14:57:30.854876 93926 layer_factory.hpp:114] Creating layer relu3
I1226 14:57:30.854962 93926 net.cpp:178] Creating Layer relu3
I1226 14:57:30.855005 93926 net.cpp:612] relu3 <- conv3
I1226 14:57:30.855046 93926 net.cpp:573] relu3 -> conv3 (in-place)
I1226 14:57:30.855132 93926 net.cpp:228] Setting up relu3
I1226 14:57:30.855181 93926 net.cpp:235] Top shape: 128 384 13 13 (8306688)
I1226 14:57:30.855206 93926 net.cpp:243] Memory required for data: 936295424
I1226 14:57:30.855235 93926 layer_factory.hpp:114] Creating layer conv4
I1226 14:57:30.855324 93926 net.cpp:178] Creating Layer conv4
I1226 14:57:30.855360 93926 net.cpp:612] conv4 <- conv3
I1226 14:57:30.855402 93926 net.cpp:586] conv4 -> conv4
I1226 14:57:30.972038 94946 net.cpp:228] Setting up conv2
I1226 14:57:30.972187 94946 net.cpp:235] Top shape: 128 256 27 27 (23887872)
I1226 14:57:30.972229 94946 net.cpp:243] Memory required for data: 656587776
I1226 14:57:30.972342 94946 layer_factory.hpp:114] Creating layer relu2
I1226 14:57:30.972553 94946 net.cpp:178] Creating Layer relu2
I1226 14:57:30.972626 94946 net.cpp:612] relu2 <- conv2
I1226 14:57:30.972700 94946 net.cpp:573] relu2 -> conv2 (in-place)
I1226 14:57:30.973027 94946 net.cpp:228] Setting up relu2
I1226 14:57:30.973096 94946 net.cpp:235] Top shape: 128 256 27 27 (23887872)
I1226 14:57:30.973124 94946 net.cpp:243] Memory required for data: 752139264
I1226 14:57:30.973179 94946 layer_factory.hpp:114] Creating layer norm2
I1226 14:57:30.973237 94946 net.cpp:178] Creating Layer norm2
I1226 14:57:30.973274 94946 net.cpp:612] norm2 <- conv2
I1226 14:57:30.973315 94946 net.cpp:586] norm2 -> norm2
I1226 14:57:30.974118 94946 net.cpp:228] Setting up norm2
I1226 14:57:30.974237 94946 net.cpp:235] Top shape: 128 256 27 27 (23887872)
I1226 14:57:30.974395 94946 net.cpp:243] Memory required for data: 847690752
I1226 14:57:30.974436 94946 layer_factory.hpp:114] Creating layer pool2
I1226 14:57:30.974511 94946 net.cpp:178] Creating Layer pool2
I1226 14:57:30.974578 94946 net.cpp:612] pool2 <- norm2
I1226 14:57:30.974649 94946 net.cpp:586] pool2 -> pool2
I1226 14:57:30.975025 94946 net.cpp:228] Setting up pool2
I1226 14:57:30.975203 94946 net.cpp:235] Top shape: 128 256 13 13 (5537792)
I1226 14:57:30.975249 94946 net.cpp:243] Memory required for data: 869841920
I1226 14:57:30.975651 94946 layer_factory.hpp:114] Creating layer conv3
I1226 14:57:30.975880 94946 net.cpp:178] Creating Layer conv3
I1226 14:57:30.975953 94946 net.cpp:612] conv3 <- pool2
I1226 14:57:30.976042 94946 net.cpp:586] conv3 -> conv3
I1226 14:57:31.003867 118646 net.cpp:228] Setting up conv2
I1226 14:57:31.003974 118646 net.cpp:235] Top shape: 128 256 27 27 (23887872)
I1226 14:57:31.003998 118646 net.cpp:243] Memory required for data: 656587776
I1226 14:57:31.004094 118646 layer_factory.hpp:114] Creating layer relu2
I1226 14:57:31.004179 118646 net.cpp:178] Creating Layer relu2
I1226 14:57:31.004210 118646 net.cpp:612] relu2 <- conv2
I1226 14:57:31.004254 118646 net.cpp:573] relu2 -> conv2 (in-place)
I1226 14:57:31.004348 118646 net.cpp:228] Setting up relu2
I1226 14:57:31.004390 118646 net.cpp:235] Top shape: 128 256 27 27 (23887872)
I1226 14:57:31.004421 118646 net.cpp:243] Memory required for data: 752139264
I1226 14:57:31.004449 118646 layer_factory.hpp:114] Creating layer norm2
I1226 14:57:31.004497 118646 net.cpp:178] Creating Layer norm2
I1226 14:57:31.004531 118646 net.cpp:612] norm2 <- conv2
I1226 14:57:31.004591 118646 net.cpp:586] norm2 -> norm2
I1226 14:57:31.004680 118646 net.cpp:228] Setting up norm2
I1226 14:57:31.004722 118646 net.cpp:235] Top shape: 128 256 27 27 (23887872)
I1226 14:57:31.004755 118646 net.cpp:243] Memory required for data: 847690752
I1226 14:57:31.004784 118646 layer_factory.hpp:114] Creating layer pool2
I1226 14:57:31.004845 118646 net.cpp:178] Creating Layer pool2
I1226 14:57:31.004878 118646 net.cpp:612] pool2 <- norm2
I1226 14:57:31.004921 118646 net.cpp:586] pool2 -> pool2
I1226 14:57:31.005117 118646 net.cpp:228] Setting up pool2
I1226 14:57:31.005168 118646 net.cpp:235] Top shape: 128 256 13 13 (5537792)
I1226 14:57:31.005190 118646 net.cpp:243] Memory required for data: 869841920
I1226 14:57:31.005218 118646 layer_factory.hpp:114] Creating layer conv3
I1226 14:57:31.005300 118646 net.cpp:178] Creating Layer conv3
I1226 14:57:31.005333 118646 net.cpp:612] conv3 <- pool2
I1226 14:57:31.005381 118646 net.cpp:586] conv3 -> conv3
I1226 14:57:31.013149 91862 net.cpp:228] Setting up conv2
I1226 14:57:31.013262 91862 net.cpp:235] Top shape: 128 256 27 27 (23887872)
I1226 14:57:31.013288 91862 net.cpp:243] Memory required for data: 656587776
I1226 14:57:31.013360 91862 layer_factory.hpp:114] Creating layer relu2
I1226 14:57:31.013451 91862 net.cpp:178] Creating Layer relu2
I1226 14:57:31.013491 91862 net.cpp:612] relu2 <- conv2
I1226 14:57:31.013533 91862 net.cpp:573] relu2 -> conv2 (in-place)
I1226 14:57:31.013630 91862 net.cpp:228] Setting up relu2
I1226 14:57:31.013680 91862 net.cpp:235] Top shape: 128 256 27 27 (23887872)
I1226 14:57:31.013711 91862 net.cpp:243] Memory required for data: 752139264
I1226 14:57:31.013741 91862 layer_factory.hpp:114] Creating layer norm2
I1226 14:57:31.013828 91862 net.cpp:178] Creating Layer norm2
I1226 14:57:31.013859 91862 net.cpp:612] norm2 <- conv2
I1226 14:57:31.013898 91862 net.cpp:586] norm2 -> norm2
I1226 14:57:31.014004 91862 net.cpp:228] Setting up norm2
I1226 14:57:31.014052 91862 net.cpp:235] Top shape: 128 256 27 27 (23887872)
I1226 14:57:31.014076 91862 net.cpp:243] Memory required for data: 847690752
I1226 14:57:31.014106 91862 layer_factory.hpp:114] Creating layer pool2
I1226 14:57:31.014163 91862 net.cpp:178] Creating Layer pool2
I1226 14:57:31.014195 91862 net.cpp:612] pool2 <- norm2
I1226 14:57:31.014237 91862 net.cpp:586] pool2 -> pool2
I1226 14:57:31.014319 91862 net.cpp:228] Setting up pool2
I1226 14:57:31.014458 91862 net.cpp:235] Top shape: 128 256 13 13 (5537792)
I1226 14:57:31.014488 91862 net.cpp:243] Memory required for data: 869841920
I1226 14:57:31.014518 91862 layer_factory.hpp:114] Creating layer conv3
I1226 14:57:31.014600 91862 net.cpp:178] Creating Layer conv3
I1226 14:57:31.014638 91862 net.cpp:612] conv3 <- pool2
I1226 14:57:31.014681 91862 net.cpp:586] conv3 -> conv3
I1226 14:57:31.029803 86421 net.cpp:228] Setting up conv2
I1226 14:57:31.029945 86421 net.cpp:235] Top shape: 128 256 27 27 (23887872)
I1226 14:57:31.029980 86421 net.cpp:243] Memory required for data: 656587776
I1226 14:57:31.030053 86421 layer_factory.hpp:114] Creating layer relu2
I1226 14:57:31.030280 86421 net.cpp:178] Creating Layer relu2
I1226 14:57:31.030369 86421 net.cpp:612] relu2 <- conv2
I1226 14:57:31.030457 86421 net.cpp:573] relu2 -> conv2 (in-place)
I1226 14:57:31.030719 86421 net.cpp:228] Setting up relu2
I1226 14:57:31.030796 86421 net.cpp:235] Top shape: 128 256 27 27 (23887872)
I1226 14:57:31.030824 86421 net.cpp:243] Memory required for data: 752139264
I1226 14:57:31.030854 86421 layer_factory.hpp:114] Creating layer norm2
I1226 14:57:31.030932 86421 net.cpp:178] Creating Layer norm2
I1226 14:57:31.030968 86421 net.cpp:612] norm2 <- conv2
I1226 14:57:31.031009 86421 net.cpp:586] norm2 -> norm2
I1226 14:57:31.031631 86421 net.cpp:228] Setting up norm2
I1226 14:57:31.031833 86421 net.cpp:235] Top shape: 128 256 27 27 (23887872)
I1226 14:57:31.031868 86421 net.cpp:243] Memory required for data: 847690752
I1226 14:57:31.031903 86421 layer_factory.hpp:114] Creating layer pool2
I1226 14:57:31.032014 86421 net.cpp:178] Creating Layer pool2
I1226 14:57:31.032130 86421 net.cpp:612] pool2 <- norm2
I1226 14:57:31.032173 86421 net.cpp:586] pool2 -> pool2
I1226 14:57:31.032311 86421 net.cpp:228] Setting up pool2
I1226 14:57:31.032485 86421 net.cpp:235] Top shape: 128 256 13 13 (5537792)
I1226 14:57:31.032728 86421 net.cpp:243] Memory required for data: 869841920
I1226 14:57:31.032771 86421 layer_factory.hpp:114] Creating layer conv3
I1226 14:57:31.032856 86421 net.cpp:178] Creating Layer conv3
I1226 14:57:31.032894 86421 net.cpp:612] conv3 <- pool2
I1226 14:57:31.032958 86421 net.cpp:586] conv3 -> conv3
I1226 14:57:31.035094 91414 net.cpp:228] Setting up conv2
I1226 14:57:31.035204 91414 net.cpp:235] Top shape: 128 256 27 27 (23887872)
I1226 14:57:31.035233 91414 net.cpp:243] Memory required for data: 656587776
I1226 14:57:31.035336 91414 layer_factory.hpp:114] Creating layer relu2
I1226 14:57:31.035428 91414 net.cpp:178] Creating Layer relu2
I1226 14:57:31.035580 91414 net.cpp:612] relu2 <- conv2
I1226 14:57:31.035627 91414 net.cpp:573] relu2 -> conv2 (in-place)
I1226 14:57:31.035729 91414 net.cpp:228] Setting up relu2
I1226 14:57:31.035780 91414 net.cpp:235] Top shape: 128 256 27 27 (23887872)
I1226 14:57:31.035805 91414 net.cpp:243] Memory required for data: 752139264
I1226 14:57:31.035835 91414 layer_factory.hpp:114] Creating layer norm2
I1226 14:57:31.035887 91414 net.cpp:178] Creating Layer norm2
I1226 14:57:31.035913 91414 net.cpp:612] norm2 <- conv2
I1226 14:57:31.035951 91414 net.cpp:586] norm2 -> norm2
I1226 14:57:31.036044 91414 net.cpp:228] Setting up norm2
I1226 14:57:31.036098 91414 net.cpp:235] Top shape: 128 256 27 27 (23887872)
I1226 14:57:31.036128 91414 net.cpp:243] Memory required for data: 847690752
I1226 14:57:31.036155 91414 layer_factory.hpp:114] Creating layer pool2
I1226 14:57:31.036206 91414 net.cpp:178] Creating Layer pool2
I1226 14:57:31.036232 91414 net.cpp:612] pool2 <- norm2
I1226 14:57:31.036293 91414 net.cpp:586] pool2 -> pool2
I1226 14:57:31.036407 91414 net.cpp:228] Setting up pool2
I1226 14:57:31.036553 91414 net.cpp:235] Top shape: 128 256 13 13 (5537792)
I1226 14:57:31.036584 91414 net.cpp:243] Memory required for data: 869841920
I1226 14:57:31.036617 91414 layer_factory.hpp:114] Creating layer conv3
I1226 14:57:31.036700 91414 net.cpp:178] Creating Layer conv3
I1226 14:57:31.036738 91414 net.cpp:612] conv3 <- pool2
I1226 14:57:31.036778 91414 net.cpp:586] conv3 -> conv3
I1226 14:57:31.059607 93926 net.cpp:228] Setting up conv4
I1226 14:57:31.059782 93926 net.cpp:235] Top shape: 128 384 13 13 (8306688)
I1226 14:57:31.059811 93926 net.cpp:243] Memory required for data: 969522176
I1226 14:57:31.059871 93926 layer_factory.hpp:114] Creating layer relu4
I1226 14:57:31.059970 93926 net.cpp:178] Creating Layer relu4
I1226 14:57:31.060017 93926 net.cpp:612] relu4 <- conv4
I1226 14:57:31.060075 93926 net.cpp:573] relu4 -> conv4 (in-place)
I1226 14:57:31.060168 93926 net.cpp:228] Setting up relu4
I1226 14:57:31.060220 93926 net.cpp:235] Top shape: 128 384 13 13 (8306688)
I1226 14:57:31.060255 93926 net.cpp:243] Memory required for data: 1002748928
I1226 14:57:31.060292 93926 layer_factory.hpp:114] Creating layer conv5
I1226 14:57:31.060374 93926 net.cpp:178] Creating Layer conv5
I1226 14:57:31.060407 93926 net.cpp:612] conv5 <- conv4
I1226 14:57:31.060478 93926 net.cpp:586] conv5 -> conv5
I1226 14:57:31.206806 93926 net.cpp:228] Setting up conv5
I1226 14:57:31.206913 93926 net.cpp:235] Top shape: 128 256 13 13 (5537792)
I1226 14:57:31.206939 93926 net.cpp:243] Memory required for data: 1024900096
I1226 14:57:31.207012 93926 layer_factory.hpp:114] Creating layer relu5
I1226 14:57:31.207088 93926 net.cpp:178] Creating Layer relu5
I1226 14:57:31.207129 93926 net.cpp:612] relu5 <- conv5
I1226 14:57:31.207168 93926 net.cpp:573] relu5 -> conv5 (in-place)
I1226 14:57:31.207262 93926 net.cpp:228] Setting up relu5
I1226 14:57:31.207305 93926 net.cpp:235] Top shape: 128 256 13 13 (5537792)
I1226 14:57:31.207334 93926 net.cpp:243] Memory required for data: 1047051264
I1226 14:57:31.207361 93926 layer_factory.hpp:114] Creating layer pool5
I1226 14:57:31.207414 93926 net.cpp:178] Creating Layer pool5
I1226 14:57:31.207445 93926 net.cpp:612] pool5 <- conv5
I1226 14:57:31.207494 93926 net.cpp:586] pool5 -> pool5
I1226 14:57:31.207582 93926 net.cpp:228] Setting up pool5
I1226 14:57:31.207623 93926 net.cpp:235] Top shape: 128 256 6 6 (1179648)
I1226 14:57:31.207646 93926 net.cpp:243] Memory required for data: 1051769856
I1226 14:57:31.207672 93926 layer_factory.hpp:114] Creating layer fc6
I1226 14:57:31.207779 93926 net.cpp:178] Creating Layer fc6
I1226 14:57:31.207810 93926 net.cpp:612] fc6 <- pool5
I1226 14:57:31.207880 93926 net.cpp:586] fc6 -> fc6
I1226 14:57:31.245003 95720 net.cpp:228] Setting up conv1
I1226 14:57:31.245118 95720 net.cpp:235] Top shape: 128 96 55 55 (37171200)
I1226 14:57:31.245153 95720 net.cpp:243] Memory required for data: 227834880
I1226 14:57:31.245355 95720 layer_factory.hpp:114] Creating layer relu1
I1226 14:57:31.245656 95720 net.cpp:178] Creating Layer relu1
I1226 14:57:31.245846 95720 net.cpp:612] relu1 <- conv1
I1226 14:57:31.246273 95720 net.cpp:573] relu1 -> conv1 (in-place)
I1226 14:57:31.246577 95720 net.cpp:228] Setting up relu1
I1226 14:57:31.246687 95720 net.cpp:235] Top shape: 128 96 55 55 (37171200)
I1226 14:57:31.246717 95720 net.cpp:243] Memory required for data: 376519680
I1226 14:57:31.246757 95720 layer_factory.hpp:114] Creating layer norm1
I1226 14:57:31.246915 95720 net.cpp:178] Creating Layer norm1
I1226 14:57:31.247134 95720 net.cpp:612] norm1 <- conv1
I1226 14:57:31.247226 95720 net.cpp:586] norm1 -> norm1
I1226 14:57:31.248023 95720 net.cpp:228] Setting up norm1
I1226 14:57:31.248117 95720 net.cpp:235] Top shape: 128 96 55 55 (37171200)
I1226 14:57:31.248143 95720 net.cpp:243] Memory required for data: 525204480
I1226 14:57:31.248179 95720 layer_factory.hpp:114] Creating layer pool1
I1226 14:57:31.248266 95720 net.cpp:178] Creating Layer pool1
I1226 14:57:31.248322 95720 net.cpp:612] pool1 <- norm1
I1226 14:57:31.248380 95720 net.cpp:586] pool1 -> pool1
I1226 14:57:31.248570 95720 net.cpp:228] Setting up pool1
I1226 14:57:31.248648 95720 net.cpp:235] Top shape: 128 96 27 27 (8957952)
I1226 14:57:31.248935 95720 net.cpp:243] Memory required for data: 561036288
I1226 14:57:31.248975 95720 layer_factory.hpp:114] Creating layer conv2
I1226 14:57:31.249608 95720 net.cpp:178] Creating Layer conv2
I1226 14:57:31.249747 95720 net.cpp:612] conv2 <- pool1
I1226 14:57:31.249804 95720 net.cpp:586] conv2 -> conv2
I1226 14:57:31.375190 94946 net.cpp:228] Setting up conv3
I1226 14:57:31.375301 94946 net.cpp:235] Top shape: 128 384 13 13 (8306688)
I1226 14:57:31.376974 94946 net.cpp:243] Memory required for data: 903068672
I1226 14:57:31.391721 118646 net.cpp:228] Setting up conv3
I1226 14:57:31.391830 118646 net.cpp:235] Top shape: 128 384 13 13 (8306688)
I1226 14:57:31.391856 118646 net.cpp:243] Memory required for data: 903068672
I1226 14:57:31.377284 94946 layer_factory.hpp:114] Creating layer relu3
I1226 14:57:31.391928 118646 layer_factory.hpp:114] Creating layer relu3
I1226 14:57:31.377472 94946 net.cpp:178] Creating Layer relu3
I1226 14:57:31.392005 118646 net.cpp:178] Creating Layer relu3
I1226 14:57:31.377533 94946 net.cpp:612] relu3 <- conv3
I1226 14:57:31.392036 118646 net.cpp:612] relu3 <- conv3
I1226 14:57:31.377584 94946 net.cpp:573] relu3 -> conv3 (in-place)
I1226 14:57:31.392084 118646 net.cpp:573] relu3 -> conv3 (in-place)
I1226 14:57:31.377687 94946 net.cpp:228] Setting up relu3
I1226 14:57:31.392173 118646 net.cpp:228] Setting up relu3
I1226 14:57:31.377740 94946 net.cpp:235] Top shape: 128 384 13 13 (8306688)
I1226 14:57:31.392210 118646 net.cpp:235] Top shape: 128 384 13 13 (8306688)
I1226 14:57:31.377766 94946 net.cpp:243] Memory required for data: 936295424
I1226 14:57:31.377799 94946 layer_factory.hpp:114] Creating layer conv4
I1226 14:57:31.392241 118646 net.cpp:243] Memory required for data: 936295424
I1226 14:57:31.377897 94946 net.cpp:178] Creating Layer conv4
I1226 14:57:31.392267 118646 layer_factory.hpp:114] Creating layer conv4
I1226 14:57:31.377941 94946 net.cpp:612] conv4 <- conv3
I1226 14:57:31.392355 118646 net.cpp:178] Creating Layer conv4
I1226 14:57:31.378006 94946 net.cpp:586] conv4 -> conv4
I1226 14:57:31.392393 118646 net.cpp:612] conv4 <- conv3
I1226 14:57:31.392441 118646 net.cpp:586] conv4 -> conv4
I1226 14:57:31.423262 91862 net.cpp:228] Setting up conv3
I1226 14:57:31.423373 91862 net.cpp:235] Top shape: 128 384 13 13 (8306688)
I1226 14:57:31.423400 91862 net.cpp:243] Memory required for data: 903068672
I1226 14:57:31.423473 91862 layer_factory.hpp:114] Creating layer relu3
I1226 14:57:31.423559 91862 net.cpp:178] Creating Layer relu3
I1226 14:57:31.423605 91862 net.cpp:612] relu3 <- conv3
I1226 14:57:31.423652 91862 net.cpp:573] relu3 -> conv3 (in-place)
I1226 14:57:31.423755 91862 net.cpp:228] Setting up relu3
I1226 14:57:31.424594 91862 net.cpp:235] Top shape: 128 384 13 13 (8306688)
I1226 14:57:31.424655 91862 net.cpp:243] Memory required for data: 936295424
I1226 14:57:31.424707 91862 layer_factory.hpp:114] Creating layer conv4
I1226 14:57:31.424907 91862 net.cpp:178] Creating Layer conv4
I1226 14:57:31.425004 91862 net.cpp:612] conv4 <- conv3
I1226 14:57:31.425072 91862 net.cpp:586] conv4 -> conv4
I1226 14:57:31.425272 86421 net.cpp:228] Setting up conv3
I1226 14:57:31.425385 86421 net.cpp:235] Top shape: 128 384 13 13 (8306688)
I1226 14:57:31.425415 86421 net.cpp:243] Memory required for data: 903068672
I1226 14:57:31.425487 86421 layer_factory.hpp:114] Creating layer relu3
I1226 14:57:31.425567 86421 net.cpp:178] Creating Layer relu3
I1226 14:57:31.425611 86421 net.cpp:612] relu3 <- conv3
I1226 14:57:31.425676 86421 net.cpp:573] relu3 -> conv3 (in-place)
I1226 14:57:31.425794 86421 net.cpp:228] Setting up relu3
I1226 14:57:31.425848 86421 net.cpp:235] Top shape: 128 384 13 13 (8306688)
I1226 14:57:31.425873 86421 net.cpp:243] Memory required for data: 936295424
I1226 14:57:31.425904 86421 layer_factory.hpp:114] Creating layer conv4
I1226 14:57:31.426000 86421 net.cpp:178] Creating Layer conv4
I1226 14:57:31.426043 86421 net.cpp:612] conv4 <- conv3
I1226 14:57:31.426096 86421 net.cpp:586] conv4 -> conv4
I1226 14:57:31.418035 91414 net.cpp:228] Setting up conv3
I1226 14:57:31.418164 91414 net.cpp:235] Top shape: 128 384 13 13 (8306688)
I1226 14:57:31.418192 91414 net.cpp:243] Memory required for data: 903068672
I1226 14:57:31.418313 91414 layer_factory.hpp:114] Creating layer relu3
I1226 14:57:31.418469 91414 net.cpp:178] Creating Layer relu3
I1226 14:57:31.418826 91414 net.cpp:612] relu3 <- conv3
I1226 14:57:31.418895 91414 net.cpp:573] relu3 -> conv3 (in-place)
I1226 14:57:31.419073 91414 net.cpp:228] Setting up relu3
I1226 14:57:31.419152 91414 net.cpp:235] Top shape: 128 384 13 13 (8306688)
I1226 14:57:31.419179 91414 net.cpp:243] Memory required for data: 936295424
I1226 14:57:31.419239 91414 layer_factory.hpp:114] Creating layer conv4
I1226 14:57:31.419376 91414 net.cpp:178] Creating Layer conv4
I1226 14:57:31.419481 91414 net.cpp:612] conv4 <- conv3
I1226 14:57:31.419536 91414 net.cpp:586] conv4 -> conv4
I1226 14:57:31.448571 97855 net.cpp:228] Setting up conv1
I1226 14:57:31.448685 97855 net.cpp:235] Top shape: 128 96 55 55 (37171200)
I1226 14:57:31.448737 97855 net.cpp:243] Memory required for data: 227834880
I1226 14:57:31.448869 97855 layer_factory.hpp:114] Creating layer relu1
I1226 14:57:31.448969 97855 net.cpp:178] Creating Layer relu1
I1226 14:57:31.449028 97855 net.cpp:612] relu1 <- conv1
I1226 14:57:31.449093 97855 net.cpp:573] relu1 -> conv1 (in-place)
I1226 14:57:31.449218 97855 net.cpp:228] Setting up relu1
I1226 14:57:31.449280 97855 net.cpp:235] Top shape: 128 96 55 55 (37171200)
I1226 14:57:31.449306 97855 net.cpp:243] Memory required for data: 376519680
I1226 14:57:31.449338 97855 layer_factory.hpp:114] Creating layer norm1
I1226 14:57:31.449406 97855 net.cpp:178] Creating Layer norm1
I1226 14:57:31.449448 97855 net.cpp:612] norm1 <- conv1
I1226 14:57:31.449492 97855 net.cpp:586] norm1 -> norm1
I1226 14:57:31.449604 97855 net.cpp:228] Setting up norm1
I1226 14:57:31.449652 97855 net.cpp:235] Top shape: 128 96 55 55 (37171200)
I1226 14:57:31.449676 97855 net.cpp:243] Memory required for data: 525204480
I1226 14:57:31.449707 97855 layer_factory.hpp:114] Creating layer pool1
I1226 14:57:31.449798 97855 net.cpp:178] Creating Layer pool1
I1226 14:57:31.449833 97855 net.cpp:612] pool1 <- norm1
I1226 14:57:31.449887 97855 net.cpp:586] pool1 -> pool1
I1226 14:57:31.450016 97855 net.cpp:228] Setting up pool1
I1226 14:57:31.450067 97855 net.cpp:235] Top shape: 128 96 27 27 (8957952)
I1226 14:57:31.450099 97855 net.cpp:243] Memory required for data: 561036288
I1226 14:57:31.450129 97855 layer_factory.hpp:114] Creating layer conv2
I1226 14:57:31.450208 97855 net.cpp:178] Creating Layer conv2
I1226 14:57:31.450245 97855 net.cpp:612] conv2 <- pool1
I1226 14:57:31.450297 97855 net.cpp:586] conv2 -> conv2
I1226 14:57:31.499753 97424 net.cpp:228] Setting up conv1
I1226 14:57:31.499893 97424 net.cpp:235] Top shape: 128 96 55 55 (37171200)
I1226 14:57:31.499930 97424 net.cpp:243] Memory required for data: 227834880
I1226 14:57:31.500047 97424 layer_factory.hpp:114] Creating layer relu1
I1226 14:57:31.500139 97424 net.cpp:178] Creating Layer relu1
I1226 14:57:31.500178 97424 net.cpp:612] relu1 <- conv1
I1226 14:57:31.500222 97424 net.cpp:573] relu1 -> conv1 (in-place)
I1226 14:57:31.500355 97424 net.cpp:228] Setting up relu1
I1226 14:57:31.500411 97424 net.cpp:235] Top shape: 128 96 55 55 (37171200)
I1226 14:57:31.500437 97424 net.cpp:243] Memory required for data: 376519680
I1226 14:57:31.500471 97424 layer_factory.hpp:114] Creating layer norm1
I1226 14:57:31.500558 97424 net.cpp:178] Creating Layer norm1
I1226 14:57:31.500596 97424 net.cpp:612] norm1 <- conv1
I1226 14:57:31.500638 97424 net.cpp:586] norm1 -> norm1
I1226 14:57:31.500749 97424 net.cpp:228] Setting up norm1
I1226 14:57:31.513883 97424 net.cpp:235] Top shape: 128 96 55 55 (37171200)
I1226 14:57:31.513972 97424 net.cpp:243] Memory required for data: 525204480
I1226 14:57:31.514014 97424 layer_factory.hpp:114] Creating layer pool1
I1226 14:57:31.514111 97424 net.cpp:178] Creating Layer pool1
I1226 14:57:31.514158 97424 net.cpp:612] pool1 <- norm1
I1226 14:57:31.514206 97424 net.cpp:586] pool1 -> pool1
I1226 14:57:31.514340 97424 net.cpp:228] Setting up pool1
I1226 14:57:31.514401 97424 net.cpp:235] Top shape: 128 96 27 27 (8957952)
I1226 14:57:31.514427 97424 net.cpp:243] Memory required for data: 561036288
I1226 14:57:31.514459 97424 layer_factory.hpp:114] Creating layer conv2
I1226 14:57:31.514559 97424 net.cpp:178] Creating Layer conv2
I1226 14:57:31.514600 97424 net.cpp:612] conv2 <- pool1
I1226 14:57:31.514647 97424 net.cpp:586] conv2 -> conv2
I1226 14:57:31.694942 118646 net.cpp:228] Setting up conv4
I1226 14:57:31.695049 118646 net.cpp:235] Top shape: 128 384 13 13 (8306688)
I1226 14:57:31.695078 118646 net.cpp:243] Memory required for data: 969522176
I1226 14:57:31.695137 118646 layer_factory.hpp:114] Creating layer relu4
I1226 14:57:31.695233 118646 net.cpp:178] Creating Layer relu4
I1226 14:57:31.695344 118646 net.cpp:612] relu4 <- conv4
I1226 14:57:31.695389 118646 net.cpp:573] relu4 -> conv4 (in-place)
I1226 14:57:31.695574 118646 net.cpp:228] Setting up relu4
I1226 14:57:31.695688 118646 net.cpp:235] Top shape: 128 384 13 13 (8306688)
I1226 14:57:31.695716 118646 net.cpp:243] Memory required for data: 1002748928
I1226 14:57:31.695749 118646 layer_factory.hpp:114] Creating layer conv5
I1226 14:57:31.695971 118646 net.cpp:178] Creating Layer conv5
I1226 14:57:31.696017 118646 net.cpp:612] conv5 <- conv4
I1226 14:57:31.696599 118646 net.cpp:586] conv5 -> conv5
I1226 14:57:31.735127 91414 net.cpp:228] Setting up conv4
I1226 14:57:31.735244 91414 net.cpp:235] Top shape: 128 384 13 13 (8306688)
I1226 14:57:31.735296 91414 net.cpp:243] Memory required for data: 969522176
I1226 14:57:31.735357 91414 layer_factory.hpp:114] Creating layer relu4
I1226 14:57:31.735445 91414 net.cpp:178] Creating Layer relu4
I1226 14:57:31.735481 91414 net.cpp:612] relu4 <- conv4
I1226 14:57:31.735529 91414 net.cpp:573] relu4 -> conv4 (in-place)
I1226 14:57:31.735623 91414 net.cpp:228] Setting up relu4
I1226 14:57:31.735671 91414 net.cpp:235] Top shape: 128 384 13 13 (8306688)
I1226 14:57:31.735695 91414 net.cpp:243] Memory required for data: 1002748928
I1226 14:57:31.735725 91414 layer_factory.hpp:114] Creating layer conv5
I1226 14:57:31.730548 94946 net.cpp:228] Setting up conv4
I1226 14:57:31.735818 91414 net.cpp:178] Creating Layer conv5
I1226 14:57:31.730968 94946 net.cpp:235] Top shape: 128 384 13 13 (8306688)
I1226 14:57:31.735851 91414 net.cpp:612] conv5 <- conv4
I1226 14:57:31.735911 91414 net.cpp:586] conv5 -> conv5
I1226 14:57:31.731082 94946 net.cpp:243] Memory required for data: 969522176
I1226 14:57:31.731295 94946 layer_factory.hpp:114] Creating layer relu4
I1226 14:57:31.731392 94946 net.cpp:178] Creating Layer relu4
I1226 14:57:31.731436 94946 net.cpp:612] relu4 <- conv4
I1226 14:57:31.731621 94946 net.cpp:573] relu4 -> conv4 (in-place)
I1226 14:57:31.731725 94946 net.cpp:228] Setting up relu4
I1226 14:57:31.731806 94946 net.cpp:235] Top shape: 128 384 13 13 (8306688)
I1226 14:57:31.731842 94946 net.cpp:243] Memory required for data: 1002748928
I1226 14:57:31.731873 94946 layer_factory.hpp:114] Creating layer conv5
I1226 14:57:31.731961 94946 net.cpp:178] Creating Layer conv5
I1226 14:57:31.732585 94946 net.cpp:612] conv5 <- conv4
I1226 14:57:31.732745 94946 net.cpp:586] conv5 -> conv5
I1226 14:57:31.759127 91862 net.cpp:228] Setting up conv4
I1226 14:57:31.754297 86421 net.cpp:228] Setting up conv4
I1226 14:57:31.759254 91862 net.cpp:235] Top shape: 128 384 13 13 (8306688)
I1226 14:57:31.759290 91862 net.cpp:243] Memory required for data: 969522176
I1226 14:57:31.754407 86421 net.cpp:235] Top shape: 128 384 13 13 (8306688)
I1226 14:57:31.754436 86421 net.cpp:243] Memory required for data: 969522176
I1226 14:57:31.759385 91862 layer_factory.hpp:114] Creating layer relu4
I1226 14:57:31.754493 86421 layer_factory.hpp:114] Creating layer relu4
I1226 14:57:31.759456 91862 net.cpp:178] Creating Layer relu4
I1226 14:57:31.754551 86421 net.cpp:178] Creating Layer relu4
I1226 14:57:31.759526 91862 net.cpp:612] relu4 <- conv4
I1226 14:57:31.759573 91862 net.cpp:573] relu4 -> conv4 (in-place)
I1226 14:57:31.754580 86421 net.cpp:612] relu4 <- conv4
I1226 14:57:31.759656 91862 net.cpp:228] Setting up relu4
I1226 14:57:31.759770 91862 net.cpp:235] Top shape: 128 384 13 13 (8306688)
I1226 14:57:31.759858 91862 net.cpp:243] Memory required for data: 1002748928
I1226 14:57:31.760087 91862 layer_factory.hpp:114] Creating layer conv5
I1226 14:57:31.760185 91862 net.cpp:178] Creating Layer conv5
I1226 14:57:31.760237 91862 net.cpp:612] conv5 <- conv4
I1226 14:57:31.760284 91862 net.cpp:586] conv5 -> conv5
I1226 14:57:31.754639 86421 net.cpp:573] relu4 -> conv4 (in-place)
I1226 14:57:31.759943 86421 net.cpp:228] Setting up relu4
I1226 14:57:31.760025 86421 net.cpp:235] Top shape: 128 384 13 13 (8306688)
I1226 14:57:31.760051 86421 net.cpp:243] Memory required for data: 1002748928
I1226 14:57:31.760126 86421 layer_factory.hpp:114] Creating layer conv5
I1226 14:57:31.760268 86421 net.cpp:178] Creating Layer conv5
I1226 14:57:31.760349 86421 net.cpp:612] conv5 <- conv4
I1226 14:57:31.760406 86421 net.cpp:586] conv5 -> conv5
I1226 14:57:31.942901 118646 net.cpp:228] Setting up conv5
I1226 14:57:31.943008 118646 net.cpp:235] Top shape: 128 256 13 13 (5537792)
I1226 14:57:31.943035 118646 net.cpp:243] Memory required for data: 1024900096
I1226 14:57:31.943147 118646 layer_factory.hpp:114] Creating layer relu5
I1226 14:57:31.943235 118646 net.cpp:178] Creating Layer relu5
I1226 14:57:31.943305 118646 net.cpp:612] relu5 <- conv5
I1226 14:57:31.943346 118646 net.cpp:573] relu5 -> conv5 (in-place)
I1226 14:57:31.943437 118646 net.cpp:228] Setting up relu5
I1226 14:57:31.943506 118646 net.cpp:235] Top shape: 128 256 13 13 (5537792)
I1226 14:57:31.943529 118646 net.cpp:243] Memory required for data: 1047051264
I1226 14:57:31.943583 118646 layer_factory.hpp:114] Creating layer pool5
I1226 14:57:31.943636 118646 net.cpp:178] Creating Layer pool5
I1226 14:57:31.943670 118646 net.cpp:612] pool5 <- conv5
I1226 14:57:31.943708 118646 net.cpp:586] pool5 -> pool5
I1226 14:57:31.943800 118646 net.cpp:228] Setting up pool5
I1226 14:57:31.943836 118646 net.cpp:235] Top shape: 128 256 6 6 (1179648)
I1226 14:57:31.943953 118646 net.cpp:243] Memory required for data: 1051769856
I1226 14:57:31.943980 118646 layer_factory.hpp:114] Creating layer fc6
I1226 14:57:31.944068 118646 net.cpp:178] Creating Layer fc6
I1226 14:57:31.944102 118646 net.cpp:612] fc6 <- pool5
I1226 14:57:31.944151 118646 net.cpp:586] fc6 -> fc6
I1226 14:57:31.966542 91414 net.cpp:228] Setting up conv5
I1226 14:57:31.966902 91414 net.cpp:235] Top shape: 128 256 13 13 (5537792)
I1226 14:57:31.966956 91414 net.cpp:243] Memory required for data: 1024900096
I1226 14:57:31.967085 91414 layer_factory.hpp:114] Creating layer relu5
I1226 14:57:31.967181 91414 net.cpp:178] Creating Layer relu5
I1226 14:57:31.967339 91414 net.cpp:612] relu5 <- conv5
I1226 14:57:31.967404 91414 net.cpp:573] relu5 -> conv5 (in-place)
I1226 14:57:31.967530 91414 net.cpp:228] Setting up relu5
I1226 14:57:31.967628 91414 net.cpp:235] Top shape: 128 256 13 13 (5537792)
I1226 14:57:31.967653 91414 net.cpp:243] Memory required for data: 1047051264
I1226 14:57:31.967689 91414 layer_factory.hpp:114] Creating layer pool5
I1226 14:57:31.967767 91414 net.cpp:178] Creating Layer pool5
I1226 14:57:31.967793 91414 net.cpp:612] pool5 <- conv5
I1226 14:57:31.967831 91414 net.cpp:586] pool5 -> pool5
I1226 14:57:31.967942 91414 net.cpp:228] Setting up pool5
I1226 14:57:31.967988 91414 net.cpp:235] Top shape: 128 256 6 6 (1179648)
I1226 14:57:31.968034 91414 net.cpp:243] Memory required for data: 1051769856
I1226 14:57:31.968061 91414 layer_factory.hpp:114] Creating layer fc6
I1226 14:57:31.968147 91414 net.cpp:178] Creating Layer fc6
I1226 14:57:31.968185 91414 net.cpp:612] fc6 <- pool5
I1226 14:57:31.968240 91414 net.cpp:586] fc6 -> fc6
I1226 14:57:31.970541 94946 net.cpp:228] Setting up conv5
I1226 14:57:31.970649 94946 net.cpp:235] Top shape: 128 256 13 13 (5537792)
I1226 14:57:31.970676 94946 net.cpp:243] Memory required for data: 1024900096
I1226 14:57:31.970773 94946 layer_factory.hpp:114] Creating layer relu5
I1226 14:57:31.970948 94946 net.cpp:178] Creating Layer relu5
I1226 14:57:31.970986 94946 net.cpp:612] relu5 <- conv5
I1226 14:57:31.971047 94946 net.cpp:573] relu5 -> conv5 (in-place)
I1226 14:57:31.971554 94946 net.cpp:228] Setting up relu5
I1226 14:57:31.971747 94946 net.cpp:235] Top shape: 128 256 13 13 (5537792)
I1226 14:57:31.971803 94946 net.cpp:243] Memory required for data: 1047051264
I1226 14:57:31.971842 94946 layer_factory.hpp:114] Creating layer pool5
I1226 14:57:31.971941 94946 net.cpp:178] Creating Layer pool5
I1226 14:57:31.972074 94946 net.cpp:612] pool5 <- conv5
I1226 14:57:31.972120 94946 net.cpp:586] pool5 -> pool5
I1226 14:57:31.972318 94946 net.cpp:228] Setting up pool5
I1226 14:57:31.972400 94946 net.cpp:235] Top shape: 128 256 6 6 (1179648)
I1226 14:57:31.972427 94946 net.cpp:243] Memory required for data: 1051769856
I1226 14:57:31.972479 94946 layer_factory.hpp:114] Creating layer fc6
I1226 14:57:31.972579 94946 net.cpp:178] Creating Layer fc6
I1226 14:57:31.972621 94946 net.cpp:612] fc6 <- pool5
I1226 14:57:31.972693 94946 net.cpp:586] fc6 -> fc6
I1226 14:57:32.030833 86421 net.cpp:228] Setting up conv5
I1226 14:57:32.030944 86421 net.cpp:235] Top shape: 128 256 13 13 (5537792)
I1226 14:57:32.030974 86421 net.cpp:243] Memory required for data: 1024900096
I1226 14:57:32.031050 86421 layer_factory.hpp:114] Creating layer relu5
I1226 14:57:32.031121 86421 net.cpp:178] Creating Layer relu5
I1226 14:57:32.031160 86421 net.cpp:612] relu5 <- conv5
I1226 14:57:32.031249 86421 net.cpp:573] relu5 -> conv5 (in-place)
I1226 14:57:32.031347 86421 net.cpp:228] Setting up relu5
I1226 14:57:32.031424 86421 net.cpp:235] Top shape: 128 256 13 13 (5537792)
I1226 14:57:32.031461 86421 net.cpp:243] Memory required for data: 1047051264
I1226 14:57:32.031510 86421 layer_factory.hpp:114] Creating layer pool5
I1226 14:57:32.031563 86421 net.cpp:178] Creating Layer pool5
I1226 14:57:32.031594 86421 net.cpp:612] pool5 <- conv5
I1226 14:57:32.031653 86421 net.cpp:586] pool5 -> pool5
I1226 14:57:32.031868 86421 net.cpp:228] Setting up pool5
I1226 14:57:32.031985 86421 net.cpp:235] Top shape: 128 256 6 6 (1179648)
I1226 14:57:32.032011 86421 net.cpp:243] Memory required for data: 1051769856
I1226 14:57:32.032039 86421 layer_factory.hpp:114] Creating layer fc6
I1226 14:57:32.032438 86421 net.cpp:178] Creating Layer fc6
I1226 14:57:32.032501 86421 net.cpp:612] fc6 <- pool5
I1226 14:57:32.032582 86421 net.cpp:586] fc6 -> fc6
I1226 14:57:32.057015 91862 net.cpp:228] Setting up conv5
I1226 14:57:32.057126 91862 net.cpp:235] Top shape: 128 256 13 13 (5537792)
I1226 14:57:32.057152 91862 net.cpp:243] Memory required for data: 1024900096
I1226 14:57:32.057225 91862 layer_factory.hpp:114] Creating layer relu5
I1226 14:57:32.057294 91862 net.cpp:178] Creating Layer relu5
I1226 14:57:32.057327 91862 net.cpp:612] relu5 <- conv5
I1226 14:57:32.057391 91862 net.cpp:573] relu5 -> conv5 (in-place)
I1226 14:57:32.057492 91862 net.cpp:228] Setting up relu5
I1226 14:57:32.057535 91862 net.cpp:235] Top shape: 128 256 13 13 (5537792)
I1226 14:57:32.057559 91862 net.cpp:243] Memory required for data: 1047051264
I1226 14:57:32.057588 91862 layer_factory.hpp:114] Creating layer pool5
I1226 14:57:32.057648 91862 net.cpp:178] Creating Layer pool5
I1226 14:57:32.057674 91862 net.cpp:612] pool5 <- conv5
I1226 14:57:32.057709 91862 net.cpp:586] pool5 -> pool5
I1226 14:57:32.057845 91862 net.cpp:228] Setting up pool5
I1226 14:57:32.057904 91862 net.cpp:235] Top shape: 128 256 6 6 (1179648)
I1226 14:57:32.057929 91862 net.cpp:243] Memory required for data: 1051769856
I1226 14:57:32.057956 91862 layer_factory.hpp:114] Creating layer fc6
I1226 14:57:32.058044 91862 net.cpp:178] Creating Layer fc6
I1226 14:57:32.058084 91862 net.cpp:612] fc6 <- pool5
I1226 14:57:32.058125 91862 net.cpp:586] fc6 -> fc6
I1226 14:57:32.636639 95720 net.cpp:228] Setting up conv2
I1226 14:57:32.636752 95720 net.cpp:235] Top shape: 128 256 27 27 (23887872)
I1226 14:57:32.636782 95720 net.cpp:243] Memory required for data: 656587776
I1226 14:57:32.644078 95720 layer_factory.hpp:114] Creating layer relu2
I1226 14:57:32.644222 95720 net.cpp:178] Creating Layer relu2
I1226 14:57:32.644338 95720 net.cpp:612] relu2 <- conv2
I1226 14:57:32.644487 95720 net.cpp:573] relu2 -> conv2 (in-place)
I1226 14:57:32.644747 95720 net.cpp:228] Setting up relu2
I1226 14:57:32.644837 95720 net.cpp:235] Top shape: 128 256 27 27 (23887872)
I1226 14:57:32.644879 95720 net.cpp:243] Memory required for data: 752139264
I1226 14:57:32.644917 95720 layer_factory.hpp:114] Creating layer norm2
I1226 14:57:32.644979 95720 net.cpp:178] Creating Layer norm2
I1226 14:57:32.645011 95720 net.cpp:612] norm2 <- conv2
I1226 14:57:32.645054 95720 net.cpp:586] norm2 -> norm2
I1226 14:57:32.645177 95720 net.cpp:228] Setting up norm2
I1226 14:57:32.645242 95720 net.cpp:235] Top shape: 128 256 27 27 (23887872)
I1226 14:57:32.645272 95720 net.cpp:243] Memory required for data: 847690752
I1226 14:57:32.645304 95720 layer_factory.hpp:114] Creating layer pool2
I1226 14:57:32.645368 95720 net.cpp:178] Creating Layer pool2
I1226 14:57:32.645401 95720 net.cpp:612] pool2 <- norm2
I1226 14:57:32.645448 95720 net.cpp:586] pool2 -> pool2
I1226 14:57:32.645562 95720 net.cpp:228] Setting up pool2
I1226 14:57:32.645716 95720 net.cpp:235] Top shape: 128 256 13 13 (5537792)
I1226 14:57:32.645746 95720 net.cpp:243] Memory required for data: 869841920
I1226 14:57:32.645779 95720 layer_factory.hpp:114] Creating layer conv3
I1226 14:57:32.645881 95720 net.cpp:178] Creating Layer conv3
I1226 14:57:32.645917 95720 net.cpp:612] conv3 <- pool2
I1226 14:57:32.645990 95720 net.cpp:586] conv3 -> conv3
I1226 14:57:32.954926 97855 net.cpp:228] Setting up conv2
I1226 14:57:32.955040 97855 net.cpp:235] Top shape: 128 256 27 27 (23887872)
I1226 14:57:32.955070 97855 net.cpp:243] Memory required for data: 656587776
I1226 14:57:32.955142 97855 layer_factory.hpp:114] Creating layer relu2
I1226 14:57:32.955353 97855 net.cpp:178] Creating Layer relu2
I1226 14:57:32.955399 97855 net.cpp:612] relu2 <- conv2
I1226 14:57:32.955461 97855 net.cpp:573] relu2 -> conv2 (in-place)
I1226 14:57:32.955566 97855 net.cpp:228] Setting up relu2
I1226 14:57:32.955629 97855 net.cpp:235] Top shape: 128 256 27 27 (23887872)
I1226 14:57:32.955656 97855 net.cpp:243] Memory required for data: 752139264
I1226 14:57:32.955687 97855 layer_factory.hpp:114] Creating layer norm2
I1226 14:57:32.955771 97855 net.cpp:178] Creating Layer norm2
I1226 14:57:32.955806 97855 net.cpp:612] norm2 <- conv2
I1226 14:57:32.955859 97855 net.cpp:586] norm2 -> norm2
I1226 14:57:32.955958 97855 net.cpp:228] Setting up norm2
I1226 14:57:32.956015 97855 net.cpp:235] Top shape: 128 256 27 27 (23887872)
I1226 14:57:32.956039 97855 net.cpp:243] Memory required for data: 847690752
I1226 14:57:32.956070 97855 layer_factory.hpp:114] Creating layer pool2
I1226 14:57:32.956116 97855 net.cpp:178] Creating Layer pool2
I1226 14:57:32.956151 97855 net.cpp:612] pool2 <- norm2
I1226 14:57:32.956190 97855 net.cpp:586] pool2 -> pool2
I1226 14:57:32.956305 97855 net.cpp:228] Setting up pool2
I1226 14:57:32.956450 97855 net.cpp:235] Top shape: 128 256 13 13 (5537792)
I1226 14:57:32.956480 97855 net.cpp:243] Memory required for data: 869841920
I1226 14:57:32.956511 97855 layer_factory.hpp:114] Creating layer conv3
I1226 14:57:32.956606 97855 net.cpp:178] Creating Layer conv3
I1226 14:57:32.956645 97855 net.cpp:612] conv3 <- pool2
I1226 14:57:32.956691 97855 net.cpp:586] conv3 -> conv3
I1226 14:57:33.154197 97424 net.cpp:228] Setting up conv2
I1226 14:57:33.154307 97424 net.cpp:235] Top shape: 128 256 27 27 (23887872)
I1226 14:57:33.154340 97424 net.cpp:243] Memory required for data: 656587776
I1226 14:57:33.154414 97424 layer_factory.hpp:114] Creating layer relu2
I1226 14:57:33.154486 97424 net.cpp:178] Creating Layer relu2
I1226 14:57:33.154531 97424 net.cpp:612] relu2 <- conv2
I1226 14:57:33.154575 97424 net.cpp:573] relu2 -> conv2 (in-place)
I1226 14:57:33.154685 97424 net.cpp:228] Setting up relu2
I1226 14:57:33.154737 97424 net.cpp:235] Top shape: 128 256 27 27 (23887872)
I1226 14:57:33.154764 97424 net.cpp:243] Memory required for data: 752139264
I1226 14:57:33.154819 97424 layer_factory.hpp:114] Creating layer norm2
I1226 14:57:33.154883 97424 net.cpp:178] Creating Layer norm2
I1226 14:57:33.154922 97424 net.cpp:612] norm2 <- conv2
I1226 14:57:33.154963 97424 net.cpp:586] norm2 -> norm2
I1226 14:57:33.155063 97424 net.cpp:228] Setting up norm2
I1226 14:57:33.155114 97424 net.cpp:235] Top shape: 128 256 27 27 (23887872)
I1226 14:57:33.155139 97424 net.cpp:243] Memory required for data: 847690752
I1226 14:57:33.155169 97424 layer_factory.hpp:114] Creating layer pool2
I1226 14:57:33.155227 97424 net.cpp:178] Creating Layer pool2
I1226 14:57:33.155263 97424 net.cpp:612] pool2 <- norm2
I1226 14:57:33.155300 97424 net.cpp:586] pool2 -> pool2
I1226 14:57:33.155392 97424 net.cpp:228] Setting up pool2
I1226 14:57:33.155539 97424 net.cpp:235] Top shape: 128 256 13 13 (5537792)
I1226 14:57:33.155568 97424 net.cpp:243] Memory required for data: 869841920
I1226 14:57:33.155604 97424 layer_factory.hpp:114] Creating layer conv3
I1226 14:57:33.155685 97424 net.cpp:178] Creating Layer conv3
I1226 14:57:33.155722 97424 net.cpp:612] conv3 <- pool2
I1226 14:57:33.155773 97424 net.cpp:586] conv3 -> conv3
I1226 14:57:34.361240 97424 net.cpp:228] Setting up conv3
I1226 14:57:34.361358 97424 net.cpp:235] Top shape: 128 384 13 13 (8306688)
I1226 14:57:34.361390 97424 net.cpp:243] Memory required for data: 903068672
I1226 14:57:34.361469 97424 layer_factory.hpp:114] Creating layer relu3
I1226 14:57:34.361547 97424 net.cpp:178] Creating Layer relu3
I1226 14:57:34.361693 97424 net.cpp:612] relu3 <- conv3
I1226 14:57:34.361740 97424 net.cpp:573] relu3 -> conv3 (in-place)
I1226 14:57:34.361879 97424 net.cpp:228] Setting up relu3
I1226 14:57:34.361945 97424 net.cpp:235] Top shape: 128 384 13 13 (8306688)
I1226 14:57:34.361979 97424 net.cpp:243] Memory required for data: 936295424
I1226 14:57:34.362017 97424 layer_factory.hpp:114] Creating layer conv4
I1226 14:57:34.362113 97424 net.cpp:178] Creating Layer conv4
I1226 14:57:34.362159 97424 net.cpp:612] conv4 <- conv3
I1226 14:57:34.362215 97424 net.cpp:586] conv4 -> conv4
I1226 14:57:34.499778 95720 net.cpp:228] Setting up conv3
I1226 14:57:34.499924 95720 net.cpp:235] Top shape: 128 384 13 13 (8306688)
I1226 14:57:34.499958 95720 net.cpp:243] Memory required for data: 903068672
I1226 14:57:34.500056 95720 layer_factory.hpp:114] Creating layer relu3
I1226 14:57:34.500138 95720 net.cpp:178] Creating Layer relu3
I1226 14:57:34.500180 95720 net.cpp:612] relu3 <- conv3
I1226 14:57:34.500246 95720 net.cpp:573] relu3 -> conv3 (in-place)
I1226 14:57:34.500362 95720 net.cpp:228] Setting up relu3
I1226 14:57:34.500418 95720 net.cpp:235] Top shape: 128 384 13 13 (8306688)
I1226 14:57:34.500447 95720 net.cpp:243] Memory required for data: 936295424
I1226 14:57:34.500483 95720 layer_factory.hpp:114] Creating layer conv4
I1226 14:57:34.500574 95720 net.cpp:178] Creating Layer conv4
I1226 14:57:34.500649 95720 net.cpp:612] conv4 <- conv3
I1226 14:57:34.500723 95720 net.cpp:586] conv4 -> conv4
I1226 14:57:34.895900 97855 net.cpp:228] Setting up conv3
I1226 14:57:34.896036 97855 net.cpp:235] Top shape: 128 384 13 13 (8306688)
I1226 14:57:34.896070 97855 net.cpp:243] Memory required for data: 903068672
I1226 14:57:34.896147 97855 layer_factory.hpp:114] Creating layer relu3
I1226 14:57:34.896335 97855 net.cpp:178] Creating Layer relu3
I1226 14:57:34.896374 97855 net.cpp:612] relu3 <- conv3
I1226 14:57:34.896415 97855 net.cpp:573] relu3 -> conv3 (in-place)
I1226 14:57:34.896535 97855 net.cpp:228] Setting up relu3
I1226 14:57:34.896587 97855 net.cpp:235] Top shape: 128 384 13 13 (8306688)
I1226 14:57:34.896612 97855 net.cpp:243] Memory required for data: 936295424
I1226 14:57:34.896644 97855 layer_factory.hpp:114] Creating layer conv4
I1226 14:57:34.896761 97855 net.cpp:178] Creating Layer conv4
I1226 14:57:34.896807 97855 net.cpp:612] conv4 <- conv3
I1226 14:57:34.896857 97855 net.cpp:586] conv4 -> conv4
I1226 14:57:35.249557 97424 net.cpp:228] Setting up conv4
I1226 14:57:35.249678 97424 net.cpp:235] Top shape: 128 384 13 13 (8306688)
I1226 14:57:35.249716 97424 net.cpp:243] Memory required for data: 969522176
I1226 14:57:35.249855 97424 layer_factory.hpp:114] Creating layer relu4
I1226 14:57:35.249940 97424 net.cpp:178] Creating Layer relu4
I1226 14:57:35.249981 97424 net.cpp:612] relu4 <- conv4
I1226 14:57:35.250028 97424 net.cpp:573] relu4 -> conv4 (in-place)
I1226 14:57:35.250190 97424 net.cpp:228] Setting up relu4
I1226 14:57:35.250278 97424 net.cpp:235] Top shape: 128 384 13 13 (8306688)
I1226 14:57:35.250407 97424 net.cpp:243] Memory required for data: 1002748928
I1226 14:57:35.250443 97424 layer_factory.hpp:114] Creating layer conv5
I1226 14:57:35.250571 97424 net.cpp:178] Creating Layer conv5
I1226 14:57:35.250614 97424 net.cpp:612] conv5 <- conv4
I1226 14:57:35.250666 97424 net.cpp:586] conv5 -> conv5
I1226 14:57:35.884974 97424 net.cpp:228] Setting up conv5
I1226 14:57:35.885093 97424 net.cpp:235] Top shape: 128 256 13 13 (5537792)
I1226 14:57:35.885124 97424 net.cpp:243] Memory required for data: 1024900096
I1226 14:57:35.885226 97424 layer_factory.hpp:114] Creating layer relu5
I1226 14:57:35.885361 97424 net.cpp:178] Creating Layer relu5
I1226 14:57:35.885401 97424 net.cpp:612] relu5 <- conv5
I1226 14:57:35.885443 97424 net.cpp:573] relu5 -> conv5 (in-place)
I1226 14:57:35.885560 97424 net.cpp:228] Setting up relu5
I1226 14:57:35.885617 97424 net.cpp:235] Top shape: 128 256 13 13 (5537792)
I1226 14:57:35.885643 97424 net.cpp:243] Memory required for data: 1047051264
I1226 14:57:35.885674 97424 layer_factory.hpp:114] Creating layer pool5
I1226 14:57:35.885761 97424 net.cpp:178] Creating Layer pool5
I1226 14:57:35.885826 97424 net.cpp:612] pool5 <- conv5
I1226 14:57:35.885871 97424 net.cpp:586] pool5 -> pool5
I1226 14:57:35.885985 97424 net.cpp:228] Setting up pool5
I1226 14:57:35.886037 97424 net.cpp:235] Top shape: 128 256 6 6 (1179648)
I1226 14:57:35.886061 97424 net.cpp:243] Memory required for data: 1051769856
I1226 14:57:35.886092 97424 layer_factory.hpp:114] Creating layer fc6
I1226 14:57:35.886171 97424 net.cpp:178] Creating Layer fc6
I1226 14:57:35.886210 97424 net.cpp:612] fc6 <- pool5
I1226 14:57:35.886268 97424 net.cpp:586] fc6 -> fc6
I1226 14:57:36.088440 95720 net.cpp:228] Setting up conv4
I1226 14:57:36.088557 95720 net.cpp:235] Top shape: 128 384 13 13 (8306688)
I1226 14:57:36.088591 95720 net.cpp:243] Memory required for data: 969522176
I1226 14:57:36.088721 95720 layer_factory.hpp:114] Creating layer relu4
I1226 14:57:36.088846 95720 net.cpp:178] Creating Layer relu4
I1226 14:57:36.088893 95720 net.cpp:612] relu4 <- conv4
I1226 14:57:36.088942 95720 net.cpp:573] relu4 -> conv4 (in-place)
I1226 14:57:36.089135 95720 net.cpp:228] Setting up relu4
I1226 14:57:36.089246 95720 net.cpp:235] Top shape: 128 384 13 13 (8306688)
I1226 14:57:36.089277 95720 net.cpp:243] Memory required for data: 1002748928
I1226 14:57:36.089686 95720 layer_factory.hpp:114] Creating layer conv5
I1226 14:57:36.089917 95720 net.cpp:178] Creating Layer conv5
I1226 14:57:36.090076 95720 net.cpp:612] conv5 <- conv4
I1226 14:57:36.090140 95720 net.cpp:586] conv5 -> conv5
I1226 14:57:36.192090 97855 net.cpp:228] Setting up conv4
I1226 14:57:36.192209 97855 net.cpp:235] Top shape: 128 384 13 13 (8306688)
I1226 14:57:36.192239 97855 net.cpp:243] Memory required for data: 969522176
I1226 14:57:36.192303 97855 layer_factory.hpp:114] Creating layer relu4
I1226 14:57:36.192471 97855 net.cpp:178] Creating Layer relu4
I1226 14:57:36.192510 97855 net.cpp:612] relu4 <- conv4
I1226 14:57:36.192595 97855 net.cpp:573] relu4 -> conv4 (in-place)
I1226 14:57:36.192705 97855 net.cpp:228] Setting up relu4
I1226 14:57:36.192785 97855 net.cpp:235] Top shape: 128 384 13 13 (8306688)
I1226 14:57:36.192811 97855 net.cpp:243] Memory required for data: 1002748928
I1226 14:57:36.192842 97855 layer_factory.hpp:114] Creating layer conv5
I1226 14:57:36.192931 97855 net.cpp:178] Creating Layer conv5
I1226 14:57:36.192975 97855 net.cpp:612] conv5 <- conv4
I1226 14:57:36.193030 97855 net.cpp:586] conv5 -> conv5
I1226 14:57:36.299178 93926 net.cpp:228] Setting up fc6
I1226 14:57:36.299293 93926 net.cpp:235] Top shape: 128 4096 (524288)
I1226 14:57:36.299322 93926 net.cpp:243] Memory required for data: 1053867008
I1226 14:57:36.299407 93926 layer_factory.hpp:114] Creating layer relu6
I1226 14:57:36.299489 93926 net.cpp:178] Creating Layer relu6
I1226 14:57:36.299525 93926 net.cpp:612] relu6 <- fc6
I1226 14:57:36.299571 93926 net.cpp:573] relu6 -> fc6 (in-place)
I1226 14:57:36.299667 93926 net.cpp:228] Setting up relu6
I1226 14:57:36.299748 93926 net.cpp:235] Top shape: 128 4096 (524288)
I1226 14:57:36.299890 93926 net.cpp:243] Memory required for data: 1055964160
I1226 14:57:36.299931 93926 layer_factory.hpp:114] Creating layer drop6
I1226 14:57:36.299993 93926 net.cpp:178] Creating Layer drop6
I1226 14:57:36.300032 93926 net.cpp:612] drop6 <- fc6
I1226 14:57:36.300070 93926 net.cpp:573] drop6 -> fc6 (in-place)
I1226 14:57:36.300130 93926 net.cpp:228] Setting up drop6
I1226 14:57:36.300178 93926 net.cpp:235] Top shape: 128 4096 (524288)
I1226 14:57:36.300201 93926 net.cpp:243] Memory required for data: 1058061312
I1226 14:57:36.300231 93926 layer_factory.hpp:114] Creating layer fc7
I1226 14:57:36.300288 93926 net.cpp:178] Creating Layer fc7
I1226 14:57:36.300321 93926 net.cpp:612] fc7 <- fc6
I1226 14:57:36.300377 93926 net.cpp:586] fc7 -> fc7
I1226 14:57:36.829512 97855 net.cpp:228] Setting up conv5
I1226 14:57:36.829632 97855 net.cpp:235] Top shape: 128 256 13 13 (5537792)
I1226 14:57:36.829663 97855 net.cpp:243] Memory required for data: 1024900096
I1226 14:57:36.829804 97855 layer_factory.hpp:114] Creating layer relu5
I1226 14:57:36.829890 97855 net.cpp:178] Creating Layer relu5
I1226 14:57:36.829931 97855 net.cpp:612] relu5 <- conv5
I1226 14:57:36.829991 97855 net.cpp:573] relu5 -> conv5 (in-place)
I1226 14:57:36.830106 97855 net.cpp:228] Setting up relu5
I1226 14:57:36.830157 97855 net.cpp:235] Top shape: 128 256 13 13 (5537792)
I1226 14:57:36.830183 97855 net.cpp:243] Memory required for data: 1047051264
I1226 14:57:36.830214 97855 layer_factory.hpp:114] Creating layer pool5
I1226 14:57:36.830277 97855 net.cpp:178] Creating Layer pool5
I1226 14:57:36.830314 97855 net.cpp:612] pool5 <- conv5
I1226 14:57:36.830379 97855 net.cpp:586] pool5 -> pool5
I1226 14:57:36.830472 97855 net.cpp:228] Setting up pool5
I1226 14:57:36.830523 97855 net.cpp:235] Top shape: 128 256 6 6 (1179648)
I1226 14:57:36.830546 97855 net.cpp:243] Memory required for data: 1051769856
I1226 14:57:36.830576 97855 layer_factory.hpp:114] Creating layer fc6
I1226 14:57:36.830651 97855 net.cpp:178] Creating Layer fc6
I1226 14:57:36.830690 97855 net.cpp:612] fc6 <- pool5
I1226 14:57:36.830776 97855 net.cpp:586] fc6 -> fc6
I1226 14:57:36.886250 95720 net.cpp:228] Setting up conv5
I1226 14:57:36.886359 95720 net.cpp:235] Top shape: 128 256 13 13 (5537792)
I1226 14:57:36.886421 95720 net.cpp:243] Memory required for data: 1024900096
I1226 14:57:36.886523 95720 layer_factory.hpp:114] Creating layer relu5
I1226 14:57:36.886623 95720 net.cpp:178] Creating Layer relu5
I1226 14:57:36.886904 95720 net.cpp:612] relu5 <- conv5
I1226 14:57:36.886971 95720 net.cpp:573] relu5 -> conv5 (in-place)
I1226 14:57:36.887094 95720 net.cpp:228] Setting up relu5
I1226 14:57:36.887317 95720 net.cpp:235] Top shape: 128 256 13 13 (5537792)
I1226 14:57:36.887351 95720 net.cpp:243] Memory required for data: 1047051264
I1226 14:57:36.887414 95720 layer_factory.hpp:114] Creating layer pool5
I1226 14:57:36.887485 95720 net.cpp:178] Creating Layer pool5
I1226 14:57:36.887521 95720 net.cpp:612] pool5 <- conv5
I1226 14:57:36.887563 95720 net.cpp:586] pool5 -> pool5
I1226 14:57:36.887717 95720 net.cpp:228] Setting up pool5
I1226 14:57:36.887768 95720 net.cpp:235] Top shape: 128 256 6 6 (1179648)
I1226 14:57:36.887846 95720 net.cpp:243] Memory required for data: 1051769856
I1226 14:57:36.887888 95720 layer_factory.hpp:114] Creating layer fc6
I1226 14:57:36.887972 95720 net.cpp:178] Creating Layer fc6
I1226 14:57:36.888006 95720 net.cpp:612] fc6 <- pool5
I1226 14:57:36.888069 95720 net.cpp:586] fc6 -> fc6
I1226 14:57:38.565912 93926 net.cpp:228] Setting up fc7
I1226 14:57:38.566022 93926 net.cpp:235] Top shape: 128 4096 (524288)
I1226 14:57:38.566051 93926 net.cpp:243] Memory required for data: 1060158464
I1226 14:57:38.566134 93926 layer_factory.hpp:114] Creating layer relu7
I1226 14:57:38.566228 93926 net.cpp:178] Creating Layer relu7
I1226 14:57:38.566273 93926 net.cpp:612] relu7 <- fc7
I1226 14:57:38.566313 93926 net.cpp:573] relu7 -> fc7 (in-place)
I1226 14:57:38.566403 93926 net.cpp:228] Setting up relu7
I1226 14:57:38.566483 93926 net.cpp:235] Top shape: 128 4096 (524288)
I1226 14:57:38.566509 93926 net.cpp:243] Memory required for data: 1062255616
I1226 14:57:38.566539 93926 layer_factory.hpp:114] Creating layer drop7
I1226 14:57:38.566586 93926 net.cpp:178] Creating Layer drop7
I1226 14:57:38.566618 93926 net.cpp:612] drop7 <- fc7
I1226 14:57:38.566665 93926 net.cpp:573] drop7 -> fc7 (in-place)
I1226 14:57:38.566740 93926 net.cpp:228] Setting up drop7
I1226 14:57:38.566782 93926 net.cpp:235] Top shape: 128 4096 (524288)
I1226 14:57:38.566813 93926 net.cpp:243] Memory required for data: 1064352768
I1226 14:57:38.566841 93926 layer_factory.hpp:114] Creating layer fc8
I1226 14:57:38.566897 93926 net.cpp:178] Creating Layer fc8
I1226 14:57:38.566926 93926 net.cpp:612] fc8 <- fc7
I1226 14:57:38.566968 93926 net.cpp:586] fc8 -> fc8
I1226 14:57:38.710686 118646 net.cpp:228] Setting up fc6
I1226 14:57:38.710798 118646 net.cpp:235] Top shape: 128 4096 (524288)
I1226 14:57:38.710824 118646 net.cpp:243] Memory required for data: 1053867008
I1226 14:57:38.710907 118646 layer_factory.hpp:114] Creating layer relu6
I1226 14:57:38.710980 118646 net.cpp:178] Creating Layer relu6
I1226 14:57:38.711123 118646 net.cpp:612] relu6 <- fc6
I1226 14:57:38.711190 118646 net.cpp:573] relu6 -> fc6 (in-place)
I1226 14:57:38.711284 118646 net.cpp:228] Setting up relu6
I1226 14:57:38.711331 118646 net.cpp:235] Top shape: 128 4096 (524288)
I1226 14:57:38.711356 118646 net.cpp:243] Memory required for data: 1055964160
I1226 14:57:38.711386 118646 layer_factory.hpp:114] Creating layer drop6
I1226 14:57:38.711443 118646 net.cpp:178] Creating Layer drop6
I1226 14:57:38.711470 118646 net.cpp:612] drop6 <- fc6
I1226 14:57:38.711504 118646 net.cpp:573] drop6 -> fc6 (in-place)
I1226 14:57:38.711581 118646 net.cpp:228] Setting up drop6
I1226 14:57:38.711618 118646 net.cpp:235] Top shape: 128 4096 (524288)
I1226 14:57:38.711640 118646 net.cpp:243] Memory required for data: 1058061312
I1226 14:57:38.711680 118646 layer_factory.hpp:114] Creating layer fc7
I1226 14:57:38.711740 118646 net.cpp:178] Creating Layer fc7
I1226 14:57:38.711776 118646 net.cpp:612] fc7 <- fc6
I1226 14:57:38.711822 118646 net.cpp:586] fc7 -> fc7
I1226 14:57:38.807293 91862 net.cpp:228] Setting up fc6
I1226 14:57:38.807409 91862 net.cpp:235] Top shape: 128 4096 (524288)
I1226 14:57:38.807437 91862 net.cpp:243] Memory required for data: 1053867008
I1226 14:57:38.807495 91862 layer_factory.hpp:114] Creating layer relu6
I1226 14:57:38.791193 91414 net.cpp:228] Setting up fc6
I1226 14:57:38.807577 91862 net.cpp:178] Creating Layer relu6
I1226 14:57:38.791342 91414 net.cpp:235] Top shape: 128 4096 (524288)
I1226 14:57:38.807698 91862 net.cpp:612] relu6 <- fc6
I1226 14:57:38.807737 91862 net.cpp:573] relu6 -> fc6 (in-place)
I1226 14:57:38.791375 91414 net.cpp:243] Memory required for data: 1053867008
I1226 14:57:38.807854 91862 net.cpp:228] Setting up relu6
I1226 14:57:38.791545 91414 layer_factory.hpp:114] Creating layer relu6
I1226 14:57:38.808017 91862 net.cpp:235] Top shape: 128 4096 (524288)
I1226 14:57:38.791615 91414 net.cpp:178] Creating Layer relu6
I1226 14:57:38.808050 91862 net.cpp:243] Memory required for data: 1055964160
I1226 14:57:38.791676 91414 net.cpp:612] relu6 <- fc6
I1226 14:57:38.808096 91862 layer_factory.hpp:114] Creating layer drop6
I1226 14:57:38.808151 91862 net.cpp:178] Creating Layer drop6
I1226 14:57:38.791844 91414 net.cpp:573] relu6 -> fc6 (in-place)
I1226 14:57:38.808183 91862 net.cpp:612] drop6 <- fc6
I1226 14:57:38.808228 91862 net.cpp:573] drop6 -> fc6 (in-place)
I1226 14:57:38.808290 91862 net.cpp:228] Setting up drop6
I1226 14:57:38.808323 91862 net.cpp:235] Top shape: 128 4096 (524288)
I1226 14:57:38.791959 91414 net.cpp:228] Setting up relu6
I1226 14:57:38.808346 91862 net.cpp:243] Memory required for data: 1058061312
I1226 14:57:38.792102 91414 net.cpp:235] Top shape: 128 4096 (524288)
I1226 14:57:38.808383 91862 layer_factory.hpp:114] Creating layer fc7
I1226 14:57:38.792134 91414 net.cpp:243] Memory required for data: 1055964160
I1226 14:57:38.792163 91414 layer_factory.hpp:114] Creating layer drop6
I1226 14:57:38.808449 91862 net.cpp:178] Creating Layer fc7
I1226 14:57:38.792215 91414 net.cpp:178] Creating Layer drop6
I1226 14:57:38.808480 91862 net.cpp:612] fc7 <- fc6
I1226 14:57:38.792243 91414 net.cpp:612] drop6 <- fc6
I1226 14:57:38.808518 91862 net.cpp:586] fc7 -> fc7
I1226 14:57:38.792320 91414 net.cpp:573] drop6 -> fc6 (in-place)
I1226 14:57:38.792376 91414 net.cpp:228] Setting up drop6
I1226 14:57:38.792412 91414 net.cpp:235] Top shape: 128 4096 (524288)
I1226 14:57:38.792443 91414 net.cpp:243] Memory required for data: 1058061312
I1226 14:57:38.792471 91414 layer_factory.hpp:114] Creating layer fc7
I1226 14:57:38.792531 91414 net.cpp:178] Creating Layer fc7
I1226 14:57:38.792565 91414 net.cpp:612] fc7 <- fc6
I1226 14:57:38.792603 91414 net.cpp:586] fc7 -> fc7
I1226 14:57:38.807993 86421 net.cpp:228] Setting up fc6
I1226 14:57:38.808109 86421 net.cpp:235] Top shape: 128 4096 (524288)
I1226 14:57:38.808140 86421 net.cpp:243] Memory required for data: 1053867008
I1226 14:57:38.808195 86421 layer_factory.hpp:114] Creating layer relu6
I1226 14:57:38.808270 86421 net.cpp:178] Creating Layer relu6
I1226 14:57:38.808310 86421 net.cpp:612] relu6 <- fc6
I1226 14:57:38.808349 86421 net.cpp:573] relu6 -> fc6 (in-place)
I1226 14:57:38.808437 86421 net.cpp:228] Setting up relu6
I1226 14:57:38.808588 86421 net.cpp:235] Top shape: 128 4096 (524288)
I1226 14:57:38.808620 86421 net.cpp:243] Memory required for data: 1055964160
I1226 14:57:38.808652 86421 layer_factory.hpp:114] Creating layer drop6
I1226 14:57:38.808744 86421 net.cpp:178] Creating Layer drop6
I1226 14:57:38.808773 86421 net.cpp:612] drop6 <- fc6
I1226 14:57:38.808810 86421 net.cpp:573] drop6 -> fc6 (in-place)
I1226 14:57:38.808874 86421 net.cpp:228] Setting up drop6
I1226 14:57:38.808909 86421 net.cpp:235] Top shape: 128 4096 (524288)
I1226 14:57:38.808933 86421 net.cpp:243] Memory required for data: 1058061312
I1226 14:57:38.808969 86421 layer_factory.hpp:114] Creating layer fc7
I1226 14:57:38.809025 86421 net.cpp:178] Creating Layer fc7
I1226 14:57:38.809049 86421 net.cpp:612] fc7 <- fc6
I1226 14:57:38.809087 86421 net.cpp:586] fc7 -> fc7
I1226 14:57:38.848738 94946 net.cpp:228] Setting up fc6
I1226 14:57:38.848852 94946 net.cpp:235] Top shape: 128 4096 (524288)
I1226 14:57:38.848883 94946 net.cpp:243] Memory required for data: 1053867008
I1226 14:57:38.848942 94946 layer_factory.hpp:114] Creating layer relu6
I1226 14:57:38.849017 94946 net.cpp:178] Creating Layer relu6
I1226 14:57:38.849051 94946 net.cpp:612] relu6 <- fc6
I1226 14:57:38.849114 94946 net.cpp:573] relu6 -> fc6 (in-place)
I1226 14:57:38.849205 94946 net.cpp:228] Setting up relu6
I1226 14:57:38.849355 94946 net.cpp:235] Top shape: 128 4096 (524288)
I1226 14:57:38.849416 94946 net.cpp:243] Memory required for data: 1055964160
I1226 14:57:38.849448 94946 layer_factory.hpp:114] Creating layer drop6
I1226 14:57:38.849503 94946 net.cpp:178] Creating Layer drop6
I1226 14:57:38.849545 94946 net.cpp:612] drop6 <- fc6
I1226 14:57:38.849586 94946 net.cpp:573] drop6 -> fc6 (in-place)
I1226 14:57:38.849642 94946 net.cpp:228] Setting up drop6
I1226 14:57:38.849678 94946 net.cpp:235] Top shape: 128 4096 (524288)
I1226 14:57:38.849700 94946 net.cpp:243] Memory required for data: 1058061312
I1226 14:57:38.849728 94946 layer_factory.hpp:114] Creating layer fc7
I1226 14:57:38.849784 94946 net.cpp:178] Creating Layer fc7
I1226 14:57:38.849817 94946 net.cpp:612] fc7 <- fc6
I1226 14:57:38.849853 94946 net.cpp:586] fc7 -> fc7
I1226 14:57:39.121085 93926 net.cpp:228] Setting up fc8
I1226 14:57:39.121198 93926 net.cpp:235] Top shape: 128 1000 (128000)
I1226 14:57:39.121227 93926 net.cpp:243] Memory required for data: 1064864768
I1226 14:57:39.121282 93926 layer_factory.hpp:114] Creating layer fc8_fc8_0_split
I1226 14:57:39.121377 93926 net.cpp:178] Creating Layer fc8_fc8_0_split
I1226 14:57:39.121423 93926 net.cpp:612] fc8_fc8_0_split <- fc8
I1226 14:57:39.121464 93926 net.cpp:586] fc8_fc8_0_split -> fc8_fc8_0_split_0
I1226 14:57:39.121510 93926 net.cpp:586] fc8_fc8_0_split -> fc8_fc8_0_split_1
I1226 14:57:39.121592 93926 net.cpp:228] Setting up fc8_fc8_0_split
I1226 14:57:39.121647 93926 net.cpp:235] Top shape: 128 1000 (128000)
I1226 14:57:39.121709 93926 net.cpp:235] Top shape: 128 1000 (128000)
I1226 14:57:39.121737 93926 net.cpp:243] Memory required for data: 1065888768
I1226 14:57:39.121767 93926 layer_factory.hpp:114] Creating layer accuracy
I1226 14:57:39.121821 93926 net.cpp:178] Creating Layer accuracy
I1226 14:57:39.121850 93926 net.cpp:612] accuracy <- fc8_fc8_0_split_0
I1226 14:57:39.121891 93926 net.cpp:612] accuracy <- label_data_1_split_0
I1226 14:57:39.121932 93926 net.cpp:586] accuracy -> accuracy
…
I1226 14:57:39.157582 93926 net.cpp:307] data does not need backward computation.
I1226 14:57:39.157614 93926 net.cpp:349] This network produces output accuracy
I1226 14:57:39.157651 93926 net.cpp:349] This network produces output loss
I1226 14:57:39.157783 93926 net.cpp:363] Network initialization done.
I1226 14:57:39.158313 93926 solver.cpp:107] Solver scaffolding done.
I1226 14:57:39.158592 93926 caffe.cpp:212] Finetuning from /export/data1/stanford/hazy/gordon_bell/caffenet_knl/snapshot/caffenet_MN8_B1024/_iter_25000.caffemodel
I1226 14:57:40.971253 118646 net.cpp:228] Setting up fc7
I1226 14:57:40.971364 118646 net.cpp:235] Top shape: 128 4096 (524288)
I1226 14:57:40.971393 118646 net.cpp:243] Memory required for data: 1060158464
I1226 14:57:40.971448 118646 layer_factory.hpp:114] Creating layer relu7
I1226 14:57:40.971520 118646 net.cpp:178] Creating Layer relu7
I1226 14:57:40.971587 118646 net.cpp:612] relu7 <- fc7
I1226 14:57:40.971627 118646 net.cpp:573] relu7 -> fc7 (in-place)
I1226 14:57:40.971807 118646 net.cpp:228] Setting up relu7
I1226 14:57:40.971856 118646 net.cpp:235] Top shape: 128 4096 (524288)
I1226 14:57:40.971881 118646 net.cpp:243] Memory required for data: 1062255616
I1226 14:57:40.971910 118646 layer_factory.hpp:114] Creating layer drop7
I1226 14:57:40.971962 118646 net.cpp:178] Creating Layer drop7
I1226 14:57:40.971997 118646 net.cpp:612] drop7 <- fc7
I1226 14:57:40.972030 118646 net.cpp:573] drop7 -> fc7 (in-place)
I1226 14:57:40.972075 118646 net.cpp:228] Setting up drop7
I1226 14:57:40.972121 118646 net.cpp:235] Top shape: 128 4096 (524288)
I1226 14:57:40.972144 118646 net.cpp:243] Memory required for data: 1064352768
I1226 14:57:40.972170 118646 layer_factory.hpp:114] Creating layer fc8
I1226 14:57:40.972226 118646 net.cpp:178] Creating Layer fc8
I1226 14:57:40.972251 118646 net.cpp:612] fc8 <- fc7
I1226 14:57:40.972290 118646 net.cpp:586] fc8 -> fc8
I1226 14:57:41.083058 86421 net.cpp:228] Setting up fc7
I1226 14:57:41.083171 86421 net.cpp:235] Top shape: 128 4096 (524288)
I1226 14:57:41.083202 86421 net.cpp:243] Memory required for data: 1060158464
I1226 14:57:41.083257 86421 layer_factory.hpp:114] Creating layer relu7
I1226 14:57:41.083360 86421 net.cpp:178] Creating Layer relu7
I1226 14:57:41.083453 86421 net.cpp:612] relu7 <- fc7
I1226 14:57:41.083495 86421 net.cpp:573] relu7 -> fc7 (in-place)
I1226 14:57:41.083591 86421 net.cpp:228] Setting up relu7
I1226 14:57:41.083644 86421 net.cpp:235] Top shape: 128 4096 (524288)
I1226 14:57:41.083693 86421 net.cpp:243] Memory required for data: 1062255616
I1226 14:57:41.083722 86421 layer_factory.hpp:114] Creating layer drop7
I1226 14:57:41.083761 86421 net.cpp:178] Creating Layer drop7
I1226 14:57:41.083798 86421 net.cpp:612] drop7 <- fc7
I1226 14:57:41.083847 86421 net.cpp:573] drop7 -> fc7 (in-place)
I1226 14:57:41.083905 86421 net.cpp:228] Setting up drop7
I1226 14:57:41.083940 86421 net.cpp:235] Top shape: 128 4096 (524288)
I1226 14:57:41.083962 86421 net.cpp:243] Memory required for data: 1064352768
I1226 14:57:41.083993 86421 layer_factory.hpp:114] Creating layer fc8
I1226 14:57:41.084048 86421 net.cpp:178] Creating Layer fc8
I1226 14:57:41.084074 86421 net.cpp:612] fc8 <- fc7
I1226 14:57:41.084111 86421 net.cpp:586] fc8 -> fc8
I1226 14:57:41.075362 91414 net.cpp:228] Setting up fc7
I1226 14:57:41.075474 91414 net.cpp:235] Top shape: 128 4096 (524288)
I1226 14:57:41.075503 91414 net.cpp:243] Memory required for data: 1060158464
I1226 14:57:41.075559 91414 layer_factory.hpp:114] Creating layer relu7
I1226 14:57:41.075629 91414 net.cpp:178] Creating Layer relu7
I1226 14:57:41.075661 91414 net.cpp:612] relu7 <- fc7
I1226 14:57:41.075700 91414 net.cpp:573] relu7 -> fc7 (in-place)
I1226 14:57:41.075803 91414 net.cpp:228] Setting up relu7
I1226 14:57:41.075850 91414 net.cpp:235] Top shape: 128 4096 (524288)
I1226 14:57:41.075882 91414 net.cpp:243] Memory required for data: 1062255616
I1226 14:57:41.075911 91414 layer_factory.hpp:114] Creating layer drop7
I1226 14:57:41.075961 91414 net.cpp:178] Creating Layer drop7
I1226 14:57:41.075994 91414 net.cpp:612] drop7 <- fc7
I1226 14:57:41.076030 91414 net.cpp:573] drop7 -> fc7 (in-place)
I1226 14:57:41.076076 91414 net.cpp:228] Setting up drop7
I1226 14:57:41.076114 91414 net.cpp:235] Top shape: 128 4096 (524288)
I1226 14:57:41.076138 91414 net.cpp:243] Memory required for data: 1064352768
I1226 14:57:41.076164 91414 layer_factory.hpp:114] Creating layer fc8
I1226 14:57:41.076220 91414 net.cpp:178] Creating Layer fc8
I1226 14:57:41.076270 91414 net.cpp:612] fc8 <- fc7
I1226 14:57:41.076313 91414 net.cpp:586] fc8 -> fc8
I1226 14:57:41.093292 91862 net.cpp:228] Setting up fc7
I1226 14:57:41.093400 91862 net.cpp:235] Top shape: 128 4096 (524288)
I1226 14:57:41.093427 91862 net.cpp:243] Memory required for data: 1060158464
I1226 14:57:41.093509 91862 layer_factory.hpp:114] Creating layer relu7
I1226 14:57:41.093583 91862 net.cpp:178] Creating Layer relu7
I1226 14:57:41.093624 91862 net.cpp:612] relu7 <- fc7
I1226 14:57:41.093663 91862 net.cpp:573] relu7 -> fc7 (in-place)
I1226 14:57:41.093755 91862 net.cpp:228] Setting up relu7
I1226 14:57:41.093860 91862 net.cpp:235] Top shape: 128 4096 (524288)
I1226 14:57:41.093888 91862 net.cpp:243] Memory required for data: 1062255616
I1226 14:57:41.093915 91862 layer_factory.hpp:114] Creating layer drop7
I1226 14:57:41.093953 91862 net.cpp:178] Creating Layer drop7
I1226 14:57:41.093989 91862 net.cpp:612] drop7 <- fc7
I1226 14:57:41.094038 91862 net.cpp:573] drop7 -> fc7 (in-place)
I1226 14:57:41.094087 91862 net.cpp:228] Setting up drop7
I1226 14:57:41.094131 91862 net.cpp:235] Top shape: 128 4096 (524288)
I1226 14:57:41.094154 91862 net.cpp:243] Memory required for data: 1064352768
I1226 14:57:41.094188 91862 layer_factory.hpp:114] Creating layer fc8
I1226 14:57:41.094249 91862 net.cpp:178] Creating Layer fc8
I1226 14:57:41.094282 91862 net.cpp:612] fc8 <- fc7
I1226 14:57:41.094321 91862 net.cpp:586] fc8 -> fc8
I1226 14:57:41.105069 94946 net.cpp:228] Setting up fc7
I1226 14:57:41.105177 94946 net.cpp:235] Top shape: 128 4096 (524288)
I1226 14:57:41.105208 94946 net.cpp:243] Memory required for data: 1060158464
I1226 14:57:41.105262 94946 layer_factory.hpp:114] Creating layer relu7
I1226 14:57:41.105337 94946 net.cpp:178] Creating Layer relu7
I1226 14:57:41.105393 94946 net.cpp:612] relu7 <- fc7
I1226 14:57:41.105438 94946 net.cpp:573] relu7 -> fc7 (in-place)
I1226 14:57:41.105535 94946 net.cpp:228] Setting up relu7
I1226 14:57:41.105579 94946 net.cpp:235] Top shape: 128 4096 (524288)
I1226 14:57:41.105618 94946 net.cpp:243] Memory required for data: 1062255616
I1226 14:57:41.105648 94946 layer_factory.hpp:114] Creating layer drop7
I1226 14:57:41.105697 94946 net.cpp:178] Creating Layer drop7
I1226 14:57:41.105731 94946 net.cpp:612] drop7 <- fc7
I1226 14:57:41.105764 94946 net.cpp:573] drop7 -> fc7 (in-place)
I1226 14:57:41.105814 94946 net.cpp:228] Setting up drop7
I1226 14:57:41.105849 94946 net.cpp:235] Top shape: 128 4096 (524288)
I1226 14:57:41.105872 94946 net.cpp:243] Memory required for data: 1064352768
I1226 14:57:41.105900 94946 layer_factory.hpp:114] Creating layer fc8
I1226 14:57:41.105957 94946 net.cpp:178] Creating Layer fc8
I1226 14:57:41.105989 94946 net.cpp:612] fc8 <- fc7
I1226 14:57:41.106026 94946 net.cpp:586] fc8 -> fc8
I1226 14:57:41.533574 118646 net.cpp:228] Setting up fc8
I1226 14:57:41.533689 118646 net.cpp:235] Top shape: 128 1000 (128000)
I1226 14:57:41.533718 118646 net.cpp:243] Memory required for data: 1064864768
I1226 14:57:41.533773 118646 layer_factory.hpp:114] Creating layer fc8_fc8_0_split
I1226 14:57:41.533872 118646 net.cpp:178] Creating Layer fc8_fc8_0_split
I1226 14:57:41.533915 118646 net.cpp:612] fc8_fc8_0_split <- fc8
I1226 14:57:41.533958 118646 net.cpp:586] fc8_fc8_0_split -> fc8_fc8_0_split_0
I1226 14:57:41.534016 118646 net.cpp:586] fc8_fc8_0_split -> fc8_fc8_0_split_1
I1226 14:57:41.534101 118646 net.cpp:228] Setting up fc8_fc8_0_split
I1226 14:57:41.534152 118646 net.cpp:235] Top shape: 128 1000 (128000)
I1226 14:57:41.534190 118646 net.cpp:235] Top shape: 128 1000 (128000)
I1226 14:57:41.534214 118646 net.cpp:243] Memory required for data: 1065888768
I1226 14:57:41.534243 118646 layer_factory.hpp:114] Creating layer accuracy
I1226 14:57:41.534296 118646 net.cpp:178] Creating Layer accuracy
I1226 14:57:41.534329 118646 net.cpp:612] accuracy <- fc8_fc8_0_split_0
I1226 14:57:41.534360 118646 net.cpp:612] accuracy <- label_data_1_split_0
I1226 14:57:41.534409 118646 net.cpp:586] accuracy -> accuracy
…
I1226 14:57:41.567365 118646 net.cpp:307] data does not need backward computation.
I1226 14:57:41.567404 118646 net.cpp:349] This network produces output accuracy
I1226 14:57:41.567438 118646 net.cpp:349] This network produces output loss
I1226 14:57:41.567535 118646 net.cpp:363] Network initialization done.
I1226 14:57:41.568020 118646 solver.cpp:107] Solver scaffolding done.
I1226 14:57:41.568248 118646 caffe.cpp:212] Finetuning from /export/data1/stanford/hazy/gordon_bell/caffenet_knl/snapshot/caffenet_MN8_B1024/_iter_25000.caffemodel
I1226 14:57:41.647907 91862 net.cpp:228] Setting up fc8
I1226 14:57:41.648020 91862 net.cpp:235] Top shape: 128 1000 (128000)
I1226 14:57:41.648048 91862 net.cpp:243] Memory required for data: 1064864768
I1226 14:57:41.648104 91862 layer_factory.hpp:114] Creating layer fc8_fc8_0_split
I1226 14:57:41.648180 91862 net.cpp:178] Creating Layer fc8_fc8_0_split
I1226 14:57:41.648211 91862 net.cpp:612] fc8_fc8_0_split <- fc8
I1226 14:57:41.648275 91862 net.cpp:586] fc8_fc8_0_split -> fc8_fc8_0_split_0
I1226 14:57:41.648334 91862 net.cpp:586] fc8_fc8_0_split -> fc8_fc8_0_split_1
I1226 14:57:41.648419 91862 net.cpp:228] Setting up fc8_fc8_0_split
I1226 14:57:41.648469 91862 net.cpp:235] Top shape: 128 1000 (128000)
I1226 14:57:41.648504 91862 net.cpp:235] Top shape: 128 1000 (128000)
I1226 14:57:41.648526 91862 net.cpp:243] Memory required for data: 1065888768
I1226 14:57:41.648555 91862 layer_factory.hpp:114] Creating layer accuracy
I1226 14:57:41.648607 91862 net.cpp:178] Creating Layer accuracy
I1226 14:57:41.648640 91862 net.cpp:612] accuracy <- fc8_fc8_0_split_0
I1226 14:57:41.648669 91862 net.cpp:612] accuracy <- label_data_1_split_0
I1226 14:57:41.648704 91862 net.cpp:586] accuracy -> accuracy
I1226 14:57:41.648753 91862 net.cpp:228] Setting up accuracy
I1226 14:57:41.648819 91862 net.cpp:235] Top shape: (1)
I1226 14:57:41.648844 91862 net.cpp:243] Memory required for data: 1065888772
I1226 14:57:41.648871 91862 layer_factory.hpp:114] Creating layer loss
I1226 14:57:41.648932 91862 net.cpp:178] Creating Layer loss
I1226 14:57:41.648969 91862 net.cpp:612] loss <- fc8_fc8_0_split_1
I1226 14:57:41.648999 91862 net.cpp:612] loss <- label_data_1_split_1
I1226 14:57:41.649034 91862 net.cpp:586] loss -> loss
I1226 14:57:41.649104 91862 layer_factory.hpp:114] Creating layer loss
I1226 14:57:41.646381 86421 net.cpp:228] Setting up fc8
I1226 14:57:41.646497 86421 net.cpp:235] Top shape: 128 1000 (128000)
I1226 14:57:41.646528 86421 net.cpp:243] Memory required for data: 1064864768
I1226 14:57:41.646585 86421 layer_factory.hpp:114] Creating layer fc8_fc8_0_split
I1226 14:57:41.646690 86421 net.cpp:178] Creating Layer fc8_fc8_0_split
I1226 14:57:41.646829 86421 net.cpp:612] fc8_fc8_0_split <- fc8
I1226 14:57:41.646891 86421 net.cpp:586] fc8_fc8_0_split -> fc8_fc8_0_split_0
I1226 14:57:41.646942 86421 net.cpp:586] fc8_fc8_0_split -> fc8_fc8_0_split_1
I1226 14:57:41.647038 86421 net.cpp:228] Setting up fc8_fc8_0_split
I1226 14:57:41.647116 86421 net.cpp:235] Top shape: 128 1000 (128000)
I1226 14:57:41.647152 86421 net.cpp:235] Top shape: 128 1000 (128000)
I1226 14:57:41.647177 86421 net.cpp:243] Memory required for data: 1065888768
I1226 14:57:41.647207 86421 layer_factory.hpp:114] Creating layer accuracy
I1226 14:57:41.647260 86421 net.cpp:178] Creating Layer accuracy
I1226 14:57:41.635821 91414 net.cpp:228] Setting up fc8
I1226 14:57:41.647289 86421 net.cpp:612] accuracy <- fc8_fc8_0_split_0
I1226 14:57:41.635932 91414 net.cpp:235] Top shape: 128 1000 (128000)
I1226 14:57:41.635962 91414 net.cpp:243] Memory required for data: 1064864768
I1226 14:57:41.647322 86421 net.cpp:612] accuracy <- label_data_1_split_0
I1226 14:57:41.647358 86421 net.cpp:586] accuracy -> accuracy
I1226 14:57:41.636018 91414 layer_factory.hpp:114] Creating layer fc8_fc8_0_split
I1226 14:57:41.647436 86421 net.cpp:228] Setting up accuracy
I1226 14:57:41.636093 91414 net.cpp:178] Creating Layer fc8_fc8_0_split
I1226 14:57:41.647482 86421 net.cpp:235] Top shape: (1)
I1226 14:57:41.647506 86421 net.cpp:243] Memory required for data: 1065888772
I1226 14:57:41.636179 91414 net.cpp:612] fc8_fc8_0_split <- fc8
I1226 14:57:41.636221 91414 net.cpp:586] fc8_fc8_0_split -> fc8_fc8_0_split_0
I1226 14:57:41.636301 91414 net.cpp:586] fc8_fc8_0_split -> fc8_fc8_0_split_1
I1226 14:57:41.647534 86421 layer_factory.hpp:114] Creating layer loss
I1226 14:57:41.647615 86421 net.cpp:178] Creating Layer loss
I1226 14:57:41.636399 91414 net.cpp:228] Setting up fc8_fc8_0_split
I1226 14:57:41.647651 86421 net.cpp:612] loss <- fc8_fc8_0_split_1
I1226 14:57:41.647707 86421 net.cpp:612] loss <- label_data_1_split_1
I1226 14:57:41.636474 91414 net.cpp:235] Top shape: 128 1000 (128000)
I1226 14:57:41.636508 91414 net.cpp:235] Top shape: 128 1000 (128000)
I1226 14:57:41.636531 91414 net.cpp:243] Memory required for data: 1065888768
I1226 14:57:41.636586 91414 layer_factory.hpp:114] Creating layer accuracy
I1226 14:57:41.636641 91414 net.cpp:178] Creating Layer accuracy
I1226 14:57:41.647765 86421 net.cpp:586] loss -> loss
I1226 14:57:41.647840 86421 layer_factory.hpp:114] Creating layer loss
I1226 14:57:41.636668 91414 net.cpp:612] accuracy <- fc8_fc8_0_split_0
…
I1226 14:57:44.952870 91862 caffe.cpp:392] Starting Multi-node Optimization in mpi environment
I1226 14:57:45.718791 118646 caffe.cpp:376] Configuring multinode setup
I1226 14:57:45.720160 118646 caffe.cpp:392] Starting Multi-node Optimization in mpi environment
I1226 14:57:45.729512 91414 caffe.cpp:376] Configuring multinode setup
I1226 14:57:45.730893 91414 caffe.cpp:392] Starting Multi-node Optimization in mpi environment
I1226 14:57:45.769474 86421 caffe.cpp:376] Configuring multinode setup
I1226 14:57:45.771003 86421 caffe.cpp:392] Starting Multi-node Optimization in mpi environment
I1226 14:58:05.324985 97424 net.cpp:228] Setting up fc6
I1226 14:58:05.325260 97424 net.cpp:235] Top shape: 128 4096 (524288)
I1226 14:58:05.325307 97424 net.cpp:243] Memory required for data: 1053867008
I1226 14:58:05.325372 97424 layer_factory.hpp:114] Creating layer relu6
I1226 14:58:05.325464 97424 net.cpp:178] Creating Layer relu6
I1226 14:58:05.325505 97424 net.cpp:612] relu6 <- fc6
I1226 14:58:05.325567 97424 net.cpp:573] relu6 -> fc6 (in-place)
I1226 14:58:05.325677 97424 net.cpp:228] Setting up relu6
I1226 14:58:05.325736 97424 net.cpp:235] Top shape: 128 4096 (524288)
I1226 14:58:05.325763 97424 net.cpp:243] Memory required for data: 1055964160
I1226 14:58:05.325829 97424 layer_factory.hpp:114] Creating layer drop6
I1226 14:58:05.325899 97424 net.cpp:178] Creating Layer drop6
I1226 14:58:05.325940 97424 net.cpp:612] drop6 <- fc6
I1226 14:58:05.325980 97424 net.cpp:573] drop6 -> fc6 (in-place)
I1226 14:58:05.326037 97424 net.cpp:228] Setting up drop6
I1226 14:58:05.326074 97424 net.cpp:235] Top shape: 128 4096 (524288)
I1226 14:58:05.326099 97424 net.cpp:243] Memory required for data: 1058061312
I1226 14:58:05.326129 97424 layer_factory.hpp:114] Creating layer fc7
I1226 14:58:05.326217 97424 net.cpp:178] Creating Layer fc7
I1226 14:58:05.326261 97424 net.cpp:612] fc7 <- fc6
I1226 14:58:05.326304 97424 net.cpp:586] fc7 -> fc7
I1226 14:58:06.228154 97855 net.cpp:228] Setting up fc6
I1226 14:58:06.228420 97855 net.cpp:235] Top shape: 128 4096 (524288)
I1226 14:58:06.228463 97855 net.cpp:243] Memory required for data: 1053867008
I1226 14:58:06.228528 97855 layer_factory.hpp:114] Creating layer relu6
I1226 14:58:06.228744 97855 net.cpp:178] Creating Layer relu6
I1226 14:58:06.228806 97855 net.cpp:612] relu6 <- fc6
I1226 14:58:06.228855 97855 net.cpp:573] relu6 -> fc6 (in-place)
I1226 14:58:06.228955 97855 net.cpp:228] Setting up relu6
I1226 14:58:06.229017 97855 net.cpp:235] Top shape: 128 4096 (524288)
I1226 14:58:06.229050 97855 net.cpp:243] Memory required for data: 1055964160
I1226 14:58:06.229094 97855 layer_factory.hpp:114] Creating layer drop6
I1226 14:58:06.229158 97855 net.cpp:178] Creating Layer drop6
I1226 14:58:06.229195 97855 net.cpp:612] drop6 <- fc6
I1226 14:58:06.229260 97855 net.cpp:573] drop6 -> fc6 (in-place)
I1226 14:58:06.229326 97855 net.cpp:228] Setting up drop6
I1226 14:58:06.229374 97855 net.cpp:235] Top shape: 128 4096 (524288)
I1226 14:58:06.229408 97855 net.cpp:243] Memory required for data: 1058061312
I1226 14:58:06.229437 97855 layer_factory.hpp:114] Creating layer fc7
I1226 14:58:06.229504 97855 net.cpp:178] Creating Layer fc7
I1226 14:58:06.229538 97855 net.cpp:612] fc7 <- fc6
I1226 14:58:06.229581 97855 net.cpp:586] fc7 -> fc7
I1226 14:58:06.468713 95720 net.cpp:228] Setting up fc6
I1226 14:58:06.469002 95720 net.cpp:235] Top shape: 128 4096 (524288)
I1226 14:58:06.469048 95720 net.cpp:243] Memory required for data: 1053867008
I1226 14:58:06.469120 95720 layer_factory.hpp:114] Creating layer relu6
I1226 14:58:06.469207 95720 net.cpp:178] Creating Layer relu6
I1226 14:58:06.469250 95720 net.cpp:612] relu6 <- fc6
I1226 14:58:06.469302 95720 net.cpp:573] relu6 -> fc6 (in-place)
I1226 14:58:06.469413 95720 net.cpp:228] Setting up relu6
I1226 14:58:06.469473 95720 net.cpp:235] Top shape: 128 4096 (524288)
I1226 14:58:06.469503 95720 net.cpp:243] Memory required for data: 1055964160
I1226 14:58:06.469539 95720 layer_factory.hpp:114] Creating layer drop6
I1226 14:58:06.469599 95720 net.cpp:178] Creating Layer drop6
I1226 14:58:06.469632 95720 net.cpp:612] drop6 <- fc6
I1226 14:58:06.469672 95720 net.cpp:573] drop6 -> fc6 (in-place)
I1226 14:58:06.469736 95720 net.cpp:228] Setting up drop6
I1226 14:58:06.469776 95720 net.cpp:235] Top shape: 128 4096 (524288)
I1226 14:58:06.469802 95720 net.cpp:243] Memory required for data: 1058061312
I1226 14:58:06.469866 95720 layer_factory.hpp:114] Creating layer fc7
I1226 14:58:06.469940 95720 net.cpp:178] Creating Layer fc7
I1226 14:58:06.469972 95720 net.cpp:612] fc7 <- fc6
I1226 14:58:06.470036 95720 net.cpp:586] fc7 -> fc7
I1226 14:58:18.403003 97424 net.cpp:228] Setting up fc7
I1226 14:58:18.403118 97424 net.cpp:235] Top shape: 128 4096 (524288)
I1226 14:58:18.403152 97424 net.cpp:243] Memory required for data: 1060158464
I1226 14:58:18.403214 97424 layer_factory.hpp:114] Creating layer relu7
I1226 14:58:18.403390 97424 net.cpp:178] Creating Layer relu7
I1226 14:58:18.403431 97424 net.cpp:612] relu7 <- fc7
I1226 14:58:18.403473 97424 net.cpp:573] relu7 -> fc7 (in-place)
I1226 14:58:18.403583 97424 net.cpp:228] Setting up relu7
I1226 14:58:18.403636 97424 net.cpp:235] Top shape: 128 4096 (524288)
I1226 14:58:18.403666 97424 net.cpp:243] Memory required for data: 1062255616
I1226 14:58:18.403697 97424 layer_factory.hpp:114] Creating layer drop7
I1226 14:58:18.403748 97424 net.cpp:178] Creating Layer drop7
I1226 14:58:18.403776 97424 net.cpp:612] drop7 <- fc7
I1226 14:58:18.403856 97424 net.cpp:573] drop7 -> fc7 (in-place)
I1226 14:58:18.403908 97424 net.cpp:228] Setting up drop7
I1226 14:58:18.403954 97424 net.cpp:235] Top shape: 128 4096 (524288)
I1226 14:58:18.403978 97424 net.cpp:243] Memory required for data: 1064352768
I1226 14:58:18.404008 97424 layer_factory.hpp:114] Creating layer fc8
I1226 14:58:18.404075 97424 net.cpp:178] Creating Layer fc8
I1226 14:58:18.404114 97424 net.cpp:612] fc8 <- fc7
I1226 14:58:18.404173 97424 net.cpp:586] fc8 -> fc8
I1226 14:58:19.305917 97855 net.cpp:228] Setting up fc7
I1226 14:58:19.306036 97855 net.cpp:235] Top shape: 128 4096 (524288)
I1226 14:58:19.306071 97855 net.cpp:243] Memory required for data: 1060158464
I1226 14:58:19.306131 97855 layer_factory.hpp:114] Creating layer relu7
I1226 14:58:19.306219 97855 net.cpp:178] Creating Layer relu7
I1226 14:58:19.306267 97855 net.cpp:612] relu7 <- fc7
I1226 14:58:19.306313 97855 net.cpp:573] relu7 -> fc7 (in-place)
I1226 14:58:19.306417 97855 net.cpp:228] Setting up relu7
I1226 14:58:19.306476 97855 net.cpp:235] Top shape: 128 4096 (524288)
I1226 14:58:19.306502 97855 net.cpp:243] Memory required for data: 1062255616
I1226 14:58:19.306535 97855 layer_factory.hpp:114] Creating layer drop7
I1226 14:58:19.306584 97855 net.cpp:178] Creating Layer drop7
I1226 14:58:19.306615 97855 net.cpp:612] drop7 <- fc7
I1226 14:58:19.306663 97855 net.cpp:573] drop7 -> fc7 (in-place)
I1226 14:58:19.306740 97855 net.cpp:228] Setting up drop7
I1226 14:58:19.306792 97855 net.cpp:235] Top shape: 128 4096 (524288)
I1226 14:58:19.306818 97855 net.cpp:243] Memory required for data: 1064352768
I1226 14:58:19.306850 97855 layer_factory.hpp:114] Creating layer fc8
I1226 14:58:19.306922 97855 net.cpp:178] Creating Layer fc8
I1226 14:58:19.306960 97855 net.cpp:612] fc8 <- fc7
I1226 14:58:19.307030 97855 net.cpp:586] fc8 -> fc8
I1226 14:58:19.589361 95720 net.cpp:228] Setting up fc7
I1226 14:58:19.589473 95720 net.cpp:235] Top shape: 128 4096 (524288)
I1226 14:58:19.589510 95720 net.cpp:243] Memory required for data: 1060158464
I1226 14:58:19.589577 95720 layer_factory.hpp:114] Creating layer relu7
I1226 14:58:19.589663 95720 net.cpp:178] Creating Layer relu7
I1226 14:58:19.589710 95720 net.cpp:612] relu7 <- fc7
I1226 14:58:19.589763 95720 net.cpp:573] relu7 -> fc7 (in-place)
I1226 14:58:19.589932 95720 net.cpp:228] Setting up relu7
I1226 14:58:19.590013 95720 net.cpp:235] Top shape: 128 4096 (524288)
I1226 14:58:19.590041 95720 net.cpp:243] Memory required for data: 1062255616
I1226 14:58:19.590078 95720 layer_factory.hpp:114] Creating layer drop7
I1226 14:58:19.590126 95720 net.cpp:178] Creating Layer drop7
I1226 14:58:19.590159 95720 net.cpp:612] drop7 <- fc7
I1226 14:58:19.590201 95720 net.cpp:573] drop7 -> fc7 (in-place)
I1226 14:58:19.590258 95720 net.cpp:228] Setting up drop7
I1226 14:58:19.590299 95720 net.cpp:235] Top shape: 128 4096 (524288)
I1226 14:58:19.590323 95720 net.cpp:243] Memory required for data: 1064352768
I1226 14:58:19.590353 95720 layer_factory.hpp:114] Creating layer fc8
I1226 14:58:19.590437 95720 net.cpp:178] Creating Layer fc8
I1226 14:58:19.590476 95720 net.cpp:612] fc8 <- fc7
I1226 14:58:19.590523 95720 net.cpp:586] fc8 -> fc8
I1226 14:58:21.602653 97424 net.cpp:228] Setting up fc8
I1226 14:58:21.602771 97424 net.cpp:235] Top shape: 128 1000 (128000)
I1226 14:58:21.602835 97424 net.cpp:243] Memory required for data: 1064864768
I1226 14:58:21.602901 97424 layer_factory.hpp:114] Creating layer fc8_fc8_0_split
I1226 14:58:21.602990 97424 net.cpp:178] Creating Layer fc8_fc8_0_split
I1226 14:58:21.603035 97424 net.cpp:612] fc8_fc8_0_split <- fc8
I1226 14:58:21.603101 97424 net.cpp:586] fc8_fc8_0_split -> fc8_fc8_0_split_0
I1226 14:58:21.603173 97424 net.cpp:586] fc8_fc8_0_split -> fc8_fc8_0_split_1
I1226 14:58:21.603276 97424 net.cpp:228] Setting up fc8_fc8_0_split
I1226 14:58:21.603332 97424 net.cpp:235] Top shape: 128 1000 (128000)
I1226 14:58:21.603366 97424 net.cpp:235] Top shape: 128 1000 (128000)
I1226 14:58:21.603390 97424 net.cpp:243] Memory required for data: 1065888768
I1226 14:58:21.603421 97424 layer_factory.hpp:114] Creating layer accuracy
I1226 14:58:21.603488 97424 net.cpp:178] Creating Layer accuracy
I1226 14:58:21.603519 97424 net.cpp:612] accuracy <- fc8_fc8_0_split_0
I1226 14:58:21.603564 97424 net.cpp:612] accuracy <- label_data_1_split_0
I1226 14:58:21.603617 97424 net.cpp:586] accuracy -> accuracy
…
