…
I1226 13:43:56.904772 94885 net.cpp:500] The NetState phase (0) differed from the phase (1) specified by a rule in layer data
I1226 13:43:56.906915 94885 net.cpp:136] Initializing net from parameters: 
name: "AlexNet"
state {
  phase: TRAIN
  level: 0
  stage: ""
}
engine: "MKL2017"
layer {
  name: "data"
  type: "Data"
  top: "data"
  top: "label"
  include {
    phase: TRAIN
  }
  transform_param {
    mirror: true
    crop_size: 227
    mean_value: 104
    mean_value: 117
    mean_value: 123
  }
  data_param {
    source: "/export/data1/stanford/hazy/zjian/gorden_bell/ILSVRC2012_lmdb/db_8/ilsvrc12_train_lmdb_4"
    batch_size: 64
    backend: LMDB
  }
}
layer {
  name: "label_data_1_split"
  type: "Split"
  bottom: "label"
  top: "label_data_1_split_0"
  top: "label_data_1_split_1"
}
layer {
  name: "conv1"
  type: "Convolution"
  bottom: "data"
  top: "conv1"
  param {
    lr_mult: 1
    decay_mult: 1
  }
  param {
    lr_mult: 2
    decay_mult: 0
  }
  convolution_param {
    num_output: 96
    kernel_size: 11
    stride: 4
    weight_filler {
      type: "gaussian"
      std: 0.01
    }
    bias_filler {
      type: "constant"
      value: 0
    }
    engine: MKL2017
  }
}
layer {
  name: "relu1"
  type: "ReLU"
  bottom: "conv1"
  top: "conv1"
  relu_param {
    engine: MKL2017
  }
}
layer {
  name: "norm1"
  type: "LRN"
  bottom: "conv1"
  top: "norm1"
  lrn_param {
    local_size: 5
    alpha: 0.0001
    beta: 0.75
    engine: MKL2017
  }
}
layer {
  name: "pool1"
  type: "Pooling"
  bottom: "norm1"
  top: "pool1"
  pooling_param {
    pool: MAX
    kernel_size: 3
    stride: 2
    engine: MKL2017
  }
}
layer {
  name: "conv2"
  type: "Convolution"
  bottom: "pool1"
  top: "conv2"
  param {
    lr_mult: 1
    decay_mult: 1
  }
  param {
    lr_mult: 2
    decay_mult: 0
  }
  convolution_param {
    num_output: 256
    pad: 2
    kernel_size: 5
    group: 2
    weight_filler {
      type: "gaussian"
      std: 0.01
    }
    bias_filler {
      type: "constant"
      value: 0.1
    }
    engine: MKL2017
  }
}
layer {
  name: "relu2"
  type: "ReLU"
  bottom: "conv2"
  top: "conv2"
  relu_param {
    engine: MKL2017
  }
}
layer {
  name: "norm2"
  type: "LRN"
  bottom: "conv2"
  top: "norm2"
  lrn_param {
    local_size: 5
    alpha: 0.0001
    beta: 0.75
    engine: MKL2017
  }
}
layer {
  name: "pool2"
  type: "Pooling"
  bottom: "norm2"
  top: "pool2"
  pooling_param {
    pool: MAX
    kernel_size: 3
    stride: 2
    engine: MKL2017
  }
}
layer {
  name: "conv3"
  type: "Convolution"
  bottom: "pool2"
  top: "conv3"
  param {
    lr_mult: 1
    decay_mult: 1
  }
  param {
    lr_mult: 2
    decay_mult: 0
  }
  convolution_param {
    num_output: 384
    pad: 1
    kernel_size: 3
    weight_filler {
      type: "gaussian"
      std: 0.01
    }
    bias_filler {
      type: "constant"
      value: 0
    }
    engine: MKL2017
  }
}
layer {
  name: "relu3"
  type: "ReLU"
  bottom: "conv3"
  top: "conv3"
  relu_param {
    engine: MKL2017
  }
}
layer {
  name: "conv4"
  type: "Convolution"
  bottom: "conv3"
  top: "conv4"
  param {
    lr_mult: 1
    decay_mult: 1
  }
  param {
    lr_mult: 2
    decay_mult: 0
  }
  convolution_param {
    num_output: 384
    pad: 1
    kernel_size: 3
    group: 2
    weight_filler {
      type: "gaussian"
      std: 0.01
    }
    bias_filler {
      type: "constant"
      value: 0.1
    }
    engine: MKL2017
  }
}
layer {
  name: "relu4"
  type: "ReLU"
  bottom: "conv4"
  top: "conv4"
  relu_param {
    engine: MKL2017
  }
}
layer {
  name: "conv5"
  type: "Convolution"
  bottom: "conv4"
  top: "conv5"
  param {
    lr_mult: 1
    decay_mult: 1
  }
  param {
    lr_mult: 2
    decay_mult: 0
  }
  convolution_param {
    num_output: 256
    pad: 1
    kernel_size: 3
    group: 2
    weight_filler {
      type: "gaussian"
      std: 0.01
    }
    bias_filler {
      type: "constant"
      value: 0.1
    }
    engine: MKL2017
  }
}
layer {
  name: "relu5"
  type: "ReLU"
  bottom: "conv5"
  top: "conv5"
  relu_param {
    engine: MKL2017
  }
}
layer {
  name: "pool5"
  type: "Pooling"
  bottom: "conv5"
  top: "pool5"
  pooling_param {
    pool: MAX
    kernel_size: 3
    stride: 2
    engine: MKL2017
  }
}
layer {
  name: "fc6"
  type: "InnerProduct"
  bottom: "pool5"
  top: "fc6"
  param {
    lr_mult: 1
    decay_mult: 1
  }
  param {
    lr_mult: 2
    decay_mult: 0
  }
  inner_product_param {
    num_output: 4096
    weight_filler {
      type: "gaussian"
      std: 0.005
    }
    bias_filler {
      type: "constant"
      value: 0.1
    }
  }
}
layer {
  name: "relu6"
  type: "ReLU"
  bottom: "fc6"
  top: "fc6"
}
layer {
  name: "drop6"
  type: "Dropout"
  bottom: "fc6"
  top: "fc6"
  dropout_param {
    dropout_ratio: 0.5
  }
}
layer {
  name: "fc7"
  type: "InnerProduct"
  bottom: "fc6"
  top: "fc7"
  param {
    lr_mult: 1
    decay_mult: 1
  }
  param {
    lr_mult: 2
    decay_mult: 0
  }
  inner_product_param {
    num_output: 4096
    weight_filler {
      type: "gaussian"
      std: 0.005
    }
    bias_filler {
      type: "constant"
      value: 0.1
    }
  }
}
layer {
  name: "relu7"
  type: "ReLU"
  bottom: "fc7"
  top: "fc7"
}
layer {
  name: "drop7"
  type: "Dropout"
  bottom: "fc7"
  top: "fc7"
  dropout_param {
    dropout_ratio: 0.5
  }
}
layer {
  name: "fc8"
  type: "InnerProduct"
  bottom: "fc7"
  top: "fc8"
  param {
    lr_mult: 1
    decay_mult: 1
  }
  param {
    lr_mult: 2
    decay_mult: 0
  }
  inner_product_param {
    num_output: 1000
    weight_filler {
      type: "gaussian"
      std: 0.01
    }
    bias_filler {
      type: "constant"
      value: 0
    }
  }
}
layer {
  name: "fc8_fc8_0_split"
  type: "Split"
  bottom: "fc8"
  top: "fc8_fc8_0_split_0"
  top: "fc8_fc8_0_split_1"
}
layer {
  name: "accuracy"
  type: "Accuracy"
  bottom: "fc8_fc8_0_split_0"
  bottom: "label_data_1_split_0"
  top: "accuracy"
}
layer {
  name: "loss"
  type: "SoftmaxWithLoss"
  bottom: "fc8_fc8_0_split_1"
  bottom: "label_data_1_split_1"
  top: "loss"
}
I1226 13:43:56.902854 94226 cpu_info.cpp:473] Number of OpenMP threads: 66
I1226 13:43:56.903249 94226 net.cpp:500] The NetState phase (0) differed from the phase (1) specified by a rule in layer data
I1226 13:43:56.914564 85406 cpu_info.cpp:473] Number of OpenMP threads: 66
I1226 13:43:56.915027 85406 net.cpp:500] The NetState phase (0) differed from the phase (1) specified by a rule in layer data
I1226 13:43:56.905349 94226 net.cpp:136] Initializing net from parameters: 
name: "AlexNet"
state {
  phase: TRAIN
  level: 0
  stage: ""
}
engine: "MKL2017"
layer {
  name: "data"
  type: "Data"
  top: "data"
  top: "label"
  include {
    phase: TRAIN
  }
  transform_param {
    mirror: true
    crop_size: 227
    mean_value: 104
    mean_value: 117
    mean_value: 123
  }
  data_param {
    source: "/export/data1/stanford/hazy/zjian/gorden_bell/ILSVRC2012_lmdb/db_8/ilsvrc12_train_lmdb_0"
    batch_size: 64
    backend: LMDB
  }
}
layer {
  name: "label_data_1_split"
  type: "Split"
  bottom: "label"
  top: "label_data_1_split_0"
  top: "label_data_1_split_1"
}
layer {
  name: "conv1"
  type: "Convolution"
  bottom: "data"
  top: "conv1"
  param {
    lr_mult: 1
    decay_mult: 1
  }
  param {
    lr_mult: 2
    decay_mult: 0
  }
  convolution_param {
    num_output: 96
    kernel_size: 11
    stride: 4
    weight_filler {
      type: "gaussian"
      std: 0.01
    }
    bias_filler {
      type: "constant"
      value: 0
    }
    engine: MKL2017
  }
}
layer {
  name: "relu1"
  type: "ReLU"
  bottom: "conv1"
  top: "conv1"
  relu_param {
    engine: MKL2017
  }
}
layer {
  name: "norm1"
  type: "LRN"
  bottom: "conv1"
  top: "norm1"
  lrn_param {
    local_size: 5
    alpha: 0.0001
    beta: 0.75
    engine: MKL2017
  }
}
layer {
  name: "pool1"
  type: "Pooling"
  bottom: "norm1"
  top: "pool1"
  pooling_param {
    pool: MAX
    kernel_size: 3
    stride: 2
    engine: MKL2017
  }
}
layer {
  name: "conv2"
  type: "Convolution"
  bottom: "pool1"
  top: "conv2"
  param {
    lr_mult: 1
    decay_mult: 1
  }
  param {
    lr_mult: 2
    decay_mult: 0
  }
  convolution_param {
    num_output: 256
    pad: 2
    kernel_size: 5
    group: 2
    weight_filler {
      type: "gaussian"
      std: 0.01
    }
    bias_filler {
      type: "constant"
      value: 0.1
    }
    engine: MKL2017
  }
}
layer {
  name: "relu2"
  type: "ReLU"
  bottom: "conv2"
  top: "conv2"
  relu_param {
    engine: MKL2017
  }
}
layer {
  name: "norm2"
  type: "LRN"
  bottom: "conv2"
  top: "norm2"
  lrn_param {
    local_size: 5
    alpha: 0.0001
    beta: 0.75
    engine: MKL2017
  }
}
layer {
  name: "pool2"
  type: "Pooling"
  bottom: "norm2"
  top: "pool2"
  pooling_param {
    pool: MAX
    kernel_size: 3
    stride: 2
    engine: MKL2017
  }
}
layer {
  name: "conv3"
  type: "Convolution"
  bottom: "pool2"
  top: "conv3"
  param {
    lr_mult: 1
    decay_mult: 1
  }
  param {
    lr_mult: 2
    decay_mult: 0
  }
  convolution_param {
    num_output: 384
    pad: 1
    kernel_size: 3
    weight_filler {
      type: "gaussian"
      std: 0.01
    }
    bias_filler {
      type: "constant"
      value: 0
    }
    engine: MKL2017
  }
}
layer {
  name: "relu3"
  type: "ReLU"
  bottom: "conv3"
  top: "conv3"
  relu_param {
    engine: MKL2017
  }
}
layer {
  name: "conv4"
  type: "Convolution"
  bottom: "conv3"
  top: "conv4"
  param {
    lr_mult: 1
    decay_mult: 1
  }
  param {
    lr_mult: 2
    decay_mult: 0
  }
  convolution_param {
    num_output: 384
    pad: 1
    kernel_size: 3
    group: 2
    weight_filler {
      type: "gaussian"
      std: 0.01
    }
    bias_filler {
      type: "constant"
      value: 0.1
    }
    engine: MKL2017
  }
}
layer {
  name: "relu4"
  type: "ReLU"
  bottom: "conv4"
  top: "conv4"
  relu_param {
    engine: MKL2017
  }
}
layer {
  name: "conv5"
  type: "Convolution"
  bottom: "conv4"
  top: "conv5"
  param {
    lr_mult: 1
    decay_mult: 1
  }
  param {
    lr_mult: 2
    decay_mult: 0
  }
  convolution_param {
    num_output: 256
    pad: 1
    kernel_size: 3
    group: 2
    weight_filler {
      type: "gaussian"
      std: 0.01
    }
    bias_filler {
      type: "constant"
      value: 0.1
    }
    engine: MKL2017
  }
}
layer {
  name: "relu5"
  type: "ReLU"
  bottom: "conv5"
  top: "conv5"
  relu_param {
    engine: MKL2017
  }
}
layer {
  name: "pool5"
  type: "Pooling"
  bottom: "conv5"
  top: "pool5"
  pooling_param {
    pool: MAX
    kernel_size: 3
    stride: 2
    engine: MKL2017
  }
}
layer {
  name: "fc6"
  type: "InnerProduct"
  bottom: "pool5"
  top: "fc6"
  param {
    lr_mult: 1
    decay_mult: 1
  }
  param {
    lr_mult: 2
    decay_mult: 0
  }
  inner_product_param {
    num_output: 4096
    weight_filler {
      type: "gaussian"
      std: 0.005
    }
    bias_filler {
      type: "constant"
      value: 0.1
    }
  }
}
layer {
  name: "relu6"
  type: "ReLU"
  bottom: "fc6"
  top: "fc6"
}
layer {
  name: "drop6"
  type: "Dropout"
  bottom: "fc6"
  top: "fc6"
  dropout_param {
    dropout_ratio: 0.5
  }
}
layer {
  name: "fc7"
  type: "InnerProduct"
  bottom: "fc6"
  top: "fc7"
  param {
    lr_mult: 1
    decay_mult: 1
  }
  param {
    lr_mult: 2
    decay_mult: 0
  }
  inner_product_param {
    num_output: 4096
    weight_filler {
      type: "gaussian"
      std: 0.005
    }
    bias_filler {
      type: "constant"
      value: 0.1
    }
  }
}
layer {
  name: "relu7"
  type: "ReLU"
  bottom: "fc7"
  top: "fc7"
}
layer {
  name: "drop7"
  type: "Dropout"
  bottom: "fc7"
  top: "fc7"
  dropout_param {
    dropout_ratio: 0.5
  }
}
layer {
  name: "fc8"
  type: "InnerProduct"
  bottom: "fc7"
  top: "fc8"
  param {
    lr_mult: 1
    decay_mult: 1
  }
  param {
    lr_mult: 2
    decay_mult: 0
  }
  inner_product_param {
    num_output: 1000
    weight_filler {
      type: "gaussian"
      std: 0.01
    }
    bias_filler {
      type: "constant"
      value: 0
    }
  }
}
layer {
  name: "fc8_fc8_0_split"
  type: "Split"
  bottom: "fc8"
  top: "fc8_fc8_0_split_0"
  top: "fc8_fc8_0_split_1"
}
layer {
  name: "accuracy"
  type: "Accuracy"
  bottom: "fc8_fc8_0_split_0"
  bottom: "label_data_1_split_0"
  top: "accuracy"
}
layer {
  name: "loss"
  type: "SoftmaxWithLoss"
  bottom: "fc8_fc8_0_split_1"
  bottom: "label_data_1_split_1"
  top: "loss"
}
I1226 13:43:56.913930 97018 cpu_info.cpp:473] Number of OpenMP threads: 66
I1226 13:43:56.917363 85406 net.cpp:136] Initializing net from parameters: 
name: "AlexNet"
state {
  phase: TRAIN
  level: 0
  stage: ""
}
engine: "MKL2017"
layer {
  name: "data"
  type: "DummyData"
  top: "data"
  top: "label"
  include {
    phase: TRAIN
  }
  transform_param {
    mirror: true
    crop_size: 227
    mean_value: 104
    mean_value: 117
    mean_value: 123
  }
  dummy_data_param {
    data_filler {
      type: "gaussian"
      std: 1
    }
    data_filler {
      type: "constant"
      value: 0
    }
    shape {
      dim: 64
      dim: 3
      dim: 227
      dim: 227
    }
    shape {
      dim: 64
      dim: 1
      dim: 1
      dim: 1
    }
  }
}
layer {
  name: "label_data_1_split"
  type: "Split"
  bottom: "label"
  top: "label_data_1_split_0"
  top: "label_data_1_split_1"
}
layer {
  name: "conv1"
  type: "Convolution"
  bottom: "data"
  top: "conv1"
  param {
    lr_mult: 1
    decay_mult: 1
  }
  param {
    lr_mult: 2
    decay_mult: 0
  }
  convolution_param {
    num_output: 96
    kernel_size: 11
    stride: 4
    weight_filler {
      type: "gaussian"
      std: 0.01
    }
    bias_filler {
      type: "constant"
      value: 0
    }
    engine: MKL2017
  }
}
layer {
  name: "relu1"
  type: "ReLU"
  bottom: "conv1"
  top: "conv1"
  relu_param {
    engine: MKL2017
  }
}
layer {
  name: "norm1"
  type: "LRN"
  bottom: "conv1"
  top: "norm1"
  lrn_param {
    local_size: 5
    alpha: 0.0001
    beta: 0.75
    engine: MKL2017
  }
}
layer {
  name: "pool1"
  type: "Pooling"
  bottom: "norm1"
  top: "pool1"
  pooling_param {
    pool: MAX
    kernel_size: 3
    stride: 2
    engine: MKL2017
  }
}
layer {
  name: "conv2"
  type: "Convolution"
  bottom: "pool1"
  top: "conv2"
  param {
    lr_mult: 1
    decay_mult: 1
  }
  param {
    lr_mult: 2
    decay_mult: 0
  }
  convolution_param {
    num_output: 256
    pad: 2
    kernel_size: 5
    group: 2
    weight_filler {
      type: "gaussian"
      std: 0.01
    }
    bias_filler {
      type: "constant"
      value: 0.1
    }
    engine: MKL2017
  }
}
layer {
  name: "relu2"
  type: "ReLU"
  bottom: "conv2"
  top: "conv2"
  relu_param {
    engine: MKL2017
  }
}
layer {
  name: "norm2"
  type: "LRN"
  bottom: "conv2"
  top: "norm2"
  lrn_param {
    local_size: 5
    alpha: 0.0001
    beta: 0.75
    engine: MKL2017
  }
}
layer {
  name: "pool2"
  type: "Pooling"
  bottom: "norm2"
  top: "pool2"
  pooling_param {
    pool: MAX
    kernel_size: 3
    stride: 2
    engine: MKL2017
  }
}
layer {
  name: "conv3"
  type: "Convolution"
  bottom: "pool2"
  top: "conv3"
  param {
    lr_mult: 1
    decay_mult: 1
  }
  param {
    lr_mult: 2
    decay_mult: 0
  }
  convolution_param {
    num_output: 384
    pad: 1
    kernel_size: 3
    weight_filler {
      type: "gaussian"
      std: 0.01
    }
    bias_filler {
      type: "constant"
      value: 0
    }
    engine: MKL2017
  }
}
layer {
  name: "relu3"
  type: "ReLU"
  bottom: "conv3"
  top: "conv3"
  relu_param {
    engine: MKL2017
  }
}
layer {
  name: "conv4"
  type: "Convolution"
  bottom: "conv3"
  top: "conv4"
  param {
    lr_mult: 1
    decay_mult: 1
  }
  param {
    lr_mult: 2
    decay_mult: 0
  }
  convolution_param {
    num_output: 384
    pad: 1
    kernel_size: 3
    group: 2
    weight_filler {
      type: "gaussian"
      std: 0.01
    }
    bias_filler {
      type: "constant"
      value: 0.1
    }
    engine: MKL2017
  }
}
layer {
  name: "relu4"
  type: "ReLU"
  bottom: "conv4"
  top: "conv4"
  relu_param {
    engine: MKL2017
  }
}
layer {
  name: "conv5"
  type: "Convolution"
  bottom: "conv4"
  top: "conv5"
  param {
    lr_mult: 1
    decay_mult: 1
  }
  param {
    lr_mult: 2
    decay_mult: 0
  }
  convolution_param {
    num_output: 256
    pad: 1
    kernel_size: 3
    group: 2
    weight_filler {
      type: "gaussian"
      std: 0.01
    }
    bias_filler {
      type: "constant"
      value: 0.1
    }
    engine: MKL2017
  }
}
layer {
  name: "relu5"
  type: "ReLU"
  bottom: "conv5"
  top: "conv5"
  relu_param {
    engine: MKL2017
  }
}
layer {
  name: "pool5"
  type: "Pooling"
  bottom: "conv5"
  top: "pool5"
  pooling_param {
    pool: MAX
    kernel_size: 3
    stride: 2
    engine: MKL2017
  }
}
layer {
  name: "fc6"
  type: "InnerProduct"
  bottom: "pool5"
  top: "fc6"
  param {
    lr_mult: 1
    decay_mult: 1
  }
  param {
    lr_mult: 2
    decay_mult: 0
  }
  inner_product_param {
    num_output: 4096
    weight_filler {
      type: "gaussian"
      std: 0.005
    }
    bias_filler {
      type: "constant"
      value: 0.1
    }
  }
}
layer {
  name: "relu6"
  type: "ReLU"
  bottom: "fc6"
  top: "fc6"
}
layer {
  name: "drop6"
  type: "Dropout"
  bottom: "fc6"
  top: "fc6"
  dropout_param {
    dropout_ratio: 0.5
  }
}
layer {
  name: "fc7"
  type: "InnerProduct"
  bottom: "fc6"
  top: "fc7"
  param {
    lr_mult: 1
    decay_mult: 1
  }
  param {
    lr_mult: 2
    decay_mult: 0
  }
  inner_product_param {
    num_output: 4096
    weight_filler {
      type: "gaussian"
      std: 0.005
    }
    bias_filler {
      type: "constant"
      value: 0.1
    }
  }
}
layer {
  name: "relu7"
  type: "ReLU"
  bottom: "fc7"
  top: "fc7"
}
layer {
  name: "drop7"
  type: "Dropout"
  bottom: "fc7"
  top: "fc7"
  dropout_param {
    dropout_ratio: 0.5
  }
}
layer {
  name: "fc8"
  type: "InnerProduct"
  bottom: "fc7"
  top: "fc8"
  param {
    lr_mult: 1
    decay_mult: 1
  }
  param {
    lr_mult: 2
    decay_mult: 0
  }
  inner_product_param {
    num_output: 1000
    weight_filler {
      type: "gaussian"
      std: 0.01
    }
    bias_filler {
      type: "constant"
      value: 0
    }
  }
}
layer {
  name: "fc8_fc8_0_split"
  type: "Split"
  bottom: "fc8"
  top: "fc8_fc8_0_split_0"
  top: "fc8_fc8_0_split_1"
}
layer {
  name: "accuracy"
  type: "Accuracy"
  bottom: "fc8_fc8_0_split_0"
  bottom: "label_data_1_split_0"
  top: "accuracy"
}
layer {
  name: "loss"
  type: "SoftmaxWithLoss"
  bottom: "fc8_fc8_0_split_1"
  bottom: "label_data_1_split_1"
  top: "loss"
}
I1226 13:43:56.914273 97018 net.cpp:500] The NetState phase (0) differed from the phase (1) specified by a rule in layer data
I1226 13:43:56.924185 98538 cpu_info.cpp:473] Number of OpenMP threads: 66
I1226 13:43:56.924566 98538 net.cpp:500] The NetState phase (0) differed from the phase (1) specified by a rule in layer data
I1226 13:43:56.916343 97018 net.cpp:136] Initializing net from parameters: 
name: "AlexNet"
state {
  phase: TRAIN
  level: 0
  stage: ""
}
engine: "MKL2017"
layer {
  name: "data"
  type: "Data"
  top: "data"
  top: "label"
  include {
    phase: TRAIN
  }
  transform_param {
    mirror: true
    crop_size: 227
    mean_value: 104
    mean_value: 117
    mean_value: 123
  }
  data_param {
    source: "/export/data1/stanford/hazy/zjian/gorden_bell/ILSVRC2012_lmdb/db_8/ilsvrc12_train_lmdb_7"
    batch_size: 64
    backend: LMDB
  }
}
layer {
  name: "label_data_1_split"
  type: "Split"
  bottom: "label"
  top: "label_data_1_split_0"
  top: "label_data_1_split_1"
}
layer {
  name: "conv1"
  type: "Convolution"
  bottom: "data"
  top: "conv1"
  param {
    lr_mult: 1
    decay_mult: 1
  }
  param {
    lr_mult: 2
    decay_mult: 0
  }
  convolution_param {
    num_output: 96
    kernel_size: 11
    stride: 4
    weight_filler {
      type: "gaussian"
      std: 0.01
    }
    bias_filler {
      type: "constant"
      value: 0
    }
    engine: MKL2017
  }
}
layer {
  name: "relu1"
  type: "ReLU"
  bottom: "conv1"
  top: "conv1"
  relu_param {
    engine: MKL2017
  }
}
layer {
  name: "norm1"
  type: "LRN"
  bottom: "conv1"
  top: "norm1"
  lrn_param {
    local_size: 5
    alpha: 0.0001
    beta: 0.75
    engine: MKL2017
  }
}
layer {
  name: "pool1"
  type: "Pooling"
  bottom: "norm1"
  top: "pool1"
  pooling_param {
    pool: MAX
    kernel_size: 3
    stride: 2
    engine: MKL2017
  }
}
layer {
  name: "conv2"
  type: "Convolution"
  bottom: "pool1"
  top: "conv2"
  param {
    lr_mult: 1
    decay_mult: 1
  }
  param {
    lr_mult: 2
    decay_mult: 0
  }
  convolution_param {
    num_output: 256
    pad: 2
    kernel_size: 5
    group: 2
    weight_filler {
      type: "gaussian"
      std: 0.01
    }
    bias_filler {
      type: "constant"
      value: 0.1
    }
    engine: MKL2017
  }
}
layer {
  name: "relu2"
  type: "ReLU"
  bottom: "conv2"
  top: "conv2"
  relu_param {
    engine: MKL2017
  }
}
layer {
  name: "norm2"
  type: "LRN"
  bottom: "conv2"
  top: "norm2"
  lrn_param {
    local_size: 5
    alpha: 0.0001
    beta: 0.75
    engine: MKL2017
  }
}
layer {
  name: "pool2"
  type: "Pooling"
  bottom: "norm2"
  top: "pool2"
  pooling_param {
    pool: MAX
    kernel_size: 3
    stride: 2
    engine: MKL2017
  }
}
layer {
  name: "conv3"
  type: "Convolution"
  bottom: "pool2"
  top: "conv3"
  param {
    lr_mult: 1
    decay_mult: 1
  }
  param {
    lr_mult: 2
    decay_mult: 0
  }
  convolution_param {
    num_output: 384
    pad: 1
    kernel_size: 3
    weight_filler {
      type: "gaussian"
      std: 0.01
    }
    bias_filler {
      type: "constant"
      value: 0
    }
    engine: MKL2017
  }
}
layer {
  name: "relu3"
  type: "ReLU"
  bottom: "conv3"
  top: "conv3"
  relu_param {
    engine: MKL2017
  }
}
layer {
  name: "conv4"
  type: "Convolution"
  bottom: "conv3"
  top: "conv4"
  param {
    lr_mult: 1
    decay_mult: 1
  }
  param {
    lr_mult: 2
    decay_mult: 0
  }
  convolution_param {
    num_output: 384
    pad: 1
    kernel_size: 3
    group: 2
    weight_filler {
      type: "gaussian"
      std: 0.01
    }
    bias_filler {
      type: "constant"
      value: 0.1
    }
    engine: MKL2017
  }
}
layer {
  name: "relu4"
  type: "ReLU"
  bottom: "conv4"
  top: "conv4"
  relu_param {
    engine: MKL2017
  }
}
layer {
  name: "conv5"
  type: "Convolution"
  bottom: "conv4"
  top: "conv5"
  param {
    lr_mult: 1
    decay_mult: 1
  }
  param {
    lr_mult: 2
    decay_mult: 0
  }
  convolution_param {
    num_output: 256
    pad: 1
    kernel_size: 3
    group: 2
    weight_filler {
      type: "gaussian"
      std: 0.01
    }
    bias_filler {
      type: "constant"
      value: 0.1
    }
    engine: MKL2017
  }
}
layer {
  name: "relu5"
  type: "ReLU"
  bottom: "conv5"
  top: "conv5"
  relu_param {
    engine: MKL2017
  }
}
layer {
  name: "pool5"
  type: "Pooling"
  bottom: "conv5"
  top: "pool5"
  pooling_param {
    pool: MAX
    kernel_size: 3
    stride: 2
    engine: MKL2017
  }
}
layer {
  name: "fc6"
  type: "InnerProduct"
  bottom: "pool5"
  top: "fc6"
  param {
    lr_mult: 1
    decay_mult: 1
  }
  param {
    lr_mult: 2
    decay_mult: 0
  }
  inner_product_param {
    num_output: 4096
    weight_filler {
      type: "gaussian"
      std: 0.005
    }
    bias_filler {
      type: "constant"
      value: 0.1
    }
  }
}
layer {
  name: "relu6"
  type: "ReLU"
  bottom: "fc6"
  top: "fc6"
}
layer {
  name: "drop6"
  type: "Dropout"
  bottom: "fc6"
  top: "fc6"
  dropout_param {
    dropout_ratio: 0.5
  }
}
layer {
  name: "fc7"
  type: "InnerProduct"
  bottom: "fc6"
  top: "fc7"
  param {
    lr_mult: 1
    decay_mult: 1
  }
  param {
    lr_mult: 2
    decay_mult: 0
  }
  inner_product_param {
    num_output: 4096
    weight_filler {
      type: "gaussian"
      std: 0.005
    }
    bias_filler {
      type: "constant"
      value: 0.1
    }
  }
}
layer {
  name: "relu7"
  type: "ReLU"
  bottom: "fc7"
  top: "fc7"
}
layer {
  name: "drop7"
  type: "Dropout"
  bottom: "fc7"
  top: "fc7"
  dropout_param {
    dropout_ratio: 0.5
  }
}
layer {
  name: "fc8"
  type: "InnerProduct"
  bottom: "fc7"
  top: "fc8"
  param {
    lr_mult: 1
    decay_mult: 1
  }
  param {
    lr_mult: 2
    decay_mult: 0
  }
  inner_product_param {
    num_output: 1000
    weight_filler {
      type: "gaussian"
      std: 0.01
    }
    bias_filler {
      type: "constant"
      value: 0
    }
  }
}
layer {
  name: "fc8_fc8_0_split"
  type: "Split"
  bottom: "fc8"
  top: "fc8_fc8_0_split_0"
  top: "fc8_fc8_0_split_1"
}
layer {
  name: "accuracy"
  type: "Accuracy"
  bottom: "fc8_fc8_0_split_0"
  bottom: "label_data_1_split_0"
  top: "accuracy"
}
layer {
  name: "loss"
  type: "SoftmaxWithLoss"
  bottom: "fc8_fc8_0_split_1"
  bottom: "label_data_1_split_1"
  top: "loss"
}
I1226 13:43:56.921813 85984 cpu_info.cpp:473] Number of OpenMP threads: 66
I1226 13:43:56.926498 98538 net.cpp:136] Initializing net from parameters: 
name: "AlexNet"
state {
  phase: TRAIN
  level: 0
  stage: ""
}
engine: "MKL2017"
layer {
  name: "data"
  type: "Data"
  top: "data"
  top: "label"
  include {
    phase: TRAIN
  }
  transform_param {
    mirror: true
    crop_size: 227
    mean_value: 104
    mean_value: 117
    mean_value: 123
  }
  data_param {
    source: "/export/data1/stanford/hazy/zjian/gorden_bell/ILSVRC2012_lmdb/db_8/ilsvrc12_train_lmdb_3"
    batch_size: 64
    backend: LMDB
  }
}
layer {
  name: "label_data_1_split"
  type: "Split"
  bottom: "label"
  top: "label_data_1_split_0"
  top: "label_data_1_split_1"
}
layer {
  name: "conv1"
  type: "Convolution"
  bottom: "data"
  top: "conv1"
  param {
    lr_mult: 1
    decay_mult: 1
  }
  param {
    lr_mult: 2
    decay_mult: 0
  }
  convolution_param {
    num_output: 96
    kernel_size: 11
    stride: 4
    weight_filler {
      type: "gaussian"
      std: 0.01
    }
    bias_filler {
      type: "constant"
      value: 0
    }
    engine: MKL2017
  }
}
layer {
  name: "relu1"
  type: "ReLU"
  bottom: "conv1"
  top: "conv1"
  relu_param {
    engine: MKL2017
  }
}
layer {
  name: "norm1"
  type: "LRN"
  bottom: "conv1"
  top: "norm1"
  lrn_param {
    local_size: 5
    alpha: 0.0001
    beta: 0.75
    engine: MKL2017
  }
}
layer {
  name: "pool1"
  type: "Pooling"
  bottom: "norm1"
  top: "pool1"
  pooling_param {
    pool: MAX
    kernel_size: 3
    stride: 2
    engine: MKL2017
  }
}
layer {
  name: "conv2"
  type: "Convolution"
  bottom: "pool1"
  top: "conv2"
  param {
    lr_mult: 1
    decay_mult: 1
  }
  param {
    lr_mult: 2
    decay_mult: 0
  }
  convolution_param {
    num_output: 256
    pad: 2
    kernel_size: 5
    group: 2
    weight_filler {
      type: "gaussian"
      std: 0.01
    }
    bias_filler {
      type: "constant"
      value: 0.1
    }
    engine: MKL2017
  }
}
layer {
  name: "relu2"
  type: "ReLU"
  bottom: "conv2"
  top: "conv2"
  relu_param {
    engine: MKL2017
  }
}
layer {
  name: "norm2"
  type: "LRN"
  bottom: "conv2"
  top: "norm2"
  lrn_param {
    local_size: 5
    alpha: 0.0001
    beta: 0.75
    engine: MKL2017
  }
}
layer {
  name: "pool2"
  type: "Pooling"
  bottom: "norm2"
  top: "pool2"
  pooling_param {
    pool: MAX
    kernel_size: 3
    stride: 2
    engine: MKL2017
  }
}
layer {
  name: "conv3"
  type: "Convolution"
  bottom: "pool2"
  top: "conv3"
  param {
    lr_mult: 1
    decay_mult: 1
  }
  param {
    lr_mult: 2
    decay_mult: 0
  }
  convolution_param {
    num_output: 384
    pad: 1
    kernel_size: 3
    weight_filler {
      type: "gaussian"
      std: 0.01
    }
    bias_filler {
      type: "constant"
      value: 0
    }
    engine: MKL2017
  }
}
layer {
  name: "relu3"
  type: "ReLU"
  bottom: "conv3"
  top: "conv3"
  relu_param {
    engine: MKL2017
  }
}
layer {
  name: "conv4"
  type: "Convolution"
  bottom: "conv3"
  top: "conv4"
  param {
    lr_mult: 1
    decay_mult: 1
  }
  param {
    lr_mult: 2
    decay_mult: 0
  }
  convolution_param {
    num_output: 384
    pad: 1
    kernel_size: 3
    group: 2
    weight_filler {
      type: "gaussian"
      std: 0.01
    }
    bias_filler {
      type: "constant"
      value: 0.1
    }
    engine: MKL2017
  }
}
layer {
  name: "relu4"
  type: "ReLU"
  bottom: "conv4"
  top: "conv4"
  relu_param {
    engine: MKL2017
  }
}
layer {
  name: "conv5"
  type: "Convolution"
  bottom: "conv4"
  top: "conv5"
  param {
    lr_mult: 1
    decay_mult: 1
  }
  param {
    lr_mult: 2
    decay_mult: 0
  }
  convolution_param {
    num_output: 256
    pad: 1
    kernel_size: 3
    group: 2
    weight_filler {
      type: "gaussian"
      std: 0.01
    }
    bias_filler {
      type: "constant"
      value: 0.1
    }
    engine: MKL2017
  }
}
layer {
  name: "relu5"
  type: "ReLU"
  bottom: "conv5"
  top: "conv5"
  relu_param {
    engine: MKL2017
  }
}
layer {
  name: "pool5"
  type: "Pooling"
  bottom: "conv5"
  top: "pool5"
  pooling_param {
    pool: MAX
    kernel_size: 3
    stride: 2
    engine: MKL2017
  }
}
layer {
  name: "fc6"
  type: "InnerProduct"
  bottom: "pool5"
  top: "fc6"
  param {
    lr_mult: 1
    decay_mult: 1
  }
  param {
    lr_mult: 2
    decay_mult: 0
  }
  inner_product_param {
    num_output: 4096
    weight_filler {
      type: "gaussian"
      std: 0.005
    }
    bias_filler {
      type: "constant"
      value: 0.1
    }
  }
}
layer {
  name: "relu6"
  type: "ReLU"
  bottom: "fc6"
  top: "fc6"
}
layer {
  name: "drop6"
  type: "Dropout"
  bottom: "fc6"
  top: "fc6"
  dropout_param {
    dropout_ratio: 0.5
  }
}
layer {
  name: "fc7"
  type: "InnerProduct"
  bottom: "fc6"
  top: "fc7"
  param {
    lr_mult: 1
    decay_mult: 1
  }
  param {
    lr_mult: 2
    decay_mult: 0
  }
  inner_product_param {
    num_output: 4096
    weight_filler {
      type: "gaussian"
      std: 0.005
    }
    bias_filler {
      type: "constant"
      value: 0.1
    }
  }
}
layer {
  name: "relu7"
  type: "ReLU"
  bottom: "fc7"
  top: "fc7"
}
layer {
  name: "drop7"
  type: "Dropout"
  bottom: "fc7"
  top: "fc7"
  dropout_param {
    dropout_ratio: 0.5
  }
}
layer {
  name: "fc8"
  type: "InnerProduct"
  bottom: "fc7"
  top: "fc8"
  param {
    lr_mult: 1
    decay_mult: 1
  }
  param {
    lr_mult: 2
    decay_mult: 0
  }
  inner_product_param {
    num_output: 1000
    weight_filler {
      type: "gaussian"
      std: 0.01
    }
    bias_filler {
      type: "constant"
      value: 0
    }
  }
}
layer {
  name: "fc8_fc8_0_split"
  type: "Split"
  bottom: "fc8"
  top: "fc8_fc8_0_split_0"
  top: "fc8_fc8_0_split_1"
}
layer {
  name: "accuracy"
  type: "Accuracy"
  bottom: "fc8_fc8_0_split_0"
  bottom: "label_data_1_split_0"
  top: "accuracy"
}
layer {
  name: "loss"
  type: "SoftmaxWithLoss"
  bottom: "fc8_fc8_0_split_1"
  bottom: "label_data_1_split_1"
  top: "loss"
}
I1226 13:43:56.922194 85984 net.cpp:500] The NetState phase (0) differed from the phase (1) specified by a rule in layer data
I1226 13:43:56.921281 92417 cpu_info.cpp:473] Number of OpenMP threads: 66
I1226 13:43:56.921723 92417 net.cpp:500] The NetState phase (0) differed from the phase (1) specified by a rule in layer data
I1226 13:43:56.924257 85984 net.cpp:136] Initializing net from parameters: 
name: "AlexNet"
state {
  phase: TRAIN
  level: 0
  stage: ""
}
engine: "MKL2017"
layer {
  name: "data"
  type: "Data"
  top: "data"
  top: "label"
  include {
    phase: TRAIN
  }
  transform_param {
    mirror: true
    crop_size: 227
    mean_value: 104
    mean_value: 117
    mean_value: 123
  }
  data_param {
    source: "/export/data1/stanford/hazy/zjian/gorden_bell/ILSVRC2012_lmdb/db_8/ilsvrc12_train_lmdb_5"
    batch_size: 64
    backend: LMDB
  }
}
layer {
  name: "label_data_1_split"
  type: "Split"
  bottom: "label"
  top: "label_data_1_split_0"
  top: "label_data_1_split_1"
}
layer {
  name: "conv1"
  type: "Convolution"
  bottom: "data"
  top: "conv1"
  param {
    lr_mult: 1
    decay_mult: 1
  }
  param {
    lr_mult: 2
    decay_mult: 0
  }
  convolution_param {
    num_output: 96
    kernel_size: 11
    stride: 4
    weight_filler {
      type: "gaussian"
      std: 0.01
    }
    bias_filler {
      type: "constant"
      value: 0
    }
    engine: MKL2017
  }
}
layer {
  name: "relu1"
  type: "ReLU"
  bottom: "conv1"
  top: "conv1"
  relu_param {
    engine: MKL2017
  }
}
layer {
  name: "norm1"
  type: "LRN"
  bottom: "conv1"
  top: "norm1"
  lrn_param {
    local_size: 5
    alpha: 0.0001
    beta: 0.75
    engine: MKL2017
  }
}
layer {
  name: "pool1"
  type: "Pooling"
  bottom: "norm1"
  top: "pool1"
  pooling_param {
    pool: MAX
    kernel_size: 3
    stride: 2
    engine: MKL2017
  }
}
layer {
  name: "conv2"
  type: "Convolution"
  bottom: "pool1"
  top: "conv2"
  param {
    lr_mult: 1
    decay_mult: 1
  }
  param {
    lr_mult: 2
    decay_mult: 0
  }
  convolution_param {
    num_output: 256
    pad: 2
    kernel_size: 5
    group: 2
    weight_filler {
      type: "gaussian"
      std: 0.01
    }
    bias_filler {
      type: "constant"
      value: 0.1
    }
    engine: MKL2017
  }
}
layer {
  name: "relu2"
  type: "ReLU"
  bottom: "conv2"
  top: "conv2"
  relu_param {
    engine: MKL2017
  }
}
layer {
  name: "norm2"
  type: "LRN"
  bottom: "conv2"
  top: "norm2"
  lrn_param {
    local_size: 5
    alpha: 0.0001
    beta: 0.75
    engine: MKL2017
  }
}
layer {
  name: "pool2"
  type: "Pooling"
  bottom: "norm2"
  top: "pool2"
  pooling_param {
    pool: MAX
    kernel_size: 3
    stride: 2
    engine: MKL2017
  }
}
layer {
  name: "conv3"
  type: "Convolution"
  bottom: "pool2"
  top: "conv3"
  param {
    lr_mult: 1
    decay_mult: 1
  }
  param {
    lr_mult: 2
    decay_mult: 0
  }
  convolution_param {
    num_output: 384
    pad: 1
    kernel_size: 3
    weight_filler {
      type: "gaussian"
      std: 0.01
    }
    bias_filler {
      type: "constant"
      value: 0
    }
    engine: MKL2017
  }
}
layer {
  name: "relu3"
  type: "ReLU"
  bottom: "conv3"
  top: "conv3"
  relu_param {
    engine: MKL2017
  }
}
layer {
  name: "conv4"
  type: "Convolution"
  bottom: "conv3"
  top: "conv4"
  param {
    lr_mult: 1
    decay_mult: 1
  }
  param {
    lr_mult: 2
    decay_mult: 0
  }
  convolution_param {
    num_output: 384
    pad: 1
    kernel_size: 3
    group: 2
    weight_filler {
      type: "gaussian"
      std: 0.01
    }
    bias_filler {
      type: "constant"
      value: 0.1
    }
    engine: MKL2017
  }
}
layer {
  name: "relu4"
  type: "ReLU"
  bottom: "conv4"
  top: "conv4"
  relu_param {
    engine: MKL2017
  }
}
layer {
  name: "conv5"
  type: "Convolution"
  bottom: "conv4"
  top: "conv5"
  param {
    lr_mult: 1
    decay_mult: 1
  }
  param {
    lr_mult: 2
    decay_mult: 0
  }
  convolution_param {
    num_output: 256
    pad: 1
    kernel_size: 3
    group: 2
    weight_filler {
      type: "gaussian"
      std: 0.01
    }
    bias_filler {
      type: "constant"
      value: 0.1
    }
    engine: MKL2017
  }
}
layer {
  name: "relu5"
  type: "ReLU"
  bottom: "conv5"
  top: "conv5"
  relu_param {
    engine: MKL2017
  }
}
layer {
  name: "pool5"
  type: "Pooling"
  bottom: "conv5"
  top: "pool5"
  pooling_param {
    pool: MAX
    kernel_size: 3
    stride: 2
    engine: MKL2017
  }
}
layer {
  name: "fc6"
  type: "InnerProduct"
  bottom: "pool5"
  top: "fc6"
  param {
    lr_mult: 1
    decay_mult: 1
  }
  param {
    lr_mult: 2
    decay_mult: 0
  }
  inner_product_param {
    num_output: 4096
    weight_filler {
      type: "gaussian"
      std: 0.005
    }
    bias_filler {
      type: "constant"
      value: 0.1
    }
  }
}
layer {
  name: "relu6"
  type: "ReLU"
  bottom: "fc6"
  top: "fc6"
}
layer {
  name: "drop6"
  type: "Dropout"
  bottom: "fc6"
  top: "fc6"
  dropout_param {
    dropout_ratio: 0.5
  }
}
layer {
  name: "fc7"
  type: "InnerProduct"
  bottom: "fc6"
  top: "fc7"
  param {
    lr_mult: 1
    decay_mult: 1
  }
  param {
    lr_mult: 2
    decay_mult: 0
  }
  inner_product_param {
    num_output: 4096
    weight_filler {
      type: "gaussian"
      std: 0.005
    }
    bias_filler {
      type: "constant"
      value: 0.1
    }
  }
}
layer {
  name: "relu7"
  type: "ReLU"
  bottom: "fc7"
  top: "fc7"
}
layer {
  name: "drop7"
  type: "Dropout"
  bottom: "fc7"
  top: "fc7"
  dropout_param {
    dropout_ratio: 0.5
  }
}
layer {
  name: "fc8"
  type: "InnerProduct"
  bottom: "fc7"
  top: "fc8"
  param {
    lr_mult: 1
    decay_mult: 1
  }
  param {
    lr_mult: 2
    decay_mult: 0
  }
  inner_product_param {
    num_output: 1000
    weight_filler {
      type: "gaussian"
      std: 0.01
    }
    bias_filler {
      type: "constant"
      value: 0
    }
  }
}
layer {
  name: "fc8_fc8_0_split"
  type: "Split"
  bottom: "fc8"
  top: "fc8_fc8_0_split_0"
  top: "fc8_fc8_0_split_1"
}
layer {
  name: "accuracy"
  type: "Accuracy"
  bottom: "fc8_fc8_0_split_0"
  bottom: "label_data_1_split_0"
  top: "accuracy"
}
layer {
  name: "loss"
  type: "SoftmaxWithLoss"
  bottom: "fc8_fc8_0_split_1"
  bottom: "label_data_1_split_1"
  top: "loss"
}
I1226 13:43:56.923789 92417 net.cpp:136] Initializing net from parameters: 
name: "AlexNet"
state {
  phase: TRAIN
  level: 0
  stage: ""
}
engine: "MKL2017"
layer {
  name: "data"
  type: "Data"
  top: "data"
  top: "label"
  include {
    phase: TRAIN
  }
  transform_param {
    mirror: true
    crop_size: 227
    mean_value: 104
    mean_value: 117
    mean_value: 123
  }
  data_param {
    source: "/export/data1/stanford/hazy/zjian/gorden_bell/ILSVRC2012_lmdb/db_8/ilsvrc12_train_lmdb_1"
    batch_size: 64
    backend: LMDB
  }
}
layer {
  name: "label_data_1_split"
  type: "Split"
  bottom: "label"
  top: "label_data_1_split_0"
  top: "label_data_1_split_1"
}
layer {
  name: "conv1"
  type: "Convolution"
  bottom: "data"
  top: "conv1"
  param {
    lr_mult: 1
    decay_mult: 1
  }
  param {
    lr_mult: 2
    decay_mult: 0
  }
  convolution_param {
    num_output: 96
    kernel_size: 11
    stride: 4
    weight_filler {
      type: "gaussian"
      std: 0.01
    }
    bias_filler {
      type: "constant"
      value: 0
    }
    engine: MKL2017
  }
}
layer {
  name: "relu1"
  type: "ReLU"
  bottom: "conv1"
  top: "conv1"
  relu_param {
    engine: MKL2017
  }
}
layer {
  name: "norm1"
  type: "LRN"
  bottom: "conv1"
  top: "norm1"
  lrn_param {
    local_size: 5
    alpha: 0.0001
    beta: 0.75
    engine: MKL2017
  }
}
layer {
  name: "pool1"
  type: "Pooling"
  bottom: "norm1"
  top: "pool1"
  pooling_param {
    pool: MAX
    kernel_size: 3
    stride: 2
    engine: MKL2017
  }
}
layer {
  name: "conv2"
  type: "Convolution"
  bottom: "pool1"
  top: "conv2"
  param {
    lr_mult: 1
    decay_mult: 1
  }
  param {
    lr_mult: 2
    decay_mult: 0
  }
  convolution_param {
    num_output: 256
    pad: 2
    kernel_size: 5
    group: 2
    weight_filler {
      type: "gaussian"
      std: 0.01
    }
    bias_filler {
      type: "constant"
      value: 0.1
    }
    engine: MKL2017
  }
}
layer {
  name: "relu2"
  type: "ReLU"
  bottom: "conv2"
  top: "conv2"
  relu_param {
    engine: MKL2017
  }
}
layer {
  name: "norm2"
  type: "LRN"
  bottom: "conv2"
  top: "norm2"
  lrn_param {
    local_size: 5
    alpha: 0.0001
    beta: 0.75
    engine: MKL2017
  }
}
layer {
  name: "pool2"
  type: "Pooling"
  bottom: "norm2"
  top: "pool2"
  pooling_param {
    pool: MAX
    kernel_size: 3
    stride: 2
    engine: MKL2017
  }
}
layer {
  name: "conv3"
  type: "Convolution"
  bottom: "pool2"
  top: "conv3"
  param {
    lr_mult: 1
    decay_mult: 1
  }
  param {
    lr_mult: 2
    decay_mult: 0
  }
  convolution_param {
    num_output: 384
    pad: 1
    kernel_size: 3
    weight_filler {
      type: "gaussian"
      std: 0.01
    }
    bias_filler {
      type: "constant"
      value: 0
    }
    engine: MKL2017
  }
}
layer {
  name: "relu3"
  type: "ReLU"
  bottom: "conv3"
  top: "conv3"
  relu_param {
    engine: MKL2017
  }
}
layer {
  name: "conv4"
  type: "Convolution"
  bottom: "conv3"
  top: "conv4"
  param {
    lr_mult: 1
    decay_mult: 1
  }
  param {
    lr_mult: 2
    decay_mult: 0
  }
  convolution_param {
    num_output: 384
    pad: 1
    kernel_size: 3
    group: 2
    weight_filler {
      type: "gaussian"
      std: 0.01
    }
    bias_filler {
      type: "constant"
      value: 0.1
    }
    engine: MKL2017
  }
}
layer {
  name: "relu4"
  type: "ReLU"
  bottom: "conv4"
  top: "conv4"
  relu_param {
    engine: MKL2017
  }
}
layer {
  name: "conv5"
  type: "Convolution"
  bottom: "conv4"
  top: "conv5"
  param {
    lr_mult: 1
    decay_mult: 1
  }
  param {
    lr_mult: 2
    decay_mult: 0
  }
  convolution_param {
    num_output: 256
    pad: 1
    kernel_size: 3
    group: 2
    weight_filler {
      type: "gaussian"
      std: 0.01
    }
    bias_filler {
      type: "constant"
      value: 0.1
    }
    engine: MKL2017
  }
}
layer {
  name: "relu5"
  type: "ReLU"
  bottom: "conv5"
  top: "conv5"
  relu_param {
    engine: MKL2017
  }
}
layer {
  name: "pool5"
  type: "Pooling"
  bottom: "conv5"
  top: "pool5"
  pooling_param {
    pool: MAX
    kernel_size: 3
    stride: 2
    engine: MKL2017
  }
}
layer {
  name: "fc6"
  type: "InnerProduct"
  bottom: "pool5"
  top: "fc6"
  param {
    lr_mult: 1
    decay_mult: 1
  }
  param {
    lr_mult: 2
    decay_mult: 0
  }
  inner_product_param {
    num_output: 4096
    weight_filler {
      type: "gaussian"
      std: 0.005
    }
    bias_filler {
      type: "constant"
      value: 0.1
    }
  }
}
layer {
  name: "relu6"
  type: "ReLU"
  bottom: "fc6"
  top: "fc6"
}
layer {
  name: "drop6"
  type: "Dropout"
  bottom: "fc6"
  top: "fc6"
  dropout_param {
    dropout_ratio: 0.5
  }
}
layer {
  name: "fc7"
  type: "InnerProduct"
  bottom: "fc6"
  top: "fc7"
  param {
    lr_mult: 1
    decay_mult: 1
  }
  param {
    lr_mult: 2
    decay_mult: 0
  }
  inner_product_param {
    num_output: 4096
    weight_filler {
      type: "gaussian"
      std: 0.005
    }
    bias_filler {
      type: "constant"
      value: 0.1
    }
  }
}
layer {
  name: "relu7"
  type: "ReLU"
  bottom: "fc7"
  top: "fc7"
}
layer {
  name: "drop7"
  type: "Dropout"
  bottom: "fc7"
  top: "fc7"
  dropout_param {
    dropout_ratio: 0.5
  }
}
layer {
  name: "fc8"
  type: "InnerProduct"
  bottom: "fc7"
  top: "fc8"
  param {
    lr_mult: 1
    decay_mult: 1
  }
  param {
    lr_mult: 2
    decay_mult: 0
  }
  inner_product_param {
    num_output: 1000
    weight_filler {
      type: "gaussian"
      std: 0.01
    }
    bias_filler {
      type: "constant"
      value: 0
    }
  }
}
layer {
  name: "fc8_fc8_0_split"
  type: "Split"
  bottom: "fc8"
  top: "fc8_fc8_0_split_0"
  top: "fc8_fc8_0_split_1"
}
layer {
  name: "accuracy"
  type: "Accuracy"
  bottom: "fc8_fc8_0_split_0"
  bottom: "label_data_1_split_0"
  top: "accuracy"
}
layer {
  name: "loss"
  type: "SoftmaxWithLoss"
  bottom: "fc8_fc8_0_split_1"
  bottom: "label_data_1_split_1"
  top: "loss"
}
I1226 13:43:56.915638 91110 cpu_info.cpp:473] Number of OpenMP threads: 66
I1226 13:43:56.916028 91110 net.cpp:500] The NetState phase (0) differed from the phase (1) specified by a rule in layer data
I1226 13:43:56.918308 91110 net.cpp:136] Initializing net from parameters: 
name: "AlexNet"
state {
  phase: TRAIN
  level: 0
  stage: ""
}
engine: "MKL2017"
layer {
  name: "data"
  type: "Data"
  top: "data"
  top: "label"
  include {
    phase: TRAIN
  }
  transform_param {
    mirror: true
    crop_size: 227
    mean_value: 104
    mean_value: 117
    mean_value: 123
  }
  data_param {
    source: "/export/data1/stanford/hazy/zjian/gorden_bell/ILSVRC2012_lmdb/db_8/ilsvrc12_train_lmdb_6"
    batch_size: 64
    backend: LMDB
  }
}
layer {
  name: "label_data_1_split"
  type: "Split"
  bottom: "label"
  top: "label_data_1_split_0"
  top: "label_data_1_split_1"
}
layer {
  name: "conv1"
  type: "Convolution"
  bottom: "data"
  top: "conv1"
  param {
    lr_mult: 1
    decay_mult: 1
  }
  param {
    lr_mult: 2
    decay_mult: 0
  }
  convolution_param {
    num_output: 96
    kernel_size: 11
    stride: 4
    weight_filler {
      type: "gaussian"
      std: 0.01
    }
    bias_filler {
      type: "constant"
      value: 0
    }
    engine: MKL2017
  }
}
layer {
  name: "relu1"
  type: "ReLU"
  bottom: "conv1"
  top: "conv1"
  relu_param {
    engine: MKL2017
  }
}
layer {
  name: "norm1"
  type: "LRN"
  bottom: "conv1"
  top: "norm1"
  lrn_param {
    local_size: 5
    alpha: 0.0001
    beta: 0.75
    engine: MKL2017
  }
}
layer {
  name: "pool1"
  type: "Pooling"
  bottom: "norm1"
  top: "pool1"
  pooling_param {
    pool: MAX
    kernel_size: 3
    stride: 2
    engine: MKL2017
  }
}
layer {
  name: "conv2"
  type: "Convolution"
  bottom: "pool1"
  top: "conv2"
  param {
    lr_mult: 1
    decay_mult: 1
  }
  param {
    lr_mult: 2
    decay_mult: 0
  }
  convolution_param {
    num_output: 256
    pad: 2
    kernel_size: 5
    group: 2
    weight_filler {
      type: "gaussian"
      std: 0.01
    }
    bias_filler {
      type: "constant"
      value: 0.1
    }
    engine: MKL2017
  }
}
layer {
  name: "relu2"
  type: "ReLU"
  bottom: "conv2"
  top: "conv2"
  relu_param {
    engine: MKL2017
  }
}
layer {
  name: "norm2"
  type: "LRN"
  bottom: "conv2"
  top: "norm2"
  lrn_param {
    local_size: 5
    alpha: 0.0001
    beta: 0.75
    engine: MKL2017
  }
}
layer {
  name: "pool2"
  type: "Pooling"
  bottom: "norm2"
  top: "pool2"
  pooling_param {
    pool: MAX
    kernel_size: 3
    stride: 2
    engine: MKL2017
  }
}
layer {
  name: "conv3"
  type: "Convolution"
  bottom: "pool2"
  top: "conv3"
  param {
    lr_mult: 1
    decay_mult: 1
  }
  param {
    lr_mult: 2
    decay_mult: 0
  }
  convolution_param {
    num_output: 384
    pad: 1
    kernel_size: 3
    weight_filler {
      type: "gaussian"
      std: 0.01
    }
    bias_filler {
      type: "constant"
      value: 0
    }
    engine: MKL2017
  }
}
layer {
  name: "relu3"
  type: "ReLU"
  bottom: "conv3"
  top: "conv3"
  relu_param {
    engine: MKL2017
  }
}
layer {
  name: "conv4"
  type: "Convolution"
  bottom: "conv3"
  top: "conv4"
  param {
    lr_mult: 1
    decay_mult: 1
  }
  param {
    lr_mult: 2
    decay_mult: 0
  }
  convolution_param {
    num_output: 384
    pad: 1
    kernel_size: 3
    group: 2
    weight_filler {
      type: "gaussian"
      std: 0.01
    }
    bias_filler {
      type: "constant"
      value: 0.1
    }
    engine: MKL2017
  }
}
layer {
  name: "relu4"
  type: "ReLU"
  bottom: "conv4"
  top: "conv4"
  relu_param {
    engine: MKL2017
  }
}
layer {
  name: "conv5"
  type: "Convolution"
  bottom: "conv4"
  top: "conv5"
  param {
    lr_mult: 1
    decay_mult: 1
  }
  param {
    lr_mult: 2
    decay_mult: 0
  }
  convolution_param {
    num_output: 256
    pad: 1
    kernel_size: 3
    group: 2
    weight_filler {
      type: "gaussian"
      std: 0.01
    }
    bias_filler {
      type: "constant"
      value: 0.1
    }
    engine: MKL2017
  }
}
layer {
  name: "relu5"
  type: "ReLU"
  bottom: "conv5"
  top: "conv5"
  relu_param {
    engine: MKL2017
  }
}
layer {
  name: "pool5"
  type: "Pooling"
  bottom: "conv5"
  top: "pool5"
  pooling_param {
    pool: MAX
    kernel_size: 3
    stride: 2
    engine: MKL2017
  }
}
layer {
  name: "fc6"
  type: "InnerProduct"
  bottom: "pool5"
  top: "fc6"
  param {
    lr_mult: 1
    decay_mult: 1
  }
  param {
    lr_mult: 2
    decay_mult: 0
  }
  inner_product_param {
    num_output: 4096
    weight_filler {
      type: "gaussian"
      std: 0.005
    }
    bias_filler {
      type: "constant"
      value: 0.1
    }
  }
}
layer {
  name: "relu6"
  type: "ReLU"
  bottom: "fc6"
  top: "fc6"
}
layer {
  name: "drop6"
  type: "Dropout"
  bottom: "fc6"
  top: "fc6"
  dropout_param {
    dropout_ratio: 0.5
  }
}
layer {
  name: "fc7"
  type: "InnerProduct"
  bottom: "fc6"
  top: "fc7"
  param {
    lr_mult: 1
    decay_mult: 1
  }
  param {
    lr_mult: 2
    decay_mult: 0
  }
  inner_product_param {
    num_output: 4096
    weight_filler {
      type: "gaussian"
      std: 0.005
    }
    bias_filler {
      type: "constant"
      value: 0.1
    }
  }
}
layer {
  name: "relu7"
  type: "ReLU"
  bottom: "fc7"
  top: "fc7"
}
layer {
  name: "drop7"
  type: "Dropout"
  bottom: "fc7"
  top: "fc7"
  dropout_param {
    dropout_ratio: 0.5
  }
}
layer {
  name: "fc8"
  type: "InnerProduct"
  bottom: "fc7"
  top: "fc8"
  param {
    lr_mult: 1
    decay_mult: 1
  }
  param {
    lr_mult: 2
    decay_mult: 0
  }
  inner_product_param {
    num_output: 1000
    weight_filler {
      type: "gaussian"
      std: 0.01
    }
    bias_filler {
      type: "constant"
      value: 0
    }
  }
}
layer {
  name: "fc8_fc8_0_split"
  type: "Split"
  bottom: "fc8"
  top: "fc8_fc8_0_split_0"
  top: "fc8_fc8_0_split_1"
}
layer {
  name: "accuracy"
  type: "Accuracy"
  bottom: "fc8_fc8_0_split_0"
  bottom: "label_data_1_split_0"
  top: "accuracy"
}
layer {
  name: "loss"
  type: "SoftmaxWithLoss"
  bottom: "fc8_fc8_0_split_1"
  bottom: "label_data_1_split_1"
  top: "loss"
}
I1226 13:43:56.941812 94885 layer_factory.hpp:114] Creating layer data
I1226 13:43:56.947702 98538 layer_factory.hpp:114] Creating layer data
I1226 13:43:56.962442 91279 cpu_info.cpp:473] Number of OpenMP threads: 66
I1226 13:43:56.962824 91279 net.cpp:500] The NetState phase (0) differed from the phase (1) specified by a rule in layer data
I1226 13:43:56.965188 91279 net.cpp:136] Initializing net from parameters: 
name: "AlexNet"
state {
  phase: TRAIN
  level: 0
  stage: ""
}
engine: "MKL2017"
layer {
  name: "data"
  type: "Data"
  top: "data"
  top: "label"
  include {
    phase: TRAIN
  }
  transform_param {
    mirror: true
    crop_size: 227
    mean_value: 104
    mean_value: 117
    mean_value: 123
  }
  data_param {
    source: "/export/data1/stanford/hazy/zjian/gorden_bell/ILSVRC2012_lmdb/db_8/ilsvrc12_train_lmdb_2"
    batch_size: 64
    backend: LMDB
  }
}
layer {
  name: "label_data_1_split"
  type: "Split"
  bottom: "label"
  top: "label_data_1_split_0"
  top: "label_data_1_split_1"
}
layer {
  name: "conv1"
  type: "Convolution"
  bottom: "data"
  top: "conv1"
  param {
    lr_mult: 1
    decay_mult: 1
  }
  param {
    lr_mult: 2
    decay_mult: 0
  }
  convolution_param {
    num_output: 96
    kernel_size: 11
    stride: 4
    weight_filler {
      type: "gaussian"
      std: 0.01
    }
    bias_filler {
      type: "constant"
      value: 0
    }
    engine: MKL2017
  }
}
layer {
  name: "relu1"
  type: "ReLU"
  bottom: "conv1"
  top: "conv1"
  relu_param {
    engine: MKL2017
  }
}
layer {
  name: "norm1"
  type: "LRN"
  bottom: "conv1"
  top: "norm1"
  lrn_param {
    local_size: 5
    alpha: 0.0001
    beta: 0.75
    engine: MKL2017
  }
}
layer {
  name: "pool1"
  type: "Pooling"
  bottom: "norm1"
  top: "pool1"
  pooling_param {
    pool: MAX
    kernel_size: 3
    stride: 2
    engine: MKL2017
  }
}
layer {
  name: "conv2"
  type: "Convolution"
  bottom: "pool1"
  top: "conv2"
  param {
    lr_mult: 1
    decay_mult: 1
  }
  param {
    lr_mult: 2
    decay_mult: 0
  }
  convolution_param {
    num_output: 256
    pad: 2
    kernel_size: 5
    group: 2
    weight_filler {
      type: "gaussian"
      std: 0.01
    }
    bias_filler {
      type: "constant"
      value: 0.1
    }
    engine: MKL2017
  }
}
layer {
  name: "relu2"
  type: "ReLU"
  bottom: "conv2"
  top: "conv2"
  relu_param {
    engine: MKL2017
  }
}
layer {
  name: "norm2"
  type: "LRN"
  bottom: "conv2"
  top: "norm2"
  lrn_param {
    local_size: 5
    alpha: 0.0001
    beta: 0.75
    engine: MKL2017
  }
}
layer {
  name: "pool2"
  type: "Pooling"
  bottom: "norm2"
  top: "pool2"
  pooling_param {
    pool: MAX
    kernel_size: 3
    stride: 2
    engine: MKL2017
  }
}
layer {
  name: "conv3"
  type: "Convolution"
  bottom: "pool2"
  top: "conv3"
  param {
    lr_mult: 1
    decay_mult: 1
  }
  param {
    lr_mult: 2
    decay_mult: 0
  }
  convolution_param {
    num_output: 384
    pad: 1
    kernel_size: 3
    weight_filler {
      type: "gaussian"
      std: 0.01
    }
    bias_filler {
      type: "constant"
      value: 0
    }
    engine: MKL2017
  }
}
layer {
  name: "relu3"
  type: "ReLU"
  bottom: "conv3"
  top: "conv3"
  relu_param {
    engine: MKL2017
  }
}
layer {
  name: "conv4"
  type: "Convolution"
  bottom: "conv3"
  top: "conv4"
  param {
    lr_mult: 1
    decay_mult: 1
  }
  param {
    lr_mult: 2
    decay_mult: 0
  }
  convolution_param {
    num_output: 384
    pad: 1
    kernel_size: 3
    group: 2
    weight_filler {
      type: "gaussian"
      std: 0.01
    }
    bias_filler {
      type: "constant"
      value: 0.1
    }
    engine: MKL2017
  }
}
layer {
  name: "relu4"
  type: "ReLU"
  bottom: "conv4"
  top: "conv4"
  relu_param {
    engine: MKL2017
  }
}
layer {
  name: "conv5"
  type: "Convolution"
  bottom: "conv4"
  top: "conv5"
  param {
    lr_mult: 1
    decay_mult: 1
  }
  param {
    lr_mult: 2
    decay_mult: 0
  }
  convolution_param {
    num_output: 256
    pad: 1
    kernel_size: 3
    group: 2
    weight_filler {
      type: "gaussian"
      std: 0.01
    }
    bias_filler {
      type: "constant"
      value: 0.1
    }
    engine: MKL2017
  }
}
layer {
  name: "relu5"
  type: "ReLU"
  bottom: "conv5"
  top: "conv5"
  relu_param {
    engine: MKL2017
  }
}
layer {
  name: "pool5"
  type: "Pooling"
  bottom: "conv5"
  top: "pool5"
  pooling_param {
    pool: MAX
    kernel_size: 3
    stride: 2
    engine: MKL2017
  }
}
layer {
  name: "fc6"
  type: "InnerProduct"
  bottom: "pool5"
  top: "fc6"
  param {
    lr_mult: 1
    decay_mult: 1
  }
  param {
    lr_mult: 2
    decay_mult: 0
  }
  inner_product_param {
    num_output: 4096
    weight_filler {
      type: "gaussian"
      std: 0.005
    }
    bias_filler {
      type: "constant"
      value: 0.1
    }
  }
}
layer {
  name: "relu6"
  type: "ReLU"
  bottom: "fc6"
  top: "fc6"
}
layer {
  name: "drop6"
  type: "Dropout"
  bottom: "fc6"
  top: "fc6"
  dropout_param {
    dropout_ratio: 0.5
  }
}
layer {
  name: "fc7"
  type: "InnerProduct"
  bottom: "fc6"
  top: "fc7"
  param {
    lr_mult: 1
    decay_mult: 1
  }
  param {
    lr_mult: 2
    decay_mult: 0
  }
  inner_product_param {
    num_output: 4096
    weight_filler {
      type: "gaussian"
      std: 0.005
    }
    bias_filler {
      type: "constant"
      value: 0.1
    }
  }
}
layer {
  name: "relu7"
  type: "ReLU"
  bottom: "fc7"
  top: "fc7"
}
layer {
  name: "drop7"
  type: "Dropout"
  bottom: "fc7"
  top: "fc7"
  dropout_param {
    dropout_ratio: 0.5
  }
}
layer {
  name: "fc8"
  type: "InnerProduct"
  bottom: "fc7"
  top: "fc8"
  param {
    lr_mult: 1
    decay_mult: 1
  }
  param {
    lr_mult: 2
    decay_mult: 0
  }
  inner_product_param {
    num_output: 1000
    weight_filler {
      type: "gaussian"
      std: 0.01
    }
    bias_filler {
      type: "constant"
      value: 0
    }
  }
}
layer {
  name: "fc8_fc8_0_split"
  type: "Split"
  bottom: "fc8"
  top: "fc8_fc8_0_split_0"
  top: "fc8_fc8_0_split_1"
}
layer {
  name: "accuracy"
  type: "Accuracy"
  bottom: "fc8_fc8_0_split_0"
  bottom: "label_data_1_split_0"
  top: "accuracy"
}
layer {
  name: "loss"
  type: "SoftmaxWithLoss"
  bottom: "fc8_fc8_0_split_1"
  bottom: "label_data_1_split_1"
  top: "loss"
}
I1226 13:43:56.960206 98538 net.cpp:178] Creating Layer data
I1226 13:43:56.960289 98538 net.cpp:586] data -> data
I1226 13:43:56.960364 98538 net.cpp:586] data -> label
I1226 13:43:56.947895 91110 layer_factory.hpp:114] Creating layer data
I1226 13:43:56.968507 94885 net.cpp:178] Creating Layer data
I1226 13:43:56.968634 94885 net.cpp:586] data -> data
I1226 13:43:56.968758 94885 net.cpp:586] data -> label
…
I1226 13:43:56.978612 94226 net.cpp:586] data -> label
I1226 13:43:56.990571 92417 layer_factory.hpp:114] Creating layer data
I1226 13:43:57.003119 98538 data_layer.cpp:80] output data size: 64,3,227,227
I1226 13:43:56.998949 92417 net.cpp:178] Creating Layer data
I1226 13:43:56.999030 92417 net.cpp:586] data -> data
I1226 13:43:56.999107 92417 net.cpp:586] data -> label
I1226 13:43:56.986593 91112 db_lmdb.cpp:72] Opened lmdb /export/data1/stanford/hazy/zjian/gorden_bell/ILSVRC2012_lmdb/db_8/ilsvrc12_train_lmdb_6
I1226 13:43:57.000454 85406 net.cpp:228] Setting up data
I1226 13:43:57.000573 85406 net.cpp:235] Top shape: 64 3 227 227 (9893568)
I1226 13:43:57.000630 85406 net.cpp:235] Top shape: 64 1 1 1 (64)
I1226 13:43:57.000655 85406 net.cpp:243] Memory required for data: 39574528
I1226 13:43:57.000692 85406 layer_factory.hpp:114] Creating layer label_data_1_split
I1226 13:43:57.000782 85406 net.cpp:178] Creating Layer label_data_1_split
I1226 13:43:57.000813 85406 net.cpp:612] label_data_1_split <- label
I1226 13:43:57.000928 85406 net.cpp:586] label_data_1_split -> label_data_1_split_0
I1226 13:43:57.000978 85406 net.cpp:586] label_data_1_split -> label_data_1_split_1
I1226 13:43:56.992063 94229 db_lmdb.cpp:72] Opened lmdb /export/data1/stanford/hazy/zjian/gorden_bell/ILSVRC2012_lmdb/db_8/ilsvrc12_train_lmdb_0
I1226 13:43:57.012254 94885 data_layer.cpp:80] output data size: 64,3,227,227
I1226 13:43:56.996109 94226 data_layer.cpp:80] output data size: 64,3,227,227
I1226 13:43:56.995004 91110 data_layer.cpp:80] output data size: 64,3,227,227
I1226 13:43:57.012137 92420 db_lmdb.cpp:72] Opened lmdb /export/data1/stanford/hazy/zjian/gorden_bell/ILSVRC2012_lmdb/db_8/ilsvrc12_train_lmdb_1
I1226 13:43:57.012773 85406 net.cpp:228] Setting up label_data_1_split
I1226 13:43:57.012876 85406 net.cpp:235] Top shape: 64 1 1 1 (64)
I1226 13:43:57.012908 85406 net.cpp:235] Top shape: 64 1 1 1 (64)
I1226 13:43:57.012930 85406 net.cpp:243] Memory required for data: 39575040
I1226 13:43:57.012964 85406 layer_factory.hpp:114] Creating layer conv1
I1226 13:43:57.013058 85406 net.cpp:178] Creating Layer conv1
I1226 13:43:57.013090 85406 net.cpp:612] conv1 <- data
I1226 13:43:57.013130 85406 net.cpp:586] conv1 -> conv1
I1226 13:43:57.029939 91281 db_lmdb.cpp:72] Opened lmdb /export/data1/stanford/hazy/zjian/gorden_bell/ILSVRC2012_lmdb/db_8/ilsvrc12_train_lmdb_2
I1226 13:43:57.016103 92417 data_layer.cpp:80] output data size: 64,3,227,227
I1226 13:43:57.038460 91279 data_layer.cpp:80] output data size: 64,3,227,227
I1226 13:43:57.087352 97018 layer_factory.hpp:114] Creating layer data
I1226 13:43:57.101269 98538 net.cpp:228] Setting up data
I1226 13:43:57.101387 98538 net.cpp:235] Top shape: 64 3 227 227 (9893568)
I1226 13:43:57.101424 98538 net.cpp:235] Top shape: 64 (64)
I1226 13:43:57.101449 98538 net.cpp:243] Memory required for data: 39574528
I1226 13:43:57.101487 98538 layer_factory.hpp:114] Creating layer label_data_1_split
I1226 13:43:57.101583 98538 net.cpp:178] Creating Layer label_data_1_split
I1226 13:43:57.101712 98538 net.cpp:612] label_data_1_split <- label
I1226 13:43:57.101760 98538 net.cpp:586] label_data_1_split -> label_data_1_split_0
I1226 13:43:57.101812 98538 net.cpp:586] label_data_1_split -> label_data_1_split_1
I1226 13:43:57.095777 97018 net.cpp:178] Creating Layer data
I1226 13:43:57.095916 97018 net.cpp:586] data -> data
I1226 13:43:57.096048 97018 net.cpp:586] data -> label
I1226 13:43:57.102082 85984 layer_factory.hpp:114] Creating layer data
I1226 13:43:57.092820 91110 net.cpp:228] Setting up data
I1226 13:43:57.092984 91110 net.cpp:235] Top shape: 64 3 227 227 (9893568)
I1226 13:43:57.093022 91110 net.cpp:235] Top shape: 64 (64)
I1226 13:43:57.093047 91110 net.cpp:243] Memory required for data: 39574528
I1226 13:43:57.093116 91110 layer_factory.hpp:114] Creating layer label_data_1_split
I1226 13:43:57.093206 91110 net.cpp:178] Creating Layer label_data_1_split
I1226 13:43:57.093369 91110 net.cpp:612] label_data_1_split <- label
I1226 13:43:57.093418 91110 net.cpp:586] label_data_1_split -> label_data_1_split_0
I1226 13:43:57.093487 91110 net.cpp:586] label_data_1_split -> label_data_1_split_1
I1226 13:43:57.108970 85984 net.cpp:178] Creating Layer data
I1226 13:43:57.109053 85984 net.cpp:586] data -> data
I1226 13:43:57.109153 85984 net.cpp:586] data -> label
I1226 13:43:57.099930 94226 net.cpp:228] Setting up data
I1226 13:43:57.100066 94226 net.cpp:235] Top shape: 64 3 227 227 (9893568)
I1226 13:43:57.100106 94226 net.cpp:235] Top shape: 64 (64)
I1226 13:43:57.100132 94226 net.cpp:243] Memory required for data: 39574528
I1226 13:43:57.100174 94226 layer_factory.hpp:114] Creating layer label_data_1_split
I1226 13:43:57.100267 94226 net.cpp:178] Creating Layer label_data_1_split
I1226 13:43:57.100437 94226 net.cpp:612] label_data_1_split <- label
I1226 13:43:57.100497 94226 net.cpp:586] label_data_1_split -> label_data_1_split_0
I1226 13:43:57.100555 94226 net.cpp:586] label_data_1_split -> label_data_1_split_1
I1226 13:43:57.106859 97021 db_lmdb.cpp:72] Opened lmdb /export/data1/stanford/hazy/zjian/gorden_bell/ILSVRC2012_lmdb/db_8/ilsvrc12_train_lmdb_7
I1226 13:43:57.111469 97018 data_layer.cpp:80] output data size: 64,3,227,227
I1226 13:43:57.122140 98538 net.cpp:228] Setting up label_data_1_split
I1226 13:43:57.122258 98538 net.cpp:235] Top shape: 64 (64)
I1226 13:43:57.122293 98538 net.cpp:235] Top shape: 64 (64)
I1226 13:43:57.122318 98538 net.cpp:243] Memory required for data: 39575040
I1226 13:43:57.122372 98538 layer_factory.hpp:114] Creating layer conv1
I1226 13:43:57.122596 98538 net.cpp:178] Creating Layer conv1
I1226 13:43:57.122640 98538 net.cpp:612] conv1 <- data
I1226 13:43:57.123008 98538 net.cpp:586] conv1 -> conv1
I1226 13:43:57.137650 91279 net.cpp:228] Setting up data
I1226 13:43:57.137776 91279 net.cpp:235] Top shape: 64 3 227 227 (9893568)
I1226 13:43:57.137815 91279 net.cpp:235] Top shape: 64 (64)
I1226 13:43:57.138120 91279 net.cpp:243] Memory required for data: 39574528
I1226 13:43:57.138190 91279 layer_factory.hpp:114] Creating layer label_data_1_split
I1226 13:43:57.138351 91279 net.cpp:178] Creating Layer label_data_1_split
I1226 13:43:57.138497 91279 net.cpp:612] label_data_1_split <- label
I1226 13:43:57.138546 91279 net.cpp:586] label_data_1_split -> label_data_1_split_0
I1226 13:43:57.138695 91279 net.cpp:586] label_data_1_split -> label_data_1_split_1
I1226 13:43:57.111088 91110 net.cpp:228] Setting up label_data_1_split
I1226 13:43:57.111196 91110 net.cpp:235] Top shape: 64 (64)
I1226 13:43:57.111263 91110 net.cpp:235] Top shape: 64 (64)
I1226 13:43:57.111404 91110 net.cpp:243] Memory required for data: 39575040
I1226 13:43:57.111441 91110 layer_factory.hpp:114] Creating layer conv1
I1226 13:43:57.111559 91110 net.cpp:178] Creating Layer conv1
I1226 13:43:57.111596 91110 net.cpp:612] conv1 <- data
I1226 13:43:57.111639 91110 net.cpp:586] conv1 -> conv1
I1226 13:43:57.124833 92417 net.cpp:228] Setting up data
I1226 13:43:57.124954 92417 net.cpp:235] Top shape: 64 3 227 227 (9893568)
I1226 13:43:57.124995 92417 net.cpp:235] Top shape: 64 (64)
I1226 13:43:57.125020 92417 net.cpp:243] Memory required for data: 39574528
I1226 13:43:57.125072 92417 layer_factory.hpp:114] Creating layer label_data_1_split
I1226 13:43:57.125164 92417 net.cpp:178] Creating Layer label_data_1_split
I1226 13:43:57.125313 92417 net.cpp:612] label_data_1_split <- label
I1226 13:43:57.125365 92417 net.cpp:586] label_data_1_split -> label_data_1_split_0
I1226 13:43:57.125417 92417 net.cpp:586] label_data_1_split -> label_data_1_split_1
I1226 13:43:57.157348 91279 net.cpp:228] Setting up label_data_1_split
I1226 13:43:57.157462 91279 net.cpp:235] Top shape: 64 (64)
I1226 13:43:57.157512 91279 net.cpp:235] Top shape: 64 (64)
I1226 13:43:57.157539 91279 net.cpp:243] Memory required for data: 39575040
I1226 13:43:57.157676 91279 layer_factory.hpp:114] Creating layer conv1
I1226 13:43:57.157778 91279 net.cpp:178] Creating Layer conv1
I1226 13:43:57.157817 91279 net.cpp:612] conv1 <- data
I1226 13:43:57.157860 91279 net.cpp:586] conv1 -> conv1
I1226 13:43:57.143105 85986 db_lmdb.cpp:72] Opened lmdb /export/data1/stanford/hazy/zjian/gorden_bell/ILSVRC2012_lmdb/db_8/ilsvrc12_train_lmdb_5
I1226 13:43:57.137712 94226 net.cpp:228] Setting up label_data_1_split
I1226 13:43:57.137817 94226 net.cpp:235] Top shape: 64 (64)
I1226 13:43:57.137850 94226 net.cpp:235] Top shape: 64 (64)
I1226 13:43:57.137873 94226 net.cpp:243] Memory required for data: 39575040
I1226 13:43:57.137910 94226 layer_factory.hpp:114] Creating layer conv1
I1226 13:43:57.138015 94226 net.cpp:178] Creating Layer conv1
I1226 13:43:57.138063 94226 net.cpp:612] conv1 <- data
I1226 13:43:57.138110 94226 net.cpp:586] conv1 -> conv1
I1226 13:43:57.151688 85984 data_layer.cpp:80] output data size: 64,3,227,227
I1226 13:43:57.151168 92417 net.cpp:228] Setting up label_data_1_split
I1226 13:43:57.151270 92417 net.cpp:235] Top shape: 64 (64)
I1226 13:43:57.151304 92417 net.cpp:235] Top shape: 64 (64)
I1226 13:43:57.151327 92417 net.cpp:243] Memory required for data: 39575040
I1226 13:43:57.151363 92417 layer_factory.hpp:114] Creating layer conv1
I1226 13:43:57.151615 92417 net.cpp:178] Creating Layer conv1
I1226 13:43:57.151718 92417 net.cpp:612] conv1 <- data
I1226 13:43:57.151764 92417 net.cpp:586] conv1 -> conv1
I1226 13:43:57.155400 85406 net.cpp:228] Setting up conv1
I1226 13:43:57.155514 85406 net.cpp:235] Top shape: 64 96 55 55 (18585600)
I1226 13:43:57.155539 85406 net.cpp:243] Memory required for data: 113917440
I1226 13:43:57.155715 85406 layer_factory.hpp:114] Creating layer relu1
I1226 13:43:57.155793 85406 net.cpp:178] Creating Layer relu1
I1226 13:43:57.155831 85406 net.cpp:612] relu1 <- conv1
I1226 13:43:57.155869 85406 net.cpp:573] relu1 -> conv1 (in-place)
I1226 13:43:57.155972 85406 net.cpp:228] Setting up relu1
I1226 13:43:57.156016 85406 net.cpp:235] Top shape: 64 96 55 55 (18585600)
I1226 13:43:57.156039 85406 net.cpp:243] Memory required for data: 188259840
I1226 13:43:57.156066 85406 layer_factory.hpp:114] Creating layer norm1
I1226 13:43:57.156128 85406 net.cpp:178] Creating Layer norm1
I1226 13:43:57.156159 85406 net.cpp:612] norm1 <- conv1
I1226 13:43:57.156191 85406 net.cpp:586] norm1 -> norm1
I1226 13:43:57.156272 85406 net.cpp:228] Setting up norm1
I1226 13:43:57.156316 85406 net.cpp:235] Top shape: 64 96 55 55 (18585600)
I1226 13:43:57.156337 85406 net.cpp:243] Memory required for data: 262602240
I1226 13:43:57.156363 85406 layer_factory.hpp:114] Creating layer pool1
I1226 13:43:57.156416 85406 net.cpp:178] Creating Layer pool1
I1226 13:43:57.156447 85406 net.cpp:612] pool1 <- norm1
I1226 13:43:57.156478 85406 net.cpp:586] pool1 -> pool1
I1226 13:43:57.156555 85406 net.cpp:228] Setting up pool1
I1226 13:43:57.156615 85406 net.cpp:235] Top shape: 64 96 27 27 (4478976)
I1226 13:43:57.156646 85406 net.cpp:243] Memory required for data: 280518144
I1226 13:43:57.156672 85406 layer_factory.hpp:114] Creating layer conv2
I1226 13:43:57.156743 85406 net.cpp:178] Creating Layer conv2
I1226 13:43:57.156774 85406 net.cpp:612] conv2 <- pool1
I1226 13:43:57.156816 85406 net.cpp:586] conv2 -> conv2
I1226 13:43:57.253216 94885 net.cpp:228] Setting up data
I1226 13:43:57.253342 94885 net.cpp:235] Top shape: 64 3 227 227 (9893568)
I1226 13:43:57.253392 94885 net.cpp:235] Top shape: 64 (64)
I1226 13:43:57.253422 94885 net.cpp:243] Memory required for data: 39574528
I1226 13:43:57.253484 94885 layer_factory.hpp:114] Creating layer label_data_1_split
I1226 13:43:57.253597 94885 net.cpp:178] Creating Layer label_data_1_split
I1226 13:43:57.253747 94885 net.cpp:612] label_data_1_split <- label
I1226 13:43:57.253806 94885 net.cpp:586] label_data_1_split -> label_data_1_split_0
I1226 13:43:57.253912 94885 net.cpp:586] label_data_1_split -> label_data_1_split_1
I1226 13:43:57.251577 85984 net.cpp:228] Setting up data
I1226 13:43:57.251740 85984 net.cpp:235] Top shape: 64 3 227 227 (9893568)
I1226 13:43:57.251785 85984 net.cpp:235] Top shape: 64 (64)
I1226 13:43:57.251811 85984 net.cpp:243] Memory required for data: 39574528
I1226 13:43:57.251850 85984 layer_factory.hpp:114] Creating layer label_data_1_split
I1226 13:43:57.251948 85984 net.cpp:178] Creating Layer label_data_1_split
I1226 13:43:57.252080 85984 net.cpp:612] label_data_1_split <- label
I1226 13:43:57.252125 85984 net.cpp:586] label_data_1_split -> label_data_1_split_0
I1226 13:43:57.252182 85984 net.cpp:586] label_data_1_split -> label_data_1_split_1
I1226 13:43:57.270416 85984 net.cpp:228] Setting up label_data_1_split
I1226 13:43:57.270540 85984 net.cpp:235] Top shape: 64 (64)
I1226 13:43:57.270577 85984 net.cpp:235] Top shape: 64 (64)
I1226 13:43:57.270601 85984 net.cpp:243] Memory required for data: 39575040
I1226 13:43:57.270638 85984 layer_factory.hpp:114] Creating layer conv1
I1226 13:43:57.271196 85984 net.cpp:178] Creating Layer conv1
I1226 13:43:57.271311 85984 net.cpp:612] conv1 <- data
I1226 13:43:57.271378 85984 net.cpp:586] conv1 -> conv1
I1226 13:43:57.279928 94885 net.cpp:228] Setting up label_data_1_split
I1226 13:43:57.280045 94885 net.cpp:235] Top shape: 64 (64)
I1226 13:43:57.280086 94885 net.cpp:235] Top shape: 64 (64)
I1226 13:43:57.280113 94885 net.cpp:243] Memory required for data: 39575040
I1226 13:43:57.280150 94885 layer_factory.hpp:114] Creating layer conv1
I1226 13:43:57.280380 94885 net.cpp:178] Creating Layer conv1
I1226 13:43:57.280472 94885 net.cpp:612] conv1 <- data
I1226 13:43:57.280524 94885 net.cpp:586] conv1 -> conv1
I1226 13:43:57.327819 98538 net.cpp:228] Setting up conv1
I1226 13:43:57.327955 98538 net.cpp:235] Top shape: 64 96 55 55 (18585600)
I1226 13:43:57.328272 98538 net.cpp:243] Memory required for data: 113917440
I1226 13:43:57.328461 98538 layer_factory.hpp:114] Creating layer relu1
I1226 13:43:57.329195 98538 net.cpp:178] Creating Layer relu1
I1226 13:43:57.329324 98538 net.cpp:612] relu1 <- conv1
I1226 13:43:57.329421 98538 net.cpp:573] relu1 -> conv1 (in-place)
I1226 13:43:57.329696 98538 net.cpp:228] Setting up relu1
I1226 13:43:57.329855 98538 net.cpp:235] Top shape: 64 96 55 55 (18585600)
I1226 13:43:57.329886 98538 net.cpp:243] Memory required for data: 188259840
I1226 13:43:57.329921 98538 layer_factory.hpp:114] Creating layer norm1
I1226 13:43:57.330142 98538 net.cpp:178] Creating Layer norm1
I1226 13:43:57.330193 98538 net.cpp:612] norm1 <- conv1
I1226 13:43:57.330236 98538 net.cpp:586] norm1 -> norm1
I1226 13:43:57.330703 98538 net.cpp:228] Setting up norm1
I1226 13:43:57.330783 98538 net.cpp:235] Top shape: 64 96 55 55 (18585600)
I1226 13:43:57.330829 98538 net.cpp:243] Memory required for data: 262602240
I1226 13:43:57.330869 98538 layer_factory.hpp:114] Creating layer pool1
I1226 13:43:57.330950 98538 net.cpp:178] Creating Layer pool1
I1226 13:43:57.330988 98538 net.cpp:612] pool1 <- norm1
I1226 13:43:57.331037 98538 net.cpp:586] pool1 -> pool1
I1226 13:43:57.331488 98538 net.cpp:228] Setting up pool1
I1226 13:43:57.331564 98538 net.cpp:235] Top shape: 64 96 27 27 (4478976)
I1226 13:43:57.331590 98538 net.cpp:243] Memory required for data: 280518144
I1226 13:43:57.331621 98538 layer_factory.hpp:114] Creating layer conv2
I1226 13:43:57.331704 98538 net.cpp:178] Creating Layer conv2
I1226 13:43:57.331743 98538 net.cpp:612] conv2 <- pool1
I1226 13:43:57.331789 98538 net.cpp:586] conv2 -> conv2
I1226 13:43:57.325325 91110 net.cpp:228] Setting up conv1
I1226 13:43:57.325448 91110 net.cpp:235] Top shape: 64 96 55 55 (18585600)
I1226 13:43:57.325505 91110 net.cpp:243] Memory required for data: 113917440
I1226 13:43:57.325659 91110 layer_factory.hpp:114] Creating layer relu1
I1226 13:43:57.325785 91110 net.cpp:178] Creating Layer relu1
I1226 13:43:57.325947 91110 net.cpp:612] relu1 <- conv1
I1226 13:43:57.325996 91110 net.cpp:573] relu1 -> conv1 (in-place)
I1226 13:43:57.326128 91110 net.cpp:228] Setting up relu1
I1226 13:43:57.326527 91110 net.cpp:235] Top shape: 64 96 55 55 (18585600)
I1226 13:43:57.326591 91110 net.cpp:243] Memory required for data: 188259840
I1226 13:43:57.326632 91110 layer_factory.hpp:114] Creating layer norm1
I1226 13:43:57.326753 91110 net.cpp:178] Creating Layer norm1
I1226 13:43:57.326843 91110 net.cpp:612] norm1 <- conv1
I1226 13:43:57.326899 91110 net.cpp:586] norm1 -> norm1
I1226 13:43:57.327026 91110 net.cpp:228] Setting up norm1
I1226 13:43:57.327157 91110 net.cpp:235] Top shape: 64 96 55 55 (18585600)
I1226 13:43:57.327196 91110 net.cpp:243] Memory required for data: 262602240
I1226 13:43:57.327245 91110 layer_factory.hpp:114] Creating layer pool1
I1226 13:43:57.327543 91110 net.cpp:178] Creating Layer pool1
I1226 13:43:57.327597 91110 net.cpp:612] pool1 <- norm1
I1226 13:43:57.327652 91110 net.cpp:586] pool1 -> pool1
I1226 13:43:57.327790 91110 net.cpp:228] Setting up pool1
I1226 13:43:57.327849 91110 net.cpp:235] Top shape: 64 96 27 27 (4478976)
I1226 13:43:57.328212 91110 net.cpp:243] Memory required for data: 280518144
I1226 13:43:57.328303 91110 layer_factory.hpp:114] Creating layer conv2
I1226 13:43:57.328408 91110 net.cpp:178] Creating Layer conv2
I1226 13:43:57.328490 91110 net.cpp:612] conv2 <- pool1
I1226 13:43:57.328550 91110 net.cpp:586] conv2 -> conv2
I1226 13:43:57.372267 91279 net.cpp:228] Setting up conv1
I1226 13:43:57.372381 91279 net.cpp:235] Top shape: 64 96 55 55 (18585600)
I1226 13:43:57.372411 91279 net.cpp:243] Memory required for data: 113917440
I1226 13:43:57.372531 91279 layer_factory.hpp:114] Creating layer relu1
I1226 13:43:57.372628 91279 net.cpp:178] Creating Layer relu1
I1226 13:43:57.372670 91279 net.cpp:612] relu1 <- conv1
I1226 13:43:57.372711 91279 net.cpp:573] relu1 -> conv1 (in-place)
I1226 13:43:57.372838 91279 net.cpp:228] Setting up relu1
I1226 13:43:57.372886 91279 net.cpp:235] Top shape: 64 96 55 55 (18585600)
I1226 13:43:57.372911 91279 net.cpp:243] Memory required for data: 188259840
I1226 13:43:57.372942 91279 layer_factory.hpp:114] Creating layer norm1
I1226 13:43:57.373019 91279 net.cpp:178] Creating Layer norm1
I1226 13:43:57.373056 91279 net.cpp:612] norm1 <- conv1
I1226 13:43:57.373095 91279 net.cpp:586] norm1 -> norm1
I1226 13:43:57.373190 91279 net.cpp:228] Setting up norm1
I1226 13:43:57.373270 91279 net.cpp:235] Top shape: 64 96 55 55 (18585600)
I1226 13:43:57.373294 91279 net.cpp:243] Memory required for data: 262602240
I1226 13:43:57.373325 91279 layer_factory.hpp:114] Creating layer pool1
I1226 13:43:57.373404 91279 net.cpp:178] Creating Layer pool1
I1226 13:43:57.373435 91279 net.cpp:612] pool1 <- norm1
I1226 13:43:57.373482 91279 net.cpp:586] pool1 -> pool1
I1226 13:43:57.373589 91279 net.cpp:228] Setting up pool1
I1226 13:43:57.373638 91279 net.cpp:235] Top shape: 64 96 27 27 (4478976)
I1226 13:43:57.373662 91279 net.cpp:243] Memory required for data: 280518144
I1226 13:43:57.373690 91279 layer_factory.hpp:114] Creating layer conv2
I1226 13:43:57.373769 91279 net.cpp:178] Creating Layer conv2
I1226 13:43:57.373805 91279 net.cpp:612] conv2 <- pool1
I1226 13:43:57.373845 91279 net.cpp:586] conv2 -> conv2
I1226 13:43:57.367310 85406 net.cpp:228] Setting up conv2
I1226 13:43:57.367422 85406 net.cpp:235] Top shape: 64 256 27 27 (11943936)
I1226 13:43:57.367449 85406 net.cpp:243] Memory required for data: 328293888
I1226 13:43:57.367522 85406 layer_factory.hpp:114] Creating layer relu2
I1226 13:43:57.367620 85406 net.cpp:178] Creating Layer relu2
I1226 13:43:57.367667 85406 net.cpp:612] relu2 <- conv2
I1226 13:43:57.367710 85406 net.cpp:573] relu2 -> conv2 (in-place)
I1226 13:43:57.367815 85406 net.cpp:228] Setting up relu2
I1226 13:43:57.367867 85406 net.cpp:235] Top shape: 64 256 27 27 (11943936)
I1226 13:43:57.367902 85406 net.cpp:243] Memory required for data: 376069632
I1226 13:43:57.367938 85406 layer_factory.hpp:114] Creating layer norm2
I1226 13:43:57.367988 85406 net.cpp:178] Creating Layer norm2
I1226 13:43:57.368021 85406 net.cpp:612] norm2 <- conv2
I1226 13:43:57.368072 85406 net.cpp:586] norm2 -> norm2
I1226 13:43:57.368156 85406 net.cpp:228] Setting up norm2
I1226 13:43:57.368206 85406 net.cpp:235] Top shape: 64 256 27 27 (11943936)
I1226 13:43:57.368238 85406 net.cpp:243] Memory required for data: 423845376
I1226 13:43:57.368271 85406 layer_factory.hpp:114] Creating layer pool2
I1226 13:43:57.368327 85406 net.cpp:178] Creating Layer pool2
I1226 13:43:57.368353 85406 net.cpp:612] pool2 <- norm2
I1226 13:43:57.368387 85406 net.cpp:586] pool2 -> pool2
I1226 13:43:57.368461 85406 net.cpp:228] Setting up pool2
I1226 13:43:57.368506 85406 net.cpp:235] Top shape: 64 256 13 13 (2768896)
I1226 13:43:57.368660 85406 net.cpp:243] Memory required for data: 434920960
I1226 13:43:57.368695 85406 layer_factory.hpp:114] Creating layer conv3
I1226 13:43:57.368785 85406 net.cpp:178] Creating Layer conv3
I1226 13:43:57.368818 85406 net.cpp:612] conv3 <- pool2
I1226 13:43:57.368860 85406 net.cpp:586] conv3 -> conv3
I1226 13:43:57.389461 92417 net.cpp:228] Setting up conv1
I1226 13:43:57.390058 92417 net.cpp:235] Top shape: 64 96 55 55 (18585600)
I1226 13:43:57.390120 92417 net.cpp:243] Memory required for data: 113917440
I1226 13:43:57.390236 92417 layer_factory.hpp:114] Creating layer relu1
I1226 13:43:57.390319 92417 net.cpp:178] Creating Layer relu1
I1226 13:43:57.390358 92417 net.cpp:612] relu1 <- conv1
I1226 13:43:57.391077 92417 net.cpp:573] relu1 -> conv1 (in-place)
I1226 13:43:57.391249 92417 net.cpp:228] Setting up relu1
I1226 13:43:57.391307 92417 net.cpp:235] Top shape: 64 96 55 55 (18585600)
I1226 13:43:57.391331 92417 net.cpp:243] Memory required for data: 188259840
I1226 13:43:57.391362 92417 layer_factory.hpp:114] Creating layer norm1
I1226 13:43:57.391434 92417 net.cpp:178] Creating Layer norm1
I1226 13:43:57.391500 92417 net.cpp:612] norm1 <- conv1
I1226 13:43:57.391546 92417 net.cpp:586] norm1 -> norm1
I1226 13:43:57.391651 92417 net.cpp:228] Setting up norm1
I1226 13:43:57.391705 92417 net.cpp:235] Top shape: 64 96 55 55 (18585600)
I1226 13:43:57.392313 92417 net.cpp:243] Memory required for data: 262602240
I1226 13:43:57.392396 92417 layer_factory.hpp:114] Creating layer pool1
I1226 13:43:57.392462 92417 net.cpp:178] Creating Layer pool1
I1226 13:43:57.392549 92417 net.cpp:612] pool1 <- norm1
I1226 13:43:57.392612 92417 net.cpp:586] pool1 -> pool1
I1226 13:43:57.392742 92417 net.cpp:228] Setting up pool1
I1226 13:43:57.392796 92417 net.cpp:235] Top shape: 64 96 27 27 (4478976)
I1226 13:43:57.392824 92417 net.cpp:243] Memory required for data: 280518144
I1226 13:43:57.392858 92417 layer_factory.hpp:114] Creating layer conv2
I1226 13:43:57.385284 94226 net.cpp:228] Setting up conv1
I1226 13:43:57.385421 94226 net.cpp:235] Top shape: 64 96 55 55 (18585600)
I1226 13:43:57.385452 94226 net.cpp:243] Memory required for data: 113917440
I1226 13:43:57.385581 94226 layer_factory.hpp:114] Creating layer relu1
I1226 13:43:57.385670 94226 net.cpp:178] Creating Layer relu1
I1226 13:43:57.385711 94226 net.cpp:612] relu1 <- conv1
I1226 13:43:57.385754 94226 net.cpp:573] relu1 -> conv1 (in-place)
I1226 13:43:57.385881 94226 net.cpp:228] Setting up relu1
I1226 13:43:57.385947 94226 net.cpp:235] Top shape: 64 96 55 55 (18585600)
I1226 13:43:57.385978 94226 net.cpp:243] Memory required for data: 188259840
I1226 13:43:57.386010 94226 layer_factory.hpp:114] Creating layer norm1
I1226 13:43:57.386090 94226 net.cpp:178] Creating Layer norm1
I1226 13:43:57.386122 94226 net.cpp:612] norm1 <- conv1
I1226 13:43:57.386163 94226 net.cpp:586] norm1 -> norm1
I1226 13:43:57.386266 94226 net.cpp:228] Setting up norm1
I1226 13:43:57.386335 94226 net.cpp:235] Top shape: 64 96 55 55 (18585600)
I1226 13:43:57.386363 94226 net.cpp:243] Memory required for data: 262602240
I1226 13:43:57.386420 94226 layer_factory.hpp:114] Creating layer pool1
I1226 13:43:57.386476 94226 net.cpp:178] Creating Layer pool1
I1226 13:43:57.386504 94226 net.cpp:612] pool1 <- norm1
I1226 13:43:57.386553 94226 net.cpp:586] pool1 -> pool1
I1226 13:43:57.386656 94226 net.cpp:228] Setting up pool1
I1226 13:43:57.386711 94226 net.cpp:235] Top shape: 64 96 27 27 (4478976)
I1226 13:43:57.386735 94226 net.cpp:243] Memory required for data: 280518144
I1226 13:43:57.386765 94226 layer_factory.hpp:114] Creating layer conv2
I1226 13:43:57.386844 94226 net.cpp:178] Creating Layer conv2
I1226 13:43:57.386875 94226 net.cpp:612] conv2 <- pool1
I1226 13:43:57.386924 94226 net.cpp:586] conv2 -> conv2
I1226 13:43:57.398428 97018 net.cpp:228] Setting up data
I1226 13:43:57.398552 97018 net.cpp:235] Top shape: 64 3 227 227 (9893568)
I1226 13:43:57.398600 97018 net.cpp:235] Top shape: 64 (64)
I1226 13:43:57.398630 97018 net.cpp:243] Memory required for data: 39574528
I1226 13:43:57.398690 97018 layer_factory.hpp:114] Creating layer label_data_1_split
I1226 13:43:57.398823 97018 net.cpp:178] Creating Layer label_data_1_split
I1226 13:43:57.398977 97018 net.cpp:612] label_data_1_split <- label
I1226 13:43:57.399034 97018 net.cpp:586] label_data_1_split -> label_data_1_split_0
I1226 13:43:57.399106 97018 net.cpp:586] label_data_1_split -> label_data_1_split_1
I1226 13:43:57.405588 92417 net.cpp:178] Creating Layer conv2
I1226 13:43:57.405681 92417 net.cpp:612] conv2 <- pool1
I1226 13:43:57.405761 92417 net.cpp:586] conv2 -> conv2
I1226 13:43:57.427700 97018 net.cpp:228] Setting up label_data_1_split
I1226 13:43:57.427860 97018 net.cpp:235] Top shape: 64 (64)
I1226 13:43:57.427901 97018 net.cpp:235] Top shape: 64 (64)
I1226 13:43:57.427927 97018 net.cpp:243] Memory required for data: 39575040
I1226 13:43:57.427964 97018 layer_factory.hpp:114] Creating layer conv1
I1226 13:43:57.428079 97018 net.cpp:178] Creating Layer conv1
I1226 13:43:57.428123 97018 net.cpp:612] conv1 <- data
I1226 13:43:57.428172 97018 net.cpp:586] conv1 -> conv1
I1226 13:43:57.481510 85984 net.cpp:228] Setting up conv1
I1226 13:43:57.481647 85984 net.cpp:235] Top shape: 64 96 55 55 (18585600)
I1226 13:43:57.481706 85984 net.cpp:243] Memory required for data: 113917440
I1226 13:43:57.481827 85984 layer_factory.hpp:114] Creating layer relu1
I1226 13:43:57.481911 85984 net.cpp:178] Creating Layer relu1
I1226 13:43:57.481950 85984 net.cpp:612] relu1 <- conv1
I1226 13:43:57.482007 85984 net.cpp:573] relu1 -> conv1 (in-place)
I1226 13:43:57.482120 85984 net.cpp:228] Setting up relu1
I1226 13:43:57.482192 85984 net.cpp:235] Top shape: 64 96 55 55 (18585600)
I1226 13:43:57.482234 85984 net.cpp:243] Memory required for data: 188259840
I1226 13:43:57.482432 85984 layer_factory.hpp:114] Creating layer norm1
I1226 13:43:57.482626 85984 net.cpp:178] Creating Layer norm1
I1226 13:43:57.483103 85984 net.cpp:612] norm1 <- conv1
I1226 13:43:57.483203 85984 net.cpp:586] norm1 -> norm1
I1226 13:43:57.483414 85984 net.cpp:228] Setting up norm1
I1226 13:43:57.483484 85984 net.cpp:235] Top shape: 64 96 55 55 (18585600)
I1226 13:43:57.483508 85984 net.cpp:243] Memory required for data: 262602240
I1226 13:43:57.483541 85984 layer_factory.hpp:114] Creating layer pool1
I1226 13:43:57.483611 85984 net.cpp:178] Creating Layer pool1
I1226 13:43:57.483647 85984 net.cpp:612] pool1 <- norm1
I1226 13:43:57.483736 85984 net.cpp:586] pool1 -> pool1
I1226 13:43:57.483852 85984 net.cpp:228] Setting up pool1
I1226 13:43:57.483906 85984 net.cpp:235] Top shape: 64 96 27 27 (4478976)
I1226 13:43:57.483928 85984 net.cpp:243] Memory required for data: 280518144
I1226 13:43:57.483979 85984 layer_factory.hpp:114] Creating layer conv2
I1226 13:43:57.484087 85984 net.cpp:178] Creating Layer conv2
I1226 13:43:57.484127 85984 net.cpp:612] conv2 <- pool1
I1226 13:43:57.484186 85984 net.cpp:586] conv2 -> conv2
I1226 13:43:57.597334 85406 net.cpp:228] Setting up conv3
I1226 13:43:57.597448 85406 net.cpp:235] Top shape: 64 384 13 13 (4153344)
I1226 13:43:57.597475 85406 net.cpp:243] Memory required for data: 451534336
I1226 13:43:57.597544 85406 layer_factory.hpp:114] Creating layer relu3
I1226 13:43:57.597651 85406 net.cpp:178] Creating Layer relu3
I1226 13:43:57.597692 85406 net.cpp:612] relu3 <- conv3
I1226 13:43:57.597750 85406 net.cpp:573] relu3 -> conv3 (in-place)
I1226 13:43:57.597856 85406 net.cpp:228] Setting up relu3
I1226 13:43:57.597903 85406 net.cpp:235] Top shape: 64 384 13 13 (4153344)
I1226 13:43:57.597925 85406 net.cpp:243] Memory required for data: 468147712
I1226 13:43:57.597955 85406 layer_factory.hpp:114] Creating layer conv4
I1226 13:43:57.598024 85406 net.cpp:178] Creating Layer conv4
I1226 13:43:57.598062 85406 net.cpp:612] conv4 <- conv3
I1226 13:43:57.598103 85406 net.cpp:586] conv4 -> conv4
I1226 13:43:57.694396 91110 net.cpp:228] Setting up conv2
I1226 13:43:57.694499 91110 net.cpp:235] Top shape: 64 256 27 27 (11943936)
I1226 13:43:57.694526 91110 net.cpp:243] Memory required for data: 328293888
I1226 13:43:57.694602 91110 layer_factory.hpp:114] Creating layer relu2
I1226 13:43:57.694658 91110 net.cpp:178] Creating Layer relu2
I1226 13:43:57.694703 91110 net.cpp:612] relu2 <- conv2
I1226 13:43:57.694762 91110 net.cpp:573] relu2 -> conv2 (in-place)
I1226 13:43:57.694861 91110 net.cpp:228] Setting up relu2
I1226 13:43:57.694903 91110 net.cpp:235] Top shape: 64 256 27 27 (11943936)
I1226 13:43:57.694936 91110 net.cpp:243] Memory required for data: 376069632
I1226 13:43:57.694965 91110 layer_factory.hpp:114] Creating layer norm2
I1226 13:43:57.695016 91110 net.cpp:178] Creating Layer norm2
I1226 13:43:57.695042 91110 net.cpp:612] norm2 <- conv2
I1226 13:43:57.695112 91110 net.cpp:586] norm2 -> norm2
I1226 13:43:57.695207 91110 net.cpp:228] Setting up norm2
I1226 13:43:57.695255 91110 net.cpp:235] Top shape: 64 256 27 27 (11943936)
I1226 13:43:57.695277 91110 net.cpp:243] Memory required for data: 423845376
I1226 13:43:57.695307 91110 layer_factory.hpp:114] Creating layer pool2
I1226 13:43:57.714500 98538 net.cpp:228] Setting up conv2
I1226 13:43:57.714608 98538 net.cpp:235] Top shape: 64 256 27 27 (11943936)
I1226 13:43:57.714633 98538 net.cpp:243] Memory required for data: 328293888
I1226 13:43:57.714735 98538 layer_factory.hpp:114] Creating layer relu2
I1226 13:43:57.714818 98538 net.cpp:178] Creating Layer relu2
I1226 13:43:57.714853 98538 net.cpp:612] relu2 <- conv2
I1226 13:43:57.714933 98538 net.cpp:573] relu2 -> conv2 (in-place)
I1226 13:43:57.715165 98538 net.cpp:228] Setting up relu2
I1226 13:43:57.715294 98538 net.cpp:235] Top shape: 64 256 27 27 (11943936)
I1226 13:43:57.715322 98538 net.cpp:243] Memory required for data: 376069632
I1226 13:43:57.715353 98538 layer_factory.hpp:114] Creating layer norm2
I1226 13:43:57.715420 98538 net.cpp:178] Creating Layer norm2
I1226 13:43:57.715472 98538 net.cpp:612] norm2 <- conv2
I1226 13:43:57.715528 98538 net.cpp:586] norm2 -> norm2
I1226 13:43:57.715750 98538 net.cpp:228] Setting up norm2
I1226 13:43:57.715812 98538 net.cpp:235] Top shape: 64 256 27 27 (11943936)
I1226 13:43:57.715836 98538 net.cpp:243] Memory required for data: 423845376
I1226 13:43:57.715898 98538 layer_factory.hpp:114] Creating layer pool2
I1226 13:43:57.715966 98538 net.cpp:178] Creating Layer pool2
I1226 13:43:57.716001 98538 net.cpp:612] pool2 <- norm2
I1226 13:43:57.716051 98538 net.cpp:586] pool2 -> pool2
I1226 13:43:57.716225 98538 net.cpp:228] Setting up pool2
I1226 13:43:57.716306 98538 net.cpp:235] Top shape: 64 256 13 13 (2768896)
I1226 13:43:57.716464 98538 net.cpp:243] Memory required for data: 434920960
I1226 13:43:57.716524 98538 layer_factory.hpp:114] Creating layer conv3
I1226 13:43:57.716671 98538 net.cpp:178] Creating Layer conv3
I1226 13:43:57.716728 98538 net.cpp:612] conv3 <- pool2
I1226 13:43:57.716795 98538 net.cpp:586] conv3 -> conv3
I1226 13:43:57.695361 91110 net.cpp:178] Creating Layer pool2
I1226 13:43:57.708204 91110 net.cpp:612] pool2 <- norm2
I1226 13:43:57.708278 91110 net.cpp:586] pool2 -> pool2
I1226 13:43:57.708420 91110 net.cpp:228] Setting up pool2
I1226 13:43:57.708473 91110 net.cpp:235] Top shape: 64 256 13 13 (2768896)
I1226 13:43:57.708593 91110 net.cpp:243] Memory required for data: 434920960
I1226 13:43:57.708632 91110 layer_factory.hpp:114] Creating layer conv3
I1226 13:43:57.708719 91110 net.cpp:178] Creating Layer conv3
I1226 13:43:57.708758 91110 net.cpp:612] conv3 <- pool2
I1226 13:43:57.708802 91110 net.cpp:586] conv3 -> conv3
I1226 13:43:57.742375 91279 net.cpp:228] Setting up conv2
I1226 13:43:57.742497 91279 net.cpp:235] Top shape: 64 256 27 27 (11943936)
I1226 13:43:57.742530 91279 net.cpp:243] Memory required for data: 328293888
I1226 13:43:57.742638 91279 layer_factory.hpp:114] Creating layer relu2
I1226 13:43:57.742738 91279 net.cpp:178] Creating Layer relu2
I1226 13:43:57.742766 91279 net.cpp:612] relu2 <- conv2
I1226 13:43:57.742846 91279 net.cpp:573] relu2 -> conv2 (in-place)
I1226 13:43:57.742944 91279 net.cpp:228] Setting up relu2
I1226 13:43:57.743016 91279 net.cpp:235] Top shape: 64 256 27 27 (11943936)
I1226 13:43:57.743147 91279 net.cpp:243] Memory required for data: 376069632
I1226 13:43:57.743178 91279 layer_factory.hpp:114] Creating layer norm2
I1226 13:43:57.743254 91279 net.cpp:178] Creating Layer norm2
I1226 13:43:57.743294 91279 net.cpp:612] norm2 <- conv2
I1226 13:43:57.743342 91279 net.cpp:586] norm2 -> norm2
I1226 13:43:57.743429 91279 net.cpp:228] Setting up norm2
I1226 13:43:57.743481 91279 net.cpp:235] Top shape: 64 256 27 27 (11943936)
I1226 13:43:57.743505 91279 net.cpp:243] Memory required for data: 423845376
I1226 13:43:57.743530 91279 layer_factory.hpp:114] Creating layer pool2
I1226 13:43:57.743616 91279 net.cpp:178] Creating Layer pool2
I1226 13:43:57.743649 91279 net.cpp:612] pool2 <- norm2
I1226 13:43:57.743683 91279 net.cpp:586] pool2 -> pool2
I1226 13:43:57.743759 91279 net.cpp:228] Setting up pool2
I1226 13:43:57.743803 91279 net.cpp:235] Top shape: 64 256 13 13 (2768896)
I1226 13:43:57.743932 91279 net.cpp:243] Memory required for data: 434920960
I1226 13:43:57.743965 91279 layer_factory.hpp:114] Creating layer conv3
I1226 13:43:57.744062 91279 net.cpp:178] Creating Layer conv3
I1226 13:43:57.744096 91279 net.cpp:612] conv3 <- pool2
I1226 13:43:57.744137 91279 net.cpp:586] conv3 -> conv3
I1226 13:43:57.798691 85406 net.cpp:228] Setting up conv4
I1226 13:43:57.798800 85406 net.cpp:235] Top shape: 64 384 13 13 (4153344)
I1226 13:43:57.798826 85406 net.cpp:243] Memory required for data: 484761088
I1226 13:43:57.798883 85406 layer_factory.hpp:114] Creating layer relu4
I1226 13:43:57.798956 85406 net.cpp:178] Creating Layer relu4
I1226 13:43:57.799001 85406 net.cpp:612] relu4 <- conv4
I1226 13:43:57.799048 85406 net.cpp:573] relu4 -> conv4 (in-place)
I1226 13:43:57.799151 85406 net.cpp:228] Setting up relu4
I1226 13:43:57.799206 85406 net.cpp:235] Top shape: 64 384 13 13 (4153344)
I1226 13:43:57.799230 85406 net.cpp:243] Memory required for data: 501374464
I1226 13:43:57.799259 85406 layer_factory.hpp:114] Creating layer conv5
I1226 13:43:57.799347 85406 net.cpp:178] Creating Layer conv5
I1226 13:43:57.799388 85406 net.cpp:612] conv5 <- conv4
I1226 13:43:57.799438 85406 net.cpp:586] conv5 -> conv5
I1226 13:43:57.800117 94226 net.cpp:228] Setting up conv2
I1226 13:43:57.800226 94226 net.cpp:235] Top shape: 64 256 27 27 (11943936)
I1226 13:43:57.800251 94226 net.cpp:243] Memory required for data: 328293888
I1226 13:43:57.800323 94226 layer_factory.hpp:114] Creating layer relu2
I1226 13:43:57.800408 94226 net.cpp:178] Creating Layer relu2
I1226 13:43:57.800446 94226 net.cpp:612] relu2 <- conv2
I1226 13:43:57.800509 94226 net.cpp:573] relu2 -> conv2 (in-place)
I1226 13:43:57.800606 94226 net.cpp:228] Setting up relu2
I1226 13:43:57.800674 94226 net.cpp:235] Top shape: 64 256 27 27 (11943936)
I1226 13:43:57.800703 94226 net.cpp:243] Memory required for data: 376069632
I1226 13:43:57.800734 94226 layer_factory.hpp:114] Creating layer norm2
I1226 13:43:57.800783 94226 net.cpp:178] Creating Layer norm2
I1226 13:43:57.800812 94226 net.cpp:612] norm2 <- conv2
I1226 13:43:57.800849 94226 net.cpp:586] norm2 -> norm2
I1226 13:43:57.800940 94226 net.cpp:228] Setting up norm2
I1226 13:43:57.800986 94226 net.cpp:235] Top shape: 64 256 27 27 (11943936)
I1226 13:43:57.801007 94226 net.cpp:243] Memory required for data: 423845376
I1226 13:43:57.801033 94226 layer_factory.hpp:114] Creating layer pool2
I1226 13:43:57.801076 94226 net.cpp:178] Creating Layer pool2
I1226 13:43:57.801102 94226 net.cpp:612] pool2 <- norm2
I1226 13:43:57.801146 94226 net.cpp:586] pool2 -> pool2
I1226 13:43:57.801225 94226 net.cpp:228] Setting up pool2
I1226 13:43:57.801266 94226 net.cpp:235] Top shape: 64 256 13 13 (2768896)
I1226 13:43:57.801396 94226 net.cpp:243] Memory required for data: 434920960
I1226 13:43:57.801437 94226 layer_factory.hpp:114] Creating layer conv3
I1226 13:43:57.801524 94226 net.cpp:178] Creating Layer conv3
I1226 13:43:57.801559 94226 net.cpp:612] conv3 <- pool2
I1226 13:43:57.801610 94226 net.cpp:586] conv3 -> conv3
I1226 13:43:57.821112 92417 net.cpp:228] Setting up conv2
I1226 13:43:57.821223 92417 net.cpp:235] Top shape: 64 256 27 27 (11943936)
I1226 13:43:57.821247 92417 net.cpp:243] Memory required for data: 328293888
I1226 13:43:57.821316 92417 layer_factory.hpp:114] Creating layer relu2
I1226 13:43:57.821380 92417 net.cpp:178] Creating Layer relu2
I1226 13:43:57.821408 92417 net.cpp:612] relu2 <- conv2
I1226 13:43:57.821463 92417 net.cpp:573] relu2 -> conv2 (in-place)
I1226 13:43:57.821597 92417 net.cpp:228] Setting up relu2
I1226 13:43:57.821660 92417 net.cpp:235] Top shape: 64 256 27 27 (11943936)
I1226 13:43:57.821684 92417 net.cpp:243] Memory required for data: 376069632
I1226 13:43:57.821714 92417 layer_factory.hpp:114] Creating layer norm2
I1226 13:43:57.821763 92417 net.cpp:178] Creating Layer norm2
I1226 13:43:57.821787 92417 net.cpp:612] norm2 <- conv2
I1226 13:43:57.821822 92417 net.cpp:586] norm2 -> norm2
I1226 13:43:57.821928 92417 net.cpp:228] Setting up norm2
I1226 13:43:57.821976 92417 net.cpp:235] Top shape: 64 256 27 27 (11943936)
I1226 13:43:57.822008 92417 net.cpp:243] Memory required for data: 423845376
I1226 13:43:57.822036 92417 layer_factory.hpp:114] Creating layer pool2
I1226 13:43:57.822077 92417 net.cpp:178] Creating Layer pool2
I1226 13:43:57.822101 92417 net.cpp:612] pool2 <- norm2
I1226 13:43:57.822181 92417 net.cpp:586] pool2 -> pool2
I1226 13:43:57.822278 92417 net.cpp:228] Setting up pool2
I1226 13:43:57.822327 92417 net.cpp:235] Top shape: 64 256 13 13 (2768896)
I1226 13:43:57.822469 92417 net.cpp:243] Memory required for data: 434920960
I1226 13:43:57.822532 92417 layer_factory.hpp:114] Creating layer conv3
I1226 13:43:57.822623 92417 net.cpp:178] Creating Layer conv3
I1226 13:43:57.822659 92417 net.cpp:612] conv3 <- pool2
I1226 13:43:57.822712 92417 net.cpp:586] conv3 -> conv3
I1226 13:43:57.843250 85984 net.cpp:228] Setting up conv2
I1226 13:43:57.843381 85984 net.cpp:235] Top shape: 64 256 27 27 (11943936)
I1226 13:43:57.843410 85984 net.cpp:243] Memory required for data: 328293888
I1226 13:43:57.843513 85984 layer_factory.hpp:114] Creating layer relu2
I1226 13:43:57.843603 85984 net.cpp:178] Creating Layer relu2
I1226 13:43:57.843642 85984 net.cpp:612] relu2 <- conv2
I1226 13:43:57.843746 85984 net.cpp:573] relu2 -> conv2 (in-place)
I1226 13:43:57.843963 85984 net.cpp:228] Setting up relu2
I1226 13:43:57.844034 85984 net.cpp:235] Top shape: 64 256 27 27 (11943936)
I1226 13:43:57.844058 85984 net.cpp:243] Memory required for data: 376069632
I1226 13:43:57.844086 85984 layer_factory.hpp:114] Creating layer norm2
I1226 13:43:57.844144 85984 net.cpp:178] Creating Layer norm2
I1226 13:43:57.844502 85984 net.cpp:612] norm2 <- conv2
I1226 13:43:57.844571 85984 net.cpp:586] norm2 -> norm2
I1226 13:43:57.844790 85984 net.cpp:228] Setting up norm2
I1226 13:43:57.844852 85984 net.cpp:235] Top shape: 64 256 27 27 (11943936)
I1226 13:43:57.844877 85984 net.cpp:243] Memory required for data: 423845376
I1226 13:43:57.844907 85984 layer_factory.hpp:114] Creating layer pool2
I1226 13:43:57.844979 85984 net.cpp:178] Creating Layer pool2
I1226 13:43:57.845006 85984 net.cpp:612] pool2 <- norm2
I1226 13:43:57.845042 85984 net.cpp:586] pool2 -> pool2
I1226 13:43:57.845136 85984 net.cpp:228] Setting up pool2
I1226 13:43:57.845180 85984 net.cpp:235] Top shape: 64 256 13 13 (2768896)
I1226 13:43:57.845326 85984 net.cpp:243] Memory required for data: 434920960
I1226 13:43:57.845360 85984 layer_factory.hpp:114] Creating layer conv3
I1226 13:43:57.845443 85984 net.cpp:178] Creating Layer conv3
I1226 13:43:57.845479 85984 net.cpp:612] conv3 <- pool2
I1226 13:43:57.845548 85984 net.cpp:586] conv3 -> conv3
I1226 13:43:57.887315 94885 net.cpp:228] Setting up conv1
I1226 13:43:57.887459 94885 net.cpp:235] Top shape: 64 96 55 55 (18585600)
I1226 13:43:57.887512 94885 net.cpp:243] Memory required for data: 113917440
I1226 13:43:57.887681 94885 layer_factory.hpp:114] Creating layer relu1
I1226 13:43:57.887856 94885 net.cpp:178] Creating Layer relu1
I1226 13:43:57.888332 94885 net.cpp:612] relu1 <- conv1
I1226 13:43:57.888520 94885 net.cpp:573] relu1 -> conv1 (in-place)
I1226 13:43:57.888762 94885 net.cpp:228] Setting up relu1
I1226 13:43:57.888881 94885 net.cpp:235] Top shape: 64 96 55 55 (18585600)
I1226 13:43:57.888927 94885 net.cpp:243] Memory required for data: 188259840
I1226 13:43:57.888975 94885 layer_factory.hpp:114] Creating layer norm1
I1226 13:43:57.889158 94885 net.cpp:178] Creating Layer norm1
I1226 13:43:57.889461 94885 net.cpp:612] norm1 <- conv1
I1226 13:43:57.889605 94885 net.cpp:586] norm1 -> norm1
I1226 13:43:57.889948 94885 net.cpp:228] Setting up norm1
I1226 13:43:57.890434 94885 net.cpp:235] Top shape: 64 96 55 55 (18585600)
I1226 13:43:57.890504 94885 net.cpp:243] Memory required for data: 262602240
I1226 13:43:57.890661 94885 layer_factory.hpp:114] Creating layer pool1
I1226 13:43:57.890790 94885 net.cpp:178] Creating Layer pool1
I1226 13:43:57.890879 94885 net.cpp:612] pool1 <- norm1
I1226 13:43:57.890940 94885 net.cpp:586] pool1 -> pool1
I1226 13:43:57.891134 94885 net.cpp:228] Setting up pool1
I1226 13:43:57.891227 94885 net.cpp:235] Top shape: 64 96 27 27 (4478976)
I1226 13:43:57.891260 94885 net.cpp:243] Memory required for data: 280518144
I1226 13:43:57.891335 94885 layer_factory.hpp:114] Creating layer conv2
I1226 13:43:57.891611 94885 net.cpp:178] Creating Layer conv2
I1226 13:43:57.891670 94885 net.cpp:612] conv2 <- pool1
I1226 13:43:57.892166 94885 net.cpp:586] conv2 -> conv2
I1226 13:43:57.947146 85406 net.cpp:228] Setting up conv5
I1226 13:43:57.947257 85406 net.cpp:235] Top shape: 64 256 13 13 (2768896)
I1226 13:43:57.947285 85406 net.cpp:243] Memory required for data: 512450048
I1226 13:43:57.947361 85406 layer_factory.hpp:114] Creating layer relu5
I1226 13:43:57.947428 85406 net.cpp:178] Creating Layer relu5
I1226 13:43:57.947466 85406 net.cpp:612] relu5 <- conv5
I1226 13:43:57.947525 85406 net.cpp:573] relu5 -> conv5 (in-place)
I1226 13:43:57.947659 85406 net.cpp:228] Setting up relu5
I1226 13:43:57.947712 85406 net.cpp:235] Top shape: 64 256 13 13 (2768896)
I1226 13:43:57.947738 85406 net.cpp:243] Memory required for data: 523525632
I1226 13:43:57.947768 85406 layer_factory.hpp:114] Creating layer pool5
I1226 13:43:57.947831 85406 net.cpp:178] Creating Layer pool5
I1226 13:43:57.947861 85406 net.cpp:612] pool5 <- conv5
I1226 13:43:57.947899 85406 net.cpp:586] pool5 -> pool5
I1226 13:43:57.948009 85406 net.cpp:228] Setting up pool5
I1226 13:43:57.948058 85406 net.cpp:235] Top shape: 64 256 6 6 (589824)
I1226 13:43:57.948087 85406 net.cpp:243] Memory required for data: 525884928
I1226 13:43:57.948123 85406 layer_factory.hpp:114] Creating layer fc6
I1226 13:43:57.948201 85406 net.cpp:178] Creating Layer fc6
I1226 13:43:57.948233 85406 net.cpp:612] fc6 <- pool5
I1226 13:43:57.948278 85406 net.cpp:586] fc6 -> fc6
I1226 13:43:58.098398 98538 net.cpp:228] Setting up conv3
I1226 13:43:58.098508 98538 net.cpp:235] Top shape: 64 384 13 13 (4153344)
I1226 13:43:58.098533 98538 net.cpp:243] Memory required for data: 451534336
I1226 13:43:58.098621 98538 layer_factory.hpp:114] Creating layer relu3
I1226 13:43:58.098692 98538 net.cpp:178] Creating Layer relu3
I1226 13:43:58.098728 98538 net.cpp:612] relu3 <- conv3
I1226 13:43:58.098784 98538 net.cpp:573] relu3 -> conv3 (in-place)
I1226 13:43:58.098876 98538 net.cpp:228] Setting up relu3
I1226 13:43:58.098927 98538 net.cpp:235] Top shape: 64 384 13 13 (4153344)
I1226 13:43:58.098950 98538 net.cpp:243] Memory required for data: 468147712
I1226 13:43:58.098979 98538 layer_factory.hpp:114] Creating layer conv4
I1226 13:43:58.099097 98538 net.cpp:178] Creating Layer conv4
I1226 13:43:58.099139 98538 net.cpp:612] conv4 <- conv3
I1226 13:43:58.099182 98538 net.cpp:586] conv4 -> conv4
I1226 13:43:58.102519 91110 net.cpp:228] Setting up conv3
I1226 13:43:58.102625 91110 net.cpp:235] Top shape: 64 384 13 13 (4153344)
I1226 13:43:58.102653 91110 net.cpp:243] Memory required for data: 451534336
I1226 13:43:58.102758 91110 layer_factory.hpp:114] Creating layer relu3
I1226 13:43:58.102854 91110 net.cpp:178] Creating Layer relu3
I1226 13:43:58.102893 91110 net.cpp:612] relu3 <- conv3
I1226 13:43:58.102972 91110 net.cpp:573] relu3 -> conv3 (in-place)
I1226 13:43:58.103096 91110 net.cpp:228] Setting up relu3
I1226 13:43:58.103225 91110 net.cpp:235] Top shape: 64 384 13 13 (4153344)
I1226 13:43:58.103272 91110 net.cpp:243] Memory required for data: 468147712
I1226 13:43:58.103402 91110 layer_factory.hpp:114] Creating layer conv4
I1226 13:43:58.103482 91110 net.cpp:178] Creating Layer conv4
I1226 13:43:58.103516 91110 net.cpp:612] conv4 <- conv3
I1226 13:43:58.103554 91110 net.cpp:586] conv4 -> conv4
I1226 13:43:58.135989 91279 net.cpp:228] Setting up conv3
I1226 13:43:58.136096 91279 net.cpp:235] Top shape: 64 384 13 13 (4153344)
I1226 13:43:58.136126 91279 net.cpp:243] Memory required for data: 451534336
I1226 13:43:58.136239 91279 layer_factory.hpp:114] Creating layer relu3
I1226 13:43:58.136315 91279 net.cpp:178] Creating Layer relu3
I1226 13:43:58.136404 91279 net.cpp:612] relu3 <- conv3
I1226 13:43:58.136489 91279 net.cpp:573] relu3 -> conv3 (in-place)
I1226 13:43:58.136593 91279 net.cpp:228] Setting up relu3
I1226 13:43:58.136744 91279 net.cpp:235] Top shape: 64 384 13 13 (4153344)
I1226 13:43:58.136772 91279 net.cpp:243] Memory required for data: 468147712
I1226 13:43:58.136840 91279 layer_factory.hpp:114] Creating layer conv4
I1226 13:43:58.136945 91279 net.cpp:178] Creating Layer conv4
I1226 13:43:58.136984 91279 net.cpp:612] conv4 <- conv3
I1226 13:43:58.137029 91279 net.cpp:586] conv4 -> conv4
I1226 13:43:58.153918 97018 net.cpp:228] Setting up conv1
I1226 13:43:58.154036 97018 net.cpp:235] Top shape: 64 96 55 55 (18585600)
I1226 13:43:58.154070 97018 net.cpp:243] Memory required for data: 113917440
I1226 13:43:58.154192 97018 layer_factory.hpp:114] Creating layer relu1
I1226 13:43:58.154283 97018 net.cpp:178] Creating Layer relu1
I1226 13:43:58.154320 97018 net.cpp:612] relu1 <- conv1
I1226 13:43:58.154369 97018 net.cpp:573] relu1 -> conv1 (in-place)
I1226 13:43:58.154506 97018 net.cpp:228] Setting up relu1
I1226 13:43:58.154561 97018 net.cpp:235] Top shape: 64 96 55 55 (18585600)
I1226 13:43:58.154588 97018 net.cpp:243] Memory required for data: 188259840
I1226 13:43:58.154619 97018 layer_factory.hpp:114] Creating layer norm1
I1226 13:43:58.154700 97018 net.cpp:178] Creating Layer norm1
I1226 13:43:58.154764 97018 net.cpp:612] norm1 <- conv1
I1226 13:43:58.154810 97018 net.cpp:586] norm1 -> norm1
I1226 13:43:58.154922 97018 net.cpp:228] Setting up norm1
I1226 13:43:58.154971 97018 net.cpp:235] Top shape: 64 96 55 55 (18585600)
I1226 13:43:58.154995 97018 net.cpp:243] Memory required for data: 262602240
I1226 13:43:58.155025 97018 layer_factory.hpp:114] Creating layer pool1
I1226 13:43:58.155098 97018 net.cpp:178] Creating Layer pool1
I1226 13:43:58.155133 97018 net.cpp:612] pool1 <- norm1
I1226 13:43:58.155172 97018 net.cpp:586] pool1 -> pool1
I1226 13:43:58.155282 97018 net.cpp:228] Setting up pool1
I1226 13:43:58.155333 97018 net.cpp:235] Top shape: 64 96 27 27 (4478976)
I1226 13:43:58.155356 97018 net.cpp:243] Memory required for data: 280518144
I1226 13:43:58.155387 97018 layer_factory.hpp:114] Creating layer conv2
I1226 13:43:58.155488 97018 net.cpp:178] Creating Layer conv2
I1226 13:43:58.155527 97018 net.cpp:612] conv2 <- pool1
I1226 13:43:58.155581 97018 net.cpp:586] conv2 -> conv2
I1226 13:43:58.273285 92417 net.cpp:228] Setting up conv3
I1226 13:43:58.273396 92417 net.cpp:235] Top shape: 64 384 13 13 (4153344)
I1226 13:43:58.273422 92417 net.cpp:243] Memory required for data: 451534336
I1226 13:43:58.273533 92417 layer_factory.hpp:114] Creating layer relu3
I1226 13:43:58.273610 92417 net.cpp:178] Creating Layer relu3
I1226 13:43:58.273650 92417 net.cpp:612] relu3 <- conv3
I1226 13:43:58.273689 92417 net.cpp:573] relu3 -> conv3 (in-place)
I1226 13:43:58.273780 92417 net.cpp:228] Setting up relu3
I1226 13:43:58.273834 92417 net.cpp:235] Top shape: 64 384 13 13 (4153344)
I1226 13:43:58.273859 92417 net.cpp:243] Memory required for data: 468147712
I1226 13:43:58.273886 92417 layer_factory.hpp:114] Creating layer conv4
I1226 13:43:58.273962 92417 net.cpp:178] Creating Layer conv4
I1226 13:43:58.273996 92417 net.cpp:612] conv4 <- conv3
I1226 13:43:58.274049 92417 net.cpp:586] conv4 -> conv4
I1226 13:43:58.277559 85984 net.cpp:228] Setting up conv3
I1226 13:43:58.277684 85984 net.cpp:235] Top shape: 64 384 13 13 (4153344)
I1226 13:43:58.277714 85984 net.cpp:243] Memory required for data: 451534336
I1226 13:43:58.277788 85984 layer_factory.hpp:114] Creating layer relu3
I1226 13:43:58.278329 85984 net.cpp:178] Creating Layer relu3
I1226 13:43:58.278388 85984 net.cpp:612] relu3 <- conv3
I1226 13:43:58.278431 85984 net.cpp:573] relu3 -> conv3 (in-place)
I1226 13:43:58.278564 85984 net.cpp:228] Setting up relu3
I1226 13:43:58.278617 85984 net.cpp:235] Top shape: 64 384 13 13 (4153344)
I1226 13:43:58.278641 85984 net.cpp:243] Memory required for data: 468147712
I1226 13:43:58.278695 85984 layer_factory.hpp:114] Creating layer conv4
I1226 13:43:58.278787 85984 net.cpp:178] Creating Layer conv4
I1226 13:43:58.278825 85984 net.cpp:612] conv4 <- conv3
I1226 13:43:58.278867 85984 net.cpp:586] conv4 -> conv4
I1226 13:43:58.269716 94226 net.cpp:228] Setting up conv3
I1226 13:43:58.269821 94226 net.cpp:235] Top shape: 64 384 13 13 (4153344)
I1226 13:43:58.269845 94226 net.cpp:243] Memory required for data: 451534336
I1226 13:43:58.269915 94226 layer_factory.hpp:114] Creating layer relu3
I1226 13:43:58.269987 94226 net.cpp:178] Creating Layer relu3
I1226 13:43:58.270020 94226 net.cpp:612] relu3 <- conv3
I1226 13:43:58.270057 94226 net.cpp:573] relu3 -> conv3 (in-place)
I1226 13:43:58.270148 94226 net.cpp:228] Setting up relu3
I1226 13:43:58.270198 94226 net.cpp:235] Top shape: 64 384 13 13 (4153344)
I1226 13:43:58.270221 94226 net.cpp:243] Memory required for data: 468147712
I1226 13:43:58.270249 94226 layer_factory.hpp:114] Creating layer conv4
I1226 13:43:58.270326 94226 net.cpp:178] Creating Layer conv4
I1226 13:43:58.270355 94226 net.cpp:612] conv4 <- conv3
I1226 13:43:58.270464 94226 net.cpp:586] conv4 -> conv4
I1226 13:43:58.397537 98538 net.cpp:228] Setting up conv4
I1226 13:43:58.397665 98538 net.cpp:235] Top shape: 64 384 13 13 (4153344)
I1226 13:43:58.398052 98538 net.cpp:243] Memory required for data: 484761088
I1226 13:43:58.398219 98538 layer_factory.hpp:114] Creating layer relu4
I1226 13:43:58.398341 98538 net.cpp:178] Creating Layer relu4
I1226 13:43:58.398488 98538 net.cpp:612] relu4 <- conv4
I1226 13:43:58.398533 98538 net.cpp:573] relu4 -> conv4 (in-place)
I1226 13:43:58.398644 98538 net.cpp:228] Setting up relu4
I1226 13:43:58.398739 98538 net.cpp:235] Top shape: 64 384 13 13 (4153344)
I1226 13:43:58.398768 98538 net.cpp:243] Memory required for data: 501374464
I1226 13:43:58.398800 98538 layer_factory.hpp:114] Creating layer conv5
I1226 13:43:58.398910 98538 net.cpp:178] Creating Layer conv5
I1226 13:43:58.398996 98538 net.cpp:612] conv5 <- conv4
I1226 13:43:58.399051 98538 net.cpp:586] conv5 -> conv5
I1226 13:43:58.385488 91110 net.cpp:228] Setting up conv4
I1226 13:43:58.385594 91110 net.cpp:235] Top shape: 64 384 13 13 (4153344)
I1226 13:43:58.385618 91110 net.cpp:243] Memory required for data: 484761088
I1226 13:43:58.385701 91110 layer_factory.hpp:114] Creating layer relu4
I1226 13:43:58.385783 91110 net.cpp:178] Creating Layer relu4
I1226 13:43:58.385823 91110 net.cpp:612] relu4 <- conv4
I1226 13:43:58.385869 91110 net.cpp:573] relu4 -> conv4 (in-place)
I1226 13:43:58.386051 91110 net.cpp:228] Setting up relu4
I1226 13:43:58.386121 91110 net.cpp:235] Top shape: 64 384 13 13 (4153344)
I1226 13:43:58.386144 91110 net.cpp:243] Memory required for data: 501374464
I1226 13:43:58.386173 91110 layer_factory.hpp:114] Creating layer conv5
I1226 13:43:58.386256 91110 net.cpp:178] Creating Layer conv5
I1226 13:43:58.386291 91110 net.cpp:612] conv5 <- conv4
I1226 13:43:58.386345 91110 net.cpp:586] conv5 -> conv5
I1226 13:43:58.497325 91279 net.cpp:228] Setting up conv4
I1226 13:43:58.497434 91279 net.cpp:235] Top shape: 64 384 13 13 (4153344)
I1226 13:43:58.497462 91279 net.cpp:243] Memory required for data: 484761088
I1226 13:43:58.497519 91279 layer_factory.hpp:114] Creating layer relu4
I1226 13:43:58.497586 91279 net.cpp:178] Creating Layer relu4
I1226 13:43:58.497624 91279 net.cpp:612] relu4 <- conv4
I1226 13:43:58.497663 91279 net.cpp:573] relu4 -> conv4 (in-place)
I1226 13:43:58.497735 91279 net.cpp:228] Setting up relu4
I1226 13:43:58.497808 91279 net.cpp:235] Top shape: 64 384 13 13 (4153344)
I1226 13:43:58.497833 91279 net.cpp:243] Memory required for data: 501374464
I1226 13:43:58.497858 91279 layer_factory.hpp:114] Creating layer conv5
I1226 13:43:58.497921 91279 net.cpp:178] Creating Layer conv5
I1226 13:43:58.497948 91279 net.cpp:612] conv5 <- conv4
I1226 13:43:58.497987 91279 net.cpp:586] conv5 -> conv5
I1226 13:43:58.591295 92417 net.cpp:228] Setting up conv4
I1226 13:43:58.591406 92417 net.cpp:235] Top shape: 64 384 13 13 (4153344)
I1226 13:43:58.591434 92417 net.cpp:243] Memory required for data: 484761088
I1226 13:43:58.591513 92417 layer_factory.hpp:114] Creating layer relu4
I1226 13:43:58.591590 92417 net.cpp:178] Creating Layer relu4
I1226 13:43:58.591717 92417 net.cpp:612] relu4 <- conv4
I1226 13:43:58.591759 92417 net.cpp:573] relu4 -> conv4 (in-place)
I1226 13:43:58.591856 92417 net.cpp:228] Setting up relu4
I1226 13:43:58.591951 92417 net.cpp:235] Top shape: 64 384 13 13 (4153344)
I1226 13:43:58.591976 92417 net.cpp:243] Memory required for data: 501374464
I1226 13:43:58.592006 92417 layer_factory.hpp:114] Creating layer conv5
I1226 13:43:58.592097 92417 net.cpp:178] Creating Layer conv5
I1226 13:43:58.592131 92417 net.cpp:612] conv5 <- conv4
I1226 13:43:58.592172 92417 net.cpp:586] conv5 -> conv5
I1226 13:43:58.586683 94226 net.cpp:228] Setting up conv4
I1226 13:43:58.586791 94226 net.cpp:235] Top shape: 64 384 13 13 (4153344)
I1226 13:43:58.586814 94226 net.cpp:243] Memory required for data: 484761088
I1226 13:43:58.586872 94226 layer_factory.hpp:114] Creating layer relu4
I1226 13:43:58.586946 94226 net.cpp:178] Creating Layer relu4
I1226 13:43:58.586978 94226 net.cpp:612] relu4 <- conv4
I1226 13:43:58.587018 94226 net.cpp:573] relu4 -> conv4 (in-place)
I1226 13:43:58.587112 94226 net.cpp:228] Setting up relu4
I1226 13:43:58.587172 94226 net.cpp:235] Top shape: 64 384 13 13 (4153344)
I1226 13:43:58.587196 94226 net.cpp:243] Memory required for data: 501374464
I1226 13:43:58.587225 94226 layer_factory.hpp:114] Creating layer conv5
I1226 13:43:58.587313 94226 net.cpp:178] Creating Layer conv5
I1226 13:43:58.587345 94226 net.cpp:612] conv5 <- conv4
I1226 13:43:58.587412 94226 net.cpp:586] conv5 -> conv5
I1226 13:43:58.614121 85984 net.cpp:228] Setting up conv4
I1226 13:43:58.614270 85984 net.cpp:235] Top shape: 64 384 13 13 (4153344)
I1226 13:43:58.614306 85984 net.cpp:243] Memory required for data: 484761088
I1226 13:43:58.614365 85984 layer_factory.hpp:114] Creating layer relu4
I1226 13:43:58.614784 85984 net.cpp:178] Creating Layer relu4
I1226 13:43:58.614881 85984 net.cpp:612] relu4 <- conv4
I1226 13:43:58.615003 85984 net.cpp:573] relu4 -> conv4 (in-place)
I1226 13:43:58.615182 85984 net.cpp:228] Setting up relu4
I1226 13:43:58.615329 85984 net.cpp:235] Top shape: 64 384 13 13 (4153344)
I1226 13:43:58.615540 85984 net.cpp:243] Memory required for data: 501374464
I1226 13:43:58.615583 85984 layer_factory.hpp:114] Creating layer conv5
I1226 13:43:58.616238 85984 net.cpp:178] Creating Layer conv5
I1226 13:43:58.616361 85984 net.cpp:612] conv5 <- conv4
I1226 13:43:58.616478 85984 net.cpp:586] conv5 -> conv5
I1226 13:43:58.617669 91110 net.cpp:228] Setting up conv5
I1226 13:43:58.617784 91110 net.cpp:235] Top shape: 64 256 13 13 (2768896)
I1226 13:43:58.617812 91110 net.cpp:243] Memory required for data: 512450048
I1226 13:43:58.617887 91110 layer_factory.hpp:114] Creating layer relu5
I1226 13:43:58.617951 91110 net.cpp:178] Creating Layer relu5
I1226 13:43:58.617987 91110 net.cpp:612] relu5 <- conv5
I1226 13:43:58.618028 91110 net.cpp:573] relu5 -> conv5 (in-place)
I1226 13:43:58.618147 91110 net.cpp:228] Setting up relu5
I1226 13:43:58.618207 91110 net.cpp:235] Top shape: 64 256 13 13 (2768896)
I1226 13:43:58.618232 91110 net.cpp:243] Memory required for data: 523525632
I1226 13:43:58.618258 91110 layer_factory.hpp:114] Creating layer pool5
I1226 13:43:58.618309 91110 net.cpp:178] Creating Layer pool5
I1226 13:43:58.618333 91110 net.cpp:612] pool5 <- conv5
I1226 13:43:58.618367 91110 net.cpp:586] pool5 -> pool5
I1226 13:43:58.618544 91110 net.cpp:228] Setting up pool5
I1226 13:43:58.618579 91110 net.cpp:235] Top shape: 64 256 6 6 (589824)
I1226 13:43:58.618602 91110 net.cpp:243] Memory required for data: 525884928
I1226 13:43:58.618633 91110 layer_factory.hpp:114] Creating layer fc6
I1226 13:43:58.618696 91110 net.cpp:178] Creating Layer fc6
I1226 13:43:58.618723 91110 net.cpp:612] fc6 <- pool5
I1226 13:43:58.618760 91110 net.cpp:586] fc6 -> fc6
I1226 13:43:58.656512 98538 net.cpp:228] Setting up conv5
I1226 13:43:58.657052 98538 net.cpp:235] Top shape: 64 256 13 13 (2768896)
I1226 13:43:58.657138 98538 net.cpp:243] Memory required for data: 512450048
I1226 13:43:58.657241 98538 layer_factory.hpp:114] Creating layer relu5
I1226 13:43:58.657380 98538 net.cpp:178] Creating Layer relu5
I1226 13:43:58.657464 98538 net.cpp:612] relu5 <- conv5
I1226 13:43:58.657519 98538 net.cpp:573] relu5 -> conv5 (in-place)
I1226 13:43:58.657865 98538 net.cpp:228] Setting up relu5
I1226 13:43:58.657986 98538 net.cpp:235] Top shape: 64 256 13 13 (2768896)
I1226 13:43:58.658021 98538 net.cpp:243] Memory required for data: 523525632
I1226 13:43:58.658059 98538 layer_factory.hpp:114] Creating layer pool5
I1226 13:43:58.658562 98538 net.cpp:178] Creating Layer pool5
I1226 13:43:58.658826 98538 net.cpp:612] pool5 <- conv5
I1226 13:43:58.658947 98538 net.cpp:586] pool5 -> pool5
I1226 13:43:58.659139 98538 net.cpp:228] Setting up pool5
I1226 13:43:58.659262 98538 net.cpp:235] Top shape: 64 256 6 6 (589824)
I1226 13:43:58.659298 98538 net.cpp:243] Memory required for data: 525884928
I1226 13:43:58.659338 98538 layer_factory.hpp:114] Creating layer fc6
I1226 13:43:58.659730 98538 net.cpp:178] Creating Layer fc6
I1226 13:43:58.659793 98538 net.cpp:612] fc6 <- pool5
I1226 13:43:58.659847 98538 net.cpp:586] fc6 -> fc6
I1226 13:43:58.747112 91279 net.cpp:228] Setting up conv5
I1226 13:43:58.747238 91279 net.cpp:235] Top shape: 64 256 13 13 (2768896)
I1226 13:43:58.747267 91279 net.cpp:243] Memory required for data: 512450048
I1226 13:43:58.747344 91279 layer_factory.hpp:114] Creating layer relu5
I1226 13:43:58.747426 91279 net.cpp:178] Creating Layer relu5
I1226 13:43:58.747459 91279 net.cpp:612] relu5 <- conv5
I1226 13:43:58.747508 91279 net.cpp:573] relu5 -> conv5 (in-place)
I1226 13:43:58.747603 91279 net.cpp:228] Setting up relu5
I1226 13:43:58.747648 91279 net.cpp:235] Top shape: 64 256 13 13 (2768896)
I1226 13:43:58.747678 91279 net.cpp:243] Memory required for data: 523525632
I1226 13:43:58.747706 91279 layer_factory.hpp:114] Creating layer pool5
I1226 13:43:58.747766 91279 net.cpp:178] Creating Layer pool5
I1226 13:43:58.747797 91279 net.cpp:612] pool5 <- conv5
I1226 13:43:58.747843 91279 net.cpp:586] pool5 -> pool5
I1226 13:43:58.747925 91279 net.cpp:228] Setting up pool5
I1226 13:43:58.747972 91279 net.cpp:235] Top shape: 64 256 6 6 (589824)
I1226 13:43:58.747994 91279 net.cpp:243] Memory required for data: 525884928
I1226 13:43:58.748026 91279 layer_factory.hpp:114] Creating layer fc6
I1226 13:43:58.748091 91279 net.cpp:178] Creating Layer fc6
I1226 13:43:58.748119 91279 net.cpp:612] fc6 <- pool5
I1226 13:43:58.748168 91279 net.cpp:586] fc6 -> fc6
I1226 13:43:58.740285 92417 net.cpp:228] Setting up conv5
I1226 13:43:58.740411 92417 net.cpp:235] Top shape: 64 256 13 13 (2768896)
I1226 13:43:58.740438 92417 net.cpp:243] Memory required for data: 512450048
I1226 13:43:58.740537 92417 layer_factory.hpp:114] Creating layer relu5
I1226 13:43:58.740595 92417 net.cpp:178] Creating Layer relu5
I1226 13:43:58.740633 92417 net.cpp:612] relu5 <- conv5
I1226 13:43:58.740696 92417 net.cpp:573] relu5 -> conv5 (in-place)
I1226 13:43:58.740792 92417 net.cpp:228] Setting up relu5
I1226 13:43:58.740842 92417 net.cpp:235] Top shape: 64 256 13 13 (2768896)
I1226 13:43:58.740866 92417 net.cpp:243] Memory required for data: 523525632
I1226 13:43:58.740895 92417 layer_factory.hpp:114] Creating layer pool5
I1226 13:43:58.740962 92417 net.cpp:178] Creating Layer pool5
I1226 13:43:58.740989 92417 net.cpp:612] pool5 <- conv5
I1226 13:43:58.741025 92417 net.cpp:586] pool5 -> pool5
I1226 13:43:58.741120 92417 net.cpp:228] Setting up pool5
I1226 13:43:58.741164 92417 net.cpp:235] Top shape: 64 256 6 6 (589824)
I1226 13:43:58.741186 92417 net.cpp:243] Memory required for data: 525884928
I1226 13:43:58.741214 92417 layer_factory.hpp:114] Creating layer fc6
I1226 13:43:58.741282 92417 net.cpp:178] Creating Layer fc6
I1226 13:43:58.741317 92417 net.cpp:612] fc6 <- pool5
I1226 13:43:58.741365 92417 net.cpp:586] fc6 -> fc6
I1226 13:43:58.735666 94226 net.cpp:228] Setting up conv5
I1226 13:43:58.735792 94226 net.cpp:235] Top shape: 64 256 13 13 (2768896)
I1226 13:43:58.735821 94226 net.cpp:243] Memory required for data: 512450048
I1226 13:43:58.735901 94226 layer_factory.hpp:114] Creating layer relu5
I1226 13:43:58.735965 94226 net.cpp:178] Creating Layer relu5
I1226 13:43:58.736003 94226 net.cpp:612] relu5 <- conv5
I1226 13:43:58.736060 94226 net.cpp:573] relu5 -> conv5 (in-place)
I1226 13:43:58.736171 94226 net.cpp:228] Setting up relu5
I1226 13:43:58.736232 94226 net.cpp:235] Top shape: 64 256 13 13 (2768896)
I1226 13:43:58.736259 94226 net.cpp:243] Memory required for data: 523525632
I1226 13:43:58.736290 94226 layer_factory.hpp:114] Creating layer pool5
I1226 13:43:58.736358 94226 net.cpp:178] Creating Layer pool5
I1226 13:43:58.736418 94226 net.cpp:612] pool5 <- conv5
I1226 13:43:58.736460 94226 net.cpp:586] pool5 -> pool5
I1226 13:43:58.736555 94226 net.cpp:228] Setting up pool5
I1226 13:43:58.736599 94226 net.cpp:235] Top shape: 64 256 6 6 (589824)
I1226 13:43:58.736624 94226 net.cpp:243] Memory required for data: 525884928
I1226 13:43:58.736652 94226 layer_factory.hpp:114] Creating layer fc6
I1226 13:43:58.736722 94226 net.cpp:178] Creating Layer fc6
I1226 13:43:58.736753 94226 net.cpp:612] fc6 <- pool5
I1226 13:43:58.736800 94226 net.cpp:586] fc6 -> fc6
I1226 13:43:58.884778 85984 net.cpp:228] Setting up conv5
I1226 13:43:58.884898 85984 net.cpp:235] Top shape: 64 256 13 13 (2768896)
I1226 13:43:58.884932 85984 net.cpp:243] Memory required for data: 512450048
I1226 13:43:58.885088 85984 layer_factory.hpp:114] Creating layer relu5
I1226 13:43:58.885185 85984 net.cpp:178] Creating Layer relu5
I1226 13:43:58.885426 85984 net.cpp:612] relu5 <- conv5
I1226 13:43:58.885478 85984 net.cpp:573] relu5 -> conv5 (in-place)
I1226 13:43:58.885601 85984 net.cpp:228] Setting up relu5
I1226 13:43:58.885753 85984 net.cpp:235] Top shape: 64 256 13 13 (2768896)
I1226 13:43:58.885787 85984 net.cpp:243] Memory required for data: 523525632
I1226 13:43:58.885825 85984 layer_factory.hpp:114] Creating layer pool5
I1226 13:43:58.885886 85984 net.cpp:178] Creating Layer pool5
I1226 13:43:58.885920 85984 net.cpp:612] pool5 <- conv5
I1226 13:43:58.886164 85984 net.cpp:586] pool5 -> pool5
I1226 13:43:58.886445 85984 net.cpp:228] Setting up pool5
I1226 13:43:58.886584 85984 net.cpp:235] Top shape: 64 256 6 6 (589824)
I1226 13:43:58.886611 85984 net.cpp:243] Memory required for data: 525884928
I1226 13:43:58.886646 85984 layer_factory.hpp:114] Creating layer fc6
I1226 13:43:58.886750 85984 net.cpp:178] Creating Layer fc6
I1226 13:43:58.886955 85984 net.cpp:612] fc6 <- pool5
I1226 13:43:58.887027 85984 net.cpp:586] fc6 -> fc6
I1226 13:43:59.263499 97018 net.cpp:228] Setting up conv2
I1226 13:43:59.263623 97018 net.cpp:235] Top shape: 64 256 27 27 (11943936)
I1226 13:43:59.263659 97018 net.cpp:243] Memory required for data: 328293888
I1226 13:43:59.263779 97018 layer_factory.hpp:114] Creating layer relu2
I1226 13:43:59.263989 97018 net.cpp:178] Creating Layer relu2
I1226 13:43:59.264045 97018 net.cpp:612] relu2 <- conv2
I1226 13:43:59.264091 97018 net.cpp:573] relu2 -> conv2 (in-place)
I1226 13:43:59.264194 97018 net.cpp:228] Setting up relu2
I1226 13:43:59.264251 97018 net.cpp:235] Top shape: 64 256 27 27 (11943936)
I1226 13:43:59.264277 97018 net.cpp:243] Memory required for data: 376069632
I1226 13:43:59.264312 97018 layer_factory.hpp:114] Creating layer norm2
I1226 13:43:59.264391 97018 net.cpp:178] Creating Layer norm2
I1226 13:43:59.264431 97018 net.cpp:612] norm2 <- conv2
I1226 13:43:59.264475 97018 net.cpp:586] norm2 -> norm2
I1226 13:43:59.264569 97018 net.cpp:228] Setting up norm2
I1226 13:43:59.264623 97018 net.cpp:235] Top shape: 64 256 27 27 (11943936)
I1226 13:43:59.264648 97018 net.cpp:243] Memory required for data: 423845376
I1226 13:43:59.264679 97018 layer_factory.hpp:114] Creating layer pool2
I1226 13:43:59.264775 97018 net.cpp:178] Creating Layer pool2
I1226 13:43:59.264816 97018 net.cpp:612] pool2 <- norm2
I1226 13:43:59.264868 97018 net.cpp:586] pool2 -> pool2
I1226 13:43:59.264966 97018 net.cpp:228] Setting up pool2
I1226 13:43:59.265019 97018 net.cpp:235] Top shape: 64 256 13 13 (2768896)
I1226 13:43:59.265159 97018 net.cpp:243] Memory required for data: 434920960
I1226 13:43:59.265198 97018 layer_factory.hpp:114] Creating layer conv3
I1226 13:43:59.265311 97018 net.cpp:178] Creating Layer conv3
I1226 13:43:59.265348 97018 net.cpp:612] conv3 <- pool2
I1226 13:43:59.265394 97018 net.cpp:586] conv3 -> conv3
I1226 13:43:59.370255 94885 net.cpp:228] Setting up conv2
I1226 13:43:59.370385 94885 net.cpp:235] Top shape: 64 256 27 27 (11943936)
I1226 13:43:59.370424 94885 net.cpp:243] Memory required for data: 328293888
I1226 13:43:59.370523 94885 layer_factory.hpp:114] Creating layer relu2
I1226 13:43:59.370610 94885 net.cpp:178] Creating Layer relu2
I1226 13:43:59.370651 94885 net.cpp:612] relu2 <- conv2
I1226 13:43:59.370717 94885 net.cpp:573] relu2 -> conv2 (in-place)
I1226 13:43:59.374629 94885 net.cpp:228] Setting up relu2
I1226 13:43:59.374809 94885 net.cpp:235] Top shape: 64 256 27 27 (11943936)
I1226 13:43:59.374944 94885 net.cpp:243] Memory required for data: 376069632
I1226 13:43:59.375120 94885 layer_factory.hpp:114] Creating layer norm2
I1226 13:43:59.375231 94885 net.cpp:178] Creating Layer norm2
I1226 13:43:59.375283 94885 net.cpp:612] norm2 <- conv2
I1226 13:43:59.375339 94885 net.cpp:586] norm2 -> norm2
I1226 13:43:59.375468 94885 net.cpp:228] Setting up norm2
I1226 13:43:59.375536 94885 net.cpp:235] Top shape: 64 256 27 27 (11943936)
I1226 13:43:59.375569 94885 net.cpp:243] Memory required for data: 423845376
I1226 13:43:59.375608 94885 layer_factory.hpp:114] Creating layer pool2
I1226 13:43:59.375725 94885 net.cpp:178] Creating Layer pool2
I1226 13:43:59.375919 94885 net.cpp:612] pool2 <- norm2
I1226 13:43:59.375983 94885 net.cpp:586] pool2 -> pool2
I1226 13:43:59.376170 94885 net.cpp:228] Setting up pool2
I1226 13:43:59.376338 94885 net.cpp:235] Top shape: 64 256 13 13 (2768896)
I1226 13:43:59.376888 94885 net.cpp:243] Memory required for data: 434920960
I1226 13:43:59.376976 94885 layer_factory.hpp:114] Creating layer conv3
I1226 13:43:59.377224 94885 net.cpp:178] Creating Layer conv3
I1226 13:43:59.377286 94885 net.cpp:612] conv3 <- pool2
I1226 13:43:59.377352 94885 net.cpp:586] conv3 -> conv3
I1226 13:44:00.297349 97018 net.cpp:228] Setting up conv3
I1226 13:44:00.297473 97018 net.cpp:235] Top shape: 64 384 13 13 (4153344)
I1226 13:44:00.297510 97018 net.cpp:243] Memory required for data: 451534336
I1226 13:44:00.297598 97018 layer_factory.hpp:114] Creating layer relu3
I1226 13:44:00.297806 97018 net.cpp:178] Creating Layer relu3
I1226 13:44:00.297868 97018 net.cpp:612] relu3 <- conv3
I1226 13:44:00.297921 97018 net.cpp:573] relu3 -> conv3 (in-place)
I1226 13:44:00.298043 97018 net.cpp:228] Setting up relu3
I1226 13:44:00.298110 97018 net.cpp:235] Top shape: 64 384 13 13 (4153344)
I1226 13:44:00.298138 97018 net.cpp:243] Memory required for data: 468147712
I1226 13:44:00.298180 97018 layer_factory.hpp:114] Creating layer conv4
I1226 13:44:00.298290 97018 net.cpp:178] Creating Layer conv4
I1226 13:44:00.298331 97018 net.cpp:612] conv4 <- conv3
I1226 13:44:00.298380 97018 net.cpp:586] conv4 -> conv4
I1226 13:44:00.673702 94885 net.cpp:228] Setting up conv3
I1226 13:44:00.673851 94885 net.cpp:235] Top shape: 64 384 13 13 (4153344)
I1226 13:44:00.673900 94885 net.cpp:243] Memory required for data: 451534336
I1226 13:44:00.674051 94885 layer_factory.hpp:114] Creating layer relu3
I1226 13:44:00.674151 94885 net.cpp:178] Creating Layer relu3
I1226 13:44:00.674201 94885 net.cpp:612] relu3 <- conv3
I1226 13:44:00.674262 94885 net.cpp:573] relu3 -> conv3 (in-place)
I1226 13:44:00.674401 94885 net.cpp:228] Setting up relu3
I1226 13:44:00.674487 94885 net.cpp:235] Top shape: 64 384 13 13 (4153344)
I1226 13:44:00.674527 94885 net.cpp:243] Memory required for data: 468147712
I1226 13:44:00.674574 94885 layer_factory.hpp:114] Creating layer conv4
I1226 13:44:00.674715 94885 net.cpp:178] Creating Layer conv4
I1226 13:44:00.674775 94885 net.cpp:612] conv4 <- conv3
I1226 13:44:00.674897 94885 net.cpp:586] conv4 -> conv4
I1226 13:44:01.175091 97018 net.cpp:228] Setting up conv4
I1226 13:44:01.175248 97018 net.cpp:235] Top shape: 64 384 13 13 (4153344)
I1226 13:44:01.175299 97018 net.cpp:243] Memory required for data: 484761088
I1226 13:44:01.175371 97018 layer_factory.hpp:114] Creating layer relu4
I1226 13:44:01.175464 97018 net.cpp:178] Creating Layer relu4
I1226 13:44:01.175516 97018 net.cpp:612] relu4 <- conv4
I1226 13:44:01.175588 97018 net.cpp:573] relu4 -> conv4 (in-place)
I1226 13:44:01.175717 97018 net.cpp:228] Setting up relu4
I1226 13:44:01.175819 97018 net.cpp:235] Top shape: 64 384 13 13 (4153344)
I1226 13:44:01.175858 97018 net.cpp:243] Memory required for data: 501374464
I1226 13:44:01.175894 97018 layer_factory.hpp:114] Creating layer conv5
I1226 13:44:01.175994 97018 net.cpp:178] Creating Layer conv5
I1226 13:44:01.176040 97018 net.cpp:612] conv5 <- conv4
I1226 13:44:01.176106 97018 net.cpp:586] conv5 -> conv5
I1226 13:44:01.552480 94885 net.cpp:228] Setting up conv4
I1226 13:44:01.552618 94885 net.cpp:235] Top shape: 64 384 13 13 (4153344)
I1226 13:44:01.552659 94885 net.cpp:243] Memory required for data: 484761088
I1226 13:44:01.552748 94885 layer_factory.hpp:114] Creating layer relu4
I1226 13:44:01.552985 94885 net.cpp:178] Creating Layer relu4
I1226 13:44:01.553036 94885 net.cpp:612] relu4 <- conv4
I1226 13:44:01.553119 94885 net.cpp:573] relu4 -> conv4 (in-place)
I1226 13:44:01.553288 94885 net.cpp:228] Setting up relu4
I1226 13:44:01.553376 94885 net.cpp:235] Top shape: 64 384 13 13 (4153344)
I1226 13:44:01.553423 94885 net.cpp:243] Memory required for data: 501374464
I1226 13:44:01.553472 94885 layer_factory.hpp:114] Creating layer conv5
I1226 13:44:01.553597 94885 net.cpp:178] Creating Layer conv5
I1226 13:44:01.553659 94885 net.cpp:612] conv5 <- conv4
I1226 13:44:01.553745 94885 net.cpp:586] conv5 -> conv5
I1226 13:44:01.803935 97018 net.cpp:228] Setting up conv5
I1226 13:44:01.804056 97018 net.cpp:235] Top shape: 64 256 13 13 (2768896)
I1226 13:44:01.804091 97018 net.cpp:243] Memory required for data: 512450048
I1226 13:44:01.804172 97018 layer_factory.hpp:114] Creating layer relu5
I1226 13:44:01.804270 97018 net.cpp:178] Creating Layer relu5
I1226 13:44:01.804317 97018 net.cpp:612] relu5 <- conv5
I1226 13:44:01.804363 97018 net.cpp:573] relu5 -> conv5 (in-place)
I1226 13:44:01.804471 97018 net.cpp:228] Setting up relu5
I1226 13:44:01.804525 97018 net.cpp:235] Top shape: 64 256 13 13 (2768896)
I1226 13:44:01.804551 97018 net.cpp:243] Memory required for data: 523525632
I1226 13:44:01.804582 97018 layer_factory.hpp:114] Creating layer pool5
I1226 13:44:01.804657 97018 net.cpp:178] Creating Layer pool5
I1226 13:44:01.804697 97018 net.cpp:612] pool5 <- conv5
I1226 13:44:01.804762 97018 net.cpp:586] pool5 -> pool5
I1226 13:44:01.804872 97018 net.cpp:228] Setting up pool5
I1226 13:44:01.804929 97018 net.cpp:235] Top shape: 64 256 6 6 (589824)
I1226 13:44:01.804952 97018 net.cpp:243] Memory required for data: 525884928
I1226 13:44:01.804982 97018 layer_factory.hpp:114] Creating layer fc6
I1226 13:44:01.805052 97018 net.cpp:178] Creating Layer fc6
I1226 13:44:01.805088 97018 net.cpp:612] fc6 <- pool5
I1226 13:44:01.805141 97018 net.cpp:586] fc6 -> fc6
I1226 13:44:02.181713 94885 net.cpp:228] Setting up conv5
I1226 13:44:02.181862 94885 net.cpp:235] Top shape: 64 256 13 13 (2768896)
I1226 13:44:02.181911 94885 net.cpp:243] Memory required for data: 512450048
I1226 13:44:02.182039 94885 layer_factory.hpp:114] Creating layer relu5
I1226 13:44:02.182171 94885 net.cpp:178] Creating Layer relu5
I1226 13:44:02.182242 94885 net.cpp:612] relu5 <- conv5
I1226 13:44:02.182307 94885 net.cpp:573] relu5 -> conv5 (in-place)
I1226 13:44:02.182459 94885 net.cpp:228] Setting up relu5
I1226 13:44:02.182560 94885 net.cpp:235] Top shape: 64 256 13 13 (2768896)
I1226 13:44:02.182605 94885 net.cpp:243] Memory required for data: 523525632
I1226 13:44:02.182672 94885 layer_factory.hpp:114] Creating layer pool5
I1226 13:44:02.182756 94885 net.cpp:178] Creating Layer pool5
I1226 13:44:02.182814 94885 net.cpp:612] pool5 <- conv5
I1226 13:44:02.182912 94885 net.cpp:586] pool5 -> pool5
I1226 13:44:02.183068 94885 net.cpp:228] Setting up pool5
I1226 13:44:02.183151 94885 net.cpp:235] Top shape: 64 256 6 6 (589824)
I1226 13:44:02.183189 94885 net.cpp:243] Memory required for data: 525884928
I1226 13:44:02.183233 94885 layer_factory.hpp:114] Creating layer fc6
I1226 13:44:02.183310 94885 net.cpp:178] Creating Layer fc6
I1226 13:44:02.183358 94885 net.cpp:612] fc6 <- pool5
I1226 13:44:02.183435 94885 net.cpp:586] fc6 -> fc6
I1226 13:44:03.018816 85406 net.cpp:228] Setting up fc6
I1226 13:44:03.018929 85406 net.cpp:235] Top shape: 64 4096 (262144)
I1226 13:44:03.018983 85406 net.cpp:243] Memory required for data: 526933504
I1226 13:44:03.019049 85406 layer_factory.hpp:114] Creating layer relu6
I1226 13:44:03.019143 85406 net.cpp:178] Creating Layer relu6
I1226 13:44:03.019193 85406 net.cpp:612] relu6 <- fc6
I1226 13:44:03.019235 85406 net.cpp:573] relu6 -> fc6 (in-place)
I1226 13:44:03.019318 85406 net.cpp:228] Setting up relu6
I1226 13:44:03.019359 85406 net.cpp:235] Top shape: 64 4096 (262144)
I1226 13:44:03.019493 85406 net.cpp:243] Memory required for data: 527982080
I1226 13:44:03.019534 85406 layer_factory.hpp:114] Creating layer drop6
I1226 13:44:03.019631 85406 net.cpp:178] Creating Layer drop6
I1226 13:44:03.019671 85406 net.cpp:612] drop6 <- fc6
I1226 13:44:03.019711 85406 net.cpp:573] drop6 -> fc6 (in-place)
I1226 13:44:03.019773 85406 net.cpp:228] Setting up drop6
I1226 13:44:03.019812 85406 net.cpp:235] Top shape: 64 4096 (262144)
I1226 13:44:03.019847 85406 net.cpp:243] Memory required for data: 529030656
I1226 13:44:03.019877 85406 layer_factory.hpp:114] Creating layer fc7
I1226 13:44:03.019947 85406 net.cpp:178] Creating Layer fc7
I1226 13:44:03.019974 85406 net.cpp:612] fc7 <- fc6
I1226 13:44:03.020064 85406 net.cpp:586] fc7 -> fc7
I1226 13:44:03.869889 92417 net.cpp:228] Setting up fc6
I1226 13:44:03.869999 92417 net.cpp:235] Top shape: 64 4096 (262144)
I1226 13:44:03.870026 92417 net.cpp:243] Memory required for data: 526933504
I1226 13:44:03.870081 92417 layer_factory.hpp:114] Creating layer relu6
I1226 13:44:03.870178 92417 net.cpp:178] Creating Layer relu6
I1226 13:44:03.870288 92417 net.cpp:612] relu6 <- fc6
I1226 13:44:03.870332 92417 net.cpp:573] relu6 -> fc6 (in-place)
I1226 13:44:03.870419 92417 net.cpp:228] Setting up relu6
I1226 13:44:03.870596 92417 net.cpp:235] Top shape: 64 4096 (262144)
I1226 13:44:03.870626 92417 net.cpp:243] Memory required for data: 527982080
I1226 13:44:03.870659 92417 layer_factory.hpp:114] Creating layer drop6
I1226 13:44:03.870736 92417 net.cpp:178] Creating Layer drop6
I1226 13:44:03.870770 92417 net.cpp:612] drop6 <- fc6
I1226 13:44:03.870810 92417 net.cpp:573] drop6 -> fc6 (in-place)
I1226 13:44:03.870875 92417 net.cpp:228] Setting up drop6
I1226 13:44:03.870911 92417 net.cpp:235] Top shape: 64 4096 (262144)
I1226 13:44:03.870934 92417 net.cpp:243] Memory required for data: 529030656
I1226 13:44:03.870961 92417 layer_factory.hpp:114] Creating layer fc7
I1226 13:44:03.871016 92417 net.cpp:178] Creating Layer fc7
I1226 13:44:03.871042 92417 net.cpp:612] fc7 <- fc6
I1226 13:44:03.871104 92417 net.cpp:586] fc7 -> fc7
I1226 13:44:03.949949 94226 net.cpp:228] Setting up fc6
I1226 13:44:03.950068 94226 net.cpp:235] Top shape: 64 4096 (262144)
I1226 13:44:03.950103 94226 net.cpp:243] Memory required for data: 526933504
I1226 13:44:03.950165 94226 layer_factory.hpp:114] Creating layer relu6
I1226 13:44:03.950261 94226 net.cpp:178] Creating Layer relu6
I1226 13:44:03.950311 94226 net.cpp:612] relu6 <- fc6
I1226 13:44:03.950361 94226 net.cpp:573] relu6 -> fc6 (in-place)
I1226 13:44:03.950497 94226 net.cpp:228] Setting up relu6
I1226 13:44:03.950664 94226 net.cpp:235] Top shape: 64 4096 (262144)
I1226 13:44:03.950700 94226 net.cpp:243] Memory required for data: 527982080
I1226 13:44:03.950738 94226 layer_factory.hpp:114] Creating layer drop6
I1226 13:44:03.950814 94226 net.cpp:178] Creating Layer drop6
I1226 13:44:03.950853 94226 net.cpp:612] drop6 <- fc6
I1226 13:44:03.950896 94226 net.cpp:573] drop6 -> fc6 (in-place)
I1226 13:44:03.950964 94226 net.cpp:228] Setting up drop6
I1226 13:44:03.951009 94226 net.cpp:235] Top shape: 64 4096 (262144)
I1226 13:44:03.951035 94226 net.cpp:243] Memory required for data: 529030656
I1226 13:44:03.951066 94226 layer_factory.hpp:114] Creating layer fc7
I1226 13:44:03.951126 94226 net.cpp:178] Creating Layer fc7
I1226 13:44:03.951158 94226 net.cpp:612] fc7 <- fc6
I1226 13:44:03.951213 94226 net.cpp:586] fc7 -> fc7
I1226 13:44:04.244132 91110 net.cpp:228] Setting up fc6
I1226 13:44:04.244243 91110 net.cpp:235] Top shape: 64 4096 (262144)
I1226 13:44:04.244279 91110 net.cpp:243] Memory required for data: 526933504
I1226 13:44:04.244340 91110 layer_factory.hpp:114] Creating layer relu6
I1226 13:44:04.244402 91110 net.cpp:178] Creating Layer relu6
I1226 13:44:04.244531 91110 net.cpp:612] relu6 <- fc6
I1226 13:44:04.244571 91110 net.cpp:573] relu6 -> fc6 (in-place)
I1226 13:44:04.244662 91110 net.cpp:228] Setting up relu6
I1226 13:44:04.244807 91110 net.cpp:235] Top shape: 64 4096 (262144)
I1226 13:44:04.244837 91110 net.cpp:243] Memory required for data: 527982080
I1226 13:44:04.244869 91110 layer_factory.hpp:114] Creating layer drop6
I1226 13:44:04.244940 91110 net.cpp:178] Creating Layer drop6
I1226 13:44:04.244969 91110 net.cpp:612] drop6 <- fc6
I1226 13:44:04.245007 91110 net.cpp:573] drop6 -> fc6 (in-place)
I1226 13:44:04.245095 91110 net.cpp:228] Setting up drop6
I1226 13:44:04.245133 91110 net.cpp:235] Top shape: 64 4096 (262144)
I1226 13:44:04.245158 91110 net.cpp:243] Memory required for data: 529030656
I1226 13:44:04.245185 91110 layer_factory.hpp:114] Creating layer fc7
I1226 13:44:04.245244 91110 net.cpp:178] Creating Layer fc7
I1226 13:44:04.245270 91110 net.cpp:612] fc7 <- fc6
I1226 13:44:04.245322 91110 net.cpp:586] fc7 -> fc7
I1226 13:44:04.294308 91279 net.cpp:228] Setting up fc6
I1226 13:44:04.294435 91279 net.cpp:235] Top shape: 64 4096 (262144)
I1226 13:44:04.294468 91279 net.cpp:243] Memory required for data: 526933504
I1226 13:44:04.294525 91279 layer_factory.hpp:114] Creating layer relu6
I1226 13:44:04.294622 91279 net.cpp:178] Creating Layer relu6
I1226 13:44:04.294754 91279 net.cpp:612] relu6 <- fc6
I1226 13:44:04.294800 91279 net.cpp:573] relu6 -> fc6 (in-place)
I1226 13:44:04.294884 91279 net.cpp:228] Setting up relu6
I1226 13:44:04.295030 91279 net.cpp:235] Top shape: 64 4096 (262144)
I1226 13:44:04.295061 91279 net.cpp:243] Memory required for data: 527982080
I1226 13:44:04.295105 91279 layer_factory.hpp:114] Creating layer drop6
I1226 13:44:04.295192 91279 net.cpp:178] Creating Layer drop6
I1226 13:44:04.295253 91279 net.cpp:612] drop6 <- fc6
I1226 13:44:04.295292 91279 net.cpp:573] drop6 -> fc6 (in-place)
I1226 13:44:04.295353 91279 net.cpp:228] Setting up drop6
I1226 13:44:04.295477 91279 net.cpp:235] Top shape: 64 4096 (262144)
I1226 13:44:04.295503 91279 net.cpp:243] Memory required for data: 529030656
I1226 13:44:04.295531 91279 layer_factory.hpp:114] Creating layer fc7
I1226 13:44:04.295634 91279 net.cpp:178] Creating Layer fc7
I1226 13:44:04.295678 91279 net.cpp:612] fc7 <- fc6
I1226 13:44:04.295747 91279 net.cpp:586] fc7 -> fc7
I1226 13:44:04.302523 98538 net.cpp:228] Setting up fc6
I1226 13:44:04.302642 98538 net.cpp:235] Top shape: 64 4096 (262144)
I1226 13:44:04.302677 98538 net.cpp:243] Memory required for data: 526933504
I1226 13:44:04.302784 98538 layer_factory.hpp:114] Creating layer relu6
I1226 13:44:04.302893 98538 net.cpp:178] Creating Layer relu6
I1226 13:44:04.302947 98538 net.cpp:612] relu6 <- fc6
I1226 13:44:04.303014 98538 net.cpp:573] relu6 -> fc6 (in-place)
I1226 13:44:04.303166 98538 net.cpp:228] Setting up relu6
I1226 13:44:04.303385 98538 net.cpp:235] Top shape: 64 4096 (262144)
I1226 13:44:04.303455 98538 net.cpp:243] Memory required for data: 527982080
I1226 13:44:04.303511 98538 layer_factory.hpp:114] Creating layer drop6
I1226 13:44:04.303586 98538 net.cpp:178] Creating Layer drop6
I1226 13:44:04.303643 98538 net.cpp:612] drop6 <- fc6
I1226 13:44:04.303714 98538 net.cpp:573] drop6 -> fc6 (in-place)
I1226 13:44:04.303792 98538 net.cpp:228] Setting up drop6
I1226 13:44:04.303846 98538 net.cpp:235] Top shape: 64 4096 (262144)
I1226 13:44:04.303889 98538 net.cpp:243] Memory required for data: 529030656
I1226 13:44:04.303974 98538 layer_factory.hpp:114] Creating layer fc7
I1226 13:44:04.304054 98538 net.cpp:178] Creating Layer fc7
I1226 13:44:04.304129 98538 net.cpp:612] fc7 <- fc6
I1226 13:44:04.304226 98538 net.cpp:586] fc7 -> fc7
I1226 13:44:04.481752 85984 net.cpp:228] Setting up fc6
I1226 13:44:04.481891 85984 net.cpp:235] Top shape: 64 4096 (262144)
I1226 13:44:04.481930 85984 net.cpp:243] Memory required for data: 526933504
I1226 13:44:04.482010 85984 layer_factory.hpp:114] Creating layer relu6
I1226 13:44:04.482120 85984 net.cpp:178] Creating Layer relu6
I1226 13:44:04.482172 85984 net.cpp:612] relu6 <- fc6
I1226 13:44:04.482220 85984 net.cpp:573] relu6 -> fc6 (in-place)
I1226 13:44:04.482318 85984 net.cpp:228] Setting up relu6
I1226 13:44:04.482494 85984 net.cpp:235] Top shape: 64 4096 (262144)
I1226 13:44:04.482533 85984 net.cpp:243] Memory required for data: 527982080
I1226 13:44:04.482584 85984 layer_factory.hpp:114] Creating layer drop6
I1226 13:44:04.482647 85984 net.cpp:178] Creating Layer drop6
I1226 13:44:04.482720 85984 net.cpp:612] drop6 <- fc6
I1226 13:44:04.482772 85984 net.cpp:573] drop6 -> fc6 (in-place)
I1226 13:44:04.482853 85984 net.cpp:228] Setting up drop6
I1226 13:44:04.482915 85984 net.cpp:235] Top shape: 64 4096 (262144)
I1226 13:44:04.482945 85984 net.cpp:243] Memory required for data: 529030656
I1226 13:44:04.482983 85984 layer_factory.hpp:114] Creating layer fc7
I1226 13:44:04.483084 85984 net.cpp:178] Creating Layer fc7
I1226 13:44:04.483130 85984 net.cpp:612] fc7 <- fc6
I1226 13:44:04.483178 85984 net.cpp:586] fc7 -> fc7
I1226 13:44:05.274713 85406 net.cpp:228] Setting up fc7
I1226 13:44:05.274827 85406 net.cpp:235] Top shape: 64 4096 (262144)
I1226 13:44:05.274858 85406 net.cpp:243] Memory required for data: 530079232
I1226 13:44:05.274914 85406 layer_factory.hpp:114] Creating layer relu7
I1226 13:44:05.274993 85406 net.cpp:178] Creating Layer relu7
I1226 13:44:05.275025 85406 net.cpp:612] relu7 <- fc7
I1226 13:44:05.275094 85406 net.cpp:573] relu7 -> fc7 (in-place)
I1226 13:44:05.275183 85406 net.cpp:228] Setting up relu7
I1226 13:44:05.275224 85406 net.cpp:235] Top shape: 64 4096 (262144)
I1226 13:44:05.275262 85406 net.cpp:243] Memory required for data: 531127808
I1226 13:44:05.275291 85406 layer_factory.hpp:114] Creating layer drop7
I1226 13:44:05.275331 85406 net.cpp:178] Creating Layer drop7
I1226 13:44:05.275357 85406 net.cpp:612] drop7 <- fc7
I1226 13:44:05.275401 85406 net.cpp:573] drop7 -> fc7 (in-place)
I1226 13:44:05.275450 85406 net.cpp:228] Setting up drop7
I1226 13:44:05.275485 85406 net.cpp:235] Top shape: 64 4096 (262144)
I1226 13:44:05.275507 85406 net.cpp:243] Memory required for data: 532176384
I1226 13:44:05.275534 85406 layer_factory.hpp:114] Creating layer fc8
I1226 13:44:05.275635 85406 net.cpp:178] Creating Layer fc8
I1226 13:44:05.275670 85406 net.cpp:612] fc8 <- fc7
I1226 13:44:05.275710 85406 net.cpp:586] fc8 -> fc8
I1226 13:44:05.842836 85406 net.cpp:228] Setting up fc8
I1226 13:44:05.842954 85406 net.cpp:235] Top shape: 64 1000 (64000)
I1226 13:44:05.842988 85406 net.cpp:243] Memory required for data: 532432384
I1226 13:44:05.843046 85406 layer_factory.hpp:114] Creating layer fc8_fc8_0_split
I1226 13:44:05.843133 85406 net.cpp:178] Creating Layer fc8_fc8_0_split
I1226 13:44:05.843183 85406 net.cpp:612] fc8_fc8_0_split <- fc8
I1226 13:44:05.843238 85406 net.cpp:586] fc8_fc8_0_split -> fc8_fc8_0_split_0
I1226 13:44:05.843328 85406 net.cpp:586] fc8_fc8_0_split -> fc8_fc8_0_split_1
I1226 13:44:05.843533 85406 net.cpp:228] Setting up fc8_fc8_0_split
I1226 13:44:05.843612 85406 net.cpp:235] Top shape: 64 1000 (64000)
I1226 13:44:05.843649 85406 net.cpp:235] Top shape: 64 1000 (64000)
I1226 13:44:05.843673 85406 net.cpp:243] Memory required for data: 532944384
I1226 13:44:05.843718 85406 layer_factory.hpp:114] Creating layer accuracy
I1226 13:44:05.843780 85406 net.cpp:178] Creating Layer accuracy
I1226 13:44:05.843814 85406 net.cpp:612] accuracy <- fc8_fc8_0_split_0
I1226 13:44:05.843858 85406 net.cpp:612] accuracy <- label_data_1_split_0
I1226 13:44:05.843900 85406 net.cpp:586] accuracy -> accuracy
…
I1226 13:44:05.870088 85406 net.cpp:307] data does not need backward computation.
I1226 13:44:05.870117 85406 net.cpp:349] This network produces output accuracy
I1226 13:44:05.870157 85406 net.cpp:349] This network produces output loss
I1226 13:44:05.870275 85406 net.cpp:363] Network initialization done.
I1226 13:44:05.870749 85406 solver.cpp:107] Solver scaffolding done.
I1226 13:44:05.870970 85406 caffe.cpp:212] Finetuning from /export/data1/stanford/hazy/gordon_bell/caffenet_knl/snapshot/caffenet_MN8_B1024/_iter_25000.caffemodel
I1226 13:44:06.176761 92417 net.cpp:228] Setting up fc7
I1226 13:44:06.176874 92417 net.cpp:235] Top shape: 64 4096 (262144)
I1226 13:44:06.176905 92417 net.cpp:243] Memory required for data: 530079232
I1226 13:44:06.176959 92417 layer_factory.hpp:114] Creating layer relu7
I1226 13:44:06.177034 92417 net.cpp:178] Creating Layer relu7
I1226 13:44:06.177067 92417 net.cpp:612] relu7 <- fc7
I1226 13:44:06.177130 92417 net.cpp:573] relu7 -> fc7 (in-place)
I1226 13:44:06.177253 92417 net.cpp:228] Setting up relu7
I1226 13:44:06.177356 92417 net.cpp:235] Top shape: 64 4096 (262144)
I1226 13:44:06.177381 92417 net.cpp:243] Memory required for data: 531127808
I1226 13:44:06.177410 92417 layer_factory.hpp:114] Creating layer drop7
I1226 13:44:06.177448 92417 net.cpp:178] Creating Layer drop7
I1226 13:44:06.177532 92417 net.cpp:612] drop7 <- fc7
I1226 13:44:06.177569 92417 net.cpp:573] drop7 -> fc7 (in-place)
I1226 13:44:06.177613 92417 net.cpp:228] Setting up drop7
I1226 13:44:06.177721 92417 net.cpp:235] Top shape: 64 4096 (262144)
I1226 13:44:06.177743 92417 net.cpp:243] Memory required for data: 532176384
I1226 13:44:06.177770 92417 layer_factory.hpp:114] Creating layer fc8
I1226 13:44:06.177845 92417 net.cpp:178] Creating Layer fc8
I1226 13:44:06.177881 92417 net.cpp:612] fc8 <- fc7
I1226 13:44:06.177922 92417 net.cpp:586] fc8 -> fc8
I1226 13:44:06.279958 94226 net.cpp:228] Setting up fc7
I1226 13:44:06.280079 94226 net.cpp:235] Top shape: 64 4096 (262144)
I1226 13:44:06.280112 94226 net.cpp:243] Memory required for data: 530079232
I1226 13:44:06.280201 94226 layer_factory.hpp:114] Creating layer relu7
I1226 13:44:06.280278 94226 net.cpp:178] Creating Layer relu7
I1226 13:44:06.280320 94226 net.cpp:612] relu7 <- fc7
I1226 13:44:06.280441 94226 net.cpp:573] relu7 -> fc7 (in-place)
I1226 13:44:06.280561 94226 net.cpp:228] Setting up relu7
I1226 13:44:06.280634 94226 net.cpp:235] Top shape: 64 4096 (262144)
I1226 13:44:06.280666 94226 net.cpp:243] Memory required for data: 531127808
I1226 13:44:06.280702 94226 layer_factory.hpp:114] Creating layer drop7
I1226 13:44:06.280748 94226 net.cpp:178] Creating Layer drop7
I1226 13:44:06.280781 94226 net.cpp:612] drop7 <- fc7
I1226 13:44:06.280818 94226 net.cpp:573] drop7 -> fc7 (in-place)
I1226 13:44:06.280869 94226 net.cpp:228] Setting up drop7
I1226 13:44:06.280907 94226 net.cpp:235] Top shape: 64 4096 (262144)
I1226 13:44:06.280931 94226 net.cpp:243] Memory required for data: 532176384
I1226 13:44:06.280962 94226 layer_factory.hpp:114] Creating layer fc8
I1226 13:44:06.281038 94226 net.cpp:178] Creating Layer fc8
I1226 13:44:06.281071 94226 net.cpp:612] fc8 <- fc7
I1226 13:44:06.281112 94226 net.cpp:586] fc8 -> fc8
I1226 13:44:06.493907 91110 net.cpp:228] Setting up fc7
I1226 13:44:06.494019 91110 net.cpp:235] Top shape: 64 4096 (262144)
I1226 13:44:06.494047 91110 net.cpp:243] Memory required for data: 530079232
I1226 13:44:06.494133 91110 layer_factory.hpp:114] Creating layer relu7
I1226 13:44:06.494199 91110 net.cpp:178] Creating Layer relu7
I1226 13:44:06.494231 91110 net.cpp:612] relu7 <- fc7
I1226 13:44:06.494279 91110 net.cpp:573] relu7 -> fc7 (in-place)
I1226 13:44:06.494387 91110 net.cpp:228] Setting up relu7
I1226 13:44:06.494436 91110 net.cpp:235] Top shape: 64 4096 (262144)
I1226 13:44:06.494460 91110 net.cpp:243] Memory required for data: 531127808
I1226 13:44:06.494490 91110 layer_factory.hpp:114] Creating layer drop7
I1226 13:44:06.494529 91110 net.cpp:178] Creating Layer drop7
I1226 13:44:06.494562 91110 net.cpp:612] drop7 <- fc7
I1226 13:44:06.494598 91110 net.cpp:573] drop7 -> fc7 (in-place)
I1226 13:44:06.494643 91110 net.cpp:228] Setting up drop7
I1226 13:44:06.494681 91110 net.cpp:235] Top shape: 64 4096 (262144)
I1226 13:44:06.494710 91110 net.cpp:243] Memory required for data: 532176384
I1226 13:44:06.494737 91110 layer_factory.hpp:114] Creating layer fc8
I1226 13:44:06.494791 91110 net.cpp:178] Creating Layer fc8
I1226 13:44:06.494823 91110 net.cpp:612] fc8 <- fc7
I1226 13:44:06.494874 91110 net.cpp:586] fc8 -> fc8
I1226 13:44:06.589990 91279 net.cpp:228] Setting up fc7
I1226 13:44:06.590103 91279 net.cpp:235] Top shape: 64 4096 (262144)
I1226 13:44:06.590132 91279 net.cpp:243] Memory required for data: 530079232
I1226 13:44:06.590248 91279 layer_factory.hpp:114] Creating layer relu7
I1226 13:44:06.590322 91279 net.cpp:178] Creating Layer relu7
I1226 13:44:06.590365 91279 net.cpp:612] relu7 <- fc7
I1226 13:44:06.590423 91279 net.cpp:573] relu7 -> fc7 (in-place)
I1226 13:44:06.590611 91279 net.cpp:228] Setting up relu7
I1226 13:44:06.590662 91279 net.cpp:235] Top shape: 64 4096 (262144)
I1226 13:44:06.590687 91279 net.cpp:243] Memory required for data: 531127808
I1226 13:44:06.590714 91279 layer_factory.hpp:114] Creating layer drop7
I1226 13:44:06.590751 91279 net.cpp:178] Creating Layer drop7
I1226 13:44:06.590776 91279 net.cpp:612] drop7 <- fc7
I1226 13:44:06.590812 91279 net.cpp:573] drop7 -> fc7 (in-place)
I1226 13:44:06.590862 91279 net.cpp:228] Setting up drop7
I1226 13:44:06.590903 91279 net.cpp:235] Top shape: 64 4096 (262144)
I1226 13:44:06.590929 91279 net.cpp:243] Memory required for data: 532176384
I1226 13:44:06.590966 91279 layer_factory.hpp:114] Creating layer fc8
I1226 13:44:06.591037 91279 net.cpp:178] Creating Layer fc8
I1226 13:44:06.591073 91279 net.cpp:612] fc8 <- fc7
I1226 13:44:06.591119 91279 net.cpp:586] fc8 -> fc8
I1226 13:44:06.604495 98538 net.cpp:228] Setting up fc7
I1226 13:44:06.604619 98538 net.cpp:235] Top shape: 64 4096 (262144)
I1226 13:44:06.604650 98538 net.cpp:243] Memory required for data: 530079232
I1226 13:44:06.604713 98538 layer_factory.hpp:114] Creating layer relu7
I1226 13:44:06.604817 98538 net.cpp:178] Creating Layer relu7
I1226 13:44:06.604869 98538 net.cpp:612] relu7 <- fc7
I1226 13:44:06.604912 98538 net.cpp:573] relu7 -> fc7 (in-place)
I1226 13:44:06.605006 98538 net.cpp:228] Setting up relu7
I1226 13:44:06.605089 98538 net.cpp:235] Top shape: 64 4096 (262144)
I1226 13:44:06.605121 98538 net.cpp:243] Memory required for data: 531127808
I1226 13:44:06.605159 98538 layer_factory.hpp:114] Creating layer drop7
I1226 13:44:06.605201 98538 net.cpp:178] Creating Layer drop7
I1226 13:44:06.605240 98538 net.cpp:612] drop7 <- fc7
I1226 13:44:06.605279 98538 net.cpp:573] drop7 -> fc7 (in-place)
I1226 13:44:06.605331 98538 net.cpp:228] Setting up drop7
I1226 13:44:06.605377 98538 net.cpp:235] Top shape: 64 4096 (262144)
I1226 13:44:06.605401 98538 net.cpp:243] Memory required for data: 532176384
I1226 13:44:06.605429 98538 layer_factory.hpp:114] Creating layer fc8
I1226 13:44:06.605514 98538 net.cpp:178] Creating Layer fc8
I1226 13:44:06.605551 98538 net.cpp:612] fc8 <- fc7
I1226 13:44:06.605592 98538 net.cpp:586] fc8 -> fc8
I1226 13:44:06.743015 92417 net.cpp:228] Setting up fc8
I1226 13:44:06.743322 92417 net.cpp:235] Top shape: 64 1000 (64000)
I1226 13:44:06.743365 92417 net.cpp:243] Memory required for data: 532432384
I1226 13:44:06.743419 92417 layer_factory.hpp:114] Creating layer fc8_fc8_0_split
I1226 13:44:06.743557 92417 net.cpp:178] Creating Layer fc8_fc8_0_split
I1226 13:44:06.743703 92417 net.cpp:612] fc8_fc8_0_split <- fc8
I1226 13:44:06.743757 92417 net.cpp:586] fc8_fc8_0_split -> fc8_fc8_0_split_0
I1226 13:44:06.743815 92417 net.cpp:586] fc8_fc8_0_split -> fc8_fc8_0_split_1
I1226 13:44:06.743899 92417 net.cpp:228] Setting up fc8_fc8_0_split
I1226 13:44:06.743949 92417 net.cpp:235] Top shape: 64 1000 (64000)
I1226 13:44:06.743981 92417 net.cpp:235] Top shape: 64 1000 (64000)
I1226 13:44:06.744004 92417 net.cpp:243] Memory required for data: 532944384
I1226 13:44:06.744060 92417 layer_factory.hpp:114] Creating layer accuracy
I1226 13:44:06.744230 92417 net.cpp:178] Creating Layer accuracy
I1226 13:44:06.744269 92417 net.cpp:612] accuracy <- fc8_fc8_0_split_0
I1226 13:44:06.744323 92417 net.cpp:612] accuracy <- label_data_1_split_0
I1226 13:44:06.744362 92417 net.cpp:586] accuracy -> accuracy
I1226 13:44:06.744410 92417 net.cpp:228] Setting up accuracy
I1226 13:44:06.744455 92417 net.cpp:235] Top shape: (1)
I1226 13:44:06.744505 92417 net.cpp:243] Memory required for data: 532944388
I1226 13:44:06.744534 92417 layer_factory.hpp:114] Creating layer loss
I1226 13:44:06.744580 92417 net.cpp:178] Creating Layer loss
I1226 13:44:06.744612 92417 net.cpp:612] loss <- fc8_fc8_0_split_1
I1226 13:44:06.744649 92417 net.cpp:612] loss <- label_data_1_split_1
I1226 13:44:06.744684 92417 net.cpp:586] loss -> loss
I1226 13:44:06.744742 92417 layer_factory.hpp:114] Creating layer loss
I1226 13:44:06.775776 85984 net.cpp:228] Setting up fc7
I1226 13:44:06.775895 85984 net.cpp:235] Top shape: 64 4096 (262144)
I1226 13:44:06.775933 85984 net.cpp:243] Memory required for data: 530079232
I1226 13:44:06.776016 85984 layer_factory.hpp:114] Creating layer relu7
I1226 13:44:06.776110 85984 net.cpp:178] Creating Layer relu7
I1226 13:44:06.776273 85984 net.cpp:612] relu7 <- fc7
I1226 13:44:06.776345 85984 net.cpp:573] relu7 -> fc7 (in-place)
I1226 13:44:06.776461 85984 net.cpp:228] Setting up relu7
I1226 13:44:06.776526 85984 net.cpp:235] Top shape: 64 4096 (262144)
I1226 13:44:06.776556 85984 net.cpp:243] Memory required for data: 531127808
I1226 13:44:06.776592 85984 layer_factory.hpp:114] Creating layer drop7
I1226 13:44:06.776639 85984 net.cpp:178] Creating Layer drop7
I1226 13:44:06.776705 85984 net.cpp:612] drop7 <- fc7
I1226 13:44:06.776757 85984 net.cpp:573] drop7 -> fc7 (in-place)
I1226 13:44:06.776814 85984 net.cpp:228] Setting up drop7
I1226 13:44:06.776859 85984 net.cpp:235] Top shape: 64 4096 (262144)
I1226 13:44:06.776891 85984 net.cpp:243] Memory required for data: 532176384
I1226 13:44:06.776928 85984 layer_factory.hpp:114] Creating layer fc8
I1226 13:44:06.777034 85984 net.cpp:178] Creating Layer fc8
I1226 13:44:06.777083 85984 net.cpp:612] fc8 <- fc7
I1226 13:44:06.777140 85984 net.cpp:586] fc8 -> fc8
I1226 13:44:06.776408 92417 net.cpp:228] Setting up loss
I1226 13:44:06.776551 92417 net.cpp:235] Top shape: (1)
…
I1226 13:44:07.090855 91110 net.cpp:307] data does not need backward computation.
I1226 13:44:07.090885 91110 net.cpp:349] This network produces output accuracy
I1226 13:44:07.090924 91110 net.cpp:349] This network produces output loss
I1226 13:44:07.091032 91110 net.cpp:363] Network initialization done.
I1226 13:44:07.091563 91110 solver.cpp:107] Solver scaffolding done.
I1226 13:44:07.091812 91110 caffe.cpp:212] Finetuning from /export/data1/stanford/hazy/gordon_bell/caffenet_knl/snapshot/caffenet_MN8_B1024/_iter_25000.caffemodel
I1226 13:44:07.159045 91279 net.cpp:228] Setting up fc8
I1226 13:44:07.159158 91279 net.cpp:235] Top shape: 64 1000 (64000)
I1226 13:44:07.159186 91279 net.cpp:243] Memory required for data: 532432384
I1226 13:44:07.159272 91279 layer_factory.hpp:114] Creating layer fc8_fc8_0_split
I1226 13:44:07.159353 91279 net.cpp:178] Creating Layer fc8_fc8_0_split
I1226 13:44:07.159392 91279 net.cpp:612] fc8_fc8_0_split <- fc8
I1226 13:44:07.159440 91279 net.cpp:586] fc8_fc8_0_split -> fc8_fc8_0_split_0
I1226 13:44:07.159497 91279 net.cpp:586] fc8_fc8_0_split -> fc8_fc8_0_split_1
I1226 13:44:07.159582 91279 net.cpp:228] Setting up fc8_fc8_0_split
I1226 13:44:07.159631 91279 net.cpp:235] Top shape: 64 1000 (64000)
I1226 13:44:07.159660 91279 net.cpp:235] Top shape: 64 1000 (64000)
I1226 13:44:07.159682 91279 net.cpp:243] Memory required for data: 532944384
I1226 13:44:07.159711 91279 layer_factory.hpp:114] Creating layer accuracy
I1226 13:44:07.159770 91279 net.cpp:178] Creating Layer accuracy
I1226 13:44:07.159801 91279 net.cpp:612] accuracy <- fc8_fc8_0_split_0
I1226 13:44:07.159831 91279 net.cpp:612] accuracy <- label_data_1_split_0
I1226 13:44:07.159873 91279 net.cpp:586] accuracy -> accuracy
I1226 13:44:07.159914 91279 net.cpp:228] Setting up accuracy
I1226 13:44:07.159948 91279 net.cpp:235] Top shape: (1)
I1226 13:44:07.159970 91279 net.cpp:243] Memory required for data: 532944388
I1226 13:44:07.160004 91279 layer_factory.hpp:114] Creating layer loss
I1226 13:44:07.160048 91279 net.cpp:178] Creating Layer loss
I1226 13:44:07.160080 91279 net.cpp:612] loss <- fc8_fc8_0_split_1
I1226 13:44:07.160109 91279 net.cpp:612] loss <- label_data_1_split_1
I1226 13:44:07.160142 91279 net.cpp:586] loss -> loss
I1226 13:44:07.160200 91279 layer_factory.hpp:114] Creating layer loss
I1226 13:44:07.170029 98538 net.cpp:228] Setting up fc8
I1226 13:44:07.170181 98538 net.cpp:235] Top shape: 64 1000 (64000)
I1226 13:44:07.170210 98538 net.cpp:243] Memory required for data: 532432384
I1226 13:44:07.170269 98538 layer_factory.hpp:114] Creating layer fc8_fc8_0_split
I1226 13:44:07.170358 98538 net.cpp:178] Creating Layer fc8_fc8_0_split
I1226 13:44:07.170405 98538 net.cpp:612] fc8_fc8_0_split <- fc8
I1226 13:44:07.170464 98538 net.cpp:586] fc8_fc8_0_split -> fc8_fc8_0_split_0
I1226 13:44:07.170516 98538 net.cpp:586] fc8_fc8_0_split -> fc8_fc8_0_split_1
I1226 13:44:07.170604 98538 net.cpp:228] Setting up fc8_fc8_0_split
I1226 13:44:07.170650 98538 net.cpp:235] Top shape: 64 1000 (64000)
I1226 13:44:07.170681 98538 net.cpp:235] Top shape: 64 1000 (64000)
I1226 13:44:07.170709 98538 net.cpp:243] Memory required for data: 532944384
I1226 13:44:07.170738 98538 layer_factory.hpp:114] Creating layer accuracy
I1226 13:44:07.170800 98538 net.cpp:178] Creating Layer accuracy
I1226 13:44:07.170831 98538 net.cpp:612] accuracy <- fc8_fc8_0_split_0
I1226 13:44:07.170871 98538 net.cpp:612] accuracy <- label_data_1_split_0
I1226 13:44:07.170909 98538 net.cpp:586] accuracy -> accuracy
…
I1226 13:44:10.451339 91279 caffe.cpp:392] Starting Multi-node Optimization in mpi environment
I1226 13:44:10.503213 98538 caffe.cpp:376] Configuring multinode setup
I1226 13:44:10.504649 98538 caffe.cpp:392] Starting Multi-node Optimization in mpi environment
I1226 13:44:10.615455 85984 caffe.cpp:376] Configuring multinode setup
I1226 13:44:10.616942 85984 caffe.cpp:392] Starting Multi-node Optimization in mpi environment
I1226 13:44:11.138417 91110 caffe.cpp:376] Configuring multinode setup
I1226 13:44:11.139839 91110 caffe.cpp:392] Starting Multi-node Optimization in mpi environment
I1226 13:44:31.235699 97018 net.cpp:228] Setting up fc6
I1226 13:44:31.236027 97018 net.cpp:235] Top shape: 64 4096 (262144)
I1226 13:44:31.236222 97018 net.cpp:243] Memory required for data: 526933504
I1226 13:44:31.236294 97018 layer_factory.hpp:114] Creating layer relu6
I1226 13:44:31.236424 97018 net.cpp:178] Creating Layer relu6
I1226 13:44:31.236479 97018 net.cpp:612] relu6 <- fc6
I1226 13:44:31.236526 97018 net.cpp:573] relu6 -> fc6 (in-place)
I1226 13:44:31.236680 97018 net.cpp:228] Setting up relu6
I1226 13:44:31.236778 97018 net.cpp:235] Top shape: 64 4096 (262144)
I1226 13:44:31.236809 97018 net.cpp:243] Memory required for data: 527982080
I1226 13:44:31.236872 97018 layer_factory.hpp:114] Creating layer drop6
I1226 13:44:31.236958 97018 net.cpp:178] Creating Layer drop6
I1226 13:44:31.236995 97018 net.cpp:612] drop6 <- fc6
I1226 13:44:31.237064 97018 net.cpp:573] drop6 -> fc6 (in-place)
I1226 13:44:31.237130 97018 net.cpp:228] Setting up drop6
I1226 13:44:31.237175 97018 net.cpp:235] Top shape: 64 4096 (262144)
I1226 13:44:31.237207 97018 net.cpp:243] Memory required for data: 529030656
I1226 13:44:31.237244 97018 layer_factory.hpp:114] Creating layer fc7
I1226 13:44:31.237310 97018 net.cpp:178] Creating Layer fc7
I1226 13:44:31.237344 97018 net.cpp:612] fc7 <- fc6
I1226 13:44:31.237392 97018 net.cpp:586] fc7 -> fc7
I1226 13:44:31.577175 94885 net.cpp:228] Setting up fc6
I1226 13:44:31.577445 94885 net.cpp:235] Top shape: 64 4096 (262144)
I1226 13:44:31.577503 94885 net.cpp:243] Memory required for data: 526933504
I1226 13:44:31.577596 94885 layer_factory.hpp:114] Creating layer relu6
I1226 13:44:31.577883 94885 net.cpp:178] Creating Layer relu6
I1226 13:44:31.577955 94885 net.cpp:612] relu6 <- fc6
I1226 13:44:31.578019 94885 net.cpp:573] relu6 -> fc6 (in-place)
I1226 13:44:31.578150 94885 net.cpp:228] Setting up relu6
I1226 13:44:31.578243 94885 net.cpp:235] Top shape: 64 4096 (262144)
I1226 13:44:31.578286 94885 net.cpp:243] Memory required for data: 527982080
I1226 13:44:31.578333 94885 layer_factory.hpp:114] Creating layer drop6
I1226 13:44:31.578409 94885 net.cpp:178] Creating Layer drop6
I1226 13:44:31.578469 94885 net.cpp:612] drop6 <- fc6
I1226 13:44:31.578553 94885 net.cpp:573] drop6 -> fc6 (in-place)
I1226 13:44:31.578649 94885 net.cpp:228] Setting up drop6
I1226 13:44:31.578729 94885 net.cpp:235] Top shape: 64 4096 (262144)
I1226 13:44:31.578769 94885 net.cpp:243] Memory required for data: 529030656
I1226 13:44:31.578847 94885 layer_factory.hpp:114] Creating layer fc7
I1226 13:44:31.578943 94885 net.cpp:178] Creating Layer fc7
I1226 13:44:31.578996 94885 net.cpp:612] fc7 <- fc6
I1226 13:44:31.579059 94885 net.cpp:586] fc7 -> fc7
I1226 13:44:44.312003 97018 net.cpp:228] Setting up fc7
I1226 13:44:44.312121 97018 net.cpp:235] Top shape: 64 4096 (262144)
I1226 13:44:44.312156 97018 net.cpp:243] Memory required for data: 530079232
I1226 13:44:44.312222 97018 layer_factory.hpp:114] Creating layer relu7
I1226 13:44:44.312399 97018 net.cpp:178] Creating Layer relu7
I1226 13:44:44.312451 97018 net.cpp:612] relu7 <- fc7
I1226 13:44:44.312496 97018 net.cpp:573] relu7 -> fc7 (in-place)
I1226 13:44:44.312595 97018 net.cpp:228] Setting up relu7
I1226 13:44:44.312650 97018 net.cpp:235] Top shape: 64 4096 (262144)
I1226 13:44:44.312678 97018 net.cpp:243] Memory required for data: 531127808
I1226 13:44:44.312708 97018 layer_factory.hpp:114] Creating layer drop7
I1226 13:44:44.312788 97018 net.cpp:178] Creating Layer drop7
I1226 13:44:44.312819 97018 net.cpp:612] drop7 <- fc7
I1226 13:44:44.312860 97018 net.cpp:573] drop7 -> fc7 (in-place)
I1226 13:44:44.312922 97018 net.cpp:228] Setting up drop7
I1226 13:44:44.312963 97018 net.cpp:235] Top shape: 64 4096 (262144)
I1226 13:44:44.312988 97018 net.cpp:243] Memory required for data: 532176384
I1226 13:44:44.313015 97018 layer_factory.hpp:114] Creating layer fc8
I1226 13:44:44.313091 97018 net.cpp:178] Creating Layer fc8
I1226 13:44:44.313127 97018 net.cpp:612] fc8 <- fc7
I1226 13:44:44.313187 97018 net.cpp:586] fc8 -> fc8
I1226 13:44:44.641553 94885 net.cpp:228] Setting up fc7
I1226 13:44:44.641705 94885 net.cpp:235] Top shape: 64 4096 (262144)
I1226 13:44:44.641752 94885 net.cpp:243] Memory required for data: 530079232
I1226 13:44:44.641911 94885 layer_factory.hpp:114] Creating layer relu7
I1226 13:44:44.642227 94885 net.cpp:178] Creating Layer relu7
I1226 13:44:44.642462 94885 net.cpp:612] relu7 <- fc7
I1226 13:44:44.642534 94885 net.cpp:573] relu7 -> fc7 (in-place)
I1226 13:44:44.642709 94885 net.cpp:228] Setting up relu7
I1226 13:44:44.642977 94885 net.cpp:235] Top shape: 64 4096 (262144)
I1226 13:44:44.643144 94885 net.cpp:243] Memory required for data: 531127808
I1226 13:44:44.643234 94885 layer_factory.hpp:114] Creating layer drop7
I1226 13:44:44.643462 94885 net.cpp:178] Creating Layer drop7
I1226 13:44:44.643509 94885 net.cpp:612] drop7 <- fc7
I1226 13:44:44.643730 94885 net.cpp:573] drop7 -> fc7 (in-place)
I1226 13:44:44.643803 94885 net.cpp:228] Setting up drop7
I1226 13:44:44.643893 94885 net.cpp:235] Top shape: 64 4096 (262144)
I1226 13:44:44.643929 94885 net.cpp:243] Memory required for data: 532176384
I1226 13:44:44.643970 94885 layer_factory.hpp:114] Creating layer fc8
I1226 13:44:44.644081 94885 net.cpp:178] Creating Layer fc8
I1226 13:44:44.644130 94885 net.cpp:612] fc8 <- fc7
I1226 13:44:44.644187 94885 net.cpp:586] fc8 -> fc8
I1226 13:44:47.507786 97018 net.cpp:228] Setting up fc8
I1226 13:44:47.507906 97018 net.cpp:235] Top shape: 64 1000 (64000)
I1226 13:44:47.507943 97018 net.cpp:243] Memory required for data: 532432384
I1226 13:44:47.508007 97018 layer_factory.hpp:114] Creating layer fc8_fc8_0_split
I1226 13:44:47.508090 97018 net.cpp:178] Creating Layer fc8_fc8_0_split
I1226 13:44:47.508138 97018 net.cpp:612] fc8_fc8_0_split <- fc8
I1226 13:44:47.508213 97018 net.cpp:586] fc8_fc8_0_split -> fc8_fc8_0_split_0
I1226 13:44:47.508275 97018 net.cpp:586] fc8_fc8_0_split -> fc8_fc8_0_split_1
I1226 13:44:47.508388 97018 net.cpp:228] Setting up fc8_fc8_0_split
I1226 13:44:47.508450 97018 net.cpp:235] Top shape: 64 1000 (64000)
I1226 13:44:47.508486 97018 net.cpp:235] Top shape: 64 1000 (64000)
I1226 13:44:47.508510 97018 net.cpp:243] Memory required for data: 532944384
I1226 13:44:47.508541 97018 layer_factory.hpp:114] Creating layer accuracy
I1226 13:44:47.508606 97018 net.cpp:178] Creating Layer accuracy
I1226 13:44:47.508643 97018 net.cpp:612] accuracy <- fc8_fc8_0_split_0
I1226 13:44:47.508677 97018 net.cpp:612] accuracy <- label_data_1_split_0
I1226 13:44:47.508755 97018 net.cpp:586] accuracy -> accuracy
…
