…
I1226 15:06:59.777495 92800 cpu_info.cpp:473] Number of OpenMP threads: 66
I1226 15:06:59.753146 97634 net.cpp:136] Initializing net from parameters: 
name: "AlexNet"
state {
  phase: TRAIN
  level: 0
  stage: ""
}
engine: "MKL2017"
layer {
  name: "data"
  type: "Data"
  top: "data"
  top: "label"
  include {
    phase: TRAIN
  }
  transform_param {
    mirror: true
    crop_size: 227
    mean_value: 104
    mean_value: 117
    mean_value: 123
  }
  data_param {
    source: "/export/data1/stanford/hazy/zjian/gorden_bell/ILSVRC2012_lmdb/db_8/ilsvrc12_train_lmdb_2"
    batch_size: 64
    backend: LMDB
  }
}
layer {
  name: "label_data_1_split"
  type: "Split"
  bottom: "label"
  top: "label_data_1_split_0"
  top: "label_data_1_split_1"
}
layer {
  name: "conv1"
  type: "Convolution"
  bottom: "data"
  top: "conv1"
  param {
    lr_mult: 1
    decay_mult: 1
  }
  param {
    lr_mult: 2
    decay_mult: 0
  }
  convolution_param {
    num_output: 96
    kernel_size: 11
    stride: 4
    weight_filler {
      type: "gaussian"
      std: 0.01
    }
    bias_filler {
      type: "constant"
      value: 0
    }
    engine: MKL2017
  }
}
layer {
  name: "relu1"
  type: "ReLU"
  bottom: "conv1"
  top: "conv1"
  relu_param {
    engine: MKL2017
  }
}
layer {
  name: "norm1"
  type: "LRN"
  bottom: "conv1"
  top: "norm1"
  lrn_param {
    local_size: 5
    alpha: 0.0001
    beta: 0.75
    engine: MKL2017
  }
}
layer {
  name: "pool1"
  type: "Pooling"
  bottom: "norm1"
  top: "pool1"
  pooling_param {
    pool: MAX
    kernel_size: 3
    stride: 2
    engine: MKL2017
  }
}
layer {
  name: "conv2"
  type: "Convolution"
  bottom: "pool1"
  top: "conv2"
  param {
    lr_mult: 1
    decay_mult: 1
  }
  param {
    lr_mult: 2
    decay_mult: 0
  }
  convolution_param {
    num_output: 256
    pad: 2
    kernel_size: 5
    group: 2
    weight_filler {
      type: "gaussian"
      std: 0.01
    }
    bias_filler {
      type: "constant"
      value: 0.1
    }
    engine: MKL2017
  }
}
layer {
  name: "relu2"
  type: "ReLU"
  bottom: "conv2"
  top: "conv2"
  relu_param {
    engine: MKL2017
  }
}
layer {
  name: "norm2"
  type: "LRN"
  bottom: "conv2"
  top: "norm2"
  lrn_param {
    local_size: 5
    alpha: 0.0001
    beta: 0.75
    engine: MKL2017
  }
}
layer {
  name: "pool2"
  type: "Pooling"
  bottom: "norm2"
  top: "pool2"
  pooling_param {
    pool: MAX
    kernel_size: 3
    stride: 2
    engine: MKL2017
  }
}
layer {
  name: "conv3"
  type: "Convolution"
  bottom: "pool2"
  top: "conv3"
  param {
    lr_mult: 1
    decay_mult: 1
  }
  param {
    lr_mult: 2
    decay_mult: 0
  }
  convolution_param {
    num_output: 384
    pad: 1
    kernel_size: 3
    weight_filler {
      type: "gaussian"
      std: 0.01
    }
    bias_filler {
      type: "constant"
      value: 0
    }
    engine: MKL2017
  }
}
layer {
  name: "relu3"
  type: "ReLU"
  bottom: "conv3"
  top: "conv3"
  relu_param {
    engine: MKL2017
  }
}
layer {
  name: "conv4"
  type: "Convolution"
  bottom: "conv3"
  top: "conv4"
  param {
    lr_mult: 1
    decay_mult: 1
  }
  param {
    lr_mult: 2
    decay_mult: 0
  }
  convolution_param {
    num_output: 384
    pad: 1
    kernel_size: 3
    group: 2
    weight_filler {
      type: "gaussian"
      std: 0.01
    }
    bias_filler {
      type: "constant"
      value: 0.1
    }
    engine: MKL2017
  }
}
layer {
  name: "relu4"
  type: "ReLU"
  bottom: "conv4"
  top: "conv4"
  relu_param {
    engine: MKL2017
  }
}
layer {
  name: "conv5"
  type: "Convolution"
  bottom: "conv4"
  top: "conv5"
  param {
    lr_mult: 1
    decay_mult: 1
  }
  param {
    lr_mult: 2
    decay_mult: 0
  }
  convolution_param {
    num_output: 256
    pad: 1
    kernel_size: 3
    group: 2
    weight_filler {
      type: "gaussian"
      std: 0.01
    }
    bias_filler {
      type: "constant"
      value: 0.1
    }
    engine: MKL2017
  }
}
layer {
  name: "relu5"
  type: "ReLU"
  bottom: "conv5"
  top: "conv5"
  relu_param {
    engine: MKL2017
  }
}
layer {
  name: "pool5"
  type: "Pooling"
  bottom: "conv5"
  top: "pool5"
  pooling_param {
    pool: MAX
    kernel_size: 3
    stride: 2
    engine: MKL2017
  }
}
layer {
  name: "fc6"
  type: "InnerProduct"
  bottom: "pool5"
  top: "fc6"
  param {
    lr_mult: 1
    decay_mult: 1
  }
  param {
    lr_mult: 2
    decay_mult: 0
  }
  inner_product_param {
    num_output: 4096
    weight_filler {
      type: "gaussian"
      std: 0.005
    }
    bias_filler {
      type: "constant"
      value: 0.1
    }
  }
}
layer {
  name: "relu6"
  type: "ReLU"
  bottom: "fc6"
  top: "fc6"
}
layer {
  name: "drop6"
  type: "Dropout"
  bottom: "fc6"
  top: "fc6"
  dropout_param {
    dropout_ratio: 0.5
  }
}
layer {
  name: "fc7"
  type: "InnerProduct"
  bottom: "fc6"
  top: "fc7"
  param {
    lr_mult: 1
    decay_mult: 1
  }
  param {
    lr_mult: 2
    decay_mult: 0
  }
  inner_product_param {
    num_output: 4096
    weight_filler {
      type: "gaussian"
      std: 0.005
    }
    bias_filler {
      type: "constant"
      value: 0.1
    }
  }
}
layer {
  name: "relu7"
  type: "ReLU"
  bottom: "fc7"
  top: "fc7"
}
layer {
  name: "drop7"
  type: "Dropout"
  bottom: "fc7"
  top: "fc7"
  dropout_param {
    dropout_ratio: 0.5
  }
}
layer {
  name: "fc8"
  type: "InnerProduct"
  bottom: "fc7"
  top: "fc8"
  param {
    lr_mult: 1
    decay_mult: 1
  }
  param {
    lr_mult: 2
    decay_mult: 0
  }
  inner_product_param {
    num_output: 1000
    weight_filler {
      type: "gaussian"
      std: 0.01
    }
    bias_filler {
      type: "constant"
      value: 0
    }
  }
}
layer {
  name: "fc8_fc8_0_split"
  type: "Split"
  bottom: "fc8"
  top: "fc8_fc8_0_split_0"
  top: "fc8_fc8_0_split_1"
}
layer {
  name: "accuracy"
  type: "Accuracy"
  bottom: "fc8_fc8_0_split_0"
  bottom: "label_data_1_split_0"
  top: "accuracy"
}
layer {
  name: "loss"
  type: "SoftmaxWithLoss"
  bottom: "fc8_fc8_0_split_1"
  bottom: "label_data_1_split_1"
  top: "loss"
}
I1226 15:06:59.782974 99457 net.cpp:136] Initializing net from parameters: 
name: "AlexNet"
state {
  phase: TRAIN
  level: 0
  stage: ""
}
engine: "MKL2017"
layer {
  name: "data"
  type: "Data"
  top: "data"
  top: "label"
  include {
    phase: TRAIN
  }
  transform_param {
    mirror: true
    crop_size: 227
    mean_value: 104
    mean_value: 117
    mean_value: 123
  }
  data_param {
    source: "/export/data1/stanford/hazy/zjian/gorden_bell/ILSVRC2012_lmdb/db_8/ilsvrc12_train_lmdb_1"
    batch_size: 64
    backend: LMDB
  }
}
layer {
  name: "label_data_1_split"
  type: "Split"
  bottom: "label"
  top: "label_data_1_split_0"
  top: "label_data_1_split_1"
}
layer {
  name: "conv1"
  type: "Convolution"
  bottom: "data"
  top: "conv1"
  param {
    lr_mult: 1
    decay_mult: 1
  }
  param {
    lr_mult: 2
    decay_mult: 0
  }
  convolution_param {
    num_output: 96
    kernel_size: 11
    stride: 4
    weight_filler {
      type: "gaussian"
      std: 0.01
    }
    bias_filler {
      type: "constant"
      value: 0
    }
    engine: MKL2017
  }
}
layer {
  name: "relu1"
  type: "ReLU"
  bottom: "conv1"
  top: "conv1"
  relu_param {
    engine: MKL2017
  }
}
layer {
  name: "norm1"
  type: "LRN"
  bottom: "conv1"
  top: "norm1"
  lrn_param {
    local_size: 5
    alpha: 0.0001
    beta: 0.75
    engine: MKL2017
  }
}
layer {
  name: "pool1"
  type: "Pooling"
  bottom: "norm1"
  top: "pool1"
  pooling_param {
    pool: MAX
    kernel_size: 3
    stride: 2
    engine: MKL2017
  }
}
layer {
  name: "conv2"
  type: "Convolution"
  bottom: "pool1"
  top: "conv2"
  param {
    lr_mult: 1
    decay_mult: 1
  }
  param {
    lr_mult: 2
    decay_mult: 0
  }
  convolution_param {
    num_output: 256
    pad: 2
    kernel_size: 5
    group: 2
    weight_filler {
      type: "gaussian"
      std: 0.01
    }
    bias_filler {
      type: "constant"
      value: 0.1
    }
    engine: MKL2017
  }
}
layer {
  name: "relu2"
  type: "ReLU"
  bottom: "conv2"
  top: "conv2"
  relu_param {
    engine: MKL2017
  }
}
layer {
  name: "norm2"
  type: "LRN"
  bottom: "conv2"
  top: "norm2"
  lrn_param {
    local_size: 5
    alpha: 0.0001
    beta: 0.75
    engine: MKL2017
  }
}
layer {
  name: "pool2"
  type: "Pooling"
  bottom: "norm2"
  top: "pool2"
  pooling_param {
    pool: MAX
    kernel_size: 3
    stride: 2
    engine: MKL2017
  }
}
layer {
  name: "conv3"
  type: "Convolution"
  bottom: "pool2"
  top: "conv3"
  param {
    lr_mult: 1
    decay_mult: 1
  }
  param {
    lr_mult: 2
    decay_mult: 0
  }
  convolution_param {
    num_output: 384
    pad: 1
    kernel_size: 3
    weight_filler {
      type: "gaussian"
      std: 0.01
    }
    bias_filler {
      type: "constant"
      value: 0
    }
    engine: MKL2017
  }
}
layer {
  name: "relu3"
  type: "ReLU"
  bottom: "conv3"
  top: "conv3"
  relu_param {
    engine: MKL2017
  }
}
layer {
  name: "conv4"
  type: "Convolution"
  bottom: "conv3"
  top: "conv4"
  param {
    lr_mult: 1
    decay_mult: 1
  }
  param {
    lr_mult: 2
    decay_mult: 0
  }
  convolution_param {
    num_output: 384
    pad: 1
    kernel_size: 3
    group: 2
    weight_filler {
      type: "gaussian"
      std: 0.01
    }
    bias_filler {
      type: "constant"
      value: 0.1
    }
    engine: MKL2017
  }
}
layer {
  name: "relu4"
  type: "ReLU"
  bottom: "conv4"
  top: "conv4"
  relu_param {
    engine: MKL2017
  }
}
layer {
  name: "conv5"
  type: "Convolution"
  bottom: "conv4"
  top: "conv5"
  param {
    lr_mult: 1
    decay_mult: 1
  }
  param {
    lr_mult: 2
    decay_mult: 0
  }
  convolution_param {
    num_output: 256
    pad: 1
    kernel_size: 3
    group: 2
    weight_filler {
      type: "gaussian"
      std: 0.01
    }
    bias_filler {
      type: "constant"
      value: 0.1
    }
    engine: MKL2017
  }
}
layer {
  name: "relu5"
  type: "ReLU"
  bottom: "conv5"
  top: "conv5"
  relu_param {
    engine: MKL2017
  }
}
layer {
  name: "pool5"
  type: "Pooling"
  bottom: "conv5"
  top: "pool5"
  pooling_param {
    pool: MAX
    kernel_size: 3
    stride: 2
    engine: MKL2017
  }
}
layer {
  name: "fc6"
  type: "InnerProduct"
  bottom: "pool5"
  top: "fc6"
  param {
    lr_mult: 1
    decay_mult: 1
  }
  param {
    lr_mult: 2
    decay_mult: 0
  }
  inner_product_param {
    num_output: 4096
    weight_filler {
      type: "gaussian"
      std: 0.005
    }
    bias_filler {
      type: "constant"
      value: 0.1
    }
  }
}
layer {
  name: "relu6"
  type: "ReLU"
  bottom: "fc6"
  top: "fc6"
}
layer {
  name: "drop6"
  type: "Dropout"
  bottom: "fc6"
  top: "fc6"
  dropout_param {
    dropout_ratio: 0.5
  }
}
layer {
  name: "fc7"
  type: "InnerProduct"
  bottom: "fc6"
  top: "fc7"
  param {
    lr_mult: 1
    decay_mult: 1
  }
  param {
    lr_mult: 2
    decay_mult: 0
  }
  inner_product_param {
    num_output: 4096
    weight_filler {
      type: "gaussian"
      std: 0.005
    }
    bias_filler {
      type: "constant"
      value: 0.1
    }
  }
}
layer {
  name: "relu7"
  type: "ReLU"
  bottom: "fc7"
  top: "fc7"
}
layer {
  name: "drop7"
  type: "Dropout"
  bottom: "fc7"
  top: "fc7"
  dropout_param {
    dropout_ratio: 0.5
  }
}
layer {
  name: "fc8"
  type: "InnerProduct"
  bottom: "fc7"
  top: "fc8"
  param {
    lr_mult: 1
    decay_mult: 1
  }
  param {
    lr_mult: 2
    decay_mult: 0
  }
  inner_product_param {
    num_output: 1000
    weight_filler {
      type: "gaussian"
      std: 0.01
    }
    bias_filler {
      type: "constant"
      value: 0
    }
  }
}
layer {
  name: "fc8_fc8_0_split"
  type: "Split"
  bottom: "fc8"
  top: "fc8_fc8_0_split_0"
  top: "fc8_fc8_0_split_1"
}
layer {
  name: "accuracy"
  type: "Accuracy"
  bottom: "fc8_fc8_0_split_0"
  bottom: "label_data_1_split_0"
  top: "accuracy"
}
layer {
  name: "loss"
  type: "SoftmaxWithLoss"
  bottom: "fc8_fc8_0_split_1"
  bottom: "label_data_1_split_1"
  top: "loss"
}
I1226 15:06:59.758994 98617 net.cpp:136] Initializing net from parameters: 
name: "AlexNet"
state {
  phase: TRAIN
  level: 0
  stage: ""
}
engine: "MKL2017"
layer {
  name: "data"
  type: "Data"
  top: "data"
  top: "label"
  include {
    phase: TRAIN
  }
  transform_param {
    mirror: true
    crop_size: 227
    mean_value: 104
    mean_value: 117
    mean_value: 123
  }
  data_param {
    source: "/export/data1/stanford/hazy/zjian/gorden_bell/ILSVRC2012_lmdb/db_8/ilsvrc12_train_lmdb_4"
    batch_size: 64
    backend: LMDB
  }
}
layer {
  name: "label_data_1_split"
  type: "Split"
  bottom: "label"
  top: "label_data_1_split_0"
  top: "label_data_1_split_1"
}
layer {
  name: "conv1"
  type: "Convolution"
  bottom: "data"
  top: "conv1"
  param {
    lr_mult: 1
    decay_mult: 1
  }
  param {
    lr_mult: 2
    decay_mult: 0
  }
  convolution_param {
    num_output: 96
    kernel_size: 11
    stride: 4
    weight_filler {
      type: "gaussian"
      std: 0.01
    }
    bias_filler {
      type: "constant"
      value: 0
    }
    engine: MKL2017
  }
}
layer {
  name: "relu1"
  type: "ReLU"
  bottom: "conv1"
  top: "conv1"
  relu_param {
    engine: MKL2017
  }
}
layer {
  name: "norm1"
  type: "LRN"
  bottom: "conv1"
  top: "norm1"
  lrn_param {
    local_size: 5
    alpha: 0.0001
    beta: 0.75
    engine: MKL2017
  }
}
layer {
  name: "pool1"
  type: "Pooling"
  bottom: "norm1"
  top: "pool1"
  pooling_param {
    pool: MAX
    kernel_size: 3
    stride: 2
    engine: MKL2017
  }
}
layer {
  name: "conv2"
  type: "Convolution"
  bottom: "pool1"
  top: "conv2"
  param {
    lr_mult: 1
    decay_mult: 1
  }
  param {
    lr_mult: 2
    decay_mult: 0
  }
  convolution_param {
    num_output: 256
    pad: 2
    kernel_size: 5
    group: 2
    weight_filler {
      type: "gaussian"
      std: 0.01
    }
    bias_filler {
      type: "constant"
      value: 0.1
    }
    engine: MKL2017
  }
}
layer {
  name: "relu2"
  type: "ReLU"
  bottom: "conv2"
  top: "conv2"
  relu_param {
    engine: MKL2017
  }
}
layer {
  name: "norm2"
  type: "LRN"
  bottom: "conv2"
  top: "norm2"
  lrn_param {
    local_size: 5
    alpha: 0.0001
    beta: 0.75
    engine: MKL2017
  }
}
layer {
  name: "pool2"
  type: "Pooling"
  bottom: "norm2"
  top: "pool2"
  pooling_param {
    pool: MAX
    kernel_size: 3
    stride: 2
    engine: MKL2017
  }
}
layer {
  name: "conv3"
  type: "Convolution"
  bottom: "pool2"
  top: "conv3"
  param {
    lr_mult: 1
    decay_mult: 1
  }
  param {
    lr_mult: 2
    decay_mult: 0
  }
  convolution_param {
    num_output: 384
    pad: 1
    kernel_size: 3
    weight_filler {
      type: "gaussian"
      std: 0.01
    }
    bias_filler {
      type: "constant"
      value: 0
    }
    engine: MKL2017
  }
}
layer {
  name: "relu3"
  type: "ReLU"
  bottom: "conv3"
  top: "conv3"
  relu_param {
    engine: MKL2017
  }
}
layer {
  name: "conv4"
  type: "Convolution"
  bottom: "conv3"
  top: "conv4"
  param {
    lr_mult: 1
    decay_mult: 1
  }
  param {
    lr_mult: 2
    decay_mult: 0
  }
  convolution_param {
    num_output: 384
    pad: 1
    kernel_size: 3
    group: 2
    weight_filler {
      type: "gaussian"
      std: 0.01
    }
    bias_filler {
      type: "constant"
      value: 0.1
    }
    engine: MKL2017
  }
}
layer {
  name: "relu4"
  type: "ReLU"
  bottom: "conv4"
  top: "conv4"
  relu_param {
    engine: MKL2017
  }
}
layer {
  name: "conv5"
  type: "Convolution"
  bottom: "conv4"
  top: "conv5"
  param {
    lr_mult: 1
    decay_mult: 1
  }
  param {
    lr_mult: 2
    decay_mult: 0
  }
  convolution_param {
    num_output: 256
    pad: 1
    kernel_size: 3
    group: 2
    weight_filler {
      type: "gaussian"
      std: 0.01
    }
    bias_filler {
      type: "constant"
      value: 0.1
    }
    engine: MKL2017
  }
}
layer {
  name: "relu5"
  type: "ReLU"
  bottom: "conv5"
  top: "conv5"
  relu_param {
    engine: MKL2017
  }
}
layer {
  name: "pool5"
  type: "Pooling"
  bottom: "conv5"
  top: "pool5"
  pooling_param {
    pool: MAX
    kernel_size: 3
    stride: 2
    engine: MKL2017
  }
}
layer {
  name: "fc6"
  type: "InnerProduct"
  bottom: "pool5"
  top: "fc6"
  param {
    lr_mult: 1
    decay_mult: 1
  }
  param {
    lr_mult: 2
    decay_mult: 0
  }
  inner_product_param {
    num_output: 4096
    weight_filler {
      type: "gaussian"
      std: 0.005
    }
    bias_filler {
      type: "constant"
      value: 0.1
    }
  }
}
layer {
  name: "relu6"
  type: "ReLU"
  bottom: "fc6"
  top: "fc6"
}
layer {
  name: "drop6"
  type: "Dropout"
  bottom: "fc6"
  top: "fc6"
  dropout_param {
    dropout_ratio: 0.5
  }
}
layer {
  name: "fc7"
  type: "InnerProduct"
  bottom: "fc6"
  top: "fc7"
  param {
    lr_mult: 1
    decay_mult: 1
  }
  param {
    lr_mult: 2
    decay_mult: 0
  }
  inner_product_param {
    num_output: 4096
    weight_filler {
      type: "gaussian"
      std: 0.005
    }
    bias_filler {
      type: "constant"
      value: 0.1
    }
  }
}
layer {
  name: "relu7"
  type: "ReLU"
  bottom: "fc7"
  top: "fc7"
}
layer {
  name: "drop7"
  type: "Dropout"
  bottom: "fc7"
  top: "fc7"
  dropout_param {
    dropout_ratio: 0.5
  }
}
layer {
  name: "fc8"
  type: "InnerProduct"
  bottom: "fc7"
  top: "fc8"
  param {
    lr_mult: 1
    decay_mult: 1
  }
  param {
    lr_mult: 2
    decay_mult: 0
  }
  inner_product_param {
    num_output: 1000
    weight_filler {
      type: "gaussian"
      std: 0.01
    }
    bias_filler {
      type: "constant"
      value: 0
    }
  }
}
layer {
  name: "fc8_fc8_0_split"
  type: "Split"
  bottom: "fc8"
  top: "fc8_fc8_0_split_0"
  top: "fc8_fc8_0_split_1"
}
layer {
  name: "accuracy"
  type: "Accuracy"
  bottom: "fc8_fc8_0_split_0"
  bottom: "label_data_1_split_0"
  top: "accuracy"
}
layer {
  name: "loss"
  type: "SoftmaxWithLoss"
  bottom: "fc8_fc8_0_split_1"
  bottom: "label_data_1_split_1"
  top: "loss"
}
I1226 15:06:59.775090 94141 net.cpp:136] Initializing net from parameters: 
name: "AlexNet"
state {
  phase: TRAIN
  level: 0
  stage: ""
}
engine: "MKL2017"
layer {
  name: "data"
  type: "Data"
  top: "data"
  top: "label"
  include {
    phase: TRAIN
  }
  transform_param {
    mirror: true
    crop_size: 227
    mean_value: 104
    mean_value: 117
    mean_value: 123
  }
  data_param {
    source: "/export/data1/stanford/hazy/zjian/gorden_bell/ILSVRC2012_lmdb/db_8/ilsvrc12_train_lmdb_5"
    batch_size: 64
    backend: LMDB
  }
}
layer {
  name: "label_data_1_split"
  type: "Split"
  bottom: "label"
  top: "label_data_1_split_0"
  top: "label_data_1_split_1"
}
layer {
  name: "conv1"
  type: "Convolution"
  bottom: "data"
  top: "conv1"
  param {
    lr_mult: 1
    decay_mult: 1
  }
  param {
    lr_mult: 2
    decay_mult: 0
  }
  convolution_param {
    num_output: 96
    kernel_size: 11
    stride: 4
    weight_filler {
      type: "gaussian"
      std: 0.01
    }
    bias_filler {
      type: "constant"
      value: 0
    }
    engine: MKL2017
  }
}
layer {
  name: "relu1"
  type: "ReLU"
  bottom: "conv1"
  top: "conv1"
  relu_param {
    engine: MKL2017
  }
}
layer {
  name: "norm1"
  type: "LRN"
  bottom: "conv1"
  top: "norm1"
  lrn_param {
    local_size: 5
    alpha: 0.0001
    beta: 0.75
    engine: MKL2017
  }
}
layer {
  name: "pool1"
  type: "Pooling"
  bottom: "norm1"
  top: "pool1"
  pooling_param {
    pool: MAX
    kernel_size: 3
    stride: 2
    engine: MKL2017
  }
}
layer {
  name: "conv2"
  type: "Convolution"
  bottom: "pool1"
  top: "conv2"
  param {
    lr_mult: 1
    decay_mult: 1
  }
  param {
    lr_mult: 2
    decay_mult: 0
  }
  convolution_param {
    num_output: 256
    pad: 2
    kernel_size: 5
    group: 2
    weight_filler {
      type: "gaussian"
      std: 0.01
    }
    bias_filler {
      type: "constant"
      value: 0.1
    }
    engine: MKL2017
  }
}
layer {
  name: "relu2"
  type: "ReLU"
  bottom: "conv2"
  top: "conv2"
  relu_param {
    engine: MKL2017
  }
}
layer {
  name: "norm2"
  type: "LRN"
  bottom: "conv2"
  top: "norm2"
  lrn_param {
    local_size: 5
    alpha: 0.0001
    beta: 0.75
    engine: MKL2017
  }
}
layer {
  name: "pool2"
  type: "Pooling"
  bottom: "norm2"
  top: "pool2"
  pooling_param {
    pool: MAX
    kernel_size: 3
    stride: 2
    engine: MKL2017
  }
}
layer {
  name: "conv3"
  type: "Convolution"
  bottom: "pool2"
  top: "conv3"
  param {
    lr_mult: 1
    decay_mult: 1
  }
  param {
    lr_mult: 2
    decay_mult: 0
  }
  convolution_param {
    num_output: 384
    pad: 1
    kernel_size: 3
    weight_filler {
      type: "gaussian"
      std: 0.01
    }
    bias_filler {
      type: "constant"
      value: 0
    }
    engine: MKL2017
  }
}
layer {
  name: "relu3"
  type: "ReLU"
  bottom: "conv3"
  top: "conv3"
  relu_param {
    engine: MKL2017
  }
}
layer {
  name: "conv4"
  type: "Convolution"
  bottom: "conv3"
  top: "conv4"
  param {
    lr_mult: 1
    decay_mult: 1
  }
  param {
    lr_mult: 2
    decay_mult: 0
  }
  convolution_param {
    num_output: 384
    pad: 1
    kernel_size: 3
    group: 2
    weight_filler {
      type: "gaussian"
      std: 0.01
    }
    bias_filler {
      type: "constant"
      value: 0.1
    }
    engine: MKL2017
  }
}
layer {
  name: "relu4"
  type: "ReLU"
  bottom: "conv4"
  top: "conv4"
  relu_param {
    engine: MKL2017
  }
}
layer {
  name: "conv5"
  type: "Convolution"
  bottom: "conv4"
  top: "conv5"
  param {
    lr_mult: 1
    decay_mult: 1
  }
  param {
    lr_mult: 2
    decay_mult: 0
  }
  convolution_param {
    num_output: 256
    pad: 1
    kernel_size: 3
    group: 2
    weight_filler {
      type: "gaussian"
      std: 0.01
    }
    bias_filler {
      type: "constant"
      value: 0.1
    }
    engine: MKL2017
  }
}
layer {
  name: "relu5"
  type: "ReLU"
  bottom: "conv5"
  top: "conv5"
  relu_param {
    engine: MKL2017
  }
}
layer {
  name: "pool5"
  type: "Pooling"
  bottom: "conv5"
  top: "pool5"
  pooling_param {
    pool: MAX
    kernel_size: 3
    stride: 2
    engine: MKL2017
  }
}
layer {
  name: "fc6"
  type: "InnerProduct"
  bottom: "pool5"
  top: "fc6"
  param {
    lr_mult: 1
    decay_mult: 1
  }
  param {
    lr_mult: 2
    decay_mult: 0
  }
  inner_product_param {
    num_output: 4096
    weight_filler {
      type: "gaussian"
      std: 0.005
    }
    bias_filler {
      type: "constant"
      value: 0.1
    }
  }
}
layer {
  name: "relu6"
  type: "ReLU"
  bottom: "fc6"
  top: "fc6"
}
layer {
  name: "drop6"
  type: "Dropout"
  bottom: "fc6"
  top: "fc6"
  dropout_param {
    dropout_ratio: 0.5
  }
}
layer {
  name: "fc7"
  type: "InnerProduct"
  bottom: "fc6"
  top: "fc7"
  param {
    lr_mult: 1
    decay_mult: 1
  }
  param {
    lr_mult: 2
    decay_mult: 0
  }
  inner_product_param {
    num_output: 4096
    weight_filler {
      type: "gaussian"
      std: 0.005
    }
    bias_filler {
      type: "constant"
      value: 0.1
    }
  }
}
layer {
  name: "relu7"
  type: "ReLU"
  bottom: "fc7"
  top: "fc7"
}
layer {
  name: "drop7"
  type: "Dropout"
  bottom: "fc7"
  top: "fc7"
  dropout_param {
    dropout_ratio: 0.5
  }
}
layer {
  name: "fc8"
  type: "InnerProduct"
  bottom: "fc7"
  top: "fc8"
  param {
    lr_mult: 1
    decay_mult: 1
  }
  param {
    lr_mult: 2
    decay_mult: 0
  }
  inner_product_param {
    num_output: 1000
    weight_filler {
      type: "gaussian"
      std: 0.01
    }
    bias_filler {
      type: "constant"
      value: 0
    }
  }
}
layer {
  name: "fc8_fc8_0_split"
  type: "Split"
  bottom: "fc8"
  top: "fc8_fc8_0_split_0"
  top: "fc8_fc8_0_split_1"
}
layer {
  name: "accuracy"
  type: "Accuracy"
  bottom: "fc8_fc8_0_split_0"
  bottom: "label_data_1_split_0"
  top: "accuracy"
}
layer {
  name: "loss"
  type: "SoftmaxWithLoss"
  bottom: "fc8_fc8_0_split_1"
  bottom: "label_data_1_split_1"
  top: "loss"
}
I1226 15:06:59.777825 92800 net.cpp:500] The NetState phase (0) differed from the phase (1) specified by a rule in layer data
I1226 15:06:59.779896 92800 net.cpp:136] Initializing net from parameters: 
name: "AlexNet"
state {
  phase: TRAIN
  level: 0
  stage: ""
}
engine: "MKL2017"
layer {
  name: "data"
  type: "Data"
  top: "data"
  top: "label"
  include {
    phase: TRAIN
  }
  transform_param {
    mirror: true
    crop_size: 227
    mean_value: 104
    mean_value: 117
    mean_value: 123
  }
  data_param {
    source: "/export/data1/stanford/hazy/zjian/gorden_bell/ILSVRC2012_lmdb/db_8/ilsvrc12_train_lmdb_3"
    batch_size: 64
    backend: LMDB
  }
}
layer {
  name: "label_data_1_split"
  type: "Split"
  bottom: "label"
  top: "label_data_1_split_0"
  top: "label_data_1_split_1"
}
layer {
  name: "conv1"
  type: "Convolution"
  bottom: "data"
  top: "conv1"
  param {
    lr_mult: 1
    decay_mult: 1
  }
  param {
    lr_mult: 2
    decay_mult: 0
  }
  convolution_param {
    num_output: 96
    kernel_size: 11
    stride: 4
    weight_filler {
      type: "gaussian"
      std: 0.01
    }
    bias_filler {
      type: "constant"
      value: 0
    }
    engine: MKL2017
  }
}
layer {
  name: "relu1"
  type: "ReLU"
  bottom: "conv1"
  top: "conv1"
  relu_param {
    engine: MKL2017
  }
}
layer {
  name: "norm1"
  type: "LRN"
  bottom: "conv1"
  top: "norm1"
  lrn_param {
    local_size: 5
    alpha: 0.0001
    beta: 0.75
    engine: MKL2017
  }
}
layer {
  name: "pool1"
  type: "Pooling"
  bottom: "norm1"
  top: "pool1"
  pooling_param {
    pool: MAX
    kernel_size: 3
    stride: 2
    engine: MKL2017
  }
}
layer {
  name: "conv2"
  type: "Convolution"
  bottom: "pool1"
  top: "conv2"
  param {
    lr_mult: 1
    decay_mult: 1
  }
  param {
    lr_mult: 2
    decay_mult: 0
  }
  convolution_param {
    num_output: 256
    pad: 2
    kernel_size: 5
    group: 2
    weight_filler {
      type: "gaussian"
      std: 0.01
    }
    bias_filler {
      type: "constant"
      value: 0.1
    }
    engine: MKL2017
  }
}
layer {
  name: "relu2"
  type: "ReLU"
  bottom: "conv2"
  top: "conv2"
  relu_param {
    engine: MKL2017
  }
}
layer {
  name: "norm2"
  type: "LRN"
  bottom: "conv2"
  top: "norm2"
  lrn_param {
    local_size: 5
    alpha: 0.0001
    beta: 0.75
    engine: MKL2017
  }
}
layer {
  name: "pool2"
  type: "Pooling"
  bottom: "norm2"
  top: "pool2"
  pooling_param {
    pool: MAX
    kernel_size: 3
    stride: 2
    engine: MKL2017
  }
}
layer {
  name: "conv3"
  type: "Convolution"
  bottom: "pool2"
  top: "conv3"
  param {
    lr_mult: 1
    decay_mult: 1
  }
  param {
    lr_mult: 2
    decay_mult: 0
  }
  convolution_param {
    num_output: 384
    pad: 1
    kernel_size: 3
    weight_filler {
      type: "gaussian"
      std: 0.01
    }
    bias_filler {
      type: "constant"
      value: 0
    }
    engine: MKL2017
  }
}
layer {
  name: "relu3"
  type: "ReLU"
  bottom: "conv3"
  top: "conv3"
  relu_param {
    engine: MKL2017
  }
}
layer {
  name: "conv4"
  type: "Convolution"
  bottom: "conv3"
  top: "conv4"
  param {
    lr_mult: 1
    decay_mult: 1
  }
  param {
    lr_mult: 2
    decay_mult: 0
  }
  convolution_param {
    num_output: 384
    pad: 1
    kernel_size: 3
    group: 2
    weight_filler {
      type: "gaussian"
      std: 0.01
    }
    bias_filler {
      type: "constant"
      value: 0.1
    }
    engine: MKL2017
  }
}
layer {
  name: "relu4"
  type: "ReLU"
  bottom: "conv4"
  top: "conv4"
  relu_param {
    engine: MKL2017
  }
}
layer {
  name: "conv5"
  type: "Convolution"
  bottom: "conv4"
  top: "conv5"
  param {
    lr_mult: 1
    decay_mult: 1
  }
  param {
    lr_mult: 2
    decay_mult: 0
  }
  convolution_param {
    num_output: 256
    pad: 1
    kernel_size: 3
    group: 2
    weight_filler {
      type: "gaussian"
      std: 0.01
    }
    bias_filler {
      type: "constant"
      value: 0.1
    }
    engine: MKL2017
  }
}
layer {
  name: "relu5"
  type: "ReLU"
  bottom: "conv5"
  top: "conv5"
  relu_param {
    engine: MKL2017
  }
}
layer {
  name: "pool5"
  type: "Pooling"
  bottom: "conv5"
  top: "pool5"
  pooling_param {
    pool: MAX
    kernel_size: 3
    stride: 2
    engine: MKL2017
  }
}
layer {
  name: "fc6"
  type: "InnerProduct"
  bottom: "pool5"
  top: "fc6"
  param {
    lr_mult: 1
    decay_mult: 1
  }
  param {
    lr_mult: 2
    decay_mult: 0
  }
  inner_product_param {
    num_output: 4096
    weight_filler {
      type: "gaussian"
      std: 0.005
    }
    bias_filler {
      type: "constant"
      value: 0.1
    }
  }
}
layer {
  name: "relu6"
  type: "ReLU"
  bottom: "fc6"
  top: "fc6"
}
layer {
  name: "drop6"
  type: "Dropout"
  bottom: "fc6"
  top: "fc6"
  dropout_param {
    dropout_ratio: 0.5
  }
}
layer {
  name: "fc7"
  type: "InnerProduct"
  bottom: "fc6"
  top: "fc7"
  param {
    lr_mult: 1
    decay_mult: 1
  }
  param {
    lr_mult: 2
    decay_mult: 0
  }
  inner_product_param {
    num_output: 4096
    weight_filler {
      type: "gaussian"
      std: 0.005
    }
    bias_filler {
      type: "constant"
      value: 0.1
    }
  }
}
layer {
  name: "relu7"
  type: "ReLU"
  bottom: "fc7"
  top: "fc7"
}
layer {
  name: "drop7"
  type: "Dropout"
  bottom: "fc7"
  top: "fc7"
  dropout_param {
    dropout_ratio: 0.5
  }
}
layer {
  name: "fc8"
  type: "InnerProduct"
  bottom: "fc7"
  top: "fc8"
  param {
    lr_mult: 1
    decay_mult: 1
  }
  param {
    lr_mult: 2
    decay_mult: 0
  }
  inner_product_param {
    num_output: 1000
    weight_filler {
      type: "gaussian"
      std: 0.01
    }
    bias_filler {
      type: "constant"
      value: 0
    }
  }
}
layer {
  name: "fc8_fc8_0_split"
  type: "Split"
  bottom: "fc8"
  top: "fc8_fc8_0_split_0"
  top: "fc8_fc8_0_split_1"
}
layer {
  name: "accuracy"
  type: "Accuracy"
  bottom: "fc8_fc8_0_split_0"
  bottom: "label_data_1_split_0"
  top: "accuracy"
}
layer {
  name: "loss"
  type: "SoftmaxWithLoss"
  bottom: "fc8_fc8_0_split_1"
  bottom: "label_data_1_split_1"
  top: "loss"
}
I1226 15:06:59.780973 91626 cpu_info.cpp:473] Number of OpenMP threads: 66
I1226 15:06:59.781431 91626 net.cpp:500] The NetState phase (0) differed from the phase (1) specified by a rule in layer data
I1226 15:06:59.795698 88575 cpu_info.cpp:473] Number of OpenMP threads: 66
I1226 15:06:59.796003 88575 net.cpp:500] The NetState phase (0) differed from the phase (1) specified by a rule in layer data
I1226 15:06:59.783586 91626 net.cpp:136] Initializing net from parameters: 
name: "AlexNet"
state {
  phase: TRAIN
  level: 0
  stage: ""
}
engine: "MKL2017"
layer {
  name: "data"
  type: "DummyData"
  top: "data"
  top: "label"
  include {
    phase: TRAIN
  }
  transform_param {
    mirror: true
    crop_size: 227
    mean_value: 104
    mean_value: 117
    mean_value: 123
  }
  dummy_data_param {
    data_filler {
      type: "gaussian"
      std: 1
    }
    data_filler {
      type: "constant"
      value: 0
    }
    shape {
      dim: 64
      dim: 3
      dim: 227
      dim: 227
    }
    shape {
      dim: 64
      dim: 1
      dim: 1
      dim: 1
    }
  }
}
layer {
  name: "label_data_1_split"
  type: "Split"
  bottom: "label"
  top: "label_data_1_split_0"
  top: "label_data_1_split_1"
}
layer {
  name: "conv1"
  type: "Convolution"
  bottom: "data"
  top: "conv1"
  param {
    lr_mult: 1
    decay_mult: 1
  }
  param {
    lr_mult: 2
    decay_mult: 0
  }
  convolution_param {
    num_output: 96
    kernel_size: 11
    stride: 4
    weight_filler {
      type: "gaussian"
      std: 0.01
    }
    bias_filler {
      type: "constant"
      value: 0
    }
    engine: MKL2017
  }
}
layer {
  name: "relu1"
  type: "ReLU"
  bottom: "conv1"
  top: "conv1"
  relu_param {
    engine: MKL2017
  }
}
layer {
  name: "norm1"
  type: "LRN"
  bottom: "conv1"
  top: "norm1"
  lrn_param {
    local_size: 5
    alpha: 0.0001
    beta: 0.75
    engine: MKL2017
  }
}
layer {
  name: "pool1"
  type: "Pooling"
  bottom: "norm1"
  top: "pool1"
  pooling_param {
    pool: MAX
    kernel_size: 3
    stride: 2
    engine: MKL2017
  }
}
layer {
  name: "conv2"
  type: "Convolution"
  bottom: "pool1"
  top: "conv2"
  param {
    lr_mult: 1
    decay_mult: 1
  }
  param {
    lr_mult: 2
    decay_mult: 0
  }
  convolution_param {
    num_output: 256
    pad: 2
    kernel_size: 5
    group: 2
    weight_filler {
      type: "gaussian"
      std: 0.01
    }
    bias_filler {
      type: "constant"
      value: 0.1
    }
    engine: MKL2017
  }
}
layer {
  name: "relu2"
  type: "ReLU"
  bottom: "conv2"
  top: "conv2"
  relu_param {
    engine: MKL2017
  }
}
layer {
  name: "norm2"
  type: "LRN"
  bottom: "conv2"
  top: "norm2"
  lrn_param {
    local_size: 5
    alpha: 0.0001
    beta: 0.75
    engine: MKL2017
  }
}
layer {
  name: "pool2"
  type: "Pooling"
  bottom: "norm2"
  top: "pool2"
  pooling_param {
    pool: MAX
    kernel_size: 3
    stride: 2
    engine: MKL2017
  }
}
layer {
  name: "conv3"
  type: "Convolution"
  bottom: "pool2"
  top: "conv3"
  param {
    lr_mult: 1
    decay_mult: 1
  }
  param {
    lr_mult: 2
    decay_mult: 0
  }
  convolution_param {
    num_output: 384
    pad: 1
    kernel_size: 3
    weight_filler {
      type: "gaussian"
      std: 0.01
    }
    bias_filler {
      type: "constant"
      value: 0
    }
    engine: MKL2017
  }
}
layer {
  name: "relu3"
  type: "ReLU"
  bottom: "conv3"
  top: "conv3"
  relu_param {
    engine: MKL2017
  }
}
layer {
  name: "conv4"
  type: "Convolution"
  bottom: "conv3"
  top: "conv4"
  param {
    lr_mult: 1
    decay_mult: 1
  }
  param {
    lr_mult: 2
    decay_mult: 0
  }
  convolution_param {
    num_output: 384
    pad: 1
    kernel_size: 3
    group: 2
    weight_filler {
      type: "gaussian"
      std: 0.01
    }
    bias_filler {
      type: "constant"
      value: 0.1
    }
    engine: MKL2017
  }
}
layer {
  name: "relu4"
  type: "ReLU"
  bottom: "conv4"
  top: "conv4"
  relu_param {
    engine: MKL2017
  }
}
layer {
  name: "conv5"
  type: "Convolution"
  bottom: "conv4"
  top: "conv5"
  param {
    lr_mult: 1
    decay_mult: 1
  }
  param {
    lr_mult: 2
    decay_mult: 0
  }
  convolution_param {
    num_output: 256
    pad: 1
    kernel_size: 3
    group: 2
    weight_filler {
      type: "gaussian"
      std: 0.01
    }
    bias_filler {
      type: "constant"
      value: 0.1
    }
    engine: MKL2017
  }
}
layer {
  name: "relu5"
  type: "ReLU"
  bottom: "conv5"
  top: "conv5"
  relu_param {
    engine: MKL2017
  }
}
layer {
  name: "pool5"
  type: "Pooling"
  bottom: "conv5"
  top: "pool5"
  pooling_param {
    pool: MAX
    kernel_size: 3
    stride: 2
    engine: MKL2017
  }
}
layer {
  name: "fc6"
  type: "InnerProduct"
  bottom: "pool5"
  top: "fc6"
  param {
    lr_mult: 1
    decay_mult: 1
  }
  param {
    lr_mult: 2
    decay_mult: 0
  }
  inner_product_param {
    num_output: 4096
    weight_filler {
      type: "gaussian"
      std: 0.005
    }
    bias_filler {
      type: "constant"
      value: 0.1
    }
  }
}
layer {
  name: "relu6"
  type: "ReLU"
  bottom: "fc6"
  top: "fc6"
}
layer {
  name: "drop6"
  type: "Dropout"
  bottom: "fc6"
  top: "fc6"
  dropout_param {
    dropout_ratio: 0.5
  }
}
layer {
  name: "fc7"
  type: "InnerProduct"
  bottom: "fc6"
  top: "fc7"
  param {
    lr_mult: 1
    decay_mult: 1
  }
  param {
    lr_mult: 2
    decay_mult: 0
  }
  inner_product_param {
    num_output: 4096
    weight_filler {
      type: "gaussian"
      std: 0.005
    }
    bias_filler {
      type: "constant"
      value: 0.1
    }
  }
}
layer {
  name: "relu7"
  type: "ReLU"
  bottom: "fc7"
  top: "fc7"
}
layer {
  name: "drop7"
  type: "Dropout"
  bottom: "fc7"
  top: "fc7"
  dropout_param {
    dropout_ratio: 0.5
  }
}
layer {
  name: "fc8"
  type: "InnerProduct"
  bottom: "fc7"
  top: "fc8"
  param {
    lr_mult: 1
    decay_mult: 1
  }
  param {
    lr_mult: 2
    decay_mult: 0
  }
  inner_product_param {
    num_output: 1000
    weight_filler {
      type: "gaussian"
      std: 0.01
    }
    bias_filler {
      type: "constant"
      value: 0
    }
  }
}
layer {
  name: "fc8_fc8_0_split"
  type: "Split"
  bottom: "fc8"
  top: "fc8_fc8_0_split_0"
  top: "fc8_fc8_0_split_1"
}
layer {
  name: "accuracy"
  type: "Accuracy"
  bottom: "fc8_fc8_0_split_0"
  bottom: "label_data_1_split_0"
  top: "accuracy"
}
layer {
  name: "loss"
  type: "SoftmaxWithLoss"
  bottom: "fc8_fc8_0_split_1"
  bottom: "label_data_1_split_1"
  top: "loss"
}
I1226 15:06:59.797868 88575 net.cpp:136] Initializing net from parameters: 
name: "AlexNet"
state {
  phase: TRAIN
  level: 0
  stage: ""
}
engine: "MKL2017"
layer {
  name: "data"
  type: "Data"
  top: "data"
  top: "label"
  include {
    phase: TRAIN
  }
  transform_param {
    mirror: true
    crop_size: 227
    mean_value: 104
    mean_value: 117
    mean_value: 123
  }
  data_param {
    source: "/export/data1/stanford/hazy/zjian/gorden_bell/ILSVRC2012_lmdb/db_8/ilsvrc12_train_lmdb_6"
    batch_size: 64
    backend: LMDB
  }
}
layer {
  name: "label_data_1_split"
  type: "Split"
  bottom: "label"
  top: "label_data_1_split_0"
  top: "label_data_1_split_1"
}
layer {
  name: "conv1"
  type: "Convolution"
  bottom: "data"
  top: "conv1"
  param {
    lr_mult: 1
    decay_mult: 1
  }
  param {
    lr_mult: 2
    decay_mult: 0
  }
  convolution_param {
    num_output: 96
    kernel_size: 11
    stride: 4
    weight_filler {
      type: "gaussian"
      std: 0.01
    }
    bias_filler {
      type: "constant"
      value: 0
    }
    engine: MKL2017
  }
}
layer {
  name: "relu1"
  type: "ReLU"
  bottom: "conv1"
  top: "conv1"
  relu_param {
    engine: MKL2017
  }
}
layer {
  name: "norm1"
  type: "LRN"
  bottom: "conv1"
  top: "norm1"
  lrn_param {
    local_size: 5
    alpha: 0.0001
    beta: 0.75
    engine: MKL2017
  }
}
layer {
  name: "pool1"
  type: "Pooling"
  bottom: "norm1"
  top: "pool1"
  pooling_param {
    pool: MAX
    kernel_size: 3
    stride: 2
    engine: MKL2017
  }
}
layer {
  name: "conv2"
  type: "Convolution"
  bottom: "pool1"
  top: "conv2"
  param {
    lr_mult: 1
    decay_mult: 1
  }
  param {
    lr_mult: 2
    decay_mult: 0
  }
  convolution_param {
    num_output: 256
    pad: 2
    kernel_size: 5
    group: 2
    weight_filler {
      type: "gaussian"
      std: 0.01
    }
    bias_filler {
      type: "constant"
      value: 0.1
    }
    engine: MKL2017
  }
}
layer {
  name: "relu2"
  type: "ReLU"
  bottom: "conv2"
  top: "conv2"
  relu_param {
    engine: MKL2017
  }
}
layer {
  name: "norm2"
  type: "LRN"
  bottom: "conv2"
  top: "norm2"
  lrn_param {
    local_size: 5
    alpha: 0.0001
    beta: 0.75
    engine: MKL2017
  }
}
layer {
  name: "pool2"
  type: "Pooling"
  bottom: "norm2"
  top: "pool2"
  pooling_param {
    pool: MAX
    kernel_size: 3
    stride: 2
    engine: MKL2017
  }
}
layer {
  name: "conv3"
  type: "Convolution"
  bottom: "pool2"
  top: "conv3"
  param {
    lr_mult: 1
    decay_mult: 1
  }
  param {
    lr_mult: 2
    decay_mult: 0
  }
  convolution_param {
    num_output: 384
    pad: 1
    kernel_size: 3
    weight_filler {
      type: "gaussian"
      std: 0.01
    }
    bias_filler {
      type: "constant"
      value: 0
    }
    engine: MKL2017
  }
}
layer {
  name: "relu3"
  type: "ReLU"
  bottom: "conv3"
  top: "conv3"
  relu_param {
    engine: MKL2017
  }
}
layer {
  name: "conv4"
  type: "Convolution"
  bottom: "conv3"
  top: "conv4"
  param {
    lr_mult: 1
    decay_mult: 1
  }
  param {
    lr_mult: 2
    decay_mult: 0
  }
  convolution_param {
    num_output: 384
    pad: 1
    kernel_size: 3
    group: 2
    weight_filler {
      type: "gaussian"
      std: 0.01
    }
    bias_filler {
      type: "constant"
      value: 0.1
    }
    engine: MKL2017
  }
}
layer {
  name: "relu4"
  type: "ReLU"
  bottom: "conv4"
  top: "conv4"
  relu_param {
    engine: MKL2017
  }
}
layer {
  name: "conv5"
  type: "Convolution"
  bottom: "conv4"
  top: "conv5"
  param {
    lr_mult: 1
    decay_mult: 1
  }
  param {
    lr_mult: 2
    decay_mult: 0
  }
  convolution_param {
    num_output: 256
    pad: 1
    kernel_size: 3
    group: 2
    weight_filler {
      type: "gaussian"
      std: 0.01
    }
    bias_filler {
      type: "constant"
      value: 0.1
    }
    engine: MKL2017
  }
}
layer {
  name: "relu5"
  type: "ReLU"
  bottom: "conv5"
  top: "conv5"
  relu_param {
    engine: MKL2017
  }
}
layer {
  name: "pool5"
  type: "Pooling"
  bottom: "conv5"
  top: "pool5"
  pooling_param {
    pool: MAX
    kernel_size: 3
    stride: 2
    engine: MKL2017
  }
}
layer {
  name: "fc6"
  type: "InnerProduct"
  bottom: "pool5"
  top: "fc6"
  param {
    lr_mult: 1
    decay_mult: 1
  }
  param {
    lr_mult: 2
    decay_mult: 0
  }
  inner_product_param {
    num_output: 4096
    weight_filler {
      type: "gaussian"
      std: 0.005
    }
    bias_filler {
      type: "constant"
      value: 0.1
    }
  }
}
layer {
  name: "relu6"
  type: "ReLU"
  bottom: "fc6"
  top: "fc6"
}
layer {
  name: "drop6"
  type: "Dropout"
  bottom: "fc6"
  top: "fc6"
  dropout_param {
    dropout_ratio: 0.5
  }
}
layer {
  name: "fc7"
  type: "InnerProduct"
  bottom: "fc6"
  top: "fc7"
  param {
    lr_mult: 1
    decay_mult: 1
  }
  param {
    lr_mult: 2
    decay_mult: 0
  }
  inner_product_param {
    num_output: 4096
    weight_filler {
      type: "gaussian"
      std: 0.005
    }
    bias_filler {
      type: "constant"
      value: 0.1
    }
  }
}
layer {
  name: "relu7"
  type: "ReLU"
  bottom: "fc7"
  top: "fc7"
}
layer {
  name: "drop7"
  type: "Dropout"
  bottom: "fc7"
  top: "fc7"
  dropout_param {
    dropout_ratio: 0.5
  }
}
layer {
  name: "fc8"
  type: "InnerProduct"
  bottom: "fc7"
  top: "fc8"
  param {
    lr_mult: 1
    decay_mult: 1
  }
  param {
    lr_mult: 2
    decay_mult: 0
  }
  inner_product_param {
    num_output: 1000
    weight_filler {
      type: "gaussian"
      std: 0.01
    }
    bias_filler {
      type: "constant"
      value: 0
    }
  }
}
layer {
  name: "fc8_fc8_0_split"
  type: "Split"
  bottom: "fc8"
  top: "fc8_fc8_0_split_0"
  top: "fc8_fc8_0_split_1"
}
layer {
  name: "accuracy"
  type: "Accuracy"
  bottom: "fc8_fc8_0_split_0"
  bottom: "label_data_1_split_0"
  top: "accuracy"
}
layer {
  name: "loss"
  type: "SoftmaxWithLoss"
  bottom: "fc8_fc8_0_split_1"
  bottom: "label_data_1_split_1"
  top: "loss"
}
I1226 15:06:59.803740 91784 cpu_info.cpp:473] Number of OpenMP threads: 66
I1226 15:06:59.804042 91784 net.cpp:500] The NetState phase (0) differed from the phase (1) specified by a rule in layer data
I1226 15:06:59.777138 98617 layer_factory.hpp:114] Creating layer data
I1226 15:06:59.805827 91784 net.cpp:136] Initializing net from parameters: 
name: "AlexNet"
state {
  phase: TRAIN
  level: 0
  stage: ""
}
engine: "MKL2017"
layer {
  name: "data"
  type: "Data"
  top: "data"
  top: "label"
  include {
    phase: TRAIN
  }
  transform_param {
    mirror: true
    crop_size: 227
    mean_value: 104
    mean_value: 117
    mean_value: 123
  }
  data_param {
    source: "/export/data1/stanford/hazy/zjian/gorden_bell/ILSVRC2012_lmdb/db_8/ilsvrc12_train_lmdb_0"
    batch_size: 64
    backend: LMDB
  }
}
layer {
  name: "label_data_1_split"
  type: "Split"
  bottom: "label"
  top: "label_data_1_split_0"
  top: "label_data_1_split_1"
}
layer {
  name: "conv1"
  type: "Convolution"
  bottom: "data"
  top: "conv1"
  param {
    lr_mult: 1
    decay_mult: 1
  }
  param {
    lr_mult: 2
    decay_mult: 0
  }
  convolution_param {
    num_output: 96
    kernel_size: 11
    stride: 4
    weight_filler {
      type: "gaussian"
      std: 0.01
    }
    bias_filler {
      type: "constant"
      value: 0
    }
    engine: MKL2017
  }
}
layer {
  name: "relu1"
  type: "ReLU"
  bottom: "conv1"
  top: "conv1"
  relu_param {
    engine: MKL2017
  }
}
layer {
  name: "norm1"
  type: "LRN"
  bottom: "conv1"
  top: "norm1"
  lrn_param {
    local_size: 5
    alpha: 0.0001
    beta: 0.75
    engine: MKL2017
  }
}
layer {
  name: "pool1"
  type: "Pooling"
  bottom: "norm1"
  top: "pool1"
  pooling_param {
    pool: MAX
    kernel_size: 3
    stride: 2
    engine: MKL2017
  }
}
layer {
  name: "conv2"
  type: "Convolution"
  bottom: "pool1"
  top: "conv2"
  param {
    lr_mult: 1
    decay_mult: 1
  }
  param {
    lr_mult: 2
    decay_mult: 0
  }
  convolution_param {
    num_output: 256
    pad: 2
    kernel_size: 5
    group: 2
    weight_filler {
      type: "gaussian"
      std: 0.01
    }
    bias_filler {
      type: "constant"
      value: 0.1
    }
    engine: MKL2017
  }
}
layer {
  name: "relu2"
  type: "ReLU"
  bottom: "conv2"
  top: "conv2"
  relu_param {
    engine: MKL2017
  }
}
layer {
  name: "norm2"
  type: "LRN"
  bottom: "conv2"
  top: "norm2"
  lrn_param {
    local_size: 5
    alpha: 0.0001
    beta: 0.75
    engine: MKL2017
  }
}
layer {
  name: "pool2"
  type: "Pooling"
  bottom: "norm2"
  top: "pool2"
  pooling_param {
    pool: MAX
    kernel_size: 3
    stride: 2
    engine: MKL2017
  }
}
layer {
  name: "conv3"
  type: "Convolution"
  bottom: "pool2"
  top: "conv3"
  param {
    lr_mult: 1
    decay_mult: 1
  }
  param {
    lr_mult: 2
    decay_mult: 0
  }
  convolution_param {
    num_output: 384
    pad: 1
    kernel_size: 3
    weight_filler {
      type: "gaussian"
      std: 0.01
    }
    bias_filler {
      type: "constant"
      value: 0
    }
    engine: MKL2017
  }
}
layer {
  name: "relu3"
  type: "ReLU"
  bottom: "conv3"
  top: "conv3"
  relu_param {
    engine: MKL2017
  }
}
layer {
  name: "conv4"
  type: "Convolution"
  bottom: "conv3"
  top: "conv4"
  param {
    lr_mult: 1
    decay_mult: 1
  }
  param {
    lr_mult: 2
    decay_mult: 0
  }
  convolution_param {
    num_output: 384
    pad: 1
    kernel_size: 3
    group: 2
    weight_filler {
      type: "gaussian"
      std: 0.01
    }
    bias_filler {
      type: "constant"
      value: 0.1
    }
    engine: MKL2017
  }
}
layer {
  name: "relu4"
  type: "ReLU"
  bottom: "conv4"
  top: "conv4"
  relu_param {
    engine: MKL2017
  }
}
layer {
  name: "conv5"
  type: "Convolution"
  bottom: "conv4"
  top: "conv5"
  param {
    lr_mult: 1
    decay_mult: 1
  }
  param {
    lr_mult: 2
    decay_mult: 0
  }
  convolution_param {
    num_output: 256
    pad: 1
    kernel_size: 3
    group: 2
    weight_filler {
      type: "gaussian"
      std: 0.01
    }
    bias_filler {
      type: "constant"
      value: 0.1
    }
    engine: MKL2017
  }
}
layer {
  name: "relu5"
  type: "ReLU"
  bottom: "conv5"
  top: "conv5"
  relu_param {
    engine: MKL2017
  }
}
layer {
  name: "pool5"
  type: "Pooling"
  bottom: "conv5"
  top: "pool5"
  pooling_param {
    pool: MAX
    kernel_size: 3
    stride: 2
    engine: MKL2017
  }
}
layer {
  name: "fc6"
  type: "InnerProduct"
  bottom: "pool5"
  top: "fc6"
  param {
    lr_mult: 1
    decay_mult: 1
  }
  param {
    lr_mult: 2
    decay_mult: 0
  }
  inner_product_param {
    num_output: 4096
    weight_filler {
      type: "gaussian"
      std: 0.005
    }
    bias_filler {
      type: "constant"
      value: 0.1
    }
  }
}
layer {
  name: "relu6"
  type: "ReLU"
  bottom: "fc6"
  top: "fc6"
}
layer {
  name: "drop6"
  type: "Dropout"
  bottom: "fc6"
  top: "fc6"
  dropout_param {
    dropout_ratio: 0.5
  }
}
layer {
  name: "fc7"
  type: "InnerProduct"
  bottom: "fc6"
  top: "fc7"
  param {
    lr_mult: 1
    decay_mult: 1
  }
  param {
    lr_mult: 2
    decay_mult: 0
  }
  inner_product_param {
    num_output: 4096
    weight_filler {
      type: "gaussian"
      std: 0.005
    }
    bias_filler {
      type: "constant"
      value: 0.1
    }
  }
}
layer {
  name: "relu7"
  type: "ReLU"
  bottom: "fc7"
  top: "fc7"
}
layer {
  name: "drop7"
  type: "Dropout"
  bottom: "fc7"
  top: "fc7"
  dropout_param {
    dropout_ratio: 0.5
  }
}
layer {
  name: "fc8"
  type: "InnerProduct"
  bottom: "fc7"
  top: "fc8"
  param {
    lr_mult: 1
    decay_mult: 1
  }
  param {
    lr_mult: 2
    decay_mult: 0
  }
  inner_product_param {
    num_output: 1000
    weight_filler {
      type: "gaussian"
      std: 0.01
    }
    bias_filler {
      type: "constant"
      value: 0
    }
  }
}
layer {
  name: "fc8_fc8_0_split"
  type: "Split"
  bottom: "fc8"
  top: "fc8_fc8_0_split_0"
  top: "fc8_fc8_0_split_1"
}
layer {
  name: "accuracy"
  type: "Accuracy"
  bottom: "fc8_fc8_0_split_0"
  bottom: "label_data_1_split_0"
  top: "accuracy"
}
layer {
  name: "loss"
  type: "SoftmaxWithLoss"
  bottom: "fc8_fc8_0_split_1"
  bottom: "label_data_1_split_1"
  top: "loss"
}
I1226 15:06:59.779346 97634 layer_factory.hpp:114] Creating layer data
I1226 15:06:59.811429 86144 cpu_info.cpp:473] Number of OpenMP threads: 66
I1226 15:06:59.811916 86144 net.cpp:500] The NetState phase (0) differed from the phase (1) specified by a rule in layer data
I1226 15:06:59.814894 86144 net.cpp:136] Initializing net from parameters: 
name: "AlexNet"
state {
  phase: TRAIN
  level: 0
  stage: ""
}
engine: "MKL2017"
layer {
  name: "data"
  type: "Data"
  top: "data"
  top: "label"
  include {
    phase: TRAIN
  }
  transform_param {
    mirror: true
    crop_size: 227
    mean_value: 104
    mean_value: 117
    mean_value: 123
  }
  data_param {
    source: "/export/data1/stanford/hazy/zjian/gorden_bell/ILSVRC2012_lmdb/db_8/ilsvrc12_train_lmdb_7"
    batch_size: 64
    backend: LMDB
  }
}
layer {
  name: "label_data_1_split"
  type: "Split"
  bottom: "label"
  top: "label_data_1_split_0"
  top: "label_data_1_split_1"
}
layer {
  name: "conv1"
  type: "Convolution"
  bottom: "data"
  top: "conv1"
  param {
    lr_mult: 1
    decay_mult: 1
  }
  param {
    lr_mult: 2
    decay_mult: 0
  }
  convolution_param {
    num_output: 96
    kernel_size: 11
    stride: 4
    weight_filler {
      type: "gaussian"
      std: 0.01
    }
    bias_filler {
      type: "constant"
      value: 0
    }
    engine: MKL2017
  }
}
layer {
  name: "relu1"
  type: "ReLU"
  bottom: "conv1"
  top: "conv1"
  relu_param {
    engine: MKL2017
  }
}
layer {
  name: "norm1"
  type: "LRN"
  bottom: "conv1"
  top: "norm1"
  lrn_param {
    local_size: 5
    alpha: 0.0001
    beta: 0.75
    engine: MKL2017
  }
}
layer {
  name: "pool1"
  type: "Pooling"
  bottom: "norm1"
  top: "pool1"
  pooling_param {
    pool: MAX
    kernel_size: 3
    stride: 2
    engine: MKL2017
  }
}
layer {
  name: "conv2"
  type: "Convolution"
  bottom: "pool1"
  top: "conv2"
  param {
    lr_mult: 1
    decay_mult: 1
  }
  param {
    lr_mult: 2
    decay_mult: 0
  }
  convolution_param {
    num_output: 256
    pad: 2
    kernel_size: 5
    group: 2
    weight_filler {
      type: "gaussian"
      std: 0.01
    }
    bias_filler {
      type: "constant"
      value: 0.1
    }
    engine: MKL2017
  }
}
layer {
  name: "relu2"
  type: "ReLU"
  bottom: "conv2"
  top: "conv2"
  relu_param {
    engine: MKL2017
  }
}
layer {
  name: "norm2"
  type: "LRN"
  bottom: "conv2"
  top: "norm2"
  lrn_param {
    local_size: 5
    alpha: 0.0001
    beta: 0.75
    engine: MKL2017
  }
}
layer {
  name: "pool2"
  type: "Pooling"
  bottom: "norm2"
  top: "pool2"
  pooling_param {
    pool: MAX
    kernel_size: 3
    stride: 2
    engine: MKL2017
  }
}
layer {
  name: "conv3"
  type: "Convolution"
  bottom: "pool2"
  top: "conv3"
  param {
    lr_mult: 1
    decay_mult: 1
  }
  param {
    lr_mult: 2
    decay_mult: 0
  }
  convolution_param {
    num_output: 384
    pad: 1
    kernel_size: 3
    weight_filler {
      type: "gaussian"
      std: 0.01
    }
    bias_filler {
      type: "constant"
      value: 0
    }
    engine: MKL2017
  }
}
layer {
  name: "relu3"
  type: "ReLU"
  bottom: "conv3"
  top: "conv3"
  relu_param {
    engine: MKL2017
  }
}
layer {
  name: "conv4"
  type: "Convolution"
  bottom: "conv3"
  top: "conv4"
  param {
    lr_mult: 1
    decay_mult: 1
  }
  param {
    lr_mult: 2
    decay_mult: 0
  }
  convolution_param {
    num_output: 384
    pad: 1
    kernel_size: 3
    group: 2
    weight_filler {
      type: "gaussian"
      std: 0.01
    }
    bias_filler {
      type: "constant"
      value: 0.1
    }
    engine: MKL2017
  }
}
layer {
  name: "relu4"
  type: "ReLU"
  bottom: "conv4"
  top: "conv4"
  relu_param {
    engine: MKL2017
  }
}
layer {
  name: "conv5"
  type: "Convolution"
  bottom: "conv4"
  top: "conv5"
  param {
    lr_mult: 1
    decay_mult: 1
  }
  param {
    lr_mult: 2
    decay_mult: 0
  }
  convolution_param {
    num_output: 256
    pad: 1
    kernel_size: 3
    group: 2
    weight_filler {
      type: "gaussian"
      std: 0.01
    }
    bias_filler {
      type: "constant"
      value: 0.1
    }
    engine: MKL2017
  }
}
layer {
  name: "relu5"
  type: "ReLU"
  bottom: "conv5"
  top: "conv5"
  relu_param {
    engine: MKL2017
  }
}
layer {
  name: "pool5"
  type: "Pooling"
  bottom: "conv5"
  top: "pool5"
  pooling_param {
    pool: MAX
    kernel_size: 3
    stride: 2
    engine: MKL2017
  }
}
layer {
  name: "fc6"
  type: "InnerProduct"
  bottom: "pool5"
  top: "fc6"
  param {
    lr_mult: 1
    decay_mult: 1
  }
  param {
    lr_mult: 2
    decay_mult: 0
  }
  inner_product_param {
    num_output: 4096
    weight_filler {
      type: "gaussian"
      std: 0.005
    }
    bias_filler {
      type: "constant"
      value: 0.1
    }
  }
}
layer {
  name: "relu6"
  type: "ReLU"
  bottom: "fc6"
  top: "fc6"
}
layer {
  name: "drop6"
  type: "Dropout"
  bottom: "fc6"
  top: "fc6"
  dropout_param {
    dropout_ratio: 0.5
  }
}
layer {
  name: "fc7"
  type: "InnerProduct"
  bottom: "fc6"
  top: "fc7"
  param {
    lr_mult: 1
    decay_mult: 1
  }
  param {
    lr_mult: 2
    decay_mult: 0
  }
  inner_product_param {
    num_output: 4096
    weight_filler {
      type: "gaussian"
      std: 0.005
    }
    bias_filler {
      type: "constant"
      value: 0.1
    }
  }
}
layer {
  name: "relu7"
  type: "ReLU"
  bottom: "fc7"
  top: "fc7"
}
layer {
  name: "drop7"
  type: "Dropout"
  bottom: "fc7"
  top: "fc7"
  dropout_param {
    dropout_ratio: 0.5
  }
}
layer {
  name: "fc8"
  type: "InnerProduct"
  bottom: "fc7"
  top: "fc8"
  param {
    lr_mult: 1
    decay_mult: 1
  }
  param {
    lr_mult: 2
    decay_mult: 0
  }
  inner_product_param {
    num_output: 1000
    weight_filler {
      type: "gaussian"
      std: 0.01
    }
    bias_filler {
      type: "constant"
      value: 0
    }
  }
}
layer {
  name: "fc8_fc8_0_split"
  type: "Split"
  bottom: "fc8"
  top: "fc8_fc8_0_split_0"
  top: "fc8_fc8_0_split_1"
}
layer {
  name: "accuracy"
  type: "Accuracy"
  bottom: "fc8_fc8_0_split_0"
  bottom: "label_data_1_split_0"
  top: "accuracy"
}
layer {
  name: "loss"
  type: "SoftmaxWithLoss"
  bottom: "fc8_fc8_0_split_1"
  bottom: "label_data_1_split_1"
  top: "loss"
}
I1226 15:06:59.815196 86144 layer_factory.hpp:114] Creating layer data
I1226 15:06:59.818559 86144 net.cpp:178] Creating Layer data
I1226 15:06:59.818749 86144 net.cpp:586] data -> data
I1226 15:06:59.820739 99457 layer_factory.hpp:114] Creating layer data
I1226 15:06:59.818848 86144 net.cpp:586] data -> label
I1226 15:06:59.817539 94141 layer_factory.hpp:114] Creating layer data
…
I1226 15:06:59.888308 92802 db_lmdb.cpp:72] Opened lmdb /export/data1/stanford/hazy/zjian/gorden_bell/ILSVRC2012_lmdb/db_8/ilsvrc12_train_lmdb_3
I1226 15:06:59.904930 88575 data_layer.cpp:80] output data size: 64,3,227,227
I1226 15:06:59.909970 91787 db_lmdb.cpp:72] Opened lmdb /export/data1/stanford/hazy/zjian/gorden_bell/ILSVRC2012_lmdb/db_8/ilsvrc12_train_lmdb_0
I1226 15:06:59.896147 92800 data_layer.cpp:80] output data size: 64,3,227,227
I1226 15:06:59.919327 91784 data_layer.cpp:80] output data size: 64,3,227,227
I1226 15:06:59.913332 94141 data_layer.cpp:80] output data size: 64,3,227,227
I1226 15:06:59.951866 98617 net.cpp:228] Setting up data
I1226 15:06:59.952103 98617 net.cpp:235] Top shape: 64 3 227 227 (9893568)
I1226 15:06:59.952231 98617 net.cpp:235] Top shape: 64 (64)
I1226 15:06:59.952265 98617 net.cpp:243] Memory required for data: 39574528
I1226 15:06:59.952345 98617 layer_factory.hpp:114] Creating layer label_data_1_split
I1226 15:06:59.952474 98617 net.cpp:178] Creating Layer label_data_1_split
I1226 15:06:59.952622 98617 net.cpp:612] label_data_1_split <- label
I1226 15:06:59.952679 98617 net.cpp:586] label_data_1_split -> label_data_1_split_0
I1226 15:06:59.952744 98617 net.cpp:586] label_data_1_split -> label_data_1_split_1
I1226 15:06:59.974653 86144 net.cpp:228] Setting up data
I1226 15:06:59.974804 86144 net.cpp:235] Top shape: 64 3 227 227 (9893568)
I1226 15:06:59.974853 86144 net.cpp:235] Top shape: 64 (64)
I1226 15:06:59.974910 86144 net.cpp:243] Memory required for data: 39574528
I1226 15:06:59.974957 86144 layer_factory.hpp:114] Creating layer label_data_1_split
I1226 15:06:59.975175 86144 net.cpp:178] Creating Layer label_data_1_split
I1226 15:06:59.975347 86144 net.cpp:612] label_data_1_split <- label
I1226 15:06:59.975409 86144 net.cpp:586] label_data_1_split -> label_data_1_split_0
I1226 15:06:59.975546 86144 net.cpp:586] label_data_1_split -> label_data_1_split_1
I1226 15:06:59.964260 98617 net.cpp:228] Setting up label_data_1_split
I1226 15:06:59.964401 98617 net.cpp:235] Top shape: 64 (64)
I1226 15:06:59.964437 98617 net.cpp:235] Top shape: 64 (64)
I1226 15:06:59.964488 98617 net.cpp:243] Memory required for data: 39575040
I1226 15:06:59.964535 98617 layer_factory.hpp:114] Creating layer conv1
I1226 15:06:59.964638 98617 net.cpp:178] Creating Layer conv1
I1226 15:06:59.964676 98617 net.cpp:612] conv1 <- data
I1226 15:06:59.964726 98617 net.cpp:586] conv1 -> conv1
I1226 15:06:59.992465 99457 net.cpp:228] Setting up data
I1226 15:06:59.992627 99457 net.cpp:235] Top shape: 64 3 227 227 (9893568)
I1226 15:06:59.992822 99457 net.cpp:235] Top shape: 64 (64)
I1226 15:06:59.992970 99457 net.cpp:243] Memory required for data: 39574528
I1226 15:06:59.993016 99457 layer_factory.hpp:114] Creating layer label_data_1_split
I1226 15:06:59.993154 99457 net.cpp:178] Creating Layer label_data_1_split
I1226 15:06:59.993649 99457 net.cpp:612] label_data_1_split <- label
I1226 15:06:59.993847 99457 net.cpp:586] label_data_1_split -> label_data_1_split_0
I1226 15:06:59.994233 99457 net.cpp:586] label_data_1_split -> label_data_1_split_1
I1226 15:07:00.002385 88575 net.cpp:228] Setting up data
I1226 15:07:00.002570 88575 net.cpp:235] Top shape: 64 3 227 227 (9893568)
I1226 15:07:00.002614 88575 net.cpp:235] Top shape: 64 (64)
I1226 15:07:00.002637 88575 net.cpp:243] Memory required for data: 39574528
I1226 15:07:00.002768 88575 layer_factory.hpp:114] Creating layer label_data_1_split
I1226 15:07:00.003149 88575 net.cpp:178] Creating Layer label_data_1_split
I1226 15:07:00.003296 88575 net.cpp:612] label_data_1_split <- label
I1226 15:07:00.003388 88575 net.cpp:586] label_data_1_split -> label_data_1_split_0
I1226 15:07:00.003453 88575 net.cpp:586] label_data_1_split -> label_data_1_split_1
I1226 15:06:59.996284 86144 net.cpp:228] Setting up label_data_1_split
I1226 15:06:59.996438 86144 net.cpp:235] Top shape: 64 (64)
I1226 15:06:59.996479 86144 net.cpp:235] Top shape: 64 (64)
I1226 15:06:59.996533 86144 net.cpp:243] Memory required for data: 39575040
I1226 15:06:59.996582 86144 layer_factory.hpp:114] Creating layer conv1
I1226 15:06:59.996801 86144 net.cpp:178] Creating Layer conv1
I1226 15:06:59.996902 86144 net.cpp:612] conv1 <- data
I1226 15:06:59.996973 86144 net.cpp:586] conv1 -> conv1
I1226 15:06:59.993299 92800 net.cpp:228] Setting up data
I1226 15:06:59.993443 92800 net.cpp:235] Top shape: 64 3 227 227 (9893568)
I1226 15:06:59.993476 92800 net.cpp:235] Top shape: 64 (64)
I1226 15:06:59.993527 92800 net.cpp:243] Memory required for data: 39574528
I1226 15:06:59.993578 92800 layer_factory.hpp:114] Creating layer label_data_1_split
I1226 15:06:59.993664 92800 net.cpp:178] Creating Layer label_data_1_split
I1226 15:06:59.993788 92800 net.cpp:612] label_data_1_split <- label
I1226 15:06:59.993831 92800 net.cpp:586] label_data_1_split -> label_data_1_split_0
I1226 15:06:59.993886 92800 net.cpp:586] label_data_1_split -> label_data_1_split_1
I1226 15:07:00.018354 91784 net.cpp:228] Setting up data
I1226 15:07:00.018493 91784 net.cpp:235] Top shape: 64 3 227 227 (9893568)
I1226 15:07:00.018543 91784 net.cpp:235] Top shape: 64 (64)
I1226 15:07:00.018575 91784 net.cpp:243] Memory required for data: 39574528
I1226 15:07:00.018623 91784 layer_factory.hpp:114] Creating layer label_data_1_split
I1226 15:07:00.018728 91784 net.cpp:178] Creating Layer label_data_1_split
I1226 15:07:00.018887 91784 net.cpp:612] label_data_1_split <- label
I1226 15:07:00.018956 91784 net.cpp:586] label_data_1_split -> label_data_1_split_0
I1226 15:07:00.019023 91784 net.cpp:586] label_data_1_split -> label_data_1_split_1
I1226 15:07:00.022403 88575 net.cpp:228] Setting up label_data_1_split
I1226 15:07:00.022559 88575 net.cpp:235] Top shape: 64 (64)
I1226 15:07:00.022595 88575 net.cpp:235] Top shape: 64 (64)
I1226 15:07:00.022714 88575 net.cpp:243] Memory required for data: 39575040
I1226 15:07:00.022752 88575 layer_factory.hpp:114] Creating layer conv1
I1226 15:07:00.022845 88575 net.cpp:178] Creating Layer conv1
I1226 15:07:00.022882 88575 net.cpp:612] conv1 <- data
I1226 15:07:00.022949 88575 net.cpp:586] conv1 -> conv1
I1226 15:07:00.012284 94141 net.cpp:228] Setting up data
I1226 15:07:00.012408 94141 net.cpp:235] Top shape: 64 3 227 227 (9893568)
I1226 15:07:00.012449 94141 net.cpp:235] Top shape: 64 (64)
I1226 15:07:00.012475 94141 net.cpp:243] Memory required for data: 39574528
I1226 15:07:00.012514 94141 layer_factory.hpp:114] Creating layer label_data_1_split
I1226 15:07:00.012603 94141 net.cpp:178] Creating Layer label_data_1_split
I1226 15:07:00.012753 94141 net.cpp:612] label_data_1_split <- label
I1226 15:07:00.012800 94141 net.cpp:586] label_data_1_split -> label_data_1_split_0
I1226 15:07:00.012851 94141 net.cpp:586] label_data_1_split -> label_data_1_split_1
I1226 15:07:00.011143 92800 net.cpp:228] Setting up label_data_1_split
I1226 15:07:00.011245 92800 net.cpp:235] Top shape: 64 (64)
I1226 15:07:00.011278 92800 net.cpp:235] Top shape: 64 (64)
I1226 15:07:00.011302 92800 net.cpp:243] Memory required for data: 39575040
I1226 15:07:00.011364 92800 layer_factory.hpp:114] Creating layer conv1
I1226 15:07:00.011482 92800 net.cpp:178] Creating Layer conv1
I1226 15:07:00.011608 92800 net.cpp:612] conv1 <- data
I1226 15:07:00.018735 99457 net.cpp:228] Setting up label_data_1_split
I1226 15:07:00.011656 92800 net.cpp:586] conv1 -> conv1
I1226 15:07:00.018860 99457 net.cpp:235] Top shape: 64 (64)
I1226 15:07:00.018923 99457 net.cpp:235] Top shape: 64 (64)
I1226 15:07:00.019053 99457 net.cpp:243] Memory required for data: 39575040
I1226 15:07:00.019140 99457 layer_factory.hpp:114] Creating layer conv1
I1226 15:07:00.019352 99457 net.cpp:178] Creating Layer conv1
I1226 15:07:00.019747 99457 net.cpp:612] conv1 <- data
I1226 15:07:00.019901 99457 net.cpp:586] conv1 -> conv1
I1226 15:07:00.033325 91784 net.cpp:228] Setting up label_data_1_split
I1226 15:07:00.033452 91784 net.cpp:235] Top shape: 64 (64)
I1226 15:07:00.033493 91784 net.cpp:235] Top shape: 64 (64)
I1226 15:07:00.033520 91784 net.cpp:243] Memory required for data: 39575040
I1226 15:07:00.033577 91784 layer_factory.hpp:114] Creating layer conv1
I1226 15:07:00.033712 91784 net.cpp:178] Creating Layer conv1
I1226 15:07:00.033924 91784 net.cpp:612] conv1 <- data
I1226 15:07:00.034600 91784 net.cpp:586] conv1 -> conv1
I1226 15:07:00.024384 94141 net.cpp:228] Setting up label_data_1_split
I1226 15:07:00.024488 94141 net.cpp:235] Top shape: 64 (64)
I1226 15:07:00.024521 94141 net.cpp:235] Top shape: 64 (64)
I1226 15:07:00.024544 94141 net.cpp:243] Memory required for data: 39575040
I1226 15:07:00.024580 94141 layer_factory.hpp:114] Creating layer conv1
I1226 15:07:00.024675 94141 net.cpp:178] Creating Layer conv1
I1226 15:07:00.024739 94141 net.cpp:612] conv1 <- data
I1226 15:07:00.024781 94141 net.cpp:586] conv1 -> conv1
I1226 15:07:00.069142 91626 layer_factory.hpp:114] Creating layer data
I1226 15:07:00.069358 91626 net.cpp:178] Creating Layer data
I1226 15:07:00.069407 91626 net.cpp:586] data -> data
I1226 15:07:00.069494 91626 net.cpp:586] data -> label
I1226 15:07:00.101002 91626 net.cpp:228] Setting up data
I1226 15:07:00.101117 91626 net.cpp:235] Top shape: 64 3 227 227 (9893568)
I1226 15:07:00.101150 91626 net.cpp:235] Top shape: 64 1 1 1 (64)
I1226 15:07:00.101174 91626 net.cpp:243] Memory required for data: 39574528
I1226 15:07:00.101210 91626 layer_factory.hpp:114] Creating layer label_data_1_split
I1226 15:07:00.101316 91626 net.cpp:178] Creating Layer label_data_1_split
I1226 15:07:00.101349 91626 net.cpp:612] label_data_1_split <- label
I1226 15:07:00.101469 91626 net.cpp:586] label_data_1_split -> label_data_1_split_0
I1226 15:07:00.101512 91626 net.cpp:586] label_data_1_split -> label_data_1_split_1
I1226 15:07:00.113756 91626 net.cpp:228] Setting up label_data_1_split
I1226 15:07:00.113862 91626 net.cpp:235] Top shape: 64 1 1 1 (64)
I1226 15:07:00.113894 91626 net.cpp:235] Top shape: 64 1 1 1 (64)
I1226 15:07:00.113919 91626 net.cpp:243] Memory required for data: 39575040
I1226 15:07:00.113955 91626 layer_factory.hpp:114] Creating layer conv1
I1226 15:07:00.114056 91626 net.cpp:178] Creating Layer conv1
I1226 15:07:00.114089 91626 net.cpp:612] conv1 <- data
I1226 15:07:00.114140 91626 net.cpp:586] conv1 -> conv1
I1226 15:07:00.103425 97634 net.cpp:228] Setting up data
I1226 15:07:00.103567 97634 net.cpp:235] Top shape: 64 3 227 227 (9893568)
I1226 15:07:00.103618 97634 net.cpp:235] Top shape: 64 (64)
I1226 15:07:00.103647 97634 net.cpp:243] Memory required for data: 39574528
I1226 15:07:00.103688 97634 layer_factory.hpp:114] Creating layer label_data_1_split
I1226 15:07:00.103824 97634 net.cpp:178] Creating Layer label_data_1_split
I1226 15:07:00.103988 97634 net.cpp:612] label_data_1_split <- label
I1226 15:07:00.104055 97634 net.cpp:586] label_data_1_split -> label_data_1_split_0
I1226 15:07:00.104136 97634 net.cpp:586] label_data_1_split -> label_data_1_split_1
I1226 15:07:00.130420 97634 net.cpp:228] Setting up label_data_1_split
I1226 15:07:00.130537 97634 net.cpp:235] Top shape: 64 (64)
I1226 15:07:00.130573 97634 net.cpp:235] Top shape: 64 (64)
I1226 15:07:00.130599 97634 net.cpp:243] Memory required for data: 39575040
I1226 15:07:00.130638 97634 layer_factory.hpp:114] Creating layer conv1
I1226 15:07:00.130908 97634 net.cpp:178] Creating Layer conv1
I1226 15:07:00.131016 97634 net.cpp:612] conv1 <- data
I1226 15:07:00.131069 97634 net.cpp:586] conv1 -> conv1
I1226 15:07:00.171408 98617 net.cpp:228] Setting up conv1
I1226 15:07:00.171555 98617 net.cpp:235] Top shape: 64 96 55 55 (18585600)
I1226 15:07:00.171589 98617 net.cpp:243] Memory required for data: 113917440
I1226 15:07:00.171723 98617 layer_factory.hpp:114] Creating layer relu1
I1226 15:07:00.171921 98617 net.cpp:178] Creating Layer relu1
I1226 15:07:00.172021 98617 net.cpp:612] relu1 <- conv1
I1226 15:07:00.172159 98617 net.cpp:573] relu1 -> conv1 (in-place)
I1226 15:07:00.172549 98617 net.cpp:228] Setting up relu1
I1226 15:07:00.172662 98617 net.cpp:235] Top shape: 64 96 55 55 (18585600)
I1226 15:07:00.172715 98617 net.cpp:243] Memory required for data: 188259840
I1226 15:07:00.172768 98617 layer_factory.hpp:114] Creating layer norm1
I1226 15:07:00.172904 98617 net.cpp:178] Creating Layer norm1
I1226 15:07:00.172974 98617 net.cpp:612] norm1 <- conv1
I1226 15:07:00.173039 98617 net.cpp:586] norm1 -> norm1
I1226 15:07:00.173207 98617 net.cpp:228] Setting up norm1
I1226 15:07:00.173295 98617 net.cpp:235] Top shape: 64 96 55 55 (18585600)
I1226 15:07:00.173331 98617 net.cpp:243] Memory required for data: 262602240
I1226 15:07:00.173414 98617 layer_factory.hpp:114] Creating layer pool1
I1226 15:07:00.173527 98617 net.cpp:178] Creating Layer pool1
I1226 15:07:00.173593 98617 net.cpp:612] pool1 <- norm1
I1226 15:07:00.174202 98617 net.cpp:586] pool1 -> pool1
I1226 15:07:00.174481 98617 net.cpp:228] Setting up pool1
I1226 15:07:00.174572 98617 net.cpp:235] Top shape: 64 96 27 27 (4478976)
I1226 15:07:00.174607 98617 net.cpp:243] Memory required for data: 280518144
I1226 15:07:00.174649 98617 layer_factory.hpp:114] Creating layer conv2
I1226 15:07:00.174779 98617 net.cpp:178] Creating Layer conv2
I1226 15:07:00.174957 98617 net.cpp:612] conv2 <- pool1
I1226 15:07:00.175031 98617 net.cpp:586] conv2 -> conv2
I1226 15:07:00.208513 86144 net.cpp:228] Setting up conv1
I1226 15:07:00.208715 86144 net.cpp:235] Top shape: 64 96 55 55 (18585600)
I1226 15:07:00.208891 86144 net.cpp:243] Memory required for data: 113917440
I1226 15:07:00.209046 86144 layer_factory.hpp:114] Creating layer relu1
I1226 15:07:00.209563 86144 net.cpp:178] Creating Layer relu1
I1226 15:07:00.209743 86144 net.cpp:612] relu1 <- conv1
I1226 15:07:00.209858 86144 net.cpp:573] relu1 -> conv1 (in-place)
I1226 15:07:00.210011 86144 net.cpp:228] Setting up relu1
I1226 15:07:00.210096 86144 net.cpp:235] Top shape: 64 96 55 55 (18585600)
I1226 15:07:00.210130 86144 net.cpp:243] Memory required for data: 188259840
I1226 15:07:00.210260 86144 layer_factory.hpp:114] Creating layer norm1
I1226 15:07:00.210364 86144 net.cpp:178] Creating Layer norm1
I1226 15:07:00.210479 86144 net.cpp:612] norm1 <- conv1
I1226 15:07:00.210530 86144 net.cpp:586] norm1 -> norm1
I1226 15:07:00.210989 86144 net.cpp:228] Setting up norm1
I1226 15:07:00.211084 86144 net.cpp:235] Top shape: 64 96 55 55 (18585600)
I1226 15:07:00.211165 86144 net.cpp:243] Memory required for data: 262602240
I1226 15:07:00.211205 86144 layer_factory.hpp:114] Creating layer pool1
I1226 15:07:00.211326 86144 net.cpp:178] Creating Layer pool1
I1226 15:07:00.211395 86144 net.cpp:612] pool1 <- norm1
I1226 15:07:00.211457 86144 net.cpp:586] pool1 -> pool1
I1226 15:07:00.211740 86144 net.cpp:228] Setting up pool1
I1226 15:07:00.211834 86144 net.cpp:235] Top shape: 64 96 27 27 (4478976)
I1226 15:07:00.211879 86144 net.cpp:243] Memory required for data: 280518144
I1226 15:07:00.211917 86144 layer_factory.hpp:114] Creating layer conv2
I1226 15:07:00.212494 86144 net.cpp:178] Creating Layer conv2
I1226 15:07:00.212658 86144 net.cpp:612] conv2 <- pool1
I1226 15:07:00.212781 86144 net.cpp:586] conv2 -> conv2
I1226 15:07:00.232683 88575 net.cpp:228] Setting up conv1
I1226 15:07:00.232821 88575 net.cpp:235] Top shape: 64 96 55 55 (18585600)
I1226 15:07:00.232852 88575 net.cpp:243] Memory required for data: 113917440
I1226 15:07:00.232956 88575 layer_factory.hpp:114] Creating layer relu1
I1226 15:07:00.233618 88575 net.cpp:178] Creating Layer relu1
I1226 15:07:00.219879 92800 net.cpp:228] Setting up conv1
I1226 15:07:00.233685 88575 net.cpp:612] relu1 <- conv1
I1226 15:07:00.220010 92800 net.cpp:235] Top shape: 64 96 55 55 (18585600)
I1226 15:07:00.220047 92800 net.cpp:243] Memory required for data: 113917440
I1226 15:07:00.233768 88575 net.cpp:573] relu1 -> conv1 (in-place)
I1226 15:07:00.233922 88575 net.cpp:228] Setting up relu1
I1226 15:07:00.220247 92800 layer_factory.hpp:114] Creating layer relu1
I1226 15:07:00.234048 88575 net.cpp:235] Top shape: 64 96 55 55 (18585600)
I1226 15:07:00.220409 92800 net.cpp:178] Creating Layer relu1
I1226 15:07:00.234181 88575 net.cpp:243] Memory required for data: 188259840
I1226 15:07:00.234233 88575 layer_factory.hpp:114] Creating layer norm1
I1226 15:07:00.220470 92800 net.cpp:612] relu1 <- conv1
I1226 15:07:00.220541 92800 net.cpp:573] relu1 -> conv1 (in-place)
I1226 15:07:00.234330 88575 net.cpp:178] Creating Layer norm1
I1226 15:07:00.220703 92800 net.cpp:228] Setting up relu1
I1226 15:07:00.234361 88575 net.cpp:612] norm1 <- conv1
I1226 15:07:00.234413 88575 net.cpp:586] norm1 -> norm1
I1226 15:07:00.234544 88575 net.cpp:228] Setting up norm1
I1226 15:07:00.234611 88575 net.cpp:235] Top shape: 64 96 55 55 (18585600)
I1226 15:07:00.234637 88575 net.cpp:243] Memory required for data: 262602240
I1226 15:07:00.234674 88575 layer_factory.hpp:114] Creating layer pool1
I1226 15:07:00.221102 92800 net.cpp:235] Top shape: 64 96 55 55 (18585600)
I1226 15:07:00.234736 88575 net.cpp:178] Creating Layer pool1
I1226 15:07:00.221156 92800 net.cpp:243] Memory required for data: 188259840
I1226 15:07:00.234771 88575 net.cpp:612] pool1 <- norm1
I1226 15:07:00.221225 92800 layer_factory.hpp:114] Creating layer norm1
I1226 15:07:00.235167 88575 net.cpp:586] pool1 -> pool1
I1226 15:07:00.221380 92800 net.cpp:178] Creating Layer norm1
I1226 15:07:00.235347 88575 net.cpp:228] Setting up pool1
I1226 15:07:00.221462 92800 net.cpp:612] norm1 <- conv1
I1226 15:07:00.235401 88575 net.cpp:235] Top shape: 64 96 27 27 (4478976)
I1226 15:07:00.235425 88575 net.cpp:243] Memory required for data: 280518144
I1226 15:07:00.221513 92800 net.cpp:586] norm1 -> norm1
I1226 15:07:00.235517 88575 layer_factory.hpp:114] Creating layer conv2
I1226 15:07:00.221639 92800 net.cpp:228] Setting up norm1
I1226 15:07:00.235625 88575 net.cpp:178] Creating Layer conv2
I1226 15:07:00.221698 92800 net.cpp:235] Top shape: 64 96 55 55 (18585600)
I1226 15:07:00.221742 92800 net.cpp:243] Memory required for data: 262602240
I1226 15:07:00.235662 88575 net.cpp:612] conv2 <- pool1
I1226 15:07:00.221778 92800 layer_factory.hpp:114] Creating layer pool1
I1226 15:07:00.235714 88575 net.cpp:586] conv2 -> conv2
I1226 15:07:00.221897 92800 net.cpp:178] Creating Layer pool1
I1226 15:07:00.221938 92800 net.cpp:612] pool1 <- norm1
I1226 15:07:00.222237 92800 net.cpp:586] pool1 -> pool1
I1226 15:07:00.222421 92800 net.cpp:228] Setting up pool1
I1226 15:07:00.222483 92800 net.cpp:235] Top shape: 64 96 27 27 (4478976)
I1226 15:07:00.223217 92800 net.cpp:243] Memory required for data: 280518144
I1226 15:07:00.223289 92800 layer_factory.hpp:114] Creating layer conv2
I1226 15:07:00.223495 92800 net.cpp:178] Creating Layer conv2
I1226 15:07:00.223637 92800 net.cpp:612] conv2 <- pool1
I1226 15:07:00.223706 92800 net.cpp:586] conv2 -> conv2
I1226 15:07:00.241726 91784 net.cpp:228] Setting up conv1
I1226 15:07:00.241844 91784 net.cpp:235] Top shape: 64 96 55 55 (18585600)
I1226 15:07:00.241879 91784 net.cpp:243] Memory required for data: 113917440
I1226 15:07:00.242029 91784 layer_factory.hpp:114] Creating layer relu1
I1226 15:07:00.242146 91784 net.cpp:178] Creating Layer relu1
I1226 15:07:00.242179 91784 net.cpp:612] relu1 <- conv1
I1226 15:07:00.231374 99457 net.cpp:228] Setting up conv1
I1226 15:07:00.242321 91784 net.cpp:573] relu1 -> conv1 (in-place)
I1226 15:07:00.231492 99457 net.cpp:235] Top shape: 64 96 55 55 (18585600)
I1226 15:07:00.242504 91784 net.cpp:228] Setting up relu1
I1226 15:07:00.231531 99457 net.cpp:243] Memory required for data: 113917440
I1226 15:07:00.242571 91784 net.cpp:235] Top shape: 64 96 55 55 (18585600)
I1226 15:07:00.242630 91784 net.cpp:243] Memory required for data: 188259840
I1226 15:07:00.242668 91784 layer_factory.hpp:114] Creating layer norm1
I1226 15:07:00.242764 91784 net.cpp:178] Creating Layer norm1
I1226 15:07:00.242820 91784 net.cpp:612] norm1 <- conv1
I1226 15:07:00.242871 91784 net.cpp:586] norm1 -> norm1
I1226 15:07:00.232504 99457 layer_factory.hpp:114] Creating layer relu1
I1226 15:07:00.232671 99457 net.cpp:178] Creating Layer relu1
I1226 15:07:00.232729 99457 net.cpp:612] relu1 <- conv1
I1226 15:07:00.232782 99457 net.cpp:573] relu1 -> conv1 (in-place)
I1226 15:07:00.232913 99457 net.cpp:228] Setting up relu1
I1226 15:07:00.243559 91784 net.cpp:228] Setting up norm1
I1226 15:07:00.232971 99457 net.cpp:235] Top shape: 64 96 55 55 (18585600)
I1226 15:07:00.233006 99457 net.cpp:243] Memory required for data: 188259840
I1226 15:07:00.243697 91784 net.cpp:235] Top shape: 64 96 55 55 (18585600)
I1226 15:07:00.243731 91784 net.cpp:243] Memory required for data: 262602240
I1226 15:07:00.233045 99457 layer_factory.hpp:114] Creating layer norm1
I1226 15:07:00.243770 91784 layer_factory.hpp:114] Creating layer pool1
I1226 15:07:00.233178 99457 net.cpp:178] Creating Layer norm1
I1226 15:07:00.243885 91784 net.cpp:178] Creating Layer pool1
I1226 15:07:00.243926 91784 net.cpp:612] pool1 <- norm1
I1226 15:07:00.243978 91784 net.cpp:586] pool1 -> pool1
I1226 15:07:00.244103 91784 net.cpp:228] Setting up pool1
I1226 15:07:00.244159 91784 net.cpp:235] Top shape: 64 96 27 27 (4478976)
I1226 15:07:00.244182 91784 net.cpp:243] Memory required for data: 280518144
I1226 15:07:00.244238 91784 layer_factory.hpp:114] Creating layer conv2
I1226 15:07:00.244403 91784 net.cpp:178] Creating Layer conv2
I1226 15:07:00.233227 99457 net.cpp:612] norm1 <- conv1
I1226 15:07:00.244462 91784 net.cpp:612] conv2 <- pool1
I1226 15:07:00.244523 91784 net.cpp:586] conv2 -> conv2
I1226 15:07:00.234248 99457 net.cpp:586] norm1 -> norm1
I1226 15:07:00.234468 99457 net.cpp:228] Setting up norm1
I1226 15:07:00.234537 99457 net.cpp:235] Top shape: 64 96 55 55 (18585600)
I1226 15:07:00.234568 99457 net.cpp:243] Memory required for data: 262602240
I1226 15:07:00.234609 99457 layer_factory.hpp:114] Creating layer pool1
I1226 15:07:00.234689 99457 net.cpp:178] Creating Layer pool1
I1226 15:07:00.234733 99457 net.cpp:612] pool1 <- norm1
I1226 15:07:00.234786 99457 net.cpp:586] pool1 -> pool1
I1226 15:07:00.235869 99457 net.cpp:228] Setting up pool1
I1226 15:07:00.235955 99457 net.cpp:235] Top shape: 64 96 27 27 (4478976)
I1226 15:07:00.235991 99457 net.cpp:243] Memory required for data: 280518144
I1226 15:07:00.236034 99457 layer_factory.hpp:114] Creating layer conv2
I1226 15:07:00.236191 99457 net.cpp:178] Creating Layer conv2
I1226 15:07:00.236243 99457 net.cpp:612] conv2 <- pool1
I1226 15:07:00.236300 99457 net.cpp:586] conv2 -> conv2
I1226 15:07:00.235970 94141 net.cpp:228] Setting up conv1
I1226 15:07:00.236114 94141 net.cpp:235] Top shape: 64 96 55 55 (18585600)
I1226 15:07:00.236246 94141 net.cpp:243] Memory required for data: 113917440
I1226 15:07:00.236414 94141 layer_factory.hpp:114] Creating layer relu1
I1226 15:07:00.236598 94141 net.cpp:178] Creating Layer relu1
I1226 15:07:00.236757 94141 net.cpp:612] relu1 <- conv1
I1226 15:07:00.236820 94141 net.cpp:573] relu1 -> conv1 (in-place)
I1226 15:07:00.237509 94141 net.cpp:228] Setting up relu1
I1226 15:07:00.237612 94141 net.cpp:235] Top shape: 64 96 55 55 (18585600)
I1226 15:07:00.237737 94141 net.cpp:243] Memory required for data: 188259840
I1226 15:07:00.237797 94141 layer_factory.hpp:114] Creating layer norm1
I1226 15:07:00.238091 94141 net.cpp:178] Creating Layer norm1
I1226 15:07:00.238224 94141 net.cpp:612] norm1 <- conv1
I1226 15:07:00.238456 94141 net.cpp:586] norm1 -> norm1
I1226 15:07:00.239070 94141 net.cpp:228] Setting up norm1
I1226 15:07:00.239189 94141 net.cpp:235] Top shape: 64 96 55 55 (18585600)
I1226 15:07:00.239225 94141 net.cpp:243] Memory required for data: 262602240
I1226 15:07:00.239271 94141 layer_factory.hpp:114] Creating layer pool1
I1226 15:07:00.239430 94141 net.cpp:178] Creating Layer pool1
I1226 15:07:00.239516 94141 net.cpp:612] pool1 <- norm1
I1226 15:07:00.239589 94141 net.cpp:586] pool1 -> pool1
I1226 15:07:00.239758 94141 net.cpp:228] Setting up pool1
I1226 15:07:00.240157 94141 net.cpp:235] Top shape: 64 96 27 27 (4478976)
I1226 15:07:00.240196 94141 net.cpp:243] Memory required for data: 280518144
I1226 15:07:00.240241 94141 layer_factory.hpp:114] Creating layer conv2
I1226 15:07:00.240425 94141 net.cpp:178] Creating Layer conv2
I1226 15:07:00.240486 94141 net.cpp:612] conv2 <- pool1
I1226 15:07:00.240551 94141 net.cpp:586] conv2 -> conv2
I1226 15:07:00.275490 91626 net.cpp:228] Setting up conv1
I1226 15:07:00.275607 91626 net.cpp:235] Top shape: 64 96 55 55 (18585600)
I1226 15:07:00.275666 91626 net.cpp:243] Memory required for data: 113917440
I1226 15:07:00.275826 91626 layer_factory.hpp:114] Creating layer relu1
I1226 15:07:00.275916 91626 net.cpp:178] Creating Layer relu1
I1226 15:07:00.275955 91626 net.cpp:612] relu1 <- conv1
I1226 15:07:00.275993 91626 net.cpp:573] relu1 -> conv1 (in-place)
I1226 15:07:00.276094 91626 net.cpp:228] Setting up relu1
I1226 15:07:00.276139 91626 net.cpp:235] Top shape: 64 96 55 55 (18585600)
I1226 15:07:00.276170 91626 net.cpp:243] Memory required for data: 188259840
I1226 15:07:00.276196 91626 layer_factory.hpp:114] Creating layer norm1
I1226 15:07:00.276284 91626 net.cpp:178] Creating Layer norm1
I1226 15:07:00.276311 91626 net.cpp:612] norm1 <- conv1
I1226 15:07:00.276347 91626 net.cpp:586] norm1 -> norm1
I1226 15:07:00.276433 91626 net.cpp:228] Setting up norm1
I1226 15:07:00.276474 91626 net.cpp:235] Top shape: 64 96 55 55 (18585600)
I1226 15:07:00.276499 91626 net.cpp:243] Memory required for data: 262602240
I1226 15:07:00.276551 91626 layer_factory.hpp:114] Creating layer pool1
I1226 15:07:00.276612 91626 net.cpp:178] Creating Layer pool1
I1226 15:07:00.276643 91626 net.cpp:612] pool1 <- norm1
I1226 15:07:00.276680 91626 net.cpp:586] pool1 -> pool1
I1226 15:07:00.276782 91626 net.cpp:228] Setting up pool1
I1226 15:07:00.276820 91626 net.cpp:235] Top shape: 64 96 27 27 (4478976)
I1226 15:07:00.276847 91626 net.cpp:243] Memory required for data: 280518144
I1226 15:07:00.276875 91626 layer_factory.hpp:114] Creating layer conv2
I1226 15:07:00.276943 91626 net.cpp:178] Creating Layer conv2
I1226 15:07:00.276975 91626 net.cpp:612] conv2 <- pool1
I1226 15:07:00.277019 91626 net.cpp:586] conv2 -> conv2
I1226 15:07:00.491271 91626 net.cpp:228] Setting up conv2
I1226 15:07:00.491416 91626 net.cpp:235] Top shape: 64 256 27 27 (11943936)
I1226 15:07:00.491482 91626 net.cpp:243] Memory required for data: 328293888
I1226 15:07:00.491585 91626 layer_factory.hpp:114] Creating layer relu2
I1226 15:07:00.491675 91626 net.cpp:178] Creating Layer relu2
I1226 15:07:00.491721 91626 net.cpp:612] relu2 <- conv2
I1226 15:07:00.491768 91626 net.cpp:573] relu2 -> conv2 (in-place)
I1226 15:07:00.491879 91626 net.cpp:228] Setting up relu2
I1226 15:07:00.491922 91626 net.cpp:235] Top shape: 64 256 27 27 (11943936)
I1226 15:07:00.491955 91626 net.cpp:243] Memory required for data: 376069632
I1226 15:07:00.491992 91626 layer_factory.hpp:114] Creating layer norm2
I1226 15:07:00.492046 91626 net.cpp:178] Creating Layer norm2
I1226 15:07:00.492180 91626 net.cpp:612] norm2 <- conv2
I1226 15:07:00.492233 91626 net.cpp:586] norm2 -> norm2
I1226 15:07:00.492363 91626 net.cpp:228] Setting up norm2
I1226 15:07:00.492418 91626 net.cpp:235] Top shape: 64 256 27 27 (11943936)
I1226 15:07:00.492450 91626 net.cpp:243] Memory required for data: 423845376
I1226 15:07:00.492480 91626 layer_factory.hpp:114] Creating layer pool2
I1226 15:07:00.492560 91626 net.cpp:178] Creating Layer pool2
I1226 15:07:00.492594 91626 net.cpp:612] pool2 <- norm2
I1226 15:07:00.492630 91626 net.cpp:586] pool2 -> pool2
I1226 15:07:00.492712 91626 net.cpp:228] Setting up pool2
I1226 15:07:00.492756 91626 net.cpp:235] Top shape: 64 256 13 13 (2768896)
I1226 15:07:00.492905 91626 net.cpp:243] Memory required for data: 434920960
I1226 15:07:00.492945 91626 layer_factory.hpp:114] Creating layer conv3
I1226 15:07:00.493041 91626 net.cpp:178] Creating Layer conv3
I1226 15:07:00.493078 91626 net.cpp:612] conv3 <- pool2
I1226 15:07:00.493119 91626 net.cpp:586] conv3 -> conv3
I1226 15:07:00.542510 86144 net.cpp:228] Setting up conv2
I1226 15:07:00.542639 86144 net.cpp:235] Top shape: 64 256 27 27 (11943936)
I1226 15:07:00.542670 86144 net.cpp:243] Memory required for data: 328293888
I1226 15:07:00.542773 86144 layer_factory.hpp:114] Creating layer relu2
I1226 15:07:00.542866 86144 net.cpp:178] Creating Layer relu2
I1226 15:07:00.542915 86144 net.cpp:612] relu2 <- conv2
I1226 15:07:00.542968 86144 net.cpp:573] relu2 -> conv2 (in-place)
I1226 15:07:00.543063 86144 net.cpp:228] Setting up relu2
I1226 15:07:00.543118 86144 net.cpp:235] Top shape: 64 256 27 27 (11943936)
I1226 15:07:00.543143 86144 net.cpp:243] Memory required for data: 376069632
I1226 15:07:00.543174 86144 layer_factory.hpp:114] Creating layer norm2
I1226 15:07:00.543246 86144 net.cpp:178] Creating Layer norm2
I1226 15:07:00.543284 86144 net.cpp:612] norm2 <- conv2
I1226 15:07:00.543325 86144 net.cpp:586] norm2 -> norm2
I1226 15:07:00.543424 86144 net.cpp:228] Setting up norm2
I1226 15:07:00.543473 86144 net.cpp:235] Top shape: 64 256 27 27 (11943936)
I1226 15:07:00.543496 86144 net.cpp:243] Memory required for data: 423845376
I1226 15:07:00.543526 86144 layer_factory.hpp:114] Creating layer pool2
I1226 15:07:00.543587 86144 net.cpp:178] Creating Layer pool2
I1226 15:07:00.543644 86144 net.cpp:612] pool2 <- norm2
I1226 15:07:00.543689 86144 net.cpp:586] pool2 -> pool2
I1226 15:07:00.543787 86144 net.cpp:228] Setting up pool2
I1226 15:07:00.543835 86144 net.cpp:235] Top shape: 64 256 13 13 (2768896)
I1226 15:07:00.543962 86144 net.cpp:243] Memory required for data: 434920960
I1226 15:07:00.544001 86144 layer_factory.hpp:114] Creating layer conv3
I1226 15:07:00.544090 86144 net.cpp:178] Creating Layer conv3
I1226 15:07:00.544124 86144 net.cpp:612] conv3 <- pool2
I1226 15:07:00.544178 86144 net.cpp:586] conv3 -> conv3
I1226 15:07:00.541684 98617 net.cpp:228] Setting up conv2
I1226 15:07:00.541831 98617 net.cpp:235] Top shape: 64 256 27 27 (11943936)
I1226 15:07:00.541870 98617 net.cpp:243] Memory required for data: 328293888
I1226 15:07:00.541973 98617 layer_factory.hpp:114] Creating layer relu2
I1226 15:07:00.542450 98617 net.cpp:178] Creating Layer relu2
I1226 15:07:00.542589 98617 net.cpp:612] relu2 <- conv2
I1226 15:07:00.542676 98617 net.cpp:573] relu2 -> conv2 (in-place)
I1226 15:07:00.542831 98617 net.cpp:228] Setting up relu2
I1226 15:07:00.542896 98617 net.cpp:235] Top shape: 64 256 27 27 (11943936)
I1226 15:07:00.542922 98617 net.cpp:243] Memory required for data: 376069632
I1226 15:07:00.542953 98617 layer_factory.hpp:114] Creating layer norm2
I1226 15:07:00.543050 98617 net.cpp:178] Creating Layer norm2
I1226 15:07:00.543165 98617 net.cpp:612] norm2 <- conv2
I1226 15:07:00.543226 98617 net.cpp:586] norm2 -> norm2
I1226 15:07:00.543542 98617 net.cpp:228] Setting up norm2
I1226 15:07:00.543612 98617 net.cpp:235] Top shape: 64 256 27 27 (11943936)
I1226 15:07:00.543650 98617 net.cpp:243] Memory required for data: 423845376
I1226 15:07:00.544201 98617 layer_factory.hpp:114] Creating layer pool2
I1226 15:07:00.544423 98617 net.cpp:178] Creating Layer pool2
I1226 15:07:00.544627 98617 net.cpp:612] pool2 <- norm2
I1226 15:07:00.544692 98617 net.cpp:586] pool2 -> pool2
I1226 15:07:00.544860 98617 net.cpp:228] Setting up pool2
I1226 15:07:00.544952 98617 net.cpp:235] Top shape: 64 256 13 13 (2768896)
I1226 15:07:00.545260 98617 net.cpp:243] Memory required for data: 434920960
I1226 15:07:00.545323 98617 layer_factory.hpp:114] Creating layer conv3
I1226 15:07:00.545827 98617 net.cpp:178] Creating Layer conv3
I1226 15:07:00.545897 98617 net.cpp:612] conv3 <- pool2
I1226 15:07:00.546025 98617 net.cpp:586] conv3 -> conv3
I1226 15:07:00.589841 94141 net.cpp:228] Setting up conv2
I1226 15:07:00.589961 94141 net.cpp:235] Top shape: 64 256 27 27 (11943936)
I1226 15:07:00.589996 94141 net.cpp:243] Memory required for data: 328293888
I1226 15:07:00.590096 94141 layer_factory.hpp:114] Creating layer relu2
I1226 15:07:00.590186 94141 net.cpp:178] Creating Layer relu2
I1226 15:07:00.590236 94141 net.cpp:612] relu2 <- conv2
I1226 15:07:00.590288 94141 net.cpp:573] relu2 -> conv2 (in-place)
I1226 15:07:00.590405 94141 net.cpp:228] Setting up relu2
I1226 15:07:00.590467 94141 net.cpp:235] Top shape: 64 256 27 27 (11943936)
I1226 15:07:00.590499 94141 net.cpp:243] Memory required for data: 376069632
I1226 15:07:00.590546 94141 layer_factory.hpp:114] Creating layer norm2
I1226 15:07:00.590620 94141 net.cpp:178] Creating Layer norm2
I1226 15:07:00.590659 94141 net.cpp:612] norm2 <- conv2
I1226 15:07:00.590734 94141 net.cpp:586] norm2 -> norm2
I1226 15:07:00.590880 94141 net.cpp:228] Setting up norm2
I1226 15:07:00.590960 94141 net.cpp:235] Top shape: 64 256 27 27 (11943936)
I1226 15:07:00.590996 94141 net.cpp:243] Memory required for data: 423845376
I1226 15:07:00.591039 94141 layer_factory.hpp:114] Creating layer pool2
I1226 15:07:00.591140 94141 net.cpp:178] Creating Layer pool2
I1226 15:07:00.591187 94141 net.cpp:612] pool2 <- norm2
I1226 15:07:00.591241 94141 net.cpp:586] pool2 -> pool2
I1226 15:07:00.591377 94141 net.cpp:228] Setting up pool2
I1226 15:07:00.591444 94141 net.cpp:235] Top shape: 64 256 13 13 (2768896)
I1226 15:07:00.591590 94141 net.cpp:243] Memory required for data: 434920960
I1226 15:07:00.591644 94141 layer_factory.hpp:114] Creating layer conv3
I1226 15:07:00.591789 94141 net.cpp:178] Creating Layer conv3
I1226 15:07:00.591843 94141 net.cpp:612] conv3 <- pool2
I1226 15:07:00.591920 94141 net.cpp:586] conv3 -> conv3
I1226 15:07:00.604164 99457 net.cpp:228] Setting up conv2
I1226 15:07:00.604292 99457 net.cpp:235] Top shape: 64 256 27 27 (11943936)
I1226 15:07:00.604329 99457 net.cpp:243] Memory required for data: 328293888
I1226 15:07:00.604439 99457 layer_factory.hpp:114] Creating layer relu2
I1226 15:07:00.604544 99457 net.cpp:178] Creating Layer relu2
I1226 15:07:00.604604 99457 net.cpp:612] relu2 <- conv2
I1226 15:07:00.604658 99457 net.cpp:573] relu2 -> conv2 (in-place)
I1226 15:07:00.604773 99457 net.cpp:228] Setting up relu2
I1226 15:07:00.604831 99457 net.cpp:235] Top shape: 64 256 27 27 (11943936)
I1226 15:07:00.604864 99457 net.cpp:243] Memory required for data: 376069632
I1226 15:07:00.604904 99457 layer_factory.hpp:114] Creating layer norm2
I1226 15:07:00.604969 99457 net.cpp:178] Creating Layer norm2
I1226 15:07:00.605005 99457 net.cpp:612] norm2 <- conv2
I1226 15:07:00.605099 99457 net.cpp:586] norm2 -> norm2
I1226 15:07:00.605259 99457 net.cpp:228] Setting up norm2
I1226 15:07:00.605331 99457 net.cpp:235] Top shape: 64 256 27 27 (11943936)
I1226 15:07:00.605365 99457 net.cpp:243] Memory required for data: 423845376
I1226 15:07:00.605406 99457 layer_factory.hpp:114] Creating layer pool2
I1226 15:07:00.605481 99457 net.cpp:178] Creating Layer pool2
I1226 15:07:00.605521 99457 net.cpp:612] pool2 <- norm2
I1226 15:07:00.605589 99457 net.cpp:586] pool2 -> pool2
I1226 15:07:00.605710 99457 net.cpp:228] Setting up pool2
I1226 15:07:00.605769 99457 net.cpp:235] Top shape: 64 256 13 13 (2768896)
I1226 15:07:00.605909 99457 net.cpp:243] Memory required for data: 434920960
I1226 15:07:00.605962 99457 layer_factory.hpp:114] Creating layer conv3
I1226 15:07:00.606102 99457 net.cpp:178] Creating Layer conv3
I1226 15:07:00.606153 99457 net.cpp:612] conv3 <- pool2
I1226 15:07:00.606214 99457 net.cpp:586] conv3 -> conv3
I1226 15:07:00.604372 92800 net.cpp:228] Setting up conv2
I1226 15:07:00.604493 92800 net.cpp:235] Top shape: 64 256 27 27 (11943936)
I1226 15:07:00.604526 92800 net.cpp:243] Memory required for data: 328293888
I1226 15:07:00.604619 92800 layer_factory.hpp:114] Creating layer relu2
I1226 15:07:00.604712 92800 net.cpp:178] Creating Layer relu2
I1226 15:07:00.604758 92800 net.cpp:612] relu2 <- conv2
I1226 15:07:00.604809 92800 net.cpp:573] relu2 -> conv2 (in-place)
I1226 15:07:00.604928 92800 net.cpp:228] Setting up relu2
I1226 15:07:00.604979 92800 net.cpp:235] Top shape: 64 256 27 27 (11943936)
I1226 15:07:00.605007 92800 net.cpp:243] Memory required for data: 376069632
I1226 15:07:00.605046 92800 layer_factory.hpp:114] Creating layer norm2
I1226 15:07:00.605118 92800 net.cpp:178] Creating Layer norm2
I1226 15:07:00.605150 92800 net.cpp:612] norm2 <- conv2
I1226 15:07:00.605211 92800 net.cpp:586] norm2 -> norm2
I1226 15:07:00.605312 92800 net.cpp:228] Setting up norm2
I1226 15:07:00.605393 92800 net.cpp:235] Top shape: 64 256 27 27 (11943936)
I1226 15:07:00.605422 92800 net.cpp:243] Memory required for data: 423845376
I1226 15:07:00.605465 92800 layer_factory.hpp:114] Creating layer pool2
I1226 15:07:00.605531 92800 net.cpp:178] Creating Layer pool2
I1226 15:07:00.605566 92800 net.cpp:612] pool2 <- norm2
I1226 15:07:00.605609 92800 net.cpp:586] pool2 -> pool2
I1226 15:07:00.605700 92800 net.cpp:228] Setting up pool2
I1226 15:07:00.605749 92800 net.cpp:235] Top shape: 64 256 13 13 (2768896)
I1226 15:07:00.605880 92800 net.cpp:243] Memory required for data: 434920960
I1226 15:07:00.605921 92800 layer_factory.hpp:114] Creating layer conv3
I1226 15:07:00.606010 92800 net.cpp:178] Creating Layer conv3
I1226 15:07:00.606045 92800 net.cpp:612] conv3 <- pool2
I1226 15:07:00.606091 92800 net.cpp:586] conv3 -> conv3
I1226 15:07:00.624940 88575 net.cpp:228] Setting up conv2
I1226 15:07:00.625048 88575 net.cpp:235] Top shape: 64 256 27 27 (11943936)
I1226 15:07:00.625077 88575 net.cpp:243] Memory required for data: 328293888
I1226 15:07:00.625152 88575 layer_factory.hpp:114] Creating layer relu2
I1226 15:07:00.625242 88575 net.cpp:178] Creating Layer relu2
I1226 15:07:00.625350 88575 net.cpp:612] relu2 <- conv2
I1226 15:07:00.625389 88575 net.cpp:573] relu2 -> conv2 (in-place)
I1226 15:07:00.625526 88575 net.cpp:228] Setting up relu2
I1226 15:07:00.625579 88575 net.cpp:235] Top shape: 64 256 27 27 (11943936)
I1226 15:07:00.625603 88575 net.cpp:243] Memory required for data: 376069632
I1226 15:07:00.625634 88575 layer_factory.hpp:114] Creating layer norm2
I1226 15:07:00.625694 88575 net.cpp:178] Creating Layer norm2
I1226 15:07:00.625720 88575 net.cpp:612] norm2 <- conv2
I1226 15:07:00.625766 88575 net.cpp:586] norm2 -> norm2
I1226 15:07:00.625852 88575 net.cpp:228] Setting up norm2
I1226 15:07:00.625890 88575 net.cpp:235] Top shape: 64 256 27 27 (11943936)
I1226 15:07:00.625918 88575 net.cpp:243] Memory required for data: 423845376
I1226 15:07:00.625946 88575 layer_factory.hpp:114] Creating layer pool2
I1226 15:07:00.625995 88575 net.cpp:178] Creating Layer pool2
I1226 15:07:00.626026 88575 net.cpp:612] pool2 <- norm2
I1226 15:07:00.626060 88575 net.cpp:586] pool2 -> pool2
I1226 15:07:00.626134 88575 net.cpp:228] Setting up pool2
I1226 15:07:00.626176 88575 net.cpp:235] Top shape: 64 256 13 13 (2768896)
I1226 15:07:00.626296 88575 net.cpp:243] Memory required for data: 434920960
I1226 15:07:00.626332 88575 layer_factory.hpp:114] Creating layer conv3
I1226 15:07:00.626425 88575 net.cpp:178] Creating Layer conv3
I1226 15:07:00.626479 88575 net.cpp:612] conv3 <- pool2
I1226 15:07:00.626524 88575 net.cpp:586] conv3 -> conv3
I1226 15:07:00.637343 91784 net.cpp:228] Setting up conv2
I1226 15:07:00.637449 91784 net.cpp:235] Top shape: 64 256 27 27 (11943936)
I1226 15:07:00.637482 91784 net.cpp:243] Memory required for data: 328293888
I1226 15:07:00.638002 91784 layer_factory.hpp:114] Creating layer relu2
I1226 15:07:00.638185 91784 net.cpp:178] Creating Layer relu2
I1226 15:07:00.638279 91784 net.cpp:612] relu2 <- conv2
I1226 15:07:00.638862 91784 net.cpp:573] relu2 -> conv2 (in-place)
I1226 15:07:00.639351 91784 net.cpp:228] Setting up relu2
I1226 15:07:00.639469 91784 net.cpp:235] Top shape: 64 256 27 27 (11943936)
I1226 15:07:00.639502 91784 net.cpp:243] Memory required for data: 376069632
I1226 15:07:00.639540 91784 layer_factory.hpp:114] Creating layer norm2
I1226 15:07:00.639606 91784 net.cpp:178] Creating Layer norm2
I1226 15:07:00.639663 91784 net.cpp:612] norm2 <- conv2
I1226 15:07:00.639706 91784 net.cpp:586] norm2 -> norm2
I1226 15:07:00.639811 91784 net.cpp:228] Setting up norm2
I1226 15:07:00.639873 91784 net.cpp:235] Top shape: 64 256 27 27 (11943936)
I1226 15:07:00.639899 91784 net.cpp:243] Memory required for data: 423845376
I1226 15:07:00.639931 91784 layer_factory.hpp:114] Creating layer pool2
I1226 15:07:00.639991 91784 net.cpp:178] Creating Layer pool2
I1226 15:07:00.640019 91784 net.cpp:612] pool2 <- norm2
I1226 15:07:00.640058 91784 net.cpp:586] pool2 -> pool2
I1226 15:07:00.640144 91784 net.cpp:228] Setting up pool2
I1226 15:07:00.640184 91784 net.cpp:235] Top shape: 64 256 13 13 (2768896)
I1226 15:07:00.640334 91784 net.cpp:243] Memory required for data: 434920960
I1226 15:07:00.640380 91784 layer_factory.hpp:114] Creating layer conv3
I1226 15:07:00.640475 91784 net.cpp:178] Creating Layer conv3
I1226 15:07:00.640513 91784 net.cpp:612] conv3 <- pool2
I1226 15:07:00.640557 91784 net.cpp:586] conv3 -> conv3
I1226 15:07:00.719084 91626 net.cpp:228] Setting up conv3
I1226 15:07:00.719198 91626 net.cpp:235] Top shape: 64 384 13 13 (4153344)
I1226 15:07:00.719236 91626 net.cpp:243] Memory required for data: 451534336
I1226 15:07:00.719383 91626 layer_factory.hpp:114] Creating layer relu3
I1226 15:07:00.719548 91626 net.cpp:178] Creating Layer relu3
I1226 15:07:00.719594 91626 net.cpp:612] relu3 <- conv3
I1226 15:07:00.719656 91626 net.cpp:573] relu3 -> conv3 (in-place)
I1226 15:07:00.719755 91626 net.cpp:228] Setting up relu3
I1226 15:07:00.719813 91626 net.cpp:235] Top shape: 64 384 13 13 (4153344)
I1226 15:07:00.719840 91626 net.cpp:243] Memory required for data: 468147712
I1226 15:07:00.719872 91626 layer_factory.hpp:114] Creating layer conv4
I1226 15:07:00.719952 91626 net.cpp:178] Creating Layer conv4
I1226 15:07:00.719996 91626 net.cpp:612] conv4 <- conv3
I1226 15:07:00.720041 91626 net.cpp:586] conv4 -> conv4
I1226 15:07:00.856824 97634 net.cpp:228] Setting up conv1
I1226 15:07:00.856950 97634 net.cpp:235] Top shape: 64 96 55 55 (18585600)
I1226 15:07:00.856990 97634 net.cpp:243] Memory required for data: 113917440
I1226 15:07:00.857108 97634 layer_factory.hpp:114] Creating layer relu1
I1226 15:07:00.857273 97634 net.cpp:178] Creating Layer relu1
I1226 15:07:00.857316 97634 net.cpp:612] relu1 <- conv1
I1226 15:07:00.857365 97634 net.cpp:573] relu1 -> conv1 (in-place)
I1226 15:07:00.857511 97634 net.cpp:228] Setting up relu1
I1226 15:07:00.857576 97634 net.cpp:235] Top shape: 64 96 55 55 (18585600)
I1226 15:07:00.857604 97634 net.cpp:243] Memory required for data: 188259840
I1226 15:07:00.857640 97634 layer_factory.hpp:114] Creating layer norm1
I1226 15:07:00.857733 97634 net.cpp:178] Creating Layer norm1
I1226 15:07:00.857776 97634 net.cpp:612] norm1 <- conv1
I1226 15:07:00.857852 97634 net.cpp:586] norm1 -> norm1
I1226 15:07:00.857980 97634 net.cpp:228] Setting up norm1
I1226 15:07:00.858043 97634 net.cpp:235] Top shape: 64 96 55 55 (18585600)
I1226 15:07:00.858069 97634 net.cpp:243] Memory required for data: 262602240
I1226 15:07:00.858101 97634 layer_factory.hpp:114] Creating layer pool1
I1226 15:07:00.858180 97634 net.cpp:178] Creating Layer pool1
I1226 15:07:00.858220 97634 net.cpp:612] pool1 <- norm1
I1226 15:07:00.858263 97634 net.cpp:586] pool1 -> pool1
I1226 15:07:00.858389 97634 net.cpp:228] Setting up pool1
I1226 15:07:00.858443 97634 net.cpp:235] Top shape: 64 96 27 27 (4478976)
I1226 15:07:00.858466 97634 net.cpp:243] Memory required for data: 280518144
I1226 15:07:00.858508 97634 layer_factory.hpp:114] Creating layer conv2
I1226 15:07:00.858603 97634 net.cpp:178] Creating Layer conv2
I1226 15:07:00.858641 97634 net.cpp:612] conv2 <- pool1
I1226 15:07:00.858697 97634 net.cpp:586] conv2 -> conv2
I1226 15:07:00.914882 86144 net.cpp:228] Setting up conv3
I1226 15:07:00.915071 86144 net.cpp:235] Top shape: 64 384 13 13 (4153344)
I1226 15:07:00.915105 86144 net.cpp:243] Memory required for data: 451534336
I1226 15:07:00.915186 86144 layer_factory.hpp:114] Creating layer relu3
I1226 15:07:00.915370 86144 net.cpp:178] Creating Layer relu3
I1226 15:07:00.915436 86144 net.cpp:612] relu3 <- conv3
I1226 15:07:00.915485 86144 net.cpp:573] relu3 -> conv3 (in-place)
I1226 15:07:00.915624 86144 net.cpp:228] Setting up relu3
I1226 15:07:00.915746 86144 net.cpp:235] Top shape: 64 384 13 13 (4153344)
I1226 15:07:00.915773 86144 net.cpp:243] Memory required for data: 468147712
I1226 15:07:00.915807 86144 layer_factory.hpp:114] Creating layer conv4
I1226 15:07:00.915904 86144 net.cpp:178] Creating Layer conv4
I1226 15:07:00.915936 86144 net.cpp:612] conv4 <- conv3
I1226 15:07:00.915992 86144 net.cpp:586] conv4 -> conv4
I1226 15:07:00.926805 91626 net.cpp:228] Setting up conv4
I1226 15:07:00.926924 91626 net.cpp:235] Top shape: 64 384 13 13 (4153344)
I1226 15:07:00.926955 91626 net.cpp:243] Memory required for data: 484761088
I1226 15:07:00.927016 91626 layer_factory.hpp:114] Creating layer relu4
I1226 15:07:00.927103 91626 net.cpp:178] Creating Layer relu4
I1226 15:07:00.927140 91626 net.cpp:612] relu4 <- conv4
I1226 15:07:00.927196 91626 net.cpp:573] relu4 -> conv4 (in-place)
I1226 15:07:00.927328 91626 net.cpp:228] Setting up relu4
I1226 15:07:00.927388 91626 net.cpp:235] Top shape: 64 384 13 13 (4153344)
I1226 15:07:00.927413 91626 net.cpp:243] Memory required for data: 501374464
I1226 15:07:00.927446 91626 layer_factory.hpp:114] Creating layer conv5
I1226 15:07:00.927544 91626 net.cpp:178] Creating Layer conv5
I1226 15:07:00.927580 91626 net.cpp:612] conv5 <- conv4
I1226 15:07:00.927645 91626 net.cpp:586] conv5 -> conv5
I1226 15:07:00.946588 94141 net.cpp:228] Setting up conv3
I1226 15:07:00.946732 94141 net.cpp:235] Top shape: 64 384 13 13 (4153344)
I1226 15:07:00.946769 94141 net.cpp:243] Memory required for data: 451534336
I1226 15:07:00.947212 94141 layer_factory.hpp:114] Creating layer relu3
I1226 15:07:00.947342 94141 net.cpp:178] Creating Layer relu3
I1226 15:07:00.947438 94141 net.cpp:612] relu3 <- conv3
I1226 15:07:00.947518 94141 net.cpp:573] relu3 -> conv3 (in-place)
I1226 15:07:00.947674 94141 net.cpp:228] Setting up relu3
I1226 15:07:00.947783 94141 net.cpp:235] Top shape: 64 384 13 13 (4153344)
I1226 15:07:00.947818 94141 net.cpp:243] Memory required for data: 468147712
I1226 15:07:00.947870 94141 layer_factory.hpp:114] Creating layer conv4
I1226 15:07:00.948019 94141 net.cpp:178] Creating Layer conv4
I1226 15:07:00.948194 94141 net.cpp:612] conv4 <- conv3
I1226 15:07:00.948273 94141 net.cpp:586] conv4 -> conv4
I1226 15:07:00.954831 98617 net.cpp:228] Setting up conv3
I1226 15:07:00.954953 98617 net.cpp:235] Top shape: 64 384 13 13 (4153344)
I1226 15:07:00.954987 98617 net.cpp:243] Memory required for data: 451534336
I1226 15:07:00.955080 98617 layer_factory.hpp:114] Creating layer relu3
I1226 15:07:00.955169 98617 net.cpp:178] Creating Layer relu3
I1226 15:07:00.955217 98617 net.cpp:612] relu3 <- conv3
I1226 15:07:00.955270 98617 net.cpp:573] relu3 -> conv3 (in-place)
I1226 15:07:00.955412 98617 net.cpp:228] Setting up relu3
I1226 15:07:00.955480 98617 net.cpp:235] Top shape: 64 384 13 13 (4153344)
I1226 15:07:00.955514 98617 net.cpp:243] Memory required for data: 468147712
I1226 15:07:00.955551 98617 layer_factory.hpp:114] Creating layer conv4
I1226 15:07:00.955656 98617 net.cpp:178] Creating Layer conv4
I1226 15:07:00.955700 98617 net.cpp:612] conv4 <- conv3
I1226 15:07:00.955761 98617 net.cpp:586] conv4 -> conv4
I1226 15:07:00.976373 99457 net.cpp:228] Setting up conv3
I1226 15:07:00.976493 99457 net.cpp:235] Top shape: 64 384 13 13 (4153344)
I1226 15:07:00.976524 99457 net.cpp:243] Memory required for data: 451534336
I1226 15:07:00.976675 99457 layer_factory.hpp:114] Creating layer relu3
I1226 15:07:00.976758 99457 net.cpp:178] Creating Layer relu3
I1226 15:07:00.976830 99457 net.cpp:612] relu3 <- conv3
I1226 15:07:00.976886 99457 net.cpp:573] relu3 -> conv3 (in-place)
I1226 15:07:00.977002 99457 net.cpp:228] Setting up relu3
I1226 15:07:00.977056 99457 net.cpp:235] Top shape: 64 384 13 13 (4153344)
I1226 15:07:00.977116 99457 net.cpp:243] Memory required for data: 468147712
I1226 15:07:00.977161 99457 layer_factory.hpp:114] Creating layer conv4
I1226 15:07:00.977277 99457 net.cpp:178] Creating Layer conv4
I1226 15:07:00.977331 99457 net.cpp:612] conv4 <- conv3
I1226 15:07:00.977468 99457 net.cpp:586] conv4 -> conv4
I1226 15:07:00.991942 88575 net.cpp:228] Setting up conv3
I1226 15:07:00.992049 88575 net.cpp:235] Top shape: 64 384 13 13 (4153344)
I1226 15:07:00.992074 88575 net.cpp:243] Memory required for data: 451534336
I1226 15:07:00.992189 88575 layer_factory.hpp:114] Creating layer relu3
I1226 15:07:00.992255 88575 net.cpp:178] Creating Layer relu3
I1226 15:07:00.992285 88575 net.cpp:612] relu3 <- conv3
I1226 15:07:00.992332 88575 net.cpp:573] relu3 -> conv3 (in-place)
I1226 15:07:00.992427 88575 net.cpp:228] Setting up relu3
I1226 15:07:00.992494 88575 net.cpp:235] Top shape: 64 384 13 13 (4153344)
I1226 15:07:00.992521 88575 net.cpp:243] Memory required for data: 468147712
I1226 15:07:00.992549 88575 layer_factory.hpp:114] Creating layer conv4
I1226 15:07:00.992635 88575 net.cpp:178] Creating Layer conv4
I1226 15:07:00.992671 88575 net.cpp:612] conv4 <- conv3
I1226 15:07:00.992723 88575 net.cpp:586] conv4 -> conv4
I1226 15:07:00.988301 92800 net.cpp:228] Setting up conv3
I1226 15:07:00.988484 92800 net.cpp:235] Top shape: 64 384 13 13 (4153344)
I1226 15:07:00.988549 92800 net.cpp:243] Memory required for data: 451534336
I1226 15:07:00.988662 92800 layer_factory.hpp:114] Creating layer relu3
I1226 15:07:00.988785 92800 net.cpp:178] Creating Layer relu3
I1226 15:07:00.988826 92800 net.cpp:612] relu3 <- conv3
I1226 15:07:00.988888 92800 net.cpp:573] relu3 -> conv3 (in-place)
I1226 15:07:00.989032 92800 net.cpp:228] Setting up relu3
I1226 15:07:00.989085 92800 net.cpp:235] Top shape: 64 384 13 13 (4153344)
I1226 15:07:00.989117 92800 net.cpp:243] Memory required for data: 468147712
I1226 15:07:00.989154 92800 layer_factory.hpp:114] Creating layer conv4
I1226 15:07:00.989480 92800 net.cpp:178] Creating Layer conv4
I1226 15:07:00.989606 92800 net.cpp:612] conv4 <- conv3
I1226 15:07:00.989703 92800 net.cpp:586] conv4 -> conv4
I1226 15:07:01.035383 91784 net.cpp:228] Setting up conv3
I1226 15:07:01.035542 91784 net.cpp:235] Top shape: 64 384 13 13 (4153344)
I1226 15:07:01.035578 91784 net.cpp:243] Memory required for data: 451534336
I1226 15:07:01.035678 91784 layer_factory.hpp:114] Creating layer relu3
I1226 15:07:01.035758 91784 net.cpp:178] Creating Layer relu3
I1226 15:07:01.035799 91784 net.cpp:612] relu3 <- conv3
I1226 15:07:01.035887 91784 net.cpp:573] relu3 -> conv3 (in-place)
I1226 15:07:01.036006 91784 net.cpp:228] Setting up relu3
I1226 15:07:01.036048 91784 net.cpp:235] Top shape: 64 384 13 13 (4153344)
I1226 15:07:01.036072 91784 net.cpp:243] Memory required for data: 468147712
I1226 15:07:01.036121 91784 layer_factory.hpp:114] Creating layer conv4
I1226 15:07:01.036248 91784 net.cpp:178] Creating Layer conv4
I1226 15:07:01.036350 91784 net.cpp:612] conv4 <- conv3
I1226 15:07:01.036418 91784 net.cpp:586] conv4 -> conv4
I1226 15:07:01.074877 91626 net.cpp:228] Setting up conv5
I1226 15:07:01.074996 91626 net.cpp:235] Top shape: 64 256 13 13 (2768896)
I1226 15:07:01.075026 91626 net.cpp:243] Memory required for data: 512450048
I1226 15:07:01.075103 91626 layer_factory.hpp:114] Creating layer relu5
I1226 15:07:01.075173 91626 net.cpp:178] Creating Layer relu5
I1226 15:07:01.075206 91626 net.cpp:612] relu5 <- conv5
I1226 15:07:01.075309 91626 net.cpp:573] relu5 -> conv5 (in-place)
I1226 15:07:01.075420 91626 net.cpp:228] Setting up relu5
I1226 15:07:01.075480 91626 net.cpp:235] Top shape: 64 256 13 13 (2768896)
I1226 15:07:01.075506 91626 net.cpp:243] Memory required for data: 523525632
I1226 15:07:01.075537 91626 layer_factory.hpp:114] Creating layer pool5
I1226 15:07:01.075608 91626 net.cpp:178] Creating Layer pool5
I1226 15:07:01.075639 91626 net.cpp:612] pool5 <- conv5
I1226 15:07:01.075680 91626 net.cpp:586] pool5 -> pool5
I1226 15:07:01.075783 91626 net.cpp:228] Setting up pool5
I1226 15:07:01.075830 91626 net.cpp:235] Top shape: 64 256 6 6 (589824)
I1226 15:07:01.075860 91626 net.cpp:243] Memory required for data: 525884928
I1226 15:07:01.075887 91626 layer_factory.hpp:114] Creating layer fc6
I1226 15:07:01.075968 91626 net.cpp:178] Creating Layer fc6
I1226 15:07:01.076004 91626 net.cpp:612] fc6 <- pool5
I1226 15:07:01.076050 91626 net.cpp:586] fc6 -> fc6
I1226 15:07:01.217917 86144 net.cpp:228] Setting up conv4
I1226 15:07:01.218041 86144 net.cpp:235] Top shape: 64 384 13 13 (4153344)
I1226 15:07:01.218073 86144 net.cpp:243] Memory required for data: 484761088
I1226 15:07:01.218135 86144 layer_factory.hpp:114] Creating layer relu4
I1226 15:07:01.218206 86144 net.cpp:178] Creating Layer relu4
I1226 15:07:01.218310 86144 net.cpp:612] relu4 <- conv4
I1226 15:07:01.218458 86144 net.cpp:573] relu4 -> conv4 (in-place)
I1226 15:07:01.218672 86144 net.cpp:228] Setting up relu4
I1226 15:07:01.218729 86144 net.cpp:235] Top shape: 64 384 13 13 (4153344)
I1226 15:07:01.218755 86144 net.cpp:243] Memory required for data: 501374464
I1226 15:07:01.218786 86144 layer_factory.hpp:114] Creating layer conv5
I1226 15:07:01.218874 86144 net.cpp:178] Creating Layer conv5
I1226 15:07:01.218910 86144 net.cpp:612] conv5 <- conv4
I1226 15:07:01.218966 86144 net.cpp:586] conv5 -> conv5
I1226 15:07:01.250175 94141 net.cpp:228] Setting up conv4
I1226 15:07:01.250298 94141 net.cpp:235] Top shape: 64 384 13 13 (4153344)
I1226 15:07:01.250334 94141 net.cpp:243] Memory required for data: 484761088
I1226 15:07:01.250416 94141 layer_factory.hpp:114] Creating layer relu4
I1226 15:07:01.250494 94141 net.cpp:178] Creating Layer relu4
I1226 15:07:01.250674 94141 net.cpp:612] relu4 <- conv4
I1226 15:07:01.250773 94141 net.cpp:573] relu4 -> conv4 (in-place)
I1226 15:07:01.250911 94141 net.cpp:228] Setting up relu4
I1226 15:07:01.250984 94141 net.cpp:235] Top shape: 64 384 13 13 (4153344)
I1226 15:07:01.251018 94141 net.cpp:243] Memory required for data: 501374464
I1226 15:07:01.251058 94141 layer_factory.hpp:114] Creating layer conv5
I1226 15:07:01.251180 94141 net.cpp:178] Creating Layer conv5
I1226 15:07:01.251227 94141 net.cpp:612] conv5 <- conv4
I1226 15:07:01.251294 94141 net.cpp:586] conv5 -> conv5
I1226 15:07:01.281237 92800 net.cpp:228] Setting up conv4
I1226 15:07:01.281407 92800 net.cpp:235] Top shape: 64 384 13 13 (4153344)
I1226 15:07:01.281446 92800 net.cpp:243] Memory required for data: 484761088
I1226 15:07:01.281577 92800 layer_factory.hpp:114] Creating layer relu4
I1226 15:07:01.281827 92800 net.cpp:178] Creating Layer relu4
I1226 15:07:01.281877 92800 net.cpp:612] relu4 <- conv4
I1226 15:07:01.281937 92800 net.cpp:573] relu4 -> conv4 (in-place)
I1226 15:07:01.282109 92800 net.cpp:228] Setting up relu4
I1226 15:07:01.282198 92800 net.cpp:235] Top shape: 64 384 13 13 (4153344)
I1226 15:07:01.282250 92800 net.cpp:243] Memory required for data: 501374464
I1226 15:07:01.282294 92800 layer_factory.hpp:114] Creating layer conv5
I1226 15:07:01.282435 92800 net.cpp:178] Creating Layer conv5
I1226 15:07:01.282821 92800 net.cpp:612] conv5 <- conv4
I1226 15:07:01.282919 92800 net.cpp:586] conv5 -> conv5
I1226 15:07:01.302976 88575 net.cpp:228] Setting up conv4
I1226 15:07:01.303122 88575 net.cpp:235] Top shape: 64 384 13 13 (4153344)
I1226 15:07:01.303159 88575 net.cpp:243] Memory required for data: 484761088
I1226 15:07:01.303238 88575 layer_factory.hpp:114] Creating layer relu4
I1226 15:07:01.303310 88575 net.cpp:178] Creating Layer relu4
I1226 15:07:01.303342 88575 net.cpp:612] relu4 <- conv4
I1226 15:07:01.303391 88575 net.cpp:573] relu4 -> conv4 (in-place)
I1226 15:07:01.303848 88575 net.cpp:228] Setting up relu4
I1226 15:07:01.303952 88575 net.cpp:235] Top shape: 64 384 13 13 (4153344)
I1226 15:07:01.303982 88575 net.cpp:243] Memory required for data: 501374464
I1226 15:07:01.304064 88575 layer_factory.hpp:114] Creating layer conv5
I1226 15:07:01.304189 88575 net.cpp:178] Creating Layer conv5
I1226 15:07:01.304231 88575 net.cpp:612] conv5 <- conv4
I1226 15:07:01.304301 88575 net.cpp:586] conv5 -> conv5
I1226 15:07:01.299862 98617 net.cpp:228] Setting up conv4
I1226 15:07:01.299988 98617 net.cpp:235] Top shape: 64 384 13 13 (4153344)
I1226 15:07:01.300020 98617 net.cpp:243] Memory required for data: 484761088
I1226 15:07:01.300132 98617 layer_factory.hpp:114] Creating layer relu4
I1226 15:07:01.300209 98617 net.cpp:178] Creating Layer relu4
I1226 15:07:01.300251 98617 net.cpp:612] relu4 <- conv4
I1226 15:07:01.300309 98617 net.cpp:573] relu4 -> conv4 (in-place)
I1226 15:07:01.300460 98617 net.cpp:228] Setting up relu4
I1226 15:07:01.317610 99457 net.cpp:228] Setting up conv4
I1226 15:07:01.300551 98617 net.cpp:235] Top shape: 64 384 13 13 (4153344)
I1226 15:07:01.300586 98617 net.cpp:243] Memory required for data: 501374464
I1226 15:07:01.317734 99457 net.cpp:235] Top shape: 64 384 13 13 (4153344)
I1226 15:07:01.317770 99457 net.cpp:243] Memory required for data: 484761088
I1226 15:07:01.300629 98617 layer_factory.hpp:114] Creating layer conv5
I1226 15:07:01.317852 99457 layer_factory.hpp:114] Creating layer relu4
I1226 15:07:01.300729 98617 net.cpp:178] Creating Layer conv5
I1226 15:07:01.317939 99457 net.cpp:178] Creating Layer relu4
I1226 15:07:01.300771 98617 net.cpp:612] conv5 <- conv4
I1226 15:07:01.300822 98617 net.cpp:586] conv5 -> conv5
I1226 15:07:01.319950 99457 net.cpp:612] relu4 <- conv4
I1226 15:07:01.320089 99457 net.cpp:573] relu4 -> conv4 (in-place)
I1226 15:07:01.320268 99457 net.cpp:228] Setting up relu4
I1226 15:07:01.320384 99457 net.cpp:235] Top shape: 64 384 13 13 (4153344)
I1226 15:07:01.320601 99457 net.cpp:243] Memory required for data: 501374464
I1226 15:07:01.320654 99457 layer_factory.hpp:114] Creating layer conv5
I1226 15:07:01.320844 99457 net.cpp:178] Creating Layer conv5
I1226 15:07:01.320909 99457 net.cpp:612] conv5 <- conv4
I1226 15:07:01.320968 99457 net.cpp:586] conv5 -> conv5
I1226 15:07:01.352604 91784 net.cpp:228] Setting up conv4
I1226 15:07:01.352757 91784 net.cpp:235] Top shape: 64 384 13 13 (4153344)
I1226 15:07:01.352799 91784 net.cpp:243] Memory required for data: 484761088
I1226 15:07:01.352922 91784 layer_factory.hpp:114] Creating layer relu4
I1226 15:07:01.353152 91784 net.cpp:178] Creating Layer relu4
I1226 15:07:01.353204 91784 net.cpp:612] relu4 <- conv4
I1226 15:07:01.353251 91784 net.cpp:573] relu4 -> conv4 (in-place)
I1226 15:07:01.353706 91784 net.cpp:228] Setting up relu4
I1226 15:07:01.353847 91784 net.cpp:235] Top shape: 64 384 13 13 (4153344)
I1226 15:07:01.353881 91784 net.cpp:243] Memory required for data: 501374464
I1226 15:07:01.353921 91784 layer_factory.hpp:114] Creating layer conv5
I1226 15:07:01.354054 91784 net.cpp:178] Creating Layer conv5
I1226 15:07:01.354223 91784 net.cpp:612] conv5 <- conv4
I1226 15:07:01.354279 91784 net.cpp:586] conv5 -> conv5
I1226 15:07:01.435662 86144 net.cpp:228] Setting up conv5
I1226 15:07:01.435801 86144 net.cpp:235] Top shape: 64 256 13 13 (2768896)
I1226 15:07:01.435842 86144 net.cpp:243] Memory required for data: 512450048
I1226 15:07:01.435920 86144 layer_factory.hpp:114] Creating layer relu5
I1226 15:07:01.436048 86144 net.cpp:178] Creating Layer relu5
I1226 15:07:01.436242 86144 net.cpp:612] relu5 <- conv5
I1226 15:07:01.436306 86144 net.cpp:573] relu5 -> conv5 (in-place)
I1226 15:07:01.436784 86144 net.cpp:228] Setting up relu5
I1226 15:07:01.436957 86144 net.cpp:235] Top shape: 64 256 13 13 (2768896)
I1226 15:07:01.437029 86144 net.cpp:243] Memory required for data: 523525632
I1226 15:07:01.437075 86144 layer_factory.hpp:114] Creating layer pool5
I1226 15:07:01.437201 86144 net.cpp:178] Creating Layer pool5
I1226 15:07:01.437314 86144 net.cpp:612] pool5 <- conv5
I1226 15:07:01.437363 86144 net.cpp:586] pool5 -> pool5
I1226 15:07:01.437510 86144 net.cpp:228] Setting up pool5
I1226 15:07:01.437613 86144 net.cpp:235] Top shape: 64 256 6 6 (589824)
I1226 15:07:01.437659 86144 net.cpp:243] Memory required for data: 525884928
I1226 15:07:01.437719 86144 layer_factory.hpp:114] Creating layer fc6
I1226 15:07:01.437966 86144 net.cpp:178] Creating Layer fc6
I1226 15:07:01.438019 86144 net.cpp:612] fc6 <- pool5
I1226 15:07:01.438423 86144 net.cpp:586] fc6 -> fc6
I1226 15:07:01.493793 94141 net.cpp:228] Setting up conv5
I1226 15:07:01.493927 94141 net.cpp:235] Top shape: 64 256 13 13 (2768896)
I1226 15:07:01.493968 94141 net.cpp:243] Memory required for data: 512450048
I1226 15:07:01.494086 94141 layer_factory.hpp:114] Creating layer relu5
I1226 15:07:01.494215 94141 net.cpp:178] Creating Layer relu5
I1226 15:07:01.494276 94141 net.cpp:612] relu5 <- conv5
I1226 15:07:01.494880 94141 net.cpp:573] relu5 -> conv5 (in-place)
I1226 15:07:01.495136 94141 net.cpp:228] Setting up relu5
I1226 15:07:01.495237 94141 net.cpp:235] Top shape: 64 256 13 13 (2768896)
I1226 15:07:01.495270 94141 net.cpp:243] Memory required for data: 523525632
I1226 15:07:01.495306 94141 layer_factory.hpp:114] Creating layer pool5
I1226 15:07:01.495395 94141 net.cpp:178] Creating Layer pool5
I1226 15:07:01.495435 94141 net.cpp:612] pool5 <- conv5
I1226 15:07:01.495477 94141 net.cpp:586] pool5 -> pool5
I1226 15:07:01.495599 94141 net.cpp:228] Setting up pool5
I1226 15:07:01.495746 94141 net.cpp:235] Top shape: 64 256 6 6 (589824)
I1226 15:07:01.495779 94141 net.cpp:243] Memory required for data: 525884928
I1226 15:07:01.495827 94141 layer_factory.hpp:114] Creating layer fc6
I1226 15:07:01.495913 94141 net.cpp:178] Creating Layer fc6
I1226 15:07:01.495946 94141 net.cpp:612] fc6 <- pool5
I1226 15:07:01.496017 94141 net.cpp:586] fc6 -> fc6
I1226 15:07:01.528573 92800 net.cpp:228] Setting up conv5
I1226 15:07:01.528688 92800 net.cpp:235] Top shape: 64 256 13 13 (2768896)
I1226 15:07:01.528717 92800 net.cpp:243] Memory required for data: 512450048
I1226 15:07:01.528838 92800 layer_factory.hpp:114] Creating layer relu5
I1226 15:07:01.528936 92800 net.cpp:178] Creating Layer relu5
I1226 15:07:01.528981 92800 net.cpp:612] relu5 <- conv5
I1226 15:07:01.529036 92800 net.cpp:573] relu5 -> conv5 (in-place)
I1226 15:07:01.529150 92800 net.cpp:228] Setting up relu5
I1226 15:07:01.529214 92800 net.cpp:235] Top shape: 64 256 13 13 (2768896)
I1226 15:07:01.529245 92800 net.cpp:243] Memory required for data: 523525632
I1226 15:07:01.529284 92800 layer_factory.hpp:114] Creating layer pool5
I1226 15:07:01.529386 92800 net.cpp:178] Creating Layer pool5
I1226 15:07:01.529435 92800 net.cpp:612] pool5 <- conv5
I1226 15:07:01.529498 92800 net.cpp:586] pool5 -> pool5
I1226 15:07:01.529639 92800 net.cpp:228] Setting up pool5
I1226 15:07:01.529706 92800 net.cpp:235] Top shape: 64 256 6 6 (589824)
I1226 15:07:01.529736 92800 net.cpp:243] Memory required for data: 525884928
I1226 15:07:01.529773 92800 layer_factory.hpp:114] Creating layer fc6
I1226 15:07:01.529881 92800 net.cpp:178] Creating Layer fc6
I1226 15:07:01.529924 92800 net.cpp:612] fc6 <- pool5
I1226 15:07:01.529979 92800 net.cpp:586] fc6 -> fc6
I1226 15:07:01.543723 88575 net.cpp:228] Setting up conv5
I1226 15:07:01.543833 88575 net.cpp:235] Top shape: 64 256 13 13 (2768896)
I1226 15:07:01.543859 88575 net.cpp:243] Memory required for data: 512450048
I1226 15:07:01.543969 88575 layer_factory.hpp:114] Creating layer relu5
I1226 15:07:01.544036 88575 net.cpp:178] Creating Layer relu5
I1226 15:07:01.544066 88575 net.cpp:612] relu5 <- conv5
I1226 15:07:01.544111 88575 net.cpp:573] relu5 -> conv5 (in-place)
I1226 15:07:01.544198 88575 net.cpp:228] Setting up relu5
I1226 15:07:01.544234 88575 net.cpp:235] Top shape: 64 256 13 13 (2768896)
I1226 15:07:01.544256 88575 net.cpp:243] Memory required for data: 523525632
I1226 15:07:01.544291 88575 layer_factory.hpp:114] Creating layer pool5
I1226 15:07:01.544353 88575 net.cpp:178] Creating Layer pool5
I1226 15:07:01.544379 88575 net.cpp:612] pool5 <- conv5
I1226 15:07:01.544423 88575 net.cpp:586] pool5 -> pool5
I1226 15:07:01.544529 88575 net.cpp:228] Setting up pool5
I1226 15:07:01.544566 88575 net.cpp:235] Top shape: 64 256 6 6 (589824)
I1226 15:07:01.544589 88575 net.cpp:243] Memory required for data: 525884928
I1226 15:07:01.544616 88575 layer_factory.hpp:114] Creating layer fc6
I1226 15:07:01.544703 88575 net.cpp:178] Creating Layer fc6
I1226 15:07:01.544739 88575 net.cpp:612] fc6 <- pool5
I1226 15:07:01.544777 88575 net.cpp:586] fc6 -> fc6
I1226 15:07:01.551942 98617 net.cpp:228] Setting up conv5
I1226 15:07:01.552111 98617 net.cpp:235] Top shape: 64 256 13 13 (2768896)
I1226 15:07:01.552413 98617 net.cpp:243] Memory required for data: 512450048
I1226 15:07:01.552731 98617 layer_factory.hpp:114] Creating layer relu5
I1226 15:07:01.553478 98617 net.cpp:178] Creating Layer relu5
I1226 15:07:01.553576 98617 net.cpp:612] relu5 <- conv5
I1226 15:07:01.553706 98617 net.cpp:573] relu5 -> conv5 (in-place)
I1226 15:07:01.553858 98617 net.cpp:228] Setting up relu5
I1226 15:07:01.553958 98617 net.cpp:235] Top shape: 64 256 13 13 (2768896)
I1226 15:07:01.554021 98617 net.cpp:243] Memory required for data: 523525632
I1226 15:07:01.554070 98617 layer_factory.hpp:114] Creating layer pool5
I1226 15:07:01.554402 98617 net.cpp:178] Creating Layer pool5
I1226 15:07:01.554978 98617 net.cpp:612] pool5 <- conv5
I1226 15:07:01.555213 98617 net.cpp:586] pool5 -> pool5
I1226 15:07:01.555548 98617 net.cpp:228] Setting up pool5
I1226 15:07:01.555691 98617 net.cpp:235] Top shape: 64 256 6 6 (589824)
I1226 15:07:01.555806 98617 net.cpp:243] Memory required for data: 525884928
I1226 15:07:01.555907 98617 layer_factory.hpp:114] Creating layer fc6
I1226 15:07:01.556465 98617 net.cpp:178] Creating Layer fc6
I1226 15:07:01.556573 98617 net.cpp:612] fc6 <- pool5
I1226 15:07:01.556730 98617 net.cpp:586] fc6 -> fc6
I1226 15:07:01.592468 91784 net.cpp:228] Setting up conv5
I1226 15:07:01.592578 91784 net.cpp:235] Top shape: 64 256 13 13 (2768896)
I1226 15:07:01.592610 91784 net.cpp:243] Memory required for data: 512450048
I1226 15:07:01.592721 91784 layer_factory.hpp:114] Creating layer relu5
I1226 15:07:01.592856 91784 net.cpp:178] Creating Layer relu5
I1226 15:07:01.592931 91784 net.cpp:612] relu5 <- conv5
I1226 15:07:01.592985 91784 net.cpp:573] relu5 -> conv5 (in-place)
I1226 15:07:01.593116 91784 net.cpp:228] Setting up relu5
I1226 15:07:01.593175 91784 net.cpp:235] Top shape: 64 256 13 13 (2768896)
I1226 15:07:01.593206 91784 net.cpp:243] Memory required for data: 523525632
I1226 15:07:01.593240 91784 layer_factory.hpp:114] Creating layer pool5
I1226 15:07:01.593330 91784 net.cpp:178] Creating Layer pool5
I1226 15:07:01.593783 91784 net.cpp:612] pool5 <- conv5
I1226 15:07:01.593868 91784 net.cpp:586] pool5 -> pool5
I1226 15:07:01.594071 91784 net.cpp:228] Setting up pool5
I1226 15:07:01.594254 91784 net.cpp:235] Top shape: 64 256 6 6 (589824)
I1226 15:07:01.594282 91784 net.cpp:243] Memory required for data: 525884928
I1226 15:07:01.594362 91784 layer_factory.hpp:114] Creating layer fc6
I1226 15:07:01.594491 91784 net.cpp:178] Creating Layer fc6
I1226 15:07:01.594663 91784 net.cpp:612] fc6 <- pool5
I1226 15:07:01.594722 91784 net.cpp:586] fc6 -> fc6
I1226 15:07:01.600175 99457 net.cpp:228] Setting up conv5
I1226 15:07:01.600297 99457 net.cpp:235] Top shape: 64 256 13 13 (2768896)
I1226 15:07:01.600330 99457 net.cpp:243] Memory required for data: 512450048
I1226 15:07:01.600433 99457 layer_factory.hpp:114] Creating layer relu5
I1226 15:07:01.600533 99457 net.cpp:178] Creating Layer relu5
I1226 15:07:01.600589 99457 net.cpp:612] relu5 <- conv5
I1226 15:07:01.600639 99457 net.cpp:573] relu5 -> conv5 (in-place)
I1226 15:07:01.600770 99457 net.cpp:228] Setting up relu5
I1226 15:07:01.600824 99457 net.cpp:235] Top shape: 64 256 13 13 (2768896)
I1226 15:07:01.600857 99457 net.cpp:243] Memory required for data: 523525632
I1226 15:07:01.600898 99457 layer_factory.hpp:114] Creating layer pool5
I1226 15:07:01.600971 99457 net.cpp:178] Creating Layer pool5
I1226 15:07:01.601018 99457 net.cpp:612] pool5 <- conv5
I1226 15:07:01.601115 99457 net.cpp:586] pool5 -> pool5
I1226 15:07:01.601253 99457 net.cpp:228] Setting up pool5
I1226 15:07:01.601307 99457 net.cpp:235] Top shape: 64 256 6 6 (589824)
I1226 15:07:01.601341 99457 net.cpp:243] Memory required for data: 525884928
I1226 15:07:01.601588 99457 layer_factory.hpp:114] Creating layer fc6
I1226 15:07:01.601702 99457 net.cpp:178] Creating Layer fc6
I1226 15:07:01.601830 99457 net.cpp:612] fc6 <- pool5
I1226 15:07:01.601889 99457 net.cpp:586] fc6 -> fc6
I1226 15:07:01.960561 97634 net.cpp:228] Setting up conv2
I1226 15:07:01.960690 97634 net.cpp:235] Top shape: 64 256 27 27 (11943936)
I1226 15:07:01.960729 97634 net.cpp:243] Memory required for data: 328293888
I1226 15:07:01.960846 97634 layer_factory.hpp:114] Creating layer relu2
I1226 15:07:01.961068 97634 net.cpp:178] Creating Layer relu2
I1226 15:07:01.961113 97634 net.cpp:612] relu2 <- conv2
I1226 15:07:01.961158 97634 net.cpp:573] relu2 -> conv2 (in-place)
I1226 15:07:01.961287 97634 net.cpp:228] Setting up relu2
I1226 15:07:01.961350 97634 net.cpp:235] Top shape: 64 256 27 27 (11943936)
I1226 15:07:01.961380 97634 net.cpp:243] Memory required for data: 376069632
I1226 15:07:01.961413 97634 layer_factory.hpp:114] Creating layer norm2
I1226 15:07:01.961499 97634 net.cpp:178] Creating Layer norm2
I1226 15:07:01.961542 97634 net.cpp:612] norm2 <- conv2
I1226 15:07:01.961588 97634 net.cpp:586] norm2 -> norm2
I1226 15:07:01.961693 97634 net.cpp:228] Setting up norm2
I1226 15:07:01.961755 97634 net.cpp:235] Top shape: 64 256 27 27 (11943936)
I1226 15:07:01.961808 97634 net.cpp:243] Memory required for data: 423845376
I1226 15:07:01.961843 97634 layer_factory.hpp:114] Creating layer pool2
I1226 15:07:01.961915 97634 net.cpp:178] Creating Layer pool2
I1226 15:07:01.961957 97634 net.cpp:612] pool2 <- norm2
I1226 15:07:01.962002 97634 net.cpp:586] pool2 -> pool2
I1226 15:07:01.962097 97634 net.cpp:228] Setting up pool2
I1226 15:07:01.962152 97634 net.cpp:235] Top shape: 64 256 13 13 (2768896)
I1226 15:07:01.962281 97634 net.cpp:243] Memory required for data: 434920960
I1226 15:07:01.962322 97634 layer_factory.hpp:114] Creating layer conv3
I1226 15:07:01.962430 97634 net.cpp:178] Creating Layer conv3
I1226 15:07:01.962476 97634 net.cpp:612] conv3 <- pool2
I1226 15:07:01.962525 97634 net.cpp:586] conv3 -> conv3
I1226 15:07:02.996713 97634 net.cpp:228] Setting up conv3
I1226 15:07:02.996871 97634 net.cpp:235] Top shape: 64 384 13 13 (4153344)
I1226 15:07:02.996914 97634 net.cpp:243] Memory required for data: 451534336
I1226 15:07:02.996997 97634 layer_factory.hpp:114] Creating layer relu3
I1226 15:07:02.997105 97634 net.cpp:178] Creating Layer relu3
I1226 15:07:02.997162 97634 net.cpp:612] relu3 <- conv3
I1226 15:07:02.997210 97634 net.cpp:573] relu3 -> conv3 (in-place)
I1226 15:07:02.997314 97634 net.cpp:228] Setting up relu3
I1226 15:07:02.997375 97634 net.cpp:235] Top shape: 64 384 13 13 (4153344)
I1226 15:07:02.997403 97634 net.cpp:243] Memory required for data: 468147712
I1226 15:07:02.997437 97634 layer_factory.hpp:114] Creating layer conv4
I1226 15:07:02.997545 97634 net.cpp:178] Creating Layer conv4
I1226 15:07:02.997597 97634 net.cpp:612] conv4 <- conv3
I1226 15:07:02.997649 97634 net.cpp:586] conv4 -> conv4
I1226 15:07:03.874296 97634 net.cpp:228] Setting up conv4
I1226 15:07:03.874439 97634 net.cpp:235] Top shape: 64 384 13 13 (4153344)
I1226 15:07:03.874486 97634 net.cpp:243] Memory required for data: 484761088
I1226 15:07:03.874552 97634 layer_factory.hpp:114] Creating layer relu4
I1226 15:07:03.874616 97634 net.cpp:178] Creating Layer relu4
I1226 15:07:03.874744 97634 net.cpp:612] relu4 <- conv4
I1226 15:07:03.874835 97634 net.cpp:573] relu4 -> conv4 (in-place)
I1226 15:07:03.874968 97634 net.cpp:228] Setting up relu4
I1226 15:07:03.875038 97634 net.cpp:235] Top shape: 64 384 13 13 (4153344)
I1226 15:07:03.875067 97634 net.cpp:243] Memory required for data: 501374464
I1226 15:07:03.875103 97634 layer_factory.hpp:114] Creating layer conv5
I1226 15:07:03.875200 97634 net.cpp:178] Creating Layer conv5
I1226 15:07:03.875250 97634 net.cpp:612] conv5 <- conv4
I1226 15:07:03.875316 97634 net.cpp:586] conv5 -> conv5
I1226 15:07:04.504815 97634 net.cpp:228] Setting up conv5
I1226 15:07:04.504940 97634 net.cpp:235] Top shape: 64 256 13 13 (2768896)
I1226 15:07:04.504978 97634 net.cpp:243] Memory required for data: 512450048
I1226 15:07:04.505062 97634 layer_factory.hpp:114] Creating layer relu5
I1226 15:07:04.505175 97634 net.cpp:178] Creating Layer relu5
I1226 15:07:04.505235 97634 net.cpp:612] relu5 <- conv5
I1226 15:07:04.505287 97634 net.cpp:573] relu5 -> conv5 (in-place)
I1226 15:07:04.505389 97634 net.cpp:228] Setting up relu5
I1226 15:07:04.505451 97634 net.cpp:235] Top shape: 64 256 13 13 (2768896)
I1226 15:07:04.505480 97634 net.cpp:243] Memory required for data: 523525632
I1226 15:07:04.505515 97634 layer_factory.hpp:114] Creating layer pool5
I1226 15:07:04.505604 97634 net.cpp:178] Creating Layer pool5
I1226 15:07:04.505650 97634 net.cpp:612] pool5 <- conv5
I1226 15:07:04.505697 97634 net.cpp:586] pool5 -> pool5
I1226 15:07:04.505846 97634 net.cpp:228] Setting up pool5
I1226 15:07:04.505918 97634 net.cpp:235] Top shape: 64 256 6 6 (589824)
I1226 15:07:04.505951 97634 net.cpp:243] Memory required for data: 525884928
I1226 15:07:04.505985 97634 layer_factory.hpp:114] Creating layer fc6
I1226 15:07:04.506070 97634 net.cpp:178] Creating Layer fc6
I1226 15:07:04.506115 97634 net.cpp:612] fc6 <- pool5
I1226 15:07:04.506181 97634 net.cpp:586] fc6 -> fc6
I1226 15:07:06.166298 91626 net.cpp:228] Setting up fc6
I1226 15:07:06.166410 91626 net.cpp:235] Top shape: 64 4096 (262144)
I1226 15:07:06.166441 91626 net.cpp:243] Memory required for data: 526933504
I1226 15:07:06.166527 91626 layer_factory.hpp:114] Creating layer relu6
I1226 15:07:06.166622 91626 net.cpp:178] Creating Layer relu6
I1226 15:07:06.166666 91626 net.cpp:612] relu6 <- fc6
I1226 15:07:06.166707 91626 net.cpp:573] relu6 -> fc6 (in-place)
I1226 15:07:06.166795 91626 net.cpp:228] Setting up relu6
I1226 15:07:06.166884 91626 net.cpp:235] Top shape: 64 4096 (262144)
I1226 15:07:06.167026 91626 net.cpp:243] Memory required for data: 527982080
I1226 15:07:06.167068 91626 layer_factory.hpp:114] Creating layer drop6
I1226 15:07:06.167146 91626 net.cpp:178] Creating Layer drop6
I1226 15:07:06.167186 91626 net.cpp:612] drop6 <- fc6
I1226 15:07:06.167227 91626 net.cpp:573] drop6 -> fc6 (in-place)
I1226 15:07:06.167315 91626 net.cpp:228] Setting up drop6
I1226 15:07:06.167358 91626 net.cpp:235] Top shape: 64 4096 (262144)
I1226 15:07:06.167490 91626 net.cpp:243] Memory required for data: 529030656
I1226 15:07:06.167520 91626 layer_factory.hpp:114] Creating layer fc7
I1226 15:07:06.167582 91626 net.cpp:178] Creating Layer fc7
I1226 15:07:06.167618 91626 net.cpp:612] fc7 <- fc6
I1226 15:07:06.167675 91626 net.cpp:586] fc7 -> fc7
I1226 15:07:07.164772 94141 net.cpp:228] Setting up fc6
I1226 15:07:07.164881 94141 net.cpp:235] Top shape: 64 4096 (262144)
I1226 15:07:07.164912 94141 net.cpp:243] Memory required for data: 526933504
I1226 15:07:07.164999 94141 layer_factory.hpp:114] Creating layer relu6
I1226 15:07:07.165079 94141 net.cpp:178] Creating Layer relu6
I1226 15:07:07.165123 94141 net.cpp:612] relu6 <- fc6
I1226 15:07:07.165165 94141 net.cpp:573] relu6 -> fc6 (in-place)
I1226 15:07:07.165370 94141 net.cpp:228] Setting up relu6
I1226 15:07:07.165524 94141 net.cpp:235] Top shape: 64 4096 (262144)
I1226 15:07:07.165556 94141 net.cpp:243] Memory required for data: 527982080
I1226 15:07:07.165601 94141 layer_factory.hpp:114] Creating layer drop6
I1226 15:07:07.165678 94141 net.cpp:178] Creating Layer drop6
I1226 15:07:07.165735 94141 net.cpp:612] drop6 <- fc6
I1226 15:07:07.165774 94141 net.cpp:573] drop6 -> fc6 (in-place)
I1226 15:07:07.165832 94141 net.cpp:228] Setting up drop6
I1226 15:07:07.165868 94141 net.cpp:235] Top shape: 64 4096 (262144)
I1226 15:07:07.165891 94141 net.cpp:243] Memory required for data: 529030656
I1226 15:07:07.165927 94141 layer_factory.hpp:114] Creating layer fc7
I1226 15:07:07.165987 94141 net.cpp:178] Creating Layer fc7
I1226 15:07:07.166021 94141 net.cpp:612] fc7 <- fc6
I1226 15:07:07.166059 94141 net.cpp:586] fc7 -> fc7
I1226 15:07:07.187369 88575 net.cpp:228] Setting up fc6
I1226 15:07:07.187506 88575 net.cpp:235] Top shape: 64 4096 (262144)
I1226 15:07:07.187538 88575 net.cpp:243] Memory required for data: 526933504
I1226 15:07:07.187595 88575 layer_factory.hpp:114] Creating layer relu6
I1226 15:07:07.187687 88575 net.cpp:178] Creating Layer relu6
I1226 15:07:07.187794 88575 net.cpp:612] relu6 <- fc6
I1226 15:07:07.187832 88575 net.cpp:573] relu6 -> fc6 (in-place)
I1226 15:07:07.187947 88575 net.cpp:228] Setting up relu6
I1226 15:07:07.188107 88575 net.cpp:235] Top shape: 64 4096 (262144)
I1226 15:07:07.188145 88575 net.cpp:243] Memory required for data: 527982080
I1226 15:07:07.188184 88575 layer_factory.hpp:114] Creating layer drop6
I1226 15:07:07.188236 88575 net.cpp:178] Creating Layer drop6
I1226 15:07:07.188266 88575 net.cpp:612] drop6 <- fc6
I1226 15:07:07.188314 88575 net.cpp:573] drop6 -> fc6 (in-place)
I1226 15:07:07.188369 88575 net.cpp:228] Setting up drop6
I1226 15:07:07.188402 88575 net.cpp:235] Top shape: 64 4096 (262144)
I1226 15:07:07.188555 88575 net.cpp:243] Memory required for data: 529030656
I1226 15:07:07.188586 88575 layer_factory.hpp:114] Creating layer fc7
I1226 15:07:07.188650 88575 net.cpp:178] Creating Layer fc7
I1226 15:07:07.188678 88575 net.cpp:612] fc7 <- fc6
I1226 15:07:07.188717 88575 net.cpp:586] fc7 -> fc7
I1226 15:07:07.171880 98617 net.cpp:228] Setting up fc6
I1226 15:07:07.172000 98617 net.cpp:235] Top shape: 64 4096 (262144)
I1226 15:07:07.172037 98617 net.cpp:243] Memory required for data: 526933504
I1226 15:07:07.172118 98617 layer_factory.hpp:114] Creating layer relu6
I1226 15:07:07.172219 98617 net.cpp:178] Creating Layer relu6
I1226 15:07:07.172346 98617 net.cpp:612] relu6 <- fc6
I1226 15:07:07.172433 98617 net.cpp:573] relu6 -> fc6 (in-place)
I1226 15:07:07.172554 98617 net.cpp:228] Setting up relu6
I1226 15:07:07.172770 98617 net.cpp:235] Top shape: 64 4096 (262144)
I1226 15:07:07.172847 98617 net.cpp:243] Memory required for data: 527982080
I1226 15:07:07.172914 98617 layer_factory.hpp:114] Creating layer drop6
I1226 15:07:07.172991 98617 net.cpp:178] Creating Layer drop6
I1226 15:07:07.173044 98617 net.cpp:612] drop6 <- fc6
I1226 15:07:07.173099 98617 net.cpp:573] drop6 -> fc6 (in-place)
I1226 15:07:07.173179 98617 net.cpp:228] Setting up drop6
I1226 15:07:07.173240 98617 net.cpp:235] Top shape: 64 4096 (262144)
I1226 15:07:07.173274 98617 net.cpp:243] Memory required for data: 529030656
I1226 15:07:07.173316 98617 layer_factory.hpp:114] Creating layer fc7
I1226 15:07:07.173454 98617 net.cpp:178] Creating Layer fc7
I1226 15:07:07.173516 98617 net.cpp:612] fc7 <- fc6
I1226 15:07:07.173579 98617 net.cpp:586] fc7 -> fc7
I1226 15:07:07.193478 86144 net.cpp:228] Setting up fc6
I1226 15:07:07.193617 86144 net.cpp:235] Top shape: 64 4096 (262144)
I1226 15:07:07.193657 86144 net.cpp:243] Memory required for data: 526933504
I1226 15:07:07.193745 86144 layer_factory.hpp:114] Creating layer relu6
I1226 15:07:07.193831 86144 net.cpp:178] Creating Layer relu6
I1226 15:07:07.193874 86144 net.cpp:612] relu6 <- fc6
I1226 15:07:07.193919 86144 net.cpp:573] relu6 -> fc6 (in-place)
I1226 15:07:07.194119 86144 net.cpp:228] Setting up relu6
I1226 15:07:07.194288 86144 net.cpp:235] Top shape: 64 4096 (262144)
I1226 15:07:07.194319 86144 net.cpp:243] Memory required for data: 527982080
I1226 15:07:07.194363 86144 layer_factory.hpp:114] Creating layer drop6
I1226 15:07:07.194435 86144 net.cpp:178] Creating Layer drop6
I1226 15:07:07.194478 86144 net.cpp:612] drop6 <- fc6
I1226 15:07:07.194522 86144 net.cpp:573] drop6 -> fc6 (in-place)
I1226 15:07:07.194579 86144 net.cpp:228] Setting up drop6
I1226 15:07:07.194651 86144 net.cpp:235] Top shape: 64 4096 (262144)
I1226 15:07:07.194684 86144 net.cpp:243] Memory required for data: 529030656
I1226 15:07:07.194715 86144 layer_factory.hpp:114] Creating layer fc7
I1226 15:07:07.194774 86144 net.cpp:178] Creating Layer fc7
I1226 15:07:07.194811 86144 net.cpp:612] fc7 <- fc6
I1226 15:07:07.194854 86144 net.cpp:586] fc7 -> fc7
I1226 15:07:07.213944 99457 net.cpp:228] Setting up fc6
I1226 15:07:07.214092 99457 net.cpp:235] Top shape: 64 4096 (262144)
I1226 15:07:07.214141 99457 net.cpp:243] Memory required for data: 526933504
I1226 15:07:07.214241 99457 layer_factory.hpp:114] Creating layer relu6
I1226 15:07:07.214375 99457 net.cpp:178] Creating Layer relu6
I1226 15:07:07.214442 99457 net.cpp:612] relu6 <- fc6
I1226 15:07:07.214503 99457 net.cpp:573] relu6 -> fc6 (in-place)
I1226 15:07:07.214623 99457 net.cpp:228] Setting up relu6
I1226 15:07:07.214797 99457 net.cpp:235] Top shape: 64 4096 (262144)
I1226 15:07:07.214841 99457 net.cpp:243] Memory required for data: 527982080
I1226 15:07:07.214889 99457 layer_factory.hpp:114] Creating layer drop6
I1226 15:07:07.214978 99457 net.cpp:178] Creating Layer drop6
I1226 15:07:07.215036 99457 net.cpp:612] drop6 <- fc6
I1226 15:07:07.215137 99457 net.cpp:573] drop6 -> fc6 (in-place)
I1226 15:07:07.215224 99457 net.cpp:228] Setting up drop6
I1226 15:07:07.215279 99457 net.cpp:235] Top shape: 64 4096 (262144)
I1226 15:07:07.215308 99457 net.cpp:243] Memory required for data: 529030656
I1226 15:07:07.215348 99457 layer_factory.hpp:114] Creating layer fc7
I1226 15:07:07.215445 99457 net.cpp:178] Creating Layer fc7
I1226 15:07:07.215493 99457 net.cpp:612] fc7 <- fc6
I1226 15:07:07.215548 99457 net.cpp:586] fc7 -> fc7
I1226 15:07:07.211875 92800 net.cpp:228] Setting up fc6
I1226 15:07:07.211992 92800 net.cpp:235] Top shape: 64 4096 (262144)
I1226 15:07:07.212029 92800 net.cpp:243] Memory required for data: 526933504
I1226 15:07:07.212110 92800 layer_factory.hpp:114] Creating layer relu6
I1226 15:07:07.212420 92800 net.cpp:178] Creating Layer relu6
I1226 15:07:07.212473 92800 net.cpp:612] relu6 <- fc6
I1226 15:07:07.212532 92800 net.cpp:573] relu6 -> fc6 (in-place)
I1226 15:07:07.212640 92800 net.cpp:228] Setting up relu6
I1226 15:07:07.212818 92800 net.cpp:235] Top shape: 64 4096 (262144)
I1226 15:07:07.212860 92800 net.cpp:243] Memory required for data: 527982080
I1226 15:07:07.212904 92800 layer_factory.hpp:114] Creating layer drop6
I1226 15:07:07.212992 92800 net.cpp:178] Creating Layer drop6
I1226 15:07:07.213253 92800 net.cpp:612] drop6 <- fc6
I1226 15:07:07.213332 92800 net.cpp:573] drop6 -> fc6 (in-place)
I1226 15:07:07.213459 92800 net.cpp:228] Setting up drop6
I1226 15:07:07.213521 92800 net.cpp:235] Top shape: 64 4096 (262144)
I1226 15:07:07.213553 92800 net.cpp:243] Memory required for data: 529030656
I1226 15:07:07.213593 92800 layer_factory.hpp:114] Creating layer fc7
I1226 15:07:07.213687 92800 net.cpp:178] Creating Layer fc7
I1226 15:07:07.213727 92800 net.cpp:612] fc7 <- fc6
I1226 15:07:07.213775 92800 net.cpp:586] fc7 -> fc7
I1226 15:07:07.304323 91784 net.cpp:228] Setting up fc6
I1226 15:07:07.304438 91784 net.cpp:235] Top shape: 64 4096 (262144)
I1226 15:07:07.304471 91784 net.cpp:243] Memory required for data: 526933504
I1226 15:07:07.304534 91784 layer_factory.hpp:114] Creating layer relu6
I1226 15:07:07.304630 91784 net.cpp:178] Creating Layer relu6
I1226 15:07:07.304680 91784 net.cpp:612] relu6 <- fc6
I1226 15:07:07.304731 91784 net.cpp:573] relu6 -> fc6 (in-place)
I1226 15:07:07.304837 91784 net.cpp:228] Setting up relu6
I1226 15:07:07.305001 91784 net.cpp:235] Top shape: 64 4096 (262144)
I1226 15:07:07.305038 91784 net.cpp:243] Memory required for data: 527982080
I1226 15:07:07.305075 91784 layer_factory.hpp:114] Creating layer drop6
I1226 15:07:07.305136 91784 net.cpp:178] Creating Layer drop6
I1226 15:07:07.305171 91784 net.cpp:612] drop6 <- fc6
I1226 15:07:07.305225 91784 net.cpp:573] drop6 -> fc6 (in-place)
I1226 15:07:07.305292 91784 net.cpp:228] Setting up drop6
I1226 15:07:07.305367 91784 net.cpp:235] Top shape: 64 4096 (262144)
I1226 15:07:07.305394 91784 net.cpp:243] Memory required for data: 529030656
I1226 15:07:07.305425 91784 layer_factory.hpp:114] Creating layer fc7
I1226 15:07:07.305487 91784 net.cpp:178] Creating Layer fc7
I1226 15:07:07.305516 91784 net.cpp:612] fc7 <- fc6
I1226 15:07:07.305555 91784 net.cpp:586] fc7 -> fc7
I1226 15:07:08.439692 91626 net.cpp:228] Setting up fc7
I1226 15:07:08.439806 91626 net.cpp:235] Top shape: 64 4096 (262144)
I1226 15:07:08.439836 91626 net.cpp:243] Memory required for data: 530079232
I1226 15:07:08.439894 91626 layer_factory.hpp:114] Creating layer relu7
I1226 15:07:08.439976 91626 net.cpp:178] Creating Layer relu7
I1226 15:07:08.440111 91626 net.cpp:612] relu7 <- fc7
I1226 15:07:08.440177 91626 net.cpp:573] relu7 -> fc7 (in-place)
I1226 15:07:08.440290 91626 net.cpp:228] Setting up relu7
I1226 15:07:08.440356 91626 net.cpp:235] Top shape: 64 4096 (262144)
I1226 15:07:08.440381 91626 net.cpp:243] Memory required for data: 531127808
I1226 15:07:08.440412 91626 layer_factory.hpp:114] Creating layer drop7
I1226 15:07:08.440459 91626 net.cpp:178] Creating Layer drop7
I1226 15:07:08.440493 91626 net.cpp:612] drop7 <- fc7
I1226 15:07:08.440529 91626 net.cpp:573] drop7 -> fc7 (in-place)
I1226 15:07:08.440577 91626 net.cpp:228] Setting up drop7
I1226 15:07:08.440616 91626 net.cpp:235] Top shape: 64 4096 (262144)
I1226 15:07:08.440649 91626 net.cpp:243] Memory required for data: 532176384
I1226 15:07:08.440676 91626 layer_factory.hpp:114] Creating layer fc8
I1226 15:07:08.440749 91626 net.cpp:178] Creating Layer fc8
I1226 15:07:08.440788 91626 net.cpp:612] fc8 <- fc7
I1226 15:07:08.440829 91626 net.cpp:586] fc8 -> fc8
I1226 15:07:08.997999 91626 net.cpp:228] Setting up fc8
I1226 15:07:08.998112 91626 net.cpp:235] Top shape: 64 1000 (64000)
I1226 15:07:08.998142 91626 net.cpp:243] Memory required for data: 532432384
I1226 15:07:08.998225 91626 layer_factory.hpp:114] Creating layer fc8_fc8_0_split
I1226 15:07:08.998339 91626 net.cpp:178] Creating Layer fc8_fc8_0_split
I1226 15:07:08.998389 91626 net.cpp:612] fc8_fc8_0_split <- fc8
I1226 15:07:08.998440 91626 net.cpp:586] fc8_fc8_0_split -> fc8_fc8_0_split_0
I1226 15:07:08.998491 91626 net.cpp:586] fc8_fc8_0_split -> fc8_fc8_0_split_1
I1226 15:07:08.998598 91626 net.cpp:228] Setting up fc8_fc8_0_split
I1226 15:07:08.998651 91626 net.cpp:235] Top shape: 64 1000 (64000)
I1226 15:07:08.998682 91626 net.cpp:235] Top shape: 64 1000 (64000)
I1226 15:07:08.998705 91626 net.cpp:243] Memory required for data: 532944384
I1226 15:07:08.998745 91626 layer_factory.hpp:114] Creating layer accuracy
I1226 15:07:08.998813 91626 net.cpp:178] Creating Layer accuracy
I1226 15:07:08.998847 91626 net.cpp:612] accuracy <- fc8_fc8_0_split_0
I1226 15:07:08.998877 91626 net.cpp:612] accuracy <- label_data_1_split_0
I1226 15:07:08.998913 91626 net.cpp:586] accuracy -> accuracy
…
I1226 15:07:09.035071 91626 net.cpp:307] data does not need backward computation.
I1226 15:07:09.035105 91626 net.cpp:349] This network produces output accuracy
I1226 15:07:09.035140 91626 net.cpp:349] This network produces output loss
I1226 15:07:09.035265 91626 net.cpp:363] Network initialization done.
I1226 15:07:09.035742 91626 solver.cpp:107] Solver scaffolding done.
I1226 15:07:09.035980 91626 caffe.cpp:212] Finetuning from /export/data1/stanford/hazy/gordon_bell/caffenet_knl/snapshot/caffenet_MN8_B1024/_iter_25000.caffemodel
I1226 15:07:09.441272 94141 net.cpp:228] Setting up fc7
I1226 15:07:09.441383 94141 net.cpp:235] Top shape: 64 4096 (262144)
I1226 15:07:09.441413 94141 net.cpp:243] Memory required for data: 530079232
I1226 15:07:09.441499 94141 layer_factory.hpp:114] Creating layer relu7
I1226 15:07:09.441594 94141 net.cpp:178] Creating Layer relu7
I1226 15:07:09.441642 94141 net.cpp:612] relu7 <- fc7
I1226 15:07:09.441684 94141 net.cpp:573] relu7 -> fc7 (in-place)
I1226 15:07:09.441797 94141 net.cpp:228] Setting up relu7
I1226 15:07:09.441849 94141 net.cpp:235] Top shape: 64 4096 (262144)
I1226 15:07:09.441875 94141 net.cpp:243] Memory required for data: 531127808
I1226 15:07:09.441906 94141 layer_factory.hpp:114] Creating layer drop7
I1226 15:07:09.441956 94141 net.cpp:178] Creating Layer drop7
I1226 15:07:09.441983 94141 net.cpp:612] drop7 <- fc7
I1226 15:07:09.442037 94141 net.cpp:573] drop7 -> fc7 (in-place)
I1226 15:07:09.442092 94141 net.cpp:228] Setting up drop7
I1226 15:07:09.442127 94141 net.cpp:235] Top shape: 64 4096 (262144)
I1226 15:07:09.442152 94141 net.cpp:243] Memory required for data: 532176384
I1226 15:07:09.442179 94141 layer_factory.hpp:114] Creating layer fc8
I1226 15:07:09.442245 94141 net.cpp:178] Creating Layer fc8
I1226 15:07:09.442278 94141 net.cpp:612] fc8 <- fc7
I1226 15:07:09.442318 94141 net.cpp:586] fc8 -> fc8
I1226 15:07:09.438520 98617 net.cpp:228] Setting up fc7
I1226 15:07:09.438638 98617 net.cpp:235] Top shape: 64 4096 (262144)
I1226 15:07:09.438674 98617 net.cpp:243] Memory required for data: 530079232
I1226 15:07:09.438756 98617 layer_factory.hpp:114] Creating layer relu7
I1226 15:07:09.439050 98617 net.cpp:178] Creating Layer relu7
I1226 15:07:09.439103 98617 net.cpp:612] relu7 <- fc7
I1226 15:07:09.439152 98617 net.cpp:573] relu7 -> fc7 (in-place)
I1226 15:07:09.439258 98617 net.cpp:228] Setting up relu7
I1226 15:07:09.439316 98617 net.cpp:235] Top shape: 64 4096 (262144)
I1226 15:07:09.439376 98617 net.cpp:243] Memory required for data: 531127808
I1226 15:07:09.439425 98617 layer_factory.hpp:114] Creating layer drop7
I1226 15:07:09.439479 98617 net.cpp:178] Creating Layer drop7
I1226 15:07:09.439518 98617 net.cpp:612] drop7 <- fc7
I1226 15:07:09.439584 98617 net.cpp:573] drop7 -> fc7 (in-place)
I1226 15:07:09.439652 98617 net.cpp:228] Setting up drop7
I1226 15:07:09.439715 98617 net.cpp:235] Top shape: 64 4096 (262144)
I1226 15:07:09.439749 98617 net.cpp:243] Memory required for data: 532176384
I1226 15:07:09.439790 98617 layer_factory.hpp:114] Creating layer fc8
I1226 15:07:09.439898 98617 net.cpp:178] Creating Layer fc8
I1226 15:07:09.439950 98617 net.cpp:612] fc8 <- fc7
I1226 15:07:09.440008 98617 net.cpp:586] fc8 -> fc8
I1226 15:07:09.471427 88575 net.cpp:228] Setting up fc7
I1226 15:07:09.471567 88575 net.cpp:235] Top shape: 64 4096 (262144)
I1226 15:07:09.471598 88575 net.cpp:243] Memory required for data: 530079232
I1226 15:07:09.471657 88575 layer_factory.hpp:114] Creating layer relu7
I1226 15:07:09.471755 88575 net.cpp:178] Creating Layer relu7
I1226 15:07:09.471863 88575 net.cpp:612] relu7 <- fc7
I1226 15:07:09.471904 88575 net.cpp:573] relu7 -> fc7 (in-place)
I1226 15:07:09.471992 88575 net.cpp:228] Setting up relu7
I1226 15:07:09.472045 88575 net.cpp:235] Top shape: 64 4096 (262144)
I1226 15:07:09.472071 88575 net.cpp:243] Memory required for data: 531127808
I1226 15:07:09.472102 88575 layer_factory.hpp:114] Creating layer drop7
I1226 15:07:09.472141 88575 net.cpp:178] Creating Layer drop7
I1226 15:07:09.472177 88575 net.cpp:612] drop7 <- fc7
I1226 15:07:09.472219 88575 net.cpp:573] drop7 -> fc7 (in-place)
I1226 15:07:09.472265 88575 net.cpp:228] Setting up drop7
I1226 15:07:09.472298 88575 net.cpp:235] Top shape: 64 4096 (262144)
I1226 15:07:09.472328 88575 net.cpp:243] Memory required for data: 532176384
I1226 15:07:09.472364 88575 layer_factory.hpp:114] Creating layer fc8
I1226 15:07:09.472435 88575 net.cpp:178] Creating Layer fc8
I1226 15:07:09.472494 88575 net.cpp:612] fc8 <- fc7
I1226 15:07:09.472537 88575 net.cpp:586] fc8 -> fc8
I1226 15:07:09.474401 86144 net.cpp:228] Setting up fc7
I1226 15:07:09.474519 86144 net.cpp:235] Top shape: 64 4096 (262144)
I1226 15:07:09.474548 86144 net.cpp:243] Memory required for data: 530079232
I1226 15:07:09.474647 86144 layer_factory.hpp:114] Creating layer relu7
I1226 15:07:09.474740 86144 net.cpp:178] Creating Layer relu7
I1226 15:07:09.474787 86144 net.cpp:612] relu7 <- fc7
I1226 15:07:09.474831 86144 net.cpp:573] relu7 -> fc7 (in-place)
I1226 15:07:09.474937 86144 net.cpp:228] Setting up relu7
I1226 15:07:09.474987 86144 net.cpp:235] Top shape: 64 4096 (262144)
I1226 15:07:09.475015 86144 net.cpp:243] Memory required for data: 531127808
I1226 15:07:09.475046 86144 layer_factory.hpp:114] Creating layer drop7
I1226 15:07:09.475092 86144 net.cpp:178] Creating Layer drop7
I1226 15:07:09.475121 86144 net.cpp:612] drop7 <- fc7
I1226 15:07:09.475169 86144 net.cpp:573] drop7 -> fc7 (in-place)
I1226 15:07:09.475219 86144 net.cpp:228] Setting up drop7
I1226 15:07:09.475263 86144 net.cpp:235] Top shape: 64 4096 (262144)
I1226 15:07:09.475292 86144 net.cpp:243] Memory required for data: 532176384
I1226 15:07:09.475320 86144 layer_factory.hpp:114] Creating layer fc8
I1226 15:07:09.475380 86144 net.cpp:178] Creating Layer fc8
I1226 15:07:09.475415 86144 net.cpp:612] fc8 <- fc7
I1226 15:07:09.475455 86144 net.cpp:586] fc8 -> fc8
I1226 15:07:09.473177 92800 net.cpp:228] Setting up fc7
I1226 15:07:09.473296 92800 net.cpp:235] Top shape: 64 4096 (262144)
I1226 15:07:09.473328 92800 net.cpp:243] Memory required for data: 530079232
I1226 15:07:09.473464 92800 layer_factory.hpp:114] Creating layer relu7
I1226 15:07:09.473582 92800 net.cpp:178] Creating Layer relu7
I1226 15:07:09.473636 92800 net.cpp:612] relu7 <- fc7
I1226 15:07:09.473690 92800 net.cpp:573] relu7 -> fc7 (in-place)
I1226 15:07:09.473803 92800 net.cpp:228] Setting up relu7
I1226 15:07:09.473870 92800 net.cpp:235] Top shape: 64 4096 (262144)
I1226 15:07:09.473902 92800 net.cpp:243] Memory required for data: 531127808
I1226 15:07:09.473942 92800 layer_factory.hpp:114] Creating layer drop7
I1226 15:07:09.474004 92800 net.cpp:178] Creating Layer drop7
I1226 15:07:09.474040 92800 net.cpp:612] drop7 <- fc7
I1226 15:07:09.474084 92800 net.cpp:573] drop7 -> fc7 (in-place)
I1226 15:07:09.474143 92800 net.cpp:228] Setting up drop7
I1226 15:07:09.474197 92800 net.cpp:235] Top shape: 64 4096 (262144)
I1226 15:07:09.474226 92800 net.cpp:243] Memory required for data: 532176384
I1226 15:07:09.474264 92800 layer_factory.hpp:114] Creating layer fc8
I1226 15:07:09.474387 92800 net.cpp:178] Creating Layer fc8
I1226 15:07:09.474442 92800 net.cpp:612] fc8 <- fc7
I1226 15:07:09.474503 92800 net.cpp:586] fc8 -> fc8
I1226 15:07:09.503772 99457 net.cpp:228] Setting up fc7
I1226 15:07:09.503893 99457 net.cpp:235] Top shape: 64 4096 (262144)
I1226 15:07:09.503931 99457 net.cpp:243] Memory required for data: 530079232
I1226 15:07:09.504019 99457 layer_factory.hpp:114] Creating layer relu7
I1226 15:07:09.504194 99457 net.cpp:178] Creating Layer relu7
I1226 15:07:09.504359 99457 net.cpp:612] relu7 <- fc7
I1226 15:07:09.504441 99457 net.cpp:573] relu7 -> fc7 (in-place)
I1226 15:07:09.504550 99457 net.cpp:228] Setting up relu7
I1226 15:07:09.504650 99457 net.cpp:235] Top shape: 64 4096 (262144)
I1226 15:07:09.504685 99457 net.cpp:243] Memory required for data: 531127808
I1226 15:07:09.504721 99457 layer_factory.hpp:114] Creating layer drop7
I1226 15:07:09.504853 99457 net.cpp:178] Creating Layer drop7
I1226 15:07:09.504889 99457 net.cpp:612] drop7 <- fc7
I1226 15:07:09.504938 99457 net.cpp:573] drop7 -> fc7 (in-place)
I1226 15:07:09.504992 99457 net.cpp:228] Setting up drop7
I1226 15:07:09.505033 99457 net.cpp:235] Top shape: 64 4096 (262144)
I1226 15:07:09.505105 99457 net.cpp:243] Memory required for data: 532176384
I1226 15:07:09.505143 99457 layer_factory.hpp:114] Creating layer fc8
I1226 15:07:09.505226 99457 net.cpp:178] Creating Layer fc8
I1226 15:07:09.505336 99457 net.cpp:612] fc8 <- fc7
I1226 15:07:09.505384 99457 net.cpp:586] fc8 -> fc8
I1226 15:07:09.603813 91784 net.cpp:228] Setting up fc7
I1226 15:07:09.603931 91784 net.cpp:235] Top shape: 64 4096 (262144)
I1226 15:07:09.603962 91784 net.cpp:243] Memory required for data: 530079232
I1226 15:07:09.604020 91784 layer_factory.hpp:114] Creating layer relu7
I1226 15:07:09.604115 91784 net.cpp:178] Creating Layer relu7
I1226 15:07:09.604164 91784 net.cpp:612] relu7 <- fc7
I1226 15:07:09.604216 91784 net.cpp:573] relu7 -> fc7 (in-place)
I1226 15:07:09.604343 91784 net.cpp:228] Setting up relu7
I1226 15:07:09.604423 91784 net.cpp:235] Top shape: 64 4096 (262144)
I1226 15:07:09.604456 91784 net.cpp:243] Memory required for data: 531127808
I1226 15:07:09.604493 91784 layer_factory.hpp:114] Creating layer drop7
I1226 15:07:09.604538 91784 net.cpp:178] Creating Layer drop7
I1226 15:07:09.604569 91784 net.cpp:612] drop7 <- fc7
I1226 15:07:09.604609 91784 net.cpp:573] drop7 -> fc7 (in-place)
I1226 15:07:09.604656 91784 net.cpp:228] Setting up drop7
I1226 15:07:09.604692 91784 net.cpp:235] Top shape: 64 4096 (262144)
I1226 15:07:09.604715 91784 net.cpp:243] Memory required for data: 532176384
I1226 15:07:09.604743 91784 layer_factory.hpp:114] Creating layer fc8
I1226 15:07:09.604820 91784 net.cpp:178] Creating Layer fc8
I1226 15:07:09.604853 91784 net.cpp:612] fc8 <- fc7
I1226 15:07:09.604897 91784 net.cpp:586] fc8 -> fc8
I1226 15:07:09.990131 94141 net.cpp:228] Setting up fc8
I1226 15:07:09.990245 94141 net.cpp:235] Top shape: 64 1000 (64000)
I1226 15:07:09.990277 94141 net.cpp:243] Memory required for data: 532432384
I1226 15:07:09.990334 94141 layer_factory.hpp:114] Creating layer fc8_fc8_0_split
I1226 15:07:09.990427 94141 net.cpp:178] Creating Layer fc8_fc8_0_split
I1226 15:07:09.990471 94141 net.cpp:612] fc8_fc8_0_split <- fc8
I1226 15:07:09.990535 94141 net.cpp:586] fc8_fc8_0_split -> fc8_fc8_0_split_0
I1226 15:07:09.990593 94141 net.cpp:586] fc8_fc8_0_split -> fc8_fc8_0_split_1
I1226 15:07:09.990679 94141 net.cpp:228] Setting up fc8_fc8_0_split
I1226 15:07:09.990759 94141 net.cpp:235] Top shape: 64 1000 (64000)
I1226 15:07:09.990792 94141 net.cpp:235] Top shape: 64 1000 (64000)
I1226 15:07:09.990816 94141 net.cpp:243] Memory required for data: 532944384
I1226 15:07:09.990854 94141 layer_factory.hpp:114] Creating layer accuracy
I1226 15:07:09.990919 94141 net.cpp:178] Creating Layer accuracy
I1226 15:07:09.990953 94141 net.cpp:612] accuracy <- fc8_fc8_0_split_0
I1226 15:07:09.990983 94141 net.cpp:612] accuracy <- label_data_1_split_0
I1226 15:07:09.991019 94141 net.cpp:586] accuracy -> accuracy
I1226 15:07:09.991072 94141 net.cpp:228] Setting up accuracy
I1226 15:07:09.991113 94141 net.cpp:235] Top shape: (1)
I1226 15:07:09.991137 94141 net.cpp:243] Memory required for data: 532944388
I1226 15:07:09.991164 94141 layer_factory.hpp:114] Creating layer loss
I1226 15:07:09.991209 94141 net.cpp:178] Creating Layer loss
I1226 15:07:09.991240 94141 net.cpp:612] loss <- fc8_fc8_0_split_1
I1226 15:07:09.991273 94141 net.cpp:612] loss <- label_data_1_split_1
I1226 15:07:09.991307 94141 net.cpp:586] loss -> loss
I1226 15:07:09.991365 94141 layer_factory.hpp:114] Creating layer loss
I1226 15:07:09.996556 98617 net.cpp:228] Setting up fc8
I1226 15:07:09.996677 98617 net.cpp:235] Top shape: 64 1000 (64000)
I1226 15:07:09.996716 98617 net.cpp:243] Memory required for data: 532432384
I1226 15:07:09.996795 98617 layer_factory.hpp:114] Creating layer fc8_fc8_0_split
I1226 15:07:09.996892 98617 net.cpp:178] Creating Layer fc8_fc8_0_split
I1226 15:07:09.996944 98617 net.cpp:612] fc8_fc8_0_split <- fc8
I1226 15:07:09.997006 98617 net.cpp:586] fc8_fc8_0_split -> fc8_fc8_0_split_0
I1226 15:07:09.997084 98617 net.cpp:586] fc8_fc8_0_split -> fc8_fc8_0_split_1
I1226 15:07:09.997195 98617 net.cpp:228] Setting up fc8_fc8_0_split
I1226 15:07:09.997254 98617 net.cpp:235] Top shape: 64 1000 (64000)
I1226 15:07:09.997313 98617 net.cpp:235] Top shape: 64 1000 (64000)
I1226 15:07:09.997342 98617 net.cpp:243] Memory required for data: 532944384
I1226 15:07:09.997427 98617 layer_factory.hpp:114] Creating layer accuracy
I1226 15:07:09.997539 98617 net.cpp:178] Creating Layer accuracy
I1226 15:07:09.997594 98617 net.cpp:612] accuracy <- fc8_fc8_0_split_0
I1226 15:07:09.997644 98617 net.cpp:612] accuracy <- label_data_1_split_0
I1226 15:07:09.997704 98617 net.cpp:586] accuracy -> accuracy
…
I1226 15:07:10.018470 94141 net.cpp:307] data does not need backward computation.
I1226 15:07:10.018502 94141 net.cpp:349] This network produces output accuracy
I1226 15:07:10.018538 94141 net.cpp:349] This network produces output loss
I1226 15:07:10.018648 94141 net.cpp:363] Network initialization done.
I1226 15:07:10.019119 94141 solver.cpp:107] Solver scaffolding done.
I1226 15:07:10.019345 94141 caffe.cpp:212] Finetuning from /export/data1/stanford/hazy/gordon_bell/caffenet_knl/snapshot/caffenet_MN8_B1024/_iter_25000.caffemodel
I1226 15:07:10.035269 88575 net.cpp:228] Setting up fc8
I1226 15:07:10.035384 88575 net.cpp:235] Top shape: 64 1000 (64000)
I1226 15:07:10.035413 88575 net.cpp:243] Memory required for data: 532432384
I1226 15:07:10.035501 88575 layer_factory.hpp:114] Creating layer fc8_fc8_0_split
I1226 15:07:10.035586 88575 net.cpp:178] Creating Layer fc8_fc8_0_split
I1226 15:07:10.035627 88575 net.cpp:612] fc8_fc8_0_split <- fc8
I1226 15:07:10.035686 88575 net.cpp:586] fc8_fc8_0_split -> fc8_fc8_0_split_0
I1226 15:07:10.035733 88575 net.cpp:586] fc8_fc8_0_split -> fc8_fc8_0_split_1
I1226 15:07:10.035820 88575 net.cpp:228] Setting up fc8_fc8_0_split
I1226 15:07:10.035871 88575 net.cpp:235] Top shape: 64 1000 (64000)
I1226 15:07:10.035900 88575 net.cpp:235] Top shape: 64 1000 (64000)
I1226 15:07:10.035923 88575 net.cpp:243] Memory required for data: 532944384
I1226 15:07:10.035951 88575 layer_factory.hpp:114] Creating layer accuracy
I1226 15:07:10.036018 88575 net.cpp:178] Creating Layer accuracy
I1226 15:07:10.036051 88575 net.cpp:612] accuracy <- fc8_fc8_0_split_0
I1226 15:07:10.036082 88575 net.cpp:612] accuracy <- label_data_1_split_0
I1226 15:07:10.036115 88575 net.cpp:586] accuracy -> accuracy
I1226 15:07:10.036168 88575 net.cpp:228] Setting up accuracy
I1226 15:07:10.036206 88575 net.cpp:235] Top shape: (1)
I1226 15:07:10.036228 88575 net.cpp:243] Memory required for data: 532944388
I1226 15:07:10.036254 88575 layer_factory.hpp:114] Creating layer loss
I1226 15:07:10.036296 88575 net.cpp:178] Creating Layer loss
I1226 15:07:10.036332 88575 net.cpp:612] loss <- fc8_fc8_0_split_1
I1226 15:07:10.036367 88575 net.cpp:612] loss <- label_data_1_split_1
I1226 15:07:10.036406 88575 net.cpp:586] loss -> loss
I1226 15:07:10.036584 88575 layer_factory.hpp:114] Creating layer loss
I1226 15:07:10.035567 86144 net.cpp:228] Setting up fc8
I1226 15:07:10.035725 86144 net.cpp:235] Top shape: 64 1000 (64000)
I1226 15:07:10.035761 86144 net.cpp:243] Memory required for data: 532432384
I1226 15:07:10.035818 86144 layer_factory.hpp:114] Creating layer fc8_fc8_0_split
I1226 15:07:10.035893 86144 net.cpp:178] Creating Layer fc8_fc8_0_split
I1226 15:07:10.035933 86144 net.cpp:612] fc8_fc8_0_split <- fc8
I1226 15:07:10.035997 86144 net.cpp:586] fc8_fc8_0_split -> fc8_fc8_0_split_0
I1226 15:07:10.036051 86144 net.cpp:586] fc8_fc8_0_split -> fc8_fc8_0_split_1
I1226 15:07:10.036134 86144 net.cpp:228] Setting up fc8_fc8_0_split
I1226 15:07:10.036186 86144 net.cpp:235] Top shape: 64 1000 (64000)
I1226 15:07:10.036218 86144 net.cpp:235] Top shape: 64 1000 (64000)
I1226 15:07:10.036242 86144 net.cpp:243] Memory required for data: 532944384
I1226 15:07:10.036273 86144 layer_factory.hpp:114] Creating layer accuracy
I1226 15:07:10.036345 86144 net.cpp:178] Creating Layer accuracy
I1226 15:07:10.036381 86144 net.cpp:612] accuracy <- fc8_fc8_0_split_0
I1226 15:07:10.036412 86144 net.cpp:612] accuracy <- label_data_1_split_0
I1226 15:07:10.036451 86144 net.cpp:586] accuracy -> accuracy
I1226 15:07:10.036504 86144 net.cpp:228] Setting up accuracy
I1226 15:07:10.036541 86144 net.cpp:235] Top shape: (1)
I1226 15:07:10.036564 86144 net.cpp:243] Memory required for data: 532944388
I1226 15:07:10.036614 86144 layer_factory.hpp:114] Creating layer loss
I1226 15:07:10.036664 86144 net.cpp:178] Creating Layer loss
I1226 15:07:10.036700 86144 net.cpp:612] loss <- fc8_fc8_0_split_1
I1226 15:07:10.036736 86144 net.cpp:612] loss <- label_data_1_split_1
I1226 15:07:10.036769 86144 net.cpp:586] loss -> loss
I1226 15:07:10.036830 86144 layer_factory.hpp:114] Creating layer loss
I1226 15:07:10.032671 92800 net.cpp:228] Setting up fc8
I1226 15:07:10.032791 92800 net.cpp:235] Top shape: 64 1000 (64000)
I1226 15:07:10.032825 92800 net.cpp:243] Memory required for data: 532432384
I1226 15:07:10.032901 92800 layer_factory.hpp:114] Creating layer fc8_fc8_0_split
I1226 15:07:10.032990 92800 net.cpp:178] Creating Layer fc8_fc8_0_split
I1226 15:07:10.033037 92800 net.cpp:612] fc8_fc8_0_split <- fc8
I1226 15:07:10.033097 92800 net.cpp:586] fc8_fc8_0_split -> fc8_fc8_0_split_0
I1226 15:07:10.033154 92800 net.cpp:586] fc8_fc8_0_split -> fc8_fc8_0_split_1
I1226 15:07:10.033251 92800 net.cpp:228] Setting up fc8_fc8_0_split
I1226 15:07:10.033303 92800 net.cpp:235] Top shape: 64 1000 (64000)
I1226 15:07:10.033375 92800 net.cpp:235] Top shape: 64 1000 (64000)
I1226 15:07:10.033409 92800 net.cpp:243] Memory required for data: 532944384
I1226 15:07:10.033452 92800 layer_factory.hpp:114] Creating layer accuracy
I1226 15:07:10.033535 92800 net.cpp:178] Creating Layer accuracy
I1226 15:07:10.033586 92800 net.cpp:612] accuracy <- fc8_fc8_0_split_0
I1226 15:07:10.033627 92800 net.cpp:612] accuracy <- label_data_1_split_0
I1226 15:07:10.033679 92800 net.cpp:586] accuracy -> accuracy
…
I1226 15:07:13.502264 91784 caffe.cpp:392] Starting Multi-node Optimization in mpi environment
I1226 15:07:14.099840 92800 caffe.cpp:376] Configuring multinode setup
I1226 15:07:14.101308 92800 caffe.cpp:392] Starting Multi-node Optimization in mpi environment
I1226 15:07:14.124728 88575 caffe.cpp:376] Configuring multinode setup
I1226 15:07:14.126286 88575 caffe.cpp:392] Starting Multi-node Optimization in mpi environment
I1226 15:07:14.150082 98617 caffe.cpp:376] Configuring multinode setup
I1226 15:07:14.151597 98617 caffe.cpp:392] Starting Multi-node Optimization in mpi environment
I1226 15:07:33.908992 97634 net.cpp:228] Setting up fc6
I1226 15:07:33.909262 97634 net.cpp:235] Top shape: 64 4096 (262144)
I1226 15:07:33.909310 97634 net.cpp:243] Memory required for data: 526933504
I1226 15:07:33.909379 97634 layer_factory.hpp:114] Creating layer relu6
I1226 15:07:33.909448 97634 net.cpp:178] Creating Layer relu6
I1226 15:07:33.909556 97634 net.cpp:612] relu6 <- fc6
I1226 15:07:33.909624 97634 net.cpp:573] relu6 -> fc6 (in-place)
I1226 15:07:33.909728 97634 net.cpp:228] Setting up relu6
I1226 15:07:33.909812 97634 net.cpp:235] Top shape: 64 4096 (262144)
I1226 15:07:33.909849 97634 net.cpp:243] Memory required for data: 527982080
I1226 15:07:33.909885 97634 layer_factory.hpp:114] Creating layer drop6
I1226 15:07:33.909946 97634 net.cpp:178] Creating Layer drop6
I1226 15:07:33.909991 97634 net.cpp:612] drop6 <- fc6
I1226 15:07:33.910054 97634 net.cpp:573] drop6 -> fc6 (in-place)
I1226 15:07:33.910130 97634 net.cpp:228] Setting up drop6
I1226 15:07:33.910169 97634 net.cpp:235] Top shape: 64 4096 (262144)
I1226 15:07:33.910195 97634 net.cpp:243] Memory required for data: 529030656
I1226 15:07:33.910226 97634 layer_factory.hpp:114] Creating layer fc7
I1226 15:07:33.910300 97634 net.cpp:178] Creating Layer fc7
I1226 15:07:33.910338 97634 net.cpp:612] fc7 <- fc6
I1226 15:07:33.910382 97634 net.cpp:586] fc7 -> fc7
I1226 15:07:46.983816 97634 net.cpp:228] Setting up fc7
I1226 15:07:46.983932 97634 net.cpp:235] Top shape: 64 4096 (262144)
I1226 15:07:46.983969 97634 net.cpp:243] Memory required for data: 530079232
I1226 15:07:46.984033 97634 layer_factory.hpp:114] Creating layer relu7
I1226 15:07:46.984102 97634 net.cpp:178] Creating Layer relu7
I1226 15:07:46.984158 97634 net.cpp:612] relu7 <- fc7
I1226 15:07:46.984205 97634 net.cpp:573] relu7 -> fc7 (in-place)
I1226 15:07:46.984328 97634 net.cpp:228] Setting up relu7
I1226 15:07:46.984393 97634 net.cpp:235] Top shape: 64 4096 (262144)
I1226 15:07:46.984422 97634 net.cpp:243] Memory required for data: 531127808
I1226 15:07:46.984457 97634 layer_factory.hpp:114] Creating layer drop7
I1226 15:07:46.984499 97634 net.cpp:178] Creating Layer drop7
I1226 15:07:46.984539 97634 net.cpp:612] drop7 <- fc7
I1226 15:07:46.984581 97634 net.cpp:573] drop7 -> fc7 (in-place)
I1226 15:07:46.984630 97634 net.cpp:228] Setting up drop7
I1226 15:07:46.984673 97634 net.cpp:235] Top shape: 64 4096 (262144)
I1226 15:07:46.984706 97634 net.cpp:243] Memory required for data: 532176384
I1226 15:07:46.984736 97634 layer_factory.hpp:114] Creating layer fc8
I1226 15:07:46.984827 97634 net.cpp:178] Creating Layer fc8
I1226 15:07:46.984871 97634 net.cpp:612] fc8 <- fc7
I1226 15:07:46.984935 97634 net.cpp:586] fc8 -> fc8
I1226 15:07:50.174654 97634 net.cpp:228] Setting up fc8
I1226 15:07:50.174773 97634 net.cpp:235] Top shape: 64 1000 (64000)
I1226 15:07:50.174840 97634 net.cpp:243] Memory required for data: 532432384
I1226 15:07:50.174902 97634 layer_factory.hpp:114] Creating layer fc8_fc8_0_split
I1226 15:07:50.174971 97634 net.cpp:178] Creating Layer fc8_fc8_0_split
I1226 15:07:50.175010 97634 net.cpp:612] fc8_fc8_0_split <- fc8
I1226 15:07:50.175074 97634 net.cpp:586] fc8_fc8_0_split -> fc8_fc8_0_split_0
I1226 15:07:50.175227 97634 net.cpp:586] fc8_fc8_0_split -> fc8_fc8_0_split_1
I1226 15:07:50.175335 97634 net.cpp:228] Setting up fc8_fc8_0_split
I1226 15:07:50.175400 97634 net.cpp:235] Top shape: 64 1000 (64000)
I1226 15:07:50.175433 97634 net.cpp:235] Top shape: 64 1000 (64000)
I1226 15:07:50.175458 97634 net.cpp:243] Memory required for data: 532944384
I1226 15:07:50.175492 97634 layer_factory.hpp:114] Creating layer accuracy
I1226 15:07:50.175559 97634 net.cpp:178] Creating Layer accuracy
I1226 15:07:50.175598 97634 net.cpp:612] accuracy <- fc8_fc8_0_split_0
I1226 15:07:50.175633 97634 net.cpp:612] accuracy <- label_data_1_split_0
I1226 15:07:50.175693 97634 net.cpp:586] accuracy -> accuracy
…
