…
I1226 14:43:12.522938 97292 net.cpp:500] The NetState phase (0) differed from the phase (1) specified by a rule in layer data
I1226 14:43:12.525017 97292 net.cpp:136] Initializing net from parameters: 
name: "AlexNet"
state {
  phase: TRAIN
  level: 0
  stage: ""
}
engine: "MKL2017"
layer {
  name: "data"
  type: "Data"
  top: "data"
  top: "label"
  include {
    phase: TRAIN
  }
  transform_param {
    mirror: true
    crop_size: 227
    mean_value: 104
    mean_value: 117
    mean_value: 123
  }
  data_param {
    source: "/export/data1/stanford/hazy/zjian/gorden_bell/ILSVRC2012_lmdb/db_8/ilsvrc12_train_lmdb_4"
    batch_size: 256
    backend: LMDB
  }
}
layer {
  name: "label_data_1_split"
  type: "Split"
  bottom: "label"
  top: "label_data_1_split_0"
  top: "label_data_1_split_1"
}
layer {
  name: "conv1"
  type: "Convolution"
  bottom: "data"
  top: "conv1"
  param {
    lr_mult: 1
    decay_mult: 1
  }
  param {
    lr_mult: 2
    decay_mult: 0
  }
  convolution_param {
    num_output: 96
    kernel_size: 11
    stride: 4
    weight_filler {
      type: "gaussian"
      std: 0.01
    }
    bias_filler {
      type: "constant"
      value: 0
    }
    engine: MKL2017
  }
}
layer {
  name: "relu1"
  type: "ReLU"
  bottom: "conv1"
  top: "conv1"
  relu_param {
    engine: MKL2017
  }
}
layer {
  name: "norm1"
  type: "LRN"
  bottom: "conv1"
  top: "norm1"
  lrn_param {
    local_size: 5
    alpha: 0.0001
    beta: 0.75
    engine: MKL2017
  }
}
layer {
  name: "pool1"
  type: "Pooling"
  bottom: "norm1"
  top: "pool1"
  pooling_param {
    pool: MAX
    kernel_size: 3
    stride: 2
    engine: MKL2017
  }
}
layer {
  name: "conv2"
  type: "Convolution"
  bottom: "pool1"
  top: "conv2"
  param {
    lr_mult: 1
    decay_mult: 1
  }
  param {
    lr_mult: 2
    decay_mult: 0
  }
  convolution_param {
    num_output: 256
    pad: 2
    kernel_size: 5
    group: 2
    weight_filler {
      type: "gaussian"
      std: 0.01
    }
    bias_filler {
      type: "constant"
      value: 0.1
    }
    engine: MKL2017
  }
}
layer {
  name: "relu2"
  type: "ReLU"
  bottom: "conv2"
  top: "conv2"
  relu_param {
    engine: MKL2017
  }
}
layer {
  name: "norm2"
  type: "LRN"
  bottom: "conv2"
  top: "norm2"
  lrn_param {
    local_size: 5
    alpha: 0.0001
    beta: 0.75
    engine: MKL2017
  }
}
layer {
  name: "pool2"
  type: "Pooling"
  bottom: "norm2"
  top: "pool2"
  pooling_param {
    pool: MAX
    kernel_size: 3
    stride: 2
    engine: MKL2017
  }
}
layer {
  name: "conv3"
  type: "Convolution"
  bottom: "pool2"
  top: "conv3"
  param {
    lr_mult: 1
    decay_mult: 1
  }
  param {
    lr_mult: 2
    decay_mult: 0
  }
  convolution_param {
    num_output: 384
    pad: 1
    kernel_size: 3
    weight_filler {
      type: "gaussian"
      std: 0.01
    }
    bias_filler {
      type: "constant"
      value: 0
    }
    engine: MKL2017
  }
}
layer {
  name: "relu3"
  type: "ReLU"
  bottom: "conv3"
  top: "conv3"
  relu_param {
    engine: MKL2017
  }
}
layer {
  name: "conv4"
  type: "Convolution"
  bottom: "conv3"
  top: "conv4"
  param {
    lr_mult: 1
    decay_mult: 1
  }
  param {
    lr_mult: 2
    decay_mult: 0
  }
  convolution_param {
    num_output: 384
    pad: 1
    kernel_size: 3
    group: 2
    weight_filler {
      type: "gaussian"
      std: 0.01
    }
    bias_filler {
      type: "constant"
      value: 0.1
    }
    engine: MKL2017
  }
}
layer {
  name: "relu4"
  type: "ReLU"
  bottom: "conv4"
  top: "conv4"
  relu_param {
    engine: MKL2017
  }
}
layer {
  name: "conv5"
  type: "Convolution"
  bottom: "conv4"
  top: "conv5"
  param {
    lr_mult: 1
    decay_mult: 1
  }
  param {
    lr_mult: 2
    decay_mult: 0
  }
  convolution_param {
    num_output: 256
    pad: 1
    kernel_size: 3
    group: 2
    weight_filler {
      type: "gaussian"
      std: 0.01
    }
    bias_filler {
      type: "constant"
      value: 0.1
    }
    engine: MKL2017
  }
}
layer {
  name: "relu5"
  type: "ReLU"
  bottom: "conv5"
  top: "conv5"
  relu_param {
    engine: MKL2017
  }
}
layer {
  name: "pool5"
  type: "Pooling"
  bottom: "conv5"
  top: "pool5"
  pooling_param {
    pool: MAX
    kernel_size: 3
    stride: 2
    engine: MKL2017
  }
}
layer {
  name: "fc6"
  type: "InnerProduct"
  bottom: "pool5"
  top: "fc6"
  param {
    lr_mult: 1
    decay_mult: 1
  }
  param {
    lr_mult: 2
    decay_mult: 0
  }
  inner_product_param {
    num_output: 4096
    weight_filler {
      type: "gaussian"
      std: 0.005
    }
    bias_filler {
      type: "constant"
      value: 0.1
    }
  }
}
layer {
  name: "relu6"
  type: "ReLU"
  bottom: "fc6"
  top: "fc6"
}
layer {
  name: "drop6"
  type: "Dropout"
  bottom: "fc6"
  top: "fc6"
  dropout_param {
    dropout_ratio: 0.5
  }
}
layer {
  name: "fc7"
  type: "InnerProduct"
  bottom: "fc6"
  top: "fc7"
  param {
    lr_mult: 1
    decay_mult: 1
  }
  param {
    lr_mult: 2
    decay_mult: 0
  }
  inner_product_param {
    num_output: 4096
    weight_filler {
      type: "gaussian"
      std: 0.005
    }
    bias_filler {
      type: "constant"
      value: 0.1
    }
  }
}
layer {
  name: "relu7"
  type: "ReLU"
  bottom: "fc7"
  top: "fc7"
}
layer {
  name: "drop7"
  type: "Dropout"
  bottom: "fc7"
  top: "fc7"
  dropout_param {
    dropout_ratio: 0.5
  }
}
layer {
  name: "fc8"
  type: "InnerProduct"
  bottom: "fc7"
  top: "fc8"
  param {
    lr_mult: 1
    decay_mult: 1
  }
  param {
    lr_mult: 2
    decay_mult: 0
  }
  inner_product_param {
    num_output: 1000
    weight_filler {
      type: "gaussian"
      std: 0.01
    }
    bias_filler {
      type: "constant"
      value: 0
    }
  }
}
layer {
  name: "fc8_fc8_0_split"
  type: "Split"
  bottom: "fc8"
  top: "fc8_fc8_0_split_0"
  top: "fc8_fc8_0_split_1"
}
layer {
  name: "accuracy"
  type: "Accuracy"
  bottom: "fc8_fc8_0_split_0"
  bottom: "label_data_1_split_0"
  top: "accuracy"
}
layer {
  name: "loss"
  type: "SoftmaxWithLoss"
  bottom: "fc8_fc8_0_split_1"
  bottom: "label_data_1_split_1"
  top: "loss"
}
I1226 14:43:12.546960 94810 cpu_info.cpp:473] Number of OpenMP threads: 66
I1226 14:43:12.547260 94810 net.cpp:500] The NetState phase (0) differed from the phase (1) specified by a rule in layer data
I1226 14:43:12.560427 92783 cpu_info.cpp:473] Number of OpenMP threads: 66
I1226 14:43:12.560745 92783 net.cpp:500] The NetState phase (0) differed from the phase (1) specified by a rule in layer data
I1226 14:43:12.548869 94810 net.cpp:136] Initializing net from parameters: 
name: "AlexNet"
state {
  phase: TRAIN
  level: 0
  stage: ""
}
engine: "MKL2017"
layer {
  name: "data"
  type: "Data"
  top: "data"
  top: "label"
  include {
    phase: TRAIN
  }
  transform_param {
    mirror: true
    crop_size: 227
    mean_value: 104
    mean_value: 117
    mean_value: 123
  }
  data_param {
    source: "/export/data1/stanford/hazy/zjian/gorden_bell/ILSVRC2012_lmdb/db_8/ilsvrc12_train_lmdb_5"
    batch_size: 256
    backend: LMDB
  }
}
layer {
  name: "label_data_1_split"
  type: "Split"
  bottom: "label"
  top: "label_data_1_split_0"
  top: "label_data_1_split_1"
}
layer {
  name: "conv1"
  type: "Convolution"
  bottom: "data"
  top: "conv1"
  param {
    lr_mult: 1
    decay_mult: 1
  }
  param {
    lr_mult: 2
    decay_mult: 0
  }
  convolution_param {
    num_output: 96
    kernel_size: 11
    stride: 4
    weight_filler {
      type: "gaussian"
      std: 0.01
    }
    bias_filler {
      type: "constant"
      value: 0
    }
    engine: MKL2017
  }
}
layer {
  name: "relu1"
  type: "ReLU"
  bottom: "conv1"
  top: "conv1"
  relu_param {
    engine: MKL2017
  }
}
layer {
  name: "norm1"
  type: "LRN"
  bottom: "conv1"
  top: "norm1"
  lrn_param {
    local_size: 5
    alpha: 0.0001
    beta: 0.75
    engine: MKL2017
  }
}
layer {
  name: "pool1"
  type: "Pooling"
  bottom: "norm1"
  top: "pool1"
  pooling_param {
    pool: MAX
    kernel_size: 3
    stride: 2
    engine: MKL2017
  }
}
layer {
  name: "conv2"
  type: "Convolution"
  bottom: "pool1"
  top: "conv2"
  param {
    lr_mult: 1
    decay_mult: 1
  }
  param {
    lr_mult: 2
    decay_mult: 0
  }
  convolution_param {
    num_output: 256
    pad: 2
    kernel_size: 5
    group: 2
    weight_filler {
      type: "gaussian"
      std: 0.01
    }
    bias_filler {
      type: "constant"
      value: 0.1
    }
    engine: MKL2017
  }
}
layer {
  name: "relu2"
  type: "ReLU"
  bottom: "conv2"
  top: "conv2"
  relu_param {
    engine: MKL2017
  }
}
layer {
  name: "norm2"
  type: "LRN"
  bottom: "conv2"
  top: "norm2"
  lrn_param {
    local_size: 5
    alpha: 0.0001
    beta: 0.75
    engine: MKL2017
  }
}
layer {
  name: "pool2"
  type: "Pooling"
  bottom: "norm2"
  top: "pool2"
  pooling_param {
    pool: MAX
    kernel_size: 3
    stride: 2
    engine: MKL2017
  }
}
layer {
  name: "conv3"
  type: "Convolution"
  bottom: "pool2"
  top: "conv3"
  param {
    lr_mult: 1
    decay_mult: 1
  }
  param {
    lr_mult: 2
    decay_mult: 0
  }
  convolution_param {
    num_output: 384
    pad: 1
    kernel_size: 3
    weight_filler {
      type: "gaussian"
      std: 0.01
    }
    bias_filler {
      type: "constant"
      value: 0
    }
    engine: MKL2017
  }
}
layer {
  name: "relu3"
  type: "ReLU"
  bottom: "conv3"
  top: "conv3"
  relu_param {
    engine: MKL2017
  }
}
layer {
  name: "conv4"
  type: "Convolution"
  bottom: "conv3"
  top: "conv4"
  param {
    lr_mult: 1
    decay_mult: 1
  }
  param {
    lr_mult: 2
    decay_mult: 0
  }
  convolution_param {
    num_output: 384
    pad: 1
    kernel_size: 3
    group: 2
    weight_filler {
      type: "gaussian"
      std: 0.01
    }
    bias_filler {
      type: "constant"
      value: 0.1
    }
    engine: MKL2017
  }
}
layer {
  name: "relu4"
  type: "ReLU"
  bottom: "conv4"
  top: "conv4"
  relu_param {
    engine: MKL2017
  }
}
layer {
  name: "conv5"
  type: "Convolution"
  bottom: "conv4"
  top: "conv5"
  param {
    lr_mult: 1
    decay_mult: 1
  }
  param {
    lr_mult: 2
    decay_mult: 0
  }
  convolution_param {
    num_output: 256
    pad: 1
    kernel_size: 3
    group: 2
    weight_filler {
      type: "gaussian"
      std: 0.01
    }
    bias_filler {
      type: "constant"
      value: 0.1
    }
    engine: MKL2017
  }
}
layer {
  name: "relu5"
  type: "ReLU"
  bottom: "conv5"
  top: "conv5"
  relu_param {
    engine: MKL2017
  }
}
layer {
  name: "pool5"
  type: "Pooling"
  bottom: "conv5"
  top: "pool5"
  pooling_param {
    pool: MAX
    kernel_size: 3
    stride: 2
    engine: MKL2017
  }
}
layer {
  name: "fc6"
  type: "InnerProduct"
  bottom: "pool5"
  top: "fc6"
  param {
    lr_mult: 1
    decay_mult: 1
  }
  param {
    lr_mult: 2
    decay_mult: 0
  }
  inner_product_param {
    num_output: 4096
    weight_filler {
      type: "gaussian"
      std: 0.005
    }
    bias_filler {
      type: "constant"
      value: 0.1
    }
  }
}
layer {
  name: "relu6"
  type: "ReLU"
  bottom: "fc6"
  top: "fc6"
}
layer {
  name: "drop6"
  type: "Dropout"
  bottom: "fc6"
  top: "fc6"
  dropout_param {
    dropout_ratio: 0.5
  }
}
layer {
  name: "fc7"
  type: "InnerProduct"
  bottom: "fc6"
  top: "fc7"
  param {
    lr_mult: 1
    decay_mult: 1
  }
  param {
    lr_mult: 2
    decay_mult: 0
  }
  inner_product_param {
    num_output: 4096
    weight_filler {
      type: "gaussian"
      std: 0.005
    }
    bias_filler {
      type: "constant"
      value: 0.1
    }
  }
}
layer {
  name: "relu7"
  type: "ReLU"
  bottom: "fc7"
  top: "fc7"
}
layer {
  name: "drop7"
  type: "Dropout"
  bottom: "fc7"
  top: "fc7"
  dropout_param {
    dropout_ratio: 0.5
  }
}
layer {
  name: "fc8"
  type: "InnerProduct"
  bottom: "fc7"
  top: "fc8"
  param {
    lr_mult: 1
    decay_mult: 1
  }
  param {
    lr_mult: 2
    decay_mult: 0
  }
  inner_product_param {
    num_output: 1000
    weight_filler {
      type: "gaussian"
      std: 0.01
    }
    bias_filler {
      type: "constant"
      value: 0
    }
  }
}
layer {
  name: "fc8_fc8_0_split"
  type: "Split"
  bottom: "fc8"
  top: "fc8_fc8_0_split_0"
  top: "fc8_fc8_0_split_1"
}
layer {
  name: "accuracy"
  type: "Accuracy"
  bottom: "fc8_fc8_0_split_0"
  bottom: "label_data_1_split_0"
  top: "accuracy"
}
layer {
  name: "loss"
  type: "SoftmaxWithLoss"
  bottom: "fc8_fc8_0_split_1"
  bottom: "label_data_1_split_1"
  top: "loss"
}
I1226 14:43:12.559500 85791 cpu_info.cpp:473] Number of OpenMP threads: 66
I1226 14:43:12.559831 85791 net.cpp:500] The NetState phase (0) differed from the phase (1) specified by a rule in layer data
I1226 14:43:12.562789 92783 net.cpp:136] Initializing net from parameters: 
name: "AlexNet"
state {
  phase: TRAIN
  level: 0
  stage: ""
}
engine: "MKL2017"
layer {
  name: "data"
  type: "Data"
  top: "data"
  top: "label"
  include {
    phase: TRAIN
  }
  transform_param {
    mirror: true
    crop_size: 227
    mean_value: 104
    mean_value: 117
    mean_value: 123
  }
  data_param {
    source: "/export/data1/stanford/hazy/zjian/gorden_bell/ILSVRC2012_lmdb/db_8/ilsvrc12_train_lmdb_0"
    batch_size: 256
    backend: LMDB
  }
}
layer {
  name: "label_data_1_split"
  type: "Split"
  bottom: "label"
  top: "label_data_1_split_0"
  top: "label_data_1_split_1"
}
layer {
  name: "conv1"
  type: "Convolution"
  bottom: "data"
  top: "conv1"
  param {
    lr_mult: 1
    decay_mult: 1
  }
  param {
    lr_mult: 2
    decay_mult: 0
  }
  convolution_param {
    num_output: 96
    kernel_size: 11
    stride: 4
    weight_filler {
      type: "gaussian"
      std: 0.01
    }
    bias_filler {
      type: "constant"
      value: 0
    }
    engine: MKL2017
  }
}
layer {
  name: "relu1"
  type: "ReLU"
  bottom: "conv1"
  top: "conv1"
  relu_param {
    engine: MKL2017
  }
}
layer {
  name: "norm1"
  type: "LRN"
  bottom: "conv1"
  top: "norm1"
  lrn_param {
    local_size: 5
    alpha: 0.0001
    beta: 0.75
    engine: MKL2017
  }
}
layer {
  name: "pool1"
  type: "Pooling"
  bottom: "norm1"
  top: "pool1"
  pooling_param {
    pool: MAX
    kernel_size: 3
    stride: 2
    engine: MKL2017
  }
}
layer {
  name: "conv2"
  type: "Convolution"
  bottom: "pool1"
  top: "conv2"
  param {
    lr_mult: 1
    decay_mult: 1
  }
  param {
    lr_mult: 2
    decay_mult: 0
  }
  convolution_param {
    num_output: 256
    pad: 2
    kernel_size: 5
    group: 2
    weight_filler {
      type: "gaussian"
      std: 0.01
    }
    bias_filler {
      type: "constant"
      value: 0.1
    }
    engine: MKL2017
  }
}
layer {
  name: "relu2"
  type: "ReLU"
  bottom: "conv2"
  top: "conv2"
  relu_param {
    engine: MKL2017
  }
}
layer {
  name: "norm2"
  type: "LRN"
  bottom: "conv2"
  top: "norm2"
  lrn_param {
    local_size: 5
    alpha: 0.0001
    beta: 0.75
    engine: MKL2017
  }
}
layer {
  name: "pool2"
  type: "Pooling"
  bottom: "norm2"
  top: "pool2"
  pooling_param {
    pool: MAX
    kernel_size: 3
    stride: 2
    engine: MKL2017
  }
}
layer {
  name: "conv3"
  type: "Convolution"
  bottom: "pool2"
  top: "conv3"
  param {
    lr_mult: 1
    decay_mult: 1
  }
  param {
    lr_mult: 2
    decay_mult: 0
  }
  convolution_param {
    num_output: 384
    pad: 1
    kernel_size: 3
    weight_filler {
      type: "gaussian"
      std: 0.01
    }
    bias_filler {
      type: "constant"
      value: 0
    }
    engine: MKL2017
  }
}
layer {
  name: "relu3"
  type: "ReLU"
  bottom: "conv3"
  top: "conv3"
  relu_param {
    engine: MKL2017
  }
}
layer {
  name: "conv4"
  type: "Convolution"
  bottom: "conv3"
  top: "conv4"
  param {
    lr_mult: 1
    decay_mult: 1
  }
  param {
    lr_mult: 2
    decay_mult: 0
  }
  convolution_param {
    num_output: 384
    pad: 1
    kernel_size: 3
    group: 2
    weight_filler {
      type: "gaussian"
      std: 0.01
    }
    bias_filler {
      type: "constant"
      value: 0.1
    }
    engine: MKL2017
  }
}
layer {
  name: "relu4"
  type: "ReLU"
  bottom: "conv4"
  top: "conv4"
  relu_param {
    engine: MKL2017
  }
}
layer {
  name: "conv5"
  type: "Convolution"
  bottom: "conv4"
  top: "conv5"
  param {
    lr_mult: 1
    decay_mult: 1
  }
  param {
    lr_mult: 2
    decay_mult: 0
  }
  convolution_param {
    num_output: 256
    pad: 1
    kernel_size: 3
    group: 2
    weight_filler {
      type: "gaussian"
      std: 0.01
    }
    bias_filler {
      type: "constant"
      value: 0.1
    }
    engine: MKL2017
  }
}
layer {
  name: "relu5"
  type: "ReLU"
  bottom: "conv5"
  top: "conv5"
  relu_param {
    engine: MKL2017
  }
}
layer {
  name: "pool5"
  type: "Pooling"
  bottom: "conv5"
  top: "pool5"
  pooling_param {
    pool: MAX
    kernel_size: 3
    stride: 2
    engine: MKL2017
  }
}
layer {
  name: "fc6"
  type: "InnerProduct"
  bottom: "pool5"
  top: "fc6"
  param {
    lr_mult: 1
    decay_mult: 1
  }
  param {
    lr_mult: 2
    decay_mult: 0
  }
  inner_product_param {
    num_output: 4096
    weight_filler {
      type: "gaussian"
      std: 0.005
    }
    bias_filler {
      type: "constant"
      value: 0.1
    }
  }
}
layer {
  name: "relu6"
  type: "ReLU"
  bottom: "fc6"
  top: "fc6"
}
layer {
  name: "drop6"
  type: "Dropout"
  bottom: "fc6"
  top: "fc6"
  dropout_param {
    dropout_ratio: 0.5
  }
}
layer {
  name: "fc7"
  type: "InnerProduct"
  bottom: "fc6"
  top: "fc7"
  param {
    lr_mult: 1
    decay_mult: 1
  }
  param {
    lr_mult: 2
    decay_mult: 0
  }
  inner_product_param {
    num_output: 4096
    weight_filler {
      type: "gaussian"
      std: 0.005
    }
    bias_filler {
      type: "constant"
      value: 0.1
    }
  }
}
layer {
  name: "relu7"
  type: "ReLU"
  bottom: "fc7"
  top: "fc7"
}
layer {
  name: "drop7"
  type: "Dropout"
  bottom: "fc7"
  top: "fc7"
  dropout_param {
    dropout_ratio: 0.5
  }
}
layer {
  name: "fc8"
  type: "InnerProduct"
  bottom: "fc7"
  top: "fc8"
  param {
    lr_mult: 1
    decay_mult: 1
  }
  param {
    lr_mult: 2
    decay_mult: 0
  }
  inner_product_param {
    num_output: 1000
    weight_filler {
      type: "gaussian"
      std: 0.01
    }
    bias_filler {
      type: "constant"
      value: 0
    }
  }
}
layer {
  name: "fc8_fc8_0_split"
  type: "Split"
  bottom: "fc8"
  top: "fc8_fc8_0_split_0"
  top: "fc8_fc8_0_split_1"
}
layer {
  name: "accuracy"
  type: "Accuracy"
  bottom: "fc8_fc8_0_split_0"
  bottom: "label_data_1_split_0"
  top: "accuracy"
}
layer {
  name: "loss"
  type: "SoftmaxWithLoss"
  bottom: "fc8_fc8_0_split_1"
  bottom: "label_data_1_split_1"
  top: "loss"
}
I1226 14:43:12.561386 85791 net.cpp:136] Initializing net from parameters: 
name: "AlexNet"
state {
  phase: TRAIN
  level: 0
  stage: ""
}
engine: "MKL2017"
layer {
  name: "data"
  type: "Data"
  top: "data"
  top: "label"
  include {
    phase: TRAIN
  }
  transform_param {
    mirror: true
    crop_size: 227
    mean_value: 104
    mean_value: 117
    mean_value: 123
  }
  data_param {
    source: "/export/data1/stanford/hazy/zjian/gorden_bell/ILSVRC2012_lmdb/db_8/ilsvrc12_train_lmdb_6"
    batch_size: 256
    backend: LMDB
  }
}
layer {
  name: "label_data_1_split"
  type: "Split"
  bottom: "label"
  top: "label_data_1_split_0"
  top: "label_data_1_split_1"
}
layer {
  name: "conv1"
  type: "Convolution"
  bottom: "data"
  top: "conv1"
  param {
    lr_mult: 1
    decay_mult: 1
  }
  param {
    lr_mult: 2
    decay_mult: 0
  }
  convolution_param {
    num_output: 96
    kernel_size: 11
    stride: 4
    weight_filler {
      type: "gaussian"
      std: 0.01
    }
    bias_filler {
      type: "constant"
      value: 0
    }
    engine: MKL2017
  }
}
layer {
  name: "relu1"
  type: "ReLU"
  bottom: "conv1"
  top: "conv1"
  relu_param {
    engine: MKL2017
  }
}
layer {
  name: "norm1"
  type: "LRN"
  bottom: "conv1"
  top: "norm1"
  lrn_param {
    local_size: 5
    alpha: 0.0001
    beta: 0.75
    engine: MKL2017
  }
}
layer {
  name: "pool1"
  type: "Pooling"
  bottom: "norm1"
  top: "pool1"
  pooling_param {
    pool: MAX
    kernel_size: 3
    stride: 2
    engine: MKL2017
  }
}
layer {
  name: "conv2"
  type: "Convolution"
  bottom: "pool1"
  top: "conv2"
  param {
    lr_mult: 1
    decay_mult: 1
  }
  param {
    lr_mult: 2
    decay_mult: 0
  }
  convolution_param {
    num_output: 256
    pad: 2
    kernel_size: 5
    group: 2
    weight_filler {
      type: "gaussian"
      std: 0.01
    }
    bias_filler {
      type: "constant"
      value: 0.1
    }
    engine: MKL2017
  }
}
layer {
  name: "relu2"
  type: "ReLU"
  bottom: "conv2"
  top: "conv2"
  relu_param {
    engine: MKL2017
  }
}
layer {
  name: "norm2"
  type: "LRN"
  bottom: "conv2"
  top: "norm2"
  lrn_param {
    local_size: 5
    alpha: 0.0001
    beta: 0.75
    engine: MKL2017
  }
}
layer {
  name: "pool2"
  type: "Pooling"
  bottom: "norm2"
  top: "pool2"
  pooling_param {
    pool: MAX
    kernel_size: 3
    stride: 2
    engine: MKL2017
  }
}
layer {
  name: "conv3"
  type: "Convolution"
  bottom: "pool2"
  top: "conv3"
  param {
    lr_mult: 1
    decay_mult: 1
  }
  param {
    lr_mult: 2
    decay_mult: 0
  }
  convolution_param {
    num_output: 384
    pad: 1
    kernel_size: 3
    weight_filler {
      type: "gaussian"
      std: 0.01
    }
    bias_filler {
      type: "constant"
      value: 0
    }
    engine: MKL2017
  }
}
layer {
  name: "relu3"
  type: "ReLU"
  bottom: "conv3"
  top: "conv3"
  relu_param {
    engine: MKL2017
  }
}
layer {
  name: "conv4"
  type: "Convolution"
  bottom: "conv3"
  top: "conv4"
  param {
    lr_mult: 1
    decay_mult: 1
  }
  param {
    lr_mult: 2
    decay_mult: 0
  }
  convolution_param {
    num_output: 384
    pad: 1
    kernel_size: 3
    group: 2
    weight_filler {
      type: "gaussian"
      std: 0.01
    }
    bias_filler {
      type: "constant"
      value: 0.1
    }
    engine: MKL2017
  }
}
layer {
  name: "relu4"
  type: "ReLU"
  bottom: "conv4"
  top: "conv4"
  relu_param {
    engine: MKL2017
  }
}
layer {
  name: "conv5"
  type: "Convolution"
  bottom: "conv4"
  top: "conv5"
  param {
    lr_mult: 1
    decay_mult: 1
  }
  param {
    lr_mult: 2
    decay_mult: 0
  }
  convolution_param {
    num_output: 256
    pad: 1
    kernel_size: 3
    group: 2
    weight_filler {
      type: "gaussian"
      std: 0.01
    }
    bias_filler {
      type: "constant"
      value: 0.1
    }
    engine: MKL2017
  }
}
layer {
  name: "relu5"
  type: "ReLU"
  bottom: "conv5"
  top: "conv5"
  relu_param {
    engine: MKL2017
  }
}
layer {
  name: "pool5"
  type: "Pooling"
  bottom: "conv5"
  top: "pool5"
  pooling_param {
    pool: MAX
    kernel_size: 3
    stride: 2
    engine: MKL2017
  }
}
layer {
  name: "fc6"
  type: "InnerProduct"
  bottom: "pool5"
  top: "fc6"
  param {
    lr_mult: 1
    decay_mult: 1
  }
  param {
    lr_mult: 2
    decay_mult: 0
  }
  inner_product_param {
    num_output: 4096
    weight_filler {
      type: "gaussian"
      std: 0.005
    }
    bias_filler {
      type: "constant"
      value: 0.1
    }
  }
}
layer {
  name: "relu6"
  type: "ReLU"
  bottom: "fc6"
  top: "fc6"
}
layer {
  name: "drop6"
  type: "Dropout"
  bottom: "fc6"
  top: "fc6"
  dropout_param {
    dropout_ratio: 0.5
  }
}
layer {
  name: "fc7"
  type: "InnerProduct"
  bottom: "fc6"
  top: "fc7"
  param {
    lr_mult: 1
    decay_mult: 1
  }
  param {
    lr_mult: 2
    decay_mult: 0
  }
  inner_product_param {
    num_output: 4096
    weight_filler {
      type: "gaussian"
      std: 0.005
    }
    bias_filler {
      type: "constant"
      value: 0.1
    }
  }
}
layer {
  name: "relu7"
  type: "ReLU"
  bottom: "fc7"
  top: "fc7"
}
layer {
  name: "drop7"
  type: "Dropout"
  bottom: "fc7"
  top: "fc7"
  dropout_param {
    dropout_ratio: 0.5
  }
}
layer {
  name: "fc8"
  type: "InnerProduct"
  bottom: "fc7"
  top: "fc8"
  param {
    lr_mult: 1
    decay_mult: 1
  }
  param {
    lr_mult: 2
    decay_mult: 0
  }
  inner_product_param {
    num_output: 1000
    weight_filler {
      type: "gaussian"
      std: 0.01
    }
    bias_filler {
      type: "constant"
      value: 0
    }
  }
}
layer {
  name: "fc8_fc8_0_split"
  type: "Split"
  bottom: "fc8"
  top: "fc8_fc8_0_split_0"
  top: "fc8_fc8_0_split_1"
}
layer {
  name: "accuracy"
  type: "Accuracy"
  bottom: "fc8_fc8_0_split_0"
  bottom: "label_data_1_split_0"
  top: "accuracy"
}
layer {
  name: "loss"
  type: "SoftmaxWithLoss"
  bottom: "fc8_fc8_0_split_1"
  bottom: "label_data_1_split_1"
  top: "loss"
}
I1226 14:43:12.555366 97719 cpu_info.cpp:473] Number of OpenMP threads: 66
I1226 14:43:12.555711 97719 net.cpp:500] The NetState phase (0) differed from the phase (1) specified by a rule in layer data
I1226 14:43:12.569557 91922 cpu_info.cpp:473] Number of OpenMP threads: 66
I1226 14:43:12.569952 91922 net.cpp:500] The NetState phase (0) differed from the phase (1) specified by a rule in layer data
I1226 14:43:12.557833 97719 net.cpp:136] Initializing net from parameters: 
name: "AlexNet"
state {
  phase: TRAIN
  level: 0
  stage: ""
}
engine: "MKL2017"
layer {
  name: "data"
  type: "Data"
  top: "data"
  top: "label"
  include {
    phase: TRAIN
  }
  transform_param {
    mirror: true
    crop_size: 227
    mean_value: 104
    mean_value: 117
    mean_value: 123
  }
  data_param {
    source: "/export/data1/stanford/hazy/zjian/gorden_bell/ILSVRC2012_lmdb/db_8/ilsvrc12_train_lmdb_3"
    batch_size: 256
    backend: LMDB
  }
}
layer {
  name: "label_data_1_split"
  type: "Split"
  bottom: "label"
  top: "label_data_1_split_0"
  top: "label_data_1_split_1"
}
layer {
  name: "conv1"
  type: "Convolution"
  bottom: "data"
  top: "conv1"
  param {
    lr_mult: 1
    decay_mult: 1
  }
  param {
    lr_mult: 2
    decay_mult: 0
  }
  convolution_param {
    num_output: 96
    kernel_size: 11
    stride: 4
    weight_filler {
      type: "gaussian"
      std: 0.01
    }
    bias_filler {
      type: "constant"
      value: 0
    }
    engine: MKL2017
  }
}
layer {
  name: "relu1"
  type: "ReLU"
  bottom: "conv1"
  top: "conv1"
  relu_param {
    engine: MKL2017
  }
}
layer {
  name: "norm1"
  type: "LRN"
  bottom: "conv1"
  top: "norm1"
  lrn_param {
    local_size: 5
    alpha: 0.0001
    beta: 0.75
    engine: MKL2017
  }
}
layer {
  name: "pool1"
  type: "Pooling"
  bottom: "norm1"
  top: "pool1"
  pooling_param {
    pool: MAX
    kernel_size: 3
    stride: 2
    engine: MKL2017
  }
}
layer {
  name: "conv2"
  type: "Convolution"
  bottom: "pool1"
  top: "conv2"
  param {
    lr_mult: 1
    decay_mult: 1
  }
  param {
    lr_mult: 2
    decay_mult: 0
  }
  convolution_param {
    num_output: 256
    pad: 2
    kernel_size: 5
    group: 2
    weight_filler {
      type: "gaussian"
      std: 0.01
    }
    bias_filler {
      type: "constant"
      value: 0.1
    }
    engine: MKL2017
  }
}
layer {
  name: "relu2"
  type: "ReLU"
  bottom: "conv2"
  top: "conv2"
  relu_param {
    engine: MKL2017
  }
}
layer {
  name: "norm2"
  type: "LRN"
  bottom: "conv2"
  top: "norm2"
  lrn_param {
    local_size: 5
    alpha: 0.0001
    beta: 0.75
    engine: MKL2017
  }
}
layer {
  name: "pool2"
  type: "Pooling"
  bottom: "norm2"
  top: "pool2"
  pooling_param {
    pool: MAX
    kernel_size: 3
    stride: 2
    engine: MKL2017
  }
}
layer {
  name: "conv3"
  type: "Convolution"
  bottom: "pool2"
  top: "conv3"
  param {
    lr_mult: 1
    decay_mult: 1
  }
  param {
    lr_mult: 2
    decay_mult: 0
  }
  convolution_param {
    num_output: 384
    pad: 1
    kernel_size: 3
    weight_filler {
      type: "gaussian"
      std: 0.01
    }
    bias_filler {
      type: "constant"
      value: 0
    }
    engine: MKL2017
  }
}
layer {
  name: "relu3"
  type: "ReLU"
  bottom: "conv3"
  top: "conv3"
  relu_param {
    engine: MKL2017
  }
}
layer {
  name: "conv4"
  type: "Convolution"
  bottom: "conv3"
  top: "conv4"
  param {
    lr_mult: 1
    decay_mult: 1
  }
  param {
    lr_mult: 2
    decay_mult: 0
  }
  convolution_param {
    num_output: 384
    pad: 1
    kernel_size: 3
    group: 2
    weight_filler {
      type: "gaussian"
      std: 0.01
    }
    bias_filler {
      type: "constant"
      value: 0.1
    }
    engine: MKL2017
  }
}
layer {
  name: "relu4"
  type: "ReLU"
  bottom: "conv4"
  top: "conv4"
  relu_param {
    engine: MKL2017
  }
}
layer {
  name: "conv5"
  type: "Convolution"
  bottom: "conv4"
  top: "conv5"
  param {
    lr_mult: 1
    decay_mult: 1
  }
  param {
    lr_mult: 2
    decay_mult: 0
  }
  convolution_param {
    num_output: 256
    pad: 1
    kernel_size: 3
    group: 2
    weight_filler {
      type: "gaussian"
      std: 0.01
    }
    bias_filler {
      type: "constant"
      value: 0.1
    }
    engine: MKL2017
  }
}
layer {
  name: "relu5"
  type: "ReLU"
  bottom: "conv5"
  top: "conv5"
  relu_param {
    engine: MKL2017
  }
}
layer {
  name: "pool5"
  type: "Pooling"
  bottom: "conv5"
  top: "pool5"
  pooling_param {
    pool: MAX
    kernel_size: 3
    stride: 2
    engine: MKL2017
  }
}
layer {
  name: "fc6"
  type: "InnerProduct"
  bottom: "pool5"
  top: "fc6"
  param {
    lr_mult: 1
    decay_mult: 1
  }
  param {
    lr_mult: 2
    decay_mult: 0
  }
  inner_product_param {
    num_output: 4096
    weight_filler {
      type: "gaussian"
      std: 0.005
    }
    bias_filler {
      type: "constant"
      value: 0.1
    }
  }
}
layer {
  name: "relu6"
  type: "ReLU"
  bottom: "fc6"
  top: "fc6"
}
layer {
  name: "drop6"
  type: "Dropout"
  bottom: "fc6"
  top: "fc6"
  dropout_param {
    dropout_ratio: 0.5
  }
}
layer {
  name: "fc7"
  type: "InnerProduct"
  bottom: "fc6"
  top: "fc7"
  param {
    lr_mult: 1
    decay_mult: 1
  }
  param {
    lr_mult: 2
    decay_mult: 0
  }
  inner_product_param {
    num_output: 4096
    weight_filler {
      type: "gaussian"
      std: 0.005
    }
    bias_filler {
      type: "constant"
      value: 0.1
    }
  }
}
layer {
  name: "relu7"
  type: "ReLU"
  bottom: "fc7"
  top: "fc7"
}
layer {
  name: "drop7"
  type: "Dropout"
  bottom: "fc7"
  top: "fc7"
  dropout_param {
    dropout_ratio: 0.5
  }
}
layer {
  name: "fc8"
  type: "InnerProduct"
  bottom: "fc7"
  top: "fc8"
  param {
    lr_mult: 1
    decay_mult: 1
  }
  param {
    lr_mult: 2
    decay_mult: 0
  }
  inner_product_param {
    num_output: 1000
    weight_filler {
      type: "gaussian"
      std: 0.01
    }
    bias_filler {
      type: "constant"
      value: 0
    }
  }
}
layer {
  name: "fc8_fc8_0_split"
  type: "Split"
  bottom: "fc8"
  top: "fc8_fc8_0_split_0"
  top: "fc8_fc8_0_split_1"
}
layer {
  name: "accuracy"
  type: "Accuracy"
  bottom: "fc8_fc8_0_split_0"
  bottom: "label_data_1_split_0"
  top: "accuracy"
}
layer {
  name: "loss"
  type: "SoftmaxWithLoss"
  bottom: "fc8_fc8_0_split_1"
  bottom: "label_data_1_split_1"
  top: "loss"
}
I1226 14:43:12.572279 91922 net.cpp:136] Initializing net from parameters: 
name: "AlexNet"
state {
  phase: TRAIN
  level: 0
  stage: ""
}
engine: "MKL2017"
layer {
  name: "data"
  type: "Data"
  top: "data"
  top: "label"
  include {
    phase: TRAIN
  }
  transform_param {
    mirror: true
    crop_size: 227
    mean_value: 104
    mean_value: 117
    mean_value: 123
  }
  data_param {
    source: "/export/data1/stanford/hazy/zjian/gorden_bell/ILSVRC2012_lmdb/db_8/ilsvrc12_train_lmdb_7"
    batch_size: 256
    backend: LMDB
  }
}
layer {
  name: "label_data_1_split"
  type: "Split"
  bottom: "label"
  top: "label_data_1_split_0"
  top: "label_data_1_split_1"
}
layer {
  name: "conv1"
  type: "Convolution"
  bottom: "data"
  top: "conv1"
  param {
    lr_mult: 1
    decay_mult: 1
  }
  param {
    lr_mult: 2
    decay_mult: 0
  }
  convolution_param {
    num_output: 96
    kernel_size: 11
    stride: 4
    weight_filler {
      type: "gaussian"
      std: 0.01
    }
    bias_filler {
      type: "constant"
      value: 0
    }
    engine: MKL2017
  }
}
layer {
  name: "relu1"
  type: "ReLU"
  bottom: "conv1"
  top: "conv1"
  relu_param {
    engine: MKL2017
  }
}
layer {
  name: "norm1"
  type: "LRN"
  bottom: "conv1"
  top: "norm1"
  lrn_param {
    local_size: 5
    alpha: 0.0001
    beta: 0.75
    engine: MKL2017
  }
}
layer {
  name: "pool1"
  type: "Pooling"
  bottom: "norm1"
  top: "pool1"
  pooling_param {
    pool: MAX
    kernel_size: 3
    stride: 2
    engine: MKL2017
  }
}
layer {
  name: "conv2"
  type: "Convolution"
  bottom: "pool1"
  top: "conv2"
  param {
    lr_mult: 1
    decay_mult: 1
  }
  param {
    lr_mult: 2
    decay_mult: 0
  }
  convolution_param {
    num_output: 256
    pad: 2
    kernel_size: 5
    group: 2
    weight_filler {
      type: "gaussian"
      std: 0.01
    }
    bias_filler {
      type: "constant"
      value: 0.1
    }
    engine: MKL2017
  }
}
layer {
  name: "relu2"
  type: "ReLU"
  bottom: "conv2"
  top: "conv2"
  relu_param {
    engine: MKL2017
  }
}
layer {
  name: "norm2"
  type: "LRN"
  bottom: "conv2"
  top: "norm2"
  lrn_param {
    local_size: 5
    alpha: 0.0001
    beta: 0.75
    engine: MKL2017
  }
}
layer {
  name: "pool2"
  type: "Pooling"
  bottom: "norm2"
  top: "pool2"
  pooling_param {
    pool: MAX
    kernel_size: 3
    stride: 2
    engine: MKL2017
  }
}
layer {
  name: "conv3"
  type: "Convolution"
  bottom: "pool2"
  top: "conv3"
  param {
    lr_mult: 1
    decay_mult: 1
  }
  param {
    lr_mult: 2
    decay_mult: 0
  }
  convolution_param {
    num_output: 384
    pad: 1
    kernel_size: 3
    weight_filler {
      type: "gaussian"
      std: 0.01
    }
    bias_filler {
      type: "constant"
      value: 0
    }
    engine: MKL2017
  }
}
layer {
  name: "relu3"
  type: "ReLU"
  bottom: "conv3"
  top: "conv3"
  relu_param {
    engine: MKL2017
  }
}
layer {
  name: "conv4"
  type: "Convolution"
  bottom: "conv3"
  top: "conv4"
  param {
    lr_mult: 1
    decay_mult: 1
  }
  param {
    lr_mult: 2
    decay_mult: 0
  }
  convolution_param {
    num_output: 384
    pad: 1
    kernel_size: 3
    group: 2
    weight_filler {
      type: "gaussian"
      std: 0.01
    }
    bias_filler {
      type: "constant"
      value: 0.1
    }
    engine: MKL2017
  }
}
layer {
  name: "relu4"
  type: "ReLU"
  bottom: "conv4"
  top: "conv4"
  relu_param {
    engine: MKL2017
  }
}
layer {
  name: "conv5"
  type: "Convolution"
  bottom: "conv4"
  top: "conv5"
  param {
    lr_mult: 1
    decay_mult: 1
  }
  param {
    lr_mult: 2
    decay_mult: 0
  }
  convolution_param {
    num_output: 256
    pad: 1
    kernel_size: 3
    group: 2
    weight_filler {
      type: "gaussian"
      std: 0.01
    }
    bias_filler {
      type: "constant"
      value: 0.1
    }
    engine: MKL2017
  }
}
layer {
  name: "relu5"
  type: "ReLU"
  bottom: "conv5"
  top: "conv5"
  relu_param {
    engine: MKL2017
  }
}
layer {
  name: "pool5"
  type: "Pooling"
  bottom: "conv5"
  top: "pool5"
  pooling_param {
    pool: MAX
    kernel_size: 3
    stride: 2
    engine: MKL2017
  }
}
layer {
  name: "fc6"
  type: "InnerProduct"
  bottom: "pool5"
  top: "fc6"
  param {
    lr_mult: 1
    decay_mult: 1
  }
  param {
    lr_mult: 2
    decay_mult: 0
  }
  inner_product_param {
    num_output: 4096
    weight_filler {
      type: "gaussian"
      std: 0.005
    }
    bias_filler {
      type: "constant"
      value: 0.1
    }
  }
}
layer {
  name: "relu6"
  type: "ReLU"
  bottom: "fc6"
  top: "fc6"
}
layer {
  name: "drop6"
  type: "Dropout"
  bottom: "fc6"
  top: "fc6"
  dropout_param {
    dropout_ratio: 0.5
  }
}
layer {
  name: "fc7"
  type: "InnerProduct"
  bottom: "fc6"
  top: "fc7"
  param {
    lr_mult: 1
    decay_mult: 1
  }
  param {
    lr_mult: 2
    decay_mult: 0
  }
  inner_product_param {
    num_output: 4096
    weight_filler {
      type: "gaussian"
      std: 0.005
    }
    bias_filler {
      type: "constant"
      value: 0.1
    }
  }
}
layer {
  name: "relu7"
  type: "ReLU"
  bottom: "fc7"
  top: "fc7"
}
layer {
  name: "drop7"
  type: "Dropout"
  bottom: "fc7"
  top: "fc7"
  dropout_param {
    dropout_ratio: 0.5
  }
}
layer {
  name: "fc8"
  type: "InnerProduct"
  bottom: "fc7"
  top: "fc8"
  param {
    lr_mult: 1
    decay_mult: 1
  }
  param {
    lr_mult: 2
    decay_mult: 0
  }
  inner_product_param {
    num_output: 1000
    weight_filler {
      type: "gaussian"
      std: 0.01
    }
    bias_filler {
      type: "constant"
      value: 0
    }
  }
}
layer {
  name: "fc8_fc8_0_split"
  type: "Split"
  bottom: "fc8"
  top: "fc8_fc8_0_split_0"
  top: "fc8_fc8_0_split_1"
}
layer {
  name: "accuracy"
  type: "Accuracy"
  bottom: "fc8_fc8_0_split_0"
  bottom: "label_data_1_split_0"
  top: "accuracy"
}
layer {
  name: "loss"
  type: "SoftmaxWithLoss"
  bottom: "fc8_fc8_0_split_1"
  bottom: "label_data_1_split_1"
  top: "loss"
}
I1226 14:43:12.556627 97292 layer_factory.hpp:114] Creating layer data
I1226 14:43:12.578733 92472 cpu_info.cpp:473] Number of OpenMP threads: 66
I1226 14:43:12.579103 92472 net.cpp:500] The NetState phase (0) differed from the phase (1) specified by a rule in layer data
I1226 14:43:12.582607 92783 layer_factory.hpp:114] Creating layer data
I1226 14:43:12.580833 92472 net.cpp:136] Initializing net from parameters: 
name: "AlexNet"
state {
  phase: TRAIN
  level: 0
  stage: ""
}
engine: "MKL2017"
layer {
  name: "data"
  type: "DummyData"
  top: "data"
  top: "label"
  include {
    phase: TRAIN
  }
  transform_param {
    mirror: true
    crop_size: 227
    mean_value: 104
    mean_value: 117
    mean_value: 123
  }
  dummy_data_param {
    data_filler {
      type: "gaussian"
      std: 1
    }
    data_filler {
      type: "constant"
      value: 0
    }
    shape {
      dim: 256
      dim: 3
      dim: 227
      dim: 227
    }
    shape {
      dim: 256
      dim: 1
      dim: 1
      dim: 1
    }
  }
}
layer {
  name: "label_data_1_split"
  type: "Split"
  bottom: "label"
  top: "label_data_1_split_0"
  top: "label_data_1_split_1"
}
layer {
  name: "conv1"
  type: "Convolution"
  bottom: "data"
  top: "conv1"
  param {
    lr_mult: 1
    decay_mult: 1
  }
  param {
    lr_mult: 2
    decay_mult: 0
  }
  convolution_param {
    num_output: 96
    kernel_size: 11
    stride: 4
    weight_filler {
      type: "gaussian"
      std: 0.01
    }
    bias_filler {
      type: "constant"
      value: 0
    }
    engine: MKL2017
  }
}
layer {
  name: "relu1"
  type: "ReLU"
  bottom: "conv1"
  top: "conv1"
  relu_param {
    engine: MKL2017
  }
}
layer {
  name: "norm1"
  type: "LRN"
  bottom: "conv1"
  top: "norm1"
  lrn_param {
    local_size: 5
    alpha: 0.0001
    beta: 0.75
    engine: MKL2017
  }
}
layer {
  name: "pool1"
  type: "Pooling"
  bottom: "norm1"
  top: "pool1"
  pooling_param {
    pool: MAX
    kernel_size: 3
    stride: 2
    engine: MKL2017
  }
}
layer {
  name: "conv2"
  type: "Convolution"
  bottom: "pool1"
  top: "conv2"
  param {
    lr_mult: 1
    decay_mult: 1
  }
  param {
    lr_mult: 2
    decay_mult: 0
  }
  convolution_param {
    num_output: 256
    pad: 2
    kernel_size: 5
    group: 2
    weight_filler {
      type: "gaussian"
      std: 0.01
    }
    bias_filler {
      type: "constant"
      value: 0.1
    }
    engine: MKL2017
  }
}
layer {
  name: "relu2"
  type: "ReLU"
  bottom: "conv2"
  top: "conv2"
  relu_param {
    engine: MKL2017
  }
}
layer {
  name: "norm2"
  type: "LRN"
  bottom: "conv2"
  top: "norm2"
  lrn_param {
    local_size: 5
    alpha: 0.0001
    beta: 0.75
    engine: MKL2017
  }
}
layer {
  name: "pool2"
  type: "Pooling"
  bottom: "norm2"
  top: "pool2"
  pooling_param {
    pool: MAX
    kernel_size: 3
    stride: 2
    engine: MKL2017
  }
}
layer {
  name: "conv3"
  type: "Convolution"
  bottom: "pool2"
  top: "conv3"
  param {
    lr_mult: 1
    decay_mult: 1
  }
  param {
    lr_mult: 2
    decay_mult: 0
  }
  convolution_param {
    num_output: 384
    pad: 1
    kernel_size: 3
    weight_filler {
      type: "gaussian"
      std: 0.01
    }
    bias_filler {
      type: "constant"
      value: 0
    }
    engine: MKL2017
  }
}
layer {
  name: "relu3"
  type: "ReLU"
  bottom: "conv3"
  top: "conv3"
  relu_param {
    engine: MKL2017
  }
}
layer {
  name: "conv4"
  type: "Convolution"
  bottom: "conv3"
  top: "conv4"
  param {
    lr_mult: 1
    decay_mult: 1
  }
  param {
    lr_mult: 2
    decay_mult: 0
  }
  convolution_param {
    num_output: 384
    pad: 1
    kernel_size: 3
    group: 2
    weight_filler {
      type: "gaussian"
      std: 0.01
    }
    bias_filler {
      type: "constant"
      value: 0.1
    }
    engine: MKL2017
  }
}
layer {
  name: "relu4"
  type: "ReLU"
  bottom: "conv4"
  top: "conv4"
  relu_param {
    engine: MKL2017
  }
}
layer {
  name: "conv5"
  type: "Convolution"
  bottom: "conv4"
  top: "conv5"
  param {
    lr_mult: 1
    decay_mult: 1
  }
  param {
    lr_mult: 2
    decay_mult: 0
  }
  convolution_param {
    num_output: 256
    pad: 1
    kernel_size: 3
    group: 2
    weight_filler {
      type: "gaussian"
      std: 0.01
    }
    bias_filler {
      type: "constant"
      value: 0.1
    }
    engine: MKL2017
  }
}
layer {
  name: "relu5"
  type: "ReLU"
  bottom: "conv5"
  top: "conv5"
  relu_param {
    engine: MKL2017
  }
}
layer {
  name: "pool5"
  type: "Pooling"
  bottom: "conv5"
  top: "pool5"
  pooling_param {
    pool: MAX
    kernel_size: 3
    stride: 2
    engine: MKL2017
  }
}
layer {
  name: "fc6"
  type: "InnerProduct"
  bottom: "pool5"
  top: "fc6"
  param {
    lr_mult: 1
    decay_mult: 1
  }
  param {
    lr_mult: 2
    decay_mult: 0
  }
  inner_product_param {
    num_output: 4096
    weight_filler {
      type: "gaussian"
      std: 0.005
    }
    bias_filler {
      type: "constant"
      value: 0.1
    }
  }
}
layer {
  name: "relu6"
  type: "ReLU"
  bottom: "fc6"
  top: "fc6"
}
layer {
  name: "drop6"
  type: "Dropout"
  bottom: "fc6"
  top: "fc6"
  dropout_param {
    dropout_ratio: 0.5
  }
}
layer {
  name: "fc7"
  type: "InnerProduct"
  bottom: "fc6"
  top: "fc7"
  param {
    lr_mult: 1
    decay_mult: 1
  }
  param {
    lr_mult: 2
    decay_mult: 0
  }
  inner_product_param {
    num_output: 4096
    weight_filler {
      type: "gaussian"
      std: 0.005
    }
    bias_filler {
      type: "constant"
      value: 0.1
    }
  }
}
layer {
  name: "relu7"
  type: "ReLU"
  bottom: "fc7"
  top: "fc7"
}
layer {
  name: "drop7"
  type: "Dropout"
  bottom: "fc7"
  top: "fc7"
  dropout_param {
    dropout_ratio: 0.5
  }
}
layer {
  name: "fc8"
  type: "InnerProduct"
  bottom: "fc7"
  top: "fc8"
  param {
    lr_mult: 1
    decay_mult: 1
  }
  param {
    lr_mult: 2
    decay_mult: 0
  }
  inner_product_param {
    num_output: 1000
    weight_filler {
      type: "gaussian"
      std: 0.01
    }
    bias_filler {
      type: "constant"
      value: 0
    }
  }
}
layer {
  name: "fc8_fc8_0_split"
  type: "Split"
  bottom: "fc8"
  top: "fc8_fc8_0_split_0"
  top: "fc8_fc8_0_split_1"
}
layer {
  name: "accuracy"
  type: "Accuracy"
  bottom: "fc8_fc8_0_split_0"
  bottom: "label_data_1_split_0"
  top: "accuracy"
}
layer {
  name: "loss"
  type: "SoftmaxWithLoss"
  bottom: "fc8_fc8_0_split_1"
  bottom: "label_data_1_split_1"
  top: "loss"
}
I1226 14:43:12.595428 92783 net.cpp:178] Creating Layer data
I1226 14:43:12.595515 92783 net.cpp:586] data -> data
I1226 14:43:12.595593 92783 net.cpp:586] data -> label
I1226 14:43:12.593281 92812 cpu_info.cpp:473] Number of OpenMP threads: 66
I1226 14:43:12.593618 92812 net.cpp:500] The NetState phase (0) differed from the phase (1) specified by a rule in layer data
I1226 14:43:12.595162 92812 net.cpp:136] Initializing net from parameters: 
name: "AlexNet"
state {
  phase: TRAIN
  level: 0
  stage: ""
}
engine: "MKL2017"
layer {
  name: "data"
  type: "Data"
  top: "data"
  top: "label"
  include {
    phase: TRAIN
  }
  transform_param {
    mirror: true
    crop_size: 227
    mean_value: 104
    mean_value: 117
    mean_value: 123
  }
  data_param {
    source: "/export/data1/stanford/hazy/zjian/gorden_bell/ILSVRC2012_lmdb/db_8/ilsvrc12_train_lmdb_1"
    batch_size: 256
    backend: LMDB
  }
}
layer {
  name: "label_data_1_split"
  type: "Split"
  bottom: "label"
  top: "label_data_1_split_0"
  top: "label_data_1_split_1"
}
layer {
  name: "conv1"
  type: "Convolution"
  bottom: "data"
  top: "conv1"
  param {
    lr_mult: 1
    decay_mult: 1
  }
  param {
    lr_mult: 2
    decay_mult: 0
  }
  convolution_param {
    num_output: 96
    kernel_size: 11
    stride: 4
    weight_filler {
      type: "gaussian"
      std: 0.01
    }
    bias_filler {
      type: "constant"
      value: 0
    }
    engine: MKL2017
  }
}
layer {
  name: "relu1"
  type: "ReLU"
  bottom: "conv1"
  top: "conv1"
  relu_param {
    engine: MKL2017
  }
}
layer {
  name: "norm1"
  type: "LRN"
  bottom: "conv1"
  top: "norm1"
  lrn_param {
    local_size: 5
    alpha: 0.0001
    beta: 0.75
    engine: MKL2017
  }
}
layer {
  name: "pool1"
  type: "Pooling"
  bottom: "norm1"
  top: "pool1"
  pooling_param {
    pool: MAX
    kernel_size: 3
    stride: 2
    engine: MKL2017
  }
}
layer {
  name: "conv2"
  type: "Convolution"
  bottom: "pool1"
  top: "conv2"
  param {
    lr_mult: 1
    decay_mult: 1
  }
  param {
    lr_mult: 2
    decay_mult: 0
  }
  convolution_param {
    num_output: 256
    pad: 2
    kernel_size: 5
    group: 2
    weight_filler {
      type: "gaussian"
      std: 0.01
    }
    bias_filler {
      type: "constant"
      value: 0.1
    }
    engine: MKL2017
  }
}
layer {
  name: "relu2"
  type: "ReLU"
  bottom: "conv2"
  top: "conv2"
  relu_param {
    engine: MKL2017
  }
}
layer {
  name: "norm2"
  type: "LRN"
  bottom: "conv2"
  top: "norm2"
  lrn_param {
    local_size: 5
    alpha: 0.0001
    beta: 0.75
    engine: MKL2017
  }
}
layer {
  name: "pool2"
  type: "Pooling"
  bottom: "norm2"
  top: "pool2"
  pooling_param {
    pool: MAX
    kernel_size: 3
    stride: 2
    engine: MKL2017
  }
}
layer {
  name: "conv3"
  type: "Convolution"
  bottom: "pool2"
  top: "conv3"
  param {
    lr_mult: 1
    decay_mult: 1
  }
  param {
    lr_mult: 2
    decay_mult: 0
  }
  convolution_param {
    num_output: 384
    pad: 1
    kernel_size: 3
    weight_filler {
      type: "gaussian"
      std: 0.01
    }
    bias_filler {
      type: "constant"
      value: 0
    }
    engine: MKL2017
  }
}
layer {
  name: "relu3"
  type: "ReLU"
  bottom: "conv3"
  top: "conv3"
  relu_param {
    engine: MKL2017
  }
}
layer {
  name: "conv4"
  type: "Convolution"
  bottom: "conv3"
  top: "conv4"
  param {
    lr_mult: 1
    decay_mult: 1
  }
  param {
    lr_mult: 2
    decay_mult: 0
  }
  convolution_param {
    num_output: 384
    pad: 1
    kernel_size: 3
    group: 2
    weight_filler {
      type: "gaussian"
      std: 0.01
    }
    bias_filler {
      type: "constant"
      value: 0.1
    }
    engine: MKL2017
  }
}
layer {
  name: "relu4"
  type: "ReLU"
  bottom: "conv4"
  top: "conv4"
  relu_param {
    engine: MKL2017
  }
}
layer {
  name: "conv5"
  type: "Convolution"
  bottom: "conv4"
  top: "conv5"
  param {
    lr_mult: 1
    decay_mult: 1
  }
  param {
    lr_mult: 2
    decay_mult: 0
  }
  convolution_param {
    num_output: 256
    pad: 1
    kernel_size: 3
    group: 2
    weight_filler {
      type: "gaussian"
      std: 0.01
    }
    bias_filler {
      type: "constant"
      value: 0.1
    }
    engine: MKL2017
  }
}
layer {
  name: "relu5"
  type: "ReLU"
  bottom: "conv5"
  top: "conv5"
  relu_param {
    engine: MKL2017
  }
}
layer {
  name: "pool5"
  type: "Pooling"
  bottom: "conv5"
  top: "pool5"
  pooling_param {
    pool: MAX
    kernel_size: 3
    stride: 2
    engine: MKL2017
  }
}
layer {
  name: "fc6"
  type: "InnerProduct"
  bottom: "pool5"
  top: "fc6"
  param {
    lr_mult: 1
    decay_mult: 1
  }
  param {
    lr_mult: 2
    decay_mult: 0
  }
  inner_product_param {
    num_output: 4096
    weight_filler {
      type: "gaussian"
      std: 0.005
    }
    bias_filler {
      type: "constant"
      value: 0.1
    }
  }
}
layer {
  name: "relu6"
  type: "ReLU"
  bottom: "fc6"
  top: "fc6"
}
layer {
  name: "drop6"
  type: "Dropout"
  bottom: "fc6"
  top: "fc6"
  dropout_param {
    dropout_ratio: 0.5
  }
}
layer {
  name: "fc7"
  type: "InnerProduct"
  bottom: "fc6"
  top: "fc7"
  param {
    lr_mult: 1
    decay_mult: 1
  }
  param {
    lr_mult: 2
    decay_mult: 0
  }
  inner_product_param {
    num_output: 4096
    weight_filler {
      type: "gaussian"
      std: 0.005
    }
    bias_filler {
      type: "constant"
      value: 0.1
    }
  }
}
layer {
  name: "relu7"
  type: "ReLU"
  bottom: "fc7"
  top: "fc7"
}
layer {
  name: "drop7"
  type: "Dropout"
  bottom: "fc7"
  top: "fc7"
  dropout_param {
    dropout_ratio: 0.5
  }
}
layer {
  name: "fc8"
  type: "InnerProduct"
  bottom: "fc7"
  top: "fc8"
  param {
    lr_mult: 1
    decay_mult: 1
  }
  param {
    lr_mult: 2
    decay_mult: 0
  }
  inner_product_param {
    num_output: 1000
    weight_filler {
      type: "gaussian"
      std: 0.01
    }
    bias_filler {
      type: "constant"
      value: 0
    }
  }
}
layer {
  name: "fc8_fc8_0_split"
  type: "Split"
  bottom: "fc8"
  top: "fc8_fc8_0_split_0"
  top: "fc8_fc8_0_split_1"
}
layer {
  name: "accuracy"
  type: "Accuracy"
  bottom: "fc8_fc8_0_split_0"
  bottom: "label_data_1_split_0"
  top: "accuracy"
}
layer {
  name: "loss"
  type: "SoftmaxWithLoss"
  bottom: "fc8_fc8_0_split_1"
  bottom: "label_data_1_split_1"
  top: "loss"
}
I1226 14:43:12.577313 97292 net.cpp:178] Creating Layer data
I1226 14:43:12.577445 97292 net.cpp:586] data -> data
I1226 14:43:12.577558 97292 net.cpp:586] data -> label
I1226 14:43:12.591552 97719 layer_factory.hpp:114] Creating layer data
I1226 14:43:12.603451 94810 layer_factory.hpp:114] Creating layer data
I1226 14:43:12.629194 91731 cpu_info.cpp:473] Number of OpenMP threads: 66
I1226 14:43:12.629565 91731 net.cpp:500] The NetState phase (0) differed from the phase (1) specified by a rule in layer data
I1226 14:43:12.631507 91731 net.cpp:136] Initializing net from parameters: 
name: "AlexNet"
state {
  phase: TRAIN
  level: 0
  stage: ""
}
engine: "MKL2017"
layer {
  name: "data"
  type: "Data"
  top: "data"
  top: "label"
  include {
    phase: TRAIN
  }
  transform_param {
    mirror: true
    crop_size: 227
    mean_value: 104
    mean_value: 117
    mean_value: 123
  }
  data_param {
    source: "/export/data1/stanford/hazy/zjian/gorden_bell/ILSVRC2012_lmdb/db_8/ilsvrc12_train_lmdb_2"
    batch_size: 256
    backend: LMDB
  }
}
layer {
  name: "label_data_1_split"
  type: "Split"
  bottom: "label"
  top: "label_data_1_split_0"
  top: "label_data_1_split_1"
}
layer {
  name: "conv1"
  type: "Convolution"
  bottom: "data"
  top: "conv1"
  param {
    lr_mult: 1
    decay_mult: 1
  }
  param {
    lr_mult: 2
    decay_mult: 0
  }
  convolution_param {
    num_output: 96
    kernel_size: 11
    stride: 4
    weight_filler {
      type: "gaussian"
      std: 0.01
    }
    bias_filler {
      type: "constant"
      value: 0
    }
    engine: MKL2017
  }
}
layer {
  name: "relu1"
  type: "ReLU"
  bottom: "conv1"
  top: "conv1"
  relu_param {
    engine: MKL2017
  }
}
layer {
  name: "norm1"
  type: "LRN"
  bottom: "conv1"
  top: "norm1"
  lrn_param {
    local_size: 5
    alpha: 0.0001
    beta: 0.75
    engine: MKL2017
  }
}
layer {
  name: "pool1"
  type: "Pooling"
  bottom: "norm1"
  top: "pool1"
  pooling_param {
    pool: MAX
    kernel_size: 3
    stride: 2
    engine: MKL2017
  }
}
layer {
  name: "conv2"
  type: "Convolution"
  bottom: "pool1"
  top: "conv2"
  param {
    lr_mult: 1
    decay_mult: 1
  }
  param {
    lr_mult: 2
    decay_mult: 0
  }
  convolution_param {
    num_output: 256
    pad: 2
    kernel_size: 5
    group: 2
    weight_filler {
      type: "gaussian"
      std: 0.01
    }
    bias_filler {
      type: "constant"
      value: 0.1
    }
    engine: MKL2017
  }
}
layer {
  name: "relu2"
  type: "ReLU"
  bottom: "conv2"
  top: "conv2"
  relu_param {
    engine: MKL2017
  }
}
layer {
  name: "norm2"
  type: "LRN"
  bottom: "conv2"
  top: "norm2"
  lrn_param {
    local_size: 5
    alpha: 0.0001
    beta: 0.75
    engine: MKL2017
  }
}
layer {
  name: "pool2"
  type: "Pooling"
  bottom: "norm2"
  top: "pool2"
  pooling_param {
    pool: MAX
    kernel_size: 3
    stride: 2
    engine: MKL2017
  }
}
layer {
  name: "conv3"
  type: "Convolution"
  bottom: "pool2"
  top: "conv3"
  param {
    lr_mult: 1
    decay_mult: 1
  }
  param {
    lr_mult: 2
    decay_mult: 0
  }
  convolution_param {
    num_output: 384
    pad: 1
    kernel_size: 3
    weight_filler {
      type: "gaussian"
      std: 0.01
    }
    bias_filler {
      type: "constant"
      value: 0
    }
    engine: MKL2017
  }
}
layer {
  name: "relu3"
  type: "ReLU"
  bottom: "conv3"
  top: "conv3"
  relu_param {
    engine: MKL2017
  }
}
layer {
  name: "conv4"
  type: "Convolution"
  bottom: "conv3"
  top: "conv4"
  param {
    lr_mult: 1
    decay_mult: 1
  }
  param {
    lr_mult: 2
    decay_mult: 0
  }
  convolution_param {
    num_output: 384
    pad: 1
    kernel_size: 3
    group: 2
    weight_filler {
      type: "gaussian"
      std: 0.01
    }
    bias_filler {
      type: "constant"
      value: 0.1
    }
    engine: MKL2017
  }
}
layer {
  name: "relu4"
  type: "ReLU"
  bottom: "conv4"
  top: "conv4"
  relu_param {
    engine: MKL2017
  }
}
layer {
  name: "conv5"
  type: "Convolution"
  bottom: "conv4"
  top: "conv5"
  param {
    lr_mult: 1
    decay_mult: 1
  }
  param {
    lr_mult: 2
    decay_mult: 0
  }
  convolution_param {
    num_output: 256
    pad: 1
    kernel_size: 3
    group: 2
    weight_filler {
      type: "gaussian"
      std: 0.01
    }
    bias_filler {
      type: "constant"
      value: 0.1
    }
    engine: MKL2017
  }
}
layer {
  name: "relu5"
  type: "ReLU"
  bottom: "conv5"
  top: "conv5"
  relu_param {
    engine: MKL2017
  }
}
layer {
  name: "pool5"
  type: "Pooling"
  bottom: "conv5"
  top: "pool5"
  pooling_param {
    pool: MAX
    kernel_size: 3
    stride: 2
    engine: MKL2017
  }
}
layer {
  name: "fc6"
  type: "InnerProduct"
  bottom: "pool5"
  top: "fc6"
  param {
    lr_mult: 1
    decay_mult: 1
  }
  param {
    lr_mult: 2
    decay_mult: 0
  }
  inner_product_param {
    num_output: 4096
    weight_filler {
      type: "gaussian"
      std: 0.005
    }
    bias_filler {
      type: "constant"
      value: 0.1
    }
  }
}
layer {
  name: "relu6"
  type: "ReLU"
  bottom: "fc6"
  top: "fc6"
}
layer {
  name: "drop6"
  type: "Dropout"
  bottom: "fc6"
  top: "fc6"
  dropout_param {
    dropout_ratio: 0.5
  }
}
layer {
  name: "fc7"
  type: "InnerProduct"
  bottom: "fc6"
  top: "fc7"
  param {
    lr_mult: 1
    decay_mult: 1
  }
  param {
    lr_mult: 2
    decay_mult: 0
  }
  inner_product_param {
    num_output: 4096
    weight_filler {
      type: "gaussian"
      std: 0.005
    }
    bias_filler {
      type: "constant"
      value: 0.1
    }
  }
}
layer {
  name: "relu7"
  type: "ReLU"
  bottom: "fc7"
  top: "fc7"
}
layer {
  name: "drop7"
  type: "Dropout"
  bottom: "fc7"
  top: "fc7"
  dropout_param {
    dropout_ratio: 0.5
  }
}
layer {
  name: "fc8"
  type: "InnerProduct"
  bottom: "fc7"
  top: "fc8"
  param {
    lr_mult: 1
    decay_mult: 1
  }
  param {
    lr_mult: 2
    decay_mult: 0
  }
  inner_product_param {
    num_output: 1000
    weight_filler {
      type: "gaussian"
      std: 0.01
    }
    bias_filler {
      type: "constant"
      value: 0
    }
  }
}
layer {
  name: "fc8_fc8_0_split"
  type: "Split"
  bottom: "fc8"
  top: "fc8_fc8_0_split_0"
  top: "fc8_fc8_0_split_1"
}
layer {
  name: "accuracy"
  type: "Accuracy"
  bottom: "fc8_fc8_0_split_0"
  bottom: "label_data_1_split_0"
  top: "accuracy"
}
layer {
  name: "loss"
  type: "SoftmaxWithLoss"
  bottom: "fc8_fc8_0_split_1"
  bottom: "label_data_1_split_1"
  top: "loss"
}
I1226 14:43:12.613374 97719 net.cpp:178] Creating Layer data
I1226 14:43:12.613507 97719 net.cpp:586] data -> data
I1226 14:43:12.613626 97719 net.cpp:586] data -> label
I1226 14:43:12.629987 92812 layer_factory.hpp:114] Creating layer data
I1226 14:43:12.632544 92472 layer_factory.hpp:114] Creating layer data
I1226 14:43:12.632692 92472 net.cpp:178] Creating Layer data
…
I1226 14:43:12.664206 92812 data_layer.cpp:80] output data size: 256,3,227,227
I1226 14:43:12.677824 91731 layer_factory.hpp:114] Creating layer data
I1226 14:43:12.673389 92783 data_layer.cpp:80] output data size: 256,3,227,227
I1226 14:43:12.660259 94812 db_lmdb.cpp:72] Opened lmdb /export/data1/stanford/hazy/zjian/gorden_bell/ILSVRC2012_lmdb/db_8/ilsvrc12_train_lmdb_5
I1226 14:43:12.685407 91731 net.cpp:178] Creating Layer data
I1226 14:43:12.685499 91731 net.cpp:586] data -> data
I1226 14:43:12.685571 91731 net.cpp:586] data -> label
I1226 14:43:12.680996 92472 net.cpp:228] Setting up data
I1226 14:43:12.681104 92472 net.cpp:235] Top shape: 256 3 227 227 (39574272)
I1226 14:43:12.681135 92472 net.cpp:235] Top shape: 256 1 1 1 (256)
I1226 14:43:12.681185 92472 net.cpp:243] Memory required for data: 158298112
I1226 14:43:12.681219 92472 layer_factory.hpp:114] Creating layer label_data_1_split
I1226 14:43:12.681301 92472 net.cpp:178] Creating Layer label_data_1_split
I1226 14:43:12.681499 92472 net.cpp:612] label_data_1_split <- label
I1226 14:43:12.681536 92472 net.cpp:586] label_data_1_split -> label_data_1_split_0
I1226 14:43:12.681582 92472 net.cpp:586] label_data_1_split -> label_data_1_split_1
I1226 14:43:12.681114 91922 layer_factory.hpp:114] Creating layer data
I1226 14:43:12.692426 92472 net.cpp:228] Setting up label_data_1_split
I1226 14:43:12.692523 92472 net.cpp:235] Top shape: 256 1 1 1 (256)
I1226 14:43:12.692553 92472 net.cpp:235] Top shape: 256 1 1 1 (256)
I1226 14:43:12.692572 92472 net.cpp:243] Memory required for data: 158300160
I1226 14:43:12.692636 92472 layer_factory.hpp:114] Creating layer conv1
I1226 14:43:12.692726 92472 net.cpp:178] Creating Layer conv1
I1226 14:43:12.692813 92472 net.cpp:612] conv1 <- data
I1226 14:43:12.692858 92472 net.cpp:586] conv1 -> conv1
I1226 14:43:12.691993 91922 net.cpp:178] Creating Layer data
I1226 14:43:12.692075 91922 net.cpp:586] data -> data
I1226 14:43:12.692150 91922 net.cpp:586] data -> label
I1226 14:43:12.687223 94810 data_layer.cpp:80] output data size: 256,3,227,227
I1226 14:43:12.716073 91924 db_lmdb.cpp:72] Opened lmdb /export/data1/stanford/hazy/zjian/gorden_bell/ILSVRC2012_lmdb/db_8/ilsvrc12_train_lmdb_7
I1226 14:43:12.738029 91733 db_lmdb.cpp:72] Opened lmdb /export/data1/stanford/hazy/zjian/gorden_bell/ILSVRC2012_lmdb/db_8/ilsvrc12_train_lmdb_2
I1226 14:43:12.729198 85793 db_lmdb.cpp:72] Opened lmdb /export/data1/stanford/hazy/zjian/gorden_bell/ILSVRC2012_lmdb/db_8/ilsvrc12_train_lmdb_6
I1226 14:43:12.747920 91731 data_layer.cpp:80] output data size: 256,3,227,227
I1226 14:43:12.737344 85791 data_layer.cpp:80] output data size: 256,3,227,227
I1226 14:43:12.738425 91922 data_layer.cpp:80] output data size: 256,3,227,227
I1226 14:43:12.864887 92472 net.cpp:228] Setting up conv1
I1226 14:43:12.865001 92472 net.cpp:235] Top shape: 256 96 55 55 (74342400)
I1226 14:43:12.865031 92472 net.cpp:243] Memory required for data: 455669760
I1226 14:43:12.865140 92472 layer_factory.hpp:114] Creating layer relu1
I1226 14:43:12.865236 92472 net.cpp:178] Creating Layer relu1
I1226 14:43:12.865277 92472 net.cpp:612] relu1 <- conv1
I1226 14:43:12.865345 92472 net.cpp:573] relu1 -> conv1 (in-place)
I1226 14:43:12.865453 92472 net.cpp:228] Setting up relu1
I1226 14:43:12.865509 92472 net.cpp:235] Top shape: 256 96 55 55 (74342400)
I1226 14:43:12.865533 92472 net.cpp:243] Memory required for data: 753039360
I1226 14:43:12.865562 92472 layer_factory.hpp:114] Creating layer norm1
I1226 14:43:12.865622 92472 net.cpp:178] Creating Layer norm1
I1226 14:43:12.865655 92472 net.cpp:612] norm1 <- conv1
I1226 14:43:12.865690 92472 net.cpp:586] norm1 -> norm1
I1226 14:43:12.865778 92472 net.cpp:228] Setting up norm1
I1226 14:43:12.865834 92472 net.cpp:235] Top shape: 256 96 55 55 (74342400)
I1226 14:43:12.865857 92472 net.cpp:243] Memory required for data: 1050408960
I1226 14:43:12.865885 92472 layer_factory.hpp:114] Creating layer pool1
I1226 14:43:12.865947 92472 net.cpp:178] Creating Layer pool1
I1226 14:43:12.865978 92472 net.cpp:612] pool1 <- norm1
I1226 14:43:12.866019 92472 net.cpp:586] pool1 -> pool1
I1226 14:43:12.866138 92472 net.cpp:228] Setting up pool1
I1226 14:43:12.866178 92472 net.cpp:235] Top shape: 256 96 27 27 (17915904)
I1226 14:43:12.866199 92472 net.cpp:243] Memory required for data: 1122072576
I1226 14:43:12.866225 92472 layer_factory.hpp:114] Creating layer conv2
I1226 14:43:12.866295 92472 net.cpp:178] Creating Layer conv2
I1226 14:43:12.866351 92472 net.cpp:612] conv2 <- pool1
I1226 14:43:12.866396 92472 net.cpp:586] conv2 -> conv2
I1226 14:43:12.925663 92783 net.cpp:228] Setting up data
I1226 14:43:12.925817 92783 net.cpp:235] Top shape: 256 3 227 227 (39574272)
I1226 14:43:12.925863 92783 net.cpp:235] Top shape: 256 (256)
I1226 14:43:12.925889 92783 net.cpp:243] Memory required for data: 158298112
I1226 14:43:12.925930 92783 layer_factory.hpp:114] Creating layer label_data_1_split
I1226 14:43:12.926025 92783 net.cpp:178] Creating Layer label_data_1_split
I1226 14:43:12.926177 92783 net.cpp:612] label_data_1_split <- label
I1226 14:43:12.926239 92783 net.cpp:586] label_data_1_split -> label_data_1_split_0
I1226 14:43:12.926304 92783 net.cpp:586] label_data_1_split -> label_data_1_split_1
I1226 14:43:12.951668 92783 net.cpp:228] Setting up label_data_1_split
I1226 14:43:12.951768 92783 net.cpp:235] Top shape: 256 (256)
I1226 14:43:12.951827 92783 net.cpp:235] Top shape: 256 (256)
I1226 14:43:12.951853 92783 net.cpp:243] Memory required for data: 158300160
I1226 14:43:12.951889 92783 layer_factory.hpp:114] Creating layer conv1
I1226 14:43:12.951993 92783 net.cpp:178] Creating Layer conv1
I1226 14:43:12.952180 92783 net.cpp:612] conv1 <- data
I1226 14:43:12.952237 92783 net.cpp:586] conv1 -> conv1
I1226 14:43:12.970283 92812 net.cpp:228] Setting up data
I1226 14:43:12.970413 92812 net.cpp:235] Top shape: 256 3 227 227 (39574272)
I1226 14:43:12.970453 92812 net.cpp:235] Top shape: 256 (256)
I1226 14:43:12.970504 92812 net.cpp:243] Memory required for data: 158298112
I1226 14:43:12.970546 92812 layer_factory.hpp:114] Creating layer label_data_1_split
I1226 14:43:12.970633 92812 net.cpp:178] Creating Layer label_data_1_split
I1226 14:43:12.959993 94810 net.cpp:228] Setting up data
I1226 14:43:12.970767 92812 net.cpp:612] label_data_1_split <- label
I1226 14:43:12.960124 94810 net.cpp:235] Top shape: 256 3 227 227 (39574272)
I1226 14:43:12.960187 94810 net.cpp:235] Top shape: 256 (256)
I1226 14:43:12.970818 92812 net.cpp:586] label_data_1_split -> label_data_1_split_0
I1226 14:43:12.960216 94810 net.cpp:243] Memory required for data: 158298112
I1226 14:43:12.970870 92812 net.cpp:586] label_data_1_split -> label_data_1_split_1
I1226 14:43:12.960276 94810 layer_factory.hpp:114] Creating layer label_data_1_split
I1226 14:43:12.960420 94810 net.cpp:178] Creating Layer label_data_1_split
I1226 14:43:12.960611 94810 net.cpp:612] label_data_1_split <- label
I1226 14:43:12.960680 94810 net.cpp:586] label_data_1_split -> label_data_1_split_0
I1226 14:43:12.961082 94810 net.cpp:586] label_data_1_split -> label_data_1_split_1
I1226 14:43:12.977234 94810 net.cpp:228] Setting up label_data_1_split
I1226 14:43:12.977344 94810 net.cpp:235] Top shape: 256 (256)
I1226 14:43:12.977408 94810 net.cpp:235] Top shape: 256 (256)
I1226 14:43:12.977438 94810 net.cpp:243] Memory required for data: 158300160
I1226 14:43:12.977475 94810 layer_factory.hpp:114] Creating layer conv1
I1226 14:43:12.977593 94810 net.cpp:178] Creating Layer conv1
I1226 14:43:12.977634 94810 net.cpp:612] conv1 <- data
I1226 14:43:12.977680 94810 net.cpp:586] conv1 -> conv1
I1226 14:43:12.997036 92812 net.cpp:228] Setting up label_data_1_split
I1226 14:43:12.997138 92812 net.cpp:235] Top shape: 256 (256)
I1226 14:43:12.997174 92812 net.cpp:235] Top shape: 256 (256)
I1226 14:43:12.997196 92812 net.cpp:243] Memory required for data: 158300160
I1226 14:43:12.997231 92812 layer_factory.hpp:114] Creating layer conv1
I1226 14:43:13.000399 92812 net.cpp:178] Creating Layer conv1
I1226 14:43:13.000536 92812 net.cpp:612] conv1 <- data
I1226 14:43:13.000602 92812 net.cpp:586] conv1 -> conv1
I1226 14:43:13.014919 91731 net.cpp:228] Setting up data
I1226 14:43:13.004125 85791 net.cpp:228] Setting up data
I1226 14:43:13.015089 91731 net.cpp:235] Top shape: 256 3 227 227 (39574272)
I1226 14:43:13.004294 85791 net.cpp:235] Top shape: 256 3 227 227 (39574272)
I1226 14:43:13.015136 91731 net.cpp:235] Top shape: 256 (256)
I1226 14:43:13.004349 85791 net.cpp:235] Top shape: 256 (256)
I1226 14:43:13.015174 91731 net.cpp:243] Memory required for data: 158298112
I1226 14:43:13.004405 85791 net.cpp:243] Memory required for data: 158298112
I1226 14:43:13.015234 91731 layer_factory.hpp:114] Creating layer label_data_1_split
I1226 14:43:13.004462 85791 layer_factory.hpp:114] Creating layer label_data_1_split
I1226 14:43:13.004581 85791 net.cpp:178] Creating Layer label_data_1_split
I1226 14:43:13.015422 91731 net.cpp:178] Creating Layer label_data_1_split
I1226 14:43:13.005118 85791 net.cpp:612] label_data_1_split <- label
I1226 14:43:13.015935 91731 net.cpp:612] label_data_1_split <- label
I1226 14:43:13.005237 85791 net.cpp:586] label_data_1_split -> label_data_1_split_0
I1226 14:43:13.016028 91731 net.cpp:586] label_data_1_split -> label_data_1_split_0
I1226 14:43:13.005385 85791 net.cpp:586] label_data_1_split -> label_data_1_split_1
I1226 14:43:13.016230 91731 net.cpp:586] label_data_1_split -> label_data_1_split_1
I1226 14:43:13.022037 85791 net.cpp:228] Setting up label_data_1_split
I1226 14:43:13.022153 85791 net.cpp:235] Top shape: 256 (256)
I1226 14:43:13.022192 85791 net.cpp:235] Top shape: 256 (256)
I1226 14:43:13.022220 85791 net.cpp:243] Memory required for data: 158300160
I1226 14:43:13.022258 85791 layer_factory.hpp:114] Creating layer conv1
I1226 14:43:13.022357 85791 net.cpp:178] Creating Layer conv1
I1226 14:43:13.022399 85791 net.cpp:612] conv1 <- data
I1226 14:43:13.022445 85791 net.cpp:586] conv1 -> conv1
I1226 14:43:13.022792 91922 net.cpp:228] Setting up data
I1226 14:43:13.022949 91922 net.cpp:235] Top shape: 256 3 227 227 (39574272)
I1226 14:43:13.023006 91922 net.cpp:235] Top shape: 256 (256)
I1226 14:43:13.023036 91922 net.cpp:243] Memory required for data: 158298112
I1226 14:43:13.023077 91922 layer_factory.hpp:114] Creating layer label_data_1_split
I1226 14:43:13.023273 91922 net.cpp:178] Creating Layer label_data_1_split
I1226 14:43:13.023514 91922 net.cpp:612] label_data_1_split <- label
I1226 14:43:13.023599 91922 net.cpp:586] label_data_1_split -> label_data_1_split_0
I1226 14:43:13.024308 91922 net.cpp:586] label_data_1_split -> label_data_1_split_1
I1226 14:43:13.036484 91731 net.cpp:228] Setting up label_data_1_split
I1226 14:43:13.036919 91731 net.cpp:235] Top shape: 256 (256)
I1226 14:43:13.037025 91731 net.cpp:235] Top shape: 256 (256)
I1226 14:43:13.037052 91731 net.cpp:243] Memory required for data: 158300160
I1226 14:43:13.037123 91731 layer_factory.hpp:114] Creating layer conv1
I1226 14:43:13.037317 91731 net.cpp:178] Creating Layer conv1
I1226 14:43:13.037355 91731 net.cpp:612] conv1 <- data
I1226 14:43:13.037400 91731 net.cpp:586] conv1 -> conv1
I1226 14:43:13.045608 91922 net.cpp:228] Setting up label_data_1_split
I1226 14:43:13.045717 91922 net.cpp:235] Top shape: 256 (256)
I1226 14:43:13.046118 91922 net.cpp:235] Top shape: 256 (256)
I1226 14:43:13.046149 91922 net.cpp:243] Memory required for data: 158300160
I1226 14:43:13.046186 91922 layer_factory.hpp:114] Creating layer conv1
I1226 14:43:13.046355 91922 net.cpp:178] Creating Layer conv1
I1226 14:43:13.046404 91922 net.cpp:612] conv1 <- data
I1226 14:43:13.046476 91922 net.cpp:586] conv1 -> conv1
I1226 14:43:13.080080 92472 net.cpp:228] Setting up conv2
I1226 14:43:13.080214 92472 net.cpp:235] Top shape: 256 256 27 27 (47775744)
I1226 14:43:13.080247 92472 net.cpp:243] Memory required for data: 1313175552
I1226 14:43:13.080386 92472 layer_factory.hpp:114] Creating layer relu2
I1226 14:43:13.080476 92472 net.cpp:178] Creating Layer relu2
I1226 14:43:13.080526 92472 net.cpp:612] relu2 <- conv2
I1226 14:43:13.080587 92472 net.cpp:573] relu2 -> conv2 (in-place)
I1226 14:43:13.080696 92472 net.cpp:228] Setting up relu2
I1226 14:43:13.080811 92472 net.cpp:235] Top shape: 256 256 27 27 (47775744)
I1226 14:43:13.080837 92472 net.cpp:243] Memory required for data: 1504278528
I1226 14:43:13.080869 92472 layer_factory.hpp:114] Creating layer norm2
I1226 14:43:13.080935 92472 net.cpp:178] Creating Layer norm2
I1226 14:43:13.080965 92472 net.cpp:612] norm2 <- conv2
I1226 14:43:13.081019 92472 net.cpp:586] norm2 -> norm2
I1226 14:43:13.081136 92472 net.cpp:228] Setting up norm2
I1226 14:43:13.081192 92472 net.cpp:235] Top shape: 256 256 27 27 (47775744)
I1226 14:43:13.081215 92472 net.cpp:243] Memory required for data: 1695381504
I1226 14:43:13.081248 92472 layer_factory.hpp:114] Creating layer pool2
I1226 14:43:13.081394 92472 net.cpp:178] Creating Layer pool2
I1226 14:43:13.081440 92472 net.cpp:612] pool2 <- norm2
I1226 14:43:13.081481 92472 net.cpp:586] pool2 -> pool2
I1226 14:43:13.081574 92472 net.cpp:228] Setting up pool2
I1226 14:43:13.081622 92472 net.cpp:235] Top shape: 256 256 13 13 (11075584)
I1226 14:43:13.081745 92472 net.cpp:243] Memory required for data: 1739683840
I1226 14:43:13.081784 92472 layer_factory.hpp:114] Creating layer conv3
I1226 14:43:13.081871 92472 net.cpp:178] Creating Layer conv3
I1226 14:43:13.081910 92472 net.cpp:612] conv3 <- pool2
I1226 14:43:13.081971 92472 net.cpp:586] conv3 -> conv3
I1226 14:43:13.162051 92783 net.cpp:228] Setting up conv1
I1226 14:43:13.162163 92783 net.cpp:235] Top shape: 256 96 55 55 (74342400)
I1226 14:43:13.162189 92783 net.cpp:243] Memory required for data: 455669760
I1226 14:43:13.162293 92783 layer_factory.hpp:114] Creating layer relu1
I1226 14:43:13.162385 92783 net.cpp:178] Creating Layer relu1
I1226 14:43:13.162425 92783 net.cpp:612] relu1 <- conv1
I1226 14:43:13.162464 92783 net.cpp:573] relu1 -> conv1 (in-place)
I1226 14:43:13.162572 92783 net.cpp:228] Setting up relu1
I1226 14:43:13.162627 92783 net.cpp:235] Top shape: 256 96 55 55 (74342400)
I1226 14:43:13.162652 92783 net.cpp:243] Memory required for data: 753039360
I1226 14:43:13.162683 92783 layer_factory.hpp:114] Creating layer norm1
I1226 14:43:13.162765 92783 net.cpp:178] Creating Layer norm1
I1226 14:43:13.162820 92783 net.cpp:612] norm1 <- conv1
I1226 14:43:13.162865 92783 net.cpp:586] norm1 -> norm1
I1226 14:43:13.162977 92783 net.cpp:228] Setting up norm1
I1226 14:43:13.163022 92783 net.cpp:235] Top shape: 256 96 55 55 (74342400)
I1226 14:43:13.163043 92783 net.cpp:243] Memory required for data: 1050408960
I1226 14:43:13.163071 92783 layer_factory.hpp:114] Creating layer pool1
I1226 14:43:13.163132 92783 net.cpp:178] Creating Layer pool1
I1226 14:43:13.163161 92783 net.cpp:612] pool1 <- norm1
I1226 14:43:13.163204 92783 net.cpp:586] pool1 -> pool1
I1226 14:43:13.163298 92783 net.cpp:228] Setting up pool1
I1226 14:43:13.163338 92783 net.cpp:235] Top shape: 256 96 27 27 (17915904)
I1226 14:43:13.163360 92783 net.cpp:243] Memory required for data: 1122072576
I1226 14:43:13.163388 92783 layer_factory.hpp:114] Creating layer conv2
I1226 14:43:13.163465 92783 net.cpp:178] Creating Layer conv2
I1226 14:43:13.163494 92783 net.cpp:612] conv2 <- pool1
I1226 14:43:13.163534 92783 net.cpp:586] conv2 -> conv2
I1226 14:43:13.190879 94810 net.cpp:228] Setting up conv1
I1226 14:43:13.191006 94810 net.cpp:235] Top shape: 256 96 55 55 (74342400)
I1226 14:43:13.191069 94810 net.cpp:243] Memory required for data: 455669760
I1226 14:43:13.191200 94810 layer_factory.hpp:114] Creating layer relu1
I1226 14:43:13.191692 94810 net.cpp:178] Creating Layer relu1
I1226 14:43:13.191848 94810 net.cpp:612] relu1 <- conv1
I1226 14:43:13.192111 94810 net.cpp:573] relu1 -> conv1 (in-place)
I1226 14:43:13.192523 94810 net.cpp:228] Setting up relu1
I1226 14:43:13.192658 94810 net.cpp:235] Top shape: 256 96 55 55 (74342400)
I1226 14:43:13.192708 94810 net.cpp:243] Memory required for data: 753039360
I1226 14:43:13.192749 94810 layer_factory.hpp:114] Creating layer norm1
I1226 14:43:13.192847 94810 net.cpp:178] Creating Layer norm1
I1226 14:43:13.192914 94810 net.cpp:612] norm1 <- conv1
I1226 14:43:13.192965 94810 net.cpp:586] norm1 -> norm1
I1226 14:43:13.193114 94810 net.cpp:228] Setting up norm1
I1226 14:43:13.193648 94810 net.cpp:235] Top shape: 256 96 55 55 (74342400)
I1226 14:43:13.193742 94810 net.cpp:243] Memory required for data: 1050408960
I1226 14:43:13.193850 94810 layer_factory.hpp:114] Creating layer pool1
I1226 14:43:13.194013 94810 net.cpp:178] Creating Layer pool1
I1226 14:43:13.194070 94810 net.cpp:612] pool1 <- norm1
I1226 14:43:13.194144 94810 net.cpp:586] pool1 -> pool1
I1226 14:43:13.194309 94810 net.cpp:228] Setting up pool1
I1226 14:43:13.194634 94810 net.cpp:235] Top shape: 256 96 27 27 (17915904)
I1226 14:43:13.194684 94810 net.cpp:243] Memory required for data: 1122072576
I1226 14:43:13.194761 94810 layer_factory.hpp:114] Creating layer conv2
I1226 14:43:13.194896 94810 net.cpp:178] Creating Layer conv2
I1226 14:43:13.194947 94810 net.cpp:612] conv2 <- pool1
I1226 14:43:13.195019 94810 net.cpp:586] conv2 -> conv2
I1226 14:43:13.230278 85791 net.cpp:228] Setting up conv1
I1226 14:43:13.230391 85791 net.cpp:235] Top shape: 256 96 55 55 (74342400)
I1226 14:43:13.230422 85791 net.cpp:243] Memory required for data: 455669760
I1226 14:43:13.230561 85791 layer_factory.hpp:114] Creating layer relu1
I1226 14:43:13.230747 85791 net.cpp:178] Creating Layer relu1
I1226 14:43:13.230799 85791 net.cpp:612] relu1 <- conv1
I1226 14:43:13.230844 85791 net.cpp:573] relu1 -> conv1 (in-place)
I1226 14:43:13.230959 85791 net.cpp:228] Setting up relu1
I1226 14:43:13.231015 85791 net.cpp:235] Top shape: 256 96 55 55 (74342400)
I1226 14:43:13.231041 85791 net.cpp:243] Memory required for data: 753039360
I1226 14:43:13.231071 85791 layer_factory.hpp:114] Creating layer norm1
I1226 14:43:13.231144 85791 net.cpp:178] Creating Layer norm1
I1226 14:43:13.231187 85791 net.cpp:612] norm1 <- conv1
I1226 14:43:13.231228 85791 net.cpp:586] norm1 -> norm1
I1226 14:43:13.231323 85791 net.cpp:228] Setting up norm1
I1226 14:43:13.231369 85791 net.cpp:235] Top shape: 256 96 55 55 (74342400)
I1226 14:43:13.231392 85791 net.cpp:243] Memory required for data: 1050408960
I1226 14:43:13.231421 85791 layer_factory.hpp:114] Creating layer pool1
I1226 14:43:13.231479 85791 net.cpp:178] Creating Layer pool1
I1226 14:43:13.231523 85791 net.cpp:612] pool1 <- norm1
I1226 14:43:13.231570 85791 net.cpp:586] pool1 -> pool1
I1226 14:43:13.231698 85791 net.cpp:228] Setting up pool1
I1226 14:43:13.231752 85791 net.cpp:235] Top shape: 256 96 27 27 (17915904)
I1226 14:43:13.231776 85791 net.cpp:243] Memory required for data: 1122072576
I1226 14:43:13.231806 85791 layer_factory.hpp:114] Creating layer conv2
I1226 14:43:13.231883 85791 net.cpp:178] Creating Layer conv2
I1226 14:43:13.231921 85791 net.cpp:612] conv2 <- pool1
I1226 14:43:13.231969 85791 net.cpp:586] conv2 -> conv2
I1226 14:43:13.251139 92812 net.cpp:228] Setting up conv1
I1226 14:43:13.251268 92812 net.cpp:235] Top shape: 256 96 55 55 (74342400)
I1226 14:43:13.251296 92812 net.cpp:243] Memory required for data: 455669760
I1226 14:43:13.251396 92812 layer_factory.hpp:114] Creating layer relu1
I1226 14:43:13.251519 92812 net.cpp:178] Creating Layer relu1
I1226 14:43:13.251564 92812 net.cpp:612] relu1 <- conv1
I1226 14:43:13.251606 92812 net.cpp:573] relu1 -> conv1 (in-place)
I1226 14:43:13.251714 92812 net.cpp:228] Setting up relu1
I1226 14:43:13.251761 92812 net.cpp:235] Top shape: 256 96 55 55 (74342400)
I1226 14:43:13.251785 92812 net.cpp:243] Memory required for data: 753039360
I1226 14:43:13.251816 92812 layer_factory.hpp:114] Creating layer norm1
I1226 14:43:13.251894 92812 net.cpp:178] Creating Layer norm1
I1226 14:43:13.251927 92812 net.cpp:612] norm1 <- conv1
I1226 14:43:13.251963 92812 net.cpp:586] norm1 -> norm1
I1226 14:43:13.252056 92812 net.cpp:228] Setting up norm1
I1226 14:43:13.252101 92812 net.cpp:235] Top shape: 256 96 55 55 (74342400)
I1226 14:43:13.252123 92812 net.cpp:243] Memory required for data: 1050408960
I1226 14:43:13.252151 92812 layer_factory.hpp:114] Creating layer pool1
I1226 14:43:13.252212 92812 net.cpp:178] Creating Layer pool1
I1226 14:43:13.252243 92812 net.cpp:612] pool1 <- norm1
I1226 14:43:13.252279 92812 net.cpp:586] pool1 -> pool1
I1226 14:43:13.252384 92812 net.cpp:228] Setting up pool1
I1226 14:43:13.252434 92812 net.cpp:235] Top shape: 256 96 27 27 (17915904)
I1226 14:43:13.252457 92812 net.cpp:243] Memory required for data: 1122072576
I1226 14:43:13.252516 92812 layer_factory.hpp:114] Creating layer conv2
I1226 14:43:13.252593 92812 net.cpp:178] Creating Layer conv2
I1226 14:43:13.252631 92812 net.cpp:612] conv2 <- pool1
I1226 14:43:13.252676 92812 net.cpp:586] conv2 -> conv2
I1226 14:43:13.271643 91731 net.cpp:228] Setting up conv1
I1226 14:43:13.271755 91731 net.cpp:235] Top shape: 256 96 55 55 (74342400)
I1226 14:43:13.271801 91731 net.cpp:243] Memory required for data: 455669760
I1226 14:43:13.271911 91731 layer_factory.hpp:114] Creating layer relu1
I1226 14:43:13.272008 91731 net.cpp:178] Creating Layer relu1
I1226 14:43:13.272047 91731 net.cpp:612] relu1 <- conv1
I1226 14:43:13.272088 91731 net.cpp:573] relu1 -> conv1 (in-place)
I1226 14:43:13.272195 91731 net.cpp:228] Setting up relu1
I1226 14:43:13.272240 91731 net.cpp:235] Top shape: 256 96 55 55 (74342400)
I1226 14:43:13.272265 91731 net.cpp:243] Memory required for data: 753039360
I1226 14:43:13.272294 91731 layer_factory.hpp:114] Creating layer norm1
I1226 14:43:13.272356 91731 net.cpp:178] Creating Layer norm1
I1226 14:43:13.272392 91731 net.cpp:612] norm1 <- conv1
I1226 14:43:13.272428 91731 net.cpp:586] norm1 -> norm1
I1226 14:43:13.272513 91731 net.cpp:228] Setting up norm1
I1226 14:43:13.272549 91731 net.cpp:235] Top shape: 256 96 55 55 (74342400)
I1226 14:43:13.272572 91731 net.cpp:243] Memory required for data: 1050408960
I1226 14:43:13.272609 91731 layer_factory.hpp:114] Creating layer pool1
I1226 14:43:13.272670 91731 net.cpp:178] Creating Layer pool1
I1226 14:43:13.272696 91731 net.cpp:612] pool1 <- norm1
I1226 14:43:13.272737 91731 net.cpp:586] pool1 -> pool1
I1226 14:43:13.272867 91731 net.cpp:228] Setting up pool1
I1226 14:43:13.272914 91731 net.cpp:235] Top shape: 256 96 27 27 (17915904)
I1226 14:43:13.272938 91731 net.cpp:243] Memory required for data: 1122072576
I1226 14:43:13.272965 91731 layer_factory.hpp:114] Creating layer conv2
I1226 14:43:13.273046 91731 net.cpp:178] Creating Layer conv2
I1226 14:43:13.273078 91731 net.cpp:612] conv2 <- pool1
I1226 14:43:13.273124 91731 net.cpp:586] conv2 -> conv2
I1226 14:43:13.283449 91922 net.cpp:228] Setting up conv1
I1226 14:43:13.283563 91922 net.cpp:235] Top shape: 256 96 55 55 (74342400)
I1226 14:43:13.283596 91922 net.cpp:243] Memory required for data: 455669760
I1226 14:43:13.283704 91922 layer_factory.hpp:114] Creating layer relu1
I1226 14:43:13.283808 91922 net.cpp:178] Creating Layer relu1
I1226 14:43:13.283854 91922 net.cpp:612] relu1 <- conv1
I1226 14:43:13.283893 91922 net.cpp:573] relu1 -> conv1 (in-place)
I1226 14:43:13.284003 91922 net.cpp:228] Setting up relu1
I1226 14:43:13.284055 91922 net.cpp:235] Top shape: 256 96 55 55 (74342400)
I1226 14:43:13.284080 91922 net.cpp:243] Memory required for data: 753039360
I1226 14:43:13.284111 91922 layer_factory.hpp:114] Creating layer norm1
I1226 14:43:13.284170 91922 net.cpp:178] Creating Layer norm1
I1226 14:43:13.284235 91922 net.cpp:612] norm1 <- conv1
I1226 14:43:13.284296 91922 net.cpp:586] norm1 -> norm1
I1226 14:43:13.284415 91922 net.cpp:228] Setting up norm1
I1226 14:43:13.284482 91922 net.cpp:235] Top shape: 256 96 55 55 (74342400)
I1226 14:43:13.284509 91922 net.cpp:243] Memory required for data: 1050408960
I1226 14:43:13.284543 91922 layer_factory.hpp:114] Creating layer pool1
I1226 14:43:13.284631 91922 net.cpp:178] Creating Layer pool1
I1226 14:43:13.284664 91922 net.cpp:612] pool1 <- norm1
I1226 14:43:13.284726 91922 net.cpp:586] pool1 -> pool1
I1226 14:43:13.284842 91922 net.cpp:228] Setting up pool1
I1226 14:43:13.284898 91922 net.cpp:235] Top shape: 256 96 27 27 (17915904)
I1226 14:43:13.284922 91922 net.cpp:243] Memory required for data: 1122072576
I1226 14:43:13.284955 91922 layer_factory.hpp:114] Creating layer conv2
I1226 14:43:13.285039 91922 net.cpp:178] Creating Layer conv2
I1226 14:43:13.285080 91922 net.cpp:612] conv2 <- pool1
I1226 14:43:13.285127 91922 net.cpp:586] conv2 -> conv2
I1226 14:43:13.306756 92472 net.cpp:228] Setting up conv3
I1226 14:43:13.306869 92472 net.cpp:235] Top shape: 256 384 13 13 (16613376)
I1226 14:43:13.306902 92472 net.cpp:243] Memory required for data: 1806137344
I1226 14:43:13.306983 92472 layer_factory.hpp:114] Creating layer relu3
I1226 14:43:13.307087 92472 net.cpp:178] Creating Layer relu3
I1226 14:43:13.307139 92472 net.cpp:612] relu3 <- conv3
I1226 14:43:13.307186 92472 net.cpp:573] relu3 -> conv3 (in-place)
I1226 14:43:13.307301 92472 net.cpp:228] Setting up relu3
I1226 14:43:13.307384 92472 net.cpp:235] Top shape: 256 384 13 13 (16613376)
I1226 14:43:13.307412 92472 net.cpp:243] Memory required for data: 1872590848
I1226 14:43:13.307446 92472 layer_factory.hpp:114] Creating layer conv4
I1226 14:43:13.307535 92472 net.cpp:178] Creating Layer conv4
I1226 14:43:13.307575 92472 net.cpp:612] conv4 <- conv3
I1226 14:43:13.307622 92472 net.cpp:586] conv4 -> conv4
I1226 14:43:13.514348 92783 net.cpp:228] Setting up conv2
I1226 14:43:13.514470 92783 net.cpp:235] Top shape: 256 256 27 27 (47775744)
I1226 14:43:13.514500 92783 net.cpp:243] Memory required for data: 1313175552
I1226 14:43:13.514569 92783 layer_factory.hpp:114] Creating layer relu2
I1226 14:43:13.514632 92783 net.cpp:178] Creating Layer relu2
I1226 14:43:13.514669 92783 net.cpp:612] relu2 <- conv2
I1226 14:43:13.514713 92783 net.cpp:573] relu2 -> conv2 (in-place)
I1226 14:43:13.514879 92783 net.cpp:228] Setting up relu2
I1226 14:43:13.514956 92783 net.cpp:235] Top shape: 256 256 27 27 (47775744)
I1226 14:43:13.514986 92783 net.cpp:243] Memory required for data: 1504278528
I1226 14:43:13.515019 92783 layer_factory.hpp:114] Creating layer norm2
I1226 14:43:13.515094 92783 net.cpp:178] Creating Layer norm2
I1226 14:43:13.515127 92783 net.cpp:612] norm2 <- conv2
I1226 14:43:13.515171 92783 net.cpp:586] norm2 -> norm2
I1226 14:43:13.515275 92783 net.cpp:228] Setting up norm2
I1226 14:43:13.515326 92783 net.cpp:235] Top shape: 256 256 27 27 (47775744)
I1226 14:43:13.515348 92783 net.cpp:243] Memory required for data: 1695381504
I1226 14:43:13.515377 92783 layer_factory.hpp:114] Creating layer pool2
I1226 14:43:13.515440 92783 net.cpp:178] Creating Layer pool2
I1226 14:43:13.515471 92783 net.cpp:612] pool2 <- norm2
I1226 14:43:13.515506 92783 net.cpp:586] pool2 -> pool2
I1226 14:43:13.515599 92783 net.cpp:228] Setting up pool2
I1226 14:43:13.515749 92783 net.cpp:235] Top shape: 256 256 13 13 (11075584)
I1226 14:43:13.515777 92783 net.cpp:243] Memory required for data: 1739683840
I1226 14:43:13.515833 92783 layer_factory.hpp:114] Creating layer conv3
I1226 14:43:13.515924 92783 net.cpp:178] Creating Layer conv3
I1226 14:43:13.515956 92783 net.cpp:612] conv3 <- pool2
I1226 14:43:13.516034 92783 net.cpp:586] conv3 -> conv3
I1226 14:43:13.515359 92472 net.cpp:228] Setting up conv4
I1226 14:43:13.515470 92472 net.cpp:235] Top shape: 256 384 13 13 (16613376)
I1226 14:43:13.515503 92472 net.cpp:243] Memory required for data: 1939044352
I1226 14:43:13.515565 92472 layer_factory.hpp:114] Creating layer relu4
I1226 14:43:13.515687 92472 net.cpp:178] Creating Layer relu4
I1226 14:43:13.515833 92472 net.cpp:612] relu4 <- conv4
I1226 14:43:13.515908 92472 net.cpp:573] relu4 -> conv4 (in-place)
I1226 14:43:13.516062 92472 net.cpp:228] Setting up relu4
I1226 14:43:13.516122 92472 net.cpp:235] Top shape: 256 384 13 13 (16613376)
I1226 14:43:13.516280 92472 net.cpp:243] Memory required for data: 2005497856
I1226 14:43:13.516343 92472 layer_factory.hpp:114] Creating layer conv5
I1226 14:43:13.516455 92472 net.cpp:178] Creating Layer conv5
I1226 14:43:13.516625 92472 net.cpp:612] conv5 <- conv4
I1226 14:43:13.516721 92472 net.cpp:586] conv5 -> conv5
I1226 14:43:13.541625 97292 net.cpp:228] Setting up data
I1226 14:43:13.541760 97292 net.cpp:235] Top shape: 256 3 227 227 (39574272)
I1226 14:43:13.541841 97292 net.cpp:235] Top shape: 256 (256)
I1226 14:43:13.541872 97292 net.cpp:243] Memory required for data: 158298112
I1226 14:43:13.541913 97292 layer_factory.hpp:114] Creating layer label_data_1_split
I1226 14:43:13.542016 97292 net.cpp:178] Creating Layer label_data_1_split
I1226 14:43:13.542155 97292 net.cpp:612] label_data_1_split <- label
I1226 14:43:13.542207 97292 net.cpp:586] label_data_1_split -> label_data_1_split_0
I1226 14:43:13.542361 97292 net.cpp:586] label_data_1_split -> label_data_1_split_1
I1226 14:43:13.567914 85791 net.cpp:228] Setting up conv2
I1226 14:43:13.568040 85791 net.cpp:235] Top shape: 256 256 27 27 (47775744)
I1226 14:43:13.568071 85791 net.cpp:243] Memory required for data: 1313175552
I1226 14:43:13.568147 85791 layer_factory.hpp:114] Creating layer relu2
I1226 14:43:13.568218 85791 net.cpp:178] Creating Layer relu2
I1226 14:43:13.568334 85791 net.cpp:612] relu2 <- conv2
I1226 14:43:13.568378 85791 net.cpp:573] relu2 -> conv2 (in-place)
I1226 14:43:13.568485 85791 net.cpp:228] Setting up relu2
I1226 14:43:13.568539 85791 net.cpp:235] Top shape: 256 256 27 27 (47775744)
I1226 14:43:13.568572 85791 net.cpp:243] Memory required for data: 1504278528
I1226 14:43:13.568626 85791 layer_factory.hpp:114] Creating layer norm2
I1226 14:43:13.568697 85791 net.cpp:178] Creating Layer norm2
I1226 14:43:13.568738 85791 net.cpp:612] norm2 <- conv2
I1226 14:43:13.568781 85791 net.cpp:586] norm2 -> norm2
I1226 14:43:13.568866 85791 net.cpp:228] Setting up norm2
I1226 14:43:13.568914 85791 net.cpp:235] Top shape: 256 256 27 27 (47775744)
I1226 14:43:13.568943 85791 net.cpp:243] Memory required for data: 1695381504
I1226 14:43:13.568970 85791 layer_factory.hpp:114] Creating layer pool2
I1226 14:43:13.569025 85791 net.cpp:178] Creating Layer pool2
I1226 14:43:13.569058 85791 net.cpp:612] pool2 <- norm2
I1226 14:43:13.569093 85791 net.cpp:586] pool2 -> pool2
I1226 14:43:13.569172 85791 net.cpp:228] Setting up pool2
I1226 14:43:13.569314 85791 net.cpp:235] Top shape: 256 256 13 13 (11075584)
I1226 14:43:13.569340 85791 net.cpp:243] Memory required for data: 1739683840
I1226 14:43:13.569380 85791 layer_factory.hpp:114] Creating layer conv3
I1226 14:43:13.569473 85791 net.cpp:178] Creating Layer conv3
I1226 14:43:13.569506 85791 net.cpp:612] conv3 <- pool2
I1226 14:43:13.569558 85791 net.cpp:586] conv3 -> conv3
I1226 14:43:13.561420 94810 net.cpp:228] Setting up conv2
I1226 14:43:13.561573 94810 net.cpp:235] Top shape: 256 256 27 27 (47775744)
I1226 14:43:13.561673 94810 net.cpp:243] Memory required for data: 1313175552
I1226 14:43:13.562048 94810 layer_factory.hpp:114] Creating layer relu2
I1226 14:43:13.562355 94810 net.cpp:178] Creating Layer relu2
I1226 14:43:13.562789 94810 net.cpp:612] relu2 <- conv2
I1226 14:43:13.562880 94810 net.cpp:573] relu2 -> conv2 (in-place)
I1226 14:43:13.563060 94810 net.cpp:228] Setting up relu2
I1226 14:43:13.563171 94810 net.cpp:235] Top shape: 256 256 27 27 (47775744)
I1226 14:43:13.563201 94810 net.cpp:243] Memory required for data: 1504278528
I1226 14:43:13.563251 94810 layer_factory.hpp:114] Creating layer norm2
I1226 14:43:13.563365 94810 net.cpp:178] Creating Layer norm2
I1226 14:43:13.563474 94810 net.cpp:612] norm2 <- conv2
I1226 14:43:13.563524 94810 net.cpp:586] norm2 -> norm2
I1226 14:43:13.563983 94810 net.cpp:228] Setting up norm2
I1226 14:43:13.564110 94810 net.cpp:235] Top shape: 256 256 27 27 (47775744)
I1226 14:43:13.564157 94810 net.cpp:243] Memory required for data: 1695381504
I1226 14:43:13.564194 94810 layer_factory.hpp:114] Creating layer pool2
I1226 14:43:13.564285 94810 net.cpp:178] Creating Layer pool2
I1226 14:43:13.564342 94810 net.cpp:612] pool2 <- norm2
I1226 14:43:13.564443 94810 net.cpp:586] pool2 -> pool2
I1226 14:43:13.564568 94810 net.cpp:228] Setting up pool2
I1226 14:43:13.565111 94810 net.cpp:235] Top shape: 256 256 13 13 (11075584)
I1226 14:43:13.565251 94810 net.cpp:243] Memory required for data: 1739683840
I1226 14:43:13.565304 94810 layer_factory.hpp:114] Creating layer conv3
I1226 14:43:13.565481 94810 net.cpp:178] Creating Layer conv3
I1226 14:43:13.565551 94810 net.cpp:612] conv3 <- pool2
I1226 14:43:13.566108 94810 net.cpp:586] conv3 -> conv3
I1226 14:43:13.575508 97292 net.cpp:228] Setting up label_data_1_split
I1226 14:43:13.575623 97292 net.cpp:235] Top shape: 256 (256)
I1226 14:43:13.575660 97292 net.cpp:235] Top shape: 256 (256)
I1226 14:43:13.575687 97292 net.cpp:243] Memory required for data: 158300160
I1226 14:43:13.575726 97292 layer_factory.hpp:114] Creating layer conv1
I1226 14:43:13.575863 97292 net.cpp:178] Creating Layer conv1
I1226 14:43:13.575912 97292 net.cpp:612] conv1 <- data
I1226 14:43:13.575961 97292 net.cpp:586] conv1 -> conv1
I1226 14:43:13.629063 91731 net.cpp:228] Setting up conv2
I1226 14:43:13.629170 91731 net.cpp:235] Top shape: 256 256 27 27 (47775744)
I1226 14:43:13.629197 91731 net.cpp:243] Memory required for data: 1313175552
I1226 14:43:13.629271 91731 layer_factory.hpp:114] Creating layer relu2
I1226 14:43:13.629339 91731 net.cpp:178] Creating Layer relu2
I1226 14:43:13.629366 91731 net.cpp:612] relu2 <- conv2
I1226 14:43:13.629459 91731 net.cpp:573] relu2 -> conv2 (in-place)
I1226 14:43:13.629595 91731 net.cpp:228] Setting up relu2
I1226 14:43:13.629663 91731 net.cpp:235] Top shape: 256 256 27 27 (47775744)
I1226 14:43:13.629686 91731 net.cpp:243] Memory required for data: 1504278528
I1226 14:43:13.629715 91731 layer_factory.hpp:114] Creating layer norm2
I1226 14:43:13.629868 91731 net.cpp:178] Creating Layer norm2
I1226 14:43:13.629896 91731 net.cpp:612] norm2 <- conv2
I1226 14:43:13.629948 91731 net.cpp:586] norm2 -> norm2
I1226 14:43:13.630043 91731 net.cpp:228] Setting up norm2
I1226 14:43:13.630092 91731 net.cpp:235] Top shape: 256 256 27 27 (47775744)
I1226 14:43:13.630141 91731 net.cpp:243] Memory required for data: 1695381504
I1226 14:43:13.630168 91731 layer_factory.hpp:114] Creating layer pool2
I1226 14:43:13.630244 91731 net.cpp:178] Creating Layer pool2
I1226 14:43:13.630278 91731 net.cpp:612] pool2 <- norm2
I1226 14:43:13.630321 91731 net.cpp:586] pool2 -> pool2
I1226 14:43:13.630445 91731 net.cpp:228] Setting up pool2
I1226 14:43:13.630599 91731 net.cpp:235] Top shape: 256 256 13 13 (11075584)
I1226 14:43:13.630625 91731 net.cpp:243] Memory required for data: 1739683840
I1226 14:43:13.630659 91731 layer_factory.hpp:114] Creating layer conv3
I1226 14:43:13.630734 91731 net.cpp:178] Creating Layer conv3
I1226 14:43:13.630767 91731 net.cpp:612] conv3 <- pool2
I1226 14:43:13.605566 97719 net.cpp:228] Setting up data
I1226 14:43:13.605695 97719 net.cpp:235] Top shape: 256 3 227 227 (39574272)
I1226 14:43:13.605768 97719 net.cpp:235] Top shape: 256 (256)
I1226 14:43:13.605800 97719 net.cpp:243] Memory required for data: 158298112
I1226 14:43:13.605842 97719 layer_factory.hpp:114] Creating layer label_data_1_split
I1226 14:43:13.605932 97719 net.cpp:178] Creating Layer label_data_1_split
I1226 14:43:13.631233 91731 net.cpp:586] conv3 -> conv3
I1226 14:43:13.606082 97719 net.cpp:612] label_data_1_split <- label
I1226 14:43:13.606139 97719 net.cpp:586] label_data_1_split -> label_data_1_split_0
I1226 14:43:13.606195 97719 net.cpp:586] label_data_1_split -> label_data_1_split_1
I1226 14:43:13.651758 91922 net.cpp:228] Setting up conv2
I1226 14:43:13.651870 91922 net.cpp:235] Top shape: 256 256 27 27 (47775744)
I1226 14:43:13.651897 91922 net.cpp:243] Memory required for data: 1313175552
I1226 14:43:13.651969 91922 layer_factory.hpp:114] Creating layer relu2
I1226 14:43:13.652036 91922 net.cpp:178] Creating Layer relu2
I1226 14:43:13.652066 91922 net.cpp:612] relu2 <- conv2
I1226 14:43:13.652123 91922 net.cpp:573] relu2 -> conv2 (in-place)
I1226 14:43:13.652258 91922 net.cpp:228] Setting up relu2
I1226 14:43:13.652314 91922 net.cpp:235] Top shape: 256 256 27 27 (47775744)
I1226 14:43:13.652542 91922 net.cpp:243] Memory required for data: 1504278528
I1226 14:43:13.652585 91922 layer_factory.hpp:114] Creating layer norm2
I1226 14:43:13.652642 91922 net.cpp:178] Creating Layer norm2
I1226 14:43:13.652719 91922 net.cpp:612] norm2 <- conv2
I1226 14:43:13.652776 91922 net.cpp:586] norm2 -> norm2
I1226 14:43:13.652947 91922 net.cpp:228] Setting up norm2
I1226 14:43:13.653069 91922 net.cpp:235] Top shape: 256 256 27 27 (47775744)
I1226 14:43:13.653092 91922 net.cpp:243] Memory required for data: 1695381504
I1226 14:43:13.653122 91922 layer_factory.hpp:114] Creating layer pool2
I1226 14:43:13.639649 97719 net.cpp:228] Setting up label_data_1_split
I1226 14:43:13.653187 91922 net.cpp:178] Creating Layer pool2
I1226 14:43:13.639791 97719 net.cpp:235] Top shape: 256 (256)
I1226 14:43:13.639834 97719 net.cpp:235] Top shape: 256 (256)
I1226 14:43:13.653249 91922 net.cpp:612] pool2 <- norm2
I1226 14:43:13.639860 97719 net.cpp:243] Memory required for data: 158300160
I1226 14:43:13.653300 91922 net.cpp:586] pool2 -> pool2
I1226 14:43:13.639899 97719 layer_factory.hpp:114] Creating layer conv1
I1226 14:43:13.653398 91922 net.cpp:228] Setting up pool2
I1226 14:43:13.653550 91922 net.cpp:235] Top shape: 256 256 13 13 (11075584)
I1226 14:43:13.653580 91922 net.cpp:243] Memory required for data: 1739683840
I1226 14:43:13.640003 97719 net.cpp:178] Creating Layer conv1
I1226 14:43:13.653615 91922 layer_factory.hpp:114] Creating layer conv3
I1226 14:43:13.640055 97719 net.cpp:612] conv1 <- data
I1226 14:43:13.653707 91922 net.cpp:178] Creating Layer conv3
I1226 14:43:13.640105 97719 net.cpp:586] conv1 -> conv1
I1226 14:43:13.653750 91922 net.cpp:612] conv3 <- pool2
I1226 14:43:13.653800 91922 net.cpp:586] conv3 -> conv3
I1226 14:43:13.666071 92472 net.cpp:228] Setting up conv5
I1226 14:43:13.666188 92472 net.cpp:235] Top shape: 256 256 13 13 (11075584)
I1226 14:43:13.666218 92472 net.cpp:243] Memory required for data: 2049800192
I1226 14:43:13.666296 92472 layer_factory.hpp:114] Creating layer relu5
I1226 14:43:13.666431 92472 net.cpp:178] Creating Layer relu5
I1226 14:43:13.666487 92472 net.cpp:612] relu5 <- conv5
I1226 14:43:13.666533 92472 net.cpp:573] relu5 -> conv5 (in-place)
I1226 14:43:13.666692 92472 net.cpp:228] Setting up relu5
I1226 14:43:13.666751 92472 net.cpp:235] Top shape: 256 256 13 13 (11075584)
I1226 14:43:13.666774 92472 net.cpp:243] Memory required for data: 2094102528
I1226 14:43:13.666805 92472 layer_factory.hpp:114] Creating layer pool5
I1226 14:43:13.666883 92472 net.cpp:178] Creating Layer pool5
I1226 14:43:13.666923 92472 net.cpp:612] pool5 <- conv5
I1226 14:43:13.666978 92472 net.cpp:586] pool5 -> pool5
I1226 14:43:13.667075 92472 net.cpp:228] Setting up pool5
I1226 14:43:13.667124 92472 net.cpp:235] Top shape: 256 256 6 6 (2359296)
I1226 14:43:13.667146 92472 net.cpp:243] Memory required for data: 2103539712
I1226 14:43:13.667176 92472 layer_factory.hpp:114] Creating layer fc6
I1226 14:43:13.667270 92472 net.cpp:178] Creating Layer fc6
I1226 14:43:13.667332 92472 net.cpp:612] fc6 <- pool5
I1226 14:43:13.667382 92472 net.cpp:586] fc6 -> fc6
I1226 14:43:13.681505 92812 net.cpp:228] Setting up conv2
I1226 14:43:13.681615 92812 net.cpp:235] Top shape: 256 256 27 27 (47775744)
I1226 14:43:13.681643 92812 net.cpp:243] Memory required for data: 1313175552
I1226 14:43:13.681715 92812 layer_factory.hpp:114] Creating layer relu2
I1226 14:43:13.681787 92812 net.cpp:178] Creating Layer relu2
I1226 14:43:13.681814 92812 net.cpp:612] relu2 <- conv2
I1226 14:43:13.681996 92812 net.cpp:573] relu2 -> conv2 (in-place)
I1226 14:43:13.682096 92812 net.cpp:228] Setting up relu2
I1226 14:43:13.682148 92812 net.cpp:235] Top shape: 256 256 27 27 (47775744)
I1226 14:43:13.682258 92812 net.cpp:243] Memory required for data: 1504278528
I1226 14:43:13.682286 92812 layer_factory.hpp:114] Creating layer norm2
I1226 14:43:13.682346 92812 net.cpp:178] Creating Layer norm2
I1226 14:43:13.682421 92812 net.cpp:612] norm2 <- conv2
I1226 14:43:13.682456 92812 net.cpp:586] norm2 -> norm2
I1226 14:43:13.682567 92812 net.cpp:228] Setting up norm2
I1226 14:43:13.682723 92812 net.cpp:235] Top shape: 256 256 27 27 (47775744)
I1226 14:43:13.682746 92812 net.cpp:243] Memory required for data: 1695381504
I1226 14:43:13.682780 92812 layer_factory.hpp:114] Creating layer pool2
I1226 14:43:13.682837 92812 net.cpp:178] Creating Layer pool2
I1226 14:43:13.682862 92812 net.cpp:612] pool2 <- norm2
I1226 14:43:13.682896 92812 net.cpp:586] pool2 -> pool2
I1226 14:43:13.683003 92812 net.cpp:228] Setting up pool2
I1226 14:43:13.683146 92812 net.cpp:235] Top shape: 256 256 13 13 (11075584)
I1226 14:43:13.683172 92812 net.cpp:243] Memory required for data: 1739683840
I1226 14:43:13.683208 92812 layer_factory.hpp:114] Creating layer conv3
I1226 14:43:13.683287 92812 net.cpp:178] Creating Layer conv3
I1226 14:43:13.683321 92812 net.cpp:612] conv3 <- pool2
I1226 14:43:13.683362 92812 net.cpp:586] conv3 -> conv3
I1226 14:43:13.870836 92783 net.cpp:228] Setting up conv3
I1226 14:43:13.870939 92783 net.cpp:235] Top shape: 256 384 13 13 (16613376)
I1226 14:43:13.870991 92783 net.cpp:243] Memory required for data: 1806137344
I1226 14:43:13.871071 92783 layer_factory.hpp:114] Creating layer relu3
I1226 14:43:13.871134 92783 net.cpp:178] Creating Layer relu3
I1226 14:43:13.871168 92783 net.cpp:612] relu3 <- conv3
I1226 14:43:13.871243 92783 net.cpp:573] relu3 -> conv3 (in-place)
I1226 14:43:13.871354 92783 net.cpp:228] Setting up relu3
I1226 14:43:13.871405 92783 net.cpp:235] Top shape: 256 384 13 13 (16613376)
I1226 14:43:13.871428 92783 net.cpp:243] Memory required for data: 1872590848
I1226 14:43:13.871459 92783 layer_factory.hpp:114] Creating layer conv4
I1226 14:43:13.871536 92783 net.cpp:178] Creating Layer conv4
I1226 14:43:13.871570 92783 net.cpp:612] conv4 <- conv3
I1226 14:43:13.871634 92783 net.cpp:586] conv4 -> conv4
I1226 14:43:13.916808 85791 net.cpp:228] Setting up conv3
I1226 14:43:13.916944 85791 net.cpp:235] Top shape: 256 384 13 13 (16613376)
I1226 14:43:13.916976 85791 net.cpp:243] Memory required for data: 1806137344
I1226 14:43:13.917053 85791 layer_factory.hpp:114] Creating layer relu3
I1226 14:43:13.917171 85791 net.cpp:178] Creating Layer relu3
I1226 14:43:13.917206 85791 net.cpp:612] relu3 <- conv3
I1226 14:43:13.917245 85791 net.cpp:573] relu3 -> conv3 (in-place)
I1226 14:43:13.917359 85791 net.cpp:228] Setting up relu3
I1226 14:43:13.917440 85791 net.cpp:235] Top shape: 256 384 13 13 (16613376)
I1226 14:43:13.917469 85791 net.cpp:243] Memory required for data: 1872590848
I1226 14:43:13.917501 85791 layer_factory.hpp:114] Creating layer conv4
I1226 14:43:13.917750 85791 net.cpp:178] Creating Layer conv4
I1226 14:43:13.917814 85791 net.cpp:612] conv4 <- conv3
I1226 14:43:13.917889 85791 net.cpp:586] conv4 -> conv4
I1226 14:43:13.946213 94810 net.cpp:228] Setting up conv3
I1226 14:43:13.946336 94810 net.cpp:235] Top shape: 256 384 13 13 (16613376)
I1226 14:43:13.946446 94810 net.cpp:243] Memory required for data: 1806137344
I1226 14:43:13.946568 94810 layer_factory.hpp:114] Creating layer relu3
I1226 14:43:13.946753 94810 net.cpp:178] Creating Layer relu3
I1226 14:43:13.946794 94810 net.cpp:612] relu3 <- conv3
I1226 14:43:13.946861 94810 net.cpp:573] relu3 -> conv3 (in-place)
I1226 14:43:13.947073 94810 net.cpp:228] Setting up relu3
I1226 14:43:13.947139 94810 net.cpp:235] Top shape: 256 384 13 13 (16613376)
I1226 14:43:13.947167 94810 net.cpp:243] Memory required for data: 1872590848
I1226 14:43:13.947216 94810 layer_factory.hpp:114] Creating layer conv4
I1226 14:43:13.947316 94810 net.cpp:178] Creating Layer conv4
I1226 14:43:13.947789 94810 net.cpp:612] conv4 <- conv3
I1226 14:43:13.947973 94810 net.cpp:586] conv4 -> conv4
I1226 14:43:13.998494 91731 net.cpp:228] Setting up conv3
I1226 14:43:13.998606 91731 net.cpp:235] Top shape: 256 384 13 13 (16613376)
I1226 14:43:13.998633 91731 net.cpp:243] Memory required for data: 1806137344
I1226 14:43:13.998706 91731 layer_factory.hpp:114] Creating layer relu3
I1226 14:43:13.998775 91731 net.cpp:178] Creating Layer relu3
I1226 14:43:13.998833 91731 net.cpp:612] relu3 <- conv3
I1226 14:43:13.998874 91731 net.cpp:573] relu3 -> conv3 (in-place)
I1226 14:43:13.998981 91731 net.cpp:228] Setting up relu3
I1226 14:43:13.999027 91731 net.cpp:235] Top shape: 256 384 13 13 (16613376)
I1226 14:43:13.999049 91731 net.cpp:243] Memory required for data: 1872590848
I1226 14:43:13.999079 91731 layer_factory.hpp:114] Creating layer conv4
I1226 14:43:13.999173 91731 net.cpp:178] Creating Layer conv4
I1226 14:43:13.999279 91731 net.cpp:612] conv4 <- conv3
I1226 14:43:13.999327 91731 net.cpp:586] conv4 -> conv4
I1226 14:43:14.066306 91922 net.cpp:228] Setting up conv3
I1226 14:43:14.066423 91922 net.cpp:235] Top shape: 256 384 13 13 (16613376)
I1226 14:43:14.066455 91922 net.cpp:243] Memory required for data: 1806137344
I1226 14:43:14.066529 91922 layer_factory.hpp:114] Creating layer relu3
I1226 14:43:14.066606 91922 net.cpp:178] Creating Layer relu3
I1226 14:43:14.066639 91922 net.cpp:612] relu3 <- conv3
I1226 14:43:14.066686 91922 net.cpp:573] relu3 -> conv3 (in-place)
I1226 14:43:14.066786 91922 net.cpp:228] Setting up relu3
I1226 14:43:14.066838 91922 net.cpp:235] Top shape: 256 384 13 13 (16613376)
I1226 14:43:14.066861 91922 net.cpp:243] Memory required for data: 1872590848
I1226 14:43:14.066892 91922 layer_factory.hpp:114] Creating layer conv4
I1226 14:43:14.066987 91922 net.cpp:178] Creating Layer conv4
I1226 14:43:14.067020 91922 net.cpp:612] conv4 <- conv3
I1226 14:43:14.067075 91922 net.cpp:586] conv4 -> conv4
I1226 14:43:14.155308 92812 net.cpp:228] Setting up conv3
I1226 14:43:14.155412 92812 net.cpp:235] Top shape: 256 384 13 13 (16613376)
I1226 14:43:14.155436 92812 net.cpp:243] Memory required for data: 1806137344
I1226 14:43:14.155551 92812 layer_factory.hpp:114] Creating layer relu3
I1226 14:43:14.155621 92812 net.cpp:178] Creating Layer relu3
I1226 14:43:14.155649 92812 net.cpp:612] relu3 <- conv3
I1226 14:43:14.155764 92812 net.cpp:573] relu3 -> conv3 (in-place)
I1226 14:43:14.155841 92812 net.cpp:228] Setting up relu3
I1226 14:43:14.155879 92812 net.cpp:235] Top shape: 256 384 13 13 (16613376)
I1226 14:43:14.155900 92812 net.cpp:243] Memory required for data: 1872590848
I1226 14:43:14.155926 92812 layer_factory.hpp:114] Creating layer conv4
I1226 14:43:14.155992 92812 net.cpp:178] Creating Layer conv4
I1226 14:43:14.156021 92812 net.cpp:612] conv4 <- conv3
I1226 14:43:14.156069 92812 net.cpp:586] conv4 -> conv4
I1226 14:43:14.192728 92783 net.cpp:228] Setting up conv4
I1226 14:43:14.192858 92783 net.cpp:235] Top shape: 256 384 13 13 (16613376)
I1226 14:43:14.192888 92783 net.cpp:243] Memory required for data: 1939044352
I1226 14:43:14.192945 92783 layer_factory.hpp:114] Creating layer relu4
I1226 14:43:14.193008 92783 net.cpp:178] Creating Layer relu4
I1226 14:43:14.193044 92783 net.cpp:612] relu4 <- conv4
I1226 14:43:14.193107 92783 net.cpp:573] relu4 -> conv4 (in-place)
I1226 14:43:14.193217 92783 net.cpp:228] Setting up relu4
I1226 14:43:14.193280 92783 net.cpp:235] Top shape: 256 384 13 13 (16613376)
I1226 14:43:14.193308 92783 net.cpp:243] Memory required for data: 2005497856
I1226 14:43:14.193339 92783 layer_factory.hpp:114] Creating layer conv5
I1226 14:43:14.193428 92783 net.cpp:178] Creating Layer conv5
I1226 14:43:14.193855 92783 net.cpp:612] conv5 <- conv4
I1226 14:43:14.193975 92783 net.cpp:586] conv5 -> conv5
I1226 14:43:14.191123 97292 net.cpp:228] Setting up conv1
I1226 14:43:14.191241 97292 net.cpp:235] Top shape: 256 96 55 55 (74342400)
I1226 14:43:14.191273 97292 net.cpp:243] Memory required for data: 455669760
I1226 14:43:14.191385 97292 layer_factory.hpp:114] Creating layer relu1
I1226 14:43:14.191473 97292 net.cpp:178] Creating Layer relu1
I1226 14:43:14.191516 97292 net.cpp:612] relu1 <- conv1
I1226 14:43:14.191576 97292 net.cpp:573] relu1 -> conv1 (in-place)
I1226 14:43:14.191691 97292 net.cpp:228] Setting up relu1
I1226 14:43:14.191741 97292 net.cpp:235] Top shape: 256 96 55 55 (74342400)
I1226 14:43:14.191766 97292 net.cpp:243] Memory required for data: 753039360
I1226 14:43:14.191829 97292 layer_factory.hpp:114] Creating layer norm1
I1226 14:43:14.191902 97292 net.cpp:178] Creating Layer norm1
I1226 14:43:14.191939 97292 net.cpp:612] norm1 <- conv1
I1226 14:43:14.191979 97292 net.cpp:586] norm1 -> norm1
I1226 14:43:14.192082 97292 net.cpp:228] Setting up norm1
I1226 14:43:14.192131 97292 net.cpp:235] Top shape: 256 96 55 55 (74342400)
I1226 14:43:14.192155 97292 net.cpp:243] Memory required for data: 1050408960
I1226 14:43:14.192185 97292 layer_factory.hpp:114] Creating layer pool1
I1226 14:43:14.192255 97292 net.cpp:178] Creating Layer pool1
I1226 14:43:14.192291 97292 net.cpp:612] pool1 <- norm1
I1226 14:43:14.192328 97292 net.cpp:586] pool1 -> pool1
I1226 14:43:14.192440 97292 net.cpp:228] Setting up pool1
I1226 14:43:14.192484 97292 net.cpp:235] Top shape: 256 96 27 27 (17915904)
I1226 14:43:14.192507 97292 net.cpp:243] Memory required for data: 1122072576
I1226 14:43:14.192538 97292 layer_factory.hpp:114] Creating layer conv2
I1226 14:43:14.192632 97292 net.cpp:178] Creating Layer conv2
I1226 14:43:14.192667 97292 net.cpp:612] conv2 <- pool1
I1226 14:43:14.192708 97292 net.cpp:586] conv2 -> conv2
I1226 14:43:14.246654 85791 net.cpp:228] Setting up conv4
I1226 14:43:14.246764 85791 net.cpp:235] Top shape: 256 384 13 13 (16613376)
I1226 14:43:14.246791 85791 net.cpp:243] Memory required for data: 1939044352
I1226 14:43:14.246850 85791 layer_factory.hpp:114] Creating layer relu4
I1226 14:43:14.246914 85791 net.cpp:178] Creating Layer relu4
I1226 14:43:14.246942 85791 net.cpp:612] relu4 <- conv4
I1226 14:43:14.246999 85791 net.cpp:573] relu4 -> conv4 (in-place)
I1226 14:43:14.247107 85791 net.cpp:228] Setting up relu4
I1226 14:43:14.247156 85791 net.cpp:235] Top shape: 256 384 13 13 (16613376)
I1226 14:43:14.247179 85791 net.cpp:243] Memory required for data: 2005497856
I1226 14:43:14.247210 85791 layer_factory.hpp:114] Creating layer conv5
I1226 14:43:14.247288 85791 net.cpp:178] Creating Layer conv5
I1226 14:43:14.247325 85791 net.cpp:612] conv5 <- conv4
I1226 14:43:14.247376 85791 net.cpp:586] conv5 -> conv5
I1226 14:43:14.272985 94810 net.cpp:228] Setting up conv4
I1226 14:43:14.273102 94810 net.cpp:235] Top shape: 256 384 13 13 (16613376)
I1226 14:43:14.273134 94810 net.cpp:243] Memory required for data: 1939044352
I1226 14:43:14.273200 94810 layer_factory.hpp:114] Creating layer relu4
I1226 14:43:14.273267 94810 net.cpp:178] Creating Layer relu4
I1226 14:43:14.273313 94810 net.cpp:612] relu4 <- conv4
I1226 14:43:14.273363 94810 net.cpp:573] relu4 -> conv4 (in-place)
I1226 14:43:14.273530 94810 net.cpp:228] Setting up relu4
I1226 14:43:14.273591 94810 net.cpp:235] Top shape: 256 384 13 13 (16613376)
I1226 14:43:14.273617 94810 net.cpp:243] Memory required for data: 2005497856
I1226 14:43:14.273648 94810 layer_factory.hpp:114] Creating layer conv5
I1226 14:43:14.273733 94810 net.cpp:178] Creating Layer conv5
I1226 14:43:14.273763 94810 net.cpp:612] conv5 <- conv4
I1226 14:43:14.273805 94810 net.cpp:586] conv5 -> conv5
I1226 14:43:14.338383 91731 net.cpp:228] Setting up conv4
I1226 14:43:14.338490 91731 net.cpp:235] Top shape: 256 384 13 13 (16613376)
I1226 14:43:14.338513 91731 net.cpp:243] Memory required for data: 1939044352
I1226 14:43:14.338596 91731 layer_factory.hpp:114] Creating layer relu4
I1226 14:43:14.338662 91731 net.cpp:178] Creating Layer relu4
I1226 14:43:14.338696 91731 net.cpp:612] relu4 <- conv4
I1226 14:43:14.338733 91731 net.cpp:573] relu4 -> conv4 (in-place)
I1226 14:43:14.338907 91731 net.cpp:228] Setting up relu4
I1226 14:43:14.338950 91731 net.cpp:235] Top shape: 256 384 13 13 (16613376)
I1226 14:43:14.338973 91731 net.cpp:243] Memory required for data: 2005497856
I1226 14:43:14.338999 91731 layer_factory.hpp:114] Creating layer conv5
I1226 14:43:14.339087 91731 net.cpp:178] Creating Layer conv5
I1226 14:43:14.339118 91731 net.cpp:612] conv5 <- conv4
I1226 14:43:14.339157 91731 net.cpp:586] conv5 -> conv5
I1226 14:43:14.370436 97719 net.cpp:228] Setting up conv1
I1226 14:43:14.370573 97719 net.cpp:235] Top shape: 256 96 55 55 (74342400)
I1226 14:43:14.370604 97719 net.cpp:243] Memory required for data: 455669760
I1226 14:43:14.370713 97719 layer_factory.hpp:114] Creating layer relu1
I1226 14:43:14.370862 97719 net.cpp:178] Creating Layer relu1
I1226 14:43:14.370908 97719 net.cpp:612] relu1 <- conv1
I1226 14:43:14.370966 97719 net.cpp:573] relu1 -> conv1 (in-place)
I1226 14:43:14.371120 97719 net.cpp:228] Setting up relu1
I1226 14:43:14.371202 97719 net.cpp:235] Top shape: 256 96 55 55 (74342400)
I1226 14:43:14.371227 97719 net.cpp:243] Memory required for data: 753039360
I1226 14:43:14.371259 97719 layer_factory.hpp:114] Creating layer norm1
I1226 14:43:14.371325 97719 net.cpp:178] Creating Layer norm1
I1226 14:43:14.371606 97719 net.cpp:612] norm1 <- conv1
I1226 14:43:14.371693 97719 net.cpp:586] norm1 -> norm1
I1226 14:43:14.372181 97719 net.cpp:228] Setting up norm1
I1226 14:43:14.372262 97719 net.cpp:235] Top shape: 256 96 55 55 (74342400)
I1226 14:43:14.372288 97719 net.cpp:243] Memory required for data: 1050408960
I1226 14:43:14.372323 97719 layer_factory.hpp:114] Creating layer pool1
I1226 14:43:14.372809 97719 net.cpp:178] Creating Layer pool1
I1226 14:43:14.372869 97719 net.cpp:612] pool1 <- norm1
I1226 14:43:14.372931 97719 net.cpp:586] pool1 -> pool1
I1226 14:43:14.373339 97719 net.cpp:228] Setting up pool1
I1226 14:43:14.373409 97719 net.cpp:235] Top shape: 256 96 27 27 (17915904)
I1226 14:43:14.373432 97719 net.cpp:243] Memory required for data: 1122072576
I1226 14:43:14.373687 97719 layer_factory.hpp:114] Creating layer conv2
I1226 14:43:14.386780 97719 net.cpp:178] Creating Layer conv2
I1226 14:43:14.386883 97719 net.cpp:612] conv2 <- pool1
I1226 14:43:14.386951 97719 net.cpp:586] conv2 -> conv2
I1226 14:43:14.407507 91922 net.cpp:228] Setting up conv4
I1226 14:43:14.407615 91922 net.cpp:235] Top shape: 256 384 13 13 (16613376)
I1226 14:43:14.407642 91922 net.cpp:243] Memory required for data: 1939044352
I1226 14:43:14.407698 91922 layer_factory.hpp:114] Creating layer relu4
I1226 14:43:14.407776 91922 net.cpp:178] Creating Layer relu4
I1226 14:43:14.407809 91922 net.cpp:612] relu4 <- conv4
I1226 14:43:14.407857 91922 net.cpp:573] relu4 -> conv4 (in-place)
I1226 14:43:14.407953 91922 net.cpp:228] Setting up relu4
I1226 14:43:14.407994 91922 net.cpp:235] Top shape: 256 384 13 13 (16613376)
I1226 14:43:14.408017 91922 net.cpp:243] Memory required for data: 2005497856
I1226 14:43:14.408053 91922 layer_factory.hpp:114] Creating layer conv5
I1226 14:43:14.408144 91922 net.cpp:178] Creating Layer conv5
I1226 14:43:14.408180 91922 net.cpp:612] conv5 <- conv4
I1226 14:43:14.408246 91922 net.cpp:586] conv5 -> conv5
I1226 14:43:14.428591 92783 net.cpp:228] Setting up conv5
I1226 14:43:14.428699 92783 net.cpp:235] Top shape: 256 256 13 13 (11075584)
I1226 14:43:14.428733 92783 net.cpp:243] Memory required for data: 2049800192
I1226 14:43:14.429977 92783 layer_factory.hpp:114] Creating layer relu5
I1226 14:43:14.430150 92783 net.cpp:178] Creating Layer relu5
I1226 14:43:14.430196 92783 net.cpp:612] relu5 <- conv5
I1226 14:43:14.430243 92783 net.cpp:573] relu5 -> conv5 (in-place)
I1226 14:43:14.430352 92783 net.cpp:228] Setting up relu5
I1226 14:43:14.430414 92783 net.cpp:235] Top shape: 256 256 13 13 (11075584)
I1226 14:43:14.430441 92783 net.cpp:243] Memory required for data: 2094102528
I1226 14:43:14.430475 92783 layer_factory.hpp:114] Creating layer pool5
I1226 14:43:14.430552 92783 net.cpp:178] Creating Layer pool5
I1226 14:43:14.430586 92783 net.cpp:612] pool5 <- conv5
I1226 14:43:14.430629 92783 net.cpp:586] pool5 -> pool5
I1226 14:43:14.431092 92783 net.cpp:228] Setting up pool5
I1226 14:43:14.431195 92783 net.cpp:235] Top shape: 256 256 6 6 (2359296)
I1226 14:43:14.431223 92783 net.cpp:243] Memory required for data: 2103539712
I1226 14:43:14.431257 92783 layer_factory.hpp:114] Creating layer fc6
I1226 14:43:14.431342 92783 net.cpp:178] Creating Layer fc6
I1226 14:43:14.431385 92783 net.cpp:612] fc6 <- pool5
I1226 14:43:14.431430 92783 net.cpp:586] fc6 -> fc6
I1226 14:43:14.467408 85791 net.cpp:228] Setting up conv5
I1226 14:43:14.467525 85791 net.cpp:235] Top shape: 256 256 13 13 (11075584)
I1226 14:43:14.467555 85791 net.cpp:243] Memory required for data: 2049800192
I1226 14:43:14.472426 85791 layer_factory.hpp:114] Creating layer relu5
I1226 14:43:14.472646 85791 net.cpp:178] Creating Layer relu5
I1226 14:43:14.472753 85791 net.cpp:612] relu5 <- conv5
I1226 14:43:14.472812 85791 net.cpp:573] relu5 -> conv5 (in-place)
I1226 14:43:14.472919 85791 net.cpp:228] Setting up relu5
I1226 14:43:14.472978 85791 net.cpp:235] Top shape: 256 256 13 13 (11075584)
I1226 14:43:14.473006 85791 net.cpp:243] Memory required for data: 2094102528
I1226 14:43:14.473038 85791 layer_factory.hpp:114] Creating layer pool5
I1226 14:43:14.473116 85791 net.cpp:178] Creating Layer pool5
I1226 14:43:14.473147 85791 net.cpp:612] pool5 <- conv5
I1226 14:43:14.473187 85791 net.cpp:586] pool5 -> pool5
I1226 14:43:14.473281 85791 net.cpp:228] Setting up pool5
I1226 14:43:14.473346 85791 net.cpp:235] Top shape: 256 256 6 6 (2359296)
I1226 14:43:14.473379 85791 net.cpp:243] Memory required for data: 2103539712
I1226 14:43:14.473409 85791 layer_factory.hpp:114] Creating layer fc6
I1226 14:43:14.473481 85791 net.cpp:178] Creating Layer fc6
I1226 14:43:14.473517 85791 net.cpp:612] fc6 <- pool5
I1226 14:43:14.473572 85791 net.cpp:586] fc6 -> fc6
I1226 14:43:14.543942 94810 net.cpp:228] Setting up conv5
I1226 14:43:14.544047 94810 net.cpp:235] Top shape: 256 256 13 13 (11075584)
I1226 14:43:14.544075 94810 net.cpp:243] Memory required for data: 2049800192
I1226 14:43:14.544173 94810 layer_factory.hpp:114] Creating layer relu5
I1226 14:43:14.544256 94810 net.cpp:178] Creating Layer relu5
I1226 14:43:14.544289 94810 net.cpp:612] relu5 <- conv5
I1226 14:43:14.544347 94810 net.cpp:573] relu5 -> conv5 (in-place)
I1226 14:43:14.544469 94810 net.cpp:228] Setting up relu5
I1226 14:43:14.544519 94810 net.cpp:235] Top shape: 256 256 13 13 (11075584)
I1226 14:43:14.544543 94810 net.cpp:243] Memory required for data: 2094102528
I1226 14:43:14.544572 94810 layer_factory.hpp:114] Creating layer pool5
I1226 14:43:14.544621 94810 net.cpp:178] Creating Layer pool5
I1226 14:43:14.544646 94810 net.cpp:612] pool5 <- conv5
I1226 14:43:14.544693 94810 net.cpp:586] pool5 -> pool5
I1226 14:43:14.544780 94810 net.cpp:228] Setting up pool5
I1226 14:43:14.544828 94810 net.cpp:235] Top shape: 256 256 6 6 (2359296)
I1226 14:43:14.544852 94810 net.cpp:243] Memory required for data: 2103539712
I1226 14:43:14.544878 94810 layer_factory.hpp:114] Creating layer fc6
I1226 14:43:14.544967 94810 net.cpp:178] Creating Layer fc6
I1226 14:43:14.544997 94810 net.cpp:612] fc6 <- pool5
I1226 14:43:14.545037 94810 net.cpp:586] fc6 -> fc6
I1226 14:43:14.569905 92812 net.cpp:228] Setting up conv4
I1226 14:43:14.570008 92812 net.cpp:235] Top shape: 256 384 13 13 (16613376)
I1226 14:43:14.570032 92812 net.cpp:243] Memory required for data: 1939044352
I1226 14:43:14.570114 92812 layer_factory.hpp:114] Creating layer relu4
I1226 14:43:14.570191 92812 net.cpp:178] Creating Layer relu4
I1226 14:43:14.570227 92812 net.cpp:612] relu4 <- conv4
I1226 14:43:14.570266 92812 net.cpp:573] relu4 -> conv4 (in-place)
I1226 14:43:14.570364 92812 net.cpp:228] Setting up relu4
I1226 14:43:14.570412 92812 net.cpp:235] Top shape: 256 384 13 13 (16613376)
I1226 14:43:14.570441 92812 net.cpp:243] Memory required for data: 2005497856
I1226 14:43:14.570467 92812 layer_factory.hpp:114] Creating layer conv5
I1226 14:43:14.570577 92812 net.cpp:178] Creating Layer conv5
I1226 14:43:14.570613 92812 net.cpp:612] conv5 <- conv4
I1226 14:43:14.570649 92812 net.cpp:586] conv5 -> conv5
I1226 14:43:14.585470 91731 net.cpp:228] Setting up conv5
I1226 14:43:14.585577 91731 net.cpp:235] Top shape: 256 256 13 13 (11075584)
I1226 14:43:14.585602 91731 net.cpp:243] Memory required for data: 2049800192
I1226 14:43:14.585671 91731 layer_factory.hpp:114] Creating layer relu5
I1226 14:43:14.585753 91731 net.cpp:178] Creating Layer relu5
I1226 14:43:14.585806 91731 net.cpp:612] relu5 <- conv5
I1226 14:43:14.585856 91731 net.cpp:573] relu5 -> conv5 (in-place)
I1226 14:43:14.585947 91731 net.cpp:228] Setting up relu5
I1226 14:43:14.585990 91731 net.cpp:235] Top shape: 256 256 13 13 (11075584)
I1226 14:43:14.586019 91731 net.cpp:243] Memory required for data: 2094102528
I1226 14:43:14.586046 91731 layer_factory.hpp:114] Creating layer pool5
I1226 14:43:14.586094 91731 net.cpp:178] Creating Layer pool5
I1226 14:43:14.586125 91731 net.cpp:612] pool5 <- conv5
I1226 14:43:14.586179 91731 net.cpp:586] pool5 -> pool5
I1226 14:43:14.586256 91731 net.cpp:228] Setting up pool5
I1226 14:43:14.586295 91731 net.cpp:235] Top shape: 256 256 6 6 (2359296)
I1226 14:43:14.586316 91731 net.cpp:243] Memory required for data: 2103539712
I1226 14:43:14.586349 91731 layer_factory.hpp:114] Creating layer fc6
I1226 14:43:14.586436 91731 net.cpp:178] Creating Layer fc6
I1226 14:43:14.586467 91731 net.cpp:612] fc6 <- pool5
I1226 14:43:14.586503 91731 net.cpp:586] fc6 -> fc6
I1226 14:43:14.668197 91922 net.cpp:228] Setting up conv5
I1226 14:43:14.668350 91922 net.cpp:235] Top shape: 256 256 13 13 (11075584)
I1226 14:43:14.668380 91922 net.cpp:243] Memory required for data: 2049800192
I1226 14:43:14.668455 91922 layer_factory.hpp:114] Creating layer relu5
I1226 14:43:14.668547 91922 net.cpp:178] Creating Layer relu5
I1226 14:43:14.668718 91922 net.cpp:612] relu5 <- conv5
I1226 14:43:14.668766 91922 net.cpp:573] relu5 -> conv5 (in-place)
I1226 14:43:14.668864 91922 net.cpp:228] Setting up relu5
I1226 14:43:14.668915 91922 net.cpp:235] Top shape: 256 256 13 13 (11075584)
I1226 14:43:14.668941 91922 net.cpp:243] Memory required for data: 2094102528
I1226 14:43:14.668972 91922 layer_factory.hpp:114] Creating layer pool5
I1226 14:43:14.669023 91922 net.cpp:178] Creating Layer pool5
I1226 14:43:14.669060 91922 net.cpp:612] pool5 <- conv5
I1226 14:43:14.669111 91922 net.cpp:586] pool5 -> pool5
I1226 14:43:14.669237 91922 net.cpp:228] Setting up pool5
I1226 14:43:14.669301 91922 net.cpp:235] Top shape: 256 256 6 6 (2359296)
I1226 14:43:14.669327 91922 net.cpp:243] Memory required for data: 2103539712
I1226 14:43:14.669359 91922 layer_factory.hpp:114] Creating layer fc6
I1226 14:43:14.669450 91922 net.cpp:178] Creating Layer fc6
I1226 14:43:14.669490 91922 net.cpp:612] fc6 <- pool5
I1226 14:43:14.669544 91922 net.cpp:586] fc6 -> fc6
I1226 14:43:14.851833 92812 net.cpp:228] Setting up conv5
I1226 14:43:14.851970 92812 net.cpp:235] Top shape: 256 256 13 13 (11075584)
I1226 14:43:14.851994 92812 net.cpp:243] Memory required for data: 2049800192
I1226 14:43:14.852089 92812 layer_factory.hpp:114] Creating layer relu5
I1226 14:43:14.852169 92812 net.cpp:178] Creating Layer relu5
I1226 14:43:14.852207 92812 net.cpp:612] relu5 <- conv5
I1226 14:43:14.852246 92812 net.cpp:573] relu5 -> conv5 (in-place)
I1226 14:43:14.852334 92812 net.cpp:228] Setting up relu5
I1226 14:43:14.852396 92812 net.cpp:235] Top shape: 256 256 13 13 (11075584)
I1226 14:43:14.852422 92812 net.cpp:243] Memory required for data: 2094102528
I1226 14:43:14.852448 92812 layer_factory.hpp:114] Creating layer pool5
I1226 14:43:14.852520 92812 net.cpp:178] Creating Layer pool5
I1226 14:43:14.852546 92812 net.cpp:612] pool5 <- conv5
I1226 14:43:14.852581 92812 net.cpp:586] pool5 -> pool5
I1226 14:43:14.852670 92812 net.cpp:228] Setting up pool5
I1226 14:43:14.852711 92812 net.cpp:235] Top shape: 256 256 6 6 (2359296)
I1226 14:43:14.852733 92812 net.cpp:243] Memory required for data: 2103539712
I1226 14:43:14.852759 92812 layer_factory.hpp:114] Creating layer fc6
I1226 14:43:14.852843 92812 net.cpp:178] Creating Layer fc6
I1226 14:43:14.852877 92812 net.cpp:612] fc6 <- pool5
I1226 14:43:14.852915 92812 net.cpp:586] fc6 -> fc6
I1226 14:43:15.725136 97292 net.cpp:228] Setting up conv2
I1226 14:43:15.725320 97292 net.cpp:235] Top shape: 256 256 27 27 (47775744)
I1226 14:43:15.725368 97292 net.cpp:243] Memory required for data: 1313175552
I1226 14:43:15.725476 97292 layer_factory.hpp:114] Creating layer relu2
I1226 14:43:15.725666 97292 net.cpp:178] Creating Layer relu2
I1226 14:43:15.725714 97292 net.cpp:612] relu2 <- conv2
I1226 14:43:15.725762 97292 net.cpp:573] relu2 -> conv2 (in-place)
I1226 14:43:15.726436 97292 net.cpp:228] Setting up relu2
I1226 14:43:15.726598 97292 net.cpp:235] Top shape: 256 256 27 27 (47775744)
I1226 14:43:15.726631 97292 net.cpp:243] Memory required for data: 1504278528
I1226 14:43:15.726697 97292 layer_factory.hpp:114] Creating layer norm2
I1226 14:43:15.726833 97292 net.cpp:178] Creating Layer norm2
I1226 14:43:15.726960 97292 net.cpp:612] norm2 <- conv2
I1226 14:43:15.727035 97292 net.cpp:586] norm2 -> norm2
I1226 14:43:15.727707 97292 net.cpp:228] Setting up norm2
I1226 14:43:15.727929 97292 net.cpp:235] Top shape: 256 256 27 27 (47775744)
I1226 14:43:15.727994 97292 net.cpp:243] Memory required for data: 1695381504
I1226 14:43:15.728055 97292 layer_factory.hpp:114] Creating layer pool2
I1226 14:43:15.728135 97292 net.cpp:178] Creating Layer pool2
I1226 14:43:15.728246 97292 net.cpp:612] pool2 <- norm2
I1226 14:43:15.728314 97292 net.cpp:586] pool2 -> pool2
I1226 14:43:15.728898 97292 net.cpp:228] Setting up pool2
I1226 14:43:15.729179 97292 net.cpp:235] Top shape: 256 256 13 13 (11075584)
I1226 14:43:15.729274 97292 net.cpp:243] Memory required for data: 1739683840
I1226 14:43:15.729423 97292 layer_factory.hpp:114] Creating layer conv3
I1226 14:43:15.729948 97292 net.cpp:178] Creating Layer conv3
I1226 14:43:15.730064 97292 net.cpp:612] conv3 <- pool2
I1226 14:43:15.730164 97292 net.cpp:586] conv3 -> conv3
I1226 14:43:16.013712 97719 net.cpp:228] Setting up conv2
I1226 14:43:16.013857 97719 net.cpp:235] Top shape: 256 256 27 27 (47775744)
I1226 14:43:16.013886 97719 net.cpp:243] Memory required for data: 1313175552
I1226 14:43:16.013958 97719 layer_factory.hpp:114] Creating layer relu2
I1226 14:43:16.014047 97719 net.cpp:178] Creating Layer relu2
I1226 14:43:16.014089 97719 net.cpp:612] relu2 <- conv2
I1226 14:43:16.014152 97719 net.cpp:573] relu2 -> conv2 (in-place)
I1226 14:43:16.014250 97719 net.cpp:228] Setting up relu2
I1226 14:43:16.014295 97719 net.cpp:235] Top shape: 256 256 27 27 (47775744)
I1226 14:43:16.014320 97719 net.cpp:243] Memory required for data: 1504278528
I1226 14:43:16.014349 97719 layer_factory.hpp:114] Creating layer norm2
I1226 14:43:16.014405 97719 net.cpp:178] Creating Layer norm2
I1226 14:43:16.014438 97719 net.cpp:612] norm2 <- conv2
I1226 14:43:16.014483 97719 net.cpp:586] norm2 -> norm2
I1226 14:43:16.014578 97719 net.cpp:228] Setting up norm2
I1226 14:43:16.014626 97719 net.cpp:235] Top shape: 256 256 27 27 (47775744)
I1226 14:43:16.014650 97719 net.cpp:243] Memory required for data: 1695381504
I1226 14:43:16.014678 97719 layer_factory.hpp:114] Creating layer pool2
I1226 14:43:16.014765 97719 net.cpp:178] Creating Layer pool2
I1226 14:43:16.014807 97719 net.cpp:612] pool2 <- norm2
I1226 14:43:16.014855 97719 net.cpp:586] pool2 -> pool2
I1226 14:43:16.014950 97719 net.cpp:228] Setting up pool2
I1226 14:43:16.015085 97719 net.cpp:235] Top shape: 256 256 13 13 (11075584)
I1226 14:43:16.015115 97719 net.cpp:243] Memory required for data: 1739683840
I1226 14:43:16.015146 97719 layer_factory.hpp:114] Creating layer conv3
I1226 14:43:16.015233 97719 net.cpp:178] Creating Layer conv3
I1226 14:43:16.015269 97719 net.cpp:612] conv3 <- pool2
I1226 14:43:16.015308 97719 net.cpp:586] conv3 -> conv3
I1226 14:43:17.706758 97292 net.cpp:228] Setting up conv3
I1226 14:43:17.706888 97292 net.cpp:235] Top shape: 256 384 13 13 (16613376)
I1226 14:43:17.706920 97292 net.cpp:243] Memory required for data: 1806137344
I1226 14:43:17.707003 97292 layer_factory.hpp:114] Creating layer relu3
I1226 14:43:17.707145 97292 net.cpp:178] Creating Layer relu3
I1226 14:43:17.707190 97292 net.cpp:612] relu3 <- conv3
I1226 14:43:17.707245 97292 net.cpp:573] relu3 -> conv3 (in-place)
I1226 14:43:17.707365 97292 net.cpp:228] Setting up relu3
I1226 14:43:17.707417 97292 net.cpp:235] Top shape: 256 384 13 13 (16613376)
I1226 14:43:17.707444 97292 net.cpp:243] Memory required for data: 1872590848
I1226 14:43:17.707475 97292 layer_factory.hpp:114] Creating layer conv4
I1226 14:43:17.707569 97292 net.cpp:178] Creating Layer conv4
I1226 14:43:17.707608 97292 net.cpp:612] conv4 <- conv3
I1226 14:43:17.707655 97292 net.cpp:586] conv4 -> conv4
I1226 14:43:18.101573 97719 net.cpp:228] Setting up conv3
I1226 14:43:18.101687 97719 net.cpp:235] Top shape: 256 384 13 13 (16613376)
I1226 14:43:18.101716 97719 net.cpp:243] Memory required for data: 1806137344
I1226 14:43:18.109170 97719 layer_factory.hpp:114] Creating layer relu3
I1226 14:43:18.109282 97719 net.cpp:178] Creating Layer relu3
I1226 14:43:18.109323 97719 net.cpp:612] relu3 <- conv3
I1226 14:43:18.109362 97719 net.cpp:573] relu3 -> conv3 (in-place)
I1226 14:43:18.109472 97719 net.cpp:228] Setting up relu3
I1226 14:43:18.109520 97719 net.cpp:235] Top shape: 256 384 13 13 (16613376)
I1226 14:43:18.109550 97719 net.cpp:243] Memory required for data: 1872590848
I1226 14:43:18.109588 97719 layer_factory.hpp:114] Creating layer conv4
I1226 14:43:18.109689 97719 net.cpp:178] Creating Layer conv4
I1226 14:43:18.109779 97719 net.cpp:612] conv4 <- conv3
I1226 14:43:18.109839 97719 net.cpp:586] conv4 -> conv4
I1226 14:43:18.736496 92472 net.cpp:228] Setting up fc6
I1226 14:43:18.736611 92472 net.cpp:235] Top shape: 256 4096 (1048576)
I1226 14:43:18.736641 92472 net.cpp:243] Memory required for data: 2107734016
I1226 14:43:18.736699 92472 layer_factory.hpp:114] Creating layer relu6
I1226 14:43:18.736781 92472 net.cpp:178] Creating Layer relu6
I1226 14:43:18.736907 92472 net.cpp:612] relu6 <- fc6
I1226 14:43:18.736946 92472 net.cpp:573] relu6 -> fc6 (in-place)
I1226 14:43:18.737035 92472 net.cpp:228] Setting up relu6
I1226 14:43:18.737188 92472 net.cpp:235] Top shape: 256 4096 (1048576)
I1226 14:43:18.737218 92472 net.cpp:243] Memory required for data: 2111928320
I1226 14:43:18.737252 92472 layer_factory.hpp:114] Creating layer drop6
I1226 14:43:18.737350 92472 net.cpp:178] Creating Layer drop6
I1226 14:43:18.737390 92472 net.cpp:612] drop6 <- fc6
I1226 14:43:18.737427 92472 net.cpp:573] drop6 -> fc6 (in-place)
I1226 14:43:18.737494 92472 net.cpp:228] Setting up drop6
I1226 14:43:18.737534 92472 net.cpp:235] Top shape: 256 4096 (1048576)
I1226 14:43:18.737556 92472 net.cpp:243] Memory required for data: 2116122624
I1226 14:43:18.737583 92472 layer_factory.hpp:114] Creating layer fc7
I1226 14:43:18.737656 92472 net.cpp:178] Creating Layer fc7
I1226 14:43:18.737691 92472 net.cpp:612] fc7 <- fc6
I1226 14:43:18.737738 92472 net.cpp:586] fc7 -> fc7
I1226 14:43:19.329778 97292 net.cpp:228] Setting up conv4
I1226 14:43:19.329911 97292 net.cpp:235] Top shape: 256 384 13 13 (16613376)
I1226 14:43:19.329946 97292 net.cpp:243] Memory required for data: 1939044352
I1226 14:43:19.330011 97292 layer_factory.hpp:114] Creating layer relu4
I1226 14:43:19.330178 97292 net.cpp:178] Creating Layer relu4
I1226 14:43:19.330286 97292 net.cpp:612] relu4 <- conv4
I1226 14:43:19.330328 97292 net.cpp:573] relu4 -> conv4 (in-place)
I1226 14:43:19.330410 97292 net.cpp:228] Setting up relu4
I1226 14:43:19.330484 97292 net.cpp:235] Top shape: 256 384 13 13 (16613376)
I1226 14:43:19.330512 97292 net.cpp:243] Memory required for data: 2005497856
I1226 14:43:19.330541 97292 layer_factory.hpp:114] Creating layer conv5
I1226 14:43:19.330704 97292 net.cpp:178] Creating Layer conv5
I1226 14:43:19.330829 97292 net.cpp:612] conv5 <- conv4
I1226 14:43:19.330879 97292 net.cpp:586] conv5 -> conv5
I1226 14:43:19.486410 97719 net.cpp:228] Setting up conv4
I1226 14:43:19.486526 97719 net.cpp:235] Top shape: 256 384 13 13 (16613376)
I1226 14:43:19.486552 97719 net.cpp:243] Memory required for data: 1939044352
I1226 14:43:19.486610 97719 layer_factory.hpp:114] Creating layer relu4
I1226 14:43:19.486690 97719 net.cpp:178] Creating Layer relu4
I1226 14:43:19.486752 97719 net.cpp:612] relu4 <- conv4
I1226 14:43:19.486793 97719 net.cpp:573] relu4 -> conv4 (in-place)
I1226 14:43:19.486886 97719 net.cpp:228] Setting up relu4
I1226 14:43:19.486932 97719 net.cpp:235] Top shape: 256 384 13 13 (16613376)
I1226 14:43:19.486958 97719 net.cpp:243] Memory required for data: 2005497856
I1226 14:43:19.486985 97719 layer_factory.hpp:114] Creating layer conv5
I1226 14:43:19.487069 97719 net.cpp:178] Creating Layer conv5
I1226 14:43:19.487105 97719 net.cpp:612] conv5 <- conv4
I1226 14:43:19.487146 97719 net.cpp:586] conv5 -> conv5
I1226 14:43:20.122845 97719 net.cpp:228] Setting up conv5
I1226 14:43:20.122966 97719 net.cpp:235] Top shape: 256 256 13 13 (11075584)
I1226 14:43:20.122995 97719 net.cpp:243] Memory required for data: 2049800192
I1226 14:43:20.123072 97719 layer_factory.hpp:114] Creating layer relu5
I1226 14:43:20.123167 97719 net.cpp:178] Creating Layer relu5
I1226 14:43:20.123210 97719 net.cpp:612] relu5 <- conv5
I1226 14:43:20.123251 97719 net.cpp:573] relu5 -> conv5 (in-place)
I1226 14:43:20.123349 97719 net.cpp:228] Setting up relu5
I1226 14:43:20.123402 97719 net.cpp:235] Top shape: 256 256 13 13 (11075584)
I1226 14:43:20.123428 97719 net.cpp:243] Memory required for data: 2094102528
I1226 14:43:20.123457 97719 layer_factory.hpp:114] Creating layer pool5
I1226 14:43:20.123525 97719 net.cpp:178] Creating Layer pool5
I1226 14:43:20.123643 97719 net.cpp:612] pool5 <- conv5
I1226 14:43:20.123684 97719 net.cpp:586] pool5 -> pool5
I1226 14:43:20.123803 97719 net.cpp:228] Setting up pool5
I1226 14:43:20.123858 97719 net.cpp:235] Top shape: 256 256 6 6 (2359296)
I1226 14:43:20.123883 97719 net.cpp:243] Memory required for data: 2103539712
I1226 14:43:20.123913 97719 layer_factory.hpp:114] Creating layer fc6
I1226 14:43:20.124008 97719 net.cpp:178] Creating Layer fc6
I1226 14:43:20.124045 97719 net.cpp:612] fc6 <- pool5
I1226 14:43:20.124085 97719 net.cpp:586] fc6 -> fc6
I1226 14:43:20.503252 97292 net.cpp:228] Setting up conv5
I1226 14:43:20.503392 97292 net.cpp:235] Top shape: 256 256 13 13 (11075584)
I1226 14:43:20.503442 97292 net.cpp:243] Memory required for data: 2049800192
I1226 14:43:20.503608 97292 layer_factory.hpp:114] Creating layer relu5
I1226 14:43:20.503762 97292 net.cpp:178] Creating Layer relu5
I1226 14:43:20.503922 97292 net.cpp:612] relu5 <- conv5
I1226 14:43:20.504359 97292 net.cpp:573] relu5 -> conv5 (in-place)
I1226 14:43:20.504571 97292 net.cpp:228] Setting up relu5
I1226 14:43:20.504672 97292 net.cpp:235] Top shape: 256 256 13 13 (11075584)
I1226 14:43:20.504719 97292 net.cpp:243] Memory required for data: 2094102528
I1226 14:43:20.504779 97292 layer_factory.hpp:114] Creating layer pool5
I1226 14:43:20.504951 97292 net.cpp:178] Creating Layer pool5
I1226 14:43:20.505020 97292 net.cpp:612] pool5 <- conv5
I1226 14:43:20.505091 97292 net.cpp:586] pool5 -> pool5
I1226 14:43:20.505275 97292 net.cpp:228] Setting up pool5
I1226 14:43:20.505362 97292 net.cpp:235] Top shape: 256 256 6 6 (2359296)
I1226 14:43:20.505925 97292 net.cpp:243] Memory required for data: 2103539712
I1226 14:43:20.506038 97292 layer_factory.hpp:114] Creating layer fc6
I1226 14:43:20.506191 97292 net.cpp:178] Creating Layer fc6
I1226 14:43:20.506237 97292 net.cpp:612] fc6 <- pool5
I1226 14:43:20.506288 97292 net.cpp:586] fc6 -> fc6
I1226 14:43:21.003890 92472 net.cpp:228] Setting up fc7
I1226 14:43:21.003996 92472 net.cpp:235] Top shape: 256 4096 (1048576)
I1226 14:43:21.004025 92472 net.cpp:243] Memory required for data: 2120316928
I1226 14:43:21.004114 92472 layer_factory.hpp:114] Creating layer relu7
I1226 14:43:21.004304 92472 net.cpp:178] Creating Layer relu7
I1226 14:43:21.004400 92472 net.cpp:612] relu7 <- fc7
I1226 14:43:21.004462 92472 net.cpp:573] relu7 -> fc7 (in-place)
I1226 14:43:21.004580 92472 net.cpp:228] Setting up relu7
I1226 14:43:21.004637 92472 net.cpp:235] Top shape: 256 4096 (1048576)
I1226 14:43:21.004660 92472 net.cpp:243] Memory required for data: 2124511232
I1226 14:43:21.004691 92472 layer_factory.hpp:114] Creating layer drop7
I1226 14:43:21.004853 92472 net.cpp:178] Creating Layer drop7
I1226 14:43:21.004988 92472 net.cpp:612] drop7 <- fc7
I1226 14:43:21.005028 92472 net.cpp:573] drop7 -> fc7 (in-place)
I1226 14:43:21.005075 92472 net.cpp:228] Setting up drop7
I1226 14:43:21.005136 92472 net.cpp:235] Top shape: 256 4096 (1048576)
I1226 14:43:21.005169 92472 net.cpp:243] Memory required for data: 2128705536
I1226 14:43:21.005198 92472 layer_factory.hpp:114] Creating layer fc8
I1226 14:43:21.005251 92472 net.cpp:178] Creating Layer fc8
I1226 14:43:21.005282 92472 net.cpp:612] fc8 <- fc7
I1226 14:43:21.005362 92472 net.cpp:586] fc8 -> fc8
I1226 14:43:21.576571 92472 net.cpp:228] Setting up fc8
I1226 14:43:21.576685 92472 net.cpp:235] Top shape: 256 1000 (256000)
I1226 14:43:21.576714 92472 net.cpp:243] Memory required for data: 2129729536
I1226 14:43:21.576769 92472 layer_factory.hpp:114] Creating layer fc8_fc8_0_split
I1226 14:43:21.576859 92472 net.cpp:178] Creating Layer fc8_fc8_0_split
I1226 14:43:21.576907 92472 net.cpp:612] fc8_fc8_0_split <- fc8
I1226 14:43:21.576954 92472 net.cpp:586] fc8_fc8_0_split -> fc8_fc8_0_split_0
I1226 14:43:21.577005 92472 net.cpp:586] fc8_fc8_0_split -> fc8_fc8_0_split_1
I1226 14:43:21.577086 92472 net.cpp:228] Setting up fc8_fc8_0_split
I1226 14:43:21.577136 92472 net.cpp:235] Top shape: 256 1000 (256000)
I1226 14:43:21.577177 92472 net.cpp:235] Top shape: 256 1000 (256000)
I1226 14:43:21.577203 92472 net.cpp:243] Memory required for data: 2131777536
I1226 14:43:21.577231 92472 layer_factory.hpp:114] Creating layer accuracy
I1226 14:43:21.577280 92472 net.cpp:178] Creating Layer accuracy
I1226 14:43:21.577334 92472 net.cpp:612] accuracy <- fc8_fc8_0_split_0
I1226 14:43:21.577369 92472 net.cpp:612] accuracy <- label_data_1_split_0
I1226 14:43:21.577424 92472 net.cpp:586] accuracy -> accuracy
…
I1226 14:43:21.604336 92472 net.cpp:307] data does not need backward computation.
I1226 14:43:21.604367 92472 net.cpp:349] This network produces output accuracy
I1226 14:43:21.604399 92472 net.cpp:349] This network produces output loss
I1226 14:43:21.604483 92472 net.cpp:363] Network initialization done.
I1226 14:43:21.605031 92472 solver.cpp:107] Solver scaffolding done.
I1226 14:43:21.605244 92472 caffe.cpp:212] Finetuning from /export/data1/stanford/hazy/gordon_bell/caffenet_knl/snapshot/caffenet_MN8_B1024/_iter_25000.caffemodel
I1226 14:43:21.768445 92812 net.cpp:228] Setting up fc6
I1226 14:43:21.768580 92812 net.cpp:235] Top shape: 256 4096 (1048576)
I1226 14:43:21.768610 92812 net.cpp:243] Memory required for data: 2107734016
I1226 14:43:21.768666 92812 layer_factory.hpp:114] Creating layer relu6
I1226 14:43:21.768736 92812 net.cpp:178] Creating Layer relu6
I1226 14:43:21.768766 92812 net.cpp:612] relu6 <- fc6
I1226 14:43:21.768815 92812 net.cpp:573] relu6 -> fc6 (in-place)
I1226 14:43:21.768999 92812 net.cpp:228] Setting up relu6
I1226 14:43:21.769043 92812 net.cpp:235] Top shape: 256 4096 (1048576)
I1226 14:43:21.769075 92812 net.cpp:243] Memory required for data: 2111928320
I1226 14:43:21.769106 92812 layer_factory.hpp:114] Creating layer drop6
I1226 14:43:21.769156 92812 net.cpp:178] Creating Layer drop6
I1226 14:43:21.769183 92812 net.cpp:612] drop6 <- fc6
I1226 14:43:21.769215 92812 net.cpp:573] drop6 -> fc6 (in-place)
I1226 14:43:21.769278 92812 net.cpp:228] Setting up drop6
I1226 14:43:21.769315 92812 net.cpp:235] Top shape: 256 4096 (1048576)
I1226 14:43:21.769343 92812 net.cpp:243] Memory required for data: 2116122624
I1226 14:43:21.769376 92812 layer_factory.hpp:114] Creating layer fc7
I1226 14:43:21.769430 92812 net.cpp:178] Creating Layer fc7
I1226 14:43:21.769456 92812 net.cpp:612] fc7 <- fc6
I1226 14:43:21.769515 92812 net.cpp:586] fc7 -> fc7
I1226 14:43:23.020097 92783 net.cpp:228] Setting up fc6
I1226 14:43:23.020215 92783 net.cpp:235] Top shape: 256 4096 (1048576)
I1226 14:43:23.020241 92783 net.cpp:243] Memory required for data: 2107734016
I1226 14:43:23.020292 92783 layer_factory.hpp:114] Creating layer relu6
I1226 14:43:23.020359 92783 net.cpp:178] Creating Layer relu6
I1226 14:43:23.020391 92783 net.cpp:612] relu6 <- fc6
I1226 14:43:23.020429 92783 net.cpp:573] relu6 -> fc6 (in-place)
I1226 14:43:23.020632 92783 net.cpp:228] Setting up relu6
I1226 14:43:23.020699 92783 net.cpp:235] Top shape: 256 4096 (1048576)
I1226 14:43:23.020723 92783 net.cpp:243] Memory required for data: 2111928320
I1226 14:43:23.020754 92783 layer_factory.hpp:114] Creating layer drop6
I1226 14:43:23.020876 92783 net.cpp:178] Creating Layer drop6
I1226 14:43:23.020915 92783 net.cpp:612] drop6 <- fc6
I1226 14:43:23.020957 92783 net.cpp:573] drop6 -> fc6 (in-place)
I1226 14:43:23.021015 92783 net.cpp:228] Setting up drop6
I1226 14:43:23.021054 92783 net.cpp:235] Top shape: 256 4096 (1048576)
I1226 14:43:23.021106 92783 net.cpp:243] Memory required for data: 2116122624
I1226 14:43:23.021134 92783 layer_factory.hpp:114] Creating layer fc7
I1226 14:43:23.021189 92783 net.cpp:178] Creating Layer fc7
I1226 14:43:23.021214 92783 net.cpp:612] fc7 <- fc6
I1226 14:43:23.021251 92783 net.cpp:586] fc7 -> fc7
I1226 14:43:23.211792 85791 net.cpp:228] Setting up fc6
I1226 14:43:23.211906 85791 net.cpp:235] Top shape: 256 4096 (1048576)
I1226 14:43:23.211935 85791 net.cpp:243] Memory required for data: 2107734016
I1226 14:43:23.211995 85791 layer_factory.hpp:114] Creating layer relu6
I1226 14:43:23.212074 85791 net.cpp:178] Creating Layer relu6
I1226 14:43:23.212108 85791 net.cpp:612] relu6 <- fc6
I1226 14:43:23.212157 85791 net.cpp:573] relu6 -> fc6 (in-place)
I1226 14:43:23.212486 85791 net.cpp:228] Setting up relu6
I1226 14:43:23.212555 85791 net.cpp:235] Top shape: 256 4096 (1048576)
I1226 14:43:23.219624 85791 net.cpp:243] Memory required for data: 2111928320
I1226 14:43:23.219696 85791 layer_factory.hpp:114] Creating layer drop6
I1226 14:43:23.219780 85791 net.cpp:178] Creating Layer drop6
I1226 14:43:23.219816 85791 net.cpp:612] drop6 <- fc6
I1226 14:43:23.219864 85791 net.cpp:573] drop6 -> fc6 (in-place)
I1226 14:43:23.219926 85791 net.cpp:228] Setting up drop6
I1226 14:43:23.219971 85791 net.cpp:235] Top shape: 256 4096 (1048576)
I1226 14:43:23.220007 85791 net.cpp:243] Memory required for data: 2116122624
I1226 14:43:23.220037 85791 layer_factory.hpp:114] Creating layer fc7
I1226 14:43:23.222019 85791 net.cpp:178] Creating Layer fc7
I1226 14:43:23.222079 85791 net.cpp:612] fc7 <- fc6
I1226 14:43:23.222126 85791 net.cpp:586] fc7 -> fc7
I1226 14:43:23.256449 91731 net.cpp:228] Setting up fc6
I1226 14:43:23.256573 91731 net.cpp:235] Top shape: 256 4096 (1048576)
I1226 14:43:23.256625 91731 net.cpp:243] Memory required for data: 2107734016
I1226 14:43:23.256685 91731 layer_factory.hpp:114] Creating layer relu6
I1226 14:43:23.256966 91731 net.cpp:178] Creating Layer relu6
I1226 14:43:23.256997 91731 net.cpp:612] relu6 <- fc6
I1226 14:43:23.257053 91731 net.cpp:573] relu6 -> fc6 (in-place)
I1226 14:43:23.257284 91731 net.cpp:228] Setting up relu6
I1226 14:43:23.257617 91731 net.cpp:235] Top shape: 256 4096 (1048576)
I1226 14:43:23.257691 91731 net.cpp:243] Memory required for data: 2111928320
I1226 14:43:23.257725 91731 layer_factory.hpp:114] Creating layer drop6
I1226 14:43:23.257833 91731 net.cpp:178] Creating Layer drop6
I1226 14:43:23.257943 91731 net.cpp:612] drop6 <- fc6
I1226 14:43:23.257997 91731 net.cpp:573] drop6 -> fc6 (in-place)
I1226 14:43:23.258070 91731 net.cpp:228] Setting up drop6
I1226 14:43:23.258162 91731 net.cpp:235] Top shape: 256 4096 (1048576)
I1226 14:43:23.258188 91731 net.cpp:243] Memory required for data: 2116122624
I1226 14:43:23.258213 91731 layer_factory.hpp:114] Creating layer fc7
I1226 14:43:23.258380 91731 net.cpp:178] Creating Layer fc7
I1226 14:43:23.258415 91731 net.cpp:612] fc7 <- fc6
I1226 14:43:23.258452 91731 net.cpp:586] fc7 -> fc7
I1226 14:43:23.401859 91922 net.cpp:228] Setting up fc6
I1226 14:43:23.401991 91922 net.cpp:235] Top shape: 256 4096 (1048576)
I1226 14:43:23.402027 91922 net.cpp:243] Memory required for data: 2107734016
I1226 14:43:23.402084 91922 layer_factory.hpp:114] Creating layer relu6
I1226 14:43:23.402309 91922 net.cpp:178] Creating Layer relu6
I1226 14:43:23.402464 91922 net.cpp:612] relu6 <- fc6
I1226 14:43:23.402511 91922 net.cpp:573] relu6 -> fc6 (in-place)
I1226 14:43:23.403053 91922 net.cpp:228] Setting up relu6
I1226 14:43:23.403175 91922 net.cpp:235] Top shape: 256 4096 (1048576)
I1226 14:43:23.403231 91922 net.cpp:243] Memory required for data: 2111928320
I1226 14:43:23.403271 91922 layer_factory.hpp:114] Creating layer drop6
I1226 14:43:23.403354 91922 net.cpp:178] Creating Layer drop6
I1226 14:43:23.403509 91922 net.cpp:612] drop6 <- fc6
I1226 14:43:23.403553 91922 net.cpp:573] drop6 -> fc6 (in-place)
I1226 14:43:23.403615 91922 net.cpp:228] Setting up drop6
I1226 14:43:23.403656 91922 net.cpp:235] Top shape: 256 4096 (1048576)
I1226 14:43:23.403679 91922 net.cpp:243] Memory required for data: 2116122624
I1226 14:43:23.403707 91922 layer_factory.hpp:114] Creating layer fc7
I1226 14:43:23.403771 91922 net.cpp:178] Creating Layer fc7
I1226 14:43:23.403801 91922 net.cpp:612] fc7 <- fc6
I1226 14:43:23.403874 91922 net.cpp:586] fc7 -> fc7
I1226 14:43:23.536736 94810 net.cpp:228] Setting up fc6
I1226 14:43:23.536859 94810 net.cpp:235] Top shape: 256 4096 (1048576)
I1226 14:43:23.536905 94810 net.cpp:243] Memory required for data: 2107734016
I1226 14:43:23.536958 94810 layer_factory.hpp:114] Creating layer relu6
I1226 14:43:23.537487 94810 net.cpp:178] Creating Layer relu6
I1226 14:43:23.537575 94810 net.cpp:612] relu6 <- fc6
I1226 14:43:23.537662 94810 net.cpp:573] relu6 -> fc6 (in-place)
I1226 14:43:23.537900 94810 net.cpp:228] Setting up relu6
I1226 14:43:23.538031 94810 net.cpp:235] Top shape: 256 4096 (1048576)
I1226 14:43:23.538058 94810 net.cpp:243] Memory required for data: 2111928320
I1226 14:43:23.538095 94810 layer_factory.hpp:114] Creating layer drop6
I1226 14:43:23.538161 94810 net.cpp:178] Creating Layer drop6
I1226 14:43:23.538189 94810 net.cpp:612] drop6 <- fc6
I1226 14:43:23.538236 94810 net.cpp:573] drop6 -> fc6 (in-place)
I1226 14:43:23.538300 94810 net.cpp:228] Setting up drop6
I1226 14:43:23.538345 94810 net.cpp:235] Top shape: 256 4096 (1048576)
I1226 14:43:23.538395 94810 net.cpp:243] Memory required for data: 2116122624
I1226 14:43:23.538445 94810 layer_factory.hpp:114] Creating layer fc7
I1226 14:43:23.538506 94810 net.cpp:178] Creating Layer fc7
I1226 14:43:23.538542 94810 net.cpp:612] fc7 <- fc6
I1226 14:43:23.538578 94810 net.cpp:586] fc7 -> fc7
I1226 14:43:24.075186 92812 net.cpp:228] Setting up fc7
I1226 14:43:24.075299 92812 net.cpp:235] Top shape: 256 4096 (1048576)
I1226 14:43:24.075327 92812 net.cpp:243] Memory required for data: 2120316928
I1226 14:43:24.075412 92812 layer_factory.hpp:114] Creating layer relu7
I1226 14:43:24.075510 92812 net.cpp:178] Creating Layer relu7
I1226 14:43:24.075548 92812 net.cpp:612] relu7 <- fc7
I1226 14:43:24.075590 92812 net.cpp:573] relu7 -> fc7 (in-place)
I1226 14:43:24.075705 92812 net.cpp:228] Setting up relu7
I1226 14:43:24.075757 92812 net.cpp:235] Top shape: 256 4096 (1048576)
I1226 14:43:24.075786 92812 net.cpp:243] Memory required for data: 2124511232
I1226 14:43:24.075826 92812 layer_factory.hpp:114] Creating layer drop7
I1226 14:43:24.075865 92812 net.cpp:178] Creating Layer drop7
I1226 14:43:24.075891 92812 net.cpp:612] drop7 <- fc7
I1226 14:43:24.075937 92812 net.cpp:573] drop7 -> fc7 (in-place)
I1226 14:43:24.075986 92812 net.cpp:228] Setting up drop7
I1226 14:43:24.076030 92812 net.cpp:235] Top shape: 256 4096 (1048576)
I1226 14:43:24.076052 92812 net.cpp:243] Memory required for data: 2128705536
I1226 14:43:24.076079 92812 layer_factory.hpp:114] Creating layer fc8
I1226 14:43:24.076135 92812 net.cpp:178] Creating Layer fc8
I1226 14:43:24.076169 92812 net.cpp:612] fc8 <- fc7
I1226 14:43:24.076205 92812 net.cpp:586] fc8 -> fc8
I1226 14:43:24.632673 92812 net.cpp:228] Setting up fc8
I1226 14:43:24.632799 92812 net.cpp:235] Top shape: 256 1000 (256000)
I1226 14:43:24.632830 92812 net.cpp:243] Memory required for data: 2129729536
I1226 14:43:24.632884 92812 layer_factory.hpp:114] Creating layer fc8_fc8_0_split
I1226 14:43:24.632958 92812 net.cpp:178] Creating Layer fc8_fc8_0_split
I1226 14:43:24.633097 92812 net.cpp:612] fc8_fc8_0_split <- fc8
I1226 14:43:24.633136 92812 net.cpp:586] fc8_fc8_0_split -> fc8_fc8_0_split_0
I1226 14:43:24.633213 92812 net.cpp:586] fc8_fc8_0_split -> fc8_fc8_0_split_1
I1226 14:43:24.633301 92812 net.cpp:228] Setting up fc8_fc8_0_split
I1226 14:43:24.633347 92812 net.cpp:235] Top shape: 256 1000 (256000)
I1226 14:43:24.633376 92812 net.cpp:235] Top shape: 256 1000 (256000)
I1226 14:43:24.633409 92812 net.cpp:243] Memory required for data: 2131777536
I1226 14:43:24.633445 92812 layer_factory.hpp:114] Creating layer accuracy
I1226 14:43:24.633528 92812 net.cpp:178] Creating Layer accuracy
I1226 14:43:24.633565 92812 net.cpp:612] accuracy <- fc8_fc8_0_split_0
I1226 14:43:24.633595 92812 net.cpp:612] accuracy <- label_data_1_split_0
I1226 14:43:24.633631 92812 net.cpp:586] accuracy -> accuracy
…
I1226 14:43:24.666718 92812 net.cpp:349] This network produces output loss
I1226 14:43:24.666813 92812 net.cpp:363] Network initialization done.
I1226 14:43:24.667256 92812 solver.cpp:107] Solver scaffolding done.
I1226 14:43:24.667503 92812 caffe.cpp:212] Finetuning from /export/data1/stanford/hazy/gordon_bell/caffenet_knl/snapshot/caffenet_MN8_B1024/_iter_25000.caffemodel
I1226 14:43:24.820781 92472 caffe.cpp:376] Configuring multinode setup
I1226 14:43:24.836357 92472 caffe.cpp:386] Starting parameter server in mpi environment
I1226 14:43:25.900775 91922 net.cpp:228] Setting up fc7
I1226 14:43:25.900885 91922 net.cpp:235] Top shape: 256 4096 (1048576)
I1226 14:43:25.900914 91922 net.cpp:243] Memory required for data: 2120316928
I1226 14:43:25.900969 91922 layer_factory.hpp:114] Creating layer relu7
I1226 14:43:25.901047 91922 net.cpp:178] Creating Layer relu7
I1226 14:43:25.901166 91922 net.cpp:612] relu7 <- fc7
I1226 14:43:25.901232 91922 net.cpp:573] relu7 -> fc7 (in-place)
I1226 14:43:25.901322 91922 net.cpp:228] Setting up relu7
I1226 14:43:25.901453 91922 net.cpp:235] Top shape: 256 4096 (1048576)
I1226 14:43:25.901477 91922 net.cpp:243] Memory required for data: 2124511232
I1226 14:43:25.901506 91922 layer_factory.hpp:114] Creating layer drop7
I1226 14:43:25.901563 91922 net.cpp:178] Creating Layer drop7
I1226 14:43:25.901597 91922 net.cpp:612] drop7 <- fc7
I1226 14:43:25.901636 91922 net.cpp:573] drop7 -> fc7 (in-place)
I1226 14:43:25.901685 91922 net.cpp:228] Setting up drop7
I1226 14:43:25.901717 91922 net.cpp:235] Top shape: 256 4096 (1048576)
I1226 14:43:25.901739 91922 net.cpp:243] Memory required for data: 2128705536
I1226 14:43:25.901773 91922 layer_factory.hpp:114] Creating layer fc8
I1226 14:43:25.901828 91922 net.cpp:178] Creating Layer fc8
I1226 14:43:25.901857 91922 net.cpp:612] fc8 <- fc7
I1226 14:43:25.901892 91922 net.cpp:586] fc8 -> fc8
I1226 14:43:25.920544 91731 net.cpp:228] Setting up fc7
I1226 14:43:25.920653 91731 net.cpp:235] Top shape: 256 4096 (1048576)
I1226 14:43:25.920681 91731 net.cpp:243] Memory required for data: 2120316928
I1226 14:43:25.920737 91731 layer_factory.hpp:114] Creating layer relu7
I1226 14:43:25.920845 91731 net.cpp:178] Creating Layer relu7
I1226 14:43:25.920881 91731 net.cpp:612] relu7 <- fc7
I1226 14:43:25.920928 91731 net.cpp:573] relu7 -> fc7 (in-place)
I1226 14:43:25.921020 91731 net.cpp:228] Setting up relu7
I1226 14:43:25.921063 91731 net.cpp:235] Top shape: 256 4096 (1048576)
I1226 14:43:25.921094 91731 net.cpp:243] Memory required for data: 2124511232
I1226 14:43:25.921123 91731 layer_factory.hpp:114] Creating layer drop7
I1226 14:43:25.921159 91731 net.cpp:178] Creating Layer drop7
I1226 14:43:25.921190 91731 net.cpp:612] drop7 <- fc7
I1226 14:43:25.921222 91731 net.cpp:573] drop7 -> fc7 (in-place)
I1226 14:43:25.921272 91731 net.cpp:228] Setting up drop7
I1226 14:43:25.921303 91731 net.cpp:235] Top shape: 256 4096 (1048576)
I1226 14:43:25.921325 91731 net.cpp:243] Memory required for data: 2128705536
I1226 14:43:25.921358 91731 layer_factory.hpp:114] Creating layer fc8
I1226 14:43:25.921411 91731 net.cpp:178] Creating Layer fc8
I1226 14:43:25.921435 91731 net.cpp:612] fc8 <- fc7
I1226 14:43:25.921478 91731 net.cpp:586] fc8 -> fc8
I1226 14:43:25.998510 85791 net.cpp:228] Setting up fc7
I1226 14:43:25.998649 85791 net.cpp:235] Top shape: 256 4096 (1048576)
I1226 14:43:25.998684 85791 net.cpp:243] Memory required for data: 2120316928
I1226 14:43:25.998747 85791 layer_factory.hpp:114] Creating layer relu7
I1226 14:43:25.998824 85791 net.cpp:178] Creating Layer relu7
I1226 14:43:25.998873 85791 net.cpp:612] relu7 <- fc7
I1226 14:43:25.998940 85791 net.cpp:573] relu7 -> fc7 (in-place)
I1226 14:43:25.999033 85791 net.cpp:228] Setting up relu7
I1226 14:43:25.999081 85791 net.cpp:235] Top shape: 256 4096 (1048576)
I1226 14:43:25.999105 85791 net.cpp:243] Memory required for data: 2124511232
I1226 14:43:25.999135 85791 layer_factory.hpp:114] Creating layer drop7
I1226 14:43:25.999183 85791 net.cpp:178] Creating Layer drop7
I1226 14:43:25.999209 85791 net.cpp:612] drop7 <- fc7
I1226 14:43:25.999241 85791 net.cpp:573] drop7 -> fc7 (in-place)
I1226 14:43:25.999285 85791 net.cpp:228] Setting up drop7
I1226 14:43:25.999317 85791 net.cpp:235] Top shape: 256 4096 (1048576)
I1226 14:43:25.999346 85791 net.cpp:243] Memory required for data: 2128705536
I1226 14:43:25.999372 85791 layer_factory.hpp:114] Creating layer fc8
I1226 14:43:25.999428 85791 net.cpp:178] Creating Layer fc8
I1226 14:43:25.999467 85791 net.cpp:612] fc8 <- fc7
I1226 14:43:25.999511 85791 net.cpp:586] fc8 -> fc8
I1226 14:43:26.003291 92783 net.cpp:228] Setting up fc7
I1226 14:43:26.003397 92783 net.cpp:235] Top shape: 256 4096 (1048576)
I1226 14:43:26.003428 92783 net.cpp:243] Memory required for data: 2120316928
I1226 14:43:26.003486 92783 layer_factory.hpp:114] Creating layer relu7
I1226 14:43:26.003562 92783 net.cpp:178] Creating Layer relu7
I1226 14:43:26.003602 92783 net.cpp:612] relu7 <- fc7
I1226 14:43:26.003669 92783 net.cpp:573] relu7 -> fc7 (in-place)
I1226 14:43:26.003854 92783 net.cpp:228] Setting up relu7
I1226 14:43:26.003973 92783 net.cpp:235] Top shape: 256 4096 (1048576)
I1226 14:43:26.003999 92783 net.cpp:243] Memory required for data: 2124511232
I1226 14:43:26.004034 92783 layer_factory.hpp:114] Creating layer drop7
I1226 14:43:26.004079 92783 net.cpp:178] Creating Layer drop7
I1226 14:43:26.004112 92783 net.cpp:612] drop7 <- fc7
I1226 14:43:26.004155 92783 net.cpp:573] drop7 -> fc7 (in-place)
I1226 14:43:26.004209 92783 net.cpp:228] Setting up drop7
I1226 14:43:26.004250 92783 net.cpp:235] Top shape: 256 4096 (1048576)
I1226 14:43:26.004274 92783 net.cpp:243] Memory required for data: 2128705536
I1226 14:43:26.004302 92783 layer_factory.hpp:114] Creating layer fc8
I1226 14:43:26.004395 92783 net.cpp:178] Creating Layer fc8
I1226 14:43:26.004427 92783 net.cpp:612] fc8 <- fc7
I1226 14:43:26.004469 92783 net.cpp:586] fc8 -> fc8
I1226 14:43:26.003257 94810 net.cpp:228] Setting up fc7
I1226 14:43:26.003444 94810 net.cpp:235] Top shape: 256 4096 (1048576)
I1226 14:43:26.003479 94810 net.cpp:243] Memory required for data: 2120316928
I1226 14:43:26.003540 94810 layer_factory.hpp:114] Creating layer relu7
I1226 14:43:26.003628 94810 net.cpp:178] Creating Layer relu7
I1226 14:43:26.003748 94810 net.cpp:612] relu7 <- fc7
I1226 14:43:26.003792 94810 net.cpp:573] relu7 -> fc7 (in-place)
I1226 14:43:26.003892 94810 net.cpp:228] Setting up relu7
I1226 14:43:26.003944 94810 net.cpp:235] Top shape: 256 4096 (1048576)
I1226 14:43:26.003969 94810 net.cpp:243] Memory required for data: 2124511232
I1226 14:43:26.004009 94810 layer_factory.hpp:114] Creating layer drop7
I1226 14:43:26.004051 94810 net.cpp:178] Creating Layer drop7
I1226 14:43:26.004077 94810 net.cpp:612] drop7 <- fc7
I1226 14:43:26.004111 94810 net.cpp:573] drop7 -> fc7 (in-place)
I1226 14:43:26.004154 94810 net.cpp:228] Setting up drop7
I1226 14:43:26.004187 94810 net.cpp:235] Top shape: 256 4096 (1048576)
I1226 14:43:26.004215 94810 net.cpp:243] Memory required for data: 2128705536
I1226 14:43:26.004242 94810 layer_factory.hpp:114] Creating layer fc8
I1226 14:43:26.004297 94810 net.cpp:178] Creating Layer fc8
I1226 14:43:26.004328 94810 net.cpp:612] fc8 <- fc7
I1226 14:43:26.004364 94810 net.cpp:586] fc8 -> fc8
I1226 14:43:26.465111 91922 net.cpp:228] Setting up fc8
I1226 14:43:26.465255 91922 net.cpp:235] Top shape: 256 1000 (256000)
I1226 14:43:26.465286 91922 net.cpp:243] Memory required for data: 2129729536
I1226 14:43:26.465345 91922 layer_factory.hpp:114] Creating layer fc8_fc8_0_split
I1226 14:43:26.465462 91922 net.cpp:178] Creating Layer fc8_fc8_0_split
I1226 14:43:26.465502 91922 net.cpp:612] fc8_fc8_0_split <- fc8
I1226 14:43:26.465539 91922 net.cpp:586] fc8_fc8_0_split -> fc8_fc8_0_split_0
I1226 14:43:26.465584 91922 net.cpp:586] fc8_fc8_0_split -> fc8_fc8_0_split_1
I1226 14:43:26.465672 91922 net.cpp:228] Setting up fc8_fc8_0_split
I1226 14:43:26.465720 91922 net.cpp:235] Top shape: 256 1000 (256000)
I1226 14:43:26.465749 91922 net.cpp:235] Top shape: 256 1000 (256000)
I1226 14:43:26.465772 91922 net.cpp:243] Memory required for data: 2131777536
I1226 14:43:26.465811 91922 layer_factory.hpp:114] Creating layer accuracy
I1226 14:43:26.465875 91922 net.cpp:178] Creating Layer accuracy
I1226 14:43:26.465909 91922 net.cpp:612] accuracy <- fc8_fc8_0_split_0
I1226 14:43:26.465939 91922 net.cpp:612] accuracy <- label_data_1_split_0
I1226 14:43:26.465970 91922 net.cpp:586] accuracy -> accuracy
I1226 14:43:26.466023 91922 net.cpp:228] Setting up accuracy
I1226 14:43:26.466056 91922 net.cpp:235] Top shape: (1)
I1226 14:43:26.466078 91922 net.cpp:243] Memory required for data: 2131777540
I1226 14:43:26.466104 91922 layer_factory.hpp:114] Creating layer loss
I1226 14:43:26.466145 91922 net.cpp:178] Creating Layer loss
I1226 14:43:26.466174 91922 net.cpp:612] loss <- fc8_fc8_0_split_1
I1226 14:43:26.466225 91922 net.cpp:612] loss <- label_data_1_split_1
I1226 14:43:26.466261 91922 net.cpp:586] loss -> loss
I1226 14:43:26.466318 91922 layer_factory.hpp:114] Creating layer loss
I1226 14:43:26.493866 91731 net.cpp:228] Setting up fc8
I1226 14:43:26.493978 91731 net.cpp:235] Top shape: 256 1000 (256000)
I1226 14:43:26.494004 91731 net.cpp:243] Memory required for data: 2129729536
I1226 14:43:26.494112 91731 layer_factory.hpp:114] Creating layer fc8_fc8_0_split
I1226 14:43:26.494199 91731 net.cpp:178] Creating Layer fc8_fc8_0_split
I1226 14:43:26.494237 91731 net.cpp:612] fc8_fc8_0_split <- fc8
I1226 14:43:26.494278 91731 net.cpp:586] fc8_fc8_0_split -> fc8_fc8_0_split_0
I1226 14:43:26.494333 91731 net.cpp:586] fc8_fc8_0_split -> fc8_fc8_0_split_1
I1226 14:43:26.494420 91731 net.cpp:228] Setting up fc8_fc8_0_split
I1226 14:43:26.494459 91731 net.cpp:235] Top shape: 256 1000 (256000)
I1226 14:43:26.494498 91731 net.cpp:235] Top shape: 256 1000 (256000)
I1226 14:43:26.494520 91731 net.cpp:243] Memory required for data: 2131777536
I1226 14:43:26.494549 91731 layer_factory.hpp:114] Creating layer accuracy
I1226 14:43:26.494599 91731 net.cpp:178] Creating Layer accuracy
I1226 14:43:26.494623 91731 net.cpp:612] accuracy <- fc8_fc8_0_split_0
I1226 14:43:26.494652 91731 net.cpp:612] accuracy <- label_data_1_split_0
I1226 14:43:26.494689 91731 net.cpp:586] accuracy -> accuracy
…
I1226 14:43:26.523599 91731 net.cpp:307] data does not need backward computation.
I1226 14:43:26.523627 91731 net.cpp:349] This network produces output accuracy
I1226 14:43:26.523660 91731 net.cpp:349] This network produces output loss
I1226 14:43:26.523756 91731 net.cpp:363] Network initialization done.
I1226 14:43:26.524216 91731 solver.cpp:107] Solver scaffolding done.
I1226 14:43:26.524440 91731 caffe.cpp:212] Finetuning from /export/data1/stanford/hazy/gordon_bell/caffenet_knl/snapshot/caffenet_MN8_B1024/_iter_25000.caffemodel
I1226 14:43:26.568431 85791 net.cpp:228] Setting up fc8
I1226 14:43:26.568547 85791 net.cpp:235] Top shape: 256 1000 (256000)
I1226 14:43:26.568578 85791 net.cpp:243] Memory required for data: 2129729536
I1226 14:43:26.568663 85791 layer_factory.hpp:114] Creating layer fc8_fc8_0_split
I1226 14:43:26.568730 85791 net.cpp:178] Creating Layer fc8_fc8_0_split
I1226 14:43:26.568774 85791 net.cpp:612] fc8_fc8_0_split <- fc8
I1226 14:43:26.568843 85791 net.cpp:586] fc8_fc8_0_split -> fc8_fc8_0_split_0
I1226 14:43:26.568892 85791 net.cpp:586] fc8_fc8_0_split -> fc8_fc8_0_split_1
I1226 14:43:26.568979 85791 net.cpp:228] Setting up fc8_fc8_0_split
I1226 14:43:26.569032 85791 net.cpp:235] Top shape: 256 1000 (256000)
I1226 14:43:26.569063 85791 net.cpp:235] Top shape: 256 1000 (256000)
I1226 14:43:26.569087 85791 net.cpp:243] Memory required for data: 2131777536
I1226 14:43:26.569223 85791 layer_factory.hpp:114] Creating layer accuracy
I1226 14:43:26.569278 85791 net.cpp:178] Creating Layer accuracy
I1226 14:43:26.569316 85791 net.cpp:612] accuracy <- fc8_fc8_0_split_0
I1226 14:43:26.569351 85791 net.cpp:612] accuracy <- label_data_1_split_0
I1226 14:43:26.569398 85791 net.cpp:586] accuracy -> accuracy
I1226 14:43:26.569450 85791 net.cpp:228] Setting up accuracy
I1226 14:43:26.569489 85791 net.cpp:235] Top shape: (1)
I1226 14:43:26.569516 85791 net.cpp:243] Memory required for data: 2131777540
I1226 14:43:26.569548 85791 layer_factory.hpp:114] Creating layer loss
I1226 14:43:26.569624 85791 net.cpp:178] Creating Layer loss
I1226 14:43:26.569654 85791 net.cpp:612] loss <- fc8_fc8_0_split_1
I1226 14:43:26.569684 85791 net.cpp:612] loss <- label_data_1_split_1
I1226 14:43:26.559736 94810 net.cpp:228] Setting up fc8
I1226 14:43:26.569717 85791 net.cpp:586] loss -> loss
I1226 14:43:26.559847 94810 net.cpp:235] Top shape: 256 1000 (256000)
I1226 14:43:26.559875 94810 net.cpp:243] Memory required for data: 2129729536
I1226 14:43:26.569782 85791 layer_factory.hpp:114] Creating layer loss
I1226 14:43:26.559954 94810 layer_factory.hpp:114] Creating layer fc8_fc8_0_split
I1226 14:43:26.560046 94810 net.cpp:178] Creating Layer fc8_fc8_0_split
I1226 14:43:26.560089 94810 net.cpp:612] fc8_fc8_0_split <- fc8
I1226 14:43:26.560130 94810 net.cpp:586] fc8_fc8_0_split -> fc8_fc8_0_split_0
I1226 14:43:26.560178 94810 net.cpp:586] fc8_fc8_0_split -> fc8_fc8_0_split_1
I1226 14:43:26.560276 94810 net.cpp:228] Setting up fc8_fc8_0_split
I1226 14:43:26.560330 94810 net.cpp:235] Top shape: 256 1000 (256000)
I1226 14:43:26.560361 94810 net.cpp:235] Top shape: 256 1000 (256000)
I1226 14:43:26.560415 94810 net.cpp:243] Memory required for data: 2131777536
I1226 14:43:26.560444 94810 layer_factory.hpp:114] Creating layer accuracy
I1226 14:43:26.560497 94810 net.cpp:178] Creating Layer accuracy
I1226 14:43:26.560525 94810 net.cpp:612] accuracy <- fc8_fc8_0_split_0
I1226 14:43:26.560564 94810 net.cpp:612] accuracy <- label_data_1_split_0
I1226 14:43:26.560600 94810 net.cpp:586] accuracy -> accuracy
I1226 14:43:26.560652 94810 net.cpp:228] Setting up accuracy
I1226 14:43:26.560693 94810 net.cpp:235] Top shape: (1)
I1226 14:43:26.560715 94810 net.cpp:243] Memory required for data: 2131777540
I1226 14:43:26.560742 94810 layer_factory.hpp:114] Creating layer loss
I1226 14:43:26.560791 94810 net.cpp:178] Creating Layer loss
I1226 14:43:26.560817 94810 net.cpp:612] loss <- fc8_fc8_0_split_1
I1226 14:43:26.560844 94810 net.cpp:612] loss <- label_data_1_split_1
I1226 14:43:26.560889 94810 net.cpp:586] loss -> loss
I1226 14:43:26.560956 94810 layer_factory.hpp:114] Creating layer loss
I1226 14:43:26.581167 92783 net.cpp:228] Setting up fc8
I1226 14:43:26.581276 92783 net.cpp:235] Top shape: 256 1000 (256000)
I1226 14:43:26.581305 92783 net.cpp:243] Memory required for data: 2129729536
I1226 14:43:26.581359 92783 layer_factory.hpp:114] Creating layer fc8_fc8_0_split
I1226 14:43:26.581424 92783 net.cpp:178] Creating Layer fc8_fc8_0_split
I1226 14:43:26.581459 92783 net.cpp:612] fc8_fc8_0_split <- fc8
I1226 14:43:26.581526 92783 net.cpp:586] fc8_fc8_0_split -> fc8_fc8_0_split_0
I1226 14:43:26.581581 92783 net.cpp:586] fc8_fc8_0_split -> fc8_fc8_0_split_1
I1226 14:43:26.581671 92783 net.cpp:228] Setting up fc8_fc8_0_split
I1226 14:43:26.581734 92783 net.cpp:235] Top shape: 256 1000 (256000)
I1226 14:43:26.581768 92783 net.cpp:235] Top shape: 256 1000 (256000)
I1226 14:43:26.581814 92783 net.cpp:243] Memory required for data: 2131777536
I1226 14:43:26.581853 92783 layer_factory.hpp:114] Creating layer accuracy
I1226 14:43:26.581908 92783 net.cpp:178] Creating Layer accuracy
I1226 14:43:26.581938 92783 net.cpp:612] accuracy <- fc8_fc8_0_split_0
I1226 14:43:26.581969 92783 net.cpp:612] accuracy <- label_data_1_split_0
I1226 14:43:26.582005 92783 net.cpp:586] accuracy -> accuracy
…
I1226 14:43:29.847339 85791 caffe.cpp:392] Starting Multi-node Optimization in mpi environment
I1226 14:43:29.850347 94810 caffe.cpp:376] Configuring multinode setup
I1226 14:43:29.851794 94810 caffe.cpp:392] Starting Multi-node Optimization in mpi environment
I1226 14:43:29.946734 92783 caffe.cpp:376] Configuring multinode setup
I1226 14:43:29.948235 92783 caffe.cpp:392] Starting Multi-node Optimization in mpi environment
I1226 14:43:30.642616 91731 caffe.cpp:376] Configuring multinode setup
I1226 14:43:30.644150 91731 caffe.cpp:392] Starting Multi-node Optimization in mpi environment
I1226 14:43:49.543916 97719 net.cpp:228] Setting up fc6
I1226 14:43:49.544185 97719 net.cpp:235] Top shape: 256 4096 (1048576)
I1226 14:43:49.544227 97719 net.cpp:243] Memory required for data: 2107734016
I1226 14:43:49.544291 97719 layer_factory.hpp:114] Creating layer relu6
I1226 14:43:49.544443 97719 net.cpp:178] Creating Layer relu6
I1226 14:43:49.544495 97719 net.cpp:612] relu6 <- fc6
I1226 14:43:49.544540 97719 net.cpp:573] relu6 -> fc6 (in-place)
I1226 14:43:49.544647 97719 net.cpp:228] Setting up relu6
I1226 14:43:49.544708 97719 net.cpp:235] Top shape: 256 4096 (1048576)
I1226 14:43:49.544777 97719 net.cpp:243] Memory required for data: 2111928320
I1226 14:43:49.544816 97719 layer_factory.hpp:114] Creating layer drop6
I1226 14:43:49.544890 97719 net.cpp:178] Creating Layer drop6
I1226 14:43:49.544935 97719 net.cpp:612] drop6 <- fc6
I1226 14:43:49.544977 97719 net.cpp:573] drop6 -> fc6 (in-place)
I1226 14:43:49.545038 97719 net.cpp:228] Setting up drop6
I1226 14:43:49.545085 97719 net.cpp:235] Top shape: 256 4096 (1048576)
I1226 14:43:49.545114 97719 net.cpp:243] Memory required for data: 2116122624
I1226 14:43:49.545146 97719 layer_factory.hpp:114] Creating layer fc7
I1226 14:43:49.545207 97719 net.cpp:178] Creating Layer fc7
I1226 14:43:49.545244 97719 net.cpp:612] fc7 <- fc6
I1226 14:43:49.545284 97719 net.cpp:586] fc7 -> fc7
I1226 14:43:51.512724 97292 net.cpp:228] Setting up fc6
I1226 14:43:51.513025 97292 net.cpp:235] Top shape: 256 4096 (1048576)
I1226 14:43:51.513072 97292 net.cpp:243] Memory required for data: 2107734016
I1226 14:43:51.513139 97292 layer_factory.hpp:114] Creating layer relu6
I1226 14:43:51.513252 97292 net.cpp:178] Creating Layer relu6
I1226 14:43:51.513304 97292 net.cpp:612] relu6 <- fc6
I1226 14:43:51.513352 97292 net.cpp:573] relu6 -> fc6 (in-place)
I1226 14:43:51.513449 97292 net.cpp:228] Setting up relu6
I1226 14:43:51.513507 97292 net.cpp:235] Top shape: 256 4096 (1048576)
I1226 14:43:51.513533 97292 net.cpp:243] Memory required for data: 2111928320
I1226 14:43:51.513569 97292 layer_factory.hpp:114] Creating layer drop6
I1226 14:43:51.513635 97292 net.cpp:178] Creating Layer drop6
I1226 14:43:51.513676 97292 net.cpp:612] drop6 <- fc6
I1226 14:43:51.513715 97292 net.cpp:573] drop6 -> fc6 (in-place)
I1226 14:43:51.513773 97292 net.cpp:228] Setting up drop6
I1226 14:43:51.513851 97292 net.cpp:235] Top shape: 256 4096 (1048576)
I1226 14:43:51.513878 97292 net.cpp:243] Memory required for data: 2116122624
I1226 14:43:51.513909 97292 layer_factory.hpp:114] Creating layer fc7
I1226 14:43:51.513988 97292 net.cpp:178] Creating Layer fc7
I1226 14:43:51.514019 97292 net.cpp:612] fc7 <- fc6
I1226 14:43:51.514060 97292 net.cpp:586] fc7 -> fc7
I1226 14:44:02.624651 97719 net.cpp:228] Setting up fc7
I1226 14:44:02.624799 97719 net.cpp:235] Top shape: 256 4096 (1048576)
I1226 14:44:02.624838 97719 net.cpp:243] Memory required for data: 2120316928
I1226 14:44:02.624899 97719 layer_factory.hpp:114] Creating layer relu7
I1226 14:44:02.625080 97719 net.cpp:178] Creating Layer relu7
I1226 14:44:02.625123 97719 net.cpp:612] relu7 <- fc7
I1226 14:44:02.625164 97719 net.cpp:573] relu7 -> fc7 (in-place)
I1226 14:44:02.625280 97719 net.cpp:228] Setting up relu7
I1226 14:44:02.625344 97719 net.cpp:235] Top shape: 256 4096 (1048576)
I1226 14:44:02.625370 97719 net.cpp:243] Memory required for data: 2124511232
I1226 14:44:02.625406 97719 layer_factory.hpp:114] Creating layer drop7
I1226 14:44:02.625455 97719 net.cpp:178] Creating Layer drop7
I1226 14:44:02.625494 97719 net.cpp:612] drop7 <- fc7
I1226 14:44:02.625533 97719 net.cpp:573] drop7 -> fc7 (in-place)
I1226 14:44:02.625582 97719 net.cpp:228] Setting up drop7
I1226 14:44:02.625627 97719 net.cpp:235] Top shape: 256 4096 (1048576)
I1226 14:44:02.625651 97719 net.cpp:243] Memory required for data: 2128705536
I1226 14:44:02.625682 97719 layer_factory.hpp:114] Creating layer fc8
I1226 14:44:02.625766 97719 net.cpp:178] Creating Layer fc8
I1226 14:44:02.625800 97719 net.cpp:612] fc8 <- fc7
I1226 14:44:02.625859 97719 net.cpp:586] fc8 -> fc8
I1226 14:44:04.593785 97292 net.cpp:228] Setting up fc7
I1226 14:44:04.593953 97292 net.cpp:235] Top shape: 256 4096 (1048576)
I1226 14:44:04.593992 97292 net.cpp:243] Memory required for data: 2120316928
I1226 14:44:04.594060 97292 layer_factory.hpp:114] Creating layer relu7
I1226 14:44:04.594244 97292 net.cpp:178] Creating Layer relu7
I1226 14:44:04.594300 97292 net.cpp:612] relu7 <- fc7
I1226 14:44:04.594348 97292 net.cpp:573] relu7 -> fc7 (in-place)
I1226 14:44:04.594451 97292 net.cpp:228] Setting up relu7
I1226 14:44:04.594507 97292 net.cpp:235] Top shape: 256 4096 (1048576)
I1226 14:44:04.594537 97292 net.cpp:243] Memory required for data: 2124511232
I1226 14:44:04.594570 97292 layer_factory.hpp:114] Creating layer drop7
I1226 14:44:04.594619 97292 net.cpp:178] Creating Layer drop7
I1226 14:44:04.594657 97292 net.cpp:612] drop7 <- fc7
I1226 14:44:04.594708 97292 net.cpp:573] drop7 -> fc7 (in-place)
I1226 14:44:04.594766 97292 net.cpp:228] Setting up drop7
I1226 14:44:04.594841 97292 net.cpp:235] Top shape: 256 4096 (1048576)
I1226 14:44:04.594876 97292 net.cpp:243] Memory required for data: 2128705536
I1226 14:44:04.594949 97292 layer_factory.hpp:114] Creating layer fc8
I1226 14:44:04.595047 97292 net.cpp:178] Creating Layer fc8
I1226 14:44:04.595088 97292 net.cpp:612] fc8 <- fc7
I1226 14:44:04.595165 97292 net.cpp:586] fc8 -> fc8
I1226 14:44:05.820173 97719 net.cpp:228] Setting up fc8
I1226 14:44:05.820310 97719 net.cpp:235] Top shape: 256 1000 (256000)
I1226 14:44:05.820348 97719 net.cpp:243] Memory required for data: 2129729536
I1226 14:44:05.820407 97719 layer_factory.hpp:114] Creating layer fc8_fc8_0_split
I1226 14:44:05.820502 97719 net.cpp:178] Creating Layer fc8_fc8_0_split
I1226 14:44:05.820549 97719 net.cpp:612] fc8_fc8_0_split <- fc8
I1226 14:44:05.820593 97719 net.cpp:586] fc8_fc8_0_split -> fc8_fc8_0_split_0
I1226 14:44:05.820648 97719 net.cpp:586] fc8_fc8_0_split -> fc8_fc8_0_split_1
I1226 14:44:05.820789 97719 net.cpp:228] Setting up fc8_fc8_0_split
I1226 14:44:05.820857 97719 net.cpp:235] Top shape: 256 1000 (256000)
I1226 14:44:05.820891 97719 net.cpp:235] Top shape: 256 1000 (256000)
I1226 14:44:05.820917 97719 net.cpp:243] Memory required for data: 2131777536
I1226 14:44:05.820960 97719 layer_factory.hpp:114] Creating layer accuracy
I1226 14:44:05.821038 97719 net.cpp:178] Creating Layer accuracy
I1226 14:44:05.821079 97719 net.cpp:612] accuracy <- fc8_fc8_0_split_0
I1226 14:44:05.821113 97719 net.cpp:612] accuracy <- label_data_1_split_0
I1226 14:44:05.821151 97719 net.cpp:586] accuracy -> accuracy
…
