…
I1226 15:00:03.670894 91209 net.cpp:500] The NetState phase (0) differed from the phase (1) specified by a rule in layer data
I1226 15:00:03.670720 92073 net.cpp:136] Initializing net from parameters: 
name: "AlexNet"
state {
  phase: TRAIN
  level: 0
  stage: ""
}
engine: "MKL2017"
layer {
  name: "data"
  type: "Data"
  top: "data"
  top: "label"
  include {
    phase: TRAIN
  }
  transform_param {
    mirror: true
    crop_size: 227
    mean_value: 104
    mean_value: 117
    mean_value: 123
  }
  data_param {
    source: "/export/data1/stanford/hazy/zjian/gorden_bell/ILSVRC2012_lmdb/db_8/ilsvrc12_train_lmdb_2"
    batch_size: 64
    backend: LMDB
  }
}
layer {
  name: "label_data_1_split"
  type: "Split"
  bottom: "label"
  top: "label_data_1_split_0"
  top: "label_data_1_split_1"
}
layer {
  name: "conv1"
  type: "Convolution"
  bottom: "data"
  top: "conv1"
  param {
    lr_mult: 1
    decay_mult: 1
  }
  param {
    lr_mult: 2
    decay_mult: 0
  }
  convolution_param {
    num_output: 96
    kernel_size: 11
    stride: 4
    weight_filler {
      type: "gaussian"
      std: 0.01
    }
    bias_filler {
      type: "constant"
      value: 0
    }
    engine: MKL2017
  }
}
layer {
  name: "relu1"
  type: "ReLU"
  bottom: "conv1"
  top: "conv1"
  relu_param {
    engine: MKL2017
  }
}
layer {
  name: "norm1"
  type: "LRN"
  bottom: "conv1"
  top: "norm1"
  lrn_param {
    local_size: 5
    alpha: 0.0001
    beta: 0.75
    engine: MKL2017
  }
}
layer {
  name: "pool1"
  type: "Pooling"
  bottom: "norm1"
  top: "pool1"
  pooling_param {
    pool: MAX
    kernel_size: 3
    stride: 2
    engine: MKL2017
  }
}
layer {
  name: "conv2"
  type: "Convolution"
  bottom: "pool1"
  top: "conv2"
  param {
    lr_mult: 1
    decay_mult: 1
  }
  param {
    lr_mult: 2
    decay_mult: 0
  }
  convolution_param {
    num_output: 256
    pad: 2
    kernel_size: 5
    group: 2
    weight_filler {
      type: "gaussian"
      std: 0.01
    }
    bias_filler {
      type: "constant"
      value: 0.1
    }
    engine: MKL2017
  }
}
layer {
  name: "relu2"
  type: "ReLU"
  bottom: "conv2"
  top: "conv2"
  relu_param {
    engine: MKL2017
  }
}
layer {
  name: "norm2"
  type: "LRN"
  bottom: "conv2"
  top: "norm2"
  lrn_param {
    local_size: 5
    alpha: 0.0001
    beta: 0.75
    engine: MKL2017
  }
}
layer {
  name: "pool2"
  type: "Pooling"
  bottom: "norm2"
  top: "pool2"
  pooling_param {
    pool: MAX
    kernel_size: 3
    stride: 2
    engine: MKL2017
  }
}
layer {
  name: "conv3"
  type: "Convolution"
  bottom: "pool2"
  top: "conv3"
  param {
    lr_mult: 1
    decay_mult: 1
  }
  param {
    lr_mult: 2
    decay_mult: 0
  }
  convolution_param {
    num_output: 384
    pad: 1
    kernel_size: 3
    weight_filler {
      type: "gaussian"
      std: 0.01
    }
    bias_filler {
      type: "constant"
      value: 0
    }
    engine: MKL2017
  }
}
layer {
  name: "relu3"
  type: "ReLU"
  bottom: "conv3"
  top: "conv3"
  relu_param {
    engine: MKL2017
  }
}
layer {
  name: "conv4"
  type: "Convolution"
  bottom: "conv3"
  top: "conv4"
  param {
    lr_mult: 1
    decay_mult: 1
  }
  param {
    lr_mult: 2
    decay_mult: 0
  }
  convolution_param {
    num_output: 384
    pad: 1
    kernel_size: 3
    group: 2
    weight_filler {
      type: "gaussian"
      std: 0.01
    }
    bias_filler {
      type: "constant"
      value: 0.1
    }
    engine: MKL2017
  }
}
layer {
  name: "relu4"
  type: "ReLU"
  bottom: "conv4"
  top: "conv4"
  relu_param {
    engine: MKL2017
  }
}
layer {
  name: "conv5"
  type: "Convolution"
  bottom: "conv4"
  top: "conv5"
  param {
    lr_mult: 1
    decay_mult: 1
  }
  param {
    lr_mult: 2
    decay_mult: 0
  }
  convolution_param {
    num_output: 256
    pad: 1
    kernel_size: 3
    group: 2
    weight_filler {
      type: "gaussian"
      std: 0.01
    }
    bias_filler {
      type: "constant"
      value: 0.1
    }
    engine: MKL2017
  }
}
layer {
  name: "relu5"
  type: "ReLU"
  bottom: "conv5"
  top: "conv5"
  relu_param {
    engine: MKL2017
  }
}
layer {
  name: "pool5"
  type: "Pooling"
  bottom: "conv5"
  top: "pool5"
  pooling_param {
    pool: MAX
    kernel_size: 3
    stride: 2
    engine: MKL2017
  }
}
layer {
  name: "fc6"
  type: "InnerProduct"
  bottom: "pool5"
  top: "fc6"
  param {
    lr_mult: 1
    decay_mult: 1
  }
  param {
    lr_mult: 2
    decay_mult: 0
  }
  inner_product_param {
    num_output: 4096
    weight_filler {
      type: "gaussian"
      std: 0.005
    }
    bias_filler {
      type: "constant"
      value: 0.1
    }
  }
}
layer {
  name: "relu6"
  type: "ReLU"
  bottom: "fc6"
  top: "fc6"
}
layer {
  name: "drop6"
  type: "Dropout"
  bottom: "fc6"
  top: "fc6"
  dropout_param {
    dropout_ratio: 0.5
  }
}
layer {
  name: "fc7"
  type: "InnerProduct"
  bottom: "fc6"
  top: "fc7"
  param {
    lr_mult: 1
    decay_mult: 1
  }
  param {
    lr_mult: 2
    decay_mult: 0
  }
  inner_product_param {
    num_output: 4096
    weight_filler {
      type: "gaussian"
      std: 0.005
    }
    bias_filler {
      type: "constant"
      value: 0.1
    }
  }
}
layer {
  name: "relu7"
  type: "ReLU"
  bottom: "fc7"
  top: "fc7"
}
layer {
  name: "drop7"
  type: "Dropout"
  bottom: "fc7"
  top: "fc7"
  dropout_param {
    dropout_ratio: 0.5
  }
}
layer {
  name: "fc8"
  type: "InnerProduct"
  bottom: "fc7"
  top: "fc8"
  param {
    lr_mult: 1
    decay_mult: 1
  }
  param {
    lr_mult: 2
    decay_mult: 0
  }
  inner_product_param {
    num_output: 1000
    weight_filler {
      type: "gaussian"
      std: 0.01
    }
    bias_filler {
      type: "constant"
      value: 0
    }
  }
}
layer {
  name: "fc8_fc8_0_split"
  type: "Split"
  bottom: "fc8"
  top: "fc8_fc8_0_split_0"
  top: "fc8_fc8_0_split_1"
}
layer {
  name: "accuracy"
  type: "Accuracy"
  bottom: "fc8_fc8_0_split_0"
  bottom: "label_data_1_split_0"
  top: "accuracy"
}
layer {
  name: "loss"
  type: "SoftmaxWithLoss"
  bottom: "fc8_fc8_0_split_1"
  bottom: "label_data_1_split_1"
  top: "loss"
}
I1226 15:00:03.679421 88452 net.cpp:136] Initializing net from parameters: 
name: "AlexNet"
state {
  phase: TRAIN
  level: 0
  stage: ""
}
engine: "MKL2017"
layer {
  name: "data"
  type: "DummyData"
  top: "data"
  top: "label"
  include {
    phase: TRAIN
  }
  transform_param {
    mirror: true
    crop_size: 227
    mean_value: 104
    mean_value: 117
    mean_value: 123
  }
  dummy_data_param {
    data_filler {
      type: "gaussian"
      std: 1
    }
    data_filler {
      type: "constant"
      value: 0
    }
    shape {
      dim: 64
      dim: 3
      dim: 227
      dim: 227
    }
    shape {
      dim: 64
      dim: 1
      dim: 1
      dim: 1
    }
  }
}
layer {
  name: "label_data_1_split"
  type: "Split"
  bottom: "label"
  top: "label_data_1_split_0"
  top: "label_data_1_split_1"
}
layer {
  name: "conv1"
  type: "Convolution"
  bottom: "data"
  top: "conv1"
  param {
    lr_mult: 1
    decay_mult: 1
  }
  param {
    lr_mult: 2
    decay_mult: 0
  }
  convolution_param {
    num_output: 96
    kernel_size: 11
    stride: 4
    weight_filler {
      type: "gaussian"
      std: 0.01
    }
    bias_filler {
      type: "constant"
      value: 0
    }
    engine: MKL2017
  }
}
layer {
  name: "relu1"
  type: "ReLU"
  bottom: "conv1"
  top: "conv1"
  relu_param {
    engine: MKL2017
  }
}
layer {
  name: "norm1"
  type: "LRN"
  bottom: "conv1"
  top: "norm1"
  lrn_param {
    local_size: 5
    alpha: 0.0001
    beta: 0.75
    engine: MKL2017
  }
}
layer {
  name: "pool1"
  type: "Pooling"
  bottom: "norm1"
  top: "pool1"
  pooling_param {
    pool: MAX
    kernel_size: 3
    stride: 2
    engine: MKL2017
  }
}
layer {
  name: "conv2"
  type: "Convolution"
  bottom: "pool1"
  top: "conv2"
  param {
    lr_mult: 1
    decay_mult: 1
  }
  param {
    lr_mult: 2
    decay_mult: 0
  }
  convolution_param {
    num_output: 256
    pad: 2
    kernel_size: 5
    group: 2
    weight_filler {
      type: "gaussian"
      std: 0.01
    }
    bias_filler {
      type: "constant"
      value: 0.1
    }
    engine: MKL2017
  }
}
layer {
  name: "relu2"
  type: "ReLU"
  bottom: "conv2"
  top: "conv2"
  relu_param {
    engine: MKL2017
  }
}
layer {
  name: "norm2"
  type: "LRN"
  bottom: "conv2"
  top: "norm2"
  lrn_param {
    local_size: 5
    alpha: 0.0001
    beta: 0.75
    engine: MKL2017
  }
}
layer {
  name: "pool2"
  type: "Pooling"
  bottom: "norm2"
  top: "pool2"
  pooling_param {
    pool: MAX
    kernel_size: 3
    stride: 2
    engine: MKL2017
  }
}
layer {
  name: "conv3"
  type: "Convolution"
  bottom: "pool2"
  top: "conv3"
  param {
    lr_mult: 1
    decay_mult: 1
  }
  param {
    lr_mult: 2
    decay_mult: 0
  }
  convolution_param {
    num_output: 384
    pad: 1
    kernel_size: 3
    weight_filler {
      type: "gaussian"
      std: 0.01
    }
    bias_filler {
      type: "constant"
      value: 0
    }
    engine: MKL2017
  }
}
layer {
  name: "relu3"
  type: "ReLU"
  bottom: "conv3"
  top: "conv3"
  relu_param {
    engine: MKL2017
  }
}
layer {
  name: "conv4"
  type: "Convolution"
  bottom: "conv3"
  top: "conv4"
  param {
    lr_mult: 1
    decay_mult: 1
  }
  param {
    lr_mult: 2
    decay_mult: 0
  }
  convolution_param {
    num_output: 384
    pad: 1
    kernel_size: 3
    group: 2
    weight_filler {
      type: "gaussian"
      std: 0.01
    }
    bias_filler {
      type: "constant"
      value: 0.1
    }
    engine: MKL2017
  }
}
layer {
  name: "relu4"
  type: "ReLU"
  bottom: "conv4"
  top: "conv4"
  relu_param {
    engine: MKL2017
  }
}
layer {
  name: "conv5"
  type: "Convolution"
  bottom: "conv4"
  top: "conv5"
  param {
    lr_mult: 1
    decay_mult: 1
  }
  param {
    lr_mult: 2
    decay_mult: 0
  }
  convolution_param {
    num_output: 256
    pad: 1
    kernel_size: 3
    group: 2
    weight_filler {
      type: "gaussian"
      std: 0.01
    }
    bias_filler {
      type: "constant"
      value: 0.1
    }
    engine: MKL2017
  }
}
layer {
  name: "relu5"
  type: "ReLU"
  bottom: "conv5"
  top: "conv5"
  relu_param {
    engine: MKL2017
  }
}
layer {
  name: "pool5"
  type: "Pooling"
  bottom: "conv5"
  top: "pool5"
  pooling_param {
    pool: MAX
    kernel_size: 3
    stride: 2
    engine: MKL2017
  }
}
layer {
  name: "fc6"
  type: "InnerProduct"
  bottom: "pool5"
  top: "fc6"
  param {
    lr_mult: 1
    decay_mult: 1
  }
  param {
    lr_mult: 2
    decay_mult: 0
  }
  inner_product_param {
    num_output: 4096
    weight_filler {
      type: "gaussian"
      std: 0.005
    }
    bias_filler {
      type: "constant"
      value: 0.1
    }
  }
}
layer {
  name: "relu6"
  type: "ReLU"
  bottom: "fc6"
  top: "fc6"
}
layer {
  name: "drop6"
  type: "Dropout"
  bottom: "fc6"
  top: "fc6"
  dropout_param {
    dropout_ratio: 0.5
  }
}
layer {
  name: "fc7"
  type: "InnerProduct"
  bottom: "fc6"
  top: "fc7"
  param {
    lr_mult: 1
    decay_mult: 1
  }
  param {
    lr_mult: 2
    decay_mult: 0
  }
  inner_product_param {
    num_output: 4096
    weight_filler {
      type: "gaussian"
      std: 0.005
    }
    bias_filler {
      type: "constant"
      value: 0.1
    }
  }
}
layer {
  name: "relu7"
  type: "ReLU"
  bottom: "fc7"
  top: "fc7"
}
layer {
  name: "drop7"
  type: "Dropout"
  bottom: "fc7"
  top: "fc7"
  dropout_param {
    dropout_ratio: 0.5
  }
}
layer {
  name: "fc8"
  type: "InnerProduct"
  bottom: "fc7"
  top: "fc8"
  param {
    lr_mult: 1
    decay_mult: 1
  }
  param {
    lr_mult: 2
    decay_mult: 0
  }
  inner_product_param {
    num_output: 1000
    weight_filler {
      type: "gaussian"
      std: 0.01
    }
    bias_filler {
      type: "constant"
      value: 0
    }
  }
}
layer {
  name: "fc8_fc8_0_split"
  type: "Split"
  bottom: "fc8"
  top: "fc8_fc8_0_split_0"
  top: "fc8_fc8_0_split_1"
}
layer {
  name: "accuracy"
  type: "Accuracy"
  bottom: "fc8_fc8_0_split_0"
  bottom: "label_data_1_split_0"
  top: "accuracy"
}
layer {
  name: "loss"
  type: "SoftmaxWithLoss"
  bottom: "fc8_fc8_0_split_1"
  bottom: "label_data_1_split_1"
  top: "loss"
}
I1226 15:00:03.675156 85946 net.cpp:136] Initializing net from parameters: 
name: "AlexNet"
state {
  phase: TRAIN
  level: 0
  stage: ""
}
engine: "MKL2017"
layer {
  name: "data"
  type: "Data"
  top: "data"
  top: "label"
  include {
    phase: TRAIN
  }
  transform_param {
    mirror: true
    crop_size: 227
    mean_value: 104
    mean_value: 117
    mean_value: 123
  }
  data_param {
    source: "/export/data1/stanford/hazy/zjian/gorden_bell/ILSVRC2012_lmdb/db_8/ilsvrc12_train_lmdb_0"
    batch_size: 64
    backend: LMDB
  }
}
layer {
  name: "label_data_1_split"
  type: "Split"
  bottom: "label"
  top: "label_data_1_split_0"
  top: "label_data_1_split_1"
}
layer {
  name: "conv1"
  type: "Convolution"
  bottom: "data"
  top: "conv1"
  param {
    lr_mult: 1
    decay_mult: 1
  }
  param {
    lr_mult: 2
    decay_mult: 0
  }
  convolution_param {
    num_output: 96
    kernel_size: 11
    stride: 4
    weight_filler {
      type: "gaussian"
      std: 0.01
    }
    bias_filler {
      type: "constant"
      value: 0
    }
    engine: MKL2017
  }
}
layer {
  name: "relu1"
  type: "ReLU"
  bottom: "conv1"
  top: "conv1"
  relu_param {
    engine: MKL2017
  }
}
layer {
  name: "norm1"
  type: "LRN"
  bottom: "conv1"
  top: "norm1"
  lrn_param {
    local_size: 5
    alpha: 0.0001
    beta: 0.75
    engine: MKL2017
  }
}
layer {
  name: "pool1"
  type: "Pooling"
  bottom: "norm1"
  top: "pool1"
  pooling_param {
    pool: MAX
    kernel_size: 3
    stride: 2
    engine: MKL2017
  }
}
layer {
  name: "conv2"
  type: "Convolution"
  bottom: "pool1"
  top: "conv2"
  param {
    lr_mult: 1
    decay_mult: 1
  }
  param {
    lr_mult: 2
    decay_mult: 0
  }
  convolution_param {
    num_output: 256
    pad: 2
    kernel_size: 5
    group: 2
    weight_filler {
      type: "gaussian"
      std: 0.01
    }
    bias_filler {
      type: "constant"
      value: 0.1
    }
    engine: MKL2017
  }
}
layer {
  name: "relu2"
  type: "ReLU"
  bottom: "conv2"
  top: "conv2"
  relu_param {
    engine: MKL2017
  }
}
layer {
  name: "norm2"
  type: "LRN"
  bottom: "conv2"
  top: "norm2"
  lrn_param {
    local_size: 5
    alpha: 0.0001
    beta: 0.75
    engine: MKL2017
  }
}
layer {
  name: "pool2"
  type: "Pooling"
  bottom: "norm2"
  top: "pool2"
  pooling_param {
    pool: MAX
    kernel_size: 3
    stride: 2
    engine: MKL2017
  }
}
layer {
  name: "conv3"
  type: "Convolution"
  bottom: "pool2"
  top: "conv3"
  param {
    lr_mult: 1
    decay_mult: 1
  }
  param {
    lr_mult: 2
    decay_mult: 0
  }
  convolution_param {
    num_output: 384
    pad: 1
    kernel_size: 3
    weight_filler {
      type: "gaussian"
      std: 0.01
    }
    bias_filler {
      type: "constant"
      value: 0
    }
    engine: MKL2017
  }
}
layer {
  name: "relu3"
  type: "ReLU"
  bottom: "conv3"
  top: "conv3"
  relu_param {
    engine: MKL2017
  }
}
layer {
  name: "conv4"
  type: "Convolution"
  bottom: "conv3"
  top: "conv4"
  param {
    lr_mult: 1
    decay_mult: 1
  }
  param {
    lr_mult: 2
    decay_mult: 0
  }
  convolution_param {
    num_output: 384
    pad: 1
    kernel_size: 3
    group: 2
    weight_filler {
      type: "gaussian"
      std: 0.01
    }
    bias_filler {
      type: "constant"
      value: 0.1
    }
    engine: MKL2017
  }
}
layer {
  name: "relu4"
  type: "ReLU"
  bottom: "conv4"
  top: "conv4"
  relu_param {
    engine: MKL2017
  }
}
layer {
  name: "conv5"
  type: "Convolution"
  bottom: "conv4"
  top: "conv5"
  param {
    lr_mult: 1
    decay_mult: 1
  }
  param {
    lr_mult: 2
    decay_mult: 0
  }
  convolution_param {
    num_output: 256
    pad: 1
    kernel_size: 3
    group: 2
    weight_filler {
      type: "gaussian"
      std: 0.01
    }
    bias_filler {
      type: "constant"
      value: 0.1
    }
    engine: MKL2017
  }
}
layer {
  name: "relu5"
  type: "ReLU"
  bottom: "conv5"
  top: "conv5"
  relu_param {
    engine: MKL2017
  }
}
layer {
  name: "pool5"
  type: "Pooling"
  bottom: "conv5"
  top: "pool5"
  pooling_param {
    pool: MAX
    kernel_size: 3
    stride: 2
    engine: MKL2017
  }
}
layer {
  name: "fc6"
  type: "InnerProduct"
  bottom: "pool5"
  top: "fc6"
  param {
    lr_mult: 1
    decay_mult: 1
  }
  param {
    lr_mult: 2
    decay_mult: 0
  }
  inner_product_param {
    num_output: 4096
    weight_filler {
      type: "gaussian"
      std: 0.005
    }
    bias_filler {
      type: "constant"
      value: 0.1
    }
  }
}
layer {
  name: "relu6"
  type: "ReLU"
  bottom: "fc6"
  top: "fc6"
}
layer {
  name: "drop6"
  type: "Dropout"
  bottom: "fc6"
  top: "fc6"
  dropout_param {
    dropout_ratio: 0.5
  }
}
layer {
  name: "fc7"
  type: "InnerProduct"
  bottom: "fc6"
  top: "fc7"
  param {
    lr_mult: 1
    decay_mult: 1
  }
  param {
    lr_mult: 2
    decay_mult: 0
  }
  inner_product_param {
    num_output: 4096
    weight_filler {
      type: "gaussian"
      std: 0.005
    }
    bias_filler {
      type: "constant"
      value: 0.1
    }
  }
}
layer {
  name: "relu7"
  type: "ReLU"
  bottom: "fc7"
  top: "fc7"
}
layer {
  name: "drop7"
  type: "Dropout"
  bottom: "fc7"
  top: "fc7"
  dropout_param {
    dropout_ratio: 0.5
  }
}
layer {
  name: "fc8"
  type: "InnerProduct"
  bottom: "fc7"
  top: "fc8"
  param {
    lr_mult: 1
    decay_mult: 1
  }
  param {
    lr_mult: 2
    decay_mult: 0
  }
  inner_product_param {
    num_output: 1000
    weight_filler {
      type: "gaussian"
      std: 0.01
    }
    bias_filler {
      type: "constant"
      value: 0
    }
  }
}
layer {
  name: "fc8_fc8_0_split"
  type: "Split"
  bottom: "fc8"
  top: "fc8_fc8_0_split_0"
  top: "fc8_fc8_0_split_1"
}
layer {
  name: "accuracy"
  type: "Accuracy"
  bottom: "fc8_fc8_0_split_0"
  bottom: "label_data_1_split_0"
  top: "accuracy"
}
layer {
  name: "loss"
  type: "SoftmaxWithLoss"
  bottom: "fc8_fc8_0_split_1"
  bottom: "label_data_1_split_1"
  top: "loss"
}
I1226 15:00:03.666137 90550 cpu_info.cpp:473] Number of OpenMP threads: 66
I1226 15:00:03.675371 85946 layer_factory.hpp:114] Creating layer data
I1226 15:00:03.666522 90550 net.cpp:500] The NetState phase (0) differed from the phase (1) specified by a rule in layer data
I1226 15:00:03.673281 91209 net.cpp:136] Initializing net from parameters: 
name: "AlexNet"
state {
  phase: TRAIN
  level: 0
  stage: ""
}
engine: "MKL2017"
layer {
  name: "data"
  type: "Data"
  top: "data"
  top: "label"
  include {
    phase: TRAIN
  }
  transform_param {
    mirror: true
    crop_size: 227
    mean_value: 104
    mean_value: 117
    mean_value: 123
  }
  data_param {
    source: "/export/data1/stanford/hazy/zjian/gorden_bell/ILSVRC2012_lmdb/db_8/ilsvrc12_train_lmdb_5"
    batch_size: 64
    backend: LMDB
  }
}
layer {
  name: "label_data_1_split"
  type: "Split"
  bottom: "label"
  top: "label_data_1_split_0"
  top: "label_data_1_split_1"
}
layer {
  name: "conv1"
  type: "Convolution"
  bottom: "data"
  top: "conv1"
  param {
    lr_mult: 1
    decay_mult: 1
  }
  param {
    lr_mult: 2
    decay_mult: 0
  }
  convolution_param {
    num_output: 96
    kernel_size: 11
    stride: 4
    weight_filler {
      type: "gaussian"
      std: 0.01
    }
    bias_filler {
      type: "constant"
      value: 0
    }
    engine: MKL2017
  }
}
layer {
  name: "relu1"
  type: "ReLU"
  bottom: "conv1"
  top: "conv1"
  relu_param {
    engine: MKL2017
  }
}
layer {
  name: "norm1"
  type: "LRN"
  bottom: "conv1"
  top: "norm1"
  lrn_param {
    local_size: 5
    alpha: 0.0001
    beta: 0.75
    engine: MKL2017
  }
}
layer {
  name: "pool1"
  type: "Pooling"
  bottom: "norm1"
  top: "pool1"
  pooling_param {
    pool: MAX
    kernel_size: 3
    stride: 2
    engine: MKL2017
  }
}
layer {
  name: "conv2"
  type: "Convolution"
  bottom: "pool1"
  top: "conv2"
  param {
    lr_mult: 1
    decay_mult: 1
  }
  param {
    lr_mult: 2
    decay_mult: 0
  }
  convolution_param {
    num_output: 256
    pad: 2
    kernel_size: 5
    group: 2
    weight_filler {
      type: "gaussian"
      std: 0.01
    }
    bias_filler {
      type: "constant"
      value: 0.1
    }
    engine: MKL2017
  }
}
layer {
  name: "relu2"
  type: "ReLU"
  bottom: "conv2"
  top: "conv2"
  relu_param {
    engine: MKL2017
  }
}
layer {
  name: "norm2"
  type: "LRN"
  bottom: "conv2"
  top: "norm2"
  lrn_param {
    local_size: 5
    alpha: 0.0001
    beta: 0.75
    engine: MKL2017
  }
}
layer {
  name: "pool2"
  type: "Pooling"
  bottom: "norm2"
  top: "pool2"
  pooling_param {
    pool: MAX
    kernel_size: 3
    stride: 2
    engine: MKL2017
  }
}
layer {
  name: "conv3"
  type: "Convolution"
  bottom: "pool2"
  top: "conv3"
  param {
    lr_mult: 1
    decay_mult: 1
  }
  param {
    lr_mult: 2
    decay_mult: 0
  }
  convolution_param {
    num_output: 384
    pad: 1
    kernel_size: 3
    weight_filler {
      type: "gaussian"
      std: 0.01
    }
    bias_filler {
      type: "constant"
      value: 0
    }
    engine: MKL2017
  }
}
layer {
  name: "relu3"
  type: "ReLU"
  bottom: "conv3"
  top: "conv3"
  relu_param {
    engine: MKL2017
  }
}
layer {
  name: "conv4"
  type: "Convolution"
  bottom: "conv3"
  top: "conv4"
  param {
    lr_mult: 1
    decay_mult: 1
  }
  param {
    lr_mult: 2
    decay_mult: 0
  }
  convolution_param {
    num_output: 384
    pad: 1
    kernel_size: 3
    group: 2
    weight_filler {
      type: "gaussian"
      std: 0.01
    }
    bias_filler {
      type: "constant"
      value: 0.1
    }
    engine: MKL2017
  }
}
layer {
  name: "relu4"
  type: "ReLU"
  bottom: "conv4"
  top: "conv4"
  relu_param {
    engine: MKL2017
  }
}
layer {
  name: "conv5"
  type: "Convolution"
  bottom: "conv4"
  top: "conv5"
  param {
    lr_mult: 1
    decay_mult: 1
  }
  param {
    lr_mult: 2
    decay_mult: 0
  }
  convolution_param {
    num_output: 256
    pad: 1
    kernel_size: 3
    group: 2
    weight_filler {
      type: "gaussian"
      std: 0.01
    }
    bias_filler {
      type: "constant"
      value: 0.1
    }
    engine: MKL2017
  }
}
layer {
  name: "relu5"
  type: "ReLU"
  bottom: "conv5"
  top: "conv5"
  relu_param {
    engine: MKL2017
  }
}
layer {
  name: "pool5"
  type: "Pooling"
  bottom: "conv5"
  top: "pool5"
  pooling_param {
    pool: MAX
    kernel_size: 3
    stride: 2
    engine: MKL2017
  }
}
layer {
  name: "fc6"
  type: "InnerProduct"
  bottom: "pool5"
  top: "fc6"
  param {
    lr_mult: 1
    decay_mult: 1
  }
  param {
    lr_mult: 2
    decay_mult: 0
  }
  inner_product_param {
    num_output: 4096
    weight_filler {
      type: "gaussian"
      std: 0.005
    }
    bias_filler {
      type: "constant"
      value: 0.1
    }
  }
}
layer {
  name: "relu6"
  type: "ReLU"
  bottom: "fc6"
  top: "fc6"
}
layer {
  name: "drop6"
  type: "Dropout"
  bottom: "fc6"
  top: "fc6"
  dropout_param {
    dropout_ratio: 0.5
  }
}
layer {
  name: "fc7"
  type: "InnerProduct"
  bottom: "fc6"
  top: "fc7"
  param {
    lr_mult: 1
    decay_mult: 1
  }
  param {
    lr_mult: 2
    decay_mult: 0
  }
  inner_product_param {
    num_output: 4096
    weight_filler {
      type: "gaussian"
      std: 0.005
    }
    bias_filler {
      type: "constant"
      value: 0.1
    }
  }
}
layer {
  name: "relu7"
  type: "ReLU"
  bottom: "fc7"
  top: "fc7"
}
layer {
  name: "drop7"
  type: "Dropout"
  bottom: "fc7"
  top: "fc7"
  dropout_param {
    dropout_ratio: 0.5
  }
}
layer {
  name: "fc8"
  type: "InnerProduct"
  bottom: "fc7"
  top: "fc8"
  param {
    lr_mult: 1
    decay_mult: 1
  }
  param {
    lr_mult: 2
    decay_mult: 0
  }
  inner_product_param {
    num_output: 1000
    weight_filler {
      type: "gaussian"
      std: 0.01
    }
    bias_filler {
      type: "constant"
      value: 0
    }
  }
}
layer {
  name: "fc8_fc8_0_split"
  type: "Split"
  bottom: "fc8"
  top: "fc8_fc8_0_split_0"
  top: "fc8_fc8_0_split_1"
}
layer {
  name: "accuracy"
  type: "Accuracy"
  bottom: "fc8_fc8_0_split_0"
  bottom: "label_data_1_split_0"
  top: "accuracy"
}
layer {
  name: "loss"
  type: "SoftmaxWithLoss"
  bottom: "fc8_fc8_0_split_1"
  bottom: "label_data_1_split_1"
  top: "loss"
}
I1226 15:00:03.677801 85946 net.cpp:178] Creating Layer data
I1226 15:00:03.677883 85946 net.cpp:586] data -> data
I1226 15:00:03.668845 90550 net.cpp:136] Initializing net from parameters: 
name: "AlexNet"
state {
  phase: TRAIN
  level: 0
  stage: ""
}
engine: "MKL2017"
layer {
  name: "data"
  type: "Data"
  top: "data"
  top: "label"
  include {
    phase: TRAIN
  }
  transform_param {
    mirror: true
    crop_size: 227
    mean_value: 104
    mean_value: 117
    mean_value: 123
  }
  data_param {
    source: "/export/data1/stanford/hazy/zjian/gorden_bell/ILSVRC2012_lmdb/db_8/ilsvrc12_train_lmdb_7"
    batch_size: 64
    backend: LMDB
  }
}
layer {
  name: "label_data_1_split"
  type: "Split"
  bottom: "label"
  top: "label_data_1_split_0"
  top: "label_data_1_split_1"
}
layer {
  name: "conv1"
  type: "Convolution"
  bottom: "data"
  top: "conv1"
  param {
    lr_mult: 1
    decay_mult: 1
  }
  param {
    lr_mult: 2
    decay_mult: 0
  }
  convolution_param {
    num_output: 96
    kernel_size: 11
    stride: 4
    weight_filler {
      type: "gaussian"
      std: 0.01
    }
    bias_filler {
      type: "constant"
      value: 0
    }
    engine: MKL2017
  }
}
layer {
  name: "relu1"
  type: "ReLU"
  bottom: "conv1"
  top: "conv1"
  relu_param {
    engine: MKL2017
  }
}
layer {
  name: "norm1"
  type: "LRN"
  bottom: "conv1"
  top: "norm1"
  lrn_param {
    local_size: 5
    alpha: 0.0001
    beta: 0.75
    engine: MKL2017
  }
}
layer {
  name: "pool1"
  type: "Pooling"
  bottom: "norm1"
  top: "pool1"
  pooling_param {
    pool: MAX
    kernel_size: 3
    stride: 2
    engine: MKL2017
  }
}
layer {
  name: "conv2"
  type: "Convolution"
  bottom: "pool1"
  top: "conv2"
  param {
    lr_mult: 1
    decay_mult: 1
  }
  param {
    lr_mult: 2
    decay_mult: 0
  }
  convolution_param {
    num_output: 256
    pad: 2
    kernel_size: 5
    group: 2
    weight_filler {
      type: "gaussian"
      std: 0.01
    }
    bias_filler {
      type: "constant"
      value: 0.1
    }
    engine: MKL2017
  }
}
layer {
  name: "relu2"
  type: "ReLU"
  bottom: "conv2"
  top: "conv2"
  relu_param {
    engine: MKL2017
  }
}
layer {
  name: "norm2"
  type: "LRN"
  bottom: "conv2"
  top: "norm2"
  lrn_param {
    local_size: 5
    alpha: 0.0001
    beta: 0.75
    engine: MKL2017
  }
}
layer {
  name: "pool2"
  type: "Pooling"
  bottom: "norm2"
  top: "pool2"
  pooling_param {
    pool: MAX
    kernel_size: 3
    stride: 2
    engine: MKL2017
  }
}
layer {
  name: "conv3"
  type: "Convolution"
  bottom: "pool2"
  top: "conv3"
  param {
    lr_mult: 1
    decay_mult: 1
  }
  param {
    lr_mult: 2
    decay_mult: 0
  }
  convolution_param {
    num_output: 384
    pad: 1
    kernel_size: 3
    weight_filler {
      type: "gaussian"
      std: 0.01
    }
    bias_filler {
      type: "constant"
      value: 0
    }
    engine: MKL2017
  }
}
layer {
  name: "relu3"
  type: "ReLU"
  bottom: "conv3"
  top: "conv3"
  relu_param {
    engine: MKL2017
  }
}
layer {
  name: "conv4"
  type: "Convolution"
  bottom: "conv3"
  top: "conv4"
  param {
    lr_mult: 1
    decay_mult: 1
  }
  param {
    lr_mult: 2
    decay_mult: 0
  }
  convolution_param {
    num_output: 384
    pad: 1
    kernel_size: 3
    group: 2
    weight_filler {
      type: "gaussian"
      std: 0.01
    }
    bias_filler {
      type: "constant"
      value: 0.1
    }
    engine: MKL2017
  }
}
layer {
  name: "relu4"
  type: "ReLU"
  bottom: "conv4"
  top: "conv4"
  relu_param {
    engine: MKL2017
  }
}
layer {
  name: "conv5"
  type: "Convolution"
  bottom: "conv4"
  top: "conv5"
  param {
    lr_mult: 1
    decay_mult: 1
  }
  param {
    lr_mult: 2
    decay_mult: 0
  }
  convolution_param {
    num_output: 256
    pad: 1
    kernel_size: 3
    group: 2
    weight_filler {
      type: "gaussian"
      std: 0.01
    }
    bias_filler {
      type: "constant"
      value: 0.1
    }
    engine: MKL2017
  }
}
layer {
  name: "relu5"
  type: "ReLU"
  bottom: "conv5"
  top: "conv5"
  relu_param {
    engine: MKL2017
  }
}
layer {
  name: "pool5"
  type: "Pooling"
  bottom: "conv5"
  top: "pool5"
  pooling_param {
    pool: MAX
    kernel_size: 3
    stride: 2
    engine: MKL2017
  }
}
layer {
  name: "fc6"
  type: "InnerProduct"
  bottom: "pool5"
  top: "fc6"
  param {
    lr_mult: 1
    decay_mult: 1
  }
  param {
    lr_mult: 2
    decay_mult: 0
  }
  inner_product_param {
    num_output: 4096
    weight_filler {
      type: "gaussian"
      std: 0.005
    }
    bias_filler {
      type: "constant"
      value: 0.1
    }
  }
}
layer {
  name: "relu6"
  type: "ReLU"
  bottom: "fc6"
  top: "fc6"
}
layer {
  name: "drop6"
  type: "Dropout"
  bottom: "fc6"
  top: "fc6"
  dropout_param {
    dropout_ratio: 0.5
  }
}
layer {
  name: "fc7"
  type: "InnerProduct"
  bottom: "fc6"
  top: "fc7"
  param {
    lr_mult: 1
    decay_mult: 1
  }
  param {
    lr_mult: 2
    decay_mult: 0
  }
  inner_product_param {
    num_output: 4096
    weight_filler {
      type: "gaussian"
      std: 0.005
    }
    bias_filler {
      type: "constant"
      value: 0.1
    }
  }
}
layer {
  name: "relu7"
  type: "ReLU"
  bottom: "fc7"
  top: "fc7"
}
layer {
  name: "drop7"
  type: "Dropout"
  bottom: "fc7"
  top: "fc7"
  dropout_param {
    dropout_ratio: 0.5
  }
}
layer {
  name: "fc8"
  type: "InnerProduct"
  bottom: "fc7"
  top: "fc8"
  param {
    lr_mult: 1
    decay_mult: 1
  }
  param {
    lr_mult: 2
    decay_mult: 0
  }
  inner_product_param {
    num_output: 1000
    weight_filler {
      type: "gaussian"
      std: 0.01
    }
    bias_filler {
      type: "constant"
      value: 0
    }
  }
}
layer {
  name: "fc8_fc8_0_split"
  type: "Split"
  bottom: "fc8"
  top: "fc8_fc8_0_split_0"
  top: "fc8_fc8_0_split_1"
}
layer {
  name: "accuracy"
  type: "Accuracy"
  bottom: "fc8_fc8_0_split_0"
  bottom: "label_data_1_split_0"
  top: "accuracy"
}
layer {
  name: "loss"
  type: "SoftmaxWithLoss"
  bottom: "fc8_fc8_0_split_1"
  bottom: "label_data_1_split_1"
  top: "loss"
}
I1226 15:00:03.677958 85946 net.cpp:586] data -> label
I1226 15:00:03.681891 92959 cpu_info.cpp:473] Number of OpenMP threads: 66
I1226 15:00:03.682268 92959 net.cpp:500] The NetState phase (0) differed from the phase (1) specified by a rule in layer data
I1226 15:00:03.685001 90464 cpu_info.cpp:473] Number of OpenMP threads: 66
I1226 15:00:03.685292 90464 net.cpp:500] The NetState phase (0) differed from the phase (1) specified by a rule in layer data
I1226 15:00:03.684373 92959 net.cpp:136] Initializing net from parameters: 
name: "AlexNet"
state {
  phase: TRAIN
  level: 0
  stage: ""
}
engine: "MKL2017"
layer {
  name: "data"
  type: "Data"
  top: "data"
  top: "label"
  include {
    phase: TRAIN
  }
  transform_param {
    mirror: true
    crop_size: 227
    mean_value: 104
    mean_value: 117
    mean_value: 123
  }
  data_param {
    source: "/export/data1/stanford/hazy/zjian/gorden_bell/ILSVRC2012_lmdb/db_8/ilsvrc12_train_lmdb_6"
    batch_size: 64
    backend: LMDB
  }
}
layer {
  name: "label_data_1_split"
  type: "Split"
  bottom: "label"
  top: "label_data_1_split_0"
  top: "label_data_1_split_1"
}
layer {
  name: "conv1"
  type: "Convolution"
  bottom: "data"
  top: "conv1"
  param {
    lr_mult: 1
    decay_mult: 1
  }
  param {
    lr_mult: 2
    decay_mult: 0
  }
  convolution_param {
    num_output: 96
    kernel_size: 11
    stride: 4
    weight_filler {
      type: "gaussian"
      std: 0.01
    }
    bias_filler {
      type: "constant"
      value: 0
    }
    engine: MKL2017
  }
}
layer {
  name: "relu1"
  type: "ReLU"
  bottom: "conv1"
  top: "conv1"
  relu_param {
    engine: MKL2017
  }
}
layer {
  name: "norm1"
  type: "LRN"
  bottom: "conv1"
  top: "norm1"
  lrn_param {
    local_size: 5
    alpha: 0.0001
    beta: 0.75
    engine: MKL2017
  }
}
layer {
  name: "pool1"
  type: "Pooling"
  bottom: "norm1"
  top: "pool1"
  pooling_param {
    pool: MAX
    kernel_size: 3
    stride: 2
    engine: MKL2017
  }
}
layer {
  name: "conv2"
  type: "Convolution"
  bottom: "pool1"
  top: "conv2"
  param {
    lr_mult: 1
    decay_mult: 1
  }
  param {
    lr_mult: 2
    decay_mult: 0
  }
  convolution_param {
    num_output: 256
    pad: 2
    kernel_size: 5
    group: 2
    weight_filler {
      type: "gaussian"
      std: 0.01
    }
    bias_filler {
      type: "constant"
      value: 0.1
    }
    engine: MKL2017
  }
}
layer {
  name: "relu2"
  type: "ReLU"
  bottom: "conv2"
  top: "conv2"
  relu_param {
    engine: MKL2017
  }
}
layer {
  name: "norm2"
  type: "LRN"
  bottom: "conv2"
  top: "norm2"
  lrn_param {
    local_size: 5
    alpha: 0.0001
    beta: 0.75
    engine: MKL2017
  }
}
layer {
  name: "pool2"
  type: "Pooling"
  bottom: "norm2"
  top: "pool2"
  pooling_param {
    pool: MAX
    kernel_size: 3
    stride: 2
    engine: MKL2017
  }
}
layer {
  name: "conv3"
  type: "Convolution"
  bottom: "pool2"
  top: "conv3"
  param {
    lr_mult: 1
    decay_mult: 1
  }
  param {
    lr_mult: 2
    decay_mult: 0
  }
  convolution_param {
    num_output: 384
    pad: 1
    kernel_size: 3
    weight_filler {
      type: "gaussian"
      std: 0.01
    }
    bias_filler {
      type: "constant"
      value: 0
    }
    engine: MKL2017
  }
}
layer {
  name: "relu3"
  type: "ReLU"
  bottom: "conv3"
  top: "conv3"
  relu_param {
    engine: MKL2017
  }
}
layer {
  name: "conv4"
  type: "Convolution"
  bottom: "conv3"
  top: "conv4"
  param {
    lr_mult: 1
    decay_mult: 1
  }
  param {
    lr_mult: 2
    decay_mult: 0
  }
  convolution_param {
    num_output: 384
    pad: 1
    kernel_size: 3
    group: 2
    weight_filler {
      type: "gaussian"
      std: 0.01
    }
    bias_filler {
      type: "constant"
      value: 0.1
    }
    engine: MKL2017
  }
}
layer {
  name: "relu4"
  type: "ReLU"
  bottom: "conv4"
  top: "conv4"
  relu_param {
    engine: MKL2017
  }
}
layer {
  name: "conv5"
  type: "Convolution"
  bottom: "conv4"
  top: "conv5"
  param {
    lr_mult: 1
    decay_mult: 1
  }
  param {
    lr_mult: 2
    decay_mult: 0
  }
  convolution_param {
    num_output: 256
    pad: 1
    kernel_size: 3
    group: 2
    weight_filler {
      type: "gaussian"
      std: 0.01
    }
    bias_filler {
      type: "constant"
      value: 0.1
    }
    engine: MKL2017
  }
}
layer {
  name: "relu5"
  type: "ReLU"
  bottom: "conv5"
  top: "conv5"
  relu_param {
    engine: MKL2017
  }
}
layer {
  name: "pool5"
  type: "Pooling"
  bottom: "conv5"
  top: "pool5"
  pooling_param {
    pool: MAX
    kernel_size: 3
    stride: 2
    engine: MKL2017
  }
}
layer {
  name: "fc6"
  type: "InnerProduct"
  bottom: "pool5"
  top: "fc6"
  param {
    lr_mult: 1
    decay_mult: 1
  }
  param {
    lr_mult: 2
    decay_mult: 0
  }
  inner_product_param {
    num_output: 4096
    weight_filler {
      type: "gaussian"
      std: 0.005
    }
    bias_filler {
      type: "constant"
      value: 0.1
    }
  }
}
layer {
  name: "relu6"
  type: "ReLU"
  bottom: "fc6"
  top: "fc6"
}
layer {
  name: "drop6"
  type: "Dropout"
  bottom: "fc6"
  top: "fc6"
  dropout_param {
    dropout_ratio: 0.5
  }
}
layer {
  name: "fc7"
  type: "InnerProduct"
  bottom: "fc6"
  top: "fc7"
  param {
    lr_mult: 1
    decay_mult: 1
  }
  param {
    lr_mult: 2
    decay_mult: 0
  }
  inner_product_param {
    num_output: 4096
    weight_filler {
      type: "gaussian"
      std: 0.005
    }
    bias_filler {
      type: "constant"
      value: 0.1
    }
  }
}
layer {
  name: "relu7"
  type: "ReLU"
  bottom: "fc7"
  top: "fc7"
}
layer {
  name: "drop7"
  type: "Dropout"
  bottom: "fc7"
  top: "fc7"
  dropout_param {
    dropout_ratio: 0.5
  }
}
layer {
  name: "fc8"
  type: "InnerProduct"
  bottom: "fc7"
  top: "fc8"
  param {
    lr_mult: 1
    decay_mult: 1
  }
  param {
    lr_mult: 2
    decay_mult: 0
  }
  inner_product_param {
    num_output: 1000
    weight_filler {
      type: "gaussian"
      std: 0.01
    }
    bias_filler {
      type: "constant"
      value: 0
    }
  }
}
layer {
  name: "fc8_fc8_0_split"
  type: "Split"
  bottom: "fc8"
  top: "fc8_fc8_0_split_0"
  top: "fc8_fc8_0_split_1"
}
layer {
  name: "accuracy"
  type: "Accuracy"
  bottom: "fc8_fc8_0_split_0"
  bottom: "label_data_1_split_0"
  top: "accuracy"
}
layer {
  name: "loss"
  type: "SoftmaxWithLoss"
  bottom: "fc8_fc8_0_split_1"
  bottom: "label_data_1_split_1"
  top: "loss"
}
I1226 15:00:03.686985 90464 net.cpp:136] Initializing net from parameters: 
name: "AlexNet"
state {
  phase: TRAIN
  level: 0
  stage: ""
}
engine: "MKL2017"
layer {
  name: "data"
  type: "Data"
  top: "data"
  top: "label"
  include {
    phase: TRAIN
  }
  transform_param {
    mirror: true
    crop_size: 227
    mean_value: 104
    mean_value: 117
    mean_value: 123
  }
  data_param {
    source: "/export/data1/stanford/hazy/zjian/gorden_bell/ILSVRC2012_lmdb/db_8/ilsvrc12_train_lmdb_1"
    batch_size: 64
    backend: LMDB
  }
}
layer {
  name: "label_data_1_split"
  type: "Split"
  bottom: "label"
  top: "label_data_1_split_0"
  top: "label_data_1_split_1"
}
layer {
  name: "conv1"
  type: "Convolution"
  bottom: "data"
  top: "conv1"
  param {
    lr_mult: 1
    decay_mult: 1
  }
  param {
    lr_mult: 2
    decay_mult: 0
  }
  convolution_param {
    num_output: 96
    kernel_size: 11
    stride: 4
    weight_filler {
      type: "gaussian"
      std: 0.01
    }
    bias_filler {
      type: "constant"
      value: 0
    }
    engine: MKL2017
  }
}
layer {
  name: "relu1"
  type: "ReLU"
  bottom: "conv1"
  top: "conv1"
  relu_param {
    engine: MKL2017
  }
}
layer {
  name: "norm1"
  type: "LRN"
  bottom: "conv1"
  top: "norm1"
  lrn_param {
    local_size: 5
    alpha: 0.0001
    beta: 0.75
    engine: MKL2017
  }
}
layer {
  name: "pool1"
  type: "Pooling"
  bottom: "norm1"
  top: "pool1"
  pooling_param {
    pool: MAX
    kernel_size: 3
    stride: 2
    engine: MKL2017
  }
}
layer {
  name: "conv2"
  type: "Convolution"
  bottom: "pool1"
  top: "conv2"
  param {
    lr_mult: 1
    decay_mult: 1
  }
  param {
    lr_mult: 2
    decay_mult: 0
  }
  convolution_param {
    num_output: 256
    pad: 2
    kernel_size: 5
    group: 2
    weight_filler {
      type: "gaussian"
      std: 0.01
    }
    bias_filler {
      type: "constant"
      value: 0.1
    }
    engine: MKL2017
  }
}
layer {
  name: "relu2"
  type: "ReLU"
  bottom: "conv2"
  top: "conv2"
  relu_param {
    engine: MKL2017
  }
}
layer {
  name: "norm2"
  type: "LRN"
  bottom: "conv2"
  top: "norm2"
  lrn_param {
    local_size: 5
    alpha: 0.0001
    beta: 0.75
    engine: MKL2017
  }
}
layer {
  name: "pool2"
  type: "Pooling"
  bottom: "norm2"
  top: "pool2"
  pooling_param {
    pool: MAX
    kernel_size: 3
    stride: 2
    engine: MKL2017
  }
}
layer {
  name: "conv3"
  type: "Convolution"
  bottom: "pool2"
  top: "conv3"
  param {
    lr_mult: 1
    decay_mult: 1
  }
  param {
    lr_mult: 2
    decay_mult: 0
  }
  convolution_param {
    num_output: 384
    pad: 1
    kernel_size: 3
    weight_filler {
      type: "gaussian"
      std: 0.01
    }
    bias_filler {
      type: "constant"
      value: 0
    }
    engine: MKL2017
  }
}
layer {
  name: "relu3"
  type: "ReLU"
  bottom: "conv3"
  top: "conv3"
  relu_param {
    engine: MKL2017
  }
}
layer {
  name: "conv4"
  type: "Convolution"
  bottom: "conv3"
  top: "conv4"
  param {
    lr_mult: 1
    decay_mult: 1
  }
  param {
    lr_mult: 2
    decay_mult: 0
  }
  convolution_param {
    num_output: 384
    pad: 1
    kernel_size: 3
    group: 2
    weight_filler {
      type: "gaussian"
      std: 0.01
    }
    bias_filler {
      type: "constant"
      value: 0.1
    }
    engine: MKL2017
  }
}
layer {
  name: "relu4"
  type: "ReLU"
  bottom: "conv4"
  top: "conv4"
  relu_param {
    engine: MKL2017
  }
}
layer {
  name: "conv5"
  type: "Convolution"
  bottom: "conv4"
  top: "conv5"
  param {
    lr_mult: 1
    decay_mult: 1
  }
  param {
    lr_mult: 2
    decay_mult: 0
  }
  convolution_param {
    num_output: 256
    pad: 1
    kernel_size: 3
    group: 2
    weight_filler {
      type: "gaussian"
      std: 0.01
    }
    bias_filler {
      type: "constant"
      value: 0.1
    }
    engine: MKL2017
  }
}
layer {
  name: "relu5"
  type: "ReLU"
  bottom: "conv5"
  top: "conv5"
  relu_param {
    engine: MKL2017
  }
}
layer {
  name: "pool5"
  type: "Pooling"
  bottom: "conv5"
  top: "pool5"
  pooling_param {
    pool: MAX
    kernel_size: 3
    stride: 2
    engine: MKL2017
  }
}
layer {
  name: "fc6"
  type: "InnerProduct"
  bottom: "pool5"
  top: "fc6"
  param {
    lr_mult: 1
    decay_mult: 1
  }
  param {
    lr_mult: 2
    decay_mult: 0
  }
  inner_product_param {
    num_output: 4096
    weight_filler {
      type: "gaussian"
      std: 0.005
    }
    bias_filler {
      type: "constant"
      value: 0.1
    }
  }
}
layer {
  name: "relu6"
  type: "ReLU"
  bottom: "fc6"
  top: "fc6"
}
layer {
  name: "drop6"
  type: "Dropout"
  bottom: "fc6"
  top: "fc6"
  dropout_param {
    dropout_ratio: 0.5
  }
}
layer {
  name: "fc7"
  type: "InnerProduct"
  bottom: "fc6"
  top: "fc7"
  param {
    lr_mult: 1
    decay_mult: 1
  }
  param {
    lr_mult: 2
    decay_mult: 0
  }
  inner_product_param {
    num_output: 4096
    weight_filler {
      type: "gaussian"
      std: 0.005
    }
    bias_filler {
      type: "constant"
      value: 0.1
    }
  }
}
layer {
  name: "relu7"
  type: "ReLU"
  bottom: "fc7"
  top: "fc7"
}
layer {
  name: "drop7"
  type: "Dropout"
  bottom: "fc7"
  top: "fc7"
  dropout_param {
    dropout_ratio: 0.5
  }
}
layer {
  name: "fc8"
  type: "InnerProduct"
  bottom: "fc7"
  top: "fc8"
  param {
    lr_mult: 1
    decay_mult: 1
  }
  param {
    lr_mult: 2
    decay_mult: 0
  }
  inner_product_param {
    num_output: 1000
    weight_filler {
      type: "gaussian"
      std: 0.01
    }
    bias_filler {
      type: "constant"
      value: 0
    }
  }
}
layer {
  name: "fc8_fc8_0_split"
  type: "Split"
  bottom: "fc8"
  top: "fc8_fc8_0_split_0"
  top: "fc8_fc8_0_split_1"
}
layer {
  name: "accuracy"
  type: "Accuracy"
  bottom: "fc8_fc8_0_split_0"
  bottom: "label_data_1_split_0"
  top: "accuracy"
}
layer {
  name: "loss"
  type: "SoftmaxWithLoss"
  bottom: "fc8_fc8_0_split_1"
  bottom: "label_data_1_split_1"
  top: "loss"
}
I1226 15:00:03.689160 92949 cpu_info.cpp:473] Number of OpenMP threads: 66
I1226 15:00:03.689460 92949 net.cpp:500] The NetState phase (0) differed from the phase (1) specified by a rule in layer data
I1226 15:00:03.691054 92949 net.cpp:136] Initializing net from parameters: 
name: "AlexNet"
state {
  phase: TRAIN
  level: 0
  stage: ""
}
engine: "MKL2017"
layer {
  name: "data"
  type: "Data"
  top: "data"
  top: "label"
  include {
    phase: TRAIN
  }
  transform_param {
    mirror: true
    crop_size: 227
    mean_value: 104
    mean_value: 117
    mean_value: 123
  }
  data_param {
    source: "/export/data1/stanford/hazy/zjian/gorden_bell/ILSVRC2012_lmdb/db_8/ilsvrc12_train_lmdb_3"
    batch_size: 64
    backend: LMDB
  }
}
layer {
  name: "label_data_1_split"
  type: "Split"
  bottom: "label"
  top: "label_data_1_split_0"
  top: "label_data_1_split_1"
}
layer {
  name: "conv1"
  type: "Convolution"
  bottom: "data"
  top: "conv1"
  param {
    lr_mult: 1
    decay_mult: 1
  }
  param {
    lr_mult: 2
    decay_mult: 0
  }
  convolution_param {
    num_output: 96
    kernel_size: 11
    stride: 4
    weight_filler {
      type: "gaussian"
      std: 0.01
    }
    bias_filler {
      type: "constant"
      value: 0
    }
    engine: MKL2017
  }
}
layer {
  name: "relu1"
  type: "ReLU"
  bottom: "conv1"
  top: "conv1"
  relu_param {
    engine: MKL2017
  }
}
layer {
  name: "norm1"
  type: "LRN"
  bottom: "conv1"
  top: "norm1"
  lrn_param {
    local_size: 5
    alpha: 0.0001
    beta: 0.75
    engine: MKL2017
  }
}
layer {
  name: "pool1"
  type: "Pooling"
  bottom: "norm1"
  top: "pool1"
  pooling_param {
    pool: MAX
    kernel_size: 3
    stride: 2
    engine: MKL2017
  }
}
layer {
  name: "conv2"
  type: "Convolution"
  bottom: "pool1"
  top: "conv2"
  param {
    lr_mult: 1
    decay_mult: 1
  }
  param {
    lr_mult: 2
    decay_mult: 0
  }
  convolution_param {
    num_output: 256
    pad: 2
    kernel_size: 5
    group: 2
    weight_filler {
      type: "gaussian"
      std: 0.01
    }
    bias_filler {
      type: "constant"
      value: 0.1
    }
    engine: MKL2017
  }
}
layer {
  name: "relu2"
  type: "ReLU"
  bottom: "conv2"
  top: "conv2"
  relu_param {
    engine: MKL2017
  }
}
layer {
  name: "norm2"
  type: "LRN"
  bottom: "conv2"
  top: "norm2"
  lrn_param {
    local_size: 5
    alpha: 0.0001
    beta: 0.75
    engine: MKL2017
  }
}
layer {
  name: "pool2"
  type: "Pooling"
  bottom: "norm2"
  top: "pool2"
  pooling_param {
    pool: MAX
    kernel_size: 3
    stride: 2
    engine: MKL2017
  }
}
layer {
  name: "conv3"
  type: "Convolution"
  bottom: "pool2"
  top: "conv3"
  param {
    lr_mult: 1
    decay_mult: 1
  }
  param {
    lr_mult: 2
    decay_mult: 0
  }
  convolution_param {
    num_output: 384
    pad: 1
    kernel_size: 3
    weight_filler {
      type: "gaussian"
      std: 0.01
    }
    bias_filler {
      type: "constant"
      value: 0
    }
    engine: MKL2017
  }
}
layer {
  name: "relu3"
  type: "ReLU"
  bottom: "conv3"
  top: "conv3"
  relu_param {
    engine: MKL2017
  }
}
layer {
  name: "conv4"
  type: "Convolution"
  bottom: "conv3"
  top: "conv4"
  param {
    lr_mult: 1
    decay_mult: 1
  }
  param {
    lr_mult: 2
    decay_mult: 0
  }
  convolution_param {
    num_output: 384
    pad: 1
    kernel_size: 3
    group: 2
    weight_filler {
      type: "gaussian"
      std: 0.01
    }
    bias_filler {
      type: "constant"
      value: 0.1
    }
    engine: MKL2017
  }
}
layer {
  name: "relu4"
  type: "ReLU"
  bottom: "conv4"
  top: "conv4"
  relu_param {
    engine: MKL2017
  }
}
layer {
  name: "conv5"
  type: "Convolution"
  bottom: "conv4"
  top: "conv5"
  param {
    lr_mult: 1
    decay_mult: 1
  }
  param {
    lr_mult: 2
    decay_mult: 0
  }
  convolution_param {
    num_output: 256
    pad: 1
    kernel_size: 3
    group: 2
    weight_filler {
      type: "gaussian"
      std: 0.01
    }
    bias_filler {
      type: "constant"
      value: 0.1
    }
    engine: MKL2017
  }
}
layer {
  name: "relu5"
  type: "ReLU"
  bottom: "conv5"
  top: "conv5"
  relu_param {
    engine: MKL2017
  }
}
layer {
  name: "pool5"
  type: "Pooling"
  bottom: "conv5"
  top: "pool5"
  pooling_param {
    pool: MAX
    kernel_size: 3
    stride: 2
    engine: MKL2017
  }
}
layer {
  name: "fc6"
  type: "InnerProduct"
  bottom: "pool5"
  top: "fc6"
  param {
    lr_mult: 1
    decay_mult: 1
  }
  param {
    lr_mult: 2
    decay_mult: 0
  }
  inner_product_param {
    num_output: 4096
    weight_filler {
      type: "gaussian"
      std: 0.005
    }
    bias_filler {
      type: "constant"
      value: 0.1
    }
  }
}
layer {
  name: "relu6"
  type: "ReLU"
  bottom: "fc6"
  top: "fc6"
}
layer {
  name: "drop6"
  type: "Dropout"
  bottom: "fc6"
  top: "fc6"
  dropout_param {
    dropout_ratio: 0.5
  }
}
layer {
  name: "fc7"
  type: "InnerProduct"
  bottom: "fc6"
  top: "fc7"
  param {
    lr_mult: 1
    decay_mult: 1
  }
  param {
    lr_mult: 2
    decay_mult: 0
  }
  inner_product_param {
    num_output: 4096
    weight_filler {
      type: "gaussian"
      std: 0.005
    }
    bias_filler {
      type: "constant"
      value: 0.1
    }
  }
}
layer {
  name: "relu7"
  type: "ReLU"
  bottom: "fc7"
  top: "fc7"
}
layer {
  name: "drop7"
  type: "Dropout"
  bottom: "fc7"
  top: "fc7"
  dropout_param {
    dropout_ratio: 0.5
  }
}
layer {
  name: "fc8"
  type: "InnerProduct"
  bottom: "fc7"
  top: "fc8"
  param {
    lr_mult: 1
    decay_mult: 1
  }
  param {
    lr_mult: 2
    decay_mult: 0
  }
  inner_product_param {
    num_output: 1000
    weight_filler {
      type: "gaussian"
      std: 0.01
    }
    bias_filler {
      type: "constant"
      value: 0
    }
  }
}
layer {
  name: "fc8_fc8_0_split"
  type: "Split"
  bottom: "fc8"
  top: "fc8_fc8_0_split_0"
  top: "fc8_fc8_0_split_1"
}
layer {
  name: "accuracy"
  type: "Accuracy"
  bottom: "fc8_fc8_0_split_0"
  bottom: "label_data_1_split_0"
  top: "accuracy"
}
layer {
  name: "loss"
  type: "SoftmaxWithLoss"
  bottom: "fc8_fc8_0_split_1"
  bottom: "label_data_1_split_1"
  top: "loss"
}
I1226 15:00:03.690457 99258 cpu_info.cpp:473] Number of OpenMP threads: 66
I1226 15:00:03.690845 99258 net.cpp:500] The NetState phase (0) differed from the phase (1) specified by a rule in layer data
I1226 15:00:03.692538 99258 net.cpp:136] Initializing net from parameters: 
name: "AlexNet"
state {
  phase: TRAIN
  level: 0
  stage: ""
}
engine: "MKL2017"
layer {
  name: "data"
  type: "Data"
  top: "data"
  top: "label"
  include {
    phase: TRAIN
  }
  transform_param {
    mirror: true
    crop_size: 227
    mean_value: 104
    mean_value: 117
    mean_value: 123
  }
  data_param {
    source: "/export/data1/stanford/hazy/zjian/gorden_bell/ILSVRC2012_lmdb/db_8/ilsvrc12_train_lmdb_4"
    batch_size: 64
    backend: LMDB
  }
}
layer {
  name: "label_data_1_split"
  type: "Split"
  bottom: "label"
  top: "label_data_1_split_0"
  top: "label_data_1_split_1"
}
layer {
  name: "conv1"
  type: "Convolution"
  bottom: "data"
  top: "conv1"
  param {
    lr_mult: 1
    decay_mult: 1
  }
  param {
    lr_mult: 2
    decay_mult: 0
  }
  convolution_param {
    num_output: 96
    kernel_size: 11
    stride: 4
    weight_filler {
      type: "gaussian"
      std: 0.01
    }
    bias_filler {
      type: "constant"
      value: 0
    }
    engine: MKL2017
  }
}
layer {
  name: "relu1"
  type: "ReLU"
  bottom: "conv1"
  top: "conv1"
  relu_param {
    engine: MKL2017
  }
}
layer {
  name: "norm1"
  type: "LRN"
  bottom: "conv1"
  top: "norm1"
  lrn_param {
    local_size: 5
    alpha: 0.0001
    beta: 0.75
    engine: MKL2017
  }
}
layer {
  name: "pool1"
  type: "Pooling"
  bottom: "norm1"
  top: "pool1"
  pooling_param {
    pool: MAX
    kernel_size: 3
    stride: 2
    engine: MKL2017
  }
}
layer {
  name: "conv2"
  type: "Convolution"
  bottom: "pool1"
  top: "conv2"
  param {
    lr_mult: 1
    decay_mult: 1
  }
  param {
    lr_mult: 2
    decay_mult: 0
  }
  convolution_param {
    num_output: 256
    pad: 2
    kernel_size: 5
    group: 2
    weight_filler {
      type: "gaussian"
      std: 0.01
    }
    bias_filler {
      type: "constant"
      value: 0.1
    }
    engine: MKL2017
  }
}
layer {
  name: "relu2"
  type: "ReLU"
  bottom: "conv2"
  top: "conv2"
  relu_param {
    engine: MKL2017
  }
}
layer {
  name: "norm2"
  type: "LRN"
  bottom: "conv2"
  top: "norm2"
  lrn_param {
    local_size: 5
    alpha: 0.0001
    beta: 0.75
    engine: MKL2017
  }
}
layer {
  name: "pool2"
  type: "Pooling"
  bottom: "norm2"
  top: "pool2"
  pooling_param {
    pool: MAX
    kernel_size: 3
    stride: 2
    engine: MKL2017
  }
}
layer {
  name: "conv3"
  type: "Convolution"
  bottom: "pool2"
  top: "conv3"
  param {
    lr_mult: 1
    decay_mult: 1
  }
  param {
    lr_mult: 2
    decay_mult: 0
  }
  convolution_param {
    num_output: 384
    pad: 1
    kernel_size: 3
    weight_filler {
      type: "gaussian"
      std: 0.01
    }
    bias_filler {
      type: "constant"
      value: 0
    }
    engine: MKL2017
  }
}
layer {
  name: "relu3"
  type: "ReLU"
  bottom: "conv3"
  top: "conv3"
  relu_param {
    engine: MKL2017
  }
}
layer {
  name: "conv4"
  type: "Convolution"
  bottom: "conv3"
  top: "conv4"
  param {
    lr_mult: 1
    decay_mult: 1
  }
  param {
    lr_mult: 2
    decay_mult: 0
  }
  convolution_param {
    num_output: 384
    pad: 1
    kernel_size: 3
    group: 2
    weight_filler {
      type: "gaussian"
      std: 0.01
    }
    bias_filler {
      type: "constant"
      value: 0.1
    }
    engine: MKL2017
  }
}
layer {
  name: "relu4"
  type: "ReLU"
  bottom: "conv4"
  top: "conv4"
  relu_param {
    engine: MKL2017
  }
}
layer {
  name: "conv5"
  type: "Convolution"
  bottom: "conv4"
  top: "conv5"
  param {
    lr_mult: 1
    decay_mult: 1
  }
  param {
    lr_mult: 2
    decay_mult: 0
  }
  convolution_param {
    num_output: 256
    pad: 1
    kernel_size: 3
    group: 2
    weight_filler {
      type: "gaussian"
      std: 0.01
    }
    bias_filler {
      type: "constant"
      value: 0.1
    }
    engine: MKL2017
  }
}
layer {
  name: "relu5"
  type: "ReLU"
  bottom: "conv5"
  top: "conv5"
  relu_param {
    engine: MKL2017
  }
}
layer {
  name: "pool5"
  type: "Pooling"
  bottom: "conv5"
  top: "pool5"
  pooling_param {
    pool: MAX
    kernel_size: 3
    stride: 2
    engine: MKL2017
  }
}
layer {
  name: "fc6"
  type: "InnerProduct"
  bottom: "pool5"
  top: "fc6"
  param {
    lr_mult: 1
    decay_mult: 1
  }
  param {
    lr_mult: 2
    decay_mult: 0
  }
  inner_product_param {
    num_output: 4096
    weight_filler {
      type: "gaussian"
      std: 0.005
    }
    bias_filler {
      type: "constant"
      value: 0.1
    }
  }
}
layer {
  name: "relu6"
  type: "ReLU"
  bottom: "fc6"
  top: "fc6"
}
layer {
  name: "drop6"
  type: "Dropout"
  bottom: "fc6"
  top: "fc6"
  dropout_param {
    dropout_ratio: 0.5
  }
}
layer {
  name: "fc7"
  type: "InnerProduct"
  bottom: "fc6"
  top: "fc7"
  param {
    lr_mult: 1
    decay_mult: 1
  }
  param {
    lr_mult: 2
    decay_mult: 0
  }
  inner_product_param {
    num_output: 4096
    weight_filler {
      type: "gaussian"
      std: 0.005
    }
    bias_filler {
      type: "constant"
      value: 0.1
    }
  }
}
layer {
  name: "relu7"
  type: "ReLU"
  bottom: "fc7"
  top: "fc7"
}
layer {
  name: "drop7"
  type: "Dropout"
  bottom: "fc7"
  top: "fc7"
  dropout_param {
    dropout_ratio: 0.5
  }
}
layer {
  name: "fc8"
  type: "InnerProduct"
  bottom: "fc7"
  top: "fc8"
  param {
    lr_mult: 1
    decay_mult: 1
  }
  param {
    lr_mult: 2
    decay_mult: 0
  }
  inner_product_param {
    num_output: 1000
    weight_filler {
      type: "gaussian"
      std: 0.01
    }
    bias_filler {
      type: "constant"
      value: 0
    }
  }
}
layer {
  name: "fc8_fc8_0_split"
  type: "Split"
  bottom: "fc8"
  top: "fc8_fc8_0_split_0"
  top: "fc8_fc8_0_split_1"
}
layer {
  name: "accuracy"
  type: "Accuracy"
  bottom: "fc8_fc8_0_split_0"
  bottom: "label_data_1_split_0"
  top: "accuracy"
}
layer {
  name: "loss"
  type: "SoftmaxWithLoss"
  bottom: "fc8_fc8_0_split_1"
  bottom: "label_data_1_split_1"
  top: "loss"
}
I1226 15:00:03.702188 85955 db_lmdb.cpp:72] Opened lmdb /export/data1/stanford/hazy/zjian/gorden_bell/ILSVRC2012_lmdb/db_8/ilsvrc12_train_lmdb_0
I1226 15:00:03.711454 85946 data_layer.cpp:80] output data size: 64,3,227,227
I1226 15:00:03.717190 88452 layer_factory.hpp:114] Creating layer data
I1226 15:00:03.717339 88452 net.cpp:178] Creating Layer data
I1226 15:00:03.717389 88452 net.cpp:586] data -> data
…
I1226 15:00:03.783304 91209 data_layer.cpp:80] output data size: 64,3,227,227
I1226 15:00:03.790776 92959 layer_factory.hpp:114] Creating layer data
I1226 15:00:03.792542 99258 data_layer.cpp:80] output data size: 64,3,227,227
I1226 15:00:03.801720 92959 net.cpp:178] Creating Layer data
I1226 15:00:03.801838 92959 net.cpp:586] data -> data
I1226 15:00:03.801937 92959 net.cpp:586] data -> label
I1226 15:00:03.801743 92075 db_lmdb.cpp:72] Opened lmdb /export/data1/stanford/hazy/zjian/gorden_bell/ILSVRC2012_lmdb/db_8/ilsvrc12_train_lmdb_2
I1226 15:00:03.807513 85946 net.cpp:228] Setting up data
I1226 15:00:03.807687 85946 net.cpp:235] Top shape: 64 3 227 227 (9893568)
I1226 15:00:03.807752 85946 net.cpp:235] Top shape: 64 (64)
I1226 15:00:03.807790 85946 net.cpp:243] Memory required for data: 39574528
I1226 15:00:03.807835 85946 layer_factory.hpp:114] Creating layer label_data_1_split
I1226 15:00:03.807940 85946 net.cpp:178] Creating Layer label_data_1_split
I1226 15:00:03.808239 85946 net.cpp:612] label_data_1_split <- label
I1226 15:00:03.808336 85946 net.cpp:586] label_data_1_split -> label_data_1_split_0
I1226 15:00:03.808429 85946 net.cpp:586] label_data_1_split -> label_data_1_split_1
I1226 15:00:03.823355 85946 net.cpp:228] Setting up label_data_1_split
I1226 15:00:03.823462 85946 net.cpp:235] Top shape: 64 (64)
I1226 15:00:03.823495 85946 net.cpp:235] Top shape: 64 (64)
I1226 15:00:03.823518 85946 net.cpp:243] Memory required for data: 39575040
I1226 15:00:03.823554 85946 layer_factory.hpp:114] Creating layer conv1
I1226 15:00:03.823714 85946 net.cpp:178] Creating Layer conv1
I1226 15:00:03.823762 85946 net.cpp:612] conv1 <- data
I1226 15:00:03.823813 85946 net.cpp:586] conv1 -> conv1
I1226 15:00:03.826896 92961 db_lmdb.cpp:72] Opened lmdb /export/data1/stanford/hazy/zjian/gorden_bell/ILSVRC2012_lmdb/db_8/ilsvrc12_train_lmdb_6
I1226 15:00:03.835937 92959 data_layer.cpp:80] output data size: 64,3,227,227
I1226 15:00:03.841819 92073 data_layer.cpp:80] output data size: 64,3,227,227
I1226 15:00:03.865561 92949 net.cpp:228] Setting up data
I1226 15:00:03.865701 92949 net.cpp:235] Top shape: 64 3 227 227 (9893568)
I1226 15:00:03.865780 92949 net.cpp:235] Top shape: 64 (64)
I1226 15:00:03.865841 92949 net.cpp:243] Memory required for data: 39574528
I1226 15:00:03.865885 92949 layer_factory.hpp:114] Creating layer label_data_1_split
I1226 15:00:03.865980 92949 net.cpp:178] Creating Layer label_data_1_split
I1226 15:00:03.866185 92949 net.cpp:612] label_data_1_split <- label
I1226 15:00:03.866241 92949 net.cpp:586] label_data_1_split -> label_data_1_split_0
I1226 15:00:03.866302 92949 net.cpp:586] label_data_1_split -> label_data_1_split_1
I1226 15:00:03.881392 90464 net.cpp:228] Setting up data
I1226 15:00:03.881547 90464 net.cpp:235] Top shape: 64 3 227 227 (9893568)
I1226 15:00:03.881618 90464 net.cpp:235] Top shape: 64 (64)
I1226 15:00:03.881642 90464 net.cpp:243] Memory required for data: 39574528
I1226 15:00:03.881681 90464 layer_factory.hpp:114] Creating layer label_data_1_split
I1226 15:00:03.881769 90464 net.cpp:178] Creating Layer label_data_1_split
I1226 15:00:03.881904 90464 net.cpp:612] label_data_1_split <- label
I1226 15:00:03.881950 90464 net.cpp:586] label_data_1_split -> label_data_1_split_0
I1226 15:00:03.882001 90464 net.cpp:586] label_data_1_split -> label_data_1_split_1
I1226 15:00:03.870766 90550 net.cpp:228] Setting up data
I1226 15:00:03.870916 90550 net.cpp:235] Top shape: 64 3 227 227 (9893568)
I1226 15:00:03.870970 90550 net.cpp:235] Top shape: 64 (64)
I1226 15:00:03.871029 90550 net.cpp:243] Memory required for data: 39574528
I1226 15:00:03.871073 90550 layer_factory.hpp:114] Creating layer label_data_1_split
I1226 15:00:03.871162 90550 net.cpp:178] Creating Layer label_data_1_split
I1226 15:00:03.871327 90550 net.cpp:612] label_data_1_split <- label
I1226 15:00:03.871387 90550 net.cpp:586] label_data_1_split -> label_data_1_split_0
I1226 15:00:03.871852 90550 net.cpp:586] label_data_1_split -> label_data_1_split_1
I1226 15:00:03.883254 92949 net.cpp:228] Setting up label_data_1_split
I1226 15:00:03.883375 92949 net.cpp:235] Top shape: 64 (64)
I1226 15:00:03.883415 92949 net.cpp:235] Top shape: 64 (64)
I1226 15:00:03.883476 92949 net.cpp:243] Memory required for data: 39575040
I1226 15:00:03.883527 92949 layer_factory.hpp:114] Creating layer conv1
I1226 15:00:03.883654 92949 net.cpp:178] Creating Layer conv1
I1226 15:00:03.883751 92949 net.cpp:612] conv1 <- data
I1226 15:00:03.883828 92949 net.cpp:586] conv1 -> conv1
I1226 15:00:03.879274 91209 net.cpp:228] Setting up data
I1226 15:00:03.879405 91209 net.cpp:235] Top shape: 64 3 227 227 (9893568)
I1226 15:00:03.879451 91209 net.cpp:235] Top shape: 64 (64)
I1226 15:00:03.879477 91209 net.cpp:243] Memory required for data: 39574528
I1226 15:00:03.879528 91209 layer_factory.hpp:114] Creating layer label_data_1_split
I1226 15:00:03.879612 91209 net.cpp:178] Creating Layer label_data_1_split
I1226 15:00:03.879742 91209 net.cpp:612] label_data_1_split <- label
I1226 15:00:03.879793 91209 net.cpp:586] label_data_1_split -> label_data_1_split_0
I1226 15:00:03.879848 91209 net.cpp:586] label_data_1_split -> label_data_1_split_1
I1226 15:00:03.891495 91209 net.cpp:228] Setting up label_data_1_split
I1226 15:00:03.891602 91209 net.cpp:235] Top shape: 64 (64)
I1226 15:00:03.891636 91209 net.cpp:235] Top shape: 64 (64)
I1226 15:00:03.891660 91209 net.cpp:243] Memory required for data: 39575040
I1226 15:00:03.891697 91209 layer_factory.hpp:114] Creating layer conv1
I1226 15:00:03.891800 91209 net.cpp:178] Creating Layer conv1
I1226 15:00:03.891839 91209 net.cpp:612] conv1 <- data
I1226 15:00:03.891890 91209 net.cpp:586] conv1 -> conv1
I1226 15:00:03.896239 99258 net.cpp:228] Setting up data
I1226 15:00:03.896704 99258 net.cpp:235] Top shape: 64 3 227 227 (9893568)
I1226 15:00:03.896981 99258 net.cpp:235] Top shape: 64 (64)
I1226 15:00:03.897145 99258 net.cpp:243] Memory required for data: 39574528
I1226 15:00:03.897294 99258 layer_factory.hpp:114] Creating layer label_data_1_split
I1226 15:00:03.897421 99258 net.cpp:178] Creating Layer label_data_1_split
I1226 15:00:03.897575 99258 net.cpp:612] label_data_1_split <- label
I1226 15:00:03.900193 90464 net.cpp:228] Setting up label_data_1_split
I1226 15:00:03.897639 99258 net.cpp:586] label_data_1_split -> label_data_1_split_0
I1226 15:00:03.897697 99258 net.cpp:586] label_data_1_split -> label_data_1_split_1
I1226 15:00:03.900316 90464 net.cpp:235] Top shape: 64 (64)
I1226 15:00:03.900351 90464 net.cpp:235] Top shape: 64 (64)
I1226 15:00:03.900375 90464 net.cpp:243] Memory required for data: 39575040
I1226 15:00:03.900411 90464 layer_factory.hpp:114] Creating layer conv1
I1226 15:00:03.901033 90464 net.cpp:178] Creating Layer conv1
I1226 15:00:03.901110 90464 net.cpp:612] conv1 <- data
I1226 15:00:03.901162 90464 net.cpp:586] conv1 -> conv1
I1226 15:00:03.892335 90550 net.cpp:228] Setting up label_data_1_split
I1226 15:00:03.892495 90550 net.cpp:235] Top shape: 64 (64)
I1226 15:00:03.892565 90550 net.cpp:235] Top shape: 64 (64)
I1226 15:00:03.892623 90550 net.cpp:243] Memory required for data: 39575040
I1226 15:00:03.892663 90550 layer_factory.hpp:114] Creating layer conv1
I1226 15:00:03.892763 90550 net.cpp:178] Creating Layer conv1
I1226 15:00:03.892807 90550 net.cpp:612] conv1 <- data
I1226 15:00:03.892850 90550 net.cpp:586] conv1 -> conv1
I1226 15:00:03.920171 99258 net.cpp:228] Setting up label_data_1_split
I1226 15:00:03.920313 99258 net.cpp:235] Top shape: 64 (64)
I1226 15:00:03.920717 99258 net.cpp:235] Top shape: 64 (64)
I1226 15:00:03.920820 99258 net.cpp:243] Memory required for data: 39575040
I1226 15:00:03.920881 99258 layer_factory.hpp:114] Creating layer conv1
I1226 15:00:03.921013 99258 net.cpp:178] Creating Layer conv1
I1226 15:00:03.921046 99258 net.cpp:612] conv1 <- data
I1226 15:00:03.921155 99258 net.cpp:586] conv1 -> conv1
I1226 15:00:03.930235 88452 net.cpp:228] Setting up conv1
I1226 15:00:03.930347 88452 net.cpp:235] Top shape: 64 96 55 55 (18585600)
I1226 15:00:03.930373 88452 net.cpp:243] Memory required for data: 113917440
I1226 15:00:03.930490 88452 layer_factory.hpp:114] Creating layer relu1
I1226 15:00:03.930567 88452 net.cpp:178] Creating Layer relu1
I1226 15:00:03.930606 88452 net.cpp:612] relu1 <- conv1
I1226 15:00:03.930649 88452 net.cpp:573] relu1 -> conv1 (in-place)
I1226 15:00:03.930744 88452 net.cpp:228] Setting up relu1
I1226 15:00:03.930784 88452 net.cpp:235] Top shape: 64 96 55 55 (18585600)
I1226 15:00:03.930807 88452 net.cpp:243] Memory required for data: 188259840
I1226 15:00:03.930833 88452 layer_factory.hpp:114] Creating layer norm1
I1226 15:00:03.930896 88452 net.cpp:178] Creating Layer norm1
I1226 15:00:03.930951 88452 net.cpp:612] norm1 <- conv1
I1226 15:00:03.930986 88452 net.cpp:586] norm1 -> norm1
I1226 15:00:03.931063 88452 net.cpp:228] Setting up norm1
I1226 15:00:03.931113 88452 net.cpp:235] Top shape: 64 96 55 55 (18585600)
I1226 15:00:03.931135 88452 net.cpp:243] Memory required for data: 262602240
I1226 15:00:03.931161 88452 layer_factory.hpp:114] Creating layer pool1
I1226 15:00:03.931219 88452 net.cpp:178] Creating Layer pool1
I1226 15:00:03.931251 88452 net.cpp:612] pool1 <- norm1
I1226 15:00:03.931290 88452 net.cpp:586] pool1 -> pool1
I1226 15:00:03.931368 88452 net.cpp:228] Setting up pool1
I1226 15:00:03.931408 88452 net.cpp:235] Top shape: 64 96 27 27 (4478976)
I1226 15:00:03.931430 88452 net.cpp:243] Memory required for data: 280518144
I1226 15:00:03.931455 88452 layer_factory.hpp:114] Creating layer conv2
I1226 15:00:03.931520 88452 net.cpp:178] Creating Layer conv2
I1226 15:00:03.931552 88452 net.cpp:612] conv2 <- pool1
I1226 15:00:03.931594 88452 net.cpp:586] conv2 -> conv2
I1226 15:00:03.935082 92959 net.cpp:228] Setting up data
I1226 15:00:03.935207 92959 net.cpp:235] Top shape: 64 3 227 227 (9893568)
I1226 15:00:03.935250 92959 net.cpp:235] Top shape: 64 (64)
I1226 15:00:03.935276 92959 net.cpp:243] Memory required for data: 39574528
I1226 15:00:03.935328 92959 layer_factory.hpp:114] Creating layer label_data_1_split
I1226 15:00:03.935416 92959 net.cpp:178] Creating Layer label_data_1_split
I1226 15:00:03.935631 92959 net.cpp:612] label_data_1_split <- label
I1226 15:00:03.935690 92959 net.cpp:586] label_data_1_split -> label_data_1_split_0
I1226 15:00:03.935768 92959 net.cpp:586] label_data_1_split -> label_data_1_split_1
I1226 15:00:03.940114 92073 net.cpp:228] Setting up data
I1226 15:00:03.940284 92073 net.cpp:235] Top shape: 64 3 227 227 (9893568)
I1226 15:00:03.940333 92073 net.cpp:235] Top shape: 64 (64)
I1226 15:00:03.940690 92073 net.cpp:243] Memory required for data: 39574528
I1226 15:00:03.940747 92073 layer_factory.hpp:114] Creating layer label_data_1_split
I1226 15:00:03.940850 92073 net.cpp:178] Creating Layer label_data_1_split
I1226 15:00:03.941022 92073 net.cpp:612] label_data_1_split <- label
I1226 15:00:03.941100 92073 net.cpp:586] label_data_1_split -> label_data_1_split_0
I1226 15:00:03.941299 92073 net.cpp:586] label_data_1_split -> label_data_1_split_1
I1226 15:00:03.957839 92959 net.cpp:228] Setting up label_data_1_split
I1226 15:00:03.957954 92959 net.cpp:235] Top shape: 64 (64)
I1226 15:00:03.958004 92959 net.cpp:235] Top shape: 64 (64)
I1226 15:00:03.958029 92959 net.cpp:243] Memory required for data: 39575040
I1226 15:00:03.958065 92959 layer_factory.hpp:114] Creating layer conv1
I1226 15:00:03.958168 92959 net.cpp:178] Creating Layer conv1
I1226 15:00:03.958572 92959 net.cpp:612] conv1 <- data
I1226 15:00:03.958758 92959 net.cpp:586] conv1 -> conv1
I1226 15:00:03.959118 92073 net.cpp:228] Setting up label_data_1_split
I1226 15:00:03.959275 92073 net.cpp:235] Top shape: 64 (64)
I1226 15:00:03.959316 92073 net.cpp:235] Top shape: 64 (64)
I1226 15:00:03.959342 92073 net.cpp:243] Memory required for data: 39575040
I1226 15:00:03.959388 92073 layer_factory.hpp:114] Creating layer conv1
I1226 15:00:03.959487 92073 net.cpp:178] Creating Layer conv1
I1226 15:00:03.959525 92073 net.cpp:612] conv1 <- data
I1226 15:00:03.959569 92073 net.cpp:586] conv1 -> conv1
I1226 15:00:04.024269 85946 net.cpp:228] Setting up conv1
I1226 15:00:04.024391 85946 net.cpp:235] Top shape: 64 96 55 55 (18585600)
I1226 15:00:04.024426 85946 net.cpp:243] Memory required for data: 113917440
I1226 15:00:04.024549 85946 layer_factory.hpp:114] Creating layer relu1
I1226 15:00:04.024706 85946 net.cpp:178] Creating Layer relu1
I1226 15:00:04.024768 85946 net.cpp:612] relu1 <- conv1
I1226 15:00:04.024824 85946 net.cpp:573] relu1 -> conv1 (in-place)
I1226 15:00:04.024971 85946 net.cpp:228] Setting up relu1
I1226 15:00:04.025050 85946 net.cpp:235] Top shape: 64 96 55 55 (18585600)
I1226 15:00:04.025080 85946 net.cpp:243] Memory required for data: 188259840
I1226 15:00:04.025118 85946 layer_factory.hpp:114] Creating layer norm1
I1226 15:00:04.025213 85946 net.cpp:178] Creating Layer norm1
I1226 15:00:04.025255 85946 net.cpp:612] norm1 <- conv1
I1226 15:00:04.025300 85946 net.cpp:586] norm1 -> norm1
I1226 15:00:04.025408 85946 net.cpp:228] Setting up norm1
I1226 15:00:04.025472 85946 net.cpp:235] Top shape: 64 96 55 55 (18585600)
I1226 15:00:04.025501 85946 net.cpp:243] Memory required for data: 262602240
I1226 15:00:04.025534 85946 layer_factory.hpp:114] Creating layer pool1
I1226 15:00:04.025635 85946 net.cpp:178] Creating Layer pool1
I1226 15:00:04.025677 85946 net.cpp:612] pool1 <- norm1
I1226 15:00:04.025734 85946 net.cpp:586] pool1 -> pool1
I1226 15:00:04.025858 85946 net.cpp:228] Setting up pool1
I1226 15:00:04.025918 85946 net.cpp:235] Top shape: 64 96 27 27 (4478976)
I1226 15:00:04.025943 85946 net.cpp:243] Memory required for data: 280518144
I1226 15:00:04.025972 85946 layer_factory.hpp:114] Creating layer conv2
I1226 15:00:04.026058 85946 net.cpp:178] Creating Layer conv2
I1226 15:00:04.026093 85946 net.cpp:612] conv2 <- pool1
I1226 15:00:04.026139 85946 net.cpp:586] conv2 -> conv2
I1226 15:00:04.096329 91209 net.cpp:228] Setting up conv1
I1226 15:00:04.096714 91209 net.cpp:235] Top shape: 64 96 55 55 (18585600)
I1226 15:00:04.096746 91209 net.cpp:243] Memory required for data: 113917440
I1226 15:00:04.096882 91209 layer_factory.hpp:114] Creating layer relu1
I1226 15:00:04.096998 91209 net.cpp:178] Creating Layer relu1
I1226 15:00:04.097153 91209 net.cpp:612] relu1 <- conv1
I1226 15:00:04.097198 91209 net.cpp:573] relu1 -> conv1 (in-place)
I1226 15:00:04.097311 91209 net.cpp:228] Setting up relu1
I1226 15:00:04.097358 91209 net.cpp:235] Top shape: 64 96 55 55 (18585600)
I1226 15:00:04.097381 91209 net.cpp:243] Memory required for data: 188259840
I1226 15:00:04.097410 91209 layer_factory.hpp:114] Creating layer norm1
I1226 15:00:04.097479 91209 net.cpp:178] Creating Layer norm1
I1226 15:00:04.097512 91209 net.cpp:612] norm1 <- conv1
I1226 15:00:04.097551 91209 net.cpp:586] norm1 -> norm1
I1226 15:00:04.097640 91209 net.cpp:228] Setting up norm1
I1226 15:00:04.097677 91209 net.cpp:235] Top shape: 64 96 55 55 (18585600)
I1226 15:00:04.097700 91209 net.cpp:243] Memory required for data: 262602240
I1226 15:00:04.097736 91209 layer_factory.hpp:114] Creating layer pool1
I1226 15:00:04.097805 91209 net.cpp:178] Creating Layer pool1
I1226 15:00:04.097832 91209 net.cpp:612] pool1 <- norm1
I1226 15:00:04.097877 91209 net.cpp:586] pool1 -> pool1
I1226 15:00:04.097978 91209 net.cpp:228] Setting up pool1
I1226 15:00:04.098021 91209 net.cpp:235] Top shape: 64 96 27 27 (4478976)
I1226 15:00:04.098043 91209 net.cpp:243] Memory required for data: 280518144
I1226 15:00:04.098090 91209 layer_factory.hpp:114] Creating layer conv2
I1226 15:00:04.098201 91209 net.cpp:178] Creating Layer conv2
I1226 15:00:04.098259 91209 net.cpp:612] conv2 <- pool1
I1226 15:00:04.098302 91209 net.cpp:586] conv2 -> conv2
I1226 15:00:04.109218 92949 net.cpp:228] Setting up conv1
I1226 15:00:04.109333 92949 net.cpp:235] Top shape: 64 96 55 55 (18585600)
I1226 15:00:04.109365 92949 net.cpp:243] Memory required for data: 113917440
I1226 15:00:04.109475 92949 layer_factory.hpp:114] Creating layer relu1
I1226 15:00:04.109563 92949 net.cpp:178] Creating Layer relu1
I1226 15:00:04.109604 92949 net.cpp:612] relu1 <- conv1
I1226 15:00:04.109675 92949 net.cpp:573] relu1 -> conv1 (in-place)
I1226 15:00:04.109812 92949 net.cpp:228] Setting up relu1
I1226 15:00:04.109875 92949 net.cpp:235] Top shape: 64 96 55 55 (18585600)
I1226 15:00:04.109900 92949 net.cpp:243] Memory required for data: 188259840
I1226 15:00:04.109931 92949 layer_factory.hpp:114] Creating layer norm1
I1226 15:00:04.110009 92949 net.cpp:178] Creating Layer norm1
I1226 15:00:04.110047 92949 net.cpp:612] norm1 <- conv1
I1226 15:00:04.110085 92949 net.cpp:586] norm1 -> norm1
I1226 15:00:04.110180 92949 net.cpp:228] Setting up norm1
I1226 15:00:04.110226 92949 net.cpp:235] Top shape: 64 96 55 55 (18585600)
I1226 15:00:04.110249 92949 net.cpp:243] Memory required for data: 262602240
I1226 15:00:04.110278 92949 layer_factory.hpp:114] Creating layer pool1
I1226 15:00:04.110345 92949 net.cpp:178] Creating Layer pool1
I1226 15:00:04.110378 92949 net.cpp:612] pool1 <- norm1
I1226 15:00:04.110421 92949 net.cpp:586] pool1 -> pool1
I1226 15:00:04.110512 92949 net.cpp:228] Setting up pool1
I1226 15:00:04.110558 92949 net.cpp:235] Top shape: 64 96 27 27 (4478976)
I1226 15:00:04.110579 92949 net.cpp:243] Memory required for data: 280518144
I1226 15:00:04.110607 92949 layer_factory.hpp:114] Creating layer conv2
I1226 15:00:04.110684 92949 net.cpp:178] Creating Layer conv2
I1226 15:00:04.110718 92949 net.cpp:612] conv2 <- pool1
I1226 15:00:04.110757 92949 net.cpp:586] conv2 -> conv2
I1226 15:00:04.100538 90550 net.cpp:228] Setting up conv1
I1226 15:00:04.100713 90550 net.cpp:235] Top shape: 64 96 55 55 (18585600)
I1226 15:00:04.115999 90550 net.cpp:243] Memory required for data: 113917440
I1226 15:00:04.116180 90550 layer_factory.hpp:114] Creating layer relu1
I1226 15:00:04.116531 90550 net.cpp:178] Creating Layer relu1
I1226 15:00:04.116813 90550 net.cpp:612] relu1 <- conv1
I1226 15:00:04.116876 90550 net.cpp:573] relu1 -> conv1 (in-place)
I1226 15:00:04.117000 90550 net.cpp:228] Setting up relu1
I1226 15:00:04.117053 90550 net.cpp:235] Top shape: 64 96 55 55 (18585600)
I1226 15:00:04.117081 90550 net.cpp:243] Memory required for data: 188259840
I1226 15:00:04.117113 90550 layer_factory.hpp:114] Creating layer norm1
I1226 15:00:04.117280 90550 net.cpp:178] Creating Layer norm1
I1226 15:00:04.117391 90550 net.cpp:612] norm1 <- conv1
I1226 15:00:04.117432 90550 net.cpp:586] norm1 -> norm1
I1226 15:00:04.117666 90550 net.cpp:228] Setting up norm1
I1226 15:00:04.117720 90550 net.cpp:235] Top shape: 64 96 55 55 (18585600)
I1226 15:00:04.117753 90550 net.cpp:243] Memory required for data: 262602240
I1226 15:00:04.117792 90550 layer_factory.hpp:114] Creating layer pool1
I1226 15:00:04.117866 90550 net.cpp:178] Creating Layer pool1
I1226 15:00:04.117900 90550 net.cpp:612] pool1 <- norm1
I1226 15:00:04.117969 90550 net.cpp:586] pool1 -> pool1
I1226 15:00:04.118077 90550 net.cpp:228] Setting up pool1
I1226 15:00:04.118125 90550 net.cpp:235] Top shape: 64 96 27 27 (4478976)
I1226 15:00:04.118172 90550 net.cpp:243] Memory required for data: 280518144
I1226 15:00:04.118211 90550 layer_factory.hpp:114] Creating layer conv2
I1226 15:00:04.118296 90550 net.cpp:178] Creating Layer conv2
I1226 15:00:04.118332 90550 net.cpp:612] conv2 <- pool1
I1226 15:00:04.118379 90550 net.cpp:586] conv2 -> conv2
I1226 15:00:04.131441 90464 net.cpp:228] Setting up conv1
I1226 15:00:04.131580 90464 net.cpp:235] Top shape: 64 96 55 55 (18585600)
I1226 15:00:04.131620 90464 net.cpp:243] Memory required for data: 113917440
I1226 15:00:04.131738 90464 layer_factory.hpp:114] Creating layer relu1
I1226 15:00:04.131850 90464 net.cpp:178] Creating Layer relu1
I1226 15:00:04.131901 90464 net.cpp:612] relu1 <- conv1
I1226 15:00:04.131959 90464 net.cpp:573] relu1 -> conv1 (in-place)
I1226 15:00:04.132084 90464 net.cpp:228] Setting up relu1
I1226 15:00:04.132143 90464 net.cpp:235] Top shape: 64 96 55 55 (18585600)
I1226 15:00:04.132174 90464 net.cpp:243] Memory required for data: 188259840
I1226 15:00:04.132208 90464 layer_factory.hpp:114] Creating layer norm1
I1226 15:00:04.132287 90464 net.cpp:178] Creating Layer norm1
I1226 15:00:04.132339 90464 net.cpp:612] norm1 <- conv1
I1226 15:00:04.132385 90464 net.cpp:586] norm1 -> norm1
I1226 15:00:04.132490 90464 net.cpp:228] Setting up norm1
I1226 15:00:04.132544 90464 net.cpp:235] Top shape: 64 96 55 55 (18585600)
I1226 15:00:04.132592 90464 net.cpp:243] Memory required for data: 262602240
I1226 15:00:04.132629 90464 layer_factory.hpp:114] Creating layer pool1
I1226 15:00:04.132704 90464 net.cpp:178] Creating Layer pool1
I1226 15:00:04.132738 90464 net.cpp:612] pool1 <- norm1
I1226 15:00:04.132786 90464 net.cpp:586] pool1 -> pool1
I1226 15:00:04.132899 90464 net.cpp:228] Setting up pool1
I1226 15:00:04.132978 90464 net.cpp:235] Top shape: 64 96 27 27 (4478976)
I1226 15:00:04.133002 90464 net.cpp:243] Memory required for data: 280518144
I1226 15:00:04.133033 90464 layer_factory.hpp:114] Creating layer conv2
I1226 15:00:04.133123 90464 net.cpp:178] Creating Layer conv2
I1226 15:00:04.133157 90464 net.cpp:612] conv2 <- pool1
I1226 15:00:04.133199 90464 net.cpp:586] conv2 -> conv2
I1226 15:00:04.146831 88452 net.cpp:228] Setting up conv2
I1226 15:00:04.146970 88452 net.cpp:235] Top shape: 64 256 27 27 (11943936)
I1226 15:00:04.146998 88452 net.cpp:243] Memory required for data: 328293888
I1226 15:00:04.147069 88452 layer_factory.hpp:114] Creating layer relu2
I1226 15:00:04.147157 88452 net.cpp:178] Creating Layer relu2
I1226 15:00:04.147194 88452 net.cpp:612] relu2 <- conv2
I1226 15:00:04.147236 88452 net.cpp:573] relu2 -> conv2 (in-place)
I1226 15:00:04.147327 88452 net.cpp:228] Setting up relu2
I1226 15:00:04.147368 88452 net.cpp:235] Top shape: 64 256 27 27 (11943936)
I1226 15:00:04.147399 88452 net.cpp:243] Memory required for data: 376069632
I1226 15:00:04.147426 88452 layer_factory.hpp:114] Creating layer norm2
I1226 15:00:04.147474 88452 net.cpp:178] Creating Layer norm2
I1226 15:00:04.147505 88452 net.cpp:612] norm2 <- conv2
I1226 15:00:04.147552 88452 net.cpp:586] norm2 -> norm2
I1226 15:00:04.147626 88452 net.cpp:228] Setting up norm2
I1226 15:00:04.147667 88452 net.cpp:235] Top shape: 64 256 27 27 (11943936)
I1226 15:00:04.147689 88452 net.cpp:243] Memory required for data: 423845376
I1226 15:00:04.147714 88452 layer_factory.hpp:114] Creating layer pool2
I1226 15:00:04.147774 88452 net.cpp:178] Creating Layer pool2
I1226 15:00:04.147804 88452 net.cpp:612] pool2 <- norm2
I1226 15:00:04.147837 88452 net.cpp:586] pool2 -> pool2
I1226 15:00:04.147910 88452 net.cpp:228] Setting up pool2
I1226 15:00:04.147970 88452 net.cpp:235] Top shape: 64 256 13 13 (2768896)
I1226 15:00:04.148092 88452 net.cpp:243] Memory required for data: 434920960
I1226 15:00:04.148126 88452 layer_factory.hpp:114] Creating layer conv3
I1226 15:00:04.148211 88452 net.cpp:178] Creating Layer conv3
I1226 15:00:04.148243 88452 net.cpp:612] conv3 <- pool2
I1226 15:00:04.148290 88452 net.cpp:586] conv3 -> conv3
I1226 15:00:04.149193 99258 net.cpp:228] Setting up conv1
I1226 15:00:04.149314 99258 net.cpp:235] Top shape: 64 96 55 55 (18585600)
I1226 15:00:04.149353 99258 net.cpp:243] Memory required for data: 113917440
I1226 15:00:04.149479 99258 layer_factory.hpp:114] Creating layer relu1
I1226 15:00:04.149592 99258 net.cpp:178] Creating Layer relu1
I1226 15:00:04.149649 99258 net.cpp:612] relu1 <- conv1
I1226 15:00:04.149695 99258 net.cpp:573] relu1 -> conv1 (in-place)
I1226 15:00:04.149828 99258 net.cpp:228] Setting up relu1
I1226 15:00:04.149893 99258 net.cpp:235] Top shape: 64 96 55 55 (18585600)
I1226 15:00:04.149921 99258 net.cpp:243] Memory required for data: 188259840
I1226 15:00:04.149956 99258 layer_factory.hpp:114] Creating layer norm1
I1226 15:00:04.150048 99258 net.cpp:178] Creating Layer norm1
I1226 15:00:04.150151 99258 net.cpp:612] norm1 <- conv1
I1226 15:00:04.150203 99258 net.cpp:586] norm1 -> norm1
I1226 15:00:04.150341 99258 net.cpp:228] Setting up norm1
I1226 15:00:04.150405 99258 net.cpp:235] Top shape: 64 96 55 55 (18585600)
I1226 15:00:04.150432 99258 net.cpp:243] Memory required for data: 262602240
I1226 15:00:04.150472 99258 layer_factory.hpp:114] Creating layer pool1
I1226 15:00:04.150547 99258 net.cpp:178] Creating Layer pool1
I1226 15:00:04.150586 99258 net.cpp:612] pool1 <- norm1
I1226 15:00:04.150638 99258 net.cpp:586] pool1 -> pool1
I1226 15:00:04.150749 99258 net.cpp:228] Setting up pool1
I1226 15:00:04.150802 99258 net.cpp:235] Top shape: 64 96 27 27 (4478976)
I1226 15:00:04.150827 99258 net.cpp:243] Memory required for data: 280518144
I1226 15:00:04.150857 99258 layer_factory.hpp:114] Creating layer conv2
I1226 15:00:04.150944 99258 net.cpp:178] Creating Layer conv2
I1226 15:00:04.150980 99258 net.cpp:612] conv2 <- pool1
I1226 15:00:04.151027 99258 net.cpp:586] conv2 -> conv2
I1226 15:00:04.172464 92959 net.cpp:228] Setting up conv1
I1226 15:00:04.172601 92959 net.cpp:235] Top shape: 64 96 55 55 (18585600)
I1226 15:00:04.172631 92959 net.cpp:243] Memory required for data: 113917440
I1226 15:00:04.172739 92959 layer_factory.hpp:114] Creating layer relu1
I1226 15:00:04.172881 92959 net.cpp:178] Creating Layer relu1
I1226 15:00:04.173934 92959 net.cpp:612] relu1 <- conv1
I1226 15:00:04.174031 92959 net.cpp:573] relu1 -> conv1 (in-place)
I1226 15:00:04.174170 92959 net.cpp:228] Setting up relu1
I1226 15:00:04.174227 92959 net.cpp:235] Top shape: 64 96 55 55 (18585600)
I1226 15:00:04.174254 92959 net.cpp:243] Memory required for data: 188259840
I1226 15:00:04.174285 92959 layer_factory.hpp:114] Creating layer norm1
I1226 15:00:04.174453 92959 net.cpp:178] Creating Layer norm1
I1226 15:00:04.174587 92959 net.cpp:612] norm1 <- conv1
I1226 15:00:04.175331 92959 net.cpp:586] norm1 -> norm1
I1226 15:00:04.175536 92959 net.cpp:228] Setting up norm1
I1226 15:00:04.176656 92959 net.cpp:235] Top shape: 64 96 55 55 (18585600)
I1226 15:00:04.176723 92959 net.cpp:243] Memory required for data: 262602240
I1226 15:00:04.176764 92959 layer_factory.hpp:114] Creating layer pool1
I1226 15:00:04.176847 92959 net.cpp:178] Creating Layer pool1
I1226 15:00:04.176929 92959 net.cpp:612] pool1 <- norm1
I1226 15:00:04.177013 92959 net.cpp:586] pool1 -> pool1
I1226 15:00:04.177204 92959 net.cpp:228] Setting up pool1
I1226 15:00:04.177278 92959 net.cpp:235] Top shape: 64 96 27 27 (4478976)
I1226 15:00:04.177300 92959 net.cpp:243] Memory required for data: 280518144
I1226 15:00:04.177328 92959 layer_factory.hpp:114] Creating layer conv2
I1226 15:00:04.177405 92959 net.cpp:178] Creating Layer conv2
I1226 15:00:04.177444 92959 net.cpp:612] conv2 <- pool1
I1226 15:00:04.177517 92959 net.cpp:586] conv2 -> conv2
I1226 15:00:04.179105 92073 net.cpp:228] Setting up conv1
I1226 15:00:04.179249 92073 net.cpp:235] Top shape: 64 96 55 55 (18585600)
I1226 15:00:04.179288 92073 net.cpp:243] Memory required for data: 113917440
I1226 15:00:04.179412 92073 layer_factory.hpp:114] Creating layer relu1
I1226 15:00:04.179512 92073 net.cpp:178] Creating Layer relu1
I1226 15:00:04.179558 92073 net.cpp:612] relu1 <- conv1
I1226 15:00:04.179631 92073 net.cpp:573] relu1 -> conv1 (in-place)
I1226 15:00:04.179760 92073 net.cpp:228] Setting up relu1
I1226 15:00:04.179819 92073 net.cpp:235] Top shape: 64 96 55 55 (18585600)
I1226 15:00:04.179844 92073 net.cpp:243] Memory required for data: 188259840
I1226 15:00:04.179877 92073 layer_factory.hpp:114] Creating layer norm1
I1226 15:00:04.179946 92073 net.cpp:178] Creating Layer norm1
I1226 15:00:04.179978 92073 net.cpp:612] norm1 <- conv1
I1226 15:00:04.180028 92073 net.cpp:586] norm1 -> norm1
I1226 15:00:04.180125 92073 net.cpp:228] Setting up norm1
I1226 15:00:04.180177 92073 net.cpp:235] Top shape: 64 96 55 55 (18585600)
I1226 15:00:04.180229 92073 net.cpp:243] Memory required for data: 262602240
I1226 15:00:04.180263 92073 layer_factory.hpp:114] Creating layer pool1
I1226 15:00:04.180338 92073 net.cpp:178] Creating Layer pool1
I1226 15:00:04.180377 92073 net.cpp:612] pool1 <- norm1
I1226 15:00:04.180428 92073 net.cpp:586] pool1 -> pool1
I1226 15:00:04.180536 92073 net.cpp:228] Setting up pool1
I1226 15:00:04.180585 92073 net.cpp:235] Top shape: 64 96 27 27 (4478976)
I1226 15:00:04.180610 92073 net.cpp:243] Memory required for data: 280518144
I1226 15:00:04.180641 92073 layer_factory.hpp:114] Creating layer conv2
I1226 15:00:04.180723 92073 net.cpp:178] Creating Layer conv2
I1226 15:00:04.180761 92073 net.cpp:612] conv2 <- pool1
I1226 15:00:04.180809 92073 net.cpp:586] conv2 -> conv2
I1226 15:00:04.360307 85946 net.cpp:228] Setting up conv2
I1226 15:00:04.360425 85946 net.cpp:235] Top shape: 64 256 27 27 (11943936)
I1226 15:00:04.360455 85946 net.cpp:243] Memory required for data: 328293888
I1226 15:00:04.360532 85946 layer_factory.hpp:114] Creating layer relu2
I1226 15:00:04.360690 85946 net.cpp:178] Creating Layer relu2
I1226 15:00:04.360745 85946 net.cpp:612] relu2 <- conv2
I1226 15:00:04.360800 85946 net.cpp:573] relu2 -> conv2 (in-place)
I1226 15:00:04.360924 85946 net.cpp:228] Setting up relu2
I1226 15:00:04.361001 85946 net.cpp:235] Top shape: 64 256 27 27 (11943936)
I1226 15:00:04.361034 85946 net.cpp:243] Memory required for data: 376069632
I1226 15:00:04.361071 85946 layer_factory.hpp:114] Creating layer norm2
I1226 15:00:04.361150 85946 net.cpp:178] Creating Layer norm2
I1226 15:00:04.361191 85946 net.cpp:612] norm2 <- conv2
I1226 15:00:04.361238 85946 net.cpp:586] norm2 -> norm2
I1226 15:00:04.361342 85946 net.cpp:228] Setting up norm2
I1226 15:00:04.361415 85946 net.cpp:235] Top shape: 64 256 27 27 (11943936)
I1226 15:00:04.361443 85946 net.cpp:243] Memory required for data: 423845376
I1226 15:00:04.361477 85946 layer_factory.hpp:114] Creating layer pool2
I1226 15:00:04.361543 85946 net.cpp:178] Creating Layer pool2
I1226 15:00:04.361577 85946 net.cpp:612] pool2 <- norm2
I1226 15:00:04.361699 85946 net.cpp:586] pool2 -> pool2
I1226 15:00:04.361805 85946 net.cpp:228] Setting up pool2
I1226 15:00:04.361897 85946 net.cpp:235] Top shape: 64 256 13 13 (2768896)
I1226 15:00:04.362020 85946 net.cpp:243] Memory required for data: 434920960
I1226 15:00:04.362061 85946 layer_factory.hpp:114] Creating layer conv3
I1226 15:00:04.362149 85946 net.cpp:178] Creating Layer conv3
I1226 15:00:04.362190 85946 net.cpp:612] conv3 <- pool2
I1226 15:00:04.362246 85946 net.cpp:586] conv3 -> conv3
I1226 15:00:04.373401 88452 net.cpp:228] Setting up conv3
I1226 15:00:04.373512 88452 net.cpp:235] Top shape: 64 384 13 13 (4153344)
I1226 15:00:04.373538 88452 net.cpp:243] Memory required for data: 451534336
I1226 15:00:04.373605 88452 layer_factory.hpp:114] Creating layer relu3
I1226 15:00:04.373694 88452 net.cpp:178] Creating Layer relu3
I1226 15:00:04.373735 88452 net.cpp:612] relu3 <- conv3
I1226 15:00:04.373780 88452 net.cpp:573] relu3 -> conv3 (in-place)
I1226 15:00:04.373870 88452 net.cpp:228] Setting up relu3
I1226 15:00:04.373917 88452 net.cpp:235] Top shape: 64 384 13 13 (4153344)
I1226 15:00:04.373972 88452 net.cpp:243] Memory required for data: 468147712
I1226 15:00:04.374001 88452 layer_factory.hpp:114] Creating layer conv4
I1226 15:00:04.374066 88452 net.cpp:178] Creating Layer conv4
I1226 15:00:04.374100 88452 net.cpp:612] conv4 <- conv3
I1226 15:00:04.374140 88452 net.cpp:586] conv4 -> conv4
I1226 15:00:04.440770 91209 net.cpp:228] Setting up conv2
I1226 15:00:04.440876 91209 net.cpp:235] Top shape: 64 256 27 27 (11943936)
I1226 15:00:04.440904 91209 net.cpp:243] Memory required for data: 328293888
I1226 15:00:04.440976 91209 layer_factory.hpp:114] Creating layer relu2
I1226 15:00:04.441059 91209 net.cpp:178] Creating Layer relu2
I1226 15:00:04.441117 91209 net.cpp:612] relu2 <- conv2
I1226 15:00:04.441160 91209 net.cpp:573] relu2 -> conv2 (in-place)
I1226 15:00:04.441251 91209 net.cpp:228] Setting up relu2
I1226 15:00:04.441299 91209 net.cpp:235] Top shape: 64 256 27 27 (11943936)
I1226 15:00:04.441330 91209 net.cpp:243] Memory required for data: 376069632
I1226 15:00:04.441365 91209 layer_factory.hpp:114] Creating layer norm2
I1226 15:00:04.441431 91209 net.cpp:178] Creating Layer norm2
I1226 15:00:04.441460 91209 net.cpp:612] norm2 <- conv2
I1226 15:00:04.441503 91209 net.cpp:586] norm2 -> norm2
I1226 15:00:04.441589 91209 net.cpp:228] Setting up norm2
I1226 15:00:04.441639 91209 net.cpp:235] Top shape: 64 256 27 27 (11943936)
I1226 15:00:04.441669 91209 net.cpp:243] Memory required for data: 423845376
I1226 15:00:04.441697 91209 layer_factory.hpp:114] Creating layer pool2
I1226 15:00:04.441752 91209 net.cpp:178] Creating Layer pool2
I1226 15:00:04.441786 91209 net.cpp:612] pool2 <- norm2
I1226 15:00:04.441817 91209 net.cpp:586] pool2 -> pool2
I1226 15:00:04.441902 91209 net.cpp:228] Setting up pool2
I1226 15:00:04.441942 91209 net.cpp:235] Top shape: 64 256 13 13 (2768896)
I1226 15:00:04.442059 91209 net.cpp:243] Memory required for data: 434920960
I1226 15:00:04.442118 91209 layer_factory.hpp:114] Creating layer conv3
I1226 15:00:04.442206 91209 net.cpp:178] Creating Layer conv3
I1226 15:00:04.442243 91209 net.cpp:612] conv3 <- pool2
I1226 15:00:04.442298 91209 net.cpp:586] conv3 -> conv3
I1226 15:00:04.502303 92949 net.cpp:228] Setting up conv2
I1226 15:00:04.502449 92949 net.cpp:235] Top shape: 64 256 27 27 (11943936)
I1226 15:00:04.502485 92949 net.cpp:243] Memory required for data: 328293888
I1226 15:00:04.502585 92949 layer_factory.hpp:114] Creating layer relu2
I1226 15:00:04.502661 92949 net.cpp:178] Creating Layer relu2
I1226 15:00:04.502706 92949 net.cpp:612] relu2 <- conv2
I1226 15:00:04.502785 92949 net.cpp:573] relu2 -> conv2 (in-place)
I1226 15:00:04.502959 92949 net.cpp:228] Setting up relu2
I1226 15:00:04.503154 92949 net.cpp:235] Top shape: 64 256 27 27 (11943936)
I1226 15:00:04.503187 92949 net.cpp:243] Memory required for data: 376069632
I1226 15:00:04.503235 92949 layer_factory.hpp:114] Creating layer norm2
I1226 15:00:04.503296 92949 net.cpp:178] Creating Layer norm2
I1226 15:00:04.503335 92949 net.cpp:612] norm2 <- conv2
I1226 15:00:04.503401 92949 net.cpp:586] norm2 -> norm2
I1226 15:00:04.503551 92949 net.cpp:228] Setting up norm2
I1226 15:00:04.503607 92949 net.cpp:235] Top shape: 64 256 27 27 (11943936)
I1226 15:00:04.503640 92949 net.cpp:243] Memory required for data: 423845376
I1226 15:00:04.503672 92949 layer_factory.hpp:114] Creating layer pool2
I1226 15:00:04.504142 92949 net.cpp:178] Creating Layer pool2
I1226 15:00:04.504288 92949 net.cpp:612] pool2 <- norm2
I1226 15:00:04.504477 92949 net.cpp:586] pool2 -> pool2
I1226 15:00:04.504647 92949 net.cpp:228] Setting up pool2
I1226 15:00:04.504711 92949 net.cpp:235] Top shape: 64 256 13 13 (2768896)
I1226 15:00:04.504881 92949 net.cpp:243] Memory required for data: 434920960
I1226 15:00:04.504923 92949 layer_factory.hpp:114] Creating layer conv3
I1226 15:00:04.505019 92949 net.cpp:178] Creating Layer conv3
I1226 15:00:04.505061 92949 net.cpp:612] conv3 <- pool2
I1226 15:00:04.505165 92949 net.cpp:586] conv3 -> conv3
I1226 15:00:04.508566 99258 net.cpp:228] Setting up conv2
I1226 15:00:04.508684 99258 net.cpp:235] Top shape: 64 256 27 27 (11943936)
I1226 15:00:04.508721 99258 net.cpp:243] Memory required for data: 328293888
I1226 15:00:04.508801 99258 layer_factory.hpp:114] Creating layer relu2
I1226 15:00:04.508903 99258 net.cpp:178] Creating Layer relu2
I1226 15:00:04.508960 99258 net.cpp:612] relu2 <- conv2
I1226 15:00:04.509003 99258 net.cpp:573] relu2 -> conv2 (in-place)
I1226 15:00:04.509132 99258 net.cpp:228] Setting up relu2
I1226 15:00:04.509203 99258 net.cpp:235] Top shape: 64 256 27 27 (11943936)
I1226 15:00:04.509232 99258 net.cpp:243] Memory required for data: 376069632
I1226 15:00:04.509276 99258 layer_factory.hpp:114] Creating layer norm2
I1226 15:00:04.509346 99258 net.cpp:178] Creating Layer norm2
I1226 15:00:04.509378 99258 net.cpp:612] norm2 <- conv2
I1226 15:00:04.509421 99258 net.cpp:586] norm2 -> norm2
I1226 15:00:04.509527 99258 net.cpp:228] Setting up norm2
I1226 15:00:04.509577 99258 net.cpp:235] Top shape: 64 256 27 27 (11943936)
I1226 15:00:04.509606 99258 net.cpp:243] Memory required for data: 423845376
I1226 15:00:04.509640 99258 layer_factory.hpp:114] Creating layer pool2
I1226 15:00:04.509702 99258 net.cpp:178] Creating Layer pool2
I1226 15:00:04.509739 99258 net.cpp:612] pool2 <- norm2
I1226 15:00:04.507573 90550 net.cpp:228] Setting up conv2
I1226 15:00:04.507721 90550 net.cpp:235] Top shape: 64 256 27 27 (11943936)
I1226 15:00:04.507751 90550 net.cpp:243] Memory required for data: 328293888
I1226 15:00:04.507823 90550 layer_factory.hpp:114] Creating layer relu2
I1226 15:00:04.507906 90550 net.cpp:178] Creating Layer relu2
I1226 15:00:04.507947 90550 net.cpp:612] relu2 <- conv2
I1226 15:00:04.507990 90550 net.cpp:573] relu2 -> conv2 (in-place)
I1226 15:00:04.508086 90550 net.cpp:228] Setting up relu2
I1226 15:00:04.508128 90550 net.cpp:235] Top shape: 64 256 27 27 (11943936)
I1226 15:00:04.508152 90550 net.cpp:243] Memory required for data: 376069632
I1226 15:00:04.508179 90550 layer_factory.hpp:114] Creating layer norm2
I1226 15:00:04.508229 90550 net.cpp:178] Creating Layer norm2
I1226 15:00:04.508258 90550 net.cpp:612] norm2 <- conv2
I1226 15:00:04.508308 90550 net.cpp:586] norm2 -> norm2
I1226 15:00:04.508396 90550 net.cpp:228] Setting up norm2
I1226 15:00:04.508443 90550 net.cpp:235] Top shape: 64 256 27 27 (11943936)
I1226 15:00:04.508467 90550 net.cpp:243] Memory required for data: 423845376
I1226 15:00:04.508493 90550 layer_factory.hpp:114] Creating layer pool2
I1226 15:00:04.508564 90550 net.cpp:178] Creating Layer pool2
I1226 15:00:04.508617 90550 net.cpp:612] pool2 <- norm2
I1226 15:00:04.508656 90550 net.cpp:586] pool2 -> pool2
I1226 15:00:04.508745 90550 net.cpp:228] Setting up pool2
I1226 15:00:04.508795 90550 net.cpp:235] Top shape: 64 256 13 13 (2768896)
I1226 15:00:04.508918 90550 net.cpp:243] Memory required for data: 434920960
I1226 15:00:04.508955 90550 layer_factory.hpp:114] Creating layer conv3
I1226 15:00:04.509052 90550 net.cpp:178] Creating Layer conv3
I1226 15:00:04.509088 90550 net.cpp:612] conv3 <- pool2
I1226 15:00:04.509130 90550 net.cpp:586] conv3 -> conv3
I1226 15:00:04.521595 99258 net.cpp:586] pool2 -> pool2
I1226 15:00:04.521982 99258 net.cpp:228] Setting up pool2
I1226 15:00:04.522096 99258 net.cpp:235] Top shape: 64 256 13 13 (2768896)
I1226 15:00:04.522274 99258 net.cpp:243] Memory required for data: 434920960
I1226 15:00:04.522318 99258 layer_factory.hpp:114] Creating layer conv3
I1226 15:00:04.522750 99258 net.cpp:178] Creating Layer conv3
I1226 15:00:04.522817 99258 net.cpp:612] conv3 <- pool2
I1226 15:00:04.522869 99258 net.cpp:586] conv3 -> conv3
I1226 15:00:04.528409 90464 net.cpp:228] Setting up conv2
I1226 15:00:04.528935 90464 net.cpp:235] Top shape: 64 256 27 27 (11943936)
I1226 15:00:04.529028 90464 net.cpp:243] Memory required for data: 328293888
I1226 15:00:04.529197 90464 layer_factory.hpp:114] Creating layer relu2
I1226 15:00:04.529372 90464 net.cpp:178] Creating Layer relu2
I1226 15:00:04.529614 90464 net.cpp:612] relu2 <- conv2
I1226 15:00:04.529886 90464 net.cpp:573] relu2 -> conv2 (in-place)
I1226 15:00:04.530625 90464 net.cpp:228] Setting up relu2
I1226 15:00:04.530820 90464 net.cpp:235] Top shape: 64 256 27 27 (11943936)
I1226 15:00:04.530895 90464 net.cpp:243] Memory required for data: 376069632
I1226 15:00:04.530982 90464 layer_factory.hpp:114] Creating layer norm2
I1226 15:00:04.531216 90464 net.cpp:178] Creating Layer norm2
I1226 15:00:04.531301 90464 net.cpp:612] norm2 <- conv2
I1226 15:00:04.531383 90464 net.cpp:586] norm2 -> norm2
I1226 15:00:04.532140 90464 net.cpp:228] Setting up norm2
I1226 15:00:04.532269 90464 net.cpp:235] Top shape: 64 256 27 27 (11943936)
I1226 15:00:04.532353 90464 net.cpp:243] Memory required for data: 423845376
I1226 15:00:04.532440 90464 layer_factory.hpp:114] Creating layer pool2
I1226 15:00:04.532614 90464 net.cpp:178] Creating Layer pool2
I1226 15:00:04.532665 90464 net.cpp:612] pool2 <- norm2
I1226 15:00:04.532719 90464 net.cpp:586] pool2 -> pool2
I1226 15:00:04.532892 90464 net.cpp:228] Setting up pool2
I1226 15:00:04.532956 90464 net.cpp:235] Top shape: 64 256 13 13 (2768896)
I1226 15:00:04.533426 90464 net.cpp:243] Memory required for data: 434920960
I1226 15:00:04.533499 90464 layer_factory.hpp:114] Creating layer conv3
I1226 15:00:04.533731 90464 net.cpp:178] Creating Layer conv3
I1226 15:00:04.533807 90464 net.cpp:612] conv3 <- pool2
I1226 15:00:04.533893 90464 net.cpp:586] conv3 -> conv3
I1226 15:00:04.546398 92073 net.cpp:228] Setting up conv2
I1226 15:00:04.546511 92073 net.cpp:235] Top shape: 64 256 27 27 (11943936)
I1226 15:00:04.546545 92073 net.cpp:243] Memory required for data: 328293888
I1226 15:00:04.546627 92073 layer_factory.hpp:114] Creating layer relu2
I1226 15:00:04.546702 92073 net.cpp:178] Creating Layer relu2
I1226 15:00:04.546736 92073 net.cpp:612] relu2 <- conv2
I1226 15:00:04.546813 92073 net.cpp:573] relu2 -> conv2 (in-place)
I1226 15:00:04.546918 92073 net.cpp:228] Setting up relu2
I1226 15:00:04.546972 92073 net.cpp:235] Top shape: 64 256 27 27 (11943936)
I1226 15:00:04.546996 92073 net.cpp:243] Memory required for data: 376069632
I1226 15:00:04.547027 92073 layer_factory.hpp:114] Creating layer norm2
I1226 15:00:04.547089 92073 net.cpp:178] Creating Layer norm2
I1226 15:00:04.547125 92073 net.cpp:612] norm2 <- conv2
I1226 15:00:04.547178 92073 net.cpp:586] norm2 -> norm2
I1226 15:00:04.547297 92073 net.cpp:228] Setting up norm2
I1226 15:00:04.547466 92073 net.cpp:235] Top shape: 64 256 27 27 (11943936)
I1226 15:00:04.547493 92073 net.cpp:243] Memory required for data: 423845376
I1226 15:00:04.547524 92073 layer_factory.hpp:114] Creating layer pool2
I1226 15:00:04.547605 92073 net.cpp:178] Creating Layer pool2
I1226 15:00:04.547641 92073 net.cpp:612] pool2 <- norm2
I1226 15:00:04.547694 92073 net.cpp:586] pool2 -> pool2
I1226 15:00:04.547792 92073 net.cpp:228] Setting up pool2
I1226 15:00:04.547842 92073 net.cpp:235] Top shape: 64 256 13 13 (2768896)
I1226 15:00:04.547957 92073 net.cpp:243] Memory required for data: 434920960
I1226 15:00:04.547994 92073 layer_factory.hpp:114] Creating layer conv3
I1226 15:00:04.548080 92073 net.cpp:178] Creating Layer conv3
I1226 15:00:04.548116 92073 net.cpp:612] conv3 <- pool2
I1226 15:00:04.548166 92073 net.cpp:586] conv3 -> conv3
I1226 15:00:04.556300 92959 net.cpp:228] Setting up conv2
I1226 15:00:04.556411 92959 net.cpp:235] Top shape: 64 256 27 27 (11943936)
I1226 15:00:04.556438 92959 net.cpp:243] Memory required for data: 328293888
I1226 15:00:04.556541 92959 layer_factory.hpp:114] Creating layer relu2
I1226 15:00:04.556604 92959 net.cpp:178] Creating Layer relu2
I1226 15:00:04.556646 92959 net.cpp:612] relu2 <- conv2
I1226 15:00:04.556709 92959 net.cpp:573] relu2 -> conv2 (in-place)
I1226 15:00:04.556814 92959 net.cpp:228] Setting up relu2
I1226 15:00:04.556862 92959 net.cpp:235] Top shape: 64 256 27 27 (11943936)
I1226 15:00:04.556885 92959 net.cpp:243] Memory required for data: 376069632
I1226 15:00:04.556913 92959 layer_factory.hpp:114] Creating layer norm2
I1226 15:00:04.556964 92959 net.cpp:178] Creating Layer norm2
I1226 15:00:04.556990 92959 net.cpp:612] norm2 <- conv2
I1226 15:00:04.557027 92959 net.cpp:586] norm2 -> norm2
I1226 15:00:04.557138 92959 net.cpp:228] Setting up norm2
I1226 15:00:04.557185 92959 net.cpp:235] Top shape: 64 256 27 27 (11943936)
I1226 15:00:04.557215 92959 net.cpp:243] Memory required for data: 423845376
I1226 15:00:04.557245 92959 layer_factory.hpp:114] Creating layer pool2
I1226 15:00:04.557301 92959 net.cpp:178] Creating Layer pool2
I1226 15:00:04.557337 92959 net.cpp:612] pool2 <- norm2
I1226 15:00:04.557375 92959 net.cpp:586] pool2 -> pool2
I1226 15:00:04.557467 92959 net.cpp:228] Setting up pool2
I1226 15:00:04.557556 92959 net.cpp:235] Top shape: 64 256 13 13 (2768896)
I1226 15:00:04.557687 92959 net.cpp:243] Memory required for data: 434920960
I1226 15:00:04.557723 92959 layer_factory.hpp:114] Creating layer conv3
I1226 15:00:04.557808 92959 net.cpp:178] Creating Layer conv3
I1226 15:00:04.557847 92959 net.cpp:612] conv3 <- pool2
I1226 15:00:04.557890 92959 net.cpp:586] conv3 -> conv3
I1226 15:00:04.573837 88452 net.cpp:228] Setting up conv4
I1226 15:00:04.573997 88452 net.cpp:235] Top shape: 64 384 13 13 (4153344)
I1226 15:00:04.574023 88452 net.cpp:243] Memory required for data: 484761088
I1226 15:00:04.574079 88452 layer_factory.hpp:114] Creating layer relu4
I1226 15:00:04.574151 88452 net.cpp:178] Creating Layer relu4
I1226 15:00:04.574179 88452 net.cpp:612] relu4 <- conv4
I1226 15:00:04.574215 88452 net.cpp:573] relu4 -> conv4 (in-place)
I1226 15:00:04.574290 88452 net.cpp:228] Setting up relu4
I1226 15:00:04.574328 88452 net.cpp:235] Top shape: 64 384 13 13 (4153344)
I1226 15:00:04.574350 88452 net.cpp:243] Memory required for data: 501374464
I1226 15:00:04.574378 88452 layer_factory.hpp:114] Creating layer conv5
I1226 15:00:04.574445 88452 net.cpp:178] Creating Layer conv5
I1226 15:00:04.574470 88452 net.cpp:612] conv5 <- conv4
I1226 15:00:04.574506 88452 net.cpp:586] conv5 -> conv5
I1226 15:00:04.719084 88452 net.cpp:228] Setting up conv5
I1226 15:00:04.719188 88452 net.cpp:235] Top shape: 64 256 13 13 (2768896)
I1226 15:00:04.719213 88452 net.cpp:243] Memory required for data: 512450048
I1226 15:00:04.719282 88452 layer_factory.hpp:114] Creating layer relu5
I1226 15:00:04.719347 88452 net.cpp:178] Creating Layer relu5
I1226 15:00:04.719398 88452 net.cpp:612] relu5 <- conv5
I1226 15:00:04.719542 88452 net.cpp:573] relu5 -> conv5 (in-place)
I1226 15:00:04.719655 88452 net.cpp:228] Setting up relu5
I1226 15:00:04.719739 88452 net.cpp:235] Top shape: 64 256 13 13 (2768896)
I1226 15:00:04.719763 88452 net.cpp:243] Memory required for data: 523525632
I1226 15:00:04.719790 88452 layer_factory.hpp:114] Creating layer pool5
I1226 15:00:04.719856 88452 net.cpp:178] Creating Layer pool5
I1226 15:00:04.719887 88452 net.cpp:612] pool5 <- conv5
I1226 15:00:04.719944 88452 net.cpp:586] pool5 -> pool5
I1226 15:00:04.720060 88452 net.cpp:228] Setting up pool5
I1226 15:00:04.720104 88452 net.cpp:235] Top shape: 64 256 6 6 (589824)
I1226 15:00:04.720127 88452 net.cpp:243] Memory required for data: 525884928
I1226 15:00:04.720154 88452 layer_factory.hpp:114] Creating layer fc6
I1226 15:00:04.720237 88452 net.cpp:178] Creating Layer fc6
I1226 15:00:04.720269 88452 net.cpp:612] fc6 <- pool5
I1226 15:00:04.720312 88452 net.cpp:586] fc6 -> fc6
I1226 15:00:04.718402 85946 net.cpp:228] Setting up conv3
I1226 15:00:04.718550 85946 net.cpp:235] Top shape: 64 384 13 13 (4153344)
I1226 15:00:04.718585 85946 net.cpp:243] Memory required for data: 451534336
I1226 15:00:04.718693 85946 layer_factory.hpp:114] Creating layer relu3
I1226 15:00:04.718786 85946 net.cpp:178] Creating Layer relu3
I1226 15:00:04.718830 85946 net.cpp:612] relu3 <- conv3
I1226 15:00:04.718878 85946 net.cpp:573] relu3 -> conv3 (in-place)
I1226 15:00:04.718987 85946 net.cpp:228] Setting up relu3
I1226 15:00:04.719055 85946 net.cpp:235] Top shape: 64 384 13 13 (4153344)
I1226 15:00:04.719087 85946 net.cpp:243] Memory required for data: 468147712
I1226 15:00:04.719123 85946 layer_factory.hpp:114] Creating layer conv4
I1226 15:00:04.719224 85946 net.cpp:178] Creating Layer conv4
I1226 15:00:04.719265 85946 net.cpp:612] conv4 <- conv3
I1226 15:00:04.719326 85946 net.cpp:586] conv4 -> conv4
I1226 15:00:04.777673 91209 net.cpp:228] Setting up conv3
I1226 15:00:04.777782 91209 net.cpp:235] Top shape: 64 384 13 13 (4153344)
I1226 15:00:04.777807 91209 net.cpp:243] Memory required for data: 451534336
I1226 15:00:04.777879 91209 layer_factory.hpp:114] Creating layer relu3
I1226 15:00:04.777966 91209 net.cpp:178] Creating Layer relu3
I1226 15:00:04.778005 91209 net.cpp:612] relu3 <- conv3
I1226 15:00:04.778053 91209 net.cpp:573] relu3 -> conv3 (in-place)
I1226 15:00:04.778185 91209 net.cpp:228] Setting up relu3
I1226 15:00:04.778237 91209 net.cpp:235] Top shape: 64 384 13 13 (4153344)
I1226 15:00:04.778270 91209 net.cpp:243] Memory required for data: 468147712
I1226 15:00:04.778301 91209 layer_factory.hpp:114] Creating layer conv4
I1226 15:00:04.778385 91209 net.cpp:178] Creating Layer conv4
I1226 15:00:04.778419 91209 net.cpp:612] conv4 <- conv3
I1226 15:00:04.778471 91209 net.cpp:586] conv4 -> conv4
I1226 15:00:04.881131 92949 net.cpp:228] Setting up conv3
I1226 15:00:04.881242 92949 net.cpp:235] Top shape: 64 384 13 13 (4153344)
I1226 15:00:04.881279 92949 net.cpp:243] Memory required for data: 451534336
I1226 15:00:04.881428 92949 layer_factory.hpp:114] Creating layer relu3
I1226 15:00:04.881546 92949 net.cpp:178] Creating Layer relu3
I1226 15:00:04.881680 92949 net.cpp:612] relu3 <- conv3
I1226 15:00:04.881769 92949 net.cpp:573] relu3 -> conv3 (in-place)
I1226 15:00:04.881929 92949 net.cpp:228] Setting up relu3
I1226 15:00:04.882064 92949 net.cpp:235] Top shape: 64 384 13 13 (4153344)
I1226 15:00:04.882094 92949 net.cpp:243] Memory required for data: 468147712
I1226 15:00:04.882138 92949 layer_factory.hpp:114] Creating layer conv4
I1226 15:00:04.882284 92949 net.cpp:178] Creating Layer conv4
I1226 15:00:04.882329 92949 net.cpp:612] conv4 <- conv3
I1226 15:00:04.882398 92949 net.cpp:586] conv4 -> conv4
I1226 15:00:04.892479 90550 net.cpp:228] Setting up conv3
I1226 15:00:04.892642 90550 net.cpp:235] Top shape: 64 384 13 13 (4153344)
I1226 15:00:04.892675 90550 net.cpp:243] Memory required for data: 451534336
I1226 15:00:04.892776 90550 layer_factory.hpp:114] Creating layer relu3
I1226 15:00:04.892848 90550 net.cpp:178] Creating Layer relu3
I1226 15:00:04.892880 90550 net.cpp:612] relu3 <- conv3
I1226 15:00:04.892931 90550 net.cpp:573] relu3 -> conv3 (in-place)
I1226 15:00:04.893025 90550 net.cpp:228] Setting up relu3
I1226 15:00:04.893097 90550 net.cpp:235] Top shape: 64 384 13 13 (4153344)
I1226 15:00:04.893124 90550 net.cpp:243] Memory required for data: 468147712
I1226 15:00:04.893152 90550 layer_factory.hpp:114] Creating layer conv4
I1226 15:00:04.893399 90550 net.cpp:178] Creating Layer conv4
I1226 15:00:04.893445 90550 net.cpp:612] conv4 <- conv3
I1226 15:00:04.893512 90550 net.cpp:586] conv4 -> conv4
I1226 15:00:04.917466 99258 net.cpp:228] Setting up conv3
I1226 15:00:04.917575 99258 net.cpp:235] Top shape: 64 384 13 13 (4153344)
I1226 15:00:04.917610 99258 net.cpp:243] Memory required for data: 451534336
I1226 15:00:04.917716 99258 layer_factory.hpp:114] Creating layer relu3
I1226 15:00:04.917820 99258 net.cpp:178] Creating Layer relu3
I1226 15:00:04.917992 99258 net.cpp:612] relu3 <- conv3
I1226 15:00:04.918243 99258 net.cpp:573] relu3 -> conv3 (in-place)
I1226 15:00:04.918393 99258 net.cpp:228] Setting up relu3
I1226 15:00:04.918521 99258 net.cpp:235] Top shape: 64 384 13 13 (4153344)
I1226 15:00:04.918552 99258 net.cpp:243] Memory required for data: 468147712
I1226 15:00:04.918587 99258 layer_factory.hpp:114] Creating layer conv4
I1226 15:00:04.919140 99258 net.cpp:178] Creating Layer conv4
I1226 15:00:04.919256 99258 net.cpp:612] conv4 <- conv3
I1226 15:00:04.919399 99258 net.cpp:586] conv4 -> conv4
I1226 15:00:04.924769 92959 net.cpp:228] Setting up conv3
I1226 15:00:04.924880 92959 net.cpp:235] Top shape: 64 384 13 13 (4153344)
I1226 15:00:04.924904 92959 net.cpp:243] Memory required for data: 451534336
I1226 15:00:04.924994 92959 layer_factory.hpp:114] Creating layer relu3
I1226 15:00:04.925063 92959 net.cpp:178] Creating Layer relu3
I1226 15:00:04.925102 92959 net.cpp:612] relu3 <- conv3
I1226 15:00:04.925159 92959 net.cpp:573] relu3 -> conv3 (in-place)
I1226 15:00:04.925252 92959 net.cpp:228] Setting up relu3
I1226 15:00:04.925297 92959 net.cpp:235] Top shape: 64 384 13 13 (4153344)
I1226 15:00:04.925319 92959 net.cpp:243] Memory required for data: 468147712
I1226 15:00:04.925348 92959 layer_factory.hpp:114] Creating layer conv4
I1226 15:00:04.925431 92959 net.cpp:178] Creating Layer conv4
I1226 15:00:04.925465 92959 net.cpp:612] conv4 <- conv3
I1226 15:00:04.925544 92959 net.cpp:586] conv4 -> conv4
I1226 15:00:04.939234 92073 net.cpp:228] Setting up conv3
I1226 15:00:04.939349 92073 net.cpp:235] Top shape: 64 384 13 13 (4153344)
I1226 15:00:04.939380 92073 net.cpp:243] Memory required for data: 451534336
I1226 15:00:04.939502 92073 layer_factory.hpp:114] Creating layer relu3
I1226 15:00:04.939576 92073 net.cpp:178] Creating Layer relu3
I1226 15:00:04.939610 92073 net.cpp:612] relu3 <- conv3
I1226 15:00:04.939673 92073 net.cpp:573] relu3 -> conv3 (in-place)
I1226 15:00:04.939769 92073 net.cpp:228] Setting up relu3
I1226 15:00:04.939812 92073 net.cpp:235] Top shape: 64 384 13 13 (4153344)
I1226 15:00:04.939841 92073 net.cpp:243] Memory required for data: 468147712
I1226 15:00:04.939872 92073 layer_factory.hpp:114] Creating layer conv4
I1226 15:00:04.939970 92073 net.cpp:178] Creating Layer conv4
I1226 15:00:04.940011 92073 net.cpp:612] conv4 <- conv3
I1226 15:00:04.940063 92073 net.cpp:586] conv4 -> conv4
I1226 15:00:04.971895 90464 net.cpp:228] Setting up conv3
I1226 15:00:04.972043 90464 net.cpp:235] Top shape: 64 384 13 13 (4153344)
I1226 15:00:04.972120 90464 net.cpp:243] Memory required for data: 451534336
I1226 15:00:04.972451 90464 layer_factory.hpp:114] Creating layer relu3
I1226 15:00:04.972796 90464 net.cpp:178] Creating Layer relu3
I1226 15:00:04.972929 90464 net.cpp:612] relu3 <- conv3
I1226 15:00:04.973004 90464 net.cpp:573] relu3 -> conv3 (in-place)
I1226 15:00:04.973156 90464 net.cpp:228] Setting up relu3
I1226 15:00:04.973724 90464 net.cpp:235] Top shape: 64 384 13 13 (4153344)
I1226 15:00:04.973829 90464 net.cpp:243] Memory required for data: 468147712
I1226 15:00:04.973886 90464 layer_factory.hpp:114] Creating layer conv4
I1226 15:00:04.974043 90464 net.cpp:178] Creating Layer conv4
I1226 15:00:04.974095 90464 net.cpp:612] conv4 <- conv3
I1226 15:00:04.974198 90464 net.cpp:586] conv4 -> conv4
I1226 15:00:05.019765 85946 net.cpp:228] Setting up conv4
I1226 15:00:05.019908 85946 net.cpp:235] Top shape: 64 384 13 13 (4153344)
I1226 15:00:05.019940 85946 net.cpp:243] Memory required for data: 484761088
I1226 15:00:05.020002 85946 layer_factory.hpp:114] Creating layer relu4
I1226 15:00:05.020068 85946 net.cpp:178] Creating Layer relu4
I1226 15:00:05.020105 85946 net.cpp:612] relu4 <- conv4
I1226 15:00:05.020174 85946 net.cpp:573] relu4 -> conv4 (in-place)
I1226 15:00:05.020325 85946 net.cpp:228] Setting up relu4
I1226 15:00:05.020501 85946 net.cpp:235] Top shape: 64 384 13 13 (4153344)
I1226 15:00:05.020534 85946 net.cpp:243] Memory required for data: 501374464
I1226 15:00:05.020570 85946 layer_factory.hpp:114] Creating layer conv5
I1226 15:00:05.020737 85946 net.cpp:178] Creating Layer conv5
I1226 15:00:05.020789 85946 net.cpp:612] conv5 <- conv4
I1226 15:00:05.020859 85946 net.cpp:586] conv5 -> conv5
I1226 15:00:05.091812 91209 net.cpp:228] Setting up conv4
I1226 15:00:05.091923 91209 net.cpp:235] Top shape: 64 384 13 13 (4153344)
I1226 15:00:05.091960 91209 net.cpp:243] Memory required for data: 484761088
I1226 15:00:05.092020 91209 layer_factory.hpp:114] Creating layer relu4
I1226 15:00:05.092085 91209 net.cpp:178] Creating Layer relu4
I1226 15:00:05.092144 91209 net.cpp:612] relu4 <- conv4
I1226 15:00:05.092216 91209 net.cpp:573] relu4 -> conv4 (in-place)
I1226 15:00:05.092310 91209 net.cpp:228] Setting up relu4
I1226 15:00:05.092392 91209 net.cpp:235] Top shape: 64 384 13 13 (4153344)
I1226 15:00:05.092492 91209 net.cpp:243] Memory required for data: 501374464
I1226 15:00:05.092690 91209 layer_factory.hpp:114] Creating layer conv5
I1226 15:00:05.092805 91209 net.cpp:178] Creating Layer conv5
I1226 15:00:05.092881 91209 net.cpp:612] conv5 <- conv4
I1226 15:00:05.092938 91209 net.cpp:586] conv5 -> conv5
I1226 15:00:05.224292 85946 net.cpp:228] Setting up conv5
I1226 15:00:05.224406 85946 net.cpp:235] Top shape: 64 256 13 13 (2768896)
I1226 15:00:05.224436 85946 net.cpp:243] Memory required for data: 512450048
I1226 15:00:05.224512 85946 layer_factory.hpp:114] Creating layer relu5
I1226 15:00:05.224629 85946 net.cpp:178] Creating Layer relu5
I1226 15:00:05.224678 85946 net.cpp:612] relu5 <- conv5
I1226 15:00:05.224730 85946 net.cpp:573] relu5 -> conv5 (in-place)
I1226 15:00:05.224841 85946 net.cpp:228] Setting up relu5
I1226 15:00:05.224889 85946 net.cpp:235] Top shape: 64 256 13 13 (2768896)
I1226 15:00:05.224915 85946 net.cpp:243] Memory required for data: 523525632
I1226 15:00:05.224951 85946 layer_factory.hpp:114] Creating layer pool5
I1226 15:00:05.225040 85946 net.cpp:178] Creating Layer pool5
I1226 15:00:05.225083 85946 net.cpp:612] pool5 <- conv5
I1226 15:00:05.225131 85946 net.cpp:586] pool5 -> pool5
I1226 15:00:05.225245 85946 net.cpp:228] Setting up pool5
I1226 15:00:05.225296 85946 net.cpp:235] Top shape: 64 256 6 6 (589824)
I1226 15:00:05.225322 85946 net.cpp:243] Memory required for data: 525884928
I1226 15:00:05.225355 85946 layer_factory.hpp:114] Creating layer fc6
I1226 15:00:05.225441 85946 net.cpp:178] Creating Layer fc6
I1226 15:00:05.225477 85946 net.cpp:612] fc6 <- pool5
I1226 15:00:05.225540 85946 net.cpp:586] fc6 -> fc6
I1226 15:00:05.233168 92949 net.cpp:228] Setting up conv4
I1226 15:00:05.233292 92949 net.cpp:235] Top shape: 64 384 13 13 (4153344)
I1226 15:00:05.233326 92949 net.cpp:243] Memory required for data: 484761088
I1226 15:00:05.233384 92949 layer_factory.hpp:114] Creating layer relu4
I1226 15:00:05.233455 92949 net.cpp:178] Creating Layer relu4
I1226 15:00:05.233485 92949 net.cpp:612] relu4 <- conv4
I1226 15:00:05.233541 92949 net.cpp:573] relu4 -> conv4 (in-place)
I1226 15:00:05.233649 92949 net.cpp:228] Setting up relu4
I1226 15:00:05.233701 92949 net.cpp:235] Top shape: 64 384 13 13 (4153344)
I1226 15:00:05.233724 92949 net.cpp:243] Memory required for data: 501374464
I1226 15:00:05.233753 92949 layer_factory.hpp:114] Creating layer conv5
I1226 15:00:05.233876 92949 net.cpp:178] Creating Layer conv5
I1226 15:00:05.233930 92949 net.cpp:612] conv5 <- conv4
I1226 15:00:05.233978 92949 net.cpp:586] conv5 -> conv5
I1226 15:00:05.249486 99258 net.cpp:228] Setting up conv4
I1226 15:00:05.249621 99258 net.cpp:235] Top shape: 64 384 13 13 (4153344)
I1226 15:00:05.249658 99258 net.cpp:243] Memory required for data: 484761088
I1226 15:00:05.249724 99258 layer_factory.hpp:114] Creating layer relu4
I1226 15:00:05.249799 99258 net.cpp:178] Creating Layer relu4
I1226 15:00:05.249841 99258 net.cpp:612] relu4 <- conv4
I1226 15:00:05.249896 99258 net.cpp:573] relu4 -> conv4 (in-place)
I1226 15:00:05.250007 99258 net.cpp:228] Setting up relu4
I1226 15:00:05.250099 99258 net.cpp:235] Top shape: 64 384 13 13 (4153344)
I1226 15:00:05.250134 99258 net.cpp:243] Memory required for data: 501374464
I1226 15:00:05.250169 99258 layer_factory.hpp:114] Creating layer conv5
I1226 15:00:05.250273 99258 net.cpp:178] Creating Layer conv5
I1226 15:00:05.250313 99258 net.cpp:612] conv5 <- conv4
I1226 15:00:05.250362 99258 net.cpp:586] conv5 -> conv5
I1226 15:00:05.250913 92959 net.cpp:228] Setting up conv4
I1226 15:00:05.251040 92959 net.cpp:235] Top shape: 64 384 13 13 (4153344)
I1226 15:00:05.251072 92959 net.cpp:243] Memory required for data: 484761088
I1226 15:00:05.251132 92959 layer_factory.hpp:114] Creating layer relu4
I1226 15:00:05.251202 92959 net.cpp:178] Creating Layer relu4
I1226 15:00:05.251335 92959 net.cpp:612] relu4 <- conv4
I1226 15:00:05.251379 92959 net.cpp:573] relu4 -> conv4 (in-place)
I1226 15:00:05.251504 92959 net.cpp:228] Setting up relu4
I1226 15:00:05.251579 92959 net.cpp:235] Top shape: 64 384 13 13 (4153344)
I1226 15:00:05.251605 92959 net.cpp:243] Memory required for data: 501374464
I1226 15:00:05.251636 92959 layer_factory.hpp:114] Creating layer conv5
I1226 15:00:05.251747 92959 net.cpp:178] Creating Layer conv5
I1226 15:00:05.251788 92959 net.cpp:612] conv5 <- conv4
I1226 15:00:05.251832 92959 net.cpp:586] conv5 -> conv5
I1226 15:00:05.262042 92073 net.cpp:228] Setting up conv4
I1226 15:00:05.262173 92073 net.cpp:235] Top shape: 64 384 13 13 (4153344)
I1226 15:00:05.262233 92073 net.cpp:243] Memory required for data: 484761088
I1226 15:00:05.262302 92073 layer_factory.hpp:114] Creating layer relu4
I1226 15:00:05.262379 92073 net.cpp:178] Creating Layer relu4
I1226 15:00:05.262825 92073 net.cpp:612] relu4 <- conv4
I1226 15:00:05.262923 92073 net.cpp:573] relu4 -> conv4 (in-place)
I1226 15:00:05.263056 92073 net.cpp:228] Setting up relu4
I1226 15:00:05.263114 92073 net.cpp:235] Top shape: 64 384 13 13 (4153344)
I1226 15:00:05.263171 92073 net.cpp:243] Memory required for data: 501374464
I1226 15:00:05.263321 92073 layer_factory.hpp:114] Creating layer conv5
I1226 15:00:05.263401 92073 net.cpp:178] Creating Layer conv5
I1226 15:00:05.263442 92073 net.cpp:612] conv5 <- conv4
I1226 15:00:05.263484 92073 net.cpp:586] conv5 -> conv5
I1226 15:00:05.279867 90550 net.cpp:228] Setting up conv4
I1226 15:00:05.280014 90550 net.cpp:235] Top shape: 64 384 13 13 (4153344)
I1226 15:00:05.280192 90550 net.cpp:243] Memory required for data: 484761088
I1226 15:00:05.280351 90550 layer_factory.hpp:114] Creating layer relu4
I1226 15:00:05.280417 90550 net.cpp:178] Creating Layer relu4
I1226 15:00:05.280561 90550 net.cpp:612] relu4 <- conv4
I1226 15:00:05.280632 90550 net.cpp:573] relu4 -> conv4 (in-place)
I1226 15:00:05.281100 90550 net.cpp:228] Setting up relu4
I1226 15:00:05.281237 90550 net.cpp:235] Top shape: 64 384 13 13 (4153344)
I1226 15:00:05.281301 90550 net.cpp:243] Memory required for data: 501374464
I1226 15:00:05.281441 90550 layer_factory.hpp:114] Creating layer conv5
I1226 15:00:05.281729 90550 net.cpp:178] Creating Layer conv5
I1226 15:00:05.281780 90550 net.cpp:612] conv5 <- conv4
I1226 15:00:05.281874 90550 net.cpp:586] conv5 -> conv5
I1226 15:00:05.323036 90464 net.cpp:228] Setting up conv4
I1226 15:00:05.323158 90464 net.cpp:235] Top shape: 64 384 13 13 (4153344)
I1226 15:00:05.323194 90464 net.cpp:243] Memory required for data: 484761088
I1226 15:00:05.323281 90464 layer_factory.hpp:114] Creating layer relu4
I1226 15:00:05.323556 90464 net.cpp:178] Creating Layer relu4
I1226 15:00:05.323653 90464 net.cpp:612] relu4 <- conv4
I1226 15:00:05.323719 90464 net.cpp:573] relu4 -> conv4 (in-place)
I1226 15:00:05.324029 90464 net.cpp:228] Setting up relu4
I1226 15:00:05.324220 90464 net.cpp:235] Top shape: 64 384 13 13 (4153344)
I1226 15:00:05.324260 90464 net.cpp:243] Memory required for data: 501374464
I1226 15:00:05.324303 90464 layer_factory.hpp:114] Creating layer conv5
I1226 15:00:05.324414 90464 net.cpp:178] Creating Layer conv5
I1226 15:00:05.324527 90464 net.cpp:612] conv5 <- conv4
I1226 15:00:05.324632 90464 net.cpp:586] conv5 -> conv5
I1226 15:00:05.330231 91209 net.cpp:228] Setting up conv5
I1226 15:00:05.330621 91209 net.cpp:235] Top shape: 64 256 13 13 (2768896)
I1226 15:00:05.330673 91209 net.cpp:243] Memory required for data: 512450048
I1226 15:00:05.330780 91209 layer_factory.hpp:114] Creating layer relu5
I1226 15:00:05.330894 91209 net.cpp:178] Creating Layer relu5
I1226 15:00:05.330979 91209 net.cpp:612] relu5 <- conv5
I1226 15:00:05.331022 91209 net.cpp:573] relu5 -> conv5 (in-place)
I1226 15:00:05.331167 91209 net.cpp:228] Setting up relu5
I1226 15:00:05.331233 91209 net.cpp:235] Top shape: 64 256 13 13 (2768896)
I1226 15:00:05.331257 91209 net.cpp:243] Memory required for data: 523525632
I1226 15:00:05.331411 91209 layer_factory.hpp:114] Creating layer pool5
I1226 15:00:05.331740 91209 net.cpp:178] Creating Layer pool5
I1226 15:00:05.331797 91209 net.cpp:612] pool5 <- conv5
I1226 15:00:05.331872 91209 net.cpp:586] pool5 -> pool5
I1226 15:00:05.332015 91209 net.cpp:228] Setting up pool5
I1226 15:00:05.332078 91209 net.cpp:235] Top shape: 64 256 6 6 (589824)
I1226 15:00:05.332126 91209 net.cpp:243] Memory required for data: 525884928
I1226 15:00:05.332159 91209 layer_factory.hpp:114] Creating layer fc6
I1226 15:00:05.332283 91209 net.cpp:178] Creating Layer fc6
I1226 15:00:05.332317 91209 net.cpp:612] fc6 <- pool5
I1226 15:00:05.332401 91209 net.cpp:586] fc6 -> fc6
I1226 15:00:05.480597 92949 net.cpp:228] Setting up conv5
I1226 15:00:05.480713 92949 net.cpp:235] Top shape: 64 256 13 13 (2768896)
I1226 15:00:05.480746 92949 net.cpp:243] Memory required for data: 512450048
I1226 15:00:05.480855 92949 layer_factory.hpp:114] Creating layer relu5
I1226 15:00:05.480950 92949 net.cpp:178] Creating Layer relu5
I1226 15:00:05.481009 92949 net.cpp:612] relu5 <- conv5
I1226 15:00:05.481056 92949 net.cpp:573] relu5 -> conv5 (in-place)
I1226 15:00:05.481165 92949 net.cpp:228] Setting up relu5
I1226 15:00:05.481217 92949 net.cpp:235] Top shape: 64 256 13 13 (2768896)
I1226 15:00:05.481242 92949 net.cpp:243] Memory required for data: 523525632
I1226 15:00:05.481274 92949 layer_factory.hpp:114] Creating layer pool5
I1226 15:00:05.481583 92949 net.cpp:178] Creating Layer pool5
I1226 15:00:05.481631 92949 net.cpp:612] pool5 <- conv5
I1226 15:00:05.481883 92949 net.cpp:586] pool5 -> pool5
I1226 15:00:05.482112 92949 net.cpp:228] Setting up pool5
I1226 15:00:05.482167 92949 net.cpp:235] Top shape: 64 256 6 6 (589824)
I1226 15:00:05.482190 92949 net.cpp:243] Memory required for data: 525884928
I1226 15:00:05.482219 92949 layer_factory.hpp:114] Creating layer fc6
I1226 15:00:05.482301 92949 net.cpp:178] Creating Layer fc6
I1226 15:00:05.482334 92949 net.cpp:612] fc6 <- pool5
I1226 15:00:05.482388 92949 net.cpp:586] fc6 -> fc6
I1226 15:00:05.503342 92959 net.cpp:228] Setting up conv5
I1226 15:00:05.503449 92959 net.cpp:235] Top shape: 64 256 13 13 (2768896)
I1226 15:00:05.503501 92959 net.cpp:243] Memory required for data: 512450048
I1226 15:00:05.503628 92959 layer_factory.hpp:114] Creating layer relu5
I1226 15:00:05.503881 92959 net.cpp:178] Creating Layer relu5
I1226 15:00:05.503947 92959 net.cpp:612] relu5 <- conv5
I1226 15:00:05.504009 92959 net.cpp:573] relu5 -> conv5 (in-place)
I1226 15:00:05.504552 92959 net.cpp:228] Setting up relu5
I1226 15:00:05.504714 92959 net.cpp:235] Top shape: 64 256 13 13 (2768896)
I1226 15:00:05.504748 92959 net.cpp:243] Memory required for data: 523525632
I1226 15:00:05.504786 92959 layer_factory.hpp:114] Creating layer pool5
I1226 15:00:05.504942 92959 net.cpp:178] Creating Layer pool5
I1226 15:00:05.504979 92959 net.cpp:612] pool5 <- conv5
I1226 15:00:05.505053 92959 net.cpp:586] pool5 -> pool5
I1226 15:00:05.505203 92959 net.cpp:228] Setting up pool5
I1226 15:00:05.505259 92959 net.cpp:235] Top shape: 64 256 6 6 (589824)
I1226 15:00:05.505281 92959 net.cpp:243] Memory required for data: 525884928
I1226 15:00:05.505584 92959 layer_factory.hpp:114] Creating layer fc6
I1226 15:00:05.505686 92959 net.cpp:178] Creating Layer fc6
I1226 15:00:05.505743 92959 net.cpp:612] fc6 <- pool5
I1226 15:00:05.505791 92959 net.cpp:586] fc6 -> fc6
I1226 15:00:05.516109 92073 net.cpp:228] Setting up conv5
I1226 15:00:05.516237 92073 net.cpp:235] Top shape: 64 256 13 13 (2768896)
I1226 15:00:05.516270 92073 net.cpp:243] Memory required for data: 512450048
I1226 15:00:05.516350 92073 layer_factory.hpp:114] Creating layer relu5
I1226 15:00:05.516445 92073 net.cpp:178] Creating Layer relu5
I1226 15:00:05.516490 92073 net.cpp:612] relu5 <- conv5
I1226 15:00:05.516541 92073 net.cpp:573] relu5 -> conv5 (in-place)
I1226 15:00:05.516656 92073 net.cpp:228] Setting up relu5
I1226 15:00:05.516703 92073 net.cpp:235] Top shape: 64 256 13 13 (2768896)
I1226 15:00:05.516738 92073 net.cpp:243] Memory required for data: 523525632
I1226 15:00:05.516774 92073 layer_factory.hpp:114] Creating layer pool5
I1226 15:00:05.516830 92073 net.cpp:178] Creating Layer pool5
I1226 15:00:05.516860 92073 net.cpp:612] pool5 <- conv5
I1226 15:00:05.516923 92073 net.cpp:586] pool5 -> pool5
I1226 15:00:05.517019 92073 net.cpp:228] Setting up pool5
I1226 15:00:05.517071 92073 net.cpp:235] Top shape: 64 256 6 6 (589824)
I1226 15:00:05.517102 92073 net.cpp:243] Memory required for data: 525884928
I1226 15:00:05.517129 92073 layer_factory.hpp:114] Creating layer fc6
I1226 15:00:05.517257 92073 net.cpp:178] Creating Layer fc6
I1226 15:00:05.517304 92073 net.cpp:612] fc6 <- pool5
I1226 15:00:05.517352 92073 net.cpp:586] fc6 -> fc6
I1226 15:00:05.539748 99258 net.cpp:228] Setting up conv5
I1226 15:00:05.539862 99258 net.cpp:235] Top shape: 64 256 13 13 (2768896)
I1226 15:00:05.539893 99258 net.cpp:243] Memory required for data: 512450048
I1226 15:00:05.539973 99258 layer_factory.hpp:114] Creating layer relu5
I1226 15:00:05.540107 99258 net.cpp:178] Creating Layer relu5
I1226 15:00:05.540241 99258 net.cpp:612] relu5 <- conv5
I1226 15:00:05.540294 99258 net.cpp:573] relu5 -> conv5 (in-place)
I1226 15:00:05.540407 99258 net.cpp:228] Setting up relu5
I1226 15:00:05.540468 99258 net.cpp:235] Top shape: 64 256 13 13 (2768896)
I1226 15:00:05.540494 99258 net.cpp:243] Memory required for data: 523525632
I1226 15:00:05.540529 99258 layer_factory.hpp:114] Creating layer pool5
I1226 15:00:05.540591 99258 net.cpp:178] Creating Layer pool5
I1226 15:00:05.540628 99258 net.cpp:612] pool5 <- conv5
I1226 15:00:05.540683 99258 net.cpp:586] pool5 -> pool5
I1226 15:00:05.540835 99258 net.cpp:228] Setting up pool5
I1226 15:00:05.540966 99258 net.cpp:235] Top shape: 64 256 6 6 (589824)
I1226 15:00:05.541013 99258 net.cpp:243] Memory required for data: 525884928
I1226 15:00:05.541045 99258 layer_factory.hpp:114] Creating layer fc6
I1226 15:00:05.541234 99258 net.cpp:178] Creating Layer fc6
I1226 15:00:05.541358 99258 net.cpp:612] fc6 <- pool5
I1226 15:00:05.541501 99258 net.cpp:586] fc6 -> fc6
I1226 15:00:05.563213 90550 net.cpp:228] Setting up conv5
I1226 15:00:05.563326 90550 net.cpp:235] Top shape: 64 256 13 13 (2768896)
I1226 15:00:05.563354 90550 net.cpp:243] Memory required for data: 512450048
I1226 15:00:05.563426 90550 layer_factory.hpp:114] Creating layer relu5
I1226 15:00:05.563509 90550 net.cpp:178] Creating Layer relu5
I1226 15:00:05.563551 90550 net.cpp:612] relu5 <- conv5
I1226 15:00:05.563617 90550 net.cpp:573] relu5 -> conv5 (in-place)
I1226 15:00:05.563730 90550 net.cpp:228] Setting up relu5
I1226 15:00:05.563776 90550 net.cpp:235] Top shape: 64 256 13 13 (2768896)
I1226 15:00:05.563801 90550 net.cpp:243] Memory required for data: 523525632
I1226 15:00:05.563827 90550 layer_factory.hpp:114] Creating layer pool5
I1226 15:00:05.563884 90550 net.cpp:178] Creating Layer pool5
I1226 15:00:05.563913 90550 net.cpp:612] pool5 <- conv5
I1226 15:00:05.563951 90550 net.cpp:586] pool5 -> pool5
I1226 15:00:05.564044 90550 net.cpp:228] Setting up pool5
I1226 15:00:05.564087 90550 net.cpp:235] Top shape: 64 256 6 6 (589824)
I1226 15:00:05.564118 90550 net.cpp:243] Memory required for data: 525884928
I1226 15:00:05.564146 90550 layer_factory.hpp:114] Creating layer fc6
I1226 15:00:05.564226 90550 net.cpp:178] Creating Layer fc6
I1226 15:00:05.564261 90550 net.cpp:612] fc6 <- pool5
I1226 15:00:05.564307 90550 net.cpp:586] fc6 -> fc6
I1226 15:00:05.587085 90464 net.cpp:228] Setting up conv5
I1226 15:00:05.587260 90464 net.cpp:235] Top shape: 64 256 13 13 (2768896)
I1226 15:00:05.587324 90464 net.cpp:243] Memory required for data: 512450048
I1226 15:00:05.587451 90464 layer_factory.hpp:114] Creating layer relu5
I1226 15:00:05.587678 90464 net.cpp:178] Creating Layer relu5
I1226 15:00:05.587741 90464 net.cpp:612] relu5 <- conv5
I1226 15:00:05.587800 90464 net.cpp:573] relu5 -> conv5 (in-place)
I1226 15:00:05.587963 90464 net.cpp:228] Setting up relu5
I1226 15:00:05.588026 90464 net.cpp:235] Top shape: 64 256 13 13 (2768896)
I1226 15:00:05.588058 90464 net.cpp:243] Memory required for data: 523525632
I1226 15:00:05.588282 90464 layer_factory.hpp:114] Creating layer pool5
I1226 15:00:05.588356 90464 net.cpp:178] Creating Layer pool5
I1226 15:00:05.588398 90464 net.cpp:612] pool5 <- conv5
I1226 15:00:05.588452 90464 net.cpp:586] pool5 -> pool5
I1226 15:00:05.589242 90464 net.cpp:228] Setting up pool5
I1226 15:00:05.589357 90464 net.cpp:235] Top shape: 64 256 6 6 (589824)
I1226 15:00:05.589391 90464 net.cpp:243] Memory required for data: 525884928
I1226 15:00:05.589432 90464 layer_factory.hpp:114] Creating layer fc6
I1226 15:00:05.589536 90464 net.cpp:178] Creating Layer fc6
I1226 15:00:05.589604 90464 net.cpp:612] fc6 <- pool5
I1226 15:00:05.589673 90464 net.cpp:586] fc6 -> fc6
I1226 15:00:09.853899 88452 net.cpp:228] Setting up fc6
I1226 15:00:09.854048 88452 net.cpp:235] Top shape: 64 4096 (262144)
I1226 15:00:09.854077 88452 net.cpp:243] Memory required for data: 526933504
I1226 15:00:09.854136 88452 layer_factory.hpp:114] Creating layer relu6
I1226 15:00:09.854229 88452 net.cpp:178] Creating Layer relu6
I1226 15:00:09.854346 88452 net.cpp:612] relu6 <- fc6
I1226 15:00:09.854387 88452 net.cpp:573] relu6 -> fc6 (in-place)
I1226 15:00:09.854480 88452 net.cpp:228] Setting up relu6
I1226 15:00:09.854522 88452 net.cpp:235] Top shape: 64 4096 (262144)
I1226 15:00:09.854650 88452 net.cpp:243] Memory required for data: 527982080
I1226 15:00:09.854686 88452 layer_factory.hpp:114] Creating layer drop6
I1226 15:00:09.854753 88452 net.cpp:178] Creating Layer drop6
I1226 15:00:09.854790 88452 net.cpp:612] drop6 <- fc6
I1226 15:00:09.854827 88452 net.cpp:573] drop6 -> fc6 (in-place)
I1226 15:00:09.854885 88452 net.cpp:228] Setting up drop6
I1226 15:00:09.854950 88452 net.cpp:235] Top shape: 64 4096 (262144)
I1226 15:00:09.854979 88452 net.cpp:243] Memory required for data: 529030656
I1226 15:00:09.855005 88452 layer_factory.hpp:114] Creating layer fc7
I1226 15:00:09.855065 88452 net.cpp:178] Creating Layer fc7
I1226 15:00:09.855099 88452 net.cpp:612] fc7 <- fc6
I1226 15:00:09.855159 88452 net.cpp:586] fc7 -> fc7
I1226 15:00:10.997665 85946 net.cpp:228] Setting up fc6
I1226 15:00:10.997779 85946 net.cpp:235] Top shape: 64 4096 (262144)
I1226 15:00:10.997809 85946 net.cpp:243] Memory required for data: 526933504
I1226 15:00:10.997869 85946 layer_factory.hpp:114] Creating layer relu6
I1226 15:00:10.997948 85946 net.cpp:178] Creating Layer relu6
I1226 15:00:10.997992 85946 net.cpp:612] relu6 <- fc6
I1226 15:00:10.998039 85946 net.cpp:573] relu6 -> fc6 (in-place)
I1226 15:00:10.998144 85946 net.cpp:228] Setting up relu6
I1226 15:00:10.998316 85946 net.cpp:235] Top shape: 64 4096 (262144)
I1226 15:00:10.998353 85946 net.cpp:243] Memory required for data: 527982080
I1226 15:00:10.998389 85946 layer_factory.hpp:114] Creating layer drop6
I1226 15:00:10.998466 85946 net.cpp:178] Creating Layer drop6
I1226 15:00:10.998509 85946 net.cpp:612] drop6 <- fc6
I1226 15:00:10.998553 85946 net.cpp:573] drop6 -> fc6 (in-place)
I1226 15:00:10.998641 85946 net.cpp:228] Setting up drop6
I1226 15:00:10.998683 85946 net.cpp:235] Top shape: 64 4096 (262144)
I1226 15:00:10.998708 85946 net.cpp:243] Memory required for data: 529030656
I1226 15:00:10.998739 85946 layer_factory.hpp:114] Creating layer fc7
I1226 15:00:10.998805 85946 net.cpp:178] Creating Layer fc7
I1226 15:00:10.998834 85946 net.cpp:612] fc7 <- fc6
I1226 15:00:10.998877 85946 net.cpp:586] fc7 -> fc7
I1226 15:00:11.052873 91209 net.cpp:228] Setting up fc6
I1226 15:00:11.052985 91209 net.cpp:235] Top shape: 64 4096 (262144)
I1226 15:00:11.053019 91209 net.cpp:243] Memory required for data: 526933504
I1226 15:00:11.053076 91209 layer_factory.hpp:114] Creating layer relu6
I1226 15:00:11.053182 91209 net.cpp:178] Creating Layer relu6
I1226 15:00:11.053226 91209 net.cpp:612] relu6 <- fc6
I1226 15:00:11.053274 91209 net.cpp:573] relu6 -> fc6 (in-place)
I1226 15:00:11.053380 91209 net.cpp:228] Setting up relu6
I1226 15:00:11.053524 91209 net.cpp:235] Top shape: 64 4096 (262144)
I1226 15:00:11.053555 91209 net.cpp:243] Memory required for data: 527982080
I1226 15:00:11.053587 91209 layer_factory.hpp:114] Creating layer drop6
I1226 15:00:11.053665 91209 net.cpp:178] Creating Layer drop6
I1226 15:00:11.053699 91209 net.cpp:612] drop6 <- fc6
I1226 15:00:11.053743 91209 net.cpp:573] drop6 -> fc6 (in-place)
I1226 15:00:11.053807 91209 net.cpp:228] Setting up drop6
I1226 15:00:11.053846 91209 net.cpp:235] Top shape: 64 4096 (262144)
I1226 15:00:11.053880 91209 net.cpp:243] Memory required for data: 529030656
I1226 15:00:11.053910 91209 layer_factory.hpp:114] Creating layer fc7
I1226 15:00:11.053964 91209 net.cpp:178] Creating Layer fc7
I1226 15:00:11.054003 91209 net.cpp:612] fc7 <- fc6
I1226 15:00:11.054049 91209 net.cpp:586] fc7 -> fc7
I1226 15:00:11.068269 92949 net.cpp:228] Setting up fc6
I1226 15:00:11.068380 92949 net.cpp:235] Top shape: 64 4096 (262144)
I1226 15:00:11.068413 92949 net.cpp:243] Memory required for data: 526933504
I1226 15:00:11.068473 92949 layer_factory.hpp:114] Creating layer relu6
I1226 15:00:11.068572 92949 net.cpp:178] Creating Layer relu6
I1226 15:00:11.068678 92949 net.cpp:612] relu6 <- fc6
I1226 15:00:11.068723 92949 net.cpp:573] relu6 -> fc6 (in-place)
I1226 15:00:11.068847 92949 net.cpp:228] Setting up relu6
I1226 15:00:11.069000 92949 net.cpp:235] Top shape: 64 4096 (262144)
I1226 15:00:11.069031 92949 net.cpp:243] Memory required for data: 527982080
I1226 15:00:11.069064 92949 layer_factory.hpp:114] Creating layer drop6
I1226 15:00:11.069134 92949 net.cpp:178] Creating Layer drop6
I1226 15:00:11.069164 92949 net.cpp:612] drop6 <- fc6
I1226 15:00:11.069202 92949 net.cpp:573] drop6 -> fc6 (in-place)
I1226 15:00:11.069263 92949 net.cpp:228] Setting up drop6
I1226 15:00:11.069306 92949 net.cpp:235] Top shape: 64 4096 (262144)
I1226 15:00:11.069330 92949 net.cpp:243] Memory required for data: 529030656
I1226 15:00:11.069365 92949 layer_factory.hpp:114] Creating layer fc7
I1226 15:00:11.069453 92949 net.cpp:178] Creating Layer fc7
I1226 15:00:11.069494 92949 net.cpp:612] fc7 <- fc6
I1226 15:00:11.069535 92949 net.cpp:586] fc7 -> fc7
I1226 15:00:11.066573 90550 net.cpp:228] Setting up fc6
I1226 15:00:11.066718 90550 net.cpp:235] Top shape: 64 4096 (262144)
I1226 15:00:11.066752 90550 net.cpp:243] Memory required for data: 526933504
I1226 15:00:11.076823 92959 net.cpp:228] Setting up fc6
I1226 15:00:11.066813 90550 layer_factory.hpp:114] Creating layer relu6
I1226 15:00:11.076938 92959 net.cpp:235] Top shape: 64 4096 (262144)
I1226 15:00:11.076966 92959 net.cpp:243] Memory required for data: 526933504
I1226 15:00:11.066897 90550 net.cpp:178] Creating Layer relu6
I1226 15:00:11.077019 92959 layer_factory.hpp:114] Creating layer relu6
I1226 15:00:11.067031 90550 net.cpp:612] relu6 <- fc6
I1226 15:00:11.067095 90550 net.cpp:573] relu6 -> fc6 (in-place)
I1226 15:00:11.077119 92959 net.cpp:178] Creating Layer relu6
I1226 15:00:11.067191 90550 net.cpp:228] Setting up relu6
I1226 15:00:11.077220 92959 net.cpp:612] relu6 <- fc6
I1226 15:00:11.067343 90550 net.cpp:235] Top shape: 64 4096 (262144)
I1226 15:00:11.077260 92959 net.cpp:573] relu6 -> fc6 (in-place)
I1226 15:00:11.067378 90550 net.cpp:243] Memory required for data: 527982080
I1226 15:00:11.077347 92959 net.cpp:228] Setting up relu6
I1226 15:00:11.077525 92959 net.cpp:235] Top shape: 64 4096 (262144)
I1226 15:00:11.067414 90550 layer_factory.hpp:114] Creating layer drop6
I1226 15:00:11.077559 92959 net.cpp:243] Memory required for data: 527982080
I1226 15:00:11.077590 92959 layer_factory.hpp:114] Creating layer drop6
I1226 15:00:11.067482 90550 net.cpp:178] Creating Layer drop6
I1226 15:00:11.077647 92959 net.cpp:178] Creating Layer drop6
I1226 15:00:11.067514 90550 net.cpp:612] drop6 <- fc6
I1226 15:00:11.077687 92959 net.cpp:612] drop6 <- fc6
I1226 15:00:11.077741 92959 net.cpp:573] drop6 -> fc6 (in-place)
I1226 15:00:11.067566 90550 net.cpp:573] drop6 -> fc6 (in-place)
I1226 15:00:11.077800 92959 net.cpp:228] Setting up drop6
I1226 15:00:11.067663 90550 net.cpp:228] Setting up drop6
I1226 15:00:11.077842 92959 net.cpp:235] Top shape: 64 4096 (262144)
I1226 15:00:11.077865 92959 net.cpp:243] Memory required for data: 529030656
I1226 15:00:11.067704 90550 net.cpp:235] Top shape: 64 4096 (262144)
I1226 15:00:11.077893 92959 layer_factory.hpp:114] Creating layer fc7
I1226 15:00:11.067740 90550 net.cpp:243] Memory required for data: 529030656
I1226 15:00:11.077949 92959 net.cpp:178] Creating Layer fc7
I1226 15:00:11.067776 90550 layer_factory.hpp:114] Creating layer fc7
I1226 15:00:11.077980 92959 net.cpp:612] fc7 <- fc6
I1226 15:00:11.078016 92959 net.cpp:586] fc7 -> fc7
I1226 15:00:11.067839 90550 net.cpp:178] Creating Layer fc7
I1226 15:00:11.067867 90550 net.cpp:612] fc7 <- fc6
I1226 15:00:11.067924 90550 net.cpp:586] fc7 -> fc7
I1226 15:00:11.092424 90464 net.cpp:228] Setting up fc6
I1226 15:00:11.092552 90464 net.cpp:235] Top shape: 64 4096 (262144)
I1226 15:00:11.092622 90464 net.cpp:243] Memory required for data: 526933504
I1226 15:00:11.092694 90464 layer_factory.hpp:114] Creating layer relu6
I1226 15:00:11.092784 90464 net.cpp:178] Creating Layer relu6
I1226 15:00:11.092847 90464 net.cpp:612] relu6 <- fc6
I1226 15:00:11.092931 90464 net.cpp:573] relu6 -> fc6 (in-place)
I1226 15:00:11.093063 90464 net.cpp:228] Setting up relu6
I1226 15:00:11.093261 90464 net.cpp:235] Top shape: 64 4096 (262144)
I1226 15:00:11.093308 90464 net.cpp:243] Memory required for data: 527982080
I1226 15:00:11.093375 90464 layer_factory.hpp:114] Creating layer drop6
I1226 15:00:11.093454 90464 net.cpp:178] Creating Layer drop6
I1226 15:00:11.093507 90464 net.cpp:612] drop6 <- fc6
I1226 15:00:11.093583 90464 net.cpp:573] drop6 -> fc6 (in-place)
I1226 15:00:11.093673 90464 net.cpp:228] Setting up drop6
I1226 15:00:11.093744 90464 net.cpp:235] Top shape: 64 4096 (262144)
I1226 15:00:11.093789 90464 net.cpp:243] Memory required for data: 529030656
I1226 15:00:11.093832 90464 layer_factory.hpp:114] Creating layer fc7
I1226 15:00:11.093924 90464 net.cpp:178] Creating Layer fc7
I1226 15:00:11.093966 90464 net.cpp:612] fc7 <- fc6
I1226 15:00:11.094056 90464 net.cpp:586] fc7 -> fc7
I1226 15:00:11.102463 92073 net.cpp:228] Setting up fc6
I1226 15:00:11.102612 92073 net.cpp:235] Top shape: 64 4096 (262144)
I1226 15:00:11.102644 92073 net.cpp:243] Memory required for data: 526933504
I1226 15:00:11.102736 92073 layer_factory.hpp:114] Creating layer relu6
I1226 15:00:11.102885 92073 net.cpp:178] Creating Layer relu6
I1226 15:00:11.102931 92073 net.cpp:612] relu6 <- fc6
I1226 15:00:11.102977 92073 net.cpp:573] relu6 -> fc6 (in-place)
I1226 15:00:11.103063 92073 net.cpp:228] Setting up relu6
I1226 15:00:11.103255 92073 net.cpp:235] Top shape: 64 4096 (262144)
I1226 15:00:11.103297 92073 net.cpp:243] Memory required for data: 527982080
I1226 15:00:11.103332 92073 layer_factory.hpp:114] Creating layer drop6
I1226 15:00:11.103514 92073 net.cpp:178] Creating Layer drop6
I1226 15:00:11.103552 92073 net.cpp:612] drop6 <- fc6
I1226 15:00:11.103593 92073 net.cpp:573] drop6 -> fc6 (in-place)
I1226 15:00:11.103654 92073 net.cpp:228] Setting up drop6
I1226 15:00:11.103700 92073 net.cpp:235] Top shape: 64 4096 (262144)
I1226 15:00:11.103724 92073 net.cpp:243] Memory required for data: 529030656
I1226 15:00:11.103751 92073 layer_factory.hpp:114] Creating layer fc7
I1226 15:00:11.103827 92073 net.cpp:178] Creating Layer fc7
I1226 15:00:11.103866 92073 net.cpp:612] fc7 <- fc6
I1226 15:00:11.103909 92073 net.cpp:586] fc7 -> fc7
I1226 15:00:11.114576 99258 net.cpp:228] Setting up fc6
I1226 15:00:11.114713 99258 net.cpp:235] Top shape: 64 4096 (262144)
I1226 15:00:11.114749 99258 net.cpp:243] Memory required for data: 526933504
I1226 15:00:11.114810 99258 layer_factory.hpp:114] Creating layer relu6
I1226 15:00:11.114984 99258 net.cpp:178] Creating Layer relu6
I1226 15:00:11.115103 99258 net.cpp:612] relu6 <- fc6
I1226 15:00:11.115149 99258 net.cpp:573] relu6 -> fc6 (in-place)
I1226 15:00:11.115239 99258 net.cpp:228] Setting up relu6
I1226 15:00:11.115387 99258 net.cpp:235] Top shape: 64 4096 (262144)
I1226 15:00:11.115418 99258 net.cpp:243] Memory required for data: 527982080
I1226 15:00:11.115454 99258 layer_factory.hpp:114] Creating layer drop6
I1226 15:00:11.115525 99258 net.cpp:178] Creating Layer drop6
I1226 15:00:11.115556 99258 net.cpp:612] drop6 <- fc6
I1226 15:00:11.115625 99258 net.cpp:573] drop6 -> fc6 (in-place)
I1226 15:00:11.115773 99258 net.cpp:228] Setting up drop6
I1226 15:00:11.115819 99258 net.cpp:235] Top shape: 64 4096 (262144)
I1226 15:00:11.115844 99258 net.cpp:243] Memory required for data: 529030656
I1226 15:00:11.115874 99258 layer_factory.hpp:114] Creating layer fc7
I1226 15:00:11.115969 99258 net.cpp:178] Creating Layer fc7
I1226 15:00:11.116030 99258 net.cpp:612] fc7 <- fc6
I1226 15:00:11.116111 99258 net.cpp:586] fc7 -> fc7
I1226 15:00:12.131124 88452 net.cpp:228] Setting up fc7
I1226 15:00:12.131234 88452 net.cpp:235] Top shape: 64 4096 (262144)
I1226 15:00:12.131263 88452 net.cpp:243] Memory required for data: 530079232
I1226 15:00:12.131319 88452 layer_factory.hpp:114] Creating layer relu7
I1226 15:00:12.131392 88452 net.cpp:178] Creating Layer relu7
I1226 15:00:12.131425 88452 net.cpp:612] relu7 <- fc7
I1226 15:00:12.131481 88452 net.cpp:573] relu7 -> fc7 (in-place)
I1226 15:00:12.131570 88452 net.cpp:228] Setting up relu7
I1226 15:00:12.131626 88452 net.cpp:235] Top shape: 64 4096 (262144)
I1226 15:00:12.131660 88452 net.cpp:243] Memory required for data: 531127808
I1226 15:00:12.131690 88452 layer_factory.hpp:114] Creating layer drop7
I1226 15:00:12.131726 88452 net.cpp:178] Creating Layer drop7
I1226 15:00:12.131752 88452 net.cpp:612] drop7 <- fc7
I1226 15:00:12.131785 88452 net.cpp:573] drop7 -> fc7 (in-place)
I1226 15:00:12.131827 88452 net.cpp:228] Setting up drop7
I1226 15:00:12.131865 88452 net.cpp:235] Top shape: 64 4096 (262144)
I1226 15:00:12.131889 88452 net.cpp:243] Memory required for data: 532176384
I1226 15:00:12.131916 88452 layer_factory.hpp:114] Creating layer fc8
I1226 15:00:12.132010 88452 net.cpp:178] Creating Layer fc8
I1226 15:00:12.132040 88452 net.cpp:612] fc8 <- fc7
I1226 15:00:12.132092 88452 net.cpp:586] fc8 -> fc8
I1226 15:00:12.697865 88452 net.cpp:228] Setting up fc8
I1226 15:00:12.698009 88452 net.cpp:235] Top shape: 64 1000 (64000)
I1226 15:00:12.698040 88452 net.cpp:243] Memory required for data: 532432384
I1226 15:00:12.698114 88452 layer_factory.hpp:114] Creating layer fc8_fc8_0_split
I1226 15:00:12.698175 88452 net.cpp:178] Creating Layer fc8_fc8_0_split
I1226 15:00:12.698211 88452 net.cpp:612] fc8_fc8_0_split <- fc8
I1226 15:00:12.698269 88452 net.cpp:586] fc8_fc8_0_split -> fc8_fc8_0_split_0
I1226 15:00:12.698314 88452 net.cpp:586] fc8_fc8_0_split -> fc8_fc8_0_split_1
I1226 15:00:12.698395 88452 net.cpp:228] Setting up fc8_fc8_0_split
I1226 15:00:12.698432 88452 net.cpp:235] Top shape: 64 1000 (64000)
I1226 15:00:12.698463 88452 net.cpp:235] Top shape: 64 1000 (64000)
I1226 15:00:12.698485 88452 net.cpp:243] Memory required for data: 532944384
I1226 15:00:12.698513 88452 layer_factory.hpp:114] Creating layer accuracy
I1226 15:00:12.698587 88452 net.cpp:178] Creating Layer accuracy
I1226 15:00:12.698617 88452 net.cpp:612] accuracy <- fc8_fc8_0_split_0
I1226 15:00:12.698648 88452 net.cpp:612] accuracy <- label_data_1_split_0
I1226 15:00:12.698689 88452 net.cpp:586] accuracy -> accuracy
…
I1226 15:00:12.725625 88452 net.cpp:307] data does not need backward computation.
I1226 15:00:12.725659 88452 net.cpp:349] This network produces output accuracy
I1226 15:00:12.725694 88452 net.cpp:349] This network produces output loss
I1226 15:00:12.725800 88452 net.cpp:363] Network initialization done.
I1226 15:00:12.726286 88452 solver.cpp:107] Solver scaffolding done.
I1226 15:00:12.726513 88452 caffe.cpp:212] Finetuning from /export/data1/stanford/hazy/gordon_bell/caffenet_knl/snapshot/caffenet_MN8_B1024/_iter_25000.caffemodel
I1226 15:00:13.286519 85946 net.cpp:228] Setting up fc7
I1226 15:00:13.286661 85946 net.cpp:235] Top shape: 64 4096 (262144)
I1226 15:00:13.286695 85946 net.cpp:243] Memory required for data: 530079232
I1226 15:00:13.286757 85946 layer_factory.hpp:114] Creating layer relu7
I1226 15:00:13.286855 85946 net.cpp:178] Creating Layer relu7
I1226 15:00:13.286913 85946 net.cpp:612] relu7 <- fc7
I1226 15:00:13.286965 85946 net.cpp:573] relu7 -> fc7 (in-place)
I1226 15:00:13.287065 85946 net.cpp:228] Setting up relu7
I1226 15:00:13.287117 85946 net.cpp:235] Top shape: 64 4096 (262144)
I1226 15:00:13.287147 85946 net.cpp:243] Memory required for data: 531127808
I1226 15:00:13.287178 85946 layer_factory.hpp:114] Creating layer drop7
I1226 15:00:13.287220 85946 net.cpp:178] Creating Layer drop7
I1226 15:00:13.287247 85946 net.cpp:612] drop7 <- fc7
I1226 15:00:13.287307 85946 net.cpp:573] drop7 -> fc7 (in-place)
I1226 15:00:13.287369 85946 net.cpp:228] Setting up drop7
I1226 15:00:13.287406 85946 net.cpp:235] Top shape: 64 4096 (262144)
I1226 15:00:13.287431 85946 net.cpp:243] Memory required for data: 532176384
I1226 15:00:13.287459 85946 layer_factory.hpp:114] Creating layer fc8
I1226 15:00:13.287528 85946 net.cpp:178] Creating Layer fc8
I1226 15:00:13.287556 85946 net.cpp:612] fc8 <- fc7
I1226 15:00:13.287621 85946 net.cpp:586] fc8 -> fc8
I1226 15:00:13.334457 92959 net.cpp:228] Setting up fc7
I1226 15:00:13.334594 92959 net.cpp:235] Top shape: 64 4096 (262144)
I1226 15:00:13.334625 92959 net.cpp:243] Memory required for data: 530079232
I1226 15:00:13.334709 92959 layer_factory.hpp:114] Creating layer relu7
I1226 15:00:13.334801 92959 net.cpp:178] Creating Layer relu7
I1226 15:00:13.334842 92959 net.cpp:612] relu7 <- fc7
I1226 15:00:13.334889 92959 net.cpp:573] relu7 -> fc7 (in-place)
I1226 15:00:13.334974 92959 net.cpp:228] Setting up relu7
I1226 15:00:13.335016 92959 net.cpp:235] Top shape: 64 4096 (262144)
I1226 15:00:13.335038 92959 net.cpp:243] Memory required for data: 531127808
I1226 15:00:13.335067 92959 layer_factory.hpp:114] Creating layer drop7
I1226 15:00:13.335113 92959 net.cpp:178] Creating Layer drop7
I1226 15:00:13.335137 92959 net.cpp:612] drop7 <- fc7
I1226 15:00:13.335170 92959 net.cpp:573] drop7 -> fc7 (in-place)
I1226 15:00:13.335219 92959 net.cpp:228] Setting up drop7
I1226 15:00:13.335259 92959 net.cpp:235] Top shape: 64 4096 (262144)
I1226 15:00:13.335281 92959 net.cpp:243] Memory required for data: 532176384
I1226 15:00:13.335307 92959 layer_factory.hpp:114] Creating layer fc8
I1226 15:00:13.335381 92959 net.cpp:178] Creating Layer fc8
I1226 15:00:13.335412 92959 net.cpp:612] fc8 <- fc7
I1226 15:00:13.335449 92959 net.cpp:586] fc8 -> fc8
I1226 15:00:13.329651 90550 net.cpp:228] Setting up fc7
I1226 15:00:13.329761 90550 net.cpp:235] Top shape: 64 4096 (262144)
I1226 15:00:13.329790 90550 net.cpp:243] Memory required for data: 530079232
I1226 15:00:13.335227 91209 net.cpp:228] Setting up fc7
I1226 15:00:13.329874 90550 layer_factory.hpp:114] Creating layer relu7
I1226 15:00:13.335340 91209 net.cpp:235] Top shape: 64 4096 (262144)
I1226 15:00:13.335369 91209 net.cpp:243] Memory required for data: 530079232
I1226 15:00:13.329948 90550 net.cpp:178] Creating Layer relu7
I1226 15:00:13.335427 91209 layer_factory.hpp:114] Creating layer relu7
I1226 15:00:13.329988 90550 net.cpp:612] relu7 <- fc7
I1226 15:00:13.335525 91209 net.cpp:178] Creating Layer relu7
I1226 15:00:13.330044 90550 net.cpp:573] relu7 -> fc7 (in-place)
I1226 15:00:13.335624 91209 net.cpp:612] relu7 <- fc7
I1226 15:00:13.330132 90550 net.cpp:228] Setting up relu7
I1226 15:00:13.335666 91209 net.cpp:573] relu7 -> fc7 (in-place)
I1226 15:00:13.330178 90550 net.cpp:235] Top shape: 64 4096 (262144)
I1226 15:00:13.335750 91209 net.cpp:228] Setting up relu7
I1226 15:00:13.330204 90550 net.cpp:243] Memory required for data: 531127808
I1226 15:00:13.330232 90550 layer_factory.hpp:114] Creating layer drop7
I1226 15:00:13.335803 91209 net.cpp:235] Top shape: 64 4096 (262144)
I1226 15:00:13.335829 91209 net.cpp:243] Memory required for data: 531127808
I1226 15:00:13.330281 90550 net.cpp:178] Creating Layer drop7
I1226 15:00:13.330308 90550 net.cpp:612] drop7 <- fc7
I1226 15:00:13.335857 91209 layer_factory.hpp:114] Creating layer drop7
I1226 15:00:13.330344 90550 net.cpp:573] drop7 -> fc7 (in-place)
I1226 15:00:13.335896 91209 net.cpp:178] Creating Layer drop7
I1226 15:00:13.330397 90550 net.cpp:228] Setting up drop7
I1226 15:00:13.335928 91209 net.cpp:612] drop7 <- fc7
I1226 15:00:13.330440 90550 net.cpp:235] Top shape: 64 4096 (262144)
I1226 15:00:13.330462 90550 net.cpp:243] Memory required for data: 532176384
I1226 15:00:13.330489 90550 layer_factory.hpp:114] Creating layer fc8
I1226 15:00:13.335976 91209 net.cpp:573] drop7 -> fc7 (in-place)
I1226 15:00:13.330559 90550 net.cpp:178] Creating Layer fc8
I1226 15:00:13.336025 91209 net.cpp:228] Setting up drop7
I1226 15:00:13.336058 91209 net.cpp:235] Top shape: 64 4096 (262144)
I1226 15:00:13.336081 91209 net.cpp:243] Memory required for data: 532176384
I1226 15:00:13.336133 91209 layer_factory.hpp:114] Creating layer fc8
I1226 15:00:13.330623 90550 net.cpp:612] fc8 <- fc7
I1226 15:00:13.336191 91209 net.cpp:178] Creating Layer fc8
I1226 15:00:13.330667 90550 net.cpp:586] fc8 -> fc8
I1226 15:00:13.336227 91209 net.cpp:612] fc8 <- fc7
I1226 15:00:13.336266 91209 net.cpp:586] fc8 -> fc8
I1226 15:00:13.346292 92949 net.cpp:228] Setting up fc7
I1226 15:00:13.346400 92949 net.cpp:235] Top shape: 64 4096 (262144)
I1226 15:00:13.346429 92949 net.cpp:243] Memory required for data: 530079232
I1226 15:00:13.346484 92949 layer_factory.hpp:114] Creating layer relu7
I1226 15:00:13.346560 92949 net.cpp:178] Creating Layer relu7
I1226 15:00:13.346598 92949 net.cpp:612] relu7 <- fc7
I1226 15:00:13.346658 92949 net.cpp:573] relu7 -> fc7 (in-place)
I1226 15:00:13.346865 92949 net.cpp:228] Setting up relu7
I1226 15:00:13.346915 92949 net.cpp:235] Top shape: 64 4096 (262144)
I1226 15:00:13.346940 92949 net.cpp:243] Memory required for data: 531127808
I1226 15:00:13.346971 92949 layer_factory.hpp:114] Creating layer drop7
I1226 15:00:13.347024 92949 net.cpp:178] Creating Layer drop7
I1226 15:00:13.347053 92949 net.cpp:612] drop7 <- fc7
I1226 15:00:13.347087 92949 net.cpp:573] drop7 -> fc7 (in-place)
I1226 15:00:13.347134 92949 net.cpp:228] Setting up drop7
I1226 15:00:13.347173 92949 net.cpp:235] Top shape: 64 4096 (262144)
I1226 15:00:13.347198 92949 net.cpp:243] Memory required for data: 532176384
I1226 15:00:13.347224 92949 layer_factory.hpp:114] Creating layer fc8
I1226 15:00:13.347301 92949 net.cpp:178] Creating Layer fc8
I1226 15:00:13.347335 92949 net.cpp:612] fc8 <- fc7
I1226 15:00:13.347374 92949 net.cpp:586] fc8 -> fc8
I1226 15:00:13.353237 90464 net.cpp:228] Setting up fc7
I1226 15:00:13.353358 90464 net.cpp:235] Top shape: 64 4096 (262144)
I1226 15:00:13.353389 90464 net.cpp:243] Memory required for data: 530079232
I1226 15:00:13.353498 90464 layer_factory.hpp:114] Creating layer relu7
I1226 15:00:13.353618 90464 net.cpp:178] Creating Layer relu7
I1226 15:00:13.353670 90464 net.cpp:612] relu7 <- fc7
I1226 15:00:13.353742 90464 net.cpp:573] relu7 -> fc7 (in-place)
I1226 15:00:13.353842 90464 net.cpp:228] Setting up relu7
I1226 15:00:13.353907 90464 net.cpp:235] Top shape: 64 4096 (262144)
I1226 15:00:13.353940 90464 net.cpp:243] Memory required for data: 531127808
I1226 15:00:13.353983 90464 layer_factory.hpp:114] Creating layer drop7
I1226 15:00:13.354038 90464 net.cpp:178] Creating Layer drop7
I1226 15:00:13.354094 90464 net.cpp:612] drop7 <- fc7
I1226 15:00:13.354146 90464 net.cpp:573] drop7 -> fc7 (in-place)
I1226 15:00:13.354392 90464 net.cpp:228] Setting up drop7
I1226 15:00:13.354457 90464 net.cpp:235] Top shape: 64 4096 (262144)
I1226 15:00:13.354491 90464 net.cpp:243] Memory required for data: 532176384
I1226 15:00:13.354534 90464 layer_factory.hpp:114] Creating layer fc8
I1226 15:00:13.354691 90464 net.cpp:178] Creating Layer fc8
I1226 15:00:13.354734 90464 net.cpp:612] fc8 <- fc7
I1226 15:00:13.354782 90464 net.cpp:586] fc8 -> fc8
I1226 15:00:13.353477 92073 net.cpp:228] Setting up fc7
I1226 15:00:13.353590 92073 net.cpp:235] Top shape: 64 4096 (262144)
I1226 15:00:13.353618 92073 net.cpp:243] Memory required for data: 530079232
I1226 15:00:13.353673 92073 layer_factory.hpp:114] Creating layer relu7
I1226 15:00:13.353747 92073 net.cpp:178] Creating Layer relu7
I1226 15:00:13.353780 92073 net.cpp:612] relu7 <- fc7
I1226 15:00:13.353847 92073 net.cpp:573] relu7 -> fc7 (in-place)
I1226 15:00:13.353934 92073 net.cpp:228] Setting up relu7
I1226 15:00:13.353976 92073 net.cpp:235] Top shape: 64 4096 (262144)
I1226 15:00:13.354006 92073 net.cpp:243] Memory required for data: 531127808
I1226 15:00:13.354043 92073 layer_factory.hpp:114] Creating layer drop7
I1226 15:00:13.354080 92073 net.cpp:178] Creating Layer drop7
I1226 15:00:13.354105 92073 net.cpp:612] drop7 <- fc7
I1226 15:00:13.354275 92073 net.cpp:573] drop7 -> fc7 (in-place)
I1226 15:00:13.354326 92073 net.cpp:228] Setting up drop7
I1226 15:00:13.354367 92073 net.cpp:235] Top shape: 64 4096 (262144)
I1226 15:00:13.354398 92073 net.cpp:243] Memory required for data: 532176384
I1226 15:00:13.354434 92073 layer_factory.hpp:114] Creating layer fc8
I1226 15:00:13.354504 92073 net.cpp:178] Creating Layer fc8
I1226 15:00:13.354538 92073 net.cpp:612] fc8 <- fc7
I1226 15:00:13.354578 92073 net.cpp:586] fc8 -> fc8
I1226 15:00:13.372331 99258 net.cpp:228] Setting up fc7
I1226 15:00:13.372442 99258 net.cpp:235] Top shape: 64 4096 (262144)
I1226 15:00:13.372472 99258 net.cpp:243] Memory required for data: 530079232
I1226 15:00:13.372556 99258 layer_factory.hpp:114] Creating layer relu7
I1226 15:00:13.372639 99258 net.cpp:178] Creating Layer relu7
I1226 15:00:13.372683 99258 net.cpp:612] relu7 <- fc7
I1226 15:00:13.372740 99258 net.cpp:573] relu7 -> fc7 (in-place)
I1226 15:00:13.372828 99258 net.cpp:228] Setting up relu7
I1226 15:00:13.372881 99258 net.cpp:235] Top shape: 64 4096 (262144)
I1226 15:00:13.372907 99258 net.cpp:243] Memory required for data: 531127808
I1226 15:00:13.372939 99258 layer_factory.hpp:114] Creating layer drop7
I1226 15:00:13.373101 99258 net.cpp:178] Creating Layer drop7
I1226 15:00:13.373134 99258 net.cpp:612] drop7 <- fc7
I1226 15:00:13.373174 99258 net.cpp:573] drop7 -> fc7 (in-place)
I1226 15:00:13.373235 99258 net.cpp:228] Setting up drop7
I1226 15:00:13.373282 99258 net.cpp:235] Top shape: 64 4096 (262144)
I1226 15:00:13.373306 99258 net.cpp:243] Memory required for data: 532176384
I1226 15:00:13.373334 99258 layer_factory.hpp:114] Creating layer fc8
I1226 15:00:13.373409 99258 net.cpp:178] Creating Layer fc8
I1226 15:00:13.373443 99258 net.cpp:612] fc8 <- fc7
I1226 15:00:13.373483 99258 net.cpp:586] fc8 -> fc8
I1226 15:00:13.840136 85946 net.cpp:228] Setting up fc8
I1226 15:00:13.840260 85946 net.cpp:235] Top shape: 64 1000 (64000)
I1226 15:00:13.840289 85946 net.cpp:243] Memory required for data: 532432384
I1226 15:00:13.840343 85946 layer_factory.hpp:114] Creating layer fc8_fc8_0_split
I1226 15:00:13.840412 85946 net.cpp:178] Creating Layer fc8_fc8_0_split
I1226 15:00:13.840447 85946 net.cpp:612] fc8_fc8_0_split <- fc8
I1226 15:00:13.840505 85946 net.cpp:586] fc8_fc8_0_split -> fc8_fc8_0_split_0
I1226 15:00:13.840559 85946 net.cpp:586] fc8_fc8_0_split -> fc8_fc8_0_split_1
I1226 15:00:13.840693 85946 net.cpp:228] Setting up fc8_fc8_0_split
I1226 15:00:13.840752 85946 net.cpp:235] Top shape: 64 1000 (64000)
I1226 15:00:13.840785 85946 net.cpp:235] Top shape: 64 1000 (64000)
I1226 15:00:13.840807 85946 net.cpp:243] Memory required for data: 532944384
I1226 15:00:13.840839 85946 layer_factory.hpp:114] Creating layer accuracy
I1226 15:00:13.840903 85946 net.cpp:178] Creating Layer accuracy
I1226 15:00:13.840935 85946 net.cpp:612] accuracy <- fc8_fc8_0_split_0
I1226 15:00:13.840966 85946 net.cpp:612] accuracy <- label_data_1_split_0
I1226 15:00:13.841001 85946 net.cpp:586] accuracy -> accuracy
…
I1226 15:00:13.868948 85946 net.cpp:307] data does not need backward computation.
I1226 15:00:13.868978 85946 net.cpp:349] This network produces output accuracy
I1226 15:00:13.869015 85946 net.cpp:349] This network produces output loss
I1226 15:00:13.869117 85946 net.cpp:363] Network initialization done.
I1226 15:00:13.869555 85946 solver.cpp:107] Solver scaffolding done.
I1226 15:00:13.869776 85946 caffe.cpp:212] Finetuning from /export/data1/stanford/hazy/gordon_bell/caffenet_knl/snapshot/caffenet_MN8_B1024/_iter_25000.caffemodel
I1226 15:00:13.870882 90550 net.cpp:228] Setting up fc8
I1226 15:00:13.871011 90550 net.cpp:235] Top shape: 64 1000 (64000)
I1226 15:00:13.871044 90550 net.cpp:243] Memory required for data: 532432384
I1226 15:00:13.871101 90550 layer_factory.hpp:114] Creating layer fc8_fc8_0_split
I1226 15:00:13.871177 90550 net.cpp:178] Creating Layer fc8_fc8_0_split
I1226 15:00:13.871217 90550 net.cpp:612] fc8_fc8_0_split <- fc8
I1226 15:00:13.871282 90550 net.cpp:586] fc8_fc8_0_split -> fc8_fc8_0_split_0
I1226 15:00:13.871336 90550 net.cpp:586] fc8_fc8_0_split -> fc8_fc8_0_split_1
I1226 15:00:13.871415 90550 net.cpp:228] Setting up fc8_fc8_0_split
I1226 15:00:13.871462 90550 net.cpp:235] Top shape: 64 1000 (64000)
I1226 15:00:13.871502 90550 net.cpp:235] Top shape: 64 1000 (64000)
I1226 15:00:13.871526 90550 net.cpp:243] Memory required for data: 532944384
I1226 15:00:13.871552 90550 layer_factory.hpp:114] Creating layer accuracy
I1226 15:00:13.871639 90550 net.cpp:178] Creating Layer accuracy
I1226 15:00:13.871680 90550 net.cpp:612] accuracy <- fc8_fc8_0_split_0
I1226 15:00:13.871711 90550 net.cpp:612] accuracy <- label_data_1_split_0
I1226 15:00:13.871752 90550 net.cpp:586] accuracy -> accuracy
I1226 15:00:13.871805 90550 net.cpp:228] Setting up accuracy
I1226 15:00:13.871845 90550 net.cpp:235] Top shape: (1)
I1226 15:00:13.871875 90550 net.cpp:243] Memory required for data: 532944388
I1226 15:00:13.871903 90550 layer_factory.hpp:114] Creating layer loss
I1226 15:00:13.871948 90550 net.cpp:178] Creating Layer loss
I1226 15:00:13.871979 90550 net.cpp:612] loss <- fc8_fc8_0_split_1
I1226 15:00:13.872009 90550 net.cpp:612] loss <- label_data_1_split_1
I1226 15:00:13.872041 90550 net.cpp:586] loss -> loss
I1226 15:00:13.872103 90550 layer_factory.hpp:114] Creating layer loss
I1226 15:00:13.891337 92959 net.cpp:228] Setting up fc8
I1226 15:00:13.891449 92959 net.cpp:235] Top shape: 64 1000 (64000)
I1226 15:00:13.891497 92959 net.cpp:243] Memory required for data: 532432384
I1226 15:00:13.891556 92959 layer_factory.hpp:114] Creating layer fc8_fc8_0_split
I1226 15:00:13.891638 92959 net.cpp:178] Creating Layer fc8_fc8_0_split
I1226 15:00:13.891681 92959 net.cpp:612] fc8_fc8_0_split <- fc8
I1226 15:00:13.891732 92959 net.cpp:586] fc8_fc8_0_split -> fc8_fc8_0_split_0
I1226 15:00:13.891783 92959 net.cpp:586] fc8_fc8_0_split -> fc8_fc8_0_split_1
I1226 15:00:13.891870 92959 net.cpp:228] Setting up fc8_fc8_0_split
I1226 15:00:13.891922 92959 net.cpp:235] Top shape: 64 1000 (64000)
I1226 15:00:13.891954 92959 net.cpp:235] Top shape: 64 1000 (64000)
I1226 15:00:13.891986 92959 net.cpp:243] Memory required for data: 532944384
I1226 15:00:13.892015 92959 layer_factory.hpp:114] Creating layer accuracy
I1226 15:00:13.892076 92959 net.cpp:178] Creating Layer accuracy
I1226 15:00:13.892108 92959 net.cpp:612] accuracy <- fc8_fc8_0_split_0
I1226 15:00:13.892138 92959 net.cpp:612] accuracy <- label_data_1_split_0
I1226 15:00:13.892176 92959 net.cpp:586] accuracy -> accuracy
I1226 15:00:13.892230 92959 net.cpp:228] Setting up accuracy
I1226 15:00:13.892266 92959 net.cpp:235] Top shape: (1)
I1226 15:00:13.892297 92959 net.cpp:243] Memory required for data: 532944388
I1226 15:00:13.892324 92959 layer_factory.hpp:114] Creating layer loss
I1226 15:00:13.892369 92959 net.cpp:178] Creating Layer loss
I1226 15:00:13.892395 92959 net.cpp:612] loss <- fc8_fc8_0_split_1
I1226 15:00:13.892423 92959 net.cpp:612] loss <- label_data_1_split_1
I1226 15:00:13.892455 92959 net.cpp:586] loss -> loss
I1226 15:00:13.892536 92959 layer_factory.hpp:114] Creating layer loss
I1226 15:00:13.905227 92949 net.cpp:228] Setting up fc8
I1226 15:00:13.905342 92949 net.cpp:235] Top shape: 64 1000 (64000)
I1226 15:00:13.905372 92949 net.cpp:243] Memory required for data: 532432384
I1226 15:00:13.905429 92949 layer_factory.hpp:114] Creating layer fc8_fc8_0_split
I1226 15:00:13.905525 92949 net.cpp:178] Creating Layer fc8_fc8_0_split
I1226 15:00:13.905573 92949 net.cpp:612] fc8_fc8_0_split <- fc8
I1226 15:00:13.905635 92949 net.cpp:586] fc8_fc8_0_split -> fc8_fc8_0_split_0
I1226 15:00:13.905686 92949 net.cpp:586] fc8_fc8_0_split -> fc8_fc8_0_split_1
I1226 15:00:13.905779 92949 net.cpp:228] Setting up fc8_fc8_0_split
I1226 15:00:13.905865 92949 net.cpp:235] Top shape: 64 1000 (64000)
I1226 15:00:13.905896 92949 net.cpp:235] Top shape: 64 1000 (64000)
I1226 15:00:13.905920 92949 net.cpp:243] Memory required for data: 532944384
I1226 15:00:13.905948 92949 layer_factory.hpp:114] Creating layer accuracy
I1226 15:00:13.906029 92949 net.cpp:178] Creating Layer accuracy
I1226 15:00:13.906075 92949 net.cpp:612] accuracy <- fc8_fc8_0_split_0
I1226 15:00:13.906111 92949 net.cpp:612] accuracy <- label_data_1_split_0
I1226 15:00:13.906153 92949 net.cpp:586] accuracy -> accuracy
I1226 15:00:13.906209 92949 net.cpp:228] Setting up accuracy
I1226 15:00:13.906250 92949 net.cpp:235] Top shape: (1)
I1226 15:00:13.906272 92949 net.cpp:243] Memory required for data: 532944388
I1226 15:00:13.906301 92949 layer_factory.hpp:114] Creating layer loss
I1226 15:00:13.906344 92949 net.cpp:178] Creating Layer loss
I1226 15:00:13.906378 92949 net.cpp:612] loss <- fc8_fc8_0_split_1
I1226 15:00:13.906407 92949 net.cpp:612] loss <- label_data_1_split_1
I1226 15:00:13.906442 92949 net.cpp:586] loss -> loss
I1226 15:00:13.906502 92949 layer_factory.hpp:114] Creating layer loss
I1226 15:00:13.905740 91209 net.cpp:228] Setting up fc8
I1226 15:00:13.905855 91209 net.cpp:235] Top shape: 64 1000 (64000)
I1226 15:00:13.905884 91209 net.cpp:243] Memory required for data: 532432384
I1226 15:00:13.905937 91209 layer_factory.hpp:114] Creating layer fc8_fc8_0_split
I1226 15:00:13.906035 91209 net.cpp:178] Creating Layer fc8_fc8_0_split
I1226 15:00:13.906080 91209 net.cpp:612] fc8_fc8_0_split <- fc8
I1226 15:00:13.906164 91209 net.cpp:586] fc8_fc8_0_split -> fc8_fc8_0_split_0
I1226 15:00:13.906219 91209 net.cpp:586] fc8_fc8_0_split -> fc8_fc8_0_split_1
I1226 15:00:13.906304 91209 net.cpp:228] Setting up fc8_fc8_0_split
I1226 15:00:13.906360 91209 net.cpp:235] Top shape: 64 1000 (64000)
I1226 15:00:13.906391 91209 net.cpp:235] Top shape: 64 1000 (64000)
I1226 15:00:13.906415 91209 net.cpp:243] Memory required for data: 532944384
I1226 15:00:13.906548 91209 layer_factory.hpp:114] Creating layer accuracy
I1226 15:00:13.906611 91209 net.cpp:178] Creating Layer accuracy
I1226 15:00:13.906647 91209 net.cpp:612] accuracy <- fc8_fc8_0_split_0
I1226 15:00:13.906677 91209 net.cpp:612] accuracy <- label_data_1_split_0
I1226 15:00:13.906710 91209 net.cpp:586] accuracy -> accuracy
I1226 15:00:13.906764 91209 net.cpp:228] Setting up accuracy
I1226 15:00:13.906800 91209 net.cpp:235] Top shape: (1)
I1226 15:00:13.906821 91209 net.cpp:243] Memory required for data: 532944388
I1226 15:00:13.906848 91209 layer_factory.hpp:114] Creating layer loss
I1226 15:00:13.906890 91209 net.cpp:178] Creating Layer loss
I1226 15:00:13.906924 91209 net.cpp:612] loss <- fc8_fc8_0_split_1
I1226 15:00:13.906952 91209 net.cpp:612] loss <- label_data_1_split_1
I1226 15:00:13.913779 90464 net.cpp:228] Setting up fc8
I1226 15:00:13.906985 91209 net.cpp:586] loss -> loss
I1226 15:00:13.913892 90464 net.cpp:235] Top shape: 64 1000 (64000)
I1226 15:00:13.907042 91209 layer_factory.hpp:114] Creating layer loss
I1226 15:00:13.913946 90464 net.cpp:243] Memory required for data: 532432384
I1226 15:00:13.914006 90464 layer_factory.hpp:114] Creating layer fc8_fc8_0_split
I1226 15:00:13.914096 90464 net.cpp:178] Creating Layer fc8_fc8_0_split
I1226 15:00:13.914142 90464 net.cpp:612] fc8_fc8_0_split <- fc8
I1226 15:00:13.914199 90464 net.cpp:586] fc8_fc8_0_split -> fc8_fc8_0_split_0
I1226 15:00:13.914269 90464 net.cpp:586] fc8_fc8_0_split -> fc8_fc8_0_split_1
I1226 15:00:13.914461 90464 net.cpp:228] Setting up fc8_fc8_0_split
I1226 15:00:13.914594 90464 net.cpp:235] Top shape: 64 1000 (64000)
I1226 15:00:13.914630 90464 net.cpp:235] Top shape: 64 1000 (64000)
I1226 15:00:13.914654 90464 net.cpp:243] Memory required for data: 532944384
I1226 15:00:13.914695 90464 layer_factory.hpp:114] Creating layer accuracy
I1226 15:00:13.914762 90464 net.cpp:178] Creating Layer accuracy
I1226 15:00:13.914796 90464 net.cpp:612] accuracy <- fc8_fc8_0_split_0
I1226 15:00:13.914829 90464 net.cpp:612] accuracy <- label_data_1_split_0
I1226 15:00:13.914873 90464 net.cpp:586] accuracy -> accuracy
I1226 15:00:13.914949 90464 net.cpp:228] Setting up accuracy
I1226 15:00:13.914988 90464 net.cpp:235] Top shape: (1)
I1226 15:00:13.915010 90464 net.cpp:243] Memory required for data: 532944388
I1226 15:00:13.915050 90464 layer_factory.hpp:114] Creating layer loss
I1226 15:00:13.915094 90464 net.cpp:178] Creating Layer loss
I1226 15:00:13.915122 90464 net.cpp:612] loss <- fc8_fc8_0_split_1
I1226 15:00:13.915156 90464 net.cpp:612] loss <- label_data_1_split_1
I1226 15:00:13.915213 90464 net.cpp:586] loss -> loss
I1226 15:00:13.915276 90464 layer_factory.hpp:114] Creating layer loss
I1226 15:00:13.910150 92073 net.cpp:228] Setting up fc8
I1226 15:00:13.910284 92073 net.cpp:235] Top shape: 64 1000 (64000)
I1226 15:00:13.910315 92073 net.cpp:243] Memory required for data: 532432384
I1226 15:00:13.910368 92073 layer_factory.hpp:114] Creating layer fc8_fc8_0_split
I1226 15:00:13.910457 92073 net.cpp:178] Creating Layer fc8_fc8_0_split
I1226 15:00:13.910496 92073 net.cpp:612] fc8_fc8_0_split <- fc8
I1226 15:00:13.910547 92073 net.cpp:586] fc8_fc8_0_split -> fc8_fc8_0_split_0
I1226 15:00:13.910598 92073 net.cpp:586] fc8_fc8_0_split -> fc8_fc8_0_split_1
I1226 15:00:13.910686 92073 net.cpp:228] Setting up fc8_fc8_0_split
I1226 15:00:13.910727 92073 net.cpp:235] Top shape: 64 1000 (64000)
I1226 15:00:13.910758 92073 net.cpp:235] Top shape: 64 1000 (64000)
I1226 15:00:13.910786 92073 net.cpp:243] Memory required for data: 532944384
I1226 15:00:13.910816 92073 layer_factory.hpp:114] Creating layer accuracy
I1226 15:00:13.910874 92073 net.cpp:178] Creating Layer accuracy
I1226 15:00:13.910907 92073 net.cpp:612] accuracy <- fc8_fc8_0_split_0
I1226 15:00:13.910938 92073 net.cpp:612] accuracy <- label_data_1_split_0
I1226 15:00:13.910975 92073 net.cpp:586] accuracy -> accuracy
…
