…
I1226 14:11:06.982694 96952 net.cpp:500] The NetState phase (0) differed from the phase (1) specified by a rule in layer data
I1226 14:11:06.984828 96952 net.cpp:136] Initializing net from parameters: 
name: "AlexNet"
state {
  phase: TRAIN
  level: 0
  stage: ""
}
engine: "MKL2017"
layer {
  name: "data"
  type: "Data"
  top: "data"
  top: "label"
  include {
    phase: TRAIN
  }
  transform_param {
    mirror: true
    crop_size: 227
    mean_value: 104
    mean_value: 117
    mean_value: 123
  }
  data_param {
    source: "/export/data1/stanford/hazy/zjian/gorden_bell/ILSVRC2012_lmdb/db_8/ilsvrc12_train_lmdb_2"
    batch_size: 256
    backend: LMDB
  }
}
layer {
  name: "label_data_1_split"
  type: "Split"
  bottom: "label"
  top: "label_data_1_split_0"
  top: "label_data_1_split_1"
}
layer {
  name: "conv1"
  type: "Convolution"
  bottom: "data"
  top: "conv1"
  param {
    lr_mult: 1
    decay_mult: 1
  }
  param {
    lr_mult: 2
    decay_mult: 0
  }
  convolution_param {
    num_output: 96
    kernel_size: 11
    stride: 4
    weight_filler {
      type: "gaussian"
      std: 0.01
    }
    bias_filler {
      type: "constant"
      value: 0
    }
    engine: MKL2017
  }
}
layer {
  name: "relu1"
  type: "ReLU"
  bottom: "conv1"
  top: "conv1"
  relu_param {
    engine: MKL2017
  }
}
layer {
  name: "norm1"
  type: "LRN"
  bottom: "conv1"
  top: "norm1"
  lrn_param {
    local_size: 5
    alpha: 0.0001
    beta: 0.75
    engine: MKL2017
  }
}
layer {
  name: "pool1"
  type: "Pooling"
  bottom: "norm1"
  top: "pool1"
  pooling_param {
    pool: MAX
    kernel_size: 3
    stride: 2
    engine: MKL2017
  }
}
layer {
  name: "conv2"
  type: "Convolution"
  bottom: "pool1"
  top: "conv2"
  param {
    lr_mult: 1
    decay_mult: 1
  }
  param {
    lr_mult: 2
    decay_mult: 0
  }
  convolution_param {
    num_output: 256
    pad: 2
    kernel_size: 5
    group: 2
    weight_filler {
      type: "gaussian"
      std: 0.01
    }
    bias_filler {
      type: "constant"
      value: 0.1
    }
    engine: MKL2017
  }
}
layer {
  name: "relu2"
  type: "ReLU"
  bottom: "conv2"
  top: "conv2"
  relu_param {
    engine: MKL2017
  }
}
layer {
  name: "norm2"
  type: "LRN"
  bottom: "conv2"
  top: "norm2"
  lrn_param {
    local_size: 5
    alpha: 0.0001
    beta: 0.75
    engine: MKL2017
  }
}
layer {
  name: "pool2"
  type: "Pooling"
  bottom: "norm2"
  top: "pool2"
  pooling_param {
    pool: MAX
    kernel_size: 3
    stride: 2
    engine: MKL2017
  }
}
layer {
  name: "conv3"
  type: "Convolution"
  bottom: "pool2"
  top: "conv3"
  param {
    lr_mult: 1
    decay_mult: 1
  }
  param {
    lr_mult: 2
    decay_mult: 0
  }
  convolution_param {
    num_output: 384
    pad: 1
    kernel_size: 3
    weight_filler {
      type: "gaussian"
      std: 0.01
    }
    bias_filler {
      type: "constant"
      value: 0
    }
    engine: MKL2017
  }
}
layer {
  name: "relu3"
  type: "ReLU"
  bottom: "conv3"
  top: "conv3"
  relu_param {
    engine: MKL2017
  }
}
layer {
  name: "conv4"
  type: "Convolution"
  bottom: "conv3"
  top: "conv4"
  param {
    lr_mult: 1
    decay_mult: 1
  }
  param {
    lr_mult: 2
    decay_mult: 0
  }
  convolution_param {
    num_output: 384
    pad: 1
    kernel_size: 3
    group: 2
    weight_filler {
      type: "gaussian"
      std: 0.01
    }
    bias_filler {
      type: "constant"
      value: 0.1
    }
    engine: MKL2017
  }
}
layer {
  name: "relu4"
  type: "ReLU"
  bottom: "conv4"
  top: "conv4"
  relu_param {
    engine: MKL2017
  }
}
layer {
  name: "conv5"
  type: "Convolution"
  bottom: "conv4"
  top: "conv5"
  param {
    lr_mult: 1
    decay_mult: 1
  }
  param {
    lr_mult: 2
    decay_mult: 0
  }
  convolution_param {
    num_output: 256
    pad: 1
    kernel_size: 3
    group: 2
    weight_filler {
      type: "gaussian"
      std: 0.01
    }
    bias_filler {
      type: "constant"
      value: 0.1
    }
    engine: MKL2017
  }
}
layer {
  name: "relu5"
  type: "ReLU"
  bottom: "conv5"
  top: "conv5"
  relu_param {
    engine: MKL2017
  }
}
layer {
  name: "pool5"
  type: "Pooling"
  bottom: "conv5"
  top: "pool5"
  pooling_param {
    pool: MAX
    kernel_size: 3
    stride: 2
    engine: MKL2017
  }
}
layer {
  name: "fc6"
  type: "InnerProduct"
  bottom: "pool5"
  top: "fc6"
  param {
    lr_mult: 1
    decay_mult: 1
  }
  param {
    lr_mult: 2
    decay_mult: 0
  }
  inner_product_param {
    num_output: 4096
    weight_filler {
      type: "gaussian"
      std: 0.005
    }
    bias_filler {
      type: "constant"
      value: 0.1
    }
  }
}
layer {
  name: "relu6"
  type: "ReLU"
  bottom: "fc6"
  top: "fc6"
}
layer {
  name: "drop6"
  type: "Dropout"
  bottom: "fc6"
  top: "fc6"
  dropout_param {
    dropout_ratio: 0.5
  }
}
layer {
  name: "fc7"
  type: "InnerProduct"
  bottom: "fc6"
  top: "fc7"
  param {
    lr_mult: 1
    decay_mult: 1
  }
  param {
    lr_mult: 2
    decay_mult: 0
  }
  inner_product_param {
    num_output: 4096
    weight_filler {
      type: "gaussian"
      std: 0.005
    }
    bias_filler {
      type: "constant"
      value: 0.1
    }
  }
}
layer {
  name: "relu7"
  type: "ReLU"
  bottom: "fc7"
  top: "fc7"
}
layer {
  name: "drop7"
  type: "Dropout"
  bottom: "fc7"
  top: "fc7"
  dropout_param {
    dropout_ratio: 0.5
  }
}
layer {
  name: "fc8"
  type: "InnerProduct"
  bottom: "fc7"
  top: "fc8"
  param {
    lr_mult: 1
    decay_mult: 1
  }
  param {
    lr_mult: 2
    decay_mult: 0
  }
  inner_product_param {
    num_output: 1000
    weight_filler {
      type: "gaussian"
      std: 0.01
    }
    bias_filler {
      type: "constant"
      value: 0
    }
  }
}
layer {
  name: "fc8_fc8_0_split"
  type: "Split"
  bottom: "fc8"
  top: "fc8_fc8_0_split_0"
  top: "fc8_fc8_0_split_1"
}
layer {
  name: "accuracy"
  type: "Accuracy"
  bottom: "fc8_fc8_0_split_0"
  bottom: "label_data_1_split_0"
  top: "accuracy"
}
layer {
  name: "loss"
  type: "SoftmaxWithLoss"
  bottom: "fc8_fc8_0_split_1"
  bottom: "label_data_1_split_1"
  top: "loss"
}
I1226 14:11:07.010337 91711 cpu_info.cpp:473] Number of OpenMP threads: 66
I1226 14:11:07.010782 91711 net.cpp:500] The NetState phase (0) differed from the phase (1) specified by a rule in layer data
I1226 14:11:07.013478 91711 net.cpp:136] Initializing net from parameters: 
name: "AlexNet"
state {
  phase: TRAIN
  level: 0
  stage: ""
}
engine: "MKL2017"
layer {
  name: "data"
  type: "Data"
  top: "data"
  top: "label"
  include {
    phase: TRAIN
  }
  transform_param {
    mirror: true
    crop_size: 227
    mean_value: 104
    mean_value: 117
    mean_value: 123
  }
  data_param {
    source: "/export/data1/stanford/hazy/zjian/gorden_bell/ILSVRC2012_lmdb/db_8/ilsvrc12_train_lmdb_3"
    batch_size: 256
    backend: LMDB
  }
}
layer {
  name: "label_data_1_split"
  type: "Split"
  bottom: "label"
  top: "label_data_1_split_0"
  top: "label_data_1_split_1"
}
layer {
  name: "conv1"
  type: "Convolution"
  bottom: "data"
  top: "conv1"
  param {
    lr_mult: 1
    decay_mult: 1
  }
  param {
    lr_mult: 2
    decay_mult: 0
  }
  convolution_param {
    num_output: 96
    kernel_size: 11
    stride: 4
    weight_filler {
      type: "gaussian"
      std: 0.01
    }
    bias_filler {
      type: "constant"
      value: 0
    }
    engine: MKL2017
  }
}
layer {
  name: "relu1"
  type: "ReLU"
  bottom: "conv1"
  top: "conv1"
  relu_param {
    engine: MKL2017
  }
}
layer {
  name: "norm1"
  type: "LRN"
  bottom: "conv1"
  top: "norm1"
  lrn_param {
    local_size: 5
    alpha: 0.0001
    beta: 0.75
    engine: MKL2017
  }
}
layer {
  name: "pool1"
  type: "Pooling"
  bottom: "norm1"
  top: "pool1"
  pooling_param {
    pool: MAX
    kernel_size: 3
    stride: 2
    engine: MKL2017
  }
}
layer {
  name: "conv2"
  type: "Convolution"
  bottom: "pool1"
  top: "conv2"
  param {
    lr_mult: 1
    decay_mult: 1
  }
  param {
    lr_mult: 2
    decay_mult: 0
  }
  convolution_param {
    num_output: 256
    pad: 2
    kernel_size: 5
    group: 2
    weight_filler {
      type: "gaussian"
      std: 0.01
    }
    bias_filler {
      type: "constant"
      value: 0.1
    }
    engine: MKL2017
  }
}
layer {
  name: "relu2"
  type: "ReLU"
  bottom: "conv2"
  top: "conv2"
  relu_param {
    engine: MKL2017
  }
}
layer {
  name: "norm2"
  type: "LRN"
  bottom: "conv2"
  top: "norm2"
  lrn_param {
    local_size: 5
    alpha: 0.0001
    beta: 0.75
    engine: MKL2017
  }
}
layer {
  name: "pool2"
  type: "Pooling"
  bottom: "norm2"
  top: "pool2"
  pooling_param {
    pool: MAX
    kernel_size: 3
    stride: 2
    engine: MKL2017
  }
}
layer {
  name: "conv3"
  type: "Convolution"
  bottom: "pool2"
  top: "conv3"
  param {
    lr_mult: 1
    decay_mult: 1
  }
  param {
    lr_mult: 2
    decay_mult: 0
  }
  convolution_param {
    num_output: 384
    pad: 1
    kernel_size: 3
    weight_filler {
      type: "gaussian"
      std: 0.01
    }
    bias_filler {
      type: "constant"
      value: 0
    }
    engine: MKL2017
  }
}
layer {
  name: "relu3"
  type: "ReLU"
  bottom: "conv3"
  top: "conv3"
  relu_param {
    engine: MKL2017
  }
}
layer {
  name: "conv4"
  type: "Convolution"
  bottom: "conv3"
  top: "conv4"
  param {
    lr_mult: 1
    decay_mult: 1
  }
  param {
    lr_mult: 2
    decay_mult: 0
  }
  convolution_param {
    num_output: 384
    pad: 1
    kernel_size: 3
    group: 2
    weight_filler {
      type: "gaussian"
      std: 0.01
    }
    bias_filler {
      type: "constant"
      value: 0.1
    }
    engine: MKL2017
  }
}
layer {
  name: "relu4"
  type: "ReLU"
  bottom: "conv4"
  top: "conv4"
  relu_param {
    engine: MKL2017
  }
}
layer {
  name: "conv5"
  type: "Convolution"
  bottom: "conv4"
  top: "conv5"
  param {
    lr_mult: 1
    decay_mult: 1
  }
  param {
    lr_mult: 2
    decay_mult: 0
  }
  convolution_param {
    num_output: 256
    pad: 1
    kernel_size: 3
    group: 2
    weight_filler {
      type: "gaussian"
      std: 0.01
    }
    bias_filler {
      type: "constant"
      value: 0.1
    }
    engine: MKL2017
  }
}
layer {
  name: "relu5"
  type: "ReLU"
  bottom: "conv5"
  top: "conv5"
  relu_param {
    engine: MKL2017
  }
}
layer {
  name: "pool5"
  type: "Pooling"
  bottom: "conv5"
  top: "pool5"
  pooling_param {
    pool: MAX
    kernel_size: 3
    stride: 2
    engine: MKL2017
  }
}
layer {
  name: "fc6"
  type: "InnerProduct"
  bottom: "pool5"
  top: "fc6"
  param {
    lr_mult: 1
    decay_mult: 1
  }
  param {
    lr_mult: 2
    decay_mult: 0
  }
  inner_product_param {
    num_output: 4096
    weight_filler {
      type: "gaussian"
      std: 0.005
    }
    bias_filler {
      type: "constant"
      value: 0.1
    }
  }
}
layer {
  name: "relu6"
  type: "ReLU"
  bottom: "fc6"
  top: "fc6"
}
layer {
  name: "drop6"
  type: "Dropout"
  bottom: "fc6"
  top: "fc6"
  dropout_param {
    dropout_ratio: 0.5
  }
}
layer {
  name: "fc7"
  type: "InnerProduct"
  bottom: "fc6"
  top: "fc7"
  param {
    lr_mult: 1
    decay_mult: 1
  }
  param {
    lr_mult: 2
    decay_mult: 0
  }
  inner_product_param {
    num_output: 4096
    weight_filler {
      type: "gaussian"
      std: 0.005
    }
    bias_filler {
      type: "constant"
      value: 0.1
    }
  }
}
layer {
  name: "relu7"
  type: "ReLU"
  bottom: "fc7"
  top: "fc7"
}
layer {
  name: "drop7"
  type: "Dropout"
  bottom: "fc7"
  top: "fc7"
  dropout_param {
    dropout_ratio: 0.5
  }
}
layer {
  name: "fc8"
  type: "InnerProduct"
  bottom: "fc7"
  top: "fc8"
  param {
    lr_mult: 1
    decay_mult: 1
  }
  param {
    lr_mult: 2
    decay_mult: 0
  }
  inner_product_param {
    num_output: 1000
    weight_filler {
      type: "gaussian"
      std: 0.01
    }
    bias_filler {
      type: "constant"
      value: 0
    }
  }
}
layer {
  name: "fc8_fc8_0_split"
  type: "Split"
  bottom: "fc8"
  top: "fc8_fc8_0_split_0"
  top: "fc8_fc8_0_split_1"
}
layer {
  name: "accuracy"
  type: "Accuracy"
  bottom: "fc8_fc8_0_split_0"
  bottom: "label_data_1_split_0"
  top: "accuracy"
}
layer {
  name: "loss"
  type: "SoftmaxWithLoss"
  bottom: "fc8_fc8_0_split_1"
  bottom: "label_data_1_split_1"
  top: "loss"
}
I1226 14:11:07.019410 92483 cpu_info.cpp:473] Number of OpenMP threads: 66
I1226 14:11:07.019719 92483 net.cpp:500] The NetState phase (0) differed from the phase (1) specified by a rule in layer data
I1226 14:11:07.021353 92483 net.cpp:136] Initializing net from parameters: 
name: "AlexNet"
state {
  phase: TRAIN
  level: 0
  stage: ""
}
engine: "MKL2017"
layer {
  name: "data"
  type: "DummyData"
  top: "data"
  top: "label"
  include {
    phase: TRAIN
  }
  transform_param {
    mirror: true
    crop_size: 227
    mean_value: 104
    mean_value: 117
    mean_value: 123
  }
  dummy_data_param {
    data_filler {
      type: "gaussian"
      std: 1
    }
    data_filler {
      type: "constant"
      value: 0
    }
    shape {
      dim: 256
      dim: 3
      dim: 227
      dim: 227
    }
    shape {
      dim: 256
      dim: 1
      dim: 1
      dim: 1
    }
  }
}
layer {
  name: "label_data_1_split"
  type: "Split"
  bottom: "label"
  top: "label_data_1_split_0"
  top: "label_data_1_split_1"
}
layer {
  name: "conv1"
  type: "Convolution"
  bottom: "data"
  top: "conv1"
  param {
    lr_mult: 1
    decay_mult: 1
  }
  param {
    lr_mult: 2
    decay_mult: 0
  }
  convolution_param {
    num_output: 96
    kernel_size: 11
    stride: 4
    weight_filler {
      type: "gaussian"
      std: 0.01
    }
    bias_filler {
      type: "constant"
      value: 0
    }
    engine: MKL2017
  }
}
layer {
  name: "relu1"
  type: "ReLU"
  bottom: "conv1"
  top: "conv1"
  relu_param {
    engine: MKL2017
  }
}
layer {
  name: "norm1"
  type: "LRN"
  bottom: "conv1"
  top: "norm1"
  lrn_param {
    local_size: 5
    alpha: 0.0001
    beta: 0.75
    engine: MKL2017
  }
}
layer {
  name: "pool1"
  type: "Pooling"
  bottom: "norm1"
  top: "pool1"
  pooling_param {
    pool: MAX
    kernel_size: 3
    stride: 2
    engine: MKL2017
  }
}
layer {
  name: "conv2"
  type: "Convolution"
  bottom: "pool1"
  top: "conv2"
  param {
    lr_mult: 1
    decay_mult: 1
  }
  param {
    lr_mult: 2
    decay_mult: 0
  }
  convolution_param {
    num_output: 256
    pad: 2
    kernel_size: 5
    group: 2
    weight_filler {
      type: "gaussian"
      std: 0.01
    }
    bias_filler {
      type: "constant"
      value: 0.1
    }
    engine: MKL2017
  }
}
layer {
  name: "relu2"
  type: "ReLU"
  bottom: "conv2"
  top: "conv2"
  relu_param {
    engine: MKL2017
  }
}
layer {
  name: "norm2"
  type: "LRN"
  bottom: "conv2"
  top: "norm2"
  lrn_param {
    local_size: 5
    alpha: 0.0001
    beta: 0.75
    engine: MKL2017
  }
}
layer {
  name: "pool2"
  type: "Pooling"
  bottom: "norm2"
  top: "pool2"
  pooling_param {
    pool: MAX
    kernel_size: 3
    stride: 2
    engine: MKL2017
  }
}
layer {
  name: "conv3"
  type: "Convolution"
  bottom: "pool2"
  top: "conv3"
  param {
    lr_mult: 1
    decay_mult: 1
  }
  param {
    lr_mult: 2
    decay_mult: 0
  }
  convolution_param {
    num_output: 384
    pad: 1
    kernel_size: 3
    weight_filler {
      type: "gaussian"
      std: 0.01
    }
    bias_filler {
      type: "constant"
      value: 0
    }
    engine: MKL2017
  }
}
layer {
  name: "relu3"
  type: "ReLU"
  bottom: "conv3"
  top: "conv3"
  relu_param {
    engine: MKL2017
  }
}
layer {
  name: "conv4"
  type: "Convolution"
  bottom: "conv3"
  top: "conv4"
  param {
    lr_mult: 1
    decay_mult: 1
  }
  param {
    lr_mult: 2
    decay_mult: 0
  }
  convolution_param {
    num_output: 384
    pad: 1
    kernel_size: 3
    group: 2
    weight_filler {
      type: "gaussian"
      std: 0.01
    }
    bias_filler {
      type: "constant"
      value: 0.1
    }
    engine: MKL2017
  }
}
layer {
  name: "relu4"
  type: "ReLU"
  bottom: "conv4"
  top: "conv4"
  relu_param {
    engine: MKL2017
  }
}
layer {
  name: "conv5"
  type: "Convolution"
  bottom: "conv4"
  top: "conv5"
  param {
    lr_mult: 1
    decay_mult: 1
  }
  param {
    lr_mult: 2
    decay_mult: 0
  }
  convolution_param {
    num_output: 256
    pad: 1
    kernel_size: 3
    group: 2
    weight_filler {
      type: "gaussian"
      std: 0.01
    }
    bias_filler {
      type: "constant"
      value: 0.1
    }
    engine: MKL2017
  }
}
layer {
  name: "relu5"
  type: "ReLU"
  bottom: "conv5"
  top: "conv5"
  relu_param {
    engine: MKL2017
  }
}
layer {
  name: "pool5"
  type: "Pooling"
  bottom: "conv5"
  top: "pool5"
  pooling_param {
    pool: MAX
    kernel_size: 3
    stride: 2
    engine: MKL2017
  }
}
layer {
  name: "fc6"
  type: "InnerProduct"
  bottom: "pool5"
  top: "fc6"
  param {
    lr_mult: 1
    decay_mult: 1
  }
  param {
    lr_mult: 2
    decay_mult: 0
  }
  inner_product_param {
    num_output: 4096
    weight_filler {
      type: "gaussian"
      std: 0.005
    }
    bias_filler {
      type: "constant"
      value: 0.1
    }
  }
}
layer {
  name: "relu6"
  type: "ReLU"
  bottom: "fc6"
  top: "fc6"
}
layer {
  name: "drop6"
  type: "Dropout"
  bottom: "fc6"
  top: "fc6"
  dropout_param {
    dropout_ratio: 0.5
  }
}
layer {
  name: "fc7"
  type: "InnerProduct"
  bottom: "fc6"
  top: "fc7"
  param {
    lr_mult: 1
    decay_mult: 1
  }
  param {
    lr_mult: 2
    decay_mult: 0
  }
  inner_product_param {
    num_output: 4096
    weight_filler {
      type: "gaussian"
      std: 0.005
    }
    bias_filler {
      type: "constant"
      value: 0.1
    }
  }
}
layer {
  name: "relu7"
  type: "ReLU"
  bottom: "fc7"
  top: "fc7"
}
layer {
  name: "drop7"
  type: "Dropout"
  bottom: "fc7"
  top: "fc7"
  dropout_param {
    dropout_ratio: 0.5
  }
}
layer {
  name: "fc8"
  type: "InnerProduct"
  bottom: "fc7"
  top: "fc8"
  param {
    lr_mult: 1
    decay_mult: 1
  }
  param {
    lr_mult: 2
    decay_mult: 0
  }
  inner_product_param {
    num_output: 1000
    weight_filler {
      type: "gaussian"
      std: 0.01
    }
    bias_filler {
      type: "constant"
      value: 0
    }
  }
}
layer {
  name: "fc8_fc8_0_split"
  type: "Split"
  bottom: "fc8"
  top: "fc8_fc8_0_split_0"
  top: "fc8_fc8_0_split_1"
}
layer {
  name: "accuracy"
  type: "Accuracy"
  bottom: "fc8_fc8_0_split_0"
  bottom: "label_data_1_split_0"
  top: "accuracy"
}
layer {
  name: "loss"
  type: "SoftmaxWithLoss"
  bottom: "fc8_fc8_0_split_1"
  bottom: "label_data_1_split_1"
  top: "loss"
}
I1226 14:11:07.018589 95316 cpu_info.cpp:473] Number of OpenMP threads: 66
I1226 14:11:07.019008 95316 net.cpp:500] The NetState phase (0) differed from the phase (1) specified by a rule in layer data
I1226 14:11:07.021097 95316 net.cpp:136] Initializing net from parameters: 
name: "AlexNet"
state {
  phase: TRAIN
  level: 0
  stage: ""
}
engine: "MKL2017"
layer {
  name: "data"
  type: "Data"
  top: "data"
  top: "label"
  include {
    phase: TRAIN
  }
  transform_param {
    mirror: true
    crop_size: 227
    mean_value: 104
    mean_value: 117
    mean_value: 123
  }
  data_param {
    source: "/export/data1/stanford/hazy/zjian/gorden_bell/ILSVRC2012_lmdb/db_8/ilsvrc12_train_lmdb_6"
    batch_size: 256
    backend: LMDB
  }
}
layer {
  name: "label_data_1_split"
  type: "Split"
  bottom: "label"
  top: "label_data_1_split_0"
  top: "label_data_1_split_1"
}
layer {
  name: "conv1"
  type: "Convolution"
  bottom: "data"
  top: "conv1"
  param {
    lr_mult: 1
    decay_mult: 1
  }
  param {
    lr_mult: 2
    decay_mult: 0
  }
  convolution_param {
    num_output: 96
    kernel_size: 11
    stride: 4
    weight_filler {
      type: "gaussian"
      std: 0.01
    }
    bias_filler {
      type: "constant"
      value: 0
    }
    engine: MKL2017
  }
}
layer {
  name: "relu1"
  type: "ReLU"
  bottom: "conv1"
  top: "conv1"
  relu_param {
    engine: MKL2017
  }
}
layer {
  name: "norm1"
  type: "LRN"
  bottom: "conv1"
  top: "norm1"
  lrn_param {
    local_size: 5
    alpha: 0.0001
    beta: 0.75
    engine: MKL2017
  }
}
layer {
  name: "pool1"
  type: "Pooling"
  bottom: "norm1"
  top: "pool1"
  pooling_param {
    pool: MAX
    kernel_size: 3
    stride: 2
    engine: MKL2017
  }
}
layer {
  name: "conv2"
  type: "Convolution"
  bottom: "pool1"
  top: "conv2"
  param {
    lr_mult: 1
    decay_mult: 1
  }
  param {
    lr_mult: 2
    decay_mult: 0
  }
  convolution_param {
    num_output: 256
    pad: 2
    kernel_size: 5
    group: 2
    weight_filler {
      type: "gaussian"
      std: 0.01
    }
    bias_filler {
      type: "constant"
      value: 0.1
    }
    engine: MKL2017
  }
}
layer {
  name: "relu2"
  type: "ReLU"
  bottom: "conv2"
  top: "conv2"
  relu_param {
    engine: MKL2017
  }
}
layer {
  name: "norm2"
  type: "LRN"
  bottom: "conv2"
  top: "norm2"
  lrn_param {
    local_size: 5
    alpha: 0.0001
    beta: 0.75
    engine: MKL2017
  }
}
layer {
  name: "pool2"
  type: "Pooling"
  bottom: "norm2"
  top: "pool2"
  pooling_param {
    pool: MAX
    kernel_size: 3
    stride: 2
    engine: MKL2017
  }
}
layer {
  name: "conv3"
  type: "Convolution"
  bottom: "pool2"
  top: "conv3"
  param {
    lr_mult: 1
    decay_mult: 1
  }
  param {
    lr_mult: 2
    decay_mult: 0
  }
  convolution_param {
    num_output: 384
    pad: 1
    kernel_size: 3
    weight_filler {
      type: "gaussian"
      std: 0.01
    }
    bias_filler {
      type: "constant"
      value: 0
    }
    engine: MKL2017
  }
}
layer {
  name: "relu3"
  type: "ReLU"
  bottom: "conv3"
  top: "conv3"
  relu_param {
    engine: MKL2017
  }
}
layer {
  name: "conv4"
  type: "Convolution"
  bottom: "conv3"
  top: "conv4"
  param {
    lr_mult: 1
    decay_mult: 1
  }
  param {
    lr_mult: 2
    decay_mult: 0
  }
  convolution_param {
    num_output: 384
    pad: 1
    kernel_size: 3
    group: 2
    weight_filler {
      type: "gaussian"
      std: 0.01
    }
    bias_filler {
      type: "constant"
      value: 0.1
    }
    engine: MKL2017
  }
}
layer {
  name: "relu4"
  type: "ReLU"
  bottom: "conv4"
  top: "conv4"
  relu_param {
    engine: MKL2017
  }
}
layer {
  name: "conv5"
  type: "Convolution"
  bottom: "conv4"
  top: "conv5"
  param {
    lr_mult: 1
    decay_mult: 1
  }
  param {
    lr_mult: 2
    decay_mult: 0
  }
  convolution_param {
    num_output: 256
    pad: 1
    kernel_size: 3
    group: 2
    weight_filler {
      type: "gaussian"
      std: 0.01
    }
    bias_filler {
      type: "constant"
      value: 0.1
    }
    engine: MKL2017
  }
}
layer {
  name: "relu5"
  type: "ReLU"
  bottom: "conv5"
  top: "conv5"
  relu_param {
    engine: MKL2017
  }
}
layer {
  name: "pool5"
  type: "Pooling"
  bottom: "conv5"
  top: "pool5"
  pooling_param {
    pool: MAX
    kernel_size: 3
    stride: 2
    engine: MKL2017
  }
}
layer {
  name: "fc6"
  type: "InnerProduct"
  bottom: "pool5"
  top: "fc6"
  param {
    lr_mult: 1
    decay_mult: 1
  }
  param {
    lr_mult: 2
    decay_mult: 0
  }
  inner_product_param {
    num_output: 4096
    weight_filler {
      type: "gaussian"
      std: 0.005
    }
    bias_filler {
      type: "constant"
      value: 0.1
    }
  }
}
layer {
  name: "relu6"
  type: "ReLU"
  bottom: "fc6"
  top: "fc6"
}
layer {
  name: "drop6"
  type: "Dropout"
  bottom: "fc6"
  top: "fc6"
  dropout_param {
    dropout_ratio: 0.5
  }
}
layer {
  name: "fc7"
  type: "InnerProduct"
  bottom: "fc6"
  top: "fc7"
  param {
    lr_mult: 1
    decay_mult: 1
  }
  param {
    lr_mult: 2
    decay_mult: 0
  }
  inner_product_param {
    num_output: 4096
    weight_filler {
      type: "gaussian"
      std: 0.005
    }
    bias_filler {
      type: "constant"
      value: 0.1
    }
  }
}
layer {
  name: "relu7"
  type: "ReLU"
  bottom: "fc7"
  top: "fc7"
}
layer {
  name: "drop7"
  type: "Dropout"
  bottom: "fc7"
  top: "fc7"
  dropout_param {
    dropout_ratio: 0.5
  }
}
layer {
  name: "fc8"
  type: "InnerProduct"
  bottom: "fc7"
  top: "fc8"
  param {
    lr_mult: 1
    decay_mult: 1
  }
  param {
    lr_mult: 2
    decay_mult: 0
  }
  inner_product_param {
    num_output: 1000
    weight_filler {
      type: "gaussian"
      std: 0.01
    }
    bias_filler {
      type: "constant"
      value: 0
    }
  }
}
layer {
  name: "fc8_fc8_0_split"
  type: "Split"
  bottom: "fc8"
  top: "fc8_fc8_0_split_0"
  top: "fc8_fc8_0_split_1"
}
layer {
  name: "accuracy"
  type: "Accuracy"
  bottom: "fc8_fc8_0_split_0"
  bottom: "label_data_1_split_0"
  top: "accuracy"
}
layer {
  name: "loss"
  type: "SoftmaxWithLoss"
  bottom: "fc8_fc8_0_split_1"
  bottom: "label_data_1_split_1"
  top: "loss"
}
I1226 14:11:07.021613 92274 cpu_info.cpp:473] Number of OpenMP threads: 66
I1226 14:11:07.021987 92274 net.cpp:500] The NetState phase (0) differed from the phase (1) specified by a rule in layer data
I1226 14:11:07.027786 91405 cpu_info.cpp:473] Number of OpenMP threads: 66
I1226 14:11:07.038367 90185 cpu_info.cpp:473] Number of OpenMP threads: 66
I1226 14:11:07.023747 92274 net.cpp:136] Initializing net from parameters: 
name: "AlexNet"
state {
  phase: TRAIN
  level: 0
  stage: ""
}
engine: "MKL2017"
layer {
  name: "data"
  type: "Data"
  top: "data"
  top: "label"
  include {
    phase: TRAIN
  }
  transform_param {
    mirror: true
    crop_size: 227
    mean_value: 104
    mean_value: 117
    mean_value: 123
  }
  data_param {
    source: "/export/data1/stanford/hazy/zjian/gorden_bell/ILSVRC2012_lmdb/db_8/ilsvrc12_train_lmdb_1"
    batch_size: 256
    backend: LMDB
  }
}
layer {
  name: "label_data_1_split"
  type: "Split"
  bottom: "label"
  top: "label_data_1_split_0"
  top: "label_data_1_split_1"
}
layer {
  name: "conv1"
  type: "Convolution"
  bottom: "data"
  top: "conv1"
  param {
    lr_mult: 1
    decay_mult: 1
  }
  param {
    lr_mult: 2
    decay_mult: 0
  }
  convolution_param {
    num_output: 96
    kernel_size: 11
    stride: 4
    weight_filler {
      type: "gaussian"
      std: 0.01
    }
    bias_filler {
      type: "constant"
      value: 0
    }
    engine: MKL2017
  }
}
layer {
  name: "relu1"
  type: "ReLU"
  bottom: "conv1"
  top: "conv1"
  relu_param {
    engine: MKL2017
  }
}
layer {
  name: "norm1"
  type: "LRN"
  bottom: "conv1"
  top: "norm1"
  lrn_param {
    local_size: 5
    alpha: 0.0001
    beta: 0.75
    engine: MKL2017
  }
}
layer {
  name: "pool1"
  type: "Pooling"
  bottom: "norm1"
  top: "pool1"
  pooling_param {
    pool: MAX
    kernel_size: 3
    stride: 2
    engine: MKL2017
  }
}
layer {
  name: "conv2"
  type: "Convolution"
  bottom: "pool1"
  top: "conv2"
  param {
    lr_mult: 1
    decay_mult: 1
  }
  param {
    lr_mult: 2
    decay_mult: 0
  }
  convolution_param {
    num_output: 256
    pad: 2
    kernel_size: 5
    group: 2
    weight_filler {
      type: "gaussian"
      std: 0.01
    }
    bias_filler {
      type: "constant"
      value: 0.1
    }
    engine: MKL2017
  }
}
layer {
  name: "relu2"
  type: "ReLU"
  bottom: "conv2"
  top: "conv2"
  relu_param {
    engine: MKL2017
  }
}
layer {
  name: "norm2"
  type: "LRN"
  bottom: "conv2"
  top: "norm2"
  lrn_param {
    local_size: 5
    alpha: 0.0001
    beta: 0.75
    engine: MKL2017
  }
}
layer {
  name: "pool2"
  type: "Pooling"
  bottom: "norm2"
  top: "pool2"
  pooling_param {
    pool: MAX
    kernel_size: 3
    stride: 2
    engine: MKL2017
  }
}
layer {
  name: "conv3"
  type: "Convolution"
  bottom: "pool2"
  top: "conv3"
  param {
    lr_mult: 1
    decay_mult: 1
  }
  param {
    lr_mult: 2
    decay_mult: 0
  }
  convolution_param {
    num_output: 384
    pad: 1
    kernel_size: 3
    weight_filler {
      type: "gaussian"
      std: 0.01
    }
    bias_filler {
      type: "constant"
      value: 0
    }
    engine: MKL2017
  }
}
layer {
  name: "relu3"
  type: "ReLU"
  bottom: "conv3"
  top: "conv3"
  relu_param {
    engine: MKL2017
  }
}
layer {
  name: "conv4"
  type: "Convolution"
  bottom: "conv3"
  top: "conv4"
  param {
    lr_mult: 1
    decay_mult: 1
  }
  param {
    lr_mult: 2
    decay_mult: 0
  }
  convolution_param {
    num_output: 384
    pad: 1
    kernel_size: 3
    group: 2
    weight_filler {
      type: "gaussian"
      std: 0.01
    }
    bias_filler {
      type: "constant"
      value: 0.1
    }
    engine: MKL2017
  }
}
layer {
  name: "relu4"
  type: "ReLU"
  bottom: "conv4"
  top: "conv4"
  relu_param {
    engine: MKL2017
  }
}
layer {
  name: "conv5"
  type: "Convolution"
  bottom: "conv4"
  top: "conv5"
  param {
    lr_mult: 1
    decay_mult: 1
  }
  param {
    lr_mult: 2
    decay_mult: 0
  }
  convolution_param {
    num_output: 256
    pad: 1
    kernel_size: 3
    group: 2
    weight_filler {
      type: "gaussian"
      std: 0.01
    }
    bias_filler {
      type: "constant"
      value: 0.1
    }
    engine: MKL2017
  }
}
layer {
  name: "relu5"
  type: "ReLU"
  bottom: "conv5"
  top: "conv5"
  relu_param {
    engine: MKL2017
  }
}
layer {
  name: "pool5"
  type: "Pooling"
  bottom: "conv5"
  top: "pool5"
  pooling_param {
    pool: MAX
    kernel_size: 3
    stride: 2
    engine: MKL2017
  }
}
layer {
  name: "fc6"
  type: "InnerProduct"
  bottom: "pool5"
  top: "fc6"
  param {
    lr_mult: 1
    decay_mult: 1
  }
  param {
    lr_mult: 2
    decay_mult: 0
  }
  inner_product_param {
    num_output: 4096
    weight_filler {
      type: "gaussian"
      std: 0.005
    }
    bias_filler {
      type: "constant"
      value: 0.1
    }
  }
}
layer {
  name: "relu6"
  type: "ReLU"
  bottom: "fc6"
  top: "fc6"
}
layer {
  name: "drop6"
  type: "Dropout"
  bottom: "fc6"
  top: "fc6"
  dropout_param {
    dropout_ratio: 0.5
  }
}
layer {
  name: "fc7"
  type: "InnerProduct"
  bottom: "fc6"
  top: "fc7"
  param {
    lr_mult: 1
    decay_mult: 1
  }
  param {
    lr_mult: 2
    decay_mult: 0
  }
  inner_product_param {
    num_output: 4096
    weight_filler {
      type: "gaussian"
      std: 0.005
    }
    bias_filler {
      type: "constant"
      value: 0.1
    }
  }
}
layer {
  name: "relu7"
  type: "ReLU"
  bottom: "fc7"
  top: "fc7"
}
layer {
  name: "drop7"
  type: "Dropout"
  bottom: "fc7"
  top: "fc7"
  dropout_param {
    dropout_ratio: 0.5
  }
}
layer {
  name: "fc8"
  type: "InnerProduct"
  bottom: "fc7"
  top: "fc8"
  param {
    lr_mult: 1
    decay_mult: 1
  }
  param {
    lr_mult: 2
    decay_mult: 0
  }
  inner_product_param {
    num_output: 1000
    weight_filler {
      type: "gaussian"
      std: 0.01
    }
    bias_filler {
      type: "constant"
      value: 0
    }
  }
}
layer {
  name: "fc8_fc8_0_split"
  type: "Split"
  bottom: "fc8"
  top: "fc8_fc8_0_split_0"
  top: "fc8_fc8_0_split_1"
}
layer {
  name: "accuracy"
  type: "Accuracy"
  bottom: "fc8_fc8_0_split_0"
  bottom: "label_data_1_split_0"
  top: "accuracy"
}
layer {
  name: "loss"
  type: "SoftmaxWithLoss"
  bottom: "fc8_fc8_0_split_1"
  bottom: "label_data_1_split_1"
  top: "loss"
}
I1226 14:11:07.028086 91405 net.cpp:500] The NetState phase (0) differed from the phase (1) specified by a rule in layer data
I1226 14:11:07.038699 90185 net.cpp:500] The NetState phase (0) differed from the phase (1) specified by a rule in layer data
I1226 14:11:07.029652 91405 net.cpp:136] Initializing net from parameters: 
name: "AlexNet"
state {
  phase: TRAIN
  level: 0
  stage: ""
}
engine: "MKL2017"
layer {
  name: "data"
  type: "Data"
  top: "data"
  top: "label"
  include {
    phase: TRAIN
  }
  transform_param {
    mirror: true
    crop_size: 227
    mean_value: 104
    mean_value: 117
    mean_value: 123
  }
  data_param {
    source: "/export/data1/stanford/hazy/zjian/gorden_bell/ILSVRC2012_lmdb/db_8/ilsvrc12_train_lmdb_4"
    batch_size: 256
    backend: LMDB
  }
}
layer {
  name: "label_data_1_split"
  type: "Split"
  bottom: "label"
  top: "label_data_1_split_0"
  top: "label_data_1_split_1"
}
layer {
  name: "conv1"
  type: "Convolution"
  bottom: "data"
  top: "conv1"
  param {
    lr_mult: 1
    decay_mult: 1
  }
  param {
    lr_mult: 2
    decay_mult: 0
  }
  convolution_param {
    num_output: 96
    kernel_size: 11
    stride: 4
    weight_filler {
      type: "gaussian"
      std: 0.01
    }
    bias_filler {
      type: "constant"
      value: 0
    }
    engine: MKL2017
  }
}
layer {
  name: "relu1"
  type: "ReLU"
  bottom: "conv1"
  top: "conv1"
  relu_param {
    engine: MKL2017
  }
}
layer {
  name: "norm1"
  type: "LRN"
  bottom: "conv1"
  top: "norm1"
  lrn_param {
    local_size: 5
    alpha: 0.0001
    beta: 0.75
    engine: MKL2017
  }
}
layer {
  name: "pool1"
  type: "Pooling"
  bottom: "norm1"
  top: "pool1"
  pooling_param {
    pool: MAX
    kernel_size: 3
    stride: 2
    engine: MKL2017
  }
}
layer {
  name: "conv2"
  type: "Convolution"
  bottom: "pool1"
  top: "conv2"
  param {
    lr_mult: 1
    decay_mult: 1
  }
  param {
    lr_mult: 2
    decay_mult: 0
  }
  convolution_param {
    num_output: 256
    pad: 2
    kernel_size: 5
    group: 2
    weight_filler {
      type: "gaussian"
      std: 0.01
    }
    bias_filler {
      type: "constant"
      value: 0.1
    }
    engine: MKL2017
  }
}
layer {
  name: "relu2"
  type: "ReLU"
  bottom: "conv2"
  top: "conv2"
  relu_param {
    engine: MKL2017
  }
}
layer {
  name: "norm2"
  type: "LRN"
  bottom: "conv2"
  top: "norm2"
  lrn_param {
    local_size: 5
    alpha: 0.0001
    beta: 0.75
    engine: MKL2017
  }
}
layer {
  name: "pool2"
  type: "Pooling"
  bottom: "norm2"
  top: "pool2"
  pooling_param {
    pool: MAX
    kernel_size: 3
    stride: 2
    engine: MKL2017
  }
}
layer {
  name: "conv3"
  type: "Convolution"
  bottom: "pool2"
  top: "conv3"
  param {
    lr_mult: 1
    decay_mult: 1
  }
  param {
    lr_mult: 2
    decay_mult: 0
  }
  convolution_param {
    num_output: 384
    pad: 1
    kernel_size: 3
    weight_filler {
      type: "gaussian"
      std: 0.01
    }
    bias_filler {
      type: "constant"
      value: 0
    }
    engine: MKL2017
  }
}
layer {
  name: "relu3"
  type: "ReLU"
  bottom: "conv3"
  top: "conv3"
  relu_param {
    engine: MKL2017
  }
}
layer {
  name: "conv4"
  type: "Convolution"
  bottom: "conv3"
  top: "conv4"
  param {
    lr_mult: 1
    decay_mult: 1
  }
  param {
    lr_mult: 2
    decay_mult: 0
  }
  convolution_param {
    num_output: 384
    pad: 1
    kernel_size: 3
    group: 2
    weight_filler {
      type: "gaussian"
      std: 0.01
    }
    bias_filler {
      type: "constant"
      value: 0.1
    }
    engine: MKL2017
  }
}
layer {
  name: "relu4"
  type: "ReLU"
  bottom: "conv4"
  top: "conv4"
  relu_param {
    engine: MKL2017
  }
}
layer {
  name: "conv5"
  type: "Convolution"
  bottom: "conv4"
  top: "conv5"
  param {
    lr_mult: 1
    decay_mult: 1
  }
  param {
    lr_mult: 2
    decay_mult: 0
  }
  convolution_param {
    num_output: 256
    pad: 1
    kernel_size: 3
    group: 2
    weight_filler {
      type: "gaussian"
      std: 0.01
    }
    bias_filler {
      type: "constant"
      value: 0.1
    }
    engine: MKL2017
  }
}
layer {
  name: "relu5"
  type: "ReLU"
  bottom: "conv5"
  top: "conv5"
  relu_param {
    engine: MKL2017
  }
}
layer {
  name: "pool5"
  type: "Pooling"
  bottom: "conv5"
  top: "pool5"
  pooling_param {
    pool: MAX
    kernel_size: 3
    stride: 2
    engine: MKL2017
  }
}
layer {
  name: "fc6"
  type: "InnerProduct"
  bottom: "pool5"
  top: "fc6"
  param {
    lr_mult: 1
    decay_mult: 1
  }
  param {
    lr_mult: 2
    decay_mult: 0
  }
  inner_product_param {
    num_output: 4096
    weight_filler {
      type: "gaussian"
      std: 0.005
    }
    bias_filler {
      type: "constant"
      value: 0.1
    }
  }
}
layer {
  name: "relu6"
  type: "ReLU"
  bottom: "fc6"
  top: "fc6"
}
layer {
  name: "drop6"
  type: "Dropout"
  bottom: "fc6"
  top: "fc6"
  dropout_param {
    dropout_ratio: 0.5
  }
}
layer {
  name: "fc7"
  type: "InnerProduct"
  bottom: "fc6"
  top: "fc7"
  param {
    lr_mult: 1
    decay_mult: 1
  }
  param {
    lr_mult: 2
    decay_mult: 0
  }
  inner_product_param {
    num_output: 4096
    weight_filler {
      type: "gaussian"
      std: 0.005
    }
    bias_filler {
      type: "constant"
      value: 0.1
    }
  }
}
layer {
  name: "relu7"
  type: "ReLU"
  bottom: "fc7"
  top: "fc7"
}
layer {
  name: "drop7"
  type: "Dropout"
  bottom: "fc7"
  top: "fc7"
  dropout_param {
    dropout_ratio: 0.5
  }
}
layer {
  name: "fc8"
  type: "InnerProduct"
  bottom: "fc7"
  top: "fc8"
  param {
    lr_mult: 1
    decay_mult: 1
  }
  param {
    lr_mult: 2
    decay_mult: 0
  }
  inner_product_param {
    num_output: 1000
    weight_filler {
      type: "gaussian"
      std: 0.01
    }
    bias_filler {
      type: "constant"
      value: 0
    }
  }
}
layer {
  name: "fc8_fc8_0_split"
  type: "Split"
  bottom: "fc8"
  top: "fc8_fc8_0_split_0"
  top: "fc8_fc8_0_split_1"
}
layer {
  name: "accuracy"
  type: "Accuracy"
  bottom: "fc8_fc8_0_split_0"
  bottom: "label_data_1_split_0"
  top: "accuracy"
}
layer {
  name: "loss"
  type: "SoftmaxWithLoss"
  bottom: "fc8_fc8_0_split_1"
  bottom: "label_data_1_split_1"
  top: "loss"
}
I1226 14:11:07.040280 90185 net.cpp:136] Initializing net from parameters: 
name: "AlexNet"
state {
  phase: TRAIN
  level: 0
  stage: ""
}
engine: "MKL2017"
layer {
  name: "data"
  type: "Data"
  top: "data"
  top: "label"
  include {
    phase: TRAIN
  }
  transform_param {
    mirror: true
    crop_size: 227
    mean_value: 104
    mean_value: 117
    mean_value: 123
  }
  data_param {
    source: "/export/data1/stanford/hazy/zjian/gorden_bell/ILSVRC2012_lmdb/db_8/ilsvrc12_train_lmdb_7"
    batch_size: 256
    backend: LMDB
  }
}
layer {
  name: "label_data_1_split"
  type: "Split"
  bottom: "label"
  top: "label_data_1_split_0"
  top: "label_data_1_split_1"
}
layer {
  name: "conv1"
  type: "Convolution"
  bottom: "data"
  top: "conv1"
  param {
    lr_mult: 1
    decay_mult: 1
  }
  param {
    lr_mult: 2
    decay_mult: 0
  }
  convolution_param {
    num_output: 96
    kernel_size: 11
    stride: 4
    weight_filler {
      type: "gaussian"
      std: 0.01
    }
    bias_filler {
      type: "constant"
      value: 0
    }
    engine: MKL2017
  }
}
layer {
  name: "relu1"
  type: "ReLU"
  bottom: "conv1"
  top: "conv1"
  relu_param {
    engine: MKL2017
  }
}
layer {
  name: "norm1"
  type: "LRN"
  bottom: "conv1"
  top: "norm1"
  lrn_param {
    local_size: 5
    alpha: 0.0001
    beta: 0.75
    engine: MKL2017
  }
}
layer {
  name: "pool1"
  type: "Pooling"
  bottom: "norm1"
  top: "pool1"
  pooling_param {
    pool: MAX
    kernel_size: 3
    stride: 2
    engine: MKL2017
  }
}
layer {
  name: "conv2"
  type: "Convolution"
  bottom: "pool1"
  top: "conv2"
  param {
    lr_mult: 1
    decay_mult: 1
  }
  param {
    lr_mult: 2
    decay_mult: 0
  }
  convolution_param {
    num_output: 256
    pad: 2
    kernel_size: 5
    group: 2
    weight_filler {
      type: "gaussian"
      std: 0.01
    }
    bias_filler {
      type: "constant"
      value: 0.1
    }
    engine: MKL2017
  }
}
layer {
  name: "relu2"
  type: "ReLU"
  bottom: "conv2"
  top: "conv2"
  relu_param {
    engine: MKL2017
  }
}
layer {
  name: "norm2"
  type: "LRN"
  bottom: "conv2"
  top: "norm2"
  lrn_param {
    local_size: 5
    alpha: 0.0001
    beta: 0.75
    engine: MKL2017
  }
}
layer {
  name: "pool2"
  type: "Pooling"
  bottom: "norm2"
  top: "pool2"
  pooling_param {
    pool: MAX
    kernel_size: 3
    stride: 2
    engine: MKL2017
  }
}
layer {
  name: "conv3"
  type: "Convolution"
  bottom: "pool2"
  top: "conv3"
  param {
    lr_mult: 1
    decay_mult: 1
  }
  param {
    lr_mult: 2
    decay_mult: 0
  }
  convolution_param {
    num_output: 384
    pad: 1
    kernel_size: 3
    weight_filler {
      type: "gaussian"
      std: 0.01
    }
    bias_filler {
      type: "constant"
      value: 0
    }
    engine: MKL2017
  }
}
layer {
  name: "relu3"
  type: "ReLU"
  bottom: "conv3"
  top: "conv3"
  relu_param {
    engine: MKL2017
  }
}
layer {
  name: "conv4"
  type: "Convolution"
  bottom: "conv3"
  top: "conv4"
  param {
    lr_mult: 1
    decay_mult: 1
  }
  param {
    lr_mult: 2
    decay_mult: 0
  }
  convolution_param {
    num_output: 384
    pad: 1
    kernel_size: 3
    group: 2
    weight_filler {
      type: "gaussian"
      std: 0.01
    }
    bias_filler {
      type: "constant"
      value: 0.1
    }
    engine: MKL2017
  }
}
layer {
  name: "relu4"
  type: "ReLU"
  bottom: "conv4"
  top: "conv4"
  relu_param {
    engine: MKL2017
  }
}
layer {
  name: "conv5"
  type: "Convolution"
  bottom: "conv4"
  top: "conv5"
  param {
    lr_mult: 1
    decay_mult: 1
  }
  param {
    lr_mult: 2
    decay_mult: 0
  }
  convolution_param {
    num_output: 256
    pad: 1
    kernel_size: 3
    group: 2
    weight_filler {
      type: "gaussian"
      std: 0.01
    }
    bias_filler {
      type: "constant"
      value: 0.1
    }
    engine: MKL2017
  }
}
layer {
  name: "relu5"
  type: "ReLU"
  bottom: "conv5"
  top: "conv5"
  relu_param {
    engine: MKL2017
  }
}
layer {
  name: "pool5"
  type: "Pooling"
  bottom: "conv5"
  top: "pool5"
  pooling_param {
    pool: MAX
    kernel_size: 3
    stride: 2
    engine: MKL2017
  }
}
layer {
  name: "fc6"
  type: "InnerProduct"
  bottom: "pool5"
  top: "fc6"
  param {
    lr_mult: 1
    decay_mult: 1
  }
  param {
    lr_mult: 2
    decay_mult: 0
  }
  inner_product_param {
    num_output: 4096
    weight_filler {
      type: "gaussian"
      std: 0.005
    }
    bias_filler {
      type: "constant"
      value: 0.1
    }
  }
}
layer {
  name: "relu6"
  type: "ReLU"
  bottom: "fc6"
  top: "fc6"
}
layer {
  name: "drop6"
  type: "Dropout"
  bottom: "fc6"
  top: "fc6"
  dropout_param {
    dropout_ratio: 0.5
  }
}
layer {
  name: "fc7"
  type: "InnerProduct"
  bottom: "fc6"
  top: "fc7"
  param {
    lr_mult: 1
    decay_mult: 1
  }
  param {
    lr_mult: 2
    decay_mult: 0
  }
  inner_product_param {
    num_output: 4096
    weight_filler {
      type: "gaussian"
      std: 0.005
    }
    bias_filler {
      type: "constant"
      value: 0.1
    }
  }
}
layer {
  name: "relu7"
  type: "ReLU"
  bottom: "fc7"
  top: "fc7"
}
layer {
  name: "drop7"
  type: "Dropout"
  bottom: "fc7"
  top: "fc7"
  dropout_param {
    dropout_ratio: 0.5
  }
}
layer {
  name: "fc8"
  type: "InnerProduct"
  bottom: "fc7"
  top: "fc8"
  param {
    lr_mult: 1
    decay_mult: 1
  }
  param {
    lr_mult: 2
    decay_mult: 0
  }
  inner_product_param {
    num_output: 1000
    weight_filler {
      type: "gaussian"
      std: 0.01
    }
    bias_filler {
      type: "constant"
      value: 0
    }
  }
}
layer {
  name: "fc8_fc8_0_split"
  type: "Split"
  bottom: "fc8"
  top: "fc8_fc8_0_split_0"
  top: "fc8_fc8_0_split_1"
}
layer {
  name: "accuracy"
  type: "Accuracy"
  bottom: "fc8_fc8_0_split_0"
  bottom: "label_data_1_split_0"
  top: "accuracy"
}
layer {
  name: "loss"
  type: "SoftmaxWithLoss"
  bottom: "fc8_fc8_0_split_1"
  bottom: "label_data_1_split_1"
  top: "loss"
}
I1226 14:11:07.038570 98828 cpu_info.cpp:473] Number of OpenMP threads: 66
I1226 14:11:07.044575 91711 layer_factory.hpp:114] Creating layer data
I1226 14:11:07.038913 98828 net.cpp:500] The NetState phase (0) differed from the phase (1) specified by a rule in layer data
I1226 14:11:07.043704 92483 layer_factory.hpp:114] Creating layer data
I1226 14:11:07.043882 92483 net.cpp:178] Creating Layer data
I1226 14:11:07.043927 92483 net.cpp:586] data -> data
I1226 14:11:07.044023 92483 net.cpp:586] data -> label
I1226 14:11:07.040719 98828 net.cpp:136] Initializing net from parameters: 
name: "AlexNet"
state {
  phase: TRAIN
  level: 0
  stage: ""
}
engine: "MKL2017"
layer {
  name: "data"
  type: "Data"
  top: "data"
  top: "label"
  include {
    phase: TRAIN
  }
  transform_param {
    mirror: true
    crop_size: 227
    mean_value: 104
    mean_value: 117
    mean_value: 123
  }
  data_param {
    source: "/export/data1/stanford/hazy/zjian/gorden_bell/ILSVRC2012_lmdb/db_8/ilsvrc12_train_lmdb_0"
    batch_size: 256
    backend: LMDB
  }
}
layer {
  name: "label_data_1_split"
  type: "Split"
  bottom: "label"
  top: "label_data_1_split_0"
  top: "label_data_1_split_1"
}
layer {
  name: "conv1"
  type: "Convolution"
  bottom: "data"
  top: "conv1"
  param {
    lr_mult: 1
    decay_mult: 1
  }
  param {
    lr_mult: 2
    decay_mult: 0
  }
  convolution_param {
    num_output: 96
    kernel_size: 11
    stride: 4
    weight_filler {
      type: "gaussian"
      std: 0.01
    }
    bias_filler {
      type: "constant"
      value: 0
    }
    engine: MKL2017
  }
}
layer {
  name: "relu1"
  type: "ReLU"
  bottom: "conv1"
  top: "conv1"
  relu_param {
    engine: MKL2017
  }
}
layer {
  name: "norm1"
  type: "LRN"
  bottom: "conv1"
  top: "norm1"
  lrn_param {
    local_size: 5
    alpha: 0.0001
    beta: 0.75
    engine: MKL2017
  }
}
layer {
  name: "pool1"
  type: "Pooling"
  bottom: "norm1"
  top: "pool1"
  pooling_param {
    pool: MAX
    kernel_size: 3
    stride: 2
    engine: MKL2017
  }
}
layer {
  name: "conv2"
  type: "Convolution"
  bottom: "pool1"
  top: "conv2"
  param {
    lr_mult: 1
    decay_mult: 1
  }
  param {
    lr_mult: 2
    decay_mult: 0
  }
  convolution_param {
    num_output: 256
    pad: 2
    kernel_size: 5
    group: 2
    weight_filler {
      type: "gaussian"
      std: 0.01
    }
    bias_filler {
      type: "constant"
      value: 0.1
    }
    engine: MKL2017
  }
}
layer {
  name: "relu2"
  type: "ReLU"
  bottom: "conv2"
  top: "conv2"
  relu_param {
    engine: MKL2017
  }
}
layer {
  name: "norm2"
  type: "LRN"
  bottom: "conv2"
  top: "norm2"
  lrn_param {
    local_size: 5
    alpha: 0.0001
    beta: 0.75
    engine: MKL2017
  }
}
layer {
  name: "pool2"
  type: "Pooling"
  bottom: "norm2"
  top: "pool2"
  pooling_param {
    pool: MAX
    kernel_size: 3
    stride: 2
    engine: MKL2017
  }
}
layer {
  name: "conv3"
  type: "Convolution"
  bottom: "pool2"
  top: "conv3"
  param {
    lr_mult: 1
    decay_mult: 1
  }
  param {
    lr_mult: 2
    decay_mult: 0
  }
  convolution_param {
    num_output: 384
    pad: 1
    kernel_size: 3
    weight_filler {
      type: "gaussian"
      std: 0.01
    }
    bias_filler {
      type: "constant"
      value: 0
    }
    engine: MKL2017
  }
}
layer {
  name: "relu3"
  type: "ReLU"
  bottom: "conv3"
  top: "conv3"
  relu_param {
    engine: MKL2017
  }
}
layer {
  name: "conv4"
  type: "Convolution"
  bottom: "conv3"
  top: "conv4"
  param {
    lr_mult: 1
    decay_mult: 1
  }
  param {
    lr_mult: 2
    decay_mult: 0
  }
  convolution_param {
    num_output: 384
    pad: 1
    kernel_size: 3
    group: 2
    weight_filler {
      type: "gaussian"
      std: 0.01
    }
    bias_filler {
      type: "constant"
      value: 0.1
    }
    engine: MKL2017
  }
}
layer {
  name: "relu4"
  type: "ReLU"
  bottom: "conv4"
  top: "conv4"
  relu_param {
    engine: MKL2017
  }
}
layer {
  name: "conv5"
  type: "Convolution"
  bottom: "conv4"
  top: "conv5"
  param {
    lr_mult: 1
    decay_mult: 1
  }
  param {
    lr_mult: 2
    decay_mult: 0
  }
  convolution_param {
    num_output: 256
    pad: 1
    kernel_size: 3
    group: 2
    weight_filler {
      type: "gaussian"
      std: 0.01
    }
    bias_filler {
      type: "constant"
      value: 0.1
    }
    engine: MKL2017
  }
}
layer {
  name: "relu5"
  type: "ReLU"
  bottom: "conv5"
  top: "conv5"
  relu_param {
    engine: MKL2017
  }
}
layer {
  name: "pool5"
  type: "Pooling"
  bottom: "conv5"
  top: "pool5"
  pooling_param {
    pool: MAX
    kernel_size: 3
    stride: 2
    engine: MKL2017
  }
}
layer {
  name: "fc6"
  type: "InnerProduct"
  bottom: "pool5"
  top: "fc6"
  param {
    lr_mult: 1
    decay_mult: 1
  }
  param {
    lr_mult: 2
    decay_mult: 0
  }
  inner_product_param {
    num_output: 4096
    weight_filler {
      type: "gaussian"
      std: 0.005
    }
    bias_filler {
      type: "constant"
      value: 0.1
    }
  }
}
layer {
  name: "relu6"
  type: "ReLU"
  bottom: "fc6"
  top: "fc6"
}
layer {
  name: "drop6"
  type: "Dropout"
  bottom: "fc6"
  top: "fc6"
  dropout_param {
    dropout_ratio: 0.5
  }
}
layer {
  name: "fc7"
  type: "InnerProduct"
  bottom: "fc6"
  top: "fc7"
  param {
    lr_mult: 1
    decay_mult: 1
  }
  param {
    lr_mult: 2
    decay_mult: 0
  }
  inner_product_param {
    num_output: 4096
    weight_filler {
      type: "gaussian"
      std: 0.005
    }
    bias_filler {
      type: "constant"
      value: 0.1
    }
  }
}
layer {
  name: "relu7"
  type: "ReLU"
  bottom: "fc7"
  top: "fc7"
}
layer {
  name: "drop7"
  type: "Dropout"
  bottom: "fc7"
  top: "fc7"
  dropout_param {
    dropout_ratio: 0.5
  }
}
layer {
  name: "fc8"
  type: "InnerProduct"
  bottom: "fc7"
  top: "fc8"
  param {
    lr_mult: 1
    decay_mult: 1
  }
  param {
    lr_mult: 2
    decay_mult: 0
  }
  inner_product_param {
    num_output: 1000
    weight_filler {
      type: "gaussian"
      std: 0.01
    }
    bias_filler {
      type: "constant"
      value: 0
    }
  }
}
layer {
  name: "fc8_fc8_0_split"
  type: "Split"
  bottom: "fc8"
  top: "fc8_fc8_0_split_0"
  top: "fc8_fc8_0_split_1"
}
layer {
  name: "accuracy"
  type: "Accuracy"
  bottom: "fc8_fc8_0_split_0"
  bottom: "label_data_1_split_0"
  top: "accuracy"
}
layer {
  name: "loss"
  type: "SoftmaxWithLoss"
  bottom: "fc8_fc8_0_split_1"
  bottom: "label_data_1_split_1"
  top: "loss"
}
I1226 14:11:07.038404 96952 layer_factory.hpp:114] Creating layer data
I1226 14:11:07.048969 121743 cpu_info.cpp:473] Number of OpenMP threads: 66
I1226 14:11:07.049355 121743 net.cpp:500] The NetState phase (0) differed from the phase (1) specified by a rule in layer data
I1226 14:11:07.051586 121743 net.cpp:136] Initializing net from parameters: 
name: "AlexNet"
state {
  phase: TRAIN
  level: 0
  stage: ""
}
engine: "MKL2017"
layer {
  name: "data"
  type: "Data"
  top: "data"
  top: "label"
  include {
    phase: TRAIN
  }
  transform_param {
    mirror: true
    crop_size: 227
    mean_value: 104
    mean_value: 117
    mean_value: 123
  }
  data_param {
    source: "/export/data1/stanford/hazy/zjian/gorden_bell/ILSVRC2012_lmdb/db_8/ilsvrc12_train_lmdb_5"
    batch_size: 256
    backend: LMDB
  }
}
layer {
  name: "label_data_1_split"
  type: "Split"
  bottom: "label"
  top: "label_data_1_split_0"
  top: "label_data_1_split_1"
}
layer {
  name: "conv1"
  type: "Convolution"
  bottom: "data"
  top: "conv1"
  param {
    lr_mult: 1
    decay_mult: 1
  }
  param {
    lr_mult: 2
    decay_mult: 0
  }
  convolution_param {
    num_output: 96
    kernel_size: 11
    stride: 4
    weight_filler {
      type: "gaussian"
      std: 0.01
    }
    bias_filler {
      type: "constant"
      value: 0
    }
    engine: MKL2017
  }
}
layer {
  name: "relu1"
  type: "ReLU"
  bottom: "conv1"
  top: "conv1"
  relu_param {
    engine: MKL2017
  }
}
layer {
  name: "norm1"
  type: "LRN"
  bottom: "conv1"
  top: "norm1"
  lrn_param {
    local_size: 5
    alpha: 0.0001
    beta: 0.75
    engine: MKL2017
  }
}
layer {
  name: "pool1"
  type: "Pooling"
  bottom: "norm1"
  top: "pool1"
  pooling_param {
    pool: MAX
    kernel_size: 3
    stride: 2
    engine: MKL2017
  }
}
layer {
  name: "conv2"
  type: "Convolution"
  bottom: "pool1"
  top: "conv2"
  param {
    lr_mult: 1
    decay_mult: 1
  }
  param {
    lr_mult: 2
    decay_mult: 0
  }
  convolution_param {
    num_output: 256
    pad: 2
    kernel_size: 5
    group: 2
    weight_filler {
      type: "gaussian"
      std: 0.01
    }
    bias_filler {
      type: "constant"
      value: 0.1
    }
    engine: MKL2017
  }
}
layer {
  name: "relu2"
  type: "ReLU"
  bottom: "conv2"
  top: "conv2"
  relu_param {
    engine: MKL2017
  }
}
layer {
  name: "norm2"
  type: "LRN"
  bottom: "conv2"
  top: "norm2"
  lrn_param {
    local_size: 5
    alpha: 0.0001
    beta: 0.75
    engine: MKL2017
  }
}
layer {
  name: "pool2"
  type: "Pooling"
  bottom: "norm2"
  top: "pool2"
  pooling_param {
    pool: MAX
    kernel_size: 3
    stride: 2
    engine: MKL2017
  }
}
layer {
  name: "conv3"
  type: "Convolution"
  bottom: "pool2"
  top: "conv3"
  param {
    lr_mult: 1
    decay_mult: 1
  }
  param {
    lr_mult: 2
    decay_mult: 0
  }
  convolution_param {
    num_output: 384
    pad: 1
    kernel_size: 3
    weight_filler {
      type: "gaussian"
      std: 0.01
    }
    bias_filler {
      type: "constant"
      value: 0
    }
    engine: MKL2017
  }
}
layer {
  name: "relu3"
  type: "ReLU"
  bottom: "conv3"
  top: "conv3"
  relu_param {
    engine: MKL2017
  }
}
layer {
  name: "conv4"
  type: "Convolution"
  bottom: "conv3"
  top: "conv4"
  param {
    lr_mult: 1
    decay_mult: 1
  }
  param {
    lr_mult: 2
    decay_mult: 0
  }
  convolution_param {
    num_output: 384
    pad: 1
    kernel_size: 3
    group: 2
    weight_filler {
      type: "gaussian"
      std: 0.01
    }
    bias_filler {
      type: "constant"
      value: 0.1
    }
    engine: MKL2017
  }
}
layer {
  name: "relu4"
  type: "ReLU"
  bottom: "conv4"
  top: "conv4"
  relu_param {
    engine: MKL2017
  }
}
layer {
  name: "conv5"
  type: "Convolution"
  bottom: "conv4"
  top: "conv5"
  param {
    lr_mult: 1
    decay_mult: 1
  }
  param {
    lr_mult: 2
    decay_mult: 0
  }
  convolution_param {
    num_output: 256
    pad: 1
    kernel_size: 3
    group: 2
    weight_filler {
      type: "gaussian"
      std: 0.01
    }
    bias_filler {
      type: "constant"
      value: 0.1
    }
    engine: MKL2017
  }
}
layer {
  name: "relu5"
  type: "ReLU"
  bottom: "conv5"
  top: "conv5"
  relu_param {
    engine: MKL2017
  }
}
layer {
  name: "pool5"
  type: "Pooling"
  bottom: "conv5"
  top: "pool5"
  pooling_param {
    pool: MAX
    kernel_size: 3
    stride: 2
    engine: MKL2017
  }
}
layer {
  name: "fc6"
  type: "InnerProduct"
  bottom: "pool5"
  top: "fc6"
  param {
    lr_mult: 1
    decay_mult: 1
  }
  param {
    lr_mult: 2
    decay_mult: 0
  }
  inner_product_param {
    num_output: 4096
    weight_filler {
      type: "gaussian"
      std: 0.005
    }
    bias_filler {
      type: "constant"
      value: 0.1
    }
  }
}
layer {
  name: "relu6"
  type: "ReLU"
  bottom: "fc6"
  top: "fc6"
}
layer {
  name: "drop6"
  type: "Dropout"
  bottom: "fc6"
  top: "fc6"
  dropout_param {
    dropout_ratio: 0.5
  }
}
layer {
  name: "fc7"
  type: "InnerProduct"
  bottom: "fc6"
  top: "fc7"
  param {
    lr_mult: 1
    decay_mult: 1
  }
  param {
    lr_mult: 2
    decay_mult: 0
  }
  inner_product_param {
    num_output: 4096
    weight_filler {
      type: "gaussian"
      std: 0.005
    }
    bias_filler {
      type: "constant"
      value: 0.1
    }
  }
}
layer {
  name: "relu7"
  type: "ReLU"
  bottom: "fc7"
  top: "fc7"
}
layer {
  name: "drop7"
  type: "Dropout"
  bottom: "fc7"
  top: "fc7"
  dropout_param {
    dropout_ratio: 0.5
  }
}
layer {
  name: "fc8"
  type: "InnerProduct"
  bottom: "fc7"
  top: "fc8"
  param {
    lr_mult: 1
    decay_mult: 1
  }
  param {
    lr_mult: 2
    decay_mult: 0
  }
  inner_product_param {
    num_output: 1000
    weight_filler {
      type: "gaussian"
      std: 0.01
    }
    bias_filler {
      type: "constant"
      value: 0
    }
  }
}
layer {
  name: "fc8_fc8_0_split"
  type: "Split"
  bottom: "fc8"
  top: "fc8_fc8_0_split_0"
  top: "fc8_fc8_0_split_1"
}
layer {
  name: "accuracy"
  type: "Accuracy"
  bottom: "fc8_fc8_0_split_0"
  bottom: "label_data_1_split_0"
  top: "accuracy"
}
layer {
  name: "loss"
  type: "SoftmaxWithLoss"
  bottom: "fc8_fc8_0_split_1"
  bottom: "label_data_1_split_1"
  top: "loss"
}
I1226 14:11:07.066742 91711 net.cpp:178] Creating Layer data
I1226 14:11:07.066831 91711 net.cpp:586] data -> data
I1226 14:11:07.066910 91711 net.cpp:586] data -> label
I1226 14:11:07.080929 90185 layer_factory.hpp:114] Creating layer data
I1226 14:11:07.079037 92274 layer_factory.hpp:114] Creating layer data
I1226 14:11:07.067719 96952 net.cpp:178] Creating Layer data
I1226 14:11:07.067889 96952 net.cpp:586] data -> data
I1226 14:11:07.068130 96952 net.cpp:586] data -> label
I1226 14:11:07.087702 92483 net.cpp:228] Setting up data
I1226 14:11:07.090437 91713 db_lmdb.cpp:72] Opened lmdb /export/data1/stanford/hazy/zjian/gorden_bell/ILSVRC2012_lmdb/db_8/ilsvrc12_train_lmdb_3
I1226 14:11:07.087843 92483 net.cpp:235] Top shape: 256 3 227 227 (39574272)
I1226 14:11:07.087878 92483 net.cpp:235] Top shape: 256 1 1 1 (256)
I1226 14:11:07.087903 92483 net.cpp:243] Memory required for data: 158298112
I1226 14:11:07.087939 92483 layer_factory.hpp:114] Creating layer label_data_1_split
I1226 14:11:07.088029 92483 net.cpp:178] Creating Layer label_data_1_split
I1226 14:11:07.088134 92483 net.cpp:612] label_data_1_split <- label
I1226 14:11:07.088170 92483 net.cpp:586] label_data_1_split -> label_data_1_split_0
I1226 14:11:07.088215 92483 net.cpp:586] label_data_1_split -> label_data_1_split_1
I1226 14:11:07.085908 91405 layer_factory.hpp:114] Creating layer data
I1226 14:11:07.098460 90185 net.cpp:178] Creating Layer data
I1226 14:11:07.098546 90185 net.cpp:586] data -> data
I1226 14:11:07.098668 90185 net.cpp:586] data -> label
I1226 14:11:07.090344 98828 layer_factory.hpp:114] Creating layer data
I1226 14:11:07.089233 121743 layer_factory.hpp:114] Creating layer data
I1226 14:11:07.097923 91711 data_layer.cpp:80] output data size: 256,3,227,227
I1226 14:11:07.080778 96954 db_lmdb.cpp:72] Opened lmdb /export/data1/stanford/hazy/zjian/gorden_bell/ILSVRC2012_lmdb/db_8/ilsvrc12_train_lmdb_2
I1226 14:11:07.099195 92483 net.cpp:228] Setting up label_data_1_split
I1226 14:11:07.099299 92483 net.cpp:235] Top shape: 256 1 1 1 (256)
I1226 14:11:07.099331 92483 net.cpp:235] Top shape: 256 1 1 1 (256)
I1226 14:11:07.099354 92483 net.cpp:243] Memory required for data: 158300160
I1226 14:11:07.099387 92483 layer_factory.hpp:114] Creating layer conv1
I1226 14:11:07.099483 92483 net.cpp:178] Creating Layer conv1
I1226 14:11:07.099515 92483 net.cpp:612] conv1 <- data
I1226 14:11:07.099555 92483 net.cpp:586] conv1 -> conv1
I1226 14:11:07.085500 96952 data_layer.cpp:80] output data size: 256,3,227,227
…
I1226 14:11:07.129556 121745 db_lmdb.cpp:72] Opened lmdb /export/data1/stanford/hazy/zjian/gorden_bell/ILSVRC2012_lmdb/db_8/ilsvrc12_train_lmdb_5
I1226 14:11:07.135869 95316 data_layer.cpp:80] output data size: 256,3,227,227
I1226 14:11:07.133318 91405 data_layer.cpp:80] output data size: 256,3,227,227
I1226 14:11:07.137670 121743 data_layer.cpp:80] output data size: 256,3,227,227
I1226 14:11:07.158200 92276 db_lmdb.cpp:72] Opened lmdb /export/data1/stanford/hazy/zjian/gorden_bell/ILSVRC2012_lmdb/db_8/ilsvrc12_train_lmdb_1
I1226 14:11:07.167198 92274 data_layer.cpp:80] output data size: 256,3,227,227
I1226 14:11:07.237447 92483 net.cpp:228] Setting up conv1
I1226 14:11:07.237563 92483 net.cpp:235] Top shape: 256 96 55 55 (74342400)
I1226 14:11:07.237591 92483 net.cpp:243] Memory required for data: 455669760
I1226 14:11:07.237702 92483 layer_factory.hpp:114] Creating layer relu1
I1226 14:11:07.237785 92483 net.cpp:178] Creating Layer relu1
I1226 14:11:07.237855 92483 net.cpp:612] relu1 <- conv1
I1226 14:11:07.237895 92483 net.cpp:573] relu1 -> conv1 (in-place)
I1226 14:11:07.238003 92483 net.cpp:228] Setting up relu1
I1226 14:11:07.238054 92483 net.cpp:235] Top shape: 256 96 55 55 (74342400)
I1226 14:11:07.238085 92483 net.cpp:243] Memory required for data: 753039360
I1226 14:11:07.238117 92483 layer_factory.hpp:114] Creating layer norm1
I1226 14:11:07.238169 92483 net.cpp:178] Creating Layer norm1
I1226 14:11:07.238195 92483 net.cpp:612] norm1 <- conv1
I1226 14:11:07.238241 92483 net.cpp:586] norm1 -> norm1
I1226 14:11:07.238333 92483 net.cpp:228] Setting up norm1
I1226 14:11:07.238375 92483 net.cpp:235] Top shape: 256 96 55 55 (74342400)
I1226 14:11:07.238404 92483 net.cpp:243] Memory required for data: 1050408960
I1226 14:11:07.238431 92483 layer_factory.hpp:114] Creating layer pool1
I1226 14:11:07.238478 92483 net.cpp:178] Creating Layer pool1
I1226 14:11:07.238508 92483 net.cpp:612] pool1 <- norm1
I1226 14:11:07.238556 92483 net.cpp:586] pool1 -> pool1
I1226 14:11:07.238641 92483 net.cpp:228] Setting up pool1
I1226 14:11:07.238683 92483 net.cpp:235] Top shape: 256 96 27 27 (17915904)
I1226 14:11:07.238714 92483 net.cpp:243] Memory required for data: 1122072576
I1226 14:11:07.238745 92483 layer_factory.hpp:114] Creating layer conv2
I1226 14:11:07.238869 92483 net.cpp:178] Creating Layer conv2
I1226 14:11:07.238911 92483 net.cpp:612] conv2 <- pool1
I1226 14:11:07.238957 92483 net.cpp:586] conv2 -> conv2
I1226 14:11:07.338528 91711 net.cpp:228] Setting up data
I1226 14:11:07.338645 91711 net.cpp:235] Top shape: 256 3 227 227 (39574272)
I1226 14:11:07.338683 91711 net.cpp:235] Top shape: 256 (256)
I1226 14:11:07.338735 91711 net.cpp:243] Memory required for data: 158298112
I1226 14:11:07.338774 91711 layer_factory.hpp:114] Creating layer label_data_1_split
I1226 14:11:07.338872 91711 net.cpp:178] Creating Layer label_data_1_split
I1226 14:11:07.339010 91711 net.cpp:612] label_data_1_split <- label
I1226 14:11:07.339061 91711 net.cpp:586] label_data_1_split -> label_data_1_split_0
I1226 14:11:07.339112 91711 net.cpp:586] label_data_1_split -> label_data_1_split_1
I1226 14:11:07.377177 91711 net.cpp:228] Setting up label_data_1_split
I1226 14:11:07.377324 91711 net.cpp:235] Top shape: 256 (256)
I1226 14:11:07.377362 91711 net.cpp:235] Top shape: 256 (256)
I1226 14:11:07.377388 91711 net.cpp:243] Memory required for data: 158300160
I1226 14:11:07.377425 91711 layer_factory.hpp:114] Creating layer conv1
I1226 14:11:07.377537 91711 net.cpp:178] Creating Layer conv1
I1226 14:11:07.377578 91711 net.cpp:612] conv1 <- data
I1226 14:11:07.377621 91711 net.cpp:586] conv1 -> conv1
I1226 14:11:07.404445 90185 net.cpp:228] Setting up data
I1226 14:11:07.404590 90185 net.cpp:235] Top shape: 256 3 227 227 (39574272)
I1226 14:11:07.404639 90185 net.cpp:235] Top shape: 256 (256)
I1226 14:11:07.404667 90185 net.cpp:243] Memory required for data: 158298112
I1226 14:11:07.404706 90185 layer_factory.hpp:114] Creating layer label_data_1_split
I1226 14:11:07.404799 90185 net.cpp:178] Creating Layer label_data_1_split
I1226 14:11:07.404940 90185 net.cpp:612] label_data_1_split <- label
I1226 14:11:07.404996 90185 net.cpp:586] label_data_1_split -> label_data_1_split_0
I1226 14:11:07.405067 90185 net.cpp:586] label_data_1_split -> label_data_1_split_1
I1226 14:11:07.398614 92274 net.cpp:228] Setting up data
I1226 14:11:07.398739 92274 net.cpp:235] Top shape: 256 3 227 227 (39574272)
I1226 14:11:07.398778 92274 net.cpp:235] Top shape: 256 (256)
I1226 14:11:07.398804 92274 net.cpp:243] Memory required for data: 158298112
I1226 14:11:07.398843 92274 layer_factory.hpp:114] Creating layer label_data_1_split
I1226 14:11:07.398941 92274 net.cpp:178] Creating Layer label_data_1_split
I1226 14:11:07.399075 92274 net.cpp:612] label_data_1_split <- label
I1226 14:11:07.399124 92274 net.cpp:586] label_data_1_split -> label_data_1_split_0
I1226 14:11:07.399183 92274 net.cpp:586] label_data_1_split -> label_data_1_split_1
I1226 14:11:07.404220 91405 net.cpp:228] Setting up data
I1226 14:11:07.404407 91405 net.cpp:235] Top shape: 256 3 227 227 (39574272)
I1226 14:11:07.404471 91405 net.cpp:235] Top shape: 256 (256)
I1226 14:11:07.404525 91405 net.cpp:243] Memory required for data: 158298112
I1226 14:11:07.404568 91405 layer_factory.hpp:114] Creating layer label_data_1_split
I1226 14:11:07.404793 91405 net.cpp:178] Creating Layer label_data_1_split
I1226 14:11:07.404983 91405 net.cpp:612] label_data_1_split <- label
I1226 14:11:07.405059 91405 net.cpp:586] label_data_1_split -> label_data_1_split_0
I1226 14:11:07.405128 91405 net.cpp:586] label_data_1_split -> label_data_1_split_1
I1226 14:11:07.421483 90185 net.cpp:228] Setting up label_data_1_split
I1226 14:11:07.421622 90185 net.cpp:235] Top shape: 256 (256)
I1226 14:11:07.421661 90185 net.cpp:235] Top shape: 256 (256)
I1226 14:11:07.421685 90185 net.cpp:243] Memory required for data: 158300160
I1226 14:11:07.421723 90185 layer_factory.hpp:114] Creating layer conv1
I1226 14:11:07.421824 90185 net.cpp:178] Creating Layer conv1
I1226 14:11:07.421880 90185 net.cpp:612] conv1 <- data
I1226 14:11:07.421929 90185 net.cpp:586] conv1 -> conv1
I1226 14:11:07.415781 121743 net.cpp:228] Setting up data
I1226 14:11:07.415899 121743 net.cpp:235] Top shape: 256 3 227 227 (39574272)
I1226 14:11:07.415942 121743 net.cpp:235] Top shape: 256 (256)
I1226 14:11:07.415972 121743 net.cpp:243] Memory required for data: 158298112
I1226 14:11:07.416033 121743 layer_factory.hpp:114] Creating layer label_data_1_split
I1226 14:11:07.416347 121743 net.cpp:178] Creating Layer label_data_1_split
I1226 14:11:07.416402 121743 net.cpp:612] label_data_1_split <- label
I1226 14:11:07.416465 121743 net.cpp:586] label_data_1_split -> label_data_1_split_0
I1226 14:11:07.416518 121743 net.cpp:586] label_data_1_split -> label_data_1_split_1
I1226 14:11:07.427019 91405 net.cpp:228] Setting up label_data_1_split
I1226 14:11:07.427168 91405 net.cpp:235] Top shape: 256 (256)
I1226 14:11:07.427239 91405 net.cpp:235] Top shape: 256 (256)
I1226 14:11:07.427273 91405 net.cpp:243] Memory required for data: 158300160
I1226 14:11:07.427422 91405 layer_factory.hpp:114] Creating layer conv1
I1226 14:11:07.430896 92274 net.cpp:228] Setting up label_data_1_split
I1226 14:11:07.427556 91405 net.cpp:178] Creating Layer conv1
I1226 14:11:07.431008 92274 net.cpp:235] Top shape: 256 (256)
I1226 14:11:07.431077 92274 net.cpp:235] Top shape: 256 (256)
I1226 14:11:07.431102 92274 net.cpp:243] Memory required for data: 158300160
I1226 14:11:07.431138 92274 layer_factory.hpp:114] Creating layer conv1
I1226 14:11:07.427630 91405 net.cpp:612] conv1 <- data
I1226 14:11:07.427696 91405 net.cpp:586] conv1 -> conv1
I1226 14:11:07.431361 92274 net.cpp:178] Creating Layer conv1
I1226 14:11:07.431417 92274 net.cpp:612] conv1 <- data
I1226 14:11:07.431473 92274 net.cpp:586] conv1 -> conv1
I1226 14:11:07.435852 98828 net.cpp:228] Setting up data
I1226 14:11:07.435972 98828 net.cpp:235] Top shape: 256 3 227 227 (39574272)
I1226 14:11:07.436010 98828 net.cpp:235] Top shape: 256 (256)
I1226 14:11:07.436035 98828 net.cpp:243] Memory required for data: 158298112
I1226 14:11:07.436095 98828 layer_factory.hpp:114] Creating layer label_data_1_split
I1226 14:11:07.436202 98828 net.cpp:178] Creating Layer label_data_1_split
I1226 14:11:07.436353 98828 net.cpp:612] label_data_1_split <- label
I1226 14:11:07.436419 98828 net.cpp:586] label_data_1_split -> label_data_1_split_0
I1226 14:11:07.436485 98828 net.cpp:586] label_data_1_split -> label_data_1_split_1
I1226 14:11:07.442075 121743 net.cpp:228] Setting up label_data_1_split
I1226 14:11:07.442199 121743 net.cpp:235] Top shape: 256 (256)
I1226 14:11:07.442253 121743 net.cpp:235] Top shape: 256 (256)
I1226 14:11:07.442278 121743 net.cpp:243] Memory required for data: 158300160
I1226 14:11:07.442314 121743 layer_factory.hpp:114] Creating layer conv1
I1226 14:11:07.442422 121743 net.cpp:178] Creating Layer conv1
I1226 14:11:07.443037 121743 net.cpp:612] conv1 <- data
I1226 14:11:07.443115 121743 net.cpp:586] conv1 -> conv1
I1226 14:11:07.459899 92483 net.cpp:228] Setting up conv2
I1226 14:11:07.460016 92483 net.cpp:235] Top shape: 256 256 27 27 (47775744)
I1226 14:11:07.460047 92483 net.cpp:243] Memory required for data: 1313175552
I1226 14:11:07.460122 92483 layer_factory.hpp:114] Creating layer relu2
I1226 14:11:07.460211 92483 net.cpp:178] Creating Layer relu2
I1226 14:11:07.460254 92483 net.cpp:612] relu2 <- conv2
I1226 14:11:07.460319 92483 net.cpp:573] relu2 -> conv2 (in-place)
I1226 14:11:07.460423 92483 net.cpp:228] Setting up relu2
I1226 14:11:07.460510 92483 net.cpp:235] Top shape: 256 256 27 27 (47775744)
I1226 14:11:07.460631 92483 net.cpp:243] Memory required for data: 1504278528
I1226 14:11:07.460785 92483 layer_factory.hpp:114] Creating layer norm2
I1226 14:11:07.460882 92483 net.cpp:178] Creating Layer norm2
I1226 14:11:07.460924 92483 net.cpp:612] norm2 <- conv2
I1226 14:11:07.460963 92483 net.cpp:586] norm2 -> norm2
I1226 14:11:07.461060 92483 net.cpp:228] Setting up norm2
I1226 14:11:07.461112 92483 net.cpp:235] Top shape: 256 256 27 27 (47775744)
I1226 14:11:07.461138 92483 net.cpp:243] Memory required for data: 1695381504
I1226 14:11:07.461166 92483 layer_factory.hpp:114] Creating layer pool2
I1226 14:11:07.461247 92483 net.cpp:178] Creating Layer pool2
I1226 14:11:07.461287 92483 net.cpp:612] pool2 <- norm2
I1226 14:11:07.461320 92483 net.cpp:586] pool2 -> pool2
I1226 14:11:07.461431 92483 net.cpp:228] Setting up pool2
I1226 14:11:07.461479 92483 net.cpp:235] Top shape: 256 256 13 13 (11075584)
I1226 14:11:07.461601 92483 net.cpp:243] Memory required for data: 1739683840
I1226 14:11:07.461638 92483 layer_factory.hpp:114] Creating layer conv3
I1226 14:11:07.461747 92483 net.cpp:178] Creating Layer conv3
I1226 14:11:07.461872 92483 net.cpp:612] conv3 <- pool2
I1226 14:11:07.461977 92483 net.cpp:586] conv3 -> conv3
I1226 14:11:07.462395 98828 net.cpp:228] Setting up label_data_1_split
I1226 14:11:07.462502 98828 net.cpp:235] Top shape: 256 (256)
I1226 14:11:07.462535 98828 net.cpp:235] Top shape: 256 (256)
I1226 14:11:07.462559 98828 net.cpp:243] Memory required for data: 158300160
I1226 14:11:07.462596 98828 layer_factory.hpp:114] Creating layer conv1
I1226 14:11:07.462704 98828 net.cpp:178] Creating Layer conv1
I1226 14:11:07.462757 98828 net.cpp:612] conv1 <- data
I1226 14:11:07.462811 98828 net.cpp:586] conv1 -> conv1
I1226 14:11:07.566498 91711 net.cpp:228] Setting up conv1
I1226 14:11:07.566617 91711 net.cpp:235] Top shape: 256 96 55 55 (74342400)
I1226 14:11:07.566645 91711 net.cpp:243] Memory required for data: 455669760
I1226 14:11:07.566787 91711 layer_factory.hpp:114] Creating layer relu1
I1226 14:11:07.566882 91711 net.cpp:178] Creating Layer relu1
I1226 14:11:07.566926 91711 net.cpp:612] relu1 <- conv1
I1226 14:11:07.566968 91711 net.cpp:573] relu1 -> conv1 (in-place)
I1226 14:11:07.567088 91711 net.cpp:228] Setting up relu1
I1226 14:11:07.567137 91711 net.cpp:235] Top shape: 256 96 55 55 (74342400)
I1226 14:11:07.567162 91711 net.cpp:243] Memory required for data: 753039360
I1226 14:11:07.567193 91711 layer_factory.hpp:114] Creating layer norm1
I1226 14:11:07.567298 91711 net.cpp:178] Creating Layer norm1
I1226 14:11:07.567329 91711 net.cpp:612] norm1 <- conv1
I1226 14:11:07.567366 91711 net.cpp:586] norm1 -> norm1
I1226 14:11:07.567476 91711 net.cpp:228] Setting up norm1
I1226 14:11:07.567524 91711 net.cpp:235] Top shape: 256 96 55 55 (74342400)
I1226 14:11:07.567556 91711 net.cpp:243] Memory required for data: 1050408960
I1226 14:11:07.567586 91711 layer_factory.hpp:114] Creating layer pool1
I1226 14:11:07.567647 91711 net.cpp:178] Creating Layer pool1
I1226 14:11:07.567680 91711 net.cpp:612] pool1 <- norm1
I1226 14:11:07.567726 91711 net.cpp:586] pool1 -> pool1
I1226 14:11:07.567827 91711 net.cpp:228] Setting up pool1
I1226 14:11:07.567870 91711 net.cpp:235] Top shape: 256 96 27 27 (17915904)
I1226 14:11:07.567898 91711 net.cpp:243] Memory required for data: 1122072576
I1226 14:11:07.567930 91711 layer_factory.hpp:114] Creating layer conv2
I1226 14:11:07.568003 91711 net.cpp:178] Creating Layer conv2
I1226 14:11:07.568042 91711 net.cpp:612] conv2 <- pool1
I1226 14:11:07.568092 91711 net.cpp:586] conv2 -> conv2
I1226 14:11:07.636430 90185 net.cpp:228] Setting up conv1
I1226 14:11:07.636543 90185 net.cpp:235] Top shape: 256 96 55 55 (74342400)
I1226 14:11:07.636616 90185 net.cpp:243] Memory required for data: 455669760
I1226 14:11:07.636831 90185 layer_factory.hpp:114] Creating layer relu1
I1226 14:11:07.636945 90185 net.cpp:178] Creating Layer relu1
I1226 14:11:07.636992 90185 net.cpp:612] relu1 <- conv1
I1226 14:11:07.637033 90185 net.cpp:573] relu1 -> conv1 (in-place)
I1226 14:11:07.637141 90185 net.cpp:228] Setting up relu1
I1226 14:11:07.637217 90185 net.cpp:235] Top shape: 256 96 55 55 (74342400)
I1226 14:11:07.637382 90185 net.cpp:243] Memory required for data: 753039360
I1226 14:11:07.637415 90185 layer_factory.hpp:114] Creating layer norm1
I1226 14:11:07.637780 90185 net.cpp:178] Creating Layer norm1
I1226 14:11:07.637827 90185 net.cpp:612] norm1 <- conv1
I1226 14:11:07.637873 90185 net.cpp:586] norm1 -> norm1
I1226 14:11:07.638314 90185 net.cpp:228] Setting up norm1
I1226 14:11:07.638444 90185 net.cpp:235] Top shape: 256 96 55 55 (74342400)
I1226 14:11:07.638478 90185 net.cpp:243] Memory required for data: 1050408960
I1226 14:11:07.638520 90185 layer_factory.hpp:114] Creating layer pool1
I1226 14:11:07.638646 90185 net.cpp:178] Creating Layer pool1
I1226 14:11:07.638677 90185 net.cpp:612] pool1 <- norm1
I1226 14:11:07.638747 90185 net.cpp:586] pool1 -> pool1
I1226 14:11:07.638864 90185 net.cpp:228] Setting up pool1
I1226 14:11:07.638913 90185 net.cpp:235] Top shape: 256 96 27 27 (17915904)
I1226 14:11:07.638936 90185 net.cpp:243] Memory required for data: 1122072576
I1226 14:11:07.638965 90185 layer_factory.hpp:114] Creating layer conv2
I1226 14:11:07.639075 90185 net.cpp:178] Creating Layer conv2
I1226 14:11:07.639112 90185 net.cpp:612] conv2 <- pool1
I1226 14:11:07.639163 90185 net.cpp:586] conv2 -> conv2
I1226 14:11:07.660027 92274 net.cpp:228] Setting up conv1
I1226 14:11:07.660142 92274 net.cpp:235] Top shape: 256 96 55 55 (74342400)
I1226 14:11:07.660171 92274 net.cpp:243] Memory required for data: 455669760
I1226 14:11:07.660339 92274 layer_factory.hpp:114] Creating layer relu1
I1226 14:11:07.660440 92274 net.cpp:178] Creating Layer relu1
I1226 14:11:07.660490 92274 net.cpp:612] relu1 <- conv1
I1226 14:11:07.660532 92274 net.cpp:573] relu1 -> conv1 (in-place)
I1226 14:11:07.660642 92274 net.cpp:228] Setting up relu1
I1226 14:11:07.660692 92274 net.cpp:235] Top shape: 256 96 55 55 (74342400)
I1226 14:11:07.660717 92274 net.cpp:243] Memory required for data: 753039360
I1226 14:11:07.660748 92274 layer_factory.hpp:114] Creating layer norm1
I1226 14:11:07.660820 92274 net.cpp:178] Creating Layer norm1
I1226 14:11:07.660857 92274 net.cpp:612] norm1 <- conv1
I1226 14:11:07.660893 92274 net.cpp:586] norm1 -> norm1
I1226 14:11:07.660996 92274 net.cpp:228] Setting up norm1
I1226 14:11:07.661042 92274 net.cpp:235] Top shape: 256 96 55 55 (74342400)
I1226 14:11:07.661067 92274 net.cpp:243] Memory required for data: 1050408960
I1226 14:11:07.661095 92274 layer_factory.hpp:114] Creating layer pool1
I1226 14:11:07.661165 92274 net.cpp:178] Creating Layer pool1
I1226 14:11:07.661202 92274 net.cpp:612] pool1 <- norm1
I1226 14:11:07.661245 92274 net.cpp:586] pool1 -> pool1
I1226 14:11:07.661373 92274 net.cpp:228] Setting up pool1
I1226 14:11:07.661429 92274 net.cpp:235] Top shape: 256 96 27 27 (17915904)
I1226 14:11:07.661453 92274 net.cpp:243] Memory required for data: 1122072576
I1226 14:11:07.661489 92274 layer_factory.hpp:114] Creating layer conv2
I1226 14:11:07.661572 92274 net.cpp:178] Creating Layer conv2
I1226 14:11:07.661604 92274 net.cpp:612] conv2 <- pool1
I1226 14:11:07.661674 92274 net.cpp:586] conv2 -> conv2
I1226 14:11:07.680681 91405 net.cpp:228] Setting up conv1
I1226 14:11:07.680819 91405 net.cpp:235] Top shape: 256 96 55 55 (74342400)
I1226 14:11:07.680850 91405 net.cpp:243] Memory required for data: 455669760
I1226 14:11:07.681447 91405 layer_factory.hpp:114] Creating layer relu1
I1226 14:11:07.681622 91405 net.cpp:178] Creating Layer relu1
I1226 14:11:07.681792 91405 net.cpp:612] relu1 <- conv1
I1226 14:11:07.681881 91405 net.cpp:573] relu1 -> conv1 (in-place)
I1226 14:11:07.682030 91405 net.cpp:228] Setting up relu1
I1226 14:11:07.682095 91405 net.cpp:235] Top shape: 256 96 55 55 (74342400)
I1226 14:11:07.682121 91405 net.cpp:243] Memory required for data: 753039360
I1226 14:11:07.682155 91405 layer_factory.hpp:114] Creating layer norm1
I1226 14:11:07.682240 91405 net.cpp:178] Creating Layer norm1
I1226 14:11:07.682282 91405 net.cpp:612] norm1 <- conv1
I1226 14:11:07.682322 91405 net.cpp:586] norm1 -> norm1
I1226 14:11:07.682420 91405 net.cpp:228] Setting up norm1
I1226 14:11:07.682474 91405 net.cpp:235] Top shape: 256 96 55 55 (74342400)
I1226 14:11:07.682499 91405 net.cpp:243] Memory required for data: 1050408960
I1226 14:11:07.682529 91405 layer_factory.hpp:114] Creating layer pool1
I1226 14:11:07.682593 91405 net.cpp:178] Creating Layer pool1
I1226 14:11:07.682622 91405 net.cpp:612] pool1 <- norm1
I1226 14:11:07.682665 91405 net.cpp:586] pool1 -> pool1
I1226 14:11:07.682806 91405 net.cpp:228] Setting up pool1
I1226 14:11:07.682862 91405 net.cpp:235] Top shape: 256 96 27 27 (17915904)
I1226 14:11:07.682894 91405 net.cpp:243] Memory required for data: 1122072576
I1226 14:11:07.682931 91405 layer_factory.hpp:114] Creating layer conv2
I1226 14:11:07.683012 91405 net.cpp:178] Creating Layer conv2
I1226 14:11:07.683046 91405 net.cpp:612] conv2 <- pool1
I1226 14:11:07.683084 91405 net.cpp:586] conv2 -> conv2
I1226 14:11:07.691576 92483 net.cpp:228] Setting up conv3
I1226 14:11:07.691709 92483 net.cpp:235] Top shape: 256 384 13 13 (16613376)
I1226 14:11:07.691742 92483 net.cpp:243] Memory required for data: 1806137344
I1226 14:11:07.691882 92483 layer_factory.hpp:114] Creating layer relu3
I1226 14:11:07.691978 92483 net.cpp:178] Creating Layer relu3
I1226 14:11:07.692028 92483 net.cpp:612] relu3 <- conv3
I1226 14:11:07.692075 92483 net.cpp:573] relu3 -> conv3 (in-place)
I1226 14:11:07.692173 92483 net.cpp:228] Setting up relu3
I1226 14:11:07.692229 92483 net.cpp:235] Top shape: 256 384 13 13 (16613376)
I1226 14:11:07.692255 92483 net.cpp:243] Memory required for data: 1872590848
I1226 14:11:07.692284 92483 layer_factory.hpp:114] Creating layer conv4
I1226 14:11:07.692356 92483 net.cpp:178] Creating Layer conv4
I1226 14:11:07.692396 92483 net.cpp:612] conv4 <- conv3
I1226 14:11:07.692440 92483 net.cpp:586] conv4 -> conv4
I1226 14:11:07.705718 98828 net.cpp:228] Setting up conv1
I1226 14:11:07.705845 98828 net.cpp:235] Top shape: 256 96 55 55 (74342400)
I1226 14:11:07.705878 98828 net.cpp:243] Memory required for data: 455669760
I1226 14:11:07.705992 98828 layer_factory.hpp:114] Creating layer relu1
I1226 14:11:07.706104 98828 net.cpp:178] Creating Layer relu1
I1226 14:11:07.706146 98828 net.cpp:612] relu1 <- conv1
I1226 14:11:07.706193 98828 net.cpp:573] relu1 -> conv1 (in-place)
I1226 14:11:07.706313 98828 net.cpp:228] Setting up relu1
I1226 14:11:07.706501 98828 net.cpp:235] Top shape: 256 96 55 55 (74342400)
I1226 14:11:07.706528 98828 net.cpp:243] Memory required for data: 753039360
I1226 14:11:07.706562 98828 layer_factory.hpp:114] Creating layer norm1
I1226 14:11:07.706647 98828 net.cpp:178] Creating Layer norm1
I1226 14:11:07.706801 98828 net.cpp:612] norm1 <- conv1
I1226 14:11:07.706847 98828 net.cpp:586] norm1 -> norm1
I1226 14:11:07.706956 98828 net.cpp:228] Setting up norm1
I1226 14:11:07.707162 98828 net.cpp:235] Top shape: 256 96 55 55 (74342400)
I1226 14:11:07.707190 98828 net.cpp:243] Memory required for data: 1050408960
I1226 14:11:07.707224 98828 layer_factory.hpp:114] Creating layer pool1
I1226 14:11:07.707298 98828 net.cpp:178] Creating Layer pool1
I1226 14:11:07.707329 98828 net.cpp:612] pool1 <- norm1
I1226 14:11:07.707370 98828 net.cpp:586] pool1 -> pool1
I1226 14:11:07.707497 98828 net.cpp:228] Setting up pool1
I1226 14:11:07.707715 98828 net.cpp:235] Top shape: 256 96 27 27 (17915904)
I1226 14:11:07.707741 98828 net.cpp:243] Memory required for data: 1122072576
I1226 14:11:07.707772 98828 layer_factory.hpp:114] Creating layer conv2
I1226 14:11:07.707854 98828 net.cpp:178] Creating Layer conv2
I1226 14:11:07.707883 98828 net.cpp:612] conv2 <- pool1
I1226 14:11:07.707931 98828 net.cpp:586] conv2 -> conv2
I1226 14:11:07.710532 121743 net.cpp:228] Setting up conv1
I1226 14:11:07.711133 121743 net.cpp:235] Top shape: 256 96 55 55 (74342400)
I1226 14:11:07.711225 121743 net.cpp:243] Memory required for data: 455669760
I1226 14:11:07.711377 121743 layer_factory.hpp:114] Creating layer relu1
I1226 14:11:07.711489 121743 net.cpp:178] Creating Layer relu1
I1226 14:11:07.711649 121743 net.cpp:612] relu1 <- conv1
I1226 14:11:07.711707 121743 net.cpp:573] relu1 -> conv1 (in-place)
I1226 14:11:07.712144 121743 net.cpp:228] Setting up relu1
I1226 14:11:07.712237 121743 net.cpp:235] Top shape: 256 96 55 55 (74342400)
I1226 14:11:07.712380 121743 net.cpp:243] Memory required for data: 753039360
I1226 14:11:07.712430 121743 layer_factory.hpp:114] Creating layer norm1
I1226 14:11:07.712525 121743 net.cpp:178] Creating Layer norm1
I1226 14:11:07.712577 121743 net.cpp:612] norm1 <- conv1
I1226 14:11:07.712651 121743 net.cpp:586] norm1 -> norm1
I1226 14:11:07.725854 121743 net.cpp:228] Setting up norm1
I1226 14:11:07.725924 121743 net.cpp:235] Top shape: 256 96 55 55 (74342400)
I1226 14:11:07.725950 121743 net.cpp:243] Memory required for data: 1050408960
I1226 14:11:07.725982 121743 layer_factory.hpp:114] Creating layer pool1
I1226 14:11:07.726058 121743 net.cpp:178] Creating Layer pool1
I1226 14:11:07.726089 121743 net.cpp:612] pool1 <- norm1
I1226 14:11:07.726135 121743 net.cpp:586] pool1 -> pool1
I1226 14:11:07.726235 121743 net.cpp:228] Setting up pool1
I1226 14:11:07.726279 121743 net.cpp:235] Top shape: 256 96 27 27 (17915904)
I1226 14:11:07.726307 121743 net.cpp:243] Memory required for data: 1122072576
I1226 14:11:07.726335 121743 layer_factory.hpp:114] Creating layer conv2
I1226 14:11:07.726408 121743 net.cpp:178] Creating Layer conv2
I1226 14:11:07.726442 121743 net.cpp:612] conv2 <- pool1
I1226 14:11:07.726481 121743 net.cpp:586] conv2 -> conv2
I1226 14:11:07.893707 92483 net.cpp:228] Setting up conv4
I1226 14:11:07.893849 92483 net.cpp:235] Top shape: 256 384 13 13 (16613376)
I1226 14:11:07.893884 92483 net.cpp:243] Memory required for data: 1939044352
I1226 14:11:07.893945 92483 layer_factory.hpp:114] Creating layer relu4
I1226 14:11:07.894040 92483 net.cpp:178] Creating Layer relu4
I1226 14:11:07.894081 92483 net.cpp:612] relu4 <- conv4
I1226 14:11:07.894143 92483 net.cpp:573] relu4 -> conv4 (in-place)
I1226 14:11:07.894239 92483 net.cpp:228] Setting up relu4
I1226 14:11:07.894289 92483 net.cpp:235] Top shape: 256 384 13 13 (16613376)
I1226 14:11:07.894314 92483 net.cpp:243] Memory required for data: 2005497856
I1226 14:11:07.894342 92483 layer_factory.hpp:114] Creating layer conv5
I1226 14:11:07.894428 92483 net.cpp:178] Creating Layer conv5
I1226 14:11:07.894465 92483 net.cpp:612] conv5 <- conv4
I1226 14:11:07.894520 92483 net.cpp:586] conv5 -> conv5
I1226 14:11:07.920660 91711 net.cpp:228] Setting up conv2
I1226 14:11:07.920812 91711 net.cpp:235] Top shape: 256 256 27 27 (47775744)
I1226 14:11:07.920851 91711 net.cpp:243] Memory required for data: 1313175552
I1226 14:11:07.921048 91711 layer_factory.hpp:114] Creating layer relu2
I1226 14:11:07.921141 91711 net.cpp:178] Creating Layer relu2
I1226 14:11:07.921200 91711 net.cpp:612] relu2 <- conv2
I1226 14:11:07.921278 91711 net.cpp:573] relu2 -> conv2 (in-place)
I1226 14:11:07.921432 91711 net.cpp:228] Setting up relu2
I1226 14:11:07.921557 91711 net.cpp:235] Top shape: 256 256 27 27 (47775744)
I1226 14:11:07.921588 91711 net.cpp:243] Memory required for data: 1504278528
I1226 14:11:07.921622 91711 layer_factory.hpp:114] Creating layer norm2
I1226 14:11:07.921702 91711 net.cpp:178] Creating Layer norm2
I1226 14:11:07.921737 91711 net.cpp:612] norm2 <- conv2
I1226 14:11:07.921777 91711 net.cpp:586] norm2 -> norm2
I1226 14:11:07.921869 91711 net.cpp:228] Setting up norm2
I1226 14:11:07.921918 91711 net.cpp:235] Top shape: 256 256 27 27 (47775744)
I1226 14:11:07.921950 91711 net.cpp:243] Memory required for data: 1695381504
I1226 14:11:07.921983 91711 layer_factory.hpp:114] Creating layer pool2
I1226 14:11:07.922035 91711 net.cpp:178] Creating Layer pool2
I1226 14:11:07.922063 91711 net.cpp:612] pool2 <- norm2
I1226 14:11:07.922106 91711 net.cpp:586] pool2 -> pool2
I1226 14:11:07.922188 91711 net.cpp:228] Setting up pool2
I1226 14:11:07.922363 91711 net.cpp:235] Top shape: 256 256 13 13 (11075584)
I1226 14:11:07.922392 91711 net.cpp:243] Memory required for data: 1739683840
I1226 14:11:07.922425 91711 layer_factory.hpp:114] Creating layer conv3
I1226 14:11:07.922516 91711 net.cpp:178] Creating Layer conv3
I1226 14:11:07.922551 91711 net.cpp:612] conv3 <- pool2
I1226 14:11:07.922600 91711 net.cpp:586] conv3 -> conv3
I1226 14:11:08.001996 90185 net.cpp:228] Setting up conv2
I1226 14:11:08.002115 90185 net.cpp:235] Top shape: 256 256 27 27 (47775744)
I1226 14:11:08.002148 90185 net.cpp:243] Memory required for data: 1313175552
I1226 14:11:08.002228 90185 layer_factory.hpp:114] Creating layer relu2
I1226 14:11:08.002329 90185 net.cpp:178] Creating Layer relu2
I1226 14:11:08.002552 90185 net.cpp:612] relu2 <- conv2
I1226 14:11:08.002688 90185 net.cpp:573] relu2 -> conv2 (in-place)
I1226 14:11:08.003108 90185 net.cpp:228] Setting up relu2
I1226 14:11:08.003229 90185 net.cpp:235] Top shape: 256 256 27 27 (47775744)
I1226 14:11:08.003258 90185 net.cpp:243] Memory required for data: 1504278528
I1226 14:11:08.003294 90185 layer_factory.hpp:114] Creating layer norm2
I1226 14:11:08.003404 90185 net.cpp:178] Creating Layer norm2
I1226 14:11:08.003471 90185 net.cpp:612] norm2 <- conv2
I1226 14:11:08.003515 90185 net.cpp:586] norm2 -> norm2
I1226 14:11:08.003659 90185 net.cpp:228] Setting up norm2
I1226 14:11:08.003720 90185 net.cpp:235] Top shape: 256 256 27 27 (47775744)
I1226 14:11:08.003744 90185 net.cpp:243] Memory required for data: 1695381504
I1226 14:11:08.003774 90185 layer_factory.hpp:114] Creating layer pool2
I1226 14:11:08.003844 90185 net.cpp:178] Creating Layer pool2
I1226 14:11:08.003873 90185 net.cpp:612] pool2 <- norm2
I1226 14:11:08.003911 90185 net.cpp:586] pool2 -> pool2
I1226 14:11:08.004053 90185 net.cpp:228] Setting up pool2
I1226 14:11:08.004431 90185 net.cpp:235] Top shape: 256 256 13 13 (11075584)
I1226 14:11:08.004464 90185 net.cpp:243] Memory required for data: 1739683840
I1226 14:11:08.004498 90185 layer_factory.hpp:114] Creating layer conv3
I1226 14:11:08.004931 90185 net.cpp:178] Creating Layer conv3
I1226 14:11:08.005024 90185 net.cpp:612] conv3 <- pool2
I1226 14:11:08.005138 90185 net.cpp:586] conv3 -> conv3
I1226 14:11:08.019237 92274 net.cpp:228] Setting up conv2
I1226 14:11:08.019383 92274 net.cpp:235] Top shape: 256 256 27 27 (47775744)
I1226 14:11:08.019444 92274 net.cpp:243] Memory required for data: 1313175552
I1226 14:11:08.019528 92274 layer_factory.hpp:114] Creating layer relu2
I1226 14:11:08.019697 92274 net.cpp:178] Creating Layer relu2
I1226 14:11:08.019739 92274 net.cpp:612] relu2 <- conv2
I1226 14:11:08.019781 92274 net.cpp:573] relu2 -> conv2 (in-place)
I1226 14:11:08.019884 92274 net.cpp:228] Setting up relu2
I1226 14:11:08.019965 92274 net.cpp:235] Top shape: 256 256 27 27 (47775744)
I1226 14:11:08.019992 92274 net.cpp:243] Memory required for data: 1504278528
I1226 14:11:08.020022 92274 layer_factory.hpp:114] Creating layer norm2
I1226 14:11:08.020087 92274 net.cpp:178] Creating Layer norm2
I1226 14:11:08.020182 92274 net.cpp:612] norm2 <- conv2
I1226 14:11:08.020220 92274 net.cpp:586] norm2 -> norm2
I1226 14:11:08.020336 92274 net.cpp:228] Setting up norm2
I1226 14:11:08.020826 92274 net.cpp:235] Top shape: 256 256 27 27 (47775744)
I1226 14:11:08.020951 92274 net.cpp:243] Memory required for data: 1695381504
I1226 14:11:08.020992 92274 layer_factory.hpp:114] Creating layer pool2
I1226 14:11:08.021093 92274 net.cpp:178] Creating Layer pool2
I1226 14:11:08.021163 92274 net.cpp:612] pool2 <- norm2
I1226 14:11:08.021206 92274 net.cpp:586] pool2 -> pool2
I1226 14:11:08.021344 92274 net.cpp:228] Setting up pool2
I1226 14:11:08.021546 92274 net.cpp:235] Top shape: 256 256 13 13 (11075584)
I1226 14:11:08.021591 92274 net.cpp:243] Memory required for data: 1739683840
I1226 14:11:08.021646 92274 layer_factory.hpp:114] Creating layer conv3
I1226 14:11:08.021741 92274 net.cpp:178] Creating Layer conv3
I1226 14:11:08.021782 92274 net.cpp:612] conv3 <- pool2
I1226 14:11:08.021841 92274 net.cpp:586] conv3 -> conv3
I1226 14:11:08.043020 92483 net.cpp:228] Setting up conv5
I1226 14:11:08.043133 92483 net.cpp:235] Top shape: 256 256 13 13 (11075584)
I1226 14:11:08.043160 92483 net.cpp:243] Memory required for data: 2049800192
I1226 14:11:08.043236 92483 layer_factory.hpp:114] Creating layer relu5
I1226 14:11:08.043323 92483 net.cpp:178] Creating Layer relu5
I1226 14:11:08.043365 92483 net.cpp:612] relu5 <- conv5
I1226 14:11:08.043404 92483 net.cpp:573] relu5 -> conv5 (in-place)
I1226 14:11:08.043498 92483 net.cpp:228] Setting up relu5
I1226 14:11:08.043546 92483 net.cpp:235] Top shape: 256 256 13 13 (11075584)
I1226 14:11:08.043570 92483 net.cpp:243] Memory required for data: 2094102528
I1226 14:11:08.043598 92483 layer_factory.hpp:114] Creating layer pool5
I1226 14:11:08.043658 92483 net.cpp:178] Creating Layer pool5
I1226 14:11:08.043694 92483 net.cpp:612] pool5 <- conv5
I1226 14:11:08.043740 92483 net.cpp:586] pool5 -> pool5
I1226 14:11:08.043854 92483 net.cpp:228] Setting up pool5
I1226 14:11:08.043907 92483 net.cpp:235] Top shape: 256 256 6 6 (2359296)
I1226 14:11:08.043931 92483 net.cpp:243] Memory required for data: 2103539712
I1226 14:11:08.043961 92483 layer_factory.hpp:114] Creating layer fc6
I1226 14:11:08.044042 92483 net.cpp:178] Creating Layer fc6
I1226 14:11:08.044075 92483 net.cpp:612] fc6 <- pool5
I1226 14:11:08.044113 92483 net.cpp:586] fc6 -> fc6
I1226 14:11:08.063729 91405 net.cpp:228] Setting up conv2
I1226 14:11:08.063843 91405 net.cpp:235] Top shape: 256 256 27 27 (47775744)
I1226 14:11:08.063890 91405 net.cpp:243] Memory required for data: 1313175552
I1226 14:11:08.063971 91405 layer_factory.hpp:114] Creating layer relu2
I1226 14:11:08.064061 91405 net.cpp:178] Creating Layer relu2
I1226 14:11:08.064097 91405 net.cpp:612] relu2 <- conv2
I1226 14:11:08.064296 91405 net.cpp:573] relu2 -> conv2 (in-place)
I1226 14:11:08.064437 91405 net.cpp:228] Setting up relu2
I1226 14:11:08.064587 91405 net.cpp:235] Top shape: 256 256 27 27 (47775744)
I1226 14:11:08.064616 91405 net.cpp:243] Memory required for data: 1504278528
I1226 14:11:08.064651 91405 layer_factory.hpp:114] Creating layer norm2
I1226 14:11:08.064744 91405 net.cpp:178] Creating Layer norm2
I1226 14:11:08.065320 91405 net.cpp:612] norm2 <- conv2
I1226 14:11:08.065428 91405 net.cpp:586] norm2 -> norm2
I1226 14:11:08.065634 91405 net.cpp:228] Setting up norm2
I1226 14:11:08.065753 91405 net.cpp:235] Top shape: 256 256 27 27 (47775744)
I1226 14:11:08.065785 91405 net.cpp:243] Memory required for data: 1695381504
I1226 14:11:08.065819 91405 layer_factory.hpp:114] Creating layer pool2
I1226 14:11:08.065912 91405 net.cpp:178] Creating Layer pool2
I1226 14:11:08.065946 91405 net.cpp:612] pool2 <- norm2
I1226 14:11:08.065986 91405 net.cpp:586] pool2 -> pool2
I1226 14:11:08.066124 91405 net.cpp:228] Setting up pool2
I1226 14:11:08.066576 91405 net.cpp:235] Top shape: 256 256 13 13 (11075584)
I1226 14:11:08.066673 91405 net.cpp:243] Memory required for data: 1739683840
I1226 14:11:08.066751 91405 layer_factory.hpp:114] Creating layer conv3
I1226 14:11:08.066900 91405 net.cpp:178] Creating Layer conv3
I1226 14:11:08.066967 91405 net.cpp:612] conv3 <- pool2
I1226 14:11:08.067019 91405 net.cpp:586] conv3 -> conv3
I1226 14:11:08.060570 96952 net.cpp:228] Setting up data
I1226 14:11:08.060694 96952 net.cpp:235] Top shape: 256 3 227 227 (39574272)
I1226 14:11:08.060741 96952 net.cpp:235] Top shape: 256 (256)
I1226 14:11:08.060770 96952 net.cpp:243] Memory required for data: 158298112
I1226 14:11:08.060839 96952 layer_factory.hpp:114] Creating layer label_data_1_split
I1226 14:11:08.060936 96952 net.cpp:178] Creating Layer label_data_1_split
I1226 14:11:08.061091 96952 net.cpp:612] label_data_1_split <- label
I1226 14:11:08.061146 96952 net.cpp:586] label_data_1_split -> label_data_1_split_0
I1226 14:11:08.061311 96952 net.cpp:586] label_data_1_split -> label_data_1_split_1
I1226 14:11:08.074682 96952 net.cpp:228] Setting up label_data_1_split
I1226 14:11:08.087893 96952 net.cpp:235] Top shape: 256 (256)
I1226 14:11:08.087999 96952 net.cpp:235] Top shape: 256 (256)
I1226 14:11:08.088030 96952 net.cpp:243] Memory required for data: 158300160
I1226 14:11:08.088071 96952 layer_factory.hpp:114] Creating layer conv1
I1226 14:11:08.088181 96952 net.cpp:178] Creating Layer conv1
I1226 14:11:08.088227 96952 net.cpp:612] conv1 <- data
I1226 14:11:08.088274 96952 net.cpp:586] conv1 -> conv1
I1226 14:11:08.112480 95316 net.cpp:228] Setting up data
I1226 14:11:08.112602 95316 net.cpp:235] Top shape: 256 3 227 227 (39574272)
I1226 14:11:08.112645 95316 net.cpp:235] Top shape: 256 (256)
I1226 14:11:08.112673 95316 net.cpp:243] Memory required for data: 158298112
I1226 14:11:08.112711 95316 layer_factory.hpp:114] Creating layer label_data_1_split
I1226 14:11:08.112812 95316 net.cpp:178] Creating Layer label_data_1_split
I1226 14:11:08.112977 95316 net.cpp:612] label_data_1_split <- label
I1226 14:11:08.113032 95316 net.cpp:586] label_data_1_split -> label_data_1_split_0
I1226 14:11:08.113087 95316 net.cpp:586] label_data_1_split -> label_data_1_split_1
I1226 14:11:08.112715 121743 net.cpp:228] Setting up conv2
I1226 14:11:08.112828 121743 net.cpp:235] Top shape: 256 256 27 27 (47775744)
I1226 14:11:08.112856 121743 net.cpp:243] Memory required for data: 1313175552
I1226 14:11:08.112929 121743 layer_factory.hpp:114] Creating layer relu2
I1226 14:11:08.113006 121743 net.cpp:178] Creating Layer relu2
I1226 14:11:08.113044 121743 net.cpp:612] relu2 <- conv2
I1226 14:11:08.113083 121743 net.cpp:573] relu2 -> conv2 (in-place)
I1226 14:11:08.113173 121743 net.cpp:228] Setting up relu2
I1226 14:11:08.113219 121743 net.cpp:235] Top shape: 256 256 27 27 (47775744)
I1226 14:11:08.113242 121743 net.cpp:243] Memory required for data: 1504278528
I1226 14:11:08.113270 121743 layer_factory.hpp:114] Creating layer norm2
I1226 14:11:08.113320 121743 net.cpp:178] Creating Layer norm2
I1226 14:11:08.113354 121743 net.cpp:612] norm2 <- conv2
I1226 14:11:08.113390 121743 net.cpp:586] norm2 -> norm2
I1226 14:11:08.113487 121743 net.cpp:228] Setting up norm2
I1226 14:11:08.113533 121743 net.cpp:235] Top shape: 256 256 27 27 (47775744)
I1226 14:11:08.113556 121743 net.cpp:243] Memory required for data: 1695381504
I1226 14:11:08.113584 121743 layer_factory.hpp:114] Creating layer pool2
I1226 14:11:08.113668 121743 net.cpp:178] Creating Layer pool2
I1226 14:11:08.113704 121743 net.cpp:612] pool2 <- norm2
I1226 14:11:08.113746 121743 net.cpp:586] pool2 -> pool2
I1226 14:11:08.113940 121743 net.cpp:228] Setting up pool2
I1226 14:11:08.113996 121743 net.cpp:235] Top shape: 256 256 13 13 (11075584)
I1226 14:11:08.114018 121743 net.cpp:243] Memory required for data: 1739683840
I1226 14:11:08.114048 121743 layer_factory.hpp:114] Creating layer conv3
I1226 14:11:08.114123 121743 net.cpp:178] Creating Layer conv3
I1226 14:11:08.114157 121743 net.cpp:612] conv3 <- pool2
I1226 14:11:08.114199 121743 net.cpp:586] conv3 -> conv3
I1226 14:11:08.139348 95316 net.cpp:228] Setting up label_data_1_split
I1226 14:11:08.139508 95316 net.cpp:235] Top shape: 256 (256)
I1226 14:11:08.139549 95316 net.cpp:235] Top shape: 256 (256)
I1226 14:11:08.139575 95316 net.cpp:243] Memory required for data: 158300160
I1226 14:11:08.139796 95316 layer_factory.hpp:114] Creating layer conv1
I1226 14:11:08.139948 95316 net.cpp:178] Creating Layer conv1
I1226 14:11:08.139997 95316 net.cpp:612] conv1 <- data
I1226 14:11:08.140043 95316 net.cpp:586] conv1 -> conv1
I1226 14:11:08.147547 98828 net.cpp:228] Setting up conv2
I1226 14:11:08.147663 98828 net.cpp:235] Top shape: 256 256 27 27 (47775744)
I1226 14:11:08.147691 98828 net.cpp:243] Memory required for data: 1313175552
I1226 14:11:08.147768 98828 layer_factory.hpp:114] Creating layer relu2
I1226 14:11:08.147833 98828 net.cpp:178] Creating Layer relu2
I1226 14:11:08.147868 98828 net.cpp:612] relu2 <- conv2
I1226 14:11:08.147912 98828 net.cpp:573] relu2 -> conv2 (in-place)
I1226 14:11:08.148016 98828 net.cpp:228] Setting up relu2
I1226 14:11:08.148103 98828 net.cpp:235] Top shape: 256 256 27 27 (47775744)
I1226 14:11:08.148134 98828 net.cpp:243] Memory required for data: 1504278528
I1226 14:11:08.148169 98828 layer_factory.hpp:114] Creating layer norm2
I1226 14:11:08.148243 98828 net.cpp:178] Creating Layer norm2
I1226 14:11:08.148298 98828 net.cpp:612] norm2 <- conv2
I1226 14:11:08.148342 98828 net.cpp:586] norm2 -> norm2
I1226 14:11:08.148449 98828 net.cpp:228] Setting up norm2
I1226 14:11:08.148517 98828 net.cpp:235] Top shape: 256 256 27 27 (47775744)
I1226 14:11:08.148542 98828 net.cpp:243] Memory required for data: 1695381504
I1226 14:11:08.148573 98828 layer_factory.hpp:114] Creating layer pool2
I1226 14:11:08.148622 98828 net.cpp:178] Creating Layer pool2
I1226 14:11:08.148651 98828 net.cpp:612] pool2 <- norm2
I1226 14:11:08.148689 98828 net.cpp:586] pool2 -> pool2
I1226 14:11:08.148775 98828 net.cpp:228] Setting up pool2
I1226 14:11:08.148923 98828 net.cpp:235] Top shape: 256 256 13 13 (11075584)
I1226 14:11:08.148953 98828 net.cpp:243] Memory required for data: 1739683840
I1226 14:11:08.148985 98828 layer_factory.hpp:114] Creating layer conv3
I1226 14:11:08.149096 98828 net.cpp:178] Creating Layer conv3
I1226 14:11:08.149133 98828 net.cpp:612] conv3 <- pool2
I1226 14:11:08.149180 98828 net.cpp:586] conv3 -> conv3
I1226 14:11:08.310051 91711 net.cpp:228] Setting up conv3
I1226 14:11:08.310190 91711 net.cpp:235] Top shape: 256 384 13 13 (16613376)
I1226 14:11:08.310238 91711 net.cpp:243] Memory required for data: 1806137344
I1226 14:11:08.310344 91711 layer_factory.hpp:114] Creating layer relu3
I1226 14:11:08.310415 91711 net.cpp:178] Creating Layer relu3
I1226 14:11:08.310447 91711 net.cpp:612] relu3 <- conv3
I1226 14:11:08.310488 91711 net.cpp:573] relu3 -> conv3 (in-place)
I1226 14:11:08.310595 91711 net.cpp:228] Setting up relu3
I1226 14:11:08.310645 91711 net.cpp:235] Top shape: 256 384 13 13 (16613376)
I1226 14:11:08.310669 91711 net.cpp:243] Memory required for data: 1872590848
I1226 14:11:08.310705 91711 layer_factory.hpp:114] Creating layer conv4
I1226 14:11:08.310796 91711 net.cpp:178] Creating Layer conv4
I1226 14:11:08.310830 91711 net.cpp:612] conv4 <- conv3
I1226 14:11:08.310883 91711 net.cpp:586] conv4 -> conv4
I1226 14:11:08.385023 92274 net.cpp:228] Setting up conv3
I1226 14:11:08.385134 92274 net.cpp:235] Top shape: 256 384 13 13 (16613376)
I1226 14:11:08.385166 92274 net.cpp:243] Memory required for data: 1806137344
I1226 14:11:08.385242 92274 layer_factory.hpp:114] Creating layer relu3
I1226 14:11:08.385299 92274 net.cpp:178] Creating Layer relu3
I1226 14:11:08.385357 92274 net.cpp:612] relu3 <- conv3
I1226 14:11:08.385401 92274 net.cpp:573] relu3 -> conv3 (in-place)
I1226 14:11:08.385510 92274 net.cpp:228] Setting up relu3
I1226 14:11:08.385557 92274 net.cpp:235] Top shape: 256 384 13 13 (16613376)
I1226 14:11:08.385583 92274 net.cpp:243] Memory required for data: 1872590848
I1226 14:11:08.385613 92274 layer_factory.hpp:114] Creating layer conv4
I1226 14:11:08.385710 92274 net.cpp:178] Creating Layer conv4
I1226 14:11:08.385748 92274 net.cpp:612] conv4 <- conv3
I1226 14:11:08.385798 92274 net.cpp:586] conv4 -> conv4
I1226 14:11:08.404537 90185 net.cpp:228] Setting up conv3
I1226 14:11:08.404676 90185 net.cpp:235] Top shape: 256 384 13 13 (16613376)
I1226 14:11:08.404731 90185 net.cpp:243] Memory required for data: 1806137344
I1226 14:11:08.404834 90185 layer_factory.hpp:114] Creating layer relu3
I1226 14:11:08.404973 90185 net.cpp:178] Creating Layer relu3
I1226 14:11:08.405045 90185 net.cpp:612] relu3 <- conv3
I1226 14:11:08.405144 90185 net.cpp:573] relu3 -> conv3 (in-place)
I1226 14:11:08.405279 90185 net.cpp:228] Setting up relu3
I1226 14:11:08.405823 90185 net.cpp:235] Top shape: 256 384 13 13 (16613376)
I1226 14:11:08.405952 90185 net.cpp:243] Memory required for data: 1872590848
I1226 14:11:08.406014 90185 layer_factory.hpp:114] Creating layer conv4
I1226 14:11:08.406167 90185 net.cpp:178] Creating Layer conv4
I1226 14:11:08.406210 90185 net.cpp:612] conv4 <- conv3
I1226 14:11:08.406273 90185 net.cpp:586] conv4 -> conv4
I1226 14:11:08.478215 91405 net.cpp:228] Setting up conv3
I1226 14:11:08.478333 91405 net.cpp:235] Top shape: 256 384 13 13 (16613376)
I1226 14:11:08.478363 91405 net.cpp:243] Memory required for data: 1806137344
I1226 14:11:08.478440 91405 layer_factory.hpp:114] Creating layer relu3
I1226 14:11:08.478507 91405 net.cpp:178] Creating Layer relu3
I1226 14:11:08.478538 91405 net.cpp:612] relu3 <- conv3
I1226 14:11:08.478591 91405 net.cpp:573] relu3 -> conv3 (in-place)
I1226 14:11:08.478700 91405 net.cpp:228] Setting up relu3
I1226 14:11:08.478898 91405 net.cpp:235] Top shape: 256 384 13 13 (16613376)
I1226 14:11:08.478924 91405 net.cpp:243] Memory required for data: 1872590848
I1226 14:11:08.478956 91405 layer_factory.hpp:114] Creating layer conv4
I1226 14:11:08.479389 91405 net.cpp:178] Creating Layer conv4
I1226 14:11:08.479487 91405 net.cpp:612] conv4 <- conv3
I1226 14:11:08.479549 91405 net.cpp:586] conv4 -> conv4
I1226 14:11:08.493224 121743 net.cpp:228] Setting up conv3
I1226 14:11:08.493674 121743 net.cpp:235] Top shape: 256 384 13 13 (16613376)
I1226 14:11:08.493721 121743 net.cpp:243] Memory required for data: 1806137344
I1226 14:11:08.493818 121743 layer_factory.hpp:114] Creating layer relu3
I1226 14:11:08.493979 121743 net.cpp:178] Creating Layer relu3
I1226 14:11:08.494027 121743 net.cpp:612] relu3 <- conv3
I1226 14:11:08.494067 121743 net.cpp:573] relu3 -> conv3 (in-place)
I1226 14:11:08.494189 121743 net.cpp:228] Setting up relu3
I1226 14:11:08.494298 121743 net.cpp:235] Top shape: 256 384 13 13 (16613376)
I1226 14:11:08.494324 121743 net.cpp:243] Memory required for data: 1872590848
I1226 14:11:08.494411 121743 layer_factory.hpp:114] Creating layer conv4
I1226 14:11:08.494520 121743 net.cpp:178] Creating Layer conv4
I1226 14:11:08.494575 121743 net.cpp:612] conv4 <- conv3
I1226 14:11:08.495048 121743 net.cpp:586] conv4 -> conv4
I1226 14:11:08.616508 98828 net.cpp:228] Setting up conv3
I1226 14:11:08.616621 98828 net.cpp:235] Top shape: 256 384 13 13 (16613376)
I1226 14:11:08.616644 98828 net.cpp:243] Memory required for data: 1806137344
I1226 14:11:08.616714 98828 layer_factory.hpp:114] Creating layer relu3
I1226 14:11:08.616794 98828 net.cpp:178] Creating Layer relu3
I1226 14:11:08.616830 98828 net.cpp:612] relu3 <- conv3
I1226 14:11:08.616870 98828 net.cpp:573] relu3 -> conv3 (in-place)
I1226 14:11:08.616945 98828 net.cpp:228] Setting up relu3
I1226 14:11:08.616994 98828 net.cpp:235] Top shape: 256 384 13 13 (16613376)
I1226 14:11:08.617018 98828 net.cpp:243] Memory required for data: 1872590848
I1226 14:11:08.617045 98828 layer_factory.hpp:114] Creating layer conv4
I1226 14:11:08.617143 98828 net.cpp:178] Creating Layer conv4
I1226 14:11:08.617175 98828 net.cpp:612] conv4 <- conv3
I1226 14:11:08.617233 98828 net.cpp:586] conv4 -> conv4
I1226 14:11:08.630059 91711 net.cpp:228] Setting up conv4
I1226 14:11:08.630172 91711 net.cpp:235] Top shape: 256 384 13 13 (16613376)
I1226 14:11:08.630200 91711 net.cpp:243] Memory required for data: 1939044352
I1226 14:11:08.630314 91711 layer_factory.hpp:114] Creating layer relu4
I1226 14:11:08.630391 91711 net.cpp:178] Creating Layer relu4
I1226 14:11:08.630430 91711 net.cpp:612] relu4 <- conv4
I1226 14:11:08.630478 91711 net.cpp:573] relu4 -> conv4 (in-place)
I1226 14:11:08.630555 91711 net.cpp:228] Setting up relu4
I1226 14:11:08.630599 91711 net.cpp:235] Top shape: 256 384 13 13 (16613376)
I1226 14:11:08.630625 91711 net.cpp:243] Memory required for data: 2005497856
I1226 14:11:08.630653 91711 layer_factory.hpp:114] Creating layer conv5
I1226 14:11:08.630719 91711 net.cpp:178] Creating Layer conv5
I1226 14:11:08.630753 91711 net.cpp:612] conv5 <- conv4
I1226 14:11:08.630794 91711 net.cpp:586] conv5 -> conv5
I1226 14:11:08.685717 92274 net.cpp:228] Setting up conv4
I1226 14:11:08.685865 92274 net.cpp:235] Top shape: 256 384 13 13 (16613376)
I1226 14:11:08.685897 92274 net.cpp:243] Memory required for data: 1939044352
I1226 14:11:08.685958 92274 layer_factory.hpp:114] Creating layer relu4
I1226 14:11:08.686105 92274 net.cpp:178] Creating Layer relu4
I1226 14:11:08.686223 92274 net.cpp:612] relu4 <- conv4
I1226 14:11:08.686642 92274 net.cpp:573] relu4 -> conv4 (in-place)
I1226 14:11:08.686882 92274 net.cpp:228] Setting up relu4
I1226 14:11:08.686944 92274 net.cpp:235] Top shape: 256 384 13 13 (16613376)
I1226 14:11:08.686969 92274 net.cpp:243] Memory required for data: 2005497856
I1226 14:11:08.687000 92274 layer_factory.hpp:114] Creating layer conv5
I1226 14:11:08.687126 92274 net.cpp:178] Creating Layer conv5
I1226 14:11:08.687270 92274 net.cpp:612] conv5 <- conv4
I1226 14:11:08.687500 92274 net.cpp:586] conv5 -> conv5
I1226 14:11:08.741083 90185 net.cpp:228] Setting up conv4
I1226 14:11:08.741406 90185 net.cpp:235] Top shape: 256 384 13 13 (16613376)
I1226 14:11:08.741487 90185 net.cpp:243] Memory required for data: 1939044352
I1226 14:11:08.741703 90185 layer_factory.hpp:114] Creating layer relu4
I1226 14:11:08.741974 90185 net.cpp:178] Creating Layer relu4
I1226 14:11:08.742241 90185 net.cpp:612] relu4 <- conv4
I1226 14:11:08.742323 90185 net.cpp:573] relu4 -> conv4 (in-place)
I1226 14:11:08.742548 90185 net.cpp:228] Setting up relu4
I1226 14:11:08.742779 90185 net.cpp:235] Top shape: 256 384 13 13 (16613376)
I1226 14:11:08.743108 90185 net.cpp:243] Memory required for data: 2005497856
I1226 14:11:08.743212 90185 layer_factory.hpp:114] Creating layer conv5
I1226 14:11:08.743455 90185 net.cpp:178] Creating Layer conv5
I1226 14:11:08.743544 90185 net.cpp:612] conv5 <- conv4
I1226 14:11:08.743808 90185 net.cpp:586] conv5 -> conv5
I1226 14:11:08.820268 91711 net.cpp:228] Setting up conv5
I1226 14:11:08.820377 91711 net.cpp:235] Top shape: 256 256 13 13 (11075584)
I1226 14:11:08.820405 91711 net.cpp:243] Memory required for data: 2049800192
I1226 14:11:08.820497 91711 layer_factory.hpp:114] Creating layer relu5
I1226 14:11:08.820569 91711 net.cpp:178] Creating Layer relu5
I1226 14:11:08.820606 91711 net.cpp:612] relu5 <- conv5
I1226 14:11:08.820665 91711 net.cpp:573] relu5 -> conv5 (in-place)
I1226 14:11:08.820752 91711 net.cpp:228] Setting up relu5
I1226 14:11:08.820796 91711 net.cpp:235] Top shape: 256 256 13 13 (11075584)
I1226 14:11:08.820819 91711 net.cpp:243] Memory required for data: 2094102528
I1226 14:11:08.820854 91711 layer_factory.hpp:114] Creating layer pool5
I1226 14:11:08.820925 91711 net.cpp:178] Creating Layer pool5
I1226 14:11:08.820953 91711 net.cpp:612] pool5 <- conv5
I1226 14:11:08.820996 91711 net.cpp:586] pool5 -> pool5
I1226 14:11:08.821087 91711 net.cpp:228] Setting up pool5
I1226 14:11:08.821130 91711 net.cpp:235] Top shape: 256 256 6 6 (2359296)
I1226 14:11:08.821159 91711 net.cpp:243] Memory required for data: 2103539712
I1226 14:11:08.821194 91711 layer_factory.hpp:114] Creating layer fc6
I1226 14:11:08.806841 96952 net.cpp:228] Setting up conv1
I1226 14:11:08.806964 96952 net.cpp:235] Top shape: 256 96 55 55 (74342400)
I1226 14:11:08.806998 96952 net.cpp:243] Memory required for data: 455669760
I1226 14:11:08.807116 96952 layer_factory.hpp:114] Creating layer relu1
I1226 14:11:08.807202 96952 net.cpp:178] Creating Layer relu1
I1226 14:11:08.807246 96952 net.cpp:612] relu1 <- conv1
I1226 14:11:08.807302 96952 net.cpp:573] relu1 -> conv1 (in-place)
I1226 14:11:08.807418 96952 net.cpp:228] Setting up relu1
I1226 14:11:08.807473 96952 net.cpp:235] Top shape: 256 96 55 55 (74342400)
I1226 14:11:08.807499 96952 net.cpp:243] Memory required for data: 753039360
I1226 14:11:08.807529 96952 layer_factory.hpp:114] Creating layer norm1
I1226 14:11:08.807590 96952 net.cpp:178] Creating Layer norm1
I1226 14:11:08.807626 96952 net.cpp:612] norm1 <- conv1
I1226 14:11:08.807689 96952 net.cpp:586] norm1 -> norm1
I1226 14:11:08.839861 91711 net.cpp:178] Creating Layer fc6
I1226 14:11:08.839984 91711 net.cpp:612] fc6 <- pool5
I1226 14:11:08.840062 91711 net.cpp:586] fc6 -> fc6
I1226 14:11:08.822850 96952 net.cpp:228] Setting up norm1
I1226 14:11:08.822968 96952 net.cpp:235] Top shape: 256 96 55 55 (74342400)
I1226 14:11:08.822998 96952 net.cpp:243] Memory required for data: 1050408960
I1226 14:11:08.823035 96952 layer_factory.hpp:114] Creating layer pool1
I1226 14:11:08.823112 96952 net.cpp:178] Creating Layer pool1
I1226 14:11:08.823153 96952 net.cpp:612] pool1 <- norm1
I1226 14:11:08.823212 96952 net.cpp:586] pool1 -> pool1
I1226 14:11:08.823341 96952 net.cpp:228] Setting up pool1
I1226 14:11:08.823393 96952 net.cpp:235] Top shape: 256 96 27 27 (17915904)
I1226 14:11:08.823418 96952 net.cpp:243] Memory required for data: 1122072576
I1226 14:11:08.823447 96952 layer_factory.hpp:114] Creating layer conv2
I1226 14:11:08.823539 96952 net.cpp:178] Creating Layer conv2
I1226 14:11:08.823576 96952 net.cpp:612] conv2 <- pool1
I1226 14:11:08.823618 96952 net.cpp:586] conv2 -> conv2
I1226 14:11:08.851933 91405 net.cpp:228] Setting up conv4
I1226 14:11:08.852052 91405 net.cpp:235] Top shape: 256 384 13 13 (16613376)
I1226 14:11:08.852084 91405 net.cpp:243] Memory required for data: 1939044352
I1226 14:11:08.852147 91405 layer_factory.hpp:114] Creating layer relu4
I1226 14:11:08.852246 91405 net.cpp:178] Creating Layer relu4
I1226 14:11:08.852293 91405 net.cpp:612] relu4 <- conv4
I1226 14:11:08.852345 91405 net.cpp:573] relu4 -> conv4 (in-place)
I1226 14:11:08.852448 91405 net.cpp:228] Setting up relu4
I1226 14:11:08.852494 91405 net.cpp:235] Top shape: 256 384 13 13 (16613376)
I1226 14:11:08.852521 91405 net.cpp:243] Memory required for data: 2005497856
I1226 14:11:08.852552 91405 layer_factory.hpp:114] Creating layer conv5
I1226 14:11:08.852640 91405 net.cpp:178] Creating Layer conv5
I1226 14:11:08.852675 91405 net.cpp:612] conv5 <- conv4
I1226 14:11:08.852751 91405 net.cpp:586] conv5 -> conv5
I1226 14:11:08.880558 95316 net.cpp:228] Setting up conv1
I1226 14:11:08.880677 95316 net.cpp:235] Top shape: 256 96 55 55 (74342400)
I1226 14:11:08.880707 95316 net.cpp:243] Memory required for data: 455669760
I1226 14:11:08.880847 95316 layer_factory.hpp:114] Creating layer relu1
I1226 14:11:08.880934 95316 net.cpp:178] Creating Layer relu1
I1226 14:11:08.880977 95316 net.cpp:612] relu1 <- conv1
I1226 14:11:08.881037 95316 net.cpp:573] relu1 -> conv1 (in-place)
I1226 14:11:08.881150 95316 net.cpp:228] Setting up relu1
I1226 14:11:08.881201 95316 net.cpp:235] Top shape: 256 96 55 55 (74342400)
I1226 14:11:08.881227 95316 net.cpp:243] Memory required for data: 753039360
I1226 14:11:08.881258 95316 layer_factory.hpp:114] Creating layer norm1
I1226 14:11:08.881330 95316 net.cpp:178] Creating Layer norm1
I1226 14:11:08.881357 95316 net.cpp:612] norm1 <- conv1
I1226 14:11:08.881415 95316 net.cpp:586] norm1 -> norm1
I1226 14:11:08.881629 95316 net.cpp:228] Setting up norm1
I1226 14:11:08.881713 95316 net.cpp:235] Top shape: 256 96 55 55 (74342400)
I1226 14:11:08.881738 95316 net.cpp:243] Memory required for data: 1050408960
I1226 14:11:08.881768 95316 layer_factory.hpp:114] Creating layer pool1
I1226 14:11:08.881850 95316 net.cpp:178] Creating Layer pool1
I1226 14:11:08.881889 95316 net.cpp:612] pool1 <- norm1
I1226 14:11:08.881940 95316 net.cpp:586] pool1 -> pool1
I1226 14:11:08.882048 95316 net.cpp:228] Setting up pool1
I1226 14:11:08.882097 95316 net.cpp:235] Top shape: 256 96 27 27 (17915904)
I1226 14:11:08.882120 95316 net.cpp:243] Memory required for data: 1122072576
I1226 14:11:08.882150 95316 layer_factory.hpp:114] Creating layer conv2
I1226 14:11:08.882225 95316 net.cpp:178] Creating Layer conv2
I1226 14:11:08.882259 95316 net.cpp:612] conv2 <- pool1
I1226 14:11:08.882300 95316 net.cpp:586] conv2 -> conv2
I1226 14:11:08.897274 121743 net.cpp:228] Setting up conv4
I1226 14:11:08.897394 121743 net.cpp:235] Top shape: 256 384 13 13 (16613376)
I1226 14:11:08.897439 121743 net.cpp:243] Memory required for data: 1939044352
I1226 14:11:08.897501 121743 layer_factory.hpp:114] Creating layer relu4
I1226 14:11:08.897696 121743 net.cpp:178] Creating Layer relu4
I1226 14:11:08.897814 121743 net.cpp:612] relu4 <- conv4
I1226 14:11:08.897856 121743 net.cpp:573] relu4 -> conv4 (in-place)
I1226 14:11:08.898046 121743 net.cpp:228] Setting up relu4
I1226 14:11:08.899499 121743 net.cpp:235] Top shape: 256 384 13 13 (16613376)
I1226 14:11:08.899588 121743 net.cpp:243] Memory required for data: 2005497856
I1226 14:11:08.899657 121743 layer_factory.hpp:114] Creating layer conv5
I1226 14:11:08.899770 121743 net.cpp:178] Creating Layer conv5
I1226 14:11:08.899873 121743 net.cpp:612] conv5 <- conv4
I1226 14:11:08.899965 121743 net.cpp:586] conv5 -> conv5
I1226 14:11:08.937794 92274 net.cpp:228] Setting up conv5
I1226 14:11:08.937928 92274 net.cpp:235] Top shape: 256 256 13 13 (11075584)
I1226 14:11:08.937961 92274 net.cpp:243] Memory required for data: 2049800192
I1226 14:11:08.938040 92274 layer_factory.hpp:114] Creating layer relu5
I1226 14:11:08.938156 92274 net.cpp:178] Creating Layer relu5
I1226 14:11:08.938205 92274 net.cpp:612] relu5 <- conv5
I1226 14:11:08.938268 92274 net.cpp:573] relu5 -> conv5 (in-place)
I1226 14:11:08.938397 92274 net.cpp:228] Setting up relu5
I1226 14:11:08.938765 92274 net.cpp:235] Top shape: 256 256 13 13 (11075584)
I1226 14:11:08.938853 92274 net.cpp:243] Memory required for data: 2094102528
I1226 14:11:08.938901 92274 layer_factory.hpp:114] Creating layer pool5
I1226 14:11:08.939018 92274 net.cpp:178] Creating Layer pool5
I1226 14:11:08.939118 92274 net.cpp:612] pool5 <- conv5
I1226 14:11:08.939162 92274 net.cpp:586] pool5 -> pool5
I1226 14:11:08.939262 92274 net.cpp:228] Setting up pool5
I1226 14:11:08.939335 92274 net.cpp:235] Top shape: 256 256 6 6 (2359296)
I1226 14:11:08.939384 92274 net.cpp:243] Memory required for data: 2103539712
I1226 14:11:08.939414 92274 layer_factory.hpp:114] Creating layer fc6
I1226 14:11:08.939707 92274 net.cpp:178] Creating Layer fc6
I1226 14:11:08.939743 92274 net.cpp:612] fc6 <- pool5
I1226 14:11:08.939780 92274 net.cpp:586] fc6 -> fc6
I1226 14:11:08.988157 90185 net.cpp:228] Setting up conv5
I1226 14:11:08.988288 90185 net.cpp:235] Top shape: 256 256 13 13 (11075584)
I1226 14:11:08.988314 90185 net.cpp:243] Memory required for data: 2049800192
I1226 14:11:08.988402 90185 layer_factory.hpp:114] Creating layer relu5
I1226 14:11:08.988461 90185 net.cpp:178] Creating Layer relu5
I1226 14:11:08.988497 90185 net.cpp:612] relu5 <- conv5
I1226 14:11:08.988533 90185 net.cpp:573] relu5 -> conv5 (in-place)
I1226 14:11:08.988653 90185 net.cpp:228] Setting up relu5
I1226 14:11:08.988703 90185 net.cpp:235] Top shape: 256 256 13 13 (11075584)
I1226 14:11:08.988731 90185 net.cpp:243] Memory required for data: 2094102528
I1226 14:11:08.988759 90185 layer_factory.hpp:114] Creating layer pool5
I1226 14:11:08.988804 90185 net.cpp:178] Creating Layer pool5
I1226 14:11:08.988832 90185 net.cpp:612] pool5 <- conv5
I1226 14:11:08.988865 90185 net.cpp:586] pool5 -> pool5
I1226 14:11:08.988941 90185 net.cpp:228] Setting up pool5
I1226 14:11:08.988978 90185 net.cpp:235] Top shape: 256 256 6 6 (2359296)
I1226 14:11:08.989003 90185 net.cpp:243] Memory required for data: 2103539712
I1226 14:11:08.989028 90185 layer_factory.hpp:114] Creating layer fc6
I1226 14:11:08.989080 90185 net.cpp:178] Creating Layer fc6
I1226 14:11:08.989110 90185 net.cpp:612] fc6 <- pool5
I1226 14:11:08.989158 90185 net.cpp:586] fc6 -> fc6
I1226 14:11:09.034369 98828 net.cpp:228] Setting up conv4
I1226 14:11:09.034476 98828 net.cpp:235] Top shape: 256 384 13 13 (16613376)
I1226 14:11:09.034510 98828 net.cpp:243] Memory required for data: 1939044352
I1226 14:11:09.034579 98828 layer_factory.hpp:114] Creating layer relu4
I1226 14:11:09.034704 98828 net.cpp:178] Creating Layer relu4
I1226 14:11:09.034765 98828 net.cpp:612] relu4 <- conv4
I1226 14:11:09.034843 98828 net.cpp:573] relu4 -> conv4 (in-place)
I1226 14:11:09.034986 98828 net.cpp:228] Setting up relu4
I1226 14:11:09.035040 98828 net.cpp:235] Top shape: 256 384 13 13 (16613376)
I1226 14:11:09.035092 98828 net.cpp:243] Memory required for data: 2005497856
I1226 14:11:09.035130 98828 layer_factory.hpp:114] Creating layer conv5
I1226 14:11:09.035221 98828 net.cpp:178] Creating Layer conv5
I1226 14:11:09.035267 98828 net.cpp:612] conv5 <- conv4
I1226 14:11:09.035315 98828 net.cpp:586] conv5 -> conv5
I1226 14:11:09.096554 91405 net.cpp:228] Setting up conv5
I1226 14:11:09.096670 91405 net.cpp:235] Top shape: 256 256 13 13 (11075584)
I1226 14:11:09.096698 91405 net.cpp:243] Memory required for data: 2049800192
I1226 14:11:09.096803 91405 layer_factory.hpp:114] Creating layer relu5
I1226 14:11:09.096892 91405 net.cpp:178] Creating Layer relu5
I1226 14:11:09.096942 91405 net.cpp:612] relu5 <- conv5
I1226 14:11:09.096983 91405 net.cpp:573] relu5 -> conv5 (in-place)
I1226 14:11:09.097085 91405 net.cpp:228] Setting up relu5
I1226 14:11:09.097134 91405 net.cpp:235] Top shape: 256 256 13 13 (11075584)
I1226 14:11:09.097164 91405 net.cpp:243] Memory required for data: 2094102528
I1226 14:11:09.097194 91405 layer_factory.hpp:114] Creating layer pool5
I1226 14:11:09.097245 91405 net.cpp:178] Creating Layer pool5
I1226 14:11:09.097273 91405 net.cpp:612] pool5 <- conv5
I1226 14:11:09.097316 91405 net.cpp:586] pool5 -> pool5
I1226 14:11:09.097419 91405 net.cpp:228] Setting up pool5
I1226 14:11:09.097468 91405 net.cpp:235] Top shape: 256 256 6 6 (2359296)
I1226 14:11:09.097491 91405 net.cpp:243] Memory required for data: 2103539712
I1226 14:11:09.097518 91405 layer_factory.hpp:114] Creating layer fc6
I1226 14:11:09.097597 91405 net.cpp:178] Creating Layer fc6
I1226 14:11:09.097635 91405 net.cpp:612] fc6 <- pool5
I1226 14:11:09.097681 91405 net.cpp:586] fc6 -> fc6
I1226 14:11:09.175945 121743 net.cpp:228] Setting up conv5
I1226 14:11:09.176069 121743 net.cpp:235] Top shape: 256 256 13 13 (11075584)
I1226 14:11:09.176097 121743 net.cpp:243] Memory required for data: 2049800192
I1226 14:11:09.176173 121743 layer_factory.hpp:114] Creating layer relu5
I1226 14:11:09.176240 121743 net.cpp:178] Creating Layer relu5
I1226 14:11:09.176277 121743 net.cpp:612] relu5 <- conv5
I1226 14:11:09.176323 121743 net.cpp:573] relu5 -> conv5 (in-place)
I1226 14:11:09.176420 121743 net.cpp:228] Setting up relu5
I1226 14:11:09.176465 121743 net.cpp:235] Top shape: 256 256 13 13 (11075584)
I1226 14:11:09.176487 121743 net.cpp:243] Memory required for data: 2094102528
I1226 14:11:09.176515 121743 layer_factory.hpp:114] Creating layer pool5
I1226 14:11:09.176578 121743 net.cpp:178] Creating Layer pool5
I1226 14:11:09.176627 121743 net.cpp:612] pool5 <- conv5
I1226 14:11:09.176671 121743 net.cpp:586] pool5 -> pool5
I1226 14:11:09.176770 121743 net.cpp:228] Setting up pool5
I1226 14:11:09.176818 121743 net.cpp:235] Top shape: 256 256 6 6 (2359296)
I1226 14:11:09.176846 121743 net.cpp:243] Memory required for data: 2103539712
I1226 14:11:09.176872 121743 layer_factory.hpp:114] Creating layer fc6
I1226 14:11:09.176928 121743 net.cpp:178] Creating Layer fc6
I1226 14:11:09.176961 121743 net.cpp:612] fc6 <- pool5
I1226 14:11:09.177013 121743 net.cpp:586] fc6 -> fc6
I1226 14:11:09.324849 98828 net.cpp:228] Setting up conv5
I1226 14:11:09.324960 98828 net.cpp:235] Top shape: 256 256 13 13 (11075584)
I1226 14:11:09.324987 98828 net.cpp:243] Memory required for data: 2049800192
I1226 14:11:09.325081 98828 layer_factory.hpp:114] Creating layer relu5
I1226 14:11:09.325170 98828 net.cpp:178] Creating Layer relu5
I1226 14:11:09.325211 98828 net.cpp:612] relu5 <- conv5
I1226 14:11:09.325251 98828 net.cpp:573] relu5 -> conv5 (in-place)
I1226 14:11:09.325348 98828 net.cpp:228] Setting up relu5
I1226 14:11:09.325392 98828 net.cpp:235] Top shape: 256 256 13 13 (11075584)
I1226 14:11:09.325417 98828 net.cpp:243] Memory required for data: 2094102528
I1226 14:11:09.325448 98828 layer_factory.hpp:114] Creating layer pool5
I1226 14:11:09.325496 98828 net.cpp:178] Creating Layer pool5
I1226 14:11:09.325523 98828 net.cpp:612] pool5 <- conv5
I1226 14:11:09.325561 98828 net.cpp:586] pool5 -> pool5
I1226 14:11:09.325651 98828 net.cpp:228] Setting up pool5
I1226 14:11:09.325703 98828 net.cpp:235] Top shape: 256 256 6 6 (2359296)
I1226 14:11:09.325727 98828 net.cpp:243] Memory required for data: 2103539712
I1226 14:11:09.325757 98828 layer_factory.hpp:114] Creating layer fc6
I1226 14:11:09.325826 98828 net.cpp:178] Creating Layer fc6
I1226 14:11:09.325858 98828 net.cpp:612] fc6 <- pool5
I1226 14:11:09.325906 98828 net.cpp:586] fc6 -> fc6
I1226 14:11:10.371073 96952 net.cpp:228] Setting up conv2
I1226 14:11:10.371183 96952 net.cpp:235] Top shape: 256 256 27 27 (47775744)
I1226 14:11:10.371213 96952 net.cpp:243] Memory required for data: 1313175552
I1226 14:11:10.371290 96952 layer_factory.hpp:114] Creating layer relu2
I1226 14:11:10.371376 96952 net.cpp:178] Creating Layer relu2
I1226 14:11:10.371417 96952 net.cpp:612] relu2 <- conv2
I1226 14:11:10.371476 96952 net.cpp:573] relu2 -> conv2 (in-place)
I1226 14:11:10.385166 95316 net.cpp:228] Setting up conv2
I1226 14:11:10.385282 95316 net.cpp:235] Top shape: 256 256 27 27 (47775744)
I1226 14:11:10.385315 95316 net.cpp:243] Memory required for data: 1313175552
I1226 14:11:10.385392 95316 layer_factory.hpp:114] Creating layer relu2
I1226 14:11:10.385612 95316 net.cpp:178] Creating Layer relu2
I1226 14:11:10.385660 95316 net.cpp:612] relu2 <- conv2
I1226 14:11:10.385715 95316 net.cpp:573] relu2 -> conv2 (in-place)
I1226 14:11:10.385848 95316 net.cpp:228] Setting up relu2
I1226 14:11:10.385908 95316 net.cpp:235] Top shape: 256 256 27 27 (47775744)
I1226 14:11:10.385936 95316 net.cpp:243] Memory required for data: 1504278528
I1226 14:11:10.385968 95316 layer_factory.hpp:114] Creating layer norm2
I1226 14:11:10.386030 95316 net.cpp:178] Creating Layer norm2
I1226 14:11:10.386065 95316 net.cpp:612] norm2 <- conv2
I1226 14:11:10.386116 95316 net.cpp:586] norm2 -> norm2
I1226 14:11:10.386219 95316 net.cpp:228] Setting up norm2
I1226 14:11:10.386272 95316 net.cpp:235] Top shape: 256 256 27 27 (47775744)
I1226 14:11:10.386298 95316 net.cpp:243] Memory required for data: 1695381504
I1226 14:11:10.386328 95316 layer_factory.hpp:114] Creating layer pool2
I1226 14:11:10.386385 95316 net.cpp:178] Creating Layer pool2
I1226 14:11:10.386421 95316 net.cpp:612] pool2 <- norm2
I1226 14:11:10.386459 95316 net.cpp:586] pool2 -> pool2
I1226 14:11:10.386564 95316 net.cpp:228] Setting up pool2
I1226 14:11:10.386718 95316 net.cpp:235] Top shape: 256 256 13 13 (11075584)
I1226 14:11:10.386749 95316 net.cpp:243] Memory required for data: 1739683840
I1226 14:11:10.386781 95316 layer_factory.hpp:114] Creating layer conv3
I1226 14:11:10.386898 95316 net.cpp:178] Creating Layer conv3
I1226 14:11:10.386943 95316 net.cpp:612] conv3 <- pool2
I1226 14:11:10.386999 95316 net.cpp:586] conv3 -> conv3
I1226 14:11:10.383924 96952 net.cpp:228] Setting up relu2
I1226 14:11:10.384029 96952 net.cpp:235] Top shape: 256 256 27 27 (47775744)
I1226 14:11:10.384057 96952 net.cpp:243] Memory required for data: 1504278528
I1226 14:11:10.384093 96952 layer_factory.hpp:114] Creating layer norm2
I1226 14:11:10.384156 96952 net.cpp:178] Creating Layer norm2
I1226 14:11:10.384197 96952 net.cpp:612] norm2 <- conv2
I1226 14:11:10.384243 96952 net.cpp:586] norm2 -> norm2
I1226 14:11:10.384352 96952 net.cpp:228] Setting up norm2
I1226 14:11:10.384407 96952 net.cpp:235] Top shape: 256 256 27 27 (47775744)
I1226 14:11:10.384430 96952 net.cpp:243] Memory required for data: 1695381504
I1226 14:11:10.384459 96952 layer_factory.hpp:114] Creating layer pool2
I1226 14:11:10.384516 96952 net.cpp:178] Creating Layer pool2
I1226 14:11:10.384652 96952 net.cpp:612] pool2 <- norm2
I1226 14:11:10.384697 96952 net.cpp:586] pool2 -> pool2
I1226 14:11:10.384816 96952 net.cpp:228] Setting up pool2
I1226 14:11:10.384969 96952 net.cpp:235] Top shape: 256 256 13 13 (11075584)
I1226 14:11:10.384999 96952 net.cpp:243] Memory required for data: 1739683840
I1226 14:11:10.385031 96952 layer_factory.hpp:114] Creating layer conv3
I1226 14:11:10.385233 96952 net.cpp:178] Creating Layer conv3
I1226 14:11:10.385319 96952 net.cpp:612] conv3 <- pool2
I1226 14:11:10.385375 96952 net.cpp:586] conv3 -> conv3
I1226 14:11:12.287999 95316 net.cpp:228] Setting up conv3
I1226 14:11:12.288111 95316 net.cpp:235] Top shape: 256 384 13 13 (16613376)
I1226 14:11:12.288142 95316 net.cpp:243] Memory required for data: 1806137344
I1226 14:11:12.288221 95316 layer_factory.hpp:114] Creating layer relu3
I1226 14:11:12.288419 95316 net.cpp:178] Creating Layer relu3
I1226 14:11:12.288457 95316 net.cpp:612] relu3 <- conv3
I1226 14:11:12.288503 95316 net.cpp:573] relu3 -> conv3 (in-place)
I1226 14:11:12.288625 95316 net.cpp:228] Setting up relu3
I1226 14:11:12.288682 95316 net.cpp:235] Top shape: 256 384 13 13 (16613376)
I1226 14:11:12.288708 95316 net.cpp:243] Memory required for data: 1872590848
I1226 14:11:12.288740 95316 layer_factory.hpp:114] Creating layer conv4
I1226 14:11:12.288863 95316 net.cpp:178] Creating Layer conv4
I1226 14:11:12.288909 95316 net.cpp:612] conv4 <- conv3
I1226 14:11:12.288969 95316 net.cpp:586] conv4 -> conv4
I1226 14:11:12.325630 96952 net.cpp:228] Setting up conv3
I1226 14:11:12.326092 96952 net.cpp:235] Top shape: 256 384 13 13 (16613376)
I1226 14:11:12.326273 96952 net.cpp:243] Memory required for data: 1806137344
I1226 14:11:12.326407 96952 layer_factory.hpp:114] Creating layer relu3
I1226 14:11:12.326596 96952 net.cpp:178] Creating Layer relu3
I1226 14:11:12.326769 96952 net.cpp:612] relu3 <- conv3
I1226 14:11:12.326839 96952 net.cpp:573] relu3 -> conv3 (in-place)
I1226 14:11:12.327368 96952 net.cpp:228] Setting up relu3
I1226 14:11:12.327512 96952 net.cpp:235] Top shape: 256 384 13 13 (16613376)
I1226 14:11:12.327687 96952 net.cpp:243] Memory required for data: 1872590848
I1226 14:11:12.327746 96952 layer_factory.hpp:114] Creating layer conv4
I1226 14:11:12.327936 96952 net.cpp:178] Creating Layer conv4
I1226 14:11:12.328089 96952 net.cpp:612] conv4 <- conv3
I1226 14:11:12.328161 96952 net.cpp:586] conv4 -> conv4
I1226 14:11:13.141988 92483 net.cpp:228] Setting up fc6
I1226 14:11:13.142101 92483 net.cpp:235] Top shape: 256 4096 (1048576)
I1226 14:11:13.142130 92483 net.cpp:243] Memory required for data: 2107734016
I1226 14:11:13.142189 92483 layer_factory.hpp:114] Creating layer relu6
I1226 14:11:13.142266 92483 net.cpp:178] Creating Layer relu6
I1226 14:11:13.142386 92483 net.cpp:612] relu6 <- fc6
I1226 14:11:13.142446 92483 net.cpp:573] relu6 -> fc6 (in-place)
I1226 14:11:13.142544 92483 net.cpp:228] Setting up relu6
I1226 14:11:13.142696 92483 net.cpp:235] Top shape: 256 4096 (1048576)
I1226 14:11:13.142727 92483 net.cpp:243] Memory required for data: 2111928320
I1226 14:11:13.142760 92483 layer_factory.hpp:114] Creating layer drop6
I1226 14:11:13.142853 92483 net.cpp:178] Creating Layer drop6
I1226 14:11:13.142885 92483 net.cpp:612] drop6 <- fc6
I1226 14:11:13.142923 92483 net.cpp:573] drop6 -> fc6 (in-place)
I1226 14:11:13.142982 92483 net.cpp:228] Setting up drop6
I1226 14:11:13.143025 92483 net.cpp:235] Top shape: 256 4096 (1048576)
I1226 14:11:13.143049 92483 net.cpp:243] Memory required for data: 2116122624
I1226 14:11:13.143075 92483 layer_factory.hpp:114] Creating layer fc7
I1226 14:11:13.143148 92483 net.cpp:178] Creating Layer fc7
I1226 14:11:13.143185 92483 net.cpp:612] fc7 <- fc6
I1226 14:11:13.143234 92483 net.cpp:586] fc7 -> fc7
I1226 14:11:13.967447 95316 net.cpp:228] Setting up conv4
I1226 14:11:13.967561 95316 net.cpp:235] Top shape: 256 384 13 13 (16613376)
I1226 14:11:13.967591 95316 net.cpp:243] Memory required for data: 1939044352
I1226 14:11:13.967653 95316 layer_factory.hpp:114] Creating layer relu4
I1226 14:11:13.967725 95316 net.cpp:178] Creating Layer relu4
I1226 14:11:13.967766 95316 net.cpp:612] relu4 <- conv4
I1226 14:11:13.967844 95316 net.cpp:573] relu4 -> conv4 (in-place)
I1226 14:11:13.967970 95316 net.cpp:228] Setting up relu4
I1226 14:11:13.968031 95316 net.cpp:235] Top shape: 256 384 13 13 (16613376)
I1226 14:11:13.968060 95316 net.cpp:243] Memory required for data: 2005497856
I1226 14:11:13.968092 95316 layer_factory.hpp:114] Creating layer conv5
I1226 14:11:13.968191 95316 net.cpp:178] Creating Layer conv5
I1226 14:11:13.968230 95316 net.cpp:612] conv5 <- conv4
I1226 14:11:13.968276 95316 net.cpp:586] conv5 -> conv5
I1226 14:11:14.036826 96952 net.cpp:228] Setting up conv4
I1226 14:11:14.036980 96952 net.cpp:235] Top shape: 256 384 13 13 (16613376)
I1226 14:11:14.037017 96952 net.cpp:243] Memory required for data: 1939044352
I1226 14:11:14.037464 96952 layer_factory.hpp:114] Creating layer relu4
I1226 14:11:14.037675 96952 net.cpp:178] Creating Layer relu4
I1226 14:11:14.037888 96952 net.cpp:612] relu4 <- conv4
I1226 14:11:14.037968 96952 net.cpp:573] relu4 -> conv4 (in-place)
I1226 14:11:14.038404 96952 net.cpp:228] Setting up relu4
I1226 14:11:14.038504 96952 net.cpp:235] Top shape: 256 384 13 13 (16613376)
I1226 14:11:14.038589 96952 net.cpp:243] Memory required for data: 2005497856
I1226 14:11:14.038663 96952 layer_factory.hpp:114] Creating layer conv5
I1226 14:11:14.038960 96952 net.cpp:178] Creating Layer conv5
I1226 14:11:14.039471 96952 net.cpp:612] conv5 <- conv4
I1226 14:11:14.039643 96952 net.cpp:586] conv5 -> conv5
I1226 14:11:15.097525 95316 net.cpp:228] Setting up conv5
I1226 14:11:15.097704 95316 net.cpp:235] Top shape: 256 256 13 13 (11075584)
I1226 14:11:15.097748 95316 net.cpp:243] Memory required for data: 2049800192
I1226 14:11:15.097867 95316 layer_factory.hpp:114] Creating layer relu5
I1226 14:11:15.097995 95316 net.cpp:178] Creating Layer relu5
I1226 14:11:15.098062 95316 net.cpp:612] relu5 <- conv5
I1226 14:11:15.098158 95316 net.cpp:573] relu5 -> conv5 (in-place)
I1226 14:11:15.098417 95316 net.cpp:228] Setting up relu5
I1226 14:11:15.098883 95316 net.cpp:235] Top shape: 256 256 13 13 (11075584)
I1226 14:11:15.099035 95316 net.cpp:243] Memory required for data: 2094102528
I1226 14:11:15.099098 95316 layer_factory.hpp:114] Creating layer pool5
I1226 14:11:15.099207 95316 net.cpp:178] Creating Layer pool5
I1226 14:11:15.099339 95316 net.cpp:612] pool5 <- conv5
I1226 14:11:15.099388 95316 net.cpp:586] pool5 -> pool5
I1226 14:11:15.100111 95316 net.cpp:228] Setting up pool5
I1226 14:11:15.100244 95316 net.cpp:235] Top shape: 256 256 6 6 (2359296)
I1226 14:11:15.100275 95316 net.cpp:243] Memory required for data: 2103539712
I1226 14:11:15.100313 95316 layer_factory.hpp:114] Creating layer fc6
I1226 14:11:15.100411 95316 net.cpp:178] Creating Layer fc6
I1226 14:11:15.100535 95316 net.cpp:612] fc6 <- pool5
I1226 14:11:15.100637 95316 net.cpp:586] fc6 -> fc6
I1226 14:11:15.270503 96952 net.cpp:228] Setting up conv5
I1226 14:11:15.270643 96952 net.cpp:235] Top shape: 256 256 13 13 (11075584)
I1226 14:11:15.270673 96952 net.cpp:243] Memory required for data: 2049800192
I1226 14:11:15.270828 96952 layer_factory.hpp:114] Creating layer relu5
I1226 14:11:15.270905 96952 net.cpp:178] Creating Layer relu5
I1226 14:11:15.270946 96952 net.cpp:612] relu5 <- conv5
I1226 14:11:15.270988 96952 net.cpp:573] relu5 -> conv5 (in-place)
I1226 14:11:15.271085 96952 net.cpp:228] Setting up relu5
I1226 14:11:15.271137 96952 net.cpp:235] Top shape: 256 256 13 13 (11075584)
I1226 14:11:15.271162 96952 net.cpp:243] Memory required for data: 2094102528
I1226 14:11:15.271190 96952 layer_factory.hpp:114] Creating layer pool5
I1226 14:11:15.271251 96952 net.cpp:178] Creating Layer pool5
I1226 14:11:15.271286 96952 net.cpp:612] pool5 <- conv5
I1226 14:11:15.271325 96952 net.cpp:586] pool5 -> pool5
I1226 14:11:15.271416 96952 net.cpp:228] Setting up pool5
I1226 14:11:15.271466 96952 net.cpp:235] Top shape: 256 256 6 6 (2359296)
I1226 14:11:15.271491 96952 net.cpp:243] Memory required for data: 2103539712
I1226 14:11:15.271524 96952 layer_factory.hpp:114] Creating layer fc6
I1226 14:11:15.271585 96952 net.cpp:178] Creating Layer fc6
I1226 14:11:15.271620 96952 net.cpp:612] fc6 <- pool5
I1226 14:11:15.271659 96952 net.cpp:586] fc6 -> fc6
I1226 14:11:15.420254 92483 net.cpp:228] Setting up fc7
I1226 14:11:15.420367 92483 net.cpp:235] Top shape: 256 4096 (1048576)
I1226 14:11:15.420397 92483 net.cpp:243] Memory required for data: 2120316928
I1226 14:11:15.420480 92483 layer_factory.hpp:114] Creating layer relu7
I1226 14:11:15.420550 92483 net.cpp:178] Creating Layer relu7
I1226 14:11:15.420591 92483 net.cpp:612] relu7 <- fc7
I1226 14:11:15.420629 92483 net.cpp:573] relu7 -> fc7 (in-place)
I1226 14:11:15.420717 92483 net.cpp:228] Setting up relu7
I1226 14:11:15.420786 92483 net.cpp:235] Top shape: 256 4096 (1048576)
I1226 14:11:15.420843 92483 net.cpp:243] Memory required for data: 2124511232
I1226 14:11:15.420876 92483 layer_factory.hpp:114] Creating layer drop7
I1226 14:11:15.420914 92483 net.cpp:178] Creating Layer drop7
I1226 14:11:15.420943 92483 net.cpp:612] drop7 <- fc7
I1226 14:11:15.420977 92483 net.cpp:573] drop7 -> fc7 (in-place)
I1226 14:11:15.421021 92483 net.cpp:228] Setting up drop7
I1226 14:11:15.421063 92483 net.cpp:235] Top shape: 256 4096 (1048576)
I1226 14:11:15.421087 92483 net.cpp:243] Memory required for data: 2128705536
I1226 14:11:15.421113 92483 layer_factory.hpp:114] Creating layer fc8
I1226 14:11:15.421171 92483 net.cpp:178] Creating Layer fc8
I1226 14:11:15.421201 92483 net.cpp:612] fc8 <- fc7
I1226 14:11:15.421253 92483 net.cpp:586] fc8 -> fc8
I1226 14:11:15.974243 92483 net.cpp:228] Setting up fc8
I1226 14:11:15.974359 92483 net.cpp:235] Top shape: 256 1000 (256000)
I1226 14:11:15.974387 92483 net.cpp:243] Memory required for data: 2129729536
I1226 14:11:15.974467 92483 layer_factory.hpp:114] Creating layer fc8_fc8_0_split
I1226 14:11:15.974561 92483 net.cpp:178] Creating Layer fc8_fc8_0_split
I1226 14:11:15.974612 92483 net.cpp:612] fc8_fc8_0_split <- fc8
I1226 14:11:15.974717 92483 net.cpp:586] fc8_fc8_0_split -> fc8_fc8_0_split_0
I1226 14:11:15.974781 92483 net.cpp:586] fc8_fc8_0_split -> fc8_fc8_0_split_1
I1226 14:11:15.974895 92483 net.cpp:228] Setting up fc8_fc8_0_split
I1226 14:11:15.974941 92483 net.cpp:235] Top shape: 256 1000 (256000)
I1226 14:11:15.974980 92483 net.cpp:235] Top shape: 256 1000 (256000)
I1226 14:11:15.975004 92483 net.cpp:243] Memory required for data: 2131777536
I1226 14:11:15.975033 92483 layer_factory.hpp:114] Creating layer accuracy
I1226 14:11:15.975141 92483 net.cpp:178] Creating Layer accuracy
I1226 14:11:15.975173 92483 net.cpp:612] accuracy <- fc8_fc8_0_split_0
I1226 14:11:15.975205 92483 net.cpp:612] accuracy <- label_data_1_split_0
I1226 14:11:15.975261 92483 net.cpp:586] accuracy -> accuracy
…
I1226 14:11:16.010862 92483 net.cpp:307] data does not need backward computation.
I1226 14:11:16.010898 92483 net.cpp:349] This network produces output accuracy
I1226 14:11:16.010933 92483 net.cpp:349] This network produces output loss
I1226 14:11:16.011028 92483 net.cpp:363] Network initialization done.
I1226 14:11:16.011477 92483 solver.cpp:107] Solver scaffolding done.
I1226 14:11:16.011694 92483 caffe.cpp:212] Finetuning from /export/data1/stanford/hazy/gordon_bell/caffenet_knl/snapshot/caffenet_MN8_B1024/_iter_25000.caffemodel
I1226 14:11:17.540357 98828 net.cpp:228] Setting up fc6
I1226 14:11:17.540467 98828 net.cpp:235] Top shape: 256 4096 (1048576)
I1226 14:11:17.540498 98828 net.cpp:243] Memory required for data: 2107734016
I1226 14:11:17.540560 98828 layer_factory.hpp:114] Creating layer relu6
I1226 14:11:17.540639 98828 net.cpp:178] Creating Layer relu6
I1226 14:11:17.540680 98828 net.cpp:612] relu6 <- fc6
I1226 14:11:17.540752 98828 net.cpp:573] relu6 -> fc6 (in-place)
I1226 14:11:17.540977 98828 net.cpp:228] Setting up relu6
I1226 14:11:17.541049 98828 net.cpp:235] Top shape: 256 4096 (1048576)
I1226 14:11:17.541110 98828 net.cpp:243] Memory required for data: 2111928320
I1226 14:11:17.541148 98828 layer_factory.hpp:114] Creating layer drop6
I1226 14:11:17.541213 98828 net.cpp:178] Creating Layer drop6
I1226 14:11:17.541249 98828 net.cpp:612] drop6 <- fc6
I1226 14:11:17.541291 98828 net.cpp:573] drop6 -> fc6 (in-place)
I1226 14:11:17.541355 98828 net.cpp:228] Setting up drop6
I1226 14:11:17.541394 98828 net.cpp:235] Top shape: 256 4096 (1048576)
I1226 14:11:17.541419 98828 net.cpp:243] Memory required for data: 2116122624
I1226 14:11:17.541448 98828 layer_factory.hpp:114] Creating layer fc7
I1226 14:11:17.541507 98828 net.cpp:178] Creating Layer fc7
I1226 14:11:17.541535 98828 net.cpp:612] fc7 <- fc6
I1226 14:11:17.541574 98828 net.cpp:586] fc7 -> fc7
I1226 14:11:17.649605 91711 net.cpp:228] Setting up fc6
I1226 14:11:17.649746 91711 net.cpp:235] Top shape: 256 4096 (1048576)
I1226 14:11:17.649778 91711 net.cpp:243] Memory required for data: 2107734016
I1226 14:11:17.649864 91711 layer_factory.hpp:114] Creating layer relu6
I1226 14:11:17.650009 91711 net.cpp:178] Creating Layer relu6
I1226 14:11:17.650049 91711 net.cpp:612] relu6 <- fc6
I1226 14:11:17.650094 91711 net.cpp:573] relu6 -> fc6 (in-place)
I1226 14:11:17.650336 91711 net.cpp:228] Setting up relu6
I1226 14:11:17.650465 91711 net.cpp:235] Top shape: 256 4096 (1048576)
I1226 14:11:17.650493 91711 net.cpp:243] Memory required for data: 2111928320
I1226 14:11:17.650635 91711 layer_factory.hpp:114] Creating layer drop6
I1226 14:11:17.650715 91711 net.cpp:178] Creating Layer drop6
I1226 14:11:17.650754 91711 net.cpp:612] drop6 <- fc6
I1226 14:11:17.650791 91711 net.cpp:573] drop6 -> fc6 (in-place)
I1226 14:11:17.651154 91711 net.cpp:228] Setting up drop6
I1226 14:11:17.651324 91711 net.cpp:235] Top shape: 256 4096 (1048576)
I1226 14:11:17.651357 91711 net.cpp:243] Memory required for data: 2116122624
I1226 14:11:17.651433 91711 layer_factory.hpp:114] Creating layer fc7
I1226 14:11:17.651516 91711 net.cpp:178] Creating Layer fc7
I1226 14:11:17.651577 91711 net.cpp:612] fc7 <- fc6
I1226 14:11:17.651623 91711 net.cpp:586] fc7 -> fc7
I1226 14:11:17.678467 92274 net.cpp:228] Setting up fc6
I1226 14:11:17.678581 92274 net.cpp:235] Top shape: 256 4096 (1048576)
I1226 14:11:17.678611 92274 net.cpp:243] Memory required for data: 2107734016
I1226 14:11:17.678666 92274 layer_factory.hpp:114] Creating layer relu6
I1226 14:11:17.678740 92274 net.cpp:178] Creating Layer relu6
I1226 14:11:17.678772 92274 net.cpp:612] relu6 <- fc6
I1226 14:11:17.678810 92274 net.cpp:573] relu6 -> fc6 (in-place)
I1226 14:11:17.679010 92274 net.cpp:228] Setting up relu6
I1226 14:11:17.679065 92274 net.cpp:235] Top shape: 256 4096 (1048576)
I1226 14:11:17.679090 92274 net.cpp:243] Memory required for data: 2111928320
I1226 14:11:17.679119 92274 layer_factory.hpp:114] Creating layer drop6
I1226 14:11:17.679188 92274 net.cpp:178] Creating Layer drop6
I1226 14:11:17.679222 92274 net.cpp:612] drop6 <- fc6
I1226 14:11:17.679260 92274 net.cpp:573] drop6 -> fc6 (in-place)
I1226 14:11:17.679335 92274 net.cpp:228] Setting up drop6
I1226 14:11:17.679374 92274 net.cpp:235] Top shape: 256 4096 (1048576)
I1226 14:11:17.679397 92274 net.cpp:243] Memory required for data: 2116122624
I1226 14:11:17.679425 92274 layer_factory.hpp:114] Creating layer fc7
I1226 14:11:17.679484 92274 net.cpp:178] Creating Layer fc7
I1226 14:11:17.679517 92274 net.cpp:612] fc7 <- fc6
I1226 14:11:17.679558 92274 net.cpp:586] fc7 -> fc7
I1226 14:11:18.015473 90185 net.cpp:228] Setting up fc6
I1226 14:11:18.015628 90185 net.cpp:235] Top shape: 256 4096 (1048576)
I1226 14:11:18.015656 90185 net.cpp:243] Memory required for data: 2107734016
I1226 14:11:18.015710 90185 layer_factory.hpp:114] Creating layer relu6
I1226 14:11:18.015770 90185 net.cpp:178] Creating Layer relu6
I1226 14:11:18.015807 90185 net.cpp:612] relu6 <- fc6
I1226 14:11:18.015843 90185 net.cpp:573] relu6 -> fc6 (in-place)
I1226 14:11:18.016014 90185 net.cpp:228] Setting up relu6
I1226 14:11:18.016059 90185 net.cpp:235] Top shape: 256 4096 (1048576)
I1226 14:11:18.016083 90185 net.cpp:243] Memory required for data: 2111928320
I1226 14:11:18.016111 90185 layer_factory.hpp:114] Creating layer drop6
I1226 14:11:18.016160 90185 net.cpp:178] Creating Layer drop6
I1226 14:11:18.016185 90185 net.cpp:612] drop6 <- fc6
I1226 14:11:18.016218 90185 net.cpp:573] drop6 -> fc6 (in-place)
I1226 14:11:18.016273 90185 net.cpp:228] Setting up drop6
I1226 14:11:18.016304 90185 net.cpp:235] Top shape: 256 4096 (1048576)
I1226 14:11:18.016327 90185 net.cpp:243] Memory required for data: 2116122624
I1226 14:11:18.016352 90185 layer_factory.hpp:114] Creating layer fc7
I1226 14:11:18.016409 90185 net.cpp:178] Creating Layer fc7
I1226 14:11:18.016434 90185 net.cpp:612] fc7 <- fc6
I1226 14:11:18.016469 90185 net.cpp:586] fc7 -> fc7
I1226 14:11:18.089889 121743 net.cpp:228] Setting up fc6
I1226 14:11:18.089998 121743 net.cpp:235] Top shape: 256 4096 (1048576)
I1226 14:11:18.090021 121743 net.cpp:243] Memory required for data: 2107734016
I1226 14:11:18.090101 121743 layer_factory.hpp:114] Creating layer relu6
I1226 14:11:18.090163 121743 net.cpp:178] Creating Layer relu6
I1226 14:11:18.090301 121743 net.cpp:612] relu6 <- fc6
I1226 14:11:18.090347 121743 net.cpp:573] relu6 -> fc6 (in-place)
I1226 14:11:18.090445 121743 net.cpp:228] Setting up relu6
I1226 14:11:18.090492 121743 net.cpp:235] Top shape: 256 4096 (1048576)
I1226 14:11:18.090515 121743 net.cpp:243] Memory required for data: 2111928320
I1226 14:11:18.090544 121743 layer_factory.hpp:114] Creating layer drop6
I1226 14:11:18.090592 121743 net.cpp:178] Creating Layer drop6
I1226 14:11:18.090646 121743 net.cpp:612] drop6 <- fc6
I1226 14:11:18.090682 121743 net.cpp:573] drop6 -> fc6 (in-place)
I1226 14:11:18.090837 121743 net.cpp:228] Setting up drop6
I1226 14:11:18.090873 121743 net.cpp:235] Top shape: 256 4096 (1048576)
I1226 14:11:18.090903 121743 net.cpp:243] Memory required for data: 2116122624
I1226 14:11:18.090929 121743 layer_factory.hpp:114] Creating layer fc7
I1226 14:11:18.090983 121743 net.cpp:178] Creating Layer fc7
I1226 14:11:18.091013 121743 net.cpp:612] fc7 <- fc6
I1226 14:11:18.091050 121743 net.cpp:586] fc7 -> fc7
I1226 14:11:18.110352 91405 net.cpp:228] Setting up fc6
I1226 14:11:18.110465 91405 net.cpp:235] Top shape: 256 4096 (1048576)
I1226 14:11:18.110493 91405 net.cpp:243] Memory required for data: 2107734016
I1226 14:11:18.110551 91405 layer_factory.hpp:114] Creating layer relu6
I1226 14:11:18.110647 91405 net.cpp:178] Creating Layer relu6
I1226 14:11:18.110790 91405 net.cpp:612] relu6 <- fc6
I1226 14:11:18.110838 91405 net.cpp:573] relu6 -> fc6 (in-place)
I1226 14:11:18.111029 91405 net.cpp:228] Setting up relu6
I1226 14:11:18.111089 91405 net.cpp:235] Top shape: 256 4096 (1048576)
I1226 14:11:18.111115 91405 net.cpp:243] Memory required for data: 2111928320
I1226 14:11:18.111145 91405 layer_factory.hpp:114] Creating layer drop6
I1226 14:11:18.111204 91405 net.cpp:178] Creating Layer drop6
I1226 14:11:18.111233 91405 net.cpp:612] drop6 <- fc6
I1226 14:11:18.111279 91405 net.cpp:573] drop6 -> fc6 (in-place)
I1226 14:11:18.111340 91405 net.cpp:228] Setting up drop6
I1226 14:11:18.111373 91405 net.cpp:235] Top shape: 256 4096 (1048576)
I1226 14:11:18.111397 91405 net.cpp:243] Memory required for data: 2116122624
I1226 14:11:18.111423 91405 layer_factory.hpp:114] Creating layer fc7
I1226 14:11:18.111480 91405 net.cpp:178] Creating Layer fc7
I1226 14:11:18.111505 91405 net.cpp:612] fc7 <- fc6
I1226 14:11:18.111558 91405 net.cpp:586] fc7 -> fc7
I1226 14:11:19.860056 98828 net.cpp:228] Setting up fc7
I1226 14:11:19.860229 98828 net.cpp:235] Top shape: 256 4096 (1048576)
I1226 14:11:19.860260 98828 net.cpp:243] Memory required for data: 2120316928
I1226 14:11:19.860345 98828 layer_factory.hpp:114] Creating layer relu7
I1226 14:11:19.860417 98828 net.cpp:178] Creating Layer relu7
I1226 14:11:19.860457 98828 net.cpp:612] relu7 <- fc7
I1226 14:11:19.860502 98828 net.cpp:573] relu7 -> fc7 (in-place)
I1226 14:11:19.860599 98828 net.cpp:228] Setting up relu7
I1226 14:11:19.860659 98828 net.cpp:235] Top shape: 256 4096 (1048576)
I1226 14:11:19.860690 98828 net.cpp:243] Memory required for data: 2124511232
I1226 14:11:19.860723 98828 layer_factory.hpp:114] Creating layer drop7
I1226 14:11:19.860764 98828 net.cpp:178] Creating Layer drop7
I1226 14:11:19.860791 98828 net.cpp:612] drop7 <- fc7
I1226 14:11:19.860844 98828 net.cpp:573] drop7 -> fc7 (in-place)
I1226 14:11:19.860899 98828 net.cpp:228] Setting up drop7
I1226 14:11:19.860934 98828 net.cpp:235] Top shape: 256 4096 (1048576)
I1226 14:11:19.860955 98828 net.cpp:243] Memory required for data: 2128705536
I1226 14:11:19.860980 98828 layer_factory.hpp:114] Creating layer fc8
I1226 14:11:19.861035 98828 net.cpp:178] Creating Layer fc8
I1226 14:11:19.861111 98828 net.cpp:612] fc8 <- fc7
I1226 14:11:19.861160 98828 net.cpp:586] fc8 -> fc8
I1226 14:11:20.089467 92483 caffe.cpp:376] Configuring multinode setup
I1226 14:11:20.106945 92483 caffe.cpp:386] Starting parameter server in mpi environment
I1226 14:11:20.288198 91711 net.cpp:228] Setting up fc7
I1226 14:11:20.288338 91711 net.cpp:235] Top shape: 256 4096 (1048576)
I1226 14:11:20.288368 91711 net.cpp:243] Memory required for data: 2120316928
I1226 14:11:20.288451 91711 layer_factory.hpp:114] Creating layer relu7
I1226 14:11:20.288530 91711 net.cpp:178] Creating Layer relu7
I1226 14:11:20.288658 91711 net.cpp:612] relu7 <- fc7
I1226 14:11:20.288712 91711 net.cpp:573] relu7 -> fc7 (in-place)
I1226 14:11:20.288802 91711 net.cpp:228] Setting up relu7
I1226 14:11:20.288856 91711 net.cpp:235] Top shape: 256 4096 (1048576)
I1226 14:11:20.288880 91711 net.cpp:243] Memory required for data: 2124511232
I1226 14:11:20.288908 91711 layer_factory.hpp:114] Creating layer drop7
I1226 14:11:20.288946 91711 net.cpp:178] Creating Layer drop7
I1226 14:11:20.288972 91711 net.cpp:612] drop7 <- fc7
I1226 14:11:20.289005 91711 net.cpp:573] drop7 -> fc7 (in-place)
I1226 14:11:20.289052 91711 net.cpp:228] Setting up drop7
I1226 14:11:20.289085 91711 net.cpp:235] Top shape: 256 4096 (1048576)
I1226 14:11:20.289108 91711 net.cpp:243] Memory required for data: 2128705536
I1226 14:11:20.289134 91711 layer_factory.hpp:114] Creating layer fc8
I1226 14:11:20.289196 91711 net.cpp:178] Creating Layer fc8
I1226 14:11:20.289253 91711 net.cpp:612] fc8 <- fc7
I1226 14:11:20.289293 91711 net.cpp:586] fc8 -> fc8
I1226 14:11:20.315302 92274 net.cpp:228] Setting up fc7
I1226 14:11:20.315444 92274 net.cpp:235] Top shape: 256 4096 (1048576)
I1226 14:11:20.315474 92274 net.cpp:243] Memory required for data: 2120316928
I1226 14:11:20.315532 92274 layer_factory.hpp:114] Creating layer relu7
I1226 14:11:20.315600 92274 net.cpp:178] Creating Layer relu7
I1226 14:11:20.315644 92274 net.cpp:612] relu7 <- fc7
I1226 14:11:20.315685 92274 net.cpp:573] relu7 -> fc7 (in-place)
I1226 14:11:20.315786 92274 net.cpp:228] Setting up relu7
I1226 14:11:20.315832 92274 net.cpp:235] Top shape: 256 4096 (1048576)
I1226 14:11:20.315855 92274 net.cpp:243] Memory required for data: 2124511232
I1226 14:11:20.315886 92274 layer_factory.hpp:114] Creating layer drop7
I1226 14:11:20.315928 92274 net.cpp:178] Creating Layer drop7
I1226 14:11:20.315958 92274 net.cpp:612] drop7 <- fc7
I1226 14:11:20.315992 92274 net.cpp:573] drop7 -> fc7 (in-place)
I1226 14:11:20.316037 92274 net.cpp:228] Setting up drop7
I1226 14:11:20.316069 92274 net.cpp:235] Top shape: 256 4096 (1048576)
I1226 14:11:20.316092 92274 net.cpp:243] Memory required for data: 2128705536
I1226 14:11:20.316129 92274 layer_factory.hpp:114] Creating layer fc8
I1226 14:11:20.316195 92274 net.cpp:178] Creating Layer fc8
I1226 14:11:20.316228 92274 net.cpp:612] fc8 <- fc7
I1226 14:11:20.316265 92274 net.cpp:586] fc8 -> fc8
I1226 14:11:20.366427 121743 net.cpp:228] Setting up fc7
I1226 14:11:20.366538 121743 net.cpp:235] Top shape: 256 4096 (1048576)
I1226 14:11:20.366564 121743 net.cpp:243] Memory required for data: 2120316928
I1226 14:11:20.366649 121743 layer_factory.hpp:114] Creating layer relu7
I1226 14:11:20.366734 121743 net.cpp:178] Creating Layer relu7
I1226 14:11:20.366829 121743 net.cpp:612] relu7 <- fc7
I1226 14:11:20.366869 121743 net.cpp:573] relu7 -> fc7 (in-place)
I1226 14:11:20.366953 121743 net.cpp:228] Setting up relu7
I1226 14:11:20.366999 121743 net.cpp:235] Top shape: 256 4096 (1048576)
I1226 14:11:20.367022 121743 net.cpp:243] Memory required for data: 2124511232
I1226 14:11:20.367051 121743 layer_factory.hpp:114] Creating layer drop7
I1226 14:11:20.367089 121743 net.cpp:178] Creating Layer drop7
I1226 14:11:20.367112 121743 net.cpp:612] drop7 <- fc7
I1226 14:11:20.367144 121743 net.cpp:573] drop7 -> fc7 (in-place)
I1226 14:11:20.367190 121743 net.cpp:228] Setting up drop7
I1226 14:11:20.367233 121743 net.cpp:235] Top shape: 256 4096 (1048576)
I1226 14:11:20.367254 121743 net.cpp:243] Memory required for data: 2128705536
I1226 14:11:20.367280 121743 layer_factory.hpp:114] Creating layer fc8
I1226 14:11:20.367337 121743 net.cpp:178] Creating Layer fc8
I1226 14:11:20.367368 121743 net.cpp:612] fc8 <- fc7
I1226 14:11:20.367418 121743 net.cpp:586] fc8 -> fc8
I1226 14:11:20.390130 90185 net.cpp:228] Setting up fc7
I1226 14:11:20.390244 90185 net.cpp:235] Top shape: 256 4096 (1048576)
I1226 14:11:20.390272 90185 net.cpp:243] Memory required for data: 2120316928
I1226 14:11:20.390328 90185 layer_factory.hpp:114] Creating layer relu7
I1226 14:11:20.390419 90185 net.cpp:178] Creating Layer relu7
I1226 14:11:20.390524 90185 net.cpp:612] relu7 <- fc7
I1226 14:11:20.390594 90185 net.cpp:573] relu7 -> fc7 (in-place)
I1226 14:11:20.390694 90185 net.cpp:228] Setting up relu7
I1226 14:11:20.390748 90185 net.cpp:235] Top shape: 256 4096 (1048576)
I1226 14:11:20.390771 90185 net.cpp:243] Memory required for data: 2124511232
I1226 14:11:20.390801 90185 layer_factory.hpp:114] Creating layer drop7
I1226 14:11:20.390844 90185 net.cpp:178] Creating Layer drop7
I1226 14:11:20.390877 90185 net.cpp:612] drop7 <- fc7
I1226 14:11:20.390919 90185 net.cpp:573] drop7 -> fc7 (in-place)
I1226 14:11:20.390970 90185 net.cpp:228] Setting up drop7
I1226 14:11:20.391008 90185 net.cpp:235] Top shape: 256 4096 (1048576)
I1226 14:11:20.391031 90185 net.cpp:243] Memory required for data: 2128705536
I1226 14:11:20.391057 90185 layer_factory.hpp:114] Creating layer fc8
I1226 14:11:20.391110 90185 net.cpp:178] Creating Layer fc8
I1226 14:11:20.391144 90185 net.cpp:612] fc8 <- fc7
I1226 14:11:20.391196 90185 net.cpp:586] fc8 -> fc8
I1226 14:11:20.401304 91405 net.cpp:228] Setting up fc7
I1226 14:11:20.401418 91405 net.cpp:235] Top shape: 256 4096 (1048576)
I1226 14:11:20.401448 91405 net.cpp:243] Memory required for data: 2120316928
I1226 14:11:20.401535 91405 layer_factory.hpp:114] Creating layer relu7
I1226 14:11:20.401619 91405 net.cpp:178] Creating Layer relu7
I1226 14:11:20.401664 91405 net.cpp:612] relu7 <- fc7
I1226 14:11:20.401729 91405 net.cpp:573] relu7 -> fc7 (in-place)
I1226 14:11:20.401831 91405 net.cpp:228] Setting up relu7
I1226 14:11:20.401890 91405 net.cpp:235] Top shape: 256 4096 (1048576)
I1226 14:11:20.401913 91405 net.cpp:243] Memory required for data: 2124511232
I1226 14:11:20.401944 91405 layer_factory.hpp:114] Creating layer drop7
I1226 14:11:20.401999 91405 net.cpp:178] Creating Layer drop7
I1226 14:11:20.402039 91405 net.cpp:612] drop7 <- fc7
I1226 14:11:20.402076 91405 net.cpp:573] drop7 -> fc7 (in-place)
I1226 14:11:20.402125 91405 net.cpp:228] Setting up drop7
I1226 14:11:20.402168 91405 net.cpp:235] Top shape: 256 4096 (1048576)
I1226 14:11:20.402191 91405 net.cpp:243] Memory required for data: 2128705536
I1226 14:11:20.402217 91405 layer_factory.hpp:114] Creating layer fc8
I1226 14:11:20.402272 91405 net.cpp:178] Creating Layer fc8
I1226 14:11:20.402304 91405 net.cpp:612] fc8 <- fc7
I1226 14:11:20.402344 91405 net.cpp:586] fc8 -> fc8
I1226 14:11:20.427166 98828 net.cpp:228] Setting up fc8
I1226 14:11:20.427283 98828 net.cpp:235] Top shape: 256 1000 (256000)
I1226 14:11:20.427310 98828 net.cpp:243] Memory required for data: 2129729536
I1226 14:11:20.427371 98828 layer_factory.hpp:114] Creating layer fc8_fc8_0_split
I1226 14:11:20.427444 98828 net.cpp:178] Creating Layer fc8_fc8_0_split
I1226 14:11:20.427484 98828 net.cpp:612] fc8_fc8_0_split <- fc8
I1226 14:11:20.427551 98828 net.cpp:586] fc8_fc8_0_split -> fc8_fc8_0_split_0
I1226 14:11:20.427613 98828 net.cpp:586] fc8_fc8_0_split -> fc8_fc8_0_split_1
I1226 14:11:20.427705 98828 net.cpp:228] Setting up fc8_fc8_0_split
I1226 14:11:20.427753 98828 net.cpp:235] Top shape: 256 1000 (256000)
I1226 14:11:20.427785 98828 net.cpp:235] Top shape: 256 1000 (256000)
I1226 14:11:20.427809 98828 net.cpp:243] Memory required for data: 2131777536
I1226 14:11:20.427839 98828 layer_factory.hpp:114] Creating layer accuracy
I1226 14:11:20.427894 98828 net.cpp:178] Creating Layer accuracy
I1226 14:11:20.427923 98828 net.cpp:612] accuracy <- fc8_fc8_0_split_0
I1226 14:11:20.427955 98828 net.cpp:612] accuracy <- label_data_1_split_0
I1226 14:11:20.427992 98828 net.cpp:586] accuracy -> accuracy
…
I1226 14:11:20.916999 92274 net.cpp:307] data does not need backward computation.
I1226 14:11:20.917035 92274 net.cpp:349] This network produces output accuracy
I1226 14:11:20.917254 92274 net.cpp:349] This network produces output loss
I1226 14:11:20.917374 92274 net.cpp:363] Network initialization done.
I1226 14:11:20.917881 92274 solver.cpp:107] Solver scaffolding done.
I1226 14:11:20.918144 92274 caffe.cpp:212] Finetuning from /export/data1/stanford/hazy/gordon_bell/caffenet_knl/snapshot/caffenet_MN8_B1024/_iter_25000.caffemodel
I1226 14:11:20.929810 121743 net.cpp:228] Setting up fc8
I1226 14:11:20.929920 121743 net.cpp:235] Top shape: 256 1000 (256000)
I1226 14:11:20.929947 121743 net.cpp:243] Memory required for data: 2129729536
I1226 14:11:20.930001 121743 layer_factory.hpp:114] Creating layer fc8_fc8_0_split
I1226 14:11:20.930073 121743 net.cpp:178] Creating Layer fc8_fc8_0_split
I1226 14:11:20.930102 121743 net.cpp:612] fc8_fc8_0_split <- fc8
I1226 14:11:20.930140 121743 net.cpp:586] fc8_fc8_0_split -> fc8_fc8_0_split_0
I1226 14:11:20.930193 121743 net.cpp:586] fc8_fc8_0_split -> fc8_fc8_0_split_1
I1226 14:11:20.930290 121743 net.cpp:228] Setting up fc8_fc8_0_split
I1226 14:11:20.930346 121743 net.cpp:235] Top shape: 256 1000 (256000)
I1226 14:11:20.930375 121743 net.cpp:235] Top shape: 256 1000 (256000)
I1226 14:11:20.930397 121743 net.cpp:243] Memory required for data: 2131777536
I1226 14:11:20.930424 121743 layer_factory.hpp:114] Creating layer accuracy
I1226 14:11:20.930483 121743 net.cpp:178] Creating Layer accuracy
I1226 14:11:20.930515 121743 net.cpp:612] accuracy <- fc8_fc8_0_split_0
I1226 14:11:20.930546 121743 net.cpp:612] accuracy <- label_data_1_split_0
I1226 14:11:20.930578 121743 net.cpp:586] accuracy -> accuracy
I1226 14:11:20.930647 121743 net.cpp:228] Setting up accuracy
I1226 14:11:20.930702 121743 net.cpp:235] Top shape: (1)
I1226 14:11:20.930727 121743 net.cpp:243] Memory required for data: 2131777540
I1226 14:11:20.930766 121743 layer_factory.hpp:114] Creating layer loss
I1226 14:11:20.930811 121743 net.cpp:178] Creating Layer loss
I1226 14:11:20.930843 121743 net.cpp:612] loss <- fc8_fc8_0_split_1
I1226 14:11:20.930871 121743 net.cpp:612] loss <- label_data_1_split_1
I1226 14:11:20.931010 121743 net.cpp:586] loss -> loss
I1226 14:11:20.931090 121743 layer_factory.hpp:114] Creating layer loss
I1226 14:11:20.950422 90185 net.cpp:228] Setting up fc8
I1226 14:11:20.950544 90185 net.cpp:235] Top shape: 256 1000 (256000)
I1226 14:11:20.950608 90185 net.cpp:243] Memory required for data: 2129729536
I1226 14:11:20.950669 90185 layer_factory.hpp:114] Creating layer fc8_fc8_0_split
I1226 14:11:20.950729 90185 net.cpp:178] Creating Layer fc8_fc8_0_split
I1226 14:11:20.950776 90185 net.cpp:612] fc8_fc8_0_split <- fc8
I1226 14:11:20.950819 90185 net.cpp:586] fc8_fc8_0_split -> fc8_fc8_0_split_0
I1226 14:11:20.950871 90185 net.cpp:586] fc8_fc8_0_split -> fc8_fc8_0_split_1
I1226 14:11:20.950964 90185 net.cpp:228] Setting up fc8_fc8_0_split
I1226 14:11:20.951010 90185 net.cpp:235] Top shape: 256 1000 (256000)
I1226 14:11:20.951040 90185 net.cpp:235] Top shape: 256 1000 (256000)
I1226 14:11:20.951062 90185 net.cpp:243] Memory required for data: 2131777536
I1226 14:11:20.951098 90185 layer_factory.hpp:114] Creating layer accuracy
I1226 14:11:20.951169 90185 net.cpp:178] Creating Layer accuracy
I1226 14:11:20.951203 90185 net.cpp:612] accuracy <- fc8_fc8_0_split_0
I1226 14:11:20.951238 90185 net.cpp:612] accuracy <- label_data_1_split_0
I1226 14:11:20.951277 90185 net.cpp:586] accuracy -> accuracy
…
I1226 14:11:24.166479 92274 caffe.cpp:392] Starting Multi-node Optimization in mpi environment
I1226 14:11:24.266645 91405 caffe.cpp:376] Configuring multinode setup
I1226 14:11:24.268118 91405 caffe.cpp:392] Starting Multi-node Optimization in mpi environment
I1226 14:11:24.999325 121743 caffe.cpp:376] Configuring multinode setup
I1226 14:11:25.000890 121743 caffe.cpp:392] Starting Multi-node Optimization in mpi environment
I1226 14:11:25.031244 90185 caffe.cpp:376] Configuring multinode setup
I1226 14:11:25.032680 90185 caffe.cpp:392] Starting Multi-node Optimization in mpi environment
I1226 14:11:45.155295 96952 net.cpp:228] Setting up fc6
I1226 14:11:45.155560 96952 net.cpp:235] Top shape: 256 4096 (1048576)
I1226 14:11:45.155606 96952 net.cpp:243] Memory required for data: 2107734016
I1226 14:11:45.155670 96952 layer_factory.hpp:114] Creating layer relu6
I1226 14:11:45.155872 96952 net.cpp:178] Creating Layer relu6
I1226 14:11:45.155916 96952 net.cpp:612] relu6 <- fc6
I1226 14:11:45.155959 96952 net.cpp:573] relu6 -> fc6 (in-place)
I1226 14:11:45.156059 96952 net.cpp:228] Setting up relu6
I1226 14:11:45.156123 96952 net.cpp:235] Top shape: 256 4096 (1048576)
I1226 14:11:45.156152 96952 net.cpp:243] Memory required for data: 2111928320
I1226 14:11:45.156186 96952 layer_factory.hpp:114] Creating layer drop6
I1226 14:11:45.156251 96952 net.cpp:178] Creating Layer drop6
I1226 14:11:45.156289 96952 net.cpp:612] drop6 <- fc6
I1226 14:11:45.156328 96952 net.cpp:573] drop6 -> fc6 (in-place)
I1226 14:11:45.156390 96952 net.cpp:228] Setting up drop6
I1226 14:11:45.156437 96952 net.cpp:235] Top shape: 256 4096 (1048576)
I1226 14:11:45.156468 96952 net.cpp:243] Memory required for data: 2116122624
I1226 14:11:45.156499 96952 layer_factory.hpp:114] Creating layer fc7
I1226 14:11:45.156558 96952 net.cpp:178] Creating Layer fc7
I1226 14:11:45.156592 96952 net.cpp:612] fc7 <- fc6
I1226 14:11:45.156633 96952 net.cpp:586] fc7 -> fc7
I1226 14:11:45.232882 95316 net.cpp:228] Setting up fc6
I1226 14:11:45.233147 95316 net.cpp:235] Top shape: 256 4096 (1048576)
I1226 14:11:45.233192 95316 net.cpp:243] Memory required for data: 2107734016
I1226 14:11:45.233260 95316 layer_factory.hpp:114] Creating layer relu6
I1226 14:11:45.233345 95316 net.cpp:178] Creating Layer relu6
I1226 14:11:45.233394 95316 net.cpp:612] relu6 <- fc6
I1226 14:11:45.233439 95316 net.cpp:573] relu6 -> fc6 (in-place)
I1226 14:11:45.233546 95316 net.cpp:228] Setting up relu6
I1226 14:11:45.233608 95316 net.cpp:235] Top shape: 256 4096 (1048576)
I1226 14:11:45.233636 95316 net.cpp:243] Memory required for data: 2111928320
I1226 14:11:45.233669 95316 layer_factory.hpp:114] Creating layer drop6
I1226 14:11:45.233731 95316 net.cpp:178] Creating Layer drop6
I1226 14:11:45.233762 95316 net.cpp:612] drop6 <- fc6
I1226 14:11:45.233799 95316 net.cpp:573] drop6 -> fc6 (in-place)
I1226 14:11:45.233989 95316 net.cpp:228] Setting up drop6
I1226 14:11:45.234030 95316 net.cpp:235] Top shape: 256 4096 (1048576)
I1226 14:11:45.234055 95316 net.cpp:243] Memory required for data: 2116122624
I1226 14:11:45.234084 95316 layer_factory.hpp:114] Creating layer fc7
I1226 14:11:45.234141 95316 net.cpp:178] Creating Layer fc7
I1226 14:11:45.234171 95316 net.cpp:612] fc7 <- fc6
I1226 14:11:45.234213 95316 net.cpp:586] fc7 -> fc7
I1226 14:11:58.224218 96952 net.cpp:228] Setting up fc7
I1226 14:11:58.224335 96952 net.cpp:235] Top shape: 256 4096 (1048576)
I1226 14:11:58.224370 96952 net.cpp:243] Memory required for data: 2120316928
I1226 14:11:58.224434 96952 layer_factory.hpp:114] Creating layer relu7
I1226 14:11:58.224611 96952 net.cpp:178] Creating Layer relu7
I1226 14:11:58.224666 96952 net.cpp:612] relu7 <- fc7
I1226 14:11:58.224711 96952 net.cpp:573] relu7 -> fc7 (in-place)
I1226 14:11:58.224846 96952 net.cpp:228] Setting up relu7
I1226 14:11:58.224915 96952 net.cpp:235] Top shape: 256 4096 (1048576)
I1226 14:11:58.224943 96952 net.cpp:243] Memory required for data: 2124511232
I1226 14:11:58.224975 96952 layer_factory.hpp:114] Creating layer drop7
I1226 14:11:58.225018 96952 net.cpp:178] Creating Layer drop7
I1226 14:11:58.225044 96952 net.cpp:612] drop7 <- fc7
I1226 14:11:58.225082 96952 net.cpp:573] drop7 -> fc7 (in-place)
I1226 14:11:58.225129 96952 net.cpp:228] Setting up drop7
I1226 14:11:58.225165 96952 net.cpp:235] Top shape: 256 4096 (1048576)
I1226 14:11:58.225189 96952 net.cpp:243] Memory required for data: 2128705536
I1226 14:11:58.225216 96952 layer_factory.hpp:114] Creating layer fc8
I1226 14:11:58.225273 96952 net.cpp:178] Creating Layer fc8
I1226 14:11:58.225301 96952 net.cpp:612] fc8 <- fc7
I1226 14:11:58.225337 96952 net.cpp:586] fc8 -> fc8
I1226 14:11:58.296857 95316 net.cpp:228] Setting up fc7
I1226 14:11:58.296973 95316 net.cpp:235] Top shape: 256 4096 (1048576)
I1226 14:11:58.297009 95316 net.cpp:243] Memory required for data: 2120316928
I1226 14:11:58.297072 95316 layer_factory.hpp:114] Creating layer relu7
I1226 14:11:58.297257 95316 net.cpp:178] Creating Layer relu7
I1226 14:11:58.297303 95316 net.cpp:612] relu7 <- fc7
I1226 14:11:58.297350 95316 net.cpp:573] relu7 -> fc7 (in-place)
I1226 14:11:58.297456 95316 net.cpp:228] Setting up relu7
I1226 14:11:58.297515 95316 net.cpp:235] Top shape: 256 4096 (1048576)
I1226 14:11:58.297544 95316 net.cpp:243] Memory required for data: 2124511232
I1226 14:11:58.297580 95316 layer_factory.hpp:114] Creating layer drop7
I1226 14:11:58.297626 95316 net.cpp:178] Creating Layer drop7
I1226 14:11:58.297664 95316 net.cpp:612] drop7 <- fc7
I1226 14:11:58.297700 95316 net.cpp:573] drop7 -> fc7 (in-place)
I1226 14:11:58.297749 95316 net.cpp:228] Setting up drop7
I1226 14:11:58.297796 95316 net.cpp:235] Top shape: 256 4096 (1048576)
I1226 14:11:58.297843 95316 net.cpp:243] Memory required for data: 2128705536
I1226 14:11:58.297879 95316 layer_factory.hpp:114] Creating layer fc8
I1226 14:11:58.297940 95316 net.cpp:178] Creating Layer fc8
I1226 14:11:58.297968 95316 net.cpp:612] fc8 <- fc7
I1226 14:11:58.298012 95316 net.cpp:586] fc8 -> fc8
I1226 14:12:01.422323 96952 net.cpp:228] Setting up fc8
I1226 14:12:01.422443 96952 net.cpp:235] Top shape: 256 1000 (256000)
I1226 14:12:01.422483 96952 net.cpp:243] Memory required for data: 2129729536
I1226 14:12:01.422549 96952 layer_factory.hpp:114] Creating layer fc8_fc8_0_split
I1226 14:12:01.422628 96952 net.cpp:178] Creating Layer fc8_fc8_0_split
I1226 14:12:01.422677 96952 net.cpp:612] fc8_fc8_0_split <- fc8
I1226 14:12:01.422729 96952 net.cpp:586] fc8_fc8_0_split -> fc8_fc8_0_split_0
I1226 14:12:01.422811 96952 net.cpp:586] fc8_fc8_0_split -> fc8_fc8_0_split_1
I1226 14:12:01.422942 96952 net.cpp:228] Setting up fc8_fc8_0_split
I1226 14:12:01.422993 96952 net.cpp:235] Top shape: 256 1000 (256000)
I1226 14:12:01.423027 96952 net.cpp:235] Top shape: 256 1000 (256000)
I1226 14:12:01.423050 96952 net.cpp:243] Memory required for data: 2131777536
I1226 14:12:01.423082 96952 layer_factory.hpp:114] Creating layer accuracy
I1226 14:12:01.423141 96952 net.cpp:178] Creating Layer accuracy
I1226 14:12:01.423176 96952 net.cpp:612] accuracy <- fc8_fc8_0_split_0
I1226 14:12:01.423210 96952 net.cpp:612] accuracy <- label_data_1_split_0
I1226 14:12:01.423264 96952 net.cpp:586] accuracy -> accuracy
…
