…
I1226 13:57:53.019044 95085 net.cpp:500] The NetState phase (0) differed from the phase (1) specified by a rule in layer data
I1226 13:57:53.021147 95085 net.cpp:136] Initializing net from parameters: 
name: "AlexNet"
state {
  phase: TRAIN
  level: 0
  stage: ""
}
engine: "MKL2017"
layer {
  name: "data"
  type: "Data"
  top: "data"
  top: "label"
  include {
    phase: TRAIN
  }
  transform_param {
    mirror: true
    crop_size: 227
    mean_value: 104
    mean_value: 117
    mean_value: 123
  }
  data_param {
    source: "/export/data1/stanford/hazy/zjian/gorden_bell/ILSVRC2012_lmdb/db_8/ilsvrc12_train_lmdb_1"
    batch_size: 32
    backend: LMDB
  }
}
layer {
  name: "label_data_1_split"
  type: "Split"
  bottom: "label"
  top: "label_data_1_split_0"
  top: "label_data_1_split_1"
}
layer {
  name: "conv1"
  type: "Convolution"
  bottom: "data"
  top: "conv1"
  param {
    lr_mult: 1
    decay_mult: 1
  }
  param {
    lr_mult: 2
    decay_mult: 0
  }
  convolution_param {
    num_output: 96
    kernel_size: 11
    stride: 4
    weight_filler {
      type: "gaussian"
      std: 0.01
    }
    bias_filler {
      type: "constant"
      value: 0
    }
    engine: MKL2017
  }
}
layer {
  name: "relu1"
  type: "ReLU"
  bottom: "conv1"
  top: "conv1"
  relu_param {
    engine: MKL2017
  }
}
layer {
  name: "norm1"
  type: "LRN"
  bottom: "conv1"
  top: "norm1"
  lrn_param {
    local_size: 5
    alpha: 0.0001
    beta: 0.75
    engine: MKL2017
  }
}
layer {
  name: "pool1"
  type: "Pooling"
  bottom: "norm1"
  top: "pool1"
  pooling_param {
    pool: MAX
    kernel_size: 3
    stride: 2
    engine: MKL2017
  }
}
layer {
  name: "conv2"
  type: "Convolution"
  bottom: "pool1"
  top: "conv2"
  param {
    lr_mult: 1
    decay_mult: 1
  }
  param {
    lr_mult: 2
    decay_mult: 0
  }
  convolution_param {
    num_output: 256
    pad: 2
    kernel_size: 5
    group: 2
    weight_filler {
      type: "gaussian"
      std: 0.01
    }
    bias_filler {
      type: "constant"
      value: 0.1
    }
    engine: MKL2017
  }
}
layer {
  name: "relu2"
  type: "ReLU"
  bottom: "conv2"
  top: "conv2"
  relu_param {
    engine: MKL2017
  }
}
layer {
  name: "norm2"
  type: "LRN"
  bottom: "conv2"
  top: "norm2"
  lrn_param {
    local_size: 5
    alpha: 0.0001
    beta: 0.75
    engine: MKL2017
  }
}
layer {
  name: "pool2"
  type: "Pooling"
  bottom: "norm2"
  top: "pool2"
  pooling_param {
    pool: MAX
    kernel_size: 3
    stride: 2
    engine: MKL2017
  }
}
layer {
  name: "conv3"
  type: "Convolution"
  bottom: "pool2"
  top: "conv3"
  param {
    lr_mult: 1
    decay_mult: 1
  }
  param {
    lr_mult: 2
    decay_mult: 0
  }
  convolution_param {
    num_output: 384
    pad: 1
    kernel_size: 3
    weight_filler {
      type: "gaussian"
      std: 0.01
    }
    bias_filler {
      type: "constant"
      value: 0
    }
    engine: MKL2017
  }
}
layer {
  name: "relu3"
  type: "ReLU"
  bottom: "conv3"
  top: "conv3"
  relu_param {
    engine: MKL2017
  }
}
layer {
  name: "conv4"
  type: "Convolution"
  bottom: "conv3"
  top: "conv4"
  param {
    lr_mult: 1
    decay_mult: 1
  }
  param {
    lr_mult: 2
    decay_mult: 0
  }
  convolution_param {
    num_output: 384
    pad: 1
    kernel_size: 3
    group: 2
    weight_filler {
      type: "gaussian"
      std: 0.01
    }
    bias_filler {
      type: "constant"
      value: 0.1
    }
    engine: MKL2017
  }
}
layer {
  name: "relu4"
  type: "ReLU"
  bottom: "conv4"
  top: "conv4"
  relu_param {
    engine: MKL2017
  }
}
layer {
  name: "conv5"
  type: "Convolution"
  bottom: "conv4"
  top: "conv5"
  param {
    lr_mult: 1
    decay_mult: 1
  }
  param {
    lr_mult: 2
    decay_mult: 0
  }
  convolution_param {
    num_output: 256
    pad: 1
    kernel_size: 3
    group: 2
    weight_filler {
      type: "gaussian"
      std: 0.01
    }
    bias_filler {
      type: "constant"
      value: 0.1
    }
    engine: MKL2017
  }
}
layer {
  name: "relu5"
  type: "ReLU"
  bottom: "conv5"
  top: "conv5"
  relu_param {
    engine: MKL2017
  }
}
layer {
  name: "pool5"
  type: "Pooling"
  bottom: "conv5"
  top: "pool5"
  pooling_param {
    pool: MAX
    kernel_size: 3
    stride: 2
    engine: MKL2017
  }
}
layer {
  name: "fc6"
  type: "InnerProduct"
  bottom: "pool5"
  top: "fc6"
  param {
    lr_mult: 1
    decay_mult: 1
  }
  param {
    lr_mult: 2
    decay_mult: 0
  }
  inner_product_param {
    num_output: 4096
    weight_filler {
      type: "gaussian"
      std: 0.005
    }
    bias_filler {
      type: "constant"
      value: 0.1
    }
  }
}
layer {
  name: "relu6"
  type: "ReLU"
  bottom: "fc6"
  top: "fc6"
}
layer {
  name: "drop6"
  type: "Dropout"
  bottom: "fc6"
  top: "fc6"
  dropout_param {
    dropout_ratio: 0.5
  }
}
layer {
  name: "fc7"
  type: "InnerProduct"
  bottom: "fc6"
  top: "fc7"
  param {
    lr_mult: 1
    decay_mult: 1
  }
  param {
    lr_mult: 2
    decay_mult: 0
  }
  inner_product_param {
    num_output: 4096
    weight_filler {
      type: "gaussian"
      std: 0.005
    }
    bias_filler {
      type: "constant"
      value: 0.1
    }
  }
}
layer {
  name: "relu7"
  type: "ReLU"
  bottom: "fc7"
  top: "fc7"
}
layer {
  name: "drop7"
  type: "Dropout"
  bottom: "fc7"
  top: "fc7"
  dropout_param {
    dropout_ratio: 0.5
  }
}
layer {
  name: "fc8"
  type: "InnerProduct"
  bottom: "fc7"
  top: "fc8"
  param {
    lr_mult: 1
    decay_mult: 1
  }
  param {
    lr_mult: 2
    decay_mult: 0
  }
  inner_product_param {
    num_output: 1000
    weight_filler {
      type: "gaussian"
      std: 0.01
    }
    bias_filler {
      type: "constant"
      value: 0
    }
  }
}
layer {
  name: "fc8_fc8_0_split"
  type: "Split"
  bottom: "fc8"
  top: "fc8_fc8_0_split_0"
  top: "fc8_fc8_0_split_1"
}
layer {
  name: "accuracy"
  type: "Accuracy"
  bottom: "fc8_fc8_0_split_0"
  bottom: "label_data_1_split_0"
  top: "accuracy"
}
layer {
  name: "loss"
  type: "SoftmaxWithLoss"
  bottom: "fc8_fc8_0_split_1"
  bottom: "label_data_1_split_1"
  top: "loss"
}
I1226 13:57:53.010846 96716 cpu_info.cpp:473] Number of OpenMP threads: 66
I1226 13:57:53.011230 96716 net.cpp:500] The NetState phase (0) differed from the phase (1) specified by a rule in layer data
I1226 13:57:53.024179 97230 cpu_info.cpp:473] Number of OpenMP threads: 66
I1226 13:57:53.013365 96716 net.cpp:136] Initializing net from parameters: 
name: "AlexNet"
state {
  phase: TRAIN
  level: 0
  stage: ""
}
engine: "MKL2017"
layer {
  name: "data"
  type: "Data"
  top: "data"
  top: "label"
  include {
    phase: TRAIN
  }
  transform_param {
    mirror: true
    crop_size: 227
    mean_value: 104
    mean_value: 117
    mean_value: 123
  }
  data_param {
    source: "/export/data1/stanford/hazy/zjian/gorden_bell/ILSVRC2012_lmdb/db_8/ilsvrc12_train_lmdb_6"
    batch_size: 32
    backend: LMDB
  }
}
layer {
  name: "label_data_1_split"
  type: "Split"
  bottom: "label"
  top: "label_data_1_split_0"
  top: "label_data_1_split_1"
}
layer {
  name: "conv1"
  type: "Convolution"
  bottom: "data"
  top: "conv1"
  param {
    lr_mult: 1
    decay_mult: 1
  }
  param {
    lr_mult: 2
    decay_mult: 0
  }
  convolution_param {
    num_output: 96
    kernel_size: 11
    stride: 4
    weight_filler {
      type: "gaussian"
      std: 0.01
    }
    bias_filler {
      type: "constant"
      value: 0
    }
    engine: MKL2017
  }
}
layer {
  name: "relu1"
  type: "ReLU"
  bottom: "conv1"
  top: "conv1"
  relu_param {
    engine: MKL2017
  }
}
layer {
  name: "norm1"
  type: "LRN"
  bottom: "conv1"
  top: "norm1"
  lrn_param {
    local_size: 5
    alpha: 0.0001
    beta: 0.75
    engine: MKL2017
  }
}
layer {
  name: "pool1"
  type: "Pooling"
  bottom: "norm1"
  top: "pool1"
  pooling_param {
    pool: MAX
    kernel_size: 3
    stride: 2
    engine: MKL2017
  }
}
layer {
  name: "conv2"
  type: "Convolution"
  bottom: "pool1"
  top: "conv2"
  param {
    lr_mult: 1
    decay_mult: 1
  }
  param {
    lr_mult: 2
    decay_mult: 0
  }
  convolution_param {
    num_output: 256
    pad: 2
    kernel_size: 5
    group: 2
    weight_filler {
      type: "gaussian"
      std: 0.01
    }
    bias_filler {
      type: "constant"
      value: 0.1
    }
    engine: MKL2017
  }
}
layer {
  name: "relu2"
  type: "ReLU"
  bottom: "conv2"
  top: "conv2"
  relu_param {
    engine: MKL2017
  }
}
layer {
  name: "norm2"
  type: "LRN"
  bottom: "conv2"
  top: "norm2"
  lrn_param {
    local_size: 5
    alpha: 0.0001
    beta: 0.75
    engine: MKL2017
  }
}
layer {
  name: "pool2"
  type: "Pooling"
  bottom: "norm2"
  top: "pool2"
  pooling_param {
    pool: MAX
    kernel_size: 3
    stride: 2
    engine: MKL2017
  }
}
layer {
  name: "conv3"
  type: "Convolution"
  bottom: "pool2"
  top: "conv3"
  param {
    lr_mult: 1
    decay_mult: 1
  }
  param {
    lr_mult: 2
    decay_mult: 0
  }
  convolution_param {
    num_output: 384
    pad: 1
    kernel_size: 3
    weight_filler {
      type: "gaussian"
      std: 0.01
    }
    bias_filler {
      type: "constant"
      value: 0
    }
    engine: MKL2017
  }
}
layer {
  name: "relu3"
  type: "ReLU"
  bottom: "conv3"
  top: "conv3"
  relu_param {
    engine: MKL2017
  }
}
layer {
  name: "conv4"
  type: "Convolution"
  bottom: "conv3"
  top: "conv4"
  param {
    lr_mult: 1
    decay_mult: 1
  }
  param {
    lr_mult: 2
    decay_mult: 0
  }
  convolution_param {
    num_output: 384
    pad: 1
    kernel_size: 3
    group: 2
    weight_filler {
      type: "gaussian"
      std: 0.01
    }
    bias_filler {
      type: "constant"
      value: 0.1
    }
    engine: MKL2017
  }
}
layer {
  name: "relu4"
  type: "ReLU"
  bottom: "conv4"
  top: "conv4"
  relu_param {
    engine: MKL2017
  }
}
layer {
  name: "conv5"
  type: "Convolution"
  bottom: "conv4"
  top: "conv5"
  param {
    lr_mult: 1
    decay_mult: 1
  }
  param {
    lr_mult: 2
    decay_mult: 0
  }
  convolution_param {
    num_output: 256
    pad: 1
    kernel_size: 3
    group: 2
    weight_filler {
      type: "gaussian"
      std: 0.01
    }
    bias_filler {
      type: "constant"
      value: 0.1
    }
    engine: MKL2017
  }
}
layer {
  name: "relu5"
  type: "ReLU"
  bottom: "conv5"
  top: "conv5"
  relu_param {
    engine: MKL2017
  }
}
layer {
  name: "pool5"
  type: "Pooling"
  bottom: "conv5"
  top: "pool5"
  pooling_param {
    pool: MAX
    kernel_size: 3
    stride: 2
    engine: MKL2017
  }
}
layer {
  name: "fc6"
  type: "InnerProduct"
  bottom: "pool5"
  top: "fc6"
  param {
    lr_mult: 1
    decay_mult: 1
  }
  param {
    lr_mult: 2
    decay_mult: 0
  }
  inner_product_param {
    num_output: 4096
    weight_filler {
      type: "gaussian"
      std: 0.005
    }
    bias_filler {
      type: "constant"
      value: 0.1
    }
  }
}
layer {
  name: "relu6"
  type: "ReLU"
  bottom: "fc6"
  top: "fc6"
}
layer {
  name: "drop6"
  type: "Dropout"
  bottom: "fc6"
  top: "fc6"
  dropout_param {
    dropout_ratio: 0.5
  }
}
layer {
  name: "fc7"
  type: "InnerProduct"
  bottom: "fc6"
  top: "fc7"
  param {
    lr_mult: 1
    decay_mult: 1
  }
  param {
    lr_mult: 2
    decay_mult: 0
  }
  inner_product_param {
    num_output: 4096
    weight_filler {
      type: "gaussian"
      std: 0.005
    }
    bias_filler {
      type: "constant"
      value: 0.1
    }
  }
}
layer {
  name: "relu7"
  type: "ReLU"
  bottom: "fc7"
  top: "fc7"
}
layer {
  name: "drop7"
  type: "Dropout"
  bottom: "fc7"
  top: "fc7"
  dropout_param {
    dropout_ratio: 0.5
  }
}
layer {
  name: "fc8"
  type: "InnerProduct"
  bottom: "fc7"
  top: "fc8"
  param {
    lr_mult: 1
    decay_mult: 1
  }
  param {
    lr_mult: 2
    decay_mult: 0
  }
  inner_product_param {
    num_output: 1000
    weight_filler {
      type: "gaussian"
      std: 0.01
    }
    bias_filler {
      type: "constant"
      value: 0
    }
  }
}
layer {
  name: "fc8_fc8_0_split"
  type: "Split"
  bottom: "fc8"
  top: "fc8_fc8_0_split_0"
  top: "fc8_fc8_0_split_1"
}
layer {
  name: "accuracy"
  type: "Accuracy"
  bottom: "fc8_fc8_0_split_0"
  bottom: "label_data_1_split_0"
  top: "accuracy"
}
layer {
  name: "loss"
  type: "SoftmaxWithLoss"
  bottom: "fc8_fc8_0_split_1"
  bottom: "label_data_1_split_1"
  top: "loss"
}
I1226 13:57:53.037111 93154 cpu_info.cpp:473] Number of OpenMP threads: 66
I1226 13:57:53.017226 94427 cpu_info.cpp:473] Number of OpenMP threads: 66
I1226 13:57:53.036422 95085 layer_factory.hpp:114] Creating layer data
I1226 13:57:53.047134 91478 cpu_info.cpp:473] Number of OpenMP threads: 66
I1226 13:57:53.036367 91481 cpu_info.cpp:473] Number of OpenMP threads: 66
…
I1226 13:57:53.036721 91481 net.cpp:500] The NetState phase (0) differed from the phase (1) specified by a rule in layer data
I1226 13:57:53.026653 97230 net.cpp:136] Initializing net from parameters: 
name: "AlexNet"
state {
  phase: TRAIN
  level: 0
  stage: ""
}
engine: "MKL2017"
layer {
  name: "data"
  type: "Data"
  top: "data"
  top: "label"
  include {
    phase: TRAIN
  }
  transform_param {
    mirror: true
    crop_size: 227
    mean_value: 104
    mean_value: 117
    mean_value: 123
  }
  data_param {
    source: "/export/data1/stanford/hazy/zjian/gorden_bell/ILSVRC2012_lmdb/db_8/ilsvrc12_train_lmdb_2"
    batch_size: 32
    backend: LMDB
  }
}
layer {
  name: "label_data_1_split"
  type: "Split"
  bottom: "label"
  top: "label_data_1_split_0"
  top: "label_data_1_split_1"
}
layer {
  name: "conv1"
  type: "Convolution"
  bottom: "data"
  top: "conv1"
  param {
    lr_mult: 1
    decay_mult: 1
  }
  param {
    lr_mult: 2
    decay_mult: 0
  }
  convolution_param {
    num_output: 96
    kernel_size: 11
    stride: 4
    weight_filler {
      type: "gaussian"
      std: 0.01
    }
    bias_filler {
      type: "constant"
      value: 0
    }
    engine: MKL2017
  }
}
layer {
  name: "relu1"
  type: "ReLU"
  bottom: "conv1"
  top: "conv1"
  relu_param {
    engine: MKL2017
  }
}
layer {
  name: "norm1"
  type: "LRN"
  bottom: "conv1"
  top: "norm1"
  lrn_param {
    local_size: 5
    alpha: 0.0001
    beta: 0.75
    engine: MKL2017
  }
}
layer {
  name: "pool1"
  type: "Pooling"
  bottom: "norm1"
  top: "pool1"
  pooling_param {
    pool: MAX
    kernel_size: 3
    stride: 2
    engine: MKL2017
  }
}
layer {
  name: "conv2"
  type: "Convolution"
  bottom: "pool1"
  top: "conv2"
  param {
    lr_mult: 1
    decay_mult: 1
  }
  param {
    lr_mult: 2
    decay_mult: 0
  }
  convolution_param {
    num_output: 256
    pad: 2
    kernel_size: 5
    group: 2
    weight_filler {
      type: "gaussian"
      std: 0.01
    }
    bias_filler {
      type: "constant"
      value: 0.1
    }
    engine: MKL2017
  }
}
layer {
  name: "relu2"
  type: "ReLU"
  bottom: "conv2"
  top: "conv2"
  relu_param {
    engine: MKL2017
  }
}
layer {
  name: "norm2"
  type: "LRN"
  bottom: "conv2"
  top: "norm2"
  lrn_param {
    local_size: 5
    alpha: 0.0001
    beta: 0.75
    engine: MKL2017
  }
}
layer {
  name: "pool2"
  type: "Pooling"
  bottom: "norm2"
  top: "pool2"
  pooling_param {
    pool: MAX
    kernel_size: 3
    stride: 2
    engine: MKL2017
  }
}
layer {
  name: "conv3"
  type: "Convolution"
  bottom: "pool2"
  top: "conv3"
  param {
    lr_mult: 1
    decay_mult: 1
  }
  param {
    lr_mult: 2
    decay_mult: 0
  }
  convolution_param {
    num_output: 384
    pad: 1
    kernel_size: 3
    weight_filler {
      type: "gaussian"
      std: 0.01
    }
    bias_filler {
      type: "constant"
      value: 0
    }
    engine: MKL2017
  }
}
layer {
  name: "relu3"
  type: "ReLU"
  bottom: "conv3"
  top: "conv3"
  relu_param {
    engine: MKL2017
  }
}
layer {
  name: "conv4"
  type: "Convolution"
  bottom: "conv3"
  top: "conv4"
  param {
    lr_mult: 1
    decay_mult: 1
  }
  param {
    lr_mult: 2
    decay_mult: 0
  }
  convolution_param {
    num_output: 384
    pad: 1
    kernel_size: 3
    group: 2
    weight_filler {
      type: "gaussian"
      std: 0.01
    }
    bias_filler {
      type: "constant"
      value: 0.1
    }
    engine: MKL2017
  }
}
layer {
  name: "relu4"
  type: "ReLU"
  bottom: "conv4"
  top: "conv4"
  relu_param {
    engine: MKL2017
  }
}
layer {
  name: "conv5"
  type: "Convolution"
  bottom: "conv4"
  top: "conv5"
  param {
    lr_mult: 1
    decay_mult: 1
  }
  param {
    lr_mult: 2
    decay_mult: 0
  }
  convolution_param {
    num_output: 256
    pad: 1
    kernel_size: 3
    group: 2
    weight_filler {
      type: "gaussian"
      std: 0.01
    }
    bias_filler {
      type: "constant"
      value: 0.1
    }
    engine: MKL2017
  }
}
layer {
  name: "relu5"
  type: "ReLU"
  bottom: "conv5"
  top: "conv5"
  relu_param {
    engine: MKL2017
  }
}
layer {
  name: "pool5"
  type: "Pooling"
  bottom: "conv5"
  top: "pool5"
  pooling_param {
    pool: MAX
    kernel_size: 3
    stride: 2
    engine: MKL2017
  }
}
layer {
  name: "fc6"
  type: "InnerProduct"
  bottom: "pool5"
  top: "fc6"
  param {
    lr_mult: 1
    decay_mult: 1
  }
  param {
    lr_mult: 2
    decay_mult: 0
  }
  inner_product_param {
    num_output: 4096
    weight_filler {
      type: "gaussian"
      std: 0.005
    }
    bias_filler {
      type: "constant"
      value: 0.1
    }
  }
}
layer {
  name: "relu6"
  type: "ReLU"
  bottom: "fc6"
  top: "fc6"
}
layer {
  name: "drop6"
  type: "Dropout"
  bottom: "fc6"
  top: "fc6"
  dropout_param {
    dropout_ratio: 0.5
  }
}
layer {
  name: "fc7"
  type: "InnerProduct"
  bottom: "fc6"
  top: "fc7"
  param {
    lr_mult: 1
    decay_mult: 1
  }
  param {
    lr_mult: 2
    decay_mult: 0
  }
  inner_product_param {
    num_output: 4096
    weight_filler {
      type: "gaussian"
      std: 0.005
    }
    bias_filler {
      type: "constant"
      value: 0.1
    }
  }
}
layer {
  name: "relu7"
  type: "ReLU"
  bottom: "fc7"
  top: "fc7"
}
layer {
  name: "drop7"
  type: "Dropout"
  bottom: "fc7"
  top: "fc7"
  dropout_param {
    dropout_ratio: 0.5
  }
}
layer {
  name: "fc8"
  type: "InnerProduct"
  bottom: "fc7"
  top: "fc8"
  param {
    lr_mult: 1
    decay_mult: 1
  }
  param {
    lr_mult: 2
    decay_mult: 0
  }
  inner_product_param {
    num_output: 1000
    weight_filler {
      type: "gaussian"
      std: 0.01
    }
    bias_filler {
      type: "constant"
      value: 0
    }
  }
}
layer {
  name: "fc8_fc8_0_split"
  type: "Split"
  bottom: "fc8"
  top: "fc8_fc8_0_split_0"
  top: "fc8_fc8_0_split_1"
}
layer {
  name: "accuracy"
  type: "Accuracy"
  bottom: "fc8_fc8_0_split_0"
  bottom: "label_data_1_split_0"
  top: "accuracy"
}
layer {
  name: "loss"
  type: "SoftmaxWithLoss"
  bottom: "fc8_fc8_0_split_1"
  bottom: "label_data_1_split_1"
  top: "loss"
}
I1226 13:57:53.039244 93154 net.cpp:136] Initializing net from parameters: 
name: "AlexNet"
state {
  phase: TRAIN
  level: 0
  stage: ""
}
engine: "MKL2017"
layer {
  name: "data"
  type: "DummyData"
  top: "data"
  top: "label"
  include {
    phase: TRAIN
  }
  transform_param {
    mirror: true
    crop_size: 227
    mean_value: 104
    mean_value: 117
    mean_value: 123
  }
  dummy_data_param {
    data_filler {
      type: "gaussian"
      std: 1
    }
    data_filler {
      type: "constant"
      value: 0
    }
    shape {
      dim: 32
      dim: 3
      dim: 227
      dim: 227
    }
    shape {
      dim: 32
      dim: 1
      dim: 1
      dim: 1
    }
  }
}
layer {
  name: "label_data_1_split"
  type: "Split"
  bottom: "label"
  top: "label_data_1_split_0"
  top: "label_data_1_split_1"
}
layer {
  name: "conv1"
  type: "Convolution"
  bottom: "data"
  top: "conv1"
  param {
    lr_mult: 1
    decay_mult: 1
  }
  param {
    lr_mult: 2
    decay_mult: 0
  }
  convolution_param {
    num_output: 96
    kernel_size: 11
    stride: 4
    weight_filler {
      type: "gaussian"
      std: 0.01
    }
    bias_filler {
      type: "constant"
      value: 0
    }
    engine: MKL2017
  }
}
layer {
  name: "relu1"
  type: "ReLU"
  bottom: "conv1"
  top: "conv1"
  relu_param {
    engine: MKL2017
  }
}
layer {
  name: "norm1"
  type: "LRN"
  bottom: "conv1"
  top: "norm1"
  lrn_param {
    local_size: 5
    alpha: 0.0001
    beta: 0.75
    engine: MKL2017
  }
}
layer {
  name: "pool1"
  type: "Pooling"
  bottom: "norm1"
  top: "pool1"
  pooling_param {
    pool: MAX
    kernel_size: 3
    stride: 2
    engine: MKL2017
  }
}
layer {
  name: "conv2"
  type: "Convolution"
  bottom: "pool1"
  top: "conv2"
  param {
    lr_mult: 1
    decay_mult: 1
  }
  param {
    lr_mult: 2
    decay_mult: 0
  }
  convolution_param {
    num_output: 256
    pad: 2
    kernel_size: 5
    group: 2
    weight_filler {
      type: "gaussian"
      std: 0.01
    }
    bias_filler {
      type: "constant"
      value: 0.1
    }
    engine: MKL2017
  }
}
layer {
  name: "relu2"
  type: "ReLU"
  bottom: "conv2"
  top: "conv2"
  relu_param {
    engine: MKL2017
  }
}
layer {
  name: "norm2"
  type: "LRN"
  bottom: "conv2"
  top: "norm2"
  lrn_param {
    local_size: 5
    alpha: 0.0001
    beta: 0.75
    engine: MKL2017
  }
}
layer {
  name: "pool2"
  type: "Pooling"
  bottom: "norm2"
  top: "pool2"
  pooling_param {
    pool: MAX
    kernel_size: 3
    stride: 2
    engine: MKL2017
  }
}
layer {
  name: "conv3"
  type: "Convolution"
  bottom: "pool2"
  top: "conv3"
  param {
    lr_mult: 1
    decay_mult: 1
  }
  param {
    lr_mult: 2
    decay_mult: 0
  }
  convolution_param {
    num_output: 384
    pad: 1
    kernel_size: 3
    weight_filler {
      type: "gaussian"
      std: 0.01
    }
    bias_filler {
      type: "constant"
      value: 0
    }
    engine: MKL2017
  }
}
layer {
  name: "relu3"
  type: "ReLU"
  bottom: "conv3"
  top: "conv3"
  relu_param {
    engine: MKL2017
  }
}
layer {
  name: "conv4"
  type: "Convolution"
  bottom: "conv3"
  top: "conv4"
  param {
    lr_mult: 1
    decay_mult: 1
  }
  param {
    lr_mult: 2
    decay_mult: 0
  }
  convolution_param {
    num_output: 384
    pad: 1
    kernel_size: 3
    group: 2
    weight_filler {
      type: "gaussian"
      std: 0.01
    }
    bias_filler {
      type: "constant"
      value: 0.1
    }
    engine: MKL2017
  }
}
layer {
  name: "relu4"
  type: "ReLU"
  bottom: "conv4"
  top: "conv4"
  relu_param {
    engine: MKL2017
  }
}
layer {
  name: "conv5"
  type: "Convolution"
  bottom: "conv4"
  top: "conv5"
  param {
    lr_mult: 1
    decay_mult: 1
  }
  param {
    lr_mult: 2
    decay_mult: 0
  }
  convolution_param {
    num_output: 256
    pad: 1
    kernel_size: 3
    group: 2
    weight_filler {
      type: "gaussian"
      std: 0.01
    }
    bias_filler {
      type: "constant"
      value: 0.1
    }
    engine: MKL2017
  }
}
layer {
  name: "relu5"
  type: "ReLU"
  bottom: "conv5"
  top: "conv5"
  relu_param {
    engine: MKL2017
  }
}
layer {
  name: "pool5"
  type: "Pooling"
  bottom: "conv5"
  top: "pool5"
  pooling_param {
    pool: MAX
    kernel_size: 3
    stride: 2
    engine: MKL2017
  }
}
layer {
  name: "fc6"
  type: "InnerProduct"
  bottom: "pool5"
  top: "fc6"
  param {
    lr_mult: 1
    decay_mult: 1
  }
  param {
    lr_mult: 2
    decay_mult: 0
  }
  inner_product_param {
    num_output: 4096
    weight_filler {
      type: "gaussian"
      std: 0.005
    }
    bias_filler {
      type: "constant"
      value: 0.1
    }
  }
}
layer {
  name: "relu6"
  type: "ReLU"
  bottom: "fc6"
  top: "fc6"
}
layer {
  name: "drop6"
  type: "Dropout"
  bottom: "fc6"
  top: "fc6"
  dropout_param {
    dropout_ratio: 0.5
  }
}
layer {
  name: "fc7"
  type: "InnerProduct"
  bottom: "fc6"
  top: "fc7"
  param {
    lr_mult: 1
    decay_mult: 1
  }
  param {
    lr_mult: 2
    decay_mult: 0
  }
  inner_product_param {
    num_output: 4096
    weight_filler {
      type: "gaussian"
      std: 0.005
    }
    bias_filler {
      type: "constant"
      value: 0.1
    }
  }
}
layer {
  name: "relu7"
  type: "ReLU"
  bottom: "fc7"
  top: "fc7"
}
layer {
  name: "drop7"
  type: "Dropout"
  bottom: "fc7"
  top: "fc7"
  dropout_param {
    dropout_ratio: 0.5
  }
}
layer {
  name: "fc8"
  type: "InnerProduct"
  bottom: "fc7"
  top: "fc8"
  param {
    lr_mult: 1
    decay_mult: 1
  }
  param {
    lr_mult: 2
    decay_mult: 0
  }
  inner_product_param {
    num_output: 1000
    weight_filler {
      type: "gaussian"
      std: 0.01
    }
    bias_filler {
      type: "constant"
      value: 0
    }
  }
}
layer {
  name: "fc8_fc8_0_split"
  type: "Split"
  bottom: "fc8"
  top: "fc8_fc8_0_split_0"
  top: "fc8_fc8_0_split_1"
}
layer {
  name: "accuracy"
  type: "Accuracy"
  bottom: "fc8_fc8_0_split_0"
  bottom: "label_data_1_split_0"
  top: "accuracy"
}
layer {
  name: "loss"
  type: "SoftmaxWithLoss"
  bottom: "fc8_fc8_0_split_1"
  bottom: "label_data_1_split_1"
  top: "loss"
}
I1226 13:57:53.019279 94427 net.cpp:136] Initializing net from parameters: 
name: "AlexNet"
state {
  phase: TRAIN
  level: 0
  stage: ""
}
engine: "MKL2017"
layer {
  name: "data"
  type: "Data"
  top: "data"
  top: "label"
  include {
    phase: TRAIN
  }
  transform_param {
    mirror: true
    crop_size: 227
    mean_value: 104
    mean_value: 117
    mean_value: 123
  }
  data_param {
    source: "/export/data1/stanford/hazy/zjian/gorden_bell/ILSVRC2012_lmdb/db_8/ilsvrc12_train_lmdb_3"
    batch_size: 32
    backend: LMDB
  }
}
layer {
  name: "label_data_1_split"
  type: "Split"
  bottom: "label"
  top: "label_data_1_split_0"
  top: "label_data_1_split_1"
}
layer {
  name: "conv1"
  type: "Convolution"
  bottom: "data"
  top: "conv1"
  param {
    lr_mult: 1
    decay_mult: 1
  }
  param {
    lr_mult: 2
    decay_mult: 0
  }
  convolution_param {
    num_output: 96
    kernel_size: 11
    stride: 4
    weight_filler {
      type: "gaussian"
      std: 0.01
    }
    bias_filler {
      type: "constant"
      value: 0
    }
    engine: MKL2017
  }
}
layer {
  name: "relu1"
  type: "ReLU"
  bottom: "conv1"
  top: "conv1"
  relu_param {
    engine: MKL2017
  }
}
layer {
  name: "norm1"
  type: "LRN"
  bottom: "conv1"
  top: "norm1"
  lrn_param {
    local_size: 5
    alpha: 0.0001
    beta: 0.75
    engine: MKL2017
  }
}
layer {
  name: "pool1"
  type: "Pooling"
  bottom: "norm1"
  top: "pool1"
  pooling_param {
    pool: MAX
    kernel_size: 3
    stride: 2
    engine: MKL2017
  }
}
layer {
  name: "conv2"
  type: "Convolution"
  bottom: "pool1"
  top: "conv2"
  param {
    lr_mult: 1
    decay_mult: 1
  }
  param {
    lr_mult: 2
    decay_mult: 0
  }
  convolution_param {
    num_output: 256
    pad: 2
    kernel_size: 5
    group: 2
    weight_filler {
      type: "gaussian"
      std: 0.01
    }
    bias_filler {
      type: "constant"
      value: 0.1
    }
    engine: MKL2017
  }
}
layer {
  name: "relu2"
  type: "ReLU"
  bottom: "conv2"
  top: "conv2"
  relu_param {
    engine: MKL2017
  }
}
layer {
  name: "norm2"
  type: "LRN"
  bottom: "conv2"
  top: "norm2"
  lrn_param {
    local_size: 5
    alpha: 0.0001
    beta: 0.75
    engine: MKL2017
  }
}
layer {
  name: "pool2"
  type: "Pooling"
  bottom: "norm2"
  top: "pool2"
  pooling_param {
    pool: MAX
    kernel_size: 3
    stride: 2
    engine: MKL2017
  }
}
layer {
  name: "conv3"
  type: "Convolution"
  bottom: "pool2"
  top: "conv3"
  param {
    lr_mult: 1
    decay_mult: 1
  }
  param {
    lr_mult: 2
    decay_mult: 0
  }
  convolution_param {
    num_output: 384
    pad: 1
    kernel_size: 3
    weight_filler {
      type: "gaussian"
      std: 0.01
    }
    bias_filler {
      type: "constant"
      value: 0
    }
    engine: MKL2017
  }
}
layer {
  name: "relu3"
  type: "ReLU"
  bottom: "conv3"
  top: "conv3"
  relu_param {
    engine: MKL2017
  }
}
layer {
  name: "conv4"
  type: "Convolution"
  bottom: "conv3"
  top: "conv4"
  param {
    lr_mult: 1
    decay_mult: 1
  }
  param {
    lr_mult: 2
    decay_mult: 0
  }
  convolution_param {
    num_output: 384
    pad: 1
    kernel_size: 3
    group: 2
    weight_filler {
      type: "gaussian"
      std: 0.01
    }
    bias_filler {
      type: "constant"
      value: 0.1
    }
    engine: MKL2017
  }
}
layer {
  name: "relu4"
  type: "ReLU"
  bottom: "conv4"
  top: "conv4"
  relu_param {
    engine: MKL2017
  }
}
layer {
  name: "conv5"
  type: "Convolution"
  bottom: "conv4"
  top: "conv5"
  param {
    lr_mult: 1
    decay_mult: 1
  }
  param {
    lr_mult: 2
    decay_mult: 0
  }
  convolution_param {
    num_output: 256
    pad: 1
    kernel_size: 3
    group: 2
    weight_filler {
      type: "gaussian"
      std: 0.01
    }
    bias_filler {
      type: "constant"
      value: 0.1
    }
    engine: MKL2017
  }
}
layer {
  name: "relu5"
  type: "ReLU"
  bottom: "conv5"
  top: "conv5"
  relu_param {
    engine: MKL2017
  }
}
layer {
  name: "pool5"
  type: "Pooling"
  bottom: "conv5"
  top: "pool5"
  pooling_param {
    pool: MAX
    kernel_size: 3
    stride: 2
    engine: MKL2017
  }
}
layer {
  name: "fc6"
  type: "InnerProduct"
  bottom: "pool5"
  top: "fc6"
  param {
    lr_mult: 1
    decay_mult: 1
  }
  param {
    lr_mult: 2
    decay_mult: 0
  }
  inner_product_param {
    num_output: 4096
    weight_filler {
      type: "gaussian"
      std: 0.005
    }
    bias_filler {
      type: "constant"
      value: 0.1
    }
  }
}
layer {
  name: "relu6"
  type: "ReLU"
  bottom: "fc6"
  top: "fc6"
}
layer {
  name: "drop6"
  type: "Dropout"
  bottom: "fc6"
  top: "fc6"
  dropout_param {
    dropout_ratio: 0.5
  }
}
layer {
  name: "fc7"
  type: "InnerProduct"
  bottom: "fc6"
  top: "fc7"
  param {
    lr_mult: 1
    decay_mult: 1
  }
  param {
    lr_mult: 2
    decay_mult: 0
  }
  inner_product_param {
    num_output: 4096
    weight_filler {
      type: "gaussian"
      std: 0.005
    }
    bias_filler {
      type: "constant"
      value: 0.1
    }
  }
}
layer {
  name: "relu7"
  type: "ReLU"
  bottom: "fc7"
  top: "fc7"
}
layer {
  name: "drop7"
  type: "Dropout"
  bottom: "fc7"
  top: "fc7"
  dropout_param {
    dropout_ratio: 0.5
  }
}
layer {
  name: "fc8"
  type: "InnerProduct"
  bottom: "fc7"
  top: "fc8"
  param {
    lr_mult: 1
    decay_mult: 1
  }
  param {
    lr_mult: 2
    decay_mult: 0
  }
  inner_product_param {
    num_output: 1000
    weight_filler {
      type: "gaussian"
      std: 0.01
    }
    bias_filler {
      type: "constant"
      value: 0
    }
  }
}
layer {
  name: "fc8_fc8_0_split"
  type: "Split"
  bottom: "fc8"
  top: "fc8_fc8_0_split_0"
  top: "fc8_fc8_0_split_1"
}
layer {
  name: "accuracy"
  type: "Accuracy"
  bottom: "fc8_fc8_0_split_0"
  bottom: "label_data_1_split_0"
  top: "accuracy"
}
layer {
  name: "loss"
  type: "SoftmaxWithLoss"
  bottom: "fc8_fc8_0_split_1"
  bottom: "label_data_1_split_1"
  top: "loss"
}
I1226 13:57:53.045022 95085 net.cpp:586] data -> data
I1226 13:57:53.049302 91478 net.cpp:136] Initializing net from parameters: 
name: "AlexNet"
state {
  phase: TRAIN
  level: 0
  stage: ""
}
engine: "MKL2017"
layer {
  name: "data"
  type: "Data"
  top: "data"
  top: "label"
  include {
    phase: TRAIN
  }
  transform_param {
    mirror: true
    crop_size: 227
    mean_value: 104
    mean_value: 117
    mean_value: 123
  }
  data_param {
    source: "/export/data1/stanford/hazy/zjian/gorden_bell/ILSVRC2012_lmdb/db_8/ilsvrc12_train_lmdb_5"
    batch_size: 32
    backend: LMDB
  }
}
layer {
  name: "label_data_1_split"
  type: "Split"
  bottom: "label"
  top: "label_data_1_split_0"
  top: "label_data_1_split_1"
}
layer {
  name: "conv1"
  type: "Convolution"
  bottom: "data"
  top: "conv1"
  param {
    lr_mult: 1
    decay_mult: 1
  }
  param {
    lr_mult: 2
    decay_mult: 0
  }
  convolution_param {
    num_output: 96
    kernel_size: 11
    stride: 4
    weight_filler {
      type: "gaussian"
      std: 0.01
    }
    bias_filler {
      type: "constant"
      value: 0
    }
    engine: MKL2017
  }
}
layer {
  name: "relu1"
  type: "ReLU"
  bottom: "conv1"
  top: "conv1"
  relu_param {
    engine: MKL2017
  }
}
layer {
  name: "norm1"
  type: "LRN"
  bottom: "conv1"
  top: "norm1"
  lrn_param {
    local_size: 5
    alpha: 0.0001
    beta: 0.75
    engine: MKL2017
  }
}
layer {
  name: "pool1"
  type: "Pooling"
  bottom: "norm1"
  top: "pool1"
  pooling_param {
    pool: MAX
    kernel_size: 3
    stride: 2
    engine: MKL2017
  }
}
layer {
  name: "conv2"
  type: "Convolution"
  bottom: "pool1"
  top: "conv2"
  param {
    lr_mult: 1
    decay_mult: 1
  }
  param {
    lr_mult: 2
    decay_mult: 0
  }
  convolution_param {
    num_output: 256
    pad: 2
    kernel_size: 5
    group: 2
    weight_filler {
      type: "gaussian"
      std: 0.01
    }
    bias_filler {
      type: "constant"
      value: 0.1
    }
    engine: MKL2017
  }
}
layer {
  name: "relu2"
  type: "ReLU"
  bottom: "conv2"
  top: "conv2"
  relu_param {
    engine: MKL2017
  }
}
layer {
  name: "norm2"
  type: "LRN"
  bottom: "conv2"
  top: "norm2"
  lrn_param {
    local_size: 5
    alpha: 0.0001
    beta: 0.75
    engine: MKL2017
  }
}
layer {
  name: "pool2"
  type: "Pooling"
  bottom: "norm2"
  top: "pool2"
  pooling_param {
    pool: MAX
    kernel_size: 3
    stride: 2
    engine: MKL2017
  }
}
layer {
  name: "conv3"
  type: "Convolution"
  bottom: "pool2"
  top: "conv3"
  param {
    lr_mult: 1
    decay_mult: 1
  }
  param {
    lr_mult: 2
    decay_mult: 0
  }
  convolution_param {
    num_output: 384
    pad: 1
    kernel_size: 3
    weight_filler {
      type: "gaussian"
      std: 0.01
    }
    bias_filler {
      type: "constant"
      value: 0
    }
    engine: MKL2017
  }
}
layer {
  name: "relu3"
  type: "ReLU"
  bottom: "conv3"
  top: "conv3"
  relu_param {
    engine: MKL2017
  }
}
layer {
  name: "conv4"
  type: "Convolution"
  bottom: "conv3"
  top: "conv4"
  param {
    lr_mult: 1
    decay_mult: 1
  }
  param {
    lr_mult: 2
    decay_mult: 0
  }
  convolution_param {
    num_output: 384
    pad: 1
    kernel_size: 3
    group: 2
    weight_filler {
      type: "gaussian"
      std: 0.01
    }
    bias_filler {
      type: "constant"
      value: 0.1
    }
    engine: MKL2017
  }
}
layer {
  name: "relu4"
  type: "ReLU"
  bottom: "conv4"
  top: "conv4"
  relu_param {
    engine: MKL2017
  }
}
layer {
  name: "conv5"
  type: "Convolution"
  bottom: "conv4"
  top: "conv5"
  param {
    lr_mult: 1
    decay_mult: 1
  }
  param {
    lr_mult: 2
    decay_mult: 0
  }
  convolution_param {
    num_output: 256
    pad: 1
    kernel_size: 3
    group: 2
    weight_filler {
      type: "gaussian"
      std: 0.01
    }
    bias_filler {
      type: "constant"
      value: 0.1
    }
    engine: MKL2017
  }
}
layer {
  name: "relu5"
  type: "ReLU"
  bottom: "conv5"
  top: "conv5"
  relu_param {
    engine: MKL2017
  }
}
layer {
  name: "pool5"
  type: "Pooling"
  bottom: "conv5"
  top: "pool5"
  pooling_param {
    pool: MAX
    kernel_size: 3
    stride: 2
    engine: MKL2017
  }
}
layer {
  name: "fc6"
  type: "InnerProduct"
  bottom: "pool5"
  top: "fc6"
  param {
    lr_mult: 1
    decay_mult: 1
  }
  param {
    lr_mult: 2
    decay_mult: 0
  }
  inner_product_param {
    num_output: 4096
    weight_filler {
      type: "gaussian"
      std: 0.005
    }
    bias_filler {
      type: "constant"
      value: 0.1
    }
  }
}
layer {
  name: "relu6"
  type: "ReLU"
  bottom: "fc6"
  top: "fc6"
}
layer {
  name: "drop6"
  type: "Dropout"
  bottom: "fc6"
  top: "fc6"
  dropout_param {
    dropout_ratio: 0.5
  }
}
layer {
  name: "fc7"
  type: "InnerProduct"
  bottom: "fc6"
  top: "fc7"
  param {
    lr_mult: 1
    decay_mult: 1
  }
  param {
    lr_mult: 2
    decay_mult: 0
  }
  inner_product_param {
    num_output: 4096
    weight_filler {
      type: "gaussian"
      std: 0.005
    }
    bias_filler {
      type: "constant"
      value: 0.1
    }
  }
}
layer {
  name: "relu7"
  type: "ReLU"
  bottom: "fc7"
  top: "fc7"
}
layer {
  name: "drop7"
  type: "Dropout"
  bottom: "fc7"
  top: "fc7"
  dropout_param {
    dropout_ratio: 0.5
  }
}
layer {
  name: "fc8"
  type: "InnerProduct"
  bottom: "fc7"
  top: "fc8"
  param {
    lr_mult: 1
    decay_mult: 1
  }
  param {
    lr_mult: 2
    decay_mult: 0
  }
  inner_product_param {
    num_output: 1000
    weight_filler {
      type: "gaussian"
      std: 0.01
    }
    bias_filler {
      type: "constant"
      value: 0
    }
  }
}
layer {
  name: "fc8_fc8_0_split"
  type: "Split"
  bottom: "fc8"
  top: "fc8_fc8_0_split_0"
  top: "fc8_fc8_0_split_1"
}
layer {
  name: "accuracy"
  type: "Accuracy"
  bottom: "fc8_fc8_0_split_0"
  bottom: "label_data_1_split_0"
  top: "accuracy"
}
layer {
  name: "loss"
  type: "SoftmaxWithLoss"
  bottom: "fc8_fc8_0_split_1"
  bottom: "label_data_1_split_1"
  top: "loss"
}
I1226 13:57:53.038460 91481 net.cpp:136] Initializing net from parameters: 
name: "AlexNet"
state {
  phase: TRAIN
  level: 0
  stage: ""
}
engine: "MKL2017"
layer {
  name: "data"
  type: "Data"
  top: "data"
  top: "label"
  include {
    phase: TRAIN
  }
  transform_param {
    mirror: true
    crop_size: 227
    mean_value: 104
    mean_value: 117
    mean_value: 123
  }
  data_param {
    source: "/export/data1/stanford/hazy/zjian/gorden_bell/ILSVRC2012_lmdb/db_8/ilsvrc12_train_lmdb_4"
    batch_size: 32
    backend: LMDB
  }
}
layer {
  name: "label_data_1_split"
  type: "Split"
  bottom: "label"
  top: "label_data_1_split_0"
  top: "label_data_1_split_1"
}
layer {
  name: "conv1"
  type: "Convolution"
  bottom: "data"
  top: "conv1"
  param {
    lr_mult: 1
    decay_mult: 1
  }
  param {
    lr_mult: 2
    decay_mult: 0
  }
  convolution_param {
    num_output: 96
    kernel_size: 11
    stride: 4
    weight_filler {
      type: "gaussian"
      std: 0.01
    }
    bias_filler {
      type: "constant"
      value: 0
    }
    engine: MKL2017
  }
}
layer {
  name: "relu1"
  type: "ReLU"
  bottom: "conv1"
  top: "conv1"
  relu_param {
    engine: MKL2017
  }
}
layer {
  name: "norm1"
  type: "LRN"
  bottom: "conv1"
  top: "norm1"
  lrn_param {
    local_size: 5
    alpha: 0.0001
    beta: 0.75
    engine: MKL2017
  }
}
layer {
  name: "pool1"
  type: "Pooling"
  bottom: "norm1"
  top: "pool1"
  pooling_param {
    pool: MAX
    kernel_size: 3
    stride: 2
    engine: MKL2017
  }
}
layer {
  name: "conv2"
  type: "Convolution"
  bottom: "pool1"
  top: "conv2"
  param {
    lr_mult: 1
    decay_mult: 1
  }
  param {
    lr_mult: 2
    decay_mult: 0
  }
  convolution_param {
    num_output: 256
    pad: 2
    kernel_size: 5
    group: 2
    weight_filler {
      type: "gaussian"
      std: 0.01
    }
    bias_filler {
      type: "constant"
      value: 0.1
    }
    engine: MKL2017
  }
}
layer {
  name: "relu2"
  type: "ReLU"
  bottom: "conv2"
  top: "conv2"
  relu_param {
    engine: MKL2017
  }
}
layer {
  name: "norm2"
  type: "LRN"
  bottom: "conv2"
  top: "norm2"
  lrn_param {
    local_size: 5
    alpha: 0.0001
    beta: 0.75
    engine: MKL2017
  }
}
layer {
  name: "pool2"
  type: "Pooling"
  bottom: "norm2"
  top: "pool2"
  pooling_param {
    pool: MAX
    kernel_size: 3
    stride: 2
    engine: MKL2017
  }
}
layer {
  name: "conv3"
  type: "Convolution"
  bottom: "pool2"
  top: "conv3"
  param {
    lr_mult: 1
    decay_mult: 1
  }
  param {
    lr_mult: 2
    decay_mult: 0
  }
  convolution_param {
    num_output: 384
    pad: 1
    kernel_size: 3
    weight_filler {
      type: "gaussian"
      std: 0.01
    }
    bias_filler {
      type: "constant"
      value: 0
    }
    engine: MKL2017
  }
}
layer {
  name: "relu3"
  type: "ReLU"
  bottom: "conv3"
  top: "conv3"
  relu_param {
    engine: MKL2017
  }
}
layer {
  name: "conv4"
  type: "Convolution"
  bottom: "conv3"
  top: "conv4"
  param {
    lr_mult: 1
    decay_mult: 1
  }
  param {
    lr_mult: 2
    decay_mult: 0
  }
  convolution_param {
    num_output: 384
    pad: 1
    kernel_size: 3
    group: 2
    weight_filler {
      type: "gaussian"
      std: 0.01
    }
    bias_filler {
      type: "constant"
      value: 0.1
    }
    engine: MKL2017
  }
}
layer {
  name: "relu4"
  type: "ReLU"
  bottom: "conv4"
  top: "conv4"
  relu_param {
    engine: MKL2017
  }
}
layer {
  name: "conv5"
  type: "Convolution"
  bottom: "conv4"
  top: "conv5"
  param {
    lr_mult: 1
    decay_mult: 1
  }
  param {
    lr_mult: 2
    decay_mult: 0
  }
  convolution_param {
    num_output: 256
    pad: 1
    kernel_size: 3
    group: 2
    weight_filler {
      type: "gaussian"
      std: 0.01
    }
    bias_filler {
      type: "constant"
      value: 0.1
    }
    engine: MKL2017
  }
}
layer {
  name: "relu5"
  type: "ReLU"
  bottom: "conv5"
  top: "conv5"
  relu_param {
    engine: MKL2017
  }
}
layer {
  name: "pool5"
  type: "Pooling"
  bottom: "conv5"
  top: "pool5"
  pooling_param {
    pool: MAX
    kernel_size: 3
    stride: 2
    engine: MKL2017
  }
}
layer {
  name: "fc6"
  type: "InnerProduct"
  bottom: "pool5"
  top: "fc6"
  param {
    lr_mult: 1
    decay_mult: 1
  }
  param {
    lr_mult: 2
    decay_mult: 0
  }
  inner_product_param {
    num_output: 4096
    weight_filler {
      type: "gaussian"
      std: 0.005
    }
    bias_filler {
      type: "constant"
      value: 0.1
    }
  }
}
layer {
  name: "relu6"
  type: "ReLU"
  bottom: "fc6"
  top: "fc6"
}
layer {
  name: "drop6"
  type: "Dropout"
  bottom: "fc6"
  top: "fc6"
  dropout_param {
    dropout_ratio: 0.5
  }
}
layer {
  name: "fc7"
  type: "InnerProduct"
  bottom: "fc6"
  top: "fc7"
  param {
    lr_mult: 1
    decay_mult: 1
  }
  param {
    lr_mult: 2
    decay_mult: 0
  }
  inner_product_param {
    num_output: 4096
    weight_filler {
      type: "gaussian"
      std: 0.005
    }
    bias_filler {
      type: "constant"
      value: 0.1
    }
  }
}
layer {
  name: "relu7"
  type: "ReLU"
  bottom: "fc7"
  top: "fc7"
}
layer {
  name: "drop7"
  type: "Dropout"
  bottom: "fc7"
  top: "fc7"
  dropout_param {
    dropout_ratio: 0.5
  }
}
layer {
  name: "fc8"
  type: "InnerProduct"
  bottom: "fc7"
  top: "fc8"
  param {
    lr_mult: 1
    decay_mult: 1
  }
  param {
    lr_mult: 2
    decay_mult: 0
  }
  inner_product_param {
    num_output: 1000
    weight_filler {
      type: "gaussian"
      std: 0.01
    }
    bias_filler {
      type: "constant"
      value: 0
    }
  }
}
layer {
  name: "fc8_fc8_0_split"
  type: "Split"
  bottom: "fc8"
  top: "fc8_fc8_0_split_0"
  top: "fc8_fc8_0_split_1"
}
layer {
  name: "accuracy"
  type: "Accuracy"
  bottom: "fc8_fc8_0_split_0"
  bottom: "label_data_1_split_0"
  top: "accuracy"
}
layer {
  name: "loss"
  type: "SoftmaxWithLoss"
  bottom: "fc8_fc8_0_split_1"
  bottom: "label_data_1_split_1"
  top: "loss"
}
I1226 13:57:53.045133 95085 net.cpp:586] data -> label
I1226 13:57:53.053248 92257 cpu_info.cpp:473] Number of OpenMP threads: 66
I1226 13:57:53.053714 92257 net.cpp:500] The NetState phase (0) differed from the phase (1) specified by a rule in layer data
I1226 13:57:53.055860 95087 db_lmdb.cpp:72] Opened lmdb /export/data1/stanford/hazy/zjian/gorden_bell/ILSVRC2012_lmdb/db_8/ilsvrc12_train_lmdb_1
I1226 13:57:53.056004 92257 net.cpp:136] Initializing net from parameters: 
name: "AlexNet"
state {
  phase: TRAIN
  level: 0
  stage: ""
}
engine: "MKL2017"
layer {
  name: "data"
  type: "Data"
  top: "data"
  top: "label"
  include {
    phase: TRAIN
  }
  transform_param {
    mirror: true
    crop_size: 227
    mean_value: 104
    mean_value: 117
    mean_value: 123
  }
  data_param {
    source: "/export/data1/stanford/hazy/zjian/gorden_bell/ILSVRC2012_lmdb/db_8/ilsvrc12_train_lmdb_7"
    batch_size: 32
    backend: LMDB
  }
}
layer {
  name: "label_data_1_split"
  type: "Split"
  bottom: "label"
  top: "label_data_1_split_0"
  top: "label_data_1_split_1"
}
layer {
  name: "conv1"
  type: "Convolution"
  bottom: "data"
  top: "conv1"
  param {
    lr_mult: 1
    decay_mult: 1
  }
  param {
    lr_mult: 2
    decay_mult: 0
  }
  convolution_param {
    num_output: 96
    kernel_size: 11
    stride: 4
    weight_filler {
      type: "gaussian"
      std: 0.01
    }
    bias_filler {
      type: "constant"
      value: 0
    }
    engine: MKL2017
  }
}
layer {
  name: "relu1"
  type: "ReLU"
  bottom: "conv1"
  top: "conv1"
  relu_param {
    engine: MKL2017
  }
}
layer {
  name: "norm1"
  type: "LRN"
  bottom: "conv1"
  top: "norm1"
  lrn_param {
    local_size: 5
    alpha: 0.0001
    beta: 0.75
    engine: MKL2017
  }
}
layer {
  name: "pool1"
  type: "Pooling"
  bottom: "norm1"
  top: "pool1"
  pooling_param {
    pool: MAX
    kernel_size: 3
    stride: 2
    engine: MKL2017
  }
}
layer {
  name: "conv2"
  type: "Convolution"
  bottom: "pool1"
  top: "conv2"
  param {
    lr_mult: 1
    decay_mult: 1
  }
  param {
    lr_mult: 2
    decay_mult: 0
  }
  convolution_param {
    num_output: 256
    pad: 2
    kernel_size: 5
    group: 2
    weight_filler {
      type: "gaussian"
      std: 0.01
    }
    bias_filler {
      type: "constant"
      value: 0.1
    }
    engine: MKL2017
  }
}
layer {
  name: "relu2"
  type: "ReLU"
  bottom: "conv2"
  top: "conv2"
  relu_param {
    engine: MKL2017
  }
}
layer {
  name: "norm2"
  type: "LRN"
  bottom: "conv2"
  top: "norm2"
  lrn_param {
    local_size: 5
    alpha: 0.0001
    beta: 0.75
    engine: MKL2017
  }
}
layer {
  name: "pool2"
  type: "Pooling"
  bottom: "norm2"
  top: "pool2"
  pooling_param {
    pool: MAX
    kernel_size: 3
    stride: 2
    engine: MKL2017
  }
}
layer {
  name: "conv3"
  type: "Convolution"
  bottom: "pool2"
  top: "conv3"
  param {
    lr_mult: 1
    decay_mult: 1
  }
  param {
    lr_mult: 2
    decay_mult: 0
  }
  convolution_param {
    num_output: 384
    pad: 1
    kernel_size: 3
    weight_filler {
      type: "gaussian"
      std: 0.01
    }
    bias_filler {
      type: "constant"
      value: 0
    }
    engine: MKL2017
  }
}
layer {
  name: "relu3"
  type: "ReLU"
  bottom: "conv3"
  top: "conv3"
  relu_param {
    engine: MKL2017
  }
}
layer {
  name: "conv4"
  type: "Convolution"
  bottom: "conv3"
  top: "conv4"
  param {
    lr_mult: 1
    decay_mult: 1
  }
  param {
    lr_mult: 2
    decay_mult: 0
  }
  convolution_param {
    num_output: 384
    pad: 1
    kernel_size: 3
    group: 2
    weight_filler {
      type: "gaussian"
      std: 0.01
    }
    bias_filler {
      type: "constant"
      value: 0.1
    }
    engine: MKL2017
  }
}
layer {
  name: "relu4"
  type: "ReLU"
  bottom: "conv4"
  top: "conv4"
  relu_param {
    engine: MKL2017
  }
}
layer {
  name: "conv5"
  type: "Convolution"
  bottom: "conv4"
  top: "conv5"
  param {
    lr_mult: 1
    decay_mult: 1
  }
  param {
    lr_mult: 2
    decay_mult: 0
  }
  convolution_param {
    num_output: 256
    pad: 1
    kernel_size: 3
    group: 2
    weight_filler {
      type: "gaussian"
      std: 0.01
    }
    bias_filler {
      type: "constant"
      value: 0.1
    }
    engine: MKL2017
  }
}
layer {
  name: "relu5"
  type: "ReLU"
  bottom: "conv5"
  top: "conv5"
  relu_param {
    engine: MKL2017
  }
}
layer {
  name: "pool5"
  type: "Pooling"
  bottom: "conv5"
  top: "pool5"
  pooling_param {
    pool: MAX
    kernel_size: 3
    stride: 2
    engine: MKL2017
  }
}
layer {
  name: "fc6"
  type: "InnerProduct"
  bottom: "pool5"
  top: "fc6"
  param {
    lr_mult: 1
    decay_mult: 1
  }
  param {
    lr_mult: 2
    decay_mult: 0
  }
  inner_product_param {
    num_output: 4096
    weight_filler {
      type: "gaussian"
      std: 0.005
    }
    bias_filler {
      type: "constant"
      value: 0.1
    }
  }
}
layer {
  name: "relu6"
  type: "ReLU"
  bottom: "fc6"
  top: "fc6"
}
layer {
  name: "drop6"
  type: "Dropout"
  bottom: "fc6"
  top: "fc6"
  dropout_param {
    dropout_ratio: 0.5
  }
}
layer {
  name: "fc7"
  type: "InnerProduct"
  bottom: "fc6"
  top: "fc7"
  param {
    lr_mult: 1
    decay_mult: 1
  }
  param {
    lr_mult: 2
    decay_mult: 0
  }
  inner_product_param {
    num_output: 4096
    weight_filler {
      type: "gaussian"
      std: 0.005
    }
    bias_filler {
      type: "constant"
      value: 0.1
    }
  }
}
layer {
  name: "relu7"
  type: "ReLU"
  bottom: "fc7"
  top: "fc7"
}
layer {
  name: "drop7"
  type: "Dropout"
  bottom: "fc7"
  top: "fc7"
  dropout_param {
    dropout_ratio: 0.5
  }
}
layer {
  name: "fc8"
  type: "InnerProduct"
  bottom: "fc7"
  top: "fc8"
  param {
    lr_mult: 1
    decay_mult: 1
  }
  param {
    lr_mult: 2
    decay_mult: 0
  }
  inner_product_param {
    num_output: 1000
    weight_filler {
      type: "gaussian"
      std: 0.01
    }
    bias_filler {
      type: "constant"
      value: 0
    }
  }
}
layer {
  name: "fc8_fc8_0_split"
  type: "Split"
  bottom: "fc8"
  top: "fc8_fc8_0_split_0"
  top: "fc8_fc8_0_split_1"
}
layer {
  name: "accuracy"
  type: "Accuracy"
  bottom: "fc8_fc8_0_split_0"
  bottom: "label_data_1_split_0"
  top: "accuracy"
}
layer {
  name: "loss"
  type: "SoftmaxWithLoss"
  bottom: "fc8_fc8_0_split_1"
  bottom: "label_data_1_split_1"
  top: "loss"
}
I1226 13:57:53.057744 92037 cpu_info.cpp:473] Number of OpenMP threads: 66
I1226 13:57:53.058059 92037 net.cpp:500] The NetState phase (0) differed from the phase (1) specified by a rule in layer data
I1226 13:57:53.060405 95085 data_layer.cpp:80] output data size: 32,3,227,227
I1226 13:57:53.059804 92037 net.cpp:136] Initializing net from parameters: 
name: "AlexNet"
state {
  phase: TRAIN
  level: 0
  stage: ""
}
engine: "MKL2017"
layer {
  name: "data"
  type: "Data"
  top: "data"
  top: "label"
  include {
    phase: TRAIN
  }
  transform_param {
    mirror: true
    crop_size: 227
    mean_value: 104
    mean_value: 117
    mean_value: 123
  }
  data_param {
    source: "/export/data1/stanford/hazy/zjian/gorden_bell/ILSVRC2012_lmdb/db_8/ilsvrc12_train_lmdb_0"
    batch_size: 32
    backend: LMDB
  }
}
layer {
  name: "label_data_1_split"
  type: "Split"
  bottom: "label"
  top: "label_data_1_split_0"
  top: "label_data_1_split_1"
}
layer {
  name: "conv1"
  type: "Convolution"
  bottom: "data"
  top: "conv1"
  param {
    lr_mult: 1
    decay_mult: 1
  }
  param {
    lr_mult: 2
    decay_mult: 0
  }
  convolution_param {
    num_output: 96
    kernel_size: 11
    stride: 4
    weight_filler {
      type: "gaussian"
      std: 0.01
    }
    bias_filler {
      type: "constant"
      value: 0
    }
    engine: MKL2017
  }
}
layer {
  name: "relu1"
  type: "ReLU"
  bottom: "conv1"
  top: "conv1"
  relu_param {
    engine: MKL2017
  }
}
layer {
  name: "norm1"
  type: "LRN"
  bottom: "conv1"
  top: "norm1"
  lrn_param {
    local_size: 5
    alpha: 0.0001
    beta: 0.75
    engine: MKL2017
  }
}
layer {
  name: "pool1"
  type: "Pooling"
  bottom: "norm1"
  top: "pool1"
  pooling_param {
    pool: MAX
    kernel_size: 3
    stride: 2
    engine: MKL2017
  }
}
layer {
  name: "conv2"
  type: "Convolution"
  bottom: "pool1"
  top: "conv2"
  param {
    lr_mult: 1
    decay_mult: 1
  }
  param {
    lr_mult: 2
    decay_mult: 0
  }
  convolution_param {
    num_output: 256
    pad: 2
    kernel_size: 5
    group: 2
    weight_filler {
      type: "gaussian"
      std: 0.01
    }
    bias_filler {
      type: "constant"
      value: 0.1
    }
    engine: MKL2017
  }
}
layer {
  name: "relu2"
  type: "ReLU"
  bottom: "conv2"
  top: "conv2"
  relu_param {
    engine: MKL2017
  }
}
layer {
  name: "norm2"
  type: "LRN"
  bottom: "conv2"
  top: "norm2"
  lrn_param {
    local_size: 5
    alpha: 0.0001
    beta: 0.75
    engine: MKL2017
  }
}
layer {
  name: "pool2"
  type: "Pooling"
  bottom: "norm2"
  top: "pool2"
  pooling_param {
    pool: MAX
    kernel_size: 3
    stride: 2
    engine: MKL2017
  }
}
layer {
  name: "conv3"
  type: "Convolution"
  bottom: "pool2"
  top: "conv3"
  param {
    lr_mult: 1
    decay_mult: 1
  }
  param {
    lr_mult: 2
    decay_mult: 0
  }
  convolution_param {
    num_output: 384
    pad: 1
    kernel_size: 3
    weight_filler {
      type: "gaussian"
      std: 0.01
    }
    bias_filler {
      type: "constant"
      value: 0
    }
    engine: MKL2017
  }
}
layer {
  name: "relu3"
  type: "ReLU"
  bottom: "conv3"
  top: "conv3"
  relu_param {
    engine: MKL2017
  }
}
layer {
  name: "conv4"
  type: "Convolution"
  bottom: "conv3"
  top: "conv4"
  param {
    lr_mult: 1
    decay_mult: 1
  }
  param {
    lr_mult: 2
    decay_mult: 0
  }
  convolution_param {
    num_output: 384
    pad: 1
    kernel_size: 3
    group: 2
    weight_filler {
      type: "gaussian"
      std: 0.01
    }
    bias_filler {
      type: "constant"
      value: 0.1
    }
    engine: MKL2017
  }
}
layer {
  name: "relu4"
  type: "ReLU"
  bottom: "conv4"
  top: "conv4"
  relu_param {
    engine: MKL2017
  }
}
layer {
  name: "conv5"
  type: "Convolution"
  bottom: "conv4"
  top: "conv5"
  param {
    lr_mult: 1
    decay_mult: 1
  }
  param {
    lr_mult: 2
    decay_mult: 0
  }
  convolution_param {
    num_output: 256
    pad: 1
    kernel_size: 3
    group: 2
    weight_filler {
      type: "gaussian"
      std: 0.01
    }
    bias_filler {
      type: "constant"
      value: 0.1
    }
    engine: MKL2017
  }
}
layer {
  name: "relu5"
  type: "ReLU"
  bottom: "conv5"
  top: "conv5"
  relu_param {
    engine: MKL2017
  }
}
layer {
  name: "pool5"
  type: "Pooling"
  bottom: "conv5"
  top: "pool5"
  pooling_param {
    pool: MAX
    kernel_size: 3
    stride: 2
    engine: MKL2017
  }
}
layer {
  name: "fc6"
  type: "InnerProduct"
  bottom: "pool5"
  top: "fc6"
  param {
    lr_mult: 1
    decay_mult: 1
  }
  param {
    lr_mult: 2
    decay_mult: 0
  }
  inner_product_param {
    num_output: 4096
    weight_filler {
      type: "gaussian"
      std: 0.005
    }
    bias_filler {
      type: "constant"
      value: 0.1
    }
  }
}
layer {
  name: "relu6"
  type: "ReLU"
  bottom: "fc6"
  top: "fc6"
}
layer {
  name: "drop6"
  type: "Dropout"
  bottom: "fc6"
  top: "fc6"
  dropout_param {
    dropout_ratio: 0.5
  }
}
layer {
  name: "fc7"
  type: "InnerProduct"
  bottom: "fc6"
  top: "fc7"
  param {
    lr_mult: 1
    decay_mult: 1
  }
  param {
    lr_mult: 2
    decay_mult: 0
  }
  inner_product_param {
    num_output: 4096
    weight_filler {
      type: "gaussian"
      std: 0.005
    }
    bias_filler {
      type: "constant"
      value: 0.1
    }
  }
}
layer {
  name: "relu7"
  type: "ReLU"
  bottom: "fc7"
  top: "fc7"
}
layer {
  name: "drop7"
  type: "Dropout"
  bottom: "fc7"
  top: "fc7"
  dropout_param {
    dropout_ratio: 0.5
  }
}
layer {
  name: "fc8"
  type: "InnerProduct"
  bottom: "fc7"
  top: "fc8"
  param {
    lr_mult: 1
    decay_mult: 1
  }
  param {
    lr_mult: 2
    decay_mult: 0
  }
  inner_product_param {
    num_output: 1000
    weight_filler {
      type: "gaussian"
      std: 0.01
    }
    bias_filler {
      type: "constant"
      value: 0
    }
  }
}
layer {
  name: "fc8_fc8_0_split"
  type: "Split"
  bottom: "fc8"
  top: "fc8_fc8_0_split_0"
  top: "fc8_fc8_0_split_1"
}
layer {
  name: "accuracy"
  type: "Accuracy"
  bottom: "fc8_fc8_0_split_0"
  bottom: "label_data_1_split_0"
  top: "accuracy"
}
layer {
  name: "loss"
  type: "SoftmaxWithLoss"
  bottom: "fc8_fc8_0_split_1"
  bottom: "label_data_1_split_1"
  top: "loss"
}
I1226 13:57:53.052279 96716 net.cpp:178] Creating Layer data
I1226 13:57:53.052412 96716 net.cpp:586] data -> data
I1226 13:57:53.052538 96716 net.cpp:586] data -> label
I1226 13:57:53.065001 93154 layer_factory.hpp:114] Creating layer data
I1226 13:57:53.065172 93154 net.cpp:178] Creating Layer data
I1226 13:57:53.065235 93154 net.cpp:586] data -> data
I1226 13:57:53.065364 93154 net.cpp:586] data -> label
…
I1226 13:57:53.140336 94429 db_lmdb.cpp:72] Opened lmdb /export/data1/stanford/hazy/zjian/gorden_bell/ILSVRC2012_lmdb/db_8/ilsvrc12_train_lmdb_3
I1226 13:57:53.157158 92257 data_layer.cpp:80] output data size: 32,3,227,227
I1226 13:57:53.153661 91481 data_layer.cpp:80] output data size: 32,3,227,227
I1226 13:57:53.144431 94427 data_layer.cpp:80] output data size: 32,3,227,227
I1226 13:57:53.159585 92040 db_lmdb.cpp:72] Opened lmdb /export/data1/stanford/hazy/zjian/gorden_bell/ILSVRC2012_lmdb/db_8/ilsvrc12_train_lmdb_0
I1226 13:57:53.168094 92037 data_layer.cpp:80] output data size: 32,3,227,227
I1226 13:57:53.219099 92257 net.cpp:228] Setting up data
I1226 13:57:53.219231 92257 net.cpp:235] Top shape: 32 3 227 227 (4946784)
I1226 13:57:53.231240 91478 net.cpp:228] Setting up data
I1226 13:57:53.231355 91478 net.cpp:235] Top shape: 32 3 227 227 (4946784)
I1226 13:57:53.231390 91478 net.cpp:235] Top shape: 32 (32)
I1226 13:57:53.231413 91478 net.cpp:243] Memory required for data: 19787264
I1226 13:57:53.231448 91478 layer_factory.hpp:114] Creating layer label_data_1_split
I1226 13:57:53.231528 91478 net.cpp:178] Creating Layer label_data_1_split
I1226 13:57:53.231668 91478 net.cpp:612] label_data_1_split <- label
I1226 13:57:53.231705 91478 net.cpp:586] label_data_1_split -> label_data_1_split_0
I1226 13:57:53.231779 91478 net.cpp:586] label_data_1_split -> label_data_1_split_1
I1226 13:57:53.227468 93154 net.cpp:228] Setting up conv1
I1226 13:57:53.227576 93154 net.cpp:235] Top shape: 32 96 55 55 (9292800)
I1226 13:57:53.227598 93154 net.cpp:243] Memory required for data: 56958720
I1226 13:57:53.227744 93154 layer_factory.hpp:114] Creating layer relu1
I1226 13:57:53.227815 93154 net.cpp:178] Creating Layer relu1
I1226 13:57:53.227859 93154 net.cpp:612] relu1 <- conv1
I1226 13:57:53.227900 93154 net.cpp:573] relu1 -> conv1 (in-place)
I1226 13:57:53.227993 93154 net.cpp:228] Setting up relu1
I1226 13:57:53.228031 93154 net.cpp:235] Top shape: 32 96 55 55 (9292800)
I1226 13:57:53.228060 93154 net.cpp:243] Memory required for data: 94129920
I1226 13:57:53.228091 93154 layer_factory.hpp:114] Creating layer norm1
I1226 13:57:53.228171 93154 net.cpp:178] Creating Layer norm1
I1226 13:57:53.228196 93154 net.cpp:612] norm1 <- conv1
I1226 13:57:53.228231 93154 net.cpp:586] norm1 -> norm1
I1226 13:57:53.228308 93154 net.cpp:228] Setting up norm1
I1226 13:57:53.228353 93154 net.cpp:235] Top shape: 32 96 55 55 (9292800)
I1226 13:57:53.228397 93154 net.cpp:243] Memory required for data: 131301120
I1226 13:57:53.228427 93154 layer_factory.hpp:114] Creating layer pool1
I1226 13:57:53.228484 93154 net.cpp:178] Creating Layer pool1
I1226 13:57:53.228514 93154 net.cpp:612] pool1 <- norm1
I1226 13:57:53.228548 93154 net.cpp:586] pool1 -> pool1
I1226 13:57:53.228628 93154 net.cpp:228] Setting up pool1
I1226 13:57:53.228667 93154 net.cpp:235] Top shape: 32 96 27 27 (2239488)
I1226 13:57:53.228690 93154 net.cpp:243] Memory required for data: 140259072
I1226 13:57:53.228714 93154 layer_factory.hpp:114] Creating layer conv2
I1226 13:57:53.228786 93154 net.cpp:178] Creating Layer conv2
I1226 13:57:53.228816 93154 net.cpp:612] conv2 <- pool1
I1226 13:57:53.228865 93154 net.cpp:586] conv2 -> conv2
I1226 13:57:53.219279 92257 net.cpp:235] Top shape: 32 (32)
I1226 13:57:53.231456 92257 net.cpp:243] Memory required for data: 19787264
I1226 13:57:53.231528 92257 layer_factory.hpp:114] Creating layer label_data_1_split
I1226 13:57:53.231639 92257 net.cpp:178] Creating Layer label_data_1_split
I1226 13:57:53.231762 92257 net.cpp:612] label_data_1_split <- label
I1226 13:57:53.231807 92257 net.cpp:586] label_data_1_split -> label_data_1_split_0
I1226 13:57:53.231863 92257 net.cpp:586] label_data_1_split -> label_data_1_split_1
I1226 13:57:53.218268 94427 net.cpp:228] Setting up data
I1226 13:57:53.218403 94427 net.cpp:235] Top shape: 32 3 227 227 (4946784)
I1226 13:57:53.218442 94427 net.cpp:235] Top shape: 32 (32)
I1226 13:57:53.218466 94427 net.cpp:243] Memory required for data: 19787264
I1226 13:57:53.218503 94427 layer_factory.hpp:114] Creating layer label_data_1_split
I1226 13:57:53.218595 94427 net.cpp:178] Creating Layer label_data_1_split
I1226 13:57:53.218720 94427 net.cpp:612] label_data_1_split <- label
I1226 13:57:53.218765 94427 net.cpp:586] label_data_1_split -> label_data_1_split_0
I1226 13:57:53.218811 94427 net.cpp:586] label_data_1_split -> label_data_1_split_1
I1226 13:57:53.231883 91481 net.cpp:228] Setting up data
I1226 13:57:53.231998 91481 net.cpp:235] Top shape: 32 3 227 227 (4946784)
I1226 13:57:53.232033 91481 net.cpp:235] Top shape: 32 (32)
I1226 13:57:53.232084 91481 net.cpp:243] Memory required for data: 19787264
I1226 13:57:53.232121 91481 layer_factory.hpp:114] Creating layer label_data_1_split
I1226 13:57:53.232208 91481 net.cpp:178] Creating Layer label_data_1_split
I1226 13:57:53.232328 91481 net.cpp:612] label_data_1_split <- label
I1226 13:57:53.232367 91481 net.cpp:586] label_data_1_split -> label_data_1_split_0
I1226 13:57:53.232419 91481 net.cpp:586] label_data_1_split -> label_data_1_split_1
I1226 13:57:53.246796 91478 net.cpp:228] Setting up label_data_1_split
I1226 13:57:53.246896 91478 net.cpp:235] Top shape: 32 (32)
I1226 13:57:53.246927 91478 net.cpp:235] Top shape: 32 (32)
I1226 13:57:53.246976 91478 net.cpp:243] Memory required for data: 19787520
I1226 13:57:53.247023 91478 layer_factory.hpp:114] Creating layer conv1
I1226 13:57:53.247113 91478 net.cpp:178] Creating Layer conv1
I1226 13:57:53.247165 91478 net.cpp:612] conv1 <- data
I1226 13:57:53.247229 91478 net.cpp:586] conv1 -> conv1
I1226 13:57:53.239286 95085 net.cpp:228] Setting up data
I1226 13:57:53.239420 95085 net.cpp:235] Top shape: 32 3 227 227 (4946784)
I1226 13:57:53.239470 95085 net.cpp:235] Top shape: 32 (32)
I1226 13:57:53.239498 95085 net.cpp:243] Memory required for data: 19787264
I1226 13:57:53.239540 95085 layer_factory.hpp:114] Creating layer label_data_1_split
I1226 13:57:53.239660 95085 net.cpp:178] Creating Layer label_data_1_split
I1226 13:57:53.239817 95085 net.cpp:612] label_data_1_split <- label
I1226 13:57:53.239912 95085 net.cpp:586] label_data_1_split -> label_data_1_split_0
I1226 13:57:53.239972 95085 net.cpp:586] label_data_1_split -> label_data_1_split_1
I1226 13:57:53.243826 92037 net.cpp:228] Setting up data
I1226 13:57:53.243945 92037 net.cpp:235] Top shape: 32 3 227 227 (4946784)
I1226 13:57:53.243985 92037 net.cpp:235] Top shape: 32 (32)
I1226 13:57:53.244011 92037 net.cpp:243] Memory required for data: 19787264
I1226 13:57:53.244053 92037 layer_factory.hpp:114] Creating layer label_data_1_split
I1226 13:57:53.244153 92037 net.cpp:178] Creating Layer label_data_1_split
I1226 13:57:53.244302 92037 net.cpp:612] label_data_1_split <- label
I1226 13:57:53.244393 92037 net.cpp:586] label_data_1_split -> label_data_1_split_0
I1226 13:57:53.244458 92037 net.cpp:586] label_data_1_split -> label_data_1_split_1
I1226 13:57:53.248724 92257 net.cpp:228] Setting up label_data_1_split
I1226 13:57:53.244423 91481 net.cpp:228] Setting up label_data_1_split
I1226 13:57:53.248836 92257 net.cpp:235] Top shape: 32 (32)
I1226 13:57:53.248874 92257 net.cpp:235] Top shape: 32 (32)
I1226 13:57:53.244525 91481 net.cpp:235] Top shape: 32 (32)
I1226 13:57:53.244556 91481 net.cpp:235] Top shape: 32 (32)
I1226 13:57:53.244578 91481 net.cpp:243] Memory required for data: 19787520
I1226 13:57:53.248903 92257 net.cpp:243] Memory required for data: 19787520
I1226 13:57:53.244640 91481 layer_factory.hpp:114] Creating layer conv1
I1226 13:57:53.248944 92257 layer_factory.hpp:114] Creating layer conv1
I1226 13:57:53.244743 91481 net.cpp:178] Creating Layer conv1
I1226 13:57:53.249060 92257 net.cpp:178] Creating Layer conv1
I1226 13:57:53.244777 91481 net.cpp:612] conv1 <- data
I1226 13:57:53.249097 92257 net.cpp:612] conv1 <- data
I1226 13:57:53.249145 92257 net.cpp:586] conv1 -> conv1
I1226 13:57:53.244817 91481 net.cpp:586] conv1 -> conv1
I1226 13:57:53.238005 96716 net.cpp:228] Setting up data
I1226 13:57:53.238131 96716 net.cpp:235] Top shape: 32 3 227 227 (4946784)
I1226 13:57:53.238180 96716 net.cpp:235] Top shape: 32 (32)
I1226 13:57:53.238209 96716 net.cpp:243] Memory required for data: 19787264
I1226 13:57:53.238250 96716 layer_factory.hpp:114] Creating layer label_data_1_split
I1226 13:57:53.238346 96716 net.cpp:178] Creating Layer label_data_1_split
I1226 13:57:53.238497 96716 net.cpp:612] label_data_1_split <- label
I1226 13:57:53.238554 96716 net.cpp:586] label_data_1_split -> label_data_1_split_0
I1226 13:57:53.238616 96716 net.cpp:586] label_data_1_split -> label_data_1_split_1
I1226 13:57:53.243886 94427 net.cpp:228] Setting up label_data_1_split
I1226 13:57:53.243994 94427 net.cpp:235] Top shape: 32 (32)
I1226 13:57:53.244029 94427 net.cpp:235] Top shape: 32 (32)
I1226 13:57:53.244052 94427 net.cpp:243] Memory required for data: 19787520
I1226 13:57:53.244087 94427 layer_factory.hpp:114] Creating layer conv1
I1226 13:57:53.244192 94427 net.cpp:178] Creating Layer conv1
I1226 13:57:53.244230 94427 net.cpp:612] conv1 <- data
I1226 13:57:53.244278 94427 net.cpp:586] conv1 -> conv1
I1226 13:57:53.259869 92037 net.cpp:228] Setting up label_data_1_split
I1226 13:57:53.259979 92037 net.cpp:235] Top shape: 32 (32)
I1226 13:57:53.260015 92037 net.cpp:235] Top shape: 32 (32)
I1226 13:57:53.260037 92037 net.cpp:243] Memory required for data: 19787520
I1226 13:57:53.260074 92037 layer_factory.hpp:114] Creating layer conv1
I1226 13:57:53.260179 92037 net.cpp:178] Creating Layer conv1
I1226 13:57:53.260236 92037 net.cpp:612] conv1 <- data
I1226 13:57:53.260293 92037 net.cpp:586] conv1 -> conv1
I1226 13:57:53.266170 95085 net.cpp:228] Setting up label_data_1_split
I1226 13:57:53.266284 95085 net.cpp:235] Top shape: 32 (32)
I1226 13:57:53.266319 95085 net.cpp:235] Top shape: 32 (32)
I1226 13:57:53.266345 95085 net.cpp:243] Memory required for data: 19787520
I1226 13:57:53.266382 95085 layer_factory.hpp:114] Creating layer conv1
I1226 13:57:53.266499 95085 net.cpp:178] Creating Layer conv1
I1226 13:57:53.266542 95085 net.cpp:612] conv1 <- data
I1226 13:57:53.266590 95085 net.cpp:586] conv1 -> conv1
I1226 13:57:53.278470 97230 net.cpp:228] Setting up data
I1226 13:57:53.278600 97230 net.cpp:235] Top shape: 32 3 227 227 (4946784)
I1226 13:57:53.278648 97230 net.cpp:235] Top shape: 32 (32)
I1226 13:57:53.278676 97230 net.cpp:243] Memory required for data: 19787264
I1226 13:57:53.278717 97230 layer_factory.hpp:114] Creating layer label_data_1_split
I1226 13:57:53.278856 97230 net.cpp:178] Creating Layer label_data_1_split
I1226 13:57:53.279011 97230 net.cpp:612] label_data_1_split <- label
I1226 13:57:53.279068 97230 net.cpp:586] label_data_1_split -> label_data_1_split_0
I1226 13:57:53.279139 97230 net.cpp:586] label_data_1_split -> label_data_1_split_1
I1226 13:57:53.280167 96716 net.cpp:228] Setting up label_data_1_split
I1226 13:57:53.280285 96716 net.cpp:235] Top shape: 32 (32)
I1226 13:57:53.280325 96716 net.cpp:235] Top shape: 32 (32)
I1226 13:57:53.280354 96716 net.cpp:243] Memory required for data: 19787520
I1226 13:57:53.280513 96716 layer_factory.hpp:114] Creating layer conv1
I1226 13:57:53.280658 96716 net.cpp:178] Creating Layer conv1
I1226 13:57:53.280704 96716 net.cpp:612] conv1 <- data
I1226 13:57:53.280755 96716 net.cpp:586] conv1 -> conv1
I1226 13:57:53.313251 97230 net.cpp:228] Setting up label_data_1_split
I1226 13:57:53.313362 97230 net.cpp:235] Top shape: 32 (32)
I1226 13:57:53.313400 97230 net.cpp:235] Top shape: 32 (32)
I1226 13:57:53.313426 97230 net.cpp:243] Memory required for data: 19787520
I1226 13:57:53.313462 97230 layer_factory.hpp:114] Creating layer conv1
I1226 13:57:53.313563 97230 net.cpp:178] Creating Layer conv1
I1226 13:57:53.313673 97230 net.cpp:612] conv1 <- data
I1226 13:57:53.313745 97230 net.cpp:586] conv1 -> conv1
I1226 13:57:53.358667 93154 net.cpp:228] Setting up conv2
I1226 13:57:53.358778 93154 net.cpp:235] Top shape: 32 256 27 27 (5971968)
I1226 13:57:53.358803 93154 net.cpp:243] Memory required for data: 164146944
I1226 13:57:53.358875 93154 layer_factory.hpp:114] Creating layer relu2
I1226 13:57:53.358953 93154 net.cpp:178] Creating Layer relu2
I1226 13:57:53.358991 93154 net.cpp:612] relu2 <- conv2
I1226 13:57:53.359031 93154 net.cpp:573] relu2 -> conv2 (in-place)
I1226 13:57:53.359125 93154 net.cpp:228] Setting up relu2
I1226 13:57:53.359166 93154 net.cpp:235] Top shape: 32 256 27 27 (5971968)
I1226 13:57:53.359189 93154 net.cpp:243] Memory required for data: 188034816
I1226 13:57:53.359216 93154 layer_factory.hpp:114] Creating layer norm2
I1226 13:57:53.359266 93154 net.cpp:178] Creating Layer norm2
I1226 13:57:53.359297 93154 net.cpp:612] norm2 <- conv2
I1226 13:57:53.359333 93154 net.cpp:586] norm2 -> norm2
I1226 13:57:53.359447 93154 net.cpp:228] Setting up norm2
I1226 13:57:53.359498 93154 net.cpp:235] Top shape: 32 256 27 27 (5971968)
I1226 13:57:53.359520 93154 net.cpp:243] Memory required for data: 211922688
I1226 13:57:53.359547 93154 layer_factory.hpp:114] Creating layer pool2
I1226 13:57:53.359606 93154 net.cpp:178] Creating Layer pool2
I1226 13:57:53.359637 93154 net.cpp:612] pool2 <- norm2
I1226 13:57:53.359681 93154 net.cpp:586] pool2 -> pool2
I1226 13:57:53.359760 93154 net.cpp:228] Setting up pool2
I1226 13:57:53.359805 93154 net.cpp:235] Top shape: 32 256 13 13 (1384448)
I1226 13:57:53.359925 93154 net.cpp:243] Memory required for data: 217460480
I1226 13:57:53.359961 93154 layer_factory.hpp:114] Creating layer conv3
I1226 13:57:53.360040 93154 net.cpp:178] Creating Layer conv3
I1226 13:57:53.360074 93154 net.cpp:612] conv3 <- pool2
I1226 13:57:53.360115 93154 net.cpp:586] conv3 -> conv3
I1226 13:57:53.374645 92257 net.cpp:228] Setting up conv1
I1226 13:57:53.374809 92257 net.cpp:235] Top shape: 32 96 55 55 (9292800)
I1226 13:57:53.374857 92257 net.cpp:243] Memory required for data: 56958720
I1226 13:57:53.375051 92257 layer_factory.hpp:114] Creating layer relu1
I1226 13:57:53.375162 92257 net.cpp:178] Creating Layer relu1
I1226 13:57:53.375222 92257 net.cpp:612] relu1 <- conv1
I1226 13:57:53.375284 92257 net.cpp:573] relu1 -> conv1 (in-place)
I1226 13:57:53.375450 92257 net.cpp:228] Setting up relu1
I1226 13:57:53.375511 92257 net.cpp:235] Top shape: 32 96 55 55 (9292800)
I1226 13:57:53.375546 92257 net.cpp:243] Memory required for data: 94129920
I1226 13:57:53.375583 92257 layer_factory.hpp:114] Creating layer norm1
I1226 13:57:53.375671 92257 net.cpp:178] Creating Layer norm1
I1226 13:57:53.375708 92257 net.cpp:612] norm1 <- conv1
I1226 13:57:53.375771 92257 net.cpp:586] norm1 -> norm1
I1226 13:57:53.375882 92257 net.cpp:228] Setting up norm1
I1226 13:57:53.375936 92257 net.cpp:235] Top shape: 32 96 55 55 (9292800)
I1226 13:57:53.375967 92257 net.cpp:243] Memory required for data: 131301120
I1226 13:57:53.376001 92257 layer_factory.hpp:114] Creating layer pool1
I1226 13:57:53.376082 92257 net.cpp:178] Creating Layer pool1
I1226 13:57:53.376117 92257 net.cpp:612] pool1 <- norm1
I1226 13:57:53.376160 92257 net.cpp:586] pool1 -> pool1
I1226 13:57:53.376272 92257 net.cpp:228] Setting up pool1
I1226 13:57:53.376343 92257 net.cpp:235] Top shape: 32 96 27 27 (2239488)
I1226 13:57:53.376372 92257 net.cpp:243] Memory required for data: 140259072
I1226 13:57:53.386087 92257 layer_factory.hpp:114] Creating layer conv2
I1226 13:57:53.386759 92257 net.cpp:178] Creating Layer conv2
I1226 13:57:53.386862 92257 net.cpp:612] conv2 <- pool1
I1226 13:57:53.386936 92257 net.cpp:586] conv2 -> conv2
I1226 13:57:53.391321 91481 net.cpp:228] Setting up conv1
I1226 13:57:53.391432 91481 net.cpp:235] Top shape: 32 96 55 55 (9292800)
I1226 13:57:53.391458 91481 net.cpp:243] Memory required for data: 56958720
I1226 13:57:53.391569 91481 layer_factory.hpp:114] Creating layer relu1
I1226 13:57:53.391652 91481 net.cpp:178] Creating Layer relu1
I1226 13:57:53.391688 91481 net.cpp:612] relu1 <- conv1
I1226 13:57:53.391747 91481 net.cpp:573] relu1 -> conv1 (in-place)
I1226 13:57:53.391965 91481 net.cpp:228] Setting up relu1
I1226 13:57:53.392017 91481 net.cpp:235] Top shape: 32 96 55 55 (9292800)
I1226 13:57:53.392040 91481 net.cpp:243] Memory required for data: 94129920
I1226 13:57:53.392071 91481 layer_factory.hpp:114] Creating layer norm1
I1226 13:57:53.392132 91481 net.cpp:178] Creating Layer norm1
I1226 13:57:53.392166 91481 net.cpp:612] norm1 <- conv1
I1226 13:57:53.392222 91481 net.cpp:586] norm1 -> norm1
I1226 13:57:53.392303 91481 net.cpp:228] Setting up norm1
I1226 13:57:53.392345 91481 net.cpp:235] Top shape: 32 96 55 55 (9292800)
I1226 13:57:53.392369 91481 net.cpp:243] Memory required for data: 131301120
I1226 13:57:53.392395 91481 layer_factory.hpp:114] Creating layer pool1
I1226 13:57:53.392457 91481 net.cpp:178] Creating Layer pool1
I1226 13:57:53.392488 91481 net.cpp:612] pool1 <- norm1
I1226 13:57:53.392519 91481 net.cpp:586] pool1 -> pool1
I1226 13:57:53.392606 91481 net.cpp:228] Setting up pool1
I1226 13:57:53.392647 91481 net.cpp:235] Top shape: 32 96 27 27 (2239488)
I1226 13:57:53.392668 91481 net.cpp:243] Memory required for data: 140259072
I1226 13:57:53.392694 91481 layer_factory.hpp:114] Creating layer conv2
I1226 13:57:53.392770 91481 net.cpp:178] Creating Layer conv2
I1226 13:57:53.392802 91481 net.cpp:612] conv2 <- pool1
I1226 13:57:53.392838 91481 net.cpp:586] conv2 -> conv2
I1226 13:57:53.412044 91478 net.cpp:228] Setting up conv1
I1226 13:57:53.412154 91478 net.cpp:235] Top shape: 32 96 55 55 (9292800)
I1226 13:57:53.412183 91478 net.cpp:243] Memory required for data: 56958720
I1226 13:57:53.412358 91478 layer_factory.hpp:114] Creating layer relu1
I1226 13:57:53.412511 91478 net.cpp:178] Creating Layer relu1
I1226 13:57:53.412556 91478 net.cpp:612] relu1 <- conv1
I1226 13:57:53.412619 91478 net.cpp:573] relu1 -> conv1 (in-place)
I1226 13:57:53.412853 91478 net.cpp:228] Setting up relu1
I1226 13:57:53.412931 91478 net.cpp:235] Top shape: 32 96 55 55 (9292800)
I1226 13:57:53.412956 91478 net.cpp:243] Memory required for data: 94129920
I1226 13:57:53.412986 91478 layer_factory.hpp:114] Creating layer norm1
I1226 13:57:53.413074 91478 net.cpp:178] Creating Layer norm1
I1226 13:57:53.413110 91478 net.cpp:612] norm1 <- conv1
I1226 13:57:53.413156 91478 net.cpp:586] norm1 -> norm1
I1226 13:57:53.404115 92037 net.cpp:228] Setting up conv1
I1226 13:57:53.404232 92037 net.cpp:235] Top shape: 32 96 55 55 (9292800)
I1226 13:57:53.404259 92037 net.cpp:243] Memory required for data: 56958720
I1226 13:57:53.414780 91478 net.cpp:228] Setting up norm1
I1226 13:57:53.404413 92037 layer_factory.hpp:114] Creating layer relu1
I1226 13:57:53.414911 91478 net.cpp:235] Top shape: 32 96 55 55 (9292800)
I1226 13:57:53.414939 91478 net.cpp:243] Memory required for data: 131301120
I1226 13:57:53.404518 92037 net.cpp:178] Creating Layer relu1
I1226 13:57:53.404561 92037 net.cpp:612] relu1 <- conv1
I1226 13:57:53.414975 91478 layer_factory.hpp:114] Creating layer pool1
I1226 13:57:53.404616 92037 net.cpp:573] relu1 -> conv1 (in-place)
I1226 13:57:53.415097 91478 net.cpp:178] Creating Layer pool1
I1226 13:57:53.415140 91478 net.cpp:612] pool1 <- norm1
I1226 13:57:53.415190 91478 net.cpp:586] pool1 -> pool1
I1226 13:57:53.404726 92037 net.cpp:228] Setting up relu1
I1226 13:57:53.415339 91478 net.cpp:228] Setting up pool1
I1226 13:57:53.404795 92037 net.cpp:235] Top shape: 32 96 55 55 (9292800)
I1226 13:57:53.404824 92037 net.cpp:243] Memory required for data: 94129920
I1226 13:57:53.404860 92037 layer_factory.hpp:114] Creating layer norm1
I1226 13:57:53.415391 91478 net.cpp:235] Top shape: 32 96 27 27 (2239488)
I1226 13:57:53.404938 92037 net.cpp:178] Creating Layer norm1
I1226 13:57:53.415413 91478 net.cpp:243] Memory required for data: 140259072
I1226 13:57:53.404971 92037 net.cpp:612] norm1 <- conv1
I1226 13:57:53.405019 92037 net.cpp:586] norm1 -> norm1
I1226 13:57:53.415441 91478 layer_factory.hpp:114] Creating layer conv2
I1226 13:57:53.415526 91478 net.cpp:178] Creating Layer conv2
I1226 13:57:53.405122 92037 net.cpp:228] Setting up norm1
I1226 13:57:53.415560 91478 net.cpp:612] conv2 <- pool1
I1226 13:57:53.415604 91478 net.cpp:586] conv2 -> conv2
I1226 13:57:53.405180 92037 net.cpp:235] Top shape: 32 96 55 55 (9292800)
I1226 13:57:53.405205 92037 net.cpp:243] Memory required for data: 131301120
I1226 13:57:53.405236 92037 layer_factory.hpp:114] Creating layer pool1
I1226 13:57:53.405330 92037 net.cpp:178] Creating Layer pool1
I1226 13:57:53.405366 92037 net.cpp:612] pool1 <- norm1
I1226 13:57:53.405408 92037 net.cpp:586] pool1 -> pool1
I1226 13:57:53.405510 92037 net.cpp:228] Setting up pool1
I1226 13:57:53.405560 92037 net.cpp:235] Top shape: 32 96 27 27 (2239488)
I1226 13:57:53.405585 92037 net.cpp:243] Memory required for data: 140259072
I1226 13:57:53.405614 92037 layer_factory.hpp:114] Creating layer conv2
I1226 13:57:53.405694 92037 net.cpp:178] Creating Layer conv2
I1226 13:57:53.405725 92037 net.cpp:612] conv2 <- pool1
I1226 13:57:53.405766 92037 net.cpp:586] conv2 -> conv2
I1226 13:57:53.404423 94427 net.cpp:228] Setting up conv1
I1226 13:57:53.404536 94427 net.cpp:235] Top shape: 32 96 55 55 (9292800)
I1226 13:57:53.404566 94427 net.cpp:243] Memory required for data: 56958720
I1226 13:57:53.404680 94427 layer_factory.hpp:114] Creating layer relu1
I1226 13:57:53.404836 94427 net.cpp:178] Creating Layer relu1
I1226 13:57:53.404947 94427 net.cpp:612] relu1 <- conv1
I1226 13:57:53.404991 94427 net.cpp:573] relu1 -> conv1 (in-place)
I1226 13:57:53.405174 94427 net.cpp:228] Setting up relu1
I1226 13:57:53.405269 94427 net.cpp:235] Top shape: 32 96 55 55 (9292800)
I1226 13:57:53.405293 94427 net.cpp:243] Memory required for data: 94129920
I1226 13:57:53.405323 94427 layer_factory.hpp:114] Creating layer norm1
I1226 13:57:53.405428 94427 net.cpp:178] Creating Layer norm1
I1226 13:57:53.405472 94427 net.cpp:612] norm1 <- conv1
I1226 13:57:53.405511 94427 net.cpp:586] norm1 -> norm1
I1226 13:57:53.405611 94427 net.cpp:228] Setting up norm1
I1226 13:57:53.405706 94427 net.cpp:235] Top shape: 32 96 55 55 (9292800)
I1226 13:57:53.405731 94427 net.cpp:243] Memory required for data: 131301120
I1226 13:57:53.405761 94427 layer_factory.hpp:114] Creating layer pool1
I1226 13:57:53.405819 94427 net.cpp:178] Creating Layer pool1
I1226 13:57:53.405910 94427 net.cpp:612] pool1 <- norm1
I1226 13:57:53.405956 94427 net.cpp:586] pool1 -> pool1
I1226 13:57:53.406049 94427 net.cpp:228] Setting up pool1
I1226 13:57:53.406095 94427 net.cpp:235] Top shape: 32 96 27 27 (2239488)
I1226 13:57:53.406126 94427 net.cpp:243] Memory required for data: 140259072
I1226 13:57:53.406152 94427 layer_factory.hpp:114] Creating layer conv2
I1226 13:57:53.406222 94427 net.cpp:178] Creating Layer conv2
I1226 13:57:53.406250 94427 net.cpp:612] conv2 <- pool1
I1226 13:57:53.406299 94427 net.cpp:586] conv2 -> conv2
I1226 13:57:53.546221 93154 net.cpp:228] Setting up conv3
I1226 13:57:53.546335 93154 net.cpp:235] Top shape: 32 384 13 13 (2076672)
I1226 13:57:53.546365 93154 net.cpp:243] Memory required for data: 225767168
I1226 13:57:53.546473 93154 layer_factory.hpp:114] Creating layer relu3
I1226 13:57:53.546566 93154 net.cpp:178] Creating Layer relu3
I1226 13:57:53.546617 93154 net.cpp:612] relu3 <- conv3
I1226 13:57:53.546663 93154 net.cpp:573] relu3 -> conv3 (in-place)
I1226 13:57:53.546756 93154 net.cpp:228] Setting up relu3
I1226 13:57:53.546804 93154 net.cpp:235] Top shape: 32 384 13 13 (2076672)
I1226 13:57:53.546833 93154 net.cpp:243] Memory required for data: 234073856
I1226 13:57:53.546864 93154 layer_factory.hpp:114] Creating layer conv4
I1226 13:57:53.546946 93154 net.cpp:178] Creating Layer conv4
I1226 13:57:53.546977 93154 net.cpp:612] conv4 <- conv3
I1226 13:57:53.547034 93154 net.cpp:586] conv4 -> conv4
I1226 13:57:53.588713 92257 net.cpp:228] Setting up conv2
I1226 13:57:53.588835 92257 net.cpp:235] Top shape: 32 256 27 27 (5971968)
I1226 13:57:53.588874 92257 net.cpp:243] Memory required for data: 164146944
I1226 13:57:53.588981 92257 layer_factory.hpp:114] Creating layer relu2
I1226 13:57:53.589061 92257 net.cpp:178] Creating Layer relu2
I1226 13:57:53.589103 92257 net.cpp:612] relu2 <- conv2
I1226 13:57:53.589169 92257 net.cpp:573] relu2 -> conv2 (in-place)
I1226 13:57:53.589290 92257 net.cpp:228] Setting up relu2
I1226 13:57:53.589418 92257 net.cpp:235] Top shape: 32 256 27 27 (5971968)
I1226 13:57:53.589457 92257 net.cpp:243] Memory required for data: 188034816
I1226 13:57:53.589498 92257 layer_factory.hpp:114] Creating layer norm2
I1226 13:57:53.589576 92257 net.cpp:178] Creating Layer norm2
I1226 13:57:53.589624 92257 net.cpp:612] norm2 <- conv2
I1226 13:57:53.589696 92257 net.cpp:586] norm2 -> norm2
I1226 13:57:53.589833 92257 net.cpp:228] Setting up norm2
I1226 13:57:53.589903 92257 net.cpp:235] Top shape: 32 256 27 27 (5971968)
I1226 13:57:53.589936 92257 net.cpp:243] Memory required for data: 211922688
I1226 13:57:53.589974 92257 layer_factory.hpp:114] Creating layer pool2
I1226 13:57:53.590052 92257 net.cpp:178] Creating Layer pool2
I1226 13:57:53.590096 92257 net.cpp:612] pool2 <- norm2
I1226 13:57:53.590143 92257 net.cpp:586] pool2 -> pool2
I1226 13:57:53.590257 92257 net.cpp:228] Setting up pool2
I1226 13:57:53.590338 92257 net.cpp:235] Top shape: 32 256 13 13 (1384448)
I1226 13:57:53.590478 92257 net.cpp:243] Memory required for data: 217460480
I1226 13:57:53.590524 92257 layer_factory.hpp:114] Creating layer conv3
I1226 13:57:53.590636 92257 net.cpp:178] Creating Layer conv3
I1226 13:57:53.590677 92257 net.cpp:612] conv3 <- pool2
I1226 13:57:53.590746 92257 net.cpp:586] conv3 -> conv3
I1226 13:57:53.632504 92037 net.cpp:228] Setting up conv2
I1226 13:57:53.632609 92037 net.cpp:235] Top shape: 32 256 27 27 (5971968)
I1226 13:57:53.632638 92037 net.cpp:243] Memory required for data: 164146944
I1226 13:57:53.632714 92037 layer_factory.hpp:114] Creating layer relu2
I1226 13:57:53.632784 92037 net.cpp:178] Creating Layer relu2
I1226 13:57:53.632822 92037 net.cpp:612] relu2 <- conv2
I1226 13:57:53.632865 92037 net.cpp:573] relu2 -> conv2 (in-place)
I1226 13:57:53.633733 92037 net.cpp:228] Setting up relu2
I1226 13:57:53.633831 92037 net.cpp:235] Top shape: 32 256 27 27 (5971968)
I1226 13:57:53.633857 92037 net.cpp:243] Memory required for data: 188034816
I1226 13:57:53.633895 92037 layer_factory.hpp:114] Creating layer norm2
I1226 13:57:53.633986 92037 net.cpp:178] Creating Layer norm2
I1226 13:57:53.634042 92037 net.cpp:612] norm2 <- conv2
I1226 13:57:53.634093 92037 net.cpp:586] norm2 -> norm2
I1226 13:57:53.634210 92037 net.cpp:228] Setting up norm2
I1226 13:57:53.634276 92037 net.cpp:235] Top shape: 32 256 27 27 (5971968)
I1226 13:57:53.634304 92037 net.cpp:243] Memory required for data: 211922688
I1226 13:57:53.634358 92037 layer_factory.hpp:114] Creating layer pool2
I1226 13:57:53.634412 92037 net.cpp:178] Creating Layer pool2
I1226 13:57:53.634440 92037 net.cpp:612] pool2 <- norm2
I1226 13:57:53.635143 92037 net.cpp:586] pool2 -> pool2
I1226 13:57:53.635296 92037 net.cpp:228] Setting up pool2
I1226 13:57:53.635607 92037 net.cpp:235] Top shape: 32 256 13 13 (1384448)
I1226 13:57:53.635743 92037 net.cpp:243] Memory required for data: 217460480
I1226 13:57:53.635784 92037 layer_factory.hpp:114] Creating layer conv3
I1226 13:57:53.635882 92037 net.cpp:178] Creating Layer conv3
I1226 13:57:53.635929 92037 net.cpp:612] conv3 <- pool2
I1226 13:57:53.635989 92037 net.cpp:586] conv3 -> conv3
I1226 13:57:53.641964 91481 net.cpp:228] Setting up conv2
I1226 13:57:53.642079 91481 net.cpp:235] Top shape: 32 256 27 27 (5971968)
I1226 13:57:53.642110 91481 net.cpp:243] Memory required for data: 164146944
I1226 13:57:53.642189 91481 layer_factory.hpp:114] Creating layer relu2
I1226 13:57:53.642252 91481 net.cpp:178] Creating Layer relu2
I1226 13:57:53.642292 91481 net.cpp:612] relu2 <- conv2
I1226 13:57:53.642333 91481 net.cpp:573] relu2 -> conv2 (in-place)
I1226 13:57:53.642436 91481 net.cpp:228] Setting up relu2
I1226 13:57:53.642487 91481 net.cpp:235] Top shape: 32 256 27 27 (5971968)
I1226 13:57:53.642513 91481 net.cpp:243] Memory required for data: 188034816
I1226 13:57:53.642541 91481 layer_factory.hpp:114] Creating layer norm2
I1226 13:57:53.642612 91481 net.cpp:178] Creating Layer norm2
I1226 13:57:53.642645 91481 net.cpp:612] norm2 <- conv2
I1226 13:57:53.642683 91481 net.cpp:586] norm2 -> norm2
I1226 13:57:53.642771 91481 net.cpp:228] Setting up norm2
I1226 13:57:53.642819 91481 net.cpp:235] Top shape: 32 256 27 27 (5971968)
I1226 13:57:53.642853 91481 net.cpp:243] Memory required for data: 211922688
I1226 13:57:53.642911 91481 layer_factory.hpp:114] Creating layer pool2
I1226 13:57:53.642966 91481 net.cpp:178] Creating Layer pool2
I1226 13:57:53.642997 91481 net.cpp:612] pool2 <- norm2
I1226 13:57:53.643049 91481 net.cpp:586] pool2 -> pool2
I1226 13:57:53.643137 91481 net.cpp:228] Setting up pool2
I1226 13:57:53.643180 91481 net.cpp:235] Top shape: 32 256 13 13 (1384448)
I1226 13:57:53.643308 91481 net.cpp:243] Memory required for data: 217460480
I1226 13:57:53.643344 91481 layer_factory.hpp:114] Creating layer conv3
I1226 13:57:53.643429 91481 net.cpp:178] Creating Layer conv3
I1226 13:57:53.643463 91481 net.cpp:612] conv3 <- pool2
I1226 13:57:53.643507 91481 net.cpp:586] conv3 -> conv3
I1226 13:57:53.663254 91478 net.cpp:228] Setting up conv2
I1226 13:57:53.663359 91478 net.cpp:235] Top shape: 32 256 27 27 (5971968)
I1226 13:57:53.663384 91478 net.cpp:243] Memory required for data: 164146944
I1226 13:57:53.663481 91478 layer_factory.hpp:114] Creating layer relu2
I1226 13:57:53.663564 91478 net.cpp:178] Creating Layer relu2
I1226 13:57:53.663602 91478 net.cpp:612] relu2 <- conv2
I1226 13:57:53.663640 91478 net.cpp:573] relu2 -> conv2 (in-place)
I1226 13:57:53.663725 91478 net.cpp:228] Setting up relu2
I1226 13:57:53.663765 91478 net.cpp:235] Top shape: 32 256 27 27 (5971968)
I1226 13:57:53.663787 91478 net.cpp:243] Memory required for data: 188034816
I1226 13:57:53.663815 91478 layer_factory.hpp:114] Creating layer norm2
I1226 13:57:53.663871 91478 net.cpp:178] Creating Layer norm2
I1226 13:57:53.663900 91478 net.cpp:612] norm2 <- conv2
I1226 13:57:53.663935 91478 net.cpp:586] norm2 -> norm2
I1226 13:57:53.664011 91478 net.cpp:228] Setting up norm2
I1226 13:57:53.664057 91478 net.cpp:235] Top shape: 32 256 27 27 (5971968)
I1226 13:57:53.664079 91478 net.cpp:243] Memory required for data: 211922688
I1226 13:57:53.664106 91478 layer_factory.hpp:114] Creating layer pool2
I1226 13:57:53.664149 91478 net.cpp:178] Creating Layer pool2
I1226 13:57:53.664182 91478 net.cpp:612] pool2 <- norm2
I1226 13:57:53.664249 91478 net.cpp:586] pool2 -> pool2
I1226 13:57:53.664340 91478 net.cpp:228] Setting up pool2
I1226 13:57:53.664384 91478 net.cpp:235] Top shape: 32 256 13 13 (1384448)
I1226 13:57:53.664505 91478 net.cpp:243] Memory required for data: 217460480
I1226 13:57:53.664536 91478 layer_factory.hpp:114] Creating layer conv3
I1226 13:57:53.664616 91478 net.cpp:178] Creating Layer conv3
I1226 13:57:53.664649 91478 net.cpp:612] conv3 <- pool2
I1226 13:57:53.664691 91478 net.cpp:586] conv3 -> conv3
I1226 13:57:53.674937 96716 net.cpp:228] Setting up conv1
I1226 13:57:53.675058 96716 net.cpp:235] Top shape: 32 96 55 55 (9292800)
I1226 13:57:53.675094 96716 net.cpp:243] Memory required for data: 56958720
I1226 13:57:53.675215 96716 layer_factory.hpp:114] Creating layer relu1
I1226 13:57:53.675314 96716 net.cpp:178] Creating Layer relu1
I1226 13:57:53.675359 96716 net.cpp:612] relu1 <- conv1
I1226 13:57:53.675405 96716 net.cpp:573] relu1 -> conv1 (in-place)
I1226 13:57:53.675525 96716 net.cpp:228] Setting up relu1
I1226 13:57:53.675586 96716 net.cpp:235] Top shape: 32 96 55 55 (9292800)
I1226 13:57:53.675627 96716 net.cpp:243] Memory required for data: 94129920
I1226 13:57:53.675662 96716 layer_factory.hpp:114] Creating layer norm1
I1226 13:57:53.675737 96716 net.cpp:178] Creating Layer norm1
I1226 13:57:53.675775 96716 net.cpp:612] norm1 <- conv1
I1226 13:57:53.675844 96716 net.cpp:586] norm1 -> norm1
I1226 13:57:53.675956 96716 net.cpp:228] Setting up norm1
I1226 13:57:53.672178 94427 net.cpp:228] Setting up conv2
I1226 13:57:53.676014 96716 net.cpp:235] Top shape: 32 96 55 55 (9292800)
I1226 13:57:53.672291 94427 net.cpp:235] Top shape: 32 256 27 27 (5971968)
I1226 13:57:53.672317 94427 net.cpp:243] Memory required for data: 164146944
I1226 13:57:53.676039 96716 net.cpp:243] Memory required for data: 131301120
I1226 13:57:53.676071 96716 layer_factory.hpp:114] Creating layer pool1
I1226 13:57:53.672413 94427 layer_factory.hpp:114] Creating layer relu2
I1226 13:57:53.676126 96716 net.cpp:178] Creating Layer pool1
I1226 13:57:53.672489 94427 net.cpp:178] Creating Layer relu2
I1226 13:57:53.676161 96716 net.cpp:612] pool1 <- norm1
I1226 13:57:53.672533 94427 net.cpp:612] relu2 <- conv2
I1226 13:57:53.676208 96716 net.cpp:586] pool1 -> pool1
I1226 13:57:53.672577 94427 net.cpp:573] relu2 -> conv2 (in-place)
I1226 13:57:53.672663 94427 net.cpp:228] Setting up relu2
I1226 13:57:53.672703 94427 net.cpp:235] Top shape: 32 256 27 27 (5971968)
I1226 13:57:53.672734 94427 net.cpp:243] Memory required for data: 188034816
I1226 13:57:53.672762 94427 layer_factory.hpp:114] Creating layer norm2
I1226 13:57:53.672809 94427 net.cpp:178] Creating Layer norm2
I1226 13:57:53.676702 96716 net.cpp:228] Setting up pool1
I1226 13:57:53.672839 94427 net.cpp:612] norm2 <- conv2
I1226 13:57:53.676867 96716 net.cpp:235] Top shape: 32 96 27 27 (2239488)
I1226 13:57:53.672883 94427 net.cpp:586] norm2 -> norm2
I1226 13:57:53.676947 96716 net.cpp:243] Memory required for data: 140259072
I1226 13:57:53.672963 94427 net.cpp:228] Setting up norm2
I1226 13:57:53.676987 96716 layer_factory.hpp:114] Creating layer conv2
I1226 13:57:53.673009 94427 net.cpp:235] Top shape: 32 256 27 27 (5971968)
I1226 13:57:53.677099 96716 net.cpp:178] Creating Layer conv2
I1226 13:57:53.673032 94427 net.cpp:243] Memory required for data: 211922688
I1226 13:57:53.677141 96716 net.cpp:612] conv2 <- pool1
I1226 13:57:53.673058 94427 layer_factory.hpp:114] Creating layer pool2
I1226 13:57:53.677191 96716 net.cpp:586] conv2 -> conv2
I1226 13:57:53.673118 94427 net.cpp:178] Creating Layer pool2
I1226 13:57:53.673144 94427 net.cpp:612] pool2 <- norm2
I1226 13:57:53.673177 94427 net.cpp:586] pool2 -> pool2
I1226 13:57:53.673254 94427 net.cpp:228] Setting up pool2
I1226 13:57:53.673293 94427 net.cpp:235] Top shape: 32 256 13 13 (1384448)
I1226 13:57:53.686501 94427 net.cpp:243] Memory required for data: 217460480
I1226 13:57:53.686561 94427 layer_factory.hpp:114] Creating layer conv3
I1226 13:57:53.686688 94427 net.cpp:178] Creating Layer conv3
I1226 13:57:53.686731 94427 net.cpp:612] conv3 <- pool2
I1226 13:57:53.686780 94427 net.cpp:586] conv3 -> conv3
I1226 13:57:53.702957 95085 net.cpp:228] Setting up conv1
I1226 13:57:53.703089 95085 net.cpp:235] Top shape: 32 96 55 55 (9292800)
I1226 13:57:53.703121 95085 net.cpp:243] Memory required for data: 56958720
I1226 13:57:53.703238 95085 layer_factory.hpp:114] Creating layer relu1
I1226 13:57:53.703323 95085 net.cpp:178] Creating Layer relu1
I1226 13:57:53.703358 95085 net.cpp:612] relu1 <- conv1
I1226 13:57:53.703394 95085 net.cpp:573] relu1 -> conv1 (in-place)
I1226 13:57:53.703516 95085 net.cpp:228] Setting up relu1
I1226 13:57:53.703568 95085 net.cpp:235] Top shape: 32 96 55 55 (9292800)
I1226 13:57:53.703594 95085 net.cpp:243] Memory required for data: 94129920
I1226 13:57:53.703624 95085 layer_factory.hpp:114] Creating layer norm1
I1226 13:57:53.703706 95085 net.cpp:178] Creating Layer norm1
I1226 13:57:53.703747 95085 net.cpp:612] norm1 <- conv1
I1226 13:57:53.703784 95085 net.cpp:586] norm1 -> norm1
I1226 13:57:53.703927 95085 net.cpp:228] Setting up norm1
I1226 13:57:53.703982 95085 net.cpp:235] Top shape: 32 96 55 55 (9292800)
I1226 13:57:53.704007 95085 net.cpp:243] Memory required for data: 131301120
I1226 13:57:53.704035 95085 layer_factory.hpp:114] Creating layer pool1
I1226 13:57:53.704107 95085 net.cpp:178] Creating Layer pool1
I1226 13:57:53.704143 95085 net.cpp:612] pool1 <- norm1
I1226 13:57:53.704180 95085 net.cpp:586] pool1 -> pool1
I1226 13:57:53.704285 95085 net.cpp:228] Setting up pool1
I1226 13:57:53.704331 95085 net.cpp:235] Top shape: 32 96 27 27 (2239488)
I1226 13:57:53.704356 95085 net.cpp:243] Memory required for data: 140259072
I1226 13:57:53.704385 95085 layer_factory.hpp:114] Creating layer conv2
I1226 13:57:53.704466 95085 net.cpp:178] Creating Layer conv2
I1226 13:57:53.704501 95085 net.cpp:612] conv2 <- pool1
I1226 13:57:53.704542 95085 net.cpp:586] conv2 -> conv2
I1226 13:57:53.706632 93154 net.cpp:228] Setting up conv4
I1226 13:57:53.706740 93154 net.cpp:235] Top shape: 32 384 13 13 (2076672)
I1226 13:57:53.706765 93154 net.cpp:243] Memory required for data: 242380544
I1226 13:57:53.706851 93154 layer_factory.hpp:114] Creating layer relu4
I1226 13:57:53.706938 93154 net.cpp:178] Creating Layer relu4
I1226 13:57:53.706976 93154 net.cpp:612] relu4 <- conv4
I1226 13:57:53.707046 93154 net.cpp:573] relu4 -> conv4 (in-place)
I1226 13:57:53.707177 93154 net.cpp:228] Setting up relu4
I1226 13:57:53.707226 93154 net.cpp:235] Top shape: 32 384 13 13 (2076672)
I1226 13:57:53.707252 93154 net.cpp:243] Memory required for data: 250687232
I1226 13:57:53.707283 93154 layer_factory.hpp:114] Creating layer conv5
I1226 13:57:53.707402 93154 net.cpp:178] Creating Layer conv5
I1226 13:57:53.707450 93154 net.cpp:612] conv5 <- conv4
I1226 13:57:53.707500 93154 net.cpp:586] conv5 -> conv5
I1226 13:57:53.713793 97230 net.cpp:228] Setting up conv1
I1226 13:57:53.713939 97230 net.cpp:235] Top shape: 32 96 55 55 (9292800)
I1226 13:57:53.714000 97230 net.cpp:243] Memory required for data: 56958720
I1226 13:57:53.714170 97230 layer_factory.hpp:114] Creating layer relu1
I1226 13:57:53.714303 97230 net.cpp:178] Creating Layer relu1
I1226 13:57:53.714365 97230 net.cpp:612] relu1 <- conv1
I1226 13:57:53.714429 97230 net.cpp:573] relu1 -> conv1 (in-place)
I1226 13:57:53.714622 97230 net.cpp:228] Setting up relu1
I1226 13:57:53.714756 97230 net.cpp:235] Top shape: 32 96 55 55 (9292800)
I1226 13:57:53.714817 97230 net.cpp:243] Memory required for data: 94129920
I1226 13:57:53.714869 97230 layer_factory.hpp:114] Creating layer norm1
I1226 13:57:53.714989 97230 net.cpp:178] Creating Layer norm1
I1226 13:57:53.715153 97230 net.cpp:612] norm1 <- conv1
I1226 13:57:53.715229 97230 net.cpp:586] norm1 -> norm1
I1226 13:57:53.715406 97230 net.cpp:228] Setting up norm1
I1226 13:57:53.715984 97230 net.cpp:235] Top shape: 32 96 55 55 (9292800)
I1226 13:57:53.716140 97230 net.cpp:243] Memory required for data: 131301120
I1226 13:57:53.716251 97230 layer_factory.hpp:114] Creating layer pool1
I1226 13:57:53.716572 97230 net.cpp:178] Creating Layer pool1
I1226 13:57:53.716756 97230 net.cpp:612] pool1 <- norm1
I1226 13:57:53.716889 97230 net.cpp:586] pool1 -> pool1
I1226 13:57:53.717139 97230 net.cpp:228] Setting up pool1
I1226 13:57:53.717630 97230 net.cpp:235] Top shape: 32 96 27 27 (2239488)
I1226 13:57:53.717815 97230 net.cpp:243] Memory required for data: 140259072
I1226 13:57:53.718024 97230 layer_factory.hpp:114] Creating layer conv2
I1226 13:57:53.718400 97230 net.cpp:178] Creating Layer conv2
I1226 13:57:53.718477 97230 net.cpp:612] conv2 <- pool1
I1226 13:57:53.718555 97230 net.cpp:586] conv2 -> conv2
I1226 13:57:53.814365 93154 net.cpp:228] Setting up conv5
I1226 13:57:53.814504 93154 net.cpp:235] Top shape: 32 256 13 13 (1384448)
I1226 13:57:53.814532 93154 net.cpp:243] Memory required for data: 256225024
I1226 13:57:53.814631 93154 layer_factory.hpp:114] Creating layer relu5
I1226 13:57:53.814702 93154 net.cpp:178] Creating Layer relu5
I1226 13:57:53.814734 93154 net.cpp:612] relu5 <- conv5
I1226 13:57:53.814800 93154 net.cpp:573] relu5 -> conv5 (in-place)
I1226 13:57:53.814906 93154 net.cpp:228] Setting up relu5
I1226 13:57:53.814954 93154 net.cpp:235] Top shape: 32 256 13 13 (1384448)
I1226 13:57:53.814986 93154 net.cpp:243] Memory required for data: 261762816
I1226 13:57:53.815021 93154 layer_factory.hpp:114] Creating layer pool5
I1226 13:57:53.815089 93154 net.cpp:178] Creating Layer pool5
I1226 13:57:53.815125 93154 net.cpp:612] pool5 <- conv5
I1226 13:57:53.815163 93154 net.cpp:586] pool5 -> pool5
I1226 13:57:53.815263 93154 net.cpp:228] Setting up pool5
I1226 13:57:53.815307 93154 net.cpp:235] Top shape: 32 256 6 6 (294912)
I1226 13:57:53.815330 93154 net.cpp:243] Memory required for data: 262942464
I1226 13:57:53.815356 93154 layer_factory.hpp:114] Creating layer fc6
I1226 13:57:53.815455 93154 net.cpp:178] Creating Layer fc6
I1226 13:57:53.815497 93154 net.cpp:612] fc6 <- pool5
I1226 13:57:53.815551 93154 net.cpp:586] fc6 -> fc6
I1226 13:57:53.889019 92257 net.cpp:228] Setting up conv3
I1226 13:57:53.889134 92257 net.cpp:235] Top shape: 32 384 13 13 (2076672)
I1226 13:57:53.889171 92257 net.cpp:243] Memory required for data: 225767168
I1226 13:57:53.889262 92257 layer_factory.hpp:114] Creating layer relu3
I1226 13:57:53.889396 92257 net.cpp:178] Creating Layer relu3
I1226 13:57:53.889703 92257 net.cpp:612] relu3 <- conv3
I1226 13:57:53.889987 92257 net.cpp:573] relu3 -> conv3 (in-place)
I1226 13:57:53.890549 92257 net.cpp:228] Setting up relu3
I1226 13:57:53.890662 92257 net.cpp:235] Top shape: 32 384 13 13 (2076672)
I1226 13:57:53.890696 92257 net.cpp:243] Memory required for data: 234073856
I1226 13:57:53.890734 92257 layer_factory.hpp:114] Creating layer conv4
I1226 13:57:53.890847 92257 net.cpp:178] Creating Layer conv4
I1226 13:57:53.890892 92257 net.cpp:612] conv4 <- conv3
I1226 13:57:53.890959 92257 net.cpp:586] conv4 -> conv4
I1226 13:57:53.907444 92037 net.cpp:228] Setting up conv3
I1226 13:57:53.907585 92037 net.cpp:235] Top shape: 32 384 13 13 (2076672)
I1226 13:57:53.907614 92037 net.cpp:243] Memory required for data: 225767168
I1226 13:57:53.907690 92037 layer_factory.hpp:114] Creating layer relu3
I1226 13:57:53.907760 92037 net.cpp:178] Creating Layer relu3
I1226 13:57:53.907799 92037 net.cpp:612] relu3 <- conv3
I1226 13:57:53.907866 92037 net.cpp:573] relu3 -> conv3 (in-place)
I1226 13:57:53.907976 92037 net.cpp:228] Setting up relu3
I1226 13:57:53.908049 92037 net.cpp:235] Top shape: 32 384 13 13 (2076672)
I1226 13:57:53.908078 92037 net.cpp:243] Memory required for data: 234073856
I1226 13:57:53.908113 92037 layer_factory.hpp:114] Creating layer conv4
I1226 13:57:53.908211 92037 net.cpp:178] Creating Layer conv4
I1226 13:57:53.908247 92037 net.cpp:612] conv4 <- conv3
I1226 13:57:53.908300 92037 net.cpp:586] conv4 -> conv4
I1226 13:57:53.952486 91481 net.cpp:228] Setting up conv3
I1226 13:57:53.952607 91481 net.cpp:235] Top shape: 32 384 13 13 (2076672)
I1226 13:57:53.952638 91481 net.cpp:243] Memory required for data: 225767168
I1226 13:57:53.953042 91481 layer_factory.hpp:114] Creating layer relu3
I1226 13:57:53.953147 91481 net.cpp:178] Creating Layer relu3
I1226 13:57:53.953241 91481 net.cpp:612] relu3 <- conv3
I1226 13:57:53.953341 91481 net.cpp:573] relu3 -> conv3 (in-place)
I1226 13:57:53.953677 91481 net.cpp:228] Setting up relu3
I1226 13:57:53.953766 91481 net.cpp:235] Top shape: 32 384 13 13 (2076672)
I1226 13:57:53.953800 91481 net.cpp:243] Memory required for data: 234073856
I1226 13:57:53.953840 91481 layer_factory.hpp:114] Creating layer conv4
I1226 13:57:53.954306 91481 net.cpp:178] Creating Layer conv4
I1226 13:57:53.954413 91481 net.cpp:612] conv4 <- conv3
I1226 13:57:53.954552 91481 net.cpp:586] conv4 -> conv4
I1226 13:57:53.980415 91478 net.cpp:228] Setting up conv3
I1226 13:57:53.980525 91478 net.cpp:235] Top shape: 32 384 13 13 (2076672)
I1226 13:57:53.980553 91478 net.cpp:243] Memory required for data: 225767168
I1226 13:57:53.980648 91478 layer_factory.hpp:114] Creating layer relu3
I1226 13:57:53.980716 91478 net.cpp:178] Creating Layer relu3
I1226 13:57:53.980746 91478 net.cpp:612] relu3 <- conv3
I1226 13:57:53.980794 91478 net.cpp:573] relu3 -> conv3 (in-place)
I1226 13:57:53.980901 91478 net.cpp:228] Setting up relu3
I1226 13:57:53.980947 91478 net.cpp:235] Top shape: 32 384 13 13 (2076672)
I1226 13:57:53.980972 91478 net.cpp:243] Memory required for data: 234073856
I1226 13:57:53.980998 91478 layer_factory.hpp:114] Creating layer conv4
I1226 13:57:53.981089 91478 net.cpp:178] Creating Layer conv4
I1226 13:57:53.981125 91478 net.cpp:612] conv4 <- conv3
I1226 13:57:53.981166 91478 net.cpp:586] conv4 -> conv4
I1226 13:57:53.983839 94427 net.cpp:228] Setting up conv3
I1226 13:57:53.983952 94427 net.cpp:235] Top shape: 32 384 13 13 (2076672)
I1226 13:57:53.983978 94427 net.cpp:243] Memory required for data: 225767168
I1226 13:57:53.984046 94427 layer_factory.hpp:114] Creating layer relu3
I1226 13:57:53.984128 94427 net.cpp:178] Creating Layer relu3
I1226 13:57:53.984163 94427 net.cpp:612] relu3 <- conv3
I1226 13:57:53.984200 94427 net.cpp:573] relu3 -> conv3 (in-place)
I1226 13:57:53.984290 94427 net.cpp:228] Setting up relu3
I1226 13:57:53.984336 94427 net.cpp:235] Top shape: 32 384 13 13 (2076672)
I1226 13:57:53.984359 94427 net.cpp:243] Memory required for data: 234073856
I1226 13:57:53.984419 94427 layer_factory.hpp:114] Creating layer conv4
I1226 13:57:53.984499 94427 net.cpp:178] Creating Layer conv4
I1226 13:57:53.984532 94427 net.cpp:612] conv4 <- conv3
I1226 13:57:53.984578 94427 net.cpp:586] conv4 -> conv4
I1226 13:57:54.147742 92037 net.cpp:228] Setting up conv4
I1226 13:57:54.147850 92037 net.cpp:235] Top shape: 32 384 13 13 (2076672)
I1226 13:57:54.147903 92037 net.cpp:243] Memory required for data: 242380544
I1226 13:57:54.147972 92037 layer_factory.hpp:114] Creating layer relu4
I1226 13:57:54.148037 92037 net.cpp:178] Creating Layer relu4
I1226 13:57:54.148073 92037 net.cpp:612] relu4 <- conv4
I1226 13:57:54.148501 92037 net.cpp:573] relu4 -> conv4 (in-place)
I1226 13:57:54.148664 92037 net.cpp:228] Setting up relu4
I1226 13:57:54.148736 92037 net.cpp:235] Top shape: 32 384 13 13 (2076672)
I1226 13:57:54.148802 92037 net.cpp:243] Memory required for data: 250687232
I1226 13:57:54.148840 92037 layer_factory.hpp:114] Creating layer conv5
I1226 13:57:54.148916 92037 net.cpp:178] Creating Layer conv5
I1226 13:57:54.148952 92037 net.cpp:612] conv5 <- conv4
I1226 13:57:54.149024 92037 net.cpp:586] conv5 -> conv5
I1226 13:57:54.140877 94427 net.cpp:228] Setting up conv4
I1226 13:57:54.140985 94427 net.cpp:235] Top shape: 32 384 13 13 (2076672)
I1226 13:57:54.141012 94427 net.cpp:243] Memory required for data: 242380544
I1226 13:57:54.141096 94427 layer_factory.hpp:114] Creating layer relu4
I1226 13:57:54.141180 94427 net.cpp:178] Creating Layer relu4
I1226 13:57:54.141219 94427 net.cpp:612] relu4 <- conv4
I1226 13:57:54.141258 94427 net.cpp:573] relu4 -> conv4 (in-place)
I1226 13:57:54.141360 94427 net.cpp:228] Setting up relu4
I1226 13:57:54.141443 94427 net.cpp:235] Top shape: 32 384 13 13 (2076672)
I1226 13:57:54.141471 94427 net.cpp:243] Memory required for data: 250687232
I1226 13:57:54.141500 94427 layer_factory.hpp:114] Creating layer conv5
I1226 13:57:54.141573 94427 net.cpp:178] Creating Layer conv5
I1226 13:57:54.141686 94427 net.cpp:612] conv5 <- conv4
I1226 13:57:54.141737 94427 net.cpp:586] conv5 -> conv5
I1226 13:57:54.157737 92257 net.cpp:228] Setting up conv4
I1226 13:57:54.157855 92257 net.cpp:235] Top shape: 32 384 13 13 (2076672)
I1226 13:57:54.157887 92257 net.cpp:243] Memory required for data: 242380544
I1226 13:57:54.157996 92257 layer_factory.hpp:114] Creating layer relu4
I1226 13:57:54.158098 92257 net.cpp:178] Creating Layer relu4
I1226 13:57:54.158149 92257 net.cpp:612] relu4 <- conv4
I1226 13:57:54.158212 92257 net.cpp:573] relu4 -> conv4 (in-place)
I1226 13:57:54.158366 92257 net.cpp:228] Setting up relu4
I1226 13:57:54.158445 92257 net.cpp:235] Top shape: 32 384 13 13 (2076672)
I1226 13:57:54.158516 92257 net.cpp:243] Memory required for data: 250687232
I1226 13:57:54.158584 92257 layer_factory.hpp:114] Creating layer conv5
I1226 13:57:54.158715 92257 net.cpp:178] Creating Layer conv5
I1226 13:57:54.158773 92257 net.cpp:612] conv5 <- conv4
I1226 13:57:54.158845 92257 net.cpp:586] conv5 -> conv5
I1226 13:57:54.265672 91478 net.cpp:228] Setting up conv4
I1226 13:57:54.265784 91478 net.cpp:235] Top shape: 32 384 13 13 (2076672)
I1226 13:57:54.265815 91478 net.cpp:243] Memory required for data: 242380544
I1226 13:57:54.265902 91478 layer_factory.hpp:114] Creating layer relu4
I1226 13:57:54.266008 91478 net.cpp:178] Creating Layer relu4
I1226 13:57:54.266119 91478 net.cpp:612] relu4 <- conv4
I1226 13:57:54.266196 91478 net.cpp:573] relu4 -> conv4 (in-place)
I1226 13:57:54.266412 91478 net.cpp:228] Setting up relu4
I1226 13:57:54.266834 91478 net.cpp:235] Top shape: 32 384 13 13 (2076672)
I1226 13:57:54.266880 91478 net.cpp:243] Memory required for data: 250687232
I1226 13:57:54.266953 91478 layer_factory.hpp:114] Creating layer conv5
I1226 13:57:54.267134 91478 net.cpp:178] Creating Layer conv5
I1226 13:57:54.267233 91478 net.cpp:612] conv5 <- conv4
I1226 13:57:54.267323 91478 net.cpp:586] conv5 -> conv5
I1226 13:57:54.256490 91481 net.cpp:228] Setting up conv4
I1226 13:57:54.256635 91481 net.cpp:235] Top shape: 32 384 13 13 (2076672)
I1226 13:57:54.256708 91481 net.cpp:243] Memory required for data: 242380544
I1226 13:57:54.256834 91481 layer_factory.hpp:114] Creating layer relu4
I1226 13:57:54.257094 91481 net.cpp:178] Creating Layer relu4
I1226 13:57:54.257170 91481 net.cpp:612] relu4 <- conv4
I1226 13:57:54.257616 91481 net.cpp:573] relu4 -> conv4 (in-place)
I1226 13:57:54.258041 91481 net.cpp:228] Setting up relu4
I1226 13:57:54.258148 91481 net.cpp:235] Top shape: 32 384 13 13 (2076672)
I1226 13:57:54.258205 91481 net.cpp:243] Memory required for data: 250687232
I1226 13:57:54.258263 91481 layer_factory.hpp:114] Creating layer conv5
I1226 13:57:54.258522 91481 net.cpp:178] Creating Layer conv5
I1226 13:57:54.258900 91481 net.cpp:612] conv5 <- conv4
I1226 13:57:54.259030 91481 net.cpp:586] conv5 -> conv5
I1226 13:57:54.253089 94427 net.cpp:228] Setting up conv5
I1226 13:57:54.253198 94427 net.cpp:235] Top shape: 32 256 13 13 (1384448)
I1226 13:57:54.253226 94427 net.cpp:243] Memory required for data: 256225024
I1226 13:57:54.253319 94427 layer_factory.hpp:114] Creating layer relu5
I1226 13:57:54.253407 94427 net.cpp:178] Creating Layer relu5
I1226 13:57:54.253442 94427 net.cpp:612] relu5 <- conv5
I1226 13:57:54.253496 94427 net.cpp:573] relu5 -> conv5 (in-place)
I1226 13:57:54.253587 94427 net.cpp:228] Setting up relu5
I1226 13:57:54.253630 94427 net.cpp:235] Top shape: 32 256 13 13 (1384448)
I1226 13:57:54.253654 94427 net.cpp:243] Memory required for data: 261762816
I1226 13:57:54.253682 94427 layer_factory.hpp:114] Creating layer pool5
I1226 13:57:54.253739 94427 net.cpp:178] Creating Layer pool5
I1226 13:57:54.253765 94427 net.cpp:612] pool5 <- conv5
I1226 13:57:54.253813 94427 net.cpp:586] pool5 -> pool5
I1226 13:57:54.253896 94427 net.cpp:228] Setting up pool5
I1226 13:57:54.253942 94427 net.cpp:235] Top shape: 32 256 6 6 (294912)
I1226 13:57:54.253970 94427 net.cpp:243] Memory required for data: 262942464
I1226 13:57:54.253998 94427 layer_factory.hpp:114] Creating layer fc6
I1226 13:57:54.254051 94427 net.cpp:178] Creating Layer fc6
I1226 13:57:54.254076 94427 net.cpp:612] fc6 <- pool5
I1226 13:57:54.254109 94427 net.cpp:586] fc6 -> fc6
I1226 13:57:54.309792 95085 net.cpp:228] Setting up conv2
I1226 13:57:54.309932 95085 net.cpp:235] Top shape: 32 256 27 27 (5971968)
I1226 13:57:54.309967 95085 net.cpp:243] Memory required for data: 164146944
I1226 13:57:54.310048 95085 layer_factory.hpp:114] Creating layer relu2
I1226 13:57:54.310145 95085 net.cpp:178] Creating Layer relu2
I1226 13:57:54.310194 95085 net.cpp:612] relu2 <- conv2
I1226 13:57:54.310238 95085 net.cpp:573] relu2 -> conv2 (in-place)
I1226 13:57:54.310340 95085 net.cpp:228] Setting up relu2
I1226 13:57:54.310395 95085 net.cpp:235] Top shape: 32 256 27 27 (5971968)
I1226 13:57:54.310423 95085 net.cpp:243] Memory required for data: 188034816
I1226 13:57:54.310456 95085 layer_factory.hpp:114] Creating layer norm2
I1226 13:57:54.310516 95085 net.cpp:178] Creating Layer norm2
I1226 13:57:54.310566 95085 net.cpp:612] norm2 <- conv2
I1226 13:57:54.310616 95085 net.cpp:586] norm2 -> norm2
I1226 13:57:54.310717 95085 net.cpp:228] Setting up norm2
I1226 13:57:54.310770 95085 net.cpp:235] Top shape: 32 256 27 27 (5971968)
I1226 13:57:54.310796 95085 net.cpp:243] Memory required for data: 211922688
I1226 13:57:54.310849 95085 layer_factory.hpp:114] Creating layer pool2
I1226 13:57:54.310922 95085 net.cpp:178] Creating Layer pool2
I1226 13:57:54.310962 95085 net.cpp:612] pool2 <- norm2
I1226 13:57:54.311000 95085 net.cpp:586] pool2 -> pool2
I1226 13:57:54.311094 95085 net.cpp:228] Setting up pool2
I1226 13:57:54.311141 95085 net.cpp:235] Top shape: 32 256 13 13 (1384448)
I1226 13:57:54.311267 95085 net.cpp:243] Memory required for data: 217460480
I1226 13:57:54.311305 95085 layer_factory.hpp:114] Creating layer conv3
I1226 13:57:54.311391 95085 net.cpp:178] Creating Layer conv3
I1226 13:57:54.311432 95085 net.cpp:612] conv3 <- pool2
I1226 13:57:54.311486 95085 net.cpp:586] conv3 -> conv3
I1226 13:57:54.325392 92037 net.cpp:228] Setting up conv5
I1226 13:57:54.325498 92037 net.cpp:235] Top shape: 32 256 13 13 (1384448)
I1226 13:57:54.325526 92037 net.cpp:243] Memory required for data: 256225024
I1226 13:57:54.325605 92037 layer_factory.hpp:114] Creating layer relu5
I1226 13:57:54.325671 92037 net.cpp:178] Creating Layer relu5
I1226 13:57:54.325707 92037 net.cpp:612] relu5 <- conv5
I1226 13:57:54.325767 92037 net.cpp:573] relu5 -> conv5 (in-place)
I1226 13:57:54.325863 92037 net.cpp:228] Setting up relu5
I1226 13:57:54.325907 92037 net.cpp:235] Top shape: 32 256 13 13 (1384448)
I1226 13:57:54.325930 92037 net.cpp:243] Memory required for data: 261762816
I1226 13:57:54.325961 92037 layer_factory.hpp:114] Creating layer pool5
I1226 13:57:54.326026 92037 net.cpp:178] Creating Layer pool5
I1226 13:57:54.326067 92037 net.cpp:612] pool5 <- conv5
I1226 13:57:54.326112 92037 net.cpp:586] pool5 -> pool5
I1226 13:57:54.326212 92037 net.cpp:228] Setting up pool5
I1226 13:57:54.326267 92037 net.cpp:235] Top shape: 32 256 6 6 (294912)
I1226 13:57:54.326289 92037 net.cpp:243] Memory required for data: 262942464
I1226 13:57:54.326344 92037 layer_factory.hpp:114] Creating layer fc6
I1226 13:57:54.326409 92037 net.cpp:178] Creating Layer fc6
I1226 13:57:54.326437 92037 net.cpp:612] fc6 <- pool5
I1226 13:57:54.326491 92037 net.cpp:586] fc6 -> fc6
I1226 13:57:54.371770 92257 net.cpp:228] Setting up conv5
I1226 13:57:54.371899 92257 net.cpp:235] Top shape: 32 256 13 13 (1384448)
I1226 13:57:54.371930 92257 net.cpp:243] Memory required for data: 256225024
I1226 13:57:54.372025 92257 layer_factory.hpp:114] Creating layer relu5
I1226 13:57:54.372095 92257 net.cpp:178] Creating Layer relu5
I1226 13:57:54.372131 92257 net.cpp:612] relu5 <- conv5
I1226 13:57:54.372205 92257 net.cpp:573] relu5 -> conv5 (in-place)
I1226 13:57:54.375174 92257 net.cpp:228] Setting up relu5
I1226 13:57:54.375355 92257 net.cpp:235] Top shape: 32 256 13 13 (1384448)
I1226 13:57:54.375422 92257 net.cpp:243] Memory required for data: 261762816
I1226 13:57:54.375468 92257 layer_factory.hpp:114] Creating layer pool5
I1226 13:57:54.375576 92257 net.cpp:178] Creating Layer pool5
I1226 13:57:54.375757 92257 net.cpp:612] pool5 <- conv5
I1226 13:57:54.375828 92257 net.cpp:586] pool5 -> pool5
I1226 13:57:54.375957 92257 net.cpp:228] Setting up pool5
I1226 13:57:54.376018 92257 net.cpp:235] Top shape: 32 256 6 6 (294912)
I1226 13:57:54.376046 92257 net.cpp:243] Memory required for data: 262942464
I1226 13:57:54.376080 92257 layer_factory.hpp:114] Creating layer fc6
I1226 13:57:54.376150 92257 net.cpp:178] Creating Layer fc6
I1226 13:57:54.376186 92257 net.cpp:612] fc6 <- pool5
I1226 13:57:54.376232 92257 net.cpp:586] fc6 -> fc6
I1226 13:57:54.461521 91481 net.cpp:228] Setting up conv5
I1226 13:57:54.461671 91481 net.cpp:235] Top shape: 32 256 13 13 (1384448)
I1226 13:57:54.461710 91481 net.cpp:243] Memory required for data: 256225024
I1226 13:57:54.461841 91481 layer_factory.hpp:114] Creating layer relu5
I1226 13:57:54.462085 91481 net.cpp:178] Creating Layer relu5
I1226 13:57:54.462594 91481 net.cpp:612] relu5 <- conv5
I1226 13:57:54.462733 91481 net.cpp:573] relu5 -> conv5 (in-place)
I1226 13:57:54.462929 91481 net.cpp:228] Setting up relu5
I1226 13:57:54.463039 91481 net.cpp:235] Top shape: 32 256 13 13 (1384448)
I1226 13:57:54.463266 91481 net.cpp:243] Memory required for data: 261762816
I1226 13:57:54.463310 91481 layer_factory.hpp:114] Creating layer pool5
I1226 13:57:54.463387 91481 net.cpp:178] Creating Layer pool5
I1226 13:57:54.463448 91481 net.cpp:612] pool5 <- conv5
I1226 13:57:54.463515 91481 net.cpp:586] pool5 -> pool5
I1226 13:57:54.463665 91481 net.cpp:228] Setting up pool5
I1226 13:57:54.479789 91478 net.cpp:228] Setting up conv5
I1226 13:57:54.479910 91478 net.cpp:235] Top shape: 32 256 13 13 (1384448)
I1226 13:57:54.479945 91478 net.cpp:243] Memory required for data: 256225024
I1226 13:57:54.480046 91478 layer_factory.hpp:114] Creating layer relu5
I1226 13:57:54.480145 91478 net.cpp:178] Creating Layer relu5
I1226 13:57:54.480331 91478 net.cpp:612] relu5 <- conv5
I1226 13:57:54.480386 91478 net.cpp:573] relu5 -> conv5 (in-place)
I1226 13:57:54.480492 91478 net.cpp:228] Setting up relu5
I1226 13:57:54.480552 91478 net.cpp:235] Top shape: 32 256 13 13 (1384448)
I1226 13:57:54.480583 91478 net.cpp:243] Memory required for data: 261762816
I1226 13:57:54.480621 91478 layer_factory.hpp:114] Creating layer pool5
I1226 13:57:54.480890 91478 net.cpp:178] Creating Layer pool5
I1226 13:57:54.480928 91478 net.cpp:612] pool5 <- conv5
I1226 13:57:54.480975 91478 net.cpp:586] pool5 -> pool5
I1226 13:57:54.481091 91478 net.cpp:228] Setting up pool5
I1226 13:57:54.481261 91478 net.cpp:235] Top shape: 32 256 6 6 (294912)
I1226 13:57:54.481324 91478 net.cpp:243] Memory required for data: 262942464
I1226 13:57:54.481529 91478 layer_factory.hpp:114] Creating layer fc6
I1226 13:57:54.481600 91478 net.cpp:178] Creating Layer fc6
I1226 13:57:54.481751 91478 net.cpp:612] fc6 <- pool5
I1226 13:57:54.481798 91478 net.cpp:586] fc6 -> fc6
I1226 13:57:54.476274 91481 net.cpp:235] Top shape: 32 256 6 6 (294912)
I1226 13:57:54.476364 91481 net.cpp:243] Memory required for data: 262942464
I1226 13:57:54.476446 91481 layer_factory.hpp:114] Creating layer fc6
I1226 13:57:54.476550 91481 net.cpp:178] Creating Layer fc6
I1226 13:57:54.476599 91481 net.cpp:612] fc6 <- pool5
I1226 13:57:54.476656 91481 net.cpp:586] fc6 -> fc6
I1226 13:57:54.582486 96716 net.cpp:228] Setting up conv2
I1226 13:57:54.582604 96716 net.cpp:235] Top shape: 32 256 27 27 (5971968)
I1226 13:57:54.582634 96716 net.cpp:243] Memory required for data: 164146944
I1226 13:57:54.582710 96716 layer_factory.hpp:114] Creating layer relu2
I1226 13:57:54.582809 96716 net.cpp:178] Creating Layer relu2
I1226 13:57:54.582846 96716 net.cpp:612] relu2 <- conv2
I1226 13:57:54.582908 96716 net.cpp:573] relu2 -> conv2 (in-place)
I1226 13:57:54.583032 96716 net.cpp:228] Setting up relu2
I1226 13:57:54.583096 96716 net.cpp:235] Top shape: 32 256 27 27 (5971968)
I1226 13:57:54.583122 96716 net.cpp:243] Memory required for data: 188034816
I1226 13:57:54.583154 96716 layer_factory.hpp:114] Creating layer norm2
I1226 13:57:54.583210 96716 net.cpp:178] Creating Layer norm2
I1226 13:57:54.583250 96716 net.cpp:612] norm2 <- conv2
I1226 13:57:54.583302 96716 net.cpp:586] norm2 -> norm2
I1226 13:57:54.583405 96716 net.cpp:228] Setting up norm2
I1226 13:57:54.583454 96716 net.cpp:235] Top shape: 32 256 27 27 (5971968)
I1226 13:57:54.583478 96716 net.cpp:243] Memory required for data: 211922688
I1226 13:57:54.583508 96716 layer_factory.hpp:114] Creating layer pool2
I1226 13:57:54.583554 96716 net.cpp:178] Creating Layer pool2
I1226 13:57:54.583590 96716 net.cpp:612] pool2 <- norm2
I1226 13:57:54.583640 96716 net.cpp:586] pool2 -> pool2
I1226 13:57:54.583732 96716 net.cpp:228] Setting up pool2
I1226 13:57:54.583777 96716 net.cpp:235] Top shape: 32 256 13 13 (1384448)
I1226 13:57:54.583927 96716 net.cpp:243] Memory required for data: 217460480
I1226 13:57:54.583963 96716 layer_factory.hpp:114] Creating layer conv3
I1226 13:57:54.584049 96716 net.cpp:178] Creating Layer conv3
I1226 13:57:54.584087 96716 net.cpp:612] conv3 <- pool2
I1226 13:57:54.584141 96716 net.cpp:586] conv3 -> conv3
I1226 13:57:54.617935 97230 net.cpp:228] Setting up conv2
I1226 13:57:54.618062 97230 net.cpp:235] Top shape: 32 256 27 27 (5971968)
I1226 13:57:54.618103 97230 net.cpp:243] Memory required for data: 164146944
I1226 13:57:54.618207 97230 layer_factory.hpp:114] Creating layer relu2
I1226 13:57:54.618306 97230 net.cpp:178] Creating Layer relu2
I1226 13:57:54.618367 97230 net.cpp:612] relu2 <- conv2
I1226 13:57:54.618456 97230 net.cpp:573] relu2 -> conv2 (in-place)
I1226 13:57:54.618580 97230 net.cpp:228] Setting up relu2
I1226 13:57:54.618656 97230 net.cpp:235] Top shape: 32 256 27 27 (5971968)
I1226 13:57:54.618690 97230 net.cpp:243] Memory required for data: 188034816
I1226 13:57:54.618767 97230 layer_factory.hpp:114] Creating layer norm2
I1226 13:57:54.618850 97230 net.cpp:178] Creating Layer norm2
I1226 13:57:54.618908 97230 net.cpp:612] norm2 <- conv2
I1226 13:57:54.618971 97230 net.cpp:586] norm2 -> norm2
I1226 13:57:54.619137 97230 net.cpp:228] Setting up norm2
I1226 13:57:54.619220 97230 net.cpp:235] Top shape: 32 256 27 27 (5971968)
I1226 13:57:54.619256 97230 net.cpp:243] Memory required for data: 211922688
I1226 13:57:54.619302 97230 layer_factory.hpp:114] Creating layer pool2
I1226 13:57:54.619371 97230 net.cpp:178] Creating Layer pool2
I1226 13:57:54.619424 97230 net.cpp:612] pool2 <- norm2
I1226 13:57:54.619503 97230 net.cpp:586] pool2 -> pool2
I1226 13:57:54.619648 97230 net.cpp:228] Setting up pool2
I1226 13:57:54.619745 97230 net.cpp:235] Top shape: 32 256 13 13 (1384448)
I1226 13:57:54.619913 97230 net.cpp:243] Memory required for data: 217460480
I1226 13:57:54.619966 97230 layer_factory.hpp:114] Creating layer conv3
I1226 13:57:54.620074 97230 net.cpp:178] Creating Layer conv3
I1226 13:57:54.620121 97230 net.cpp:612] conv3 <- pool2
I1226 13:57:54.620190 97230 net.cpp:586] conv3 -> conv3
I1226 13:57:55.185334 95085 net.cpp:228] Setting up conv3
I1226 13:57:55.185453 95085 net.cpp:235] Top shape: 32 384 13 13 (2076672)
I1226 13:57:55.185484 95085 net.cpp:243] Memory required for data: 225767168
I1226 13:57:55.185585 95085 layer_factory.hpp:114] Creating layer relu3
I1226 13:57:55.185736 95085 net.cpp:178] Creating Layer relu3
I1226 13:57:55.185780 95085 net.cpp:612] relu3 <- conv3
I1226 13:57:55.185842 95085 net.cpp:573] relu3 -> conv3 (in-place)
I1226 13:57:55.185953 95085 net.cpp:228] Setting up relu3
I1226 13:57:55.186020 95085 net.cpp:235] Top shape: 32 384 13 13 (2076672)
I1226 13:57:55.186048 95085 net.cpp:243] Memory required for data: 234073856
I1226 13:57:55.186087 95085 layer_factory.hpp:114] Creating layer conv4
I1226 13:57:55.186184 95085 net.cpp:178] Creating Layer conv4
I1226 13:57:55.186223 95085 net.cpp:612] conv4 <- conv3
I1226 13:57:55.186269 95085 net.cpp:586] conv4 -> conv4
I1226 13:57:55.460089 96716 net.cpp:228] Setting up conv3
I1226 13:57:55.460211 96716 net.cpp:235] Top shape: 32 384 13 13 (2076672)
I1226 13:57:55.460247 96716 net.cpp:243] Memory required for data: 225767168
I1226 13:57:55.460351 96716 layer_factory.hpp:114] Creating layer relu3
I1226 13:57:55.460433 96716 net.cpp:178] Creating Layer relu3
I1226 13:57:55.460471 96716 net.cpp:612] relu3 <- conv3
I1226 13:57:55.460521 96716 net.cpp:573] relu3 -> conv3 (in-place)
I1226 13:57:55.460626 96716 net.cpp:228] Setting up relu3
I1226 13:57:55.460697 96716 net.cpp:235] Top shape: 32 384 13 13 (2076672)
I1226 13:57:55.460728 96716 net.cpp:243] Memory required for data: 234073856
I1226 13:57:55.460763 96716 layer_factory.hpp:114] Creating layer conv4
I1226 13:57:55.460896 96716 net.cpp:178] Creating Layer conv4
I1226 13:57:55.461071 96716 net.cpp:612] conv4 <- conv3
I1226 13:57:55.461143 96716 net.cpp:586] conv4 -> conv4
I1226 13:57:55.496577 97230 net.cpp:228] Setting up conv3
I1226 13:57:55.496704 97230 net.cpp:235] Top shape: 32 384 13 13 (2076672)
I1226 13:57:55.496776 97230 net.cpp:243] Memory required for data: 225767168
I1226 13:57:55.496902 97230 layer_factory.hpp:114] Creating layer relu3
I1226 13:57:55.497032 97230 net.cpp:178] Creating Layer relu3
I1226 13:57:55.497095 97230 net.cpp:612] relu3 <- conv3
I1226 13:57:55.497158 97230 net.cpp:573] relu3 -> conv3 (in-place)
I1226 13:57:55.497282 97230 net.cpp:228] Setting up relu3
I1226 13:57:55.497371 97230 net.cpp:235] Top shape: 32 384 13 13 (2076672)
I1226 13:57:55.497411 97230 net.cpp:243] Memory required for data: 234073856
I1226 13:57:55.497457 97230 layer_factory.hpp:114] Creating layer conv4
I1226 13:57:55.497602 97230 net.cpp:178] Creating Layer conv4
I1226 13:57:55.497663 97230 net.cpp:612] conv4 <- conv3
I1226 13:57:55.497762 97230 net.cpp:586] conv4 -> conv4
I1226 13:57:55.910886 95085 net.cpp:228] Setting up conv4
I1226 13:57:55.911003 95085 net.cpp:235] Top shape: 32 384 13 13 (2076672)
I1226 13:57:55.911034 95085 net.cpp:243] Memory required for data: 242380544
I1226 13:57:55.911097 95085 layer_factory.hpp:114] Creating layer relu4
I1226 13:57:55.911188 95085 net.cpp:178] Creating Layer relu4
I1226 13:57:55.911236 95085 net.cpp:612] relu4 <- conv4
I1226 13:57:55.911288 95085 net.cpp:573] relu4 -> conv4 (in-place)
I1226 13:57:55.911392 95085 net.cpp:228] Setting up relu4
I1226 13:57:55.911442 95085 net.cpp:235] Top shape: 32 384 13 13 (2076672)
I1226 13:57:55.911468 95085 net.cpp:243] Memory required for data: 250687232
I1226 13:57:55.911500 95085 layer_factory.hpp:114] Creating layer conv5
I1226 13:57:55.911597 95085 net.cpp:178] Creating Layer conv5
I1226 13:57:55.911638 95085 net.cpp:612] conv5 <- conv4
I1226 13:57:55.911701 95085 net.cpp:586] conv5 -> conv5
I1226 13:57:56.186482 96716 net.cpp:228] Setting up conv4
I1226 13:57:56.186621 96716 net.cpp:235] Top shape: 32 384 13 13 (2076672)
I1226 13:57:56.186666 96716 net.cpp:243] Memory required for data: 242380544
I1226 13:57:56.186730 96716 layer_factory.hpp:114] Creating layer relu4
I1226 13:57:56.186858 96716 net.cpp:178] Creating Layer relu4
I1226 13:57:56.186920 96716 net.cpp:612] relu4 <- conv4
I1226 13:57:56.186969 96716 net.cpp:573] relu4 -> conv4 (in-place)
I1226 13:57:56.187067 96716 net.cpp:228] Setting up relu4
I1226 13:57:56.187127 96716 net.cpp:235] Top shape: 32 384 13 13 (2076672)
I1226 13:57:56.187153 96716 net.cpp:243] Memory required for data: 250687232
I1226 13:57:56.187186 96716 layer_factory.hpp:114] Creating layer conv5
I1226 13:57:56.187286 96716 net.cpp:178] Creating Layer conv5
I1226 13:57:56.187333 96716 net.cpp:612] conv5 <- conv4
I1226 13:57:56.187383 96716 net.cpp:586] conv5 -> conv5
I1226 13:57:56.222374 97230 net.cpp:228] Setting up conv4
I1226 13:57:56.222501 97230 net.cpp:235] Top shape: 32 384 13 13 (2076672)
I1226 13:57:56.222553 97230 net.cpp:243] Memory required for data: 242380544
I1226 13:57:56.222647 97230 layer_factory.hpp:114] Creating layer relu4
I1226 13:57:56.222903 97230 net.cpp:178] Creating Layer relu4
I1226 13:57:56.222959 97230 net.cpp:612] relu4 <- conv4
I1226 13:57:56.223021 97230 net.cpp:573] relu4 -> conv4 (in-place)
I1226 13:57:56.223150 97230 net.cpp:228] Setting up relu4
I1226 13:57:56.223219 97230 net.cpp:235] Top shape: 32 384 13 13 (2076672)
I1226 13:57:56.223254 97230 net.cpp:243] Memory required for data: 250687232
I1226 13:57:56.223294 97230 layer_factory.hpp:114] Creating layer conv5
I1226 13:57:56.223402 97230 net.cpp:178] Creating Layer conv5
I1226 13:57:56.223459 97230 net.cpp:612] conv5 <- conv4
I1226 13:57:56.223513 97230 net.cpp:586] conv5 -> conv5
I1226 13:57:56.412423 95085 net.cpp:228] Setting up conv5
I1226 13:57:56.412567 95085 net.cpp:235] Top shape: 32 256 13 13 (1384448)
I1226 13:57:56.412608 95085 net.cpp:243] Memory required for data: 256225024
I1226 13:57:56.412689 95085 layer_factory.hpp:114] Creating layer relu5
I1226 13:57:56.412891 95085 net.cpp:178] Creating Layer relu5
I1226 13:57:56.412978 95085 net.cpp:612] relu5 <- conv5
I1226 13:57:56.413023 95085 net.cpp:573] relu5 -> conv5 (in-place)
I1226 13:57:56.413141 95085 net.cpp:228] Setting up relu5
I1226 13:57:56.413224 95085 net.cpp:235] Top shape: 32 256 13 13 (1384448)
I1226 13:57:56.413342 95085 net.cpp:243] Memory required for data: 261762816
I1226 13:57:56.413377 95085 layer_factory.hpp:114] Creating layer pool5
I1226 13:57:56.413432 95085 net.cpp:178] Creating Layer pool5
I1226 13:57:56.413494 95085 net.cpp:612] pool5 <- conv5
I1226 13:57:56.413560 95085 net.cpp:586] pool5 -> pool5
I1226 13:57:56.413662 95085 net.cpp:228] Setting up pool5
I1226 13:57:56.413732 95085 net.cpp:235] Top shape: 32 256 6 6 (294912)
I1226 13:57:56.413766 95085 net.cpp:243] Memory required for data: 262942464
I1226 13:57:56.413854 95085 layer_factory.hpp:114] Creating layer fc6
I1226 13:57:56.413934 95085 net.cpp:178] Creating Layer fc6
I1226 13:57:56.413972 95085 net.cpp:612] fc6 <- pool5
I1226 13:57:56.414017 95085 net.cpp:586] fc6 -> fc6
I1226 13:57:56.686738 96716 net.cpp:228] Setting up conv5
I1226 13:57:56.686894 96716 net.cpp:235] Top shape: 32 256 13 13 (1384448)
I1226 13:57:56.686931 96716 net.cpp:243] Memory required for data: 256225024
I1226 13:57:56.687014 96716 layer_factory.hpp:114] Creating layer relu5
I1226 13:57:56.687181 96716 net.cpp:178] Creating Layer relu5
I1226 13:57:56.687233 96716 net.cpp:612] relu5 <- conv5
I1226 13:57:56.687294 96716 net.cpp:573] relu5 -> conv5 (in-place)
I1226 13:57:56.687404 96716 net.cpp:228] Setting up relu5
I1226 13:57:56.687463 96716 net.cpp:235] Top shape: 32 256 13 13 (1384448)
I1226 13:57:56.687489 96716 net.cpp:243] Memory required for data: 261762816
I1226 13:57:56.687521 96716 layer_factory.hpp:114] Creating layer pool5
I1226 13:57:56.687608 96716 net.cpp:178] Creating Layer pool5
I1226 13:57:56.687646 96716 net.cpp:612] pool5 <- conv5
I1226 13:57:56.687690 96716 net.cpp:586] pool5 -> pool5
I1226 13:57:56.687809 96716 net.cpp:228] Setting up pool5
I1226 13:57:56.687868 96716 net.cpp:235] Top shape: 32 256 6 6 (294912)
I1226 13:57:56.687893 96716 net.cpp:243] Memory required for data: 262942464
I1226 13:57:56.687923 96716 layer_factory.hpp:114] Creating layer fc6
I1226 13:57:56.688007 96716 net.cpp:178] Creating Layer fc6
I1226 13:57:56.688046 96716 net.cpp:612] fc6 <- pool5
I1226 13:57:56.688091 96716 net.cpp:586] fc6 -> fc6
I1226 13:57:56.723044 97230 net.cpp:228] Setting up conv5
I1226 13:57:56.723166 97230 net.cpp:235] Top shape: 32 256 13 13 (1384448)
I1226 13:57:56.723196 97230 net.cpp:243] Memory required for data: 256225024
I1226 13:57:56.723276 97230 layer_factory.hpp:114] Creating layer relu5
I1226 13:57:56.723359 97230 net.cpp:178] Creating Layer relu5
I1226 13:57:56.723412 97230 net.cpp:612] relu5 <- conv5
I1226 13:57:56.723474 97230 net.cpp:573] relu5 -> conv5 (in-place)
I1226 13:57:56.723587 97230 net.cpp:228] Setting up relu5
I1226 13:57:56.723640 97230 net.cpp:235] Top shape: 32 256 13 13 (1384448)
I1226 13:57:56.723667 97230 net.cpp:243] Memory required for data: 261762816
I1226 13:57:56.723698 97230 layer_factory.hpp:114] Creating layer pool5
I1226 13:57:56.723779 97230 net.cpp:178] Creating Layer pool5
I1226 13:57:56.723831 97230 net.cpp:612] pool5 <- conv5
I1226 13:57:56.723884 97230 net.cpp:586] pool5 -> pool5
I1226 13:57:56.723986 97230 net.cpp:228] Setting up pool5
I1226 13:57:56.724040 97230 net.cpp:235] Top shape: 32 256 6 6 (294912)
I1226 13:57:56.724071 97230 net.cpp:243] Memory required for data: 262942464
I1226 13:57:56.724102 97230 layer_factory.hpp:114] Creating layer fc6
I1226 13:57:56.724179 97230 net.cpp:178] Creating Layer fc6
I1226 13:57:56.724216 97230 net.cpp:612] fc6 <- pool5
I1226 13:57:56.724258 97230 net.cpp:586] fc6 -> fc6
I1226 13:57:58.918782 93154 net.cpp:228] Setting up fc6
I1226 13:57:58.918895 93154 net.cpp:235] Top shape: 32 4096 (131072)
I1226 13:57:58.918923 93154 net.cpp:243] Memory required for data: 263466752
I1226 13:57:58.918979 93154 layer_factory.hpp:114] Creating layer relu6
I1226 13:57:58.919067 93154 net.cpp:178] Creating Layer relu6
I1226 13:57:58.919116 93154 net.cpp:612] relu6 <- fc6
I1226 13:57:58.919165 93154 net.cpp:573] relu6 -> fc6 (in-place)
I1226 13:57:58.919250 93154 net.cpp:228] Setting up relu6
I1226 13:57:58.919293 93154 net.cpp:235] Top shape: 32 4096 (131072)
I1226 13:57:58.919450 93154 net.cpp:243] Memory required for data: 263991040
I1226 13:57:58.919493 93154 layer_factory.hpp:114] Creating layer drop6
I1226 13:57:58.919564 93154 net.cpp:178] Creating Layer drop6
I1226 13:57:58.919603 93154 net.cpp:612] drop6 <- fc6
I1226 13:57:58.919642 93154 net.cpp:573] drop6 -> fc6 (in-place)
I1226 13:57:58.919701 93154 net.cpp:228] Setting up drop6
I1226 13:57:58.919741 93154 net.cpp:235] Top shape: 32 4096 (131072)
I1226 13:57:58.919764 93154 net.cpp:243] Memory required for data: 264515328
I1226 13:57:58.919790 93154 layer_factory.hpp:114] Creating layer fc7
I1226 13:57:58.919848 93154 net.cpp:178] Creating Layer fc7
I1226 13:57:58.919880 93154 net.cpp:612] fc7 <- fc6
I1226 13:57:58.919917 93154 net.cpp:586] fc7 -> fc7
I1226 13:57:59.395665 94427 net.cpp:228] Setting up fc6
I1226 13:57:59.395786 94427 net.cpp:235] Top shape: 32 4096 (131072)
I1226 13:57:59.395823 94427 net.cpp:243] Memory required for data: 263466752
I1226 13:57:59.395886 94427 layer_factory.hpp:114] Creating layer relu6
I1226 13:57:59.395972 94427 net.cpp:178] Creating Layer relu6
I1226 13:57:59.396126 94427 net.cpp:612] relu6 <- fc6
I1226 13:57:59.396193 94427 net.cpp:573] relu6 -> fc6 (in-place)
I1226 13:57:59.396334 94427 net.cpp:228] Setting up relu6
I1226 13:57:59.396514 94427 net.cpp:235] Top shape: 32 4096 (131072)
I1226 13:57:59.396548 94427 net.cpp:243] Memory required for data: 263991040
I1226 13:57:59.396595 94427 layer_factory.hpp:114] Creating layer drop6
I1226 13:57:59.396656 94427 net.cpp:178] Creating Layer drop6
I1226 13:57:59.396684 94427 net.cpp:612] drop6 <- fc6
I1226 13:57:59.396721 94427 net.cpp:573] drop6 -> fc6 (in-place)
I1226 13:57:59.396786 94427 net.cpp:228] Setting up drop6
I1226 13:57:59.396826 94427 net.cpp:235] Top shape: 32 4096 (131072)
I1226 13:57:59.396848 94427 net.cpp:243] Memory required for data: 264515328
I1226 13:57:59.396874 94427 layer_factory.hpp:114] Creating layer fc7
I1226 13:57:59.396955 94427 net.cpp:178] Creating Layer fc7
I1226 13:57:59.396992 94427 net.cpp:612] fc7 <- fc6
I1226 13:57:59.397029 94427 net.cpp:586] fc7 -> fc7
I1226 13:57:59.630736 91478 net.cpp:228] Setting up fc6
I1226 13:57:59.630853 91478 net.cpp:235] Top shape: 32 4096 (131072)
I1226 13:57:59.630892 91478 net.cpp:243] Memory required for data: 263466752
I1226 13:57:59.630971 91478 layer_factory.hpp:114] Creating layer relu6
I1226 13:57:59.631052 91478 net.cpp:178] Creating Layer relu6
I1226 13:57:59.631103 91478 net.cpp:612] relu6 <- fc6
I1226 13:57:59.631173 91478 net.cpp:573] relu6 -> fc6 (in-place)
I1226 13:57:59.631327 91478 net.cpp:228] Setting up relu6
I1226 13:57:59.631508 91478 net.cpp:235] Top shape: 32 4096 (131072)
I1226 13:57:59.631548 91478 net.cpp:243] Memory required for data: 263991040
I1226 13:57:59.631592 91478 layer_factory.hpp:114] Creating layer drop6
I1226 13:57:59.631660 91478 net.cpp:178] Creating Layer drop6
I1226 13:57:59.631700 91478 net.cpp:612] drop6 <- fc6
I1226 13:57:59.631744 91478 net.cpp:573] drop6 -> fc6 (in-place)
I1226 13:57:59.631811 91478 net.cpp:228] Setting up drop6
I1226 13:57:59.631858 91478 net.cpp:235] Top shape: 32 4096 (131072)
I1226 13:57:59.631885 91478 net.cpp:243] Memory required for data: 264515328
I1226 13:57:59.631911 91478 layer_factory.hpp:114] Creating layer fc7
I1226 13:57:59.631986 91478 net.cpp:178] Creating Layer fc7
I1226 13:57:59.632033 91478 net.cpp:612] fc7 <- fc6
I1226 13:57:59.632074 91478 net.cpp:586] fc7 -> fc7
I1226 13:57:59.621351 91481 net.cpp:228] Setting up fc6
I1226 13:57:59.621470 91481 net.cpp:235] Top shape: 32 4096 (131072)
I1226 13:57:59.621508 91481 net.cpp:243] Memory required for data: 263466752
I1226 13:57:59.621593 91481 layer_factory.hpp:114] Creating layer relu6
I1226 13:57:59.621830 91481 net.cpp:178] Creating Layer relu6
I1226 13:57:59.621912 91481 net.cpp:612] relu6 <- fc6
I1226 13:57:59.622004 91481 net.cpp:573] relu6 -> fc6 (in-place)
I1226 13:57:59.622120 91481 net.cpp:228] Setting up relu6
I1226 13:57:59.622275 91481 net.cpp:235] Top shape: 32 4096 (131072)
I1226 13:57:59.622313 91481 net.cpp:243] Memory required for data: 263991040
I1226 13:57:59.622356 91481 layer_factory.hpp:114] Creating layer drop6
I1226 13:57:59.622433 91481 net.cpp:178] Creating Layer drop6
I1226 13:57:59.622480 91481 net.cpp:612] drop6 <- fc6
I1226 13:57:59.622537 91481 net.cpp:573] drop6 -> fc6 (in-place)
I1226 13:57:59.622614 91481 net.cpp:228] Setting up drop6
I1226 13:57:59.622664 91481 net.cpp:235] Top shape: 32 4096 (131072)
I1226 13:57:59.622696 91481 net.cpp:243] Memory required for data: 264515328
I1226 13:57:59.622732 91481 layer_factory.hpp:114] Creating layer fc7
I1226 13:57:59.622824 91481 net.cpp:178] Creating Layer fc7
I1226 13:57:59.622885 91481 net.cpp:612] fc7 <- fc6
I1226 13:57:59.622948 91481 net.cpp:586] fc7 -> fc7
I1226 13:57:59.641651 92257 net.cpp:228] Setting up fc6
I1226 13:57:59.641772 92257 net.cpp:235] Top shape: 32 4096 (131072)
I1226 13:57:59.641806 92257 net.cpp:243] Memory required for data: 263466752
I1226 13:57:59.641885 92257 layer_factory.hpp:114] Creating layer relu6
I1226 13:57:59.641970 92257 net.cpp:178] Creating Layer relu6
I1226 13:57:59.642019 92257 net.cpp:612] relu6 <- fc6
I1226 13:57:59.642097 92257 net.cpp:573] relu6 -> fc6 (in-place)
I1226 13:57:59.642204 92257 net.cpp:228] Setting up relu6
I1226 13:57:59.642396 92257 net.cpp:235] Top shape: 32 4096 (131072)
I1226 13:57:59.642433 92257 net.cpp:243] Memory required for data: 263991040
I1226 13:57:59.642472 92257 layer_factory.hpp:114] Creating layer drop6
I1226 13:57:59.642551 92257 net.cpp:178] Creating Layer drop6
I1226 13:57:59.642590 92257 net.cpp:612] drop6 <- fc6
I1226 13:57:59.642647 92257 net.cpp:573] drop6 -> fc6 (in-place)
I1226 13:57:59.642717 92257 net.cpp:228] Setting up drop6
I1226 13:57:59.642774 92257 net.cpp:235] Top shape: 32 4096 (131072)
I1226 13:57:59.642804 92257 net.cpp:243] Memory required for data: 264515328
I1226 13:57:59.642839 92257 layer_factory.hpp:114] Creating layer fc7
I1226 13:57:59.642921 92257 net.cpp:178] Creating Layer fc7
I1226 13:57:59.642961 92257 net.cpp:612] fc7 <- fc6
I1226 13:57:59.643007 92257 net.cpp:586] fc7 -> fc7
I1226 13:57:59.720885 92037 net.cpp:228] Setting up fc6
I1226 13:57:59.721002 92037 net.cpp:235] Top shape: 32 4096 (131072)
I1226 13:57:59.721034 92037 net.cpp:243] Memory required for data: 263466752
I1226 13:57:59.721093 92037 layer_factory.hpp:114] Creating layer relu6
I1226 13:57:59.721170 92037 net.cpp:178] Creating Layer relu6
I1226 13:57:59.721213 92037 net.cpp:612] relu6 <- fc6
I1226 13:57:59.721278 92037 net.cpp:573] relu6 -> fc6 (in-place)
I1226 13:57:59.721408 92037 net.cpp:228] Setting up relu6
I1226 13:57:59.721585 92037 net.cpp:235] Top shape: 32 4096 (131072)
I1226 13:57:59.721626 92037 net.cpp:243] Memory required for data: 263991040
I1226 13:57:59.721664 92037 layer_factory.hpp:114] Creating layer drop6
I1226 13:57:59.721729 92037 net.cpp:178] Creating Layer drop6
I1226 13:57:59.721763 92037 net.cpp:612] drop6 <- fc6
I1226 13:57:59.721804 92037 net.cpp:573] drop6 -> fc6 (in-place)
I1226 13:57:59.721868 92037 net.cpp:228] Setting up drop6
I1226 13:57:59.721909 92037 net.cpp:235] Top shape: 32 4096 (131072)
I1226 13:57:59.721932 92037 net.cpp:243] Memory required for data: 264515328
I1226 13:57:59.721962 92037 layer_factory.hpp:114] Creating layer fc7
I1226 13:57:59.722039 92037 net.cpp:178] Creating Layer fc7
I1226 13:57:59.722079 92037 net.cpp:612] fc7 <- fc6
I1226 13:57:59.722126 92037 net.cpp:586] fc7 -> fc7
I1226 13:58:01.202606 93154 net.cpp:228] Setting up fc7
I1226 13:58:01.202718 93154 net.cpp:235] Top shape: 32 4096 (131072)
I1226 13:58:01.202744 93154 net.cpp:243] Memory required for data: 265039616
I1226 13:58:01.202827 93154 layer_factory.hpp:114] Creating layer relu7
I1226 13:58:01.202908 93154 net.cpp:178] Creating Layer relu7
I1226 13:58:01.202951 93154 net.cpp:612] relu7 <- fc7
I1226 13:58:01.202991 93154 net.cpp:573] relu7 -> fc7 (in-place)
I1226 13:58:01.203173 93154 net.cpp:228] Setting up relu7
I1226 13:58:01.203233 93154 net.cpp:235] Top shape: 32 4096 (131072)
I1226 13:58:01.203260 93154 net.cpp:243] Memory required for data: 265563904
I1226 13:58:01.203297 93154 layer_factory.hpp:114] Creating layer drop7
I1226 13:58:01.203337 93154 net.cpp:178] Creating Layer drop7
I1226 13:58:01.203364 93154 net.cpp:612] drop7 <- fc7
I1226 13:58:01.203433 93154 net.cpp:573] drop7 -> fc7 (in-place)
I1226 13:58:01.203490 93154 net.cpp:228] Setting up drop7
I1226 13:58:01.203524 93154 net.cpp:235] Top shape: 32 4096 (131072)
I1226 13:58:01.203549 93154 net.cpp:243] Memory required for data: 266088192
I1226 13:58:01.203577 93154 layer_factory.hpp:114] Creating layer fc8
I1226 13:58:01.203649 93154 net.cpp:178] Creating Layer fc8
I1226 13:58:01.203685 93154 net.cpp:612] fc8 <- fc7
I1226 13:58:01.203733 93154 net.cpp:586] fc8 -> fc8
I1226 13:58:01.683514 94427 net.cpp:228] Setting up fc7
I1226 13:58:01.683624 94427 net.cpp:235] Top shape: 32 4096 (131072)
I1226 13:58:01.683655 94427 net.cpp:243] Memory required for data: 265039616
I1226 13:58:01.683712 94427 layer_factory.hpp:114] Creating layer relu7
I1226 13:58:01.683816 94427 net.cpp:178] Creating Layer relu7
I1226 13:58:01.683917 94427 net.cpp:612] relu7 <- fc7
I1226 13:58:01.683960 94427 net.cpp:573] relu7 -> fc7 (in-place)
I1226 13:58:01.684056 94427 net.cpp:228] Setting up relu7
I1226 13:58:01.684108 94427 net.cpp:235] Top shape: 32 4096 (131072)
I1226 13:58:01.684139 94427 net.cpp:243] Memory required for data: 265563904
I1226 13:58:01.684170 94427 layer_factory.hpp:114] Creating layer drop7
I1226 13:58:01.684221 94427 net.cpp:178] Creating Layer drop7
I1226 13:58:01.684250 94427 net.cpp:612] drop7 <- fc7
I1226 13:58:01.684286 94427 net.cpp:573] drop7 -> fc7 (in-place)
I1226 13:58:01.684448 94427 net.cpp:228] Setting up drop7
I1226 13:58:01.684484 94427 net.cpp:235] Top shape: 32 4096 (131072)
I1226 13:58:01.684509 94427 net.cpp:243] Memory required for data: 266088192
I1226 13:58:01.684545 94427 layer_factory.hpp:114] Creating layer fc8
I1226 13:58:01.684600 94427 net.cpp:178] Creating Layer fc8
I1226 13:58:01.684635 94427 net.cpp:612] fc8 <- fc7
I1226 13:58:01.684691 94427 net.cpp:586] fc8 -> fc8
I1226 13:58:01.763886 93154 net.cpp:228] Setting up fc8
I1226 13:58:01.764003 93154 net.cpp:235] Top shape: 32 1000 (32000)
I1226 13:58:01.764030 93154 net.cpp:243] Memory required for data: 266216192
I1226 13:58:01.764086 93154 layer_factory.hpp:114] Creating layer fc8_fc8_0_split
I1226 13:58:01.764175 93154 net.cpp:178] Creating Layer fc8_fc8_0_split
I1226 13:58:01.764220 93154 net.cpp:612] fc8_fc8_0_split <- fc8
I1226 13:58:01.764266 93154 net.cpp:586] fc8_fc8_0_split -> fc8_fc8_0_split_0
I1226 13:58:01.764334 93154 net.cpp:586] fc8_fc8_0_split -> fc8_fc8_0_split_1
I1226 13:58:01.764439 93154 net.cpp:228] Setting up fc8_fc8_0_split
I1226 13:58:01.764497 93154 net.cpp:235] Top shape: 32 1000 (32000)
I1226 13:58:01.764528 93154 net.cpp:235] Top shape: 32 1000 (32000)
I1226 13:58:01.764551 93154 net.cpp:243] Memory required for data: 266472192
I1226 13:58:01.764587 93154 layer_factory.hpp:114] Creating layer accuracy
I1226 13:58:01.764642 93154 net.cpp:178] Creating Layer accuracy
I1226 13:58:01.764678 93154 net.cpp:612] accuracy <- fc8_fc8_0_split_0
I1226 13:58:01.764706 93154 net.cpp:612] accuracy <- label_data_1_split_0
I1226 13:58:01.764753 93154 net.cpp:586] accuracy -> accuracy
…
I1226 13:58:01.793529 93154 net.cpp:307] data does not need backward computation.
I1226 13:58:01.793555 93154 net.cpp:349] This network produces output accuracy
I1226 13:58:01.793587 93154 net.cpp:349] This network produces output loss
I1226 13:58:01.793681 93154 net.cpp:363] Network initialization done.
I1226 13:58:01.794149 93154 solver.cpp:107] Solver scaffolding done.
I1226 13:58:01.794358 93154 caffe.cpp:212] Finetuning from /export/data1/stanford/hazy/gordon_bell/caffenet_knl/snapshot/caffenet_MN8_B1024/_iter_25000.caffemodel
I1226 13:58:01.869482 91481 net.cpp:228] Setting up fc7
I1226 13:58:01.869601 91481 net.cpp:235] Top shape: 32 4096 (131072)
I1226 13:58:01.869637 91481 net.cpp:243] Memory required for data: 265039616
I1226 13:58:01.869715 91481 layer_factory.hpp:114] Creating layer relu7
I1226 13:58:01.869819 91481 net.cpp:178] Creating Layer relu7
I1226 13:58:01.869894 91481 net.cpp:612] relu7 <- fc7
I1226 13:58:01.869946 91481 net.cpp:573] relu7 -> fc7 (in-place)
I1226 13:58:01.870050 91481 net.cpp:228] Setting up relu7
I1226 13:58:01.870121 91481 net.cpp:235] Top shape: 32 4096 (131072)
I1226 13:58:01.870156 91481 net.cpp:243] Memory required for data: 265563904
I1226 13:58:01.870198 91481 layer_factory.hpp:114] Creating layer drop7
I1226 13:58:01.870265 91481 net.cpp:178] Creating Layer drop7
I1226 13:58:01.870312 91481 net.cpp:612] drop7 <- fc7
I1226 13:58:01.870362 91481 net.cpp:573] drop7 -> fc7 (in-place)
I1226 13:58:01.870424 91481 net.cpp:228] Setting up drop7
I1226 13:58:01.870482 91481 net.cpp:235] Top shape: 32 4096 (131072)
I1226 13:58:01.870514 91481 net.cpp:243] Memory required for data: 266088192
I1226 13:58:01.870550 91481 layer_factory.hpp:114] Creating layer fc8
I1226 13:58:01.870630 91481 net.cpp:178] Creating Layer fc8
I1226 13:58:01.870679 91481 net.cpp:612] fc8 <- fc7
I1226 13:58:01.870757 91481 net.cpp:586] fc8 -> fc8
I1226 13:58:01.892014 91478 net.cpp:228] Setting up fc7
I1226 13:58:01.892122 91478 net.cpp:235] Top shape: 32 4096 (131072)
I1226 13:58:01.892151 91478 net.cpp:243] Memory required for data: 265039616
I1226 13:58:01.892263 91478 layer_factory.hpp:114] Creating layer relu7
I1226 13:58:01.892355 91478 net.cpp:178] Creating Layer relu7
I1226 13:58:01.892408 91478 net.cpp:612] relu7 <- fc7
I1226 13:58:01.892453 91478 net.cpp:573] relu7 -> fc7 (in-place)
I1226 13:58:01.892556 91478 net.cpp:228] Setting up relu7
I1226 13:58:01.892608 91478 net.cpp:235] Top shape: 32 4096 (131072)
I1226 13:58:01.892633 91478 net.cpp:243] Memory required for data: 265563904
I1226 13:58:01.892663 91478 layer_factory.hpp:114] Creating layer drop7
I1226 13:58:01.892712 91478 net.cpp:178] Creating Layer drop7
I1226 13:58:01.892827 91478 net.cpp:612] drop7 <- fc7
I1226 13:58:01.892866 91478 net.cpp:573] drop7 -> fc7 (in-place)
I1226 13:58:01.892911 91478 net.cpp:228] Setting up drop7
I1226 13:58:01.892946 91478 net.cpp:235] Top shape: 32 4096 (131072)
I1226 13:58:01.892967 91478 net.cpp:243] Memory required for data: 266088192
I1226 13:58:01.892994 91478 layer_factory.hpp:114] Creating layer fc8
I1226 13:58:01.893050 91478 net.cpp:178] Creating Layer fc8
I1226 13:58:01.893085 91478 net.cpp:612] fc8 <- fc7
I1226 13:58:01.893122 91478 net.cpp:586] fc8 -> fc8
I1226 13:58:01.924331 92257 net.cpp:228] Setting up fc7
I1226 13:58:01.924444 92257 net.cpp:235] Top shape: 32 4096 (131072)
I1226 13:58:01.924475 92257 net.cpp:243] Memory required for data: 265039616
I1226 13:58:01.924552 92257 layer_factory.hpp:114] Creating layer relu7
I1226 13:58:01.924669 92257 net.cpp:178] Creating Layer relu7
I1226 13:58:01.924716 92257 net.cpp:612] relu7 <- fc7
I1226 13:58:01.924759 92257 net.cpp:573] relu7 -> fc7 (in-place)
I1226 13:58:01.924855 92257 net.cpp:228] Setting up relu7
I1226 13:58:01.924918 92257 net.cpp:235] Top shape: 32 4096 (131072)
I1226 13:58:01.924947 92257 net.cpp:243] Memory required for data: 265563904
I1226 13:58:01.924985 92257 layer_factory.hpp:114] Creating layer drop7
I1226 13:58:01.925053 92257 net.cpp:178] Creating Layer drop7
I1226 13:58:01.925087 92257 net.cpp:612] drop7 <- fc7
I1226 13:58:01.925134 92257 net.cpp:573] drop7 -> fc7 (in-place)
I1226 13:58:01.925194 92257 net.cpp:228] Setting up drop7
I1226 13:58:01.925240 92257 net.cpp:235] Top shape: 32 4096 (131072)
I1226 13:58:01.925274 92257 net.cpp:243] Memory required for data: 266088192
I1226 13:58:01.925341 92257 layer_factory.hpp:114] Creating layer fc8
I1226 13:58:01.925405 92257 net.cpp:178] Creating Layer fc8
I1226 13:58:01.925438 92257 net.cpp:612] fc8 <- fc7
I1226 13:58:01.925479 92257 net.cpp:586] fc8 -> fc8
I1226 13:58:02.036644 92037 net.cpp:228] Setting up fc7
I1226 13:58:02.036757 92037 net.cpp:235] Top shape: 32 4096 (131072)
I1226 13:58:02.036785 92037 net.cpp:243] Memory required for data: 265039616
I1226 13:58:02.036844 92037 layer_factory.hpp:114] Creating layer relu7
I1226 13:58:02.036936 92037 net.cpp:178] Creating Layer relu7
I1226 13:58:02.036983 92037 net.cpp:612] relu7 <- fc7
I1226 13:58:02.037029 92037 net.cpp:573] relu7 -> fc7 (in-place)
I1226 13:58:02.037122 92037 net.cpp:228] Setting up relu7
I1226 13:58:02.037186 92037 net.cpp:235] Top shape: 32 4096 (131072)
I1226 13:58:02.037214 92037 net.cpp:243] Memory required for data: 265563904
I1226 13:58:02.037245 92037 layer_factory.hpp:114] Creating layer drop7
I1226 13:58:02.037300 92037 net.cpp:178] Creating Layer drop7
I1226 13:58:02.037391 92037 net.cpp:612] drop7 <- fc7
I1226 13:58:02.037436 92037 net.cpp:573] drop7 -> fc7 (in-place)
I1226 13:58:02.037492 92037 net.cpp:228] Setting up drop7
I1226 13:58:02.037530 92037 net.cpp:235] Top shape: 32 4096 (131072)
I1226 13:58:02.037554 92037 net.cpp:243] Memory required for data: 266088192
I1226 13:58:02.037582 92037 layer_factory.hpp:114] Creating layer fc8
I1226 13:58:02.037642 92037 net.cpp:178] Creating Layer fc8
I1226 13:58:02.037669 92037 net.cpp:612] fc8 <- fc7
I1226 13:58:02.037710 92037 net.cpp:586] fc8 -> fc8
I1226 13:58:02.253417 94427 net.cpp:228] Setting up fc8
I1226 13:58:02.253542 94427 net.cpp:235] Top shape: 32 1000 (32000)
I1226 13:58:02.253577 94427 net.cpp:243] Memory required for data: 266216192
I1226 13:58:02.253634 94427 layer_factory.hpp:114] Creating layer fc8_fc8_0_split
I1226 13:58:02.253710 94427 net.cpp:178] Creating Layer fc8_fc8_0_split
I1226 13:58:02.253752 94427 net.cpp:612] fc8_fc8_0_split <- fc8
I1226 13:58:02.253798 94427 net.cpp:586] fc8_fc8_0_split -> fc8_fc8_0_split_0
I1226 13:58:02.253862 94427 net.cpp:586] fc8_fc8_0_split -> fc8_fc8_0_split_1
I1226 13:58:02.253948 94427 net.cpp:228] Setting up fc8_fc8_0_split
I1226 13:58:02.253999 94427 net.cpp:235] Top shape: 32 1000 (32000)
I1226 13:58:02.254029 94427 net.cpp:235] Top shape: 32 1000 (32000)
I1226 13:58:02.254051 94427 net.cpp:243] Memory required for data: 266472192
I1226 13:58:02.254081 94427 layer_factory.hpp:114] Creating layer accuracy
I1226 13:58:02.254128 94427 net.cpp:178] Creating Layer accuracy
I1226 13:58:02.254163 94427 net.cpp:612] accuracy <- fc8_fc8_0_split_0
I1226 13:58:02.254194 94427 net.cpp:612] accuracy <- label_data_1_split_0
I1226 13:58:02.254230 94427 net.cpp:586] accuracy -> accuracy
…
I1226 13:58:02.287611 94427 net.cpp:307] data does not need backward computation.
I1226 13:58:02.287648 94427 net.cpp:349] This network produces output accuracy
I1226 13:58:02.287684 94427 net.cpp:349] This network produces output loss
I1226 13:58:02.287771 94427 net.cpp:363] Network initialization done.
I1226 13:58:02.288213 94427 solver.cpp:107] Solver scaffolding done.
I1226 13:58:02.288449 94427 caffe.cpp:212] Finetuning from /export/data1/stanford/hazy/gordon_bell/caffenet_knl/snapshot/caffenet_MN8_B1024/_iter_25000.caffemodel
I1226 13:58:02.438464 91478 net.cpp:228] Setting up fc8
I1226 13:58:02.438593 91478 net.cpp:235] Top shape: 32 1000 (32000)
I1226 13:58:02.438627 91478 net.cpp:243] Memory required for data: 266216192
I1226 13:58:02.438709 91478 layer_factory.hpp:114] Creating layer fc8_fc8_0_split
I1226 13:58:02.438786 91478 net.cpp:178] Creating Layer fc8_fc8_0_split
I1226 13:58:02.438920 91478 net.cpp:612] fc8_fc8_0_split <- fc8
I1226 13:58:02.438961 91478 net.cpp:586] fc8_fc8_0_split -> fc8_fc8_0_split_0
I1226 13:58:02.439007 91478 net.cpp:586] fc8_fc8_0_split -> fc8_fc8_0_split_1
I1226 13:58:02.439097 91478 net.cpp:228] Setting up fc8_fc8_0_split
I1226 13:58:02.439153 91478 net.cpp:235] Top shape: 32 1000 (32000)
I1226 13:58:02.439184 91478 net.cpp:235] Top shape: 32 1000 (32000)
I1226 13:58:02.439231 91478 net.cpp:243] Memory required for data: 266472192
I1226 13:58:02.439270 91478 layer_factory.hpp:114] Creating layer accuracy
I1226 13:58:02.439327 91478 net.cpp:178] Creating Layer accuracy
I1226 13:58:02.439366 91478 net.cpp:612] accuracy <- fc8_fc8_0_split_0
I1226 13:58:02.439399 91478 net.cpp:612] accuracy <- label_data_1_split_0
I1226 13:58:02.439435 91478 net.cpp:586] accuracy -> accuracy
I1226 13:58:02.439484 91478 net.cpp:228] Setting up accuracy
I1226 13:58:02.439525 91478 net.cpp:235] Top shape: (1)
I1226 13:58:02.439548 91478 net.cpp:243] Memory required for data: 266472196
I1226 13:58:02.439575 91478 layer_factory.hpp:114] Creating layer loss
I1226 13:58:02.439625 91478 net.cpp:178] Creating Layer loss
I1226 13:58:02.439656 91478 net.cpp:612] loss <- fc8_fc8_0_split_1
I1226 13:58:02.439702 91478 net.cpp:612] loss <- label_data_1_split_1
I1226 13:58:02.439752 91478 net.cpp:586] loss -> loss
I1226 13:58:02.439813 91478 layer_factory.hpp:114] Creating layer loss
I1226 13:58:02.431481 91481 net.cpp:228] Setting up fc8
I1226 13:58:02.431622 91481 net.cpp:235] Top shape: 32 1000 (32000)
I1226 13:58:02.431661 91481 net.cpp:243] Memory required for data: 266216192
I1226 13:58:02.431741 91481 layer_factory.hpp:114] Creating layer fc8_fc8_0_split
I1226 13:58:02.431820 91481 net.cpp:178] Creating Layer fc8_fc8_0_split
I1226 13:58:02.431896 91481 net.cpp:612] fc8_fc8_0_split <- fc8
I1226 13:58:02.431958 91481 net.cpp:586] fc8_fc8_0_split -> fc8_fc8_0_split_0
I1226 13:58:02.432047 91481 net.cpp:586] fc8_fc8_0_split -> fc8_fc8_0_split_1
I1226 13:58:02.432183 91481 net.cpp:228] Setting up fc8_fc8_0_split
I1226 13:58:02.432250 91481 net.cpp:235] Top shape: 32 1000 (32000)
I1226 13:58:02.432301 91481 net.cpp:235] Top shape: 32 1000 (32000)
I1226 13:58:02.432333 91481 net.cpp:243] Memory required for data: 266472192
I1226 13:58:02.432374 91481 layer_factory.hpp:114] Creating layer accuracy
I1226 13:58:02.432445 91481 net.cpp:178] Creating Layer accuracy
I1226 13:58:02.432490 91481 net.cpp:612] accuracy <- fc8_fc8_0_split_0
I1226 13:58:02.432535 91481 net.cpp:612] accuracy <- label_data_1_split_0
I1226 13:58:02.432585 91481 net.cpp:586] accuracy -> accuracy
…
I1226 13:58:05.677922 91478 caffe.cpp:392] Starting Multi-node Optimization in mpi environment
I1226 13:58:05.770656 92257 caffe.cpp:376] Configuring multinode setup
I1226 13:58:05.772099 92257 caffe.cpp:392] Starting Multi-node Optimization in mpi environment
I1226 13:58:05.902395 92037 caffe.cpp:376] Configuring multinode setup
I1226 13:58:05.903831 92037 caffe.cpp:392] Starting Multi-node Optimization in mpi environment
I1226 13:58:06.543006 91481 caffe.cpp:376] Configuring multinode setup
I1226 13:58:06.544497 91481 caffe.cpp:392] Starting Multi-node Optimization in mpi environment
I1226 13:58:25.807294 95085 net.cpp:228] Setting up fc6
I1226 13:58:25.807565 95085 net.cpp:235] Top shape: 32 4096 (131072)
I1226 13:58:25.807610 95085 net.cpp:243] Memory required for data: 263466752
I1226 13:58:25.807677 95085 layer_factory.hpp:114] Creating layer relu6
I1226 13:58:25.807890 95085 net.cpp:178] Creating Layer relu6
I1226 13:58:25.807950 95085 net.cpp:612] relu6 <- fc6
I1226 13:58:25.808001 95085 net.cpp:573] relu6 -> fc6 (in-place)
I1226 13:58:25.808117 95085 net.cpp:228] Setting up relu6
I1226 13:58:25.808171 95085 net.cpp:235] Top shape: 32 4096 (131072)
I1226 13:58:25.808198 95085 net.cpp:243] Memory required for data: 263991040
I1226 13:58:25.808230 95085 layer_factory.hpp:114] Creating layer drop6
I1226 13:58:25.808295 95085 net.cpp:178] Creating Layer drop6
I1226 13:58:25.808336 95085 net.cpp:612] drop6 <- fc6
I1226 13:58:25.808375 95085 net.cpp:573] drop6 -> fc6 (in-place)
I1226 13:58:25.808437 95085 net.cpp:228] Setting up drop6
I1226 13:58:25.808482 95085 net.cpp:235] Top shape: 32 4096 (131072)
I1226 13:58:25.808508 95085 net.cpp:243] Memory required for data: 264515328
I1226 13:58:25.808545 95085 layer_factory.hpp:114] Creating layer fc7
I1226 13:58:25.808612 95085 net.cpp:178] Creating Layer fc7
I1226 13:58:25.808647 95085 net.cpp:612] fc7 <- fc6
I1226 13:58:25.808703 95085 net.cpp:586] fc7 -> fc7
I1226 13:58:26.096499 96716 net.cpp:228] Setting up fc6
I1226 13:58:26.096758 96716 net.cpp:235] Top shape: 32 4096 (131072)
I1226 13:58:26.096843 96716 net.cpp:243] Memory required for data: 263466752
I1226 13:58:26.096920 96716 layer_factory.hpp:114] Creating layer relu6
I1226 13:58:26.097003 96716 net.cpp:178] Creating Layer relu6
I1226 13:58:26.097050 96716 net.cpp:612] relu6 <- fc6
I1226 13:58:26.097093 96716 net.cpp:573] relu6 -> fc6 (in-place)
I1226 13:58:26.097198 96716 net.cpp:228] Setting up relu6
I1226 13:58:26.097249 96716 net.cpp:235] Top shape: 32 4096 (131072)
I1226 13:58:26.097277 96716 net.cpp:243] Memory required for data: 263991040
I1226 13:58:26.097311 96716 layer_factory.hpp:114] Creating layer drop6
I1226 13:58:26.097374 96716 net.cpp:178] Creating Layer drop6
I1226 13:58:26.097409 96716 net.cpp:612] drop6 <- fc6
I1226 13:58:26.097448 96716 net.cpp:573] drop6 -> fc6 (in-place)
I1226 13:58:26.097523 96716 net.cpp:228] Setting up drop6
I1226 13:58:26.097573 96716 net.cpp:235] Top shape: 32 4096 (131072)
I1226 13:58:26.097599 96716 net.cpp:243] Memory required for data: 264515328
I1226 13:58:26.097635 96716 layer_factory.hpp:114] Creating layer fc7
I1226 13:58:26.097718 96716 net.cpp:178] Creating Layer fc7
I1226 13:58:26.097757 96716 net.cpp:612] fc7 <- fc6
I1226 13:58:26.097837 96716 net.cpp:586] fc7 -> fc7
I1226 13:58:26.124691 97230 net.cpp:228] Setting up fc6
I1226 13:58:26.124984 97230 net.cpp:235] Top shape: 32 4096 (131072)
I1226 13:58:26.125030 97230 net.cpp:243] Memory required for data: 263466752
I1226 13:58:26.125092 97230 layer_factory.hpp:114] Creating layer relu6
I1226 13:58:26.125164 97230 net.cpp:178] Creating Layer relu6
I1226 13:58:26.125213 97230 net.cpp:612] relu6 <- fc6
I1226 13:58:26.125255 97230 net.cpp:573] relu6 -> fc6 (in-place)
I1226 13:58:26.125370 97230 net.cpp:228] Setting up relu6
I1226 13:58:26.125430 97230 net.cpp:235] Top shape: 32 4096 (131072)
I1226 13:58:26.125458 97230 net.cpp:243] Memory required for data: 263991040
I1226 13:58:26.125504 97230 layer_factory.hpp:114] Creating layer drop6
I1226 13:58:26.125568 97230 net.cpp:178] Creating Layer drop6
I1226 13:58:26.125638 97230 net.cpp:612] drop6 <- fc6
I1226 13:58:26.125689 97230 net.cpp:573] drop6 -> fc6 (in-place)
I1226 13:58:26.125779 97230 net.cpp:228] Setting up drop6
I1226 13:58:26.125831 97230 net.cpp:235] Top shape: 32 4096 (131072)
I1226 13:58:26.125891 97230 net.cpp:243] Memory required for data: 264515328
I1226 13:58:26.125923 97230 layer_factory.hpp:114] Creating layer fc7
I1226 13:58:26.126009 97230 net.cpp:178] Creating Layer fc7
I1226 13:58:26.126044 97230 net.cpp:612] fc7 <- fc6
I1226 13:58:26.126127 97230 net.cpp:586] fc7 -> fc7
I1226 13:58:38.870443 95085 net.cpp:228] Setting up fc7
I1226 13:58:38.870558 95085 net.cpp:235] Top shape: 32 4096 (131072)
I1226 13:58:38.870594 95085 net.cpp:243] Memory required for data: 265039616
I1226 13:58:38.870654 95085 layer_factory.hpp:114] Creating layer relu7
I1226 13:58:38.870734 95085 net.cpp:178] Creating Layer relu7
I1226 13:58:38.870780 95085 net.cpp:612] relu7 <- fc7
I1226 13:58:38.870872 95085 net.cpp:573] relu7 -> fc7 (in-place)
I1226 13:58:38.870985 95085 net.cpp:228] Setting up relu7
I1226 13:58:38.871042 95085 net.cpp:235] Top shape: 32 4096 (131072)
I1226 13:58:38.871073 95085 net.cpp:243] Memory required for data: 265563904
I1226 13:58:38.871114 95085 layer_factory.hpp:114] Creating layer drop7
I1226 13:58:38.871160 95085 net.cpp:178] Creating Layer drop7
I1226 13:58:38.871194 95085 net.cpp:612] drop7 <- fc7
I1226 13:58:38.871253 95085 net.cpp:573] drop7 -> fc7 (in-place)
I1226 13:58:38.871309 95085 net.cpp:228] Setting up drop7
I1226 13:58:38.871352 95085 net.cpp:235] Top shape: 32 4096 (131072)
I1226 13:58:38.871382 95085 net.cpp:243] Memory required for data: 266088192
I1226 13:58:38.871419 95085 layer_factory.hpp:114] Creating layer fc8
I1226 13:58:38.871482 95085 net.cpp:178] Creating Layer fc8
I1226 13:58:38.871516 95085 net.cpp:612] fc8 <- fc7
I1226 13:58:38.871567 95085 net.cpp:586] fc8 -> fc8
I1226 13:58:39.155215 96716 net.cpp:228] Setting up fc7
I1226 13:58:39.155326 96716 net.cpp:235] Top shape: 32 4096 (131072)
I1226 13:58:39.155364 96716 net.cpp:243] Memory required for data: 265039616
I1226 13:58:39.155427 96716 layer_factory.hpp:114] Creating layer relu7
I1226 13:58:39.155519 96716 net.cpp:178] Creating Layer relu7
I1226 13:58:39.155573 96716 net.cpp:612] relu7 <- fc7
I1226 13:58:39.155619 96716 net.cpp:573] relu7 -> fc7 (in-place)
I1226 13:58:39.155716 96716 net.cpp:228] Setting up relu7
I1226 13:58:39.155766 96716 net.cpp:235] Top shape: 32 4096 (131072)
I1226 13:58:39.155820 96716 net.cpp:243] Memory required for data: 265563904
I1226 13:58:39.155859 96716 layer_factory.hpp:114] Creating layer drop7
I1226 13:58:39.155900 96716 net.cpp:178] Creating Layer drop7
I1226 13:58:39.155928 96716 net.cpp:612] drop7 <- fc7
I1226 13:58:39.155982 96716 net.cpp:573] drop7 -> fc7 (in-place)
I1226 13:58:39.156033 96716 net.cpp:228] Setting up drop7
I1226 13:58:39.156071 96716 net.cpp:235] Top shape: 32 4096 (131072)
I1226 13:58:39.156097 96716 net.cpp:243] Memory required for data: 266088192
I1226 13:58:39.156126 96716 layer_factory.hpp:114] Creating layer fc8
I1226 13:58:39.156185 96716 net.cpp:178] Creating Layer fc8
I1226 13:58:39.156227 96716 net.cpp:612] fc8 <- fc7
I1226 13:58:39.156272 96716 net.cpp:586] fc8 -> fc8
I1226 13:58:39.194397 97230 net.cpp:228] Setting up fc7
I1226 13:58:39.194516 97230 net.cpp:235] Top shape: 32 4096 (131072)
I1226 13:58:39.194551 97230 net.cpp:243] Memory required for data: 265039616
I1226 13:58:39.194615 97230 layer_factory.hpp:114] Creating layer relu7
I1226 13:58:39.194828 97230 net.cpp:178] Creating Layer relu7
I1226 13:58:39.194874 97230 net.cpp:612] relu7 <- fc7
I1226 13:58:39.194914 97230 net.cpp:573] relu7 -> fc7 (in-place)
I1226 13:58:39.195008 97230 net.cpp:228] Setting up relu7
I1226 13:58:39.195051 97230 net.cpp:235] Top shape: 32 4096 (131072)
I1226 13:58:39.195076 97230 net.cpp:243] Memory required for data: 265563904
I1226 13:58:39.195106 97230 layer_factory.hpp:114] Creating layer drop7
I1226 13:58:39.195143 97230 net.cpp:178] Creating Layer drop7
I1226 13:58:39.195169 97230 net.cpp:612] drop7 <- fc7
I1226 13:58:39.195216 97230 net.cpp:573] drop7 -> fc7 (in-place)
I1226 13:58:39.195263 97230 net.cpp:228] Setting up drop7
I1226 13:58:39.195297 97230 net.cpp:235] Top shape: 32 4096 (131072)
I1226 13:58:39.195319 97230 net.cpp:243] Memory required for data: 266088192
I1226 13:58:39.195346 97230 layer_factory.hpp:114] Creating layer fc8
I1226 13:58:39.195400 97230 net.cpp:178] Creating Layer fc8
I1226 13:58:39.195427 97230 net.cpp:612] fc8 <- fc7
I1226 13:58:39.195463 97230 net.cpp:586] fc8 -> fc8
I1226 13:58:42.061367 95085 net.cpp:228] Setting up fc8
I1226 13:58:42.061483 95085 net.cpp:235] Top shape: 32 1000 (32000)
I1226 13:58:42.061522 95085 net.cpp:243] Memory required for data: 266216192
I1226 13:58:42.061586 95085 layer_factory.hpp:114] Creating layer fc8_fc8_0_split
I1226 13:58:42.061764 95085 net.cpp:178] Creating Layer fc8_fc8_0_split
I1226 13:58:42.061841 95085 net.cpp:612] fc8_fc8_0_split <- fc8
I1226 13:58:42.061897 95085 net.cpp:586] fc8_fc8_0_split -> fc8_fc8_0_split_0
I1226 13:58:42.061951 95085 net.cpp:586] fc8_fc8_0_split -> fc8_fc8_0_split_1
I1226 13:58:42.062063 95085 net.cpp:228] Setting up fc8_fc8_0_split
I1226 13:58:42.062124 95085 net.cpp:235] Top shape: 32 1000 (32000)
I1226 13:58:42.062157 95085 net.cpp:235] Top shape: 32 1000 (32000)
I1226 13:58:42.062183 95085 net.cpp:243] Memory required for data: 266472192
I1226 13:58:42.062216 95085 layer_factory.hpp:114] Creating layer accuracy
I1226 13:58:42.062296 95085 net.cpp:178] Creating Layer accuracy
I1226 13:58:42.062340 95085 net.cpp:612] accuracy <- fc8_fc8_0_split_0
I1226 13:58:42.062386 95085 net.cpp:612] accuracy <- label_data_1_split_0
I1226 13:58:42.062425 95085 net.cpp:586] accuracy -> accuracy
…
